nets/model_epoch_24.pth (torch, 648794 bytes, 25 tensors)

a1.weight f4 [16, 5, 3, 3]
0	0x3d97729c	0.07394907
1	0x3dc3849f	0.0954678
2	0xbc65656a	-0.01400123
3	0xbda36508	-0.079782546
4	0xbd21b43c	-0.039478526
5	0x3e0ae29d	0.13563009
6	0xbcb9fa4c	-0.022702359
7	0x3d0ff6f4	0.035147622
8	0xbeba06ca	-0.36333305
9	0xbcef5a9d	-0.029218012
10	0xbd493468	-0.049122244
11	0xbe1b5127	-0.15167676
12	0x3da9552f	0.082682006
13	0xbd1ae519	-0.03781614
14	0xbe187383	-0.14887814
15	0xbe916c78	-0.28403068
16	0xbdae819d	-0.085208155
17	0xbe06716a	-0.13129202
18	0x3d07bf10	0.033141196
19	0xbdde0cbd	-0.108422734
20	0x3ab3798f	0.0013692843
21	0x3c4d0380	0.0125130415
22	0xbe0a5d16	-0.13512072
23	0x3db0ca6e	0.086323604
24	0xbe650fe8	-0.22369349
25	0xbe1dd00b	-0.15411393
26	0x3c66e9e4	0.01409385
27	0xbe41c072	-0.18921068
28	0xbd2117a0	-0.03932917
29	0x3d725a91	0.059168402
30	0xbe0782d2	-0.13233498
31	0xbca281e4	-0.019837327
32	0xbebaad43	-0.36460313
33	0xbe7e0c5a	-0.24809399
34	0xbdaf3dec	-0.085567325
35	0x3de3cd73	0.11123171
36	0xbe2c385e	-0.16818377
37	0xbd94e210	-0.072696805
38	0xbe149ec5	-0.14513691
39	0xbcef8598	-0.029238507
40	0xbe3782de	-0.17921016
41	0xbe0107a1	-0.12600566
42	0xbc302c08	-0.010752685
43	0xbdf2d942	-0.11857845
44	0xbd3d49b4	-0.046212867
45	0x3e2f0016	0.17089877
46	0xbdd8d7b0	-0.10588014
47	0xbd98d362	-0.07462193
48	0x3e8eb2fc	0.2787093
49	0x3d09aa1c	0.033609495
50	0x3e935fbe	0.28783983
51	0xbc672c64	-0.014109705
52	0x3ee14f11	0.44005635
53	0xbe3e21bc	-0.18567556
54	0x3d9aa9a2	0.07551886
55	0x3e7d2716	0.24721941
56	0x3d722920	0.05912125
57	0x3c300c74	0.010745157
58	0x3e3ebe87	0.18627368
59	0x3c118417	0.00888159
60	0x3da96a18	0.08272189
61	0xbee437f4	-0.4457394
62	0x3cd4ac19	0.025960969
63	0x3e3d4da3	0.18486647
64	0xbdb62a6e	-0.088948116
65	0xbdb62e47	-0.088955455
66	0x3e99559c	0.29948127
67	0x3d0390e3	0.032120597
68	0xbeb924b1	-0.36160806
69	0xbdd3e864	-0.10347059
70	0xbe1301e9	-0.14356197
71	0x3d8abda9	0.06774456
72	0xbc001a40	-0.0078187585
73	0xbeb12a92	-0.3460279
74	0xbea4d93e	-0.32196993
75	0x3af8a133	0.001896894
76	0x3e86b354	0.26308692
77	0x3db5a2c4	0.08868936
78	0x3dea95ab	0.11454328
79	0x3dc80b4d	0.097677805
80	0xbecd9151	-0.4014993
81	0x3c4d1d11	0.012519137
82	0x3d251e7b	0.04031227
83	0xbc1765e8	-0.009240605
84	0x3d97de1a	0.074154094
85	0x3cc738b6	0.024319034
86	0xbd16ecb1	-0.03684682
87	0xbd998568	-0.07496148
88	0xbd8dea83	-0.06929495
89	0x3cdfe72f	0.027331917
90	0xbe857f68	-0.26073766
91	0x3da625b4	0.0811266
92	0x3e9c7f73	0.30565986
93	0x3d0816f6	0.033225022
94	0x3e38db27	0.1805235
95	0x3c819d1e	0.01582199
96	0x3ee67b18	0.45015788
97	0x3ec87eab	0.3915914
98	0x3d9af1b5	0.07565633
99	0x3e1f1906	0.1553689
100	0x3e2ea4f4	0.17055112
101	0x3e31da1d	0.1736836
102	0xbd08a46a	-0.033359922
103	0xbc319f1c	-0.010841157
104	0xbba0054e	-0.004883445
105	0xbd7db398	-0.061938852
106	0xbe035008	-0.12823498
107	0x3daa2ddd	0.08309529
108	0x3e4da764	0.20083386
109	0x3eb8cc7b	0.36093506
110	0x3e37851e	0.17921874
111	0x3d950890	0.07277024
112	0xbe1e253a	-0.15443888
113	0x3e879ef6	0.26488465
114	0xbe891ec6	-0.2678129
115	0xbdcc6db2	-0.0998186
116	0x3e0d805a	0.13818493
117	0xbc3a80df	-0.011383264
118	0xbe7870b0	-0.24261737
119	0xbe54a9d5	-0.20767911
120	0x3d100329	0.035159264
121	0xbe0622a8	-0.13099158
122	0xbc9b835a	-0.018983532
123	0x3d4ed8a9	0.050499592
124	0x3d1ba143	0.037995588
125	0xbe84bcd0	-0.25925303
126	0xbc4d4dba	-0.0125307385
127	0x3d2bf9b2	0.041986175
128	0x3cb379b5	0.02190862
129	0xbd3c832a	-0.046023525
130	0x3ddc938b	0.10770329
131	0xbe054a75	-0.13016684
132	0xbc9068b9	-0.01762806
133	0xbd6517d7	-0.05593094
134	0x3d83415a	0.06408949
135	0x3e22e6c0	0.15908337
136	0x3dcca597	0.09992521
137	0xbe65287d	-0.22378726
138	0x3e1c24a0	0.15248346
139	0x3dd67137	0.10470813
140	0xbe672dde	-0.2257609
141	0x3d663094	0.05619867
142	0xbe9b97f2	-0.30389363
143	0x3e7f8d61	0.24956276
144	0xbe12c14f	-0.14331554
145	0xbeb78a0c	-0.3584751
146	0xbe42a424	-0.19007927
147	0xbea0a4d0	-0.31375742
148	0xbd0ac1f3	-0.03387637
149	0xbeec53bf	-0.46157643
150	0x3c8bcf22	0.017066542
151	0x3d0079af	0.031366047
152	0xbd011578	-0.031514615
153	0xbc8cc07c	-0.017181627
154	0x3dbac385	0.09119324
155	0x3d1fe0a4	0.039032593
156	0xbe28789d	-0.1645226
157	0xbd99d7fd	-0.075118996
158	0xbe7e8fc2	-0.24859527
159	0xbe0248c4	-0.1272307
160	0xbe2076f6	-0.1567038
161	0x3e9b553a	0.3033846
162	0x3e34c4b0	0.17653155
163	0x3e660d16	0.2246593
164	0x3e3ec860	0.18631124
165	0x3e957de3	0.29197606
166	0xbde0d179	-0.10977454
167	0x3ef8a808	0.48565698
168	0x3e0f8e3b	0.140191
169	0xbd12419b	-0.035707098
170	0xbe4fad01	-0.2028084
171	0xbcf11029	-0.029426651
172	0x3d148938	0.036263674
173	0x3d4f82ad	0.05066173
174	0xbc621256	-0.013798317
175	0xbcbcd211	-0.023049386
176	0xbc2a2100	-0.010383844
177	0x3d557e19	0.05212221
178	0xbd3741a2	-0.044740327
179	0xbc7b5ffb	-0.015342708
180	0x3e2c2f3a	0.1681489
181	0x3c82178d	0.01588037
182	0xbe3ff89a	-0.18747178
183	0x3da7c2e4	0.08191469
184	0x3e02917e	0.12750813
185	0x3e8026c5	0.2502958
186	0x3d822230	0.06354177
187	0x3e1ea0c9	0.15491022
188	0x3e846d03	0.2586442
189	0x3e1143f7	0.14186083
190	0xbdb24237	-0.08704036
191	0x3d483b1f	0.048884507
192	0xbe4f7b39	-0.2026185
193	0xbd4c31c0	-0.049852133
194	0xbe108232	-0.14112166
195	0x3e25fa78	0.16208827
196	0x3d8ee314	0.069769055
197	0xbdee21c0	-0.11627531
198	0x3dcbb3ee	0.09946428
199	0x3e11ff5b	0.14257567
200	0x3ebdfbed	0.37106267
201	0xbd582c0a	-0.052776374
202	0xbc9dced8	-0.01926367
203	0xbdcb59d8	-0.09929246
204	0xbe81fa72	-0.25386387
205	0x3e862244	0.26198018
206	0xbcbbf652	-0.022944603
207	0xbdff9c9c	-0.12481043
208	0xbeb6612e	-0.35621017
209	0xbeac7e8f	-0.33690307
210	0x3dafb06d	0.085785724
211	0x3d846cc4	0.06466058
212	0xbe13c9ad	-0.14432402
213	0xbe231de4	-0.15929371
214	0xbd158755	-0.036506016
215	0x3d1305e8	0.035894305
216	0xbc890b7e	-0.016729113
217	0x3ca2b1ef	0.019860236
218	0xbcfd8ee1	-0.030951919
219	0x3d4be070	0.049774587
220	0xbdd206fd	-0.10255239
221	0x3cc1446d	0.023592198
222	0x3cbcd012	0.023048434
223	0x3dd0d86e	0.10197531
224	0xbd76f1b0	-0.060289085
225	0xbda86f6c	-0.08224377
226	0xbd7fa283	-0.062410843
227	0x3e5953f6	0.21223435
228	0xbd2e24d0	-0.042515576
229	0xbdf37115	-0.11886803
230	0xbd35e379	-0.044406388
231	0x3e1f76de	0.15572688
232	0xbe092865	-0.13394316
233	0x3e9b3785	0.30315796
234	0xbcf0af02	-0.029380325
235	0x3eac8aa0	0.33699512
236	0x3e875dc3	0.26438722
237	0x39b05c2c	0.0003363801
238	0xbcd28228	-0.025696829
239	0xbe892e1e	-0.26792997
240	0x3d2a0535	0.041508872
241	0x3e43ec35	0.19133075
242	0xbee57479	-0.44815424
243	0x3ceda18f	0.029007701
244	0x3dc3f07f	0.09567355
245	0x3dcb5a55	0.09929339
246	0xbe23d460	-0.15998983
247	0x3e7b88ac	0.24563855
248	0xbe81a293	-0.25319347
249	0xbe331e86	-0.17492113
250	0xbdf56a59	-0.11983175
251	0xbeaf15b6	-0.34196252
252	0x3e842410	0.25808764
253	0xbccad28b	-0.024758598
254	0x3dc28fcc	0.09500083
255	0x3d0290fa	0.03187654

a1.bias f4 [16]
0	0x3d535ac1	0.05160022
1	0xbd97b288	-0.07407099
2	0xbd5227d2	-0.051307507
3	0xbde1a8e3	-0.11018541
4	0x3e0b671d	0.13613553
5	0xbdb930ed	-0.09042535
6	0x3d36da1a	0.04464159
7	0xbdb48567	-0.08814507
8	0xbe0f3f52	-0.13988999
9	0x3dcf4f5d	0.10122559
10	0xbd0b7971	-0.034051362
11	0x3da71af2	0.08159436
12	0xbd7c6fb5	-0.06162997
13	0xbd6ef96f	-0.058343347
14	0x3e6b98c4	0.23007494
15	0x3e51185d	0.2041945

a2.weight f4 [16, 16, 3, 3]
0	0x3d87e35c	0.06635162
1	0xbe96b108	-0.2943194
2	0xbdf04550	-0.1173197
3	0xbb000225	-0.0019532528
4	0x3e213036	0.15741047
5	0xbe530d59	-0.2061056
6	0x3d381e02	0.044950493
7	0x3c89ddbe	0.016829368
8	0x3c70ad8d	0.014689815
9	0xbca9c196	-0.020722192
10	0x3dcede5a	0.10101004
11	0x389f93a6	7.6092125e-05
12	0xbe05f35f	-0.1308112
13	0x3e0f8261	0.1401458
14	0xbe28722e	-0.16449806
15	0xbd60115f	-0.054704066
16	0x3df8759b	0.121318065
17	0xbc8dfec3	-0.017333394
18	0xbcb94b27	-0.022618843
19	0xbe1df2ca	-0.15424648
20	0xbe5640cc	-0.20923156
21	0xbecb0439	-0.3965166
22	0xbddaaaa1	-0.10677076
23	0xbb0b38d8	-0.0021243598
24	0xbd62c515	-0.055363733
25	0xbea59df2	-0.32347065
26	0x3e0114e7	0.1260563
27	0xbf05210a	-0.5200354
28	0x3e6842f5	0.22681792
29	0xbe88d3de	-0.26724142
30	0x3edc3052	0.43005615
31	0xbe3d63fa	-0.1849517
32	0x3e2390be	0.15973184
33	0x3debe6ae	0.11518608
34	0x3d530b51	0.051524464
35	0x3d4859fe	0.04891395
36	0x3d205eca	0.039152898
37	0xbea791be	-0.3272838
38	0xbd2eca12	-0.042673178
39	0xbc954a15	-0.018223802
40	0xbcd39f98	-0.025832936
41	0xbe31dd8c	-0.1736967
42	0xbec09612	-0.37614495
43	0xbe4e5d29	-0.20152725
44	0xbe252712	-0.16128185
45	0x3d8637e5	0.0655363
46	0xbe0bc3c9	-0.13648905
47	0xbdd9171f	-0.10600113
48	0x3e2d1d73	0.16905765
49	0x3d7a2e2d	0.061079193
50	0x3dec244a	0.11530359
51	0xbeae67a6	-0.34063452
52	0x3df8edb4	0.12154713
53	0x3e1abb22	0.15110448
54	0xbdc798f0	-0.097459674
55	0x3d3d472b	0.04621045
56	0x3cf58a10	0.02997306
57	0x3eb187e2	0.34673983
58	0x3e8832ba	0.266012
59	0x3d3a8bd8	0.04554352
60	0x3de10230	0.10986745
61	0xbd139db6	-0.036039077
62	0x3c6c5fc1	0.014427126
63	0x3e8285d1	0.2549272
64	0xbe3427ad	-0.1759326
65	0xbd313938	-0.04326746
66	0xbe87cb57	-0.26522323
67	0x3cc0d174	0.023537375
68	0xbdd6c742	-0.10487224
69	0xbde5dabe	-0.112233624
70	0xbda04e24	-0.07827404
71	0x3e55f9e5	0.20896108
72	0x3e558efb	0.20855324
73	0x3dbc9b5f	0.09209322
74	0xbaf2b437	-0.0018516843
75	0xbb1d6dea	-0.0024021813
76	0x3b0f010b	0.002182069
77	0x3e356007	0.17712413
78	0xbe1c87d0	-0.15286183
79	0x3ea31743	0.31853685
80	0x3dc50b66	0.09621315
81	0x3da0127f	0.07816028
82	0x3e596e59	0.212335
83	0xbba7d6a3	-0.0051220222
84	0xbdf22f35	-0.1182541
85	0x3df4ef34	0.11959687
86	0x3eb408b1	0.3516288
87	0x3de58750	0.112074494
88	0x3d9119a1	0.070849665
89	0x3de597b5	0.112105764
90	0xbe0d044a	-0.13771167
91	0xbd83f84b	-0.064438425
92	0xbdf32db2	-0.1187395
93	0x3db9903b	0.09060713
94	0x3e28ed9f	0.16496895
95	0xbe86e2f7	-0.26345035
96	0x3da5e487	0.08100229
97	0xbd5c1c09	-0.053737674
98	0x3e1e7e4f	0.1547787
99	0xbe814351	-0.2524667
100	0xbd2eb590	-0.04265362
101	0xbc7b10b3	-0.015323806
102	0xbdd5b738	-0.10435337
103	0xbe00d814	-0.12582427
104	0x3c7bdce6	0.0153724905
105	0x3ecb0bd0	0.3965745
106	0x3ce38c6a	0.027776916
107	0xbde540b2	-0.1119398
108	0xbd5409a5	-0.05176701
109	0xbdcb062d	-0.09913287
110	0x3d15ecaa	0.036602654
111	0xbc3c47af	-0.0114917
112	0x3ee4d9e7	0.44697496
113	0xbe85ae61	-0.26109603
114	0x3ed109fd	0.40827933
115	0x3e334ecb	0.17510526
116	0xbe249ff2	-0.1607664
117	0x3e08ca8c	0.13358516
118	0xbe8c425b	-0.27394375
119	0xbed461f8	-0.41480994
120	0x3d40cb32	0.047068782
121	0x3e9ca07b	0.30591187
122	0x3e342eda	0.17595997
123	0x3e64cd90	0.22344041
124	0xbe2880ab	-0.16455333
125	0x3c982875	0.018573979
126	0xbd7260ce	-0.05917435
127	0xbef961f5	-0.48707548
128	0xbd7c5648	-0.06160572
129	0xbd19de3e	-0.037565462
130	0x3b968322	0.004593269
131	0xbe57937f	-0.21052359
132	0xbdbfe61c	-0.09370062
133	0xbe25c415	-0.1618808
134	0x3e00f5d4	0.12593776
135	0xbe900a84	-0.28133023
136	0xbce4aaae	-0.027913418
137	0xbe01797b	-0.12643997
138	0xbde1c88c	-0.110245794
139	0xbdf80986	-0.121111915
140	0x3ecc311f	0.39881226
141	0xbe5ae676	-0.21376976
142	0x3c8bfb57	0.017087622
143	0x3d034064	0.03204383
144	0xbdf0a328	-0.117498696
145	0x3ce29dfb	0.027663222
146	0x3d68f7b3	0.05687685
147	0xbe167069	-0.14691319
148	0xbdbf080d	-0.093277074
149	0x3c937754	0.018001236
150	0xbdbfe13b	-0.09369131
151	0xbd7537f4	-0.059867814
152	0xbd8c9a45	-0.06865362
153	0xbc96a219	-0.018387841
154	0xbd83e90e	-0.06440936
155	0x3e2e3d16	0.1701549
156	0xbd8430a3	-0.06454589
157	0xbdf4eecb	-0.11959609
158	0xbc1d18d0	-0.009588435
159	0x3dba4ce1	0.09096695
160	0x3dc4a9d6	0.09602706
161	0x3db20da9	0.08694012
162	0x3dd4ef61	0.103972204
163	0xbbcfac2e	-0.006337664
164	0x3e01f0bd	0.1268949
165	0xbd3b577d	-0.045737732
166	0x3e2476f2	0.16060999
167	0x3db4afdf	0.08822607
168	0xbd5caacb	-0.05387382
169	0x3d9aeecc	0.07565078
170	0x3db4ebb0	0.08834016
171	0xbe0bd836	-0.13656697
172	0x3dfb7529	0.12278206
173	0x3e80dc99	0.25168303
174	0xbd445d8a	-0.04794077
175	0xbc537da9	-0.012908378
176	0xbcee0977	-0.029057248
177	0x3d3a7c6d	0.045528818
178	0xbd6ea794	-0.058265284
179	0x3e8df469	0.27725533
180	0x3e8dd413	0.27700862
181	0xbe298950	-0.16556287
182	0x3e0bbfee	0.13647434
183	0x3dcc9812	0.099899426
184	0x3db82d87	0.08993059
185	0xbdb6d652	-0.08927597
186	0x3e118436	0.1421059
187	0xbd497bbb	-0.049190264
188	0xbc8c6fd8	-0.017143175
189	0xbdc1edf4	-0.09469214
190	0x3da54e0b	0.08071526
191	0x3e0f4217	0.13990055
192	0x3c280778	0.010255687
193	0x3d06b6aa	0.032889046
194	0xbd66bf05	-0.056334514
195	0x3d6839c0	0.0566957
196	0x3d84bd95	0.064814724
197	0xbdff33c3	-0.12461045
198	0xbdd736a9	-0.105084725
199	0xbd34f70c	-0.044180915
200	0xbdcec954	-0.10096994
201	0xbd7fb892	-0.06243188
202	0xbc59fc8d	-0.013304842
203	0x3c82a858	0.015949413
204	0xbd8dfe9d	-0.06933329
205	0xbe24db17	-0.16099201
206	0x3cfdf6d0	0.031001478
207	0x3dbf506b	0.093415104
208	0x3e1b2312	0.15150097
209	0x3d833986	0.06407456
210	0xbe028bec	-0.12748688
211	0x3d85f617	0.065410785
212	0x3c0db0c4	0.008648101
213	0x3e041541	0.12898733
214	0xbb30e2c2	-0.0026990627
215	0x3eb241a5	0.34815708
216	0xbc12ebae	-0.008967323
217	0xbdd7d135	-0.1053795
218	0x3dc92ea4	0.09823349
219	0xbea3e73f	-0.32012364
220	0x3db9740f	0.090553395
221	0xbdff705f	-0.12472605
222	0xbe50d467	-0.20393525
223	0x3e7ae7ea	0.2450253
224	0xbd50335b	-0.050830226
225	0xbcca45a3	-0.024691409
226	0xbd964552	-0.073374406
227	0x3ddbac49	0.1072622
228	0x3d1cdb06	0.038294815
229	0x3c911bbd	0.017713422
230	0x3d8d16da	0.06889124
231	0x3bf771b3	0.007551396
232	0xbdaf104a	-0.08548029
233	0xbdd5141f	-0.104042284
234	0x3dee106e	0.116242275
235	0x3ddb062b	0.10694536
236	0xbd538843	-0.05164362
237	0x3ca4ebf9	0.020132052
238	0xbe579937	-0.2105454
239	0x3e4b9163	0.1987968
240	0xbd8aff5a	-0.06786986
241	0x3e053c31	0.13011242
242	0xbe365c7f	-0.17808722
243	0x3d0ef444	0.03490092
244	0x3ea861e0	0.32887173
245	0x3ddf02d6	0.10889213
246	0x3a5b518a	0.0008366337
247	0x3d555aa3	0.05208839
248	0x3e57f3ac	0.21089047
249	0xbe1a8d0c	-0.15092868
250	0xbe1b1a47	-0.15146743
251	0xbe2e50f7	-0.17023073
252	0xbd2099d6	-0.03920921
253	0x3e70cf41	0.23516561
254	0xbc99fbb5	-0.018796781
255	0xbe017e39	-0.12645806

a2.bias f4 [16]
0	0xbdadcf0f	-0.08486759
1	0xbdf3c9e2	-0.119037405
2	0xbd899035	-0.067169584
3	0xbcdf5f0a	-0.027266998
4	0x3c4fe5cc	0.012689065
5	0xbde875dd	-0.11350606
6	0xbbcbea61	-0.0062230085
7	0xbd0ee4a7	-0.03488603
8	0x3dc9be2b	0.09850725
9	0xbdc387fd	-0.09547422
10	0xbdff9247	-0.12479072
11	0xbbbd1cae	-0.005771241
12	0xbdcad994	-0.09904781
13	0x3d10dae1	0.03536499
14	0x3e050417	0.12989841
15	0x3d811b59	0.06304044

a3.weight f4 [32, 16, 3, 3]
0	0xbe22c822	-0.15896657
1	0x3e973a06	0.29536456
2	0xbea632ff	-0.32460782
3	0xbd9e8ed9	-0.0774209
4	0xbdd956f4	-0.10612288
5	0xbdb598d9	-0.08867044
6	0xbed32091	-0.41235784
7	0xbd96809b	-0.07348748
8	0x3e1a50a2	0.15069821
9	0xbbf203f3	-0.0073857247
10	0xbdb540b0	-0.08850229
11	0xbe23ccb2	-0.15996054
12	0xbcefc06b	-0.029266557
13	0x3e17961e	0.14803359
14	0x3e1a0727	0.15041791
15	0xbe665b78	-0.2249583
16	0xbe403915	-0.18771775
17	0xbec36d78	-0.38169456
18	0x3e1312a5	0.14362581
19	0x3d80e048	0.06292778
20	0x3de82f49	0.11337144
21	0x3da7720f	0.08176052
22	0x3e0e11d1	0.13873984
23	0xbe1db34e	-0.1540043
24	0xbd9e53d1	-0.077308305
25	0x3d36cf70	0.04463142
26	0xbdc8f1f5	-0.09811775
27	0xbe5c3389	-0.21504034
28	0x3e129eb7	0.14318357
29	0x3ddf8f4b	0.10916003
30	0x3da3f6e6	0.080060765
31	0xbddbf9a0	-0.107409716
32	0x3e04a8a9	0.12954964
33	0xbcf08410	-0.029359847
34	0xbe460a27	-0.1933981
35	0xbb76f5ee	-0.0037683207
36	0x3e29e6ad	0.16591902
37	0x3dd8414e	0.10559331
38	0xbdf006fb	-0.117200814
39	0xbda7af9f	-0.08187794
40	0x3e937cdb	0.28806195
41	0xbda57e0b	-0.080806814
42	0x3dec81a4	0.115481645
43	0x3d71747d	0.058948983
44	0x3a74e43c	0.0009341871
45	0x3da7948e	0.081826314
46	0x3d2b80e9	0.041870985
47	0xbe165352	-0.14680222
48	0x3e712f13	0.23553114
49	0xbc79907f	-0.015232204
50	0x3e7babb4	0.24577218
51	0xbe7a8827	-0.24466
52	0xbdfcd7b2	-0.12345828
53	0x3de9c653	0.114147805
54	0x3da91590	0.08256066
55	0x3d1eeedf	0.038802024
56	0xbe30e9f9	-0.17276753
57	0x3d1756ed	0.036948133
58	0x3dca5549	0.09879548
59	0xbdc50818	-0.096206844
60	0x3db4c8a3	0.08827331
61	0x3e8396ef	0.2570109
62	0x3ce62519	0.028093861
63	0x3e1fbf87	0.15600406
64	0x3c6e7b42	0.014555754
65	0x3d070b8b	0.032969993
66	0x3d80f4d1	0.06296695
67	0x3e747364	0.23872143
68	0xbe8a2b40	-0.26986122
69	0x3e9cc61b	0.30619892
70	0xbd953f07	-0.07287412
71	0xbe0d8c0f	-0.1382296
72	0xbc7a9dff	-0.015296458
73	0x3dbaeacf	0.091268174
74	0xbd5fc0a1	-0.054627065
75	0x3df8e4c8	0.121530116
76	0x3e78d461	0.24299766
77	0x3cf5b849	0.0299951
78	0x3c54ca69	0.0129877115
79	0xbe4033d1	-0.18769766
80	0xbdfb6c5d	-0.12276528
81	0x3cea0b17	0.028569741
82	0x3e57471c	0.2102322
83	0xbdfc8cdd	-0.12331555
84	0x3e70a57e	0.2350063
85	0xbc93dff3	-0.018051123
86	0xbcac7890	-0.021053582
87	0xbe0e3df7	-0.13890825
88	0xbd80a332	-0.06281127
89	0x3dbe6762	0.092970625
90	0xbc6a673b	-0.014306839
91	0x3d4069b8	0.04697582
92	0xbd2124eb	-0.03934185
93	0x3ddf7b16	0.10912149
94	0xbe6fa50f	-0.23402809
95	0x3eb5cb7b	0.35506806
96	0x3c8f5629	0.017497139
97	0xbddc2285	-0.107487716
98	0xbe23b1ea	-0.15985838
99	0xbd571963	-0.052514445
100	0xbe479778	-0.19491374
101	0xbddf54a2	-0.10904814
102	0xbe116800	-0.14199829
103	0x3e81f597	0.25382683
104	0xbd139227	-0.036028054
105	0xbda7147f	-0.08158206
106	0x3e4a77d3	0.19772272
107	0xbdd6f336	-0.104956076
108	0xbcef4ae3	-0.029210513
109	0xbe9bd084	-0.30432522
110	0xbe65c032	-0.22436598
111	0x3e162f0a	0.14666381
112	0xbc837621	-0.01604754
113	0x3e99863b	0.29985222
114	0xbedd7299	-0.43251494
115	0x3caf6898	0.021412179
116	0xbcd9b20f	-0.026574163
117	0x3ecfd076	0.4058873
118	0x3c83dac8	0.016095534
119	0xbd1721b3	-0.036897372
120	0x3e81a58b	0.25321612
121	0xbdcd96ea	-0.1003855
122	0xbd99d2bd	-0.07510898
123	0x3e24218e	0.16028425
124	0x3d57acf1	0.052655164
125	0x3e34a412	0.17640713
126	0x3ea8cdd7	0.32969543
127	0xbe265e50	-0.16246915
128	0xbec6c44a	-0.38821632
129	0x3d7f48a8	0.06232515
130	0x3e83b7da	0.25726205
131	0xbe368371	-0.17823578
132	0x3df8840b	0.1213456
133	0xbd801a3e	-0.06255005
134	0xbe60ec2e	-0.21965095
135	0x3cb968ab	0.022632917
136	0x3d45d67a	0.048300244
137	0x3db7f01f	0.08981346
138	0x3bfbe2a0	0.007686928
139	0x3eb1bbd2	0.34713608
140	0xbf2e23d8	-0.68023443
141	0x3e0d6b93	0.13810568
142	0xbe602e95	-0.2189277
143	0xbe363dd3	-0.17797022
144	0x3e0899b1	0.13339879
145	0xbd707677	-0.058706727
146	0x3ebebdd9	0.37254217
147	0x3dbf7564	0.09348562
148	0x3c1736be	0.00922936
149	0x3e01824a	0.12647358
150	0xbd9c4604	-0.07630542
151	0xbd182133	-0.037141036
152	0x3d6bf725	0.057608742
153	0xbd6ea6a5	-0.058264393
154	0xbdbdaa18	-0.092609584
155	0x3e18c12b	0.14917438
156	0xbe012107	-0.12610255
157	0xbe045324	-0.1292234
158	0x3e189700	0.14901352
159	0x3e2e5e15	0.17028077
160	0x3e2f75e9	0.17134823
161	0xbe1683a7	-0.14698659
162	0xbe9b39f7	-0.3031766
163	0xbd7135ba	-0.05888913
164	0xbd9212c0	-0.071324825
165	0x3e3d61eb	0.18494384
166	0xbddc9238	-0.107700765
167	0xbe61c347	-0.22047149
168	0xbe21b061	-0.1578994
169	0xbceb55a5	-0.028727362
170	0xbe528f2b	-0.20562427
171	0xbd5ab905	-0.053399105
172	0xbe0a9433	-0.13533096
173	0xbd81ecfe	-0.06344031
174	0xbe1cbdad	-0.1530673
175	0x3e1858a3	0.14877562
176	0x3dcde1a2	0.10052802
177	0x3d96ae88	0.07357508
178	0xbdd67ee0	-0.10473418
179	0x3e0b2a15	0.13590272
180	0xbe32c17c	-0.17456621
181	0xbdd1853f	-0.10230493
182	0xbd5ca51f	-0.05386841
183	0xbe4e1ee8	-0.20128977
184	0xbe01f355	-0.1269048
185	0x3e51143e	0.20417878
186	0xbd8cf8a7	-0.06883364
187	0xbdf2bc36	-0.11852305
188	0x3e599af3	0.21250515
189	0x3d79656f	0.06088775
190	0x3d7e276f	0.062049326
191	0x3da449c6	0.08021884
192	0x3db41d14	0.08794609
193	0xbd4bf818	-0.049797148
194	0x3e7dd70d	0.24789067
195	0xbd90df59	-0.0707385
196	0xbd1a6cb4	-0.037701324
197	0x3d92ea9a	0.07173653
198	0xbe2d768b	-0.16939752
199	0xbe507272	-0.20356157
200	0x3dc22558	0.09479779
201	0xbcdd0fa8	-0.026985005
202	0xbe496b70	-0.1966989
203	0x3e10d991	0.14145495
204	0x3da527b9	0.08064217
205	0x3e64aeae	0.2233226
206	0x3e3c036b	0.18360679
207	0xbe7a5f17	-0.24450336
208	0xbddc9ae0	-0.107717276
209	0xbf050800	-0.5196533
210	0x3df62255	0.12018267
211	0x3e9ec09b	0.3100632
212	0xbe0b76c7	-0.13619529
213	0xbef6f8db	-0.48236737
214	0x3d733e02	0.059385307
215	0x3e81d2c5	0.25356117
216	0x3d868275	0.065678515
217	0x3e864869	0.2622712
218	0xbdefbcc8	-0.11705929
219	0xbe5ab81a	-0.21359292
220	0xbcd72648	-0.026263371
221	0xbe98026e	-0.29689354
222	0xbddf6980	-0.109087944
223	0xbe09cc21	-0.13456775
224	0xbca64614	-0.020297088
225	0x3e2b2592	0.1671355
226	0xbde94e2d	-0.11391864
227	0xbdb1aa22	-0.086750284
228	0xbcdb422f	-0.026764957
229	0xbcc1dfe0	-0.023666322
230	0xbe5b4721	-0.21413852
231	0xbc8480eb	-0.016174754
232	0x3e18affd	0.14910884
233	0x3ca40f56	0.020026844
234	0x3e4e3d27	0.20140515
235	0xbdf0b33a	-0.11752935
236	0x3e607734	0.21920472
237	0xbe3e6c1e	-0.18595931
238	0xbe09fdd7	-0.13475738
239	0xbe3d9836	-0.18515095
240	0xbdf5a121	-0.119936235
241	0xbeb8305d	-0.35974398
242	0xbddbcf02	-0.10732843
243	0xbe9fbb87	-0.3119776
244	0xbcf79aa6	-0.03022511
245	0xbd3dae62	-0.046308883
246	0xbdddd50c	-0.10831651
247	0xbd8083c3	-0.062751316
248	0x3e044e1a	0.12920418
249	0xbef8b4de	-0.4857549
250	0xbe47d85f	-0.19516133
251	0x3e124cc9	0.14287104
252	0x3e72fe3f	0.237298
253	0xbdd467b9	-0.10371346
254	0x3e46b7a6	0.19405994
255	0xbe4bb41d	-0.19892927

a3.bias f4 [32]
0	0xbe15744c	-0.14595145
1	0x3d1cefe7	0.038314726
2	0x3d7941c3	0.06085373
3	0xbe51ff16	-0.20507464
4	0xbe4269be	-0.1898565
5	0x3cc31a41	0.02381623
6	0x3d1a5910	0.037682593
7	0xbe1ee249	-0.15516008
8	0xbe7ae307	-0.24500667
9	0xbe093031	-0.1339729
10	0xbdc13b21	-0.09435106
11	0xbdb1ee66	-0.08688049
12	0xbeab6ba4	-0.3348056
13	0xbd9ef047	-0.07760673
14	0xbd8ca7ca	-0.06867941
15	0x3e601f60	0.21886969
16	0x3e3673db	0.17817633
17	0xbdc94084	-0.098267585
18	0xbdcfd129	-0.10147316
19	0xbe47f18c	-0.19525737
20	0xbd0a564d	-0.03377371
21	0xbe12dad3	-0.14341287
22	0xbd35f14a	-0.044419564
23	0xbe017b84	-0.12644774
24	0xbd3a1516	-0.045430265
25	0x3e0fc737	0.14040838
26	0x3e4a204b	0.19738881
27	0xbd630869	-0.055427942
28	0x3c47baa4	0.012190495
29	0x3d64fa6f	0.055902895
30	0xbd1f12ce	-0.038836293
31	0xbdf6d45b	-0.12052222

b1.weight f4 [32, 32, 3, 3]
0	0xbe920611	-0.28520253
1	0x3dade75c	0.08491394
2	0xbd5fc994	-0.0546356
3	0xbd331615	-0.04372223
4	0xbd8a1c24	-0.06743649
5	0xbe4c3285	-0.19941147
6	0xbd73b235	-0.059496123
7	0x3d2fc914	0.042916372
8	0xbe5fa7cc	-0.21841353
9	0x3b262b7c	0.0025355509
10	0xbea1a954	-0.315745
11	0x3de52804	0.11189273
12	0xbe81a645	-0.25322166
13	0xbed7566d	-0.42058125
14	0x3c823eb0	0.015899032
15	0x3db88b74	0.090109736
16	0xbe826238	-0.2546556
17	0x3eb0dc3d	0.34543028
18	0xbca5745b	-0.020197084
19	0x3ddd85f7	0.108165674
20	0x3d153989	0.036431823
21	0x3e0d55ed	0.1380231
22	0x3e44d86e	0.19223186
23	0xbd0149d8	-0.031564564
24	0xbc569f6f	-0.013099535
25	0x3d61b7b7	0.055106845
26	0xbdc82395	-0.09772412
27	0x3e6b0edc	0.22954887
28	0x3e33224c	0.17493552
29	0x3df4ca8e	0.11952697
30	0x3db4e99e	0.088336214
31	0xbe7ba5ec	-0.24575013
32	0x3e162347	0.14661895
33	0xbe2a0150	-0.16602063
34	0xbe2145fe	-0.15749356
35	0xbe795399	-0.24348296
36	0x3e6262bd	0.22107978
37	0xbe5c356d	-0.21504755
38	0x3d223433	0.039600562
39	0xbd177e49	-0.03698567
40	0x3cc9fc7b	0.024656525
41	0xbe928bbc	-0.28622234
42	0xbd981a69	-0.07426912
43	0xbec6f2d6	-0.38857144
44	0xbbd8d8d4	-0.006617645
45	0x3ec9b5ed	0.3939661
46	0xbed0548f	-0.40689513
47	0xbd78a1b9	-0.060701106
48	0x3e53fb10	0.20701241
49	0xbde061ef	-0.10956179
50	0x3d016936	0.031594478
51	0x3e08469f	0.1330819
52	0xbd451a88	-0.048121005
53	0xbea55cb6	-0.32297295
54	0xbe257d8b	-0.16161172
55	0xbdd057ae	-0.101729736
56	0xbd3bfabc	-0.045893416
57	0xbd910f04	-0.07082942
58	0x3dd0e7c3	0.10200455
59	0x3c33a31e	0.010964183
60	0xbe2ac9ea	-0.16678587
61	0x3dbc3f24	0.091917306
62	0xbd16c947	-0.036813047
63	0xbd7da280	-0.06192255
64	0x3d5ac4c7	0.053410318
65	0x3d27b531	0.040944282
66	0x3d2a98aa	0.041649498
67	0xbe0baba8	-0.136397
68	0xbd1a6b6f	-0.037700113
69	0x3c262c99	0.010142469
70	0x3d6e9116	0.058243833
71	0x3cc7d888	0.024395242
72	0xbde9b545	-0.114115275
73	0xbe73ce3b	-0.2380914
74	0xbe835848	-0.2565329
75	0xbe824d7f	-0.2544975
76	0x3e48e182	0.19617274
77	0xbcd01ca4	-0.025404282
78	0xbe87f63d	-0.26555052
79	0x3cd97861	0.026546659
80	0x3e59a72a	0.21255174
81	0x3e24d1c2	0.16095641
82	0xbc648fb7	-0.01395028
83	0xbde5aa71	-0.1121415
84	0x3e3fb02e	0.18719551
85	0x3de1c646	0.11024146
86	0x3e9d029f	0.30666062
87	0x3ef3ebf7	0.47640964
88	0xbd0a234f	-0.03372508
89	0xbd8b4c50	-0.06801665
90	0xbe09a52f	-0.13441919
91	0x3e6afaa3	0.22947173
92	0xbe6aaa0f	-0.22916435
93	0x3db319d7	0.08745163
94	0x3e37d859	0.17953624
95	0xbda01cec	-0.078180164
96	0x3dcc1881	0.09965611
97	0x3db07d0e	0.08617602
98	0x3d8638dd	0.065538146
99	0xbe3b110c	-0.18268222
100	0xbe298eaa	-0.16558328
101	0xbeb4dc1d	-0.35324183
102	0x3e732b01	0.23746873
103	0xbdbd84f3	-0.09253874
104	0xbe8c2223	-0.27369794
105	0x3e4e46a5	0.20144136
106	0x3dfdba69	0.123890705
107	0xbe14a793	-0.1451705
108	0xbeb132b7	-0.34609005
109	0xbe96535e	-0.2936048
110	0xbe0e68b9	-0.13907136
111	0xbdf36d37	-0.118860655
112	0xbe07516b	-0.13214652
113	0x3e61a0c0	0.22033978
114	0xbe61e7ac	-0.22061032
115	0xbe8852a6	-0.26625556
116	0xbc87b49b	-0.016565612
117	0xbd2bca5c	-0.04194103
118	0x3d11e130	0.035615146
119	0x3e1f639a	0.15565339
120	0x3d9f74c8	0.07785946
121	0x3c4ae63e	0.012383996
122	0xbda78c17	-0.08181017
123	0xbc2a1716	-0.010381481
124	0xbe8e10cb	-0.27747187
125	0x3dfe80b1	0.1242689
126	0x3dec39cb	0.11534461
127	0x3e06f8af	0.13180803
128	0xbc942eba	-0.018088687
129	0xbd4193bb	-0.047260027
130	0xbe8c3de3	-0.27390966
131	0x3cab93c6	0.020944487
132	0xbc0ddc75	-0.008658518
133	0xbdfde807	-0.12397771
134	0xbce075f1	-0.027399989
135	0xbd4d9c38	-0.05019781
136	0xbd1f34e5	-0.038868804
137	0xbd61f5f6	-0.055166207
138	0xbe1c4807	-0.15261851
139	0x3ced2918	0.02895026
140	0xbd9c1af9	-0.07622332
141	0x3d37e73e	0.044898264
142	0xbe90fa9c	-0.283162
143	0x3d959610	0.07304013
144	0xbe265742	-0.16244224
145	0x3c78c8f8	0.015184633
146	0x3d8d1e58	0.06890553
147	0x3e44fc99	0.19236983
148	0x3e53d7be	0.20687768
149	0x3e02dcc0	0.12779522
150	0x3c2f8c79	0.010714644
151	0xbd79437f	-0.060855385
152	0x3e583306	0.21113214
153	0x3d0d9012	0.034561224
154	0x3db5dd7b	0.08880135
155	0xbec33a5c	-0.38130462
156	0xbcea2b89	-0.028585212
157	0xbcbd0e9a	-0.023078252
158	0xbed18818	-0.40924144
159	0xbd8a2dd1	-0.0674702
160	0x3e53978e	0.20663282
161	0xbdbce115	-0.092226185
162	0x3e0dc132	0.1384323
163	0xbd2a76c9	-0.04161719
164	0xbda3755c	-0.07981369
165	0x3d002aec	0.031290933
166	0xbec1ce0d	-0.37852517
167	0xbe521365	-0.20515211
168	0xbd8bea2e	-0.068317756
169	0xbe078c93	-0.13237219
170	0xbe0704d7	-0.1318544
171	0xbe808000	-0.25097656
172	0x3e8bd1ce	0.27308506
173	0xbe43bc54	-0.1911481
174	0x3db70da2	0.08938147
175	0x3e133dd4	0.14379054
176	0xbc8a6959	-0.016895937
177	0xbdaeff3d	-0.085447766
178	0x3e5e090d	0.2168314
179	0xbd081b02	-0.03322888
180	0x3cbb1644	0.022837766
181	0xbe0bae64	-0.13640743
182	0x3deda85d	0.11604378
183	0x3c18538a	0.009297261
184	0xbd3006a4	-0.042975083
185	0xbd9a94c0	-0.07547903
186	0x3e4a50b1	0.19757344
187	0x3d8e5a8d	0.06950865
188	0x3e3c9694	0.18416816
189	0x3d864c3c	0.06557509
190	0xbe5bacff	-0.21452712
191	0xbde5d262	-0.11221768
192	0x3e20b6df	0.1569476
193	0x3dbf813f	0.093508236
194	0x3e2c6a8b	0.16837518
195	0xbcaca228	-0.021073416
196	0xbdd64375	-0.10462085
197	0xbe16f865	-0.14743192
198	0xbe5ba7f1	-0.21450783
199	0x3d8b6e73	0.06808176
200	0x3d0d229b	0.03445683
201	0xbe12c992	-0.14334705
202	0x3d849be5	0.06475047
203	0x3d8606e2	0.065442815
204	0x3df3a767	0.11897164
205	0xbeb515c3	-0.35368165
206	0xbd6f65b7	-0.058446612
207	0xbe164769	-0.14675678
208	0x3e2eef00	0.17083359
209	0xbdb8c072	-0.09021081
210	0xbe0795ff	-0.13240813
211	0xbd392300	-0.045199394
212	0xbe11a591	-0.14223315
213	0xbdd5b91e	-0.10435699
214	0x3e842d3e	0.25815767
215	0x3e0e3258	0.13886392
216	0x3e67e429	0.2264563
217	0xbe50094e	-0.2031605
218	0xbe810777	-0.25201008
219	0xbe954d3a	-0.29160482
220	0x3d2a143e	0.04152321
221	0x3dcce371	0.100043185
222	0x3c5a8726	0.013337886
223	0x3e184097	0.14868389
224	0x3cbb0d42	0.02283347
225	0x3e377753	0.17916612
226	0x3d7e5aab	0.062098186
227	0xbec784df	-0.3896856
228	0xbdadb33c	-0.08481452
229	0x3cf1e7cb	0.029529473
230	0x3db18dca	0.08669622
231	0xbdbf021c	-0.09326574
232	0x3e968c91	0.2940412
233	0x3deb46ea	0.11488135
234	0x3eb406bb	0.35161385
235	0x3b34b466	0.0027573346
236	0xbe947880	-0.28998184
237	0x3dab95e4	0.08378199
238	0xbc425306	-0.011860615
239	0x3c9bbdbc	0.01901137
240	0x3d529046	0.05140712
241	0x3e89c9e7	0.26911852
242	0xbe9ee612	-0.31034905
243	0x3e53d31f	0.20686005
244	0xbca8f519	-0.020624684
245	0xbd91b989	-0.07115466
246	0xbf235810	-0.6380625
247	0xbe646a12	-0.22306088
248	0xbbbf32fc	-0.0058349352
249	0x3b371b68	0.002793992
250	0x3e2dd7aa	0.169768
251	0x3d237be4	0.039913073
252	0x3e994b02	0.2994004
253	0xbcef738d	-0.029229904
254	0xbec2d094	-0.38049757
255	0x3d2bb838	0.04192373

b1.bias f4 [32]
0	0xbd6b5a93	-0.057459425
1	0xbe19b025	-0.150086
2	0xbe815103	-0.2525712
3	0xbe096b95	-0.13419946
4	0x3e8d1375	0.27553907
5	0xbdf5b974	-0.11998263
6	0xbda5f001	-0.08102418
7	0x3c68a1e2	0.014198752
8	0xbd2e5d07	-0.042569187
9	0xbe8845e8	-0.26615834
10	0xbe4e2d7c	-0.20134538
11	0x3d5df013	0.05418403
12	0xbe0de121	-0.13855411
13	0xbe55a9da	-0.20865574
14	0x3cfd0bda	0.03088944
15	0xbe11e841	-0.14248754
16	0xbdc3aa6c	-0.0955399
17	0xbea1fffb	-0.3164061
18	0xbdfe3a7e	-0.124135
19	0x3ddd6745	0.10810713
20	0xbdaf9275	-0.08572856
21	0xbe3e9e3d	-0.1861505
22	0x3e86fb73	0.26363716
23	0xbe994b48	-0.29940248
24	0xbd064b8a	-0.032786883
25	0xbde131e3	-0.10995843
26	0xbd95d667	-0.073162846
27	0xbec28e62	-0.37999254
28	0xbd4bb179	-0.049729798
29	0xbc78dc46	-0.015189236
30	0x3d8f33cd	0.06992302
31	0xbdcd6f5d	-0.100310065

b2.weight f4 [32, 32, 3, 3]
0	0x3e512468	0.20424044
1	0x3da16c34	0.07881966
2	0xbd444db1	-0.047925655
3	0x3d4692d6	0.048479877
4	0xbe4110bf	-0.18854044
5	0x3e5a0113	0.21289472
6	0xbda220ab	-0.07916387
7	0xbdf402c2	-0.119145885
8	0x3e6fc025	0.23413141
9	0x3e441973	0.19150333
10	0x3c8d6e8d	0.017264629
11	0xbd589907	-0.052880313
12	0xbdb8e6e6	-0.090284154
13	0xbdb8df60	-0.090269804
14	0xbe3fdd64	-0.18736798
15	0x3e0f2207	0.13977824
16	0x3dbbe4fa	0.09174533
17	0xbed0a611	-0.407517
18	0xbe11d63a	-0.14241877
19	0x3e5b0971	0.2139032
20	0xbe8db7fe	-0.27679437
21	0xbca6b463	-0.020349687
22	0xbe671604	-0.22566992
23	0x3dde7a1c	0.10863134
24	0xbdcda659	-0.10041494
25	0xbd8f7cb1	-0.07006205
26	0xbe0ad79f	-0.13558815
27	0x3ed3fdcd	0.41404572
28	0xbdbf799e	-0.093493685
29	0x3df6182e	0.12016331
30	0x3ef89ac8	0.4855559
31	0xbd77e794	-0.060523584
32	0xbe0c4ba5	-0.13700731
33	0xbca8286c	-0.020527087
34	0xbeb95744	-0.3619939
35	0x3be302a3	0.0069278046
36	0xbd81c9d4	-0.06337324
37	0x3d87de52	0.06634201
38	0xbea14467	-0.314975
39	0xbbe790d9	-0.0070668277
40	0x3e4505b6	0.1924046
41	0xbe429ff7	-0.19006334
42	0xbeaeb9fd	-0.34126273
43	0x3e0be9df	0.13663433
44	0x3e526859	0.20547618
45	0x3eb55994	0.35419905
46	0xbe3705c9	-0.178733
47	0xbd56e4ec	-0.05246441
48	0xbe63c0fb	-0.22241585
49	0xbda8c16f	-0.082400195
50	0xbebcc46c	-0.36868608
51	0x3c86e46d	0.016466344
52	0x3ee0b026	0.4388439
53	0x3eb79389	0.35854748
54	0x3d2fc504	0.042912498
55	0xbe5981f9	-0.21240987
56	0x3dc00820	0.0937655
57	0xbdf530e6	-0.11972217
58	0xbda0002d	-0.078125335
59	0xbe0a7a57	-0.13523231
60	0x3d2b2240	0.04178071
61	0x3df5ed45	0.12008146
62	0xbe543f60	-0.207273
63	0x3ea36464	0.3191253
64	0xbd440518	-0.04785642
65	0xbdf07f23	-0.117429994
66	0xbde3e23b	-0.111271344
67	0x3db50290	0.088383794
68	0x3d01a476	0.031650983
69	0x3c868ec2	0.016425494
70	0x3d897336	0.06711428
71	0xbe217d11	-0.15770365
72	0x3c8a2203	0.016861921
73	0xbe256735	-0.16152652
74	0x3e563f22	0.20922521
75	0x3d163e5a	0.036680557
76	0xbbe852da	-0.007089955
77	0xbd1f8671	-0.038946573
78	0xbdddf268	-0.10837251
79	0x3d588c74	0.05286832
80	0xbe99eb0c	-0.3006214
81	0xbdd0a6ce	-0.101880655
82	0xbeb407d4	-0.35162222
83	0xbe3dd267	-0.18537293
84	0x3e00dff3	0.1258543
85	0xbdd230e7	-0.10263234
86	0x3e88b6b1	0.26701882
87	0x3eac5b8d	0.33663598
88	0x3db58525	0.08863286
89	0xbd9d76f9	-0.07688708
90	0xbd257081	-0.040390495
91	0xbe3baa1e	-0.18326613
92	0xbdb13350	-0.08652365
93	0xbdd572e3	-0.104223035
94	0xbde1475a	-0.10999937
95	0xbe07a420	-0.13246202
96	0x3e639408	0.22224438
97	0x3e2aa948	0.16666138
98	0xbe56cf2c	-0.20977467
99	0x3dde210a	0.108461455
100	0xbdbb9933	-0.0916008
101	0x3e030bfc	0.1279754
102	0xbdc6d7fb	-0.09709164
103	0x3d81e9bc	0.063434094
104	0xbe1eef08	-0.1552087
105	0xbe92d1cf	-0.28675696
106	0x3e1628a5	0.14663942
107	0xbe240074	-0.16015798
108	0xbe8c8f7b	-0.27453217
109	0xbe05fa99	-0.13083877
110	0xbd373501	-0.044728283
111	0x3dee48c9	0.116349764
112	0xbd2b3175	-0.041795213
113	0xbdf4bf47	-0.11950546
114	0xbe8dec67	-0.27719423
115	0x3dbb344e	0.09140836
116	0x3d10ce7c	0.03535317
117	0xbe792f27	-0.24334393
118	0xbdf065e3	-0.11738183
119	0xbef6d251	-0.48207334
120	0x3c889a2e	0.016675081
121	0xbe98e23d	-0.29860106
122	0x3d966338	0.07343143
123	0xbe1f6716	-0.15566668
124	0xbcfadd3e	-0.030623075
125	0xbe833042	-0.25622755
126	0x3e0f76f7	0.14010225
127	0x3a9e6a23	0.0012086075
128	0xbd9b2d9b	-0.07577058
129	0xbd1bddcb	-0.038053315
130	0xbed4778a	-0.4149745
131	0xbcedc3ed	-0.029024089
132	0xbe0161f1	-0.12635018
133	0x3dd974c9	0.10617978
134	0x3ceab758	0.028651878
135	0xbe072fb9	-0.13201798
136	0xbda97bb6	-0.08275549
137	0xbd43c92e	-0.04779928
138	0x3e4cd4e1	0.20003082
139	0xbedbd79f	-0.42937943
140	0x3dca968e	0.09891997
141	0xbc06b004	-0.008220676
142	0x3e02893a	0.1274766
143	0x3d0eca5e	0.03486096
144	0x3e91be85	0.28465667
145	0xbcb0e98c	-0.021595739
146	0xbe1ce9af	-0.15323518
147	0x3d1a23ad	0.03763168
148	0xbe510472	-0.20411852
149	0x3d2fd2aa	0.042925514
150	0x3d972fe9	0.07382185
151	0x3e821666	0.25407714
152	0xbde92c3a	-0.11385389
153	0xbd149061	-0.036270503
154	0x3c87f78a	0.016597528
155	0x3db07c83	0.08617499
156	0x3e49271e	0.19643828
157	0x3d2dd096	0.04243525
158	0x3ce9f676	0.028559905
159	0xbe0c7e8b	-0.13720147
160	0x3db78c58	0.08962315
161	0xbe6c3fac	-0.23071164
162	0xbd0cd6dc	-0.034384593
163	0x3d383847	0.044975545
164	0xbcf4fe22	-0.029906336
165	0xbd9ba2e0	-0.07599425
166	0xbdf9375e	-0.121687636
167	0xbe8565be	-0.26054186
168	0xbe07199a	-0.1319336
169	0xbe01e069	-0.12683262
170	0x3c038880	0.00802815
171	0x3e86938c	0.26284444
172	0xbd6e1f6e	-0.058135442
173	0xbd6e3159	-0.05815253
174	0x3d99b613	0.07505431
175	0x3def8d10	0.116968274
176	0x3e20c95e	0.15701815
177	0xbd827ddb	-0.06371661
178	0x3db85c97	0.09002035
179	0xbd20406a	-0.03912393
180	0xbd208446	-0.039188646
181	0xbe68416a	-0.22681203
182	0xbd354991	-0.04425961
183	0x3e2c14d7	0.16804825
184	0xbd8607e4	-0.06544474
185	0xbd7e0ac5	-0.06202199
186	0xbe8f8821	-0.28033546
187	0xbd48700e	-0.04893499
188	0xbe56f2d7	-0.20991074
189	0xbe9263c0	-0.28591728
190	0xbdbe3d1d	-0.09289
191	0x3d9aa85e	0.07551645
192	0x3e3c75d3	0.18404321
193	0x3e323f55	0.17406972
194	0x3e8d3c94	0.2758528
195	0xbd29a310	-0.041415274
196	0xbe0d0171	-0.13770081
197	0xbd79d5cf	-0.06099492
198	0x3e644f50	0.2229588
199	0xbe62c3a1	-0.22144939
200	0x3e001c48	0.12510788
201	0x3d5ce051	0.053924862
202	0xbd095ddd	-0.03353678
203	0x3e0ca67a	0.13735381
204	0xbeed01f1	-0.46290544
205	0x3e8cb2a9	0.27480057
206	0xbd2a8d0a	-0.04163841
207	0xbe321284	-0.17389876
208	0xbd7b5e6f	-0.061369356
209	0x3d61e16a	0.055146612
210	0xbddcca03	-0.10780718
211	0xbea4cfdc	-0.32189834
212	0x3f270598	0.6524291
213	0x3cb256f9	0.021769987
214	0x3a9e1a6d	0.0012062319
215	0x3e24855f	0.16066502
216	0xbd00dd42	-0.031461008
217	0xbd53310d	-0.05156045
218	0xbdd1d648	-0.10245949
219	0x3d1ef994	0.038812235
220	0xbdd6d953	-0.1049067
221	0x3d3361b5	0.043794353
222	0x3e59066b	0.21193855
223	0x3e25f158	0.16205347
224	0xbe9262a5	-0.28590885
225	0xbd2979bc	-0.04137586
226	0xbe25e47a	-0.16200438
227	0x3d297628	0.04137245
228	0x3d08820f	0.03332716
229	0x3e6468df	0.2230563
230	0xbdddce3a	-0.1083035
231	0xbe465e54	-0.19371921
232	0xbe225fdb	-0.15856878
233	0x3db2a0a8	0.08722049
234	0x3db9d109	0.090730734
235	0xbdd51720	-0.10404801
236	0x3d8aa352	0.06769432
237	0xbc970d03	-0.018438822
238	0x3e08bac0	0.1335249
239	0x3dd6b845	0.104843654
240	0xbea62228	-0.32447934
241	0xbe62d97d	-0.22153278
242	0xbe130d4c	-0.14360541
243	0x3e0947e7	0.13406335
244	0xbe023015	-0.12713654
245	0x3e893f01	0.2680588
246	0x3e0632bb	0.1310529
247	0xbd930cdb	-0.07180186
248	0xbe5932ab	-0.21210735
249	0xbdcb8ac6	-0.09938578
250	0xbe90eff2	-0.28308064
251	0x3dd0085b	0.10157844
252	0x3cdb28aa	0.026752789
253	0x3dc46953	0.095904015
254	0x3e80fde2	0.25193697
255	0x3d794f11	0.06086642

b2.bias f4 [32]
0	0x3d07cc68	0.03315392
1	0xbecdc875	-0.40192
2	0xbe4ffcc7	-0.2031127
3	0xbe93920d	-0.28822365
4	0xbdc9c935	-0.0985283
5	0xbe6186b0	-0.22024035
6	0xbe175f01	-0.14782335
7	0xbe379c32	-0.17930678
8	0x3e142cc8	0.14470208
9	0x3c5b49b5	0.013384272
10	0x3c0e889e	0.008699564
11	0xbe03a639	-0.12856378
12	0xbe261fad	-0.16223021
13	0xbe9d707b	-0.30749878
14	0xbd90bce0	-0.07067275
15	0x3d7bc86e	0.06147044
16	0xbd8a848e	-0.06763564
17	0xbe50fc9e	-0.20408866
18	0xbdf394d6	-0.118936226
19	0xbdefa3f4	-0.117011935
20	0xbdc0ca69	-0.09413607
21	0x3df805b0	0.1211046
22	0xbe71a867	-0.23599397
23	0x3de20bfb	0.11037441
24	0xbe815486	-0.252598
25	0x3dae30fc	0.08505437
26	0x3d8250fc	0.06363103
27	0x3d0cc4e9	0.034367476
28	0xbea1a7b9	-0.31573275
29	0xbd93c41b	-0.072151385
30	0x3df7b30a	0.12094696
31	0xbd328086	-0.0435796

b3.weight f4 [64, 32, 3, 3]
0	0xbb7a2298	-0.0038167592
1	0x3d567af3	0.052363347
2	0xbdc6f6f3	-0.097150706
3	0xbe984107	-0.29737112
4	0xbe0ef97c	-0.13962358
5	0xbd9eed4e	-0.07760106
6	0xbd64d008	-0.055862457
7	0xbe9d6325	-0.30739704
8	0x3d04983a	0.032371737
9	0x3e0168cb	0.12637632
10	0xbe52635f	-0.2054572
11	0x3e042afd	0.12907024
12	0xbdbfd8aa	-0.09367497
13	0x3de0d255	0.10977618
14	0xbe889a46	-0.266802
15	0xbe66418e	-0.22485945
16	0xbe8258c8	-0.2545836
17	0xbe92a1f1	-0.28639176
18	0xbe25c38c	-0.16187876
19	0xbe42566b	-0.18978278
20	0x3dbaf3b6	0.091285154
21	0xbc6c759b	-0.014432336
22	0xbe078e45	-0.13237865
23	0xbe91149c	-0.28336036
24	0x3e0e18f3	0.13876705
25	0x3e72bd8c	0.23705119
26	0xbe442289	-0.19153799
27	0xbcefe356	-0.029283207
28	0x3d89347f	0.06699466
29	0x3e3fedd6	0.18743071
30	0x3da47848	0.08030754
31	0x3e81223c	0.2522143
32	0xbe7c731f	-0.2465329
33	0xbe2a8650	-0.16652799
34	0xbe844dda	-0.25840646
35	0x3ea819a3	0.3283206
36	0xbe37b7e6	-0.17941245
37	0xbcb9bbf4	-0.02267263
38	0x3d527ddd	0.051389564
39	0xbe875408	-0.26431298
40	0x3e03e46a	0.12880102
41	0x3ea33ee5	0.31883922
42	0xbe967669	-0.29387215
43	0x3e64168d	0.22274227
44	0x3d18f3e8	0.037341982
45	0x3e06a388	0.1314832
46	0x3e7fd984	0.2498532
47	0x3daecc04	0.08535007
48	0x3dcce1c4	0.10003999
49	0xbdcd975d	-0.10038636
50	0x3cf73fe7	0.030181838
51	0xbdd132a9	-0.10214741
52	0xbdae6e63	-0.08517148
53	0xbe856084	-0.26050198
54	0x3de8a490	0.11359513
55	0x3e154cdf	0.14580105
56	0xbdcc2228	-0.09967452
57	0x3d8c5075	0.068512835
58	0x3e34f580	0.17671776
59	0x3d197495	0.037464697
60	0xbdc23ba1	-0.094840296
61	0xbe2c8323	-0.168469
62	0x3de1f051	0.11032165
63	0xbd812cec	-0.06307396
64	0xbcb05fa6	-0.021529984
65	0x3e011d65	0.1260887
66	0xbd00f227	-0.031480934
67	0xbde07de1	-0.109615095
68	0xbeacfd77	-0.33787128
69	0x3dc93715	0.09824959
70	0x3e1da47d	0.15394779
71	0xbec95297	-0.39320824
72	0xbcdd803e	-0.02703869
73	0x3d7b6a74	0.06138082
74	0xbdcf286f	-0.10115134
75	0xbd6f6a39	-0.05845091
76	0x3d844db9	0.06460137
77	0xbda2b888	-0.07945353
78	0x3c093817	0.008375189
79	0xbe57c53a	-0.2107133
80	0x3e0eeb7a	0.13957015
81	0xbddb0201	-0.106937416
82	0x3e09ee21	0.13469745
83	0x3d2ff471	0.042957727
84	0xbd0cc7cd	-0.034370232
85	0x3e99c16f	0.3003039
86	0xbd8125de	-0.06306051
87	0xbe8f53e8	-0.27993703
88	0xbefcbd6b	-0.49363264
89	0xbd46e5c1	-0.048558954
90	0xbd976374	-0.07392016
91	0xbe87fbb5	-0.26559225
92	0xbe1e7c59	-0.15477122
93	0x3d1fb0ed	0.03898709
94	0x3c9458ff	0.018108843
95	0xbc6a9f3f	-0.014320194
96	0xbe6e6c33	-0.23283462
97	0x3e1331f2	0.14374521
98	0xbe423908	-0.18967068
99	0x3de22127	0.110414796
100	0x3d74a9ec	0.059732363
101	0xbd98e17b	-0.07464882
102	0x3e0ab41f	0.13545273
103	0x3d566497	0.052342024
104	0x3dc27b23	0.09496143
105	0x3dc8e1e5	0.09808711
106	0x3eb97e47	0.36229154
107	0x3e44a299	0.19202651
108	0xbdb5ef7a	-0.08883567
109	0x3d40311f	0.046921846
110	0x3a8c0f0f	0.001068564
111	0x3d89236e	0.06696211
112	0xbe119d74	-0.1422022
113	0xbe985c25	-0.297578
114	0xbe2795df	-0.16365765
115	0x3bab98f6	0.00523674
116	0x3dacdac3	0.08440163
117	0x3dfbbc53	0.12291779
118	0xbe666bc9	-0.22502054
119	0xbc9c6800	-0.01909256
120	0x3e326f08	0.17425168
121	0x3ec3aaac	0.3821615
122	0x3e6600a0	0.22461176
123	0xbe6a7635	-0.22896655
124	0xbb5169d8	-0.0031953957
125	0x3d9e2b51	0.07723106
126	0x3e289a13	0.16465025
127	0xbe9a1823	-0.3009654
128	0xbdcc9d29	-0.099909134
129	0x3e635825	0.22201593
130	0x3e1d8c4b	0.15385549
131	0x3e168c7d	0.1470203
132	0x3e00d99f	0.12583016
133	0xbe549280	-0.2075901
134	0xbeec7d16	-0.46189183
135	0x3bab1d62	0.0052220086
136	0xbdde5cd9	-0.10857553
137	0x3d120010	0.03564459
138	0xbde0f010	-0.10983288
139	0xbe35f2c4	-0.17768389
140	0xbe8df7ba	-0.27728063
141	0xbd2774e2	-0.040882953
142	0x3d82b9b7	0.063830785
143	0xbd46ccf7	-0.048535313
144	0x3e86bbe9	0.2631524
145	0xbe67febb	-0.22655766
146	0xbe93c86f	-0.28863856
147	0x3bca3a43	0.006171496
148	0xbe3d80a9	-0.18506111
149	0x3d885395	0.06656567
150	0xbe478118	-0.19482839
151	0xbe1052e7	-0.14094125
152	0xbebc0be3	-0.3672782
153	0x39b2c774	0.0003409941
154	0x3e01919d	0.12653203
155	0x3e4915a0	0.19637156
156	0x3dbecc8f	0.0931636
157	0xbd6707c1	-0.05640388
158	0xbe3efbf1	-0.18650796
159	0xbe553cf6	-0.20824036
160	0xbd413b9f	-0.047176
161	0xbea1fd35	-0.31638494
162	0x3ea8dd7e	0.32981485
163	0x3e5ab11f	0.21356629
164	0x3dd84eed	0.10561929
165	0xbdc975d5	-0.09836928
166	0xbe975f84	-0.2956506
167	0xbe79e251	-0.24402739
168	0xbdb68590	-0.08912194
169	0xbe047ab8	-0.12937438
170	0xbc05f9db	-0.008177246
171	0x3db3b724	0.08775166
172	0xbe395412	-0.18098477
173	0x3d14d144	0.036332384
174	0x3da36435	0.07978097
175	0xbebe89a8	-0.37214398
176	0x3e07d30c	0.13264102
177	0x3dbdcc5e	0.092674956
178	0xbca75405	-0.020425806
179	0x3dc7d5c8	0.097575724
180	0xbbc518c2	-0.0060149143
181	0x3da3a8db	0.07991191
182	0xbe8cfc23	-0.27536115
183	0x3e710844	0.2353831
184	0xbdcf02a1	-0.10107923
185	0x3e451032	0.1924446
186	0xbe37b2dc	-0.17939323
187	0x3e307983	0.17233853
188	0xbce695d9	-0.028147625
189	0xbd94f694	-0.072735935
190	0xbe2c610f	-0.168339
191	0x3de255ec	0.110515445
192	0xbe4dddb0	-0.20104098
193	0x3db8a6c1	0.09016181
194	0x3d315e12	0.043302603
195	0xbdef4fae	-0.116851196
196	0x3d613476	0.05498167
197	0xbdc7b416	-0.097511455
198	0xbebfc09a	-0.3745163
199	0xbe35ae76	-0.17742333
200	0x3db29961	0.08720661
201	0xbc22d1ee	-0.009937746
202	0x3e2504f5	0.16115172
203	0xbe2d6cd0	-0.1693604
204	0x3da61de6	0.081111714
205	0xbee24a61	-0.44197372
206	0xbcfe1bef	-0.03101918
207	0xbc7a6692	-0.015283244
208	0x3c165eca	0.009177873
209	0xbe56364a	-0.20919147
210	0xbd11d4d3	-0.035603356
211	0xbe6c9f15	-0.2310756
212	0x3e08ad7b	0.13347428
213	0xbe2ea4e6	-0.17055091
214	0xbebbc917	-0.36676857
215	0x3d24ab2f	0.040202316
216	0xbe84e185	-0.25953308
217	0xbe6bddba	-0.230338
218	0x3e2ad40a	0.16682449
219	0x3d93460e	0.07191096
220	0xbe16f4d8	-0.14741838
221	0xbe3f9253	-0.18708162
222	0xbd361ff0	-0.04446405
223	0x3e069af6	0.1314505
224	0xbe094d17	-0.13408314
225	0x3d17c5ef	0.037054
226	0xbc54c6f9	-0.012986892
227	0x3e834112	0.25635582
228	0x3ed6f2e6	0.41982192
229	0x3dd5790a	0.10423477
230	0x3db43de5	0.08800868
231	0x3dc68a02	0.09694292
232	0x3e64e57f	0.22353171
233	0x3d996832	0.07490577
234	0xbc254802	-0.010087969
235	0x3d24fd75	0.040280778
236	0x3d9ea0f0	0.0774554
237	0xbc07adcf	-0.008281185
238	0x3e999818	0.2999885
239	0x3dad1884	0.084519416
240	0xbe05c59f	-0.13063668
241	0xbe9ce6ba	-0.3064478
242	0x3e2ba1b6	0.16760907
243	0xbd60b77f	-0.054862496
244	0x3caa7b49	0.02081074
245	0xbce4dfb2	-0.027938697
246	0x3e036ba6	0.12834033
247	0x3d95c049	0.07312066
248	0x3c8ea1ed	0.017411197
249	0xbdd03d6a	-0.10167964
250	0xbe530688	-0.2060796
251	0x3e2a0bbe	0.16606042
252	0xbded6611	-0.11591733
253	0xbdbf0abd	-0.0932822
254	0x3e90c9d5	0.28278986
255	0x3dd44b11	0.1036588

b3.bias f4 [64]
0	0x3d965448	0.07340294
1	0x3e01bf10	0.12670541
2	0xbd368141	-0.04455686
3	0xbd085979	-0.033288453
4	0x3d2ba8d7	0.041909065
5	0xbdc47210	-0.09592068
6	0x3d69ecc5	0.057110567
7	0x3cd5f8cc	0.026119612
8	0xbe1ec992	-0.1550658
9	0xbda73aa9	-0.081654854
10	0xbda2244f	-0.079170816
11	0x3dd44f24	0.103666574
12	0x3d15e02d	0.036590744
13	0x3e020709	0.12697996
14	0xbdaba24b	-0.08380564
15	0xbdd1b057	-0.10238712
16	0x3b52224b	0.0032063897
17	0xbcfaf6dc	-0.03063529
18	0x3baf5dcb	0.005351757
19	0x3dafb6c8	0.08579785
20	0xbd60e96e	-0.054910116
21	0xbe5a2f10	-0.21307015
22	0xbc5aa8f9	-0.01334595
23	0x3db3d69a	0.087811664
24	0x3de56b76	0.11202137
25	0xbe1323ee	-0.14369175
26	0xbe9e878d	-0.30962792
27	0xbde37f31	-0.11108244
28	0x3e16834a	0.1469852
29	0xbd82f705	-0.063947715
30	0x3caa3e4f	0.020781664
31	0xbdb9385b	-0.09043952
32	0xbdef54a3	-0.11686065
33	0xbdc35d1e	-0.09539245
34	0xbc83d5fb	-0.016093245
35	0x3d8164a1	0.063180216
36	0xbc6f6058	-0.0146103725
37	0xbe18df53	-0.14928941
38	0x3d36e590	0.04465252
39	0xbe0c23ce	-0.13685533
40	0xbc8fe874	-0.017566897
41	0x3c0bd660	0.008534998
42	0x3dfeb442	0.12436725
43	0x3e38abfc	0.18034357
44	0xbdf14072	-0.1177987
45	0xbdefd94b	-0.11711367
46	0x3dd3bd5b	0.10338851
47	0xbdcabff4	-0.098998934
48	0xbe004e38	-0.12529838
49	0xbdf8e6af	-0.121533744
50	0xbcd5debe	-0.026107188
51	0x3d3efe33	0.046629142
52	0x3c3d8b5b	0.011568869
53	0x3d2f65bf	0.042821642
54	0xbbbf9196	-0.0058462126
55	0xbdb155ea	-0.08658965
56	0x3d54df98	0.051971048
57	0x3db391b3	0.08768024
58	0xbda3ec91	-0.08004106
59	0xbcebc65b	-0.028781107
60	0xbe1db6e9	-0.15401806
61	0x3d4c248f	0.049839552
62	0xbdacbcfc	-0.084344834
63	0xbe49c08b	-0.19702356
