nets/model_epoch_9.pth (torch, 648764 bytes, 25 tensors)

a1.weight f4 [16, 5, 3, 3]
00000000: 6cf2 b23d a560 ab3d 4191 45bd 7c9c 12ba
00000010: b3b9 46bd e69e d13d 31f8 48bb 6b90 643d
00000020: e172 85be 8327 d6bb 4837 5dba e90f 1ebe
00000030: 7429 b53b 48a2 c9bc f574 04be d9db 2dbe
00000040: 5f02 2dbe 9acb 87be 1eec 1e3d e068 a3bd
00000050: 2fc8 b5bc 4400 e2bc 7cf3 1abe 72c6 143d
00000060: d591 ecbd 8238 6abe 8992 833b b13d 58be
00000070: a3b5 64bd 5488 383d c88d d5bd a36b ec3c
00000080: 3742 88be 35a4 08be 8058 f7bc 9c3e 6e3d
00000090: 6705 0ebe a813 31bd 92bf e9bd 5da6 6e39
000000a0: 935c 19be 8c96 c2bd 082c 30bc 42d9 f2bd
000000b0: b449 3dbd 57fe d33d b98e 14be 030b 74bd
000000c0: e378 6f3e 7e4c 943c 3fe4 7c3e 6cd6 3c3c
000000d0: 8aa4 9f3e 3834 22be 13ad 843d a9aa 663e
000000e0: b646 223d 3c71 253c 33b0 283e 8850 913c
000000f0: 0321 d83d ac6d 95be 7de5 0a3d 6a97 253e
00000100: 9f4b 7abd a0fa afbd 0918 863e 6e83 0e3d
00000110: 78fb 99be 5182 94bd c226 ffbd bf7c 133d
00000120: 52b7 a53c 9f8f 8fbe e889 7abe b4b8 fabb
00000130: 8e77 563e 12e3 8e3d 5f93 ad3d 2637 713d
00000140: 4693 a2be 7365 e83c a8b5 1d3d ecce 82bc
00000150: aaeb 9f3d b459 733c 2830 1dbd 21de 9cbd
00000160: 7baf a1bd 9d2f b43c 6f08 75be 3859 0c3d
00000170: a4a2 943e a07e 603d d55b 1f3e f3e2 183d
00000180: a43a aa3e d383 a33e 8b92 2c3d 9098 0a3e
00000190: b01a 153e e096 223e cb6d 4dbd f49c 2fbc
000001a0: fd27 86bc cbd6 28bd 77b1 ecbd 2430 ad3d
000001b0: 52d3 403e bed9 913e 1454 0c3e 28b6 8b3d
000001c0: 0095 12be 62c8 653e f643 5bbe ffad aabd
000001d0: 6984 d73d 0bf3 2bbc 93b1 43be 1bf7 46be
000001e0: 9239 fa3c 2180 03be ddf1 2cbc 3f8f 3c3d
000001f0: 82c9 613d 6253 67be 1ba8 dfbc d817 5d3d
00000200: 25eb 143d aa8e 9abd 2d70 da3d a014 05be
00000210: b889 e8bc 68a1 1bbd b012 aa3d 1719 093e
00000220: 0ae9 be3d 9726 75be 073f 2a3e 80da f73d
00000230: c8de 12be 371f 263d 9748 7abe 33c6 5f3e
00000240: 66c0 c3bd 566c 9bbe d751 14be d84b 83be
00000250: b691 9abd df22 a8be 23cb 023d 4d10 5b3d
00000260: 7a76 26bc 23e9 7fbc 6935 7c3d d23f 843c
00000270: 5079 fabd 98dc 4dbd f4b7 29be a02e e6bd
00000280: 843e 0ebe e081 883e 0c14 363e 0611 523e
00000290: bcbe 263e 678a 743e e8b3 9cbd b400 be3e
000002a0: 761f 0a3e 94ba f6bc f637 35be 0273 e9bc
000002b0: f1dd 113d 37fc 643d bcad d6bc 7aa8 17bd
000002c0: e04f a7bc 0d42 3d3d 262e 3fbd 6a55 b4bb
000002d0: 99a2 3c3e 115c 4d3d 34b8 59be 3559 b93d
000002e0: 27c5 d73d 7fc7 4f3e 566e 703c c485 163e
000002f0: 1695 4a3e 5edc 003e 1250 86bd 3d90 043d
00000300: ef69 3bbe f639 6ebd dd8a b9bd 9256 113e
00000310: 5b15 333d 425f f8bd a74c 713d 5d0d ed3d
00000320: 3aed 9d3e d71a e7bb 956a 8ebc 9841 b6bd
00000330: 2435 70be 8b5a 483e 99a4 09bd baca d3bd
00000340: 576e 8ebe 6156 97be f75d 813d 388b 873d
00000350: 2504 e5bd ab9b 12be 2358 8ebc c02a dd3c
00000360: 9a6f 19bb ff0a 613d c79f efbc dd7c 523d
00000370: af63 b4bd d77d 7f3c 1afe a639 c1c9 c93d
00000380: 9252 b7bd 7b6f b3bd 05ec 59bd dcd8 743e
00000390: 3cb9 89bd 1184 92bd 9e0a abbc 9b94 ec3d
000003a0: 4ce2 ddbd 89c8 833e b2ef 34bd 27b1 863e
000003b0: 0244 813e 7d59 10bd c632 86bb 053b 67be
000003c0: e34c 803d 3b5e 413e 51be b9be 0322 fa3c
000003d0: 3904 b43d 0f70 c43d cd01 f0bd 8f62 2e3e
000003e0: 946b 54be d65b 2dbe f9b8 0ebe 1476 7bbe
000003f0: bb26 6f3e 478b 26bc bbba a23d c408 573d
0.087376446 0.08368043 -0.048234228 -0.0005592776 -0.04851694 0.102353856 -0.0030665512 0.05580179
-0.26064208 -0.006535472 -0.00084387185 -0.15435757 0.0055286232 -0.024613515 -0.1293524 -0.16978396
-0.16895436 -0.26522523 0.038799398 -0.07978988 -0.022190182 -0.027588017 -0.15131944 0.036322065
-0.11551253 -0.22873119 0.004015271 -0.21117283 -0.055837285 0.045051888 -0.10427433 0.028859919
-0.26613018 -0.1334389 -0.030193567 0.058165178 -0.13869248 -0.043231636 -0.11413492 0.00022759424
-0.1497672 -0.09501371 -0.010752685 -0.11857845 -0.046212867 0.10351246 -0.1450757 -0.059580814
0.23385958 0.01810288 0.24696444 0.0115257315 0.3118022 -0.15840232 0.06478324 0.22526039
0.039618216 0.010097798 0.16473465 0.017738596 0.105531715 -0.29185236 0.033910263 0.16171041
-0.061107274 -0.08592725 0.26190212 0.03479331 -0.30074668 -0.072514184 -0.12458564 0.03600764
0.020229015 -0.28039262 -0.2446667 -0.007651413 0.20944044 0.06976904 0.084753744 0.058890484
-0.31752986 0.028368687 0.03850332 -0.015967809 0.07808621 0.01485293 -0.038376004 -0.07659555
-0.07894798 0.02199536 -0.23928998 0.034264773 0.29030335 0.05480826 0.15562375 0.03732581
0.33247864 0.3193651 0.04213194 0.1353476 0.14560962 0.15877867 -0.050153535 -0.010718573
-0.01637649 -0.041220468 -0.11557286 0.08456448 0.18830612 0.28486437 0.13703948 0.06821853
-0.14314651 0.22439721 -0.21412644 -0.08333968 0.10523302 -0.010494958 -0.19110708 -0.19430201
0.03054503 -0.12841846 -0.010555712 0.046035048 0.055123813 -0.22590402 -0.027301839 0.053977817
0.036357064 -0.07546742 0.10665927 -0.12996149 -0.028385982 -0.037995726 0.083043456 0.13388477
0.093217924 -0.23940502 0.16625606 0.121022224 -0.14342797 0.040557113 -0.24441753 0.21852951
-0.095581815 -0.3035609 -0.14484344 -0.25643802 -0.075473234 -0.32839105 0.031932008 0.053482343
-0.010160083 -0.015619549 0.061574373 0.016143713 -0.1223017 -0.050259203 -0.16574079 -0.11239362
-0.13891035 0.26661587 0.17781085 0.20514306 0.16283697 0.23880921 -0.07651502 0.3710991
0.13488564 -0.030118264 -0.17697129 -0.028497223 0.03561205 0.055904593 -0.02620589 -0.037025906
-0.02042383 0.04620557 -0.04667487 -0.005503346 0.18421401 0.05013663 -0.21261674 0.09050218
0.10535651 0.20290945 0.014674744 0.14699465 0.19783434 0.12584063 -0.06558241 0.03236412
-0.18302129 -0.058160745 -0.09059689 0.1419318 0.043721538 -0.12127544 0.058910992 0.115748145
0.30845052 -0.00705276 -0.017384807 -0.0889923 -0.23457772 0.1956579 -0.03360424 -0.103414014
-0.27818558 -0.2955809 0.063167505 0.06618351 -0.11182431 -0.14317195 -0.017376011 0.026997924
-0.0023412467 0.054942127 -0.029250992 0.05138861 -0.08808076 0.015593967 0.00031851308 0.09852935
-0.08951296 -0.087614976 -0.0532036 0.2391085 -0.06724784 -0.07154096 -0.020879086 0.11551782
-0.10834178 0.25738934 -0.044173904 0.26307032 0.25247198 -0.035241593 -0.004095408 -0.22581108
0.06264665 0.18883602 -0.36278012 0.030533796 0.08789868 0.09591686 -0.117190935 0.17029785
-0.20744163 -0.16929564 -0.13937749 -0.24556762 0.23354618 -0.010165042 0.07945772 0.052498594

a1.bias f4 [16]
00000000: a5d8 823d 0b05 0dbd c357 55bd 1261 b6bd
00000010: 21c0 fd3d ab00 7abd 2dd8 f03c fddf 82bd
00000020: fac1 04be 7210 ec3d 3112 90bc 538a 833d
00000030: 3382 ffbc e0fc 28bd c886 323e 7924 243e
0.06388978 -0.034428637 -0.05208565 -0.089052334 0.12390161 -0.061035793 0.029399956 -0.063903786
-0.12964621 0.11526574 -0.0175868 0.064228676 -0.031190014 -0.041256785 0.17434227 0.16029538

a2.weight f4 [16, 16, 3, 3]
00000000: 0886 7c3d b463 f3bd b415 02bd be87 0c3c
00000010: dd91 b13d 254b 133d b082 d93b 6eb1 7cbc
00000020: f379 153d f162 a43c be77 813d ffdc 73bc
00000030: cdf0 91bd add6 c03d 4305 0abe ebed 2bbd
00000040: 705f 103e 6ef6 c53b 9422 15bd cf92 77bd
00000050: b251 1dbe 02fe 9ebe b496 cebd d47c 083c
00000060: 5b25 15bd 39ab 90be 7aca a73d c110 b6be
00000070: 7803 e13d b902 20be 8029 833e 88d5 0cbe
00000080: 44ad de3d e616 0d3e 7901 1f3d b2e4 e93c
00000090: 779b 183c f23d 8cbe f7c8 d3bc 92ce 20bd
000000a0: d35d 773c c8bc ecbd 0f0d 5cbe 6ec2 23be
000000b0: 89cf dbbd 06a1 8a3d e268 38bd 7274 b5bd
000000c0: acb5 073e 121f 263d 6de1 a43d b3dd 75be
000000d0: 10d6 b73d e163 0b3e 54bf a2bd dfe5 ef3c
000000e0: d5b1 7b3d 8c19 873e 3bd0 313e 4ccf 4c3d
000000f0: 4951 0c3e 7213 ebbc 205b 3cbc 2f44 333e
00000100: 1a32 18be 52ab 1cbb 6867 95be da7b 673d
00000110: 4e12 d4bd c6b9 c4bd bb14 85bd 76f7 053e
00000120: 4575 403e 5da9 d03d 6827 0dbd 3e80 dcbc
00000130: 66f7 df3b ec88 0e3e 018e 0dbe 7864 7b3e
00000140: aa77 933d 8533 1e3d 7133 173e 567b e13c
00000150: 40ac d2bd 026a 1e3e 2406 6f3e ea96 443d
00000160: c2eb 963d 2d5a b13d 4630 14be ceeb 5abd
00000170: 0c67 c7bd dde4 983d 3fe4 d63d e5a0 48be
00000180: 8623 653d 2ccf bcbd 86e8 093e f6e3 4abe
00000190: 0110 73bc 8604 80bc 4020 9dbd bbae c2bd
000001a0: a892 d13c f7ba a53e 249f bc3c 6d38 aabd
000001b0: 8d53 9ebc 26dd ebbd e093 4e3d af75 033c
000001c0: be12 b93e 9b4e 6fbe 3d5b ab3e 3ef0 023e
000001d0: 0e46 cbbd b192 0e3d 01eb 38be 3dd6 94be
000001e0: 1bfd 593d 4a10 823e 5582 0f3e a554 323e
000001f0: 1d3c 29be 33ad 94bc 6191 a6bd feb6 b7be
00000200: 9c43 eabc 18b2 1fbd 7d30 aabc 674d 08be
00000210: b24f 81bd 3514 e0bd 451d be3d 2e27 3fbe
00000220: 5420 d0bc 2beb 4ebd e428 d9bd 0d76 a0bd
00000230: 8b43 813e d0b4 22be f350 8c3c ccc4 fa3c
00000240: bf94 97bd fa17 8d3d 68c3 5e3d 71b7 d9bd
00000250: dd98 15bb f9d3 903c e61a adbd 5b48 c4bd
00000260: bf04 3fbe 7f1a 26bc decd 23bd 4860 d13d
00000270: 56fd 4b3c 2951 80bd 33f4 11bc 21c0 803d
00000280: 4f9d 9a3d 0db6 ab3d 6c79 b13d 642b 5fbc
00000290: cda1 d73d d46c e8bc 7c45 053e 9d9e 4d3d
000002a0: d7eb 76bc 058a 873d 2913 653d 39ca e0bd
000002b0: 6ca9 c53d 7eab 4b3e 81cf b7bd ddac c53a
000002c0: 181f be3c 7980 1a3d 86ed 60bd eff3 5b3e
000002d0: b432 523e 535c 81bd ce39 1c3e 78fb b63d
000002e0: eb7f d03c d92d 54bd c147 a43d 9728 cbbc
000002f0: 3ac2 52bc 26d7 8bbd 49b1 273d afbd b33d
00000300: 1727 a73b 4be3 da3c 0326 79bc 96fb 703d
00000310: 4d9a bb3d 639f ebbd 2f6b 03be f405 d4bc
00000320: f033 afbd f2d1 e2bc cfa2 16bd 1940 1e3b
00000330: 623a f7bd 8e98 ecbd 1c20 bcbc 6f06 a63d
00000340: 4471 d33d 4ce3 9d3d 05fd cfbd 6548 afba
00000350: a6a9 e5bb e178 f13d dda6 90bc 05c1 8e3e
00000360: 3c1a ec3c 7170 89bd 2c34 a13d 2d5e 66be
00000370: 4914 253d 3b7e d8bd a34a 4bbe b89d 483e
00000380: f347 603c 9180 9c3c bc72 72bd fd75 a13d
00000390: 22b1 483d 2415 233c c6ec 723d 8bd2 b23b
000003a0: 610e 8fbd d6b2 cdbd 49e3 683d 1bc7 b73d
000003b0: f3e6 14bd 2fb6 6b3c 7e39 36be 2e15 433e
000003c0: 7f83 a1bd 3f93 b93d 264c 14be 40a8 403d
000003d0: 7cf1 833e 906f c73d 3030 e73a 0ed6 4eba
000003e0: 7a43 0e3e 6204 d3bd a01c e1bd 5898 1bbe
000003f0: 3eb3 06bc 3ba4 0a3e 943e 283b 1aeb cbbd
0.06165126 -0.11884251 -0.03175898 0.008577285 0.08670399 0.035960335 0.0066378936 -0.015423162
0.036493253 0.02006671 0.06321667 -0.014884233 -0.07126007 0.09415946 -0.1347857 -0.041974943
0.14098907 0.0060413396 -0.03640993 -0.060442742 -0.15363196 -0.31053168 -0.10087338 0.008330543
-0.036412578 -0.28255633 0.08192916 -0.35559657 0.1098699 -0.15626039 0.256176 -0.1375333
0.108728915 0.13778266 0.038819764 0.028551433 0.009314409 -0.2739101 -0.025852663 -0.0392595
0.015098053 -0.11559445 -0.21489356 -0.15992138 -0.107329436 0.06768994 -0.0450219 -0.08860101
0.13252896 0.040556975 0.08050809 -0.24010353 0.08976376 0.1361232 -0.07946649 0.029284416
0.06144889 0.26386678 0.1736459 0.05000238 0.13702883 -0.028695796 -0.011496335 0.17506479
-0.14862862 -0.0023905826 -0.29180455 0.0565146 -0.10355054 -0.09605746 -0.06498095 0.1308268
0.18794735 0.101885535 -0.03446141 -0.02691662 0.006834912 0.13919419 -0.13823701 0.24550045
0.072005585 0.03862335 0.14765717 0.027524631 -0.1028676 0.15470126 0.23342186 0.047995485
0.07369186 0.08659778 -0.1447154 -0.053447537 -0.097364515 0.07465527 0.10492753 -0.19592626
0.05594208 -0.092192024 0.13467607 -0.19813523 -0.014835359 -0.015627157 -0.07672167 -0.095059834
0.025582626 0.32369205 0.023025103 -0.083115436 -0.01932695 -0.1151679 0.050433993 0.008023663
0.36147112 -0.2336983 0.33468047 0.12786958 -0.09925471 0.034807865 -0.18058397 -0.290697
0.053219896 0.25403053 0.14014561 0.17415102 -0.16526838 -0.018148994 -0.081331976 -0.358818
-0.028596692 -0.038988203 -0.020775074 -0.13310777 -0.06314029 -0.10941354 0.092829265 -0.1866729
-0.02540604 -0.050517242 -0.106035024 -0.078350164 0.25246844 -0.15889287 0.017128443 0.030611418
-0.07401418 0.06889339 0.054385573 -0.10630692 -0.002282671 0.017679201 -0.08452396 -0.09584113
-0.18654154 -0.010138153 -0.039991252 0.10223442 0.012450537 -0.0626548 -0.008908319 0.06286646
0.075495355 0.08384333 0.086657375 -0.013621185 0.10528908 -0.028372206 0.13014787 0.050200094
-0.015070877 0.06618122 0.055926476 -0.10976071 0.09651455 0.19889638 -0.08975125 0.0015081424
0.023208186 0.037720177 -0.05491402 0.21479772 0.20527154 -0.063164376 0.15256426 0.089346826
0.025451621 -0.051801536 0.080214985 -0.024799628 -0.01286369 -0.06828146 0.040940557 0.08776414
0.0051010954 0.02671971 -0.015206817 0.05883368 0.0916029 -0.1150501 -0.12833856 -0.025881745
-0.08554828 -0.027688 -0.03677636 0.0024147092 -0.120716825 -0.11552535 -0.02296453 0.08106696
0.10324338 0.07709369 -0.101556815 -0.0013373016 -0.007008749 0.11790634 -0.017657692 0.27881637
0.028821103 -0.067108996 0.07871279 -0.22496863 0.04030255 -0.105709516 -0.1985269 0.19591415
0.013689029 0.019104274 -0.05919145 0.078838326 0.048997052 0.009953771 0.059307836 0.0054572276
-0.069851644 -0.10043876 0.05685738 0.08973523 -0.036353063 0.014386698 -0.17795369 0.19051048
-0.07886409 0.09061288 -0.14482173 0.047035456 0.25770175 0.09738076 0.0017638262 -0.0007890173
0.13892928 -0.1030357 -0.10991788 -0.15194833 -0.008221446 0.13539211 0.0025672065 -0.099569514

a2.bias f4 [16]
00000000: e17e 7cbd a484 82bd 87df 5dbd b420 00bd
00000010: 40d5 e93c 0e1e 8dbd 4f20 6dbc b8e0 0dbd
00000020: a610 a43d c700 6fbd 43fc 54bd 49e5 4f3c
00000030: 33f6 8ebd 22aa c53c 4061 c63d 89fe 033d
-0.06164444 -0.063729554 -0.05416825 -0.031281188 0.028544068 -0.06890498 -0.014473035 -0.034638137
0.08010988 -0.05835035 -0.051998388 0.012688943 -0.069805525 0.024128977 0.09686518 0.032225166

a3.weight f4 [32, 16, 3, 3]
00000000: 6349 0ebe 54ff 433e ee17 85be d953 b2bd
00000010: d2ac acbd dd66 1cbd 1cf1 afbe 51e7 08be
00000020: 9dc4 9b3d 2ea7 f2bb fb30 34bd 7355 09be
00000030: bc1b 9ebc bd97 803d d10e 023e df2e 72be
00000040: fb74 3abe a9d5 8fbe aab7 c43d a796 fc3d
00000050: c564 0e3e 7792 e5bb 960f b63d 4628 10be
00000060: 1a86 cfbd 4bcc 2b3d bc2e 4cbd 0237 95bd
00000070: e52a c53d 5c70 bb3d eddc 9a3d d1a3 c7bd
00000080: 7c46 ee3d 4814 a3bd 5e36 d1bd 0944 cd3c
00000090: b721 bf3d 8305 753d 2ee7 78bd 131b 06be
000000a0: a0ad 473e 11a6 083c 6999 bb3d d734 943b
000000b0: 6e46 f63c 1e20 7d3d dd87 173d b45b 12be
000000c0: cc4c 373e 4d05 17bb 803d 553e 0da1 05be
000000d0: a672 8cbd b621 393d 6af3 0a3e 8014 ca3d
000000e0: 0ef0 f6bd bce4 1b3d 0b74 963d 4228 bcbd
000000f0: c8bb 3f3d 62e0 3d3e 206c 0a3d fa8b bf3d
00000100: b8ea 833d 6695 7c3d ad40 6a3d a138 863e
00000110: 8859 92be 62ab 343e 669b 073c 0965 00bd
00000120: d50c 1b3d 0143 923d d8ac 16bd 1669 c73d
00000130: 0b41 553e 7fda b83c 2c84 0e3c 9953 2ebe
00000140: ad90 b2bd 1150 963c d91d 2f3e 603c 0abe
00000150: d562 2b3e d89f 1dbd 716f 91bd 0637 d5bd
00000160: 699a 98bd 62e6 723d f615 1e3d 4c22 223d
00000170: fa7c 00bd 03ac aa3d a1e8 02be 8f9b 833e
00000180: ca1f 853c 2835 83bd 65a2 c2bd 554a adbd
00000190: f651 cebd 9e1e 64bd 9610 adbd 1f43 553e
000001a0: 2dc6 63bd c68c e73b 1653 093e 7ee6 2ebd
000001b0: 9694 4fbd 66ae 66be 5252 d6bd 794a f63d
000001c0: 14dd 44bc a82e 5d3e 3785 84be 0359 cf3b
000001d0: 94a2 b5bd abe7 a03e dd90 753d cc62 d5bd
000001e0: ed2c ad3d a1fc fabd f2ea afbd 43da 2e3d
000001f0: ac93 cf3c 8e2a 9c3d 0825 813e 6d3f 1fbe
00000200: cb79 ccbe 0502 f53c 9450 5d3e 20c0 94bd
00000210: 98d2 073e 5b97 7fbd 4c5d 54be 3cf7 a0bc
00000220: 8ea4 4a3d e9f6 b93d f19e 2fbd dbaa 483e
00000230: e991 e0be 9ce3 e33d 4dcc 17be 9af3 b1bd
00000240: 69e1 903d 3c26 6dbc de14 9d3e 980a b53d
00000250: 8994 513c b6a2 d83d d0ee 89bd 7c46 5cbd
00000260: de60 553d 81ab 87bd 819d 4cbd 6b55 053e
00000270: 9b8b c5bd 158d e8bd 75b2 ba3d bd00 c13d
00000280: 03d9 213e afcc 84bd 9ddb 5abe 9381 79bd
00000290: 2702 68bd c79f 063e 36f8 03be ad3c 37be
000002a0: bc27 29be a19c 72bd 32a8 14be 1974 8ebb
000002b0: d755 e5bd 5c08 e23b c6f2 8cbd 4923 cc3d
000002c0: b842 993d 13e6 233d a8c3 67bd e458 c73d
000002d0: 6efe b2bd 38ee 4abe 7401 d8bc ec07 edbd
000002e0: 322f cfbd 5104 103e 77a1 cfbc aa9e 94bd
000002f0: 0ccd 263e 5cb6 853d dd72 e23d 8491 643d
00000300: 7b26 ce3d f4ba 3cbd 0d0c 363e c0c3 f9bd
00000310: 0ba7 15bd 98a8 223d 3dab 1cbe 7433 2abe
00000320: 58a3 863d 880b b1bd 0878 24be 027e ef3d
00000330: 6246 243d 471e 313e e9df 3e3e 53f3 eebc
00000340: 60f0 6eba 9270 dfbe 9d4b 6a3d e91e 643e
00000350: d151 3bbe 82b0 80be bb70 a73d 5857 1e3e
00000360: 960b bb3b 387a 683e 2492 cdbd 93b0 34be
00000370: a468 c639 6f79 3bbe 0973 dfbd 1ea2 b3bd
00000380: a453 c33a cadc aa3d fdbd 0fbe 0b08 eabc
00000390: 4a97 d4bc 054e 11bc d540 01be 2789 fe3b
000003a0: 22a4 e53d 3a6a 173d b8d9 2e3e 603f 11be
000003b0: 04e5 2e3e 8beb 3bbe c176 f1bd 323a 5dbe
000003c0: ab83 9ebd e19a 8abe c92c 8dbd 397a 5ebe
000003d0: 2ac7 0b3c aee1 883c d8b2 97bd 1a5b b2bd
000003e0: 3dfe b33d 615c babe 203e 1ebe 09f2 f33d
000003f0: 0552 253e 3427 38bd 3952 153e 7576 19be
-0.13895182 0.19140369 -0.2599482 -0.08707399 -0.084314 -0.038184036 -0.3436364 -0.1336949
0.076058604 -0.0074051833 -0.043992024 -0.13411503 -0.019300334 0.06278942 0.12700965 -0.23650692
-0.18208687 -0.28092697 0.09605344 0.12333422 0.13905628 -0.0070059854 0.088896915 -0.14077863
-0.10133 0.041942876 -0.049849257 -0.072858825 0.09627322 0.0915229 0.075616695 -0.097480424
0.116345376 -0.07962853 -0.10215448 0.025056856 0.093326025 0.05981971 -0.060767345 -0.13096265
0.19499826 0.008340375 0.0916012 0.0045229006 0.03006288 0.061798207 0.036994804 -0.14292794
0.1790039 -0.002304393 0.20824242 -0.13049717 -0.06857805 0.045198165 0.13569418 0.09867191
-0.120575055 0.038059935 0.07346352 -0.09187366 0.04680994 0.18542627 0.033794522 0.0935287
0.064412534 0.061665915 0.057190586 0.2621508 -0.28583932 0.17643502 0.008276796 -0.031346355
0.037854034 0.07141686 -0.03678593 0.097368404 0.20825593 0.022565125 0.008698504 -0.17024077
-0.08719001 0.018348726 0.1710123 -0.13499594 0.1673692 -0.038482517 -0.07101334 -0.104108855
-0.074513264 0.05930174 0.038595162 0.03958349 -0.031369187 0.0833359 -0.12784053 0.2570462
0.01625051 -0.06406623 -0.095036305 -0.08461443 -0.100742266 -0.05569326 -0.08450429 0.20826386
-0.055608917 0.007066342 0.13410601 -0.042700283 -0.050678812 -0.22527465 -0.1046492 0.12025923
-0.0120156 0.21599829 -0.25882885 0.0063277497 -0.088689 0.3142675 0.059952606 -0.10419235
0.084558345 -0.122552164 -0.08589734 0.04268862 0.02533897 0.07625304 0.25223565 -0.15551539
-0.3993667 0.02990819 0.2161277 -0.072632074 0.13263929 -0.062400203 -0.20738715 -0.01964914
0.049473338 0.090802975 -0.042876188 0.19596426 -0.4386132 0.111273974 -0.14824028 -0.086890414
0.070742436 -0.014474448 0.30679983 0.08839911 0.012791761 0.1057791 -0.06735003 -0.053778157
0.052094333 -0.06624509 -0.049954895 0.13020866 -0.09645768 -0.11355034 0.09116069 0.09423969
0.1580544 -0.06484353 -0.21372838 -0.060914587 -0.056642678 0.13146888 -0.12887654 -0.1789424
-0.16519064 -0.059231404 -0.14517286 -0.004347336 -0.11198013 0.006897969 -0.06882243 0.099676676
0.07483429 0.040014338 -0.056583077 0.097337514 -0.08739935 -0.19817436 -0.02636788 -0.115737766
-0.10116424 0.14064147 -0.025345547 -0.07256825 0.16289157 0.06528923 0.11057065 0.055802837
0.10065933 -0.04607673 0.17778035 -0.121955395 -0.036536258 0.039711565 -0.15299697 -0.1662119
0.06574124 -0.086447775 -0.16061413 0.11693956 0.040106185 0.17296706 0.18640102 -0.02916876
-0.0009114798 -0.43640572 0.057201017 0.22277416 -0.18292929 -0.25134665 0.081757985 0.15463006
0.0057081683 0.22702873 -0.1003764 -0.17645483 0.00037843466 -0.18308042 -0.10910613 -0.08771156
0.0014902246 0.083428934 -0.14037319 -0.028568288 -0.025951046 -0.008868699 -0.12622388 0.0077678147
0.112129465 0.03696654 0.1707524 -0.14184332 0.1707955 -0.18351571 -0.11790229 -0.21604231
-0.077399574 -0.27071288 -0.06893308 -0.21726312 0.008531371 0.016709175 -0.074071586 -0.087087825
0.087887265 -0.36398605 -0.15453386 0.11911399 0.16144569 -0.044959262 0.14582147 -0.14986594

a3.bias f4 [32]
00000000: 631e 76bd 277b d73c 7cc0 583c e16b 04be
00000010: 9e4d f6bd 4f68 b439 6411 b6bc 65dd 1dbe
00000020: 362b 13be 4625 96bd 29b9 acbc fa8d 63bd
00000030: 5736 49be aac1 99bd fc86 19bd 1e78 dd3d
00000040: 5c16 073e 45a6 71bd f334 9dbd 7eaf e2bd
00000050: bb0a a0bc 2149 9fbd d4d1 1fbd 3ceb aabd
00000060: 0892 6bbb cfc3 9a3d 7c20 0a3e 0d5f 67bd
00000070: cfc6 813c ccdf 2e3d 8523 b7bc ca5b 59bd
-0.060087573 0.02630384 0.013229486 -0.12931778 -0.12026523 0.0003440999 -0.02222509 -0.15416487
-0.14371952 -0.07331328 -0.021084385 -0.05555532 -0.19649635 -0.075076416 -0.037482247 0.10813926
0.13192123 -0.058996458 -0.07676115 -0.11068629 -0.019536367 -0.0777762 -0.039018467 -0.08345649
-0.0035945196 0.07556879 0.13488954 -0.056487132 0.01584187 0.042693898 -0.022355804 -0.053066052

b1.weight f4 [32, 32, 3, 3]
00000000: 878b 3bbe 22c3 9cbb f8d0 563d 636c 41bd
00000010: e852 9cbc 7ffc 6cbe c138 70bd 2f07 c53c
00000020: 3f26 0bbe 5136 18bc 5f00 5ebe cd82 173d
00000030: 27aa 54be b836 8cbe 6d3b 4c3c ca4a ab3d
00000040: 872d 4cbe 53b9 853e 24d0 70bd d4cd 623d
00000050: ff96 1abd f6ef a23d 19b7 0f3e 0f8a 4cbd
00000060: 5c73 fa3a 5bc1 3a3d 5ab6 67bd accb 433e
00000070: 51a3 ef3d 0653 c23d f5fb 833d 3277 68be
00000080: dc9b d73d df30 1abe 2e4c e7bd 3e30 44be
00000090: 7cb2 173e 54fb 0ebe e919 123d 4b45 7bbc
000000a0: 3a39 8ebc 51b1 1bbe 0e0a e1bc 3a21 75be
000000b0: 6c44 0abd 9375 993e ff80 a7be abcc bdbd
000000c0: 6aa0 403e ad95 8abc 5de1 4bbc c987 843d
000000d0: f051 7ebd 4f2c 65be 51bb 11be cb53 69bd
000000e0: ec68 283b acef ecbc 631c b03d e493 2e3c
000000f0: fd31 3abd f448 003e 670a 8bbd 80a2 7dbd
00000100: c7c4 5a3d 31b5 273d 5791 2a3d 0d25 0cbe
00000110: 514e 19bd 992c 263c 1691 6e3d 88d8 c73c
00000120: 9f24 07bd 1100 1ebe 5c0a 1dbe 8492 87be
00000130: bba8 3b3e ba89 1b3c d43b 34be 7c54 8d3d
00000140: 595a f33d 374a bc3d 4db3 a83c 6dda a8bd
00000150: 6e19 c53d 144c 9f3d 39c4 7f3e 7509 aa3e
00000160: 3476 70bd 7a4c 10be 4a37 25bd 60d2 053e
00000170: 1d8d 7ebe 6534 d53c 779b c23d 851a 2bbd
00000180: 00f2 0e3e bfea 753c 48a7 aa3d 2f53 4cbe
00000190: 0e86 9fbd 4284 85be ddc7 4a3e efbc a3bd
000001a0: 8a32 46be be4a 323e abee 8f3d 485c dfbd
000001b0: 29c8 9bbe fa8a 12be d150 24be 5368 72bd
000001c0: 8032 6bbd a853 743e 14e3 5fbd a1f8 0cbe
000001d0: 48b5 9abd 3167 69bd 815b 813d af35 d23d
000001e0: 7b92 ab3d c741 af3d a848 35bd 7e79 66bd
000001f0: 04a6 94be f4e6 a73d 8c86 8b3c db03 e33d
00000200: f913 82bd 97ee 083d 4b4d 3dbe 6625 833d
00000210: 065a 823c d687 bfbd 5506 ccbb fabb efbc
00000220: eda4 1fbc 4892 07bd 89e6 0ebe 7bf9 843d
00000230: dfdd 24bc b380 0c3c 0b93 4abe 462b 193b
00000240: affb 33be bbe1 bfbb 91d7 9b3d dafd 473e
00000250: 7422 293e 32a6 983d 2d01 223d ca2c 54bd
00000260: 80f4 483e ceef 1e3d 0e7d 163d d4a9 90be
00000270: 6a34 01bd fc39 35bd bbd5 8ebe d605 9bbd
00000280: 9413 113e 0206 5ebd 8d48 1c3e d765 5d3b
00000290: ad3a 8fbd d792 693d 645f b4be 0c2f 50be
000002a0: 0692 07be 47d4 18be 4c12 fdbd bbf1 b1bd
000002b0: 3e7a 033e c69c 0cbe b655 373e 1b78 883d
000002c0: eaae a1ba d5e1 38be b877 d33d 5b22 1c3c
000002d0: 723c 4b3d acd9 abbd 6bc7 8f3d 6a50 093d
000002e0: 89fe 14bd 01e8 9bbd 3387 763d 330d 873d
000002f0: 5576 143e 4ba8 743d 749b 12be fb59 70bd
00000300: be7c e03d a5aa 8a3d 661c f83d 2d61 d6bc
00000310: f2b2 96bd 7f91 1dbe 479c 33be f958 6f3d
00000320: 6907 ef3c 3cc8 b7bd 3f7c 1c3d 5079 723d
00000330: 82a5 723d 52ba 8abe e4a6 d0bd f1de c4bd
00000340: 8d17 cc3d 9ec1 66bd caed f8bb 3bf4 86bd
00000350: 2c87 babd ce9c edbd d1e2 2d3e a30a 2a3e
00000360: dc3e 243e 01fc d6bd f579 95be ac26 28be
00000370: 0bd9 343d 529d b93c 6985 273d 6b04 2a3e
00000380: b31a f73c 40ca 9a3d 94fd 6b3d b052 52be
00000390: 0175 ecbd 27f5 bebc 6d40 2d3d b5ed 3abd
000003a0: 01c2 803e 438a 4c3d c591 833e 9800 66bc
000003b0: 37c7 2fbe f9c8 e03d cd24 003d b9bb 863c
000003c0: d729 863b 9a32 593e a18c 6cbe a5bc fc3d
000003d0: 926c 8b3c 9a86 7cbd 4b9c d9be 5b8e 3ebe
000003e0: e655 e9bc 3326 283c 0ffe f43d 333a ba3c
000003f0: 4a45 3d3e 5ed3 233d d906 69be 7dbe 1d3d
-0.18314944 -0.004784004 0.052445382 -0.047222506 -0.019082502 -0.23143195 -0.058647875 0.024051277
-0.13588808 -0.009290294 -0.21679829 0.036989976 -0.20768033 -0.27385497 0.01246534 0.08363874
-0.19939242 0.26117954 -0.05879225 0.055372074 -0.037741657 0.07955925 0.1403469 -0.04993635
0.0019107866 0.045594554 -0.05657039 0.19120663 0.11701072 0.09488492 0.06444541 -0.2270172
0.10527775 -0.15057705 -0.11293827 -0.19159028 0.1481418 -0.13963062 0.03566924 -0.015336345
-0.017361272 -0.1520436 -0.027470615 -0.23938456 -0.03375666 0.29972515 -0.32715604 -0.09267553
0.18811193 -0.016917074 -0.0124438675 0.064712115 -0.06208986 -0.22380184 -0.14231612 -0.056964677
0.0025697304 -0.028922878 0.08599164 0.010655377 -0.04545783 0.1252783 -0.067890935 -0.06192255
0.053410318 0.040944282 0.041642513 -0.13686009 -0.037428204 0.010142469 0.058243833 0.024395242
-0.03299391 -0.15429713 -0.15335983 -0.2647897 0.18326084 0.009493286 -0.17600948 0.0690088
0.11882467 0.09193843 0.02059331 -0.082447864 0.09623991 0.077781826 0.24977197 0.3321034
-0.058706477 -0.14091673 -0.04033593 0.13068533 -0.24858518 0.02602596 0.09502309 -0.041773338
0.13959503 0.015009581 0.083326876 -0.19953607 -0.07789241 -0.26077467 0.19802804 -0.079950206
-0.19355217 0.17411324 0.07027944 -0.10906273 -0.30426148 -0.14310828 -0.16046454 -0.059181523
-0.057421207 0.23860037 -0.054659918 -0.1376672 -0.07554108 -0.056983177 0.06316281 0.102641456
0.08377548 0.08557468 -0.044258744 -0.056268208 -0.2903291 0.08198348 0.01703193 0.1108472
-0.06351466 0.033430662 -0.18486516 0.064036176 0.015912067 -0.093520805 -0.006226341 -0.029264439
-0.009743911 -0.03309849 -0.1395513 0.06492897 -0.010062664 0.008575606 -0.19782655 0.002337174
-0.17576478 -0.0058557666 0.076094754 0.1953043 0.16517049 0.07453574 0.039551903 -0.051800527
0.1962452 0.038802914 0.036740355 -0.2825457 -0.031544127 -0.04424475 -0.27897438 -0.075694725
0.14167625 -0.05420495 0.15262051 0.0033782625 -0.069936134 0.057024803 -0.35229027 -0.20330447
-0.13239297 -0.14924727 -0.123570055 -0.086886846 0.128396 -0.1373168 0.1790379 0.06663533
-0.0012335454 -0.18054898 0.10325569 0.009529675 0.049618192 -0.08391127 0.07020458 0.033523954
-0.036375556 -0.076126106 0.06018753 0.065943144 0.14498265 0.05973081 -0.14317113 -0.058679562
0.10961293 0.06770829 0.121147916 -0.026169384 -0.0735835 -0.15387534 -0.17540084 0.05843446
0.029178338 -0.089737386 0.038204428 0.059197724 0.05923987 -0.27095276 -0.10188082 -0.09612835
0.099654295 -0.05633699 -0.007596706 -0.06589552 -0.09107813 -0.11602174 0.16981055 0.1660562
0.16039604 -0.10497285 -0.29194608 -0.16421002 0.0441523 0.022658024 0.040898714 0.16603248
0.030164098 0.075581074 0.057614878 -0.20539355 -0.11545754 -0.023310257 0.04229777 -0.04563685
0.25148013 0.049936544 0.2569715 -0.0140382275 -0.17165838 0.109758325 0.031285096 0.016446935
0.004094343 0.21210709 -0.2310052 0.123406686 0.017019544 -0.061651804 -0.42502055 -0.18608992
-0.028483342 0.010263014 0.1196252 0.02273283 0.18483463 0.039996497 -0.22756518 0.038511742

b1.bias f4 [32]
00000000: 1bc3 4dbd a8e5 f0bd a957 e5bd e48e abbd
00000010: d7e6 ea3d 5dac b2bd 3fae 1cbd ad8c 39bb
00000020: ac7a ffbb 8fc4 01be f20e cebd b092 ac3c
00000030: 6412 18bd c3c6 e6bd fb28 b23c 6ca8 9fbd
00000040: 226e 88bd 1ee9 1bbe 2f97 2fbd 9f16 513d
00000050: 9178 53bd c00f cabd 425d db3d fb3d 1abe
00000060: 919e b2bc 08e8 84bd 13b4 56bd 1048 55be
00000070: 54f0 45bd d998 dbbb 00d2 173d 5d6f cdbd
-0.050234895 -0.117625535 -0.111983605 -0.083768636 0.114698105 -0.08724282 -0.03825211 -0.002831261
-0.007796606 -0.12672637 -0.10061444 0.02106604 -0.037126914 -0.112683795 0.021748057 -0.07795796
-0.06661631 -0.15225646 -0.04286879 0.051046964 -0.051628653 -0.09866285 0.10711147 -0.15062706
-0.021804126 -0.06489569 -0.052417826 -0.20828271 -0.048324898 -0.0067015705 0.037065506 -0.100310065

b2.weight f4 [32, 32, 3, 3]
00000000: b673 ed3d e7f6 953c f057 0ebd 85eb 233b
00000010: 9f7a 22be b658 713e b58c 0bbe 7397 f8bd
00000020: 0308 4e3e 4167 083d a3d5 283d 135a bbbd
00000030: c67e 8bbd aacf 973c b2af e8bd e586 db3d
00000040: d8db 863e 2dc3 e0bd c5b6 1ebd ca48 ea3d
00000050: 49f2 60be e9c9 a93d 422d e0bd 5ea5 e83d
00000060: 2a77 c2bd 727b 133d 4b03 f6bd a97f a53e
00000070: 3c14 44bd 7b11 2b3e a728 ba3e 5130 8dbd
00000080: d5c3 25bd b95e a13c f93f 2fbe 7d2c 49bc
00000090: 9f6e 7fbd 7acf 9c3d 2d2f 69be 99d0 e2bd
000000a0: 8661 013e 4a7e 2abe 6487 8bbe 46fd 423e
000000b0: 466c 213e 5f25 1b3d 312d bc39 1a9d 1abd
000000c0: 3351 ae3c 2451 c33c 00cd 11bd 5662 c5bc
000000d0: 6339 eb3c 7ff4 0a3d 51e5 78bc 3341 08be
000000e0: 0bb4 273d a527 83bd 1cd2 a8bd b4d7 61be
000000f0: 51d5 11bd 8802 e2ba a008 f5bd 3563 853e
00000100: 997b 343d f184 1cbe 02e9 f8bc 6b1c 873d
00000110: 3d67 4d3c a4e5 113c da55 9cbc 20e5 c9bd
00000120: 03ec d93b f1e7 83bd 7b91 233e 79f4 e5bb
00000130: fada 163c b98c 04be 1626 eebc efdc a73d
00000140: b6c6 3ebe 53dc e33c e282 84be 3e29 37be
00000150: 0d7f 553e 94fe bbbd 3c49 3d3e 34b9 0a3e
00000160: 9e1a 853d 1727 0abe 4cd2 94bc 80e5 fdbd
00000170: 18ef b83c 87c4 dabd 2229 92bd 6f0e 33be
00000180: c33c 1e3e 17c3 043e 9e46 1abe beb7 eb3d
00000190: f028 cbbd dcef 8f3c cf1d 48bc 3740 a93c
000001a0: 6124 2abd 8cfc 54be fc6a 093e a9d0 2cbe
000001b0: 8670 10be d5a1 d9bc 5d50 4cbe ec01 e83d
000001c0: 4183 823c 9848 7dbd fc22 61be c055 113c
000001d0: 95c7 943c 7bcd 4dbe a33c 1dbe 5dc5 c6be
000001e0: cbc0 c23c 3ca7 55be 1141 bcbb 99ad 83bd
000001f0: fa3e 763d 0a5f 34bd d332 c23d 98ef a0bb
00000200: 131e 5dbd 4e85 f5bc 412a b6be c8df 60bd
00000210: dd2d 10be 128a a53d f02e 25bc 508a 4ebc
00000220: 26fa efbd 54ab b6bc 407f 2e3e c2d5 9cbe
00000230: 9176 303c 034b 1f3d 69c7 bb3d 1a5f 223d
00000240: 9a54 4b3e 3629 ba3d 45ac 2dbe 83d6 ea3b
00000250: 9a8e c4bd 48f7 b2bd 8be9 8d3d a75b 683e
00000260: 73ac 3c3d fc17 07bd 8e60 f63b 98a5 073d
00000270: cdad 4a3e a802 4abc 4a1e 523c 83b3 09be
00000280: 48bd 763d 7be5 3ebe 22a5 70bd 9dff ab3c
00000290: 9efe 9fbd 58c6 a4bd f637 3abe 0bad c2bd
000002a0: eebe 5ebd ee9a f4bd ed2f a93c d0cb 233e
000002b0: 7619 acbd 9670 e73c 712d 783d a159 243d
000002c0: 8e96 003e 9546 663c 5614 533d ef5d 39bc
000002d0: 1764 f2bd befa 03be 014b ebbd d6b0 923c
000002e0: 5fd0 59bd f72d 86bd 7106 98be fb57 f7bc
000002f0: 4c98 73bd afe6 eebd f2e2 debd b394 60bd
00000300: 53d8 0e3e b6b7 d93d 8cf0 6b3e 414d 23bd
00000310: b72f 63bd 93ba 1fbe e12d 183e 5f89 84be
00000320: 2660 ce3d f024 b63d 4670 003c 18b2 083e
00000330: d30b 18be 233d 7c3e 1d6c e5bd df5c 31bd
00000340: daf5 5bbd 13ca 493d a912 09be 31c7 85bd
00000350: cbbf d63e 8668 c3bc 75d0 3dbd 9708 d9ba
00000360: 68cd 86bd 4beb 40bc 322b 9abd 3897 da3c
00000370: aeb2 aabd e896 7c3c a736 0e3e 9b85 c63d
00000380: a714 7cbe 5e92 47bd f65b f8bd 37a9 c93d
00000390: eb6a 253d e86c e33d a758 47be 5f44 59be
000003a0: 3aa8 52be 3bbf 9f3d 173d fa3d 9f01 1fbe
000003b0: 2eb5 8e3d f0d2 c4bd d85a f23d 3da6 b03d
000003c0: 01bf 61be 36c6 05be 38c9 20bd 303e b6ba
000003d0: b4d2 cabd d6c0 d13d 8e52 42bb 32ef 00be
000003e0: fc0c 16be 6016 5dbe d5a0 50be a353 463d
000003f0: 1047 cc3c 0d98 073e 9f3c 693e d073 963c
0.11594336 0.018306209 -0.034751832 0.0025012207 -0.15867089 0.23568997 -0.13627894 -0.12138262
0.20120244 0.033301596 0.041219365 -0.0914804 -0.068112895 0.01853164 -0.11361636 0.107190885
0.26339602 -0.10974727 -0.03874852 0.11439665 -0.21967424 0.082904644 -0.10946132 0.11359666
-0.09495385 0.0360064 -0.12012347 0.3232396 -0.04787086 0.16705887 0.3635914 -0.06893981
-0.040469963 0.019698488 -0.17114247 -0.012278673 -0.062361356 0.076567605 -0.22771902 -0.11074943
0.12634858 -0.16649738 -0.27251732 0.19041929 0.1576396 0.037877437 0.00035891825 -0.03774748
0.021278953 0.023842402 -0.035595894 -0.024094742 0.028713888 0.033924576 -0.015191392 -0.13306122
0.040943187 -0.06404046 -0.082432 -0.2205494 -0.035603825 -0.0017243186 -0.11964536 0.2605225
0.044063184 -0.15285088 -0.030384544 0.06597217 0.012536821 0.008904848 -0.019083906 -0.09858155
0.0066504492 -0.06440724 0.15973465 -0.007017669 0.0092074815 -0.12944306 -0.029070895 0.081964366
-0.1863049 0.02781502 -0.25881106 -0.17886826 0.20849247 -0.09179416 0.18484968 0.13547212
0.064992175 -0.13491474 -0.018166684 -0.12397289 0.022574946 -0.10682016 -0.07136752 -0.17485975
0.15452866 0.12965046 -0.15066001 0.115096554 -0.099199176 0.017570429 -0.012214138 0.020660503
-0.0415386 -0.20799464 0.13419718 -0.16876473 -0.14105424 -0.026566425 -0.19952531 0.113284916
0.015931727 -0.06183681 -0.21986002 0.008870542 0.018161574 -0.20097916 -0.15355162 -0.3882245
0.023773571 -0.20864576 -0.005745061 -0.064295955 0.060118653 -0.04403595 0.0948235 -0.0049113743
-0.05398376 -0.029970791 -0.35579112 -0.054900914 -0.14079995 0.080829754 -0.010081992 -0.012606218
-0.11717634 -0.022298492 0.1704073 -0.30631834 0.010770456 0.038889896 0.09168894 0.039641477
0.19856492 0.090898916 -0.16960247 0.007166685 -0.095975116 -0.087385714 0.069293104 0.22691213
0.046062898 -0.032981858 0.0075188344 0.033116907 0.19792862 -0.012329735 0.012824604 -0.13447385
0.060239106 -0.18642227 -0.058751233 0.02099591 -0.07812236 -0.080456436 -0.1818541 -0.095056616
-0.054381303 -0.11943613 0.020652736 0.15995717 -0.08403294 0.028251927 0.06059021 0.04012454
0.12557432 0.014054914 0.051533066 -0.011313899 -0.11835497 -0.1288862 -0.11488915 0.017906588
-0.053177234 -0.06551736 -0.29692414 -0.03019332 -0.059471413 -0.11665093 -0.1088313 -0.05482931
0.13949709 0.10630743 0.2304098 -0.039868597 -0.055465426 -0.15598516 0.14861251 -0.25886056
0.100769326 0.08893764 0.007839268 0.13349187 -0.1484826 0.24632697 -0.112022616 -0.04330146
-0.05370126 0.04926498 -0.13386025 -0.06532133 0.419432 -0.023853552 -0.04634138 -0.0016558346
-0.06582147 -0.011774848 -0.0752777 0.026683435 -0.08334862 0.015416838 0.13888036 0.09693452
-0.24617253 -0.04872357 -0.12126915 0.09846728 0.040385168 0.111047566 -0.19467412 -0.21217488
-0.20571986 0.07800146 0.12218683 -0.15527962 0.06968151 -0.09610546 0.11833733 0.086254574
-0.22045518 -0.13063893 -0.039254397 -0.0013904031 -0.0990347 0.10241859 -0.0029651257 -0.12591246
-0.1465339 -0.21590567 -0.20373853 0.048419606 0.024936229 0.13241597 0.22777031 0.01836577

b2.bias f4 [32]
00000000: a605 d5b9 578b 36be 1c80 a8bd 9a84 00be
00000010: 9e9b 08be ffd3 cfbd 975f 70bd fc82 b2bd
00000020: 7047 533d ea69 1e3c f77f 83bc fee1 17bd
00000030: 13b6 80bd cb2e 1bbe 0cb8 0bbd 1d63 f43c
00000040: 5175 f4bc fafc d4bd 46ff d2bd a319 8bbd
00000050: e87f 1abd 824d 6b3d 83ae d6bd 993d ac3c
00000060: 23a9 e8bd 1e69 ef3c a970 033d fe44 ad3c
00000070: 1d5c eabd 2885 94bc 3115 1f3d 2080 2dba
-0.00040630734 -0.17826591 -0.0822756 -0.12550583 -0.13340613 -0.10147857 -0.05868491 -0.087163895
0.0515818 0.009668807 -0.01605223 -0.037080757 -0.06284728 -0.15154569 -0.034111068 0.029832417
-0.029841097 -0.10399814 -0.10302596 -0.06791999 -0.037719637 0.057446964 -0.10482504 0.021025466
-0.11360385 0.029224928 0.032089863 0.021151062 -0.114433505 -0.0181299 0.03883857 -0.00066185184

b3.weight f4 [64, 32, 3, 3]
00000000: abdc 053e 6e91 753c 9778 8dbd 7747 e3bd
00000010: a7ee 54be 19d2 36bd 68c3 713d 0d70 39be
00000020: c3d0 7f3d 2afb a93d 78eb e3bd c6ba 453e
00000030: c769 f13c 4aaa a8bc 6cf6 0cbd 34c3 a9bd
00000040: 68e7 8abe 5149 a8be 7e0c 153d bdbe eebd
00000050: 207a 3d3e d609 093b a768 17be 2ccc efbd
00000060: 06e7 963d d613 ea3d 29b5 0f3c 267e 9dbc
00000070: efd8 4e3e 06a8 4c3d 10dd e63d 1541 0c3e
00000080: 5634 6abc 1026 43be 898f 55be ff72 bb3d
00000090: 944f 153b ecdf 38bd 14ab f63c 8792 b73d
000000a0: 8e02 9a3c a818 ea3c 563c 2a3d 1e19 fabc
000000b0: a2cb 0ebd 8873 a03d 9e20 873e 5753 793c
000000c0: c334 b8bc ea02 f0bd c1fb bcbd 2b4e 9bb9
000000d0: 0c83 7ebe d59e 89be d808 0dbd a6f7 f03d
000000e0: e134 67bd 6217 223c 8329 083e e90c a83d
000000f0: 3a6a 70bd 7bf5 91bd 017b 833d 2c39 493b
00000100: fddf aabb 3102 dc3d 5391 dbbd f28d 94be
00000110: 3ca0 25be 933b cf3b 57c0 c23d d92c 36be
00000120: ebdf 86bd 118c 873d 3b6f f1bd dd79 a83d
00000130: 4cdb a43d 15fd fdbc ae20 b03b ef52 97bd
00000140: 2a3a f03d d1f4 c1bd a270 803d de86 983c
00000150: 6e39 d6bd 0bea 543e f1d2 17be 4a37 73be
00000160: 87c9 46be 8836 4dbd 14d2 b5bd 3cc8 4cbe
00000170: dd2d 12be eda6 28bd c948 803d 3774 023e
00000180: 33fe 05bd 6c09 0d3e 130d a8bc 1725 ce3d
00000190: f02a b33d 05f6 09be 443d 453d 09db 2c3e
000001a0: fca1 00be 4035 793d 289e 913e 0725 1f3d
000001b0: ffe7 50be 29dd a4bd 8be7 fabc 6890 a83b
000001c0: e19b edbd ac46 35be 36cd 17be e88c c13d
000001d0: 6964 763a ee5e 293b 6106 9bbe 291c 57bd
000001e0: d87e 863e 4595 a13e e60f 7b3e 2c13 4cbc
000001f0: e6c2 61bc 12e8 92bd 75b1 863d 6484 10be
00000200: fa3f 39be be82 8f3d 4209 053e bfbc d53d
00000210: 79da 723d c615 3bbe f8b7 33be aaa1 a93d
00000220: 1fa4 7ebd 406e 0bbd 745e 3dbe 21ab 66bd
00000230: 25f6 613d ae71 76bd 4dff f63c 5085 7abc
00000240: c5b1 5a3e 35af 70bd ad40 48be bb30 493d
00000250: f149 5ebe e1b1 b4bd dd9c 7abe d8ca e4bd
00000260: 4388 10be 7157 a3bc be08 103e d06a 113d
00000270: 7891 e53d 2790 02be 81db 1dbd 6a90 363c
00000280: ade4 cabd 700d f5bd 4396 2c3e 05ec ca3d
00000290: 1077 6c3c ed39 87bd 301a 1fbe 59f9 e9bd
000002a0: 7cdd 453e 9883 8ebd aef0 fb3b 2a37 d1bd
000002b0: 27df 44be c1e2 393d c68e fd3d 1184 78be
000002c0: dac7 413e b51e cbbc 7a48 51be 71c4 203d
000002d0: 7e0c dd3d 2e5b 0e3e 7ae0 9dbe 48a4 003e
000002e0: 9623 bebd 484f 9e3d fa7d f9bd 75f9 9b3d
000002f0: 85e8 d33d 4ef1 293d faed 5cbb 73f6 fc3d
00000300: 66cc 77bd 63af 303d 6087 e73d a3a1 94bd
00000310: 75cb 283d cfc8 9cbd 65c8 12be a967 babd
00000320: ae19 a83c 030d 8ebd f83c 313e 8569 2cbe
00000330: 0efe 0e3e 8ec6 cdbe b336 94bd 5320 1b3e
00000340: bcc4 d13d 1911 04bd 23cd e0bd 1f5c 44be
00000350: 3194 473e 328a 4fbe 6851 1fbe 9221 9ebd
00000360: 2104 3fbe d085 94bd 08df 583e d8d9 923d
00000370: 0168 bdbd d379 c7bd 0388 f0bd fa8f d63d
00000380: 26c9 83bd 5ff5 643d 5f71 263d cf03 123e
00000390: 99fd 0f3e 3885 da3d 4513 8ebb de2d 4ebd
000003a0: f3b5 563e b32d 0c3d 8592 3fbd f7ea 093c
000003b0: 5aeb 98bc 01ec bc3c f264 883e 7162 9d3d
000003c0: 18a2 17be 58f8 d6bd 3056 033e ff47 9e3b
000003d0: 4740 f23d f24a ba3b dc67 b33d 5cff 9a3d
000003e0: 2f6d b3bc 9cb9 2abd 0868 31be e833 783d
000003f0: a130 22be bdb9 48bd f83f 953e 4d17 b53d
0.1307246 0.014988286 -0.06907766 -0.11097615 -0.20794164 -0.04463396 0.059024245 -0.1810915
0.06245495 0.08299859 -0.111288965 0.1930953 0.029469384 -0.020589013 -0.034414694 -0.08289185
-0.27129674 -0.32868436 0.036388867 -0.11657474 0.18503618 0.0020910404 -0.14786015 -0.117088646
0.07368283 0.11429565 0.008771219 -0.019225191 0.20199941 0.049964927 0.11272633 0.13696702
-0.014294704 -0.19057488 -0.20855536 0.09152793 0.0022783028 -0.045135424 0.030110873 0.08963495
0.018800046 0.02857621 0.041561447 -0.030529555 -0.034862168 0.07834536 0.26392072 0.015217624
-0.022486096 -0.11719306 -0.09227706 -0.00029622143 -0.24854678 -0.26878992 -0.034432262 0.11765985
-0.056446914 0.00989327 0.13297085 0.082055874 -0.058695056 -0.071269 0.064199455 0.0030704243
-0.0052146898 0.107426055 -0.10721078 -0.29014546 -0.16174406 0.0063242405 0.09509342 -0.17790546
-0.06585678 0.066185124 -0.11788794 0.082263686 0.0804964 -0.031004468 0.0053749895 -0.07388865
0.11729844 -0.09470523 0.06271483 0.018618997 -0.104601726 0.20792405 -0.14826562 -0.2375156
-0.19412814 -0.050100833 -0.0887796 -0.19998258 -0.14275308 -0.041174818 0.06263883 0.12739645
-0.032713126 0.13773125 -0.020514047 0.10065668 0.08748424 -0.13472755 0.04815413 0.1688043
-0.12561792 0.0608418 0.28440976 0.03885367 -0.20401 -0.080499955 -0.030627986 0.0051441677
-0.11601997 -0.1770274 -0.14824376 0.09450704 0.00093991176 0.0025843936 -0.30278304 -0.05251709
0.2626865 0.31559196 0.24517784 -0.012455743 -0.013779378 -0.0717317 0.06576816 -0.14113003
-0.18090811 0.07007359 0.12991813 0.10436391 0.059290383 -0.18270025 -0.17550647 0.08282788
-0.062168237 -0.03404069 -0.18493062 -0.056315545 0.055166382 -0.060167007 0.030151034 -0.015290573
0.21356876 -0.05876084 -0.19555922 0.04911874 -0.21707894 -0.0882299 -0.24473901 -0.11171502
-0.1411448 -0.019939156 0.14065835 0.035502255 0.112093866 -0.12750302 -0.038539413 0.011142829
-0.09906898 -0.119654536 0.16854195 0.099082984 0.014432684 -0.06602845 -0.15537333 -0.114245124
0.19322771 -0.06958693 0.0076886034 -0.102156 -0.19225751 0.045382265 0.123807475 -0.2426913
0.18923894 -0.024794916 -0.20437804 0.03924984 0.10793398 0.1390197 -0.30835325 0.12562668
-0.09284131 0.077299654 -0.12182231 0.076159395 0.10347084 0.04148989 -0.003371118 0.12351694
-0.060497664 0.04313601 0.113051176 -0.07257392 0.041209657 -0.07655489 -0.14334257 -0.09101803
0.020520058 -0.069360755 0.17308414 -0.16837128 0.13964102 -0.40190548 -0.072369955 0.1514905
0.10242602 -0.032242868 -0.10976627 -0.19175766 0.19490124 -0.20267561 -0.15558398 -0.07721247
-0.18653919 -0.07252085 0.2117883 0.07170457 -0.09248353 -0.09740033 -0.11744692 0.1047668
-0.064348504 0.055898067 0.040635463 0.14259265 0.14061584 0.10669941 -0.004335793 -0.05033671
0.20967846 0.03422327 -0.04677059 0.008417836 -0.018666912 0.023061754 0.26639515 0.07684792
-0.14807928 -0.104965866 0.12825847 0.00483036 0.11828666 0.0056852037 0.08760044 0.07568237
-0.021902649 -0.041680917 -0.17324841 0.060596377 -0.15838863 -0.04900526 0.29150367 0.08842335

b3.bias f4 [64]
00000000: e8e5 273d 28e3 8a3d 43d8 84bc 0516 85bc
00000010: d23a 2f3d dfe9 27bd 8e6a 2c3d 43a3 4d3b
00000020: a680 92bd a9e2 69bd ebd8 0b3a f4fe 713d
00000030: ac15 4e3d e6b7 823d 1e47 a1bd 07e9 aebd
00000040: a1b5 573c 12fb c6bc 4d29 3b3b e0a2 1d3d
00000050: d760 2dbd 8729 07be 8eb7 063c 7404 7e3d
00000060: 1fd1 9d3d e5e2 b9bd 9b24 13be bfa6 a2bd
00000070: d430 a43d cc54 9bbc 6e2b 893c 5b38 b9bd
00000080: e88c 9dbd d062 82bd 5df0 d9bb ed45 243d
00000090: ad9f a3bb 9f45 9ebd a0cc a83c 2965 d4bd
000000a0: 923c 97bd 5aec 8b3b 2f59 553d bd2d a93d
000000b0: b51b a8bd 2408 dfbd 28c6 3e3d 65b0 bcbd
000000c0: 6571 88bd 3192 51bd 874d 06bd 85ac 123c
000000d0: 0d17 363d 29d5 5c3d c07d e4bc 964b 9abd
000000e0: 8f1c f83a d152 143d 4dd2 82bd 5bc6 ebbc
000000f0: 774d b1bd dfc5 243d fcbc acbd 28fe 97bd
0.04099074 0.06781608 -0.016216403 -0.016245851 0.042780705 -0.04099452 0.042093806 0.003137783
-0.07153444 -0.057100926 0.00053347525 0.059081033 0.050313637 0.06382732 -0.07874893 -0.0854054
0.013165862 -0.024289642 0.0028558553 0.038485408 -0.04232868 -0.13199435 0.008222474 0.062015966
0.07705902 -0.0907648 -0.14369433 -0.079419605 0.08017126 -0.018961333 0.016744342 -0.09043952
-0.07692891 -0.06366503 -0.006650968 0.04010575 -0.0049934 -0.07728123 0.020605385 -0.10370857
-0.073846 0.0042701187 0.052087005 0.08260677 -0.0820841 -0.108902246 0.046575695 -0.09213332
-0.06662253 -0.05116481 -0.03278878 0.008952265 0.044455577 0.053914223 -0.027891994 -0.07533948
0.001892941 0.036211792 -0.06387768 -0.028781107 -0.08657353 0.040227767 -0.084344834 -0.07421523

c1.weight f4 [64, 64, 2, 2]
00000000: 0126 7cbd 0ab5 e03c 2abd d8bd d3e3 db3c
00000010: 7459 b0bc dbbc 8d3d cdb0 1fbe a8b8 b9ba
00000020: 5ff3 0b3e ad15 c0bd 2d71 39bd c55a bd3c
00000030: 5086 433c 2124 383d c608 45ba 1fb5 cf3c
00000040: 692b d23d abf2 74be a781 62bd 4982 53be
00000050: 93a5 cf3d b0aa cdbd fced a53d 83ba 05be
00000060: 9fcc 5d3e 6160 7fbe b12f 3b3d d9a2 efbc
00000070: 44f5 053e 03bf 963c fc97 e8bc 6fff 27bd
00000080: 2fc0 05be e901 343e 78b5 4b3d 2260 ad3e
00000090: a0bf 153e 30fd 48be 4bd5 963d 3dae 3bbe
000000a0: 136c 9c3d 26bd 25be c715 51be 8eb1 fdbd
000000b0: 31af e3bd d755 1b3e 49c1 a63d 24ef 1d3e
000000c0: dcb2 203e 18f7 8bbe c854 23be 6565 24be
000000d0: 3d8b 6e3d 83a3 f73a 5c87 3fbd a899 f93c
000000e0: 2ece f43c 3eae f83c 04f1 0dbd ba26 99bd
000000f0: 59d9 823d 763e aabc 22e7 8cbd 59d8 933a
00000100: c7c8 7d3d a098 4bbe a017 91be d80a c0bd
00000110: 622d babd 2809 81bc d6c4 653c fe8a c23c
00000120: 882f 233e af3c 85be 6cfd 53bd 77d3 8bbd
00000130: 0552 a8bd 5f1f c73d 2b4b 5b3d b6cb 9d3c
00000140: b140 1e3d a139 2a3d 61dc 2fbd db25 ecbb
00000150: 5b94 9a3e 13e6 c4bd 6caa 2cbe cd25 e6bd
00000160: 2aa0 493e 6e5d 9ebe fb65 803d 1dff 6abe
00000170: 3ee2 55bb 5998 073e 44d7 23be f242 873d
00000180: 59d8 abbc 97d1 1abe adf0 89bd 37e7 1ebe
00000190: 8917 10bd 77f4 7f3d b3b4 a73d fd2d 54bd
000001a0: 523f 163e d26a 04be 7569 973d bd8f bbbc
000001b0: b405 13bd 1741 3ebd 68f3 663d 8cde da3c
000001c0: bcfb 6bbd f0f6 8a3c 80cc babd 4fa0 b23c
000001d0: 9265 e73d 207b e3bd 30fb cdbd e456 dabd
000001e0: 7da4 0cbe 5bb1 ec3d 4c59 903c 308d 663e
000001f0: cd73 0f3d 0054 99b8 8ae2 ccbb 9cab 8dbc
00000200: 6c05 a3bd afdf a83d 09de 9dbd cf32 193e
00000210: 13e2 5e3d 6c63 b53b 861a 69bd 2066 a1bc
00000220: 6bc0 853e 1638 17bd 57a1 a0bd f597 233d
00000230: bd53 3d3d 311d 39be 6032 12bd 4aaf 71bd
00000240: 6fa1 103e d89c fabc 9de0 493e d92b 59bd
00000250: 83a8 12bc bb72 fd3c 9dae bf3d 0f27 94bb
00000260: 7da8 ba3c 945a 603d f654 873d f31c 4c3e
00000270: 1b9d 393c d909 4bbd 2730 c63c 5c9b 4f3d
00000280: e595 e23c 0ea7 78bd 2b86 813d c278 9abd
00000290: 12b4 ecbd 7d4d e53c 0927 a73d 54e0 b63d
000002a0: d4e5 d4bd d87b c43d 51be 323b 541d 243e
000002b0: 38d5 18be 88ac f93d cd31 aabd 99c8 bc3d
000002c0: c227 433d f247 3ebd eb8d 35ba cf31 e33c
000002d0: 30a8 dfbb 742b 6cbd 3249 1f3d 5e4f 993c
000002e0: 1704 253e 43e8 b0be 98b8 813d 0e7b 1f3c
000002f0: 3d89 363e 8621 6dbe d6cc db3d b259 82be
00000300: dfab c33d 13fa 33bc 6bf9 193e 88b4 96bd
00000310: 92e1 a6bd b29c 273d 6549 863b fe9e 8fbc
00000320: b955 7e3d 3c69 8cbd 4646 86bd 4d5c 863d
00000330: 55f4 433e 02ba 01be dd72 4e3e bc37 f1bd
00000340: 3af6 9d3d d09c bfbd 64b0 23be f4ae f1bd
00000350: 6ce6 1f3d 55d8 80bd 4e38 66be b312 22bd
00000360: c133 4d3e 5a28 c1b9 0435 843b 92d3 023e
00000370: 07ed 02bd 68e9 3dbd baec 643d 8244 90bd
00000380: b43d 183e 002c 0dbe 8915 a43d 4a83 3ebd
00000390: 6786 37be 4478 ed3d 2668 1abc a5b7 023e
000003a0: 6317 9d3c 217d 693d 0db0 fe3c 4198 04bc
000003b0: d14c 813d a7f1 ffbc 0b8c 4cbd bbc5 85bd
000003c0: 8a31 80bc 178f 31bd ae90 d1b9 30a9 9abd
000003d0: f2c3 d43d 2132 0abe 333a 8bbd 5f7c 13be
000003e0: 8db3 41bc c2b4 253d 735e 7d3d 5a75 68bc
000003f0: c3a9 e23d c218 c33d cde9 95bd ae8e 003d
-0.06155968 0.027430076 -0.10582955 0.026842033 -0.02152703 0.06920787 -0.15594788 -0.0014169412
0.13667057 -0.09379134 -0.04527395 0.023114571 0.011933878 0.04495633 -0.0007516261 0.02535492
0.10262186 -0.23920695 -0.055299427 -0.20655169 0.10139003 -0.10042322 0.081020325 -0.1305943
0.21660088 -0.2493911 0.04569978 -0.029252457 0.13081843 0.018401628 -0.028392784 -0.041015085
-0.13061593 0.17578854 0.04973361 0.33862406 0.1462388 -0.19627833 0.07364901 -0.18328185
0.07637801 -0.16185436 -0.20418464 -0.123873815 -0.111173995 0.15169464 0.08142335 0.15423256
0.1569323 -0.27336955 -0.1595031 -0.16054304 0.058238257 0.0018893335 -0.046759948 0.030468777
0.02988347 0.030356523 -0.03465368 -0.0747809 0.06389112 -0.020781737 -0.068800226 0.0011279687
0.061959054 -0.1988244 -0.28338337 -0.09377068 -0.09090687 -0.015751436 0.01402398 0.023747917
0.159361 -0.2602286 -0.051755354 -0.06827443 -0.08218769 0.097227804 0.053538483 0.019262176
0.038635913 0.041558865 -0.04293478 -0.007206661 0.3019131 -0.09614196 -0.16861886 -0.11237679
0.19690004 -0.30930656 0.06269451 -0.2294888 -0.0032636072 0.1324171 -0.16000086 0.06604566
-0.020977186 -0.15119015 -0.067353584 -0.15517889 -0.035178695 0.062489 0.081887625 -0.05180167
0.14672592 -0.12931374 0.07393161 -0.022895688 -0.03589411 -0.046448793 0.056384474 0.026717447
-0.05761312 0.016963452 -0.091210365 0.021804957 0.1129867 -0.111074686 -0.10057676 -0.10661104
-0.13734622 0.11557265 0.017620705 0.22514796 0.035022546 -7.311255e-05 -0.0062525915 -0.017293744
-0.079600185 0.08245789 -0.077083655 0.14960788 0.05441482 0.0055355337 -0.05691006 -0.019702017
0.26123366 -0.036918722 -0.07843273 0.03993984 0.046222437 -0.18077542 -0.035692573 -0.05900506
0.14124082 -0.030592367 0.1971459 -0.053020332 -0.008951309 0.030938497 0.09359477 -0.0045212577
0.02278542 0.054773882 0.06608002 0.19932918 0.011328961 -0.04956994 0.024192883 0.05068527
0.027659366 -0.06070619 0.06324419 -0.07542564 -0.11557783 0.02799105 0.08161742 0.08929506
-0.10395399 0.09593934 0.0027274082 0.16026813 -0.14925086 0.12191111 -0.0831028 0.092179485
0.047645338 -0.04645533 -0.00069257495 0.027733712 -0.0068254694 -0.057658628 0.038888164 0.018714603
0.16114841 -0.34552202 0.063340366 0.009733928 0.1782579 -0.2315732 0.10732429 -0.25459057
0.09554266 -0.010984915 0.15036552 -0.07358652 -0.08148493 0.04092092 0.004098105 -0.017531868
0.06209347 -0.06856009 -0.06556372 0.06560574 0.19136174 -0.12668613 0.20161004 -0.117782086
0.077129796 -0.093560815 -0.15985256 -0.11800948 0.039038107 -0.06291262 -0.22482416 -0.039568614
0.20039274 -0.00036841893 0.0040346403 0.1277602 -0.03196433 -0.04636517 0.055889823 -0.07044317
0.14867288 -0.13786316 0.0801192 -0.046511926 -0.17922364 0.115952045 -0.009424245 0.12765367
0.01917619 0.057004098 0.031089807 -0.008092941 0.0631348 -0.031243159 -0.049938243 -0.06531855
-0.015648622 -0.04334935 -0.0003997138 -0.07551801 0.10388936 -0.13495685 -0.0679821 -0.14402913
-0.011822593 0.040455587 0.061857652 -0.014188135 0.11067536 0.095262066 -0.073199846 0.03138607

c1.bias f4 [64]
00000000: 9075 e83c c829 c8bc 90f8 d33b b30d dfbc
00000010: a082 a1bd 586c 6bbd bccb a3bb c088 cebc
00000020: e61b 063d e72e 433c f055 0b3d 3975 dfbc
00000030: 2f1b c1bd 769a a43b 99a2 a4bc 1140 b1bd
00000040: 37e5 0dbd e3eb 933b 7d96 c8bc 1c4e f73b
00000050: b101 53bd 3ea9 d9bb 459b dabc 4b7c d5bc
00000060: d8bc 963c 4348 b03a 0453 31bd 66ff 643c
00000070: c279 30bd 5e76 0abd ab18 c33c b243 023d
00000080: 7021 0dbd 6df0 0a3b 839f e6bb e262 983b
00000090: 5e4d 8cbc 633b 16bd 1d34 b33b 7c09 33bd
000000a0: c3a4 f83c 13d6 3ebd 2588 db3c 8e98 59bd
000000b0: ff99 9c3c fa2f 893b dc3a 91bc 87ac 5fbd
000000c0: 0ce5 97bd 6734 95bd 6b33 983a 00df 0fbc
000000d0: 50d5 9dbc c0c3 abbd 0f61 be3c 3c5e 6abd
000000e0: 3bad ea3c f486 c8bc 4a09 463c 7be7 d43c
000000f0: 60b8 ca38 68a0 703c 67f3 bb3c ee99 24bd
0.02837637 -0.024433985 0.00646884 -0.027228212 -0.07886243 -0.05747637 -0.0049986523 -0.025211692
0.03274145 0.011913038 0.034017503 -0.027277576 -0.09429013 0.005023296 -0.020097064 -0.08654798
-0.034642424 0.004514204 -0.02448582 0.007547153 -0.051515285 -0.0066424897 -0.026685366 -0.026060244
0.018400595 0.001344927 -0.04329206 0.013976907 -0.043084867 -0.03380429 0.023815474 0.03180284
-0.034455717 0.0021200434 -0.0070380582 0.0046504596 -0.017126735 -0.03667773 0.005468859 -0.043710217
0.030352002 -0.046590876 0.026798317 -0.053124003 0.0191164 0.0041866275 -0.017728262 -0.054607894
-0.07416734 -0.072853856 0.0011612003 -0.008781195 -0.019266754 -0.08386946 0.02323964 -0.057218775
0.028647056 -0.024478413 0.012087176 0.025989285 9.666453e-05 0.014686681 0.022943212 -0.04018586
