nets/model_epoch_8.pth (torch, 648764 bytes, 25 tensors)

a1.weight f4 [16, 5, 3, 3]
000000 f7 3c b1 3d ec 2b 9d 3d e0 d1 2d bd 9b 2d 2e bb
       0.08654206 0.07674393 -0.04243648 -0.0026577476
000010 3d 6e 91 bd b4 af e9 3d ee b1 00 3c b6 02 9c 3d
       -0.071011044 0.11410466 0.007854922 0.076177046
000020 7f 5a 5a be 01 6a b4 bc f5 2a 91 bc cd c8 13 be
       -0.21323584 -0.022023203 -0.017720679 -0.14432068
000030 0d 95 0b bc c7 1d ed bc 5d 11 0c be 57 a8 28 be
       -0.008519423 -0.028944863 -0.13678499 -0.16470467
000040 36 35 23 be f5 1c 7d be dd fe e5 3c 38 bc ad bd
       -0.15938267 -0.24718077 0.02807563 -0.084831655
000050 b4 ca 8f bc 51 48 d6 bc 39 a1 1d be 37 bf 65 3d
       -0.017552711 -0.02615753 -0.15393533 0.05609056
000060 e4 99 e0 bd 7f a6 5b be 2b 2a 95 bc 2b 76 56 be
       -0.10966852 -0.21450232 -0.018208584 -0.20943515
000070 9b 55 34 bd ca bf 86 3d 6f 18 e3 bd 3a 04 40 3d
       -0.044026952 0.065795496 -0.11088645 0.04687903
000080 81 fd 87 be ea c4 e9 bd 63 2e cb bc b8 8a 51 3d
       -0.26560596 -0.114145115 -0.024802392 0.051157683
000090 67 05 0e be a8 13 31 bd 92 bf e9 bd 5d a6 6e 39
       -0.13869248 -0.043231636 -0.11413492 0.00022759424
0000a0 93 5c 19 be 8c 96 c2 bd 08 2c 30 bc 42 d9 f2 bd
       -0.1497672 -0.09501371 -0.010752685 -0.11857845
0000b0 b4 49 3d bd 02 81 e7 3d 2f bd 1e be 2b 86 5b bd
       -0.046212867 0.11303903 -0.15501855 -0.05359475
0000c0 93 99 69 3e 0c 34 8c 3c e3 05 6c 3e 98 9a a6 3c
       0.2281249 0.017114662 0.2304912 0.020337388
0000d0 9b 13 9c 3e fc 3b 24 be 83 54 99 3d c4 a5 6c 3e
       0.30483708 -0.16038507 0.074868225 0.2311011
0000e0 88 cc 0b 3c 1a 43 9d 3c ea 7a 25 3e b9 a5 80 3c
       0.008532651 0.019197036 0.16160169 0.015704023
0000f0 c5 cc 01 3e 88 dd 88 be 4a 04 08 3d 5f 38 1b 3e
       0.1267577 -0.26731515 0.033207215 0.15158223
000100 e8 a3 91 bd d5 39 cd bd 9d 30 7f 3e 2e c2 71 3c
       -0.07111341 -0.10020796 0.24920888 0.014755769
000110 f9 46 94 be 48 e6 8b bd 72 92 04 be 74 ea 00 3d
       -0.28960398 -0.06831032 -0.1294649 0.031473592
000120 c9 af 84 3c 93 cd 91 be 7e 10 68 be c4 18 cb bc
       0.016197102 -0.28477153 -0.22662541 -0.024792083
000130 55 d3 5c 3e 07 9a 53 3d c1 f5 c2 3d d4 45 72 3d
       0.21564992 0.051660564 0.0951953 0.059148625
000140 17 1e 9a be 97 3f 17 3d 84 ac 2a 3d 4f b9 a1 bc
       -0.30101082 0.03692588 0.04166843 -0.019741682
000150 5d 4b b0 3d 5e 2d 90 3c 46 be 2b bd fa 3b 8c bd
       0.086081244 0.017599758 -0.041929506 -0.06847377
000160 b2 bd 99 bd c1 ff 9b 3c 50 75 6a be bf e8 33 3d
       -0.07506885 0.019042851 -0.22896314 0.043923136
000170 cf 34 8a 3e 49 91 70 3d 50 0c 24 3e 3d da 15 3d
       0.26993415 0.058732305 0.16020322 0.03658508
000180 a5 4a a5 3e 23 4b a3 3e cd 0d 51 3d 95 08 16 3e
       0.32283512 0.31893262 0.051038552 0.14651711
000190 95 f2 1f 3e a6 8b 2a 3e 56 09 34 bd af 1e 2d ba
       0.15619881 0.16654834 -0.043954216 -0.00066039985
0001a0 f7 28 65 bb 72 a0 38 bd 57 f4 c5 bd dd 8d bf 3d
       -0.0034967044 -0.045074888 -0.09665745 0.0935323
0001b0 82 ae 3e 3e d4 45 95 3e 7d cb 0f 3e 17 19 8c 3d
       0.18621257 0.29154837 0.14042468 0.06840723
0001c0 4f fc 0f be 85 89 5a 3e b2 d4 50 be 50 5b 85 bd
       -0.14061092 0.21341522 -0.20393637 -0.06511557
0001d0 80 ff f2 3d 04 a8 59 bb ae 83 3e be 69 a7 40 be
       0.11865139 -0.0033211717 -0.1860492 -0.18813862
0001e0 91 8b f0 3c 5c 4f 03 be e9 76 8f bb e2 ac 53 3d
       0.029363425 -0.12823242 -0.004378189 0.051678546
0001f0 95 d9 4f 3d 55 28 56 be 1e dc cc bc 6e f0 6c 3d
       0.05074461 -0.20913823 -0.025007304 0.05784648
000200 f5 6b 25 3d 65 04 9d bd 2f ce dc 3d 57 7f 03 be
       0.04038616 -0.07666854 0.10781514 -0.12841545
000210 d1 50 dc bc cb ba 13 bd 28 8d ae 3d d1 19 fe 3d
       -0.026894005 -0.03606681 0.08523017 0.12407268
000220 db f3 b3 3d 9a 0f 73 be 66 ca 27 3e 45 f6 f9 3d
       0.08786746 -0.2373642 0.16385803 0.12205175
000230 c4 f5 06 be 1d d2 14 3d 4d b1 7c be 30 f5 57 3e
       -0.1317969 0.036333192 -0.2467701 0.21089625
000240 b9 ef c8 bd 85 2c a1 be ec 3d 0a be d8 e3 81 be
       -0.098113485 -0.31479278 -0.13500184 -0.25369143
000250 e6 bf b9 bd 6b fc 9e be fb df 56 3c 71 c9 04 3d
       -0.09069805 -0.31051955 0.013114925 0.032418672
000260 3c d9 2f 3b 3b 43 ea bc 79 a8 83 3d 6f 4b 0f 3d
       0.0026832363 -0.028596511 0.06428618 0.03498405
000270 15 57 17 be 39 af 81 bd ea 51 2b be 9d d2 0b be
       -0.14779313 -0.06332249 -0.16730466 -0.13654561
000280 1c 9e fd bd 9c 84 90 3e 57 a5 34 3e af 59 41 3e
       -0.123836726 0.28226173 0.17641197 0.18881868
000290 50 2c 31 3e 16 06 66 3e b1 89 a7 bd 5b 7b b3 3e
       0.1730206 0.22463259 -0.081805594 0.3505505
0002a0 dd ed 02 3e ed 8a 13 bd 1b f9 32 be 91 29 d5 bc
       0.1278605 -0.03602116 -0.17477839 -0.026020797
0002b0 16 eb 11 3d b3 ed 66 3d 5c e4 c9 bc 31 13 1c bd
       0.035624586 0.05637903 -0.024645023 -0.03810424
0002c0 b9 cd ab bc 6e 5b 45 3d 33 fd 41 bd f6 21 cf bb
       -0.02097212 0.048182897 -0.04736061 -0.006321187
0002d0 4a ac 34 3e 92 30 55 3d 35 1e 4b be 1b 6c b1 3d
       0.17643848 0.052048273 -0.19835742 0.086631976
0002e0 70 58 b6 3d be 02 43 3e 62 0f 32 3c 85 83 16 3e
       0.08903587 0.19044015 0.010867925 0.14698608
0002f0 ff 8e 3c 3e 80 45 de 3d d1 db 3b bd 1e db db 3c
       0.18413924 0.108531 -0.04586393 0.026837882
000300 5e 59 3a be 43 d0 47 bd 8d 10 a5 bd f3 f9 0e 3e
       -0.18198153 -0.0487826 -0.080597974 0.13962536
000310 1c 4c 51 3d c1 6a fd bd 80 ad 76 3d 7e 38 df 3d
       0.051097974 -0.12373877 0.060224056 0.10899447
000320 b1 ff 9a 3e 09 0c cc bc 2f dd 91 bc 32 14 a7 bd
       0.30273202 -0.024908083 -0.017805664 -0.08158149
000330 86 33 6e be 30 70 3e 3e ad b2 03 bd 95 b1 d9 bd
       -0.23261842 0.18597484 -0.03215282 -0.10629574
000340 3e ae 91 be 1f 07 8d be fb d9 87 3d 2c e1 9d 3d
       -0.2845325 -0.27544495 0.06633373 0.07708964
000350 d9 ca e7 bd 4b 6d 03 be 80 39 34 bc 6c 63 bd 3c
       -0.11317987 -0.1283466 -0.011000037 0.023118697
000360 b7 b3 26 bc f5 e6 49 3d 2a c0 14 bd a9 79 3c 3d
       -0.010174683 0.049292523 -0.036316074 0.04601446
000370 c8 84 bc bd 38 1e 43 3c 28 c5 b0 ba 23 8a c6 3d
       -0.092050135 0.01190906 -0.0013486492 0.09694316
000380 a4 0a bb bd 2d 40 a1 bd 8f f6 74 bd 71 e8 73 3e
       -0.09132889 -0.07873569 -0.05980545 0.23819138
000390 28 ce 71 bd 96 d9 5a bd 39 fd 2b bc 13 dc 05 3e
       -0.059034497 -0.053430162 -0.010497385 0.13072233
0003a0 12 1e c4 bd 1d c3 86 3e 5e ab 16 bd ce 78 87 3e
       -0.09576048 0.26320735 -0.036784522 0.26459354
0003b0 07 b9 89 3e de 8b 99 bd ae 07 4b 3c af ad 5d be
       0.26898977 -0.07497381 0.012391968 -0.21648286
0003c0 e5 81 4d 3d ef 65 39 3e bf e5 b5 be 7b a9 2a 3d
       0.050172705 0.18105291 -0.35526845 0.041665535
0003d0 5f bf c0 3d 96 5e cf 3d a0 e0 07 be 40 59 2f 3e
       0.09411501 0.10125463 -0.13269281 0.1712389
0003e0 8e 79 5a be 79 e8 23 be 79 c2 ec bd f2 ce 6e be
       -0.21335432 -0.1600665 -0.1156053 -0.23321131
0003f0 cd 16 6e 3e cc ff 3b bc 99 ec 97 3d bf 2c 8b 3d
       0.23250885 -0.011474561 0.07418174 0.06795644

a1.bias f4 [16]
000000 06 47 87 3d 7f 48 1a bd 6f 60 3f bd 12 cc af bd
       0.066053435 -0.037666794 -0.046722826 -0.08583845
000010 b4 a6 fe 3d 72 36 67 bd 48 39 8f 3c 4a e4 7d bd
       0.1243414 -0.056448407 0.017483369 -0.06198529
000020 c9 bb 09 be 33 51 e4 3d 02 4d a0 bc a7 18 a0 3d
       -0.1345054 0.111483 -0.01956797 0.07817202
000030 19 a9 d6 bc d1 ce 2f bd cb 72 34 3e bf c3 16 3e
       -0.026203679 -0.042921845 0.17621915 0.14723109

a2.weight f4 [16, 16, 3, 3]
000000 52 da 9c 3d 8f 32 02 be 1f 17 5a bd 7c 1f 7f 3c
       0.07658829 -0.12714599 -0.053244706 0.015571471
000010 78 c5 c5 3d dd 83 14 3d e2 80 ef bb f3 4f f2 bb
       0.09656805 0.036258567 -0.007309065 -0.0073947846
000020 1c 80 10 3d ca 24 b8 3c 7a 88 76 3d f4 1c f2 bb
       0.035278425 0.02247848 0.060188748 -0.0073887054
000030 9e 4c af bd 87 25 c2 3d b1 7f 0c be 02 b8 40 bd
       -0.085595354 0.09479814 -0.13720585 -0.047050484
000040 9a 8e 14 3e 14 ad f9 ba 07 66 12 bd 02 1a 59 bd
       0.14507523 -0.0019048774 -0.035741832 -0.05300332
000050 8c cd 0f be 50 6c a0 be d2 3e cc bd 9f 37 cf 3c
       -0.14043254 -0.31332636 -0.099729195 0.025295077
000060 44 d1 49 bd 45 26 94 be 47 98 b3 3d 59 df aa be
       -0.049271837 -0.28935447 0.08769279 -0.33373526
000070 70 13 d9 3d ca b7 03 be 73 79 7c 3e 3d ef 0f be
       0.105994105 -0.12863079 0.24655704 -0.14056106
000080 9f 75 bf 3d 17 da 0d 3e ab 39 e2 3c 0b 40 e2 3c
       0.09348606 0.13852726 0.027615389 0.027618429
000090 61 3f f4 3b 34 8a 87 be 9b 68 b7 bc 41 95 53 bd
       0.0074538444 -0.26472628 -0.022388747 -0.05165601
0000a0 84 33 6d 3c ee ce e6 bd d4 1c 5d be a0 53 22 be
       0.014477614 -0.112699375 -0.21593028 -0.15852213
0000b0 7c b2 c7 bd da 86 a0 3d ec 91 e6 bc 1c be b2 bd
       -0.0975084 0.07838221 -0.028145753 -0.08727667
0000c0 66 fe 09 3e 39 c9 23 3d 93 3f 97 3d 30 9e 68 be
       0.13475952 0.039986823 0.07385173 -0.22716594
0000d0 91 93 a5 3d dd 48 f7 3d 9a fe 91 bd d9 75 25 3d
       0.08084787 0.120744444 -0.071286395 0.04039559
0000e0 45 04 4a 3d a0 20 79 3e 17 87 1d 3e d7 dd 84 3d
       0.049320478 0.24328852 0.15383564 0.06487625
0000f0 65 6b 0c 3e 11 a1 2d bc 90 82 73 3c 0d 61 20 3e
       0.13712843 -0.010597483 0.0148626715 0.15662022
000100 f5 0c 1c be bc 1c 25 bc 4f cb 8f be 86 09 6f 3d
       -0.15239318 -0.010077652 -0.280848 0.05835869
000110 3b 32 c2 bd f7 2c d2 bd d3 b8 5e bd 82 42 ef 3d
       -0.09482237 -0.102624826 -0.05437548 0.11682607
000120 6e 27 3e 3e e2 e4 de 3d 42 4f 38 bd 96 13 d5 ba
       0.18569729 0.108835 -0.04499746 -0.0016256447
000130 72 3d 26 3c 62 c4 10 3e 7b 4a 06 be 9e ef 72 3e
       0.010146486 0.14137414 -0.1311435 0.23724219
000140 d5 83 93 3d 61 78 56 3d bf ff 0f 3e 5d d5 67 3c
       0.07202879 0.052360896 0.14062403 0.014149991
000150 e7 3d e0 bd ec ea 19 3e 7c 2d 58 3e 4d c5 24 3d
       -0.10949307 0.15031022 0.21111101 0.040227223
000160 a7 df 8f 3d 92 72 b3 3d 49 7c 19 be f9 16 66 bd
       0.0702508 0.08762087 -0.14988817 -0.056174252
000170 b8 ce b1 bd cf 3a 8d 3d c5 23 d7 3d 0d 50 43 be
       -0.086820066 0.068959825 0.10504869 -0.19073506
000180 95 63 94 3d 55 82 c8 bd 6d 60 01 3e 99 60 45 be
       0.07245556 -0.09790484 0.1263444 -0.1927513
000190 e0 cc 3e bc a4 19 e3 bb 50 e6 92 bd 0e 5d ba bd
       -0.011645526 -0.006930547 -0.07172835 -0.0909978
0001a0 37 be 87 3c ae 42 a3 3e 86 70 ce 3c 06 09 a9 bd
       0.016570194 0.3188681 0.02520014 -0.08253674
0001b0 9b 57 e8 bc 29 10 e4 bd e3 2e 72 3d 66 86 7d 3b
       -0.028362086 -0.11135895 0.059126746 0.0038684844
0001c0 75 96 b0 3e 71 47 5c be bf f6 aa 3e 47 3e fe 3d
       0.3448979 -0.21511628 0.33391377 0.12414222
0001d0 53 27 d6 bd b7 4d db 3c fb 04 28 be 04 09 96 be
       -0.10456719 0.026770456 -0.1640815 -0.29303753
0001e0 88 93 55 3d 41 f5 70 3e b1 89 0d 3e e1 65 33 3e
       0.05214265 0.23531057 0.13822056 0.17519332
0001f0 cf 7d 0e be 70 44 8e bb ca 0a ad bd 0d a0 b9 be
       -0.1391518 -0.0043416545 -0.084493235 -0.36254922
000200 95 a8 e0 bc d8 1e 25 bd af 1e bd bc e0 8f ed bd
       -0.027424136 -0.040312618 -0.02308592 -0.115997076
000210 08 7d 90 bd 24 d9 f3 bd 58 d1 aa 3d dc b2 35 be
       -0.07055098 -0.11906651 0.083407104 -0.1774401
000220 3c 30 de bc 2d 1a 38 bd cb 4a da bd ca f7 99 bd
       -0.02712261 -0.04494684 -0.10658797 -0.07517965
000230 52 c7 7e 3e 75 34 16 be 07 67 b9 3c 18 06 0c 3d
       0.24880722 -0.14668448 0.022632135 0.0341855
000240 ec c0 ef bd a2 2a 3c 3d 39 90 28 3d 56 a3 01 be
       -0.11706719 0.045939095 0.041153166 -0.12659964
000250 4e 64 a4 bc 93 ab 9a 3b f0 04 9a bd 6c 76 c1 bd
       -0.02006736 0.0047201603 -0.07520473 -0.09446415
000260 ab 36 20 be 8f c6 3f 3c e2 c6 0d bd b3 db cc 3d
       -0.15645854 0.011705055 -0.034613498 0.10002842
000270 0e f8 ae 3c 91 62 67 bd 87 27 95 bb df 67 85 3d
       0.021358516 -0.056490485 -0.004551831 0.065139525
000280 ee 38 86 3d 5f 45 c5 3d 5f 2f e0 3d d6 e3 23 ba
       0.06553827 0.09632372 0.10946535 -0.0006251907
000290 50 b5 ba 3d 82 ce fc bc 1e 70 fc 3d 57 e5 3f 3d
       0.09116614 -0.03086019 0.12326072 0.046849575
0002a0 46 04 91 bc 4c 20 58 3d 77 e6 5d 3d f7 45 ec bd
       -0.017702233 0.052765176 0.054174867 -0.11536782
0002b0 67 17 b8 3d f0 c9 45 3e ee 64 9c bd 9e 72 02 3c
       0.08988839 0.19315314 -0.07636438 0.007961897
0002c0 41 2e c4 3c 79 ec 49 3d 57 44 3d bd 76 e8 42 3e
       0.023947837 0.049297784 -0.046207752 0.1903399
0002d0 db 75 49 3e c3 56 7d bd 21 27 19 3e 32 44 a7 3d
       0.19673865 -0.06185032 0.14956333 0.08167304
0002e0 69 1c 88 3c 83 86 4c bd 01 a2 aa 3d 46 48 52 bc
       0.01661511 -0.049932968 0.08331681 -0.012834614
0002f0 aa d7 9d ba 93 f6 89 bd 28 3b 0f 3d 3a cc 9f 3d
       -0.0012042422 -0.067364834 0.034968525 0.07802625
000300 69 69 71 3b 5e c4 c5 3c d5 4e 96 bb 11 0f 83 3d
       0.003683651 0.024141487 -0.004587034 0.06399358
000310 e4 2c bd 3d 94 71 f8 bd 87 5a 16 be 53 1b a8 bc
       0.09237078 -0.12131038 -0.14682971 -0.020520842
000320 c1 d9 cc bd 95 a3 3b bd a9 67 b6 bc 4c e8 93 bc
       -0.10002471 -0.0458103 -0.022266226 -0.018055104
000330 39 15 bf bd b6 22 04 be 81 d8 c6 bc 2e f2 b9 3d
       -0.0933022 -0.12903866 -0.024273159 0.09079395
000340 74 75 ce 3d f5 66 a1 3d 22 cb ba bd ef f1 2a 3b
       0.10080996 0.078809656 -0.09120776 0.0026084145
000350 d1 63 48 bc 84 c6 cb 3d 60 ff bb bc dd 44 91 3e
       -0.012230829 0.09949973 -0.02294892 0.2837285
000360 65 3d a7 3c 41 d3 8b bd 6d 5d 9c 3d 73 5b 5d be
       0.020415017 -0.06827403 0.07635007 -0.21616916
000370 31 14 21 3d 27 ba e8 bd 94 92 34 be 67 01 4a 3e
       0.039325897 -0.11363631 -0.1763404 0.19727097
000380 2b 29 1b b9 91 b8 6e 3c 02 74 83 bd a3 44 b8 3d
       -0.00014797288 0.014570371 -0.06418611 0.089974664
000390 2b a5 51 3d 70 61 b0 bb 97 da 6a 3d c6 c1 a3 3b
       0.051182907 -0.005382709 0.05733737 0.004997465
0003a0 60 69 69 bd 18 2c be bd 41 98 8f 3d a0 39 93 3d
       -0.05698526 -0.09285754 0.07011462 0.071887255
0003b0 e8 bc 2a bd 94 3f 1b 3c c1 9e 33 be 11 d7 3e 3e
       -0.04168406 0.009475607 -0.17541029 0.18636729
0003c0 14 bb af bd 32 ba d1 3d 04 62 1c be 82 5a 58 3d
       -0.08580604 0.10240592 -0.15271765 0.05282069
0003d0 41 ed 80 3e da 2d b4 3d 89 ed 9c bb 4b 55 23 bc
       0.2518101 0.08797808 -0.0047890586 -0.009969066
0003e0 5f d0 00 3e 0c 7e db bd 22 27 e1 bd d1 46 24 be
       0.12579487 -0.10717401 -0.10993792 -0.1604264
0003f0 fc 14 76 bc cd 9b 01 3e 83 74 0d 3a 9d 54 d4 bd
       -0.0150196515 0.1265709 0.0005396085 -0.10367701

a2.bias f4 [16]
000000 0b 79 71 bd 21 2d 89 bd b5 95 5d bd 7f 55 ef bc
       -0.058953326 -0.06698061 -0.05409785 -0.029215572
000010 cb 02 e1 3c 67 9c 81 bd d6 c4 81 bc e6 d5 13 bd
       0.027467152 -0.063286595 -0.015840929 -0.03609266
000020 b8 b2 ad 3d 77 1e 6d bd c4 1e 3b bd 16 bb 2b 3c
       0.084813535 -0.05789038 -0.045683637 0.0104816165
000030 45 1b 84 bd 87 24 b2 3c 12 e0 ba 3d e0 2d 25 3d
       -0.06450514 0.021745933 0.09124769 0.040326953

a3.weight f4 [32, 16, 3, 3]
000000 76 40 14 be a3 18 3f 3e 7a b2 74 be 70 78 bb bd
       -0.14477715 0.18661742 -0.23896208 -0.09153831
000010 81 88 8f bd e5 62 01 bd f1 ce a3 be d0 d5 f1 bd
       -0.07008458 -0.031588454 -0.3199382 -0.118083596
000020 78 b1 c9 3d 95 7f 80 bc da 08 68 bd 49 db 05 be
       0.098483026 -0.015685836 -0.056649067 -0.13071932
000030 12 ca d8 bc d7 b2 82 3d 9b 20 f5 3d 11 36 79 be
       -0.026463542 0.06381767 0.119691096 -0.24337031
000040 e2 2f 47 be 78 6a 87 be f7 19 e4 3d 4e ca 09 3e
       -0.1945186 -0.26448417 0.11137765 0.1345608
000050 ed 14 fe 3d e5 6f 2a 3b e8 f9 93 3d 28 f4 1a be
       0.12406335 0.0026006636 0.072254 -0.151322
000060 bd 7d 00 be 2d 3c 4d 3d 58 19 32 bd b5 c4 a4 bd
       -0.12547965 0.050106216 -0.0434812 -0.080453314
000070 0e 0d b6 3d 2b 45 9c 3d f2 1a a4 3d e3 ee c3 bd
       0.08889209 0.0763038 0.08012952 -0.095670484
000080 46 0d dc 3d 46 42 45 bd 11 ba 9e bd a5 d2 cd 3c
       0.10744719 -0.048158906 -0.07750333 0.025124857
000090 53 9c c0 3d 1d ee 58 3d 41 0c 5e bd e8 b8 0d be
       0.094048165 0.052961458 -0.054210905 -0.13840067
0000a0 d6 70 34 3e 06 73 aa 3c b3 f6 b6 3d 7e c1 1c 3c
       0.17621168 0.0208068 0.08933773 0.0095676165
0000b0 6d e1 ca 3c 14 9a 4e 3d a8 13 44 3d 08 a2 16 be
       0.024765695 0.05043991 0.04787031 -0.14710248
0000c0 18 13 27 3e 91 db 44 bc 29 c3 45 3e 16 4b 02 be
       0.16315877 -0.012015239 0.19312729 -0.12723956
0000d0 00 97 72 bd c2 f5 75 3d fd 90 15 3e 0e ea dd 3d
       -0.059226036 0.060048826 0.1460609 0.10835658
0000e0 58 e3 ea bd 1a 81 17 3d 8e 02 8c 3d 1b 06 b7 bd
       -0.11469144 0.036988355 0.06836425 -0.089367114
0000f0 9a c5 13 3d 91 7f 2f 3e 55 0d 53 3d a5 83 af 3d
       0.03607712 0.17138506 0.051526386 0.08570031
000100 f2 d8 bf 3d c4 3a 6f 3d 59 ef 9c 3d 24 5e 7e 3e
       0.09367551 0.058405653 0.076628394 0.248406
000110 0c 3c 8b be c9 85 28 3e ac b9 b0 3c 29 10 d6 bc
       -0.2719425 0.16457285 0.02157291 -0.026130753
000120 58 e7 41 3d cb 72 b0 3d 10 f9 17 bd f3 37 c0 3d
       0.047339767 0.08615645 -0.03710276 0.093856715
000130 a6 65 4b 3e 39 96 03 3d 4c e8 be 3c 1d c2 1d be
       0.19862995 0.032125685 0.023304127 -0.1540608
000140 5c bb ac bd b4 48 f7 3b ba f7 2b 3e c5 b0 f3 bd
       -0.084341735 0.0075465087 0.16793719 -0.118989505
000150 d5 2a 2a 3e b6 d0 36 bd 61 64 80 bd 90 af b7 bd
       0.16617902 -0.044632636 -0.06269146 -0.08969033
000160 9a 89 89 bd 08 eb 56 3d f2 3b 65 3d a1 71 a5 3c
       -0.067156985 0.052470237 0.05596537 0.020195784
000170 a7 d7 80 bd 16 5f b6 3d 70 bb 07 be 42 c6 55 3e
       -0.062911324 0.08904855 -0.13255095 0.2087641
000180 82 53 db 3c 28 a5 59 bd 01 72 a0 bd a6 a1 9f bd
       0.026773218 -0.05313602 -0.078342445 -0.07794504
000190 5c b7 c3 bd a5 ee 6d bd 68 d3 a2 bd 74 c4 4b 3e
       -0.095564574 -0.058088917 -0.07950479 0.1989916
0001a0 e5 dc 61 bd 33 1e 6b 3c ab 1d 07 3e bc bc 50 bd
       -0.055142302 0.014350462 0.13194911 -0.05096124
0001b0 fc 2b 6a bd 9d 89 65 be 4a 13 b8 bd b8 6a b4 3d
       -0.057170853 -0.22415777 -0.08988054 0.088094175
0001c0 1a 3d 3a bc 68 32 4b 3e f3 4c 80 be 1f 37 25 bc
       -0.011367107 0.19843447 -0.25058708 -0.010083943
0001d0 2e 84 9e bd 12 48 a8 3e d9 b1 8e 3d 86 38 da bd
       -0.07740055 0.32867485 0.069675155 -0.10655312
0001e0 6a 73 8a 3d c0 fd ee bd 80 07 d8 bd ec db 9f 3d
       0.06760295 -0.11669493 -0.105483055 0.07805619
0001f0 88 73 a0 3c 9b b8 28 3d 5c ef 85 3e c7 02 20 be
       0.01958634 0.04119168 0.2615918 -0.1562606
000200 de 5e c7 be 4a 5f f1 3c 59 57 53 3e ff cc 9d bd
       -0.38939565 0.029464383 0.20638789 -0.077051155
000210 5e 1e 07 3e 22 64 36 bd a6 92 44 be 79 d4 ca 3b
       0.13195178 -0.044529088 -0.19196567 0.0061898795
000220 e2 dd 3a 3d d1 06 b7 3d 5e 7d 18 bd cb 85 37 3e
       0.04562176 0.08936847 -0.037228934 0.17922132
000230 a6 05 de be 2d e5 e5 3d 60 71 09 be 3a 75 b4 bd
       -0.43363684 0.112253524 -0.13422155 -0.08811422
000240 b5 b6 a9 3d 80 99 3c bc cb 00 96 3e 56 24 a1 3d
       0.08286802 -0.011511207 0.2929748 0.07868259
000250 a8 9b df 3c 7f 5e e8 3d 42 d4 5c bd d9 b8 5f bd
       0.027295902 0.11346149 -0.053913362 -0.054619644
000260 12 ba 3b 3d 19 58 b6 bd 39 3b 40 bd ab d2 f9 3d
       0.045831747 -0.08903522 -0.04693148 0.12198385
000270 99 c0 c2 bd 78 ca e4 bd 6e 8e 99 3d c4 de bf 3d
       -0.09509391 -0.1117143 0.074978694 0.09368661
000280 29 1b 2a 3e 3d 2b 73 bd 62 a1 5c be 1c 59 19 bd
       0.16611923 -0.059367407 -0.21545938 -0.037438497
000290 87 cc 58 bd 91 c2 09 3e 52 58 08 be 18 32 49 be
       -0.052929427 0.13453127 -0.13314942 -0.19648015
0002a0 88 68 2a be 6d 6f 9c bd 4d 16 e9 bd 83 cd 04 3c
       -0.16641438 -0.0763844 -0.11381207 0.008105638
0002b0 73 d1 f5 bd 4d c2 80 3b 95 4f ac bd 00 9e b8 3d
       -0.1200284 0.0039294125 -0.084136166 0.09014511
0002c0 8e f7 86 3d 37 ba c2 3b 4e 64 1a bd 9b af d3 3d
       0.06590186 0.0059426087 -0.037693314 0.103362285
0002d0 1f 49 ce bd 39 99 5f be e2 64 7c bd 65 c8 e8 bd
       -0.100725405 -0.21835794 -0.061619647 -0.11366347
0002e0 80 a7 c8 bd bd 0f 0a 3e 90 f6 ed bc 3a e6 99 bd
       -0.09797573 0.13482566 -0.029048234 -0.07514615
0002f0 40 d7 14 3e 99 ce 60 3d 0c dc a8 3d bd dc 5b 3c
       0.14535236 0.054884527 0.082450956 0.013419327
000300 ed 7d d9 3d 6c 18 43 bd c1 06 40 3e 34 0b f7 bd
       0.106197216 -0.047630712 0.18752576 -0.12062684
000310 03 33 2d bc a4 2d 1f 3d f5 7a 1d be c4 ba 25 be
       -0.010571244 0.038861886 -0.15378936 -0.16184527
000320 22 ea 93 3d 34 e0 9e bd 9e eb 19 be 43 c3 bf 3d
       0.07222392 -0.07757607 -0.15031287 0.09363415
000330 d6 fd 5b 3d dd 33 2b 3e a8 03 3a 3e e6 e3 10 bd
       0.053708874 0.16719003 0.18165457 -0.03537359
000340 9b 32 e7 bc 49 64 d4 be a2 53 14 3d fb ce 5d 3e
       -0.028222373 -0.41482762 0.03621257 0.21660988
000350 dd 51 32 be 2d b9 84 be 64 fe 51 3d a4 08 fe 3d
       -0.17414041 -0.25922528 0.051267996 0.12403992
000360 dc 19 8c 3b 79 48 66 3e 51 5e bf bd 6a e9 32 be
       0.0042755436 0.22488584 -0.09344161 -0.17471853
000370 b6 58 b2 bc e5 c8 2c be 24 6f ee bd 7e a3 bf bd
       -0.021770816 -0.1687351 -0.11642292 -0.093573555
000380 80 a3 54 3c f8 2d d6 3d 59 8f 15 be b5 38 0c bd
       0.012978435 0.104579866 -0.14605464 -0.034233768
000390 8f 44 48 bc cf 89 4a bd 2b 82 e7 bd 60 13 ef 37
       -0.012223377 -0.04944783 -0.113041244 2.8500042e-05
0003a0 4d a7 fe 3d 82 2b 4f 3d 02 3c 1b 3e 3f 6f 08 be
       0.12434254 0.0505786 0.1515961 -0.13323687
0003b0 b9 7a 30 3e 37 ba 32 be ee 95 fb bd 2d 67 4e be
       0.17234315 -0.17453848 -0.12284456 -0.20156546
0003c0 64 9f a2 bd e9 3c 84 be 12 02 7d bd 30 7e 51 be
       -0.079405576 -0.2582772 -0.061769553 -0.20458293
0003d0 8d ac 86 3c 2c 12 cc 3c e8 de b2 bd 0f e7 95 bd
       0.0164397 0.024911009 -0.08733922 -0.073194616
0003e0 ae ce b3 3d 7c 09 b7 be f1 d2 1c be ec d9 af 3d
       0.087796554 -0.35749424 -0.15314843 0.08586487
0003f0 13 03 30 3e 29 41 03 bd 61 8f 08 3e 11 41 15 be
       0.17188673 -0.032044563 0.13335945 -0.14575602

a3.bias f4 [32]
000000 b1 7f 7e bd 31 65 cf 3c 13 ae 45 3c 97 63 00 be
       -0.062133495 0.025316807 0.012065428 -0.1253799
000010 e2 31 f6 bd ee c6 39 ba 60 3e 02 bd 65 dd 1d be
       -0.12021233 -0.0007086833 -0.031797767 -0.15416487
000020 b7 29 06 be e4 1f 98 bd 7c 99 54 bc 9c 91 56 bd
       -0.1310185 -0.07427958 -0.012976047 -0.052384958
000030 85 9c 40 be 2b 3f 98 bd 20 aa 01 bd c1 ee d1 3d
       -0.18809707 -0.07433923 -0.031656384 0.10250617
000040 fc 3e 03 3e fb 9f 5b bd f5 a7 95 bd c8 ed da bd
       0.12816995 -0.053619366 -0.07307426 -0.106898844
000050 37 63 5e bc 61 33 90 bd d1 38 1b bd b7 1c a6 bd
       -0.013573459 -0.0704105 -0.03789598 -0.08110946
000060 04 1c 3f 3a f9 af 86 3d a5 bd fd 3d 85 3b 66 bd
       0.00072902464 0.06576533 0.123896874 -0.056209106
000070 d8 dc 07 3c 42 d4 1b 3d 10 74 27 bc 0a b9 54 bd
       0.008292399 0.03804422 -0.010220543 -0.05193428

b1.weight f4 [32, 32, 3, 3]
000000 34 87 1e be ad c2 0b 3d 90 8c 4b 3d 66 52 4c bd
       -0.15481263 0.034121204 0.049694598 -0.04988327
000010 dd 25 95 bc 18 6c 65 be f0 9f f8 bc 77 8c c8 3c
       -0.018206531 -0.22404516 -0.030349702 0.024481041
000020 8e d1 0c be 8e e0 30 3a c0 8c 50 be d5 3a 28 3d
       -0.13751814 0.00067473284 -0.20366192 0.04107173
000030 22 c0 71 be 8c 7a 81 be 58 ad 56 bb 6c 84 97 3d
       -0.23608449 -0.25288808 -0.003275713 0.07398304
000040 06 5d 1d be b1 93 80 3e 19 83 60 bd 8d 17 af 3c
       -0.15367517 0.2511268 -0.054812524 0.021373535
000050 54 3e 4e bd e5 b6 a4 3d 3a 65 29 3e 2e b8 8f bd
       -0.05035241 0.08042697 0.16542521 -0.07017551
000060 43 be 81 3b cf 13 de 3c 73 ec 3d bd 92 a3 3f 3e
       0.0039594485 0.027109055 -0.046368074 0.18714741
000070 d1 b0 f9 3d 94 2a c3 3d 04 1b 1c 3d 24 11 6e be
       0.12191928 0.095296055 0.0381117 -0.23248726
000080 43 e6 d3 3d 74 6d 16 be 49 b3 ea bd 9c f1 24 be
       0.10346653 -0.1469019 -0.11459977 -0.16107792
000090 af f5 08 3e ed d9 03 be 01 c0 4a 3c 05 ee e9 bc
       0.13374971 -0.12876101 0.012374879 -0.02855588
0000a0 e1 b5 2b bd e1 90 1e be 7b bb 05 bd 7f 98 82 be
       -0.0419215 -0.15484954 -0.0326495 -0.2550697
0000b0 af d2 e7 bc 97 de 86 3e 95 df a2 be c2 11 be bd
       -0.028298704 0.26341698 -0.31811205 -0.09280731
0000c0 11 d4 34 3e 1a 52 03 bd d4 e9 e6 bc a9 32 86 3d
       0.17659022 -0.03206072 -0.02818767 0.065526314
0000d0 57 dd 74 bd f6 a5 7d be b0 56 01 be 32 9f 3f bd
       -0.0597814 -0.2477034 -0.12630725 -0.04678268
0000e0 38 1a 62 bc 73 2a 30 bc 88 5c 4d 3d 63 48 19 3b
       -0.013800196 -0.010752308 0.050137073 0.0023389093
0000f0 88 10 fd bc 45 46 00 3e d5 21 82 bd 80 a2 7d bd
       -0.030891672 0.12526806 -0.06354109 -0.06192255
000100 c7 c4 5a 3d 31 b5 27 3d 57 91 2a 3d 0d 25 0c be
       0.053410318 0.040944282 0.041642513 -0.13686009
000110 51 4e 19 bd 99 2c 26 3c 16 91 6e 3d 88 d8 c7 3c
       -0.037428204 0.010142469 0.058243833 0.024395242
000120 7c d9 b9 bc ca 63 11 be fd 1a ea bd 8d 0c 90 be
       -0.022686712 -0.14198223 -0.11430929 -0.28134575
000130 1f 56 31 3e a0 80 05 3c 6e b9 30 be 00 9e 6e 3d
       0.17318009 0.008148342 -0.17258236 0.05825615
000140 3b fa cc 3d 53 a5 b2 3d 4f 86 be 3b 10 e9 ea bd
       0.10008665 0.08722939 0.0058143507 -0.114702344
000150 7c c0 d3 3d 4e 00 c1 3d 48 14 7d 3e e9 c6 a8 3e
       0.10339448 0.09423886 0.24714768 0.32964256
000160 f6 f3 70 bd 18 a4 18 be af 04 06 bd 65 61 ed 3d
       -0.05882641 -0.14906347 -0.03271931 0.11590842
000170 18 e3 66 be c9 30 57 3c c7 0c b9 3d 68 fa 26 bd
       -0.22547567 0.01313419 0.0903564 -0.04076615
000180 96 92 e9 3d 6b 88 1b 3c 48 34 88 3d ab f1 2f be
       0.11404912 0.009492974 0.06650597 -0.17182033
000190 88 bd be bd d0 ae 8e be 07 7c 47 3e 79 ea ba bd
       -0.09313494 -0.27867746 0.19480906 -0.09126753
0001a0 9c 11 3f be b3 97 2f 3e 9e 2f 3a 3d d4 c2 fa bd
       -0.18659061 0.17147712 0.045455568 -0.12244192
0001b0 fb b3 9b be 00 c1 20 be 8e 18 28 be 2f b9 33 bd
       -0.30410752 -0.15698624 -0.16415617 -0.043877777
0001c0 2a f8 97 bd 4c 2c 67 3e 95 06 8a bd 4c 06 04 be
       -0.074203804 0.22575492 -0.06739537 -0.12893027
0001d0 ef 15 d5 bd c0 e2 8c bd 24 34 84 3d 55 09 e4 3d
       -0.10404574 -0.06879187 0.064552575 0.111345924
0001e0 c3 0f 8c 3d a8 b8 ba 3d 34 28 06 bd 1b 8b 85 bd
       0.06838944 0.09117252 -0.032753184 -0.06520673
0001f0 a5 3f 8b be ec 57 a9 3d af ad 67 3c 9c 17 f1 3d
       -0.27196994 0.08268723 0.0141405305 0.11772081
000200 d3 c9 90 bd 4c b8 a2 3c 2a 6b 49 be 54 e6 45 3d
       -0.07069745 0.01986327 -0.19669786 0.04831536
000210 a5 d6 5c 3b 6c 1a 92 bd 6b eb 48 3b ed 15 b5 bc
       0.0033697274 -0.07133946 0.0030657898 -0.022105182
000220 6b 11 fd ba 98 ec db bc 66 ea 14 be c3 dd ad 3d
       -0.0019307559 -0.026846215 -0.14542541 0.08489563
000230 b9 6d 0d bc 3b 84 f0 bb f4 b8 57 be 7c 47 ed 3a
       -0.008632117 -0.007339982 -0.21066648 0.0018102969
000240 d6 ff 4a be a4 eb 14 3c 46 dc bb 3d de 64 4b 3e
       -0.19824156 0.009089384 0.09172873 0.19862697
000250 eb d2 27 3e 93 b8 8b 3d 0a ad 25 3d a0 98 58 bd
       0.16389053 0.06822314 0.040448226 -0.05287993
000260 3b bf 38 3e 52 06 d9 3c 3d 00 bf 3c 9c a6 9a be
       0.18041699 0.026492272 0.023315543 -0.30205238
000270 c5 86 8b bd 50 32 0e bd de fd 8d be bc 46 c7 bd
       -0.068128146 -0.03471595 -0.27732748 -0.097302884
000280 cd 3d 10 3e 83 b3 85 bc 98 71 04 3e fc 69 d9 bc
       0.14086075 -0.01632095 0.12933958 -0.026539795
000290 7a 74 a5 bd 74 42 2b 3d 48 79 b4 be 28 e1 51 be
       -0.08078857 0.04181142 -0.3524878 -0.20496047
0002a0 48 8b 18 be 1c ce 0f be f2 64 e7 bd 09 ff 46 bd
       -0.14896882 -0.14043468 -0.11298551 -0.048583064
0002b0 9a 51 af 3d b1 e4 de bd 9d 40 4e 3e f2 65 6a 3d
       0.08560486 -0.10883463 0.20141836 0.05722613
0002c0 5c 7f 49 3c e8 19 4b be 84 c8 cd 3d d4 09 ac 3c
       0.012298431 -0.19834101 0.10048011 0.02100078
0002d0 ed 22 20 3d cf 24 37 bd 11 d9 8a 3d d7 68 3e 3c
       0.039095808 -0.044712838 0.067796834 0.011621675
0002e0 86 72 37 bd 2e 6d cf bd da c0 91 3d 39 7d 80 3d
       -0.044786952 -0.10128246 0.07116862 0.06273884
0002f0 1f ae 07 3e 98 d1 9d 3d 89 45 2c be c5 c5 10 bd
       0.13250016 0.077059925 -0.168234 -0.035344858
000300 7f 98 b9 3d 6f 7a 2b 3d 31 04 03 3e a4 5c c1 bc
       0.090622894 0.04186481 0.12794568 -0.023603745
000310 a9 a4 a3 bd 52 a4 00 be ad 39 2f be c2 1e 41 3d
       -0.07990391 -0.12562683 -0.17111845 0.047148474
000320 4a 2f 31 3d 5d 0e a6 bd 32 28 4e 3c ed 03 29 3d
       0.04325799 -0.08108208 0.0125828255 0.04126351
000330 4e b2 81 3d be 78 8b be 82 13 08 be 77 1d cf bd
       0.06332837 -0.27240556 -0.13288692 -0.10113042
000340 a8 1a e0 3d 79 2e ac bd 21 77 0c bd d0 91 8b bd
       0.10942584 -0.084073015 -0.034293298 -0.06814921
000350 52 2c c4 bd e4 e3 e1 bd 43 dd 16 3e 30 a1 1d 3e
       -0.09578766 -0.11029795 0.14732842 0.1539352
000360 2a 85 1b 3e 7e 91 ca bd 4c c1 95 be f9 56 3f be
       0.15187517 -0.09891032 -0.29249036 -0.18685521
000370 cd 4f 62 3d 3c dd d0 3c 4e b4 18 3d c2 a3 1c 3e
       0.055251885 0.025496118 0.037281327 0.15296844
000380 18 cc ea 3b 36 93 d9 3d ef 92 b5 3d 21 3f 43 be
       0.007165443 0.106237814 0.08865916 -0.1906705
000390 3d 39 e6 bd df 56 d5 bc b9 df 41 3d 78 d5 63 bd
       -0.11241386 -0.0260424 0.0473325 -0.0556235
0003a0 f0 86 62 3e 45 2d 3b 3d 4a 52 7b 3e b8 2f 95 3b
       0.22121787 0.04569747 0.2454311 0.0045528077
0003b0 1b a3 17 be 86 8c bd 3d de 12 12 3d 8f 7b fb 3c
       -0.14808314 0.09255318 0.035662524 0.030698566
0003c0 86 79 03 3c f7 e2 41 3e 7b f3 5b be 9b c9 c3 3d
       0.008024579 0.18934236 -0.21479599 0.095599376
0003d0 fa b0 b7 bb c2 be 35 bd 92 61 c6 be fe f7 52 be
       -0.005605814 -0.044371374 -0.38746315 -0.20602414
0003e0 f8 b2 29 bd e7 49 24 3c 83 e5 d9 3d 2c c8 83 3c
       -0.041430444 0.010027385 0.10639479 0.01608666
0003f0 f9 1d 2c 3e 0a 2d 51 3d 66 ea 84 be 3a 45 2d 3d
       0.16808309 0.051068343 -0.25960082 0.042302348

b1.bias f4 [32]
000000 8b b4 59 bd 3f 5b ee bd 7f ec da bd 79 1c a8 bd
       -0.053150695 -0.116384976 -0.10689639 -0.08208556
000010 9c 81 c7 3d 5d ac b2 bd 25 3c 22 bd 55 59 8b b9
       0.09741518 -0.08724282 -0.03960814 -0.00026578704
000020 36 f7 2e bc fa 9c fb bd 18 ff c1 bd 32 1b 92 3c
       -0.010679057 -0.122858 -0.094724834 0.017835233
000030 40 a1 03 bd 49 68 e1 bd 4f 56 90 3c cf 4a 9a bd
       -0.0321362 -0.11006219 0.01761928 -0.075338
000040 22 a0 7e bd 88 84 10 be 9e 86 f6 bc 9a 21 4e 3d
       -0.062164433 -0.14113057 -0.030093487 0.050325014
000050 6b 49 41 bd ef 20 bb bd 50 db c1 3d 43 68 11 be
       -0.047189157 -0.09137141 0.09465659 -0.14199929
000060 11 f2 95 bc 40 98 6e bd 7c 7a 4b bd 2b b3 4b be
       -0.018303903 -0.058250666 -0.049677357 -0.19892566
000070 f2 d0 4a bd 4f e4 31 bc 3c 90 f7 3c 5d 6f cd bd
       -0.049515672 -0.010857656 0.030220143 -0.100310065

b2.weight f4 [32, 32, 3, 3]
000000 91 6d fa 3d 00 0c 9a 39 5e cb bf bc 9d 6b a2 bc
       0.122279294 0.0002938211 -0.023412403 -0.019826705
000010 21 27 39 be a7 b2 7f 3e 00 8f 25 be a7 93 e2 bd
       -0.18081333 0.24970494 -0.16167831 -0.11063319
000020 6e e6 60 3e 17 10 0d bc 1f 7e 5b 3c 88 fc 7d bd
       0.21962902 -0.008609793 0.013396769 -0.06200841
000030 e6 67 5b bd fa 3f 3c bc b4 a9 aa bd 62 a9 a4 3d
       -0.053565882 -0.011489863 -0.083331496 0.0804012
000040 4c 79 60 3e cd bd b1 bd ed e2 be 3b 96 63 b5 3d
       0.21921271 -0.0867878 0.0058253915 0.08856885
000050 9a 5d 58 be c1 0a ab 3d 70 d4 c2 bd 4f 74 ea 3d
       -0.21129456 0.083516605 -0.095131755 0.11447965
000060 dc 0e a4 bd b0 20 31 3d b6 27 f2 bd 6e 92 9b 3e
       -0.08010647 0.043244064 -0.118239805 0.30385154
000070 ee b6 a0 bc b6 b7 34 3e c3 a5 b8 3e 2a d8 86 bd
       -0.019618478 0.17648205 0.36063966 -0.06584199
000080 31 81 c0 bc d7 8b 18 3d 20 bf 0c be ab 4b bf bb
       -0.023499103 0.037242737 -0.13744783 -0.0058378777
000090 bd e8 4b bd 5a d4 a9 3d 23 85 53 be fb e4 02 be
       -0.049782503 0.08292456 -0.20656256 -0.12782662
0000a0 8c 91 f3 3d d6 64 26 be c7 45 92 be e6 f3 44 3e
       0.11892995 -0.16249403 -0.2856886 0.19233665
0000b0 41 76 14 3e 5f 25 1b 3d 31 2d bc 39 1a 9d 1a bd
       0.14498235 0.037877437 0.00035891825 -0.03774748
0000c0 33 51 ae 3c 24 51 c3 3c 00 cd 11 bd 56 62 c5 bc
       0.021278953 0.023842402 -0.035595894 -0.024094742
0000d0 63 39 eb 3c 7f f4 0a 3d c3 4a c9 bc 22 8b e8 bd
       0.028713888 0.033924576 -0.024571782 -0.113546625
0000e0 61 26 1a 3d d7 24 b5 bd 0a 35 c6 bd d6 c9 5c be
       0.037634257 -0.08844917 -0.09678085 -0.2156137
0000f0 25 cd 7b bd 02 70 83 3c f3 68 f3 bd 4d 60 80 3e
       -0.061474938 0.01604462 -0.11885252 0.25073472
000100 c5 c6 48 3d 1d b9 db bd e2 d4 be bc 7c f4 3d 3d
       0.049017686 -0.10728667 -0.02329487 0.046375737
000110 8b da 53 3c b6 d5 0e bc c4 34 25 bc a6 43 90 bd
       0.012930523 -0.008717945 -0.010083381 -0.07044153
000120 98 7b 9c 3b fe bb a2 bd 7d 66 14 3e de 9d bd bb
       0.0047754757 -0.07946013 0.14492221 -0.0057866415
000130 3f 18 d1 3c e6 a1 08 be df ba 0b bd 65 d0 a5 3d
       0.025524257 -0.1334301 -0.03411376 0.08096389
000140 c1 34 51 be 98 da 00 3d 17 ec 65 be 6d df 02 be
       -0.2043028 0.031458467 -0.22453342 -0.12780543
000150 4c 27 35 3e d8 96 c3 bd a1 c7 32 3e cc d5 1b 3e
       0.17690772 -0.095502555 0.17458965 0.15218276
000160 14 74 98 3d e7 bf df bd f3 4d 96 b9 ef b8 d1 bd
       0.07444015 -0.10925274 -0.00028668306 -0.102403514
000170 86 87 8d 3c 19 0f 04 be 7b 60 83 bd 51 3c 48 be
       0.017276537 -0.12896384 -0.064148866 -0.19554259
000180 c4 16 09 3e b1 75 a7 3d f8 48 11 be 98 3f e0 3d
       0.1338759 0.08176745 -0.14187992 0.109496295
000190 5c 03 df bd 28 f4 62 3d be 13 25 bc 4b ea 28 3c
       -0.108893126 0.055408627 -0.010075508 0.010309766
0001a0 ed 57 10 bd 65 33 60 be ab 16 0a 3e f1 0f 3f be
       -0.035240103 -0.21894605 0.1348521 -0.18658425
0001b0 63 7b ea bd e1 92 ba bc dd a1 62 be e6 3a 9f 3d
       -0.114493154 -0.022775115 -0.22132058 0.07774906
0001c0 32 8b 8c 3c ca 0c 4e bd b2 78 3f be 0d 83 cd bc
       0.017156217 -0.050305165 -0.18698385 -0.025086904
0001d0 cf 1b 1d 3d f2 fc 3c be 9f 60 14 be 33 1a c3 be
       0.0383566 -0.18455866 -0.14489983 -0.38105926
0001e0 b6 26 d1 3c bb 48 55 be f3 0f 44 bb 31 75 a9 bd
       0.025531154 -0.20828526 -0.0029916733 -0.082743056
0001f0 a0 b1 8c 3d 8b 23 05 bd e1 08 c7 3d fb c2 91 3b
       0.06869817 -0.0325046 0.097184904 0.0044482923
000200 52 93 f4 bc 54 19 21 bd 3f 98 a5 be 92 ef 8e bd
       -0.029855404 -0.039330795 -0.32342717 -0.06979288
000210 c7 9e 06 be 52 00 ba 3d 6e 00 bd 3c 61 7c b5 3c
       -0.13146506 0.09082092 0.023071494 0.022154035
000220 6a c1 e0 bd 20 3a bd bc 0c 44 24 3e 61 cf 93 be
       -0.10974391 -0.023099005 0.16041583 -0.28869155
000230 75 21 b3 3a 80 89 ad 3c 0c 30 c8 3d fb a9 24 3d
       0.0013666587 0.02118373 0.09774789 0.04020117
000240 eb a8 54 3e 4b e8 8d 3d 60 a7 1e be 1d 47 90 bc
       0.20767562 0.06929072 -0.15493536 -0.017612034
000250 84 b8 ef bd ad 6b 01 be 76 38 93 3d c4 6c 65 3e
       -0.117051154 -0.12638731 0.071885034 0.22404772
000260 d7 c4 68 3d 38 8f a2 bc 7e a3 e8 3c 96 7b 7f 3d
       0.056828346 -0.019843683 0.028398272 0.06237372
000270 9e 87 41 3e ea e7 56 bc 17 a8 40 3c 91 36 11 be
       0.1889939 -0.013116816 0.011758826 -0.14180972
000280 6a 6f 81 3d 62 da 36 be f9 c7 7f bd ee 1b 38 3d
       0.06320079 -0.17856744 -0.06244657 0.04494851
000290 f1 f0 7d bd 31 23 8d bd d9 6f 40 be 9c f3 d6 bd
       -0.061997358 -0.06891478 -0.18792666 -0.104956836
0002a0 99 c9 06 bd a4 65 f9 bd 49 4f 28 bc c0 e8 01 3e
       -0.032907102 -0.121775895 -0.010272809 0.12686443
0002b0 13 23 8f bd e2 0d 44 3d 9b c8 b0 3d a8 ac 5f 3d
       -0.06989112 0.047864802 0.086320125 0.054608017
0002c0 fe c0 c7 3d c9 74 d0 3c 58 cb 6b 3d a2 88 83 bb
       0.09753607 0.025446313 0.05756697 -0.0040140906
0002d0 ff fb f6 bd 45 04 df bd a4 bf d5 bd 15 37 b0 bb
       -0.12059783 -0.10889486 -0.10436943 -0.00537766
0002e0 1a 8f 8b bd a5 22 99 bd 3e 2a b1 be 5b 59 e2 bc
       -0.06814404 -0.07477311 -0.3460254 -0.027630499
0002f0 3c 4e 4a bd a4 7c 11 be dd 31 cd bd 04 da 65 bd
       -0.049391016 -0.14207703 -0.10019276 -0.05611612
000300 16 1f 1c 3e 66 77 a3 3d a0 43 6a 3e a8 d2 37 bd
       0.15246233 0.07981758 0.2287736 -0.04487863
000310 d2 d7 06 bd 5c b9 45 be 94 ec 14 3e 57 22 88 be
       -0.032920666 -0.1930899 0.14543372 -0.265887
000320 46 03 d1 3d 25 5d 95 3d 19 6d ee 3c 69 32 01 3e
       0.102057025 0.072931565 0.029104756 0.12616886
000330 36 0f 1a be 6b 5d 7d 3e 98 2e 68 bd 86 5d 3c 3c
       -0.15044865 0.24742667 -0.05668506 0.011496907
000340 1e 65 92 bd b9 54 31 3d 1e 8e f9 bd 15 ad 95 bd
       -0.07148193 0.04329369 -0.1218531 -0.073084034
000350 50 63 cf 3e 92 ae c2 bc f6 b4 f0 bc 13 26 32 bd
       0.40505457 -0.023764882 -0.029383164 -0.04349334
000360 42 82 79 bd 6a b4 56 3c 96 fe b3 bd 68 62 6c 3d
       -0.06091524 0.0131045375 -0.08788793 0.057711035
000370 f6 57 8e bd 08 b0 f4 3b a5 39 0b 3e 4b e8 a1 3d
       -0.06950371 0.0074672736 0.13596208 0.079056345
000380 19 42 53 be ff 97 62 bd ae 4c b2 bd 1c fe ff 3d
       -0.20630683 -0.055320736 -0.08706032 0.124996394
000390 1e 80 77 3d c4 43 e9 3d d1 e0 2a be 5e f0 43 be
       0.060424916 0.113898784 -0.16687323 -0.19134662
0003a0 b3 99 41 be 5d b2 9a 3d 10 a0 06 3e e2 c1 2b be
       -0.18906288 0.07553551 0.13146996 -0.16773179
0003b0 47 c6 82 3d 80 55 da bd 5a 2f d7 3d 77 bf 87 3d
       0.06385475 -0.10660839 0.105070785 0.06628316
0003c0 0c 5d 63 be f2 21 f3 bd b2 c6 e8 bc c9 d2 a9 3b
       -0.22203463 -0.11871709 -0.028415058 0.0051825983
0003d0 e6 55 a5 bd 0b 9f 0a 3e 02 bc b7 bc 8c ea 07 be
       -0.080730245 0.13537233 -0.022428516 -0.13273066
0003e0 db 04 25 be c7 54 5b be 74 56 4a be 16 06 c8 3c
       -0.16115133 -0.21419059 -0.19759542 0.024416965
0003f0 02 69 00 3d e0 40 ec 3d e2 7d 5b 3e 98 53 fb bc
       0.031350143 0.115358114 0.21434739 -0.030679509

b2.bias f4 [32]
000000 a2 67 01 3b 81 dc 1e be e9 24 9a bd fa 66 dc bd
       0.0019745608 -0.15513803 -0.07526571 -0.10761829
000010 9e 9b 08 be 93 8d c9 bd 26 c7 69 bd 4a 0f ad bd
       -0.13340613 -0.09841456 -0.05707469 -0.08450182
000020 74 7e 80 3d 5d c3 64 3c 3c 1f 25 bc 3f 09 f6 bc
       0.06274119 0.013962594 -0.010078248 -0.030033706
000030 cd c9 46 bd b1 7d 10 be ba 2d f7 bc 4b 38 1a 3d
       -0.048532296 -0.14110447 -0.030173171 0.03765134
000040 04 32 ec bc 0f 02 ce bd 29 31 a1 bd 51 91 45 bd
       -0.028832443 -0.100589864 -0.07870705 -0.048234288
000050 3e 51 ea bc fb b4 4d 3d 8c 92 d4 bd 3f 0e c4 3c
       -0.028603192 0.050221425 -0.10379514 0.023932574
000060 1c bb d6 bd 24 68 95 3c 2f 9b d8 3c b5 96 b7 3c
       -0.10484907 0.018238135 0.026441185 0.02241073
000070 57 fc d3 bd 19 7f 80 bc 4e 08 d9 3c c2 e3 c3 39
       -0.103508644 -0.015685605 0.026493218 0.0003736299

b3.weight f4 [64, 32, 3, 3]
000000 7d 6b 1a 3e 0e 52 a9 bb e9 96 a0 bd 1c 8e d8 bd
       0.15080066 -0.0051672524 -0.07841284 -0.1057398
000010 f2 08 4e be 6d 7a 05 bd 08 3c 87 3d 83 e9 36 be
       -0.201206 -0.032587457 0.06603247 -0.17862515
000020 57 83 32 3d eb a6 9d 3d 7b 19 e3 bd 9a 0d 1f 3e
       0.043582287 0.07697853 -0.110888444 0.15532532
000030 da f7 38 3d be 61 30 bd 9c f7 d6 bc 19 d4 f8 bd
       0.045158245 -0.043061964 -0.026241116 -0.121498294
000040 5c 96 67 be a3 fe 9b be 4c c8 28 3c 51 21 10 be
       -0.22615951 -0.3046771 0.010301661 -0.14075209
000050 5b 48 1f 3e 14 6b d4 39 ce 28 24 be ea e8 f5 bd
       0.15554945 0.0004051557 -0.16031191 -0.120073155
000060 08 e1 97 3d 9a ce a6 3d 2e 50 e2 3c 90 a8 d1 bb
       0.07415968 0.08144875 0.027626123 -0.006398268
000070 dd 18 37 3e 4b 45 a3 3c 4e 81 ef 3d 45 2e 0e 3e
       0.17880578 0.019930502 0.11694585 0.13884838
000080 98 38 fa 3b 82 de 4d be be e4 5a be d1 91 c5 3d
       0.007636141 -0.20104411 -0.2137632 0.09646953
000090 94 4f 15 3b ec df 38 bd 14 ab f6 3c 87 92 b7 3d
       0.0022783028 -0.045135424 0.030110873 0.08963495
0000a0 8e 02 9a 3c a8 18 ea 3c 56 3c 2a 3d 1e 19 fa bc
       0.018800046 0.02857621 0.041561447 -0.030529555
0000b0 a2 cb 0e bd b4 03 b0 3d 0b 76 80 3e 36 fd 7d 3c
       -0.034862168 0.08594456 0.2509006 0.015502265
0000c0 6d 73 81 bb 3f cf ed bd cc d0 df bd 9a 42 1d bc
       -0.0039505274 -0.11611795 -0.10928497 -0.009598399
0000d0 89 d0 85 be d1 a4 6c be 6a 89 38 bd cf 51 e6 3d
       -0.26135662 -0.23109747 -0.045052923 0.112460725
0000e0 ea b2 8a bd 07 f2 fe 3b a2 a5 05 3e 39 bd b2 3d
       -0.067724064 0.0077803168 0.13051465 0.087274976
0000f0 94 b9 b6 bc 74 2c 99 bd b3 27 0d 3d a1 3a 91 bc
       -0.022305287 -0.07479182 0.03446169 -0.017728152
000100 ab 9b 04 bc 49 33 b5 3d e6 63 c4 bd a2 ae 96 be
       -0.008093755 0.088476725 -0.095893666 -0.2943011
000110 41 ef 27 be db bc 0c bd b2 1d d0 3d b7 da 20 be
       -0.16399862 -0.034359794 0.10161914 -0.15708433
000120 16 89 84 bd 3e 76 97 3d 0b 0a ec bd 2d 1b a4 3d
       -0.064714596 0.073956 -0.11525353 0.08012996
000130 74 ff ce 3d c8 ce 7f bc 5e af 0d 3c b2 6d 9f bd
       0.101073176 -0.015613265 0.008647768 -0.077845946
000140 47 dc fe 3d b8 6d b6 bd ce 2b 5d 3d 3d 9c c8 3c
       0.12444358 -0.08907646 0.053996854 0.024488563
000150 a2 2a c7 bd 95 92 43 3e f0 97 15 be d9 17 55 be
       -0.097249284 0.19098885 -0.14608741 -0.20809878
000160 ba de 2f be 65 f9 7e bd 03 83 ae bd dd ae 5c be
       -0.17174807 -0.06224956 -0.08521082 -0.2155108
000170 3b 49 0d be e6 f3 e1 bc b5 c1 94 3d 9c ad 0f 3e
       -0.13797466 -0.02758212 0.07263509 0.1403107
000180 da f7 11 bd a9 b6 19 3e 85 27 4e 3b 7f a8 01 3e
       -0.03563676 0.15011086 0.003145666 0.12661932
000190 17 63 79 3d dd 5f 19 be 38 69 a6 3d c2 14 31 3e
       0.060885515 -0.14977975 0.08125538 0.17293075
0001a0 bf f8 20 be 12 53 84 3d e5 65 8c 3e 05 e5 3c 3d
       -0.15719889 0.06461157 0.2742149 0.046116848
0001b0 3f 7f 4f be a0 ff 9b bd 9a cf 08 bd 91 0d 6a 3b
       -0.20263384 -0.07617116 -0.03340111 0.0035713653
0001c0 02 7b df bd bf ce 0b be 89 8e 0b be 75 8d be 3d
       -0.10912134 -0.13653086 -0.13628592 0.093043245
0001d0 ad 10 97 bb b7 44 83 3c d1 5f 95 be 73 64 50 bd
       -0.004610142 0.016023977 -0.29174665 -0.050877046
0001e0 c7 5b 94 3e 7f be 91 3e fa 79 4a 3e 64 61 a6 3b
       0.2897627 0.2846565 0.19773093 0.005077528
0001f0 89 d3 22 3b 03 41 9c bd f7 49 97 3d ef 2f bf bd
       0.0024845323 -0.076295875 0.073871545 -0.093353145
000200 51 a3 1e be 44 67 1f 3d f7 44 c1 3d 2e 30 05 3e
       -0.15491988 0.03891684 0.09436982 0.1300666
000210 cc dd 97 3d eb 18 30 be 0f ac 10 be 62 29 bd 3d
       0.07415351 -0.17197005 -0.14128135 0.09236409
000220 6a ef 8a bd d4 f7 f4 bc 08 9d 38 be 46 d2 f9 bc
       -0.06783946 -0.02990333 -0.18028653 -0.030495774
000230 13 bc 94 3d 04 d4 13 bd ba 87 79 3c 74 f8 87 bb
       0.07262435 -0.036090866 0.015230114 -0.004149491
000240 93 c4 5c 3e ec ae db bc 7d 77 48 be b2 2a 13 3d
       0.21559362 -0.026816808 -0.19576831 0.03592939
000250 1a ef 2f be 9a fe 8b bd ce 6e 6e be ee c6 ce bd
       -0.17181054 -0.06835671 -0.23284456 -0.100965366
000260 c8 59 2d be a1 77 81 3c 1b 18 eb 3d 05 03 9b bc
       -0.1692878 0.015804114 0.11479207 -0.018922338
000270 c9 e4 11 3e cf bc 23 be 17 f0 f5 bc 0f 56 c2 3c
       0.14247431 -0.15989994 -0.03002171 0.023722677
000280 62 9e 04 be 67 44 bc bd a5 2f b4 3d 5c 28 a1 3d
       -0.12951043 -0.09192734 0.0879815 0.07869026
000290 83 b0 b2 3c aa a0 b5 bd 98 26 05 be 6a 37 b4 bd
       0.021812683 -0.08868535 -0.13003004 -0.08799632
0002a0 3f dd 4a 3e 71 65 c6 bd c4 14 5b 3d 36 44 d4 bd
       0.19810961 -0.09687317 0.0534866 -0.10364573
0002b0 79 a9 46 be c7 43 bd 3c ca e6 e9 3d 1e b0 58 be
       -0.19400586 0.023103608 0.11420973 -0.21160933
0002c0 43 45 3e 3e a8 46 44 bc fe 7d 39 be 1a d6 81 3d
       0.18581109 -0.011979736 -0.18114468 0.06339665
0002d0 c4 09 f2 3d d2 22 ff 3d 21 2e 93 be 3c 2b 0c 3e
       0.11818269 0.12457813 -0.2874613 0.13688368
0002e0 37 13 92 bd d6 3a 9b 3d 5d 07 e2 bd da e7 8e 3d
       -0.07132571 0.075795814 -0.11036561 0.06977816
0002f0 36 b6 e2 3d 88 24 84 3d 96 7b d8 b8 0d a5 04 3e
       0.1106991 0.0645228 -0.00010322702 0.12953587
000300 c4 e6 8d bd 84 c5 25 3d 60 54 ba 3d 84 8e a6 bd
       -0.06928781 0.04047157 0.090981245 -0.081326514
000310 8c 69 00 3d ca 37 8b bd 1e 59 16 be b2 4d 88 bd
       0.031350657 -0.0679775 -0.14682433 -0.06655444
000320 74 a3 31 3d 60 d1 60 bd 52 9e 0f 3e 31 15 13 be
       0.04336877 -0.054887176 0.14025238 -0.14363553
000330 6b de b7 3d db e3 d8 be 2d 79 93 bd 9e 78 1f 3e
       0.0897797 -0.4236134 -0.07200847 0.15573356
000340 20 3d e5 3d 85 20 ef bc 8b 85 c5 bd b3 16 3c be
       0.11193299 -0.029190311 -0.09644612 -0.18368034
000350 8c e0 48 3e 6d c7 3a be 94 d4 1d be 11 23 4a bd
       0.19616908 -0.18240137 -0.15413123 -0.04934985
000360 7f c1 17 be 7b 90 84 bd 21 c3 44 3e 5c 5c 84 3d
       -0.14819907 -0.0647287 0.19215061 0.06462929
000370 ef 80 c6 bd 51 27 bc bd f8 74 f9 bd 7e 33 04 3e
       -0.09692561 -0.091871865 -0.12180513 0.12910268
000380 f4 c6 42 bd 68 1c 50 3d 0a cd a3 3c b8 fe 1b 3e
       -0.047553018 0.05080834 0.019995231 0.15233886
000390 24 72 da 3d f7 67 d9 3d 2e 40 dc bc 19 0d 10 bc
       0.10666302 0.10615533 -0.026886072 -0.008792185
0003a0 a8 b5 57 3e 8d 75 0a 3d 97 15 a3 bc 49 53 f4 3c
       0.2106539 0.03380351 -0.019907756 0.02982487
0003b0 ef 7d df bc 03 4d 1a 3b 3f c2 86 3e 14 e5 90 3d
       -0.02728173 0.0023544438 0.26320073 0.07074943
0003c0 dd f9 0a be 3d 60 d8 bd 85 04 25 3e c7 f8 41 3b
       -0.13571878 -0.10565231 0.16115005 0.0029597746
0003d0 ff 10 03 3e 4a 2c 96 3c 7c ab 9f 3d 9d 85 9a 3d
       0.12799452 0.018331666 0.0779638 0.07545016
0003e0 9c 4b da bc bf 8c b8 bc f5 45 30 be c7 ba 5f 3d
       -0.026647381 -0.02252805 -0.17214186 0.054621484
0003f0 a7 27 28 be 97 2d 27 bd b1 bc 87 3e 6a 4f c9 3d
       -0.16421376 -0.040814962 0.26511148 0.098296

b3.bias f4 [64]
000000 34 60 32 3d df 62 82 3d 13 7e 14 bc 05 16 85 bc
       0.043548778 0.063665144 -0.009063262 -0.016245851
000010 2d 03 2b 3d 48 b7 05 bd 68 2b f5 3c 72 f9 e0 3b
       0.041751076 -0.032645494 0.029927924 0.0068656737
000020 37 50 87 bd 32 98 81 bd cc b5 ad 3b 35 d8 5e 3d
       -0.06607097 -0.06327857 0.005301213 0.05440541
000030 d0 44 37 3d d7 55 7b 3d 1e 47 a1 bd 07 e9 ae bd
       0.04474336 0.06136116 -0.07874893 -0.0854054
000040 22 99 7c 3c 12 fb c6 bc c5 3c 1b 3c 46 76 ef 3c
       0.015417369 -0.024289642 0.009474938 0.029231202
000050 d7 60 2d bd ee d2 01 be 18 82 ff 3b 3b e4 74 3d
       -0.04232868 -0.1267812 0.007797491 0.05978797
000060 27 82 80 3d e5 82 97 bd be bf 01 be bf a6 a2 bd
       0.062748246 -0.07398013 -0.126708 -0.079419605
000070 44 46 a6 3d d9 6b a8 bb 4f 2f 96 3b 40 28 b9 bd
       0.08118871 -0.0051398096 0.0045832763 -0.0904088
000080 d9 fc 5d bd d0 62 82 bd 0b 28 b2 bb 4e 2c f3 3c
       -0.054196212 -0.06366503 -0.0054369024 0.029684212
000090 c2 94 01 bc 55 d7 6d bd 0a d3 bb 3c 29 65 d4 bd
       -0.007909002 -0.058066685 0.02292778 -0.10370857
0000a0 92 3c 97 bd 13 44 b1 3a 02 4f 3f 3d 03 ba ad 3d
       -0.073846 0.0013524316 0.046706207 0.084827445
0000b0 b5 1b a8 bd 24 08 df bd 24 a8 49 3d 25 f9 b2 bd
       -0.0820841 -0.108902246 0.049232617 -0.08738927
0000c0 cb e3 70 bd 31 92 51 bd a0 a9 08 bd 26 fe 81 39
       -0.05881099 -0.05116481 -0.033364892 0.00024794153
0000d0 70 6c 42 3d bb b0 70 3d 73 3e c8 bc 96 4b 9a bd
       0.047466695 0.058762293 -0.02444384 -0.07533948
0000e0 b0 e9 d4 3b dd ac dc 3c 4d d2 82 bd 5b c6 eb bc
       0.0064975843 0.026937896 -0.06387768 -0.028781107
0000f0 5a 34 7d bd d9 2d 1b 3d b7 0d ac bd a4 ba 92 bd
       -0.061817504 0.03788552 -0.084010534 -0.07164505
