nets/model_epoch_77.pth (torch, 648794 bytes, 25 tensors)

a1.weight f4 [16, 5, 3, 3]
000000 f0 e8 cc 3d e1 1c 14 3e cc 1c fe bc 63 a2 7f be
       0.10005367 0.14464141 -0.03101959 -0.2496429
000010 7e 71 00 be c4 57 c2 3e bb 1c 98 be 5e 44 36 3d
       -0.12543294 0.37957585 -0.2970942 0.044498794
000020 da cd fe be 1d fb c5 bc d2 c5 c9 bd 4e 60 04 be
       -0.49766427 -0.024167592 -0.09852184 -0.12927362
000030 d2 ca d2 3c 06 e6 40 be 41 f6 91 be 86 27 ad be
       0.025731478 -0.18837747 -0.2850819 -0.33819216
000040 65 74 60 be 2e b0 77 bd b2 0e 94 3d ef a3 21 be
       -0.21919401 -0.060470752 0.072293654 -0.15785192
000050 65 21 40 3d 06 d3 e9 3d 0e c2 ae be 0c 52 85 bc
       0.046906848 0.11417203 -0.34132427 -0.016274475
000060 68 4d e0 ba fc e8 1e be bb e2 60 bd ca e1 7f be
       -0.0017112913 -0.15518564 -0.054903727 -0.24988475
000070 86 e7 29 bd 1c 28 24 3d 31 a9 64 be 1a 0d 70 bd
       -0.041480564 0.040077314 -0.22330166 -0.058606245
000080 5d 73 f8 be f5 24 2e be 93 9d 5c be af d5 56 3e
       -0.48525515 -0.17006285 -0.21544485 0.20979951
000090 5e 38 2c be 2c 49 d4 bd 52 52 34 be 58 d6 79 bd
       -0.16818377 -0.10365519 -0.17609528 -0.06099543
0000a0 e8 f2 77 be a4 77 41 be 90 1e 2e bd 85 f1 19 be
       -0.24213755 -0.18893296 -0.042509615 -0.15033539
0000b0 9f ae 9f bd c7 1b 53 3e a3 69 01 be 2f 08 88 bd
       -0.07796978 0.20616065 -0.12637953 -0.06642186
0000c0 aa bf bf 3e 9a df eb 3c 47 51 d9 3e d0 39 52 bc
       0.37450916 0.028793145 0.42444822 -0.012831166
0000d0 15 e6 1d 3f fa f3 89 be 90 4e df 3d 32 82 af 3e
       0.616792 -0.26943952 0.109036565 0.3427902
0000e0 f3 9a c4 3d a0 db e2 bc 7d 99 5e 3e a7 b3 65 bd
       0.09599867 -0.027692616 0.21738239 -0.056079533
0000f0 ab 1d 14 3e 62 4f 24 bf b8 82 7e 3d 36 2e 2a 3e
       0.14464442 -0.6418363 0.062136382 0.1661919
000100 74 8b 4e bd 60 c9 9b bd 98 fe c8 3e 68 c0 cf 3d
       -0.05042596 -0.076067686 0.3925674 0.101441205
000110 af 03 00 bf ea 21 45 be 54 fa 45 be c4 32 fb 3d
       -0.5000562 -0.19251218 -0.19333774 0.12265542
000120 88 4b b8 bc 6c 7f c9 be 74 84 f1 be 29 48 d2 bb
       -0.022496954 -0.39355028 -0.47171366 -0.0064172936
000130 85 37 ab 3e 21 04 14 3e b5 e9 29 3e 72 07 48 3e
       0.33440796 0.144547 0.16593058 0.1953409
000140 64 de 0d bf 64 61 19 bc 02 43 af 3c fb 20 0e bc
       -0.55417466 -0.009361599 0.021394257 -0.008674855
000150 65 b4 bd 3d a3 30 11 3d 94 09 d9 bc 1f b2 a5 bd
       0.09262923 0.035446774 -0.026493825 -0.080906145
000160 5b 40 b3 bd f0 b0 e5 3c 4c aa a5 be 4e e6 b9 3d
       -0.08752509 0.028038472 -0.3235649 0.0907713
000170 4c 28 cc 3e 33 23 04 3d aa 26 8a 3e 6a 62 51 ba
       0.39874494 0.03226013 0.26982623 -0.0007987382
000180 d6 a9 28 3f 4c 11 08 3f 8e af e2 3d d3 10 43 3e
       0.6588415 0.5315139 0.11068641 0.19049387
000190 25 bb 75 3e 6f 71 4d 3e db 89 f0 bc 73 2f 45 bd
       0.23997171 0.20062803 -0.02936261 -0.048140954
0001a0 9a 10 d6 3c 0d 65 ee bd 80 01 03 be 04 4c 6a 3d
       0.026130963 -0.11640368 -0.12793541 0.0572014
0001b0 1c 52 8c 3e f7 a2 06 3f 0e b2 82 3e 3c d4 c8 3d
       0.27406394 0.52592415 0.2552647 0.098061055
0001c0 9d b3 80 be 55 f4 ba 3e 94 91 b5 be ab 3b d7 bd
       -0.25137034 0.36514536 -0.3546263 -0.10509428
0001d0 7e 6c 44 3e 8c 77 c3 bc 1f 6c a1 be 65 a7 94 be
       0.19182011 -0.023860715 -0.31527802 -0.29033962
0001e0 bd 39 65 3d 47 06 49 be 5d 41 6b bc c7 f2 81 3d
       0.055963267 -0.19631301 -0.014358846 0.06345134
0001f0 05 f9 16 3d e5 28 bb be e6 4d e5 bc 53 7c 46 3c
       0.036858577 -0.36554638 -0.027991246 0.012114602
000200 e4 1a 62 3b a2 50 b0 bc b6 d9 ed 3d bd d5 c0 bd
       0.0034500891 -0.021522824 0.11613791 -0.09415767
000210 7b 6c 55 bc a7 bf 90 bd 4d 19 72 3d bc 7c 17 3e
       -0.013026352 -0.07067805 0.05910616 0.14793676
000220 1a d7 ee 3d b0 4d 9b be 15 27 27 3e 5f 66 32 3e
       0.11662121 -0.30332708 0.16323502 0.17421864
000230 4a 3e bb be 34 89 d9 3d 55 20 cc be 25 ef 9d 3e
       -0.3657096 0.106218725 -0.39868417 0.30846515
000240 48 6a 45 be 92 9c ff be 21 bd 8c be d6 99 cb be
       -0.19278824 -0.4992414 -0.27488044 -0.39765805
000250 4f b5 4c bd 98 03 3e bf 7b f7 6a 3d eb 71 20 3d
       -0.049977597 -0.74224234 0.057364922 0.03917114
000260 fd f3 0a bd 37 b0 42 bd c1 ee b3 3d b7 f5 98 3b
       -0.03392409 -0.047531333 0.08785773 0.0046679634
000270 56 33 45 be b7 67 ca bd c1 b6 cb be a1 06 3c be
       -0.19257864 -0.09883063 -0.39787868 -0.18361904
000280 7d e5 52 be 58 5d ce 3e ae 11 7c 3e c4 7e a4 3e
       -0.20595355 0.4030559 0.2461612 0.32127964
000290 ab 87 93 3e eb 97 cf 3e 0b 74 04 be 0d 10 2b 3f
       0.28814444 0.40545592 -0.12934892 0.66821367
0002a0 4a 40 4c 3e be fb 3b bd 12 49 89 be a1 3d 17 bd
       0.199464 -0.045894377 -0.2681356 -0.03692401
0002b0 1b 22 e6 3c ea 1b 68 3d c5 4e b6 bb 30 8e 76 bc
       0.028092435 0.056667246 -0.0055635893 -0.015048549
0002c0 80 5f 51 3c dc 2b 4f 3d d5 c0 59 bd cb 02 ab bc
       0.012779117 0.050578937 -0.053162415 -0.020875355
0002d0 fa e6 61 3e 21 57 ca 3c c8 f7 97 be e9 35 44 3d
       0.22060767 0.02469975 -0.2968123 0.047902975
0002e0 7b d1 2d 3e 9e c0 a3 3e 62 c9 ef 3c c8 31 6a 3e
       0.16974442 0.31982893 0.029270831 0.22870553
0002f0 cb 0a 90 3e e5 c2 4e 3e e4 12 08 be e0 d9 6e 3d
       0.28133234 0.20191534 -0.13288456 0.05831325
000300 46 88 4b be a6 cb 76 bd 18 6a 66 be 84 14 50 3e
       -0.19876203 -0.060252808 -0.22501409 0.20320326
000310 2a fc 95 3d ed 81 27 be 99 7a c1 3d 73 07 19 3e
       0.07323487 -0.16358157 0.09447212 0.14944248
000320 41 38 05 3f 02 e7 4b bd 4f 15 f8 bc 75 b6 13 be
       0.5203896 -0.049780853 -0.030283598 -0.1442507
000330 16 52 a1 be 50 9b b5 3e 60 3d 9d bc 0d 1b 36 be
       -0.3150794 0.35470057 -0.019194305 -0.17783757
000340 f3 e8 f2 be 75 87 f3 be 57 64 10 3e a2 71 69 3d
       -0.4744335 -0.47564283 0.14100777 0.056993134
000350 be 4f 49 be 00 51 79 be 54 d8 21 bd 8c 20 71 3d
       -0.19659325 -0.24347305 -0.039512947 0.05886893
000360 8e 71 d0 bb ad fc 7c 3c 8e 3a 7f bc ac 0c 39 3d
       -0.006361193 0.015441102 -0.015577925 0.0451781
000370 67 18 f1 bd 4c 4a d1 3c 96 95 c1 3c 06 d1 a7 3d
       -0.117722325 0.025548123 0.023630898 0.08194165
000380 c8 07 38 bd bd 7e a6 bd d2 5a a3 bd 68 e4 78 3e
       -0.044929296 -0.08129642 -0.07976307 0.2430588
000390 a3 2d ba 3c 93 fc 00 be b3 20 70 bd 5e 4a 5e 3e
       0.02272684 -0.1259635 -0.058624934 0.21708056
0003a0 31 5a 0f be 66 58 d9 3e c0 3a 1e bd 8f ce e5 3e
       -0.13999249 0.42450255 -0.038630247 0.44884154
0003b0 af 9e 9a 3e aa 49 d0 3c c0 89 01 3c de 3d c5 be
       0.3019919 0.02542575 0.007906377 -0.38523763
0003c0 59 e4 06 3d 59 29 91 3e 7d 4b 27 bf 9f d3 4e 3d
       0.032932613 0.28351858 -0.6534956 0.050494786
0003d0 7a 9e b6 3d 25 b1 e8 3d 4e 8f 42 be 68 d5 a4 3e
       0.08916946 0.11361913 -0.18999979 0.32194066
0003e0 ca 69 e2 be b2 a0 49 be 68 1e 03 be 35 bf e8 be
       -0.44221336 -0.19690207 -0.12804568 -0.4545838
0003f0 a7 ff 9d 3e a3 44 89 bb b4 ba ec 3d 95 6b e0 3c
       0.3085911 -0.0041890903 0.11559048 0.02739505

a1.bias f4 [16]
000000 a2 f6 10 3d 9c d2 f3 bd 9d d1 ab bd a9 e0 30 be
       0.035391457 -0.11905405 -0.0838959 -0.17273201
000010 c3 d0 2b 3e 0f e3 0d be d0 eb e2 3c 1d d6 00 be
       0.16778855 -0.13856147 0.027700335 -0.12581678
000020 e6 ea 2f be 0d ac bc 3d a1 25 82 bd bc 1e dc 3d
       -0.1717945 0.092125036 -0.063548334 0.107480496
000030 d5 86 e5 bd 55 6d c6 bd 2e a9 9e 3e 28 ac 81 3e
       -0.11207358 -0.09688822 0.3098845 0.25326657

a2.weight f4 [16, 16, 3, 3]
000000 bc 58 34 bd c0 b2 94 be c6 11 fe bd af 65 e5 3e
       -0.044029936 -0.29042625 -0.12405734 0.4480414
000010 f2 d7 8b 3e e7 a2 00 be a2 b7 60 3d c3 da eb bd
       0.2731319 -0.12562142 0.054862626 -0.11516335
000020 32 25 18 3e bc ff 57 3d 5a c1 2a 3e 93 c9 8f bc
       0.14857939 0.05273412 0.1667532 -0.017552173
000030 43 68 37 be 21 98 52 3e ce 9b 95 be 26 56 41 bd
       -0.17910866 0.20565845 -0.29220432 -0.0472013
000040 4d 13 20 3e 36 b1 c9 bd 45 66 d8 bd 9e 8a 90 be
       0.15632363 -0.098482534 -0.10566381 -0.28230757
000050 2e be d6 be a4 e1 e7 be 47 8d c3 bd dc e0 3d bc
       -0.4194197 -0.45289338 -0.09548431 -0.011589255
000060 95 23 28 be d3 3b f0 be 64 b2 ac 3d f7 47 59 bf
       -0.16419823 -0.46920642 0.08432463 -0.84875435
000070 88 f4 a3 3e f5 f4 cf be 6a 03 36 3f b6 57 8e be
       0.320225 -0.40616575 0.7109896 -0.27801293
000080 34 21 7e 3e 34 7e b9 3d 22 be b5 3d 22 c3 9b 3d
       0.24817353 0.090572745 0.088741556 0.07605578
000090 f9 19 73 3c 10 af ec be fe c5 b0 bd a0 32 80 3d
       0.014837735 -0.46227312 -0.08631514 0.06259656
0000a0 d4 8c 1c bd 93 9e 2e be 62 ee 14 bf 74 58 59 be
       -0.03822024 -0.17052679 -0.58176243 -0.21225148
0000b0 c8 91 6f be 8b e3 e9 3d ea 08 8c be 66 49 3b be
       -0.23395455 0.114203535 -0.2735055 -0.18289718
0000c0 76 b8 8e 3e 05 21 76 3d 86 ef 43 3e 2a 92 de be
       0.27875108 0.060090084 0.1913434 -0.4347089
0000d0 0c 44 30 3e a2 61 37 3e 71 45 86 be 4f 34 4e 3d
       0.17213458 0.17908338 -0.26224855 0.050342854
0000e0 d8 d0 03 bd 9f ba d8 3e d7 ed c2 3e 43 41 fb 3c
       -0.03218159 0.4232988 0.38072082 0.030670768
0000f0 fa 0a bd 3d f1 69 88 bc 05 3c c6 bc cc 23 cb 3e
       0.09230609 -0.01665208 -0.024198541 0.39675748
000100 27 f6 87 be 4f f9 b1 bd 9c e6 d6 be f4 27 fb bc
       -0.26554987 -0.0869013 -0.41972816 -0.0306587
000110 8c d4 32 be 2d ad 1b be 34 19 c8 bd fe 52 94 3e
       -0.17463893 -0.1520278 -0.09770432 0.28969568
000120 67 ae 7a 3e fa 82 41 3e eb 20 1e 3d 85 1b 1c bd
       0.24480592 0.1889762 0.03860561 -0.038112182
000130 82 57 99 bc ec 3c 94 3e f1 c5 78 be 2d 8e 01 3f
       -0.018718485 0.2895273 -0.24294259 0.5060757
000140 ad 6d 1b 3e 9e 9a 6a 3d bc 00 83 3e 05 ea 97 bd
       0.15178557 0.05727636 0.25586498 -0.074176826
000150 8d 67 82 be d9 30 7f 3e 23 0a 10 3f c9 30 4b 3e
       -0.25469628 0.24920978 0.5626547 0.19842829
000160 46 aa 98 3d 56 89 56 3e e5 7b 37 be ce ff 9f bd
       0.07454352 0.20950827 -0.17918356 -0.07812463
000170 2c 98 2c be 2b 3e ba 3d 70 b0 81 3e dd cd df be
       -0.16854924 0.09093889 0.25329924 -0.4371175
000180 19 f5 c3 3d d2 f7 03 3d ab 85 61 3e 62 c6 de be
       0.09568233 0.03221876 0.22023647 -0.4351073
000190 85 39 83 bd 8f 98 4b bc 30 e8 50 be 15 b3 46 be
       -0.06407455 -0.0124265095 -0.20401073 -0.19404252
0001a0 2b 98 88 3c 8c 62 28 3f 3c d6 17 3d 1f 48 5f be
       0.016674122 0.6577537 0.037069544 -0.21804856
0001b0 8a fd 4c 3c 0f e3 2a be 7e 35 b7 3c 52 90 08 bc
       0.01251162 -0.16688178 0.022364374 -0.00833519
0001c0 8e e0 1f 3f 9f 80 c3 be dd bf 1e 3f 71 ab 92 3e
       0.6245202 -0.38184068 0.6201151 0.28646424
0001d0 f8 86 85 be 83 94 92 3e ed dc db be 46 d7 00 bf
       -0.26079535 0.2862893 -0.4294199 -0.5032848
0001e0 3f 10 f5 3c 02 44 02 3f 6a 52 1e 3e 8e 5a 85 3e
       0.029914973 0.5088502 0.15461126 0.2604565
0001f0 77 9e 7a be 9e 6f 69 3d 93 70 e3 bd 43 b4 41 bf
       -0.24474512 0.056991212 -0.11105456 -0.7566568
000200 10 33 ca bd f7 08 80 bd 93 66 f2 bc fe 4e a4 be
       -0.09873021 -0.0625171 -0.029589927 -0.32091516
000210 6c 0f 8b bd b2 c1 7a be 80 18 2a 3e 9c 06 e8 be
       -0.06790051 -0.24487951 0.16610909 -0.45317543
000220 a0 d7 6d 3b b2 38 4c be 79 b9 eb bd 31 98 73 be
       0.0036291853 -0.19943503 -0.115099855 -0.23788525
000230 5e 36 27 3f 3d 99 96 be 2e 84 6d 3c 4f 0f cd bb
       0.6531733 -0.29413787 0.014496846 -0.0062579284
000240 e2 ea 84 bd a1 6a ad bc 48 b7 47 bd e6 99 45 be
       -0.06490113 -0.021169009 -0.048758775 -0.19296989
000250 96 07 81 be bd 35 63 be 0c bd 25 be 2f 00 1c be
       -0.252011 -0.22188468 -0.16185397 -0.15234445
000260 66 6d 1e be 21 59 fa bd 9f 46 ef bd b3 b7 6f 3e
       -0.1547142 -0.12224031 -0.11683392 0.2340992
000270 a7 f1 fc bd 6d a4 1e be 99 49 f1 3b 4c 9e f3 3d
       -0.12350779 -0.15492411 0.00736351 0.11895427
000280 7a 1e 94 3d 0e b7 e1 3d ba a1 0d 3e 51 f9 92 bc
       0.072323754 0.11021243 0.13831225 -0.017941149
000290 51 c5 63 3e eb a8 e9 bc e6 50 59 3e 16 ac 59 3e
       0.22243239 -0.02852293 0.21222267 0.21257052
0002a0 8f b4 2a 3d c4 22 96 3d fb a1 9d 3d 66 09 6b be
       0.0416761 0.0733085 0.07696911 -0.22952804
0002b0 4b 77 51 3e 8e 5a b8 3e cb 38 d6 3c 72 46 69 3c
       0.20455663 0.36006588 0.026150128 0.014237987
0002c0 65 1b 00 be 04 93 df 3d f7 55 4e be 99 cd af 3e
       -0.1251045 0.10916713 -0.2014998 0.34336546
0002d0 ec b2 b8 3e e8 f1 6d be fe da 53 3e 72 c7 1c 3e
       0.36074007 -0.23236811 0.20689008 0.15310457
0002e0 58 6a 1c 3e 2b 3c a8 bd fc fc 54 3e 91 47 01 be
       0.15274942 -0.08214601 0.20799631 -0.12624957
0002f0 1a 96 53 bd 2d 28 23 be e1 6c 1e 3e b0 de 79 3e
       -0.05165682 -0.15933295 0.15471222 0.24401355
000300 1b 1f 64 3d 38 be 02 bc 4a 92 b0 bd e7 57 d9 3d
       0.055693727 -0.007979922 -0.086216524 0.10612469
000310 10 7e e4 3d d6 2e 27 be 9e 5b 7b bd 21 f1 cd bd
       0.11156857 -0.1632646 -0.06136667 -0.10055757
000320 3c 11 f5 bd 0a 49 dc bd 6a a2 b8 b9 52 42 0d bb
       -0.11966178 -0.107561186 -0.00035216223 -0.0021554423
000330 c7 52 26 be 66 78 51 be 82 c6 ab bc 27 54 f9 3d
       -0.16242515 -0.20456085 -0.02096868 0.12174254
000340 7a 63 85 3e 65 2a b3 3d c2 ad 64 be a4 ec 19 3e
       0.26052457 0.087483205 -0.22331908 0.15031677
000350 b7 52 60 bb 9f 6d 14 3e 09 ca 86 bd 23 14 f5 3e
       -0.003422899 0.14494942 -0.06581504 0.47866926
000360 bf 5c 06 be 47 11 07 be ef 42 c3 3d 22 c2 dd be
       -0.13121317 -0.13190185 0.09534251 -0.43312174
000370 09 92 0c 3e 7e a9 dd bd d0 6e 89 be d0 c1 bf 3e
       0.13727583 -0.10823344 -0.26842356 0.37452555
000380 3a f3 91 bd 97 44 97 bd 5a 42 a0 bd ce 8e e5 3d
       -0.0712647 -0.07386129 -0.078251556 0.112088785
000390 81 4a de 3d 84 9b ae 3d 0f b8 c6 3d b8 27 8e bb
       0.10854054 0.08525756 0.09703075 -0.004338231
0003a0 bd 8b 02 be bb 52 37 be 61 19 46 3e 44 e3 29 3e
       -0.12748618 -0.17902653 0.19345619 0.16590601
0003b0 ee 6b d3 bd b4 e9 83 3d 37 51 76 be 83 77 85 3e
       -0.1032332 0.0644106 -0.24054419 0.26067743
0003c0 50 3f 78 bd 49 a0 75 3e 48 12 8d be 21 e4 39 3d
       -0.060607255 0.23986925 -0.2755301 0.045383576
0003d0 fb 1a f2 3e 83 0b e3 3d a6 e3 85 bb 96 41 e1 3d
       0.4728621 0.1108618 -0.0040859757 0.10998838
0003e0 2d 9a ae 3e 13 f9 82 be 8d 45 83 be 50 b1 70 be
       0.34102002 -0.25580654 -0.25639 -0.2350514
0003f0 de d7 ec bd 91 c3 cb 3e 62 0b 89 bc a6 11 18 be
       -0.11564611 0.39797643 -0.01672906 -0.14850482

a2.bias f4 [16]
000000 a4 90 00 be 4b 08 92 be 90 e6 0a be 96 b9 c2 bc
       -0.12555176 -0.28521952 -0.13564515 -0.023770135
000010 d4 87 c3 3c e6 1b 52 be 42 5c aa bb 4a 5a d6 bc
       0.023868479 -0.20518455 -0.0051989863 -0.0261661
000020 2a 85 2a 3e ac 06 3b be db 99 89 be e8 dd 92 bd
       0.1665236 -0.18264264 -0.26875195 -0.071712315
000030 3f a1 83 be e2 1e 63 3d ba 26 4e 3e 16 58 29 3e
       -0.25708959 0.055449374 0.2013196 0.16537508

a3.weight f4 [32, 16, 3, 3]
000000 d1 f3 48 be 71 6a ce 3e ca 07 24 bf 23 2d 02 be
       -0.19624259 0.40315583 -0.64074385 -0.12712531
000010 94 eb 11 be 98 d0 c6 bd 5a 8f 38 bf 1a 8d b1 bd
       -0.14250022 -0.09707755 -0.7209374 -0.08669491
000020 0c 69 3a 3e 8e 4e 3b bd 1e 8e af bd e4 d6 65 be
       0.18204135 -0.045729212 -0.085720286 -0.22445256
000030 5e 1d 35 bc 0e 26 70 3e 68 dc 53 3e 42 bd d3 be
       -0.011054365 0.23452017 0.20689547 -0.4135533
000040 9c f4 88 be dc e7 04 bf 6d ec 48 3e 01 06 d5 bc
       -0.26749122 -0.5191629 0.1962144 -0.02600384
000050 92 9e 47 3e 2e 5a 70 3d da a7 81 3e f7 c6 30 be
       0.19494084 0.058679752 0.25323373 -0.17263399
000060 f0 cc c1 bd 47 a4 08 3e e4 17 c5 bd 40 59 e4 be
       -0.09462917 0.13343917 -0.096236974 -0.44599342
000070 85 49 59 3e 80 71 70 3e 10 e8 a1 3d e0 81 ed bd
       0.21219452 0.23480797 0.079055905 -0.11597037
000080 88 58 35 3e 01 8b 06 be 58 04 1f be 80 8c 23 3d
       0.17709553 -0.13138963 -0.15529001 0.039928913
000090 7a 38 1b 3e 70 4c a3 3d e1 16 90 be 2e ae c5 bd
       0.15158263 0.07973564 -0.28142455 -0.09652363
0000a0 97 f6 e5 3e 3c 3a fc bd d7 3e 3e 3e 5e 06 cb 3d
       0.44914696 -0.12315795 0.18578659 0.09913324
0000b0 48 d5 83 bd f2 a1 43 3e 26 bd 8d bd df 26 aa bd
       -0.064371645 0.19104746 -0.06920843 -0.08308195
0000c0 79 55 a8 3e 1c b7 a2 bd 56 bc cb 3e 41 b4 04 bf
       0.3287771 -0.079450816 0.39792126 -0.51837546
0000d0 85 88 7e be dd c4 52 3e e8 ea 16 bb 8f 17 0f 3d
       -0.24856766 0.2058291 -0.0023028199 0.034934577
0000e0 ce 04 82 be c5 aa 6e 3d 2e cd 00 3e d4 30 21 be
       -0.2539429 0.058268327 0.1257827 -0.15741283
0000f0 96 7f fb 3d d7 36 e0 3e 92 0b 08 3e 17 ce 64 3e
       0.122801945 0.4379184 0.13285664 0.22344242
000100 05 16 b8 3d 61 2f 2c 3e 99 e1 67 3e 29 e3 93 3e
       0.08988575 0.16814949 0.22644652 0.28884247
000110 07 29 9a be d4 1f f2 3e 45 7f 00 be 34 97 8e be
       -0.30109426 0.47289908 -0.1254855 -0.27849734
000120 94 fa f1 3b 4b 30 86 3e fe 62 4f be be 80 1e 3e
       0.0073846076 0.2620872 -0.20252606 0.15478799
000130 06 8e c1 3e 2b bc 8f 3d 89 85 c3 3d 8d c5 ab be
       0.37803668 0.07018312 0.09546954 -0.33549157
000140 93 b2 00 be 76 a6 82 3d ac 1b 62 3e cd ac 10 be
       -0.1256812 0.06379406 0.22080868 -0.14128418
000150 0e bf a0 3e 07 50 30 bd 62 8f 2a bc 3f 38 30 be
       0.31395763 -0.04304507 -0.010410162 -0.17208956
000160 7e 99 74 be eb 2e 1f 3e c2 6b f2 bd 6c f5 ac 3d
       -0.23886678 0.15545242 -0.118369594 0.08445248
000170 ba ed ec bd e3 a1 36 3e 1c 1a c4 be 58 8b 01 3f
       -0.1156878 0.17835192 -0.3830117 0.50603247
000180 fe 75 8c 3d e9 5c 2b be b5 91 8e be 47 2d 8b 3d
       0.06858443 -0.16734661 -0.2784554 0.06795745
000190 25 a3 a5 be 76 e9 01 be f3 e9 80 be e3 f8 c5 3e
       -0.32351032 -0.12686715 -0.2517849 0.38666448
0001a0 a8 ec 88 bd 1a cc 77 be 6b 9d b5 3e ce 64 47 be
       -0.066857636 -0.24198952 0.35471663 -0.19472048
0001b0 e9 2d 4a bd 2a f7 f5 be 31 20 cf be fc 54 98 3e
       -0.04936019 -0.48040134 -0.40454248 0.29752338
0001c0 59 f8 2e bc 3f a0 d0 3e ff ba 34 bf 9f 9d c4 3d
       -0.010679328 0.40747258 -0.70597833 0.09600376
0001d0 b8 9b c1 bc 16 68 20 3f c2 8a a8 bc 87 94 57 3c
       -0.023633823 0.6265882 -0.020573977 0.01315797
0001e0 ea 54 d7 3e 36 d7 a6 3d 95 5f 82 be ca d3 70 3e
       0.42056972 0.08146517 -0.25463548 0.23518291
0001f0 87 df 91 bd 73 d2 b4 3e 92 36 e7 3e 3b 3b 97 be
       -0.071227126 0.3531681 0.4515882 -0.29537377
000200 10 cc f0 be f5 3c 78 3d d8 b0 a9 3e 8f 66 3d be
       -0.47030687 0.06060501 0.33142734 -0.18496154
000210 de fa 0c 3e 38 59 03 be 5b 45 c5 be 43 00 d2 bd
       0.13767573 -0.12827003 -0.38529477 -0.10253956
000220 56 a9 a1 3d 3f 54 1d 3e 2e 61 a4 3c 05 ea d3 3e
       0.078936264 0.15364169 0.02006587 0.4138948
000230 fb 73 5f bf bf e7 3f 3e 58 a7 94 be 64 a9 b9 be
       -0.8728635 0.18740748 -0.29033923 -0.36262047
000240 5f 76 0d 3e 5f 1a 63 bd 0d 3a 10 3f d2 c5 05 3e
       0.13814686 -0.05544507 0.5633858 0.13063744
000250 d7 36 0b 3d f8 66 43 3e 31 a3 2c be f6 5c 65 bc
       0.033987846 0.19082248 -0.16859128 -0.013999214
000260 dc 7a f4 3d 53 58 c2 bd 13 8e c5 bd 81 a8 7d 3e
       0.11937496 -0.09489503 -0.09646239 0.2477131
000270 36 b3 6c be ba 35 52 be a6 39 75 3e c7 9d 97 3e
       -0.23115239 -0.20528308 0.23947772 0.29612562
000280 eb ac 3a 3e e9 e7 5d be 03 95 fb be c7 85 af bc
       0.18230025 -0.21670498 -0.49137124 -0.021426095
000290 96 e3 bb 3c 66 6b 85 3e dc ff af bd 80 d5 b5 be
       0.02293567 0.260585 -0.08593723 -0.3551445
0002a0 46 dc 88 be 22 27 92 3c 19 66 ae be 1e ad 12 be
       -0.26730555 0.017840926 -0.3406227 -0.14323851
0002b0 8a e0 e7 bd 23 90 53 be 31 9f 81 be 76 3a 40 3e
       -0.11322124 -0.20660453 -0.25316766 0.18772301
0002c0 19 32 40 3e 62 56 da 3d 40 21 3b be 54 06 21 3e
       0.1876911 0.106610075 -0.18274403 0.1572507
0002d0 15 ff a2 be ec fe 41 be 09 b1 cc bd 9d 4a 91 be
       -0.31835237 -0.18944901 -0.09994704 -0.28377238
0002e0 de 8d 21 be 04 c0 a8 3e 19 fb a5 bd 96 75 46 be
       -0.15776774 0.32958996 -0.08104534 -0.19380793
0002f0 a3 a8 83 3e 6e 7e d1 3d 52 c0 05 3e e3 1c 21 3e
       0.25714597 0.10229193 0.13061646 0.15733676
000300 a2 04 ce 3d aa d3 b5 bd 70 55 cb 3e 66 48 49 bd
       0.100594774 -0.08878262 0.3971362 -0.04914131
000310 23 2c 98 bd e9 20 27 3e 55 b6 3f be 2d 29 27 be
       -0.074302934 0.16321148 -0.18721898 -0.16324301
000320 32 5f ef 3d bb bd 3e bd 62 ac 8e be 87 74 3a 3e
       0.11688079 -0.04656766 -0.27865893 0.18208514
000330 e4 10 3c 3e d9 c4 84 3e cd 35 a6 3e bb dc f4 bd
       0.18365818 0.25931433 0.32462922 -0.119561635
000340 0e 7c 97 3d b4 f2 21 bf 23 c0 1b 3e f3 7e d8 3e
       0.073967084 -0.6326096 0.15210013 0.42284355
000350 68 f3 a2 bd 8a a9 31 bf 54 96 1c 3e b5 51 d2 3e
       -0.07956582 -0.6939932 0.1529172 0.41077963
000360 90 3a cf 3d c3 84 d1 3e 59 fb 67 be 79 79 b0 be
       0.10118592 0.40921602 -0.22654475 -0.34467676
000370 ae 10 8f bc 7c 04 0b bf 73 fe 06 be ed 5d 5f be
       -0.017464008 -0.5430372 -0.13183002 -0.21813174
000380 8e 40 10 3d f0 55 46 3e d7 7f ee bd e7 31 e0 bd
       0.035217814 0.1936872 -0.11645477 -0.10947018
000390 f4 37 8f 3a 49 e0 80 bd a1 9e a1 be 2e 37 e9 bc
       0.001092671 -0.06292779 -0.31566337 -0.028468695
0003a0 a8 53 92 3e 1e eb a0 3d e3 7e bd 3e 72 66 6d be
       0.2857945 0.07857345 0.3701087 -0.23183611
0003b0 e0 19 a3 3e 1e 04 94 be 39 66 74 be 6c 2b 8f be
       0.3185568 -0.2890939 -0.2386712 -0.27962816
0003c0 40 02 04 be 9a a5 e9 be 0a e9 2a be fc c1 e9 be
       -0.12891483 -0.45634156 -0.1669046 -0.4565581
0003d0 4e 8b 0c bb 06 b4 ef bd 59 33 80 be a8 22 b4 bd
       -0.0021445337 -0.117042586 -0.25039175 -0.08795673
0003e0 52 f5 5f 3e 85 3d 4e bf d0 8d 97 be 67 05 76 3e
       0.21870926 -0.8056262 -0.29600382 0.24025498
0003f0 9b 76 ae 3e e2 20 57 be 94 e3 86 3e b6 da b2 be
       0.34074864 -0.21008638 0.26345503 -0.34932488

a3.bias f4 [32]
000000 f0 46 c5 be 80 11 dc 3d e2 f8 2a 3e 0d da f8 be
       -0.38530684 0.10745525 0.16696504 -0.4860386
000010 a7 ab cd be e0 7d be 3d 68 01 85 3e 9b 56 3f be
       -0.40170023 0.093013525 0.25977635 -0.18685381
000020 f1 8d 0f bf 50 19 a5 be b9 19 89 be 06 42 41 be
       -0.5607596 -0.32245874 -0.26777437 -0.18872842
000030 b9 a9 61 bf 80 0d 48 be 7a 0b 1f be 86 56 25 3f
       -0.881496 -0.195364 -0.15531722 0.6458515
000040 1f 2c cf 3e 2b 47 b1 be da a7 1d be 9d 60 ee be
       0.4046335 -0.3462461 -0.15396062 -0.46558085
000050 2b 2b 83 bd b5 f6 cf be 0f a0 c9 bd ba 01 a5 be
       -0.06404718 -0.4061791 -0.09844982 -0.3222788
000060 33 81 f6 bd ef 8f 97 3e cd f0 e8 3e 07 cd 37 be
       -0.120363615 0.29602 0.45496216 -0.17949305
000070 9f 97 2d 3c a8 ae 4d 3e 67 eb 08 be 3d d2 6e be
       0.010595231 0.20086157 -0.13371049 -0.23322387

b1.weight f4 [32, 32, 3, 3]
000000 72 aa e4 be b2 69 12 3e ae 95 52 bd 8f 31 5c be
       -0.4466129 0.14298132 -0.051412277 -0.2150328
000010 13 e7 c7 bd 16 a7 c2 bd 98 d6 b8 bd 92 15 58 bd
       -0.09760871 -0.09504525 -0.090253055 -0.052754946
000020 53 a8 a3 be f3 98 d1 3b 4e 27 03 bf 05 93 44 3e
       -0.3196436 0.006396407 -0.5123185 0.19196709
000030 cd 03 9d be f0 75 33 bf 92 c2 bd 3d 6e fe 11 3e
       -0.30666962 -0.70101833 0.09265627 0.14257213
000040 a9 dc da be 7f 81 d1 3e 88 8b ee bd ca 14 6d 3e
       -0.42746475 0.4091911 -0.11647707 0.23152462
000050 3d 8c af 3c ba e4 2d 3e 29 6a 9c 3e 65 fa 8f bb
       0.021429176 0.16981784 0.30549744 -0.004393863
000060 c9 d5 8b bd 9e 40 00 3d 89 4e 2a be 4e a6 aa 3e
       -0.06827886 0.031311624 -0.16631521 0.33330005
000070 fd 38 98 3e c4 e7 9d 3e 2a 77 22 3e ba 51 c7 be
       0.2973098 0.30840886 0.1586577 -0.3892954
000080 ec 58 86 3e 87 e9 34 be 5c 68 83 be 36 a2 93 be
       0.26239717 -0.17667209 -0.25665557 -0.28834695
000090 67 a3 9c 3e e6 72 04 bf 74 41 cb bc 9a 1b c8 ba
       0.30593416 -0.5173782 -0.024811484 -0.0015267015
0000a0 6e 87 b5 3d 0f 67 b6 be b7 6c 14 be 80 e9 3a bf
       0.08863722 -0.35625502 -0.14494596 -0.7301254
0000b0 94 94 96 3d ff 9c 19 3f 92 3b 6c bf 36 2c ef bd
       0.07352558 0.6000518 -0.922784 -0.116783544
0000c0 cb 5c 6c 3e 14 03 60 be fb fb a7 3d 27 8f c9 3d
       0.23082273 -0.21876174 0.08202358 0.09841757
0000d0 7c 3c 21 be 97 34 13 bf 07 2b 34 be fa 18 58 be
       -0.15745729 -0.5750212 -0.17594539 -0.21103278
0000e0 47 f6 93 be 04 51 fc 3c 32 96 d5 3d 3c 19 1c be
       -0.28898832 0.03080035 0.10429038 -0.15244001
0000f0 20 cd 6b bd 55 b1 aa bd 2c c4 1b 3e 80 a2 7d bd
       -0.05756867 -0.08334605 0.15211552 -0.06192255
000100 c7 c4 5a 3d 31 b5 27 3d aa 98 2a 3d d7 8c 2b be
       0.053410318 0.040944282 0.041649498 -0.16752945
000110 6f 6b 1a bd 99 2c 26 3c 16 91 6e 3d 88 d8 c7 3c
       -0.037700113 0.010142469 0.058243833 0.024395242
000120 69 1b 43 be 65 25 c2 be 82 fa cf be 7c 3d 01 bf
       -0.19053425 -0.37919155 -0.4062081 -0.5048444
000130 ad 01 a2 3e 99 d3 3f bc 8f 51 de be 8b 47 4f 3e
       0.31641904 -0.011708164 -0.434216 0.20242135
000140 3a f8 a8 3e c4 82 8e 3e 85 e4 21 be d1 51 9c bd
       0.33001882 0.2783414 -0.1580983 -0.07632793
000150 73 aa 80 3e 37 6d c9 3d d4 ed f7 3e 74 d9 52 3f
       0.25130042 0.09835284 0.48423636 0.8236306
000160 7e e4 20 be 95 20 92 bd 3a a5 84 be d5 8c af 3e
       -0.15712163 -0.07135121 -0.25907308 0.34287134
000170 6d 3b 27 be ef 61 6f 3e 61 fe 59 3e 1a d8 82 be
       -0.16331263 0.23377202 0.21288444 -0.25555497
000180 00 2d 61 3e ac 97 34 bd 4d 16 94 3b bf 3b 95 be
       0.21989822 -0.044089958 0.00451926 -0.29147145
000190 58 c6 dc be 87 c3 09 bf a1 6e a8 3e ac c4 52 be
       -0.43120074 -0.53813976 0.32896903 -0.20582837
0001a0 b6 30 d5 be e7 5e 62 3e 41 2e 4e 3e ba c8 39 be
       -0.41638726 0.22106515 0.20134832 -0.18142977
0001b0 29 df 6f be dd 0e d3 be 33 eb 92 be 04 cf 4c be
       -0.23424973 -0.41222277 -0.28695068 -0.20000845
0001c0 64 a1 bc bd b0 0b 74 3e e8 5a 5e be bb 7b d1 be
       -0.0921047 0.23832583 -0.21714365 -0.4091471
0001d0 f3 68 99 bd f7 34 54 3d 12 78 d5 3d 85 ec 5d 3e
       -0.074907206 0.051808324 0.10423292 0.21672256
0001e0 e3 b5 de 3d 8e c1 2c bd ee a0 ff bd 96 f9 3f bc
       0.10874536 -0.042176776 -0.12481867 -0.011717221
0001f0 5a 74 84 be da 3b 92 3d ee 12 c1 3c 3b 91 86 3e
       -0.2587002 0.07140322 0.023568597 0.26282677
000200 1a 4c 85 3d ab a6 ae 3c 6f 20 e4 be 95 a1 5d bd
       0.06508656 0.021319708 -0.44555995 -0.054109175
000210 24 53 3e bd f8 7b 47 be 83 73 c1 bd b2 dd 07 3e
       -0.046466008 -0.19480884 -0.0944586 0.13268164
000220 78 21 b8 3d 46 66 3b bd 7e ea 88 be d2 6b 71 3d
       0.08990759 -0.045751832 -0.26741403 0.058940716
000230 2c 3f a4 3b 40 a7 bb 3b 4e e1 e9 be f0 5f 1d 3c
       0.0050124135 0.005726725 -0.45679706 0.009605393
000240 76 40 7a be af 38 12 3c 66 d7 a9 3d 30 d3 80 3e
       -0.24438652 0.008924647 0.08293037 0.25161123
000250 1e bb d2 3e 2e 4e 44 3e e2 d1 c5 bb 0f 83 ad bc
       0.41158384 0.19170448 -0.006036983 -0.021180658
000260 c6 50 85 3e 50 55 02 3e 03 0e 74 3e 0f e3 01 bf
       0.26038188 0.12727857 0.2383347 -0.5073709
000270 77 8f ab bc 5f d2 9c bd 00 39 1a bf bf fb 52 3c
       -0.020942433 -0.076573126 -0.60243225 0.012877404
000280 73 24 89 3e b2 a6 55 be e4 7c c7 3e ed 6b a3 bd
       0.2678562 -0.2086437 0.3896247 -0.079795696
000290 27 26 da bd 7b 60 14 3e 28 fe 1c bf ae 29 7e be
       -0.10651808 0.1448993 -0.6132531 -0.24820587
0002a0 74 06 97 bd ab 6c 41 be c6 6b 10 be f1 41 79 be
       -0.07374278 -0.1888911 -0.14103612 -0.24341561
0002b0 cc 28 e5 3e fa 31 ba be ce 99 56 3e 19 c4 a5 3e
       0.44757688 -0.36366254 0.2095711 0.32376173
0002c0 dc 5b 39 be 9f 77 a5 bd d7 eb 9b 3e e2 1e 8f be
       -0.18101448 -0.080794565 0.3045337 -0.2795325
0002d0 92 c0 1c bd 43 37 5b be 03 78 83 3d 06 2d d8 3c
       -0.038269587 -0.214078 0.06419375 0.026388656
0002e0 60 79 e0 bd 95 c3 66 bd bb 97 27 3e 36 89 f3 3d
       -0.109606504 -0.056338865 0.16366474 0.11891405
0002f0 05 91 72 3e 17 17 e7 3d 58 80 97 be 90 c5 a5 be
       0.23688133 0.11283701 -0.29590106 -0.3237729
000300 07 51 2a 3e ef 12 37 3e d1 6f 6b 3e 08 7c ab bd
       0.16632472 0.17878316 0.22991873 -0.083732665
000310 05 d9 3e be 7a dc 87 be 35 64 28 be d0 cf 4e 3d
       -0.18637474 -0.26535398 -0.16444476 0.050491154
000320 73 8b b6 3d 0b 6a 38 be e0 14 3b 3e f2 2a 9c 3d
       0.089133166 -0.18009202 0.18269682 0.07625379
000330 a1 29 99 3e 02 28 d8 be 75 cb 16 be 97 a2 83 be
       0.29914573 -0.42218024 -0.1472605 -0.25709984
000340 b1 57 49 3e d3 c2 8c be 90 3f b4 be c1 2e 5a bd
       0.19662358 -0.2749239 -0.35204744 -0.053267244
000350 8a 12 19 be aa ca 2c be bb 05 d8 3e 94 d9 2f 3e
       -0.14948478 -0.16874185 0.42191872 0.17172843
000360 99 52 b5 3e 3f 4f ca be f9 d5 c5 be ce 87 f0 be
       0.3541458 -0.39513585 -0.3863981 -0.4697861
000370 c0 ca 0b bd 08 14 20 3e 0f 29 8c bc 5a 84 6d 3e
       -0.034128904 0.15632641 -0.017109422 0.2319502
000380 26 7d dd 3d d1 4b 91 3e fa 2c a5 3d 48 b1 0b bf
       0.10814886 0.28378156 0.08065219 -0.54567385
000390 06 a3 27 bc 4e d5 ce bd b5 95 ae 3e 7d ff 0a be
       -0.010231739 -0.100992784 0.34098592 -0.13574024
0003a0 1a 39 ef 3e 9b 9a c4 3d 79 9e 0f 3f a1 6d 59 3c
       0.46723253 0.09599801 0.56101185 0.0132707665
0003b0 16 6f 89 be 87 89 e7 3d 27 46 11 bd 2e 93 95 bc
       -0.26842564 0.11305528 -0.035467293 -0.018258657
0003c0 a8 00 a5 bb 85 8a b0 3e 3f 0a e8 be f6 bf 89 3e
       -0.0050354786 0.34480682 -0.45320317 0.26904267
0003d0 b0 2f 8d bd f7 19 14 be db ec 60 bf 75 0b d9 be
       -0.06893861 -0.1446303 -0.8786141 -0.42391554
0003e0 36 cc 7c bd 5c 7e 1c bd 9b ed 98 3e 91 be 67 3d
       -0.06171819 -0.038206443 0.2986878 0.056578223
0003f0 53 43 e0 3e a8 cf 1b be d8 ed 20 bf b5 ca cb 3c
       0.43801364 -0.15215933 -0.6286292 0.024876932

b1.bias f4 [32]
000000 60 bb 1a bd 6a 83 93 be 90 5c 34 bf c7 58 a6 be
       -0.03777635 -0.28811198 -0.7045374 -0.32489607
000010 78 db 63 3f 68 cf 68 be e2 13 88 be 68 ca 3d bc
       0.8900676 -0.22735369 -0.2657767 -0.011583902
000020 95 f7 80 be ad 93 3f bf aa 7e 0f bf 3a 04 91 3e
       -0.2518889 -0.7483471 -0.5605265 0.28323537
000030 2b 84 08 bf c3 b2 f4 be f5 63 35 3e 31 f0 a6 be
       -0.5332667 -0.47792634 0.17713912 -0.32605127
000040 bb 81 8e be a6 9b 76 bf 8e 93 4b be 71 4f e7 3e
       -0.27833351 -0.9633125 -0.19880506 0.45177796
000050 b7 af 66 be ab e8 e1 be a9 66 5b 3f 4c 88 3a bf
       -0.22527967 -0.44122824 0.8570352 -0.7286422
000060 77 c5 8d bd b0 d6 83 be d1 45 f4 bd a1 fa 93 bf
       -0.06922429 -0.2574973 -0.11927379 -1.1560861
000070 2c 82 a1 bd 33 96 62 bd a8 bb 3d 3e 8e de 17 be
       -0.078861564 -0.055319022 0.18528616 -0.14830992

b2.weight f4 [32, 32, 3, 3]
000000 6b 06 8c 3e f6 8f dd 3d e3 1f 89 3c 81 c8 31 3e
       0.27348647 0.10818474 0.016738838 0.17361642
000010 e6 cd 80 be d2 74 e4 3e b8 d1 83 be 13 df ee bd
       -0.25157088 0.44620377 -0.2574594 -0.11663642
000020 5b 95 69 3e 9b 29 b3 3e 16 a0 e0 bd 8e 92 4a bd
       0.22810881 0.3499268 -0.10968034 -0.04945617
000030 c4 d1 1b be f2 43 6b be 74 75 4f be f1 3f 57 3e
       -0.15216738 -0.22975138 -0.20259649 0.21020485
000040 fc 3a 28 3e 17 74 f4 be f0 04 41 be aa ab 38 3e
       0.16428751 -0.4774482 -0.1884954 0.18034235
000050 7a 39 1a bf 91 b1 b5 3d d8 d5 8f be 6f 8c de 3d
       -0.6024395 0.08871759 -0.28092837 0.10866629
000060 5d d0 87 be 68 56 48 be c4 0e 2d be f4 4a f8 3e
       -0.26526156 -0.19564211 -0.16900164 0.48494685
000070 3f b7 94 bd 17 13 0d 3e f3 63 2c 3f 4e 17 c1 bd
       -0.07261514 0.13776813 0.6734001 -0.09428273
000080 84 a4 93 be dd de a8 bd ae dc fa be dc 02 1e be
       -0.28836453 -0.08245633 -0.4899649 -0.15430778
000090 2c 55 4d be 90 3f e9 3d 43 a5 df be 0f a4 98 bb
       -0.20052022 0.11389077 -0.43680772 -0.004658229
0000a0 90 6d 91 3e 78 4e ae be e7 ed 16 bf 7c e9 5e 3e
       0.28403902 -0.34044242 -0.5895676 0.21768755
0000b0 55 77 9b 3e 65 8e 44 3f 1e 96 ea be 7d 75 33 be
       0.3036448 0.76779777 -0.45817655 -0.17525287
0000c0 5b 98 05 be 13 9e 2b b9 68 59 fc be 41 ba cf 3b
       -0.130464 -0.00016366718 -0.49286962 0.006339342
0000d0 af 17 f5 3e f7 a6 73 3f a9 77 a9 3d 2e 1a bd be
       0.47869632 0.95176643 0.082747765 -0.36934036
0000e0 28 61 2e 3e 33 04 91 be b9 14 07 be 3e 58 14 be
       0.1702925 -0.28323516 -0.13191499 -0.14486787
0000f0 fb 8e 61 3e 03 a4 16 3e 24 45 a5 be f2 04 9f 3e
       0.22027199 0.14711003 -0.32279313 0.3105846
000100 ad a3 46 be d6 0d 49 be 9b b7 c6 bd 55 14 80 3d
       -0.19398375 -0.19634184 -0.09702989 0.06253878
000110 06 be 96 3d 6c 24 9b bd a8 54 5b 3e 32 b0 3f be
       0.07360463 -0.07575306 0.21419013 -0.18719557
000120 a2 42 27 bc ee 1a a7 be b6 d2 7c 3e 78 da 6f 3d
       -0.010208758 -0.32637733 0.24689755 0.058557957
000130 42 51 77 3c ac 8d 1f be 40 ea 14 be 03 58 f0 3d
       0.015095057 -0.15581387 -0.14542484 0.11735537
000140 98 04 a5 be c4 6e d2 be 73 e5 f8 be df d9 90 be
       -0.32230067 -0.41100132 -0.48612556 -0.28291222
000150 1e b7 75 3e 93 34 1b be 4a 4a d2 3e 81 5e 05 3f
       0.23995635 -0.15156774 0.41072303 0.52097327
000160 63 c6 3a 3d 2e 5e 04 3d 00 49 ac bc 08 f9 1f be
       0.045599353 0.03231638 -0.021030903 -0.15622342
000170 0b b5 56 be a3 2d 70 be ec d1 97 be 78 16 4a be
       -0.209675 -0.23454909 -0.29652345 -0.19735134
000180 b4 26 ff 3e 0d d1 b7 3e 7e 82 59 be a9 58 1a 3e
       0.49834216 0.3590168 -0.21241185 0.15072884
000190 46 27 0d be 1a e3 5b 3e f4 2e 72 be 93 08 0f 3e
       -0.13784513 0.21473351 -0.23650724 0.13968115
0001a0 d8 af 88 be 2d 33 e1 be 69 47 0a 3e 1b 0d 1d be
       -0.26696658 -0.43984357 0.13503803 -0.1533703
0001b0 af d4 a6 be 7b 48 8e be 6a 59 bc 3d aa 4f 16 3e
       -0.3258414 -0.27789673 0.09196742 0.14678827
0001c0 76 bf ba bd ce 65 1f be 28 ff cf be be 90 17 3e
       -0.091185495 -0.15566179 -0.40624356 0.14801309
0001d0 9f aa fc 3d 0f 5f ed be c4 b3 07 bd 56 39 2a bf
       0.12337231 -0.46361586 -0.033130422 -0.6649374
0001e0 b9 36 20 3d ed db 99 be f9 6c 37 3e 89 e9 16 be
       0.039114688 -0.30050603 0.17912664 -0.14737524
0001f0 74 43 b0 bd 6e f2 b4 be 8b 2b ab 3e f1 70 97 bd
       -0.08606616 -0.3534121 0.33431658 -0.07394589
000200 1f 91 57 be f2 bf 55 3d f5 11 0b bf a8 be 69 ba
       -0.21051453 0.052185006 -0.54324275 -0.00089166546
000210 36 d1 52 be 87 a5 95 3e e9 5f 23 3e 7b bc 09 be
       -0.2058762 0.2922785 0.15954556 -0.13450806
000220 45 30 89 bd 82 67 ea bd 6d 74 9b 3e ef 32 1e bf
       -0.0669866 -0.11445524 0.30362263 -0.6179647
000230 e6 c4 05 3e 9a 60 00 3e c6 f9 7d 3e 64 85 f2 3d
       0.13063392 0.1253685 0.24802312 0.118418485
000240 f7 8b cd 3e 57 1b c8 bd 1b 18 d5 bd 62 dd 2b 3c
       0.40145847 -0.0977084 -0.104049884 0.0104897935
000250 75 29 01 be 37 c3 0b 3e 1f c7 97 3d 51 2d c5 3e
       -0.12613471 0.13648687 0.07411026 0.38511136
000260 cf 9a 46 be 03 e9 55 bd b9 12 9c bd cd 5b 69 3e
       -0.19394992 -0.05222417 -0.076207586 0.22788925
000270 3b 22 bc 3d ea 6f 8b 3d 16 cc 49 3e 05 1a 6b be
       0.091862164 0.06808455 0.19706759 -0.22959144
000280 cd 75 16 3e 75 66 66 be e5 e9 22 bc e0 12 f1 3d
       0.14693375 -0.22500022 -0.00994346 0.11771178
000290 f0 4f c9 bc 49 45 2e be 88 20 d8 bd 39 91 cd be
       -0.02457425 -0.17018618 -0.1055308 -0.4014986
0002a0 42 f0 8b be 94 df 14 be a0 04 85 3c a7 aa bc 3e
       -0.2733174 -0.14538413 0.016237557 0.36848947
0002b0 c1 51 3e 3c 65 d6 a4 bd 24 0f 77 3d bc 0f 8f 3e
       0.011616171 -0.08048705 0.060317174 0.27941692
0002c0 82 7b 29 3e 96 b4 bd bd d9 04 a9 3d d2 b8 86 bd
       0.1655102 -0.0926296 0.08252878 -0.065782204
0002d0 79 c8 18 3d 64 f4 85 be 53 63 f3 3b 94 1a 92 3e
       0.03730056 -0.26163018 0.007427612 0.28535903
0002e0 99 e2 0d be 39 51 32 bc 18 ff cf be 29 6b a2 bd
       -0.13855971 -0.010883623 -0.4062431 -0.079305954
0002f0 f8 dc db be 01 eb 75 be 2c b6 82 be 97 ed b6 3d
       -0.42942023 -0.24015428 -0.2552961 0.089320354
000300 0e 23 42 3e 45 97 7f 3e 8d 14 d9 3e a5 de 82 be
       0.18958685 0.24960048 0.42398492 -0.2556049
000310 b3 79 b5 be 15 0e a2 3d 79 67 c6 3e 3b 86 ce be
       -0.35444412 0.07912842 0.38750818 -0.40336785
000320 63 a1 2f 3e 51 11 db 3d 4b 2c 83 bc e7 d6 87 3e
       0.17151408 0.10696662 -0.016012331 0.26531145
000330 3b cc 70 bf 94 13 c9 3e 4d a0 1f be 93 42 49 be
       -0.9406163 0.3927275 -0.15588494 -0.19654302
000340 41 4f f3 bd 2e d4 51 be 88 98 b9 bb da f6 0a bf
       -0.11880351 -0.20491096 -0.005663935 -0.54282916
000350 e8 91 4a 3f f9 e5 73 3d 17 1e 15 3e d7 07 83 3e
       0.79128885 0.05954549 0.1456226 0.2559192
000360 70 1d 0e 3d 26 d2 2d be ec eb 25 bd 93 49 35 3e
       0.034696043 -0.16974697 -0.040508196 0.17703848
000370 41 ba 61 be ec e1 07 bd 39 96 db 3e bc 56 77 3e
       -0.22043706 -0.03317444 0.42888048 0.2415418
000380 2c 2c 9f be f5 ff 9d 3c 40 ae 2f be aa 23 92 3e
       -0.31088388 0.019287089 -0.17156315 0.28542835
000390 4c 70 51 3d b7 20 9f 3e 64 c0 ab bd 94 44 5c bd
       0.051132485 0.31079647 -0.08386305 -0.05377634
0003a0 33 ca 7b be 8f 43 20 3e 5e 47 0f 3e 05 ac 44 be
       -0.24588852 0.15650772 0.13992068 -0.19206245
0003b0 4e 40 45 3d c3 e1 eb 3c ba b9 c4 3d cf f8 85 3e
       0.04815703 0.028794175 0.09605737 0.26166388
0003c0 8b 31 e0 be db 8e db be ff ad 20 be e6 ea 06 3e
       -0.43787798 -0.42882428 -0.15691374 0.13175544
0003d0 db 8e 86 be dc 38 ec 3e 6b 95 5f 3e 8b 30 4e be
       -0.26280865 0.4613713 0.21834342 -0.20135705
0003e0 19 60 df be b3 43 5a bd 1b 42 1e bf 42 14 1a 3e
       -0.43628004 -0.05328722 -0.6181962 0.1504679
0003f0 2e c3 4a 3d fa ef 0e 3e 0b 16 9e 3e 86 f3 8b bd
       0.049502544 0.13958731 0.30876192 -0.06833558

b2.bias f4 [32]
000000 76 9c 53 3e 00 6f 8f bf 4d c7 5b bf 39 6b 81 bf
       0.20665154 -1.120575 -0.85850984 -1.0110847
000010 2c 0e 16 be 98 3e 58 bf d7 e8 08 bf d0 06 1a bf
       -0.14653844 -0.8447051 -0.53480285 -0.60166645
000020 86 fb 1f 3f cc 7f 76 3d 7b 3c 87 3d e3 a3 c1 be
       0.6249317 0.06018047 0.066033326 -0.37820348
000030 94 24 f4 be 87 7c 56 bf 9e 59 45 be b0 f1 a1 3e
       -0.47684157 -0.83783764 -0.19272467 0.31629705
000040 2f b5 86 be 41 1d 11 bf 34 08 1b be 0f f6 b4 be
       -0.26310107 -0.5668526 -0.15139848 -0.35343978
000050 86 e4 3a be a2 bc d8 3e ff 56 41 bf de 1a 16 3f
       -0.18251237 0.42331415 -0.7552337 0.58634746
000060 6b 2c 37 bf e4 03 d2 3e 83 29 70 3e 8a 47 49 3e
       -0.7155215 0.41018593 0.23453335 0.19656196
000070 85 b5 84 bf 9a 5f 86 be 38 16 19 3f 80 5f 7c be
       -1.0367895 -0.26244813 0.5979953 -0.24645805

b3.weight f4 [64, 32, 3, 3]
000000 06 a0 c6 be 7f 87 16 3c 4f dd 38 bd 78 59 eb bd
       -0.38793963 0.009187578 -0.04513293 -0.11491674
000010 2e 94 3f 3d c3 c0 34 be c2 af 7c 3d 2e da 07 bf
       0.046772175 -0.17651658 0.061691053 -0.5306729
000020 35 c0 6b bd d0 71 0c 3d d3 81 af be d4 19 a8 3e
       -0.05755635 0.034288228 -0.34278736 0.32832205
000030 6b b4 0e 3d 20 67 4f 3e c3 55 92 be 5a d0 3c be
       0.03484003 0.20254183 -0.28581056 -0.18438855
000040 eb d9 65 be a9 d9 a3 bd 36 15 4c be a2 87 a9 bd
       -0.2244641 -0.080005 -0.19929966 -0.08277823
000050 3b 91 14 bd bf c5 37 3e bb 81 02 bd 23 4c d7 be
       -0.036271315 0.17946528 -0.031862002 -0.42050275
000060 dc 83 ad 3d b9 ab d5 3e 76 61 2e be 16 1b dd bd
       0.08472416 0.41732576 -0.17029366 -0.10796182
000070 bb e6 04 be 95 5f 10 3e ce 02 ea 3d 9c 7d cb 3e
       -0.12978642 0.14098962 0.11426316 0.3974427
000080 4e 57 84 be ba ed 45 3d 68 28 01 be 0f 53 2b 3d
       -0.25847858 0.048322417 -0.1261307 0.041827258
000090 bc ff 86 3e 68 3c 97 3d ff a4 6a 3e cf f8 3c bf
       0.26366985 0.073845685 0.22914504 -0.7381715
0000a0 4e 9a 4e 3d 78 0b 0a 3f d7 8a bb be 6f d4 96 3e
       0.050440125 0.5392375 -0.36629364 0.2945895
0000b0 9e 3d 1c 3e 97 9e 22 be 7e 02 55 3f 6c e6 1b 3e
       0.1525788 -0.1588081 0.8320693 0.15224618
0000c0 49 a8 40 3e 54 a1 89 be fc 60 9d 3e 20 fa 16 bc
       0.18814196 -0.26880896 0.30738056 -0.009214908
0000d0 50 0b 9d bd 1d 8e c5 be 93 ca 5b be 40 a0 45 3d
       -0.07668173 -0.38584986 -0.21463995 0.04824853
0000e0 7f e6 af be 51 99 96 3d 93 27 1c 3d de 3d 51 3e
       -0.34355542 0.073534615 0.03812368 0.20433757
0000f0 c7 d7 6b bd 76 5c 44 be 9e 37 04 be 24 ed 8e be
       -0.05757883 -0.19175896 -0.12911841 -0.279153
000100 cb 44 ad 3b 93 f8 a6 3e 17 f5 45 bd 86 3c db 3d
       0.005287742 0.32611522 -0.04832944 0.10704903
000110 78 90 25 bf 59 cd 7c 3e bd 5e eb 3e 03 a6 3e be
       -0.64673567 0.24687709 0.45970717 -0.18618016
000120 6d 31 29 be 70 14 ce 3d e5 07 c0 bd a8 98 55 bd
       -0.1652276 0.10062492 -0.09376506 -0.052147537
000130 ce 1c f7 3d f8 35 c3 3c f3 a3 f4 bd 3a fc 00 bf
       0.12066041 0.023829445 -0.11945333 -0.5038487
000140 8d e8 ce 3e 65 4e a4 be c4 f2 64 3e 70 5b 17 3e
       0.40411797 -0.3209106 0.22358233 0.14780974
000150 44 ad 1d 3d 6b 4e e0 3e 71 73 a0 be a1 8b a1 be
       0.038495317 0.43809828 -0.31338075 -0.3155184
000160 45 75 1b bf e9 7e 2e be 0a bf 08 be 07 a4 b2 be
       -0.60725814 -0.170406 -0.13354126 -0.34890768
000170 65 aa e1 bd 60 23 53 3d c4 40 6c bd 21 dd 09 3e
       -0.11018828 0.051547408 -0.057678953 0.1346326
000180 ad 51 9e be 2f b0 aa bd 3c ed fb be 83 96 90 3e
       -0.3092169 -0.083343856 -0.49204433 0.2823983
000190 92 48 0d bd 8b 4b a3 3d 89 66 ab 3e 35 6b 0d bd
       -0.034493037 0.07973393 0.33476666 -0.03452607
0001a0 d3 5c 42 3e ca 8a 2b bd 6a 17 16 3f 1c 60 90 3e
       0.18980722 -0.041880406 0.5862948 0.28198326
0001b0 3c ad 9e 3d ae 9e 17 3e 16 dd 6a 3e 33 d8 3f 3e
       0.077478856 0.14806625 0.229359 0.18734817
0001c0 ec df d6 bd f6 4b ec be e2 44 3f be d6 98 dd bc
       -0.104919285 -0.46151704 -0.1867862 -0.027050417
0001d0 57 15 01 3d 7e f7 7e be 74 4d bc bd ce df 96 3d
       0.031514492 -0.24899098 -0.091944605 0.07366906
0001e0 64 4e ec bc f7 46 04 3f aa 68 ba 3e 76 ff 00 3d
       -0.028845973 0.51670784 0.36407977 0.031493627
0001f0 50 ef 07 be e7 2c bb 3e 8e da 87 3e 82 56 dc be
       -0.13274884 0.36557695 0.26533931 -0.4303475
000200 60 0b 2e 3c 08 c0 38 3e a9 b9 59 be 9b 15 6d 3e
       0.010622829 0.18042004 -0.2126223 0.23152773
000210 b8 b2 f9 bd df 33 73 bd 8f 28 45 bf 93 3d 1e be
       -0.12192291 -0.05937564 -0.7701501 -0.15453176
000220 6b 24 a9 be 1a d0 58 3e dc d5 8c bd 06 8d 4d be
       -0.33035597 0.21173134 -0.06876728 -0.20073327
000230 51 9a 46 bf b5 8c 85 be 31 53 0c be 40 de 09 be
       -0.7757922 -0.26083913 -0.1370361 -0.13463688
000240 90 3b 6a 3e cc d5 f2 be d7 a7 c4 be 38 f0 0b 3f
       0.22874284 -0.4742874 -0.38409302 0.5466342
000250 e4 16 94 be 30 27 04 3e 4c a7 4b be 5a df ce be
       -0.28923714 0.12905574 -0.19888037 -0.4040478
000260 b7 56 91 be 2e d4 ab be 69 eb 15 be a7 27 d0 3e
       -0.2838647 -0.33560318 -0.14640583 0.40655252
000270 a2 5e 19 3e ac f9 10 3d 59 a5 8b be 07 c8 0d bf
       0.14977506 0.035394356 -0.27274588 -0.5538334
000280 d9 0c 2d be 83 cf d0 be c9 87 05 3f 95 54 b8 3d
       -0.16899432 -0.4078332 0.52160317 0.09000508
000290 0f 0c 99 3d 9c 35 27 be a3 02 9f be 4b 0d 2b be
       0.07473003 -0.16329044 -0.310567 -0.1670429
0002a0 75 67 05 be 07 89 b4 be db 4d 27 be c2 23 3b 3e
       -0.13027747 -0.35260794 -0.16338293 0.1827536
0002b0 60 90 37 be 2c ee 14 be 75 6f 75 3d c2 e4 ce be
       -0.17926168 -0.1454398 0.059920747 -0.40408903
0002c0 f8 75 1a 3e a5 ae 5c be ff 50 be 3d 5c 48 99 be
       0.15084064 -0.21550997 0.092927925 -0.29938018
0002d0 91 cf 0c 3e 5e ac 16 bb 35 b0 98 be de de 90 3e
       0.13751055 -0.0022990922 -0.29821935 0.28295034
0002e0 63 ed f6 bd a1 2c 11 3e 13 f1 33 bd e1 f3 8c 3e
       -0.12056997 0.14177181 -0.04393108 0.27529815
0002f0 11 29 4f 3e 03 8c 50 3d f5 8d 5b be 6d 18 45 bd
       0.2023051 0.050914776 -0.21440871 -0.048118997
000300 8f 53 ba be af 4d f7 3d d9 8f fd 3d 16 c5 e3 bd
       -0.36391875 0.12075364 0.123809524 -0.111215755
000310 b6 26 e3 3d 40 a4 87 bd e2 ee 06 bf 41 b4 9b be
       0.11091368 -0.06623125 -0.52708256 -0.3041096
000320 a8 0d b4 bc 47 df 10 3e 87 bf a0 3d a7 b1 03 bc
       -0.021979168 0.14147674 0.07849031 -0.008037961
000330 98 52 fd 3d af 0a 8c be 83 d7 ee bd 5b 14 3c 3e
       0.12369269 -0.273519 -0.11662199 0.1836714
000340 1c ca 0d 3e 63 6a f8 be 8a f0 06 3e 72 87 33 be
       0.1384663 -0.48518667 0.13177696 -0.17532137
000350 4e 5c f0 3b 26 0b a0 3d d9 51 00 bf 9f f1 14 3e
       0.0073352223 0.078146264 -0.5012489 0.14545296
000360 98 2e 81 bd 93 27 f1 bd 33 46 ca 3d 96 62 cf bc
       -0.06307715 -0.11775126 0.09876671 -0.025315564
000370 ea 69 b8 be d9 74 63 3d 52 7f 2c 3d d4 87 7c 3e
       -0.36018306 0.055531356 0.04211361 0.2466119
000380 11 04 be bc 66 87 82 bd bf b1 00 be 45 29 95 3e
       -0.023195298 -0.063734815 -0.12567805 0.2913305
000390 9a 40 f5 3e 46 6c a8 3d 60 55 8f 3e c2 e8 b6 3b
       0.4790085 0.082237765 0.27994823 0.005581946
0003a0 fb fe 93 3e 40 22 89 3d a2 d4 60 3e 0c 58 d9 3d
       0.28905472 0.06695986 0.21956113 0.10612497
0003b0 06 04 fe 3c cf cd f3 bd d3 26 c0 3e 5d 17 c2 3e
       0.031007778 -0.11904489 0.3752962 0.3790845
0003c0 f4 38 2b be 61 03 01 bf bd 4c 80 3e 84 33 40 be
       -0.16720945 -0.5039578 0.25058547 -0.18769652
0003d0 c1 29 4b be e0 5a dd ba 11 8c 1b 3e c7 42 31 3d
       -0.19840147 -0.0016888045 0.1519015 0.043276574
0003e0 0b 5a 51 3e 69 ee 0c 3d 5f 1f af be 7b bd aa 3e
       0.20444505 0.034407053 -0.34203622 0.33347687
0003f0 57 f7 f9 bb f4 59 18 3c e1 bf a8 3e ac fd e4 bd
       -0.007628362 0.00929879 0.32958892 -0.111811966

b3.bias f4 [64]
000000 53 80 36 3e a9 14 25 3e 74 c0 ca bd 79 59 08 bd
       0.1782239 0.16121162 -0.09899989 -0.033288453
000010 61 92 7b bd 5e 85 c8 be 20 2e 88 3d f6 28 37 3e
       -0.061418895 -0.3916425 0.06649423 0.17886719
000020 88 13 09 bf cb ff 99 be 44 25 c7 be a0 58 69 3e
       -0.5354543 -0.30077967 -0.3889562 0.22787714
000030 97 ea a5 3d 9f e5 9a 3e 87 2f 99 be 95 05 db bd
       0.08101385 0.30253312 -0.29919073 -0.10694424
000040 d4 16 2f be d0 9c 5f 3c 2c 00 19 bd f0 22 9f 3e
       -0.17098552 0.013648227 -0.03735368 0.31081343
000050 cc 2d 05 3d 11 59 e2 be 57 2b 3a 3c d9 29 ab 3e
       0.03251438 -0.44208577 0.011362872 0.33430365
000060 87 13 97 3e c0 77 e8 be d3 ff 53 bf 31 7f e3 bd
       0.29507086 -0.45403862 -0.8281223 -0.11108244
000070 90 3f 17 3f c8 db 45 be 14 db e3 3d 5b 38 b9 bd
       0.59081364 -0.19322121 0.1112577 -0.09043952
000080 c7 8d 3a be 1e 5d c3 bd 83 90 f4 bd b6 ab 31 3e
       -0.18218146 -0.09539245 -0.11941626 0.17350659
000090 0f c6 1e be ff 18 bd be d5 9d 47 3e 97 cb 93 3c
       -0.15505241 -0.36933133 0.19493802 0.018041415
0000a0 0b 25 ec 3d 5e 2e bc 3d 32 19 d8 3e 81 b0 01 3f
       0.11530503 0.09188531 0.42206722 0.5065995
0000b0 4b 46 f1 bd 90 bb 03 be 8d 07 2e 3e d4 7c 71 be
       -0.117809854 -0.12864518 0.16995068 -0.23582774
0000c0 aa f0 cd be 60 13 c0 be 37 8d 38 bd 3b 80 51 bd
       -0.40222675 -0.37514782 -0.045056548 -0.05114768
0000d0 bb b3 54 be 5a e2 1a 3e 14 00 8e 3d 54 54 53 be
       -0.20771687 0.15125409 0.06933609 -0.20637637
0000e0 8a 3b 79 3e 41 6e a8 3e ee 53 e4 bd 5b c6 eb bc
       0.24339119 0.32896617 -0.11148821 -0.028781107
0000f0 29 49 9e be 81 39 ca 3d d4 d2 37 3d 3a 97 54 bf
       -0.30915192 0.09874249 0.044878796 -0.83043253
