nets/model_epoch_53.pth (torch, 648794 bytes, 25 tensors)

a1.weight f4 [16, 5, 3, 3]
000000 c6 6d 04 3e fb 74 05 3e c4 1c 28 bd 1c bb ec bd
       0.129325 0.13032906 -0.041043058 -0.11559126
000010 76 1d 7f bd 63 4a 95 3e e5 a7 45 be e9 83 67 3b
       -0.062283956 0.29158315 -0.19302328 0.0035326427
000020 f5 d1 df be 90 bb ba bd 05 61 d6 bd a8 34 da bd
       -0.43714872 -0.09117806 -0.10467724 -0.10654575
000030 cd ab c7 3c 39 88 12 be 53 c1 77 be 69 4b ac be
       0.024373913 -0.14309777 -0.24194841 -0.33651283
000040 d9 ed cc bd 0b 45 06 be b6 e0 d0 3d d8 e9 10 be
       -0.10006303 -0.13112275 0.1019911 -0.14151704
000050 1b a4 f0 3c 24 6b 91 3d 89 b5 c2 be a4 21 cc 3c
       0.029375127 0.071005136 -0.38029125 0.024918385
000060 9d a6 dc bd 4b 00 1e be a1 75 46 bc 07 e2 31 be
       -0.107739665 -0.154298 -0.012113006 -0.17371379
000070 75 dc ab bd 90 65 96 3d 7d b8 0c be b8 d8 b8 bd
       -0.08391658 0.0734359 -0.13742252 -0.09025711
000080 e9 cf e2 be 42 1a 25 be a7 d1 1f be 7d 66 0b 3e
       -0.44299248 -0.16123298 -0.1560732 0.13613315
000090 5e 38 2c be bb c6 d4 bd 1c 91 34 be 98 85 ef bc
       -0.16818377 -0.10389467 -0.1763348 -0.029238507
0000a0 38 75 57 be f4 f9 20 be 08 2c 30 bc 42 d9 f2 bd
       -0.21040809 -0.1572035 -0.010752685 -0.11857845
0000b0 b4 49 3d bd 39 77 4d 3e c9 9c e0 bd da e0 0c bd
       -0.046212867 0.20065011 -0.109674044 -0.034394123
0000c0 92 64 af 3e c3 ca ab 3c 6f a3 ac 3e fd 69 3e bb
       0.34256417 0.020970708 0.3371844 -0.0029054873
0000d0 30 26 07 3f 29 b0 72 be a5 9b 9e 3d a4 ec 9b 3e
       0.52792645 -0.23700012 0.077445306 0.3045398
0000e0 e3 fe 83 3d ff fe 05 3c 4e bd 34 3e 8e ae c3 bc
       0.064451 0.008178472 0.17650339 -0.023886945
0000f0 61 fa 24 3e a3 f6 1b bf 01 ee 50 3d e6 22 24 3e
       0.16111137 -0.6092321 0.05100823 0.16028938
000100 4c b8 91 bd 2e c1 e6 bd 69 5f be 3e 07 40 4d 3d
       -0.0711523 -0.11267315 0.37182167 0.05010989
000110 80 5a d7 be 95 4e 1d be 2a c5 3b be 9f 13 01 3e
       -0.42061234 -0.15362008 -0.18336931 0.12605141
000120 96 65 94 bc 30 fa bb be 52 af d7 be d9 61 e4 bc
       -0.018114846 -0.36714315 -0.42125946 -0.027878689
000130 83 7a a7 3e 51 05 08 3e cb 6c e8 3d 92 ae 35 3e
       0.32710657 0.13283278 0.113488756 0.17742375
000140 b7 67 05 bf db cb b5 bb d3 fe ee 3c ce 98 44 bc
       -0.5211138 -0.005547983 0.029174244 -0.011999322
000150 c6 0a b1 3d 4f a0 10 3d 8a 81 f6 bc 77 c8 84 bd
       0.08644633 0.035309132 -0.030091066 -0.06483548
000160 21 d5 86 bd 0c 2d fd 3c b4 b1 a8 be 86 38 eb 3d
       -0.0658362 0.03090527 -0.32948077 0.1148539
000170 e6 fb b6 3e df 93 dd 3c 74 08 65 3e 63 c5 ad 3c
       0.35739058 0.02704805 0.22366506 0.021212285
000180 13 76 10 3f db f3 ea 3e cd 7d d8 3d a8 3d 33 3e
       0.56430167 0.45889172 0.105708696 0.17503989
000190 d2 f1 68 3e 89 18 53 3e ae 04 80 bc 31 9e e8 bc
       0.22748497 0.20614828 -0.015627231 -0.028395744
0001a0 6f b5 82 3b 79 5f b7 bd 92 c6 10 be 8d ea 89 3d
       0.0039889137 -0.08953757 -0.14138249 0.0673419
0001b0 a8 68 7f 3e e3 0a e5 3e cf 81 78 3e a4 0e 46 3d
       0.24942267 0.44734868 0.24268268 0.048353806
0001c0 5a 85 40 be c8 c4 a2 3e da aa ac be e1 c7 bc bd
       -0.1880087 0.31790757 -0.337241 -0.092178114
0001d0 36 5f 36 3e c7 b2 b1 bc 20 b1 93 be 54 c2 79 be
       0.17809758 -0.021691693 -0.28846073 -0.24390537
0001e0 ef 6e 33 3d fa b9 3f be 91 07 da bc 85 0f 82 3d
       0.043806966 -0.18723288 -0.026614936 0.06350616
0001f0 99 c7 2e 3d ce bb a9 be 18 3a b5 bc 3c 86 d5 3c
       0.04267082 -0.33151096 -0.022122428 0.026064985
000200 fd 22 38 3c 22 f7 16 bd e8 a1 df 3d 96 9e ec bd
       0.011238811 -0.036856778 0.10919553 -0.11553685
000210 ec fe ca bc c9 ff 92 bd 4e da 55 3d 1c 5d 10 3e
       -0.02477976 -0.071776934 0.052210145 0.14098018
000220 36 34 d5 3d a4 46 8f be 41 d1 24 3e b4 4c 0d 3e
       0.10410349 -0.27983582 0.16095449 0.13798791
000230 a6 cf 9b be b0 b9 b7 3d 5e 64 c1 be f2 a7 8c 3e
       -0.3043186 0.08970964 -0.37771887 0.27471882
000240 9e 3d 1d be 54 16 df be ae 7e 72 be 86 07 b9 be
       -0.15355536 -0.43571723 -0.23681137 -0.36138552
000250 09 0f 56 bd 13 89 21 bf 57 fa a6 3d cf d7 13 3d
       -0.052260432 -0.63099784 0.08153217 0.036094483
000260 e6 c5 00 bd ef 3f 22 bd 1c d1 cf 3d dc 30 cf 3c
       -0.03143873 -0.039611753 0.10147306 0.025291853
000270 9a 47 29 be c7 de d1 bd 4c f8 a1 be 68 a3 49 be
       -0.1653122 -0.102475695 -0.31634748 -0.19691241
000280 0c d0 39 be 10 5f c1 3e 80 6e 53 3e b0 14 8b 3e
       -0.1814577 0.3776784 0.20647621 0.2716422
000290 7a 38 6e 3e 7e bb bf 3e 73 af 0b be c8 9f 16 3f
       0.23263732 0.37447733 -0.13641147 0.58837557
0002a0 6e 3a 3f 3e a8 f7 83 bd 30 eb 7f be 75 e0 15 bd
       0.18674633 -0.06443721 -0.2499206 -0.036591012
0002b0 49 3b 05 3d 16 32 6a 3d 14 d5 c5 bb 79 dc 37 bc
       0.03252724 0.057176672 -0.006037364 -0.011221998
0002c0 fc 53 2d 3c 49 50 5e 3d 04 74 25 bd b4 47 4e bc
       0.0105791055 0.054275785 -0.040393844 -0.012590338
0002d0 d6 2f 44 3e 66 9b 19 3d 60 18 87 be fd c9 1a 3d
       0.19158873 0.037501715 -0.26385784 0.037790287
0002e0 3d 9a 2d 3e 40 89 90 3e c8 45 2e 3d 0d 96 42 3e
       0.16953368 0.28229713 0.042547017 0.19002552
0002f0 d3 49 87 3e cb 63 1d 3e 39 32 11 be 3d c1 27 3d
       0.2642351 0.15370099 -0.14179315 0.04095577
000300 dc ae 32 be e9 a5 12 bd c5 a9 20 be ef c1 23 3e
       -0.17449516 -0.035802756 -0.15689762 0.15991949
000310 8a f6 52 3d cf 3d 30 be f0 51 c3 3d eb 82 33 3e
       0.05150465 -0.17211078 0.09537113 0.1753041
000320 c6 a0 e7 3e 61 c4 7d bd 19 20 36 3c e1 5b 17 be
       0.45239848 -0.06195486 0.011116051 -0.14781143
000330 d9 3a 9c be 2f 15 a1 3e 8e fd 69 bb ad 80 25 be
       -0.30513647 0.31461474 -0.003570411 -0.16162367
000340 02 d8 e5 be ed 42 d7 be 69 51 e2 3d 9a ef 89 3d
       -0.44891363 -0.42043248 0.11050684 0.067351535
000350 a2 d1 1f be c4 31 54 be 76 38 82 bd 01 e5 82 3d
       -0.15607312 -0.20722109 -0.06358425 0.06391335
000360 fc 66 bb bc bb 89 a3 3c f8 1e 9f bc fc f3 2d 3d
       -0.022876255 0.019963136 -0.019423947 0.04246901
000370 cd 4e d5 bd d5 e1 da 3c 69 6b 8d 3c 16 1a c5 3d
       -0.10415421 0.026719013 0.017263131 0.09624116
000380 61 72 55 bd 1e cf ac bd 5e 08 bb bd 97 a1 56 3e
       -0.052111033 -0.08437942 -0.09132455 0.20960079
000390 97 20 58 3c 4f 50 f2 bd e7 0b 9d bd 18 e8 3f 3e
       0.013191364 -0.11831724 -0.07668286 0.1874088
0003a0 6b 27 20 be fc 95 bf 3e c1 d9 37 bd 14 a9 d0 3e
       -0.15640037 0.37419116 -0.0448854 0.40753996
0003b0 29 b3 8f 3e 03 c7 1d bc 79 1e e4 bc 51 da a8 be
       0.28066376 -0.009629968 -0.027846562 -0.32979062
0003c0 eb 43 20 3d ec c4 70 3e f1 fc 14 bf c1 1f 55 3d
       0.03912727 0.2351262 -0.5819846 0.052032236
0003d0 4c 08 8a 3d 29 01 a5 3d ac a9 45 be 91 64 a0 3e
       0.06739864 0.08056862 -0.19303006 0.31326726
0003e0 26 c6 b9 be e8 4f 3d be 2c 24 10 be ee 08 df be
       -0.36283988 -0.18487513 -0.14076298 -0.435615
0003f0 a6 7a 8d 3e 42 42 75 bb 62 9b c0 3d 62 d4 b4 3c
       0.27632636 -0.0037423526 0.09404637 0.022073928

a1.bias f4 [16]
000000 22 7b 58 3d 19 cc cd bd 2d b9 6b bd f2 ad 15 be
       0.052851804 -0.10048694 -0.057549644 -0.14617136
000010 eb f3 18 3e 7b 9b ed bd 78 10 11 3d 7d 2f ef bd
       0.14936797 -0.11601921 0.035416096 -0.116789795
000020 63 50 12 be 24 da c1 3d 0f cb 79 bd e1 61 e1 3d
       -0.14288478 0.09465435 -0.060984667 0.11004997
000030 55 60 ac bd ce d2 8a bd db 78 8c 3e 4e f0 6f 3e
       -0.084168114 -0.06778489 0.27435955 0.23431513

a2.weight f4 [16, 16, 3, 3]
000000 61 fa 66 3c ba 46 8c be 54 05 41 be 4d 90 ab 3e
       0.014097781 -0.2739771 -0.18849689 0.3350853
000010 62 fd 43 3e dd bf 45 be 08 d4 1f 3d 7d df 28 be
       0.19139627 -0.19311471 0.039020568 -0.16491504
000020 90 64 28 3e 58 68 02 bd 09 b7 14 3e 83 4a b7 3c
       0.16444612 -0.03183779 0.14522947 0.022374397
000030 e5 de 17 be 46 e0 35 3e 77 dc 68 be 28 b4 b1 bc
       -0.14831121 0.17761335 -0.2274035 -0.02169235
000040 14 84 28 3e 26 cd ce bd 54 41 8f bd e7 e3 33 be
       0.16456634 -0.10097723 -0.06994882 -0.17567407
000050 72 4a 9e be 26 c4 da be d9 a8 aa bd e8 bf 15 bc
       -0.30916172 -0.42727774 -0.083329864 -0.009139992
000060 34 9d e3 bd cc 10 d2 be f1 96 00 3e bc 61 44 bf
       -0.111139685 -0.4102844 0.1255758 -0.7671163
000070 cb 51 95 3e 1d cb b6 be 57 00 18 3f 00 63 7a be
       0.29163966 -0.35701838 0.5937552 -0.24451828
000080 bb 58 6b 3e a3 45 c7 3d 41 06 a0 3d a6 e4 97 3d
       0.22983067 0.09730079 0.07813693 0.07416658
000090 c8 90 cc bb a8 63 d5 be b6 c6 b8 bd 1b e7 1e 3d
       -0.006242845 -0.41677594 -0.09022276 0.038794618
0000a0 b8 67 4e bd 97 ce 4e be e1 37 02 bf 37 d9 78 be
       -0.050391883 -0.20195995 -0.50866514 -0.24301611
0000b0 9d 4f 56 be 58 8c b0 3d 2f ca 65 be 55 0e 1b be
       -0.20928808 0.086205184 -0.22440408 -0.15142186
0000c0 3e 98 7f 3e d5 92 59 3d 28 25 28 3e 66 bc cf be
       0.2496042 0.053118546 0.16420424 -0.40573424
0000d0 ed 0b 29 3e 35 8d 34 3e 42 f1 67 be fb 83 a6 3d
       0.16508456 0.17631991 -0.22650626 0.08130642
0000e0 3c 8a 80 3c 4a 6d d1 3e c2 52 ba 3e 7c 42 dd 3c
       0.015690915 0.40903693 0.36391264 0.027009241
0000f0 98 68 c6 3d e2 c3 a6 bc 88 07 50 ba 7e ba a8 3e
       0.096879184 -0.020357076 -0.00079356926 0.32954782
000100 19 24 5d be 8d 18 8e bd 43 42 af be 13 5a 8b bc
       -0.21595801 -0.069382764 -0.3423024 -0.017010724
000110 ce 04 17 be 1e 9a 04 be d9 99 c4 bd 73 35 7c 3e
       -0.14747927 -0.12949416 -0.095996566 0.24629764
000120 98 e7 80 3e fb c0 fc 3d 26 8e 80 3c 8b 97 cd bc
       0.25176692 0.123414956 0.015692782 -0.025096675
000130 84 e1 f4 3a 0c 03 64 3e e1 bd 60 be f1 79 dd 3e
       0.0018682932 0.22266787 -0.21947433 0.43257096
000140 52 60 0f 3e 7f ba 41 3d 15 52 63 3e 21 de 4c bd
       0.14001587 0.047296997 0.2219928 -0.050016526
000150 24 bd 44 be 91 40 2b 3e e0 2d f4 3e 15 33 1b 3e
       -0.19212776 0.16723849 0.4769125 0.15156205
000160 42 98 67 3d 25 b3 2e 3e 43 01 32 be 52 15 8a bd
       0.05654169 0.17060526 -0.17383294 -0.06742348
000170 27 7a 1c be 88 af ee 3d 71 68 78 3e 04 70 b7 be
       -0.15280972 0.11654574 0.24258591 -0.3582765
000180 61 a3 3b 3d 36 92 ba 3c e4 b4 48 3e b1 6e b0 be
       0.045810107 0.022774797 0.19600254 -0.3445945
000190 10 73 90 bd 5d be 02 bd 50 22 20 be 6f d3 2d be
       -0.070531964 -0.031919826 -0.15638089 -0.16975187
0001a0 86 d7 8a 3c b0 8d 0c 3f 96 1b 67 3d 66 78 21 be
       0.016948473 0.549037 0.056422792 -0.15768585
0001b0 5f ab 69 bd 38 b7 19 be 2c 85 9e 3d dc 00 0f 3b
       -0.057048198 -0.15011299 0.07740244 0.002182058
0001c0 09 49 0c 3f 21 93 a6 be 64 f1 08 3f c5 c7 6d 3e
       0.5479894 -0.32534125 0.5349333 0.23220737
0001d0 2c c9 50 be 71 00 5c 3e 9b 3d c6 be a8 65 0e bf
       -0.20389241 0.21484543 -0.38718876 -0.55623865
0001e0 bf 33 de 3c 6d f0 de 3e bf ab 2d 3e fd b7 83 3e
       0.027124284 0.43542805 0.16960047 0.2572631
0001f0 8e 74 45 be 8c c6 86 3d 74 db 04 be 93 96 27 bf
       -0.19282743 0.065808386 -0.1297434 -0.65464133
000200 d0 35 90 bd 79 df 40 bd 65 e8 32 bd 5f d5 84 be
       -0.07041514 -0.04708812 -0.04367866 -0.2594404
000210 9b 7e a5 bd 68 c1 39 be 28 b9 1a 3e 87 a6 b6 be
       -0.08080789 -0.18140185 0.15109694 -0.35673925
000220 4f e4 72 bb 8d 02 45 be 18 63 d3 bd 4b 84 5a be
       -0.0037062352 -0.19239254 -0.10321635 -0.21339528
000230 fc c5 0c 3f ba d7 73 be f4 10 a4 3c 64 44 f1 3c
       0.549896 -0.23812762 0.020027615 0.029451557
000240 f0 e5 63 bd 48 c0 f4 bd 94 74 31 bd 78 22 47 be
       -0.055639207 -0.11950737 -0.04332407 -0.19446743
000250 69 af 68 be 55 00 08 bd 8c a5 1e be 50 35 b8 bd
       -0.22723164 -0.03320344 -0.15492839 -0.089945436
000260 37 d3 33 be 86 22 7f bd e7 a9 c6 bd d8 d4 65 3e
       -0.17561041 -0.062288783 -0.09700375 0.22444475
000270 f6 2b e5 bd be 72 11 be 63 5f 68 bc d5 bd a3 3d
       -0.111900255 -0.14203927 -0.014182898 0.07995192
000280 f1 14 e4 3d 0d f5 b6 3d 5f e7 00 3e 6e 34 a1 bc
       0.11136807 0.089334585 0.12588261 -0.01967832
000290 e0 d0 3f 3e 89 fa 3a bd 93 b5 2c 3e b4 56 20 3e
       0.18732023 -0.045649085 0.1686614 0.15658075
0002a0 2a be 8e bb 58 c8 99 3d de c0 c1 3d e7 93 41 be
       -0.0043561654 0.07508916 0.094606146 -0.18904077
0002b0 94 ad 23 3e 12 4a 96 3e 70 dd 77 bb 79 b5 b5 bb
       0.15984184 0.29353386 -0.0037821196 -0.005545315
0002c0 31 cf 80 bd 50 53 b3 3d 27 c8 15 be 62 1e b0 3e
       -0.062895186 0.08756125 -0.14627133 0.3439818
0002d0 a4 0d a4 3e 2d 72 36 be 83 aa 35 3e 71 a4 20 3e
       0.32041657 -0.17816992 0.17740826 0.1568773
0002e0 74 95 bc 3d 29 ef bb bd 48 24 47 3e 8a 5e b8 bd
       0.092081934 -0.091764756 0.19447434 -0.09002407
0002f0 53 42 47 bd aa 78 14 be d3 dd 11 3e 56 c4 4d 3e
       -0.048647236 -0.14499155 0.14244775 0.20094427
000300 41 32 ea 3c 40 e6 da 3b 16 3f 58 bd 64 76 b8 3d
       0.028588416 0.00668028 -0.05279454 0.09006956
000310 fd a1 b9 3d fd 33 2c be db d3 87 bd 2c 17 80 bd
       0.090641 -0.16816707 -0.06632205 -0.0625442
000320 29 e1 ec bd 69 10 b9 bd aa 0d d0 bc 2a 5e 0c 3d
       -0.115663834 -0.09036333 -0.02539714 0.03426949
000330 d2 90 0a be d6 f6 56 be b8 53 76 bb 5e 04 b7 3d
       -0.13531807 -0.20992598 -0.0037586521 0.0893638
000340 b6 2b 54 3e 01 23 a3 3d 61 89 2f be 0d 21 10 3e
       0.207198 0.07965661 -0.1714225 0.14075108
000350 bd a5 1d 3c a6 a6 0a 3e f2 3c 7e bd fd 54 d8 3e
       0.009622035 0.13540134 -0.06206984 0.4225234
000360 4b c2 8b bd 73 b7 d9 bd 8f 4c dc 3d 92 b6 b7 be
       -0.06824168 -0.10630693 0.1075679 -0.35881478
000370 c6 50 f4 3d e9 54 ad bd 70 72 7b be b7 6d a6 3e
       0.11929469 -0.08463461 -0.24555373 0.3250558
000380 06 05 80 bd d1 f0 3e bd 70 e8 a1 bd 28 56 ab 3d
       -0.06250958 -0.04661638 -0.07905662 0.083660424
000390 a6 b4 a3 3d 36 54 96 3d 14 6b 97 3d d9 de 45 3c
       0.0799344 0.07340281 0.073934704 0.012077057
0003a0 fa e6 ae bd 8e 39 20 be 60 64 59 3e f0 5e 1a 3e
       -0.08540149 -0.15646955 0.21229696 0.15075278
0003b0 a3 d3 c7 bd f0 a3 3c 3d ab e2 70 be ee 79 51 3e
       -0.097571634 0.04605478 -0.23523967 0.20456669
0003c0 be 20 5a bd f9 9f 38 3e 84 fe 70 be 7a d0 2c 3d
       -0.05325388 0.18029775 -0.2353459 0.042191006
0003d0 db 35 d4 3e c4 37 0e 3e 1a ff 9f 3c 74 8a de 3d
       0.41447338 0.1388846 0.019530822 0.108662516
0003e0 aa 7f 90 3e 91 d1 7b be 28 16 79 be 0c f0 59 be
       0.282224 -0.24591662 -0.24324858 -0.21282977
0003f0 de 6f 97 bd b7 08 ab 3e 27 72 3f 3c 43 a4 02 be
       -0.07394384 0.33405086 0.011684931 -0.12757973

a2.bias f4 [16]
000000 05 3c dc bd 5e 02 55 be 36 8d d9 bd c8 81 e8 bc
       -0.10753635 -0.20801684 -0.10622637 -0.028382197
000010 31 0e f3 3c 79 f9 2c be c6 32 8a ba 52 58 a1 bc
       0.029669853 -0.16892041 -0.0010543696 -0.019695435
000020 60 56 0c 3e 40 02 09 be a1 8e 50 be 1b cd c2 bc
       0.13704824 -0.13379765 -0.20366909 -0.023779443
000030 1e b9 37 be 28 de 50 3d 8b 9f 3c 3e c3 b9 03 3e
       -0.1794171 0.050993115 0.18420236 0.12863831

a3.weight f4 [32, 16, 3, 3]
000000 8e 2a 45 be 87 e4 d3 3e c5 b4 04 bf 4c de d3 bd
       -0.19254515 0.4138529 -0.5183833 -0.10345134
000010 61 e8 0d be 2f ad ae bd 8b a7 27 bf cd b1 95 bd
       -0.13858177 -0.08529126 -0.65490025 -0.073093034
000020 38 ee 54 3e 21 6b 77 bd ee 54 b3 bd b2 cc 5f be
       0.20793998 -0.0604049 -0.087564334 -0.21855429
000030 e1 80 23 bd 40 1b 68 3e 49 da 4b 3e 40 09 af be
       -0.03991783 0.22666645 0.19907488 -0.34186745
000040 72 41 4a be 91 79 00 bf ce 1a 0e 3e d0 91 84 bd
       -0.19751528 -0.50185496 0.13877413 -0.06473124
000050 d1 4c 3d 3e df e8 00 3e a5 f8 49 3e 5e a6 ed bd
       0.18486334 0.12588833 0.19723757 -0.11603998
000060 94 be be bd 53 52 e3 3d 64 01 03 be 90 25 99 be
       -0.09313694 0.110996865 -0.12793499 -0.2991147
000070 7a 5e 50 3e c6 88 7a 3e 59 29 ae 3d 51 c4 da bd
       0.2034854 0.24466237 0.0850398 -0.10681976
000080 1c 02 1a 3e fe 12 13 be 8c bc 1a be 98 0f f5 3c
       0.15039867 -0.14362714 -0.15110987 0.029914662
000090 54 a9 3d 3e 44 94 eb 3d 0c dd 38 be 8d bc 94 bd
       0.18521625 0.11502889 -0.18053073 -0.07262526
0000a0 ca 8e ab 3e ba a9 85 bd 6c 43 3c 3e 3c d5 97 3d
       0.33507377 -0.065265134 0.18385094 0.07413718
0000b0 fe 10 e9 bc c7 5a 95 3d 7b 00 65 3c 1c d8 f9 bd
       -0.028450485 0.07292705 0.013977165 -0.12199423
0000c0 86 95 9c 3e 42 25 61 bd f0 4f b2 3e 6a 39 f6 be
       0.30582827 -0.054967172 0.34826612 -0.48090678
0000d0 f4 c9 28 be 01 b7 22 3e 5b 75 0b 3d 72 27 c6 3c
       -0.16483289 0.15890123 0.034047466 0.02418873
0000e0 39 b3 3b be 4f e7 9a 3c 8e 7e bf 3d d6 fb 38 be
       -0.18330087 0.018909125 0.0935031 -0.18064818
0000f0 61 72 b5 3d 49 1c b1 3e 08 c5 84 3d 24 72 23 3e
       0.08859707 0.34591892 0.06482893 0.1596151
000100 9d 72 2b 3c 2b 08 2b 3d 69 57 29 3e 5a ad 9d 3e
       0.010464338 0.041755836 0.1653725 0.3079632
000110 61 cd 94 be 4b 08 cc 3e 54 d4 1b be a4 d8 76 be
       -0.29062942 0.39850077 -0.15217716 -0.2410608
000120 46 bd 8e 3a 8e d5 58 3e 9e 5d 1c be 96 a9 eb 3d
       0.0010890148 0.21175215 -0.15270087 0.11506955
000130 4b 8c ac 3e 90 73 66 3d 13 6c 98 3d d5 d9 95 be
       0.33700785 0.056262553 0.074424885 -0.29267755
000140 3d ae 13 be 9b 44 44 3c fd d2 7a 3e c0 ae e3 bd
       -0.14421935 0.011979247 0.24494548 -0.11117315
000150 97 d8 88 3e fe 9e 9d bd 53 2d 7e 3c a5 3c f4 bd
       0.26727745 -0.07696341 0.015513736 -0.119256295
000160 41 87 05 be a9 f8 d9 3d f2 a7 50 bd 70 ad bf 3d
       -0.13039877 0.10643131 -0.050941415 0.093592525
000170 34 e0 92 bd 9a ba 0b 3e 96 c7 9e be 84 d0 da 3e
       -0.071716696 0.13645402 -0.31011647 0.4273721
000180 fc 97 2d 3d 6b 20 1a be a7 b8 8b be 4e b5 16 bd
       0.04238127 -0.15051429 -0.27289316 -0.036794
000190 47 e4 84 be de b2 b7 bd 1e 1b 5a be c9 36 c5 3e
       -0.25955412 -0.08969663 -0.21299407 0.3851836
0001a0 48 c7 10 bd cc 18 50 be 8d 75 9d 3e 0f 71 0e be
       -0.0353463 -0.2032196 0.30753747 -0.13910316
0001b0 cb c7 b8 bd ce 10 cd be 47 6c 98 be 33 5c 88 3e
       -0.090224825 -0.40051883 -0.2977011 0.26632842
0001c0 7f bb b4 bc 72 3e ba 3e 5f cc 22 bf 9b 8a 6d 3d
       -0.022062061 0.36375767 -0.63593096 0.057993513
0001d0 1c 99 87 bd 1a 82 0d 3f 9d 19 cc 3d 81 0a 20 bd
       -0.06621 0.55276644 0.09965823 -0.039072517
0001e0 82 5b c3 3e f8 38 15 bd 96 ed 2e be 45 cf 61 3e
       0.38155752 -0.036431283 -0.1708282 0.22051723
0001f0 c1 d9 1d bd fa c6 9f 3e cb bf c8 3e 47 f0 73 be
       -0.038537744 0.31206495 0.39208826 -0.23822127
000200 a0 2c c5 be 45 d7 c9 3d d1 85 9a 3e b6 7e 31 be
       -0.3851061 0.098555125 0.3018022 -0.17333493
000210 34 07 01 3e d6 49 03 be 24 88 9e be 76 d5 d9 bc
       0.12600404 -0.12821135 -0.30963242 -0.026591044
000220 12 ec 9d 3d d8 61 e6 3d ef 1c 20 bb 8e 84 e3 3e
       0.077110425 0.11249131 -0.0024431308 0.4443707
000230 dc ca 4f bf b9 b2 3e 3e e1 6d a5 be 4a 97 59 be
       -0.81168914 0.18622865 -0.32310393 -0.21249118
000240 36 5d 23 3e df df c5 bd d3 3f ff 3e 7d 95 0d 3e
       0.15953526 -0.09661841 0.49853382 0.13826557
000250 0b 35 81 3c 64 52 36 3e 0c b7 f0 bd a0 44 50 bd
       0.015772363 0.17804867 -0.117536634 -0.050846696
000260 d9 a8 d3 3d 76 80 c8 bd c6 dc 80 bd ef 02 54 3e
       0.103349395 -0.09790127 -0.06292109 0.20704244
000270 48 2d 39 be ce cb 36 be 7a 52 56 3e 13 a7 81 3e
       -0.1808368 -0.17851183 0.209299 0.2532278
000280 0a 89 37 3e 8c b8 5c be 53 48 d3 be 9a 20 58 bc
       0.1792337 -0.21554774 -0.41266116 -0.013191367
000290 2b a8 b4 bc 6e a1 4d 3e ca 39 df bd 95 27 93 be
       -0.022052845 0.20081112 -0.10899694 -0.28741136
0002a0 dc 4c 48 be 69 56 89 3c 6f 90 a5 be 6f 76 0e be
       -0.1956057 0.016764836 -0.32336757 -0.13912366
0002b0 e5 f4 e4 bd f5 c2 4e be 74 a1 3c be 8e 0c 26 3e
       -0.111795224 -0.20191558 -0.18420964 0.16215727
0002c0 2f 9a 23 3e a8 b6 b2 3d 7a e2 1c be 18 03 11 3e
       0.15976785 0.08726245 -0.15320769 0.14161336
0002d0 87 c7 80 be b2 0d dc bd d2 de b6 bd 7e cc 82 be
       -0.25152227 -0.107448 -0.08929218 -0.2554664
0002e0 f1 b1 11 be b4 11 7e 3e 66 93 84 bd 65 06 37 be
       -0.14228036 0.2481144 -0.064734265 -0.17873533
0002f0 ee c6 7d 3e d6 75 89 3d 0c 06 d3 3d 58 2a 11 3e
       0.24782917 0.067119285 0.10303888 0.14176309
000300 2c c4 ba 3d ec 58 18 bd b6 39 b4 3e 83 9f a6 bd
       0.09119448 -0.037194178 0.3520028 -0.08135893
000310 9f 6f 98 bd c6 11 05 3e bf 7e 0f be 12 46 31 be
       -0.07443165 0.12995061 -0.14013194 -0.17311886
000320 4b d7 de 3d 41 57 ab bd 76 75 4f be c1 d7 3c 3e
       0.108809076 -0.08366252 -0.20259652 0.18441679
000330 7c f4 eb 3d 9b 08 73 3e ae 40 8f 3e c3 71 6c be
       0.11521241 0.23733751 0.27979034 -0.23090272
000340 41 46 c2 3c 9e 9d 09 bf 80 be 11 3e b5 cd b8 3e
       0.02371514 -0.5375613 0.14232826 0.36094442
000350 18 90 f2 bd f3 f1 30 bf 94 d9 0d 3e 0e 80 93 3e
       -0.1184389 -0.69119185 0.1385253 0.28808635
000360 ae a2 b3 3d 69 18 ac 3e f4 db 32 be ef 35 99 be
       0.08771263 0.33612373 -0.17466718 -0.2992396
000370 71 8d e9 bc 7b e7 e3 be 14 d9 ca bd ab 99 38 be
       -0.028509827 -0.44512543 -0.099046856 -0.1802737
000380 0f 5d 34 3b b0 c6 32 3e e0 d8 d1 bd 24 d6 00 be
       0.0027521288 0.17458606 -0.10246444 -0.12581688
000390 ad 80 29 3d 54 8d db bc 4a 50 87 be ef 99 7e bc
       0.04138248 -0.026800789 -0.26428443 -0.01553963
0003a0 72 6e 64 3e ad 16 36 3d 88 16 93 3e e8 de 51 be
       0.22307757 0.04445522 0.28728127 -0.20495188
0003b0 7a 80 8f 3e 70 42 65 be 43 31 4c be eb 2b 81 be
       0.28027707 -0.22388625 -0.19940667 -0.2522882
0003c0 9c dd 0d be d3 5c e7 be 9c d7 91 bd 0a 03 b4 be
       -0.13854069 -0.45188007 -0.07121202 -0.3515857
0003d0 14 81 e7 bc 4a d1 eb bd 50 fa 41 be cb 89 b4 bd
       -0.028259791 -0.11514528 -0.18943143 -0.088153444
0003e0 9f df 2a 3e ce e0 23 bf af 12 87 be 31 cf 52 3e
       0.16686867 -0.640149 -0.26381442 0.2058685
0003f0 fa fe 98 3e df 53 f6 bd 9b c8 5a 3e f3 68 9c be
       0.29882032 -0.12027716 0.21365587 -0.3054882

a3.bias f4 [32]
000000 55 44 83 be 3b 67 8a 3d 20 2f 02 3e 5b fb b3 be
       -0.2563807 0.06757971 0.1271329 -0.35152707
000010 1f 8c a2 be 46 7d 64 3d 23 8a 17 3e 9b 56 3f be
       -0.3174753 0.055783533 0.14798789 -0.18685381
000020 18 f4 d3 be 43 be 6c be 41 5c 44 be aa b9 ef bd
       -0.41397166 -0.23119454 -0.19175817 -0.117053345
000030 10 0e 1f bf 59 a2 fc bd c5 71 fc bd 62 2d db 3e
       -0.6213083 -0.12335653 -0.12326387 0.42808062
000040 ad 24 96 3e 4a 35 69 be 7a 9b cb bd 2a 17 b2 be
       0.29324856 -0.22774234 -0.09941764 -0.34783298
000050 63 e0 68 bd 53 27 92 be 8a 34 ac bd 3d 0a 86 be
       -0.056854617 -0.28545627 -0.084084585 -0.26179686
000060 ad de 9e bd 13 b0 86 3e 10 6c a7 3e 57 59 07 be
       -0.07757316 0.2630621 0.32699633 -0.13217674
000070 d2 45 dc bb f5 cd e4 3d 16 8a ac bd a8 14 43 be
       -0.0067221904 0.11172096 -0.08424775 -0.19050848

b1.weight f4 [32, 32, 3, 3]
000000 a1 b4 e1 be 4b c3 fe 3d 58 82 26 be 9f a9 17 be
       -0.4408312 0.12439593 -0.1626066 -0.14810799
000010 32 99 ee bd d2 5b e4 bd d7 ab 6e bd ac cb ff 3b
       -0.116503134 -0.11150326 -0.058269348 0.007806262
000020 3f 77 9b be a8 18 89 bc 4f c4 e2 be ca 5c 3a 3e
       -0.30364415 -0.01673539 -0.44290397 0.18199459
000030 9c bc 9a be 6d 5b 18 bf f5 8c 7f 3d 0e 66 08 3e
       -0.30222023 -0.59514505 0.062390286 0.13320181
000040 c2 8c ef be aa 6b c7 3e 9b a9 cb bd 78 37 3c 3e
       -0.46787077 0.3894933 -0.09944459 0.18380535
000050 89 dd b8 3c 57 8a 18 3e a2 2d a4 3e fa 63 aa bc
       0.022566574 0.14896522 0.32066065 -0.020799626
000060 9b 12 6f bc ad 38 8e 3d ec d0 97 bd 81 fd 8a 3e
       -0.014591838 0.06944404 -0.074128956 0.27146533
000070 4f 9a 76 3e 5b 0c 8a 3e 85 a1 0d 3e 22 80 b6 be
       0.24082302 0.2696255 0.13831146 -0.35644633
000080 0b 58 63 3e 1a 29 51 be 99 99 4d be 83 5d 83 be
       0.22201554 -0.20425835 -0.20078124 -0.2565728
000090 10 a5 77 3e dd eb dd be 05 fe 1c bc 9e 62 5f bd
       0.2418406 -0.43344012 -0.009582047 -0.054537408
0000a0 2d 00 63 3d 3d 80 b5 be 66 75 aa bd 4f cf 24 bf
       0.05542009 -0.354494 -0.08323173 -0.6437883
0000b0 1b 99 93 3c a0 14 03 3f d6 cc 30 bf 16 89 39 bd
       0.018017342 0.51203346 -0.69062555 -0.04529675
0000c0 e7 74 69 3e 0f 9f 12 be 73 6b 8d 3d 16 58 c0 3d
       0.22798501 -0.14318489 0.0690526 0.09391801
0000d0 c7 27 b8 bd 33 25 fb be 17 25 51 be bc e2 a5 bd
       -0.08991962 -0.49051818 -0.20424305 -0.08099887
0000e0 ff 92 84 be 48 50 13 3c df be 0a 3e 68 9c f0 bd
       -0.258934 0.0089913085 0.13549374 -0.11748582
0000f0 be a7 61 bd b8 43 ca bd 61 dd 97 bd 80 a2 7d bd
       -0.055091612 -0.098761976 -0.074152716 -0.06192255
000100 c7 c4 5a 3d 31 b5 27 3d aa 98 2a 3d d7 8c 2b be
       0.053410318 0.040944282 0.041649498 -0.16752945
000110 6f 6b 1a bd 99 2c 26 3c 16 91 6e 3d 88 d8 c7 3c
       -0.037700113 0.010142469 0.058243833 0.024395242
000120 38 62 3c be ea 67 a0 be 1c 31 a5 be bb 98 d9 be
       -0.18396842 -0.3132928 -0.3226403 -0.42499337
000130 f0 ff 7a 3e 8e ad 56 bc 0f 5e c0 be 40 85 31 3e
       0.24511695 -0.013102902 -0.3757176 0.17335987
000140 7e 33 85 3e 67 0f 50 3e 34 e8 e7 bd 2c 39 de bd
       0.26015848 0.20318376 -0.11323586 -0.108507484
000150 38 c0 72 3e 4e 21 cc 3d a1 34 b7 3e aa d4 2f 3f
       0.23706138 0.0996729 0.3578234 0.68683875
000160 ac 14 e1 bd 82 f3 b3 bd e6 f1 60 be a8 43 85 3e
       -0.10990271 -0.0878668 -0.21967277 0.2602818
000170 1a cc 60 be 76 ef 30 3e f1 31 54 3e 20 81 45 be
       -0.21952859 0.17278847 0.20722176 -0.19287539
000180 8a 41 16 3e c2 27 34 bd 74 ce 7d 3d b9 74 8b be
       0.14673439 -0.04398323 0.061964467 -0.2723749
000190 d5 ff ba be 5b 4b 0d bf bb b8 ac 3e 38 96 21 be
       -0.3652331 -0.5519311 0.33734688 -0.1577996
0001a0 ec d9 b1 be f0 79 69 3e 10 78 40 3e 9a e6 2b be
       -0.34736574 0.22800422 0.187958 -0.16787186
0001b0 7c 39 8e be 22 83 bc be f0 27 52 be e7 0f 1a be
       -0.27778232 -0.36818796 -0.20523047 -0.15045129
0001c0 4d 72 ad bd 38 a6 25 3e 00 54 ee bd 61 ba c5 be
       -0.08469067 0.16176689 -0.116371155 -0.38618758
0001d0 10 c3 ae bd 27 b5 94 3d 20 56 ef 3c ea 54 6f 3e
       -0.08533299 0.072611146 0.029215872 0.23372236
0001e0 9f 0c 89 3d 94 a0 81 bd e3 40 e2 bd b7 12 75 bd
       0.066918604 -0.06329456 -0.110475324 -0.0598323
0001f0 9c c4 9d be 69 44 ab 3d 78 16 aa 3d 04 ae 3e 3e
       -0.30814064 0.083626576 0.08305067 0.18621069
000200 f1 d9 2d 3d ac eb 77 bd ca ce c1 be a1 a6 3c 3d
       0.042444173 -0.06052749 -0.3785308 0.046057347
000210 0d 0c 55 3b 50 dc 26 be 33 35 de bd 10 17 d4 3d
       0.0032508404 -0.1629498 -0.10849991 0.10355961
000220 fa 74 51 3d db b6 e6 bc 51 0e 82 be b1 db 8e 3d
       0.05113695 -0.028163364 -0.25401548 0.069754966
000230 02 9c f5 bb f7 db da 3b 1a 69 bd be ee b6 8c 3b
       -0.007495404 0.006679054 -0.3699425 0.004294268
000240 92 ec 54 be 80 86 bf bc e1 03 a2 3d 09 d3 62 3e
       -0.2079337 -0.023379564 0.07910896 0.22150816
000250 38 1d af 3e c4 52 2d 3e d5 d4 80 3a f0 d4 8b bc
       0.3420198 0.16926104 0.0009829054 -0.01706931
000260 f2 fe 87 3e 15 85 91 3d 83 12 4b 3e 90 b1 f6 be
       0.26561695 0.071054615 0.1983128 -0.48182344
000270 a8 63 ff 3b c9 d4 03 be d6 4d 0b bf 50 87 90 bc
       0.0077938624 -0.1287414 -0.54415643 -0.017642647
000280 36 1d 5d 3e 71 66 33 be af e5 9d 3e 13 f9 85 bd
       0.21593174 -0.17519547 0.30839297 -0.06541648
000290 cb 60 9e bd 7b e8 f5 3d 4f 70 14 bf 18 f1 2b be
       -0.077333055 0.12007233 -0.5798387 -0.16791189
0002a0 15 58 94 bd 9c e2 0c be 3a 48 04 be 40 80 7e be
       -0.07243363 -0.1375832 -0.12918177 -0.24853611
0002b0 f1 8f c3 3e 2a a2 94 be 80 3f 32 3e 8d b4 43 3e
       0.38195756 -0.2902997 0.17407036 0.19111843
0002c0 45 3f e6 bd 6c a5 c5 bd d3 49 86 3e d7 6e 7c be
       -0.112425365 -0.09650692 0.26228198 -0.24651657
0002d0 f1 1f d4 bc 2a 5d 35 be d0 d3 df 3d 82 da fa 3c
       -0.025894137 -0.1771132 0.10929072 0.03062177
0002e0 7b 3b f8 bc 32 0c a3 bc 9e 4a 26 3e 1c b7 b8 3d
       -0.0303018 -0.019903276 0.16239402 0.090193
0002f0 a9 24 7e 3e 10 80 b6 3d 32 ef 9a be 62 b2 63 be
       0.24818672 0.08911145 -0.30260617 -0.22236016
000300 86 7e 11 3e 62 46 00 3e 7c 30 42 3e a5 97 4c bd
       0.14208421 0.12526849 0.18963808 -0.049949307
000310 3e 73 2d be 49 ee 36 be 5c 3f 25 be c0 85 f5 3c
       -0.16938493 -0.17864336 -0.16137451 0.029971004
000320 96 a9 0a 3d 65 2e 18 be 4b 2e 09 3e fe 1e 93 3d
       0.033853136 -0.14861448 0.13396566 0.07183646
000330 9f c2 87 3e 6e cb e2 be c2 03 12 be be b2 19 be
       0.26515672 -0.4429583 -0.14259246 -0.15009591
000340 48 f7 23 3e 76 f3 87 be 23 8f 96 be ff 13 0f bd
       0.16012299 -0.26552933 -0.2940608 -0.03493118
000350 15 3d 41 be ab d1 a1 bd c0 41 ab 3e a9 25 1a 3e
       -0.18870957 -0.07901319 0.334486 0.15053429
000360 8b b5 a4 3e 60 60 b2 be ed 59 a9 be 26 ab c4 be
       0.32169756 -0.34839153 -0.3307642 -0.38411826
000370 22 ac f1 3b 3a 58 cb 3d de f2 f8 bc 9e d9 52 3e
       0.007375256 0.09928937 -0.030389246 0.20590827
000380 af 7b 55 3d 18 69 6f 3e 80 13 da 3d 1e 97 ec be
       0.052119907 0.23379934 0.106482506 -0.46209043
000390 60 91 81 bc 65 1f 0d bd 0c 9b 67 3e bc e4 55 bd
       -0.01581639 -0.03445377 0.2261774 -0.05222009
0003a0 a4 0d b3 3e 64 43 e8 3d 1e 2a f9 3e d6 f1 81 bd
       0.34971344 0.11340979 0.48664945 -0.06344955
0003b0 6f 22 88 be 65 b4 df 3d 21 78 a3 bd 0f a6 10 3d
       -0.2658877 0.109230794 -0.07981897 0.035314616
0003c0 f3 66 92 3c 8f 84 ab 3e 98 17 b3 be 25 4c 85 3e
       0.017871356 0.33499572 -0.34978938 0.26034656
0003d0 0c 43 29 bd f1 5d cb bd 89 ec 41 bf 0a 1a b6 be
       -0.041323707 -0.09930027 -0.7575155 -0.3556674
0003e0 e9 bd 2f bd 82 8c 81 3c 39 0d 73 3e c8 79 01 3d
       -0.04290572 0.01581407 0.23735513 0.03161028
0003f0 42 15 c7 3e 10 a8 81 bd 46 c8 05 bf 59 91 9b 3d
       0.38883406 -0.063308835 -0.5225872 0.07596082

b1.bias f4 [32]
000000 06 68 b4 bd 8c 26 60 be 4d eb fa be 77 df 7b be
       -0.088089034 -0.21889704 -0.49007645 -0.24596964
000010 8e ef 1c 3f 76 82 02 be c9 06 33 be a3 06 7b 3c
       0.6130303 -0.1274508 -0.17483057 0.015321407
000020 43 5a 24 be 42 23 07 bf e9 39 cb be 3c ac 1d 3e
       -0.16050057 -0.52788174 -0.3969262 0.15397733
000030 27 7b b4 be 1f 71 b6 be c2 12 9f 3d 8a 89 4e be
       -0.35250208 -0.3563318 0.0776725 -0.20169654
000040 ed 68 32 be ea 15 27 bf 4f 05 39 be 1b 97 98 3e
       -0.17422839 -0.65267813 -0.18068431 0.29802784
000050 44 71 3b be e2 f0 ba be ba 61 15 3f f3 84 0c bf
       -0.18304926 -0.36511904 0.58352244 -0.54890364
000060 5b d9 58 bd 11 8c 45 be ec f8 d9 bd d9 f6 47 bf
       -0.05294166 -0.19291712 -0.10643181 -0.78111035
000070 69 2b 88 bd 8a f5 80 bc fb 57 d8 3d 8e de 17 be
       -0.06648905 -0.015742082 0.10563656 -0.14830992

b2.weight f4 [32, 32, 3, 3]
000000 90 ea 4c 3e 68 ad d7 3d ce 68 ea 3a ed 01 4a 3e
       0.20011353 0.105311215 0.0017884017 0.19727297
000010 e0 42 09 be d0 9a 94 3e cf ce 1b be b4 c7 a9 bd
       -0.13404417 0.29024363 -0.1521561 -0.082900435
000020 ea b9 fa 3d 2f 7f 9b 3e 76 29 8a bd d2 12 cb bd
       0.122424915 0.3037047 -0.06746189 -0.09915699
000030 3e 2d 18 be 36 78 0b be bb f0 3b be 2c 22 2b 3e
       -0.14861009 -0.13620076 -0.1835355 0.16712254
000040 35 02 6b 3d 97 f5 02 bf 5f d1 23 be c7 a9 4d 3e
       0.05737515 -0.5115599 -0.15997837 0.20084296
000050 0f b7 04 bf a2 f4 1c 3d 1c 20 94 be f0 b6 29 3e
       -0.51841825 0.038319238 -0.28930748 0.16573691
000060 d3 e2 60 be 0b 18 1b be 83 38 1b be 39 8d fb 3e
       -0.21961527 -0.1514589 -0.15158276 0.49131182
000070 7e a2 ae bd 11 97 fd 3d 87 a1 12 3f 43 cf 49 bd
       -0.08527087 0.12382329 0.5727772 -0.049269926
000080 b4 68 36 be 65 f9 ff bc ca f1 f5 be 6c e5 22 be
       -0.17813379 -0.03124685 -0.48036033 -0.1590783
000090 c4 7a 17 be c6 0a a2 3d 2a 4a 9d be 97 49 14 3a
       -0.14792925 0.07912211 -0.30720645 0.00056567177
0000a0 f0 ff 6d 3e 2c a3 ac be 9a ab 04 bf 8c 46 48 3e
       0.23242164 -0.3371824 -0.51824343 0.19558161
0000b0 07 df 7b 3e bb 37 1f 3f 0d 3e e3 be 2f 97 b0 bd
       0.24596797 0.6219441 -0.44383278 -0.08622586
0000c0 28 a8 87 be 97 f5 00 bd 50 25 ab be 4f c3 9c 3d
       -0.2649548 -0.031484213 -0.33426905 0.0765444
0000d0 fe 97 e9 3e 4c 49 3a 3f 1e 9f 37 3d 0b ab af be
       0.45623773 0.7276809 0.04482948 -0.34310183
0000e0 18 36 18 3e 00 46 7f be 20 67 93 bd 21 a8 b3 bd
       0.14864385 -0.24929047 -0.07197404 -0.087723024
0000f0 15 33 07 3e 29 e7 01 3e aa b3 ad be 18 fa b9 3e
       0.1320308 0.12685837 -0.33926135 0.3632362
000100 b4 b5 44 be 17 1e 06 be 17 1d ab bd 4e ef 48 3d
       -0.19209939 -0.13097416 -0.08355158 0.049056344
000110 b0 b3 2c 3d fd 20 ab bc 1b b1 14 3e 08 f5 69 be
       0.04216355 -0.020889753 0.14520685 -0.22847378
000120 0b ea 4d bd f8 98 90 be 3f 21 7b 3e be 3e 1b 3d
       -0.05027203 -0.28241706 0.24524401 0.037901632
000130 15 a0 dd 3b 8b 29 02 be 40 a2 ec bd 7a f3 30 3d
       0.006763468 -0.1271116 -0.11554384 0.043200947
000140 20 d9 a8 be 10 96 b9 be 25 28 b7 be f0 f0 7b be
       -0.32978153 -0.362473 -0.35772815 -0.24603629
000150 c4 a4 4d 3e 8a 9c 14 be ed 5f a2 3e 6c 7e e1 3e
       0.20082384 -0.1451284 0.3171381 0.44041765
000160 95 a5 98 3d 55 79 fe 3c 74 ed d6 bc ee 2e 3b be
       0.07453457 0.031063715 -0.026236273 -0.18279621
000170 32 f7 20 be b9 b4 39 be d9 70 5e be 3f 9e 30 be
       -0.15719298 -0.18135346 -0.21722735 -0.17247866
000180 dc 28 d4 3e 8d 26 93 3e ce d8 4b be ff 7e f6 3d
       0.41437423 0.2874035 -0.19906923 0.12035941
000190 25 c8 94 bd 01 d2 26 3e de 14 71 be 87 e3 20 3e
       -0.07264737 0.16291048 -0.23543116 0.15711795
0001a0 d9 2e 7f be a9 e1 bd be fd c3 3d 3e 21 89 34 be
       -0.24920215 -0.37086228 0.18531795 -0.17630436
0001b0 73 c9 ab be 31 bb 5a be 70 ef 5f 3d 0f 6a 0d 3e
       -0.3355213 -0.2136047 0.054671705 0.1380999
0001c0 02 f4 06 be b2 7c 51 be 7e 42 e3 be e4 ed e7 3d
       -0.13179019 -0.20457724 -0.44386667 0.11324671
0001d0 81 29 ae 3d 54 f5 a6 be 31 1c cd bd a6 73 02 bf
       0.0850401 -0.32609046 -0.10015143 -0.50957716
0001e0 9c a4 26 3c 24 9d 8a be 8f 68 11 3e 26 b1 bc bd
       0.010171082 -0.27073014 0.14200042 -0.09213476
0001f0 4b 07 ae bd d2 0b ab be fa 8e 7f 3e b8 5d 9e bc
       -0.08497485 -0.33407456 0.24956885 -0.019331798
000200 13 92 a2 bd c5 ca 16 3d 48 11 0b bf 07 03 34 3d
       -0.07938018 0.03681447 -0.54323244 0.0439482
000210 14 04 38 be 59 5b 80 3e e7 d3 b0 3d ab 2e 10 be
       -0.17970306 0.25069693 0.08634167 -0.14080302
000220 e8 e3 bd bd ab 83 17 be 4d 82 a2 3e 9c 81 00 bf
       -0.09271985 -0.14796321 0.31740037 -0.5019777
000230 94 b3 01 3e 39 b9 5c 3c 98 c1 5f 3e b4 8e a6 3d
       0.1266616 0.013471895 0.21851194 0.08132687
000240 c5 e4 9a 3e e6 f2 45 bd db 5b a2 bd 02 94 8a bc
       0.30252662 -0.04832735 -0.07927676 -0.016916279
000250 83 91 0b be 1c 45 40 3e d1 dc 3e bc 4f 2d a1 3e
       -0.13629727 0.18776363 -0.011649326 0.3147988
000260 7b 51 20 be 28 79 60 bd b5 e9 e9 bc 4a 8d 39 3e
       -0.15656082 -0.054803044 -0.028553823 0.18120304
000270 de 79 35 3e 2e 76 1f 3d 2b b0 cc 3d 15 2d 72 be
       0.1772227 0.038931064 0.09994539 -0.2365001
000280 d0 b3 d1 3d 6d 36 28 be 82 43 fc bc fe 59 ac 3d
       0.10239375 -0.16427012 -0.030793909 0.08415602
000290 7e b7 1a bc 01 94 06 be b2 4d 93 bd 63 fd a2 be
       -0.009443162 -0.13142397 -0.071925536 -0.31833944
0002a0 4d 1e 26 be 9d ed f0 bd 9b c4 0f bc 1b 5c 95 3e
       -0.16222496 -0.11764071 -0.008774902 0.29171833
0002b0 77 79 7a 3c 89 d9 86 bd 2e 71 6b 3d 1c b6 5d 3e
       0.015287749 -0.0658446 0.057480983 0.216515
0002c0 e0 3d 4f 3e 78 f5 b3 bd 7d 3d 6d 3d f8 00 5f bd
       0.20238447 -0.08787054 0.057919968 -0.054444283
0002d0 26 bd f1 bc 6b 8c 81 be 76 68 bd bc a8 2b 5f 3e
       -0.029509138 -0.25302443 -0.0231211 0.21793997
0002e0 e1 e8 f1 bd 3f b4 bb bc 7d 1a b2 be 04 fb 66 bd
       -0.11811996 -0.022913096 -0.34785834 -0.05639173
0002f0 2f 99 cf be 7a 00 8e be 6e 1f 18 be 57 11 be 3d
       -0.40546557 -0.2773474 -0.1485574 0.09280651
000300 e5 78 4b 3e bb 31 4a 3e 56 8b c7 3e 4f 0e 36 be
       0.19870336 0.19745533 0.38973492 -0.17778896
000310 d1 cd 9f be 58 7b 1f bd 83 3c b1 3e 85 a8 ad be
       -0.31211713 -0.03893599 0.3461648 -0.33917633
000320 e5 06 db 3d 7f 74 e7 3d b6 e9 fe bc 7a e8 34 3e
       0.106946744 0.11301517 -0.031117301 0.17666808
000330 9c f1 41 bf 67 74 b1 3e bc 59 e9 bd 41 af 8f be
       -0.7575929 0.3465912 -0.113940686 -0.28063396
000340 f1 da 05 be e7 5c 60 be 06 04 24 bd b4 4f ed be
       -0.13071801 -0.2191044 -0.0400429 -0.4634987
000350 0d 8d 48 3f cd d3 1d 3e 63 68 df 3d a1 05 24 3e
       0.78340226 0.15412827 0.10908582 0.16017772
000360 da 8e 87 3b b1 bd be bd 72 f7 81 bd e2 cf 41 3d
       0.0041369023 -0.093135245 -0.063460246 0.047317393
000370 ea b3 2c be 5d 83 b7 3a 77 66 b0 3e c1 b2 52 3e
       -0.16865507 0.0014000941 0.34453174 0.20576002
000380 fd 72 7c be 01 48 13 bd 95 8a 32 be 6f fe 93 3e
       -0.2465324 -0.03595734 -0.17435677 0.28905055
000390 7c 93 65 bc 2d 50 86 3e 98 ad be bd c0 11 bb bd
       -0.014012214 0.26233044 -0.09310454 -0.09134245
0003a0 d6 5b 49 be 3a 54 18 3e 29 ec ba 3d e6 39 2f be
       -0.19663939 0.1487588 0.09127075 -0.1711193
0003b0 99 28 93 3d a4 e6 34 3b 1a ec db 3d 8c 63 56 3e
       0.07185478 0.0027603293 0.10738392 0.20936412
0003c0 6c 03 f2 be b0 f9 99 be c3 39 5b be a8 8c 50 3e
       -0.47268236 -0.3007331 -0.21408753 0.20366156
0003d0 f3 74 43 be 74 8d d8 3e b9 b4 44 3e ce 92 02 be
       -0.19087581 0.4229542 0.19209565 -0.12751314
0003e0 0b 99 b5 be 14 06 68 3c b6 52 10 bf f5 87 0f 3e
       -0.35468325 0.014161605 -0.56376207 0.14016707
0003f0 b8 c9 9d 3d 2c 7f 0f 3e 0b 6c 89 3e a6 1a 93 bc
       0.077044904 0.14013356 0.26840243 -0.017957043

b2.bias f4 [32]
000000 7f d3 11 3e a1 fe 44 bf 5d c3 08 bf ad 70 2b bf
       0.14240836 -0.7695103 -0.534231 -0.66968805
000010 0d 74 2f be cb 43 10 bf f8 1e ba be 6a ae ea be
       -0.17134114 -0.56353444 -0.36351752 -0.45836192
000020 39 a3 c8 3e 51 03 96 3d e8 71 c6 3c b2 2b 9f be
       0.3918703 0.07324851 0.024224237 -0.31088024
000030 69 e3 a8 be cb 27 18 bf 6d 81 fc bd af 6b 30 3e
       -0.32986 -0.5943572 -0.123293735 0.17228578
000040 14 09 57 be 1d 57 cb be 84 a6 0d be d9 29 80 be
       -0.20999557 -0.397149 -0.13833052 -0.25031927
000050 dc a1 06 be 55 a4 92 3e b3 5c fe be d6 96 ba 3e
       -0.13147682 0.28641 -0.496801 0.36443204
000060 de 82 00 bf 13 36 8f 3e b8 d5 f1 3d b3 b5 ac 3d
       -0.5019969 0.27970943 0.11808342 0.08433094
000070 1a 92 2b bf c7 c7 f2 bd c1 55 ad 3e 5b f6 19 be
       -0.6701981 -0.11854511 0.33854488 -0.15035383

b3.weight f4 [64, 32, 3, 3]
000000 5e 12 86 be b3 bb a1 3c 01 fb b1 bc bb 43 1d be
       -0.26185888 0.019742822 -0.021726133 -0.15357868
000010 48 4b 82 3c 92 ad 43 be 3d 52 8c 3c 7c ba b9 be
       0.015905038 -0.1910918 0.017129058 -0.3627509
000020 ed 4c fc 3c 1b 54 70 3d be 96 7a be 87 2a 88 3e
       0.0307984 0.05867396 -0.24471566 0.26594946
000030 87 43 2d bd e7 f4 5c 3e 83 f5 a3 be ef e4 41 be
       -0.042300727 0.21577798 -0.32023248 -0.18934987
000040 8d 49 4e be 90 47 84 be ce 5a 4c be 01 76 35 be
       -0.20145245 -0.25835848 -0.19956514 -0.17720796
000050 ea 34 8f 3d e9 1c 1c 3e 14 6e c1 bd 49 a9 cc be
       0.069925144 0.15245403 -0.09444824 -0.39972904
000060 9c 36 10 3e f9 55 b9 3e 99 09 4f be c4 ab 51 bd
       0.14083332 0.36198404 -0.20218505 -0.0511892
000070 94 cf 69 be a4 f8 1b 3e 4e e7 8f 3d fe e7 8a 3e
       -0.22833091 0.15231568 0.0702654 0.2713012
000080 f2 ee 73 be 95 d7 91 3d 6a 7a 1f be 43 72 64 3e
       -0.23821619 0.07121197 -0.15574041 0.22309212
000090 68 3a 1c 3e 99 6f f3 3c b6 3a c5 3d 26 5d 26 bf
       0.15256655 0.0297163 0.09630339 -0.64985883
0000a0 58 34 00 3e 8b 9f 08 3f 74 39 b8 be 8d 89 a2 3e
       0.12519968 0.53368443 -0.35981333 0.31745568
0000b0 71 2e ef 3d a6 a7 10 be 33 c8 1f 3f 84 b0 36 3e
       0.1167878 -0.14126453 0.62414855 0.17840773
0000c0 97 b6 36 3e ab a6 88 be d6 dd 96 3e 32 27 22 be
       0.1784309 -0.26689658 0.29466122 -0.15835264
0000d0 4f e9 11 be 0f 7c b8 be 08 42 97 bd 94 d5 30 3d
       -0.14249156 -0.3603215 -0.07385641 0.043172434
0000e0 b7 1d 7a be da 83 ca 3d 7d 19 f3 3d f9 36 85 3d
       -0.24425398 0.0988843 0.11870096 0.06504626
0000f0 af 40 a0 bd 64 29 e5 bd 09 1e df 3c bc cd 62 be
       -0.078248374 -0.11189535 0.027236002 -0.22148794
000100 02 a3 7e bd 63 39 85 3e 11 ca fc bd 46 0e c5 3b
       -0.062167175 0.26020345 -0.123432286 0.0060136644
000110 f8 53 21 bf 71 e8 5f 3e f4 5d cb 3e 45 b0 4a be
       -0.6301875 0.21866013 0.39720118 -0.19793804
000120 f5 7d e7 bd 85 08 c7 3d 20 28 27 be b0 7c ba bd
       -0.11303321 0.09718422 -0.163239 -0.091058135
000130 e5 7e 96 3d 54 19 88 bd 6e 6f 63 3b c2 db a9 be
       0.07348422 -0.06645456 0.0034703868 -0.33175474
000140 90 2d c6 3e 5c 27 8d be 94 a0 42 3e 5c 7a 0c 3e
       0.38706636 -0.2756909 0.19006568 0.13718551
000150 8b 1a 8e bc dc a3 a1 3e 5f 0d 9c be f3 93 a0 be
       -0.017346641 0.31570327 -0.3047895 -0.31362876
000160 77 9f 25 bf 3e 95 34 be 59 e1 f7 bd 95 d5 b3 be
       -0.6469645 -0.17635056 -0.121035285 -0.35123888
000170 53 06 58 be a2 25 95 3d eb 28 de bb b3 08 01 3e
       -0.21096162 0.072825685 -0.00677978 0.12600975
000180 93 07 b6 be c0 a3 88 3d 05 7d 75 be e3 9f 40 3e
       -0.35552654 0.06671858 -0.23973472 0.18810992
000190 41 61 d8 3c 9d b8 44 bc 30 18 58 3e ef e4 c2 bc
       0.026413562 -0.012006906 0.21102977 -0.023790805
0001a0 2b 8e 13 3e 57 9a 01 bc 98 63 e5 3e 78 42 a1 3e
       0.14409702 -0.007910333 0.44802547 0.31496024
0001b0 5b 2e 8f 3d 04 12 ec 3d ac 5c 5a 3e 0e 4e 14 3e
       0.069912635 0.11526874 0.21324414 0.144829
0001c0 14 7c 04 be b9 e2 ef be 82 59 ed bd ad b1 7b bc
       -0.12937957 -0.46852663 -0.11589338 -0.015362185
0001d0 a8 5b ed 3d fa 94 1a be 14 4c b7 bd 7c a6 2d 3e
       0.11589748 -0.15095893 -0.089500576 0.1695804
0001e0 4f 5c 04 bc 23 d7 f1 3e c2 2e 8c 3e e8 77 7f 39
       -0.008078649 0.4723445 0.27379423 0.00024363364
0001f0 38 e9 4a bd f8 83 72 3e ff a6 4e 3e 7c 15 90 be
       -0.04953882 0.23683155 0.20180891 -0.2814139
000200 8f 83 80 bc 53 18 3d 3e 28 5f 13 be 06 8e 43 3e
       -0.015687732 0.1846631 -0.14391768 0.19097146
000210 7a 75 60 bd 5b 1b b5 bd 50 5c 20 bf ef 68 13 be
       -0.054799534 -0.08843108 -0.6264086 -0.14395498
000220 03 79 60 be 49 c0 30 3e 4c 86 a4 bd 9e c6 6d be
       -0.21921162 0.17260851 -0.080334276 -0.23220298
000230 f9 d5 2e bf 76 b7 82 be f0 e7 8f bd de 48 ce bd
       -0.68295246 -0.25530595 -0.070266604 -0.10072492
000240 46 52 60 3e 24 ad be be 46 d7 8f be 05 41 a9 3e
       0.21906385 -0.3724147 -0.28093928 0.33057418
000250 45 24 df be 34 48 c3 3d 09 e2 3f be ad 09 83 be
       -0.4358236 0.09535256 -0.1873857 -0.2559332
000260 8c 82 ec be 2b 4a 38 be 4d da 12 3d 22 a4 b5 3e
       -0.4619335 -0.17997043 0.03585272 0.35476786
000270 4b 18 a5 3d 3f ce 58 3d 74 48 87 be 45 04 b2 be
       0.08061274 0.052931067 -0.26422465 -0.34768882
000280 6b 5b 77 bc 7a 12 07 bf a6 db c1 3e 75 63 cc 3d
       -0.015097479 -0.5276257 0.3786289 0.099799074
000290 5c 98 8d 3d e5 89 e6 bc 99 f1 a8 be 73 a5 29 be
       0.06913826 -0.028141925 -0.32996824 -0.1656702
0002a0 e7 15 59 be 51 d8 90 be 93 b3 dd bd 1f 56 1f 3e
       -0.21199761 -0.28290036 -0.10825267 0.15560196
0002b0 1f ba 78 be ee c3 10 bd 03 ea eb bc 73 7c e3 be
       -0.2428975 -0.035343103 -0.028798109 -0.44430885
0002c0 ca 35 d4 3d c8 5e f3 bc 73 6b 0f 3d ec 25 16 be
       0.10361822 -0.029708281 0.03501458 -0.14662904
0002d0 ab 03 0f 3e f8 67 6d 3d 94 f9 c0 bd 2b fd 8e 3e
       0.13966243 0.05796048 -0.09422603 0.27927527
0002e0 0d 03 15 be ba 11 34 3e c0 b3 68 be ff c5 8d 3e
       -0.14551945 0.17584887 -0.22724819 0.27690122
0002f0 23 a9 2a bb 14 10 b1 bd 43 68 53 be 87 e0 79 bc
       -0.0026040755 -0.08645645 -0.20645241 -0.015251285
000300 21 6f ba be c4 8a e3 3d a3 14 f4 3d 5b 54 91 bd
       -0.3641291 0.11110452 0.11917999 -0.07096168
000310 46 29 47 3d e2 a3 e3 bd eb 66 d7 be 8a 71 5f be
       0.048623346 -0.111152425 -0.42070708 -0.21820655
000320 7e 2a 57 3d 47 18 35 3e b7 3d 2d 3e 5e 33 9a bd
       0.052530758 0.17685042 0.16918074 -0.07529329
000330 3d 42 f3 3d d6 88 57 be 4b 5e 5e be f7 9d 11 3d
       0.11877868 -0.21048293 -0.21715657 0.035551038
000340 2a 48 b5 3d f3 ff b9 be 04 a0 8b 3d 2f 89 2b be
       0.08851655 -0.36328086 0.0681763 -0.1675155
000350 c4 8f 0a 3d 3a 62 82 3d f3 33 b5 be 24 54 0c 3e
       0.03382851 0.063663915 -0.35391197 0.13703972
000360 3d 7d d5 bd 8f 3b 0c be 43 8a a0 3d 97 53 15 3d
       -0.10424278 -0.13694595 0.07838871 0.03645667
000370 47 c6 94 be 43 86 4c bb d6 48 71 3c 34 6f 4a 3e
       -0.29057524 -0.0031207956 0.014726838 0.19768983
000380 fe af b3 bd 5f 12 fe b9 6e ca 13 be 37 05 8c 3e
       -0.08773802 -0.00048460343 -0.1443269 0.2734773
000390 7e 46 14 3f fa f1 d3 3d 9c e4 69 3e 27 92 15 3e
       0.5792006 0.10348888 0.22841114 0.14606534
0003a0 41 0a 5f 3e 50 1d 5c 3d cc 32 1f 3e 72 f8 a4 3d
       0.21781255 0.053738892 0.15546721 0.080552
0003b0 02 48 87 3d aa bd c6 bd fe 76 7d 3e 52 79 9c 3e
       0.06605531 -0.09704144 0.24752423 0.3056131
0003c0 f4 3a 28 be 27 fc 0d bf 10 65 34 3e 58 8c b0 bd
       -0.16428739 -0.5546288 0.17616677 -0.086205184
0003d0 d0 5e 01 be 93 b8 d2 bc 18 3b f8 3d 84 5c cb ba
       -0.12633824 -0.025722777 0.12120646 -0.0015515243
0003e0 97 63 94 3d f2 22 96 bb 3d b8 9f be b9 ef ab 3e
       0.07245558 -0.0045818025 -0.3119525 0.3358133
0003f0 f3 28 e1 bc ee 57 07 3d c1 e4 6f 3e f6 38 72 bd
       -0.027485346 0.03304284 0.23427106 -0.059136353

b3.bias f4 [64]
000000 22 d9 07 3e f6 55 de 3d 32 70 a5 bd 79 59 08 bd
       0.13266423 0.108562395 -0.0807804 -0.033288453
000010 81 4a 2e bc 5e cf 89 be 5c c3 9c 3d 78 75 b0 3d
       -0.01063788 -0.2691602 0.07654449 0.086161554
000020 f5 19 b1 be 4d bb 41 be 99 dc 58 be d9 22 38 3e
       -0.34590116 -0.18919106 -0.21177901 0.17982043
000030 e0 28 58 3d 63 a9 72 3e e7 19 66 be f5 1f bf bd
       0.052773356 0.23697428 -0.22470818 -0.09332267
000040 f6 26 90 bd 64 ab 96 3b 6e 33 64 bc 48 3c 3e 3e
       -0.07038681 0.004598068 -0.013928277 0.18577683
000050 8d bb 86 bd a5 f1 af be 07 75 6f bb 3c b2 64 3e
       -0.06578741 -0.34364048 -0.003653826 0.22333616
000060 e4 d3 5e 3e 2f 7d 8f be 51 71 08 bf 31 7f e3 bd
       0.21760517 -0.28025195 -0.5329791 -0.11108244
000070 69 4c c5 3e d0 e2 ff bd a1 0b 81 3d 5b 38 b9 bd
       0.3853486 -0.12494433 0.06301046 -0.09043952
000080 d8 2a 49 be 1e 5d c3 bd 9b 59 9d bd 48 e7 e8 3d
       -0.1964525 -0.09539245 -0.076831065 0.113722384
000090 ea 1f d9 bd 62 82 a7 be 5c 5b 19 3e b8 f9 8d bd
       -0.1060179 -0.32716662 0.14976257 -0.06932396
0000a0 d2 3f a4 3d d4 54 6b 3d 4c 37 92 3e 79 99 bf 3e
       0.08019985 0.057453945 0.28557813 0.37421778
0000b0 18 45 f1 bd 6e 31 fb bd 30 c8 20 3e 74 46 27 be
       -0.11780757 -0.12265287 0.15701365 -0.1633547
0000c0 31 4d 95 be 59 94 82 be 7b c8 27 bd 73 56 89 3c
       -0.29160455 -0.25503805 -0.040962677 0.016764855
0000d0 f2 04 d1 bd e9 d2 c8 3d 54 c1 04 3d e3 20 d5 bd
       -0.10206021 0.09805853 0.032410935 -0.10406663
0000e0 bd 4c 15 3e 66 c5 49 3e ee 53 e4 bd 5b c6 eb bc
       0.14580055 0.19704208 -0.11148821 -0.028781107
0000f0 22 0d 83 be 36 e7 a1 3d b1 98 4d bd 4a fb 05 bf
       -0.25595957 0.07905428 -0.050194446 -0.5233656
