nets/model_epoch_0.pth (torch, 648764 bytes, 25 tensors)

a1.weight f4 [16, 5, 3, 3]
00000000: 4240 7f3d aff8 8a3d a9cd babd 1221 8a3d
00000010: 2318 cfbd b64e 283d 884f cf3c c76c ca3d
00000020: 6e36 39be e88d 583b 5b9a 863c 1bb2 dcbd
00000030: 8399 abbd 47e7 26be 16fa 20be ace7 46bd
00000040: 4c32 17be 18c2 12be 0752 223c 6f2e 0dbe
00000050: bf83 9abd dbad 49bd ff1c 61bc d929 933d
00000060: 5815 893b 47a6 92bd 2544 713d 30eb 19be
00000070: 8601 29bd 3b4e a53d a0ff 6abd 3ca4 ce3d
00000080: 2ad5 91bd 7a0b d3bd 1201 88bd ef76 4abd
00000090: b9c0 f1bd c898 b7bc b23b e8bd 2dda a93c
000000a0: bb2b 04be d417 c1bd b9cb 143c f0ba c9bd
000000b0: 0347 3abd 1c41 773d 9c86 d7bd a4a8 bcbd
000000c0: 0e1c 593e dc5d 683d d7cc 2e3e 144f 483b
000000d0: f530 153e 2993 0dbe a6d9 303d 6169 143e
000000e0: 43d0 7d3d f94c 9b3d 1b8e a13d 4949 0d3d
000000f0: bcca 2b3e e98c d7bd 7d8e 77bd 7b80 d93d
00000100: 23ae 03bb ba5a 15be 2190 493e de53 b23c
00000110: e906 26be 3e20 06be 520c 35bd e524 2cbd
00000120: 9030 833c b669 2ebe c6a3 03be 38b8 373b
00000130: aa20 183e 1736 043d 4a8e 7d3d 187a 583d
00000140: 1a03 65be 163c c93d 71fb 703d 6211 293b
00000150: c449 c53d 9873 a4bc 97a2 9cbd 81dc 86bd
00000160: e20d f1bd 0005 aabc ed79 10be 2f02 073d
00000170: c168 3f3e ec07 983d 9ae5 273e b73e 8c3c
00000180: a666 5a3e 2cbe 6e3e 1c10 75bd c3b8 293e
00000190: aebc 2c3e 133d 373e 4edc e5bc d9c6 41bd
000001a0: b71d 953d 1dfe 503c 9944 eabd b103 713d
000001b0: d1b1 2b3e 5d5f 613e c4e3 8c3d e9c6 fe3c
000001c0: d74d aebd 114f 733d aa0e 99bd 2c95 86bd
000001d0: 209c 093d abcc 3b3d b9a8 0fbe 93ef dfbd
000001e0: 039c 0d3d acbe 0cbe c2c1 c23c 0234 943c
000001f0: ff91 233d fc58 14be 1ed5 43bd bfc2 993d
00000200: a5d2 913d cc5b 03be a70d c73d bc35 03be
00000210: d524 25bd b756 9dbc 5a93 da3d 77a0 e93d
00000220: ea89 363d c366 bebd 3466 263e bb49 e73d
00000230: 6d0b 1ebd a715 91bd 14ec f3bd 559c 1f3e
00000240: c31b f1bd 0a65 1fbe 4820 acbd f6ee 48be
00000250: 92f0 f6bd 246d bebd 64fa fb3b 260e f2bc
00000260: d171 a2bb dcff 2d3d 5d96 1d3d 029d 683d
00000270: abb7 c9bd 719a 1fbd f4a4 f7bd aaee 24be
00000280: 5718 c2bd 528b 533e 8c76 0d3e 1416 523e
00000290: c9d5 2f3d f5b0 c73d bed2 05bd 0f68 6a3e
000002a0: 889c 343e 4b94 cbbc a7d4 dfbd 6364 393b
000002b0: 4112 bc3c aa77 913d 39cc 86bc 6d21 90bd
000002c0: b632 e1bc 0db3 bc3d 583a 40bd aecd 953c
000002d0: 6b7b 053e 1bf5 e33d b41c 20be d43d 813d
000002e0: bbce b03d f2e9 1a3e 65ae 9abc b649 f43d
000002f0: 809f 223e be2e c73d 1828 c1bd bbfe f1ba
00000300: e0da c2bd f64b 4fbc 85eb 22bd 6e55 a63d
00000310: 251d dbbc 002f 91bd 53df 2d3d 0d79 543d
00000320: 91d9 303e 7c45 093d aad0 05bc 99ab bfbd
00000330: d07a 13be 6022 113e 33ed d5bd a215 28bd
00000340: 0b5c 67be 2b76 4dbe dd35 e03d 909c e43d
00000350: fd8a 0bbe 8e40 79bd 14d0 3ebd 2bc7 173d
00000360: 963e c53c f19f b63d 7d2e 29bd f55b 1b3d
00000370: e57c acbd 14a4 a5bc a93e 833a 451d f13d
00000380: af61 e3bd 45df c6bd 9b30 d3bd 5fcf 4e3e
00000390: 35a4 9abd 022b 8cbc d57d 7a3d efcf 0e3e
000003a0: 939a e0bd 8e08 253e b45b 74bd 06a3 383e
000003b0: 80e7 3f3e 3a9d 93bd 0e97 933c 4383 04bd
000003c0: b7c4 483d 92fe 253e 3301 56be 4774 e63d
000003d0: 189e cb3d d100 bf3d 87e9 ecbd 22fb 233e
000003e0: a1a3 22be ce90 d7bd 30d2 59bd f79e bebd
000003f0: 6ef8 243e 70da 3a3d d840 fb3c 8e66 753d
0.06231714 0.06785714 -0.09121258 0.06744589 -0.101120256 0.04109069 0.025306478 0.09884029
-0.1808717 0.0033043567 0.016431024 -0.107761584 -0.083788894 -0.16299163 -0.157204 -0.048560783
-0.1476528 -0.14331853 0.009907252 -0.13787244 -0.0754466 -0.049238067 -0.013739823 0.07185716
0.0041834526 -0.07160621 0.05890288 -0.15031123 -0.04126122 0.08071562 -0.05737269 0.10089919
-0.07120736 -0.10304923 -0.06640829 -0.04942983 -0.11804337 -0.022411719 -0.11339511 0.020733917
-0.12907307 -0.09428373 0.009081774 -0.098501086 -0.04547788 0.060364828 -0.105237216 -0.09211853
0.21202108 0.056730136 0.17070328 0.0030564712 0.14569457 -0.13825668 0.043176316 0.14493324
0.061966192 0.07583041 0.078884326 0.03449372 0.16776556 -0.10524923 -0.06043862 0.10620209
-0.0020092807 -0.1458539 0.19683887 0.021768507 -0.16213574 -0.13098237 -0.044201203 -0.042027373
0.016014367 -0.17032513 -0.12855443 0.0028033387 0.1485621 0.032278147 0.061903276 0.052850813
-0.22364464 0.098259136 0.058833543 0.0025797714 0.0963321 -0.02007465 -0.07648199 -0.065850265
-0.11770226 -0.020754337 -0.14109011 0.032961067 0.18692304 0.07423386 0.1639618 0.017119749
0.2132822 0.23314732 -0.059829816 0.16574387 0.1686885 0.17894392 -0.028059151 -0.047308777
0.07281058 0.012755898 -0.11438865 0.05884141 0.1676705 0.22009034 0.0687938 0.031100707
-0.085109405 0.059401575 -0.074735 -0.06571421 0.033596158 0.045849483 -0.14029206 -0.10934367
0.034572612 -0.1374461 0.023774032 0.018091206 0.039934155 -0.1448707 -0.047810666 0.07507848
0.071202554 -0.12827986 0.09719401 -0.12813467 -0.04031833 -0.019206388 0.10672636 0.11407559
0.04456512 -0.09296944 0.16249925 0.1129336 -0.038585115 -0.07084208 -0.11910263 0.1558698
-0.11772873 -0.15565887 -0.08404595 -0.19622406 -0.12057604 -0.09298161 0.007689761 -0.029547762
-0.0049574156 0.042480335 0.038473476 0.05679036 -0.09849485 -0.038965646 -0.12092009 -0.16106668
-0.09477299 0.20658615 0.13814753 0.20516235 0.04292849 0.09750549 -0.032671683 0.22891258
0.17637837 -0.024850985 -0.10929232 0.0028288595 0.022957923 0.07102902 -0.016454803 -0.070376255
-0.027490001 0.09213839 -0.04693064 0.018286552 0.13035361 0.111307345 -0.1563595 0.06310621
0.08633181 0.15128306 -0.018881986 0.11928122 0.15881157 0.09725712 -0.094314754 -0.0018462756
-0.09514403 -0.012652388 -0.03977539 0.08121763 -0.026747296 -0.07089043 0.042449307 0.051873256
0.17270495 0.03351353 -0.008167425 -0.093589015 -0.14402318 0.1417327 -0.10445633 -0.041036256
-0.22593705 -0.20064609 0.109477736 0.111626744 -0.13627239 -0.06085258 -0.046585158 0.037055176
0.024077695 0.08917225 -0.0413041 0.037929494 -0.08422259 -0.02021984 0.0010013181 0.11773161
-0.11102616 -0.09710554 -0.10312005 0.20196293 -0.07550851 -0.017110351 0.06115516 0.13946508
-0.10966983 0.16116545 -0.059657767 0.18030939 0.18740654 -0.07207723 0.018016364 -0.032351743
0.049015727 0.16210392 -0.20898895 0.11252647 0.09942263 0.093263276 -0.11567979 0.16013768
-0.15882732 -0.10525666 -0.053178966 -0.09307664 0.16110393 0.045618474 0.030670568 0.059912257

a1.bias f4 [16]
00000000: 29e6 f83d b44f 2ebd f8dd 85bd d138 c3bd
00000010: 7e14 b73d 70ca 2fbd cde7 1c3d df99 81bd
00000020: 4d4c bdbd ffaa ef3d 70b0 8b39 f87c dd3d
00000030: 6504 23bc fdbd 54bd 696e aa3d 8efd d03d
0.121532746 -0.04255648 -0.06536478 -0.09532321 0.089394554 -0.04291767 0.038307 -0.06328177
-0.09243069 0.11702537 0.00026643602 0.108148515 -0.009949778 -0.051939 0.0832184 0.10204612

a2.weight f4 [16, 16, 3, 3]
00000000: b109 793d bd11 b9bc 1a28 03bd 3951 07bc
00000010: 3490 d43d f4ba 15bd 8ccd f13c 140c f5bc
00000020: 223e 43bd 0c51 5fbb 0159 2bbd 1780 5abd
00000030: f832 5a3d e0da b23d 06c6 e0bd 7861 89bd
00000040: e821 3ebd fff2 b73b bc04 07be 5a78 90bc
00000050: acd8 41be 466b 58be a5a7 44bd aabd 56bd
00000060: 0599 a5bd f2a0 4ebe 5596 9b3d cd8b 01be
00000070: d9c5 183d 6561 15bd deff 003e bb69 b1bd
00000080: 61dd a53c 0e25 d63d d619 e13a dc69 01bd
00000090: c446 bfbd deda 43be ec51 753c 6602 2dbd
000000a0: 8f39 e43c ffcc cfbd bb41 03be da0b 8cbd
000000b0: db4f 85bd 2fc7 04bd c2d0 363c 76ae 2dbd
000000c0: c0aa 543d 3bb1 803b be00 b33d b5a0 fcbd
000000d0: 71dc b23d 4e88 ac3d 9418 52bb fa3e b7bc
000000e0: c93f 2f3e f564 003e 6879 5e3d d77e f03d
000000f0: ddcf 1b3e d417 0abd b20a d1bc d76f 373d
00000100: 547e 59bd 5c77 e4bd b324 84be 37b3 a53c
00000110: 3449 efbd 685a 9dbd b770 b5bd ad74 8a3d
00000120: aead 083e 3c6d 9b3d 41e4 8a3b f80e 7a3d
00000130: 9a4a dbbc 14d0 c73d 0afc f7bc 6659 143e
00000140: fde3 16bd ae77 b6bb 2739 f43b 310a e23c
00000150: b1cd 1cbe 594e 963d 4b77 863d 6ef2 6f3d
00000160: e39e 863d 48ff 283d 24f3 1abe 7918 4d3d
00000170: 137d afbd 6ea2 b13c a726 c73c ea82 9dbd
00000180: 5826 8d3d b68b c0bd 2fb9 5e3d ad21 e4bd
00000190: 586b 9839 2753 a33b c3dd 90bd c5b3 13be
000001a0: a4d1 753d c635 6d3e 605e 6539 420d acbd
000001b0: e859 acbc b859 c7bd 4aa2 573d 6a5d 013d
000001c0: 275d 3a3e f114 27be 46e6 2c3e 9a11 6e3d
000001d0: 9a0f 9fbd aa97 84bd 8014 21bd f38a f6bd
000001e0: 9ab6 633c b69a 503e 5882 023e dc22 1f3e
000001f0: 660e 25bd bc2e 433d 1c13 01be 2518 acbd
00000200: 0b8c 52bd 24af a5bc 4e3f 8cbd b7b6 e4bd
00000210: 1bce 0dbe 7602 eebc 9bcd ecbb 62c9 a8bd
00000220: 7106 11bd a1b5 fa3c 6759 99bd d965 45bc
00000230: 15d8 bc3d 4988 7dbd c4ee a93a ee3d 983d
00000240: 1843 83bc 9b1b 703c b94f afba 2f8f 5e3d
00000250: 7f90 48bc e71a 70bd 59f5 aa3d c09e e1bd
00000260: 568d 49bc 4f32 683d f6d5 423d d4f4 7d3d
00000270: 14ff b23d 9e27 7bbc 4a21 853d af98 9f3d
00000280: 85d3 b63d 8156 f13d 84ed 953d 13e3 223d
00000290: dd39 b53d 991f 803d 13da d63d ca91 9b3c
000002a0: e49f 783d 4430 cc3b 1cd9 6a3a f14b 8dbd
000002b0: faae b33d 6d3d 6a3d 3e4d a0bd 0ab1 e7bc
000002c0: c83f 7eba f3d3 0fbd 619e 8cbd fd2b 2d3d
000002d0: 61be 833d ce5b b1bc 146a 9c3d 11e3 b23d
000002e0: 3a07 c7bc 5d97 4cbc a6c5 1e3d 847c 1b3d
000002f0: 38a9 803c 0d89 d0ba d5ed 5d3c 8d63 a03d
00000300: b0a1 33bb 2fc9 24bc e353 273d 6ee6 a73d
00000310: 07e7 813d 6ada fcbc 6c00 0fbe b3a9 bebc
00000320: 9645 b8bd 0db5 42bc c7f4 0d3d 154d 8dbc
00000330: dfbc a9bd ae94 f4bc c8f4 a43d a6d4 c23d
00000340: 4522 8d3d 3910 2c3e bf7e b1bc ab7b 833d
00000350: 749b 31bd 108c 3c3d 5715 193d 2cb2 333e
00000360: ffd8 533d 5c82 29bd 5d36 e1bc 2583 ccbd
00000370: 1c62 bdbb aefd 81bd 1186 04be a386 9a3d
00000380: 081e 3f3d 223f 973d 618d a53c 78f4 873d
00000390: 3edb 07bd 762a 94bd c4ba 913c 2c59 bebc
000003a0: 88d9 b0bd f26b 75bd 6bac 213d 4317 013d
000003b0: fd02 28bc 3d70 3fbc 0b6a cfbd 4000 563d
000003c0: b2f3 71bd 63fe 8bbc 5b25 58bd 7081 11bd
000003d0: fad2 1b3e 01e7 d13d 8eed 1e3c c807 88bd
000003e0: 0dc2 ce3b b372 4abd 5b64 02be 6bdd f3bd
000003f0: 1d06 3c3d ff71 073e ecc4 953c caf2 ddbd
0.060800258 -0.022591466 -0.032020666 -0.008259111 0.10379067 -0.036555246 0.029516958 -0.029912986
-0.047666676 -0.0034075407 -0.041832928 -0.053344812 0.053271264 0.08733153 -0.1097527 -0.06708044
-0.046419054 0.005613684 -0.131854 -0.017635513 -0.1893031 -0.21134672 -0.04801144 -0.05242697
-0.08085827 -0.20178583 0.07597033 -0.12650986 0.037298057 -0.036469836 0.12597606 -0.086627446
0.020247163 0.10456286 0.0017173837 -0.031595096 -0.09339669 -0.1912646 0.014973145 -0.042238615
0.027859477 -0.10146522 -0.12818043 -0.06838198 -0.06509372 -0.03241652 0.01115817 -0.042402707
0.051920652 0.0039273775 0.08740376 -0.1233534 0.08733452 0.084244356 -0.0032058107 -0.022368897
0.17114176 0.12538512 0.054315 0.11742943 0.15216012 -0.03371413 -0.025517795 0.044784393
-0.05309899 -0.111555785 -0.2580925 0.020227058 -0.11683884 -0.07683259 -0.08859389 0.067605354
0.13347504 0.07589194 0.004238636 0.06104943 -0.026768971 0.09756485 -0.030271549 0.14487228
-0.03683852 -0.005568466 0.007453102 0.02759275 -0.1531284 0.073391624 0.06565722 0.05858081
0.06573274 0.04125908 -0.15131813 0.050072167 -0.08568778 0.021683898 0.024310423 -0.076909855
0.06892079 -0.09401648 0.054375824 -0.11139236 0.00029071677 0.0049842778 -0.07073548 -0.14424045
0.060014382 0.23165044 0.000218743 -0.08400966 -0.021038964 -0.09733909 0.052645005 0.031583227
0.18199597 -0.16316582 0.16884717 0.058122255 -0.07766648 -0.0647424 -0.03932619 -0.12038221
0.013898516 0.20371518 0.12745035 0.15540642 -0.040296935 0.04765199 -0.12604946 -0.08403043
-0.051403087 -0.020225115 -0.06848012 -0.111676626 -0.13848154 -0.029053908 -0.0072266585 -0.08241536
-0.035406534 0.030604186 -0.07487755 -0.012048208 0.09220902 -0.06189755 0.0012964834 0.07433687
-0.016023204 0.014655019 -0.00133752 0.05433577 -0.012241482 -0.058619406 0.083475776 -0.11016607
-0.0123017635 0.056688603 0.04756733 0.062001064 0.087400585 -0.01532927 0.0650049 0.07792794
0.08927063 0.117840774 0.07320693 0.039767336 0.08848927 0.06256027 0.10490813 0.018990416
0.06069936 0.0062313396 0.00089587434 -0.0689925 0.087736085 0.057187486 -0.07827233 -0.028282661
-0.0009698835 -0.03511424 -0.06866146 0.04227828 0.06432796 -0.021650221 0.0763742 0.08734716
-0.024295438 -0.01248726 0.03876271 0.037960544 0.01570569 -0.0015909985 0.013545473 0.07831488
-0.0027409606 -0.0100577315 0.040851485 0.08198248 0.06342893 -0.030865867 -0.13965005 -0.023274278
-0.089976475 -0.011883986 0.034657266 -0.01724867 -0.082879774 -0.029856052 0.08054501 0.09513216
0.06891302 0.16803063 -0.021666883 0.06420072 -0.043361142 0.04603201 0.037373867 0.17548436
0.051720615 -0.041384086 -0.027491743 -0.09985951 -0.005779518 -0.06347214 -0.12941767 0.07545211
0.0466595 0.073850885 0.020209016 0.066384256 -0.03316807 -0.07234661 0.017789252 -0.02323588
-0.08635241 -0.059917398 0.03947107 0.031516325 -0.010254619 -0.011684475 -0.10127648 0.052246332
-0.059070297 -0.017089074 -0.05277 -0.03552383 0.152172 0.102491386 0.009700192 -0.06642109
0.0063097537 -0.049425792 -0.12733595 -0.119074665 0.045904268 0.1322708 0.018282376 -0.10837324

a2.bias f4 [16]
00000000: 4ed6 0fbd c770 37bc 0d26 44bd 370a 23bd
00000010: ef20 243d 221d fbbb bed0 33bb a3e9 f1bc
00000020: 4312 473d ad3c 2cbd d4d0 de3c 06e2 b53c
00000030: f992 94bd e7b4 bc3b bd01 5f3d 8a3f 413c
-0.035116486 -0.011196322 -0.04788785 -0.039804664 0.04007047 -0.007663385 -0.0027437652 -0.029530352
0.0486014 -0.042050052 0.027199186 0.022202503 -0.07254595 0.00575887 0.054445017 0.011794934

a3.weight f4 [32, 16, 3, 3]
00000000: 648b 19bd 061f 043e eecb 9ebd 6e88 cabd
00000010: 040b 1b3d 3500 1dbd 33a9 90bd ae5f 183d
00000020: 980d 133d bc4a 95bc e2a0 07bc c80a 88bd
00000030: 0e53 a2bd d20f 1c3d b3b0 863d 49b8 0bbe
00000040: edfe c3bd be78 75bd 6ca4 3a3b 35b4 df3d
00000050: dde1 a53d b178 973b 7c83 e73c efd1 33bd
00000060: 2214 67bd d2b9 c2bd faaf b23c 5e7d 753c
00000070: 2bb8 d5b9 ba3e b4bc bda1 fa3c a375 8c3c
00000080: b36f 003e 87c8 df3d 789f a8bb 27ca 6abc
00000090: 4d83 613d 04f8 fe3c fedb c4bc d531 2b3d
000000a0: f8f7 523d 2a31 2f3d 5176 223d 6adc 72bd
000000b0: 9816 aabc b35a 433c d22a 0fbd 6475 cdbd
000000c0: 3eee 953d 2039 7eb8 5b6e dc3c a024 7dbd
000000d0: af80 bf3c c867 96bd 8dee a03d db5e de3b
000000e0: 4386 b2bd 1082 593d 6e94 b63d a9ec 72bd
000000f0: 95e4 423d 1bdc f93d 0fa8 d63c d9ef ac3c
00000100: 016f 843d 0ae7 ad3d 66e3 a33d ffbd 0b3e
00000110: a2a5 0d3d 2c01 033d 37f1 cbbc 8435 063d
00000120: 5566 cb3d 9219 37bd 8e0a 77bd 7e37 013d
00000130: 1c2c 893d d0a0 c8bc ac9b 60bc 859d 01be
00000140: 0ac0 94bd 46fc 2e3d a07b 223e 5856 943c
00000150: 8bcc 963d 8ed2 8fbd 39b6 36bd ab3d a3bd
00000160: 8381 e1bd 9f42 da3c 8715 0f3c 40c7 ae3d
00000170: abf9 a13c 68bb 383d fd50 65bd 0c3f 48bd
00000180: beb8 653b fc96 adbd 4814 52bd 3a8b e5b9
00000190: 35b3 2cbc 5e21 253d 690f 64bd c341 dc3d
000001a0: d66a 2dbc 9661 7a3c 2f6c 673d df62 04bc
000001b0: 7984 0ebd cd9d eabd acd0 893d 929f c73c
000001c0: 80c2 85bd 8428 dd3d bf31 57bd 4c0c 1ebd
000001d0: a119 9d3c 72b1 693c 2808 06bd 68c8 88bd
000001e0: 09ea 37bc e074 9dbd 257f d6bd 53be a73d
000001f0: 18cd e0bc 9e85 38bd 056b 0c3e ded9 703b
00000200: d0b7 e0bd d23b 23bd 9284 9f3d 9ec8 d2bd
00000210: 34d3 9d3d 787c 083d 3801 19bd 048a 843d
00000220: 2035 303d 9dd8 10bd 4b42 233d 24a2 76bd
00000230: 825b 45be 181b 0e3b e796 313d 95d3 3c3d
00000240: c233 893d 850a 1dba f5e5 123e 5982 9b3c
00000250: 37de 4ebd d860 8f3d 32d2 67bd 505a 13bd
00000260: 3ea3 cfb9 a58a 14bd 20a3 ebbd f26f 103d
00000270: dafb 26bd 63c7 aebd 1bc5 2abc bd13 0a3c
00000280: 67a1 df3d 8395 4c3c 12ac b5bd 2828 ed3c
00000290: 4589 923b 3c76 e33d 1cbc d1bd 3b4b c5bd
000002a0: 4114 c0bd 3bbf 343d d091 5bbd 07ee 7a3d
000002b0: d6a9 02be 0ca7 54bc e4b3 e8bc 9685 aa3a
000002c0: 8b2e 5a3d 6999 f2bc 0882 2ebb 4f80 9e3d
000002d0: 73ed 97bc 992b 1abe a30a bcbd b96d bfbd
000002e0: 99e8 febc 1b33 b43c c264 5a3c de46 fbbc
000002f0: 9873 443d b163 8f3d d4dd 173d 1005 c53d
00000300: aae4 283e ec0d aebd 1c98 a33d 41b8 14be
00000310: f400 863d 3a6c 363d 5f60 a8bd 1ed6 bbbd
00000320: e8f4 80bb 4340 41be a505 6c3a 6720 4e3c
00000330: aeff 0a3d 7be0 ca3d 9733 8e3d 97b3 003c
00000340: 537f 90bd 7330 7f3b 81e6 bb3d 9528 e33d
00000350: 3a3b 2c3d 7096 2dbd 2c6e 9a3d 0e67 863d
00000360: 6c87 a63b acf9 523d 66db 53bc d680 9cbd
00000370: 853a 53bd a157 1cbe 3bf5 e6bd 908b cb3d
00000380: 5ca7 dbba 51a9 233d de64 0abd 3247 ab3d
00000390: 104b 6dbc 8786 d3bd dc1c 84bd 4eda 39bc
000003a0: 868a 2e3d 93d5 2e3d 7221 8c3d c000 d9bd
000003b0: a388 0c3d ff85 06be 526e 0f3c 2db6 cebd
000003c0: aa33 d6bc 8923 0cbe 3d6f 8ebd 90f5 e1bd
000003d0: 3f07 a83c a197 a93d bc01 013c 1a05 2d3d
000003e0: bd04 5b3c 1f23 17be 4ccc a5bd b23e be3d
000003f0: db99 063d a001 36bd fe87 b73c f96a 7cbd
-0.03748645 0.1290246 -0.0775374 -0.09889303 0.037852302 -0.038330276 -0.07063522 0.037200622
0.035901636 -0.018224113 -0.008278104 -0.06642681 -0.07925998 0.038101025 0.065766715 -0.13644518
-0.095701076 -0.0599296 0.002847935 0.10923044 0.080997206 0.004622542 0.028260939 -0.04390138
-0.056415685 -0.09508099 0.021812428 0.014983503 -0.00040763742 -0.022002567 0.030594701 0.017145937
0.1254261 0.109269194 -0.0051459633 -0.014330423 0.05505686 0.031124122 -0.024030682 0.04179557
0.051506013 0.042771496 0.039663617 -0.059292234 -0.020762727 0.01192348 -0.034952946 -0.10032156
0.07320832 -6.061152e-05 0.02690809 -0.061802506 0.02337679 -0.073440135 0.07858 0.00678621
-0.08717015 0.053102553 0.089150295 -0.059307728 0.047581274 0.12200185 0.026203183 0.021110462
0.06466485 0.08491333 0.08002357 0.13646697 0.034581788 0.03198354 -0.024895294 0.03276588
0.09931628 -0.04470212 -0.0603128 0.031547062 0.06697866 -0.024490744 -0.01370899 -0.12657745
-0.07263191 0.042721055 0.15867472 0.018107578 0.07363232 -0.07022582 -0.044607375 -0.079707466
-0.110110305 0.026643096 0.00873316 0.08534098 0.019772371 0.0451006 -0.05598544 -0.04888825
0.0035052742 -0.084760636 -0.051288873 -0.00043782016 -0.010540773 0.040315025 -0.05567876 0.107547306
-0.010584554 0.015282055 0.056499656 -0.008080213 -0.034794305 -0.11455879 0.06729254 0.024368081
-0.065312386 0.10798743 -0.052537676 -0.038585946 0.01917726 0.014263498 -0.032722622 -0.066788495
-0.011225232 -0.07688308 -0.1047347 0.08190598 -0.027441546 -0.045049302 0.137127 0.0036750953
-0.109725595 -0.03985197 0.07788958 -0.10292171 0.077062994 0.033321828 -0.037354678 0.06471637
0.043019414 -0.03536283 0.039858144 -0.060213223 -0.19273189 0.002168363 0.043356802 0.046100218
0.06699325 -0.0005990642 0.14345534 0.018983053 -0.05050489 0.07000893 -0.056596942 -0.0359748
-0.00039603742 -0.036265034 -0.11505723 0.03526301 -0.040767528 -0.08534124 -0.01042297 0.008427558
0.10919457 0.012486818 -0.088707104 0.028949812 0.00447193 0.11106536 -0.10240957 -0.0963349
-0.09378863 0.044127684 -0.053605855 0.061262157 -0.127601 -0.01297928 -0.028406091 0.0013009782
0.053267043 -0.029614167 -0.0026627798 0.07739317 -0.018545842 -0.15055694 -0.09181716 -0.093471
-0.03111677 0.021997025 0.013329687 -0.03067344 0.0479618 0.070014365 0.037076786 0.09620106
0.16493478 -0.08498749 0.07987997 -0.14523412 0.065431505 0.044536807 -0.08221506 -0.09171699
-0.003935445 -0.1887217 0.00090035266 0.0125809675 0.03393524 0.099060975 0.06943434 0.007855318
-0.07055535 0.003893879 0.091748245 0.11091725 0.04204867 -0.042379797 0.07540545 0.06562625
0.0050820615 0.051507637 -0.012930727 -0.07641761 -0.05156948 -0.15267803 -0.11277243 0.09938729
-0.0016758251 0.039956395 -0.0337876 0.08363189 -0.014483228 -0.103283934 -0.06450817 -0.011343552
0.042612575 0.04268415 0.06842317 -0.10595846 0.034309994 -0.13137053 0.00875433 -0.10093341
-0.026147682 -0.1368543 -0.06954811 -0.110331655 0.020511268 0.08280874 0.007873949 0.042241193
0.013367829 -0.14759491 -0.08095607 0.09289302 0.03286157 -0.044435143 0.022403713 -0.061625455

a3.bias f4 [32]
00000000: a8f8 43bd bc12 183c 2a19 63bb ff57 b9bd
00000010: 28aa 7bbd 18ae 48bd 9966 d6bd 5ed1 ccbd
00000020: e110 81bd 262c 98bc 1753 c1ba 7400 6abb
00000030: e51d abbd 9099 83bd 2f4f e8ba 70f3 193d
00000040: ff22 923d a80b 03bc a4b2 1dbd 5769 dbbc
00000050: ad72 d7bc 9901 1ebd 3157 20bd bd28 3fbd
00000060: 29e2 683c 235d a5bb 9280 6c3d 10be 5cbc
00000070: 979c d93c 773e 033d 8861 bbbb 47ee 6dbd
-0.04784456 0.00928181 -0.003465245 -0.09049987 -0.06144157 -0.048994154 -0.10468788 -0.10000871
-0.063020475 -0.01857574 -0.0014749494 -0.0035705836 -0.08355311 -0.06425774 -0.0017723794 0.037585676
0.07135581 -0.007998385 -0.038500443 -0.026783628 -0.026299799 -0.038575742 -0.039145652 -0.04666971
0.014214077 -0.005046503 0.0577398 -0.013473049 0.026563926 0.032041993 -0.0057184137 -0.058088567

b1.weight f4 [32, 32, 3, 3]
00000000: 9941 56bc 8c49 593d 9e0e d13d 6762 81bb
00000010: 7aeb 6d3b 8bd5 d33c 29eb 363c 6c3e 81bc
00000020: e402 493b 3dfc a9bc ae0d a3bd 88b3 83bd
00000030: 7c00 eabc 8586 cfbc e697 b53b df98 353c
00000040: 5f3e 813d 40b1 733d eccc f1bc fcd8 673b
00000050: 1c29 90bd 9be4 58bc 3263 7cbd c1f5 32bd
00000060: 457d 0bbd 6fc3 eabc eabc 39bd b00d 4e3d
00000070: c02b 36bd 2602 a63d dfd5 9d3c d7ee 52bd
00000080: 5294 a73c 773d 02be 09ec 80bd 40d5 edbd
00000090: 187e 0f3d 0a68 42bc 39fd 1b3d 6e40 ddbb
000000a0: f80b 68bc fe31 8bbd 07e1 42bd 130c 45bd
000000b0: 853b b7bd 31d8 00bd 74bb 19bd 6bef d2bd
000000c0: 404e b2bd 68b4 babd 6440 c3bd 7b49 1d3d
000000d0: 8ef6 85bd b298 fbbd 98fe 03bd 63f6 5e3c
000000e0: 593e 383d 7aed 44bd 9a37 6fbc d53a 68bc
000000f0: f2b0 a53c 617e 353d d714 d5bc 31e8 a0bc
00000100: a24f 5a3c 8182 3c3c 15a6 91bc 3171 80bd
00000110: 9a0c c7b9 68ae 013d 7907 213d bb60 67bc
00000120: f263 f53b 742e bcbb 6ef9 d13c 0542 9bbd
00000130: 6056 413c 2494 533d 04f8 c6bc df73 a1bc
00000140: 1512 793d 47bc 3fbc 65d9 94bd 5e42 e13b
00000150: 0c5f aabc f605 c03c a4ae 053d 4ba5 0a3e
00000160: de1c 213b 2692 90bd 4ce8 d1bc 2db6 bdbb
00000170: 92b4 e5bb 6112 15bd 12bb 1cbc b6b9 da3a
00000180: 9e39 c1bb 7005 3f3d f245 55bd 2ada 13be
00000190: d5c1 9f3c b029 ddbd 6ec4 573d 978b a3bd
000001a0: 3e44 67bd a369 9f3d 6fbc 4dbc 15e2 48bd
000001b0: 131e 073d 6dc0 7a3b ce88 e03c 24b3 43bd
000001c0: 7448 b3bc 4112 77bc 7155 5abd 2ded 99bc
000001d0: e004 22be 5151 dabc 1098 303c f972 59bc
000001e0: d479 eabc efaf 023d 07e8 353c f260 7cbd
000001f0: b9f2 03be 56f8 8c3d e87e 5fbd b4b9 d03d
00000200: a03c 99bd b742 61bc 6c4e 39bd d3f1 b4bb
00000210: 75dc 9b3c b47b 98bd 2abb 583d 2670 8f3d
00000220: c2d9 3d3b 6f05 803c f851 9bbc f0c8 b03d
00000230: 1e36 dd3d c25b 8fbd 38d0 9cbb d491 ca3c
00000240: 1765 67bd 479e 543d 9abd d4bc e56a 033e
00000250: 1cf3 063d c0c0 f53c 9066 6e3c e022 f03b
00000260: b439 b83d 0b10 69bd 4bf3 553d dfbe 99bd
00000270: dd13 f7bd 26c3 4bbd 1d71 e5bc 9c9c 6bbd
00000280: 851c 8d3c 17f7 40bc 0c24 98bd b0ef 0fbd
00000290: 83a3 aebd 78c8 62bd ae9a bbbd cf5e 8dbd
000002a0: 8765 203d 3de3 c0bd c150 d9bd 5d25 ecbb
000002b0: 111a bf3d b726 2c3d d082 803d ddc8 4a3c
000002c0: 3278 8e3d cc39 3f3c ee0d c4bb 27db 953c
000002d0: aafc febc 40a6 22bc 8c83 4c3d eb15 823d
000002e0: b82d bdbd b373 853d 34db c6bc 839c 2abd
000002f0: 28a9 fd3d 4b94 713d 2e81 90bd a61e 203d
00000300: b8a8 263c 96a6 b5bd e21b 963d ff7b 283d
00000310: 22a5 b5bd 6be3 d1ba fe70 fcbd d626 ad3c
00000320: e142 bebc ed68 823c 27f4 8a3d a36e 663c
00000330: 115e 94ba d5df f5bd 6667 8a3d bffe 8cbc
00000340: 3e90 71bd f6a6 4f3d 6bea cb3c 5e86 95bc
00000350: 072b 89bd 6454 bb3c 2b03 4e3b ffea a5bc
00000360: 2689 8e3d a853 20bd 6c80 33bd c752 aa3c
00000370: 758b 1d3d b150 3bbc 842b eb3d 0d82 f43c
00000380: 2268 50bd 3a41 bf3c 17f2 bc3c 5e6a bfbd
00000390: 7ead 773c 0c84 6abd 1797 003c cfd1 9cbd
000003a0: bf49 a33c 8a25 11b9 2639 783d e7a1 b1bd
000003b0: 06ca f43b 8a65 173e dbf1 e9bc dfb8 163d
000003c0: e695 4b3d eeaa 2a3d c9a4 213c 2458 45bd
000003d0: a989 eebc 96f0 c8bc a80e eabd 9420 17be
000003e0: 32e7 78bd 96cd b2bd 8818 433d 6634 52bd
000003f0: 9fa3 1cbd 4309 3eba 8e5a fabc 2fa1 00bd
-0.013077163 0.053048655 0.10207866 -0.003948498 0.0036303685 0.025858661 0.011164465 -0.015776835
0.003067189 -0.02075016 -0.079615936 -0.06430727 -0.028564684 -0.025332699 0.0055417893 0.011083811
0.063107245 0.05949521 -0.02951666 0.0035377136 -0.07039091 -0.013238098 -0.061618038 -0.0436914
-0.034055013 -0.028657643 -0.045346178 0.050306022 -0.044475317 0.081058785 0.01926702 -0.051497307
0.020456467 -0.1271876 -0.0629502 -0.1161294 0.03503236 -0.011865625 0.03808329 -0.0067520654
-0.01416301 -0.06796645 -0.047577884 -0.048107218 -0.08946899 -0.031456176 -0.037532285 -0.102995716
-0.08706331 -0.09116441 -0.09533766 0.038400155 -0.06541167 -0.12284984 -0.03222522 0.013608548
0.044981334 -0.048078038 -0.014600659 -0.014174183 0.020225976 0.044309977 -0.026010914 -0.019641967
0.01332465 0.011505724 -0.01777939 -0.062715895 -0.00037965627 0.031660467 0.039313767 -0.014122183
0.007488721 -0.0057428423 0.025631633 -0.075809516 0.011800379 0.05165495 -0.024288185 -0.019708572
0.06080826 -0.011702604 -0.07268027 0.0068743667 -0.020797275 0.023440342 0.032637253 0.13539617
0.0024583857 -0.070591256 -0.025623463 -0.0057895393 -0.007010051 -0.03639448 -0.009566085 0.0016687426
-0.005896761 0.046636045 -0.05206866 -0.14438692 0.019501606 -0.10798967 0.052677564 -0.07985609
-0.056461565 0.077838205 -0.012557133 -0.049043734 0.032987665 0.0038261667 0.027408984 -0.047778264
-0.021885134 -0.015080036 -0.05330414 -0.018789852 -0.15822172 -0.026650103 0.010778442 -0.0132720405
-0.028622545 0.031906065 0.011102683 -0.06161589 -0.1288556 0.06883304 -0.054564387 0.1019167
-0.074822664 -0.013748816 -0.045240805 -0.0055219918 0.01902602 -0.074454695 0.05291287 0.070038125
0.0028968905 0.015627591 -0.018959984 0.08632076 0.10801338 -0.06999923 -0.004785564 0.02472774
-0.05649289 0.051908758 -0.025969315 0.12833746 0.03294669 0.029999137 0.01455082 0.007328376
0.08995381 -0.056900065 0.052233975 -0.07507109 -0.120643355 -0.049746655 -0.028008038 -0.0575224
0.017225513 -0.011777661 -0.074287504 -0.035140693 -0.08527281 -0.055366963 -0.09160362 -0.06902849
0.039159324 -0.09418342 -0.10611106 -0.0072066025 0.09331144 0.04202911 0.062749505 0.012376991
0.06956519 0.011671495 -0.005983106 0.018292977 -0.031126339 -0.009927332 0.04993014 0.06351837
-0.09237236 0.065162085 -0.024274446 -0.041653167 0.123857796 0.058979314 -0.07055889 0.03909173
0.010172062 -0.08869664 0.07329537 0.041133877 -0.08869387 -0.001601321 -0.12326239 0.021136682
-0.02322525 0.015919173 0.067848496 0.014064464 -0.0011319538 -0.12005583 0.06758003 -0.017211316
-0.05897545 0.050696336 0.024892053 -0.018252548 -0.0669766 0.022867389 0.0031434994 -0.020253656
0.06959753 -0.03914228 -0.043823645 0.020791424 0.038463075 -0.011432813 0.11482909 0.02984717
-0.05088056 0.023346532 0.023064656 -0.0934646 0.015117047 -0.057254836 0.007848523 -0.07657205
0.019932626 -0.00013842262 0.060601376 -0.086734585 0.007470372 0.14784828 -0.028557708 0.0367974
0.0497035 0.041666918 0.009865948 -0.04817976 -0.029118376 -0.024528783 -0.11428577 -0.14758521
-0.06076736 -0.08730619 0.047630817 -0.051319502 -0.03824198 -0.0007249305 -0.030560758 -0.031403717

b1.bias f4 [32]
00000000: b8a1 89bc 5b43 a8bd 95ce b2bc afd0 13bd
00000010: e987 cc3c 468a 88bd 829c 103d f087 1f3d
00000020: 5439 1abb 9bb8 40bd 2a1d a2bc c1c5 163d
00000030: c8d9 98bb 2a4e 773c f420 603d f99d c7bc
00000040: ed3a 5dbc cc60 0fbd 579c e83b d56e 4a3d
00000050: 7beb 96bb a7d9 48bd 5e29 773b 2b89 20bd
00000060: 7771 23bc 4c78 a0bb e3cb 9c3c 6e77 0fbd
00000070: d08e 69bc 6fd6 9dbb 0376 9f3c 1af4 98bd
-0.016800746 -0.08215972 -0.021827022 -0.036087688 0.02496715 -0.066669986 0.035305507 0.038948
-0.0023532705 -0.047051053 -0.019789297 0.036809687 -0.0046646334 0.015094319 0.054718927 -0.02436732
-0.0135028185 -0.035004422 0.0070987153 0.049422104 -0.004605708 -0.049035694 0.0037713866 -0.039193314
-0.009975783 -0.004897153 0.01914019 -0.035026006 -0.014255241 -0.0048168222 0.019465452 -0.07468434

b2.weight f4 [32, 32, 3, 3]
00000000: 6576 2d3d 2135 6e3d 4f73 d6bc c557 2ebd
00000010: 7818 e6bb 8ae8 753c e561 b7bd d2aa c23c
00000020: 94cf af3d 77d6 793d 9b0f 62bc d49b dbba
00000030: be79 9d3d aa06 fc3c c3f4 93bb 91dc 773d
00000040: c96e c53b 9c2e 243d 0609 d5bc 3fc9 1cbd
00000050: b73f 92bd d67d 9c3b 5296 aebc fc64 083e
00000060: 4ffd 9dba 56a3 303d 7028 aa3c c63e dc3d
00000070: 7def d5bd 3c61 ba3d 6082 cd3d 9660 d2bd
00000080: 4a88 39bc 484e bfbd 2bc2 1b3d e751 203c
00000090: c56e 42bd 2c45 f1bb 376b f9bd 900a 89bd
000000a0: 10f8 403d cacd 95bd 5017 a5bd 20de a63d
000000b0: ab73 ad3d 5f25 1b3d ca46 86b8 1a9d 1abd
000000c0: 3351 ae3c c7fb c23c 00cd 11bd 5662 c5bc
000000d0: c03e eb3c 7ff4 0a3d bb94 28bd c479 f23c
000000e0: c81c 113c 6245 473d 12e8 64bd 208c 8fbd
000000f0: e620 38b9 dde2 76bd d23e e1bc 687f 79b9
00000100: eb73 2dbc 6903 e8bb 40d5 d53c b0c5 05bd
00000110: ccb8 edbd b1e0 6cbc 6907 043d e658 353d
00000120: b71b b0bd 425e c6bc 614a 363d 836c 623d
00000130: ecec 4e3d 3637 a0bd 4b38 0ebd 00a0 873c
00000140: 783c 96bd 47ce 9a3c 5130 1abd 2137 58bd
00000150: 023b b73d 8222 33bd 8f41 463d 67ca 663d
00000160: 9e1c 0cbd 4c91 dabb 039c 6f3c 1b24 b1bd
00000170: ea53 1f3d daba 003b 19d7 ccbc 388a 95bd
00000180: 5ce1 43bc af61 27bd 3157 d7bd 0a52 5bbd
00000190: 9977 013d a1ee 843c c9b7 14bd 5ae3 003d
000001a0: e2c5 3fbd 7bf9 da3c ad09 8dbc 25d0 d4bd
000001b0: 4c14 76bd bce7 fcbc 965a d8bd 3eb3 3dbd
000001c0: b6bd 853d 847c 3e3d d3a4 9cbc aef8 afbc
000001d0: 366a 0e3d 2e3a 9cbb 42b5 a83b c95d 1ebd
000001e0: 61dc 84bd 7a86 f5bd 03cb 0dbc 7e5e cebc
000001f0: 5c76 323d 1a47 88bc 1af1 cd3d 06ac 39bd
00000200: b1d1 6e3b 8ce6 aabb b24e b4bd df47 b4bc
00000210: 6f72 87bd faa1 783d 68d8 1e3d 98b7 953d
00000220: 0257 abbd a5db ad3b 60ac eb3d ae36 03be
00000230: 25f0 e53c e0f7 ef3d 165d cd3a d1f7 b53d
00000240: a942 42bd 242c 483d 8046 73bc 9e52 943d
00000250: a531 5a3c 78af 0cbd 106d ba3d f64a 643d
00000260: 4ec9 083d 8e3e 4f3d b6b0 0fbd 3a47 583d
00000270: 5f33 b73c 3411 5dbd d256 c73d 3180 69bd
00000280: 8c1f d13b 90a2 8ab7 d968 9cbb cd3f e63d
00000290: 5b2e 96bd ab84 a1bc 64c8 ff38 d32c 30bd
000002a0: b00f 0e3d f1b2 37bd e501 713c c48d a23d
000002b0: c749 48bc e86b 0fbc 985b 88bd 7a26 363d
000002c0: 041d b5bb 4407 47bd 76c1 763d 52b4 c0bb
000002d0: fe7f b63c 2370 213d dc77 5bbc b048 683d
000002e0: 0ea3 19bd 7805 a3bd f8e6 40bd d13d 143d
000002f0: bab9 bcbc 36ce 8dbd 9464 f3bc a3f0 8ebc
00000300: 8c5e 7f3d 979f 633c dbd0 e43c cf96 bc3c
00000310: 6084 733d 186d 8cbd 18ff 443d c622 66bd
00000320: 712e 6e3d e4a8 8abb eacf 573d 6018 ac3c
00000330: 2fc0 80bd debf 653c 300e b83d 3034 cebb
00000340: a233 9b3c b813 c43d f6be 91bc c203 833d
00000350: 5e7d 3f3c 4101 7ebd daae dd3b 7faf 0cbd
00000360: 6ea8 553c 0f42 17bd d5b8 723d 3c03 f1bc
00000370: b940 90bd dcf0 3f3d 77f3 5e3d 18e0 cabc
00000380: 43b9 5dbd a4cf 78bc fe74 0dbd adec 893c
00000390: ca4e 6d3d 9e69 48bc 4693 17bd 0dce b13c
000003a0: a5e3 60bd dd98 483d 64a9 453c 05cb 3fbc
000003b0: 4c67 7d3d f8a7 7c3c e473 123d 0b58 a73b
000003c0: cb45 c3bd 5e43 ae3b 7d1c 273d 0618 753c
000003d0: 5eaa 1b3d 0a13 573d 1d92 5c3d 0cab 26bd
000003e0: 3d21 b3bd 1d58 80bd 879d c03b fa3a a93d
000003f0: 60be 123d f5ac a6b8 c4ad d63d a985 953c
0.042349238 0.058156136 -0.02617803 -0.042564172 -0.00702196 0.015009055 -0.08954219 0.023763094
0.08584514 0.060995545 -0.013797666 -0.0016754814 0.07689236 0.030764896 -0.004515262 0.060513083
0.0060251695 0.040083513 -0.02600528 -0.03827786 -0.07141059 0.004775743 -0.021311913 0.13319772
-0.0012053641 0.04312452 0.020771235 0.107541606 -0.104460694 0.09100577 0.10034633 -0.102723286
-0.011323998 -0.09341103 0.03802697 0.009785152 -0.04746892 -0.0073629823 -0.12178653 -0.06691468
0.04711157 -0.07314642 -0.08061087 0.08147836 0.084693275 0.037877437 -6.4028034e-05 -0.03774748
0.021278953 0.023801697 -0.035595894 -0.024094742 0.028716445 0.033924576 -0.041157465 0.029599078
0.00885696 0.048650153 -0.055885382 -0.070091486 -0.00017559863 -0.060274947 -0.027495775 -0.00023793953
-0.010586719 -0.0070804846 0.026102662 -0.032659233 -0.11607513 -0.0144578675 0.03223363 0.044274233
-0.08599036 -0.024214868 0.044504527 0.055279266 0.050518915 -0.07823031 -0.034721654 0.016555786
-0.07335752 0.018897189 -0.037643734 -0.05278695 0.08946802 -0.04373408 0.048402365 0.05634537
-0.03420698 -0.006670153 0.014624598 -0.08649465 0.038898386 0.0019642622 -0.02500491 -0.07301754
-0.011955585 -0.040864643 -0.10514677 -0.053545035 0.031608198 0.016227068 -0.036308084 0.03146682
-0.046819575 0.02673029 -0.017216528 -0.10391263 -0.06007795 -0.030872218 -0.10564153 -0.046313517
0.06530325 0.046505466 -0.019121563 -0.021480884 0.03476926 -0.0047676777 0.0051485607 -0.03866366
-0.064873464 -0.1198854 -0.008654359 -0.025191542 0.043569908 -0.016635466 0.10055752 -0.04533007
0.0036440904 -0.0052154716 -0.088040724 -0.022006927 -0.06613623 0.060701348 0.0387806 0.07310408
-0.08366205 0.0053057247 0.11507487 -0.12813827 0.028068611 0.117172 0.0015668 0.08885158
-0.047426853 0.04887022 -0.0148483515 0.072423205 0.0133175 -0.034347028 0.09102833 0.05573555
0.033395104 0.050596766 -0.035080634 0.052802302 0.022363363 -0.053971484 0.097333565 -0.05700702
0.0063819345 -1.6526581e-05 -0.004773241 0.11242638 -0.0733306 -0.019716581 0.00012196673 -0.043011498
0.03468293 -0.044848386 0.014709924 0.07937196 -0.012224621 -0.008753754 -0.06658095 0.044470288
-0.0055271406 -0.048590913 0.060243092 -0.005880871 0.022277828 0.039413583 -0.013395276 0.056709945
-0.037509017 -0.079600275 -0.04709527 0.036191765 -0.02303778 -0.06924097 -0.029711045 -0.017448729
0.062346026 0.01389303 0.027931621 0.02302113 0.059452415 -0.068567455 0.04809484 -0.056185506
0.05814976 -0.004231559 0.052688517 0.021007717 -0.06286656 0.0140227955 0.08987081 -0.0062928423
0.018945519 0.095740736 -0.017791253 0.06397201 0.011687605 -0.062012915 0.0067652287 -0.034347054
0.013040645 -0.036928233 0.0592583 -0.029420488 -0.07043595 0.04686056 0.054431405 -0.02476506
-0.054131757 -0.015186224 -0.0345354 0.016836489 0.057936467 -0.012232212 -0.037005685 0.021704698
-0.0549046 0.048973907 0.012064312 -0.0117061185 0.06186609 0.015420906 0.035755053 0.005106931
-0.09534796 0.0053180894 0.040798653 0.014959341 0.03800427 0.05250839 0.053850282 -0.040690467
-0.08746574 -0.06266806 0.0058781537 0.08263202 0.035826087 -7.9477126e-05 0.10482362 0.01825221

b2.bias f4 [32]
00000000: a418 333d 530c 63bd 4c71 05bd 1ccc 0cbd
00000010: 0b72 99bd ffc6 06bd c7de 8fbb 6c21 a3bc
00000020: ac05 0f3d 1011 343c 22fc 0b3d b01f 15bd
00000030: 56bb 2d3c 3e82 abbd 3fa5 67bc 69ff 393d
00000040: 5409 d7bc 034b f5bc bbea 1ebd c124 c1bc
00000050: 6d4c 76bc 6c18 743d 32b8 24bd 99f4 453d
00000060: 6880 e7bc b294 ec3c 517f 863c 66e8 9b3c
00000070: 362b 8cba 243f 343d f159 aeba f43c 08ba
0.04372467 -0.055431675 -0.03257875 -0.03437434 -0.07492455 -0.03290462 -0.004390571 -0.019913398
0.03491752 0.010990396 0.034176 -0.036407173 0.010603746 -0.08374451 -0.014138519 0.045409594
-0.026249565 -0.029942995 -0.038798075 -0.023577096 -0.01503287 0.059593603 -0.040214725 0.04832897
-0.028259471 0.028879497 0.016418131 0.019031715 -0.001069403 0.044005528 -0.0013301951 -0.0005197071

b3.weight f4 [64, 32, 3, 3]
00000000: b0aa fe3d a3d1 e7bc a061 233d d0f8 e23c
00000010: 0713 ba3b be99 993d 42a7 293c db5d 9dbd
00000020: 1861 153d 2140 363d f687 74bd dde0 08bd
00000030: 5d7d 8a3c 2980 b53c 0ecb e9bc 57b5 7ebd
00000040: a54b 623d 14b4 2a3c 2c3d 4a3d 3b14 74bd
00000050: 062f 933d 6393 b3bc 1cef 38bc 918a a7bd
00000060: 2430 8c3d eca7 93bb 8f03 be3c 1152 333d
00000070: f631 c3bc 41e7 27bd 5216 943c 049e 94bc
00000080: 771e 39bd 4cc8 3cbd 1e1f 68bd 3a91 d1bc
00000090: 659e 40bc 1992 a9bc ee3e 803c 4577 4b3d
000000a0: e445 473d a818 ea3c d195 273d 1e19 fabc
000000b0: a2cb 0ebd 13b0 873d 0257 293c 0e93 8fbc
000000c0: 3170 3e3d c978 143d 4ff3 0bbe 2c03 57bc
000000d0: a2ef fbbc 36e1 573c f54f 84bc a417 50bd
000000e0: 8e8c cbbd f97d 3bbc 3fa2 363d 409b 573d
000000f0: 3da8 9ebc a50d 36bd 3e86 ec3d eac0 a0bc
00000100: edfb dc3c 166b b73c 42ae 013d 736e 7bbd
00000110: 0f7f d33b 26e0 84bc 3b3a 9d3c 1fa7 3e3c
00000120: 844e 25bd d963 c83d 1316 c4bd 354b ac3c
00000130: 6585 0d3c affe bb3c ce0d 20bd 6342 273d
00000140: 0ae7 293d a7b7 bf3c cda8 803d cd39 fa3d
00000150: f749 0f3d 818c d23d 2431 1fbd d567 84bd
00000160: 4a6f 90bd 8a89 9fbd 074a 03bd e8b4 cabd
00000170: b81c a0bd 5222 28bd c959 a83d e256 9ebc
00000180: 3a8b aebc bd80 443d 11b7 2e3d 3ca6 793d
00000190: 6820 8cbb a577 8b3c 73c0 69bd fab7 9dbc
000001a0: fd0f 34bd 54b4 97bc 2653 903d 6f05 de3b
000001b0: 2336 a2bd 5950 1e3d 97d5 be3d 8149 c23b
000001c0: 2527 cdbd 2007 a9bd 176e 923d ae56 7c3d
000001d0: e9e3 013c 837e 5d3d 00a8 ecb7 467a 40bd
000001e0: 5ac4 c2bc 234f 1d3d 5f5d 3f3d 6ab3 9a3c
000001f0: bacd b0bc d8f5 ef3b 85cc 013c 3bdf 373d
00000200: 15a7 efbb b1a1 043d 36ed 063d c1f3 953d
00000210: 0828 06bd cbfe aabd 3726 853c 2c55 d93d
00000220: bd72 48bc 2bc4 993c 22ec c0bd a5c0 383d
00000230: 7f5b b03c 2d74 693c 650a d639 2f99 8b3d
00000240: d7cf 9aba 32d2 29bd 37f2 e9bc 825d 2fbc
00000250: 95e7 753d 01a4 b63c fdab 933c ebb7 9cbc
00000260: 4824 0bbd 9630 4fbd 6909 533d 5c27 4bbd
00000270: cb02 013d a434 62bd 6d14 e83c 2911 a03c
00000280: ce62 2b3d c3be 8abc 1452 823c 24d0 b33a
00000290: b9d1 183d 9520 28bd db79 70bc 59bf ba3b
000002a0: 45ff 4c3d 0b77 2fbd f125 28bb ef4d c33c
000002b0: def0 80bd b94b aebc aa1e ed3d c24e 63bd
000002c0: cde6 0fbd a1ed 44bd 4586 f1bb e674 32bc
000002d0: 3fee 5e3d 7efb a73c 0d3f 23bd f28e bb3d
000002e0: c3b8 a43c 1077 6ebb c4a9 fcbc 7434 db3c
000002f0: 2522 0a3d 8610 f83d 5120 bf3c 3390 073e
00000300: 44c5 1fbd 6a8e 5ebd 5eb2 ed3b 9686 53bd
00000310: 73f7 f2b9 2b1d a0bd 3984 283d aa3a e43c
00000320: 12fb 67bd 27f3 16bb da0b 7f3d 64d1 78bc
00000330: 6578 2e3d 447a 9dbd 115b f13c 3bfb b93a
00000340: 5599 be3d 438e 86bb 529a a43b 5a1b 3dbd
00000350: 181e 0c3e 6846 a1bd e576 80bc 1bd1 1ebd
00000360: 0446 b33d 6c4b 143d f424 4f3d 0452 1ebd
00000370: 8799 86bd c702 f4bc c372 313c 6d6a a23d
00000380: 977c 2c3d 60e1 36bc 7431 03bb 2b8a 003e
00000390: 8473 553d 4a1c 423c 9870 75bd af92 eabb
000003a0: 9f03 b23d 9d4f 19bd b2d7 1a39 bd2d 2e3b
000003b0: c653 6dbd b798 fa3b dc62 0c3e c9ca 4d3b
000003c0: acb4 20bd 6b57 53bd 177a ff3d 3f88 bf3c
000003d0: 3ec1 273d dcca 3e3c 7cdf 723d ab29 b13d
000003e0: 1678 04bd c47c 843d fbce 4cbd a3a4 d53c
000003f0: 6b72 d8bc c498 05bd d8e1 bd3d 2e99 933d
0.124349 -0.028298205 0.039888024 0.027706534 0.005678538 0.07500027 0.010354819 -0.07683917
0.03646955 0.04449475 -0.059699975 -0.03341757 0.016905481 0.022155838 -0.028539207 -0.062184658
0.05524792 0.0104189105 0.049374744 -0.059589606 0.071867034 -0.021920865 -0.011287477 -0.08180726
0.068451196 -0.004506102 0.023195056 0.043779436 -0.023827534 -0.040992025 0.01807705 -0.018141754
-0.04519507 -0.046089455 -0.0566703 -0.025581945 -0.011756514 -0.020699548 0.015655007 0.04967429
0.048650637 0.02857621 0.04091436 -0.030529555 -0.034862168 0.0662538 0.010335686 -0.017526176
0.046493713 0.036248002 -0.13667034 -0.013123315 -0.030753914 0.013176253 -0.016151408 -0.050803795
-0.09938918 -0.011443608 0.044588324 0.052638292 -0.019367332 -0.044446606 0.11549042 -0.019623239
0.026975596 0.02238993 0.031660326 -0.06138463 0.0064543555 -0.016220164 0.019192806 0.011636524
-0.04035808 0.097846694 -0.09574523 0.021031955 0.008637761 0.022948591 -0.039075665 0.040834796
0.0414801 0.023403002 0.06282196 0.12218056 0.034982648 0.10280705 -0.038865224 -0.06465117
-0.07052477 -0.07789905 -0.03205302 -0.098977864 -0.07817978 -0.041048355 0.0822025 -0.019328538
-0.021306623 0.047974337 0.042655054 0.06094955 -0.004276324 0.017024824 -0.0570683 -0.019252766
-0.04396056 -0.018518604 0.07047109 0.00677555 -0.07920482 0.038650844 0.09318083 0.0059291725
-0.10017232 -0.08253312 0.07149904 0.0616061 0.007927873 0.05407573 -2.8211623e-05 -0.04699161
-0.023775268 0.03840555 0.046719905 0.01888438 -0.021582473 0.007323008 0.007922296 0.044890624
-0.007313619 0.032380763 0.032941066 0.07321883 -0.03275302 -0.08349379 0.016253574 0.10611948
-0.012234387 0.018770298 -0.09420039 0.045105595 0.021528004 0.01424889 0.00040825005 0.06816327
-0.0011811209 -0.041460223 -0.02855788 -0.010703446 0.060035307 0.022295 0.018026346 -0.019130668
-0.033970147 -0.050583445 0.051522646 -0.049598083 0.031496804 -0.055225983 0.028330052 0.019539433
0.041842274 -0.016936665 0.015908279 0.0013718647 0.037309382 -0.041046698 -0.01467749 0.00569908
0.05004813 -0.042838138 -0.002565738 0.023840873 -0.06295942 -0.021276342 0.11578114 -0.05549503
-0.03513222 -0.048078183 -0.0073707425 -0.010892129 0.054426428 0.020505663 -0.03985505 0.09158124
0.020107633 -0.0036386885 -0.03084267 0.02675841 0.03372397 0.121125266 0.02333084 0.13238601
-0.039006487 -0.054335035 0.007253929 -0.051642023 -0.000463422 -0.07818063 0.041141722 0.027860004
-0.056635924 -0.0023033114 0.062267162 -0.015186641 0.042595286 -0.07689336 0.02946237 0.0014189252
0.093065895 -0.0041063144 0.005023279 -0.046168663 0.13683355 -0.07874757 -0.015681693 -0.038773637
0.08753589 0.03620474 0.05057235 -0.038652435 -0.06572252 -0.02978648 0.010830584 0.07930455
0.042111006 -0.011162132 -0.002001849 0.12552707 0.052112117 0.011847565 -0.05992183 -0.0071585993
0.08692097 -0.03742944 0.00014766937 0.0026577555 -0.05794122 0.0076475996 0.13709587 0.0031401387
-0.039234802 -0.05159704 0.12474459 0.023380397 0.040955774 0.011645045 0.059295163 0.08650526
-0.032341085 0.0646911 -0.05000208 0.026079481 -0.026421746 -0.03261639 0.09271592 0.07206951

b3.bias f4 [64]
00000000: 1e5b 7f3d 5bec b13d a42b 95bc cf00 793b
00000010: 6b9f ac3c 9937 4abc 4866 0fbc f3cb 4dbc
00000020: c776 8e3c 1787 d7bc c5c8 eb3c b77d 4e3d
00000030: 3e8d 1c3d 003d 953d 466a 43bd 1fcd 12bd
00000040: c821 8b3c e453 fe3a 2963 5b3b 90e2 b73c
00000050: de9a f9bc 6922 08bd a6dd b8b9 2571 2d3d
00000060: 2412 343d 681d 5bbd 1e7c 9ebc 9662 19bd
00000070: 8725 483d d1a2 a03b 66b1 1a3c 4d90 e6bc
00000080: 22d1 40bd ffc3 ebbc 92d9 5bbd 64df 943c
00000090: ea59 1ebc 6ef3 ddbc c677 8fbb 1f48 54bd
000000a0: 8678 3bbd 43fe a5bb af4d 493d 4e7e 943d
000000b0: e163 a8bd 1faf 7cbd eb7f f33c 78fd fabc
000000c0: f479 46bd 3fd8 06bd d5e0 20bc df89 75bc
000000d0: 2d31 643d 1545 893d 11be 1ebd daf2 3cbd
000000e0: 1943 2dbd 8947 0d3b 6281 d5bc ee54 333c
000000f0: 5a34 7dbd 772d 213d dfe6 f5bc b3c7 e13c
0.062342755 0.08687659 -0.018209286 0.0037994867 0.02107211 -0.012342357 -0.008752413 -0.012560832
0.017390622 -0.026309533 0.028782258 0.05041286 0.038220637 0.072870255 -0.047708772 -0.03584015
0.016983882 0.0019403663 0.0033475852 0.0224469 -0.030469354 -0.03323594 -0.00035260356 0.04234423
0.043962613 -0.05349484 -0.019346293 -0.037447535 0.048863914 0.0049022217 0.009441709 -0.02814498
-0.047074445 -0.028779982 -0.053674288 0.018172927 -0.009664992 -0.027093615 -0.004378292 -0.051826593
-0.045769237 -0.0050657107 0.04914635 0.07250653 -0.082221754 -0.061690446 0.029724082 -0.030638441
-0.048456147 -0.032921072 -0.009819229 -0.014986484 0.05571096 0.067026295 -0.03875548 -0.04613004
-0.042300317 0.002155753 -0.026062671 0.010945542 -0.061817504 0.03935 -0.030017314 0.027561044

c1.weight f4 [64, 64, 2, 2]
00000000: e91d 54bd cc63 153d 5376 cebd dd9a 143d
00000010: 45ef aabc 7829 a13d 986a c7bd 2a9e b3bc
00000020: b8d4 a03d 9e1c a63c ca79 9dbb 36e5 87bd
00000030: 64b5 203b 612f 653d c608 45ba 5d94 0d3d
00000040: c792 533d 3239 b4bc 664d 6fbc 77e1 e2ba
00000050: 5690 ac3d f556 cdbc ed7c 7cbb 6d48 3f3b
00000060: 1d7d a33d 066d 05bd 050c 16bb 8c91 13bd
00000070: 01ec 273d 6521 8e3c 8545 893c f642 40bd
00000080: f051 653c e7d4 2fbc 6f5d d3bc f8d5 c1bc
00000090: eeb5 b3b8 fca4 c3bc 5f0d 933b a83b bfbc
000000a0: 076d 2fbd 5aed 47bc edec 82bb dec3 e4bc
000000b0: 2091 843b af9a 09bc 9182 7bbc c97f 183d
000000c0: 8555 ac3d 828c 8dbd 7c7f 79bd a504 85bc
000000d0: b27d 863d bd32 393d e2c5 c8bc 38a1 193d
000000e0: febf a23c 3eae f83c 04f1 0dbd ba26 99bd
000000f0: 142a 7f3d 434b 9ebc 0c09 8ebd c172 3a3b
00000100: 042b 2b3d 58f7 b7bc 4502 34bd 011f babc
00000110: 84eb 57bd cd47 38bc d6c4 653c 9e02 653c
00000120: 4a08 bf3c f706 1f3b 49f0 5dbc c8f3 c1bd
00000130: 7b7a 2ebd e231 d33d 76dc 6cbd 735c 5a3c
00000140: e063 273d 4556 293d 61dc 2fbd c57f 00bc
00000150: dcb1 1a3d 078d 2f3d 06e8 16bc 23ce 833b
00000160: 2f26 ed3d 7dee 86bd 3d2f 593d 9d1d 05be
00000170: e9fc 4a3a 6df7 f93d e2d4 eebc 0968 9e3d
00000180: cb49 a9bc c2b1 4abd c887 0e3d 5167 b5bd
00000190: 930e 29bd e3ce 3f3d 0b82 6d3d 98f8 bc3c
000001a0: 5f83 fa3c 32b0 53bd e60a 44bd a557 7dbd
000001b0: 52bc 63bd 957c 81bc e6e7 533d ecf1 523d
000001c0: d4ea 0ebc f069 3639 cc5f 45bd 930a 783c
000001d0: 4946 d33d ac2d e4bc c0af 4ebd c5b4 c7bd
000001e0: 4b78 133d 2c95 0d3d e51a 513c 21a8 9c3b
000001f0: 7aaa 483d 0054 99b8 8ae2 ccbb 9cab 8dbc
00000200: 6cd2 763d cd2e 1ebd 5814 99bc 19e8 05bb
00000210: abf5 5f3d 8463 21bc f3cf 68bd a387 29bd
00000220: 73ce 9a3d 0d73 303d 07e2 833c aa61 afbc
00000230: 3830 b9b8 224b cabd 0170 b9bc af99 88bc
00000240: 6f3d e83c 3a2a 80bc 9e8e 083d 3fc6 213d
00000250: f6d9 24bd d9ab 533d ee89 723d 46d6 a43c
00000260: 0034 263c 1877 30bd e638 54bd e6a6 d2bb
00000270: 8eab 30bc 9dcf 5fbd 0a30 c63c 2c91 343d
00000280: 6fdc 433a 05d0 04bd 2b86 813d 1a56 58bd
00000290: 2e38 0ebd 91fd 0fbd a4d5 7eba 1869 063d
000002a0: b60a 15bd dc33 c03c c1fd 603c 87fe bb3d
000002b0: 8986 36bd bc4f a83d ad2c 553c c2c4 003d
000002c0: fb26 433d f247 3ebd eb8d 35ba cf31 e33c
000002d0: 28d5 e0bc cf52 3cbd 3249 1f3d f85a 163d
000002e0: ce6d 9f3d 0658 8abd 3459 543d 9024 6ebb
000002f0: d4a5 1e3c fcd9 293d a1f6 683d a5ad ccba
00000300: 77d8 b03c d97d 5d3d 59c5 533d 75d5 38bc
00000310: 9406 83bd d20b 3b3d 6549 863b 6e4b 70bb
00000320: d4f6 af3b 26fc 50bd 0c4b 0fbd 9479 263d
00000330: 7d95 013e 76af 7c3b 1d36 c0bb f526 93ba
00000340: 21e1 bf3d 5206 afbd 9968 f1bc 5ba0 12be
00000350: 8a82 2b3d 43b1 febc 308a 50bc 484b 74bd
00000360: 1f8c b13d a274 3bbd 2dc4 adbb 03f8 96bd
00000370: 2851 04bd 68e9 3dbd b104 653d 8244 90bd
00000380: 5108 4b3c 4db9 a9bd 5205 553d ecf3 e1bc
00000390: 3bf0 5abd ff28 6f3d 7800 033c ff32 033d
000003a0: 0949 c33b 99e0 683d 0db0 fe3c f934 07bc
000003b0: be68 df3c a682 aebc 0b8c 4cbd a0aa 08bd
000003c0: 7015 2cbd 9853 853b f145 bf3b ca63 77bd
000003d0: 76b1 a53d 7e23 d5bc d014 c43c 7dc9 5ebd
000003e0: 185f 7ebc c2b4 253d 735e 7d3d 5a75 68bc
000003f0: c0d2 8cbc 5bc0 263d 653b bdbc 0849 8cbd
-0.051786337 0.036472127 -0.10081162 0.0362805 -0.020866046 0.07869238 -0.09737128 -0.021926004
0.07853073 0.020277318 -0.004805778 -0.066355154 0.002452218 0.055953387 -0.0007516261 0.03456532
0.05165365 -0.02199993 -0.014605856 -0.0017309625 0.084259674 -0.025065878 -0.003852661 0.0029187456
0.07982848 -0.032574676 -0.0022895348 -0.036027476 0.040996555 0.017349908 0.016756782 -0.04693886
0.013996586 -0.010731912 -0.025801389 -0.023661599 -8.569272e-05 -0.023882382 0.004487678 -0.023343876
-0.042828586 -0.012202585 -0.003995529 -0.027925428 0.0040456206 -0.008398696 -0.015350954 0.03723124
0.08414749 -0.06911565 -0.060912594 -0.016237566 0.06566943 0.045214403 -0.02450842 0.037507266
0.01986694 0.030356523 -0.03465368 -0.0747809 0.06229599 -0.019322997 -0.06935319 0.0028449746
0.04178907 -0.02245681 -0.043947477 -0.022719862 -0.05271484 -0.011247587 0.01402398 0.013977675
0.023319382 0.0024265626 -0.013546058 -0.09470326 -0.042597275 0.10312249 -0.057827435 0.013327706
0.040866733 0.04134204 -0.04293478 -0.007842963 0.037767276 0.042859104 -0.009210592 0.004022376
0.115795486 -0.06588457 0.053023566 -0.12999578 0.0007743375 0.12205396 -0.029154245 0.07734687
-0.02066507 -0.04948593 0.03479746 -0.08857597 -0.041273665 0.046828162 0.057985347 0.023067757
0.03058022 -0.051681705 -0.047861956 -0.061851162 -0.055599518 -0.015806476 0.051734827 0.051500246
-0.00872298 0.00017396337 -0.048187062 0.01513924 0.1031614 -0.02785381 -0.050460577 -0.09751276
0.036003392 0.03456609 0.01276276 0.0047807847 0.048990704 -7.311255e-05 -0.0062525915 -0.017293744
0.060259268 -0.03861885 -0.018686458 -0.002043253 0.054677647 -0.0098503865 -0.05683894 -0.04138912
0.07558908 0.04307847 0.01609899 -0.021408875 -8.830469e-05 -0.09877612 -0.022636415 -0.016674845
0.028349606 -0.015645135 0.033339135 0.039495703 -0.040246926 0.05167756 0.05921357 0.020121705
0.010144234 -0.043082327 -0.051812075 -0.0064285873 -0.010783089 -0.054641355 0.024192829 0.04408376
0.0007471507 -0.032424945 0.06324419 -0.052816488 -0.034721546 -0.03515393 -0.0009721166 0.03281507
-0.036387168 0.023462228 0.013732375 0.091794066 -0.044561896 0.08218333 0.01301114 0.031437643
0.047644597 -0.04645533 -0.00069257495 0.027733712 -0.02744539 -0.04597741 0.038888164 0.03670785
0.077846155 -0.067550704 0.051842883 -0.003633771 0.009683091 0.04146765 0.05687583 -0.0015615715
0.021587593 0.054075096 0.051701877 -0.011281361 -0.06397739 0.04566557 0.004098105 -0.0036666053
0.0053700004 -0.051021717 -0.03498368 0.04064329 0.12654682 0.0038556731 -0.005865826 -0.001122682
0.09369112 -0.085461274 -0.029468821 -0.14318983 0.04187254 -0.031090384 -0.012728259 -0.059642106
0.08669304 -0.045765527 -0.005302927 -0.07371523 -0.03230396 -0.04636517 0.055912677 -0.07044317
0.0123921195 -0.082872964 0.052007027 -0.027582131 -0.053451758 0.058388706 0.007995717 0.032031056
0.005959634 0.056854818 0.031089807 -0.008252376 0.027271625 -0.021302532 -0.049938243 -0.033365846
-0.042012632 0.004068803 0.005837195 -0.0603979 0.080904886 -0.0260179 0.023935705 -0.054391373
-0.015525602 0.040455587 0.061857652 -0.014188135 -0.017190337 0.04071079 -0.02309961 -0.06849867
