nets/model_epoch_29.pth (torch, 648794 bytes, 25 tensors)

a1.weight f4 [16, 5, 3, 3]
0	0x3d697b25	0.057002205
1	0x3e06b4b6	0.13154873
2	0x3c8d8182	0.017273668
3	0xbe100cea	-0.14067426
4	0xbc3e563d	-0.0116172405
5	0x3e53dd96	0.20689997
6	0xbb43ac26	-0.0029857247
7	0x3d3a5706	0.04549315
8	0xbeb6ba53	-0.3568903
9	0xbc9f9c11	-0.019483598
10	0xbda1397e	-0.07872294
11	0xbd9c0d40	-0.07619715
12	0x3c5943a9	0.01326076
13	0xbd11cb70	-0.035594404
14	0xbe147f79	-0.14501752
15	0xbea141ca	-0.31495506
16	0xbd9549f7	-0.07289498
17	0xbde96f4a	-0.1139818
18	0x3cd19486	0.025583517
19	0xbdea7dad	-0.11449752
20	0x3c1acfcb	0.009448956
21	0x3c4a6952	0.012354212
22	0xbe2e602e	-0.17028877
23	0x3d796cd3	0.0608948
24	0xbe402dee	-0.18767521
25	0xbe09d175	-0.13458808
26	0xbc88c943	-0.016697532
27	0xbe4fc859	-0.2029127
28	0xbd86c3d6	-0.065803215
29	0x3d71b206	0.059007667
30	0xbe3e17b8	-0.18563735
31	0xbd53b297	-0.05168399
32	0xbebd0710	-0.3691945
33	0xbe632e4d	-0.22185631
34	0xbdafb1a6	-0.085788056
35	0x3deb1bfd	0.11479948
36	0xbe2c385e	-0.16818377
37	0xbd94e210	-0.072696805
38	0xbe149ec5	-0.14513691
39	0xbcef8598	-0.029238507
40	0xbe3782de	-0.17921016
41	0xbe0107a1	-0.12600566
42	0xbc302c08	-0.010752685
43	0xbdf2d942	-0.11857845
44	0xbd3d49b4	-0.046212867
45	0x3e23cde2	0.15996507
46	0xbdc69751	-0.0969683
47	0xbda59bf8	-0.08086389
48	0x3e9bc191	0.30421117
49	0x3d12868c	0.035772845
50	0x3e9a2dbd	0.3011302
51	0x3b38b872	0.002818611
52	0x3ee8ae0c	0.45445287
53	0xbe486f9f	-0.1957383
54	0x3d813cae	0.06310402
55	0x3e81db93	0.25362834
56	0x3d945633	0.07243004
57	0x3cb8533e	0.02250063
58	0x3e396b1f	0.1810727
59	0x3c133c54	0.008986551
60	0x3dd85072	0.10562219
61	0xbee7eb92	-0.45296913
62	0x3ce57a11	0.028012307
63	0x3e35726a	0.17719427
64	0xbd8796f0	-0.06620586
65	0xbdb8a5e9	-0.0901602
66	0x3ea0c413	0.31399593
67	0x3d01257c	0.03152989
68	0xbec1a158	-0.37818408
69	0xbdbfcf94	-0.09365764
70	0xbe243c42	-0.16038612
71	0x3d7be249	0.0614951
72	0xbc0f69fc	-0.008753296
73	0xbeb39543	-0.35074815
74	0xbea8d728	-0.3297665
75	0xba6aaae6	-0.00089518575
76	0x3e886b4e	0.26644367
77	0x3dd9ef0f	0.106413
78	0x3de59241	0.11209536
79	0x3de8bd92	0.11364283
80	0xbece80fb	-0.4033278
81	0x3c15c962	0.009142252
82	0x3d263e30	0.04058665
83	0xbc948057	-0.018127603
84	0x3da1f107	0.079073004
85	0x3d0ae190	0.03390652
86	0xbd1ff5bf	-0.03905272
87	0xbd99f258	-0.075169265
88	0xbd8664ae	-0.06562172
89	0x3c895e0b	0.016768476
90	0xbe891cca	-0.26779777
91	0x3dc1eb90	0.09468758
92	0x3ea07127	0.31336328
93	0x3d119cdb	0.03554998
94	0x3e3410d1	0.1758454
95	0x3cad0e01	0.021124842
96	0x3eed51f0	0.46351576
97	0x3ed03933	0.4066864
98	0x3db62110	0.08893025
99	0x3e21ff0b	0.15819947
100	0x3e470d8d	0.19438763
101	0x3e3ff345	0.18745144
102	0xbd2d03d0	-0.042239964
103	0xbc55d3e7	-0.01305101
104	0x3c4a4ba1	0.012347133
105	0xbd9cdaee	-0.07658945
106	0xbe1a5657	-0.15071999
107	0x3da3eaf2	0.08003797
108	0x3e71b025	0.2360235
109	0x3ec2ca5a	0.38045007
110	0x3e449c9c	0.19200367
111	0x3dacf05b	0.08444282
112	0xbe24ce57	-0.16094337
113	0x3e955ba7	0.29171488
114	0xbe829ea6	-0.25511664
115	0xbdf93880	-0.1216898
116	0x3e254399	0.16139068
117	0xbd06c269	-0.032900248
118	0xbe84db8b	-0.25948748
119	0xbe5b4ce1	-0.21416046
120	0x3cd9b483	0.026575333
121	0xbe143fc0	-0.14477444
122	0xbcd8ff3a	-0.026488889
123	0x3d84f68b	0.06492337
124	0x3d0f8545	0.035039205
125	0xbe9a67d4	-0.3015734
126	0xbc94d235	-0.01816664
127	0x3d4293f8	0.047504395
128	0x3cdcc7ce	0.026950743
129	0xbd3e78cd	-0.046501923
130	0x3defccf3	0.11709013
131	0xbdf61f51	-0.12017692
132	0xbcc20fd7	-0.023689194
133	0xbd67a6a8	-0.05655542
134	0x3d7cb885	0.06169941
135	0x3e163100	0.1466713
136	0x3dc78851	0.09742797
137	0xbe5602f6	-0.20899567
138	0x3e17782e	0.14791939
139	0x3dfe35dd	0.12412617
140	0xbe70ce83	-0.23516278
141	0x3d931adc	0.071828574
142	0xbea1de88	-0.3161509
143	0x3e80fa24	0.25190842
144	0xbe08272d	-0.13296194
145	0xbec61614	-0.3868872
146	0xbe415458	-0.18879831
147	0xbea572ab	-0.32314047
148	0xbd0c3ebe	-0.034239523
149	0xbf036302	-0.5132295
150	0x3d6232bc	0.055224165
151	0x3cc37f7b	0.023864498
152	0xbbd17703	-0.006392361
153	0xbd1d9087	-0.03846791
154	0x3da88875	0.08229152
155	0x3d04d289	0.032427344
156	0xbe367f1c	-0.17821926
157	0xbdd96df0	-0.10616672
158	0xbe8c1bb3	-0.27364883
159	0xbe2191b4	-0.15778238
160	0xbe1800ba	-0.14844027
161	0x3e9ee703	0.31035623
162	0x3e47e7e1	0.19522049
163	0x3e6d9cac	0.23204297
164	0x3e4786ad	0.19484968
165	0x3e9b2fd8	0.3030994
166	0xbdd0088e	-0.10157882
167	0x3f013547	0.5047192
168	0x3e0661b1	0.13123204
169	0xbcea2a10	-0.02858451
170	0xbe52ca41	-0.20584966
171	0xbd1867bf	-0.037208315
172	0x3d173e8a	0.036924876
173	0x3d4be654	0.049780205
174	0xbc4fb91d	-0.012678412
175	0xbc6b70bd	-0.014370141
176	0xbba91fcf	-0.0051612626
177	0x3d516eca	0.051131047
178	0xbd1fe1ff	-0.039033886
179	0xbc67938f	-0.014134302
180	0x3e463c28	0.19358885
181	0x3d2aae7d	0.04167031
182	0xbe6244ee	-0.22096607
183	0x3d8fd04c	0.07022151
184	0x3e168e6c	0.14702767
185	0x3e7514ba	0.23933688
186	0x3d0b4dd3	0.034009766
187	0x3e3128de	0.17300746
188	0x3e88aec8	0.26695848
189	0x3e218cba	0.15776339
190	0xbdd4077e	-0.103529915
191	0x3d577f02	0.05261136
192	0xbe10e4d7	-0.14149795
193	0xbd51994a	-0.05117158
194	0xbe08fa58	-0.13376749
195	0x3e20eeb9	0.15716065
196	0x3d93b2f6	0.072118685
197	0xbe167419	-0.14692725
198	0x3db33aa5	0.0875142
199	0x3e256be5	0.1615444
200	0x3ec779d6	0.3896014
201	0xbd6dea16	-0.05808457
202	0xbd0c8c4d	-0.03431349
203	0xbde8cf28	-0.11367637
204	0xbe79660a	-0.24355331
205	0x3e87be1d	0.26512232
206	0xbd0c3af9	-0.03423593
207	0xbdfdb2c3	-0.12387612
208	0xbeb9f28d	-0.36317864
209	0xbeb5055c	-0.3535565
210	0x3dab98b4	0.08378735
211	0x3d94f03f	0.07272386
212	0xbe0feeaf	-0.14055894
213	0xbe4b70b4	-0.19867212
214	0xbd301a06	-0.042993568
215	0x3d126aac	0.03574626
216	0xbcc41534	-0.023935892
217	0x3c84d09c	0.016212754
218	0xbcf5dd10	-0.030012637
219	0x3d2cf425	0.042225022
220	0xbdcf05c8	-0.101085246
221	0x3ce50167	0.02795477
222	0x3c855682	0.016276602
223	0x3dd34be7	0.103172116
224	0xbd64791c	-0.05577956
225	0xbd92ad5f	-0.07161974
226	0xbd9f14b9	-0.077676244
227	0x3e52d4cc	0.20588988
228	0xbcb2c8a4	-0.021824189
229	0xbdcaf91c	-0.09910795
230	0xbd21f678	-0.03954169
231	0x3e364de0	0.17803144
232	0xbe09ab0b	-0.13444154
233	0x3ea66ff1	0.3250728
234	0xbcab90d5	-0.020943085
235	0x3ebd5a55	0.3698298
236	0x3e86f645	0.26359764
237	0xbcd9cf89	-0.026588218
238	0x3b496c60	0.0030734763
239	0xbe91bfbe	-0.284666
240	0x3d81c10c	0.06335649
241	0x3e5d3d3f	0.21605395
242	0xbef92c87	-0.48666784
243	0x3cb3dc3a	0.021955598
244	0x3d846922	0.06465365
245	0x3dc006d4	0.09376302
246	0xbe18c725	-0.14919718
247	0x3e80a0e0	0.25122738
248	0xbe9145ac	-0.28373468
249	0xbe24f8e9	-0.16110577
250	0xbde5db20	-0.112234354
251	0xbeab634b	-0.33474192
252	0x3e7bd867	0.2459427
253	0xbd01e0c5	-0.031708498
254	0x3dd5f766	0.10447578
255	0x3d3a9a32	0.04555721

a1.bias f4 [16]
0	0x3d346e50	0.044050515
1	0xbd9fda1a	-0.078052714
2	0xbd603b96	-0.054744326
3	0xbde16cd2	-0.11007084
4	0x3e118ff6	0.14215073
5	0xbdcf5a00	-0.10124588
6	0x3d15fdb0	0.03661889
7	0xbdb82bc3	-0.08992722
8	0xbe19083c	-0.14944547
9	0x3dd2296b	0.10261806
10	0xbd38c5a8	-0.045110375
11	0x3db9a48e	0.090645894
12	0xbd83294a	-0.0640436
13	0xbd6691ec	-0.056291506
14	0x3e6920de	0.22766444
15	0x3e54167a	0.20711699

a2.weight f4 [16, 16, 3, 3]
0	0x3c6005e8	0.013673283
1	0xbea85ccb	-0.32883295
2	0xbe023a63	-0.12717585
3	0x3dccd798	0.10002059
4	0x3de79d8d	0.11309347
5	0xbe56e315	-0.20985062
6	0x3d98973b	0.0745072
7	0xbc9b2c32	-0.018941972
8	0x3db6402f	0.08898961
9	0xbcfaf9c1	-0.03063667
10	0x3da7dd26	0.081964776
11	0x3c85c0e1	0.016327323
12	0xbe024b42	-0.12724021
13	0x3e161eb4	0.1466015
14	0xbe17301a	-0.14764443
15	0xbd2d25e6	-0.04227247
16	0x3e06ee35	0.13176806
17	0xbc942a33	-0.018086528
18	0xbcfc1929	-0.030773716
19	0xbe275cb7	-0.16343962
20	0xbe746bdc	-0.2386927
21	0xbedb26ce	-0.42803043
22	0xbdc39168	-0.095492184
23	0xbcb215d4	-0.021738924
24	0xbd526fb5	-0.051376063
25	0xbeb5ae8c	-0.3548473
26	0x3dec50b4	0.115388304
27	0xbf1aac9c	-0.6041963
28	0x3e5e507a	0.21710387
29	0xbe92ca2c	-0.2866987
30	0x3eeaa065	0.45825496
31	0xbe51b476	-0.20478997
32	0x3e33ada6	0.1754671
33	0x3db68cb2	0.08913554
34	0x3d79532b	0.06087033
35	0x3d27a8d6	0.0409325
36	0x3cefc0af	0.029266683
37	0xbeb00cb5	-0.34384695
38	0xbd785da2	-0.06063617
39	0x3bcefb68	0.006316591
40	0xbcbbeca0	-0.02293998
41	0xbe28b79e	-0.16476294
42	0xbecc6488	-0.3992045
43	0xbe491d76	-0.19640145
44	0xbe24ef29	-0.16106857
45	0x3da3e7cc	0.08003196
46	0xbe2ad4bf	-0.16682719
47	0xbdcf18c6	-0.10112147
48	0x3e4785a7	0.19484578
49	0x3d2ff042	0.042953737
50	0x3df61e06	0.12017445
51	0xbead7787	-0.33880255
52	0x3e04a751	0.12954451
53	0x3e26b18f	0.1627867
54	0xbe028375	-0.1274546
55	0x3cda448d	0.026644016
56	0x3b6650d3	0.003514339
57	0x3eb0e0f3	0.34546623
58	0x3ea28280	0.3174019
59	0x3d66b460	0.056324363
60	0x3dc79488	0.09745127
61	0xbcc19c12	-0.02363399
62	0x3c4e655b	0.012597407
63	0x3e877e58	0.2646358
64	0xbe2e86a6	-0.17043552
65	0xbd6c0404	-0.057621017
66	0xbe86f554	-0.26359046
67	0x3b7aa796	0.0038246862
68	0xbde230c3	-0.11044457
69	0xbdf99c09	-0.121879645
70	0xbda89073	-0.082306765
71	0x3e4c3372	0.199415
72	0x3e50e79d	0.20400853
73	0x3db3f689	0.08787257
74	0x3bbe6623	0.0058105155
75	0xbb55b945	-0.003261165
76	0x3c20bdfe	0.009810923
77	0x3e416134	0.18884736
78	0xbe2bf7e0	-0.16793776
79	0x3eb3e858	0.35138202
80	0x3ddccea8	0.10781604
81	0x3d9f0679	0.077649064
82	0x3e64507b	0.22296326
83	0xbb484cfe	-0.003056347
84	0xbe13e92f	-0.14444421
85	0x3e072608	0.13198102
86	0x3ec269b4	0.3797127
87	0x3e062914	0.13101608
88	0x3d90caaa	0.07069905
89	0x3dfe2368	0.12409097
90	0xbe0ea5f1	-0.13930489
91	0xbd81fce9	-0.06347067
92	0xbe1bb5b4	-0.15206033
93	0x3dd9bee9	0.10632116
94	0x3e3e1ebb	0.1856641
95	0xbe901f24	-0.28148758
96	0x3d910c5d	0.07082436
97	0xbd41914b	-0.047257703
98	0x3e26bc64	0.16282803
99	0xbe813e29	-0.25242737
100	0xbd6641cf	-0.056215104
101	0xbca2e64f	-0.01988521
102	0xbdfe091e	-0.12404083
103	0xbe0604b2	-0.13087729
104	0x3caa4268	0.020783618
105	0x3ee0c4ae	0.43900055
106	0x3d0e2dac	0.034711525
107	0xbdef807f	-0.116944306
108	0xbd639318	-0.0555602
109	0xbdfb83fb	-0.12281033
110	0x3cbf7006	0.023368847
111	0xbc023774	-0.007947791
112	0x3ee10807	0.43951437
113	0xbe922969	-0.28547218
114	0x3edebd64	0.4350387
115	0x3e4ff381	0.20307733
116	0xbe34442d	-0.17604132
117	0x3e191c32	0.14952162
118	0xbe9e552e	-0.30924362
119	0xbee0c8cc	-0.43903196
120	0x3d501468	0.05080071
121	0x3eb2d936	0.34931344
122	0x3e25accb	0.16179197
123	0x3e67899b	0.22611086
124	0xbe23719b	-0.15961306
125	0xbb9b11db	-0.004732353
126	0xbdaa371c	-0.083112925
127	0xbeff1350	-0.49819422
128	0xbd3619d1	-0.044458214
129	0xbd08a7f8	-0.033363312
130	0x3be70cca	0.007051085
131	0xbe632811	-0.22183253
132	0xbdce9a38	-0.10088009
133	0xbe2937dd	-0.16525216
134	0x3e1207bc	0.14260763
135	0xbe8de480	-0.27713394
136	0xbd0c9d42	-0.03432966
137	0xbe0df6a2	-0.13863614
138	0xbde77b3e	-0.113028035
139	0xbe1044fe	-0.14088818
140	0x3edfa91f	0.43683717
141	0xbe66cc5f	-0.22538899
142	0x3cbd0bc4	0.0230769
143	0x3c6a9f76	0.014320245
144	0xbdbd95c2	-0.0925708
145	0x3c90a00e	0.017654445
146	0x3d778b09	0.06043533
147	0xbdda3447	-0.10654502
148	0xbe136168	-0.14392626
149	0xbd08c360	-0.03338945
150	0xbdef3065	-0.116791524
151	0xbd3a9024	-0.04554762
152	0xbda437c8	-0.08018452
153	0xbcd0a437	-0.025468929
154	0xbd431ed0	-0.047636807
155	0x3e3899fe	0.18027493
156	0xbd90c622	-0.07069041
157	0xbdf1efe9	-0.11813337
158	0x3bf1d07b	0.007379589
159	0x3db2de2d	0.08733783
160	0x3dc263b1	0.09491671
161	0x3dad3c4d	0.08458767
162	0x3dc69a9b	0.096974574
163	0x3c8c41b7	0.017121179
164	0x3e163028	0.14666808
165	0xbd60e509	-0.054905925
166	0x3e222812	0.15835598
167	0x3e016bca	0.12638775
168	0xbd1e8992	-0.038705416
169	0x3d94980d	0.07255564
170	0x3dc4b274	0.0960435
171	0xbdf9e35b	-0.12201568
172	0x3e233bcf	0.15940784
173	0x3e56c719	0.20974387
174	0xbd398360	-0.045291305
175	0xbcc5b750	-0.024135262
176	0xbd02e64e	-0.031957917
177	0x3d747b12	0.05968768
178	0xbd974c27	-0.07387572
179	0x3e952ab6	0.29134148
180	0x3e90e64f	0.28300712
181	0xbe2e1144	-0.16998774
182	0x3e15bca0	0.14622736
183	0x3dc2da11	0.09514249
184	0x3dbfae71	0.09359444
185	0xbdaa7ddd	-0.08324788
186	0x3e2d98a0	0.16952753
187	0xbd829557	-0.063761406
188	0xbd58b6e3	-0.05290879
189	0xbddbf8d6	-0.10740821
190	0x3dcabafb	0.09898945
191	0x3e11e7f4	0.1424864
192	0x3a8968ed	0.0010483541
193	0x3cad5b82	0.021161798
194	0xbd948a1e	-0.07252906
195	0x3d90e5ea	0.070751026
196	0x3d8527b3	0.06501713
197	0xbe1bcb50	-0.15214276
198	0xbdfdf264	-0.12399748
199	0xbd81808a	-0.06323345
200	0xbdf90acc	-0.121602625
201	0xbd872b58	-0.06600064
202	0xbc9d591c	-0.01920753
203	0x3cf7cdb7	0.03024946
204	0xbd875649	-0.066082545
205	0xbe38514c	-0.17999762
206	0x3c8c132e	0.01709899
207	0x3dc70f06	0.09719662
208	0x3e2b6f65	0.16741712
209	0x3d8d5d33	0.06902542
210	0xbdea7417	-0.11447924
211	0x3da27f7c	0.07934472
212	0x3c88775b	0.016658476
213	0x3e049b14	0.12949783
214	0xbc364a27	-0.011126078
215	0x3eb7d894	0.35907423
216	0xbcaa0951	-0.020756396
217	0xbdceb14d	-0.10092411
218	0x3da4c31c	0.08045027
219	0xbea2ec73	-0.3182102
220	0x3dc2d2c3	0.09512856
221	0xbe1015fc	-0.14070886
222	0xbe780d1d	-0.24223752
223	0x3e78e83b	0.24307339
224	0xbce73323	-0.028222626
225	0xbd01bfc6	-0.03167703
226	0xbdaa20df	-0.08307051
227	0x3db7665e	0.08955072
228	0x3d076e2a	0.033064045
229	0x3cb9caf7	0.022679789
230	0x3dba4742	0.090956226
231	0xba9b9dc6	-0.0011872582
232	0xbd9e8778	-0.07740682
233	0xbdc624eb	-0.0967501
234	0x3e123ff7	0.14282213
235	0x3dfdab54	0.12386194
236	0xbd944406	-0.07239537
237	0x3ca2d4fb	0.019876948
238	0xbe5d89e8	-0.21634638
239	0x3e489e73	0.19591694
240	0xbd8ee49b	-0.06977197
241	0x3e1d01c8	0.1533271
242	0xbe409b88	-0.1880933
243	0x3c93d423	0.01804549
244	0x3eb0ebcd	0.34554902
245	0x3de01ce4	0.109430104
246	0x3c4ee5bd	0.012628016
247	0x3d7db48b	0.061939757
248	0x3e660b40	0.22465229
249	0xbe29019b	-0.16504519
250	0xbe410296	-0.18848643
251	0xbe31d3ad	-0.17365904
252	0xbd1317db	-0.035911422
253	0x3e8c7e2b	0.2744001
254	0xbc1eeb80	-0.009699702
255	0xbdd12994	-0.102130085

a2.bias f4 [16]
0	0xbdc4b76d	-0.09605298
1	0xbe0b4951	-0.13602187
2	0xbd9a9497	-0.075478725
3	0xbce13349	-0.027490275
4	0x3c96b23e	0.01839554
5	0xbdfcc026	-0.12341337
6	0xbbdd44c2	-0.0067525813
7	0xbcf93745	-0.030421862
8	0x3dcfad60	0.101404905
9	0xbdc86684	-0.09785178
10	0xbe166c29	-0.14689697
11	0xbc0c1650	-0.008550242
12	0xbde4f162	-0.111788526
13	0x3d0db344	0.03459479
14	0x3e195dfa	0.14977255
15	0x3da54a4a	0.0807081

a3.weight f4 [32, 16, 3, 3]
0	0xbe1e51ec	-0.15460938
1	0x3ea38e26	0.31944388
2	0xbece380c	-0.40277135
3	0xbd902003	-0.07037356
4	0xbdec3e97	-0.115353756
5	0xbdad5a5f	-0.084645025
6	0xbeefb560	-0.46818066
7	0xbc403991	-0.011732475
8	0x3e1e8a77	0.15482508
9	0xbcf2a359	-0.029618906
10	0xbda64002	-0.08117677
11	0xbe26ad81	-0.16277124
12	0xbd2ffc22	-0.042965062
13	0x3e380cb1	0.17973591
14	0x3e1a3795	0.15060265
15	0xbe8b032f	-0.27150866
16	0xbe54d50f	-0.207844
17	0xbecbfd92	-0.39841896
18	0x3e0e1897	0.13876568
19	0x3d33d520	0.043904424
20	0x3dba5afc	0.09099385
21	0x3dea0f72	0.11428727
22	0x3e17e65a	0.14833966
23	0xbe076152	-0.13220719
24	0xbd9bce8f	-0.07607757
25	0x3d5a6dc3	0.053327333
26	0xbdbd925b	-0.09256431
27	0xbe84683e	-0.2586078
28	0x3e290fe0	0.16509962
29	0x3e16b538	0.14717567
30	0x3db8fe58	0.09032887
31	0xbdcb83ad	-0.099372245
32	0x3e09dcac	0.13463086
33	0xbd56c0cc	-0.05242996
34	0xbe206959	-0.15665187
35	0x3c209029	0.009799995
36	0x3e40a4bd	0.18812843
37	0x3dc43625	0.0958064
38	0xbe0f6105	-0.14001854
39	0xbdcf0633	-0.10108604
40	0x3e87f123	0.2655116
41	0xbd864dac	-0.065577835
42	0x3e11df52	0.14245346
43	0x3d3676a5	0.044546742
44	0xba96038c	-0.0011445149
45	0x3dc64ba4	0.09682396
46	0x3d18a976	0.037270986
47	0xbe029b2a	-0.12754503
48	0x3e81b655	0.2533442
49	0xbc5044ed	-0.012711746
50	0x3e9252f0	0.285789
51	0xbe946fb8	-0.28991485
52	0xbe10dafc	-0.14146036
53	0x3df8ac59	0.12142248
54	0x3d9d5fee	0.07684313
55	0x3d29bc2e	0.041439228
56	0xbe39f512	-0.18159893
57	0x3d26f16f	0.040757593
58	0x3dcfb97c	0.101428
59	0xbe02a630	-0.12758708
60	0x3d7b7f41	0.061400656
61	0x3e89e9a2	0.2693606
62	0x3d175f64	0.036956206
63	0x3e14d5da	0.14534703
64	0xba1c967e	-0.0005973353
65	0x3d3a72e9	0.045519743
66	0x3db319d2	0.08745159
67	0x3e7bd89c	0.24594349
68	0xbe8d2484	-0.27566922
69	0x3eb17040	0.34655952
70	0xbdf1479f	-0.11781239
71	0xbe31b025	-0.1735235
72	0xbbe83640	-0.007086545
73	0x3d9becba	0.076135114
74	0xbda151bb	-0.07876917
75	0x3de0bef6	0.10973923
76	0x3e8db542	0.2767735
77	0x3cfc8069	0.03082295
78	0xbcc4ad2a	-0.024008352
79	0xbe786506	-0.24257287
80	0xbe012469	-0.12611546
81	0x3d0145f9	0.03156087
82	0x3e6d6567	0.23183213
83	0xbe00f6a5	-0.12594087
84	0x3e66b6d2	0.22530678
85	0xbd457edb	-0.048216682
86	0xbc849c53	-0.016187822
87	0xbe2204a3	-0.15822081
88	0xbde72752	-0.11286797
89	0x3dd286c5	0.102796115
90	0xbc52dded	-0.012870294
91	0x3d8b8c58	0.06813878
92	0xbd55f59f	-0.052236196
93	0x3ddbec07	0.10738378
94	0xbe978670	-0.29594755
95	0x3eab6b12	0.33480126
96	0x3d020efb	0.031752568
97	0xbe13a59c	-0.14418644
98	0xbe3eb675	-0.1862429
99	0xbd3925bb	-0.045202
100	0xbe592b62	-0.21207955
101	0xbdced104	-0.1009846
102	0xbe241001	-0.1602173
103	0x3e948648	0.29008698
104	0xbd1f9795	-0.03896292
105	0xbdc6c46a	-0.09705432
106	0x3e591148	0.21197999
107	0xbdcee721	-0.10102678
108	0xbd3bfcab	-0.04589526
109	0xbea06636	-0.3132798
110	0xbe4c0199	-0.19922484
111	0x3e468356	0.19386038
112	0xbce4a990	-0.027912885
113	0x3e9ff9c1	0.31245235
114	0xbeec8158	-0.4619243
115	0x3cba8e71	0.022773
116	0xbd0260db	-0.03183065
117	0x3ef5fffa	0.48046857
118	0x3d250d20	0.04029572
119	0xbda49fc4	-0.080382854
120	0x3e81eb89	0.25375012
121	0xbd09b12e	-0.033616237
122	0xbdaa5290	-0.08316529
123	0x3df235ec	0.11826691
124	0xbc79ce14	-0.015246887
125	0x3e553c95	0.20823891
126	0x3ea369a9	0.3191655
127	0xbe6c78bc	-0.23092932
128	0xbec0822f	-0.37599322
129	0x3d6b7f62	0.05749453
130	0x3e8b912a	0.2725919
131	0xbe3030ec	-0.17206162
132	0x3dc56ec3	0.09640267
133	0xbdc48250	-0.09595168
134	0xbe8455b3	-0.25846633
135	0x3bc62371	0.0060467054
136	0x3d9d6243	0.076847576
137	0x3dc7717e	0.09738444
138	0x3c441ae7	0.011969305
139	0x3e9cc8a2	0.3062182
140	0xbf2bd260	-0.6711788
141	0x3e274fb9	0.16339006
142	0xbe470a66	-0.1943756
143	0xbe37b492	-0.17939976
144	0x3e0f0762	0.1396766
145	0xbd8042ce	-0.06262742
146	0x3ed06345	0.40700737
147	0x3dfcc93e	0.123430714
148	0x3c92b302	0.017907623
149	0x3e156a6d	0.1459138
150	0xbd862aa7	-0.06551104
151	0xbd8b58a3	-0.068040155
152	0x3daae2a5	0.0834401
153	0xbd93ce86	-0.072171256
154	0xbdcb4dab	-0.09926923
155	0x3e14e4e1	0.14540435
156	0xbdf2864f	-0.118420236
157	0xbe21bc18	-0.15794408
158	0x3e284b9c	0.16435093
159	0x3e37653b	0.1790971
160	0x3e1fb356	0.15595755
161	0xbe2e3e5c	-0.17015976
162	0xbeabaaa5	-0.3352863
163	0xbd89ebbf	-0.06734418
164	0xbd2f011d	-0.04272567
165	0x3e43e48d	0.19130154
166	0xbe1adbcb	-0.15122907
167	0xbe7db760	-0.24776983
168	0xbe30f6de	-0.17281672
169	0xbd0d1859	-0.034447048
170	0xbe6899ba	-0.22714892
171	0xbdc8df2a	-0.0980819
172	0xbe05eed6	-0.1307939
173	0xbda0d492	-0.078530446
174	0xbe3a155f	-0.18172215
175	0x3e08f444	0.1337443
176	0x3dffdfe5	0.12493876
177	0x3db8cc09	0.090232916
178	0xbdf0a29a	-0.11749764
179	0x3e108ff2	0.14117411
180	0xbe5b6154	-0.21423846
181	0xbd905091	-0.07046617
182	0xbd618c61	-0.055065516
183	0xbe2ac0e1	-0.1667514
184	0xbdf2b550	-0.11850989
185	0x3e546d05	0.20744713
186	0xbd75406a	-0.059875883
187	0xbdefff34	-0.11718598
188	0x3e60c490	0.21949983
189	0x3defd6a6	0.11710863
190	0x3dba0234	0.090824515
191	0x3d83519f	0.06412052
192	0x3da87083	0.08224585
193	0xbd0e4898	-0.0347372
194	0x3e8a1b06	0.26973742
195	0xbd8d3966	-0.068957135
196	0xbca4627f	-0.020066498
197	0x3dd44757	0.103651695
198	0xbe2b6b02	-0.16740039
199	0xbe4aba35	-0.19797595
200	0x3dbc0b21	0.0918181
201	0xbd14a6c0	-0.036291838
202	0xbe421793	-0.18954305
203	0x3e07561a	0.13216439
204	0x3dc53a00	0.09630203
205	0x3e625397	0.221022
206	0x3e52f3b8	0.20600784
207	0xbe905450	-0.28189325
208	0xbe1dca67	-0.15409242
209	0xbebfd45c	-0.37466705
210	0x3df37951	0.11888374
211	0x3ea48733	0.321344
212	0xbdefa0fc	-0.11700627
213	0xbf0f4712	-0.5596782
214	0x3da8d922	0.0824454
215	0x3e8cd426	0.27505606
216	0x3d961fc9	0.07330281
217	0x3e94626f	0.2898135
218	0xbe0a11df	-0.1348338
219	0xbe66aa07	-0.22525798
220	0x3c77f07b	0.015133019
221	0xbeb1e3c1	-0.34744075
222	0xbdf32005	-0.118713416
223	0xbe166575	-0.1468714
224	0x3bae94a3	0.0053277775
225	0x3e1e3719	0.15450706
226	0xbe0528f5	-0.13003905
227	0xbdb25513	-0.08707633
228	0x3ca01de0	0.019545496
229	0xbd290ecb	-0.041273873
230	0xbe77e567	-0.24208604
231	0xbca6664a	-0.020312447
232	0x3e36cb52	0.17850998
233	0x3d0b945b	0.03407703
234	0x3e599699	0.21248855
235	0xbe1dd264	-0.15412289
236	0x3e6c5cef	0.23082326
237	0xbe4b267e	-0.19838902
238	0xbe1e368e	-0.15450498
239	0xbe4da517	-0.20082508
240	0xbe05a69d	-0.13051839
241	0xbec0d1fd	-0.37660208
242	0xbd872244	-0.065983325
243	0xbea25300	-0.3170395
244	0xbd378160	-0.044801116
245	0xbd76b966	-0.060235403
246	0xbdfc3e0c	-0.12316522
247	0xbd77c7cc	-0.060493276
248	0x3e087ca1	0.13328792
249	0xbf02cd31	-0.5109435
250	0xbe6fb027	-0.2340704
251	0x3e2d9f13	0.16955213
252	0x3e7afbca	0.24510112
253	0xbdca49e0	-0.09877372
254	0x3e44cf62	0.19219735
255	0xbe5f0d6b	-0.21782462

a3.bias f4 [32]
0	0xbe271637	-0.16317068
1	0x3d8a8914	0.06764427
2	0x3d8c5909	0.068529196
3	0xbe60d5f2	-0.21956614
4	0xbe62d6c2	-0.22152236
5	0x3d18b323	0.037280213
6	0x3d0434f5	0.032277066
7	0xbe1ee249	-0.15516008
8	0xbe900023	-0.28125104
9	0xbe1826f5	-0.14858611
10	0xbdf11750	-0.11772025
11	0xbddaacc4	-0.10677484
12	0xbec2d769	-0.3805497
13	0xbdb9537b	-0.09049126
14	0xbd8a4ada	-0.06752558
15	0x3e823555	0.25431314
16	0x3e51a939	0.2047471
17	0xbde32c5d	-0.11092446
18	0xbdcd8132	-0.10034408
19	0xbe60830c	-0.2192499
20	0xbd022f02	-0.03178311
21	0xbe286115	-0.16443284
22	0xbd79b6ae	-0.060965233
23	0xbe172068	-0.14758456
24	0xbd7c0e8f	-0.06153732
25	0x3e2ce69b	0.16884844
26	0x3e66d223	0.22541098
27	0xbd987f27	-0.074461274
28	0x3c8f1094	0.01746396
29	0x3d82d55e	0.06388353
30	0xbd4524c8	-0.04813078
31	0xbe148092	-0.1450217

b1.weight f4 [32, 32, 3, 3]
0	0xbea91c8f	-0.330296
1	0x3d4227b1	0.047401134
2	0xbe001902	-0.1250954
3	0xbd6787cb	-0.056525987
4	0xbd7d06af	-0.061773952
5	0xbe2c74a7	-0.16841374
6	0xbd8d7a01	-0.06908036
7	0x3cea1dc9	0.028578656
8	0xbe3643ed	-0.17799349
9	0x3cffb565	0.031214425
10	0xbea49b10	-0.32149553
11	0x3d98af11	0.07455266
12	0xbe6ef07d	-0.23333926
13	0xbef3c403	-0.47610483
14	0x3cd730e3	0.026268428
15	0x3dcc612a	0.0997947
16	0xbea019ea	-0.3126977
17	0x3eabc417	0.33548042
18	0xbd03015a	-0.03198371
19	0x3e1e88c1	0.15481855
20	0x3d4c5714	0.04988773
21	0x3e08a514	0.13344222
22	0x3e66d8c2	0.22543624
23	0xbdc60a92	-0.09669985
24	0xbd322171	-0.043488923
25	0x3db9bb61	0.09068943
26	0xbdb1ef7e	-0.08688258
27	0x3e71aed1	0.23601843
28	0x3e461f11	0.19347788
29	0x3e0bdd06	0.13658533
30	0x3dbe1e4a	0.09283121
31	0xbe87dfe7	-0.2653801
32	0x3e13515f	0.1438651
33	0xbe099929	-0.13437332
34	0xbe05431d	-0.13013883
35	0xbe8304a6	-0.25589484
36	0x3e5306e5	0.20608099
37	0xbe5b497d	-0.21414752
38	0x39d2c1b6	0.00040198647
39	0xbc2bb842	-0.010480942
40	0x3c369eee	0.01114629
41	0xbeb36c1f	-0.35043427
42	0xbd2b1841	-0.041771177
43	0xbef57dde	-0.47947592
44	0x3d0eb8e3	0.03484429
45	0x3eda4073	0.42627296
46	0xbee179fb	-0.44038376
47	0xbd09737b	-0.033557396
48	0x3e4875de	0.19576213
49	0xbdeadec5	-0.11468271
50	0x3cb7d835	0.022441963
51	0x3dc80a32	0.097675696
52	0xbd5bd1d5	-0.05366691
53	0xbeb0969c	-0.34489906
54	0xbe3b4104	-0.1828652
55	0xbe0c52fc	-0.13703531
56	0xbd76a5bb	-0.060216647
57	0xbdb5a1ba	-0.088687375
58	0x3d9c9edc	0.076474875
59	0x3c8b1351	0.016976984
60	0xbe11d335	-0.14240725
61	0xbc12b15e	-0.00895342
62	0xbd589de7	-0.052884962
63	0xbd7da280	-0.06192255
64	0x3d5ac4c7	0.053410318
65	0x3d27b531	0.040944282
66	0x3d2a98aa	0.041649498
67	0xbe0baba8	-0.136397
68	0xbd1a6b6f	-0.037700113
69	0x3c262c99	0.010142469
70	0x3d6e9116	0.058243833
71	0x3cc7d888	0.024395242
72	0xbd8a0f25	-0.0674117
73	0xbe753e8c	-0.23949641
74	0xbeb2c120	-0.34912968
75	0xbe99b718	-0.30022502
76	0x3e378cc4	0.17924792
77	0xbd2674fe	-0.040638916
78	0xbe977f02	-0.29589087
79	0x3d604ee4	0.054762736
80	0x3e7e7cec	0.24852341
81	0x3e2a83af	0.16651796
82	0xbdb40d54	-0.08791605
83	0xbdbb679e	-0.09150623
84	0x3e67ee67	0.22649537
85	0x3e02512b	0.12726276
86	0x3ea2299a	0.31672364
87	0x3f03d8c3	0.5150263
88	0xbd898ebd	-0.06716678
89	0xbd730e8e	-0.059340052
90	0xbe574122	-0.2102094
91	0x3e50a68a	0.2037603
92	0xbe6bf107	-0.23041163
93	0x3dee1b74	0.1162633
94	0x3e3803bf	0.17970179
95	0xbdcb77bc	-0.09934947
96	0x3db651f9	0.08902354
97	0x3d16f9ae	0.036859207
98	0x3cd1533f	0.02555239
99	0xbe6aea0c	-0.22940844
100	0xbe326aec	-0.174236
101	0xbec5d1c6	-0.38636607
102	0x3e7944a0	0.24342585
103	0xbe01af45	-0.12664516
104	0xbe933e30	-0.28758383
105	0x3e78c046	0.24292096
106	0x3dfa2109	0.12213332
107	0xbe1c9c51	-0.15294005
108	0xbeb3888f	-0.35065123
109	0xbe9c7194	-0.30555403
110	0xbda3c3a8	-0.07996303
111	0xbe05b282	-0.13056377
112	0xbdbc1e18	-0.091854274
113	0x3e8d4e97	0.27599022
114	0xbe4d17fa	-0.20028678
115	0xbe9f39d0	-0.31098795
116	0xbd3d2a3b	-0.046182852
117	0xbd326598	-0.04355392
118	0x3d3f4108	0.046692878
119	0x3da12d23	0.07869937
120	0x3db80df5	0.08987037
121	0xbd0b2eae	-0.033980064
122	0xbdf0c026	-0.117553994
123	0xbc30f2f7	-0.010800115
124	0xbe9da029	-0.30786255
125	0x3e040d8b	0.12895791
126	0x3dc6e189	0.09710986
127	0x3e068500	0.13136673
128	0x3d1b16cd	0.03786354
129	0xbcfd9fe2	-0.030960027
130	0xbe84434f	-0.25832602
131	0x3c6c225f	0.014412492
132	0xbcf77e76	-0.030211668
133	0xbe196167	-0.14978562
134	0xbc1e32eb	-0.0096556945
135	0xbc2076dd	-0.009793964
136	0x3af1b405	0.0018440491
137	0xbd2c16da	-0.04201398
138	0xbe4dc1fd	-0.20093532
139	0x3c8d8064	0.017273135
140	0xbd594419	-0.05304346
141	0x3ca16385	0.019700775
142	0xbeb1dc77	-0.34738514
143	0x3c3470ca	0.011013219
144	0xbe1576dc	-0.14596123
145	0x3c9097e3	0.01765055
146	0x3dc785b1	0.097422965
147	0x3e2b77f7	0.16744982
148	0x3e7a8e44	0.24468333
149	0x3dc2a9ad	0.09505019
150	0x3d0c7bff	0.03429794
151	0xbd9a1f16	-0.075254604
152	0x3e61337a	0.21992293
153	0x3ce92e36	0.028464418
154	0x3e0668e9	0.13125958
155	0xbecfdff4	-0.4060055
156	0xbc417a04	-0.011808876
157	0xbd5f8a0b	-0.054575007
158	0xbee11ffb	-0.43969712
159	0xbd1241cf	-0.03570729
160	0x3e487fd0	0.19580007
161	0xbdab1416	-0.083534405
162	0x3e4da8b1	0.20083882
163	0xbcb53ae4	-0.022122808
164	0xbdb8da99	-0.09026069
165	0x3d037017	0.03208932
166	0xbed0e94b	-0.40802988
167	0xbe6376d8	-0.22213304
168	0xbda11c0a	-0.07866676
169	0xbdb04c16	-0.08608262
170	0xbe0573ba	-0.13032427
171	0xbe72a72d	-0.23696585
172	0x3ea00635	0.31254736
173	0xbe6bc06d	-0.23022623
174	0x3dda34d8	0.106546104
175	0x3e547ee0	0.20751524
176	0xbdb1500f	-0.08657848
177	0xbe0ed0e0	-0.13946867
178	0x3e72a85f	0.23697041
179	0xbd99e80e	-0.07514964
180	0x3d041cb4	0.032253936
181	0xbe255bff	-0.16148375
182	0x3dc1a226	0.094547555
183	0x3cd8443c	0.026399724
184	0xbd045bc2	-0.03231407
185	0xbd4bafd4	-0.04972823
186	0x3e41f87b	0.18942444
187	0x3d60a79c	0.054847345
188	0x3e671a17	0.22568546
189	0x3da1be4c	0.078976244
190	0xbe590f25	-0.21197183
191	0xbe143b0d	-0.14475651
192	0x3e17632f	0.1478393
193	0x3daceeaf	0.08443963
194	0x3e22020f	0.15821098
195	0xbd08a0bf	-0.033356424
196	0xbe0f2f18	-0.13982809
197	0xbe226877	-0.15860163
198	0xbe4dd969	-0.20102467
199	0x3df69943	0.12040951
200	0x3d3b90b4	0.045792297
201	0xbe398f85	-0.18121155
202	0x3dd0b61f	0.10190987
203	0x3dcc86a7	0.099866204
204	0x3e18f2c8	0.14936364
205	0xbeadbba2	-0.33932215
206	0xbdbd5c38	-0.09246105
207	0xbe0b1762	-0.13583139
208	0x3e239892	0.1597617
209	0xbe0ad380	-0.13557243
210	0xbe39d4e2	-0.18147615
211	0xbd498957	-0.049203243
212	0xbe21fa0a	-0.15818039
213	0xbde2becf	-0.1107155
214	0x3e911007	0.2833254
215	0x3dc093dc	0.09403202
216	0x3e780268	0.24219668
217	0xbe53b95f	-0.20676182
218	0xbea0c685	-0.31401458
219	0xbe9d54fb	-0.30728897
220	0x3d004c64	0.03132285
221	0x3dd0869c	0.10181925
222	0xbc57be6a	-0.013167957
223	0x3e130001	0.1435547
224	0x3d10f352	0.0353883
225	0x3e3d91d9	0.18512668
226	0x3d21a273	0.039461564
227	0xbed66717	-0.41875526
228	0xbdbd248a	-0.09235485
229	0x3ced7e33	0.02899084
230	0x3de76c54	0.11299959
231	0xbdc58124	-0.09643772
232	0x3ea59299	0.32338408
233	0x3e0f8c70	0.14018416
234	0x3ec0d669	0.37663582
235	0x3b51ebd1	0.0032031427
236	0xbe91eafb	-0.28499588
237	0x3da6bdf4	0.081416994
238	0xbc9ae431	-0.018907638
239	0x3c5c4f1d	0.013446596
240	0x3d124709	0.035712276
241	0x3e8aa2c7	0.27077314
242	0xbecbbc18	-0.39791942
243	0x3e829576	0.25504655
244	0xbc469e43	-0.0121226935
245	0xbdaf9dec	-0.08575043
246	0xbf2d9b54	-0.67815137
247	0xbe5d4b66	-0.21610793
248	0xbd09a63e	-0.033605807
249	0x3c802c7e	0.015646216
250	0x3e41615d	0.18884797
251	0x3d1541d0	0.036439717
252	0x3e9718db	0.2951115
253	0xbd88bca1	-0.06676603
254	0xbed36433	-0.41287383
255	0x3d5bb978	0.053643674

b1.bias f4 [32]
0	0xbd9b0a20	-0.075702906
1	0xbe253431	-0.1613319
2	0xbe9608ad	-0.29303494
3	0xbe2036d6	-0.15645918
4	0x3eac46fd	0.3364791
5	0xbde4d69a	-0.111737445
6	0xbdd70293	-0.10498538
7	0x3bed99a3	0.007250981
8	0xbd884b96	-0.06655042
9	0xbe9f38dd	-0.3109807
10	0xbe726685	-0.2367192
11	0x3d8df1a1	0.06930853
12	0xbe2b0d1e	-0.16704223
13	0xbe80581f	-0.2506723
14	0x3d340fd0	0.043960392
15	0xbe0f0469	-0.13966526
16	0xbddf17db	-0.10893222
17	0xbec17281	-0.37782672
18	0xbe0632a4	-0.13105255
19	0x3e0b51a1	0.13605358
20	0xbde07172	-0.10959138
21	0xbe59fe52	-0.21288422
22	0x3e9f0023	0.31054792
23	0xbead588b	-0.33856615
24	0xbd1f72c1	-0.038927797
25	0xbe005fd9	-0.12536563
26	0xbdbcb774	-0.092146784
27	0xbee663ce	-0.4499802
28	0xbd592a50	-0.053018868
29	0xbad837ec	-0.0016496158
30	0x3dd0f05e	0.102020964
31	0xbdf66cfd	-0.120325066

b2.weight f4 [32, 32, 3, 3]
0	0x3e56f62f	0.20992349
1	0x3d87c66d	0.066296436
2	0xbd191d29	-0.037381325
3	0x3db84a5f	0.0899856
4	0xbe317a13	-0.17331724
5	0x3e7dba57	0.24778114
6	0xbdf5263a	-0.11970182
7	0xbda87f64	-0.08227423
8	0x3e36a76d	0.17837305
9	0x3e786fef	0.2426145
10	0x3ba3becd	0.0049971105
11	0xbc8bbcc4	-0.017057784
12	0xbd6ca83d	-0.057777632
13	0xbddf7acb	-0.10912093
14	0xbe2933d9	-0.16523685
15	0x3db8c679	0.09022231
16	0x3dc43598	0.09580535
17	0xbed42c54	-0.4144007
18	0xbdd3bb3a	-0.10338445
19	0x3e839609	0.25700405
20	0xbec0b373	-0.3763691
21	0xbc96c2cf	-0.018403439
22	0xbe48b900	-0.19601822
23	0x3dfa6325	0.122259416
24	0xbe17d990	-0.14829087
25	0xbdad6b8c	-0.084677786
26	0xbe1c1248	-0.15241349
27	0x3ed6f694	0.41985
28	0xbdafaaa5	-0.0857747
29	0x3e092dca	0.13396373
30	0x3efc279f	0.49248978
31	0xbc660f20	-0.014041692
32	0xbdd88890	-0.10572922
33	0xbd241e4a	-0.04006795
34	0xbeb6842f	-0.35647723
35	0xbd225d62	-0.039639838
36	0xbd9f42b0	-0.077763915
37	0x3dd3120e	0.10306178
38	0xbeb64a1d	-0.3560342
39	0xbcb4ac3d	-0.022054786
40	0x3e4e8317	0.20167194
41	0xbe8285f0	-0.2549281
42	0xbece807d	-0.40332404
43	0x3e05aead	0.13054915
44	0x3e46db6a	0.19419637
45	0x3eea53ad	0.45766965
46	0xbe8cfb11	-0.27535298
47	0xbd003184	-0.03129722
48	0xbe68a81d	-0.2272038
49	0xbd371e14	-0.04470642
50	0xbebe0e58	-0.37120318
51	0x3db06f39	0.08614964
52	0x3efc8ba3	0.49325284
53	0x3f0c2180	0.54738617
54	0x3ce8e014	0.028427161
55	0xbe78c9fe	-0.24295804
56	0x3d88d2d1	0.06680835
57	0xbe09615c	-0.13416046
58	0xbd9afc78	-0.07567686
59	0xbde88481	-0.11353398
60	0x3d57f40d	0.05272298
61	0x3dfa7134	0.12228623
62	0xbe619641	-0.22029974
63	0x3eac682b	0.33673224
64	0xbdc6391b	-0.09678861
65	0xbe2da800	-0.16958618
66	0xbd967ae2	-0.07347657
67	0x3d9f4fa5	0.07778863
68	0x3d0163ac	0.031589195
69	0xbca1e2bc	-0.019761436
70	0x3d9fd0ee	0.07803522
71	0xbe16296d	-0.1466424
72	0xbc719443	-0.014744821
73	0xbe37721c	-0.17914623
74	0x3e655a37	0.22397695
75	0xbb02ecd9	-0.0019977598
76	0xbce2e337	-0.027696235
77	0xbdeabd3b	-0.11461874
78	0xbde66a35	-0.11250726
79	0x3cfdfcba	0.031004298
80	0xbe8f5d07	-0.28000662
81	0xbe3a4f42	-0.18194297
82	0xbea1adf7	-0.31578037
83	0xbe301113	-0.17194013
84	0x3e04bd5a	0.12962857
85	0xbde8323f	-0.11337709
86	0x3e941315	0.28920808
87	0x3eb18288	0.346699
88	0x3d59138f	0.05299717
89	0xbd55c83f	-0.052192923
90	0xbcbba5a5	-0.022906134
91	0xbe33767d	-0.17525668
92	0xbdb316e3	-0.087446
93	0xbdc1d399	-0.09464187
94	0xbe0ef315	-0.13959916
95	0xbe2644aa	-0.16237131
96	0x3e7abc1f	0.24485825
97	0x3e20b340	0.15693378
98	0xbe5547ec	-0.20828217
99	0x3db123f9	0.08649439
100	0xbdac8162	-0.08423115
101	0x3df5b302	0.11997034
102	0xbe08c30c	-0.13355654
103	0x3d91232c	0.07086787
104	0xbe35c0e6	-0.17749366
105	0xbea15ddb	-0.3151692
106	0x3e158889	0.14602865
107	0xbe0271fc	-0.12738794
108	0xbe7bc1f9	-0.24585713
109	0xbde6e084	-0.11273292
110	0xbd065fe7	-0.032806303
111	0x3e18e20b	0.14929979
112	0xbd5de15d	-0.05417
113	0xbe26c208	-0.16284955
114	0xbe93ed7f	-0.28892133
115	0x3dd4e081	0.10394383
116	0x3d8e85a0	0.06959081
117	0xbe95999a	-0.2921875
118	0xbe2979bd	-0.16550346
119	0xbf0245c0	-0.5088768
120	0xbcc62013	-0.024185216
121	0xbe80c075	-0.25146833
122	0x3da07443	0.07834675
123	0xbe09e77f	-0.13467215
124	0xbd28210a	-0.041047134
125	0xbe95d7bd	-0.29266158
126	0x3e105ac5	0.14097126
127	0xbd08d5a7	-0.03340688
128	0xbd920b92	-0.07131113
129	0xbcac34ce	-0.021021273
130	0xbee6fd8f	-0.45115325
131	0x3cd65a46	0.026166093
132	0xbe0f73b1	-0.14008977
133	0x3e11797f	0.14206503
134	0x3ce24e52	0.027625237
135	0xbe2b1cf6	-0.16710266
136	0xbdb16735	-0.08662263
137	0xbd525157	-0.051347103
138	0x3e66aa57	0.22525917
139	0xbee24627	-0.44194147
140	0x3dc37f38	0.095457494
141	0x3d06660d	0.032812167
142	0x3e00bb0a	0.1257135
143	0x3d9f7651	0.07786239
144	0x3e9a7996	0.30170888
145	0xbd867133	-0.0656456
146	0xbdf69878	-0.120408
147	0x3d7718be	0.06032633
148	0xbe2ba1f0	-0.16760993
149	0x3d43c3c8	0.047794133
150	0x3daebdcb	0.08532294
151	0x3e571046	0.21002302
152	0xbdf708d2	-0.12062229
153	0xbbc13b7e	-0.0058969846
154	0xbd0b4e8a	-0.034010448
155	0x3da49dd0	0.08037913
156	0x3e22769a	0.15865555
157	0x3c154d69	0.009112694
158	0x3d9bfbe8	0.07616407
159	0xbe226f2e	-0.15862724
160	0x3dd6616d	0.10467801
161	0xbe80e958	-0.25178027
162	0xbd2b8a90	-0.04188019
163	0x3ce5d91f	0.028057633
164	0xbd565305	-0.052325267
165	0xbdf1cc54	-0.118065506
166	0xbdb129cf	-0.086505525
167	0xbe89f967	-0.2694809
168	0xbdcce2d1	-0.10004199
169	0xbe26db57	-0.16294609
170	0x3c7a9b2a	0.015295783
171	0x3e833709	0.25627926
172	0xbca05db3	-0.01957593
173	0xbd737c1b	-0.059444528
174	0x3dc0f98e	0.09422599
175	0x3e1569d5	0.14591153
176	0x3e297d6a	0.16551748
177	0xbda2f66a	-0.07957156
178	0x3dd71f84	0.10504058
179	0xbd64696e	-0.055764608
180	0xbc939319	-0.018014478
181	0xbe59d554	-0.21272784
182	0xbd24227e	-0.040071957
183	0x3e3cfe0b	0.18456285
184	0xbdc90e5b	-0.09817191
185	0xbd042625	-0.03226294
186	0xbe99f39c	-0.30068672
187	0xbd3644d6	-0.04449924
188	0xbe70cdf4	-0.23516065
189	0xbe8a7334	-0.27041018
190	0xbdb6b64e	-0.089214906
191	0x3d06cb19	0.032908533
192	0x3e4975fd	0.19673915
193	0x3e50ffc6	0.2041007
194	0x3e975567	0.29557344
195	0xbdae1da1	-0.08501745
196	0xbe3979f2	-0.18112925
197	0xbd8622fe	-0.06549643
198	0x3e7f7fe2	0.24951127
199	0xbe886f48	-0.266474
200	0x3e11be08	0.14232647
201	0x3d4f0877	0.050545182
202	0xbcc41ee4	-0.023940511
203	0x3ded6829	0.115921326
204	0xbf17f6d9	-0.59361035
205	0x3e9c64f8	0.30545783
206	0xbd3e1d4c	-0.04641466
207	0xbe5864db	-0.21132223
208	0xbd0998d4	-0.033593014
209	0xbbf690b3	-0.0075245737
210	0xbdd55374	-0.10416308
211	0xbeab59ca	-0.3346694
212	0x3f35a48b	0.709542
213	0x3d3c303d	0.04594444
214	0x3d1f1cf1	0.03884596
215	0x3e0c49a6	0.1369997
216	0xbd04bf62	-0.03240908
217	0xbdb6a804	-0.08918765
218	0xbda1ebf0	-0.0790633
219	0x3d4bc830	0.04975146
220	0xbe063517	-0.1310619
221	0x3d96e46f	0.07367789
222	0x3e8c529a	0.2740677
223	0x3e35e6ae	0.17763779
224	0xbe9c909a	-0.30579072
225	0xbca2943d	-0.019846076
226	0xbdfefc38	-0.12450451
227	0x3db236ad	0.08701835
228	0xbc30378c	-0.010755431
229	0x3e610cae	0.21977493
230	0xbdcbbeb2	-0.099484816
231	0xbe4a19a7	-0.19736348
232	0xbe41e031	-0.18933178
233	0x3de3bbd2	0.11119808
234	0x3da99c27	0.08281737
235	0xbdf6544c	-0.12027797
236	0x3dc0ffb8	0.094237745
237	0x3c7b6250	0.015343264
238	0x3e0371e6	0.12836418
239	0x3dce13dc	0.100623816
240	0xbebd479f	-0.36968705
241	0xbe99c676	-0.30034226
242	0xbe512e5b	-0.2042784
243	0x3debc285	0.11511711
244	0xbdf2ac0c	-0.118492216
245	0x3e9cf24e	0.30653614
246	0x3e1dfcf1	0.1542852
247	0xbe0c9c28	-0.13731444
248	0xbe6fcc89	-0.23417868
249	0xbd818cdd	-0.06325696
250	0xbec75e76	-0.38939255
251	0x3dea08ed	0.11427484
252	0x3d64e28e	0.055880122
253	0x3dc10391	0.09424508
254	0x3e739de2	0.23790696
255	0x3db22883	0.08699133

b2.bias f4 [32]
0	0x3d4c7222	0.049913533
1	0xbef322b3	-0.4748741
2	0xbe800f76	-0.25011796
3	0xbeb30f98	-0.34972835
4	0xbe02a43b	-0.12757961
5	0xbe9206f0	-0.28520918
6	0xbe4accae	-0.19804642
7	0xbe5d50f2	-0.2161291
8	0x3e40c8b3	0.1882656
9	0x3cb4e514	0.02208189
10	0xbbabe37a	-0.005245623
11	0xbe35ede0	-0.17766523
12	0xbe4bab1d	-0.19889493
13	0xbeb13f4b	-0.346186
14	0xbd993f4d	-0.07482777
15	0x3da875c0	0.08225584
16	0xbdc57e60	-0.09643245
17	0xbe6c2199	-0.23059691
18	0xbddcb641	-0.1077695
19	0xbe0fc6bb	-0.14040653
20	0xbdd89259	-0.105747886
21	0x3e1b5f39	0.15173043
22	0xbe9093ed	-0.28237858
23	0x3e16cb87	0.14726077
24	0xbe94214b	-0.2893165
25	0x3dfd3165	0.12362937
26	0x3d6a8fbd	0.057265986
27	0x3d2c7afa	0.042109467
28	0xbebc2014	-0.36743224
29	0xbd97fcd1	-0.07421268
30	0x3e2deb97	0.16984402
31	0xbd5020c9	-0.050812516

b3.weight f4 [64, 32, 3, 3]
0	0xbcda81cb	-0.026673218
1	0x3d38e299	0.045137975
2	0xbd7e2da4	-0.062055245
3	0xbeaa54ff	-0.33267972
4	0xbdb45440	-0.08805132
5	0xbd990167	-0.074709706
6	0xbd896980	-0.06709576
7	0xbea98e16	-0.33116215
8	0x3d8c21f0	0.068424106
9	0x3db2cb8f	0.08730232
10	0xbe3e524a	-0.18586078
11	0x3e4c873a	0.1997346
12	0xbd9e4d26	-0.07729559
13	0x3e00916b	0.12555473
14	0xbe9a97a2	-0.30193812
15	0xbe3fe3d6	-0.18739256
16	0xbe66f421	-0.22554065
17	0xbe98f568	-0.2987473
18	0xbe6f7d00	-0.23387527
19	0xbe428cb7	-0.18998991
20	0xbd609716	-0.054831587
21	0xbcb462a0	-0.022019684
22	0xbe1099d4	-0.14121181
23	0xbeada8b6	-0.3391778
24	0x3e49ba46	0.19699964
25	0x3e96c9bf	0.29450795
26	0xbe1a4e84	-0.15069014
27	0xbce88635	-0.028384307
28	0xbdcab2ae	-0.09897362
29	0x3e11c178	0.14233959
30	0x3dc91de7	0.098201565
31	0x3e92f2d9	0.28700903
32	0xbe4a540f	-0.19758628
33	0xbdeb4e3d	-0.11489532
34	0xbe263a89	-0.16233267
35	0x3e860d44	0.26181996
36	0xbdf8cf3d	-0.121489026
37	0xbd87de29	-0.066341706
38	0x3cabd97d	0.02097773
39	0xbecc282b	-0.39874396
40	0x3d71f8bc	0.059075102
41	0x3ee853d6	0.45376462
42	0xbe842a17	-0.25813362
43	0x3e5df864	0.21676785
44	0x3dc77b32	0.097402945
45	0x3db82058	0.08990544
46	0x3ea2477a	0.31695157
47	0x3e0c3541	0.1369219
48	0x3e36a5da	0.17836705
49	0xbdee2ee8	-0.116300404
50	0x3e367f2f	0.17821954
51	0xbe24a6c0	-0.16079235
52	0xbe083738	-0.13302314
53	0xbe7b26e4	-0.24526554
54	0x3ddc2cc1	0.10750724
55	0x3df14a7f	0.11781787
56	0xbe19ce09	-0.15020002
57	0x3d9b1ca1	0.0757382
58	0x3e09d2e9	0.13459362
59	0x3d98177d	0.07426355
60	0xbd7083aa	-0.058719315
61	0xbe210359	-0.15723933
62	0x3ca7346a	0.020410735
63	0xbdf3bb90	-0.11901009
64	0xbd97adbf	-0.07406186
65	0x3e3c5724	0.18392617
66	0xbd0a7f2f	-0.033812698
67	0xbd683ce3	-0.05669869
68	0xbee7d076	-0.4527623
69	0x3df996ef	0.121869914
70	0x3e820850	0.25396967
71	0xbeb28755	-0.34868875
72	0xbd0ac796	-0.033881746
73	0x3d39a594	0.045323923
74	0xbdb23e25	-0.087032594
75	0xbd040163	-0.032227885
76	0x3d0d9299	0.034563635
77	0xbde9c6c3	-0.11414864
78	0x3d416040	0.04721093
79	0xbe6036e0	-0.21895933
80	0x3e323dec	0.17406434
81	0xbdfc9e53	-0.123348854
82	0x3e0432f8	0.12910068
83	0x3daf4820	0.085586786
84	0x3d7d9016	0.06190499
85	0x3e9e736f	0.30947444
86	0xbdf9b8bf	-0.12193441
87	0xbeb43593	-0.35197124
88	0xbeff380f	-0.49847457
89	0xbda30782	-0.079604164
90	0xbdaf7cb3	-0.08568706
91	0xbe6ff075	-0.23431571
92	0xbe45aaff	-0.19303511
93	0x3d4bc6cb	0.04975013
94	0x3cd487a4	0.025943585
95	0xbc0fa190	-0.008766547
96	0xbe76776c	-0.24068993
97	0x3e2d83ee	0.16944858
98	0xbe1c106f	-0.15240644
99	0x3e305c99	0.17222823
100	0x3d966905	0.0734425
101	0xbde087b2	-0.10963382
102	0x3e1de5fa	0.1541976
103	0x3de361ec	0.111026615
104	0x3da5aa17	0.08089083
105	0x3da652b4	0.08121243
106	0x3ecaec54	0.3963343
107	0x3e7e1802	0.24813846
108	0xbdc7b871	-0.09751976
109	0x3d8270ac	0.06369147
110	0x3dc3881b	0.095474444
111	0x3da0e774	0.07856646
112	0xbe2794aa	-0.16365305
113	0xbea96f36	-0.3309266
114	0xbdf4d373	-0.11954393
115	0xbc4f706e	-0.012661083
116	0x3dc3127d	0.09525011
117	0x3d6df7fd	0.05809783
118	0xbe4edb18	-0.20200765
119	0x3c0a2e96	0.0084339585
120	0x3d19fd35	0.037594993
121	0x3ebd7346	0.3700201
122	0x3e57c48e	0.21071073
123	0xbe2af406	-0.1669465
124	0xbd26f343	-0.040759336
125	0x3de0770a	0.10960205
126	0x3e3778ed	0.17917223
127	0xbea1527f	-0.31508252
128	0xbdc77190	-0.09738457
129	0x3e6a64ae	0.22889969
130	0x3e03c937	0.12869726
131	0x3e060920	0.13089418
132	0x3e257ea4	0.16161591
133	0xbe1ec8b8	-0.15506256
134	0xbf0379f4	-0.5135796
135	0xbdb084c9	-0.08619077
136	0xbe1ac603	-0.15114598
137	0x3d5ddbc1	0.05416465
138	0xbdd080cc	-0.10180816
139	0xbe273227	-0.16327725
140	0xbeb7968d	-0.3585705
141	0xbd1c7221	-0.03819478
142	0x3d31eb2c	0.043437168
143	0xbd682631	-0.056677047
144	0x3e582516	0.21107897
145	0xbe79a61c	-0.24379772
146	0xbe8518d3	-0.25995502
147	0x3b095286	0.0020953729
148	0xbe765606	-0.24056253
149	0x3e152ea5	0.14568575
150	0xbe098d15	-0.13432725
151	0xbdda162d	-0.10648761
152	0xbef5b444	-0.47989094
153	0xbd10885d	-0.035286296
154	0x3dfb34ef	0.12265956
155	0x3e959c43	0.2922078
156	0x3dd49e93	0.10381808
157	0xbd511e99	-0.05105457
158	0xbe31e722	-0.17373326
159	0xbe7e840f	-0.24855064
160	0xbd79aca0	-0.060955644
161	0xbed0e0a0	-0.40796375
162	0x3e9f30c4	0.31091893
163	0x3e187aac	0.14890546
164	0x3d8e4839	0.06947369
165	0xbdce9a49	-0.10088021
166	0xbe990f54	-0.29894507
167	0xbe7e4a31	-0.2483299
168	0xbe131e42	-0.14367011
169	0xbe1ceae6	-0.15323982
170	0xbdd8da29	-0.10588486
171	0x3e06c3c7	0.1316062
172	0xbe4736cf	-0.19454502
173	0x3d16b763	0.036795985
174	0x3dacee60	0.08443904
175	0xbed9bd33	-0.4252716
176	0x3dbfd47f	0.09366702
177	0x3d3b8850	0.045784295
178	0x3ca645be	0.020296928
179	0x3d0bcc65	0.034130473
180	0xbc4d493e	-0.012529669
181	0x3dd1f31b	0.10251447
182	0xbe6409bd	-0.2226934
183	0x3e87475e	0.26421636
184	0xbe105e07	-0.14098369
185	0x3e651f7e	0.22375295
186	0xbe414960	-0.18875647
187	0x3e78d970	0.24301696
188	0xbcecf640	-0.028926015
189	0xbd8b7e89	-0.06811244
190	0xbdfeb94c	-0.12437686
191	0x3e005904	0.12533957
192	0xbe8680e8	-0.26270223
193	0x3dd9234c	0.106024355
194	0x3c82f9ca	0.01598825
195	0xbdc9a68a	-0.09846218
196	0x3d18f9a3	0.037347447
197	0xbdae1676	-0.08500378
198	0xbed348ef	-0.4126658
199	0xbe3d57b0	-0.18490481
200	0x3e10b5e0	0.1413188
201	0x3d5a4786	0.053290866
202	0x3e37b90d	0.17941685
203	0xbe0db569	-0.13838734
204	0x3dddc0dc	0.10827801
205	0xbed1dcd1	-0.40988782
206	0x3cf6dd7a	0.030134905
207	0xbcf8c380	-0.03036666
208	0x3d1008fd	0.035164822
209	0xbe583bdf	-0.21116589
210	0x3cd27476	0.025690299
211	0xbe397ea1	-0.18114711
212	0x3e34a04d	0.17639275
213	0xbde45440	-0.11148882
214	0xbee8ae16	-0.45445317
215	0x3d74470d	0.05963807
216	0xbe45e912	-0.1932719
217	0xbe0d165c	-0.1377806
218	0x3e034bba	0.12821856
219	0x3d3eb958	0.046563476
220	0xbe271843	-0.16317849
221	0xbe3b6160	-0.18298864
222	0xbda79169	-0.08182032
223	0x3e1623db	0.14662115
224	0xbdeb59b5	-0.1149172
225	0x3ccf2325	0.025285313
226	0xbd3a33d6	-0.04545959
227	0x3e87dbba	0.26534826
228	0x3ef06635	0.46952978
229	0x3e29612e	0.16540977
230	0x3dbbfaea	0.091787174
231	0x3d873bb6	0.06603186
232	0x3e4a3213	0.19745664
233	0x3d8ac2a5	0.06775407
234	0x3922e7c0	0.00015535858
235	0x3d2d7a8f	0.04235321
236	0x3d54c5a5	0.0519463
237	0x3c7871ec	0.01516388
238	0x3e972851	0.29522946
239	0x3df7fa45	0.12108282
240	0xbe3826a8	-0.17983496
241	0xbeb629b8	-0.35578704
242	0x3e182bad	0.14860411
243	0xbdc02adc	-0.09383175
244	0xbc5e1330	-0.013554379
245	0xbcf87c59	-0.030332731
246	0x3dd73242	0.10507633
247	0x3c43ef15	0.011958857
248	0x3cb898bc	0.022533767
249	0xbe0d5bbe	-0.13804528
250	0xbe3ff051	-0.18744017
251	0x3e5de004	0.21667486
252	0xbd521e12	-0.05129821
253	0x3c0c3627	0.008557833
254	0x3ea65ea3	0.32494077
255	0x3d586c25	0.05283751

b3.bias f4 [64]
0	0x3da6ee89	0.08150966
1	0x3de8b774	0.11363116
2	0xbd6d31a6	-0.057908677
3	0xbd085979	-0.033288453
4	0x3d3e259a	0.04642258
5	0xbe075ad7	-0.13218246
6	0x3d4d67f4	0.050147966
7	0x3cd738cc	0.0262722
8	0xbe3b11a4	-0.18268448
9	0xbdb7f014	-0.08981338
10	0xbdb607a3	-0.08888175
11	0x3de60a4a	0.11232431
12	0x3d35c208	0.044374496
13	0x3e0d8e1c	0.13823742
14	0xbdc8cec7	-0.09805065
15	0xbddbfd3c	-0.1074166
16	0x3bbdebc9	0.00579593
17	0xbcfaf6dc	-0.03063529
18	0xbac79623	-0.0015227239
19	0x3dcedf7a	0.101012185
20	0xbd60e96e	-0.054910116
21	0xbe5fabcf	-0.21842884
22	0xbb8ad9df	-0.004237398
23	0x3dd2258d	0.102610685
24	0x3e07c815	0.13259919
25	0xbe1f5f23	-0.15563636
26	0xbeb42d8f	-0.35191008
27	0xbde37f31	-0.11108244
28	0x3e3b0612	0.18264034
29	0xbd9b0f6a	-0.075712994
30	0x3cd7aec5	0.026328454
31	0xbdb9385b	-0.09043952
32	0xbe0f9f54	-0.14025623
33	0xbdc35d1e	-0.09539245
34	0xbd00d908	-0.031456977
35	0x3dba6014	0.09100357
36	0xbc3b997a	-0.011450166
37	0xbe51ff7c	-0.20507616
38	0x3d611106	0.054947875
39	0xbe073b9b	-0.13206331
40	0x3b6f06db	0.0036472592
41	0x3c9141c2	0.017731551
42	0x3e16bf13	0.14721327
43	0x3e51f994	0.20505363
44	0xbdf14518	-0.11780757
45	0xbdefd94b	-0.11711367
46	0x3deba63f	0.11506318
47	0xbdb83ebb	-0.0899634
48	0xbe230150	-0.1591847
49	0xbe1cdb73	-0.15318088
50	0xbd38b575	-0.045094926
51	0x3d394826	0.04523482
52	0xbb686241	-0.0035458955
53	0x3d370081	0.044678215
54	0x3b5dced2	0.0033845198
55	0xbd5b284e	-0.053505234
56	0x3d91936d	0.07108197
57	0x3dceab6e	0.10091291
58	0xbda3ec91	-0.08004106
59	0xbcebc65b	-0.028781107
60	0xbe24c413	-0.16090421
61	0x3d31665b	0.043310504
62	0xbdacbcfc	-0.084344834
63	0xbe7b48bc	-0.24539465
