nets/model_epoch_41.pth (torch, 648794 bytes, 25 tensors)

a1.weight f4 [16, 5, 3, 3]
000000 20 bf 92 3d ec c8 fd 3d bd 86 32 bd 16 92 11 be
       0.071653605 0.123918384 -0.043585528 -0.14215884
000010 81 0e 18 bd 06 8f 7d 3e 98 40 cb bd de eb 03 3d
       -0.037123207 0.2476159 -0.0992443 0.032207362
000020 0f b6 cb be c6 02 88 bd 8b 69 be bd 57 9b 09 be
       -0.39787337 -0.06641154 -0.092974745 -0.13438164
000030 52 83 da bb 26 e1 df bd 43 9e 3e be e2 fb 86 be
       -0.0066684866 -0.109316155 -0.1861506 -0.26364046
000040 e0 b3 fe bd 9e 0d 05 be f5 b2 80 3d d1 9b 14 be
       -0.12436652 -0.12993476 0.06284133 -0.14512564
000050 ca d9 2e 3d e6 e3 7f bc ae 75 aa be 1d 0c 6f 3c
       0.04268817 -0.0156183 -0.33292907 0.01459029
000060 fb a3 d9 bd 95 76 8d bd 60 a4 00 3c d6 c8 19 be
       -0.1062698 -0.06907383 0.00785169 -0.15018019
000070 f2 7d 85 bd 31 73 8d 3d a8 62 33 be 50 2a 9f bd
       -0.06518163 0.06906737 -0.17518103 -0.07771742
000080 11 87 cd be ea f5 39 be 88 87 1f be 75 92 e6 3d
       -0.4014211 -0.18160215 -0.15579045 0.11258403
000090 5e 38 2c be 48 23 94 bd 63 3f 14 be 98 85 ef bc
       -0.16818377 -0.07233292 -0.14477305 -0.029238507
0000a0 7e 23 37 be 3f a8 00 be 08 2c 30 bc 42 d9 f2 bd
       -0.17884633 -0.12564181 -0.010752685 -0.11857845
0000b0 b4 49 3d bd 70 d6 47 3e 0c 8f e1 bd a5 4c 52 bd
       -0.046212867 0.19515395 -0.11013612 -0.051342625
0000c0 a1 7a a5 3e 07 c2 46 3d 6e a3 ac 3e 6f 24 44 bb
       0.3232012 0.048524883 0.33718437 -0.0029928943
0000d0 9e b5 fc 3e 69 29 58 be f8 5f e0 3d 9c cc 96 3e
       0.49357313 -0.21109547 0.109558046 0.2945298
0000e0 10 64 a4 3d 05 92 2f bc b0 4c 57 3e a1 3a 89 39
       0.08026898 -0.010715966 0.21025348 0.00026174358
0000f0 5f 17 e0 3d 86 92 05 bf 58 46 e1 3c 2e 81 1e 3e
       0.10941958 -0.521767 0.027499363 0.15478966
000100 b0 26 a8 bd 4d 7f 92 bd d8 58 aa 3e 60 44 34 3d
       -0.08210504 -0.07153187 0.33270907 0.04401052
000110 92 e8 c4 be 45 63 19 be 3b 00 25 be 61 62 bd 3d
       -0.38458687 -0.14979275 -0.16113369 0.0924728
000120 d4 9f 0c bc 21 72 bc be 9d 60 c7 be 10 f9 c2 3a
       -0.008583028 -0.36805823 -0.38940898 0.0014875252
000130 d2 56 98 3e 30 55 e0 3d 32 9e 01 3e 5c 3b 0a 3e
       0.2975374 0.10953748 0.12658003 0.13499206
000140 c0 a4 f3 be 2d 8c 53 3a a8 79 f4 3c c2 51 85 bc
       -0.47586632 0.0008069899 0.029843166 -0.016274337
000150 ec cf b4 3d 61 d9 0f 3d 58 71 ef bc cd 23 90 bd
       0.088287205 0.035119418 -0.029228851 -0.070380785
000160 5c 79 8d bd 4f 06 d1 3c 8b 6d 95 be 90 bb c7 3d
       -0.06907913 0.025515703 -0.29185137 0.097525716
000170 29 fe ae 3e 6c ff 19 3d 33 38 42 3e f0 5e d6 ba
       0.34178284 0.037597105 0.18966751 -0.0016355198
000180 3b cb 04 3f e6 47 db 3e c0 34 d9 3d 02 2e 21 3e
       0.51872605 0.42828292 0.106057644 0.15740207
000190 74 61 57 3e 43 82 41 3e e8 0b d9 bc 13 01 51 bc
       0.21033269 0.18897347 -0.026494935 -0.012756604
0001a0 6a 65 28 3c 30 4c ae bd dc db 05 be 7b 53 ba 3d
       0.010278085 -0.08510625 -0.13072151 0.09097954
0001b0 b7 9d 80 3e 4d f1 e4 3e 04 e5 67 3e 6c 6e 91 3d
       0.25120327 0.44715348 0.22645956 0.071011394
0001c0 f4 0b 48 be 2f a3 9b 3e fe 1c a0 be eb f4 ac bd
       -0.1953581 0.30397937 -0.3127212 -0.08445152
0001d0 ab a5 1e 3e 15 e5 a7 bc c3 46 92 be 55 08 6c be
       0.15492885 -0.020494977 -0.28569612 -0.23050053
0001e0 a4 a5 b6 3c 47 77 29 be ba aa e9 bc 16 cb 88 3d
       0.02229578 -0.16549407 -0.028523792 0.066793606
0001f0 b7 3a 00 3d 22 24 9d be 99 59 ac bc 8a 0c 30 3d
       0.031305995 -0.3069163 -0.021038817 0.04298071
000200 08 13 97 3c a2 0f 2d bd 61 89 f5 3d 25 aa f5 bd
       0.018441692 -0.042251237 0.119890936 -0.11995343
000210 18 d8 bb bc a6 8d 71 bd a2 22 63 3d 05 a9 15 3e
       -0.02293019 -0.058972977 0.05545295 0.14615257
000220 55 68 d8 3d 58 43 87 be 2e 0d 23 3e e9 10 0d 3e
       0.10566775 -0.26418567 0.15922996 0.13775982
000230 bd 68 95 be 9f 8d a7 3d 2d 78 ac be 1b 27 8e 3e
       -0.2918147 0.08181309 -0.33685437 0.2776421
000240 43 e0 20 be 8d e3 d1 be 53 ed 74 be b8 ed af be
       -0.15710549 -0.4099392 -0.23918657 -0.34361053
000250 d1 d8 86 bc dc 61 11 bf e1 bf f8 3c 18 c2 e2 3c
       -0.016460808 -0.56789947 0.030364932 0.027680442
000260 80 8a 58 bb 49 4d 1e bd 8b 8c db 3d f6 be dc 3c
       -0.0033041537 -0.038647924 0.10720166 0.026946526
000270 0a f9 38 be 0e 87 c3 bd 30 24 a0 be f4 0d 3c be
       -0.18063751 -0.09547244 -0.3127761 -0.18364698
000280 2e c3 2d be 07 fd b2 3e 08 a5 4a 3e a3 5f 77 3e
       -0.16968986 0.3495867 0.19789517 0.24157576
000290 cd bf 56 3e be 95 a6 3e 16 9a f0 bd ba 9f 09 3f
       0.20971604 0.3253612 -0.117481396 0.5375935
0002a0 66 8c 31 3e f8 4e 52 bd ef d0 66 be a1 6c 06 bd
       0.17338714 -0.05134484 -0.2254064 -0.03281844
0002b0 fd c8 04 3d 9d fd 57 3d b1 7e af bb 92 89 71 bc
       0.03241824 0.0527321 -0.005355679 -0.014742272
0002c0 21 ed 67 3b fc cf 36 3d b4 94 59 bd 79 cc c6 bc
       0.0035389143 0.044631943 -0.05312033 -0.024267422
0002d0 d9 21 4e 3e c9 b9 38 3d 5f ec 84 be e2 6b 57 3d
       0.201301 0.045099054 -0.25961587 0.05259312
0002e0 38 87 0d 3e 11 b5 8d 3e cb 84 d9 3c 53 13 47 3e
       0.13821113 0.27677205 0.026552578 0.19440965
0002f0 ab 97 83 3e 91 05 20 3e cc d5 d5 bd ab 78 19 3d
       0.2570165 0.15627123 -0.10441169 0.037468594
000300 2b 00 5b be 45 ef 57 bd 11 a7 25 be e4 98 26 3e
       -0.21386783 -0.05271842 -0.16177012 0.1626926
000310 b3 55 b4 3d 51 46 eb bd 38 d9 d3 3d 85 79 16 3e
       0.08805408 -0.11488021 0.103441656 0.14694794
000320 74 18 da 3e 72 dc f4 bc de 07 a6 ba a5 a9 f3 bd
       0.4259678 -0.029890273 -0.001266714 -0.118975915
000330 e7 c7 9d be 6f 07 97 3e 89 eb f6 bb 13 7f 1a be
       -0.30816576 0.2949786 -0.007535402 -0.15087537
000340 4f 3e ce be a6 fc c0 be d2 48 ae 3d 9e fd 81 3d
       -0.40281913 -0.37692755 0.08509983 0.06347202
000350 40 73 1d be 31 35 43 be 75 e2 5f bd 9d ac 19 3d
       -0.15375996 -0.1906326 -0.054659326 0.037518132
000360 ac ad 72 bc af 1b b0 3c 43 0e bf bc 46 c3 38 3d
       -0.014811914 0.021497576 -0.02332223 0.045108102
000370 1f c6 de bd 46 9b a6 3c 74 44 d1 3c ba a6 cd 3d
       -0.10877632 0.020337712 0.025545336 0.10041566
000380 8f 93 5c bd a1 4e b2 bd db ce a5 bd 9c 89 4a 3e
       -0.05385166 -0.087064035 -0.08096095 0.19779056
000390 1e 94 e8 bb 4f 70 cf bd 1c ec 59 bd ed 72 30 3e
       -0.007097735 -0.10128843 -0.053203687 0.1723134
0003a0 fe bf 11 be f2 11 b4 3e fb 3f 9e bd 7c be d6 3e
       -0.14233395 0.3516994 -0.07727047 0.41942203
0003b0 0b bc 8c 3e 34 a4 4d 3b fb 2a b3 bc 05 3c a3 be
       0.27487215 0.003137839 -0.02187108 -0.3188173
0003c0 e2 7f 49 3d 58 1c 60 3e 6e 8a 05 bf 99 1f 63 3c
       0.049194224 0.21885812 -0.5216435 0.013862514
0003d0 c8 c2 b9 3d 3b 20 94 3d 58 5f 2e be 18 d1 97 3e
       0.09070355 0.0723271 -0.17028558 0.29651713
0003e0 00 41 ab be ef 9a 34 be 87 3a 03 be e9 bc ce be
       -0.3344803 -0.17637227 -0.12815295 -0.40378502
0003f0 56 5b 88 3e f0 9e 03 bd 8b d6 b3 3d b2 30 19 3d
       0.26632184 -0.032133996 0.08781155 0.037399955

a1.bias f4 [16]
000000 90 08 62 3d 45 7a b3 bd 85 2d 80 bd 28 24 0b be
       0.055183947 -0.087635554 -0.06258682 -0.13588011
000010 5d 38 0a 3e 42 13 d2 bd fc 3b 2e 3d 89 6a d3 bd
       0.13498063 -0.102575794 0.042537674 -0.10323054
000020 19 3b 1c be 51 7e c8 3d 88 3f 5a bd 34 aa bd 3d
       -0.15256919 0.09789718 -0.053283244 0.09260979
000030 21 d1 9d bd 49 52 65 bd ec 7a 81 3e 80 2a 65 3e
       -0.07705904 -0.055986676 0.25289094 0.22379494

a2.weight f4 [16, 16, 3, 3]
000000 9a c2 5d bd 05 34 93 be 7f 86 e5 bd f7 57 91 3e
       -0.054140665 -0.28750625 -0.11207294 0.28387424
000010 b7 9e ff 3d c6 b4 88 be f9 6f 2a 3d 42 da 2d be
       0.12481444 -0.2670042 0.04161069 -0.1697779
000020 16 87 f6 3d 07 b6 25 bc ab 99 13 3e 88 23 76 3b
       0.12037484 -0.0101141995 0.14414088 0.00375578
000030 1f a1 1e be 44 92 30 3e 10 21 2b be 55 26 eb bc
       -0.1549115 0.17243296 -0.16711831 -0.028704802
000040 9c 53 0d 3e 38 e0 48 bd 98 a5 b1 bd c6 63 2c be
       0.13801426 -0.049041957 -0.086741626 -0.16834936
000050 18 ac 85 be 19 39 d2 be 6d 99 bc bd 77 02 dc 3b
       -0.2610786 -0.41059187 -0.09208951 0.006714161
000060 26 1a a0 bd ab 36 c3 be 12 c5 f3 3d 57 a8 29 bf
       -0.078174874 -0.38127646 0.119028226 -0.6627249
000070 47 35 7f 3e be 24 9e be 2b 91 07 3f 3e ff 54 be
       0.24922667 -0.30887407 0.52955884 -0.20800492
000080 70 51 5c 3e 21 d0 df 3d f9 d7 99 3d da 35 5a 3d
       0.21515441 0.10928369 0.07511897 0.053274013
000090 d0 71 29 3c 92 a8 c7 be cb 8a 56 bd 78 14 b0 3c
       0.010342076 -0.38995796 -0.052378457 0.021494135
0000a0 6b 38 87 bb b8 0a 31 be ce c1 f0 be 35 b9 75 be
       -0.0041265986 -0.17289245 -0.4702286 -0.23996432
0000b0 97 3c 35 be 0f 69 73 3d 01 87 3e be d4 ff f7 bd
       -0.17698894 0.059426364 -0.18606187 -0.12109342
0000c0 27 a1 66 3e b6 10 86 3d e4 c0 11 3e a3 42 bf be
       0.22522412 0.06546156 0.14233738 -0.37355527
0000d0 73 68 10 3e ad 5c 2a 3e 9b 64 28 be be 45 0d 3d
       0.14102344 0.16636916 -0.16444628 0.03449034
0000e0 1d 9b f1 3c 48 87 c0 3e ae 22 ad 3e 71 e1 55 3d
       0.02949291 0.3760321 0.3381552 0.05221695
0000f0 ed c7 a8 3d 05 86 fe bc 12 1c c8 3b 73 c6 9a 3e
       0.08241258 -0.031069765 0.006106862 0.3022953
000100 51 f7 4a be b7 75 6c bd 6b 9d 8e be c6 ca 10 bc
       -0.19820906 -0.05772945 -0.27854475 -0.008837407
000110 fd 14 0c be e5 62 e5 bd 0d 4d bb bd 0d d9 66 3e
       -0.13679881 -0.11200503 -0.09145556 0.22543736
000120 17 1f 60 3e f6 35 d3 3d 25 18 30 bc fb bc 20 3b
       0.2188686 0.103130266 -0.010747944 0.0024526704
000130 2f b1 4b 3c 4b 6d 6c 3e 0a 1e 50 be 14 86 c3 3e
       0.012432381 0.23088567 -0.20323959 0.3818823
000140 42 a7 e3 3d ee c6 70 3d ed f2 79 3e 85 1a b4 bc
       0.11115886 0.058783464 0.24409075 -0.021985302
000150 ab bb 40 be 03 a2 2c 3e fc 5a dd 3e e9 25 13 3e
       -0.1882159 0.16858678 0.43233478 0.1436993
000160 c4 60 33 3d 3a 46 1f 3e e9 fb 21 be 3e 5e 97 bd
       0.043793455 0.15554133 -0.15818752 -0.07391022
000170 f9 d6 ff bd c9 2c f9 3d a7 38 5b 3e 80 11 a7 be
       -0.12492175 0.12166745 0.2140833 -0.3263054
000180 a8 48 81 3d a8 ac 72 bc 42 58 3b 3e 80 4a 98 be
       0.06312686 -0.014811672 0.18295386 -0.2974434
000190 1f bb 83 bd 34 62 0d bd f8 dc 15 be d5 c0 14 be
       -0.06432175 -0.034517482 -0.14635074 -0.14526685
0001a0 b2 67 07 3d 1b ca 03 3f 8e 28 2f 3d 75 94 11 be
       0.033057876 0.51480263 0.042763285 -0.14216788
0001b0 8d be f1 bc fb ba ec bd 68 30 82 3d 39 9d 22 bc
       -0.029509807 -0.11559101 0.06356889 -0.00992518
0001c0 d2 e3 00 3f 31 8e a5 be b4 5f 01 3f af 8e 70 3e
       0.50347626 -0.32335046 0.50536656 0.2349193
0001d0 57 4c 43 be 8c a9 42 3e b1 9f a4 be d0 82 fe be
       -0.1907209 0.1900999 -0.32153085 -0.49709177
0001e0 79 be 9b 3d f3 94 d3 3e 2e 8c 2d 3e 48 27 5f 3e
       0.07604689 0.41324577 0.16948006 0.21792328
0001f0 db 71 37 be fd 2c f3 3c 37 ea a3 bd 6c b7 18 bf
       -0.17914526 0.029684538 -0.08003657 -0.5965488
000200 e2 27 8a bd 34 67 4f bd 76 79 2e bd 8f 74 82 be
       -0.06745888 -0.05063553 -0.042596303 -0.25479552
000210 51 c2 90 bd bb dd 34 be 36 2e fc 3d 0c af 9e be
       -0.07068313 -0.17662708 0.123135015 -0.30992925
000220 88 53 cd bb d4 75 1c be 76 13 e6 bd b6 91 34 be
       -0.006266061 -0.15279323 -0.11234181 -0.1763371
000230 8d f5 01 3f fa 0c 6e be c6 ce 9a 39 09 97 bc 3c
       0.50765306 -0.23247138 0.00029527227 0.023021238
000240 98 57 45 be a3 a2 ab bd 0c 0d 5c 3d 7a a3 2c be
       -0.19271696 -0.0838063 0.05372338 -0.16859236
000250 12 52 0a be 30 56 11 bb 80 c9 9b bd 1f 73 01 bd
       -0.1350787 -0.0022176616 -0.076067924 -0.03160393
000260 02 3b fa bd 47 57 c8 bc 17 f6 97 bd 1e df 43 3e
       -0.12218286 -0.02445568 -0.07419985 0.19128081
000270 f3 7e a2 bd 7f 12 16 be 4a ae 9a bb 6a 64 b0 3d
       -0.0793437 -0.14655493 -0.004720484 0.086129025
000280 21 01 e0 3d 55 a5 cb 3d c5 37 ba 3d b6 03 87 bb
       0.10937715 0.09943644 0.090926684 -0.0041203154
000290 2d b9 22 3e 95 80 11 bd 86 e3 3d 3e e5 73 1d 3e
       0.15890951 -0.035523016 0.18543825 0.15376242
0002a0 56 41 1e bd 64 e3 82 3d c6 91 d0 3d d8 29 24 be
       -0.038636528 0.063910276 0.10184054 -0.16031587
0002b0 fc 9e 35 3e 38 2b 87 3e f1 ee f9 bc 6c 89 08 bc
       0.17736429 0.2640016 -0.030509444 -0.008333545
0002c0 1b b4 cf bc 5a 5e 88 3d f1 c8 c6 bd d4 f8 9d 3e
       -0.025354436 0.06658621 -0.09706295 0.30853903
0002d0 70 6a 95 3e 76 1c 2f be e5 0d 0d 3e 2d 09 02 3e
       0.29182768 -0.171007 0.13774832 0.12698813
0002e0 9e fe e2 3d 10 0d d3 bd d0 0a 2c 3e a5 26 a5 bd
       0.110837206 -0.10305226 0.16801 -0.080640115
0002f0 5f 5a 73 bd d2 43 0f be 6f d9 02 3e ec 1a 3f 3e
       -0.059412356 -0.13990715 0.12778257 0.18662614
000300 df ff 3f 3c 1e 94 95 3c 16 54 98 bd cb be 74 3d
       0.011718719 0.018259104 -0.07437913 0.059752267
000310 f9 db bb 3d 5b f2 1d be 7f c6 ae bd cd 40 91 bd
       0.09172816 -0.15424483 -0.08533954 -0.07092438
000320 fc 5c e9 bd 3d 7c af bd 75 04 a3 bc ae 37 82 bc
       -0.113946885 -0.085686184 -0.019899586 -0.01589569
000330 6b b1 d2 bd 4c 02 4b be b4 dc d5 3c fb 6b 97 3d
       -0.10287746 -0.19825095 0.026106216 0.073936425
000340 af c8 4c 3e 16 ef 92 3d 0c a8 1a be cd df cb 3d
       0.1999843 0.07174508 -0.15103167 0.09954796
000350 9c 50 01 3d 24 bf 24 3e cb 7c 17 bd fd 68 c1 3e
       0.031571016 0.1608854 -0.036984246 0.37775412
000360 34 58 0a bd de c0 04 be d3 af 86 3d f3 ae b2 be
       -0.033775523 -0.12964198 0.065765046 -0.348991
000370 0a 1f d8 3d 5b 07 eb bd 14 19 84 be 0b 70 8c 3e
       0.10552795 -0.11476012 -0.25800383 0.27429232
000380 1a 4b 97 bd 5c 8b 6c bd 03 e8 b6 bd 3b 01 a6 3d
       -0.07387371 -0.05775009 -0.089309715 0.081057034
000390 f7 80 86 3d ab 37 23 3d d4 52 a1 3d 39 46 f5 ba
       0.06567567 0.03984801 0.07877126 -0.0018712945
0003a0 21 04 ae bd 41 22 0a be da 1c 38 3e 14 7f fe 3d
       -0.08496881 -0.1348963 0.17979756 0.12426582
0003b0 88 1d b3 bd 7b b3 f1 3c c3 17 5d be 1b dc 59 3e
       -0.08745867 0.029504528 -0.21591096 0.2127537
0003c0 d8 fd 83 bd fe de 11 3e ae af 73 be a4 37 c1 3c
       -0.06444901 0.14245221 -0.23797485 0.023586102
0003d0 b8 02 c1 3e 81 2f 04 3e 5d 74 00 3b ea d5 a9 3d
       0.37697387 0.12908746 0.0019600608 0.08292754
0003e0 98 41 7f 3e ab ff 54 be fe b5 5c be 55 a4 50 be
       0.24927366 -0.20800655 -0.215538 -0.20375188
0003f0 81 30 3d bd 68 0a ae 3e f6 10 50 bc 0c 6e fb bd
       -0.046188835 0.33992314 -0.012699356 -0.12276849

a2.bias f4 [16]
000000 43 29 be bd 02 2b 32 be 03 c3 b7 bd 30 a6 da bc
       -0.09285214 -0.17399219 -0.089727424 -0.026690573
000010 c3 94 e5 3c aa c6 1c be 91 35 a3 3b 74 2c d9 bc
       0.028025037 -0.1531016 0.004980751 -0.026510455
000020 0e ea fd 3d 2c 2d fc bd b7 62 30 be 98 8f b2 bc
       0.12398158 -0.12313303 -0.17225157 -0.021796986
000030 84 d0 17 be 90 35 19 3d 34 f0 25 3e 4f 98 dc 3d
       -0.14825636 0.037404597 0.16204911 0.10771238

a3.weight f4 [32, 16, 3, 3]
000000 19 84 0b be f3 df a8 3e 7d 58 ea be 6c e0 3b bd
       -0.1362461 0.3298336 -0.45770636 -0.045868322
000010 84 07 e4 bd 96 48 cc bd b4 41 1a bf 9c 10 bd bd
       -0.11134246 -0.09974782 -0.60256505 -0.092316836
000020 fc 96 2d 3e 8d 0e 49 bd c9 3b c0 bd eb 1b 48 be
       0.16952127 -0.049086142 -0.09386403 -0.195419
000030 f2 39 97 bc 07 eb 52 3e 11 7a 4e 3e fe a2 9f be
       -0.018460248 0.20597468 0.20163752 -0.3117904
000040 9a d5 53 be 67 8c e5 be c8 bb 12 3e 03 b2 02 bc
       -0.20686951 -0.4483368 0.14329445 -0.007977012
000050 fa 50 ea 3d c7 4a da 3d f8 70 48 3e 5e 68 fe bd
       0.11441226 0.10658794 0.19574344 -0.1242225
000060 9b 5a d8 bd b0 33 83 3d 80 e0 fb bd 73 2b 8a be
       -0.105641566 0.06406343 -0.12298679 -0.26986274
000070 85 ef 38 3e d3 87 48 3e 37 ca 88 3d 39 5d a3 bd
       0.1806012 0.19583063 0.066791944 -0.07976765
000080 d1 61 15 3e a0 38 a9 bd d0 3f 0c be 78 40 8e 3c
       0.14588095 -0.082627535 -0.13696218 0.017364725
000090 7e 88 20 3e 4f 86 ce 3d be 5a e0 bd 11 e2 49 bd
       0.15677068 0.10084211 -0.10954808 -0.04928786
0000a0 bd 4d 9c 3e 96 e3 8f bd e1 f1 1b 3e 16 ee 04 3d
       0.3052806 -0.070258304 0.15228988 0.03245362
0000b0 c4 a3 be bc b7 68 fd 3d cd 06 91 3b 52 d4 0c be
       -0.023271449 0.123734884 0.0044258595 -0.13752869
0000c0 c0 12 88 3e c6 d8 64 bb 78 e3 a9 3e ee b4 b6 be
       0.26576805 -0.0034919246 0.33181357 -0.35684913
0000d0 45 15 39 be 69 a6 09 3e c2 a9 af 3d fd c8 61 3d
       -0.1807452 0.13442387 0.085773006 0.055123318
0000e0 61 c8 47 be d2 1c c3 3c f6 31 d4 3d b7 ad ee bd
       -0.19510032 0.023817454 0.10361092 -0.11654227
0000f0 1a 51 b4 3d 8d 46 a2 3e f3 a0 49 3d 25 0c 0b 3e
       0.088045314 0.3169445 0.04922576 0.13578852
000100 23 2c a8 bc 3b cd 86 3d aa 39 10 3e e7 2e 8b 3e
       -0.020528859 0.06582113 0.14084497 0.2718422
000110 a7 a7 82 be 91 1d be 3e 3a ab 9c bd d9 33 50 be
       -0.25518534 0.37131932 -0.076498464 -0.20332278
000120 13 67 52 3c 35 fa 14 3e c2 e6 ea bd 52 f2 f5 3d
       0.012841958 0.14548571 -0.11469795 0.120091096
000130 f9 5c 9a 3e ad 50 0d 3d e9 ac 75 3d db ec 8d be
       0.30149058 0.034500767 0.059979353 -0.2771977
000140 8c de 10 be 1d bb e6 3c f9 40 49 3e 41 fb 8d bd
       -0.14147395 0.028165394 0.19653691 -0.069326885
000150 c3 00 84 3e c2 22 80 bd e3 a2 94 bb cf 62 13 be
       0.2578183 -0.062566295 -0.004536019 -0.14393161
000160 55 ac f8 bd 8b df 13 3e 61 0e aa bc 02 46 8f 3d
       -0.12142245 0.14440744 -0.02075881 0.06995775
000170 38 e1 95 bd bb e0 db 3d a8 b7 9d be 3c 15 b3 3e
       -0.07318348 0.10736223 -0.3080418 0.34977138
000180 63 40 6f 3d 18 65 0e be 50 94 66 be 1c 9b 0e bd
       0.058411013 -0.13905752 -0.22517514 -0.034815893
000190 f7 84 7a be f8 8d 93 bd 79 44 35 be a2 8e 9e 3e
       -0.24464785 -0.07204813 -0.17701901 0.30968195
0001a0 2e bc 6e bd 47 13 36 be 48 5c 8b 3e 85 65 17 be
       -0.05828493 -0.17780791 0.27218843 -0.1478482
0001b0 da 96 92 bd eb 68 bf be b0 11 8a be a6 b2 45 3e
       -0.07157679 -0.37384734 -0.2696662 0.1930643
0001c0 3d f6 7d bd fd 42 b0 3e 23 7f 14 bf 3b 55 96 3d
       -0.06200241 0.34426108 -0.58006495 0.07340475
0001d0 06 38 4c bd 8f 17 07 3f f8 7a d6 3d 37 6e 92 bc
       -0.049858116 0.5277032 0.10472673 -0.01787482
0001e0 e3 da 97 3e 71 99 cf bb 5b c2 ee bd 52 5b 25 3e
       0.29659185 -0.0063354303 -0.11658164 0.16148117
0001f0 fc 6c 26 bb ae 4a 57 3e 2e 1c c5 3e cd d8 88 be
       -0.002539455 0.21024582 0.38498062 -0.26727906
000200 9b eb b8 be a5 56 bc 3d 98 f9 94 3e 94 94 35 be
       -0.36117253 0.09196214 0.29096675 -0.1773246
000210 a9 5d 19 3e de 5f 02 be 3b fe 82 be ba bd ca bc
       0.14977135 -0.12731883 -0.25584587 -0.024748672
000220 20 f6 be 3d 2d 8d 92 3d 76 69 5e 3c d9 ef c9 3e
       0.09324288 0.071558334 0.013574949 0.39440802
000230 75 eb 39 bf 3a ab fb 3d 00 67 3f be 3c c7 7c be
       -0.72624904 0.12288518 -0.18691635 -0.24685377
000240 ff 80 08 3e ae f2 71 bd c7 82 e3 3e 48 e1 e0 3d
       0.13330458 -0.059069328 0.44435713 0.10980469
000250 37 6c 4d 3c a1 83 23 3e a0 56 11 be 9b ba 33 bd
       0.012538007 0.15968181 -0.14193201 -0.043879133
000260 fd f2 ec 3d c0 29 91 bd bd 44 81 bd d7 b9 2e 3e
       0.11569784 -0.07088041 -0.06311939 0.1706308
000270 5a f1 23 be 1d 72 3a be d7 f8 3e 3e 4b 21 6b 3e
       -0.16010037 -0.18207593 0.18649612 0.22961919
000280 04 64 26 3e 95 03 39 be 79 c8 d0 be a4 55 c9 bc
       0.1624909 -0.18067773 -0.40777948 -0.02457697
000290 3b 1d 5c bd ea f5 56 3e 9c c5 13 be f5 37 80 be
       -0.053738814 0.20992246 -0.1443085 -0.25042692
0002a0 a3 65 31 be e7 e5 4e 3d 20 75 76 be a4 a6 06 be
       -0.17323928 0.05051222 -0.24068117 -0.13149506
0002b0 96 c9 0a be 42 97 df bd 4e 9d 35 be 23 08 04 3e
       -0.13553461 -0.10917522 -0.17735788 0.12893729
0002c0 7a 5a 05 3e 45 93 cc 3d c5 c9 e3 bd 2f 40 06 3e
       0.13022795 0.09989027 -0.11122469 0.13110422
0002d0 51 48 66 be b4 c4 d6 bd 44 dd a6 bd 4c f4 65 be
       -0.22488524 -0.10486737 -0.08147672 -0.22456473
0002e0 f5 41 f8 bd 68 51 62 3e bc 80 c0 bd a0 2e 10 be
       -0.12121955 0.22101367 -0.09399554 -0.14080286
0002f0 ef 6f 61 3e b4 f0 84 3d 57 0b b5 3d 33 65 09 3e
       0.22015356 0.06491223 0.088400535 0.1341751
000300 d0 59 cd 3d 26 aa 3a bd e8 fc a7 3e b4 20 87 bd
       0.10026896 -0.045572422 0.3281014 -0.065980345
000310 97 f2 37 bd e5 f7 f1 3d 2e 03 3f be f2 2a 46 be
       -0.044909086 0.1181486 -0.18653557 -0.1935232
000320 31 de f4 3d d4 44 b0 bc 4f fb 59 be d6 c9 2f 3e
       0.11956442 -0.021517195 -0.21287273 0.17166838
000330 08 a4 de 3d d1 4a 59 3e 5e 4b 77 3e 77 54 8e be
       0.1087113 0.21219946 0.24149844 -0.27798817
000340 f8 e2 a4 bd 8b 70 ea be ed 41 de 3d a9 93 b7 3e
       -0.08051103 -0.45788988 0.10852418 0.35854843
000350 1b 22 cb bd 79 c9 15 bf 9b f6 07 3e 53 87 92 3e
       -0.099186145 -0.5851055 0.13277666 0.2861887
000360 3f 15 c5 3d 9d 9e ae 3e ab b1 26 be 85 d2 91 be
       0.09623193 0.34105387 -0.16278712 -0.28480926
000370 c2 6b f8 bc 50 3f cd be 15 40 f2 bd 37 ec 28 be
       -0.03032482 -0.40087366 -0.11828629 -0.16496359
000380 15 25 88 bb cb ff 15 3e ba f5 d0 bd 50 c9 db bd
       -0.004154811 0.14648359 -0.102031186 -0.10731757
000390 72 b4 86 bc 20 f3 28 bd d2 24 71 be 76 0d 03 bd
       -0.016443465 -0.041247487 -0.23549202 -0.03199526
0003a0 90 1a 49 3e b0 51 05 3d b6 ba 8b 3e c7 25 2c be
       0.19639039 0.032548606 0.27290887 -0.16811286
0003b0 08 7f 88 3e 49 47 6a be 2a 7a 1e be 13 f2 75 be
       0.26659417 -0.22878756 -0.1547629 -0.24018125
0003c0 0a 98 20 be 50 3d d2 be cb ca a9 bd ac 1b a8 be
       -0.15682998 -0.41062403 -0.08290633 -0.32833612
0003d0 ec 95 64 bd bd 04 7c bd bc 6f 18 be a4 32 96 bd
       -0.05580704 -0.061527956 -0.14886373 -0.07333878
0003e0 98 2e 32 3e b9 81 0f bf 22 69 87 be 01 8a 3a 3e
       0.17400587 -0.56057316 -0.26447397 0.18216707
0003f0 8a 44 99 3e c8 6c 00 be 32 95 3f 3e cd c9 7e be
       0.29935104 -0.12541497 0.18709257 -0.24881668

a3.bias f4 [32]
000000 98 52 53 be aa 08 ad 3d fe 0c ca 3d a0 66 87 be
       -0.20636976 0.08448918 0.09865759 -0.26445484
000010 21 2f 8b be 34 67 ce 3c 9b 25 b5 3d 9b 56 3f be
       -0.27184394 0.025195695 0.08845063 -0.18685381
000020 c8 32 af be 4f 6c 3b be 50 5c 21 be 6e 90 de bd
       -0.3421843 -0.18303035 -0.1575787 -0.108673915
000030 f3 83 ff be c8 f6 d6 bd 6d fe d2 bd 35 3b ad 3e
       -0.49905357 -0.104962885 -0.10302434 0.33834234
000040 46 27 83 3e 75 c7 2a be 9c 40 ef bd e6 0f 9a be
       0.256159 -0.1667765 -0.11682245 -0.30090255
000050 d6 e8 36 bd 72 ac 5d be 13 43 91 bd b9 7f 3f be
       -0.044655643 -0.21647814 -0.070928715 -0.18701066
000060 6e 63 3f bd ba be 5a 3e 30 ea 8b 3e 9f e4 c2 bd
       -0.046725683 0.21361819 0.27327108 -0.09516262
000070 c6 97 ef 3b 8c 6e a5 3d b8 38 70 bd 7c 5f 25 be
       0.007311794 0.08077726 -0.05864784 -0.16149706

b1.weight f4 [32, 32, 3, 3]
000000 06 cf bd be c2 d9 87 3d 8e 4f d6 bd 08 cf fd bd
       -0.3707201 0.06633331 -0.104643926 -0.12393004
000010 b2 86 dd bd d7 83 f3 bd 85 ce 21 bd ee 36 dc bc
       -0.10816707 -0.11890381 -0.039503593 -0.026881661
000020 55 4f 5a be 7e 33 94 3c 5e 65 d7 be dc 7c da 3d
       -0.21319325 0.01809096 -0.42069525 0.10668346
000030 7f e3 98 be 84 f3 04 bf 05 01 67 3d ff 58 15 3e
       -0.29861066 -0.51934075 0.056397457 0.1458473
000040 fc db c1 be 79 20 c3 3e 76 d2 6e bd fd f9 3c 3e
       -0.37863147 0.38110712 -0.05830618 0.18454738
000050 4d 38 93 3d 1d 72 e6 3d be 15 82 3e 8a 57 09 bd
       0.07188473 0.11252234 0.25407213 -0.03353075
000060 ea 98 3e bd 2f 1e a2 3d 54 27 e5 bd 5c 3b 83 3e
       -0.04653255 0.07915913 -0.11189142 0.25631225
000070 26 14 81 3e c6 c5 4d 3e 79 d6 06 3e 53 e0 aa be
       0.25210685 0.20094976 0.13167752 -0.3337427
000080 56 29 14 3e 5e f5 19 be 2f 4f 27 be 70 01 77 be
       0.14468893 -0.15035006 -0.163388 -0.24121642
000090 b9 92 65 3e b3 9a 98 be 7d 67 0f 3b 90 19 ee bc
       0.22419252 -0.29805526 0.0021881752 -0.029064924
0000a0 14 d0 24 3d d4 83 a2 be 43 22 87 bd 73 fa 07 bf
       0.0402375 -0.31741202 -0.06598332 -0.5311653
0000b0 f5 a5 3c 3d a7 dc fa 3e ba 98 12 bf b9 f9 69 bd
       0.046056706 0.4899647 -0.5726429 -0.05712292
0000c0 3d 21 58 3e d7 d6 ff bd da 5d 8a 3d c9 a1 c7 3d
       0.2110643 -0.12492149 0.06756182 0.09747655
0000d0 17 74 4d bd 0c 06 c1 be 70 1b 64 be 1f be e3 bd
       -0.05015954 -0.37699926 -0.22276092 -0.11120247
0000e0 d3 b1 00 be f9 4a 93 bd c5 82 80 3d 1c a0 22 bd
       -0.12567835 -0.07192034 0.06274942 -0.039703473
0000f0 6d 3e 02 be d8 fa 29 be aa 72 de bd 80 a2 7d bd
       -0.12719126 -0.16599596 -0.10861714 -0.06192255
000100 c7 c4 5a 3d 31 b5 27 3d aa 98 2a 3d d7 8c 2b be
       0.053410318 0.040944282 0.041649498 -0.16752945
000110 6f 6b 1a bd 99 2c 26 3c 16 91 6e 3d 88 d8 c7 3c
       -0.037700113 0.010142469 0.058243833 0.024395242
000120 78 38 3d be 2c e8 83 be 3e ec aa be 60 e9 b4 be
       -0.18478572 -0.2576307 -0.33383363 -0.353343
000130 b0 57 4b 3e 80 a3 36 bd 0c 8e bf be 00 52 0c 3e
       0.19857669 -0.04458952 -0.3741306 0.13703156
000140 c6 05 63 3e 2f 6b 52 3e c7 d8 09 be 47 4c 18 be
       0.22170171 0.205487 -0.134616 -0.14872847
000150 eb 1b 4b 3e 80 b2 cf 3d dc 23 be 3e 6b 94 18 3f
       0.19834869 0.10141468 0.37136734 0.5960147
000160 6a 60 a9 bd 11 f6 96 bd e7 1b 61 be ea e1 6a 3e
       -0.08270343 -0.07371152 -0.219833 0.22937742
000170 54 bc 37 be 86 a4 0d 3e 00 0c 44 3e 60 dd 18 be
       -0.17942935 0.13832292 0.19145203 -0.14928198
000180 68 22 00 3e 45 10 9c 3c e7 77 3c 3d c2 e1 5f be
       0.12513125 0.019050727 0.046012785 -0.21863464
000190 28 1d 7f be bf 8d f9 be 1b e7 95 3e 87 d4 03 be
       -0.24913466 -0.48740956 0.29277882 -0.12874041
0001a0 73 fb b6 be c7 e3 67 3e 14 53 0a 3e b4 d7 28 be
       -0.35738716 0.22645484 0.13508254 -0.16488534
0001b0 28 94 76 be f7 79 b3 be 29 bc 0d be ce 23 20 be
       -0.24079955 -0.3505399 -0.13841309 -0.15638658
0001c0 b7 ee ad bd 28 9d 57 3e 5f f9 14 be 39 ad a8 be
       -0.08492797 0.21056044 -0.14548253 -0.32944658
0001d0 d6 33 2d bd e0 78 fa 39 74 b4 de 3c c0 1c 1e 3e
       -0.042285763 0.00047773775 0.027185656 0.15440655
0001e0 ca 31 d8 3d 4a 28 1d bc 67 ec 11 be 6e 01 f9 bb
       0.105563715 -0.009592125 -0.14250337 -0.0075990474
0001f0 4e d1 94 be b3 02 c9 3d f1 25 f7 3d 70 5f 31 3e
       -0.29065937 0.09814968 0.120677836 0.17321563
000200 6c 6e 2e 3d 8e 5d 60 bd 47 a2 a5 be 4a ee d7 3a
       0.042585775 -0.05477672 -0.3235037 0.0016474214
000210 2a 54 ac 3b bf ff 28 be 0f ba 9f bd 8c 13 99 3d
       0.0052590566 -0.1650381 -0.0779916 0.074744314
000220 ae e7 cf 3c b4 a8 86 bc 09 10 4c be 56 fc 7b 3d
       0.025379028 -0.016437866 -0.19927992 0.061519943
000230 71 0b 0d bd 01 87 2f 3d 4d 10 a6 be 9a 13 05 3d
       -0.03443474 0.04285336 -0.32434312 0.032489397
000240 1e 37 32 be f1 d9 0b bd ad ea f4 3d e3 61 5d 3e
       -0.17403838 -0.034143392 0.11958823 0.21619372
000250 41 2c 9b 3e 77 d2 fe 3d d9 f9 51 3c 5c b6 61 bd
       0.303072 0.12442487 0.012815916 -0.055105552
000260 eb d0 76 3e 25 33 70 3d da 48 27 3e ea 36 d6 be
       0.24103133 0.058642525 0.16336384 -0.4183877
000270 6b 94 d9 3b f9 74 79 bd d1 45 ff be cc ad a8 bc
       0.0066400073 -0.06090257 -0.49857953 -0.020590685
000280 74 fe 4b 3e d6 79 fe bd f5 fe 85 3e 3b 1f 2f bd
       0.19921285 -0.12425582 0.2617108 -0.042754393
000290 82 bd 87 bd 3b a1 5c 3d 40 a3 fb be 8a 02 5a be
       -0.066279426 0.0538647 -0.49147987 -0.21290031
0002a0 7c 81 92 bd 38 9e 0c be 53 37 d6 bd 1e bc 8f be
       -0.071536034 -0.1373223 -0.10459771 -0.2807321
0002b0 61 d8 c4 3e f2 2d 9d be 7c 6b 1d 3e 9e 45 3f 3e
       0.38446334 -0.30699116 0.15373033 0.186789
0002c0 db 85 95 bd 58 52 3c be 58 c3 82 3e 68 9e 4c be
       -0.073009215 -0.18390787 0.2553966 -0.19982302
0002d0 13 e9 7c 3c a8 41 e9 bd 6a 85 ef 3d 97 e3 16 3c
       0.015436429 -0.11389476 0.116953686 0.009209535
0002e0 4c 5f 87 bd 17 82 0d bd d4 17 3f 3e 60 e7 a7 3d
       -0.06609973 -0.03454789 0.18661433 0.08198428
0002f0 5c 24 68 3e e8 ce 3e 3d d6 db 84 be 50 b1 3a be
       0.2267012 0.04658404 -0.25948972 -0.18231702
000300 37 56 1f 3e ce af af 3d a2 1e 35 3e 38 48 80 bd
       0.15560232 0.08578454 0.17687467 -0.06263775
000310 ae 66 54 be 6a f4 18 be 63 2a 30 be 30 03 11 3e
       -0.20742294 -0.14936987 -0.17203669 0.14161372
000320 63 6e 89 3d ca 13 30 be 50 0f 06 3e 0c 64 ca 3d
       0.06710508 -0.17195049 0.13091779 0.09882364
000330 4a 32 49 3e d4 d6 d0 be 2f 6f 03 be 8d fb 29 be
       0.1964809 -0.407889 -0.12835382 -0.16599865
000340 2e de 40 3e 51 f4 84 be 50 b1 61 be 61 5e 12 bd
       0.18834755 -0.2596765 -0.22040296 -0.035734538
000350 1d 60 1f be 88 85 d7 bd 80 58 a4 3e 57 f4 dd 3d
       -0.15564008 -0.10523516 0.3209877 0.1083762
000360 2c 62 88 3e ee 2a 8d be 64 ca 97 be a6 3b a5 be
       0.266374 -0.27571815 -0.296466 -0.3227207
000370 66 66 d5 3c ea f2 c0 3d 10 8d 62 bc 4b 2e 33 3e
       0.026049804 0.09421332 -0.013827577 0.17498128
000380 0e fe f9 3c 3a f6 5d 3e 40 19 92 3d 81 36 f5 be
       0.03051665 0.21675959 0.07133722 -0.47893146
000390 74 5c 9e bd 76 f8 07 3c 72 cf 31 3e 02 2c 01 be
       -0.07732478 0.008298984 0.1736429 -0.12614444
0003a0 b1 87 b6 3e 5c 72 9b 3d f5 af ed 3e 3a 4b bf bc
       0.356504 0.07590172 0.46423307 -0.0233513
0003b0 88 1f 85 be 82 d3 ce 3d a6 e8 33 bd 5a ef 0d 3b
       -0.2600062 0.10098936 -0.043923043 0.0021657557
0003c0 71 31 86 3c 0a 58 9b 3e 9a 45 b5 be ab b8 74 3e
       0.016380997 0.30340606 -0.35404664 0.2389857
0003d0 e7 92 53 bd 02 6d 91 bd 46 f7 39 bf c0 81 8e be
       -0.05165377 -0.0710087 -0.72642934 -0.27833366
0003e0 54 79 a2 bc 4a 3d b6 bb 56 41 60 3e 42 1b f6 3c
       -0.019833244 -0.0055615054 0.21899924 0.030042294
0003f0 5d 43 9f 3e 55 84 48 bd 17 19 e1 be 4d 30 70 3d
       0.31106082 -0.048954327 -0.43964455 0.058639813

b1.bias f4 [32]
000000 74 2b a2 bd 63 4e 57 be 98 e4 c2 be 7c 0e 59 be
       -0.07918444 -0.21025996 -0.38065028 -0.21196932
000010 e2 ad f4 3e 0e 9c 02 be 12 af 10 be 16 89 12 3c
       0.47788912 -0.12754843 -0.14129284 0.008943817
000020 99 3a e1 bd a5 90 d6 be 5c 81 a2 be 9a c0 c5 3d
       -0.10997505 -0.4190723 -0.31739318 0.096558765
000030 3d af 87 be d4 15 9d be 27 8a 4e 3d 4f 54 2d be
       -0.26500884 -0.30680716 0.05042472 -0.16926692
000040 fb 76 fa bd 4a a8 01 bf fb 38 31 be 7f ee 5d 3e
       -0.12229725 -0.50647414 -0.17306893 0.2167301
000050 0c f0 1c be 9c e4 8d be b6 44 e3 3e 65 25 e9 be
       -0.15325946 -0.27713478 0.4438836 -0.45536342
000060 b7 41 25 bd 13 53 22 be 8d 85 ae bd b5 4a 1c bf
       -0.040345874 -0.15852003 -0.085215665 -0.61051494
000070 90 5e 5e bd ac 97 fb bb 65 37 e1 3d 8e de 17 be
       -0.0542894 -0.007677993 0.10996894 -0.14830992

b2.weight f4 [32, 32, 3, 3]
000000 14 b1 68 3e 39 07 99 3d 83 13 43 bd cc 22 0a 3e
       0.227238 0.07472081 -0.04762603 0.13489836
000010 23 a5 32 be df d3 92 3e d3 ae f4 bd b6 84 84 bd
       -0.17445807 0.2867727 -0.119474076 -0.06470625
000020 4b 07 f6 3d e4 c2 6c 3e fd 27 11 bd 41 69 ea bd
       0.1201311 0.2312122 -0.035438526 -0.11445857
000030 6d d6 ff bd 23 00 b4 bd 0b fe 4e be 4b 66 52 3d
       -0.1249207 -0.087890886 -0.20214097 0.051367085
000040 13 57 dd 3d a0 bc f0 be 7c fd 1b be 1d a7 45 3e
       0.10807624 -0.4701891 -0.15233415 0.1930203
000050 dc b3 d7 be 07 43 bb 3c e8 48 4f be b4 c1 18 3e
       -0.4212941 0.02285911 -0.20242655 0.14917642
000060 5c bb 50 be b2 b4 db bd 85 0d 41 be 75 bd df 3e
       -0.20383972 -0.10727824 -0.18852814 0.43699232
000070 07 17 cf bd 3a 17 0e 3e ab 3d 0c 3f 9c 9b dd bc
       -0.10111814 0.13876048 0.547816 -0.02705174
000080 9f 8a 3a be 49 38 66 bd 08 a2 e5 be a0 fd c0 bd
       -0.18216942 -0.05620602 -0.44850183 -0.09423375
000090 df 80 ea bd 29 e3 e7 3d 41 9e 95 be 02 ea a2 3c
       -0.114503615 0.11322624 -0.292223 0.019886974
0000a0 dc 25 3f 3e 86 1a 94 be 92 47 fb be 14 e1 1d 3e
       0.18666786 -0.28926486 -0.4907804 0.15417892
0000b0 48 49 77 3e 8c ea 09 3f 28 18 a7 be 8c 6d 96 bd
       0.24149048 0.53873515 -0.32635617 -0.07345113
0000c0 dc 59 a9 be a3 f2 d8 bd 82 dd ce be dd 8a 25 3e
       -0.3307637 -0.10593154 -0.40403372 0.16166253
0000d0 51 63 f5 3e aa b4 3f 3f 85 1c 7e 3d 9a 28 90 be
       0.47927335 0.74885046 0.062038917 -0.28155977
0000e0 0b 33 01 3e e0 26 43 be a3 a4 03 bd 60 85 ab bd
       0.12617128 -0.19057798 -0.03213943 -0.08375049
0000f0 f4 85 07 3e 64 c1 1b 3e e4 fa 95 be 3b 28 a8 3e
       0.13234693 0.15210491 -0.29292977 0.32843193
000100 ff dc 07 be 82 57 0d be 9f a2 67 bd 97 6b 9c 3c
       -0.13267897 -0.13802913 -0.056551572 0.019094272
000110 7c 98 89 3c 26 85 05 bb e3 9e 1c 3e 4e 36 19 be
       0.016796343 -0.0020373552 0.15294985 -0.14962122
000120 b3 00 ef bc e8 ea 5c be 96 f6 69 3e 36 cd 1e 3b
       -0.029175138 -0.21573985 0.22847971 0.0024231202
000130 c7 43 32 bc 8c 9d 01 be c6 86 c3 bd 8f e9 23 3d
       -0.010880417 -0.12657756 -0.0954719 0.04001766
000140 98 52 95 be 45 85 94 be 13 4a ad be e6 3a 49 be
       -0.29164577 -0.29007927 -0.33845577 -0.19651374
000150 8c 69 28 3e 45 ae 0d be 1f c4 9e 3e 74 74 d8 3e
       0.16446513 -0.1383601 0.31009004 0.42276347
000160 ff e8 30 3d fd 9d 9c ba d5 f4 49 bc e2 d3 5f be
       0.043190952 -0.001194894 -0.012326439 -0.2185817
000170 b7 ca 06 be 81 4b 32 be 4f e7 24 be 7b 65 56 be
       -0.13163267 -0.17411615 -0.16103862 -0.20937149
000180 3f 10 bc 3e 73 b5 83 3e fd 66 70 be d3 f6 cf 3d
       0.36731145 0.25724372 -0.23476787 0.101545
000190 af 9b b9 bd 61 b4 24 3e 30 ae 4b be 2d e4 d0 3d
       -0.090628974 0.16084434 -0.19890666 0.10199771
0001a0 7f cb 4f be 2c db b1 be 58 19 17 3e 44 53 3b be
       -0.20292471 -0.34737527 0.14755762 -0.18293482
0001b0 6c 34 80 be 67 cd 2c be 5b 2d 1f 3c 4a 71 e2 3d
       -0.25039995 -0.1687523 0.009715403 0.110567644
0001c0 3a 75 e3 bd 08 f8 4a be a7 77 b5 be 4d 83 e9 3d
       -0.111063436 -0.19821179 -0.3544285 0.11401997
0001d0 b4 11 96 3d 8c 6c a9 be eb 9a e2 bd 11 2d 01 bf
       0.07327595 -0.33090627 -0.110647045 -0.5045939
0001e0 37 25 0f 3c e5 72 7e be 99 28 0f 3e 14 86 1a be
       0.0087369 -0.24848516 0.1398033 -0.15090209
0001f0 48 31 35 bd 87 46 9d be 68 5d 4a 3e c3 3c 7c bd
       -0.04423645 -0.3071787 0.19762194 -0.061581384
000200 37 dc d6 bd c9 65 86 3c b6 6f 01 bf fd 84 5c ba
       -0.104912214 0.016405957 -0.5056108 -0.0008412151
000210 39 da 21 be 46 e9 5f 3e 93 09 16 3d a6 91 07 be
       -0.15805902 0.2186633 0.036630224 -0.13239154
000220 0e b7 61 bd 7b 45 37 bd df d6 74 3e 5c 8a 0a bf
       -0.055106215 -0.044743996 0.23910092 -0.5411737
000230 db 60 cf 3d 95 50 52 3c 45 25 40 3e 5a 29 af 3d
       0.101258956 0.012836595 0.18764217 0.08552809
000240 4b c6 9e 3e a0 75 0d bd f4 6b 34 bd bc 07 e2 3c
       0.3101066 -0.034536004 -0.044048265 0.027591579
000250 4e 6a 13 be 34 81 0a 3e 2a ed b5 3d 9a 80 88 3e
       -0.14396021 0.1352585 0.08883126 0.26660615
000260 22 0f ec bd 0b 38 d3 bc 1a a3 a6 bd d1 64 29 3e
       -0.11526324 -0.02578356 -0.08136578 0.16542365
000270 52 99 16 3e 71 25 94 3c c7 9f ce 3d 0f 9d 3a be
       0.14706925 0.01808426 0.10089069 -0.18223976
000280 54 33 e8 3d fb 82 2d be 47 80 81 bd e7 f1 b1 3d
       0.11337915 -0.16944496 -0.06323295 0.08688717
000290 19 5a 80 bd a7 47 d3 bd 83 60 9d bd 05 11 99 be
       -0.06267185 -0.10316401 -0.07684424 -0.29895797
0002a0 7e 34 48 be 76 dc 10 be 5c c2 3d bb 30 76 8a 3e
       -0.19551274 -0.14146599 -0.0028954959 0.27043295
0002b0 85 13 03 bc d4 73 b3 bd ee 18 69 3d 2e eb 34 3e
       -0.008000259 -0.08762327 0.05690854 0.17667839
0002c0 87 7a 29 3e 94 d1 bb bd 1e 4b c6 3d ce 27 ae bd
       0.16550647 -0.09170833 0.09682296 -0.08503686
0002d0 dd 5e 62 3c 13 b3 84 be 59 30 fc bc 6b 41 40 3e
       0.0138165625 -0.25917873 -0.030784773 0.18774955
0002e0 97 64 dc bd a8 56 4d bb 4c 21 9a be 94 f4 12 bd
       -0.107613735 -0.0031332169 -0.30103528 -0.03587778
0002f0 10 24 a9 be 75 2b 86 be 0e 90 19 be 1e 3a bc 3d
       -0.33035326 -0.2620503 -0.14996359 0.091907725
000300 de 12 41 3e a6 6b 4c 3e 68 e9 a6 3e 3f 67 fe bd
       0.18854854 0.1996294 0.3259995 -0.124220364
000310 69 18 8e be 96 9d 0e bd 73 3f 80 3e 39 0c 99 be
       -0.27752998 -0.034818254 0.25048408 -0.29892138
000320 a5 55 aa 3d fa 30 cd 3d e2 42 a1 bc ed ee 1f 3e
       0.08317117 0.10019107 -0.019685213 0.15618487
000330 ba a7 31 bf 96 eb a0 3e 9f 06 b6 bd e1 43 aa be
       -0.69396555 0.31429738 -0.088879816 -0.33254912
000340 e1 58 e9 bd de 12 3b be 01 6d 05 bd e8 6c f8 be
       -0.113939054 -0.18268916 -0.032574657 -0.4852059
000350 c4 ef 3b 3f 08 ae c1 3d a0 eb c9 3c 60 68 3d 3e
       0.7341273 0.09457022 0.024648488 0.18496847
000360 fa 2e 4a bc fd cf d0 bd 24 7f d1 bd e4 a8 55 3d
       -0.012340302 -0.101959206 -0.10229328 0.05216302
000370 51 cc 47 be 1b e8 38 3c 88 b2 91 3e 71 7a 4a 3e
       -0.19511534 0.011285807 0.2845652 0.1977327
000380 ce 85 87 be 36 97 e3 bb 7a 67 12 be d2 75 4e 3e
       -0.26469272 -0.006945516 -0.14297286 0.20162132
000390 99 39 ad bc 92 e7 8b 3e 98 d3 06 be 2c 11 13 be
       -0.021145629 0.27325112 -0.13166654 -0.1436202
0003a0 f4 28 56 be 84 02 1c 3e f4 3e c0 3d 29 a2 0e be
       -0.2091406 0.15235335 0.09387007 -0.13929047
0003b0 c9 02 a3 3d dd 17 48 3b 8a 2c e3 3d 5a 38 3b 3e
       0.079595156 0.0030531802 0.110924795 0.18283215
0003c0 76 94 d2 be a3 ec 9e be e9 a4 80 be eb ac 1f 3e
       -0.41128892 -0.31039914 -0.25125816 0.15593307
0003d0 c8 46 2e be 24 36 d0 3e 82 a4 3f 3e e7 95 a7 bd
       -0.17019188 0.40666306 0.18715099 -0.081828885
0003e0 48 83 a5 be fd bf 3e bd 66 df 00 bf a6 3f 1e 3e
       -0.32326722 -0.046569813 -0.5034088 0.15453967
0003f0 9d 80 55 3d 47 e2 0d 3e a7 99 83 3e f9 93 6f bc
       0.05212461 0.13855849 0.25703165 -0.014622682

b2.bias f4 [32]
000000 ed d6 b9 3d 43 10 1e bf de 62 c2 be 89 c4 00 bf
       0.09074197 -0.61743563 -0.37966055 -0.5029989
000010 1c e0 fa bd 46 ca de be 2b 59 99 be cf 89 aa be
       -0.12249777 -0.43513697 -0.29950842 -0.33308265
000020 1a 44 8d 3e 42 ad e7 3c 0b 62 40 3c 91 9f 74 be
       0.2759102 0.028280858 0.011742125 -0.23888995
000030 16 79 8b be 5c 46 eb be c9 e4 d4 bd bb e2 fb 3d
       -0.2724082 -0.45952117 -0.103952 0.12299105
000040 42 28 19 be 1a cc a5 be 7a dd d8 bd 25 b1 46 be
       -0.14956763 -0.3238228 -0.10589118 -0.19403513
000050 cf 3c f4 bd d6 b9 5b 3e ee f8 c8 be e2 e5 74 3e
       -0.11925661 0.2145761 -0.39252418 0.23915818
000060 08 09 d6 be b1 05 64 3e d2 c6 c1 3d 5e b4 71 3d
       -0.41803765 0.22267796 0.0946175 0.059009902
000070 cc 1c 07 bf 85 9b c0 bd 2d e1 7c 3e fc 01 b7 bd
       -0.52778316 -0.09404663 0.24695273 -0.08935925

b3.weight f4 [64, 32, 3, 3]
000000 7a 87 25 be db 4e d8 3c a6 4d 58 bd 3c 03 42 be
       -0.16164961 0.026404789 -0.052808426 -0.18946546
000010 63 ea 25 bd 7c a0 a0 bd 3f c5 88 bc dd 9d d1 be
       -0.04050673 -0.0784311 -0.016695617 -0.40940753
000020 fc 59 9f 3c e5 a8 bb 3d fc 11 65 be ef cc 67 3e
       0.019452088 0.091630735 -0.22370142 0.2263677
000030 9c 62 22 bd 35 12 1f 3e cc 19 c8 be 6a b3 80 be
       -0.039644822 0.15534289 -0.3908218 -0.25136882
000040 57 78 5c be 38 be 81 be 58 1e 6a be 89 52 69 be
       -0.21530281 -0.25340438 -0.22863138 -0.22785391
000050 d4 ca 10 3d b2 88 a4 3d c7 46 0e be ec 8f 9a be
       0.035349682 0.08033885 -0.13894187 -0.3018793
000060 7e a3 2f 3e 4c 93 b7 3e 32 0b 26 be c9 47 97 bc
       0.17152211 0.35854566 -0.16215208 -0.018466847
000070 28 ff fe bd 3a a2 24 3e 3c b1 86 3d 39 f0 81 3e
       -0.12451011 0.1607751 0.065767735 0.25378588
000080 78 5b 83 be 34 a8 80 3c 4a 16 20 be 15 97 ba 3e
       -0.25655723 0.015705206 -0.15633503 0.3644339
000090 eb d0 6a 3d 34 2e a4 bd 25 cd 0e bc 0d 6f 04 bf
       0.057328146 -0.08016625 -0.008715902 -0.5173195
0000a0 0c da ad 3d d2 79 d7 3e 2a ff 6d be 17 27 9d 3e
       0.08488855 0.4208513 -0.23241869 0.30693886
0000b0 36 9d 49 3d b4 a8 b1 bd 9f 52 f2 3e 80 fd 0c 3e
       0.049222194 -0.08674756 0.4732866 0.13768578
0000c0 b0 0c 70 3e ec 52 68 be 5c 95 ae 3e fd 0b 4b be
       0.2344234 -0.22687882 0.34098327 -0.19828792
0000d0 1d 63 d1 bd 3f 02 c5 be d2 00 aa ba c6 50 30 3d
       -0.102239825 -0.38478276 -0.0012970215 0.04304578
0000e0 7c 9e 30 be 4c 22 85 3d e2 80 03 3e 91 f0 bb ba
       -0.17247957 0.06500682 0.12842134 -0.0014338662
0000f0 b3 c8 48 bd 31 3f fa bd 6b d6 cb 3b 0a e0 48 be
       -0.049019527 -0.12219084 0.006220629 -0.19616714
000100 4f c9 81 bd a3 aa 57 3e 82 64 9e bd 99 3b 6b bd
       -0.06337225 0.21061186 -0.07734014 -0.057429884
000110 00 c4 00 bf d4 61 3a 3e a9 74 cb 3e 58 10 3b be
       -0.5029907 0.18201381 0.39737442 -0.18267953
000120 8a 83 b0 bd a9 64 2a 3d 16 99 dc bd 48 99 67 bd
       -0.08618839 0.041599903 -0.10771386 -0.056542665
000130 4b a5 b2 3b 4d 0b d2 bd 2d 0b b1 3b 7c 5e 9c be
       0.0054518334 -0.10256062 0.0054029436 -0.30540836
000140 50 ed 80 3e b0 25 6a be 13 4c 1b 3e 8c ee de 3d
       0.25181055 -0.22865939 0.15165739 0.10885343
000150 90 dd 8b 3d a4 e8 a6 3e b7 76 6b be 73 ac ac be
       0.06829369 0.32599366 -0.22994505 -0.33725318
000160 b5 af 16 bf f9 65 8e bd c3 17 9a bd a6 33 87 be
       -0.5886186 -0.069530435 -0.075240634 -0.26406592
000170 17 a0 65 be 55 91 5f 3d 38 fb 43 3c 46 40 ce 3d
       -0.2242435 0.05458196 0.011961751 0.10070853
000180 18 b7 c4 be 5c be d3 3a ce df 37 be 84 24 5c 3e
       -0.3842094 0.0016154754 -0.17956468 0.21498305
000190 2e 3b c4 3c bf 4f d6 bd ba d6 80 3e 3a 6e 58 bb
       0.023954 -0.10464429 0.25163823 -0.0033024685
0001a0 62 22 4e 3e c0 64 1f 3d d7 54 db 3e 45 04 8a 3e
       0.20130304 0.038914442 0.42838165 0.26956382
0001b0 ff 9a ad 3d ca 55 27 3e dd ff 52 3e 18 b0 d6 3d
       0.08476829 0.1634132 0.20605417 0.10482806
0001c0 42 91 19 be 55 af da be d7 3e e7 bd 76 71 a0 bc
       -0.14996818 -0.42711893 -0.112912826 -0.019585352
0001d0 14 d6 00 3e bd 0f 92 3c 3a 6a 7d bd 29 a1 05 3e
       0.12581664 0.01782977 -0.061868884 0.13049759
0001e0 e6 90 06 3d a8 2c cf 3e 0b e8 6f 3e 49 f9 ab bd
       0.03285303 0.40463758 0.23428361 -0.08397157
0001f0 41 99 d8 3c 74 7e 5e 3e 69 a1 49 3e b0 33 c5 be
       0.026440265 0.21727926 0.1969048 -0.38515997
000200 b2 fb 93 3c 31 1b 54 3e f4 97 a5 bc 7f 20 01 3e
       0.018064354 0.20713498 -0.020214058 0.12610053
000210 a1 bb 9c 3d 6b ba c0 bd bc e0 f4 be 62 ed 01 be
       0.07652975 -0.094105564 -0.4782771 -0.1268821
000220 65 f0 6b be b7 75 fb 3d 62 37 78 bd b9 17 74 be
       -0.23040922 0.12278312 -0.060599692 -0.23837174
000230 c2 72 12 bf 34 60 36 be 66 fc 75 3d ec 20 67 bd
       -0.57206357 -0.17810136 0.06005516 -0.05642788
000240 93 cb 80 3e e9 03 a6 be 11 59 85 be 8b 5f 6d 3e
       0.25155315 -0.32424858 -0.26044515 0.23180978
000250 1f db 7d be 4d 74 06 3e 9e 59 25 be 4e a3 42 be
       -0.2479062 0.13130303 -0.16147467 -0.19007608
000260 4f 30 ef be 77 cd c4 bd ff 28 e1 3d c1 c7 9d 3e
       -0.46716544 -0.09609502 0.109941475 0.30816463
000270 85 e7 08 3e e4 bc bb 3c 05 c2 7e be c9 3a 82 be
       0.13369568 0.022917219 -0.248787 -0.25435475
000280 de 8a 1a bd 8c 75 e6 be 9b ad b7 3e 44 c5 e8 3d
       -0.03773009 -0.45011556 0.35874638 0.113657504
000290 41 84 12 3e b5 cd 23 bd 71 5e a2 be 9e f7 87 be
       0.14308263 -0.0399911 -0.31712678 -0.26556104
0002a0 59 e9 fc bd 52 36 3e be d0 62 2c be b6 4f fe 3d
       -0.12349195 -0.18575409 -0.16834569 0.124175474
0002b0 e8 e4 3b be e4 22 9c 3d f4 f0 df 3c 00 a8 e0 be
       -0.1834904 0.07623842 0.027336575 -0.43878174
0002c0 e6 8b b8 3d 74 56 1b 3d b9 44 d3 3b 1b 29 40 bd
       0.090110585 0.037924245 0.0064474014 -0.0469142
0002d0 95 ec 0e 3e 96 b6 15 bc df 9f d0 bd 3a 53 85 3e
       0.13957436 -0.00913777 -0.10186743 0.2604006
0002e0 7f 65 e3 bd 6e 85 54 3e af 31 38 be c6 dd 91 3e
       -0.11103343 0.20754024 -0.17987703 0.28489512
0002f0 1c 37 46 bd 42 16 ad bd 2a d3 2e be c9 ca 5f 3d
       -0.0483924 -0.08451511 -0.1707274 0.05463675
000300 70 46 b6 be 09 5a aa 3d 0d 10 ac 3d 3d be a7 bd
       -0.35600615 0.08317954 0.08401499 -0.08190582
000310 4d d6 49 3d 5b 2e 04 be 73 1f e3 be e0 62 41 be
       0.04927664 -0.12908308 -0.4435993 -0.18885374
000320 89 7f cd 3d a3 82 45 3e 13 34 27 3e 1d 64 9a bd
       0.10034091 0.19288115 0.16328458 -0.07538626
000330 09 bc 2d 3e e7 ee ba be 19 11 bd bd 50 05 d7 3c
       0.16966261 -0.36510393 -0.09231777 0.02624765
000340 99 c6 f7 3c 1a b0 9c be 5c d2 85 3c 32 53 40 be
       0.030246066 -0.30603105 0.016335659 -0.18781736
000350 a5 70 55 3e 4d c4 8d 3d 94 23 e6 be 8d 99 b4 3d
       0.20843752 0.06922207 -0.4494902 0.0881835
000360 0b 4d 11 bd 6b 16 14 be 50 20 5f 3e 4b 5c 91 bc
       -0.035473865 -0.14461677 0.2178967 -0.017744204
000370 ce ba 5e be c1 e5 d1 bd 29 ed 83 bc a9 38 2b 3e
       -0.21750948 -0.102489 -0.016104298 0.16720833
000380 73 16 c2 bd 34 b7 92 bd 03 47 c5 bd c8 dc 8e 3e
       -0.09476938 -0.071638495 -0.09632685 0.27902818
000390 cb 83 0a 3f 62 8e 13 3e 1b e1 15 3e 10 19 06 3e
       0.5410735 0.14409783 0.14636652 0.13095498
0003a0 d6 e0 8a 3e b2 71 aa 3d f6 81 8d 3d 8d cd 6a 3d
       0.2712466 0.08322467 0.06909554 0.057324935
0003b0 4d e0 b9 3d 02 f9 9f bc 3b ba ad 3e a9 a3 46 3e
       0.09075985 -0.019527916 0.33931145 0.19398369
0003c0 49 92 53 be 5b 42 f4 be 2e b9 35 3e 65 32 a5 bd
       -0.20661272 -0.47706875 0.17746422 -0.080662526
0003d0 98 6a 85 bd f2 88 a8 bc 29 c8 b5 3d 5f 41 bb bc
       -0.06514472 -0.020573113 0.08876068 -0.02285832
0003e0 fe 59 e9 3c 98 d7 06 bd a7 0e 89 be e0 2c 9f 3e
       0.028485294 -0.03292045 -0.2676899 0.31088924
0003f0 9f fe b5 3c c1 2d 1b 3d f1 26 87 3e 58 75 1e 3d
       0.02221614 0.03788543 0.26396897 0.038686126

b3.bias f4 [64]
000000 72 b1 d7 3d 87 ac fe 3d d9 08 3b bd 79 59 08 bd
       0.10531892 0.12435251 -0.045662735 -0.033288453
000010 a2 72 f4 3c 84 e8 51 be fe 3a 44 3d 7e a0 41 3d
       0.029839817 -0.20498854 0.04790782 0.047272198
000020 07 24 73 be e6 4e 04 be 8c 7f 27 be 53 88 14 3e
       -0.23744212 -0.12920722 -0.16357249 0.14505129
000030 07 f9 3b 3d 67 0f 50 3e 62 e8 2f be 09 57 da bd
       0.045891788 0.20318376 -0.17178491 -0.10661132
000040 2e e0 e7 bc 7a 42 23 bd 2f d5 b4 bc bd a6 1a 3e
       -0.02830514 -0.03985832 -0.02207431 0.15102668
000050 57 e9 60 bd 82 0a 8c be 52 6c 82 bc 15 71 30 3e
       -0.05491003 -0.27351767 -0.015920792 0.17230637
000060 f7 23 45 3e 42 8d 55 be b7 95 df be 31 7f e3 bd
       0.19252001 -0.20854667 -0.4366891 -0.11108244
000070 0b ad 8a 3e 67 4d cf bd 9d 72 58 3d 5b 38 b9 bd
       0.27085146 -0.10122185 0.05284368 -0.09043952
000080 b6 95 31 be 1e 5d c3 bd 27 82 64 bd 51 08 d2 3d
       -0.17342266 -0.09539245 -0.055788185 0.102554925
000090 a3 65 81 bd 31 b6 8a be fb 16 d9 3d b4 0a c4 bd
       -0.06318214 -0.27092126 0.10600086 -0.09572354
0000a0 9d 34 0f 3d 5f 52 0d 3d 2c 53 5f 3e dd 2a 9d 3e
       0.034962285 0.034502383 0.21809071 0.30696765
0000b0 18 45 f1 bd 1c 10 f9 bd 72 b1 0e 3e c1 19 00 be
       -0.11780757 -0.12161276 0.13934878 -0.12509824
0000c0 54 2a 61 be be a7 59 be 10 2a 10 bd 18 2b 13 3d
       -0.21988803 -0.21255395 -0.035196364 0.03592977
0000d0 ca ff 66 bd 73 39 97 3d 1c f9 a4 3c e3 d9 bc bd
       -0.056396283 0.073840044 0.020138316 -0.09221246
0000e0 a0 7e ea 3d 5b 10 1d 3e ee 53 e4 bd 5b c6 eb bc
       0.11449933 0.1533827 -0.11148821 -0.028781107
0000f0 84 a8 5a be 03 5c 53 3d d1 70 cc bd 99 94 c3 be
       -0.21353346 0.05160142 -0.099824555 -0.3819931
