nets/model_epoch_5.pth (torch, 648764 bytes, 25 tensors)

a1.weight f4 [16, 5, 3, 3]
000000 fc e1 90 3d 7d b3 98 3d 1a 1a 64 bd c7 4c d2 3c
       0.07074353 0.0745611 -0.055688955 0.025671376
000010 91 06 a5 bd 05 77 b3 3d e5 90 af 3c 00 dc 9d 3d
       -0.08057893 0.087629355 0.021431396 0.07707977
000020 e3 7c 61 be d5 59 41 bc 36 b2 41 bb 71 a0 2e be
       -0.22020297 -0.011801203 -0.0029555685 -0.17053391
000030 cd 0b 11 bd 9e 83 ff bd f5 3b 2c be 42 af 04 be
       -0.035411645 -0.12476276 -0.16819747 -0.1295748
000040 1e 1c 38 be bf 96 85 be 46 db 83 3c e5 6f b6 bd
       -0.17979476 -0.26091573 0.016095769 -0.08908061
000050 b6 1f 75 bc 5f 8c 8a bb c7 54 2a be fa 18 4f 3d
       -0.014961174 -0.0042281593 -0.16633902 0.05056093
000060 b5 97 93 bd ca 7d 3d be 24 76 62 3d 61 e0 36 be
       -0.0720667 -0.18505016 0.05528845 -0.17859031
000070 3e e9 78 bd b0 bc 98 3d f0 7b e7 bd 79 33 37 3d
       -0.060769312 0.07457864 -0.11302936 0.044726823
000080 17 7c 46 be 7c 9e f2 bd 6e eb 5d bd 9b 09 0c 3d
       -0.19383274 -0.11846635 -0.0541796 0.034188848
000090 6f 8d 0d be 6c 37 2f bd 92 bf e9 bd 9f be 32 3a
       -0.13823484 -0.042777464 -0.11413492 0.0006818566
0000a0 43 e6 18 be 8c 96 c2 bd 08 2c 30 bc 42 d9 f2 bd
       -0.14931588 -0.09501371 -0.010752685 -0.11857845
0000b0 b4 49 3d bd 2d 90 e3 3d b9 21 16 be e7 8d 59 bd
       -0.046212867 0.11111484 -0.14661302 -0.053113844
0000c0 88 10 54 3e bf 3f 8b 3c a5 9a 6b 3e a7 1c c5 3c
       0.20709431 0.01699817 0.23008211 0.024061514
0000d0 3e 17 87 3e 9c 1b 0d be 91 d1 9d 3d 88 d6 52 3e
       0.2638492 -0.13780063 0.07705987 0.2058965
0000e0 8f c8 a4 3c b1 dd 31 3d 33 6d 1d 3e 59 0b a5 3c
       0.020115165 0.043424312 0.15373687 0.020147013
0000f0 8f 6d f9 3d 63 2d 7c be 63 b4 24 3d 09 60 0f 3e
       0.121791 -0.24626689 0.040211093 0.14001478
000100 38 fa 2b bd 95 2f ae bd 1f 57 77 3e 7b 27 0e 3c
       -0.041986674 -0.08505169 0.24154328 0.008676405
000110 34 0d 8c be f1 b4 a3 bd 47 23 e7 bd 36 20 4b 3c
       -0.27353823 -0.07993496 -0.112860255 0.012397816
000120 84 b6 bb 3c f6 7c 75 be 3a bd 58 be cc 6f fb bb
       0.022914179 -0.2397345 -0.21165934 -0.0076732393
000130 b3 cc 43 3e f2 46 93 3d f2 4b a1 3d 95 55 65 3d
       0.19121055 0.07191266 0.078758135 0.05598982
000140 b7 68 93 be 60 b4 4d 3d 4b 91 28 3d 7a 8e 57 39
       -0.2879083 0.050220847 0.041154187 0.00020557074
000150 b6 13 ad 3d 84 ef 81 ba b4 a3 17 bd 1f a4 97 bd
       0.08451025 -0.00099133 -0.037021354 -0.074043505
000160 03 2a c8 bd 3a a3 88 3c 5c a5 6f be 31 6b 2f 3d
       -0.09773638 0.016679395 -0.23402923 0.042826835
000170 93 6e 8a 3e d5 bc 80 3d 68 54 29 3e 0f 3a c4 3c
       0.27037486 0.06286017 0.16536105 0.023953466
000180 05 7a 98 3e 1c 23 98 3e 4b cd 16 3d 78 70 0b 3e
       0.29780594 0.29714286 0.036816876 0.13617122
000190 d9 12 09 3e 3d d3 34 3e 25 c3 60 bd 65 b5 ac bb
       0.13386096 0.17658706 -0.054873604 -0.0052706474
0001a0 0f 8c 2d 3c ea a3 05 bd 40 c8 da bd a7 74 ae 3d
       0.010592475 -0.032627024 -0.10682726 0.085183434
0001b0 3b 3a 45 3e e4 45 8e 3e b1 c7 ff 3d ce fe 60 3d
       0.19260494 0.27787697 0.1248926 0.0549305
0001c0 f7 7e 07 be 06 45 4b 3e 2c 81 3b be 63 bc 8c bd
       -0.13232027 0.19850549 -0.18310994 -0.068718694
0001d0 87 6f ad 3d 48 f4 59 ba 06 8b 3e be 51 59 2f be
       0.08468538 -0.0008314294 -0.1860772 -0.17123915
0001e0 62 c0 34 3d 99 81 06 be 70 c1 f3 bc ca ff 75 3d
       0.044128783 -0.13135375 -0.029755324 0.060058393
0001f0 f8 2a 2c 3d 3c 52 5e be bc 94 d0 bc 58 93 76 3d
       0.042033166 -0.21711057 -0.025461547 0.06019911
000200 1c f0 3c 3d 75 4e b5 bd db a2 ca 3d 24 17 09 be
       0.046127424 -0.08852855 0.098943435 -0.13387734
000210 92 cb cc bc 02 e1 0d bd 2b 85 b2 3d b2 36 00 3e
       -0.024999414 -0.034638412 0.08716806 0.12520865
000220 02 29 87 3d 9b c9 6b be e8 94 28 3e f0 cb 05 3e
       0.065996185 -0.23026125 0.16463053 0.13066077
000230 a6 8a f3 bd d6 a6 fd 3c eb db 6e be ce d5 4e 3e
       -0.118916795 0.030963343 -0.2332608 0.20198748
000240 53 79 bd bd d5 3f 8b be b7 59 e9 bd dd a2 84 be
       -0.092516564 -0.27197137 -0.11394065 -0.25905505
000250 28 f4 b6 bd a1 7b 8f be 53 3c 2b 3b b4 4b 19 3d
       -0.08933288 -0.2802401 0.0026128485 0.03742571
000260 6a bb 70 bc f4 e6 87 bc 16 fa 56 3d 44 75 d6 3c
       -0.0146931205 -0.01658962 0.052484594 0.026178963
000270 93 ab f8 bd f7 c2 4b bd f0 06 35 be cd f1 1d be
       -0.121421 -0.04974648 -0.17678428 -0.15424271
000280 18 8b e1 bd bc ba 8c 3e ea d9 2f 3e e8 19 2d 3e
       -0.11012858 0.27486217 0.17172971 0.16904414
000290 dc ea 13 3e 7d 32 51 3e 90 63 94 bd fa 06 a1 3e
       0.1444506 0.20429416 -0.072455525 0.31450635
0002a0 b8 1c 0e 3e a1 ba 70 bd 63 cd 1a be 7e 6a ca bc
       0.13878143 -0.058771733 -0.15117411 -0.024708983
0002b0 c9 10 12 3d c8 e3 85 3d ed 81 e4 bc 6e 07 2d bd
       0.03566054 0.065375865 -0.027893985 -0.042243414
0002c0 15 0e 86 bc ed 68 62 3d b3 b8 2e bd b0 27 1a 3c
       -0.016364137 0.055275846 -0.04265661 0.009408876
0002d0 8e 09 27 3e 43 b2 74 3d 0b 3d 41 be 68 5d 7e 3d
       0.16312239 0.059740316 -0.18870942 0.062100798
0002e0 e3 3e bd 3d 12 af 2d 3e 89 7c b8 bb e8 19 14 3e
       0.0924051 0.16961315 -0.00563008 0.14463007
0002f0 d8 30 38 3e 39 47 02 3e 99 38 80 bd a5 1d 14 3d
       0.17987382 0.12722482 -0.06260795 0.036161084
000300 2f c9 06 be c0 19 80 bd 78 4f 8e bd f6 71 f3 3d
       -0.13162683 -0.062549114 -0.06948751 0.11886971
000310 f2 db e9 3c ee e6 b5 bd 2a 3d 28 3d 01 00 e1 3d
       0.02854726 -0.08881937 0.041073956 0.10986329
000320 91 50 8f 3e 8f c3 0c bd 22 f3 de bc 74 ee a1 bd
       0.27991155 -0.034366187 -0.027215544 -0.079068094
000330 3e c4 55 be 0f 01 44 3e d3 fa 52 bd 64 53 ce bd
       -0.20875642 0.19141029 -0.051508736 -0.10074499
000340 4c bc 81 be 6d 18 83 be c3 af 9a 3d 78 08 a6 3d
       -0.25338972 -0.25604573 0.07553055 0.08107084
000350 47 fd fc bd 73 7f ca bd 90 59 84 bc 76 af 97 3c
       -0.12352996 -0.0988759 -0.016155988 0.018516283
000360 2a 0e b0 3b 98 cd 63 3d 31 9b 30 bd e7 e7 4d 3d
       0.0053727822 0.05561599 -0.043116752 0.050269987
000370 a9 dd c0 bd 0f 7a 6c 3a 67 09 9a 3b 56 54 cc 3d
       -0.09417278 0.00090208737 0.004700828 0.09977023
000380 02 f9 c9 bd a7 b0 a8 bd 6c 7d 3e bd 43 ec 6e 3e
       -0.098619476 -0.08236819 -0.04650633 0.23332314
000390 f5 75 a2 bd 72 9a 8a bd 98 81 4b 3b 13 71 03 3e
       -0.07932655 -0.06767739 0.0031052586 0.12836103
0003a0 62 d4 f1 bd 1b 49 75 3e bd 41 72 bd 18 dc 78 3e
       -0.11808087 0.23953669 -0.059144724 0.24302709
0003b0 5f 14 85 3e b7 19 85 bd 1c 8d bc 3c 08 b9 39 be
       0.25992104 -0.06499045 0.023016505 -0.1813699
0003c0 13 6b 85 3d 82 49 22 3e ab 83 9e be cb dd 87 3d
       0.065145634 0.15848354 -0.3095983 0.066341005
0003d0 f0 7a c7 3d 53 50 be 3d c7 21 0a be 5c 7b 1e 3e
       0.09740245 0.092926644 -0.13489448 0.15476745
0003e0 5d 1b 63 be 4e 9c 17 be f6 78 ee bd 37 40 47 be
       -0.22178407 -0.1480572 -0.11644165 -0.1945809
0003f0 4f aa 67 3e 24 f4 2d bc 53 ff 92 3d 10 fb af 3d
       0.22623561 -0.01061729 0.071776055 0.08592808

a1.bias f4 [16]
000000 1d ba 8a 3d 8a 4c 26 bd 6c 87 3b bd 6d cf 97 bd
       0.067737795 -0.040600337 -0.045783445 -0.0741261
000010 cf 33 ee 3d 8b fb 81 bd d5 ce 8e 3c 0e f6 88 bd
       0.116309755 -0.06346806 0.01743261 -0.06687556
000020 24 db fc bd fb 60 e6 3d f8 6a 8c bc f5 7d 6c 3d
       -0.12346485 0.11248966 -0.01714085 0.05773731
000030 89 a4 c8 bc 31 87 0b bd f4 02 1e 3e be bd 0d 3e
       -0.024492519 -0.034064475 0.15430814 0.13841912

a2.weight f4 [16, 16, 3, 3]
000000 30 cb 89 3d 51 d8 eb bd dd 9c 17 bc 88 83 e7 3a
       0.06728208 -0.115158685 -0.009253708 0.0017663101
000010 72 d3 fc 3d 57 cf 18 3b 29 40 2e bd 8f f4 3c bd
       0.123450175 0.0023316944 -0.042541657 -0.046131667
000020 d3 6e 2b 3d 1d 29 0a 3d f2 1b 5f 3d 11 42 f2 bc
       0.041853737 0.033730615 0.05447001 -0.029572519
000030 b4 69 52 bd de 69 c6 3d ad 2c 19 be 8c 05 0b bd
       -0.051370338 0.09688161 -0.14958449 -0.033940837
000040 4b 8e 06 3e 80 54 70 bb 13 8b 62 bd 80 d0 26 bd
       0.13140218 -0.003667146 -0.055308413 -0.040726185
000050 ee 45 30 be a8 91 8d be 07 1a d7 bd c4 0a 5b 3c
       -0.17214176 -0.2765019 -0.10503011 0.013369266
000060 bf 43 53 bd 2b 8c 74 be 0d 87 b0 3d 4c 0a 85 be
       -0.05157828 -0.23881595 0.08619509 -0.25984418
000070 a6 36 b2 3d 93 18 b0 bd 3d ec 4c 3e f9 b7 10 be
       0.087018296 -0.08598437 0.20011993 -0.1413268
000080 19 e3 99 3d 07 e7 07 3e 71 69 f2 3b 6a 21 1f 3d
       0.075140186 0.13271724 0.0073978235 0.038850226
000090 d0 8a bf bc 60 25 79 be b2 ed 3d 3b ac da 5d bd
       -0.02338162 -0.24330664 0.0028980789 -0.05416362
0000a0 c8 1b 24 3c f6 5e 0e be 2d 20 37 be fe 53 0e be
       0.010016389 -0.13903412 -0.17883368 -0.13899228
0000b0 e8 6b 90 bd c9 ac 79 3d 4e 90 93 3a 74 d6 ab bd
       -0.070518315 0.060955796 0.0011258216 -0.08390513
0000c0 26 89 07 3e f9 47 a5 3c 31 3b 5f 3d bf 73 4c be
       0.13235912 0.02017592 0.05449981 -0.19966029
0000d0 04 72 a3 3d 1d cb f4 3d bd 22 36 bd bc 40 91 3c
       0.07980731 0.11952803 -0.044466723 0.017731063
0000e0 0f 0d 78 3d 20 f8 5c 3e ad 3f 18 3e a0 f4 94 3d
       0.06055933 0.21579027 0.1486804 0.07273221
0000f0 35 8d 14 3e 12 70 00 bd 4e 09 39 bc 19 b8 18 3e
       0.14506991 -0.03135688 -0.011293722 0.14913978
000100 12 f6 1b be 95 21 f4 bc 07 aa 97 be ae 4f 83 3d
       -0.15230587 -0.02980117 -0.29621908 0.06411682
000110 21 46 af bd 44 10 bc bd 5a b9 06 bd 10 3b cf 3d
       -0.08558298 -0.0918279 -0.03289161 0.10118687
000120 3f 93 46 3e e7 94 c4 3d 04 42 82 bd f7 5e 1d 3c
       0.19392107 0.09598713 -0.06360248 0.009605161
000130 f2 0d 44 3c 1e 1b 0f 3e 1b fe e3 bd f4 a1 58 3e
       0.011966215 0.13975188 -0.11132451 0.2115553
000140 bf 9c a5 3d 3f f0 d2 3c 97 48 c5 3d 2c 1b 61 3c
       0.080865376 0.025749324 0.09632986 0.013739388
000150 05 d2 e6 bd b0 b8 09 3e 4d 09 32 3e a6 79 fa 3c
       -0.11270527 0.13449359 0.1738636 0.030575585
000160 3c ce a4 3d db 61 f2 3d ea 43 21 be d5 ff 3b bd
       0.080471486 0.11835071 -0.15748563 -0.045898277
000170 d2 fd 7d bd 80 7c 4d 3d 48 e6 b6 3d 10 b0 48 be
       -0.06200964 0.05016756 0.089306414 -0.19598413
000180 2b d7 95 3d e1 8b b6 bd fc b2 04 3e 63 c0 16 be
       0.07316431 -0.089133985 0.12958902 -0.14721827
000190 05 b6 06 bd be eb 33 bc 38 94 8b bd 36 38 a0 bd
       -0.03288843 -0.010981498 -0.0681538 -0.078232214
0001a0 12 2a 6c 3c b2 cb 9a 3e 85 1d 9e 3c e4 76 85 bd
       0.014414327 0.30233532 0.019301185 -0.06516817
0001b0 5f 61 b0 bc c2 bf 00 be 65 13 80 3d 0d d0 5c 3c
       -0.021530805 -0.1257315 0.06253699 0.013477338
0001c0 e6 5a 98 3e 7e 4f 66 be 53 9b 9b 3e b2 cf cc 3d
       0.2975685 -0.22491261 0.3039194 0.10000552
0001d0 e6 cf ae bd 15 f3 a2 3c 42 72 1f be df 52 86 be
       -0.08535747 0.019891301 -0.1557093 -0.262351
0001e0 61 ff 1c 3d d2 96 6e 3e c2 4e d2 3d bf 1a 34 3e
       0.038329486 0.23299721 0.10268928 0.17588328
0001f0 f4 f7 14 be 14 c0 74 bc 47 b9 af bd 14 5a 90 be
       -0.14547712 -0.014938373 -0.08580261 -0.28193724
000200 ef c6 69 bc 9e 35 63 bd b1 8d 36 bc 35 9f 09 be
       -0.014268621 -0.055471055 -0.01114218 -0.13439639
000210 cb 34 a1 bd 65 02 c8 bd c3 5b 36 3d 65 4b 29 be
       -0.078713976 -0.09766082 0.044521105 -0.16532667
000220 76 d9 03 bd f9 52 88 bc 29 3a c7 bd 55 ea 62 bd
       -0.03218981 -0.016641127 -0.0972789 -0.055399258
000230 52 14 53 3e 99 bf 02 be 24 60 37 3d 0f 1c 42 3d
       0.2061322 -0.12768401 0.04476942 0.04739004
000240 22 29 7d bd 66 58 2f 3d e1 7e 4e 3d 97 54 9e bd
       -0.061806805 0.042808913 0.05041397 -0.07730978
000250 3e d4 7e 3b 2b c9 32 bc 1a 2c 54 bd 07 5c 93 bd
       0.003888383 -0.01091222 -0.05179987 -0.07195287
000260 8b d4 0a be 14 b2 6f bb a3 a0 8f bc 35 4b b0 3d
       -0.13557641 -0.0036574649 -0.017532652 0.086080946
000270 db 92 b6 3c 8a ee f9 bc 0d 0a b9 bb 0c 30 98 3d
       0.022286823 -0.030509252 -0.00564695 0.07431039
000280 71 bf 7f 3d 4d c2 b3 3d 4d b6 e2 3d 16 05 83 ba
       0.062438432 0.08777294 0.11069927 -0.0009996023
000290 26 86 be 3d ef aa 0f bd 67 1e e8 3d 1a b3 fa 3c
       0.093029305 -0.035075124 0.11333924 0.03060298
0002a0 0a 83 06 3c 7c 63 cf 3c 42 8b ee 3c 27 3b a1 bd
       0.008209953 0.025315993 0.029119138 -0.078726105
0002b0 44 8e c8 3d cb e3 3a 3e 73 36 a7 bd 3c 89 eb 39
       0.0979276 0.18250959 -0.08164682 0.0004492494
0002c0 93 ad 39 3d 05 8c 24 3d 60 8c 3b bd bc 17 1e 3e
       0.04533155 0.040172596 -0.04578817 0.15438741
0002d0 51 de 20 3e 46 94 1a bd 58 1a 0c 3e e9 10 60 3d
       0.15709807 -0.03773906 0.13681924 0.054703627
0002e0 90 c6 23 bc 99 89 2e bd 38 fa 6c 3d 98 e0 48 3c
       -0.009996071 -0.042611692 0.057855815 0.012260579
0002f0 a6 bb 23 3c 63 a4 32 bd 08 71 25 3d f7 da a7 3d
       0.009993469 -0.043613803 0.040390998 0.08196061
000300 5e e0 35 3b 07 50 0b 3d 18 1f 40 3c a1 e8 85 3d
       0.0027752141 0.034011867 0.011726163 0.06538511
000310 21 fe 99 3d aa d1 fc bd ab 6e 0f be 0d e1 a1 bc
       0.07519174 -0.12344678 -0.1400706 -0.019760633
000320 7e 2a f5 bd 19 14 34 bd a0 9c 06 bd 92 84 d2 bb
       -0.11970995 -0.04396448 -0.032864213 -0.006424495
000330 a5 ed d0 bd c1 18 f9 bd c7 13 8b 3b 4a a8 8d 3d
       -0.10201577 -0.121629246 0.004244301 0.06916864
000340 40 bc bd 3d 0b bb d7 3d d6 40 8b bd 20 01 9e bc
       0.092644215 0.105337225 -0.06799476 -0.019287646
000350 bb 07 92 bb cf 3a cc 3d 4b ab e9 bc c5 d1 83 3e
       -0.004456488 0.09972154 -0.028524062 0.2574598
000360 de c1 3b 3d f2 77 87 bd f9 06 83 3d fc cc 55 be
       0.045839183 -0.06614675 0.06397814 -0.20878977
000370 7a 65 e5 3c 01 b1 bb bd df 75 15 be bc 22 2a 3e
       0.02800249 -0.0916462 -0.14595746 0.16614813
000380 cb 69 cc 3c 88 cc 10 3d 14 17 95 bd 1c 6d a8 3d
       0.02495279 0.035351306 -0.072797924 0.08223936
000390 32 ab 40 3c ad 71 e7 bc 18 9b 17 3d 5c 2b 71 3b
       0.011759566 -0.028252447 0.037013143 0.0036799526
0003a0 fb fb 74 bd 99 e8 93 bd 5f c3 3f 3d 7f ab 85 3d
       -0.05981062 -0.07222099 0.04681718 0.06526851
0003b0 06 93 84 bc ce 14 67 3c 41 b8 2b be ac 7c 32 3e
       -0.016183387 0.014104081 -0.16769506 0.17430371
0003c0 aa 66 94 bd f3 08 80 3d d1 6f f8 bd 9c 16 b5 3c
       -0.07246144 0.06251707 -0.12130702 0.022105508
0003d0 54 b7 6b 3e aa 5a c5 3d 5d d2 8c bc ca ba bc bc
       0.23019153 0.096364334 -0.017190153 -0.023038287
0003e0 ff 35 d2 3d 44 f9 b9 bd 35 08 ce bd aa 31 19 be
       0.10264205 -0.09080747 -0.10060159 -0.14960352
0003f0 11 f0 e8 bb ee 23 c7 3d 27 84 bc 3c aa 14 d1 bd
       -0.0071086963 0.0972365 0.023012234 -0.102090195

a2.bias f4 [16]
000000 08 d6 3f bd 10 5f 6b bd 57 7f 58 bd ae 20 e0 bc
       -0.046834975 -0.057463706 -0.052855816 -0.027359333
000010 61 7d af 3c 15 d1 3d bd 79 29 3a bc 1b 82 0c bd
       0.02142209 -0.046341974 -0.011362427 -0.034303766
000020 d9 03 ad 3d 45 7b 59 bd 68 c5 a1 bc 93 52 86 3c
       0.084479995 -0.053096075 -0.019747451 0.016396796
000030 73 c2 88 bd 28 ce 09 3d b1 19 a4 3d 98 e5 f1 3c
       -0.06677713 0.03364387 0.08012713 0.029528424

a3.weight f4 [32, 16, 3, 3]
000000 8f b6 f2 bd f6 a8 25 3e 0b 88 8b be 19 b9 9f bd
       -0.118512265 0.16177735 -0.2725223 -0.077989765
000010 b3 e3 8e bd f5 44 9a bd b1 89 82 be 79 e8 ab bd
       -0.06977024 -0.07532684 -0.25495675 -0.0839395
000020 bc b8 63 3d 65 8d 0d bb aa d1 0f bd 67 1c b5 bd
       0.0555961 -0.002159917 -0.03511206 -0.08843308
000030 23 04 b2 bc 4f b6 a7 3d 7a 95 fc 3d 4d 4e 54 be
       -0.021730488 0.081890695 0.12333198 -0.20732994
000040 36 a5 16 be 4f dd 52 be 49 55 c4 3d 91 2e 07 3e
       -0.1471146 -0.20592235 0.09586579 0.13201357
000050 f9 a7 f8 3d 11 14 e6 bc 95 4a ca 3c de d5 20 be
       0.12141413 -0.02808574 0.024693767 -0.15706584
000060 69 86 e5 bd bb e6 f7 3c 90 26 cb bc a7 6b 81 bd
       -0.11207277 0.030261388 -0.024798661 -0.06319361
000070 a5 59 fb 3d fa a1 88 3b 01 40 ab 3d b5 83 2d bd
       0.12272958 0.0041696997 0.08361817 -0.042361934
000080 ce 47 e7 3d ba 6d 37 bd f3 ba 89 bd 24 b4 38 3d
       0.112929925 -0.044782378 -0.06725111 0.04509367
000090 ae 5c 84 3d e0 97 19 3d 51 4d 83 bd bc 76 dc bd
       0.0646299 0.037498355 -0.06411231 -0.10764834
0000a0 6f bb 16 3e e0 94 86 3c c1 86 91 3d c5 9c f5 3b
       0.14719938 0.016428411 0.071057804 0.007495495
0000b0 5b df 83 3c 71 47 85 3d e2 7e c5 3c d3 46 11 be
       0.016097715 0.06507767 0.024108354 -0.14187174
0000c0 9d 06 21 3e 12 b5 26 bd 13 96 2e 3e 04 07 e9 bd
       0.15725179 -0.040700026 0.17049436 -0.11378291
0000d0 82 9b b7 bd c6 72 a6 3c 90 31 33 3e 35 72 a1 3d
       -0.08965208 0.0203184 0.17499375 0.078831114
0000e0 98 e0 bc bd 13 46 0c 3d 13 fc 94 3d 27 77 9d bd
       -0.09222525 0.034246515 0.07274642 -0.07688742
0000f0 30 51 27 3d e8 1e 1e 3e bb a5 1f 3d 60 df db 3d
       0.04084891 0.15441477 0.038976412 0.10735965
000100 08 25 96 3d 77 d8 65 3d d1 37 3b 3d 1b 18 90 3e
       0.07331282 0.05611464 0.045707528 0.2814339
000110 00 63 9c be d0 cc 14 3e 67 6c 64 3c d1 f2 00 bd
       -0.3054428 0.14531255 0.013941861 -0.031481568
000120 9d 7d 7a 3d 6b b3 a6 3d ad 52 f3 bc df 6a a8 3d
       0.06115495 0.0813969 -0.029702509 0.08223509
000130 79 4b 47 3e 3c ff 7b 3d 2a 03 15 bc 19 dd 18 be
       0.19462384 0.061522707 -0.009094993 -0.14928092
000140 f7 76 60 bd dc 00 3c bc 16 78 23 3e b5 41 ba bd
       -0.054800954 -0.011474814 0.15963778 -0.09094564
000150 d1 f6 0e 3e ac 53 3e bd f5 ce b4 bd 43 dd 84 bd
       0.1396134 -0.046466514 -0.088285364 -0.06487515
000160 04 4d 06 bd 8a 87 b3 3c 6b 2b 2f 3d d8 f4 18 3d
       -0.03278829 0.021915216 0.042766016 0.037342876
000170 da 11 92 bd d6 3a c1 3d 8a 46 be bd 57 18 50 3e
       -0.07132311 0.0943505 -0.09290798 0.20321785
000180 b1 62 d5 ba e3 b9 a1 bd 51 67 8d bd 8b 01 91 bd
       -0.0016280023 -0.07896783 -0.06904472 -0.070803724
000190 a2 11 ad bd c9 fc f4 bc 03 23 9d bd da 36 42 3e
       -0.08450629 -0.029905694 -0.076726936 0.18966237
0001a0 a3 b8 7f bd 58 95 4b 39 25 de e6 3d 90 e7 cf bc
       -0.062431943 0.00019415224 0.112728395 -0.025378972
0001b0 35 65 79 bd 54 07 2e be bd d1 66 bd 66 16 93 3d
       -0.060887534 -0.16994983 -0.056352366 0.071820065
0001c0 6d c2 65 bc 90 db 36 3e 2d fd 50 be 40 a7 c3 bc
       -0.0140234055 0.17857194 -0.20409079 -0.023883462
0001d0 16 57 6a bd 9e 7b 9d 3e 50 e6 13 3d 2f b1 b5 bd
       -0.057211958 0.30758375 0.036108315 -0.08871686
0001e0 77 3f 12 3d de a3 25 be 5a 28 fc bd db 80 bf 3d
       0.035705056 -0.16175792 -0.12312384 0.09350749
0001f0 4c 30 07 3d 9e fe 73 bc 17 8b 7a 3e bf 88 00 be
       0.033005044 -0.014892248 0.24467121 -0.12552164
000200 3e dd af be 9d 48 44 3d 32 5c 41 3e 3e a0 57 bd
       -0.34348482 0.047920812 0.18882826 -0.052643053
000210 a1 9c cb 3d eb ed e7 bc cc 7a 17 be 44 24 34 bb
       0.09941984 -0.02831169 -0.14792937 -0.0027487436
000220 3f 69 12 bd 06 b6 54 3d 56 5a 2c bd a2 61 2a 3e
       -0.0357449 0.051931404 -0.04207834 0.16638806
000230 a7 18 b5 be b4 e9 0e 3e bc 81 cd bd 00 a9 fe bc
       -0.3537037 0.13956338 -0.100345105 -0.031086445
000240 d4 d3 9a 3d ac 31 d1 3b 02 a3 8c 3e ca f2 af 3d
       0.07559934 0.006384095 0.27468115 0.0859123
000250 c3 91 48 3c f2 6d b0 3d cc d8 86 bd 7d 61 86 bd
       0.012241784 0.086147204 -0.065843195 -0.06561563
000260 6d 9c 98 3d 45 29 35 bd d1 d7 6b bd 5a 9c a5 3d
       0.07451711 -0.04422881 -0.057578865 0.08086462
000270 a3 44 9e bd 6c 5f e6 bd 66 aa eb 3c 22 7a ae 3d
       -0.07727935 -0.11248669 0.028767776 0.08519389
000280 bc 06 19 3e 22 55 00 bd 69 ca 19 be 5e 7c 22 bd
       0.14943975 -0.03133119 -0.1501862 -0.039669387
000290 d4 82 41 bd a6 be f1 3d e2 c4 23 be 9f 9f 25 be
       -0.047243908 0.118039414 -0.15993074 -0.16174172
0002a0 25 ff 24 be 5c 21 47 bd e0 45 f0 bd 9a ad 87 3c
       -0.16112955 -0.0486158 -0.117320776 0.016562272
0002b0 5d 8a 01 be 78 27 69 bc 1b 5d ad bd 26 a8 ac 3d
       -0.12650438 -0.0142306015 -0.08465024 0.08430509
0002c0 c1 cf 4f 3d 95 19 e6 3b 45 00 cc bc fa 25 9e 3d
       0.05073524 0.0070220926 -0.024902472 0.07722087
0002d0 cf e0 97 bd 96 9d 48 be 1f 36 96 bd 91 68 ca bd
       -0.07415926 -0.19591364 -0.073345415 -0.09883226
0002e0 b3 a2 8a bd b7 c9 d7 3d 6e 3a 21 bd 06 37 8c bd
       -0.06769314 0.10536521 -0.039362364 -0.068464324
0002f0 48 45 f5 3d 96 05 93 3d 27 00 7e 3d 5c 4d bf 3c
       0.11976105 0.071788 0.062011864 0.023352318
000300 f8 9d f4 3d 95 ec 50 bd 7a c0 31 3e 84 5a ac bd
       0.11944193 -0.051006872 0.1735858 -0.08415702
000310 18 a0 01 bd 20 92 b3 3c 7b 22 29 be 82 27 1b be
       -0.031646818 0.021920264 -0.1651706 -0.1515179
000320 2b bf 05 3d c3 fc fd bd 38 c2 0e be 51 02 8b 3d
       0.032653015 -0.12401726 -0.13941276 0.06787551
000330 51 52 35 3d ad f3 1d 3e 29 53 43 3e 0c f3 94 bb
       0.044267956 0.15424986 0.19074692 -0.004545575
000340 67 a5 4d bd dd bd be be 1c 11 7a 3d fd ce 5f 3e
       -0.050206568 -0.3725423 0.061051473 0.21856304
000350 4c a6 1d be c8 ae 86 be 67 85 02 3d d9 b4 f6 3d
       -0.15395468 -0.26305223 0.031865504 0.12046213
000360 3e 25 c1 3c 59 12 66 3e 9b f6 72 bd 9a ab 04 be
       0.023577329 0.22467937 -0.059317213 -0.12956086
000370 8d 7a ae bc db 24 1b be df 10 d1 bd bb f9 5f bd
       -0.021298671 -0.15150778 -0.10208296 -0.05468152
000380 4c dd 90 ba 4a 87 f5 3d 13 95 bf bd 0d b5 56 3b
       -0.001105228 0.11988695 -0.093546055 0.0032761723
000390 6d 6f 6e 3c 9b 89 82 bd f8 59 d7 bd 27 89 4f b8
       0.014552933 -0.063739024 -0.10515207 -4.948038e-05
0003a0 5a 50 a1 3d 7e f9 56 3d ac c3 0b 3e 33 27 0e be
       0.07876654 0.052484028 0.13648862 -0.13882141
0003b0 27 40 19 3e c0 c8 13 be 70 bb c6 bd 26 4c 3a be
       0.14965878 -0.14432049 -0.097037196 -0.18193111
0003c0 90 df c6 bd ff 91 78 be 6f 5f 52 bd f1 12 43 be
       -0.0971061 -0.24274443 -0.051360544 -0.19050194
0003d0 82 72 22 3d 62 95 55 3c ec 8f 49 bd c7 b5 91 bd
       0.039659984 0.013036104 -0.04920952 -0.071147494
0003e0 8c c5 62 3d 6a ba ab be b1 99 ef bd 68 60 d4 3d
       0.055364177 -0.3354066 -0.11699236 0.103699505
0003f0 0c 4c 0f 3e 66 d9 7a bd 16 8a e8 3d 5b b0 28 be
       0.13993853 -0.061242484 0.11354463 -0.16473524

a3.bias f4 [32]
000000 a1 42 64 bd f4 c6 ae 3c 8a 62 f0 3b 49 93 dd bd
       -0.055727605 0.021335103 0.0073359655 -0.10819108
000010 82 fe d6 bd 9d 8b 35 bc 28 52 91 bd d1 12 06 be
       -0.10497762 -0.01108065 -0.07095748 -0.13093115
000020 83 b0 ef bd 85 36 65 bd 40 50 e8 bb f0 17 41 bd
       -0.11703589 -0.055960197 -0.0070896447 -0.04714197
000030 10 4d 18 be d2 2f 91 bd a1 50 ed bc fa 55 b0 3d
       -0.14873147 -0.07089199 -0.02896911 0.08610149
000040 75 c3 eb 3d e6 bc 3a bd e8 13 73 bd 61 f2 b8 bd
       0.1151189 -0.045590304 -0.059345156 -0.09030605
000050 da 05 4d bc 7a 08 4f bd e8 d8 38 bd fe a4 7e bd
       -0.012513602 -0.050545193 -0.045128733 -0.062169068
000060 99 79 58 3b 77 c7 46 3d 96 58 de 3d 06 4f 3f bd
       0.0033031462 0.04853007 0.1085674 -0.046706222
000070 5c 88 5b 3c 68 9a 3a 3d f9 85 80 bb bb a9 45 bd
       0.01339921 0.04555741 -0.003922221 -0.04825757

b1.weight f4 [32, 32, 3, 3]
000000 64 7b c5 bd 8b 5a 3a bb ac bb f0 3d 23 54 e8 bc
       -0.096426755 -0.0028435315 0.117545456 -0.028360432
000010 6f 6f a7 3c d2 44 41 be 9a a2 84 39 98 ac 95 3b
       0.020438878 -0.18873909 0.0002529815 0.004567694
000020 25 0d e3 bd 2c f3 84 bc 31 07 26 be 17 33 b8 3c
       -0.110864915 -0.016229235 -0.16213681 0.022485299
000030 e6 01 4a be c5 17 48 be 61 62 b7 bc c3 2d 34 3d
       -0.19727287 -0.19540317 -0.022385778 0.043988954
000040 11 f8 04 be 08 8d 7f 3e ff 77 13 bd 7d a7 db 3c
       -0.12985255 0.24956143 -0.03600311 0.026813263
000050 71 ee 99 bd ec 27 ba 3d d0 87 28 3e b4 72 02 bd
       -0.07516182 0.09089646 0.16458058 -0.03184767
000060 19 89 1b bd f9 65 03 3d d7 3f bc bc 7a b2 3b 3e
       -0.037972543 0.03207967 -0.02297966 0.18329802
000070 f5 ef dd 3d 0a 40 c5 3d a7 e1 7a 3d 8a 83 5e be
       0.10836784 0.09631355 0.061250355 -0.21729866
000080 43 91 a5 3d 29 86 bf bd 07 50 ea bd e5 ef 51 be
       0.08084347 -0.09351761 -0.11441045 -0.20501669
000090 8b 09 f7 3d e9 fd 23 be bb 47 26 3d 54 ad 9f 3c
       0.12062367 -0.16014828 0.04059575 0.019491829
0000a0 12 3a cb bc 48 79 c6 bd a1 df 2b bd 44 c2 49 be
       -0.024807964 -0.09691101 -0.041961316 -0.19703013
0000b0 b2 b4 a0 bc 55 f5 81 3e 97 16 7a be d5 96 da bd
       -0.019617412 0.25382486 -0.2442268 -0.106733
0000c0 1d bd 14 3e 32 eb 0d bc 01 03 2e bc ab c6 14 3d
       0.14525266 -0.008662032 -0.010620833 0.036322277
0000d0 77 c5 63 bd c6 47 79 be d8 f7 ae bc 24 a0 ac 3c
       -0.05560824 -0.24343786 -0.021358415 0.021072455
0000e0 1e ab aa 3d 33 48 8a bd 1d 37 c4 bd e9 96 32 3b
       0.08333419 -0.06752052 -0.095808245 0.0027250594
0000f0 e0 3d b0 3c b4 ba 31 3d 61 ff 86 bc 80 a2 7d bd
       0.02151388 0.043390945 -0.016479196 -0.06192255
000100 c7 c4 5a 3d 31 b5 27 3d 57 91 2a 3d 5d d4 0c be
       0.053410318 0.040944282 0.041642513 -0.13752885
000110 51 4e 19 bd 99 2c 26 3c 16 91 6e 3d 85 73 8f 3c
       -0.037428204 0.010142469 0.058243833 0.017511139
000120 ea 63 31 bc 41 8d e7 bd 3e 09 a0 bd eb 5a 81 be
       -0.010827044 -0.11306239 -0.07814263 -0.25264677
000130 47 e4 4d 3e 8f 3c 17 3c d0 0c dc bd 12 19 9b 3d
       0.20106612 0.009230747 -0.10744631 0.07573141
000140 82 bf 96 3d d4 49 bd 3d b0 1d 97 3b 50 14 22 be
       0.07360746 0.09242597 0.0046116933 -0.15828061
000150 73 89 c2 3d 95 57 89 3d 70 3f 78 3e 50 52 93 3e
       0.094988726 0.06706158 0.2424295 0.28773737
000160 06 d6 81 bd e7 5c 0e be cd 3a 52 bc 54 9c 66 3d
       -0.0633965 -0.13902627 -0.012831402 0.05630143
000170 8b 18 74 be 2b ac 22 3c 1c 46 f1 3d 01 55 59 bc
       -0.23837487 0.009928743 0.117809504 -0.013264895
000180 15 f5 00 3e 20 66 de 3c e7 11 aa 3d 39 df 05 be
       0.12593491 0.027148306 0.08304196 -0.13073434
000190 9b 80 93 bd e4 43 59 be 82 70 71 3e 2e 7c d3 bd
       -0.07202264 -0.21217304 0.23578075 -0.1032642
0001a0 a0 46 10 be a4 22 1d 3e 49 e9 46 3d 19 e8 e9 bd
       -0.14089441 0.15345246 0.04856232 -0.11421222
0001b0 43 ee 67 be 52 ca 39 be 8e 38 04 be f0 eb 19 bd
       -0.22649483 -0.18143585 -0.12912199 -0.037578523
0001c0 1a c8 41 bd f5 ca 4e 3e 3c 96 44 bd 2c ac 89 bd
       -0.047309972 0.2019461 -0.047994837 -0.06722292
0001d0 90 4b 42 be 52 41 8e bd 80 5f 9b 3d 39 80 c9 3d
       -0.18974137 -0.069460526 0.075865746 0.0983891
0001e0 44 ac 76 3d 11 8c c9 3d f5 28 b1 ba c9 9a 05 be
       0.06022288 0.09841169 -0.0013516234 -0.13047327
0001f0 f7 6d 94 be 66 3a 04 3d c0 7a 94 3c 56 82 1d 3e
       -0.28990147 0.032282256 0.018124938 0.1538175
000200 ef 33 e1 bd bf d4 38 3d c0 e4 18 be 23 6a a2 3d
       -0.10996234 0.045124765 -0.14931011 0.079304
000210 cd 52 06 bd 30 49 4e bd 00 4f 62 3d 13 d4 f5 bb
       -0.03279381 -0.050362766 0.05525112 -0.007502088
000220 c0 15 b5 bc 91 80 6c bd 9d 5d ed bd 38 9d a5 3d
       -0.022105098 -0.057739798 -0.11590121 0.08086628
000230 e0 a6 b2 3c ad c2 18 bd c1 9b 5c be 5f 0d 2c 3c
       0.021808088 -0.037295032 -0.2154379 0.010501235
000240 4e ad 49 be fc ea 8f 3c 29 92 e2 3d 22 09 48 3e
       -0.19695017 0.017568104 0.11063034 0.19534734
000250 aa 61 24 3e 02 7f 7d 3d c2 5b d4 3c 3c 56 39 bd
       0.16052881 0.061888702 0.02592266 -0.045248255
000260 92 43 3d 3e 45 72 22 3c 98 ff bf 3c c9 a3 88 be
       0.18482807 0.009914939 0.023437306 -0.26687458
000270 cb 81 3f bd 74 20 2d bd 8f c2 5c be 5e 92 d6 bd
       -0.04675464 -0.042267278 -0.21558593 -0.10477136
000280 83 31 f9 3d c3 b5 77 bd d2 ae 01 3e a6 e3 54 3c
       0.12167647 -0.060476076 0.12664345 0.012993729
000290 dc 8f 9c bd 5a 6c 96 3d 6a 36 a9 be 1f e6 36 be
       -0.076446265 0.07344885 -0.33049327 -0.17861222
0002a0 e9 8b 01 be dc 03 14 be 3d b5 c2 bd 7e 62 6f 3d
       -0.12651028 -0.14454597 -0.09507225 0.05844354
0002b0 85 9b 95 3d a6 69 08 bd 05 c4 26 3e cd 22 27 3d
       0.073050536 -0.03330388 0.16285713 0.040804673
0002c0 45 51 20 3c 39 45 23 be 63 f8 eb 3d 92 61 74 bc
       0.009785001 -0.15944375 0.115219854 -0.014915841
0002d0 46 14 1c 3d 6c 04 86 bd 2c 81 b9 3d b8 92 00 3d
       0.03810527 -0.06543812 0.09057841 0.031389922
0002e0 5b f6 4a bc 69 36 c2 bd 78 01 e4 3c 16 aa 84 3d
       -0.012387837 -0.09483034 0.027832732 0.06477754
0002f0 67 3e 0f 3e 7c 5f d0 3d 7b 75 3f be 5f 63 8c bc
       0.13988648 0.10174462 -0.18697159 -0.017137228
000300 fa 70 b7 3d 31 eb f0 3c ae 00 c2 3d de 8c 4d ba
       0.089570954 0.029409023 0.09472786 -0.000784112
000310 ee 57 aa bd ef 30 c4 bd 56 e5 f5 bd 50 b5 09 bc
       -0.083175525 -0.09579646 -0.12006633 -0.008405045
000320 27 61 8a 3c 48 05 b4 bc e7 c6 02 3d a3 44 55 3d
       0.016892029 -0.021975175 0.03192797 0.05206741
000330 21 5a 71 3d 0d 1c 74 be 6f 9c 06 be 0b 5a be bd
       0.058923844 -0.23838826 -0.13145612 -0.09294518
000340 df be a5 3d f5 b1 9d bd c5 54 61 ba c4 93 8b bd
       0.080930464 -0.07699958 -0.00085957005 -0.068152934
000350 f5 6b 9a bd 2d 55 e2 bd 39 6e 22 3e 02 0b e4 3d
       -0.075401224 -0.11051402 0.15862359 0.11134912
000360 0e 3a e0 3d 62 22 06 be 04 aa 8f be 64 53 1b be
       0.10948573 -0.13099054 -0.280594 -0.1516853
000370 ab ac 86 3d b8 54 8c 3c 1a 9f 23 3d f4 1a 1c 3e
       0.065759026 0.01713024 0.039946653 0.15244657
000380 3e d3 86 3b 17 32 ab 3d f2 bd 23 3d 52 0b 0c be
       0.0041145375 0.08359163 0.039976068 -0.13676193
000390 54 74 e9 bd ae 77 74 3c 63 96 22 3d f0 75 be bd
       -0.11399141 0.014921112 0.0396942 -0.092998385
0003a0 e9 02 31 3e 3b 6e 0a bd 24 69 43 3e 83 b6 ae bc
       0.17286266 -0.03379653 0.19083077 -0.021327263
0003b0 d3 05 ed bd 98 f1 ba 3d 4d 4d 17 3d d4 d6 d6 3c
       -0.115733765 0.091281116 0.036938954 0.026225485
0003c0 f7 a3 b9 bc 4a 78 27 3e 9a 9c 0c be 78 22 a1 3d
       -0.022661192 0.1635448 -0.13731614 0.078679025
0003d0 1d 6a 03 bb c3 39 5d bd 31 a8 9d be 45 c9 67 be
       -0.0020052262 -0.054010164 -0.30792382 -0.22635372
0003e0 f0 9a fc bc 2b 76 82 3b 78 1e c6 3d c2 02 96 3c
       -0.030835599 0.003981372 0.0967378 0.018311862
0003f0 fa 05 36 3e 4b fb 7e 3d 42 12 62 be de b8 e7 3c
       0.17775717 0.06225137 -0.22077277 0.028286394

b1.bias f4 [32]
000000 62 e3 47 bd c7 2c be bd d0 10 99 bd 2b 7a 9b bd
       -0.048800834 -0.09285884 -0.0747391 -0.07591661
000010 61 c0 9e 3d 43 e1 88 bd 69 f4 fa bc ee aa 5f 3b
       0.07751537 -0.0668359 -0.030634122 0.0034128982
000020 25 c2 8d bb 23 9c c4 bd f8 ef a1 bd 65 17 61 3c
       -0.0043261223 -0.09600093 -0.079070985 0.013738488
000030 65 3b 84 bc 07 e4 a1 bd 6f 00 8b 3c d2 cc 68 bd
       -0.016141603 -0.07904821 0.01696798 -0.056835957
000040 96 23 46 bd b2 dc f6 bd 4b e1 e2 bc 2e a1 26 3d
       -0.04837378 -0.12053813 -0.027695319 0.040681057
000050 d8 10 32 bd c9 86 99 bd cd 81 8d 3d b5 a6 d8 bd
       -0.043473095 -0.07496411 0.06909523 -0.10578672
000060 d8 44 d9 bc 42 bb 55 bd 86 7e 32 bd 5e 52 20 be
       -0.026522085 -0.052180536 -0.043577693 -0.1565642
000070 1c d5 3c bd 0f aa 8c bc 2e ab fc 3c 8f 1a 99 bd
       -0.046101674 -0.017170934 0.030843344 -0.07475769

b2.weight f4 [32, 32, 3, 3]
000000 6e d7 ed 3d 58 00 74 3c 21 f1 1f bd c9 e4 51 bd
       0.116133556 0.01489266 -0.039048318 -0.051243577
000010 d7 c0 13 be 10 4a 5c 3e b1 b0 2c be 14 44 54 bd
       -0.14429031 0.21512628 -0.16864277 -0.051822737
000020 33 53 5f 3e 67 26 ba bd a6 fa 0a 3d 05 ba 9e bd
       0.21809082 -0.09089356 0.033930443 -0.07750324
000030 10 e2 2e bd d2 c1 1a 3d 1f 4d 17 be 51 cf d0 3d
       -0.04269606 0.037782498 -0.14775513 0.101957925
000040 77 39 db 3c 46 9e d2 3b 19 39 ea bc a5 9c 00 3c
       0.0267608 0.006427559 -0.02859168 0.007849847
000050 1f 3b 24 be 14 ea 53 3d 36 f3 a6 bd cb 93 1f 3d
       -0.16038178 0.051736906 -0.081518576 0.038959306
000060 19 4d a8 bd 88 74 f7 ba 45 ae f8 bd fe a6 79 3e
       -0.0821783 -0.0018879334 -0.12142614 0.24380109
000070 6e 51 ae bd c0 f6 c2 3d 1e 6f 9a 3e 8b 97 bf bd
       -0.08511625 0.0951972 0.301629 -0.093550764
000080 e1 6e f8 ba c3 34 2a 3c bf be cd bd 18 37 20 3d
       -0.0018953943 0.010388556 -0.100461476 0.03911504
000090 0f be 72 bd c5 15 8d 3d ae d0 19 be ff 38 27 be
       -0.059263285 0.06888918 -0.15021011 -0.16330336
0000a0 12 af e3 3d 2e f5 40 be 43 ae 6b be 0c ab 4a 3e
       0.111173764 -0.18843529 -0.23015694 0.19791812
0000b0 22 1c 13 3e 5f 25 1b 3d 31 2d bc 39 1a 9d 1a bd
       0.143662 0.037877437 0.00035891825 -0.03774748
0000c0 33 51 ae 3c 96 2c c3 3c 00 cd 11 bd 56 62 c5 bc
       0.021278953 0.023824971 -0.035595894 -0.024094742
0000d0 63 39 eb 3c 7f f4 0a 3d bf 4b bc bc c4 59 91 bd
       0.028713888 0.033924576 -0.022985337 -0.070971996
0000e0 04 af c4 3c 8f 94 b8 bd 60 11 72 bd 7b 9d 5f be
       0.024009235 -0.0901271 -0.0590986 -0.21837418
0000f0 24 9f 43 bd 82 00 b0 bc bc e1 ad bd 16 fb 46 3e
       -0.04775919 -0.021484617 -0.08490321 0.19431719
000100 4b 1d 7b 3d a5 1f d3 bd 91 a9 99 ba ba de 1f bd
       0.061307233 -0.1030877 -0.0011723508 -0.039030768
000110 ee 3b 81 bd bc 3f 61 3d d9 32 69 3c f1 cc 5a bd
       -0.06310259 0.054992422 0.014233314 -0.053418104
000120 1b 5d e9 bb 9d b5 a4 bd 08 a5 f5 3d 43 b4 b8 bc
       -0.0071216947 -0.080424525 0.11994368 -0.022546893
000130 40 07 7b 3d 0c 49 f3 bd 7e 7d c6 bc 5b eb dd 3d
       0.06128621 -0.11879167 -0.024229761 0.10835906
000140 38 0e 1d be 02 35 55 3d 08 e0 ca bd d4 2b 72 be
       -0.15337455 0.052052505 -0.09906012 -0.23649532
000150 5a 8a 02 3e 5c a5 08 be 9d 73 07 3e 4b 37 d1 3d
       0.1274809 -0.1334433 0.13227697 0.102156244
000160 6b 2a 53 3d a1 15 dc bd 87 d5 06 3c d7 17 ac bd
       0.051554125 -0.10746313 0.00822962 -0.084029846
000170 d6 d3 25 3d 1b e0 cd bd 3c d0 93 bd ac 3d 31 be
       0.040485226 -0.1005251 -0.07217452 -0.17308682
000180 91 5e b6 3d 61 cd 11 3d e7 6d 1d be f4 03 a3 3d
       0.08904756 0.035596255 -0.15373956 0.079597384
000190 a7 fb b5 bd da b9 2d 3c 72 ad 82 bc d0 2c 01 3b
       -0.088858895 0.0106033925 -0.015951846 0.0019710548
0001a0 a1 0d 8d 3c 0e 42 2b be 6a af 15 3e e1 d4 45 be
       0.017218413 -0.16724417 0.14617696 -0.19319488
0001b0 48 75 c4 bd d9 b5 7e bd 0e a8 69 be 1f 3c 68 3d
       -0.09592682 -0.062185142 -0.22818014 0.05669796
0001c0 07 86 4a bb 26 74 38 bb 40 4c 18 be 04 b6 11 bd
       -0.003090264 -0.0028145402 -0.14872837 -0.035573974
0001d0 d6 a4 f7 3c 85 e4 0b be 0f d1 1c be 41 cc 93 be
       0.030229967 -0.13661392 -0.15314125 -0.2886677
0001e0 50 b1 15 bd d4 b0 46 be 07 cd 50 bc a4 86 85 bd
       -0.03654605 -0.19403392 -0.012744195 -0.06519821
0001f0 2b 7f c3 3d db fa da 3b 79 04 04 3e 7b 72 c7 3c
       0.0954574 0.0066827363 0.12892331 0.02434658
000200 18 bf 73 bc c7 d4 2b b9 46 af ab be 10 c8 51 bd
       -0.014877103 -0.00016387097 -0.3353216 -0.051216185
000210 9d 60 01 be 21 3d d3 3d 37 d9 d6 3c 79 d2 b9 3b
       -0.12634511 0.10314394 0.026226623 0.0056708422
000220 f0 45 ed bd e5 0e 7b bd 32 30 32 3e 74 55 80 be
       -0.11585605 -0.0612935 0.17401198 -0.25065196
000230 c9 be b7 b8 3e 48 f2 3c b1 3a 59 3d d4 b5 6d 3d
       -8.7616565e-05 0.029575463 0.053034488 0.058034733
000240 a4 4f 1f 3e e9 0e 40 3d df be e4 bd d3 89 aa 3c
       0.15557724 0.04688922 -0.11169218 0.020817673
000250 51 5b a6 bd 18 55 1c be 32 1e 96 3c ba 4c 27 3e
       -0.08122886 -0.15266836 0.018324945 0.16337863
000260 7a 17 55 3d 06 55 88 3c 79 38 d5 bc a6 c5 a9 b9
       0.052024342 0.016642105 -0.026027905 -0.00032381451
000270 28 b7 2a 3e 4f 23 98 bd a8 a6 b5 3c c1 b6 c3 bd
       0.16671431 -0.074286096 0.022174194 -0.09556342
000280 2e db 11 3d 91 0a da bd a8 01 18 bd 9f cc 78 3d
       0.035609417 -0.10646547 -0.037110955 0.060742017
000290 b8 19 89 bd 77 a0 10 bd b1 8b 55 be cc 0b 82 bd
       -0.066943586 -0.03530928 -0.2085407 -0.06349906
0002a0 2e 73 82 3c 41 63 07 be df 3d 1b 3c 8a 3f e3 3d
       0.015924063 -0.13221456 0.0094752 0.110961035
0002b0 6e df 09 3c 9b f4 9f 3c 5b f0 49 3d db e4 a5 bb
       0.008415086 0.019525817 0.049301486 -0.005062682
0002c0 3e a3 4a 3d 03 f9 1b 3d d1 7a 3a 3d 45 5d 98 3b
       0.049472086 0.038079273 0.045527283 0.0046497905
0002d0 72 ba c2 bd 33 5e c9 bd 6e b6 d9 bd 8c c1 7d bb
       -0.09508218 -0.0983242 -0.10630499 -0.00387201
0002e0 73 dc 5f bd e7 17 d4 bc 84 8b 8e be 6f bc 4f 3c
       -0.054653596 -0.025890304 -0.27840817 0.012679203
0002f0 f2 3a f6 bc 5a 29 27 be 9b 1b b2 bd 70 b0 4a 3d
       -0.030057404 -0.16324368 -0.086966716 0.04948467
000300 cb 06 0c 3e 11 4c ac 3c ca 10 3e 3e 60 7e 96 bb
       0.13674466 0.021032365 0.18561092 -0.004592702
000310 de 10 49 bd dd 46 5d be 34 41 34 3e 1b 97 8b be
       -0.04908835 -0.21609063 0.17602998 -0.27263722
000320 2c 5e d4 3d f0 b9 67 3d 91 d0 97 3d 69 19 cf 3d
       0.10369524 0.05657381 0.07412828 0.101122685
000330 34 91 0f be 29 69 7d 3e a6 e2 04 bc c4 c4 90 3d
       -0.14020234 0.24747147 -0.008110678 0.0706878
000340 b5 51 a4 bd 25 64 71 bd 1f d5 b2 bd a7 c0 26 3b
       -0.08023397 -0.058933396 -0.08732056 0.002544442
000350 e2 e6 8b 3e 0d f4 4c 3c f6 55 96 3c 59 6b 8c bd
       0.27324587 0.012509358 0.018351536 -0.068564124
000360 ee 42 6e 3b 79 cc 14 3d 84 91 3f bd 00 cc 9f 3d
       0.0036355811 0.036327813 -0.046769634 0.07802582
000370 46 57 8e bd c3 98 c3 3b 67 99 04 3e d4 d3 50 3d
       -0.0695024 0.0059691384 0.12949143 0.050983265
000380 25 c2 29 be 0e fc d3 bc b0 fd d3 bd 4c 50 63 3d
       -0.16577967 -0.025877025 -0.103511214 0.0554965
000390 ec e9 13 3d 3e 61 ba 3d 5d 08 0d be e4 f7 12 be
       0.036111757 0.09100579 -0.13772722 -0.14352375
0003a0 53 66 53 be 3d 49 0f 3d 33 22 04 3e 10 f8 ec bd
       -0.20644502 0.034981955 0.12903671 -0.11570752
0003b0 5c 7d 4a 3d b2 e6 65 bc cc 2f 4f 3d ab 4d 27 3d
       0.04943596 -0.014032053 0.050582692 0.040845554
0003c0 76 25 47 be 50 49 c4 bd 4e c3 75 3d c9 61 87 bd
       -0.19447884 -0.09584296 0.06000071 -0.06610448
0003d0 83 99 5a bd ec 34 d8 3d 81 22 0e bc e4 fd e0 bd
       -0.053369056 0.10556969 -0.008675219 -0.10985926
0003e0 25 e9 18 be b5 62 3a be 4d 8d 1c be 99 aa 9c 3d
       -0.14932688 -0.18201716 -0.15288277 0.076497264
0003f0 ae 21 76 3d f4 17 e0 3d 5a 09 2e 3e f8 b4 4a bd
       0.060090713 0.10942069 0.16995755 -0.04948899

b2.bias f4 [32]
000000 6b dc dc 3b 18 61 f4 bd e2 6d 62 bd d9 eb b0 bd
       0.006740143 -0.11932582 -0.055280574 -0.08638734
000010 aa b4 bc bd e1 cf 9d bd 40 10 3d bd d2 94 7a bd
       -0.092141464 -0.077056654 -0.046158075 -0.061177082
000020 dc 60 1f 3d 90 10 3b 3c 79 59 35 bc 85 1b f3 bc
       0.03891073 0.011417523 -0.011068695 -0.029676208
000030 59 fc 11 bd 1e 33 e2 bd 45 4e d8 bc 9c f1 1f 3d
       -0.035641048 -0.11044906 -0.02640451 0.039048776
000040 a6 56 be bc 94 02 ca bd 13 e7 99 bd 1a f8 1e bd
       -0.023234677 -0.09863773 -0.07514777 -0.038810827
000050 57 b8 f8 bc 79 1f 16 3d f6 c4 91 bd 00 cf cf 3c
       -0.030361338 0.03665111 -0.071176454 0.02536726
000060 b0 1c b5 bd 05 84 d7 3c d7 a2 db 3c 37 2b 8e 3c
       -0.08843362 0.026308069 0.026811047 0.01735459
000070 92 72 95 bd 07 b1 be bb cf c3 97 3c a4 de f5 bb
       -0.07297243 -0.005819443 0.018525986 -0.0075033475

b3.weight f4 [64, 32, 3, 3]
000000 df 69 f4 3d b5 df 35 3c 5e fb 61 bd ba 88 81 bd
       0.11934256 0.011100699 -0.055171363 -0.06324907
000010 71 bc 42 be ea 47 3f bc aa 62 58 3c 37 df 02 be
       -0.19017197 -0.0116748605 0.013207117 -0.12780462
000020 c0 b2 f5 3c ab c0 c1 3d f6 c8 39 be 4b 32 68 3d
       0.029992461 0.094605766 -0.18143067 0.056688588
000030 88 ec 1d 3d 28 02 c2 bd 42 53 12 3d 7c a7 9e bd
       0.038555652 -0.094730675 0.035723932 -0.07746789
000040 45 32 5c be 60 94 8d be e9 d6 31 3d c1 2c 48 be
       -0.21503551 -0.27652264 0.043417845 -0.19548322
000050 e7 13 b0 3d 83 f7 37 3c 65 ad 0b be 79 2f d9 bd
       0.08597546 0.011228445 -0.13640364 -0.10604758
000060 17 77 cc 3d 13 16 98 3d 3d 87 9d 3d 1f fa 92 bc
       0.09983652 0.07426085 0.0769181 -0.017941533
000070 dd 59 43 3e 41 a0 4d 3d 06 ad 12 3e a6 bf bd 3d
       0.19077249 0.05020166 0.14323816 0.0926507
000080 d9 3d 67 3d c8 31 64 be 42 4b ca bd cb b2 a5 3c
       0.056455467 -0.22284615 -0.098776355 0.020226857
000090 c2 39 2e bd 19 92 a9 bc b2 3d c7 bc 87 92 b7 3d
       -0.04253555 -0.020699548 -0.02432141 0.08963495
0000a0 8e 02 9a 3c a8 18 ea 3c 56 3c 2a 3d 1e 19 fa bc
       0.018800046 0.02857621 0.041561447 -0.030529555
0000b0 a2 cb 0e bd 22 6b 36 3d 19 ae 52 3e 1a 1c 0b bd
       -0.034862168 0.044535764 0.20574225 -0.033962347
0000c0 76 38 46 3c ee 37 89 bd 0b 2a c2 bd af 4c 3f bd
       0.012098422 -0.06700121 -0.09480675 -0.04670399
0000d0 28 53 89 be 04 c0 83 be fd bb 6c bd 8e df 0c 3d
       -0.26821256 -0.25732434 -0.057796467 0.034392886
0000e0 bb e2 c0 bd c8 ed 1b bb ac ff 97 3d 50 e5 83 3d
       -0.094182454 -0.0023792852 0.074218124 0.06440222
0000f0 75 35 aa bb 12 a6 19 be db 6e 66 3d 2b de 8c bd
       -0.005194361 -0.15004757 0.056258064 -0.06878313
000100 25 31 e6 bc 2c 50 4a 3a 36 8b b8 bd 77 a0 b6 be
       -0.028099606 0.0007717635 -0.090109274 -0.356693
000110 a0 33 67 bd 9f fc ef bc 9a ba 72 3d 8d 39 aa bd
       -0.056445718 -0.029295264 0.05925999 -0.08311758
000120 d6 5c 8c bd 67 5c 77 3d d9 fb f8 bd 1e 41 59 3d
       -0.068536445 0.060390856 -0.12157411 0.053040616
000130 41 a0 e7 3d 9c 40 15 bc 04 76 63 bb f5 c6 1d bd
       0.11309863 -0.009109642 -0.0034707794 -0.03851982
000140 94 ee 01 3e 1e 56 a3 bd bf 76 61 3d 0b 7c 81 3d
       0.12688667 -0.0797541 0.055044886 0.063224874
000150 42 85 c2 bc 3a 6b 1e 3e 5f 1d 2e be 57 9e dd bd
       -0.023745183 0.15470591 -0.17003392 -0.108212166
000160 a9 26 f0 bd d7 41 c3 bd 1d 9d 61 bd 3c d3 51 be
       -0.11726124 -0.09534042 -0.055081476 -0.20490736
000170 3f 26 28 be 1a 1b 80 bd 89 2c cf 3d 7d 53 3c 3d
       -0.1642084 -0.06255169 0.10115916 0.045978058
000180 e1 ad 28 bc e9 7b ad 3d 46 ff a9 bb 49 f2 70 3e
       -0.010295362 0.084708996 -0.0051879017 0.23529924
000190 59 d8 27 3d 56 df 4d be 88 d4 db 3d bd 72 73 3e
       0.04097781 -0.20104727 0.107338965 0.23774238
0001a0 79 cf cb bd b8 c7 35 3b f7 83 7e 3e 79 a8 41 3c
       -0.09951682 0.002773745 0.24855028 0.011819952
0001b0 6d b5 13 be d4 7a 8b bd c9 8d 9e 3c 92 1f ab bc
       -0.14424677 -0.06810537 0.019354718 -0.020889077
0001c0 cf c5 12 be c0 b6 bd bd 10 5b a9 bd 5f 2f a0 3d
       -0.1433327 -0.092633724 -0.08269322 0.07821535
0001d0 e5 12 7a bb 63 43 17 3d 64 90 76 be 9b 00 3b bd
       -0.0038158235 0.0369295 -0.24078518 -0.045654874
0001e0 b0 c0 66 3e b7 80 78 3e cd ff 01 3e 99 5c f3 3c
       0.22534442 0.24267851 0.12695237 0.02970724
0001f0 1e 94 1c 3c 1c af 97 bd d5 53 06 3d 9f 54 3e bd
       0.009556798 -0.07406446 0.032794792 -0.04646742
000200 f8 83 af bd df fe 9d 3d c7 e0 25 3e 80 cc 0a 3e
       -0.08570093 0.077146284 0.16199027 0.13554573
000210 a4 56 79 3c 6c 25 11 be 0e b8 60 bd 92 88 6c 3d
       0.015218411 -0.14174432 -0.05486303 0.05774743
000220 98 1b db bc b8 c1 0a bd 4c 73 49 be b5 31 9b 3c
       -0.026746556 -0.03387615 -0.19672889 0.0189446
000230 30 8f 03 3d a1 d6 c6 bc a7 8e 8f 3c f8 49 ad 3b
       0.032118976 -0.024272265 0.017524077 0.005288359
000240 d4 13 51 3e 11 03 8c bc 28 db 47 be e9 44 fc 3c
       0.2041772 -0.017091306 -0.19517195 0.030794578
000250 6f ff 2e be 9c ad 5d bd 9f 74 60 be 31 b6 02 bd
       -0.17089628 -0.054120645 -0.21919487 -0.031912033
000260 2e 94 65 be 5f 73 a9 3c 69 09 53 3d 65 95 89 bd
       -0.22419807 0.020684896 0.051522646 -0.06717948
000270 ff e8 7e 3d 07 ef a4 bd 73 34 85 39 e6 ab 8e 3c
       0.06223392 -0.08053403 0.00025406815 0.017415952
000280 46 ba ca 3c cf c6 83 bd f7 a5 be 3c 63 ce 0d 3d
       0.024747025 -0.06434404 0.023272498 0.034620654
000290 e7 03 1a 3c 43 a0 ab bd 44 57 8c bd 99 85 7b bc
       0.009400344 -0.08380177 -0.06852582 -0.015351676
0002a0 a5 44 e3 3d de 76 52 bd d2 ef 0d bd d4 78 c2 bd
       0.11097077 -0.05138289 -0.03465254 -0.094957024
0002b0 6c a6 0a be 94 3d e9 3b 9d 11 cf 3d 25 37 4d be
       -0.13540047 0.0071179364 0.10110781 -0.20040567
0002c0 74 fb 26 3e 91 49 28 bd 36 da 21 be 42 5e e6 3a
       0.16306859 -0.041085783 -0.15805897 0.0017575698
0002d0 d6 30 09 3e 85 f5 dd 3d 33 76 7a be f6 1b 2c 3e
       0.13397536 0.10837845 -0.24459152 0.16807541
0002e0 fd 0d 35 bd 3c 53 f0 bb 1c 0d ec bd e3 31 f0 3c
       -0.044202793 -0.007334141 -0.11525938 0.029320663
0002f0 27 cc ce 3d d2 80 86 3d aa 4e 27 3b 18 71 db 3d
       0.10097533 0.06567539 0.0025529065 0.1071493
000300 db a7 67 bd ff 08 87 bc c0 03 5e 3d 38 f2 9c bd
       -0.056556564 -0.016483782 0.054202795 -0.07663387
000310 f5 74 78 3c 56 e1 ae bd e0 46 69 bd 57 64 88 bd
       0.0151646035 -0.08539073 -0.056952357 -0.06659763
000320 6f 97 55 3b 4b 8c cc bc 87 d2 e3 3d 6b 1e ef bd
       0.0032591482 -0.02496924 0.11124139 -0.11675724
000330 a1 d8 8b 3c 48 5a 9f be 3a b1 66 bd dd 40 1e 3e
       0.01707107 -0.31123567 -0.05632136 0.15454431
000340 48 22 ee 3d 7d d0 6a bd a7 0c d3 bd ab 13 33 be
       0.116276324 -0.057327736 -0.103051476 -0.17487971
000350 8d 79 2b 3e f9 44 d4 bd 41 85 b9 bd 98 4f 41 bd
       0.16745587 -0.10364718 -0.09058619 -0.047195047
000360 dd cb dc bd d4 04 1c bd 6e d8 42 3e 60 27 9b 3d
       -0.10781071 -0.038090542 0.19027874 0.075758696
000370 55 7f b1 bd f9 28 06 be f6 2d dd bd b1 93 b3 3d
       -0.08666865 -0.13101567 -0.10799782 0.08768404
000380 c5 0a 73 bd 62 23 1e 3d fe 3d 24 3d 39 6b 1b 3e
       -0.059336443 0.038607962 0.040098183 0.15177621
000390 59 99 0e 3e f5 3d be 3d 80 9d bf bc d0 79 27 3c
       0.13925685 0.09289161 -0.023390532 0.010221913
0003a0 4b 8c 2a 3e 2e 71 38 3c 70 7b 6d bd 58 53 17 3d
       0.1665508 0.011257453 -0.057979047 0.036944717
0003b0 25 44 66 bd 8c 11 51 bc bd 48 89 3e ca e4 88 3c
       -0.05621733 -0.012760531 0.26813307 0.016710658
0003c0 15 e1 00 be 9b 74 8d bd 0a b1 0b 3e d1 ef 6d bb
       -0.12585862 -0.06907006 0.13641754 -0.0036306272
0003d0 58 c5 8e 3d a4 06 44 3d da 02 a3 3d e4 78 bb 3d
       0.06971234 0.047857895 0.07959528 0.091539174
0003e0 71 8a 46 bd 09 e5 a9 3c 2b 78 0a be 8a 1e 30 3d
       -0.04847187 0.020739095 -0.13522403 0.042997874
0003f0 51 29 13 be a6 b2 6f bd aa b9 71 3e db 41 d4 3d
       -0.1437123 -0.05851998 0.23605981 0.103641234

b3.bias f4 [64]
000000 7e b6 24 3d 5b 59 95 3d 4c 5f d8 3b 05 16 85 bc
       0.0402131 0.07292434 0.006603157 -0.016245851
000010 2a d0 1c 3d e9 3a cc bc 4f 5b ea 3c ee 9d 7b 3c
       0.03828446 -0.024930434 0.028607992 0.015357478
000020 a3 5d 45 bd 7d 51 34 bd 46 3d 04 3d df bc 53 3d
       -0.048185002 -0.044023026 0.032284997 0.051693793
000030 0d 62 48 3d 0e 17 69 3d 09 40 9a bd 00 b9 70 bd
       0.048921634 0.056906752 -0.07531745 -0.05877018
000040 3e 09 82 3c fb 1c ca bc c1 e0 8d 3c c7 e5 08 3d
       0.015873548 -0.024672022 0.017319085 0.033422258
000050 de 9a f9 bc f0 d6 a8 bd 55 f8 a1 3c e3 5e 6a 3d
       -0.030469354 -0.08244121 0.019771734 0.057219397
000060 9c ad 6b 3d 24 63 8c bd d2 78 ff bd b1 34 49 bd
       0.057538614 -0.06854847 -0.124742165 -0.049122516
000070 bb 12 85 3d 36 f1 2a bb 6a af b2 3b a8 e7 72 bd
       0.06497713 -0.0026083714 0.00545304 -0.059302956
000080 73 b2 25 bd f2 7d 07 bd 33 c8 35 bc ea 63 ee 3c
       -0.040453386 -0.033079095 -0.0110950945 0.029100377
000090 57 2d 14 bc 6e f3 dd bc c2 a6 5d 3c 73 23 92 bd
       -0.009044013 -0.027093615 0.013528528 -0.07135668
0000a0 92 3c 97 bd 0a c9 9e b8 cc 60 5d 3d e3 8e 81 3d
       -0.073846 -7.5714735e-05 0.05404739 0.063260816
0000b0 e1 63 a8 bd 16 5a 97 bd 99 1c 22 3d 1b 2f 85 bd
       -0.082221754 -0.073902294 0.039578054 -0.06503125
0000c0 e3 28 3b bd af 92 3f bd c1 bb 34 bd 5d d6 d7 39
       -0.04569329 -0.046770748 -0.04412437 0.0004116771
0000d0 c0 a7 33 3d b8 a1 63 3d d7 5c c0 bc 96 4b 9a bd
       0.04386115 0.05557415 -0.02348177 -0.07533948
0000e0 74 2f 72 bb f9 77 98 3c 30 90 04 bd b5 93 82 bc
       -0.0036954554 0.018611895 -0.03236407 -0.015939573
0000f0 5a 34 7d bd 21 ef 16 3d ba f9 5c bd 3d 42 7c bd
       -0.061817504 0.036849145 -0.053949095 -0.061586607
