nets/model_epoch_21.pth (torch, 648794 bytes, 25 tensors)

a1.weight f4 [16, 5, 3, 3]
000000 d4 3c ed 3d 95 c6 c4 3d e0 e9 d1 3b fe 61 94 bd
       0.11583868 0.09608189 0.006406054 -0.07245253
000010 bc 8b 43 bd 72 ef 01 3e 7e 49 11 3d 7b ac 81 3d
       -0.047740683 0.12688997 0.03547048 0.06331726
000020 2c d6 b9 be ef 28 32 bc 2e 2f 6b bd c3 e6 38 be
       -0.36296213 -0.010874017 -0.05741804 -0.18056779
000030 63 23 51 3d 7a bd 5d bd b6 52 20 be f5 70 73 be
       0.051059138 -0.054135777 -0.15656552 -0.23773558
000040 a4 45 36 be bd 41 09 be 63 0f 25 3d f2 78 e6 bd
       -0.17800003 -0.13403983 0.040297877 -0.11253537
000050 00 12 b9 3c 89 37 4e 3b 1c 03 aa bd 3e 37 72 3d
       0.02259159 0.0031466207 -0.08301374 0.059134714
000060 9d e4 32 be 34 ef 03 be 92 7e 40 bc ef c3 3c be
       -0.17470022 -0.12884218 -0.011748927 -0.18434118
000070 a1 da 46 bc 9f a5 6c 3d b2 b8 04 be dc 48 d0 bc
       -0.012137086 0.057775136 -0.1296108 -0.025425367
000080 22 87 ab be 54 2d 4a be fc d7 86 bd 2d 29 e6 3d
       -0.33501536 -0.19743854 -0.065841645 0.112383224
000090 5e 38 2c be 10 e2 94 bd c5 9e 14 be 98 85 ef bc
       -0.16818377 -0.072696805 -0.14513691 -0.029238507
0000a0 de 82 37 be a1 07 01 be 08 2c 30 bc 42 d9 f2 bd
       -0.17921016 -0.12600566 -0.010752685 -0.11857845
0000b0 b4 49 3d bd 79 76 1f 3e 30 65 c8 bd 58 78 ab bd
       -0.046212867 0.15572537 -0.09784925 -0.08372563
0000c0 ea f6 88 3e 6a 58 fe 3c 41 72 90 3e 23 23 e8 bc
       0.2675088 0.031048018 0.2821217 -0.028337067
0000d0 6c 72 d3 3e 45 4a 36 be f1 88 99 3d 78 eb 85 3e
       0.41298234 -0.17801769 0.074968226 0.2615621
0000e0 ef c6 35 3d b0 aa be 3b 24 af 27 3e ae f0 7c bb
       0.04437917 0.0058186874 0.16375405 -0.0038595605
0000f0 6f 99 d1 3d a0 8e e2 be 78 8a f6 3c ea 51 52 3e
       0.10234343 -0.4424944 0.030095324 0.2053906
000100 ba 3b 9e bd 5a 7f c5 bd 29 24 91 3e fb 4f 22 3d
       -0.07726236 -0.09643431 0.283479 0.039627057
000110 97 fb ab be 1e 48 b8 bd d7 22 24 be e2 37 88 3d
       -0.33590385 -0.0899813 -0.16028915 0.06651284
000120 33 53 c0 bb de 73 ab be d3 f5 98 be 2b 17 12 3c
       -0.005869293 -0.33486837 -0.2987505 0.0089166565
000130 c7 05 80 3e 59 f5 9d 3d 97 64 cf 3d 83 83 c9 3d
       0.25004408 0.07712812 0.10126608 0.09839537
000140 bf 89 c5 be 03 5f 88 3c bf 65 25 3d cc ad 23 bc
       -0.38581654 0.016646868 0.040380236 -0.009990167
000150 6e 8f 9f 3d 91 f1 bc 3c 95 60 15 bd ca ee 8d bd
       0.07791029 0.023064407 -0.03646906 -0.06930311
000160 da 8b 8a bd 19 eb f4 3c 7a a8 86 be 2f b5 63 3d
       -0.06764956 0.02989726 -0.26300412 0.055592712
000170 ea a2 9b 3e 23 9c 43 3d f9 a8 24 3e 93 07 1f 3b
       0.3039773 0.047756325 0.16080083 0.002426599
000180 78 7d d5 3e b2 5b c1 3e d8 e6 a0 3d 0d f0 0a 3e
       0.41697288 0.3776527 0.0785653 0.13568135
000190 72 29 41 3e b3 9e 30 3e a2 6d 06 bd da ee 66 bc
       0.18863466 0.17248039 -0.032819398 -0.014095033
0001a0 a3 e3 a2 3b 5c 94 64 bd be 21 0b be e8 13 b3 3d
       0.004970984 -0.05580555 -0.1358709 0.08744031
0001b0 fd 30 59 3e a8 e9 b7 3e 42 18 3c 3e 6b 22 b4 3d
       0.21210094 0.35920453 0.18368629 0.08795627
0001c0 c1 8a 20 be f8 04 87 3e a0 57 79 be 9b bc cc bd
       -0.1567793 0.26370978 -0.24349833 -0.09996911
0001d0 3e eb 12 3e 9f 23 7f bb dc e0 77 be 9a 79 48 be
       0.1434755 -0.0038931144 -0.24206871 -0.19577637
0001e0 1b b1 f3 3c 96 40 f9 bd 77 f2 f8 bc 0c c2 65 3d
       0.029747536 -0.12170522 -0.030389054 0.05609326
0001f0 50 7b 00 3d 79 c9 88 be c6 ee 7c bc cf 4f 3b 3d
       0.0313676 -0.2671621 -0.015437787 0.04573041
000200 90 38 d5 3c 39 01 52 bd f6 8f e1 3d 10 58 02 be
       0.026027948 -0.051270697 0.110137865 -0.12728906
000210 18 ad e5 bc ba 98 66 bd 61 54 85 3d af 76 06 3e
       -0.02803664 -0.056297995 0.065102346 0.13131212
000220 2a 5c b3 3d 3a db 4c be b9 ae 1d 3e 8a 2a f0 3d
       0.08757813 -0.20005503 0.15398683 0.11726864
000230 c7 46 64 be ad 41 6e 3d b8 ad 94 be 4e a5 7b 3e
       -0.22292624 0.058168102 -0.29038787 0.24574777
000240 7b 92 09 be dc 16 b6 be 45 57 3c be d8 f2 9d be
       -0.13434784 -0.35564315 -0.18392666 -0.30849338
000250 53 28 26 bd 41 a3 df be d4 da 00 3d af 29 09 3d
       -0.0405658 -0.4367924 0.03145869 0.03348702
000260 35 11 76 bc 14 6c 59 3c c2 d8 89 3d 62 9b 8a 3c
       -0.015018751 0.013270397 0.067307964 0.016919795
000270 92 97 22 be 54 72 b8 bd 6a e2 68 be 2a 62 0a be
       -0.15878132 -0.09006181 -0.2274262 -0.13514009
000280 d7 3e 16 be 3f 80 a0 3e f4 82 43 3e 6c ff 6c 3e
       -0.14672409 0.31347844 0.19092923 0.2314431
000290 39 14 36 3e 47 91 8c 3e 64 e3 e0 bd 00 7d ee 3e
       0.17781152 0.27454588 -0.10980871 0.46579742
0002a0 ec 3b 1d 3e cb 53 aa bc 54 e8 49 be 4e 51 05 bd
       0.1535489 -0.020791909 -0.19717532 -0.03254824
0002b0 f6 ff e8 3c ca af 3a 3d 9a 2f 66 bc 2a 46 e4 bc
       0.028442364 0.0455778 -0.014049435 -0.027865488
0002c0 d5 68 56 bc 1f 11 48 3d d3 da 53 bd 93 65 94 bc
       -0.013086517 0.048844453 -0.05172236 -0.01811484
0002d0 2d fe 3e 3e 00 2e 07 3d b8 68 47 be 1a 3b 89 3d
       0.18651648 0.033002853 -0.19473541 0.06700726
0002e0 c1 f8 04 3e d7 dc 82 3e de 18 36 3d 05 67 29 3e
       0.12985517 0.25559112 0.04445731 0.16543205
0002f0 5f 44 81 3e 7c 40 f2 3d ba 63 b5 bd 8e 29 37 3d
       0.25247476 0.11828706 -0.08856912 0.044717364
000300 9e bd 29 be 3e 6c 85 bd 6b 98 fb bd 26 67 1e 3e
       -0.1657624 -0.06514786 -0.12284931 0.15469036
000310 40 6b af 3d 23 62 05 be e3 ad be 3d 97 9a 18 3e
       0.08565378 -0.13025717 0.0931051 0.14902721
000320 c3 9d ae 3e c4 0d 61 bd 23 e4 61 bc 97 36 cf bd
       0.34104738 -0.05494477 -0.013787302 -0.10117834
000330 78 c1 6b be 0c bb 7f 3e ae cf c6 bc 88 73 0c be
       -0.23023021 0.24973696 -0.024268951 -0.13715947
000340 0e 12 b6 be 37 02 b2 be b2 5f 82 3d 22 ed 8d 3d
       -0.3556065 -0.34767315 0.06365909 0.06929995
000350 e3 08 02 be 4b 03 11 be 23 23 16 bd 75 e0 bd 3c
       -0.12698703 -0.14161412 -0.036654603 0.023178319
000360 f4 33 a2 bc c7 3e 98 3c e4 6a 08 bd c1 2c 50 3d
       -0.019800164 0.018584622 -0.033305064 0.05082393
000370 5c 80 ca bd 11 17 eb 3c a1 00 91 3c ac 61 cf 3d
       -0.09887764 0.028697522 0.017700495 0.10126051
000380 9f ed 75 bd 7a 3e af bd f6 c8 81 bd 59 ab 67 3e
       -0.060041066 -0.08556838 -0.063371584 0.22623958
000390 75 d4 1f bd 14 ed e1 bd 70 06 14 bd d8 0f 20 3e
       -0.039020974 -0.11031547 -0.03613895 0.15631044
0003a0 88 76 00 be 84 9f 93 3e 0b bc 89 bc 03 74 a4 3e
       -0.12545216 0.28832638 -0.016813299 0.3211976
0003b0 b3 49 87 3e 1a 27 d6 bc bd bd a7 bc 1d ad 8c be
       0.26423416 -0.026141692 -0.020476216 -0.27475825
0003c0 9d 40 5d 3d 6b c6 47 3e 1f 6d dd be 6d 20 d5 3c
       0.0540167 0.19509284 -0.43247315 0.026016438
0003d0 12 70 a1 3d 36 ab b9 3d ed fa 13 be 4b 9b 7f 3e
       0.07882704 0.09065859 -0.1445119 0.24961583
0003e0 db f1 7a be 58 ee 1b be 3c 10 da bd 19 8d 9e be
       -0.24506323 -0.1522764 -0.10647628 -0.30967024
0003f0 f4 f6 80 3e 91 35 33 bc ec f8 b8 3d bb d3 05 3d
       0.2518841 -0.010938064 0.09031853 0.032672625

a1.bias f4 [16]
000000 6c fe 7e 3d 5a 00 85 bd 3d 58 46 bd c5 d6 cf bd
       0.062254354 -0.06494208 -0.048423994 -0.10148386
000010 57 41 0e 3e b6 0e bc bd b1 58 22 3d 52 58 b7 bd
       0.13892113 -0.091824934 0.039635364 -0.08952393
000020 78 87 17 be af 5d d2 3d fc 08 05 bd 4b d2 a6 3d
       -0.14797771 0.10271775 -0.03247927 0.08145579
000030 f1 01 78 bd 3f 3c 50 bd ed c9 5f 3e 47 a6 48 3e
       -0.060548726 -0.050838705 0.21854372 0.1959468

a2.weight f4 [16, 16, 3, 3]
000000 46 ce ce 3d 03 6d a0 be 52 91 11 be f6 58 23 bd
       0.10097937 -0.3133317 -0.14215592 -0.03987976
000010 90 dd 1c 3e 2e f5 fa bd 01 68 2c 3d 59 00 e8 bb
       0.15318894 -0.122537956 0.042091373 -0.0070801196
000020 b1 38 3f 3d 36 bf 15 ba 99 bd ab 3d 2e 8a e0 bc
       0.046684925 -0.00057123916 0.08385772 -0.02740964
000030 10 2f f1 bd 52 9d ca 3d 20 e4 24 be 94 e4 38 bd
       -0.117765546 0.09893288 -0.16102648 -0.045139864
000040 4e d8 02 3e 27 df cd bc a1 e2 86 bc 79 d7 fb bd
       0.12777826 -0.025130821 -0.016465487 -0.122969575
000050 a3 97 41 be 98 c6 c5 be 53 e6 c9 bd 80 29 a7 bb
       -0.18905501 -0.38628078 -0.09858384 -0.0051013827
000060 09 8f 21 bd ec 4a 97 be e9 7f fa 3d d2 62 f4 be
       -0.03944305 -0.29549348 0.12231428 -0.47731644
000070 b8 2d 4e 3e 95 3c 7c be 67 bb c6 3e 7d c7 25 be
       0.20134628 -0.24632485 0.38814852 -0.1618938
000080 66 da 23 3e 39 6f c9 3d 5e ed 65 3d 2f b3 33 3d
       0.16001281 0.09835667 0.056134574 0.043872055
000090 5f a5 45 3d 9f 7a ac be 8e 71 0a bd 1f d0 80 bc
       0.048253413 -0.33687302 -0.0337997 -0.01572424
0000a0 2a 0f f6 bc 75 96 32 be a0 05 b8 be 4a 3f 4f be
       -0.030036528 -0.17440207 -0.35941792 -0.20238987
0000b0 ec 48 2c be 9c c8 88 3d 6c 07 f3 bd c5 9b eb bd
       -0.16824692 0.06678888 -0.1186665 -0.1150432
0000c0 a4 31 2c 3e c4 66 7f 3d 0c 95 d0 3d f2 8e a3 be
       0.16815811 0.062353864 0.101846784 -0.31944996
0000d0 aa a7 f4 3d a3 cd 1c 3e af 48 b1 bd e2 cc fc 3c
       0.11946042 0.15312819 -0.086564414 0.030859414
0000e0 4e 37 00 3d 8b 9f a9 3e aa b9 83 3e 51 8f 6c 3d
       0.031302743 0.33129534 0.25727588 0.057753865
0000f0 c9 dd e8 3d 80 d1 4e bd a2 d1 82 3c 96 28 68 3e
       0.11370427 -0.050492764 0.015969101 0.22671732
000100 0a 1a 21 be 9d 99 06 bd c2 74 86 be 26 20 ce 3c
       -0.1573259 -0.03286134 -0.26260954 0.025161814
000110 aa 32 bd bd e0 a1 d9 bd af 2a 9a bd 4c 32 3e 3e
       -0.09238179 -0.10626578 -0.075276725 0.18573874
000120 54 02 5b 3e 53 9d be 3d f3 75 b2 bb 69 20 b0 bb
       0.21387607 0.09307351 -0.0054461895 -0.0053749573
000130 b0 dd 91 3c dc 76 2a 3e b6 98 0e be b6 40 9d 3e
       0.017805904 0.16646904 -0.13925442 0.30713433
000140 99 b1 b6 3d ab 39 91 3d ab 47 3c 3e 6b d2 f5 bc
       0.08920593 0.070910774 0.18386714 -0.030007562
000150 67 c5 ed bd 42 91 04 3e a8 b6 a3 3e 97 ad b8 3d
       -0.11609917 0.12946036 0.31975293 0.09017485
000160 d3 46 85 3d 72 45 e8 3d 4b 8d 19 be 39 1e 8f bd
       0.06507649 0.11341371 -0.14995305 -0.069881864
000170 81 7a 00 be 4f 51 c0 3d 46 68 2b 3e a8 66 6d be
       -0.12546732 0.093905084 0.16738996 -0.23183692
000180 d5 91 98 3d 9a b1 6a bd e2 b2 0c 3e 4d 61 95 be
       0.0744969 -0.05729828 0.13740113 -0.29175797
000190 85 42 17 bd 26 34 72 bc e2 d3 cb bd 3b 5c fe bd
       -0.036928672 -0.014782941 -0.09952523 -0.12419935
0001a0 00 3b e4 3c 83 5d c5 3e d1 f2 0b 3d f8 0c d4 bd
       0.027860165 0.38547906 0.034167115 -0.10354036
0001b0 2c 67 8e bd 78 07 d6 bd fd 67 19 3d ae 49 51 bc
       -0.06953272 -0.10450643 0.037452687 -0.012773914
0001c0 52 a4 db 3e ce bd 86 be 1c fe cd 3e e0 59 36 3e
       0.42898804 -0.26316684 0.40232933 0.17807722
0001d0 da a7 1b be 28 d9 fe 3d a4 0d 8b be f6 39 df be
       -0.15200749 0.12443763 -0.27158844 -0.43598908
0001e0 f9 bf 47 3d f9 8d 9f 3e 28 e7 2d 3e f2 a5 70 3e
       0.048767064 0.31163004 0.1698271 0.23500803
0001f0 1d 9a 2e be 43 4d 03 bc 69 94 ab bd 79 bf e2 be
       -0.17050977 -0.008014026 -0.08377916 -0.44286707
000200 b8 3d 83 bd b2 c2 9e bc 02 fb 7e bc a4 30 44 be
       -0.06408256 -0.019379947 -0.015562775 -0.1915918
000210 aa 97 00 be 09 94 1e be 26 6b 0e 3e a6 1f 86 be
       -0.12557855 -0.15486158 0.13908061 -0.2619602
000220 75 a8 9d bc b7 96 e0 bd fe 2d e0 bd 14 8f c8 bd
       -0.019245366 -0.109662466 -0.10946272 -0.09792915
000230 6d 5a c0 3e 8b 30 51 be 15 6c ca 3c de 4d c1 3c
       0.3756899 -0.20428674 0.02470974 0.0235967
000240 a8 d0 05 be 7a be 98 3b 92 41 a9 3d 51 03 19 be
       -0.13067877 0.0046613785 0.0826446 -0.14942671
000250 2e 8c 97 bd 72 00 6d bc d3 5b 79 bd 2a 42 80 bd
       -0.07399784 -0.014465438 -0.060878586 -0.0626262
000260 1c 2f a3 bd 16 a9 80 bc 29 bd 80 bd a8 22 2c 3e
       -0.0796797 -0.015705626 -0.062860794 0.16810095
000270 04 86 54 bd 9a 8a d2 bd f5 04 0b 3c 37 cc 9c 3d
       -0.05188562 -0.102803424 0.008485069 0.076561384
000280 6c 60 bb 3d c6 fb 9d 3d 52 98 cf 3d 83 75 5c bc
       0.091492504 0.077140376 0.10136475 -0.013455751
000290 12 f8 bf 3d 9c b5 23 bd 1c 41 2e 3e bf c6 d0 3d
       0.093734875 -0.039968118 0.17017025 0.10194158
0002a0 28 02 3b bd 61 42 7f 3d 0c 7c 9b 3d da c1 14 be
       -0.045656353 0.062319163 0.075920194 -0.14527074
0002b0 c8 4d f8 3d b1 29 5d 3e 53 fa 48 bd 00 0e 9b bc
       0.121242106 0.21597935 -0.049066853 -0.018927574
0002c0 17 72 92 bc c4 8d 51 3d 47 52 5d bd 6e 97 86 3e
       -0.017876668 0.05116059 -0.054033544 0.26287407
0002d0 4c 20 7c 3e 1a 77 0d be da 46 1a 3e 86 94 bf 3d
       0.24621695 -0.13814965 0.1506609 0.093545005
0002e0 32 0d a0 3d cc 73 97 bd 6c de f8 3d 1f 2a 45 bd
       0.07815017 -0.073951334 0.121517986 -0.048135873
0002f0 a6 0b 0c bd 12 b0 a3 bd b6 9e 96 3d f0 a3 06 3e
       -0.034190796 -0.07992567 0.073544905 0.13148475
000300 ff a6 fb 3b 1a 4e 32 3d 6d 85 37 bd ac f5 46 3d
       0.0076798196 0.043531515 -0.04480498 0.048574135
000310 d7 d4 a4 3d e2 a9 0f be b2 70 dc bd b3 a8 5d bd
       0.080484085 -0.14029649 -0.107636824 -0.054115962
000320 69 84 e0 bd 64 44 b3 bd fd 05 3e bc e6 28 4d 3c
       -0.10962755 -0.08753279 -0.011598107 0.012521958
000330 48 12 a6 bd 0d 40 21 be e1 9a d7 3c 52 36 b7 3d
       -0.081089556 -0.1574709 0.02631897 0.08945908
000340 af a7 04 3e 2c f3 86 3d d3 0d 09 be 4d 15 66 3d
       0.12954591 0.0658935 -0.1338418 0.056172658
000350 df 8f b2 bb 94 1b f7 3d 67 89 03 3b 71 76 ae 3e
       -0.0054492797 0.12065807 0.0020070912 0.3407474
000360 e7 d2 b6 3b 54 5f b3 bd 2c fe cf 3d 85 ab 9a be
       0.0055793407 -0.08758417 0.10155901 -0.30208984
000370 5e db 8b 3d b0 2c 09 be 84 ea 54 be a5 8c 6d 3e
       0.0682895 -0.13395953 -0.20792586 0.23198183
000380 9f 23 23 bd 48 8d a5 bc de 06 b3 bd 7b 0c d1 3d
       -0.039828893 -0.02020897 -0.08741544 0.102074586
000390 38 85 0c 3d d6 a7 aa 3c bf d7 8a 3d 5e ee 8c 3c
       0.034306735 0.020831984 0.067794316 0.017203506
0003a0 29 9f b3 bd fe a6 ed bd 53 e4 e0 3d c5 0a d2 3d
       -0.08770592 -0.11604117 0.109810494 0.102559604
0003b0 aa 4d 29 bd 4d a9 0e 3d 59 71 57 be a1 a2 4e 3e
       -0.04133383 0.034829427 -0.21039332 0.20179226
0003c0 c8 d6 56 bd 08 d5 12 3e 34 c7 2a be 27 8a 1a 3d
       -0.052450925 0.14339077 -0.16677552 0.03772941
0003d0 fa b4 9d 3e d8 ba c5 3d 34 fb 8b 3c 1b cb 20 3d
       0.30802137 0.09654778 0.017087556 0.039256196
0003e0 04 41 52 3e b8 29 13 be 5a 26 29 be 3c cd 21 be
       0.20532614 -0.14371383 -0.16518536 -0.15800947
0003f0 11 31 61 bd d4 63 6d 3e 73 e2 13 bd 83 34 cf bd
       -0.054978434 0.23182613 -0.03610463 -0.10117438

a2.bias f4 [16]
000000 47 55 ad bd 30 9a e2 bd 50 b5 80 bd 7b fe d5 bc
       -0.08463531 -0.11064565 -0.062845826 -0.026122322
000010 02 51 5d 3c 29 6a cf bd 2f 31 8b bc 07 33 22 bd
       0.013508083 -0.1012767 -0.016991226 -0.039599445
000020 a9 7a bb 3d dc a1 b7 bd 72 e4 de bd 9e 42 a8 ba
       0.09154255 -0.08966419 -0.10883416 -0.0012837236
000030 b0 b2 af bd 37 df 0f 3d 6f f7 04 3e a6 fc 6d 3d
       -0.08579004 0.035124984 0.12985013 0.058102272

a3.weight f4 [32, 16, 3, 3]
000000 fd 22 11 be 48 39 90 3e 5c c7 90 be 8b da 96 bd
       -0.14173503 0.28168702 -0.282771 -0.073659025
000010 c1 d5 da bd 8c 0f 89 bd 4a 3e eb be 5f 7d 68 bd
       -0.106853016 -0.066924185 -0.4594596 -0.05676019
000020 57 ea 12 3e 19 d9 a8 bc 0d 0c cc bd 14 c7 1d be
       0.14347206 -0.020611333 -0.09963236 -0.15407974
000030 c2 26 a7 bc 9d ea 00 3e 31 34 08 3e f6 a6 63 be
       -0.020404223 0.12589498 0.1330116 -0.2223166
000040 f2 55 2a be 91 bd b0 be 92 b3 0b 3e c8 be c8 3d
       -0.16634348 -0.34519628 0.1364272 0.09802014
000050 5f b4 cc 3d 8e d8 25 3d 39 42 06 3e 02 30 03 be
       0.099953406 0.040489726 0.131112 -0.12811282
000060 ef d3 af bd 61 5b 75 3c 20 90 84 bd dd e7 60 be
       -0.08585345 0.0149754 -0.06472802 -0.21963449
000070 46 00 0d 3e 5c a3 03 3e 29 4f df 3d cb 66 ba bd
       0.13769636 0.12855285 0.109037705 -0.091016375
000080 7a 41 04 3e 5a 08 4f bd 15 1c 5d be 68 b3 a8 ba
       0.12915602 -0.050545074 -0.21592744 -0.001287085
000090 d8 13 30 3e a8 a1 b4 3d 67 4c f8 bd 9e a9 c6 bd
       0.1719507 0.08819896 -0.121239476 -0.09700321
0000a0 8d 7c 82 3e 96 88 95 bd 35 6b f3 3d f8 3a 48 3d
       0.2548565 -0.07301442 0.118856825 0.048884362
0000b0 1d 85 bc 3c 7e 55 27 3d 3c b2 76 3d d9 94 f8 bd
       0.023012692 0.040853016 0.06022857 -0.121377654
0000c0 c1 e7 50 3e 86 41 92 bc c5 fa 88 3e 1d 37 6d be
       0.20400907 -0.01785351 0.26753822 -0.23165555
0000d0 f5 71 d9 bd 4a b6 bf 3d 35 4b b1 3d a8 ab 58 3d
       -0.10617439 0.09360941 0.08656923 0.05289808
0000e0 e6 de 4b be 4b 36 35 3d 7a 9d d7 3d 8c 3c 02 be
       -0.19909248 0.04424123 0.10528083 -0.1271841
0000f0 f8 ba c7 3d e7 00 83 3e 90 69 ed 3c 2c 1d da 3d
       0.09752458 0.25586626 0.028981 0.10650095
000100 3e 81 d4 3c e0 e7 d7 3a 40 0d a0 3d a2 b8 82 3e
       0.025940534 0.0016472302 0.07815027 0.2553149
000110 d1 1b 9d be 55 84 9e 3e dc 6d a0 bd 97 4d ea bd
       -0.30685285 0.30960336 -0.07833454 -0.1144058
000120 5f 48 b6 bc ae 8f ae 3d ad c5 9d bd d6 b4 db 3d
       -0.022251306 0.085234985 -0.07703719 0.10727851
000130 ad 69 62 3e 25 bf 25 3d 27 ca ff 3c dd ce 59 be
       0.22110625 0.040465493 0.031224323 -0.21270318
000140 1b 24 e4 bd 5e 73 28 3c 15 f1 4a 3e 44 27 ec bd
       -0.11139699 0.010281412 0.19818528 -0.11530927
000150 60 78 5a 3e 3a 68 e4 bc 17 a5 0c bd 34 5d 17 be
       0.21334982 -0.02788173 -0.03433713 -0.14781648
000160 81 4d b3 bd c1 34 b1 3d b3 71 78 bd f3 12 6b 3d
       -0.08755017 0.0865264 -0.060655307 0.05739112
000170 b4 39 1d bd 7d 4b d1 3d 4d b9 71 be 7a 9c b1 3e
       -0.038385108 0.10219476 -0.23605843 0.34689695
000180 b8 88 54 3d ec ca e1 bd ec 7e 3a be 7f ce 2f bd
       0.051888198 -0.110250324 -0.1821248 -0.04292154
000190 be 3f 1e be 2a c2 9c bd e7 96 1d be 53 19 81 3e
       -0.15454003 -0.07654221 -0.15389596 0.25214633
0001a0 b3 f5 33 bd cf 18 a7 bd a0 11 48 3e bd 9f 9d bd
       -0.04393549 -0.08159029 0.19537973 -0.07696483
0001b0 a5 41 49 bd 7c 1a 94 be e6 cd 5a be 38 33 15 3e
       -0.04913487 -0.28926456 -0.21367607 0.1457032
0001c0 1c 6d a3 3b f3 67 86 3e c1 01 d0 be 58 36 09 3d
       0.004987372 0.26251182 -0.40626338 0.033499092
0001d0 c2 c5 0a bd 6d 98 ad 3e 3a cf bf bc c8 53 43 bd
       -0.033880003 0.33905354 -0.023414243 -0.047687322
0001e0 24 1e 56 3e 4b b1 cb bd 30 3b ef bc 6f c3 e6 3d
       0.20909935 -0.09945925 -0.029203027 0.11267745
0001f0 73 45 1b 3c 22 39 14 3e 69 24 a7 3e d3 cf 48 be
       0.009477007 0.1447492 0.32644966 -0.19610529
000200 94 2a c2 be 53 14 36 3d 36 df 83 3e 39 62 0f be
       -0.3792311 0.044452976 0.25756234 -0.14002313
000210 9f 5f 0b 3e c1 8f 8a bd 0b ed 39 be a7 c4 26 3d
       0.13610695 -0.067657 -0.18156831 0.040714886
000220 ce 44 5a 3d 44 03 d3 3d fd 7b 2f 3c c4 5b a0 3e
       0.053288274 0.10303357 0.010710713 0.31320012
000230 fd fb 19 bf b1 4f b4 3d 03 e1 48 be 6b 04 4a be
       -0.6015013 0.088042624 -0.19617085 -0.19728248
000240 61 4a df 3d 0a ef 6b bd 66 4b b5 3e 21 c3 d1 3d
       0.109028585 -0.057601012 0.35409087 0.10242296
000250 f9 a8 ca 3b bc e3 01 3e 86 e0 5e bd bd 76 90 bd
       0.006184694 0.1268453 -0.05441334 -0.070538975
000260 fb e9 62 3d ee a1 94 bd 26 c3 b2 bd ce bf 18 3e
       0.055398922 -0.07257448 -0.08728628 0.14916918
000270 8d e8 e3 bd e6 11 1c be a4 2b 23 3e 47 bf 1f 3e
       -0.1112834 -0.15241203 0.15934616 0.1560031
000280 72 03 1d 3e 68 4c 11 be cf 06 96 be d9 2c 75 bd
       0.15333346 -0.14189303 -0.2930207 -0.059857223
000290 e9 e0 a0 bd 52 4f 07 3e 15 7f 1b be 74 f0 63 be
       -0.07855398 0.13213852 -0.15185197 -0.22259694
0002a0 5c e3 0a be 6f e6 3a bd 65 0a 67 be 41 99 ab bd
       -0.13563293 -0.045629915 -0.22562559 -0.0837884
0002b0 a7 87 06 be 0b 97 08 bd 35 ec 0c be 51 e5 f7 3d
       -0.13137685 -0.03334717 -0.13761981 0.121042855
0002c0 57 16 d9 3d ac 22 90 3d 1d 00 d6 bd b5 37 ef 3d
       0.10599964 0.07037863 -0.1044924 0.11680547
0002d0 6b 0e 38 be 52 cd 02 be 2c 41 5d bd 4c 0c 0a be
       -0.1797425 -0.12773636 -0.05401723 -0.13481253
0002e0 f7 86 10 be 2e b2 48 3e f9 a3 6b bd d5 ae d6 bd
       -0.14113985 0.1959922 -0.057529423 -0.10482565
0002f0 9a b2 39 3e b5 97 8a 3d 41 20 d7 3d 5d 64 a9 3d
       0.18134537 0.06767217 0.10504199 0.08271096
000300 35 a9 ac 3d 3f 82 8d bd 34 a0 6b 3e 76 31 a9 bd
       0.08430711 -0.06909608 0.23010331 -0.08261387
000310 c2 dc ea bc a1 5c e2 3d a8 94 0e be bc 44 56 be
       -0.028669719 0.11052824 -0.13923895 -0.20924658
000320 63 3b a5 3d 3f 0b 14 bd 3d bf 36 be 9c a5 19 3e
       0.08067968 -0.036143538 -0.17846389 0.15004581
000330 f0 30 78 3d 32 31 4e 3e 06 e0 37 3e d2 08 62 be
       0.060593545 0.20135954 0.17956552 -0.22073677
000340 8b 77 90 bd 7c de 0d bf 61 2f ed 3d fc ad a3 3e
       -0.07054051 -0.5541761 0.115813024 0.31968677
000350 41 4d 1a be 68 b7 e5 be f7 46 9c 3d 89 7c 7d 3e
       -0.15068533 -0.4486649 0.07630723 0.24754538
000360 20 c8 41 3d fa 60 86 3e c8 02 00 be ef 1b 6c be
       0.047309995 0.26245862 -0.12501061 -0.23057531
000370 57 27 34 bd 0f c4 97 be 8a f6 ba bd 81 6f 0e be
       -0.04398283 -0.29641768 -0.09129055 -0.13909723
000380 d2 76 83 bb f1 41 20 3e 5a e9 c3 bd 0e 74 af bd
       -0.004011967 0.15650155 -0.09565993 -0.085670575
000390 23 52 c7 bc 5b b2 cf bc 53 2f 60 be 0e d1 b5 bb
       -0.024331158 -0.025353601 -0.21893053 -0.005548603
0003a0 f3 40 0e 3e aa ed 32 3d 6a 4b 45 3e 39 d7 d3 bd
       0.13891964 0.043683685 0.1926705 -0.10343785
0003b0 4d ef 43 3e 2b 58 2b be 58 84 0a be f6 73 4c be
       0.19134255 -0.16732852 -0.13527048 -0.1996611
0003c0 6f 41 d3 bd 41 94 a1 be 29 09 c9 bd 2a c2 98 be
       -0.10315215 -0.3155842 -0.098162 -0.29835635
0003d0 9b 20 0a bd 1a 4e 20 bd 4a 2f ac bd b0 6f 94 bd
       -0.0337225 -0.039136983 -0.08407457 -0.07247865
0003e0 eb d9 f0 3d 77 cd ea be f6 d1 4b be ca 67 08 3e
       0.117603146 -0.45859882 -0.19904312 0.13320842
0003f0 a4 2b 52 3e 86 dc bb bd 2a cb 4a 3e 55 75 2c be
       0.2052446 -0.09172921 0.19804063 -0.16841634

a3.bias f4 [32]
000000 56 11 f4 bd df 97 36 3d cf bc 76 3d cd c0 3e be
       -0.11917369 0.04457843 0.060238656 -0.18628235
000010 8e f6 2b be 84 6f 02 3d e2 79 4b 3d 49 e2 1e be
       -0.16793272 0.03184463 0.049676783 -0.15516008
000020 f4 fe 6e be b7 8c fe bd 29 3d a5 bd d7 07 8b bd
       -0.23339444 -0.12429183 -0.08068306 -0.06788605
000030 80 9e 9f be e8 8f a5 bd 3f 45 63 bd bb 75 4c 3e
       -0.31175613 -0.080840886 -0.05548596 0.19966786
000040 0e 89 2a 3e 92 2c a2 bd 9c 88 cf bd 9d d3 30 be
       0.16653845 -0.07918657 -0.10133478 -0.17268224
000050 f2 81 fb bc 87 5a 02 be fb 49 1d bd e5 af f5 bd
       -0.030701611 -0.12729846 -0.03840063 -0.1199644
000060 2c 81 1e bd f5 85 01 3e 32 65 41 3e 84 0e 5a bd
       -0.038697407 0.12648757 0.18886259 -0.0532365
000070 34 77 79 3c 4e 88 69 3d 2a 7a cc bc 23 eb cb bd
       0.015226174 0.057014756 -0.024960596 -0.09956958

b1.weight f4 [32, 32, 3, 3]
000000 72 54 9a be b4 b3 d6 3d 23 8f 92 bc 30 7d 22 bd
       -0.30142552 0.104834944 -0.017890519 -0.03967017
000010 fa b1 98 bd 66 46 43 be 18 05 47 bd cf fd 38 3b
       -0.07455821 -0.19069824 -0.048588842 0.0028227454
000020 cb 4b 60 be 0b 51 de 3c 83 db 98 be 0b 70 8b 3d
       -0.21903913 0.027138254 -0.29854974 0.0680848
000030 0e 73 8e be c0 c9 e0 be b6 2d b4 3c 2a 4f de 3d
       -0.27822155 -0.43903923 0.021994453 0.10854943
000040 ac 16 6c be a2 77 9f 3e bf 2d 86 bc b9 a3 a4 3d
       -0.23055524 0.3114596 -0.016379235 0.0803904
000050 91 6e 33 3d 5c d6 01 3e 95 94 5c 3e 63 3e 82 bd
       0.043806616 0.12679428 0.21541055 -0.063595556
000060 45 6e f6 bc f6 ac 8e 3c 4c 9d ef bd 35 5a 6b 3e
       -0.030081877 0.017416459 -0.11699924 0.2298363
000070 e9 c2 3b 3e 83 e2 bb 3d 2f 10 8d 3d c3 dd 75 be
       0.18336071 0.09174063 0.068878524 -0.24010377
000080 db 15 05 3e 08 8e 2a be a0 2a 1f be f7 dd 64 be
       0.12996618 -0.16655743 -0.15543604 -0.22350298
000090 65 38 71 3e d8 5a 64 be 1d 92 3f 3c ef 20 a9 bc
       0.23556669 -0.22300279 0.011692551 -0.020645587
0000a0 16 14 02 3d 46 09 86 be 30 5b 13 bd 31 c6 aa be
       0.031757437 -0.2617895 -0.035975635 -0.33354333
0000b0 ec 0d 94 3b 00 c0 c8 3e 72 46 df be 21 a3 be bd
       0.004518261 0.39208984 -0.43608433 -0.09308458
0000c0 b2 de 41 3e d8 1f 5d bd e0 07 90 3c 37 f0 de 3d
       0.18932608 -0.053985447 0.01758188 0.10885661
0000d0 ae 75 4b bd d7 69 97 be 2d 99 16 be 99 99 70 bd
       -0.049672775 -0.29572937 -0.1470687 -0.058740232
0000e0 be 27 a1 3b c1 84 66 bd 40 f1 04 3e 1c 85 91 ba
       0.0049180677 -0.056278948 0.12982655 -0.0011102292
0000f0 b6 5e 38 be 96 97 de 3d 77 92 2b bd 80 a2 7d bd
       -0.1800488 0.108687565 -0.041887727 -0.06192255
000100 c7 c4 5a 3d 31 b5 27 3d aa 98 2a 3d a8 ab 0b be
       0.053410318 0.040944282 0.041649498 -0.136397
000110 6f 6b 1a bd 99 2c 26 3c 16 91 6e 3d 88 d8 c7 3c
       -0.037700113 0.010142469 0.058243833 0.024395242
000120 5a fd ad bd 09 27 48 be d8 62 7f be 26 ab 91 be
       -0.084955886 -0.1954614 -0.2494005 -0.28450888
000130 23 4b 43 3e 6c 2c 7a bd f8 96 89 be 26 b1 4a 3d
       0.19071631 -0.06107752 -0.26872993 0.04948535
000140 12 01 55 3e f4 fc 0a 3e 0b a8 9d bc 0d 36 e6 bd
       0.2080119 0.13573056 -0.019245168 -0.11240778
000150 45 f6 3a 3e 0a e8 b2 3d da fb 9e 3e bf 29 dc 3e
       0.18258007 0.08735664 0.31051522 0.430006
000160 68 16 47 bd 2e 90 bf bd 76 fb a2 bd f1 3d 4b 3e
       -0.048605353 -0.09353672 -0.079581186 0.19847848
000170 2d c7 55 be 59 0c 99 3d 5a e7 15 3e 06 40 d8 bd
       -0.20876761 0.07473058 0.14639035 -0.105590865
000180 d1 c2 aa 3d aa 55 8c 3d c1 c7 b3 3d 7b 83 52 be
       0.083379395 0.068522766 0.087783344 -0.20557968
000190 8b 56 23 be 9a 98 92 be 08 d0 78 3e 83 6d 41 bd
       -0.15950982 -0.2863205 0.24298108 -0.04722358
0001a0 52 cc 95 be 7f 61 44 3e 20 9c 08 3e 39 95 04 be
       -0.29257447 0.19177817 0.13340807 -0.12947549
0001b0 c8 c2 bd be 96 82 95 be 05 8d 13 be 7b 88 cf bd
       -0.3706267 -0.29201192 -0.14409263 -0.101334535
0001c0 4a f8 fd bd 05 97 6c 3e 05 c9 60 be 95 95 87 be
       -0.12400873 0.23104484 -0.21951683 -0.2648131
0001d0 49 55 6a bd 58 14 e7 bc 68 09 5c 3d bb a8 41 3e
       -0.05721024 -0.028207943 0.053719908 0.18912022
0001e0 9e 2a c4 3d d9 b5 32 3c cc 0b a6 bd 36 7b ec bc
       0.09578441 0.010907614 -0.08107719 -0.028867345
0001f0 13 1a ac be 02 02 d3 3d 8c 07 a6 3d c2 a3 f4 3d
       -0.33613643 0.10303117 0.08106908 0.11945297
000200 de 36 3c 3b c1 47 00 bd b3 e6 89 be 67 8d 26 3d
       0.0028719227 -0.03131843 -0.26933822 0.040662196
000210 e6 66 34 bc 8b 1b c1 bd cb b9 05 bd 77 a8 39 bd
       -0.011010861 -0.094290815 -0.03264789 -0.045326676
000220 7c 3f 85 bd 31 b8 2b bd f9 42 0f be 01 ad f4 3c
       -0.06506249 -0.041923705 -0.13990392 0.029867651
000230 7f 1a 6d bd 7c 29 5b bb ee 34 83 be 42 3f 25 3d
       -0.057886597 -0.0033441475 -0.2562632 0.04034353
000240 13 9e 34 be 82 b8 e3 3b 5d 7a 8e 3d 13 67 48 3e
       -0.17638426 0.0069494853 0.06956933 0.1957057
000250 b8 0f 3d 3e a5 86 ff 3d da ae 5b 3c db 53 7e bd
       0.18463027 0.12476853 0.013408387 -0.06209169
000260 f4 70 45 3e 41 5f 8b 3d 2a 17 aa 3d 14 82 a3 be
       0.1928137 0.068052776 0.083051994 -0.3193518
000270 cd cf 3d bd 55 73 83 bc fe 97 c0 be ec 90 95 bd
       -0.046340752 -0.016046206 -0.3761596 -0.07303032
000280 69 9b 40 3e 6a b3 58 bd 18 05 0a 3e ca c3 32 3c
       0.18809284 -0.052905478 0.13478506 0.010910938
000290 86 ba 76 bd ff e1 25 3d a8 04 b3 be d5 c1 66 be
       -0.060236476 0.04049873 -0.3496449 -0.22534879
0002a0 c3 09 a7 bd 0d 3d 2c be 0b f9 f7 bd 6c 48 80 be
       -0.08156159 -0.16820164 -0.12108048 -0.25055254
0002b0 8a 1a 7a 3e 0b 7d 59 be 02 39 f1 3d 6f de ba 3d
       0.24424186 -0.21239106 0.117784515 0.09124457
0002c0 cf de d2 bc 0f 2a c8 bd 37 f9 3f 3e e1 6d 1c bd
       -0.025741009 -0.09773647 0.18747412 -0.038190726
0002d0 ba 8e 99 3c 25 68 1a be a0 87 ec 3d 7d ba 39 3c
       0.018744815 -0.1507879 0.11549306 0.011335966
0002e0 d9 03 20 bd 6f 44 94 bd c0 0b 35 3e df b6 9f 3d
       -0.03906617 -0.07239615 0.17680264 0.07798552
0002f0 ab f9 26 3e bf 28 69 3d e8 15 41 be 88 1e d5 bd
       0.16306178 0.056923624 -0.18856013 -0.10406214
000300 2b 99 ec 3d 5e 4e d1 3d 18 44 0c 3e a4 42 8c bc
       0.11552652 0.102200255 0.1369785 -0.01712162
000310 5f f7 ef bd 18 25 09 be 04 e6 77 be 8e 6a 93 3d
       -0.11717104 -0.13393056 -0.24208838 0.07198058
000320 cf 6c 9f 3b a5 6a 1f be 3a c2 b0 3d 26 9c aa 3d
       0.004865266 -0.15568025 0.08630796 0.08330564
000330 cc b2 af 3d b4 59 ac be be ce 61 bd eb d7 06 be
       0.08579025 -0.33662188 -0.055128805 -0.13168304
000340 65 4f 0b 3e aa 18 d1 bd 03 87 ca bd e9 4c 37 bd
       0.13604505 -0.102097824 -0.09889033 -0.04475108
000350 b2 85 13 be ee 90 e1 bd de e8 86 3e d5 4d 10 3e
       -0.1440647 -0.11013971 0.2634954 0.1409219
000360 d8 18 6e 3e ac 11 30 be e9 d6 82 be 40 fa 86 be
       0.23251665 -0.17194241 -0.25554588 -0.263628
000370 7f bc 53 3d e4 63 b5 3d 53 c8 00 bc 97 66 1a 3e
       0.051693436 0.08856943 -0.007860261 0.15078197
000380 f8 4b f3 3c ec 27 0b 3e 05 8f 8a 3d 3e 26 b2 be
       0.02969931 0.13589448 0.0676556 -0.347948
000390 58 e9 af bd 29 a3 92 3b f6 e9 8d 3d 8f 5e af bd
       -0.08589429 0.0044750166 0.0692939 -0.085629575
0003a0 03 b9 96 3e b8 7e 15 3e ed c0 ab 3e e3 aa 25 bd
       0.29438028 0.1459912 0.33545628 -0.040446173
0003b0 d2 7a a2 be 35 1a 93 3d bb 5f cd bc 7f 0b 93 3c
       -0.3173433 0.07182733 -0.025070062 0.017949818
0003c0 21 23 58 3d b3 27 80 3e 16 6f 94 be b4 83 5a 3e
       0.052767877 0.25030288 -0.28991002 0.21339303
0003d0 5d 77 54 3c 76 01 86 bd 1a a5 1a bf 58 15 6f be
       0.012967912 -0.065432474 -0.60408175 -0.23347986
0003e0 9a 8f 8b bc 87 b6 93 3c a5 46 1e 3e fb b5 48 3c
       -0.017036248 0.018031372 0.15456636 0.012250419
0003f0 a1 67 82 3e fc c1 30 bd c6 ca b6 be 14 db 8b 3c
       0.25469688 -0.043153748 -0.3570158 0.017072238

b1.bias f4 [32]
000000 8e 1c 8d bd db fb 15 be e4 a5 67 be 48 2f 00 be
       -0.06890212 -0.14646856 -0.22621876 -0.12518036
000010 6b 26 70 3e c6 8c f1 bd 2f ee 9a bd 4e d7 7f 3c
       0.23452155 -0.117944285 -0.07564961 0.0156152975
000020 1b c0 0a bd 3a da 72 be 40 2a 3b be 61 b9 5b 3d
       -0.033874612 -0.2371606 -0.18277836 0.053643588
000030 54 df f8 bd 0a 3f 41 be 64 ae 09 3d f2 10 ec bd
       -0.121519715 -0.18871704 0.033613577 -0.115266696
000040 3b d6 ae bd 20 78 96 be 32 45 cf bd eb f3 a0 3d
       -0.08536955 -0.29388523 -0.1012062 0.07859024
000050 00 5e 9d bd da 44 24 be 6c 26 68 3e fc da 8e be
       -0.07683945 -0.1604189 0.22670907 -0.27901447
000060 78 e5 0d bd 04 46 d7 bd 38 fa 83 bd cf 46 af be
       -0.034642667 -0.10511401 -0.0644421 -0.3423371
000070 93 dd 45 bd 8c 3e 34 bc 85 1f 75 3d 5d 6f cd bd
       -0.048307013 -0.01100124 0.059844512 -0.100310065

b2.weight f4 [32, 32, 3, 3]
000000 d7 50 3f 3e 12 ec 9c 3d 44 9f bc bd 1f 45 3b 3d
       0.18683182 0.07662214 -0.09210065 0.045720216
000010 f6 29 1f be e3 d6 44 3e 75 dc ac bd 9c 30 12 be
       -0.1554335 0.19222598 -0.08440486 -0.14276356
000020 2f 74 67 3e 60 cd 4a 3e 53 c8 4d 3c a9 66 3a bd
       0.22602914 0.19804907 0.012559968 -0.04550806
000030 72 36 b7 bd 05 08 90 bd d6 18 61 be 74 5a 27 3e
       -0.089459315 -0.070327796 -0.2198213 0.16343099
000040 fc b6 33 3e 3d 36 b3 be 6d fc 00 be 23 fe 3f 3e
       0.17550272 -0.35002318 -0.12596293 0.18749289
000050 b2 51 90 be bf bb d3 bb 8b 76 36 be 3c 06 86 3d
       -0.2818733 -0.00646159 -0.17818658 0.06544158
000060 c5 70 c7 bd bd 82 5e bd da 2e 15 be f7 b0 db 3e
       -0.09738306 -0.0543239 -0.14568654 0.4290845
000070 0a a6 bc bd f7 84 0c 3e 7a f8 e1 3e 9f 2e 29 bd
       -0.09211357 0.13722597 0.44134885 -0.041304227
000080 45 0a d6 bd 2b d3 74 bc 92 2f a2 be 5d c4 0f 3c
       -0.104511775 -0.0149429245 -0.31676918 0.008774844
000090 30 51 8b bd b0 ce 99 3d 72 76 89 be 9f 7a 1f bd
       -0.06802595 0.07510126 -0.2684818 -0.0389353
0000a0 03 56 47 3e fb 62 4a be 56 b7 ac be 71 04 1d 3e
       0.19466405 -0.1976432 -0.33733624 0.15333726
0000b0 5c 5d 3d 3e d2 ae 51 3e ab 5d 2e be f5 a4 ab bc
       0.18492645 0.20476845 -0.17027919 -0.020952681
0000c0 e2 2c 2b be c5 e0 03 be 52 2e 9b be 67 80 9e bc
       -0.1671634 -0.12878712 -0.30308777 -0.019348336
0000d0 6f b2 b0 3e 6f 32 5e 3e a9 10 fd 3c d8 f0 5f be
       0.34511134 0.21698926 0.030891733 -0.21869218
0000e0 7d d4 ac 3d 46 16 b0 bd 94 52 80 bd cc ac f5 bd
       0.084389664 -0.08597998 -0.062657505 -0.11995849
0000f0 c6 86 93 3c 78 c0 c6 3d 91 2c 65 be fe 88 a2 3e
       0.0180086 0.09704679 -0.22380282 0.31745142
000100 5f 73 33 bd 17 cb 2a be 26 38 d9 bd ea 2e 76 3d
       -0.0438112 -0.16679035 -0.106064126 0.060103334
000110 ff 50 61 3d 79 6d 21 bc 42 89 57 3d a7 aa 2b be
       0.055008885 -0.0098527605 0.052621134 -0.16764317
000120 61 23 45 3c d9 22 16 be e8 5b 57 3e 75 09 40 3c
       0.012032361 -0.14661731 0.21031153 0.011721005
000130 19 7b d8 bb 34 1b b6 bd b8 5d b2 bd 7f fb 4a 3c
       -0.0066064713 -0.08891907 -0.08709282 0.012389063
000140 83 42 86 be 09 04 72 bd f1 39 a7 be 80 a2 fe bd
       -0.2622262 -0.05908588 -0.32661393 -0.12433338
000150 d7 ff fb 3d 50 62 98 bd d7 38 83 3e e0 7c a1 3e
       0.12304657 -0.074406266 0.25629303 0.31540585
000160 cb bc 0c 3e 72 25 65 bd 7a 88 3a bd 9e 69 33 be
       0.13743894 -0.055943914 -0.04554031 -0.17520759
000170 85 61 98 bc 7a 3a be bd 38 30 0c be bb 4c 16 be
       -0.018601188 -0.09288497 -0.13690269 -0.14677708
000180 6b 65 6c 3e fa c0 0d 3e 45 ec 79 be fb 19 f0 3d
       0.23085563 0.13843146 -0.24406536 0.117237054
000190 d7 90 92 bd a4 93 11 3e 35 2a 84 bd 50 62 6e 3d
       -0.07156532 0.14216477 -0.06453363 0.058199227
0001a0 6b 86 1b be 4e 8e 96 be 07 44 e2 3d 8e 86 f5 bd
       -0.15187995 -0.29405445 0.110481314 -0.11988555
0001b0 92 a1 76 be f2 90 cd bd 74 4e 9d bd 4c 29 e7 3d
       -0.24085072 -0.10037412 -0.07680979 0.11287174
0001c0 7a 9c 13 bd 0d 63 1e be 5e 50 7c be c1 55 b4 3d
       -0.0360379 -0.15467472 -0.24640033 0.08805419
0001d0 3a 26 20 3d 02 41 5e be 03 a8 20 be bf f0 f1 be
       0.039098956 -0.21704486 -0.15689091 -0.47253987
0001e0 a6 9d 56 ba aa f6 90 be a3 bc 6e 3d 73 4c 27 be
       -0.00081869436 -0.2831319 0.058285367 -0.16337757
0001f0 1b 80 f0 bc 88 ea 35 be e2 d4 e6 3d 8e 90 90 3b
       -0.02935796 -0.17765248 0.11271073 0.0044117635
000200 01 45 a8 bd ec af 5a bd 35 84 d5 be c3 74 8c bc
       -0.082162865 -0.05339043 -0.41702428 -0.01714552
000210 e2 ef dc bd c2 b0 f2 3d dc 39 11 3c a5 f7 ea bd
       -0.107879415 0.1185012 0.008863892 -0.11473016
000220 1e d2 bd bd 51 f5 79 bc 04 4c 49 3e 80 d9 c9 be
       -0.09268592 -0.015256242 0.19657904 -0.39423752
000230 8a 39 cd 3d 8f 27 7b bc 7c 0b ea 3d d7 bf 80 3d
       0.1002074 -0.015329256 0.11427972 0.062865905
000240 42 e8 94 3e 27 49 ee ba ff f2 15 be 06 1f e7 3c
       0.2908345 -0.001817976 -0.14643477 0.028213035
000250 be aa 45 be f7 86 43 3c 53 0f bf 3d c8 e2 73 3e
       -0.19303414 0.011934034 0.09329095 0.23816979
000260 8c c9 b1 bd 86 e1 39 bd df 58 e5 3c f7 8d c4 3d
       -0.0868102 -0.04538109 0.027996479 0.0959739
000270 60 bd 46 3e 18 7c cb 3c 18 4b 8c 3b a2 34 f7 bd
       0.19408178 0.024839446 0.004281413 -0.12070586
000280 15 77 b8 3d c8 d1 63 be 94 e4 5b bd 36 cb 6e 3d
       0.09007088 -0.22247994 -0.053684786 0.058299266
000290 c2 b7 18 bb c6 b7 a7 bd b4 cd e2 bd b0 33 7c be
       -0.0023302888 -0.08189349 -0.11074391 -0.24629092
0002a0 bd 41 b5 bd ce c6 22 be 17 ef 8d bc c7 09 71 3e
       -0.08850429 -0.1589615 -0.017325921 0.23538886
0002b0 ef 8e 21 bd 8a f2 a0 bc d9 13 84 3d 78 29 ec 3d
       -0.039442953 -0.019646902 0.06449098 0.11531347
0002c0 a7 61 f8 3d 3a 20 eb bc cc 17 d6 3d d4 c9 66 bd
       0.12128001 -0.02870189 0.10453758 -0.056344822
0002d0 2c 22 81 bd 5f a0 2a be cf 6a 63 bd f9 fe 19 3e
       -0.06305346 -0.16662739 -0.055521782 0.1503867
0002e0 c1 7f 81 bd 21 1a c0 bd fb bd 98 be 71 c5 0f bd
       -0.06323195 -0.09379984 -0.29832444 -0.035100404
0002f0 8f 81 2c be 3b 71 84 be 61 6d d8 bd cc 92 af 3c
       -0.16846298 -0.25867638 -0.10567737 0.021432303
000300 51 86 2e 3e 1f 1a 41 3e c8 85 92 3e 87 59 30 bd
       0.17043425 0.1885762 0.28617692 -0.04305413
000310 cc 11 ee bd 31 8a d5 bd bd 62 5f 3e 95 64 6b be
       -0.11624488 -0.104267485 0.2181501 -0.22987588
000320 6a bc 01 3e 0c 3f 7e 3d 2f b7 30 bc 0f dc 15 3e
       0.1266953 0.062071845 -0.010785862 0.14634727
000330 9f f1 ce be 83 8e 84 3e bf 47 91 bd 5c 42 3a be
       -0.40418717 0.25889978 -0.070937626 -0.18189377
000340 5b 19 54 bc c9 dc 4c 3d 15 cb e8 bd 92 1a ad be
       -0.012945498 0.050015245 -0.1136686 -0.33809334
000350 95 e0 13 3f 73 06 61 3c 27 97 ae 3b 48 5a 02 3e
       0.5776456 0.013734448 0.0053280774 0.12729752
000360 34 d7 5e bd 2f bf 14 bd 78 f9 de bd 0e 43 2a 3d
       -0.054404452 -0.03631514 -0.10887426 0.041567855
000370 3f 8c db bd 28 dd 2d 3d 84 a2 6a 3e 7d 90 1b 3e
       -0.10720109 0.04244724 0.22913557 0.15191837
000380 15 eb 9e be a7 81 3b bd 1a 98 31 be 69 c7 ed 3d
       -0.31038728 -0.045777943 -0.17343178 0.116103
000390 af c8 a1 3c 49 f7 76 3e 2d 95 fe bd e4 a4 4a be
       0.019749014 0.2411777 -0.12430797 -0.19789463
0003a0 34 75 2c be 94 77 c7 3d 89 56 b8 3d 92 62 b8 bd
       -0.16841584 0.097396046 0.0900088 -0.09003176
0003b0 aa 05 1a 3d 14 95 50 bd f8 30 05 3e 75 af e3 3d
       0.037603058 -0.050923422 0.13006961 0.1111745
0003c0 d1 4b 94 be 6f 3a 7b be 1e e2 dd bd 67 09 d0 3d
       -0.28964093 -0.2453401 -0.10834144 0.10158043
0003d0 c5 e9 02 be 88 07 82 3e 36 9a e5 3d 92 72 bb bd
       -0.12784488 0.2539637 0.11211054 -0.09152712
0003e0 a5 0b 43 be a8 2c 0a be 98 b5 69 be 20 e4 88 3d
       -0.19047411 -0.13493598 -0.22823179 0.066841364
0003f0 ef 1f 26 3d c0 2c cc 3d 95 59 78 3e b5 8e 74 3c
       0.040557798 0.09969473 0.24252923 0.014926602

b2.bias f4 [32]
000000 20 14 c4 3c 64 a2 af be c3 64 30 be 6d 8e 76 be
       0.023935378 -0.34303582 -0.17225938 -0.24077769
000010 13 1f df bd e1 7e 4a be 79 f7 fc bd d6 9a 25 be
       -0.10894599 -0.19774963 -0.12351889 -0.16172346
000020 4e 7b 01 3e 24 b0 88 3c dd 62 0b 3b 36 54 de bd
       0.12644693 0.016685553 0.0021268644 -0.10855906
000030 01 7c 0c be f2 73 92 be 7c 42 6a bd de 7b 40 3d
       -0.13719179 -0.28604084 -0.05719231 0.04699313
000040 a0 81 8d bd 4c 26 33 be 10 4a cb bd 07 3f d6 bd
       -0.0690949 -0.17495078 -0.09926236 -0.1046124
000050 8b 56 c6 bd ca 6a d3 3d 9d dd 55 be a0 8e c4 3d
       -0.096844755 0.10323103 -0.2088532 0.09597516
000060 43 a6 75 be 8f 68 9f 3d ee 7e 67 3d cc 59 01 3d
       -0.23989205 0.07783615 0.056517534 0.031579778
000070 e3 11 8b be 4e d3 71 bd f2 2e e7 3d 4d d2 2e bd
       -0.27162084 -0.059039406 0.11288251 -0.042681027

b3.weight f4 [64, 32, 3, 3]
000000 71 1a 1a bc 50 ae cb 3d f5 65 48 bd a2 a6 a7 be
       -0.009405718 0.09945357 -0.04892536 -0.32744318
000010 d7 f6 5f be cd 92 d8 bd 2e 6b f5 b9 a4 b1 9e be
       -0.21871506 -0.10574875 -0.00046809897 -0.30994904
000020 4e 56 4c 3d 43 0a 25 3e 71 ff 3c be 77 e5 21 3e
       0.049886994 0.16117196 -0.18456818 0.1581019
000030 ef 27 5e bd 69 bc 1c 3e ef 44 41 be 3c 70 10 be
       -0.054237302 0.15306248 -0.18873952 -0.14105314
000040 bb 43 79 be 19 f4 95 be 1c 30 ba bd c5 d3 23 be
       -0.24342243 -0.29287794 -0.090912074 -0.15998752
000050 e9 8e 1a 3e 28 cc 98 3c 50 24 b9 bd 52 c8 96 be
       0.15093578 0.018652037 -0.09040129 -0.29449707
000060 1e bd 04 3e e2 f8 41 3e dd f0 27 be 42 bc 12 3c
       0.12962767 0.18942598 -0.16400476 0.008956017
000070 af d4 cf 3d 3e 6b 49 3e 20 6a b8 3d f6 4d 7f 3e
       0.10147988 0.19669816 0.09004617 0.24932083
000080 d0 d6 5a be 81 83 4c be fb b6 96 be 51 4e 88 3e
       -0.21371007 -0.1997204 -0.29436478 0.2662225
000090 ff 05 35 be 86 60 8b bd bb 4b 77 3d 1f 02 74 be
       -0.17678069 -0.0680552 0.060374957 -0.23828934
0000a0 81 9b ed 3d 95 65 9b 3e 6c 21 78 be 77 52 ce 3d
       0.11601926 0.30350938 -0.242315 0.10074323
0000b0 12 7e 05 3d e7 6f 07 3e b0 70 69 3e 99 b9 29 3d
       0.032590933 0.13226281 0.22796893 0.041436765
0000c0 b5 3a a0 3d 45 a5 e0 bd bf 99 57 bd 6f 1f 97 bd
       0.078236975 -0.10969023 -0.052636858 -0.07379042
0000d0 f7 06 14 be 6f 54 91 be ff 8d cc 3d 08 65 21 3e
       -0.14455782 -0.2838473 0.09988021 0.15761197
0000e0 a3 75 04 be 44 b7 86 3d db 23 4a 3e 6e fe e8 3c
       -0.129355 0.06577924 0.1974024 0.028441634
0000f0 86 15 bb bd fd fa 3b be ff 73 bf 3d e9 86 2a bd
       -0.09134965 -0.18357463 0.093482964 -0.041632567
000100 b5 46 d4 bc f8 88 d9 3d 3f 3e 97 bd d0 5b d3 bd
       -0.025912622 0.10621828 -0.073849194 -0.10320246
000110 b3 f6 9a be 36 8b d9 3d ff 18 36 3e 61 3e c2 be
       -0.30266342 0.106222555 0.17782973 -0.37938216
000120 d1 4d 34 bd 57 eb 2d 3d 26 e7 f6 bd 3d 10 e1 3c
       -0.044019524 0.042460766 -0.12055807 0.027473563
000130 17 91 d2 3c 45 13 76 bd 74 64 f4 3c 37 06 4d be
       0.02570395 -0.06007697 0.029833056 -0.20021902
000140 49 69 e4 3d 0b c5 ba bd f3 1f cc 3d 5f df 32 3d
       0.11152894 -0.09119614 0.09967031 0.043670055
000150 25 e9 57 bd 22 87 99 3e 42 c2 61 bd e9 4c 86 be
       -0.05271258 0.2998591 -0.0551169 -0.26230553
000160 e8 a0 f8 be 27 65 bf bc 7c b7 bd bd d4 f0 65 be
       -0.48560262 -0.023363663 -0.092635125 -0.2245515
000170 c9 48 08 be 5d 81 0b 3d 48 c2 02 3d b5 22 1b 3d
       -0.13309015 0.034058917 0.031923562 0.037874896
000180 e8 7b 54 be ea 59 24 3e b2 49 0b be 4c ab da 3d
       -0.20750391 0.16049924 -0.13602331 0.106772035
000190 1a 30 a3 3d 31 ac 54 bd 30 0d cc 3d 12 3f b1 3d
       0.07968159 -0.051922027 0.09963453 0.08654608
0001a0 25 50 1d 3d 78 16 fe 3d 24 df bb 3e 7c 23 47 3e
       0.03840651 0.12406629 0.3669368 0.1944713
0001b0 73 2d bf bd 34 6f 35 3c 7e 73 e1 bc 9a 59 81 3d
       -0.093348406 0.011073876 -0.027520891 0.06315918
0001c0 da 8e 24 be 88 11 8b be a2 ee 79 be ba 0d c9 bc
       -0.16070119 -0.27161813 -0.24407437 -0.024542678
0001d0 98 a9 7c 3d bd 32 9c 3d e7 46 55 be 78 b2 73 bd
       0.061685175 0.07626865 -0.20827828 -0.059496373
0001e0 eb 60 34 3e 13 de b4 3e 30 04 62 3e 3c c2 6d be
       0.17615096 0.3532568 0.2207191 -0.23218626
0001f0 3b c4 c9 ba ee 57 97 3c 00 af 0b 3e 01 61 95 be
       -0.0015393564 0.018474545 0.13640976 -0.2917557
000200 ec c0 cb bd 32 81 42 3e a7 9c e2 3d 0a db 00 3e
       -0.09948906 0.18994597 0.11065035 0.12583557
000210 db 3b 38 3e b8 bf 68 be b5 83 cf be 4c c4 06 3d
       0.17991583 -0.22729385 -0.40530172 0.032902047
000220 83 97 be bd 5f ad 82 3b 41 83 22 be 5a f8 23 be
       -0.09306242 0.0039879526 -0.15870382 -0.16012707
000230 82 f8 6b be bf 42 67 bd 87 45 57 3d 4c eb 97 bd
       -0.23044017 -0.05646014 0.05255654 -0.07417926
000240 c2 14 97 3e 52 b5 f9 bd 6c aa 83 be 6f d7 83 bd
       0.29508024 -0.12192787 -0.2571596 -0.06437575
000250 06 57 09 be 57 07 58 3d eb a5 4f be 25 93 f6 bd
       -0.13412103 0.052741375 -0.20278136 -0.12039784
000260 f2 23 90 be 61 ba 24 bc 10 0c 5b 3e e8 41 df 3d
       -0.28152424 -0.010054202 0.2139132 0.109012425
000270 54 55 01 3e dc 38 82 bc 30 8e 23 be b3 39 5f be
       0.12630206 -0.015896253 -0.15972209 -0.21799354
000280 98 8c 81 bd d7 71 93 be de ce 98 3e af 4b 7b 3e
       -0.06325644 -0.2879779 0.29845327 0.2454059
000290 a4 0b e1 3d 50 1c f3 bc 90 5f b1 be 43 8d 17 be
       0.109885484 -0.029676586 -0.3464322 -0.14799981
0002a0 8b ba d8 3c cc 37 d4 bd 80 b2 32 bd b3 cc a1 3d
       0.026456138 -0.10362205 -0.043627262 0.079003714
0002b0 f2 1b 5b be de 26 cd 3c e5 a3 e5 3d 82 f5 af be
       -0.21397379 0.025042947 0.11212901 -0.34366995
0002c0 c3 72 1e 3e 02 9b a9 3d e3 c0 da bd 4f 12 b2 3d
       0.15473466 0.082815185 -0.106813215 0.08694898
0002d0 6e 60 b5 39 e5 e5 e7 3d 82 76 88 be cd 4e 54 3e
       0.00034594856 0.11323146 -0.26652914 0.20733185
0002e0 e1 a4 98 bd 9d 76 51 3e 69 3f 30 be ab 4a 23 3e
       -0.07453323 0.20455404 -0.17211689 0.15946452
0002f0 75 12 10 3c 70 ec ae bd c3 90 b2 bd 0b 8f dd 3d
       0.008793463 -0.085411906 -0.08719017 0.10818299
000300 fd 22 44 be 02 d3 b3 3d ac 58 91 3d 22 aa ef bd
       -0.19153972 0.08780481 0.07096991 -0.11702372
000310 76 a2 d3 3c a5 ff af bd 67 91 a6 be 9f 27 23 be
       0.025834303 -0.08593682 -0.32532808 -0.15933083
000320 9f 7c 18 3d 19 61 7f bd 6c b2 22 3e ee ad 3c be
       0.037228223 -0.06234846 0.15888375 -0.18425724
000330 8e f4 e9 3d a3 bb e3 be 88 4b 13 bd 9c cb 2c ba
       0.11423598 -0.44479093 -0.035960704 -0.00065916195
000340 05 34 3b 3d 28 f3 30 be 76 15 7d bd 2c b2 62 be
       0.045703907 -0.17280257 -0.061788045 -0.2213828
000350 ab cd 2d 3e 6e ca 1b be 23 bc 96 be 37 10 5f bb
       0.16972987 -0.1521394 -0.29440412 -0.0034036764
000360 09 fc 2f be 9c b6 6d be dd 2f 40 3e 5c 5d 61 3d
       -0.17185988 -0.23214191 0.18768258 0.055020675
000370 6e 6a e3 bd cc 40 29 be 63 a6 91 bc 94 17 18 3e
       -0.11104284 -0.16528624 -0.017779535 0.14852744
000380 a8 9a 28 be a1 78 c0 3c a5 55 7f bc 33 12 80 3e
       -0.16465247 0.02349502 -0.015584384 0.25013885
000390 5d 22 cf 3e 62 21 a3 3d 63 f0 d9 3d 74 ed 87 3d
       0.40455905 0.07965352 0.10641553 0.066370875
0003a0 1d fc 80 3e be 73 9b 3d a3 f0 ea bc 65 a9 18 3d
       0.25192347 0.075904354 -0.028679198 0.037270922
0003b0 7c 19 4b 3d ec 5c 4d 3c 68 70 9d 3e 0b ab be 3d
       0.04958485 0.012534361 0.30749822 0.093099676
0003c0 02 87 f1 bd 8b ed 7b be 3b 55 e4 3d d0 88 6a bd
       -0.11793329 -0.24602334 0.11149069 -0.05725938
0003d0 a6 6e 3a 3d 41 09 28 bd 10 b7 fc 3d ff 8c 81 3d
       0.04551568 -0.04102445 0.12339604 0.06325721
0003e0 5d ff 4d 3c f5 39 0d be 53 f8 5a be 0b 1c 30 3e
       0.01257309 -0.1379164 -0.2138379 0.17198198
0003f0 9f ac b8 bd 00 77 d4 bd e7 56 8e 3e ca 70 fc 3d
       -0.090173 -0.1037426 0.27800676 0.123262

b3.bias f4 [64]
000000 41 99 89 3d 90 0a d3 3d 7b 12 25 bd 79 59 08 bd
       0.06718684 0.10304749 -0.040300827 -0.033288453
000010 44 c4 44 3d a2 ee af bd aa 9e 80 3d 55 5c 4a 3c
       0.048038736 -0.085904375 0.06280263 0.012351115
000020 24 08 12 be 61 d2 94 bd ee a7 51 bd 5e 95 bc 3d
       -0.14260918 -0.07266689 -0.05118554 0.09208177
000030 6a 88 29 3d 7b 61 d5 3d 3c 65 a1 bd ca 21 af bd
       0.04138986 0.104189835 -0.07880637 -0.085513666
000040 38 09 5b 3c dc f6 fa bc 71 93 0b 3c 7a e8 95 3d
       0.013368897 -0.03063529 0.0085190395 0.07319732
000050 6e e9 60 bd 42 6a 46 be 53 eb 24 bc d3 88 b2 3d
       -0.054910116 -0.19376472 -0.010065871 0.087175034
000060 74 9b c1 3d be 88 02 be 05 38 8c be 31 7f e3 bd
       0.094534785 -0.12747476 -0.2738649 -0.11108244
000070 ce a5 0b 3e 9e bf 36 bd de e4 d6 3c 5b 38 b9 bd
       0.13637468 -0.044616334 0.02623218 -0.09043952
000080 8c 23 e0 bd 1e 5d c3 bd bd db a0 bc 9c 34 57 3d
       -0.1094428 -0.09539245 -0.01963603 0.052540407
000090 c3 69 af bc b0 ba 01 be d1 d6 fd 3c 29 65 d4 bd
       -0.021412736 -0.12668872 0.030986222 -0.10370857
0000a0 5c 26 c9 bc fa 64 83 3c 67 e1 e2 3d d0 70 19 3e
       -0.024554424 0.01603936 0.11078148 0.14984441
0000b0 a2 49 e9 bd 4b d9 ef bd cd 06 b6 3d 2d 53 d6 bd
       -0.113909975 -0.11711367 0.08888016 -0.10465083
0000c0 82 62 02 be 98 7d e7 bd 87 c2 f8 bc cb 4d 0d 3d
       -0.1273289 -0.11303252 -0.030366195 0.034498017
0000d0 a2 84 e3 3c 12 bd 51 3d 0a 73 8b bc ed 29 ae bd
       0.027773205 0.051205702 -0.017022628 -0.085040905
0000e0 ee 66 33 3d 69 1a 89 3d 4d d2 82 bd 5b c6 eb bc
       0.043799333 0.066944905 -0.06387768 -0.028781107
0000f0 fc 0b 0c be 95 79 14 3d fc bc ac bd 46 ea 25 be
       -0.13676447 0.036248762 -0.084344834 -0.1620265
