nets/model_epoch_22.pth (torch, 648794 bytes, 25 tensors)

a1.weight f4 [16, 5, 3, 3]
00000000: 4a70 e33d 9588 9a3d 5c28 adbc 00f7 c7bd
00000010: 3040 4fbd 2d57 073e 508e 863c b927 7d3d
00000020: 1e18 bbbe 15cf d8bc f0c1 95bd 8f3e 42be
00000030: 775f 243d ab3d cebc a377 10be e58f 85be
00000040: 29ad 13be 8527 15be 0b3a 113d 2ddb 08be
00000050: 851f f03a 3b1c 61bb 1657 dfbd 9b11 a73d
00000060: e332 58be 9f3b 10be 1607 b83b c747 34be
00000070: e341 48bd 6c70 5c3d 3258 f1bd 4c12 f3bc
00000080: 31da b6be 3e58 4dbe 60a5 c2bd 7d34 cb3d
00000090: 5e38 2cbe 10e2 94bd c59e 14be 9885 efbc
000000a0: de82 37be a107 01be 082c 30bc 42d9 f2bd
000000b0: b449 3dbd 3c39 233e 6804 d8bd 4e9f b2bd
000000c0: 932c 8e3e c31e 253d a06b 973e 8e86 e3bc
000000d0: bf17 d83e fa35 3ebe 5167 8a3d f072 843e
000000e0: 2941 8a3d d07c 95bb 3ba9 203e bc2f 6a3b
000000f0: f1c0 e33d 041c e1be 9739 013d ef04 353e
00000100: 6adf 65bd 800d 98bd b636 973e b5dd 5a3d
00000110: 6d2e aebe a381 c3bd 1885 22be 2127 763d
00000120: e9da e2bb a4da aabe 405a 95be 727d 8d3b
00000130: 0449 853e 2b08 a73d 02e1 e23d f872 d63d
00000140: 1a77 c7be c832 893c fdb3 253d 9236 10bc
00000150: dbca 9d3d 59cf b13c 0581 1ebd 24d9 93bd
00000160: 13d1 8fbd bb00 d43c 2ed0 86be 5d88 923d
00000170: 340b a43e 628d 363d af8b 353e 290b c43c
00000180: e7f5 da3e 55d1 c43e 37c2 a43d 58ef 113e
00000190: 497b 383e 5ccf 393e a7f9 14bd 80ee 79bc
000001a0: 3d66 053c 9fa1 75bd acbe 0ebe a150 d03d
000001b0: 6af5 583e 30ca b43e 6f1d 293e 3c73 9b3d
000001c0: 8e3f 18be 6db7 8b3e 0130 7fbe 3afc cebd
000001d0: 9198 0b3e 593e 30bb 3588 73be 33b5 59be
000001e0: 2ed7 053d cffd eabd 4bb3 d9bc 8f7a 7d3d
000001f0: 0b77 1d3d 6c3c 84be 8001 5dbc 9da3 3c3d
00000200: cfcb c93c 493c 45bd a91a e43d fa80 02be
00000210: 3981 c0bc 5d38 62bd 20b1 863d 328c 0d3e
00000220: 74de bc3d 2915 5abe d87f 1c3e 8ab4 e23d
00000230: ad95 65be 8246 763d 6c47 99be dc41 773e
00000240: c656 12be b06e b2be b9a9 3ebe 86b4 89be
00000250: 4281 e1bc dbfb edbe 1752 393d 8ec3 7f3c
00000260: 6b6f f2bb ba42 c0ba 0602 a83d 7014 cb3c
00000270: 28cf 0ebe 4588 a3bd 2305 7cbe 8cb4 18be
00000280: becc 26be e2c8 9d3e d2f1 3c3e 4981 6a3e
00000290: 936a 3e3e a0bb 8b3e a11b d0bd 7096 f03e
000002a0: 1b05 163e d1e5 40bd be17 55be f222 01bd
000002b0: d813 f53c 159d 313d b366 81bc 5836 efbc
000002c0: 2167 94bc b417 3f3d 2eb7 5bbd c8b0 c6bc
000002d0: 612d 313e db59 9b3c 60cc 51be 5bb4 973d
000002e0: c896 003e 8b67 813e ccdc 463d 5d1a 243e
000002f0: 6241 7b3e 1f37 133e dacd aabd c810 d53c
00000300: ba7d 2bbe dc1c 99bd 25fa f9bd 01f6 293e
00000310: 3409 bc3d 3de4 01be 3b07 c13d 403b 253e
00000320: 83a9 b03e 4120 6bbd 0971 cfbb d6e7 c0bd
00000330: 6415 7bbe c201 7e3e a59e a6bc 8246 02be
00000340: 5c3f b4be 5f92 b0be fb88 933d 213f 823d
00000350: 2412 0bbe 5336 14be 3b41 31bd 6eee b23c
00000360: 695b aabc 7623 ae3c 1791 e6bc 429a 3b3d
00000370: e7d1 cdbd 17ca f23c b62c 7c3c 524f d13d
00000380: 1824 67bd 7c6b cbbd 007f 71bd 132d 643e
00000390: c758 e2bc f994 cfbd 1295 01bd 8e95 243e
000003a0: fc15 ffbd afae 953e ff0c 06bd 7bca a63e
000003b0: 9ff2 813e 0331 cfbb 7655 a5bc 55ce 8cbe
000003c0: 54fe 463d 71a5 493e 45e6 dfbe 0ce8 133d
000003d0: d400 b03d b19e cc3d 8ce2 27be 5d8d 7b3e
000003e0: 773e 84be 8db1 2abe 6110 e8bd 0a1c 9bbe
000003f0: 113c 7e3e 1c46 51bc 147f b43d c980 1f3d
0.11105402 0.07545582 -0.021137409 -0.097639084 -0.050598323 0.13216849 0.016425282 0.06180546
-0.36541837 -0.026465932 -0.07312381 -0.18969177 0.040130105 -0.02517589 -0.14108138 -0.26086345
-0.14421524 -0.14565857 0.035455745 -0.13364859 0.001831994 -0.0034349102 -0.10905282 0.08157655
-0.21113162 -0.14085244 0.005616079 -0.17605506 -0.04889096 0.05381815 -0.117844 -0.02967181
-0.35713342 -0.20053193 -0.09504199 0.09922121 -0.16818377 -0.072696805 -0.14513691 -0.029238507
-0.17921016 -0.12600566 -0.010752685 -0.11857845 -0.046212867 0.15939802 -0.105477154 -0.08721791
0.27768382 0.04031254 0.295743 -0.027774122 0.42205617 -0.18575278 0.06757987 0.2586894
0.067507096 -0.004561998 0.15689556 0.0035734018 0.11120785 -0.43966687 0.031549063 0.17677663
-0.056121267 -0.0742445 0.2953393 0.053434093 -0.34019795 -0.095462106 -0.15871084 0.06009591
-0.006923069 -0.33369935 -0.29170418 0.0043179328 0.2603227 0.08155855 0.11078073 0.10471147
-0.38958055 0.016747847 0.040454853 -0.008802073 0.07704707 0.021705316 -0.03869726 -0.07219151
-0.070222996 0.025879255 -0.26330703 0.071549155 0.32039797 0.044568427 0.17729066 0.023931103
0.42765734 0.38440958 0.08044856 0.14251459 0.1801578 0.18145508 -0.0363709 -0.015254617
0.008142051 -0.059968587 -0.13939923 0.10171629 0.21187368 0.35310507 0.16515134 0.075903386
-0.14867994 0.2728838 -0.24920656 -0.10106702 0.13632418 -0.002689263 -0.23782428 -0.21260528
0.032675914 -0.114741914 -0.026574751 0.06188446 0.038443606 -0.25827348 -0.013489127 0.04605447
0.024633316 -0.048153196 0.111378975 -0.12744513 -0.023499118 -0.055229533 0.06576753 0.13823012
0.09222117 -0.21297134 0.15283144 0.11069591 -0.22420378 0.060125835 -0.29937303 0.24146217
-0.14290914 -0.34850073 -0.18619432 -0.2689554 -0.027527455 -0.46481213 0.045244303 0.015610589
-0.007398536 -0.0014668324 0.08203511 0.024790019 -0.13946211 -0.07984976 -0.24611335 -0.14912623
-0.1628904 0.30817324 0.18451622 0.22900881 0.18595342 0.27291584 -0.1016152 0.46989775
0.14650385 -0.04709417 -0.20809838 -0.031527467 0.029916689 0.043362696 -0.015796041 -0.029200718
-0.018115582 0.046653464 -0.05364149 -0.024254218 0.17302467 0.018963745 -0.20488119 0.07407447
0.12557518 0.2527431 0.048550412 0.16025682 0.2453666 0.14376496 -0.08340044 0.026008978
-0.1674718 -0.074762076 -0.122059144 0.1659775 0.09181443 -0.12684722 0.09425207 0.16135883
0.34504327 -0.057403807 -0.0063306135 -0.09419219 -0.24519879 0.24805358 -0.02033932 -0.12722209
-0.3520459 -0.34486672 0.07203861 0.06359697 -0.13581139 -0.14473848 -0.0432751 0.021842208
-0.02079554 0.021257143 -0.028145356 0.04580141 -0.10049801 0.02963738 0.015391519 0.10220207
-0.056430906 -0.099326104 -0.058959007 0.2228282 -0.027630223 -0.10135836 -0.031636305 0.16072676
-0.12455365 0.29234836 -0.032727238 0.32576355 0.25380418 -0.0063229813 -0.020182353 -0.2750117
0.04858239 0.19692017 -0.4373037 0.03610997 0.08593908 0.099912055 -0.16395015 0.24565645
-0.25828907 -0.16669293 -0.11331249 -0.3029483 0.24827601 -0.012773063 0.08813301 0.03894118

a1.bias f4 [16]
00000000: 7d05 3b3d c356 98bd 3e37 55bd 0fc4 ddbd
00000010: 763e 0f3e ac73 bfbd b08a 223d c3df acbd
00000020: 4973 14be f506 d23d 053c 0dbd 51c1 9f3d
00000030: bcf8 83bd f17a 50bd 1afa 623e ee68 483e
0.04565953 -0.074384235 -0.052054636 -0.10828411 0.1398867 -0.093482345 0.039683044 -0.08441117
-0.14497103 0.10255233 -0.034481067 0.07800544 -0.06443927 -0.050898496 0.22165719 0.19571277

a2.weight f4 [16, 16, 3, 3]
00000000: c5fb ba3d 859a 86be 98c9 08be ea27 cbbc
00000010: f212 2d3e 0cfc 08be 8df0 683d 98b4 0a3b
00000020: 348c 8a3c a6ef b9bc df91 c53d cece 21bc
00000030: 46ed ebbd 1266 e93d f1c5 14be b5e9 52bd
00000040: a582 fd3d 5b1e b0bc be2a 10bd 8bd2 10be
00000050: 0a53 42be 49d6 bcbe aa9d b4bd e02f 56bb
00000060: bfe5 5bbd 6dd1 99be 2783 d13d cd9f f1be
00000070: 01ea 4d3e db92 74be fd17 ca3e db50 34be
00000080: 134b 233e 7464 c63d b8a9 393d 08f1 533d
00000090: 7e32 2e3d fba7 a9be 4c5b b7bc bbcb ef3b
000000a0: dd39 39bc 3f23 1fbe 28cf b7be 0090 62be
000000b0: 5737 2cbe fe53 8f3d 7d25 fdbd 8e84 efbd
000000c0: 6649 2c3e be04 4a3d 12d1 df3d eb48 a6be
000000d0: e0e5 e93d a3d8 2b3e cd47 a4bd 8961 ff3c
000000e0: 562c b23c 60ae a73e 2663 8d3e 4fe8 573d
000000f0: fb33 f03d 531c 53bd 18bd 843c d112 7a3e
00000100: a4cb 30be 898c a9bc 0ae2 90be b540 933c
00000110: de0d efbd 9cf4 f4bd 608f aebd f42d 463e
00000120: e85c 583e c839 be3d e6b9 7e3a e475 a0bc
00000130: 8a0d 8a3b ec53 2e3e 19de 19be 978b 9c3e
00000140: 824b c03d 685b 903d 8422 383e 84e6 e2bc
00000150: 6543 f3bd 5d3e f03d c8b7 a93e ab2f 9c3d
00000160: e7ae 933d 55e7 ee3d a0b3 1fbe 22f8 7cbd
00000170: 1581 00be 9ebc a33d b449 303e 20f0 83be
00000180: cbcd 863d 1183 48bd b6ac 173e 2cb7 8bbe
00000190: e455 0bbd 9bbf 47bc 38a2 f9bd fa24 02be
000001a0: a927 a03c b4fc c33e 8e41 ff3c d69a d2bd
000001b0: 5c0a 80bd bacc d9bd 6183 2a3d 8855 38bc
000001c0: 0b36 d63e b664 8abe 9d97 d13e 4785 3b3e
000001d0: 8e05 26be a75f 0e3e 19c7 8ebe 7bec e1be
000001e0: 54f1 8c3c 774a a93e 6179 2a3e 9590 6b3e
000001f0: fa5e 2fbe 8979 5b3c 325c 95bd a0f4 eabe
00000200: 515d 8ebd a177 afbc 034e 8dbc 296a 3abe
00000210: 268a cdbd 6f5a 1dbe ee93 0c3e 3846 8cbe
00000220: 4909 cfbc 7004 e9bd 5f1e d8bd c561 c8bd
00000230: 7c04 c23e 6450 5cbe ef21 0f3d fda7 ea3c
00000240: e59c fbbd 73bf 803c b83b cf3d 30d9 23be
00000250: 1010 9dbd f884 cdbc e465 95bd 62dc 9abd
00000260: 4d80 b0bd a961 b4bc 3b9c 81bd 716e 2e3e
00000270: c0c9 3cbd aaa2 ecbd 6366 513b f935 b03d
00000280: 4c7f b03d 6cb9 b13d 88d4 af3d 79cf 28bb
00000290: 8de1 dd3d 24eb efbc ceda 2a3e 6b97 b43d
000002a0: 562e 5bbd 9c48 923d f34a a73d 7697 1dbe
000002b0: 0ef5 013e 811c 5b3e 16e4 6bbd 0a5f 58bc
000002c0: b0f3 c6bc a265 4e3d e834 5abd 4e9c 883e
000002d0: 2f83 783e a739 1ebe 45a3 123e 2ce0 a93d
000002e0: 2570 ad3d 7a71 86bd d888 093e 360f 43bd
000002f0: ebc1 03bd 69cb b0bd 6d56 a33d 8e49 fa3d
00000300: f2f7 6f3a ddbc f83c 8d15 3dbd c6a5 313d
00000310: c875 8f3d aad8 0dbe a27b c5bd bf18 1abd
00000320: fd89 d1bd 5847 bcbd 6677 09bd ea86 b33c
00000330: 1277 92bd 43c1 1bbe d266 7d3c 61c3 b33d
00000340: 0814 163e 0368 883d 3aa3 05be 8b40 6a3d
00000350: 7a1a 6c3a 0fb8 fd3d 114d 133c 4d09 b53e
00000360: 6749 a83a d79f cebd 5052 c63d 6f22 9abe
00000370: b961 883d 04f8 04be c4f3 51be 328d 753e
00000380: 47e8 47bd 108f 89bc 188f 9dbd 70db c23d
00000390: 2839 d23c fa26 2e3c fdc5 8c3d 655b c63b
000003a0: 286d 99bd cb4b 02be 6817 e43d f1a4 d43d
000003b0: 0293 38bd 0449 d23c 548a 62be ca20 3f3e
000003c0: 194a 86bd 81be 163e 5005 31be fe4d df3c
000003d0: 2341 9e3e 94b2 c63d 2803 cc3b 79e9 353d
000003e0: 2ae4 463e 70fa 0bbe a150 20be b63e 26be
000003f0: 9923 30bd 0904 653e ce57 cfbc 7e63 e4bd
0.091300525 -0.26289764 -0.13358152 -0.024799306 0.16901758 -0.13377398 0.056870032 0.0021164771
0.016912557 -0.022697281 0.09646963 -0.009875966 -0.11519866 0.113964215 -0.14528634 -0.05149241
0.12378434 -0.02149885 -0.035197012 -0.14142816 -0.1897699 -0.36882237 -0.088191345 -0.0032682344
-0.0536859 -0.30042592 0.102300934 -0.4719223 0.20108797 -0.23884146 0.39471427 -0.17608969
0.15946607 0.09687129 0.045327872 0.051743537 0.04252862 -0.3313597 -0.0223824 0.0073179877
-0.0113053 -0.15540789 -0.35900235 -0.22125244 -0.16817985 0.06998442 -0.12360666 -0.11695205
0.16824874 0.04932093 0.10928549 -0.32477507 0.11420798 0.16781859 -0.080215074 0.031174438
0.021749657 0.32750225 0.27614707 0.05271178 0.117286645 -0.051540684 0.016203448 0.2442124
-0.17265183 -0.020696895 -0.28297454 0.01797519 -0.11672567 -0.11960718 -0.0852344 0.19353467
0.21129191 0.09288365 0.0009717032 -0.019587465 0.0042130398 0.17024201 -0.1502613 0.3057525
0.09389402 0.07048684 0.17981917 -0.027697809 -0.11878089 0.11730645 0.33148026 0.076262794
0.07211094 0.11665217 -0.15595865 -0.061760075 -0.12549241 0.0799496 0.17215616 -0.25769138
0.06582221 -0.04895312 0.14811978 -0.27288187 -0.03401746 -0.012191678 -0.12189144 -0.12709418
0.019550161 0.38278735 0.031159189 -0.10283439 -0.06251976 -0.106347516 0.0416292 -0.011250861
0.41838107 -0.2702996 0.40935984 0.1831256 -0.16213056 0.13903676 -0.27886274 -0.44125733
0.017204918 0.33064625 0.16647865 0.23004372 -0.17126074 0.013395675 -0.072929755 -0.4588976
-0.069513924 -0.021419348 -0.017249113 -0.1820456 -0.10036115 -0.15366529 0.13728306 -0.27397323
-0.025272982 -0.113777995 -0.10552668 -0.09784273 0.37894046 -0.21515042 0.03494447 0.028644556
-0.12285785 0.01571629 0.10118812 -0.16000819 -0.07669079 -0.025087819 -0.07294825 -0.07561566
-0.086182214 -0.022019224 -0.06328627 0.17034318 -0.04609084 -0.11554463 0.0031951896 0.086040445
0.0861803 0.086779445 0.08585459 -0.002575843 0.10834036 -0.029286928 0.1668503 0.08817943
-0.053510986 0.071427554 0.08168592 -0.15389809 0.12691137 0.21397592 -0.057590567 -0.013206253
-0.024286121 0.050389893 -0.05327311 0.2668175 0.24268793 -0.1545168 0.14320095 0.082947105
0.084686555 -0.06564613 0.13431108 -0.04762193 -0.032167356 -0.086325474 0.07975469 0.12221061
0.0009154073 0.030363495 -0.04616313 0.043370984 0.07004887 -0.13852182 -0.09642722 -0.037621256
-0.10231397 -0.09193295 -0.033561133 0.021914918 -0.07151617 -0.15210442 0.015466409 0.087775
0.14656079 0.06660464 -0.13050547 0.05719046 0.0009006631 0.12388622 0.008990542 0.35358658
0.0012839258 -0.10089081 0.096836686 -0.30104396 0.06659264 -0.12985235 -0.20503145 0.23979643
-0.0488055 -0.01679185 -0.076933086 0.09514511 0.02566202 0.01062941 0.06873701 0.0060533755
-0.07491523 -0.12724225 0.11137277 0.103830226 -0.045062073 0.025669582 -0.2212308 0.18664852
-0.06557102 0.14721109 -0.17287183 0.02725887 0.3090907 0.0970203 0.006225962 0.04441211
0.19422975 -0.13669753 -0.15655757 -0.1623486 -0.0430027 0.2236482 -0.025310423 -0.11151789

a2.bias f4 [16]
00000000: d533 a1bd 2c31 efbd 0c41 83bd d25b 08bd
00000010: 38c2 623c 3fce cdbd 4f95 1cbc ec3d 16bd
00000020: 7c3f c33d 559a b3bd 4d15 ebbd 21ff 15bc
00000030: b3a0 c6bd 2f6d 0c3d dd7a 023e 540f 7b3d
-0.07871214 -0.11679301 -0.06408891 -0.03329069 0.013840251 -0.10049104 -0.009557082 -0.036680147
0.09533593 -0.08769671 -0.11478672 -0.009155066 -0.0969862 0.034283813 0.12742181 0.061293915

a3.weight f4 [32, 16, 3, 3]
00000000: 093c 0ebe 7791 8b3e ed4a afbe db14 a8bd
00000010: 2854 d3bd 3f11 b2bd 4a70 dbbe 7b7d a6bd
00000020: 10d1 133e e8a0 48bc e7c8 c3bd b056 23be
00000030: 1eb4 9cbc ff95 093e 0fac 113e 3422 6bbe
00000040: 1e7c 31be bc4c b2be ad9c 113e 3762 a83d
00000050: bea3 eb3d efc0 963d d916 063e 6b15 12be
00000060: be72 a2bd 4f4e 023d d9fd 9dbd b611 6ebe
00000070: 0aa5 113e 7cb8 ef3d 108e b63d c467 afbd
00000080: 36fd 063e bf87 bcbc df24 4fbe c744 993a
00000090: e676 383e a9cf bf3d 7ab7 dbbd abec c2bd
000000a0: cf6b 8b3e 1917 98bd b965 063e 2bc8 313d
000000b0: 8a40 673c de09 ad3d 2fa2 533d 35da 05be
000000c0: 6323 653e 0b57 23bc 4872 7f3e ca1f 68be
000000d0: 68a0 d4bd 8dd3 d43d 6a7d 9d3d fa46 633d
000000e0: 575b 2bbe c5b5 323d 2df3 cc3d a1cb e2bd
000000f0: 223e c43d 2799 853e 78c6 033d 8dc6 e33d
00000100: 1000 f93c 9ce4 313b bc3d 973d 444b 843e
00000110: 2e1e 99be da1c 9c3e 878d 94bd 2812 00be
00000120: aee7 82bc 914b be3d 9f4f 7cbd b9aa e83d
00000130: fe1b 6f3e 1128 043d d1bf c43c 3bc7 5dbe
00000140: 07cd 03be a8b6 b83c ebb4 413e f0f8 dbbd
00000150: 8244 5f3e af8b 2abd 0358 febc 8add 18be
00000160: dfc7 afbd 7983 e13d 9f7d 8fbc 6a13 623d
00000170: cce9 e2bc 1217 d83d 1670 7abe 0e46 ac3e
00000180: 0ae3 223d 7e0e f9bd 51fe 3fbe 86ea 65bd
00000190: c152 3bbe 19cb b9bd cfa9 17be e323 7b3e
000001a0: 6834 37bd 720f c2bd ec68 3a3e 1251 c8bd
000001b0: 879a 5cbd be31 95be b74f 4abe 0e92 0e3e
000001c0: 0508 583c bf69 843e 7c76 dcbe 9cf7 f13c
000001d0: bbfc f0bc d52d c63e edeb 7e3b 8ebd a5bc
000001e0: 72b9 723e ac45 89bd 1b14 e4bc 57f7 1a3e
000001f0: 7878 643c a9d5 203e 2ed2 a63e f94e 49be
00000200: 6e3e b5be 8c4a 543d 3a49 773e e81d 2abe
00000210: f4d1 fb3d 1292 80bd 57b2 67be b720 3f3d
00000220: c680 563d 8685 c83d 0752 72ba ac02 973e
00000230: 0011 1ebf ac0d 043e d5e9 5ebe 4930 30be
00000240: 92d4 043e 41b7 7abd 44a1 b63e 30ae c03d
00000250: b6b3 46ba 8b7d 033e 36eb a8bd e0fa a5bd
00000260: a8e9 703d d309 8dbd 0b40 b3bd 3be2 253e
00000270: 5f81 d0bd 62cc 11be 89b6 203e e758 263e
00000280: 5aab 333e 5ba4 fbbd 9228 9abe b855 9ebd
00000290: 7a1a 97bd 43fd fd3d 026f 1dbe 5c1c 65be
000002a0: 1f6e ffbd 9666 17bd bd5a 60be cff8 a7bd
000002b0: e4ee 15be c884 61bd a0bc fcbd 424f e63d
000002c0: 2c74 e53d 0265 9c3d a96c a2bd a95d ef3d
000002d0: ba24 50be 9dc9 e9bd a8f2 64bd e938 26be
000002e0: ee09 edbd 2b81 523e 6bbf 6ebd 50a6 dabd
000002f0: e2dd 4a3e 9dc0 833d 1b44 df3d 430e c73d
00000300: 6336 a63d 97e9 47bd 8aa1 773e 0d54 c9bd
00000310: e2c1 0dbd 53e0 c73d 83a1 21be 2408 64be
00000320: d5b7 853d 7dcc c2bc b03a 4dbe 3c9a 123e
00000330: 6169 693d 9f90 493e 78e3 3c3e bc26 6abe
00000340: 2d20 aebd 6a70 07bf 71d4 f63d 2f03 a73e
00000350: fa1e 18be fd59 ebbe 9a8a 933d e670 7c3e
00000360: 001a 413d a04a 833e 88c0 02be 2933 4dbe
00000370: 6a1f 80bc 3cb3 96be d2f3 c8bd e8de 00be
00000380: b538 e4bb 1e16 253e 923f c1bd f445 80bd
00000390: dcc4 63bc 6fe7 8abc 0fc2 5abe 0f4a b43b
000003a0: c4a8 1b3e 8bce 003d eb8d 403e a503 08be
000003b0: 04b0 5d3e 9c56 2cbe 37c4 0cbe e812 47be
000003c0: 70aa dfbd 04be aebe 4095 b8bd 902d a0be
000003d0: c448 b8bc ed0a eabc 26e2 dfbd f0fb 95bd
000003e0: 5ec5 093e db1a e9be f8f5 45be f9e9 1c3e
000003f0: a983 5b3e 0503 d0bd 80c8 423e 479a 39be
-0.13890089 0.27259418 -0.3423685 -0.08207103 -0.10318786 -0.08694696 -0.42859107 -0.08129402
0.1443522 -0.012245394 -0.095598035 -0.15951037 -0.019128855 0.13436125 0.14225791 -0.22962266
-0.17332503 -0.3482417 0.14219923 0.08221858 0.11505841 0.07361018 0.13094653 -0.14265983
-0.079320416 0.031812962 -0.07714433 -0.23248944 0.14223114 0.117051095 0.08913815 -0.085647136
0.1318253 -0.023013948 -0.20228909 0.0011693471 0.18014106 0.0936578 -0.10728355 -0.09517797
0.2723069 -0.074262805 0.13124742 0.043403786 0.014114508 0.08449148 0.051668342 -0.1307152
0.2237678 -0.009969483 0.24945939 -0.22668377 -0.103821576 0.103919126 0.076899365 0.05548761
-0.16734062 0.04363038 0.100073196 -0.110739954 0.095821634 0.26093408 0.032171696 0.11121855
0.030395538 0.0027144318 0.07384822 0.25838673 -0.29905838 0.30490762 -0.07253557 -0.12506926
-0.015979614 0.09291757 -0.06159937 0.11360688 0.23350522 0.032264773 0.024017246 -0.21658032
-0.1287118 0.022548035 0.18916671 -0.107408404 0.21803477 -0.04163712 -0.031047827 -0.1492826
-0.08583044 0.110114045 -0.017515955 0.055194296 -0.027699374 0.10551275 -0.2445682 0.33647197
0.039767303 -0.12160967 -0.18749358 -0.056131862 -0.18293287 -0.09071941 -0.1481087 0.24525408
-0.044727713 -0.09475602 0.18204087 -0.09781088 -0.053858306 -0.29139513 -0.19756971 0.13922903
0.013185506 0.25861928 -0.43059146 0.029537015 -0.029417386 0.38706842 0.0038897947 -0.020231988
0.23703554 -0.06702742 -0.027841618 0.15133415 0.013944738 0.15706505 0.3258223 -0.19659032
-0.35399193 0.051828906 0.24149027 -0.16612971 0.12295905 -0.06277861 -0.22626625 0.04666206
0.0523689 0.097910926 -0.00092437904 0.29494226 -0.6174469 0.1289584 -0.21768887 -0.1720592
0.12971714 -0.06120992 0.3566991 0.09408224 -0.00075798796 0.1284086 -0.08247988 -0.08104491
0.058816582 -0.068866394 -0.087524496 0.16199581 -0.101809256 -0.14238122 0.15694632 0.16244851
0.17545834 -0.12287208 -0.30109078 -0.07731193 -0.07378097 0.124018215 -0.15374377 -0.223741
-0.12472176 -0.036963068 -0.21909614 -0.08201753 -0.14641911 -0.05505827 -0.12340665 0.11245586
0.11203799 0.07636453 -0.079308815 0.11687786 -0.2032651 -0.11415408 -0.055895478 -0.16232647
-0.115741596 0.20557086 -0.05828802 -0.10676253 0.19811204 0.064332224 0.10901662 0.09719517
0.08115842 -0.048806753 0.24182716 -0.098304845 -0.03460873 0.09759583 -0.15784268 -0.2226873
0.06529204 -0.023779148 -0.20041919 0.14316648 0.056985263 0.19684075 0.18446147 -0.22866338
-0.08502231 -0.52905905 0.12052239 0.32619616 -0.14855567 -0.45967093 0.072041705 0.24652442
0.047143936 0.25642872 -0.12768757 -0.20039047 -0.01563998 -0.2943362 -0.0981213 -0.12585032
-0.006964768 0.16121718 -0.09435953 -0.062633425 -0.013901915 -0.01695606 -0.2136309 0.0055019925
0.15201098 0.031446975 0.18804137 -0.1328264 0.21649176 -0.16829914 -0.13746725 -0.19440806
-0.1092118 -0.34129345 -0.09012842 -0.3128476 -0.022495635 -0.028569663 -0.10931806 -0.07323444
0.13454196 -0.45528302 -0.19332111 0.15323628 0.21436943 -0.10156826 0.19021797 -0.18125258

a3.bias f4 [32]
00000000: a0a7 ebbd 896a 423d 3bb0 6a3d 97f6 4cbe
00000010: 4f66 3dbe 3c03 a13c 696f 013d 49e2 1ebe
00000020: 9f6c 77be 350c f2bd 1a5a acbd 897b 95bd
00000030: 607c a4be 2e73 b2bd 964f 72bd 6ed9 4f3e
00000040: c2d2 2b3e 8c03 b9bd 5135 d7bd 1ffb 37be
00000050: 9be6 c0bc 808a 08be 7c83 21bd 79c9 f6bd
00000060: 0875 44bd 73b3 063e 71a6 493e 3af5 56bd
00000070: e6e3 2b3c 1d8c 823d 9512 08bd bb18 e4bd
-0.11506581 0.04746488 0.057296973 -0.20015942 -0.18496059 0.019654863 0.03160039 -0.15516008
-0.2416253 -0.118187346 -0.08415623 -0.07298953 -0.3212614 -0.08713375 -0.05915793 0.20297787
0.16779616 -0.0903388 -0.10508216 -0.17966889 -0.023547461 -0.13334084 -0.039432034 -0.120501466
-0.047963172 0.13154392 0.19692399 -0.05247996 0.010491347 0.06374381 -0.033220846 -0.111375295

b1.weight f4 [32, 32, 3, 3]
00000000: 5383 92be d319 d53d 523b 6dbd 090a 56bd
00000010: 1b31 b6bd 467a 4ebe aab8 81bd 75a1 f03c
00000020: 0a44 55be 1e69 f93c 08fd a3be 02fd 673d
00000030: a86b 88be 45d3 eabe 87c2 8d3b c7ef d43d
00000040: dd9a 86be 3a97 af3e 1efa e2bc a552 913d
00000050: ae57 0c3d bfb1 1d3e f73d 4d3e 7280 0abd
00000060: 8a50 25bc eb05 8b3c fc99 dabd 96b9 653e
00000070: 291d 373e 5f13 903d d87c a63d 4394 80be
00000080: 208a 0d3e 7377 22be 9716 2abe 5c48 82be
00000090: 2354 803e 71dd 67be 3927 053d fc22 3dbd
000000a0: a51e 9a3b 4b17 87be 11f6 27bd f06d adbe
000000b0: 926d bf3a 6af7 cc3e 57bc ddbe 1188 60bd
000000c0: cefe 483e 7651 92bd 9fcf f63c 33b7 fd3d
000000d0: 8cae 70bd 0ec5 9fbe 6f31 24be cfe2 b8bd
000000e0: 6746 01bd f73b 77bd a359 953d 227a 383d
000000f0: d57a 3fbe 8d20 db3d 8fb3 3fbd 80a2 7dbd
00000100: c7c4 5a3d 31b5 273d aa98 2a3d a8ab 0bbe
00000110: 6f6b 1abd 992c 263c 1691 6e3d 88d8 c73c
00000120: 6be5 f0bd d87f 59be e8f3 7dbe 874e 8bbe
00000130: bdd3 4d3e 4e8d 63bd bfb5 83be 475e 203d
00000140: 6010 3d3e 5504 213e 178c dbbc d187 11be
00000150: 664f 533e a584 b83d d7d6 943e 1e5f da3e
00000160: 69e8 4abd 748d d1bd 05e5 f8bd f496 513e
00000170: 1412 5bbe cc2e a53d 1412 0d3e a5a1 d7bd
00000180: c72f 953d 128c 833d b161 883d 7077 51be
00000190: ab93 1abe f9d4 adbe dacc 7f3e 4133 abbd
000001a0: 5161 93be e4b1 513e 7e59 e43d 891f 0ebe
000001b0: 91a3 bcbe 778b 94be 1674 0dbe 3ce8 e6bd
000001c0: 5a4c 25be 062b 833e 27a0 64be 12d6 8abe
000001d0: ba24 e2bc 0e04 11bd c09a e83c 874a 2a3e
000001e0: 3896 b33d fd11 6b3c bdfc a1bd 4869 13bd
000001f0: 8352 9dbe 6ee5 d13d 1dc9 be3d 45f4 0e3e
00000200: 4be4 073c 70ff 15bd 44be 91be 0f69 113d
00000210: 991f a6ba 7a5f ebbd 2266 02bd 0f90 74bd
00000220: c5c7 45bd 6197 6dbd 98d2 15be aee7 f13c
00000230: 0f3c 90bd f031 b73c 7e18 8abe adee 2a3d
00000240: d74a 3dbe 8b48 223d 9796 3f3d c4ea 2f3e
00000250: ad34 513e 6076 083e e6fd ad3c 77d6 63bd
00000260: 3688 533e 7cac 573d d812 b53d f1b5 b2be
00000270: af94 91bc cbe0 c8bc 2cd8 cbbe 5327 80bd
00000280: e9ba 443e 0dff abbd 26cb 103e 92cf 283b
00000290: fe7a 7fbd 8dea d33c 17ab b1be be3c 60be
000002a0: 5b1c 9cbd e661 22be 7533 16be ebaf 76be
000002b0: aba2 843e 4bb3 5bbe 3e7c cb3d 2399 d93d
000002c0: bb7c 88bc f0c1 81bd 4c56 4e3e e45f 95bd
000002d0: 3456 1c3c a7d3 11be d561 003e 99ef 593b
000002e0: c2db ecbc fee9 adbd 4796 383e 2d22 b93d
000002f0: 3ef9 1b3e 2aac 7a3d 70d1 4bbe c054 07be
00000300: c1e3 023e 1dc9 d53d c85c 223e 69ef 603c
00000310: c5b3 f2bd 948a 2bbe 6c47 65be b4b2 863d
00000320: 6051 8a3b 98be 2abe 30f1 ae3d 6843 a23d
00000330: e1d0 d43d bd21 b1be 79b4 89bd e6fc 0dbe
00000340: 3f1f 1f3e d791 c7bd e0a0 d4bd 6d0e 4bbd
00000350: 5697 08be 5332 d8bd 2dfd 833e ee35 0c3e
00000360: 9434 6b3e 30d6 31be e7e9 8abe a184 8bbe
00000370: 0401 7d3d 0876 af3d 5d67 4d3c 46a0 0a3e
00000380: ca57 df3c 1261 f73d 34ea 823d e28d b8be
00000390: f420 a6bd d7cb 033d ec6d 863d 2b6c d6bd
000003a0: 43b2 963e 494f ed3d eabd a43e 14fa cdbc
000003b0: 8cba a0be c427 a23d 2703 08bd 8b5d 883c
000003c0: fdc9 243d b8f8 7d3e 3648 acbe a291 633e
000003d0: 8ae0 93bc dec3 83bd 555b 1cbf 5093 55be
000003e0: d6c7 b6bb 3861 de3c b5be 273e 586c 023d
000003f0: 51f1 943e 4f2b 80bd 2ae6 b8be 3877 2b3d
-0.28615817 0.10405316 -0.0579179 -0.052255664 -0.08896085 -0.20163831 -0.0633405 0.029373864
-0.20826736 0.030445632 -0.32028985 0.05663777 -0.26644635 -0.4586431 0.004326168 0.103972964
-0.26290026 0.34295064 -0.027707156 0.07095841 0.034263305 0.15399836 0.20043169 -0.0338139
-0.010090003 0.016970595 -0.106739014 0.22434077 0.17882217 0.07034945 0.08129281 -0.25113115
0.13822222 -0.15865879 -0.1661018 -0.2544583 0.2506419 -0.22643067 0.03250811 -0.04617594
0.00470336 -0.2638496 -0.04100615 -0.33872938 0.0014604798 0.40032512 -0.43307754 -0.054817263
0.1962845 -0.07144444 0.030128298 0.12388458 -0.05876021 -0.31205028 -0.16034482 -0.09027635
-0.03156128 -0.06035992 0.072924875 0.04503835 -0.186992 0.10699568 -0.0468021 -0.06192255
0.053410318 0.040944282 0.041649498 -0.136397 -0.037700113 0.010142469 0.058243833 0.024395242
-0.11762508 -0.21240175 -0.24800074 -0.2720835 0.20100303 -0.05555468 -0.257246 0.03915241
0.18463278 0.15724309 -0.026800198 -0.14211966 0.20635757 0.09009675 0.2907016 0.42650694
-0.04953805 -0.10232058 -0.12153057 0.2046774 -0.21393615 0.080655664 0.13776428 -0.10528878
0.072845034 0.06423201 0.06659258 -0.20455718 -0.15095393 -0.33951548 0.24980488 -0.08359385
-0.28785184 0.20478016 0.11149882 -0.13879217 -0.3684354 -0.29012653 -0.13813815 -0.11274764
-0.16142407 0.25618762 -0.22326718 -0.27116448 -0.027605403 -0.035404257 0.028394103 0.16629992
0.08768886 0.01434755 -0.07909534 -0.035989076 -0.30727014 0.10248838 0.09315703 0.13960369
0.008294175 -0.036620557 -0.28465474 0.035500582 -0.0012674212 -0.1149282 -0.031835683 -0.059707697
-0.04828622 -0.058005694 -0.14631116 0.029529419 -0.07042705 0.02236268 -0.2697181 0.041731525
-0.1848558 0.039619964 0.046774473 0.171794 0.2043025 0.13326406 0.021239232 -0.05562445
0.20657429 0.05265473 0.08841485 -0.34904435 -0.017771093 -0.024521252 -0.39813364 -0.062575005
0.19211926 -0.083982565 0.14139995 0.0025758487 -0.062373154 0.025868678 -0.34700844 -0.21898171
-0.07622596 -0.15857658 -0.14668067 -0.24090545 0.25905356 -0.21455114 0.09935807 0.10624912
-0.016661039 -0.06335819 0.20150107 -0.0729368 0.009542037 -0.14240895 0.1253732 0.0033254384
-0.028913382 -0.08491896 0.18026076 0.09039722 0.15231797 0.061199345 -0.19904113 -0.13215923
0.12782194 0.1043875 0.15855706 0.013728955 -0.118506946 -0.16752082 -0.22390527 0.06577054
0.0042211264 -0.16674268 0.085420966 0.07923013 0.10391403 -0.34596053 -0.067238756 -0.13866004
0.15539263 -0.097446136 -0.10382247 -0.049574304 -0.1333898 -0.105564736 0.25779095 0.13692448
0.22969276 -0.17366862 -0.27131578 -0.27249625 0.061768547 0.085674345 0.012536851 0.13537702
0.02726354 0.120790616 0.06392327 -0.36045748 -0.08111754 0.03217682 0.06563935 -0.1046985
0.29432878 0.11587388 0.32176143 -0.02514366 -0.31392324 0.07917741 -0.03320613 0.016646167
0.040231694 0.2480191 -0.33648843 0.22223523 -0.018051405 -0.06433843 -0.6107686 -0.20856977
-0.0055780215 0.027145967 0.16381343 0.031841606 0.2909036 -0.062582605 -0.361131 0.041861743

b1.bias f4 [32]
00000000: d292 93bd 1aa3 1bbe 610b 6fbe 571e 08be
00000010: f353 7e3e d426 e3bd df0b a8bd c39c 963c
00000020: 9aa0 2abd b58d 7bbe 798b 41be fc11 543d
00000030: b98f f6bd 0e0f 46be d3b3 033d 8c7a 01be
00000040: 7f17 a8bd 235e 9bbe 769e e1bd 871c c03d
00000050: 4a72 adbd 3700 31be 3432 743e ac27 92be
00000060: fde8 06bd e27b d4bd 1bea 90bd 8d37 b6be
00000070: 78ea 56bd f7ae 3cbc 7458 8e3d 5d6f cdbd
-0.07205738 -0.15198937 -0.23344184 -0.13292824 0.24836712 -0.1109139 -0.08205389 0.018385297
-0.041657068 -0.24565776 -0.18900861 0.051774964 -0.12039132 -0.1934168 0.032153916 -0.12644404
-0.082076065 -0.30345258 -0.11016552 0.09380441 -0.084690645 -0.17285238 0.23847276 -0.28545892
-0.03293704 -0.10375191 -0.07075902 -0.35589257 -0.0524697 -0.011516324 0.06950465 -0.100310065

b2.weight f4 [32, 32, 3, 3]
00000000: 8da0 483e 1de6 5b3d b4c7 b6bd 8de7 413d
00000010: a8c1 1ebe 57d7 563e fdbc 4bbd 88ee f4bd
00000020: 2f8b 7e3e 8587 453e 1e6e 063d bb06 e8bc
00000030: 2ca1 a2bd 00e9 94bd 50e5 6abe 81cf 1c3e
00000040: 417a 183e 0047 c3be 7503 08be 11b3 383e
00000050: 0c5e 96be cb83 61bc 48e1 51be c1ce c53d
00000060: b26d c7bd 6781 45bd 16b2 16be 269b d53e
00000070: 28b9 a9bd bcd2 203e 35bf ea3e 2bf3 60bd
00000080: 8a06 ecbd dfba 87bc eccb b0be c546 c93b
00000090: d1fb 6dbd cd3f 893d 5085 8ebe e1d7 8dbc
000000a0: 2e76 4b3e 9c54 44be 8e18 c8be 1fdd f93d
000000b0: 22bc 473e 2ada 843e 9371 38be c409 ccbc
000000c0: 0869 3cbe 72ee d1bd 9468 9bbe 7465 efbb
000000d0: a3e2 b53e f2a4 8f3e c0a3 a73c 128d 5ebe
000000e0: a3c8 ab3d dfe6 bbbd 75ef 9abd 727a 1abe
000000f0: 3ac5 2e3d 747e f93d 9645 6ebe dec5 a93e
00000100: ef33 02bc 7faa 2dbe 591c c2bd a16e d63d
00000110: f9d2 613d 6bb9 d4bb 315d 643d e4a3 17be
00000120: 616e 543b 935c 18be 478b 593e 4c05 063b
00000130: 52f7 a3bc 46ee 92bd 1b22 c8bd 9132 a23c
00000140: d6d3 8abe dfd3 92bd bab0 8ebe f363 29be
00000150: 9175 dd3d af5e bfbd abde 733e 3c52 a73e
00000160: 8697 f83d d8de aebd 76da 5bbd c324 37be
00000170: 276c f2bc eb3d c4bd 898e dcbd ca65 0dbe
00000180: 6421 6c3e e1cf 263e bbcd 75be 34c0 d93d
00000190: 3b89 a0bd ba2a f63d 69c7 a5bd 38c0 253d
000001a0: b11d 28be 37fd 92be c218 fb3d 1edd 07be
000001b0: 181b 82be 9a01 e5bd f552 89bd f6a7 da3d
000001c0: 3e8a 2dbd cbd0 14be 0e8b 83be ffad ab3d
000001d0: 41c9 313d d255 6ebe 573c 0cbe 01f8 f0be
000001e0: 4040 793c 6db6 91be 8dea 303d b7de 1cbe
000001f0: 57b0 44bd f1dc 4bbe 6630 ef3d 8daf 9f3c
00000200: bfc3 a4bd facd 58bd c974 e1be 1621 a8bb
00000210: a500 07be 4607 023e 9346 513c 0f09 08be
00000220: 8dd1 c2bd 3b02 30bd d100 383e 44f3 d5be
00000230: 87ad c63d 2b5f 2ebd 91b3 cf3d ff5a 3e3d
00000240: a0ab 943e 51c0 52bc e470 0ebe fc02 c73c
00000250: b6e7 51be fdf0 373d b6f6 913d 8439 7e3e
00000260: 93bc c9bd 9ec4 a5bc 021d 063d 969e 8d3d
00000270: a003 3b3e 3f7b c63c 6dd6 893c d441 08be
00000280: e6c2 a63d 2769 7abe a019 4bbd 2525 473d
00000290: e9d3 1fbc b015 85bd fa9f d2bd a9b1 81be
000002a0: 3bae c7bd c69f 24be cce8 c73b 4dca 813e
000002b0: 2935 c6bc 9523 56bd 213b 9f3d 15b4 e83d
000002c0: 767f e33d f24e 9abd 0077 cf3d 76b6 34bd
000002d0: 6773 6cbd e724 46be 4111 42bd 0723 253e
000002e0: 1553 75bd fa78 a9bd 33f8 86be 6435 08bd
000002f0: ae8f 48be 8a03 88be 063d eabd 4b65 2e3d
00000300: f252 243e bb00 433e 8c3a 923e edb7 61bd
00000310: 4ff7 efbd 2a4c 9ebd 86a3 543e 3905 5cbe
00000320: 695e ec3d f07a 803d 2a6a 0abd effd 1d3e
00000330: bef2 e2be d372 7b3e 63f0 82bd 2986 3fbe
00000340: d226 52bc 1c8c 6f3d 0676 dcbd 92cc a3be
00000350: 1963 193f abdf 863c ace7 613c c6e0 ef3d
00000360: c39c 9abd a192 7dbd 84b0 95bd 3d6e 963c
00000370: a2f8 00be 54ad 253d 0cfb 663e fe26 123e
00000380: 8703 9abe f76f 04bb 8dff 21be 3a8e a23d
00000390: de14 143b 3d4f 7e3e a308 e1bd c0f7 3bbe
000003a0: 3a5f 30be 60fa a03d 0155 a23d e3e7 d0bd
000003b0: f4be 2e3d 344c 1bbd 27a0 e03d 8ceb cb3d
000003c0: c3c3 8dbe c9b0 68be da33 16be 9385 c83d
000003d0: 8628 10be b0bf 8f3e 2969 b53d 456f b2bd
000003e0: a6c5 41be 0e22 15be d170 86be 2b0e 743d
000003f0: b019 183c d597 bd3d 434e 863e cc4a df3c
0.19592495 0.05368625 -0.08924809 0.047339965 -0.15503561 0.20980583 -0.04974078 -0.11959559
0.24857782 0.19289978 0.03281986 -0.028323522 -0.07940897 -0.07271004 -0.22939038 0.15313531
0.14890386 -0.38140106 -0.13282569 0.18037058 -0.29368627 -0.013764332 -0.20496094 0.09658576
-0.097377196 -0.04821911 -0.14716372 0.4171993 -0.08287269 0.15705389 0.45849004 -0.054919403
-0.11524685 -0.0165686 -0.3453058 0.0061424696 -0.05810148 0.06701622 -0.27836084 -0.017314853
0.198693 -0.19172901 -0.39081234 0.122003786 0.1950536 0.25947696 -0.18012075 -0.024907
-0.18399441 -0.10250558 -0.30353224 -0.0073057953 0.35524473 0.2805553 0.020463824 -0.21733502
0.08387878 -0.091748945 -0.07565204 -0.15085772 0.04266856 0.12182322 -0.23268732 0.33158773
-0.007946952 -0.1695957 -0.09478063 0.104703195 0.05513284 -0.00649183 0.055752937 -0.14808613
0.0032414424 -0.14879064 0.21244536 0.0020449935 -0.020015392 -0.07174353 -0.0977213 0.019799503
-0.27114743 -0.071693175 -0.27869207 -0.16542034 0.1081344 -0.09344231 0.2381541 0.32679927
0.12138276 -0.08538598 -0.053675137 -0.17885117 -0.029592587 -0.095821224 -0.10769374 -0.1380836
0.23059613 0.16290237 -0.24004261 0.10632363 -0.07838675 0.12019868 -0.08094675 0.040466517
-0.16417576 -0.28708813 0.122605816 -0.13267943 -0.25411296 -0.11181946 -0.06705276 0.10676567
-0.042368166 -0.14532773 -0.25692028 0.083827965 0.04340482 -0.23274925 -0.13694893 -0.47064212
0.015213072 -0.28459492 0.043192435 -0.15319334 -0.048019733 -0.19908501 0.11679153 0.019492889
-0.08045148 -0.05293081 -0.44034413 -0.0051308973 -0.1318384 0.12698087 0.012773174 -0.13284706
-0.09512625 -0.042970877 0.17969061 -0.4178716 0.097010665 -0.042571228 0.101416714 0.0464735
0.2903719 -0.012863235 -0.13910252 0.024293415 -0.20498547 0.04490756 0.071271345 0.24826628
-0.09850421 -0.020235356 0.032742508 0.069150135 0.18263102 0.02422869 0.016825879 -0.13306361
0.08142643 -0.24454175 -0.049584985 0.04861941 -0.009755113 -0.06498277 -0.10284419 -0.25330856
-0.09750029 -0.16076574 0.0061007496 0.25349656 -0.02419527 -0.052280027 0.0777495 0.11362473
0.111082956 -0.07534589 0.10130119 -0.04411932 -0.057727244 -0.19350015 -0.047379736 0.16126643
-0.059893686 -0.082750276 -0.26361236 -0.033254042 -0.1958606 -0.265652 -0.114374205 0.04257707
0.16047266 0.19043247 0.28560293 -0.055107046 -0.11717092 -0.07729371 0.20765504 -0.21486367
0.11541445 0.062734485 -0.033792652 0.15428899 -0.44325823 0.2455552 -0.063935064 -0.18703522
-0.012826638 0.058483228 -0.10764699 -0.31992012 0.59916836 0.016464075 0.013788145 0.11712794
-0.07549431 -0.061907414 -0.07309058 0.018363113 -0.12594846 0.0404485 0.22556704 0.14272687
-0.30080816 -0.0020208338 -0.15820141 0.07937284 0.0022595446 0.24834915 -0.109879754 -0.18356228
-0.17223826 0.07860255 0.079263695 -0.10200479 0.042662576 -0.03791447 0.10968047 0.099570364
-0.27688417 -0.22723688 -0.14668217 0.09791102 -0.14077958 0.28075933 0.08857948 -0.08712629
-0.18923053 -0.14563772 -0.26257947 0.059583824 0.009283468 0.09257475 0.26231584 0.027257346

b2.bias f4 [32]
00000000: 38c5 0d3d d97b bfbe 522b 38be cd26 86be
00000010: d65c d9bd 1092 52be 049b 0cbe df3f 2fbe
00000020: 1b57 093e e0e3 fd3b fcf3 173b d2fa f9bd
00000030: 9cc4 11be 38f5 95be 3d73 84bd f5e6 623d
00000040: 6824 86bd 2f48 40be 8958 d6bd f0c2 e3bd
00000050: 2d4c cdbd 67d4 c93d 571b 60be ba95 c63d
00000060: a6d0 72be 2b56 923d cd10 3d3d 67e6 a23c
00000070: 15a9 91be 3257 86bd 06f0 df3d e550 02bd
0.03461191 -0.37399176 -0.17985275 -0.26201478 -0.1061341 -0.20563531 -0.13731009 -0.17114209
0.13412134 0.007748112 0.0023186198 -0.12206043 -0.14235157 -0.2928865 -0.064672925 0.05539604
-0.06549913 -0.18777536 -0.104661055 -0.11121166 -0.10024295 0.09854966 -0.2188543 0.09696527
-0.23712406 0.071453415 0.0461586 0.019885255 -0.28449312 -0.065596 0.10934453 -0.03181543

b3.weight f4 [64, 32, 3, 3]
00000000: 4458 42bc 264d c13d 0b95 22bd 5a00 97be
00000010: ef45 3fbe bb03 c7bd de23 53bb e186 9bbe
00000020: b194 ed3c d3bf 243e 8bd1 4bbe 772c b53d
00000030: 0afb 7ebd 0704 0d3e 75ac 43be c99b 39be
00000040: 9b87 80be 9fa8 9cbe 5816 efbd ac95 32be
00000050: 2ded e83d f9f7 b33c f43c b4bd 40ba 99be
00000060: 89e9 123e 918c 653e ddcf 2cbe 8a65 95bc
00000070: 4d44 ac3d 33c8 353e 7e79 d53d 3e60 843e
00000080: 2838 6ebe 5918 46be 8602 97be 7c42 953e
00000090: 4874 38be b0c0 57bd 0cd9 5d3b 63ee 74be
000000a0: aeb5 993d 6b68 a03e 7a7a 84be 7a73 3a3e
000000b0: f958 243c def5 f93d 60da 593e 2087 3a3d
000000c0: d0c2 833d 817f c6bd ab8d cabc 30d2 bcbd
000000d0: 82fe 05be b7d7 8dbe e19f ba3d 0d99 0c3e
000000e0: c0a9 dbbd 81fc 763d a7cd 3c3e d30c 1e3d
000000f0: 6a3c 7bbd aab6 3abe 608b c73d c1ee 59bd
00000100: 7823 16bc ea82 0e3e e189 59bd 8d89 e0bd
00000110: 621f a9be 40ae 063e 3a3e 393e 2c3c bbbe
00000120: dc2e 21bd 8638 143d 36ae bbbd f548 a23b
00000130: 06ac 013d ac33 83bd 1ae5 2f3d e3a1 55be
00000140: 0dd7 c63d 343c acbd da7c f73d be73 ee3c
00000150: f5e2 b3bc 2bcc 963e 7c26 80bd 9986 81be
00000160: 4306 f9be 1770 1abd 0923 b6bd 35d9 40be
00000170: 6a82 16be 7231 eb3c 7670 113d a6a2 243d
00000180: c6db 63be bce3 2b3e 40ac 23be 1753 013e
00000190: 097b b53d a22e 81bd bfdf e03d 76e1 bc3d
000001a0: 5069 873d a601 f93d 8367 c93e 8e5e 343e
000001b0: 5f26 b9bd 779f db3a 3e8f d1bc 3422 973d
000001c0: 318b 20be 8ec5 86be 36ea 5cbe 891c adbc
000001d0: 201c 9e3d b24c d93d 1f72 5bbe 5319 3abd
000001e0: a7e8 2c3e c7c5 ba3e 0ebe 553e d9bc 68be
000001f0: ae8f 35bb a390 153d d63d 0d3e 4f5a 91be
00000200: 6130 cabd 2602 443e f249 db3d 7843 0d3e
00000210: 3ac8 303e 172f 4ebe 1df6 e0be 3bd2 803c
00000220: 7e64 b6bd 8b76 b43c 919b 1ebe 414b 26be
00000230: 6859 6abe 15d3 89bd 1e64 883d 4020 70bd
00000240: e9a4 9a3e 1514 08be 942f 95be b8a2 6bbd
00000250: 5335 1ebe 652d 3c3d e0a4 81be eca6 06be
00000260: 3220 98be 6df9 e5ba dccb 3f3e f7ed 053e
00000270: 2367 033e fa69 79bd 316f 1abe a739 45be
00000280: 8750 06bd d95f 95be 0d4c a93e ede8 843e
00000290: 88db ef3d 3183 83bd 5ef0 a8be 9e0f 34be
000002a0: 06f9 8fbc 3056 b2bd 5b2f 38bd e2da 9a3d
000002b0: 7381 4fbe 9392 633d af42 ee3d b3f7 b7be
000002c0: be02 043e 7cd8 e93d d48a 88bd 5457 fb3d
000002d0: 76c8 0c3b 10df dd3d f372 79be 9f1c 793e
000002e0: 2d9d a7bd b910 443e af71 2ebe 930f 263e
000002f0: aa26 b43c 1738 aebd bb83 cbbd b5b8 d03d
00000300: 2324 46be e423 ad3d 427a 0c3d 94f3 eabd
00000310: f0ed 633d d816 adbd 6786 acbe 8c74 24be
00000320: f8ea 503d e032 70bd d652 203e 457a 49be
00000330: 095b f93d 045a debe 9485 55bd 300a 3a3a
00000340: 721f e03c 9080 39be ab5c 93bd 78bf 53be
00000350: da86 243e 8837 1dbe 05a8 afbe 767b e4bb
00000360: 5f9c 3bbe f498 5cbe a634 533e 95b3 203d
00000370: 27b0 16be 7e5c 2ebe 22ff a6bc 3d99 063e
00000380: 3705 2bbe e416 9f3d a821 05bc 57ee 753e
00000390: 6381 d23e bf78 d63d a022 853d bf98 663d
000003a0: 571c 7e3e 4c1b 9a3d 3081 27bd 3137 293d
000003b0: 43db 6e3d 21e1 b2ba 0074 953e f726 d23d
000003c0: 3ceb edbd c029 8bbe 154f fe3d 3f56 29bd
000003d0: 9e8f b33c 6221 4abd 119e f93d 89e1 803d
000003e0: 7bd8 263c 7487 20be dc20 5ebe 78de 333e
000003f0: 73a2 94bd ac61 b9bd 10a8 953e 0222 033e
-0.0118618645 0.09438543 -0.03969292 -0.29492456 -0.18679021 -0.097175084 -0.0032217423 -0.30376342
0.029001566 0.160888 -0.19904153 0.088463716 -0.06225113 0.13771068 -0.19108756 -0.18125834
-0.2510346 -0.30597398 -0.116741836 -0.17439908 0.11373363 0.021968829 -0.088006884 -0.3002491
0.14346899 0.22416903 -0.16876169 -0.018236894 0.08411465 0.17752151 0.104235634 0.25854677
-0.2326361 -0.19345225 -0.29494113 0.29152286 -0.18013108 -0.052673995 0.0033851294 -0.23919062
0.07505356 0.31329665 -0.25874692 0.18208113 0.010030978 0.122050986 0.2127471 0.04553902
0.06433642 -0.09692288 -0.024725756 -0.092197776 -0.13085368 -0.2770364 0.09112526 0.13730259
-0.107257366 0.0602994 0.18437825 0.03858645 -0.061336912 -0.18233743 0.097433805 -0.05320621
-0.00916373 0.13917127 -0.053110007 -0.10963736 -0.33031756 0.13152409 0.18090144 -0.36569345
-0.03935133 0.036186717 -0.091640875 0.004952545 0.031658195 -0.0640634 0.042943098 -0.20862536
0.097089864 -0.0840992 0.120843604 0.029107925 -0.021958807 0.29452643 -0.0625734 -0.25298002
-0.4863759 -0.037704553 -0.08893401 -0.18832858 -0.14698187 0.0287101 0.03550764 0.040194176
-0.22251806 0.16786093 -0.15983677 0.12629353 0.08861358 -0.06307723 0.10980176 0.09222691
0.06611884 0.121585175 0.39336786 0.17614195 -0.09040522 0.0016755898 -0.025580999 0.073795706
-0.15678097 -0.26322597 -0.2157372 -0.02113177 0.07720208 0.106103316 -0.21430252 -0.045434307
0.16885625 0.36479017 0.20873281 -0.2272829 -0.0027704048 0.03651489 0.1379312 -0.28389212
-0.09872509 0.19141445 0.10707463 0.13795269 0.1726388 -0.20135151 -0.4393777 0.015725246
-0.08905886 0.022029182 -0.15489031 -0.16239645 -0.22885668 -0.06729714 0.06659721 -0.058624506
0.3020394 -0.1328891 -0.29137862 -0.057528228 -0.15450029 0.04594173 -0.25321102 -0.13149613
-0.29712063 -0.0017545648 0.1873011 0.13079058 0.12832312 -0.060892083 -0.15081479 -0.19260274
-0.03279164 -0.29174688 0.33065835 0.25958958 0.11711794 -0.06421507 -0.32995886 -0.17584082
-0.017574798 -0.08707845 -0.044967037 0.0756128 -0.20264225 0.055559706 0.11633813 -0.35931167
0.12891671 0.11418244 -0.06667104 0.12272516 0.0021481789 0.108335614 -0.24360256 0.24327324
-0.08184276 0.19147004 -0.17035554 0.16216879 0.021991093 -0.08506792 -0.09937235 0.1019148
-0.19349723 0.08454111 0.03429628 -0.1147224 0.055646837 -0.08451623 -0.3369629 -0.16060084
0.051005334 -0.05864227 0.156566 -0.19675548 0.12175567 -0.4342805 -0.052129343 0.0007096855
0.027358744 -0.18115449 -0.071954094 -0.20678508 0.16067067 -0.15353215 -0.34307876 -0.0069727255
-0.1832137 -0.21542722 0.20625553 0.039233763 -0.14715634 -0.1702747 -0.020385329 0.13144393
-0.16701208 0.07768038 -0.0081257 0.240167 0.4111434 0.10472249 0.06500745 0.056298014
0.24815498 0.07524738 -0.040894687 0.0413124 0.058314573 -0.0013647416 0.29190063 0.10261338
-0.11617133 -0.2718029 0.124174275 -0.041342016 0.021919068 -0.049348243 0.12188352 0.062930174
0.010183449 -0.15676671 -0.21692222 0.17565334 -0.07257547 -0.090518326 0.29229784 0.12805942

b3.bias f4 [64]
00000000: dfe8 943d 70fc e83d 3411 2abd 7959 08bd
00000010: 3508 183d 70c7 c4bd 3e99 543d e63c 903c
00000020: c7af 17be 1f4a 9dbd dfa2 68bd 5099 b53d
00000030: b6a3 153d 35fe f13d ffa1 abbd ca21 afbd
00000040: 5718 053c dcf6 fabc 9d3e 4d3c 8d02 9e3d
00000050: 6ee9 60bd 257f 43be 76eb 1bbc 1562 b53d
00000060: d97c d33d 2784 0abe 1054 92be 317f e3bd
00000070: a5ae 173e c59f 45bd 8683 dc3c 5b38 b9bd
00000080: f624 e9bd 1e5d c3bd e518 9abc e2ae 863d
00000090: a16c aebc c816 febd ea3e 273d 2965 d4bd
000000a0: 2708 b2bc 35a6 dc3c 36c1 f03d 4c47 1e3e
000000b0: a249 e9bd 4bd9 efbd 0931 b63d 4fb9 cabd
000000c0: d9ca f9bd 706e d6bd fc4e a9bc f5e1 2b3d
000000d0: 6565 f03c fdea 473d c6ba 7cbc 1a44 91bd
000000e0: f211 5e3d 4589 913d 91ec a3bd 5bc6 ebbc
000000f0: 8102 0bbe 3514 0e3d fcbc acbd 713e 32be
0.07270979 0.11376274 -0.041520312 -0.033288453 0.0371172 -0.09608352 0.051903956 0.017607164
-0.14813147 -0.07680153 -0.05679595 0.08867133 0.03653308 0.11816064 -0.08380508 -0.085513666
0.008123479 -0.03063529 0.012527135 0.0771533 -0.054910116 -0.1909147 -0.0095165875 0.08856598
0.10326547 -0.13526975 -0.2857976 -0.11108244 0.14812715 -0.04824807 0.026918184 -0.09043952
-0.11384003 -0.09539245 -0.018810699 0.06576325 -0.021292033 -0.12406689 0.040831484 -0.10370857
-0.021732403 0.026934722 0.11755602 0.15456885 -0.113909975 -0.11711367 0.088960715 -0.09898626
-0.12196893 -0.10470283 -0.020667545 0.041963536 0.029345224 0.048808087 -0.01542539 -0.070930675
0.054216333 0.0710626 -0.08004106 -0.028781107 -0.13575174 0.03468724 -0.084344834 -0.17406632

c1.weight f4 [64, 64, 2, 2]
00000000: c846 19bd 1827 5b3d 88b9 f0be c0e9 343d
00000010: 4cfa 223c 9277 7e3d ff1c 13be 4012 153c
00000020: a2e1 9c3d ff09 91bd 34b7 57bd 55d4 143d
00000030: fb82 b1bc baba ab3d 0b00 2cbc 3799 863d
00000040: 88d5 cb3d 7e10 a6be 04ec 91be 9b22 5ebe
00000050: 1332 003e d7d9 4dbe 6953 c63c cb05 15be
00000060: dd3b 583e 630d 84be d2e9 073e 5abf 41be
00000070: 6efa ec3d 2356 ecbb f01c 22be f20e ccbd
00000080: 5c97 dbbd e519 ca3d e0c7 9c3c 8ca7 bd3e
00000090: 95d1 323e ef9f c6be 9083 663e 17d7 88be
000000a0: dc65 143d b361 3ebe 297a a3be 2ee5 b9bd
000000b0: 2c1d 0cbe 09f3 243e 6b80 1d3e cded 283e
000000c0: 15a8 893e 26aa cbbe 6a2f 96be ef17 85be
000000d0: 8e76 133d 5db8 5cbd 351c 19bd 4a47 403d
000000e0: c801 f33c 3eae f83c 9cb5 0bbd ba26 99bd
000000f0: 59d9 823d 9936 aabc 22e7 8cbd ec3f 943a
00000100: 9664 e03d cd47 80be 2515 2cbf 7ce4 35be
00000110: c153 b7bd 2809 81bc d6c4 653c fe8a c23c
00000120: 1c40 203e 74c7 5cbe 3d51 64bb d52a 2bbe
00000130: 2a2c 23be a163 423e c767 1abe 040d 0b3d
00000140: 88ed 7a3b aa6e ac3d 12ed b1bd eff9 103d
00000150: 21e8 9b3e d9b0 22bd a31d bf3d 53d8 74bd
00000160: c16f 6c3e f4ef 3fbe 5ad7 03be 116f 12be
00000170: 4020 b6bb 520c 163e 1f0e abbe d5c8 7f3c
00000180: 4c27 203d 173f 4dbe 5fe2 8cbd af5a 76be
00000190: 0615 5e3d a1e3 eabd e57a 973e 6ea5 2abe
000001a0: bf10 393e 65fa 9fbd 71cd 00be 6803 02bd
000001b0: b661 82bd 2127 9fbc 68f3 663d 08f6 533d
000001c0: 9567 f8bd bd58 493d fe97 90bd 718c e53c
000001d0: e8be 2a3e 59d6 20be f5a7 83be 9a36 86be
000001e0: f02d 60be 08aa 3dbe 90b0 0e3e b38a 953e
000001f0: cd73 0f3d 0054 99b8 8ae2 ccbb 9cab 8dbc
00000200: b313 1ebe 6800 863e 1c88 f73d 86bc 873e
00000210: e74a 3f3d 6c63 b53b 861a 69bd 2066 a1bc
00000220: 1d4b 9e3e cd89 9abd b34d 8d3d e144 1fbc
00000230: 0fb0 be3d c5b1 66be ea04 603d 339c 1cbe
00000240: cbdc f13d 73e2 0fbd 2c91 633e 4b1b 78bd
00000250: bd27 8ebd d123 193e 94ed d63d f4fe 173d
00000260: dc34 c63c 959d 4d3e 60a3 e83d 0d63 843e
00000270: 1b9d 393c d909 4bbd 2730 c63c 5c9b 4f3d
00000280: f4b6 96ba 3c93 2ebe 096b 823e 3f98 b3bd
00000290: eb89 2abe 9292 943d 0eb5 ebbd 0b4d 8f3d
000002a0: 0d9c eebd 1566 873d d929 343e 2a4b 0e3e
000002b0: a817 52be 273a 953d 5d71 21be 4fce d03d
000002c0: 4a7e 0e3d 6141 3ebd cb9b 213c 103f e33c
000002d0: 9748 80bc 742b 6cbd 3249 1f3d 122d 9a3c
000002e0: c5f5 543e 7e49 a2be bb59 25be 984c d0bd
000002f0: 41f5 3f3e 4aa4 3cbe 7758 6a3e 81bf 45be
00000300: 20f8 2c3e 85e6 05be 1170 a13e 6381 2abe
00000310: 5914 7dbe 0a89 afbc 05e0 0d3e 7e0f 00bd
00000320: 3667 0f3e 3aee 1cbe 20f2 dcbd 3156 963d
00000330: d63a 7e3e d9bb 59be fbb5 a73e 15cd 24be
00000340: ea78 cb3d 70d6 30be 87b7 2fbd bb12 54be
00000350: bf09 723c 5596 7abd d742 62be 132b 02bd
00000360: ac3b 3d3e 4553 913c 6878 bcbc f0f1 fd3d
00000370: 05b1 d63d bd04 c53c 5fa3 ad3d 1768 14be
00000380: b9e7 163e c418 f8bd df3e 533e 5884 fabd
00000390: c912 48be 343a 663e 3b8f 4a3d f5f3 893e
000003a0: ef6e 9c3c 217d 693d 0db0 fe3c 4198 04bc
000003b0: d14c 813d a7f1 ffbc 0b8c 4cbd bbc5 85bd
000003c0: 3572 b13d 043e 39be aa0a 813d 9f61 16be
000003d0: 7c90 573e b13a 7abe 668d d8bc df99 89be
000003e0: 8db3 41bc c2b4 253d 735e 7d3d 5a75 68bc
000003f0: 0332 233e 5051 4a3d 8f60 653e a086 783c
-0.037421018 0.05350408 -0.4701655 0.044168234 0.009947371 0.06212575 -0.1436653 0.009098589
0.076602235 -0.07081985 -0.05266495 0.036335308 -0.021668902 0.08385225 -0.010498057 0.06572192
0.09952837 -0.32434458 -0.28500378 -0.21692888 0.12519102 -0.2010263 0.024209695 -0.14552991
0.21116586 -0.25791463 0.13272789 -0.18920651 0.11571203 -0.0072124167 -0.15831351 -0.09963788
-0.10722229 0.0986822 0.019138277 0.3704189 0.17462762 -0.38793895 0.22511125 -0.267266
0.036229953 -0.18591957 -0.31929138 -0.09076916 -0.13683003 0.16108336 0.15381019 0.16496964
0.2688605 -0.3977825 -0.2933305 -0.25994822 0.036001734 -0.05388676 -0.037380416 0.046942987
0.029663935 0.030356523 -0.034108743 -0.0747809 0.06389112 -0.020777987 -0.068800226 0.0011310554
0.10956685 -0.2505478 -0.67219764 -0.17762941 -0.08951522 -0.015751436 0.01402398 0.023747917
0.15649456 -0.2156046 -0.003483846 -0.16715558 -0.15934816 0.18983318 -0.1507865 0.03394796
0.0038288552 0.08419545 -0.08687796 0.035394605 0.30450538 -0.039719436 0.09331825 -0.059776615
0.23089506 -0.18743879 -0.12875119 -0.14300181 -0.0055580437 0.14653137 -0.3340921 0.015611847
0.039099976 -0.20043598 -0.06879114 -0.2405803 0.05421927 -0.11469198 0.2958595 -0.16664669
0.18072794 -0.07811431 -0.1257837 -0.03174153 -0.06366293 -0.019427838 0.056384474 0.051748306
-0.12129132 0.049156893 -0.0706024 0.02802107 0.16674387 -0.15706767 -0.2571408 -0.26213533
-0.21892524 -0.18521893 0.13934541 0.29207382 0.035022546 -7.311255e-05 -0.0062525915 -0.017293744
-0.15437202 0.26172185 0.12086508 0.2651102 0.04670229 0.0055355337 -0.05691006 -0.019702017
0.30916682 -0.07545815 0.068995856 -0.009721012 0.09310924 -0.22528751 0.054692186 -0.1529396
0.11809691 -0.03512807 0.22223347 -0.060572904 -0.06941173 0.14955069 0.10494533 0.037108377
0.024195127 0.20079644 0.11359286 0.2585682 0.011328961 -0.04956994 0.024192883 0.05068527
-0.0011498616 -0.17048353 0.25472286 -0.08769273 -0.16654174 0.072545186 -0.11509143 0.06997117
-0.11650858 0.066112675 0.17594089 0.1389586 -0.20516837 0.07286482 -0.15765901 0.101956
0.034788407 -0.04644907 0.009863804 0.027740031 -0.015659614 -0.057658628 0.038888164 0.01882032
0.20796879 -0.31696695 -0.1614751 -0.10170859 0.187459 -0.18422046 0.22885309 -0.19311334
0.16891527 -0.13076217 0.31530812 -0.1665092 -0.24714793 -0.02142765 0.13854988 -0.031264775
0.14004216 -0.15325251 -0.10788369 0.073406585 0.24827132 -0.21263064 0.32756028 -0.16093858
0.09935172 -0.17269301 -0.042899635 -0.2071027 0.014772831 -0.061178524 -0.2209581 -0.03177936
0.18479794 0.017739901 -0.023006633 0.123996615 0.104829825 0.024050111 0.08478426 -0.14492832
0.14736833 -0.12114099 0.20629452 -0.12232274 -0.19538416 0.2248314 0.049453 0.26943937
0.019095866 0.057004098 0.031089807 -0.008092941 0.0631348 -0.031243159 -0.049938243 -0.06531855
0.086643614 -0.18090063 0.06300862 -0.14685677 0.2105121 -0.24436451 -0.026434612 -0.26875207
-0.011822593 0.040455587 0.061857652 -0.014188135 0.15937047 0.049393952 0.22400115 0.015168816

c1.bias f4 [64]
00000000: b980 de3d e898 edbd a078 d4bb 6adb 61bd
00000010: 8628 1cbe 8fd2 e3bd 8c2c 20bd 6f9b b4bd
00000020: 7e7b 943d 4400 003d 5323 df3d c0eb ccbd
00000030: 83b1 28be 7372 893d f090 9fbd bf67 51be
00000040: e71a b8bd e497 123a 64c5 a1bd 1cac 53bc
00000050: be19 cabd bbc0 7cbd cd18 60bd 2210 9dbc
00000060: fa17 3e3d afd6 babc e0b5 f4bd fa66 993d
00000070: 759a a7bd 5fae 9cbd 11f1 5e3d fab4 323d
00000080: 24a7 cdbd 8bc0 55bd 741f b93c 705e 3abd
00000090: 0459 3abd 9fd0 13be 253b 8abd 9502 d0bd
000000a0: 0b92 833d 1729 17be 7c68 8e3d 2cfa 15be
000000b0: 96ac 8d3d 3568 593d b648 6bbd a42a 30be
000000c0: 0fa5 c5bd 7b02 36be 804f 82bc 2781 a1bb
000000d0: 1113 80bd 91ac 81be f52e c93d e375 a5bd
000000e0: 9412 6a3d f1a4 05be 47dd abbc 7793 16bd
000000f0: 40cf f0bc be00 9f3c dfa1 323d cd3c bbbd
0.10864396 -0.1160143 -0.006484106 -0.05514089 -0.15249833 -0.11124145 -0.039104983 -0.08818709
0.07250117 0.031250253 0.108954094 -0.10005903 -0.16473965 0.067112826 -0.077913165 -0.20449732
-0.08989506 0.00055920915 -0.078989774 -0.012919452 -0.09868191 -0.06170724 -0.054711152 -0.019172732
0.046409585 -0.022807447 -0.119487524 0.07490344 -0.08183757 -0.07650446 0.054429118 0.043629624
-0.10041645 -0.052185576 0.022598006 -0.04550022 -0.04549505 -0.14435051 -0.06749562 -0.101567425
0.0642434 -0.14761768 0.069535226 -0.14646214 0.06917684 0.053077895 -0.05744239 -0.17203766
-0.09650623 -0.17774384 -0.01590705 -0.0049287262 -0.06253637 -0.2532697 0.098234095 -0.08079126
0.057146624 -0.13051201 -0.020979537 -0.036761727 -0.0293957 0.019409534 0.043611404 -0.09142456
