nets/model_epoch_44.pth (torch, 648794 bytes, 25 tensors)

a1.weight f4 [16, 5, 3, 3]
00000000: 1efc 3f3d 0018 e23d 3e63 dcbc 2a7a f7bd
00000010: 2478 b7bc 532c 823e 9099 0cbe 5a83 d93c
00000020: 0639 bebe 8671 adbd 6939 75bd 103f 17be
00000030: 10e7 8c3c c740 0ebe 65c2 40be 5090 91be
00000040: e81f 21be b1ad 1dbe 024e d63d 801b e1bd
00000050: 6c88 b43c f018 013d 0f5a 98be 459a 1dbc
00000060: 9c72 04be 6c52 dcbd a34c e63b b70f 50be
00000070: 6e24 89bd fdcd 6c3d 26eb 17be 856b 7dbd
00000080: ba55 c7be 323f 79be 4aaf 2ebe 5853 093e
00000090: 5e38 2cbe 8540 95bd 03ce 14be 9885 efbc
000000a0: 1fb2 37be db36 01be 082c 30bc 42d9 f2bd
000000b0: b449 3dbd 0eba 3a3e 9e41 dfbd a030 9dbd
000000c0: b361 b13e e694 f73c 33d7 af3e ca2c 003b
000000d0: 28eb f93e 86fe 56be f868 cc3d 456e 993e
000000e0: f361 903d e221 37bc eb94 3d3e a146 953c
000000f0: e143 033e 7a99 06bf 3d40 573d bc94 0e3e
00000100: e9a7 a1bd b643 b1bd d820 b23e 1fcf 4e3d
00000110: 3fc6 d1be 9e41 0dbe e1e0 1cbe 76fb bb3d
00000120: 2f8a a6bc 0e98 c0be 08ee cdbe 154d fabb
00000130: 0687 923e bc1b e23d e701 113e 566a 1c3e
00000140: d794 f6be 804e 23bc 5e45 e83c 11f1 69bc
00000150: 952b ab3d ead6 223d 09bc bebc 1fda 92bd
00000160: a8e3 81bd 5a3b 103d 32b8 9fbe f28d de3d
00000170: f7fd b43e 17bb 223d 9c31 4c3e 89cc 143c
00000180: ac07 063f 6c9b e03e 2677 df3d 3cf0 273e
00000190: 2ede 4d3e fe5c 493e e225 17bd d638 8abb
000001a0: 1bbe 833c ae2d ddbd a009 08be beb8 913d
000001b0: 6728 733e 1328 e63e 223f 603e ff8c 8f3d
000001c0: 5216 4fbe 8504 9f3e 6fc7 a3be a9f2 c1bd
000001d0: c074 253e a997 5dbc 6599 98be c499 64be
000001e0: beed 2f3d 9ef3 31be f3e3 87bc 4f68 913d
000001f0: e1b1 093d bf2e a0be 822b ccbc a495 2c3d
00000200: dd51 753c 4a55 31bd cbfd fb3d 440d f1bd
00000210: 6202 aabc 2da7 4cbd 2f45 803d fee2 1b3e
00000220: a7f0 fb3d bfa4 82be 0637 213e 86b6 193e
00000230: bbdd 8fbe 204c a83d be71 b1be f574 853e
00000240: 73f3 24be 2d30 e3be 926b 7dbe 2b56 a5be
00000250: 366b 18bd 9efb 1dbf e58c 3d3d 0f23 413d
00000260: dd87 96bc a1e2 3fbd 25a9 f53d dc2e 2a3d
00000270: c884 34be 580f a4bd 90a8 acbe d105 38be
00000280: e212 33be 048c b13e 6a36 4d3e d227 853e
00000290: 5182 703e 25de aa3e 579c 04be c363 0a3f
000002a0: 4752 353e e41c 35bd c7d4 5ebe ae4c 21bd
000002b0: d26a 043d ed74 553d 20ed 4bbc 3f4e 7cbc
000002c0: 18a6 123b a212 273d dd49 54bd f3b9 c5bc
000002d0: d2fb 423e 926c e83c b29c 96be 51e6 0b3d
000002e0: a381 0a3e 1e06 983e 8bf4 813d e1a5 373e
000002f0: 1836 803e 1794 333e 8aa4 e3bd 72c1 703d
00000300: b760 4dbe 04d3 76bd 6c92 1fbe fb76 113e
00000310: bb8d eb3d 9569 10be f27b ce3d 6007 143e
00000320: 9a6b d93e 7b86 4abc 12d5 8abb 8130 05be
00000330: e315 9ebe a006 9f3e 488f a3bc 8d7e 1bbe
00000340: 64de d7be cf76 c7be 80ca d63d 243f 753d
00000350: b0db 1cbe e765 4cbe 578d 43bd 42a0 183d
00000360: 5e66 e3bc 6fd2 6f3c 42c3 d5bc 443b 303d
00000370: a61b dcbd faff d13c 51ca 9f3c 0e0f c53d
00000380: e1fd 5bbd b8c8 bbbd 166b 95bd ec6b 613e
00000390: 5693 c5bb 4f41 c6bd 9a0f 5fbd 5064 433e
000003a0: b328 08be 3daf b23e 2824 83bd 2f36 c73e
000003b0: f68f 923e cc28 75bb d567 80bc e2fe 94be
000003c0: e49b 2d3d f6eb 643e 4fea 10bf 96e0 303d
000003d0: 2ebc a73d 5aa4 b83d 08ef 4abe ce2b a33e
000003e0: 33de a4be 4bd8 2fbe fab2 06be 6e0c c7be
000003f0: e0d2 903e ea93 13bd ee88 c63d 8aca d53c
0.046871297 0.11039734 -0.026902791 -0.12083848 -0.022396155 0.25424442 -0.13730454 0.026551891
-0.3715288 -0.084689185 -0.059869204 -0.1477015 0.017200023 -0.13891898 -0.18824156 -0.28430414
-0.15734828 -0.1539829 0.104640976 -0.10991573 0.022037707 0.031517923 -0.2975621 -0.0096193
-0.12934345 -0.10757908 0.007028179 -0.20318495 -0.066964015 0.057813633 -0.14835796 -0.061870117
-0.38932592 -0.24340513 -0.17059055 0.134107 -0.16818377 -0.07287697 -0.14531712 -0.029238507
-0.17939042 -0.12618582 -0.010752685 -0.11857845 -0.046212867 0.18235037 -0.10901187 -0.0767529
0.3464485 0.030222367 0.3434387 0.0019557946 0.48812222 -0.2099553 0.09980959 0.2996694
0.07049932 -0.011177512 0.18513839 0.018222155 0.12818862 -0.52577937 0.052551497 0.13923925
-0.078933544 -0.08655493 0.34790683 0.050490495 -0.40971562 -0.13794562 -0.1532016 0.09178822
-0.020329563 -0.3761601 -0.40220666 -0.0076385834 0.2861864 0.11040446 0.14160882 0.15274939
-0.4816043 -0.009967446 0.02835339 -0.014278666 0.08357922 0.03975574 -0.023283022 -0.071705095
-0.0634225 0.035212852 -0.31195217 0.10866918 0.3535001 0.039729204 0.199408 0.009081968
0.52355456 0.43868577 0.10911398 0.16400236 0.20104286 0.1966438 -0.036901362 -0.004218201
0.01608186 -0.10799728 -0.13284922 0.07115315 0.23745881 0.4495245 0.21899083 0.07009315
-0.20223358 0.31058136 -0.31988093 -0.09470112 0.16157818 -0.013524928 -0.2980453 -0.22324282
0.042951338 -0.17378089 -0.016588187 0.070999734 0.033616904 -0.31285664 -0.02492309 0.042134896
0.014973131 -0.04329423 0.123042665 -0.11770108 -0.02075309 -0.04996412 0.06263196 0.1522331
0.1230176 -0.25516316 0.15743646 0.15011033 -0.28098854 0.08217645 -0.3465709 0.26065794
-0.16108494 -0.44372693 -0.24748066 -0.32292303 -0.03721162 -0.6171206 0.046276946 0.047152575
-0.018375332 -0.04684699 0.119951524 0.041548595 -0.17628777 -0.08010739 -0.33722353 -0.17970969
-0.17487672 0.34677136 0.20040289 0.26006943 0.23487212 0.33372608 -0.12950264 0.54058474
0.17707168 -0.044217005 -0.21760856 -0.039379768 0.032328434 0.052113462 -0.012446672 -0.015399515
0.0022376832 0.040789254 -0.051828254 -0.024136519 0.19041374 0.028372083 -0.29416424 0.034155194
0.13526015 0.29692167 0.06345471 0.17934372 0.2504127 0.1753696 -0.11115368 0.058778234
-0.20056425 -0.060259834 -0.155832 0.14205544 0.11501642 -0.14102776 0.100822344 0.14455938
0.42464906 -0.012361164 -0.0042368257 -0.13006784 -0.30876073 0.31059742 -0.019965783 -0.15184994
-0.42161858 -0.3895783 0.104878426 0.05987467 -0.15318179 -0.19960748 -0.047742214 0.03726221
-0.027758773 0.014637574 -0.026094083 0.04302527 -0.10747461 0.025634754 0.019505652 0.09622012
-0.053708915 -0.091691434 -0.07295816 0.22013825 -0.0060295267 -0.096804254 -0.05445824 0.19081235
-0.13296776 0.3489932 -0.06403381 0.38908526 0.28625458 -0.003740835 -0.015674511 -0.2910071
0.042384997 0.22355637 -0.56607527 0.04318293 0.08190189 0.090157226 -0.19817746 0.31869358
-0.32200775 -0.17172353 -0.13154212 -0.3887667 0.28285885 -0.036029734 0.09694086 0.026097555

a1.bias f4 [16]
00000000: 82da 303d 4a91 b7bd 7ed1 6cbd e99b 0dbe
00000010: e949 113e daa7 e9bd f1ec ff3c 91b7 dcbd
00000020: 6950 1ebe 8908 d03d 07ec 71bd fd97 d73d
00000030: 3560 9dbd 718e 9bbd c016 8b3e ec3d 6f3e
0.043177135 -0.089632586 -0.057816975 -0.13829006 0.1418835 -0.11408968 0.031240912 -0.107772
-0.15460362 0.10157878 -0.059062984 0.10527036 -0.07684366 -0.07595528 0.27165794 0.23363465

a2.weight f4 [16, 16, 3, 3]
00000000: 911d 85bd 0dcb b1be aa05 09be 5388 a43e
00000010: c26d bd3d 3b07 4bbe d95c a03d d1b5 57be
00000020: 79ff 363e f8d5 0abd b5c5 0f3e 2a23 a13c
00000030: d87c f6bd a075 2b3e da55 31be b66f 0dbd
00000040: 4833 073e a5d1 43bd f0d0 8ebd 6f1b 41be
00000050: 1e60 8fbe c43e e1be 956c 8bbd 72d1 a73c
00000060: 8def a0bd 1388 ccbe 6316 fd3d c5c8 34bf
00000070: 6cbf 8f3e bfd5 a1be 92d0 0a3f 960b 53be
00000080: b8be 603e 3ad4 aa3d 42b5 7b3d fcc7 803d
00000090: 9cae ee3b d2c1 c4be ce48 7fbd 6c2a fb3c
000000a0: 9068 fdbc e9b6 39be 5480 fbbe 396c 7cbe
000000b0: e3fb 50be ca4b 803d 11bb 52be 5c17 12be
000000c0: e9ef 6a3e 6516 a13d 1934 0c3e a18d c7be
000000d0: a5cd 163e db40 333e ac69 3cbe c63b 4b3d
000000e0: 025e 0e3d 0f10 bb3e c387 b43e 5ccf 653d
000000f0: 2c7f b23d 31e5 ffbb f46b b93a bfac 9f3e
00000100: cc4d 5bbe 40ef 8abd f2c6 8dbe 5a96 1cbd
00000110: ba20 15be 15fe ffbd 42f4 91bd e1c8 773e
00000120: 596e 693e f411 e03d 1fef 423c bbe8 1bbc
00000130: b328 0fbc 762b 553e 6b2d 50be 02e7 ce3e
00000140: df80 f03d e2f6 7c3d 72c4 7a3e eb3b ecbc
00000150: c619 5fbe 5f46 183e ff3e e43e 7a87 153e
00000160: 6324 2f3d 339a 273e 40db 2abe 045a adbd
00000170: 5543 0abe c852 033e 8a14 643e 1da2 b4be
00000180: 7805 8e3d 3cf2 34bc 6160 3b3e 0c58 a4be
00000190: cb85 56bd a479 e9bc c849 19be 84e1 18be
000001a0: 95bb 193c b47c 033f ff11 3b3d 66a5 28be
000001b0: a196 6bbd 8d79 e2bd 959e 8b3d d00f 71b9
000001c0: f7f3 063f fcfb a9be 205c 053f 7c67 733e
000001d0: aa4f 5bbe b528 5f3e 99f9 9ebe 05cb f2be
000001e0: 0374 783d f00b da3e c6ad 2e3e d0ba 623e
000001f0: 4d1f 38be 0b25 163c f653 babd d11b 23bf
00000200: 9f39 5dbd 9d82 73bd 075d 43bd 4bcf 82be
00000210: ba6c 75bd 44e5 3ebe 754e 0b3e 642b aabe
00000220: 3f7a 33bc d813 27be 4b6b c3bd f144 43be
00000230: 7347 fe3e 137a 61be b567 b43c 5834 ce3c
00000240: ae6e 0ebe 7835 b5bc 3de6 7d3d 5a54 18be
00000250: 0b50 21be 96d6 203d 58d2 efbd 7e38 86bd
00000260: b866 01be 5c69 86bc 08ad 88bd 33f5 4a3e
00000270: 2fce a7bd 1216 11be b216 573c 9674 a63d
00000280: 4818 a33d 1303 a33d 031f fb3d 6937 5d3c
00000290: c334 3c3e 4aab 8bbc 5699 3a3e 0a35 033e
000002a0: 5174 0fbd d101 ca3d 2564 e73d fce8 25be
000002b0: 14e5 3e3e c316 8a3e 1cfd 4ebd 3c3d 9cbb
000002c0: 4d56 6abd 38ca 693d 2936 d1bd ffdb a63e
000002d0: 67be 973e d67c 31be f4ac 153e 022f fa3d
000002e0: 4b60 e53d a579 bebd 7276 393e 54ab a7bd
000002f0: ea6a 8ebd 32a6 0abe 2820 0e3e 0e2b 403e
00000300: d372 2b3c c147 2f3c bb16 66bd d345 4b3d
00000310: 6deb 993d 2263 16be 54f5 adbd ab36 05bd
00000320: a7af ecbd 87b5 c7bd 3fb5 6dbc 551f 483c
00000330: 7965 d1bd 243f 38be eef7 993c f4ec 983d
00000340: 6208 423e 0697 c73d ce25 20be 22ff da3d
00000350: 898d 973c ae89 183e 0d77 b8bc e054 c43e
00000360: 9b52 5abd 01f7 f2bd 3689 a73d 4e09 b9be
00000370: 5839 ef3d a7d1 b3bd 6b49 7abe 43a3 973e
00000380: 6b30 88bd 0d82 64bd 0a3c d2bd 120b 973d
00000390: 7d4f 4e3d 0e16 953d 24c3 983d 5e54 33bc
000003a0: 975e 8fbd a778 19be 1693 463e 95b6 0a3e
000003b0: 2d25 a0bd 0dc8 fe3c ef56 4ebe 1363 5e3e
000003c0: 3d29 76bd 5f22 313e 4b9f 5dbe 868d 153d
000003d0: 88ee d23e 560d fd3d ec18 bc3a 4ecc c03d
000003e0: 1561 863e 9581 5abe 7f08 58be 98d5 4fbe
000003f0: 37d6 7fbd 83c2 a73e 7147 a83a c074 dbbd
-0.0649978 -0.34725228 -0.13381067 0.32135257 0.0924945 -0.19826977 0.07830209 -0.21065451
0.17870893 -0.033895463 0.14040263 0.019670088 -0.12035531 0.16744089 -0.17317906 -0.034530364
0.13203156 -0.047807354 -0.069734454 -0.18858121 -0.2800302 -0.439932 -0.0680782 0.020485613
-0.07858191 -0.39947566 0.123577856 -0.7061885 0.2807573 -0.31608388 0.54224503 -0.20609888
0.21947753 0.0834126 0.061452158 0.06288144 0.0072839987 -0.38429123 -0.06232529 0.030659877
-0.030933648 -0.18136181 -0.49121344 -0.24650659 -0.20408587 0.062644556 -0.20579173 -0.14266723
0.22943081 0.078655995 0.13691749 -0.38975242 0.14726885 0.17505209 -0.18399686 0.04961755
0.03475762 0.3653569 0.35259828 0.056105956 0.08715662 -0.007809304 0.0014146552 0.31186482
-0.21416396 -0.067839146 -0.27690846 -0.038229324 -0.14563265 -0.12499634 -0.071266666 0.24197723
0.22796 0.10940924 0.011897831 -0.0095159365 -0.008737731 0.2081736 -0.20329826 0.4041062
0.1174333 0.061758883 0.24489 -0.028837165 -0.21787176 0.14870594 0.44579312 0.14602461
0.04275931 0.16367416 -0.166852 -0.08464435 -0.13502248 0.12824547 0.2227346 -0.35279933
0.06934637 -0.011044081 0.18298484 -0.32098424 -0.05237369 -0.028500386 -0.14969552 -0.14929777
0.009383102 0.51362157 0.04567146 -0.16469344 -0.057516698 -0.1105834 0.068173565 -0.00022989442
0.5271601 -0.3320006 0.52093697 0.23769945 -0.21417108 0.21792872 -0.31049803 -0.47420517
0.060657512 0.42587233 0.17058477 0.22141576 -0.1798069 0.009164105 -0.090980455 -0.6371432
-0.05401003 -0.059450734 -0.04769614 -0.25548777 -0.059918143 -0.18642145 0.13604148 -0.3323623
-0.010954439 -0.16316164 -0.09541949 -0.19069268 0.49663886 -0.22019224 0.022022108 0.025171444
-0.13909408 -0.022120222 0.06198715 -0.14875928 -0.1575319 0.039267145 -0.11710042 -0.06553744
-0.1263684 -0.016407661 -0.06673628 0.19820099 -0.08193623 -0.14168575 0.01312797 0.08127706
0.07963616 0.07959571 0.122617744 0.01350198 0.18379502 -0.01704945 0.18222556 0.12813202
-0.035023037 0.09863628 0.11298398 -0.16202158 0.18642074 0.2697049 -0.050534353 -0.004768042
-0.05721121 0.057077616 -0.10215408 0.3258972 0.29637453 -0.17332777 0.14616758 0.12215997
0.11200007 -0.093005456 0.1811159 -0.08186975 -0.06953986 -0.13539961 0.13879454 0.18766424
0.010464388 0.01069826 -0.05617402 0.049627136 0.07515607 -0.14686254 -0.08494058 -0.03252284
-0.115569405 -0.097514205 -0.0145085445 0.012214501 -0.102244325 -0.17992836 0.01879498 0.0746707
0.1894851 0.09745602 -0.15639421 0.10693194 0.018500106 0.1489627 -0.022517705 0.38346004
-0.053301435 -0.118635185 0.08180468 -0.3613991 0.11680859 -0.087802224 -0.24442069 0.29616746
-0.0664986 -0.05578809 -0.10265358 0.07375158 0.050368775 0.07279597 0.07459095 -0.010945408
-0.070004635 -0.14987431 0.19392046 0.13546212 -0.07819591 0.031101251 -0.2015035 0.21717481
-0.06009792 0.17298268 -0.21642797 0.03651192 0.4119761 0.12356059 0.0014350689 0.09413968
0.26245943 -0.21338494 -0.21096991 -0.20296323 -0.06246015 0.32765588 0.0012838674 -0.10715628

a2.bias f4 [16]
00000000: 9dbc c6bd 4a50 3ebe 2462 b6bd 51d7 07bd
00000010: 160c dc3c 1295 1cbe 1dae bb3b b61f ebbc
00000020: fefa f73d fbde f9bd 5eb1 3cbe e57e 56bc
00000030: 6b3c 20be 4534 113d b5d9 263e ef4b de3d
-0.09703944 -0.18585315 -0.089054376 -0.033164326 0.026861232 -0.15291241 0.005727543 -0.028701644
0.1210842 -0.12200733 -0.18427035 -0.013091777 -0.15648048 0.03545024 0.16293986 0.10854327

a3.weight f4 [32, 16, 3, 3]
00000000: 95aa 27be aa26 b73e 9032 f6be 3442 b7bd
00000010: 61a7 ffbd bcfc c7bd 3168 27bf 1b35 b6bd
00000020: 487c 363e d2a4 74bd a574 c0bd e0c5 3fbe
00000030: a6b5 f1bc 1762 573e 1cab 463e 3fcc 9abe
00000040: f678 3dbe 038f e6be 6010 293e 484a 22bd
00000050: 36c0 0b3e e1f1 df3d a873 4f3e c9af 0abe
00000060: 068d bdbd 7a78 bd3d 626d d2bd 92b4 7dbe
00000070: 4a39 4e3e e1e7 4e3e 8594 813d 59a0 a4bd
00000080: ba7e 0d3e 8066 b1bd befd 24be be1a 0a3d
00000090: 4fca 493e 8a05 b53d 38f1 04be 90c6 4dbd
000000a0: dcdc a23e 808e a1bd 5237 1b3e d781 803d
000000b0: 366c 42bd 5907 0e3e e86d debc 258a c7bd
000000c0: 2af7 953e 09c4 3cbc 595f b63e c1c4 babe
000000d0: d6bd 40be a103 f33d ba18 d63d dc10 ed3c
000000e0: db41 4ebe 1409 833c 3e4f da3d a48c f0bd
000000f0: 1479 a73d 4dd4 a33e fb9b 683d 7bbd 253e
00000100: 5260 9b3c 79c5 4e3d 51e0 083e 64eb 843e
00000110: 741d 95be e3ef b63e c9de dabd 403d 71be
00000120: 6df6 edba ff2e 303e 9b71 01be d96b 193e
00000130: 6388 a53e 18ff 343d 799e 203d 58d3 8bbe
00000140: c1bb 01be 2dc7 8c3c 7132 6d3e fa1f a9bd
00000150: a6dd 813e 572b a1bd 9f91 c83b 20cc 0ebe
00000160: 7b8e dcbd f124 0e3e 2c44 a4bc ec67 853d
00000170: 523a 91bd 0ab9 083e 287e a9be 80f3 c03e
00000180: e552 513d 50ba 0ebe 1785 76be 76b0 abbc
00000190: f0c2 6ebe 0661 9bbd e0e7 34be 77ed 9d3e
000001a0: 6ec3 81bd 182a 40be d718 933e f072 22be
000001b0: c013 88bd 6ef1 b8be 028f a3be 2bcd 623e
000001c0: 7158 40bd 3891 b43e 2fc4 13bf b19e 0b3d
000001d0: 07d4 a7bc 8ef4 073f ecdc cc3c 12c4 f9bc
000001e0: 6cbe af3e 1e32 d53a 2b3a b1bd 3d29 323e
000001f0: ec35 3cbd ea37 5b3e 4492 cb3e 742c 7cbe
00000200: dabc c1be b50d c33d 81e3 903e 6b1c 3abe
00000210: 7147 103e 3810 12be 3a58 9abe 9927 1abd
00000220: bb73 c43d 4a63 c33d 4eef 7f3c 18ec d93e
00000230: d325 4cbf b0c7 113e 65c0 8abe 4fa8 84be
00000240: 27e7 143e f46b 86bd 3662 f83e 5409 cd3d
00000250: f15f c63c 81cc 243e c214 02be 356b 10bd
00000260: 1201 f03d 2947 90bd 82ae 8ebd 1ddb 3c3e
00000270: 383f 2dbe 4888 3dbe 4592 4b3e f5b5 713e
00000280: e153 1f3e 68de 44be 40f7 c9be f283 28bd
00000290: 2559 4ebd 751d 413e eeff a5bd 26e0 91be
000002a0: 45c5 3fbe 64ab 1e3d 4422 94be 95d9 1abe
000002b0: 1061 0abe 360d 1abe 6d4a 36be a624 1c3e
000002c0: 63d3 133e 3820 cc3d 04b7 eebd 000d 1e3e
000002d0: c513 81be b8e2 0bbe a9ea c1bd c6e8 79be
000002e0: 9d97 dbbd 143b 803e 2c6f c3bd c45b 3bbe
000002f0: c720 843e f673 183d 770e 793d 2935 f33d
00000300: b061 9c3d e8ce 25bd 010e ac3e 7d06 96bd
00000310: af55 7bbd bafc e53d 53f1 0cbe f6cb 57be
00000320: 5b43 183e a0d5 49bc 4568 6cbe 874a 343e
00000330: 5b65 023e 481e 4e3e db9b 7b3e 8168 92be
00000340: 0d73 a2bd a9cc f1be 1aff df3d 6019 a33e
00000350: 9afe ebbd 1c21 1abf 2edd 0d3e 705e 9b3e
00000360: 17de d93d 3c06 ae3e 0301 25be 2ea9 8abe
00000370: eb27 0fbd 1868 e1be 2eed e9bd 4333 14be
00000380: eb1c 16bc 4d29 1d3e 5378 b7bd c4f4 b6bd
00000390: 4423 d7bb 4c99 3cbd c9c7 70be 6f0f 0ebc
000003a0: 197e 513e 9794 113d ad69 873e 7241 35be
000003b0: d0a1 8b3e 99f6 57be 79f7 28be e493 5abe
000003c0: ebc0 08be 9f0f dabe 9727 adbd fce2 a6be
000003d0: 6f9c 32bd 2055 b4bd 856f 22be fb79 a7bd
000003e0: 6d23 2d3e c2d4 0fbf 7519 79be 9cfc 473e
000003f0: ded3 993e 3ef2 fdbd c341 593e 8b00 78be
-0.16373666 0.35771686 -0.4808545 -0.08948174 -0.12483097 -0.09765002 -0.6539336 -0.08896848
0.17820847 -0.059727497 -0.09397248 -0.18727827 -0.029505562 0.21033512 0.1940121 -0.30233952
-0.18503174 -0.45030984 0.16510153 -0.03962162 0.13647541 0.109348066 0.20258963 -0.13543619
-0.09255414 0.09251495 -0.10274769 -0.24775913 0.20139042 0.20205642 0.06327156 -0.080383964
0.13817874 -0.086621284 -0.1611242 0.03371691 0.19706081 0.08838947 -0.12982643 -0.050238192
0.31809127 -0.07888508 0.15157822 0.06274765 -0.04746648 0.1386999 -0.027152017 -0.09743146
0.29290134 -0.011521348 0.3561962 -0.36478236 -0.18822417 0.118659265 0.10453935 0.028938703
-0.2014231 0.01599554 0.106596455 -0.11745575 0.08177391 0.3199791 0.05678938 0.16185562
0.018966828 0.050481293 0.1336682 0.2596084 -0.29124033 0.35729894 -0.10687024 -0.23558521
-0.0018155106 0.17205428 -0.12640993 0.14982547 0.32330617 0.04418859 0.03921363 -0.2730968
-0.12669279 0.017184818 0.23163773 -0.08258052 0.25364417 -0.078695945 0.006120875 -0.13945055
-0.107693635 0.1388128 -0.020052038 0.06513962 -0.07091202 0.13351837 -0.33104062 0.37685776
0.051104445 -0.1393826 -0.24074207 -0.020958167 -0.2331655 -0.07586865 -0.17666578 0.30845234
-0.063361034 -0.18766057 0.2872989 -0.15864158 -0.06644392 -0.36121696 -0.31945044 0.22148578
-0.046959344 0.35267043 -0.5772123 0.034086887 -0.020486845 0.53107536 0.025007688 -0.030489001
0.34324968 0.0016265546 -0.08653673 0.17398544 -0.04594986 0.21408048 0.3976003 -0.24626333
-0.37839395 0.09524099 0.28298572 -0.18174903 0.14089753 -0.14264 -0.30145437 -0.03763542
0.09592386 0.09540422 0.0156210195 0.42562938 -0.79745215 0.14236331 -0.2709991 -0.2590966
0.14541303 -0.06563559 0.4851243 0.10011545 0.02421567 0.16093637 -0.12703231 -0.03525849
0.11718954 -0.07044823 -0.069668785 0.1844296 -0.16918647 -0.18509018 0.19880016 0.23604567
0.15559341 -0.19225466 -0.3944645 -0.041141458 -0.050377984 0.18858893 -0.08105455 -0.28491324
-0.18727596 0.03873767 -0.28932393 -0.15122063 -0.13513589 -0.15044102 -0.17801829 0.15248355
0.14436106 0.09967083 -0.11656001 0.15434647 -0.25210395 -0.13660705 -0.09468586 -0.24405202
-0.10722277 0.25045073 -0.09542689 -0.18296725 0.25806257 0.037219964 0.06080481 0.11875374
0.0763582 -0.040480524 0.33604434 -0.07325456 -0.06136101 0.112298444 -0.13763933 -0.21073899
0.14869444 -0.012318999 -0.2308665 0.17606555 0.12733977 0.20128739 0.24571173 -0.28595355
-0.079321004 -0.47226456 0.10937329 0.31855297 -0.11523171 -0.6020677 0.13853905 0.30345488
0.106380634 0.3398913 -0.16113667 -0.270822 -0.034950178 -0.4402473 -0.114221916 -0.1447268
-0.009162168 0.15347786 -0.08958497 -0.08933404 -0.0065654833 -0.046044633 -0.23513712 -0.008670672
0.20458259 0.035542097 0.26447812 -0.17700747 0.2727189 -0.21090163 -0.16500653 -0.21345478
-0.13354842 -0.42590043 -0.08454817 -0.3259505 -0.043606218 -0.08805299 -0.15862854 -0.08177563
0.16908045 -0.5618402 -0.24326117 0.19529957 0.30044454 -0.1239972 0.21216492 -0.24218957

a3.bias f4 [32]
00000000: da9f 50be 164d 9e3d 0ddd ce3d aa44 95be
00000010: 9dab 92be 56f8 163d d86b c53d 9b56 3fbe
00000020: 5893 b3be c3ff 49be d2b9 34be 14cd f8bd
00000030: 5468 09bf 383f debd 2be0 e1bd c0c3 b33e
00000040: 8ee8 863e cadf 43be 9c13 dfbd 438f a4be
00000050: 2b26 43bd c052 70be 4d41 acbd d234 6bbe
00000060: 7d21 64bd 408c 653e c0e4 933e 75af c0bd
00000070: eabf 923b 4622 ad3d 0557 81bd 89c8 2cbe
-0.20373479 0.07729547 0.10100756 -0.2915395 -0.28646556 0.036857925 0.0963971 -0.18685381
-0.35073352 -0.19726472 -0.1764901 -0.121484905 -0.5367482 -0.10851902 -0.11029085 0.35110283
0.263493 -0.19128338 -0.10892412 -0.3214055 -0.04764382 -0.23469067 -0.08410893 -0.22969368
-0.055696 0.22416782 0.2888546 -0.09408466 0.0044784443 0.08453803 -0.06315426 -0.16873373

b1.weight f4 [32, 32, 3, 3]
00000000: 9dff d1be 6aa7 ae3d 94d1 e3bd cc7a f0bd
00000010: 04e3 ddbd a32c e7bd 026b 3abd 1194 b0bb
00000020: cac9 77be 0baa 953b 89a1 cbbe 0ff3 ec3d
00000030: f722 8bbe 079f 0ebf de99 3f3d 8d87 0e3e
00000040: 5680 b8be 0b88 bc3e c9d5 a6bd afb8 3a3e
00000050: a914 8e3d 4c94 fc3d a87f 8e3e 1716 9dbc
00000060: fa39 68bd e4b1 2f3d 154c e6bd 5941 873e
00000070: d64e 713e 0703 773e 88af 083e d9ba 9fbe
00000080: d2dc f43d cadb 44be e7d0 3abe d62a 7abe
00000090: 0dc7 533e 7862 babe fc39 b7bb 2f72 5abd
000000a0: 9e45 0e3d 4cbd b3be 90b2 53bd 531d 0abf
000000b0: f380 0c3d 00b0 f03e d852 1dbf 5f5e 1ebd
000000c0: 10ea 683e 99b4 28be 3459 ae3c eb48 0c3e
000000d0: 026e 19bd 2d42 cebe c699 7cbe 227c 1fbe
000000e0: c258 e2bd ffbc 40bd d054 d13d 4229 54bd
000000f0: 256b 93bd 6343 46be 2e18 c3bd 80a2 7dbd
00000100: c7c4 5a3d 31b5 273d aa98 2a3d d78c 2bbe
00000110: 6f6b 1abd 992c 263c 1691 6e3d 88d8 c73c
00000120: c7d8 1cbe 3755 8abe b5fa afbe 13b5 c3be
00000130: 1372 663e 8092 2dbc 7b96 b6be 76dc 1a3e
00000140: f6de 7d3e 5e96 553e 21d6 e7bd 423e 17be
00000150: 242e 603e 389f ea3d 3cf0 b23e 5147 1b3f
00000160: 5f06 bcbd ade0 8abd fad3 88be a841 693e
00000170: a1a0 5dbe e2bf 193e 8c62 3e3e 70d0 2abe
00000180: 1b4d 083e a2e2 123c 8dfb d93c 43b4 7cbe
00000190: 3717 96be f112 f5be d2dc 983e d879 f4bd
000001a0: 8e7c b8be 334f 663e f8e3 0e3e 29fd 14be
000001b0: 5545 5fbe fad4 c0be 8a55 2abe 2611 05be
000001c0: f591 a0bd b316 583e 8bf4 15be 91d6 a7be
000001d0: 023e 39bd c6e2 75bc 20fd 283d 2b1a 343e
000001e0: 7ef5 9b3d f1d7 18bd 44aa 26be 538c d7bc
000001f0: c118 9abe b969 7d3d 096d f73d dc8e 2a3e
00000200: d301 993c 12fc 19bd 99b4 b4be c3e9 653c
00000210: 21ae 91bc 291f 28be 8b0a babd dee5 533d
00000220: 7abd f53c f2a9 12bd dc23 6bbe 285b 0a3d
00000230: b052 4abd 9a55 c13c f07d a6be 19cd d93c
00000240: 9ed9 52be d643 e7bb 869d 953d 48ab 523e
00000250: 9c55 a53e 23b0 153e 86e9 c23c b0b3 6bbd
00000260: d1d6 813e 26f0 8b3d ce5a 373e 5330 e8be
00000270: 0b7f 16bc 5ba0 abbd 710f 02bf f252 a0bc
00000280: c158 653e 0e23 1cbe fab9 7e3e 28cf 68bd
00000290: 86c0 a9bd 03ad 2a3d 5ca4 f2be 937d 70be
000002a0: 5fab c3bd 8bb9 f5bd d37f f3bd 91ad 7fbe
000002b0: 31a1 b13e 8f89 9dbe e0d0 4b3e 6ac9 4d3e
000002c0: 4d4a 9ebd 5d44 24be 0d2d 813e b8f0 31be
000002d0: 2a46 23bc 2b61 16be 33f4 e13d 1b8d e73c
000002e0: 372e 5dbd 557b a6bc b2b4 593e 3d17 a83d
000002f0: 01f6 6d3e c0b3 ab3d 17be 92be deee 1abe
00000300: e840 193e 3360 fc3d a429 493e 6f45 35bd
00000310: e7a7 50be e642 12be feb8 efbd fd01 c03d
00000320: b3bf 753d 0563 1ebe 0df5 0c3e f98a ca3d
00000330: eeb5 483e 8622 cdbe e17c c0bd c400 32be
00000340: 63f4 4a3e 3334 94be f476 6fbe df83 d2bc
00000350: 66be 1abe 651c 8fbd c8a3 a73e 0d59 f73d
00000360: 6a1d 9e3e ec83 9dbe 50a4 85be 7f2f adbe
00000370: 5ee5 143c 0dd3 a43d e937 82bc bfa0 443e
00000380: d8a8 6c3d 957a 563e 8357 823d 71f7 e9be
00000390: 8c2f a7bd d07e 953b 2f74 793e 1424 06be
000003a0: e9f9 be3e b2d4 a93d b541 f23e 2de5 b6bd
000003b0: 6a31 73be 9172 d23d 6726 34bd 5c6c 4fbc
000003c0: 91c9 4f3d 7641 8b3e 3d94 b9be c053 643e
000003d0: 2d4f 65bd 5841 a9bd 9559 43bf cd25 97be
000003e0: 02cd 90bc 6b77 5ebc 2972 713e 3454 013d
000003f0: d455 b93e df9a 9abd ead6 f3be ff37 b23d
-0.4101533 0.085280254 -0.11123958 -0.11742172 -0.108343154 -0.11287811 -0.045512207 -0.0053887446
-0.2419807 0.00456739 -0.3977168 0.11569797 -0.27175114 -0.55711406 0.0467776 0.13918896
-0.36035413 0.36822543 -0.08146245 0.18234514 0.06937534 0.12332973 0.2783177 -0.019175572
-0.056695916 0.04289426 -0.1124498 0.26417044 0.2356523 0.24122249 0.1334821 -0.3119724
0.11956181 -0.19224468 -0.18243752 -0.24430403 0.206814 -0.3640325 -0.005591629 -0.05333155
0.03473436 -0.3510536 -0.051683962 -0.53950995 0.034302663 0.47009277 -0.61454535 -0.038664218
0.22745538 -0.16475143 0.02128277 0.13699691 -0.037458427 -0.40284863 -0.24668035 -0.15574697
-0.110520855 -0.04705524 0.10221255 -0.05179716 -0.071981706 -0.19361643 -0.09526096 -0.06192255
0.053410318 0.040944282 0.041649498 -0.16752945 -0.037700113 0.010142469 0.058243833 0.024395242
-0.15317069 -0.2701814 -0.34370962 -0.38224086 0.22504453 -0.01059401 -0.35661682 0.15123162
0.24792084 0.20858142 -0.11320139 -0.14769843 0.21892601 0.1145615 0.3494891 0.60655695
-0.09180903 -0.06781135 -0.26724225 0.22778952 -0.21643306 0.15014604 0.1859228 -0.16681075
0.13310663 0.008965166 0.026609207 -0.2467814 -0.29314587 -0.47866014 0.29855973 -0.11937302
-0.36032528 0.2249115 0.1395415 -0.14549698 -0.21803792 -0.37662488 -0.16634193 -0.12994823
-0.07840339 0.21102409 -0.14644067 -0.3278089 -0.04522515 -0.01500768 0.041257024 0.17588107
0.07615183 -0.037315313 -0.16275889 -0.026312029 -0.3009701 0.061868403 0.12081344 0.16656059
0.018677628 -0.03759391 -0.35294035 0.014032784 -0.017783226 -0.16418137 -0.09084042 0.05173289
0.029997576 -0.035806604 -0.22962898 0.03377834 -0.049395263 0.023600388 -0.32517958 0.026587056
-0.20590827 -0.007057647 0.07305436 0.20573151 0.32291877 0.14617972 0.023792993 -0.05754441
0.25359204 0.06832914 0.17905733 -0.45349368 -0.009185563 -0.08380195 -0.5080481 -0.019570801
0.22397138 -0.15247747 0.24875632 -0.056838185 -0.08288674 0.041668903 -0.4739102 -0.23485403
-0.09554171 -0.1199828 -0.11889615 -0.24968554 0.34693292 -0.3076901 0.19903898 0.20096365
-0.077290155 -0.16041704 0.25229684 -0.17376983 -0.009965459 -0.14685504 0.110329054 0.028265527
-0.053999152 -0.020322481 0.21260336 0.08207557 0.23238374 0.08383894 -0.28660652 -0.15130183
0.14966166 0.12323036 0.19644791 -0.04425567 -0.2037655 -0.14283332 -0.11705206 0.09375379
0.05999727 -0.1546746 0.13765354 0.09889788 0.1960065 -0.40065402 -0.09398819 -0.17383105
0.19819789 -0.28946075 -0.23385221 -0.025697647 -0.15111694 -0.06987838 0.32742143 0.12077532
0.30881816 -0.3076471 -0.26101923 -0.338253 0.0090878885 0.08048067 -0.0158958 0.19201945
0.05777821 0.20945199 0.06364348 -0.45696595 -0.08163366 0.0045622364 0.24360727 -0.130997
0.3730004 0.082925215 0.47315755 -0.089304306 -0.23749319 0.10275758 -0.043981936 -0.012660112
0.050729338 0.2719838 -0.3624591 0.22297573 -0.05598371 -0.082644165 -0.76308566 -0.29521027
-0.01767588 -0.013578276 0.23578705 0.031574443 0.36198294 -0.075490706 -0.47624904 0.08702087

b1.bias f4 [32]
00000000: c2c2 a5bd 17f1 4cbe c34f cfbe 3546 62be
00000010: f271 023f 97f5 ffbd 1710 1cbe 7e36 8f3c
00000020: 79ee 02be 63c6 e4be bdda abbe 4d4e bd3d
00000030: 9a67 92be 14bd 9fbe 8cb1 873d c972 3bbe
00000040: dc27 fabd cb95 0bbf e0b9 2cbe 622f 763e
00000050: 3ac2 21be 46c0 98be b5de f33e 02d4 ecbe
00000060: 5062 38bd 670e 25be ed78 bebd eeba 2abf
00000070: 9c37 6cbd f6ea 65bc 3923 ef3d 8ede 17be
-0.08093788 -0.20013843 -0.4049054 -0.22097094 0.50955117 -0.124980144 -0.15240513 0.017482039
-0.12786283 -0.44682607 -0.33565322 0.0924345 -0.28594667 -0.31198943 0.06625661 -0.18305506
-0.12214634 -0.5452544 -0.1686778 0.24041513 -0.15796748 -0.29834193 0.4763085 -0.462555
-0.045015633 -0.16118775 -0.093004085 -0.6669148 -0.05767022 -0.01403307 0.1167664 -0.14830992

b2.weight f4 [32, 32, 3, 3]
00000000: 0d32 503e 777e 753d e285 7abc 719a fc3d
00000010: d8b0 4bbe 5cd0 9e3e c05b 09be a284 5ebd
00000020: 16c4 123e 6087 653e 4933 93bd 1d30 08be
00000030: 3505 dabd cb2d 10be cf5c 44be dc3c da3d
00000040: 8177 f13d bdb9 dfbe c688 29be a8fc 5a3e
00000050: 600c f2be a7ad 3b3d b7c2 60be 1ba4 1d3e
00000060: fd7d 52be 2768 04be 8e8d 2cbe 5d75 e53e
00000070: 7e8a cdbd d5d1 063e 9642 063f 5185 04bd
00000080: 44ab 43be ba35 3bbd b6e4 e1be 9b94 f6bd
00000090: 4683 c7bd a34b b63d b50e 9dbe c407 873c
000000a0: 5c3e 4d3e a798 94be f049 08bf 48cd 3e3e
000000b0: b48d 6a3e e3dc 003f 1214 bfbe 3cb8 0ebe
000000c0: 1fcd 92be e27a 8ebd 51d7 bdbe 8c42 213e
000000d0: 289e f63e 2645 3b3f c543 f93c 71d3 92be
000000e0: 8b3e e93d b569 4abe a6b0 68bd 3ebb b4bd
000000f0: 95e0 163e e8ed 0e3e 3645 8cbe 077b 963e
00000100: ce12 46be 9e18 19be 1140 f1bd a930 1d3d
00000110: 17ae 613d 30cf ca3c 0a3a 123e 353f 2dbe
00000120: dd56 fdbc 130c 5abe 79b3 723e 990f 0e3d
00000130: c0db b1bb 4459 d8bd 5ac0 e2bd e8fa 833d
00000140: 0271 a5be 1133 a3be 4e3b c6be e083 57be
00000150: a9e2 163e ca2c 10be 06df af3e 5a6e dc3e
00000160: bf53 153d 4069 e53b 1906 90bc 6d0e 66be
00000170: 30c0 1ebe 047c 2ebe 9902 40be 29c0 63be
00000180: 67e0 c03e eff5 873e f8bf 6fbe 6fa8 053e
00000190: 0071 87bd 5079 143e 6138 48be 577a fd3d
000001a0: 05e1 66be e626 b2be 1891 2c3e fa51 3cbe
000001b0: 5dc8 96be 6a76 46be fac2 bf3b 2588 123e
000001c0: 013d 18be 612b 50be 0b1f bbbe 0621 f33d
000001d0: 9756 963d e8da aabe 034a e9bd 795f 0bbf
000001e0: 5f01 58bc 5d33 98be 87c6 0b3e ac11 13be
000001f0: ea05 f9bc 1bcb a1be 9985 683e 91ad 6cbd
00000200: 982e cbbd 1c5b 083a 9c57 05bf a837 403d
00000210: a804 59be 418f 623e 91a8 423d 70d5 06be
00000220: 4986 9ebd 60c3 b1bd 8a17 883e 4e4f f8be
00000230: e124 b03d 4950 a53c a192 453e b3ec c23d
00000240: db71 a43e 1460 87bd 88b3 62bd df3d a839
00000250: c5bd cdbd 9a8d 253e 6253 4b3d b14a 8c3e
00000260: 8828 04be 7e01 c8bb fffe 88bd 40c6 313e
00000270: 6243 1f3e 8461 e03c 23cf bd3d 3856 56be
00000280: f2e2 bd3d 3496 2cbe 1d59 81bd 7246 8d3d
00000290: 46aa 76bd 4916 cdbd 41e9 97bd 6b30 8fbe
000002a0: accc 45be 07a1 11be c533 40bc e5b1 993e
000002b0: 4088 563c 6c42 f7bd 8876 1a3d 6dbf 5e3e
000002c0: 2819 5b3e c4a6 b5bd d814 ab3d 5435 92bd
000002d0: a98e 6dba cd4e 74be afb2 d1bb 1803 433e
000002e0: 1d8e d9bd daff 273b 689f a7be 55b0 31bd
000002f0: 9842 9cbe 4131 8dbe ef94 33be c581 863d
00000300: 7f0b 433e 42df 4b3e 9606 b33e 60a4 cfbd
00000310: 6abd 8ebe c7dd 1ebd adff 8e3e ce74 93be
00000320: 1d79 b23d e78d 9b3d 9a37 f9bc fa58 363e
00000330: 12b1 3dbf 9bf2 b13e 5986 b5bd 3274 a5be
00000340: dec4 04be b503 70be a4e5 77bd 9e0d f1be
00000350: cace 353f 2e95 d03d 3a76 d53b dfeb 313e
00000360: 4e64 a73a b930 ccbd a6b1 95bd 9403 883d
00000370: 8e0e 51be e18b 1dbc 1386 933e f0a7 2d3e
00000380: fade 83be 5f46 353d 3837 23be e393 723e
00000390: ca66 d9bc 1e43 963e 8689 adbd 2153 f3bd
000003a0: 414a 51be a1ac 003e 975d ac3d e68a eabd
000003b0: 0de3 8b3d 4ec3 fabc 8ef7 a73d 2b13 493e
000003c0: 83e6 bebe f967 a0be 15ad 67be a043 263e
000003d0: a8a5 4abe 9e43 cc3e 6eb1 333e 421e e0bd
000003e0: e4a8 95be fd7a 82bd 1a38 08bf dd4b 1d3e
000003f0: 7ff7 803d 048d 013e 73c1 7f3e eb0c 523c
0.20331593 0.05993506 -0.015290709 0.12334145 -0.1989168 0.3101834 -0.13413906 -0.054325707
0.14332613 0.22414923 -0.07187516 -0.13299604 -0.106455244 -0.14079969 -0.19176029 0.10656139
0.11790372 -0.43696395 -0.16556081 0.21385443 -0.47275066 0.045819905 -0.21949278 0.15394633
-0.20555873 -0.12930356 -0.16850874 0.44816104 -0.10036181 0.13165982 0.5244535 -0.032353703
-0.19108301 -0.045705535 -0.44119805 -0.12040063 -0.09741835 0.08901145 -0.30675283 0.016483195
0.2004332 -0.29022714 -0.5323782 0.18632996 0.22905618 0.50337046 -0.3732 -0.13937467
-0.2867212 -0.06957032 -0.37078336 0.15748042 0.4816754 0.7315239 0.030427823 -0.28676942
0.11388882 -0.19766887 -0.05680909 -0.08824776 0.14734109 0.13957942 -0.27396554 0.29390737
-0.19343111 -0.14950797 -0.11779798 0.038376484 0.055097666 0.024756998 0.14279953 -0.16918643
-0.030925209 -0.21293668 0.23701276 0.034682844 -0.0054278076 -0.10563901 -0.110718444 0.06444341
-0.3231278 -0.31874898 -0.3871712 -0.210464 0.14734901 -0.14079586 0.3434984 0.43052942
0.03645682 0.007001072 -0.017581033 -0.2246644 -0.15503001 -0.17039496 -0.18750991 -0.22241272
0.37671205 0.2655482 -0.23413074 0.13052534 -0.0661335 0.14499402 -0.19552757 0.1237685
-0.22546776 -0.34795302 0.16852224 -0.18390647 -0.2944974 -0.19381109 0.0058521004 0.14309748
-0.14867021 -0.20329048 -0.3654712 0.11871533 0.073407345 -0.33370137 -0.1139107 -0.54442555
-0.013183921 -0.29726687 0.13649951 -0.1436221 -0.030398328 -0.3160027 0.22707213 -0.057782713
-0.099209964 0.00052015646 -0.52086806 0.046928078 -0.21193182 0.2212496 0.04752404 -0.13167357
-0.077404566 -0.08679843 0.2658046 -0.48498005 0.08600784 0.020179885 0.19294216 0.09517803
0.32118115 -0.06610122 -0.055346996 0.00032089555 -0.10045961 0.16167298 0.049640067 0.27400735
-0.12906086 -0.0061036935 -0.06689262 0.17360783 0.15553048 0.02739025 0.09268024 -0.20931327
0.09271802 -0.16854173 -0.06315825 0.06898202 -0.06022098 -0.10014016 -0.074175365 -0.27966627
-0.19316357 -0.14221583 -0.011731093 0.30018535 0.013094008 -0.12073216 0.037710696 0.2175271
0.21396315 -0.08869699 0.08353585 -0.07139078 -0.00090620905 -0.23858185 -0.0063994746 0.19044149
-0.10622809 0.0025634677 -0.32738805 -0.043381054 -0.30519557 -0.2757664 -0.17537282 0.0656772
0.19047354 0.19909385 0.34965962 -0.10138774 -0.27878886 -0.038785722 0.2792944 -0.28800052
0.08714507 0.07595425 -0.03042202 0.1780738 -0.7409831 0.34755406 -0.088635154 -0.32315212
-0.12965724 -0.23438914 -0.060521737 -0.47080702 0.7101866 0.10184704 0.006514338 0.17375134
0.0012770982 -0.099702306 -0.073092744 0.066413075 -0.20415708 -0.009615869 0.28813228 0.16958594
-0.25756055 0.044256564 -0.15939033 0.23689227 -0.026538271 0.2934808 -0.08473496 -0.1188109
-0.20438482 0.12565853 0.08416288 -0.11452274 0.06830416 -0.030610707 0.08201514 0.19636218
-0.3728524 -0.31329325 -0.2262462 0.16236734 -0.19789755 0.39895338 0.17548153 -0.10943271
-0.29230416 -0.063711144 -0.53210604 0.15360971 0.06297206 0.1265145 0.24976139 0.012820463

b2.bias f4 [32]
00000000: 06a1 e83d ffa6 29bf fd1a d4be c486 0dbf
00000010: 6b8d 18be 0e1e efbe d7a6 a2be 176f b6be
00000020: 823b 9e3e b928 3c3d 0ddb 853c e326 87be
00000030: 0983 96be f7f2 fbbe 8a73 eabd 63ca 003e
00000040: 6496 1abe 2e0d b9be 6a76 e6bd 600e 56be
00000050: c29c 13be 2580 6e3e 8c14 d5be 0766 853e
00000060: 94b1 ddbe 1890 803e ec55 cb3d 8ac4 753d
00000070: f228 0ebf 3851 c6bd 87b8 8a3e c528 f0bd
0.11358838 -0.6627044 -0.4142684 -0.5528376 -0.14897697 -0.46702617 -0.31767914 -0.3563163
0.30904776 0.045937274 0.016339803 -0.26396856 -0.29396847 -0.49208805 -0.114478186 0.12577204
-0.15096432 -0.36142868 -0.112530544 -0.20903921 -0.14415267 0.23291071 -0.4161724 0.26054403
-0.43299544 0.25109935 0.09928498 0.060001887 -0.5553123 -0.0968346 0.27093908 -0.11726526

b3.weight f4 [64, 32, 3, 3]
00000000: b4c8 56be 4326 eb3c b8a4 abbd 6617 18be
00000010: fb43 95bc 1c57 f3bd 9dd6 56bc 38e6 dabe
00000020: 2659 473d 8964 a23d 21d0 3bbe c860 843e
00000030: 5742 19bd db7d 383e cecc b8be 2b3c 75be
00000040: e992 4cbe d6e9 5cbe cfdf 43be 1426 65be
00000050: c0e1 c43c 931f d83d baf9 fbbd d58d c5be
00000060: 5975 d73d 900b b83e b728 00be ca77 0dbd
00000070: 0237 09be a2fc c63d 8321 9f3d 2eae 713e
00000080: 21c8 4cbe e0a8 703d 5e49 e3bd c50f 9f3e
00000090: 000a b23d e170 47bd 11fb 323b b23d 1bbf
000000a0: 5bd3 e63d abf9 e33e 7208 7abe 173d 9b3e
000000b0: 12b0 9f3d ccf9 02be 69eb 053f 2050 283e
000000c0: a288 5f3e 9745 54be 8207 a63e 31c5 4ebe
000000d0: cadf 00be 91dc a9be 233c f33c b60b 7d3d
000000e0: 505e 65be 0610 973d f11a c63d e44a 333b
000000f0: ec9b babc 24f5 01be 7923 5a3d 2642 53be
00000100: 312d 8dbd a887 593e f8f1 3cbd ea61 8abd
00000110: 6637 06bf 20b7 313e ea70 bd3e 2f64 55be
00000120: ac2d 2dbd 3c9a b63d e4a5 dbbd bbb2 42bd
00000130: 6ac0 d93c 9935 a3bd fd8d f23a 4b09 99be
00000140: 7d3c 623e 7745 84be 5b2a 263e ab91 103e
00000150: 9719 193d 2ea7 b23e b6a8 7bbe cadf b3be
00000160: 1813 24bf 2802 9ebd cf3b b7bd 0a11 a5be
00000170: bbdf 55be 0eae 1d3d d7c2 1a3b 20ff c73d
00000180: d329 c2be 0d36 ccbc 39f4 53be d971 403e
00000190: 4f57 233c 99fd 80bd f9b9 903e 996e f13c
000001a0: 4631 163e ff5c 333c 66da d73e 2c3a 883e
000001b0: 58e6 483d ff7b 3e3e f6f4 593e b178 e03d
000001c0: f25e fabd f445 d2be 01b9 81bd bb14 4dbd
000001d0: 8bda 063e 27ab 65bd 837f 93bd 171e 0a3e
000001e0: 7391 51bd 0e31 d83e 3820 953e 66bb 91bd
000001f0: f597 513b 17ce 533e 333f 5d3e 47be c2be
00000200: b182 623c de5b 873e 9915 efbd b956 0a3e
00000210: 3e8b 563c 22da c3bd 65e8 04bf 50fc f4bd
00000220: 6bfe 6ebe 334f 173e 26a5 d6bd c962 7dbe
00000230: 475e 0fbf 6b47 55be ce7f 113c aa42 b1bd
00000240: 232f 3c3e bbfc c1be edaa 86be 21e6 7d3e
00000250: e335 a2be ddc1 f83d 5f88 39be a3dc 31be
00000260: 1fcf fbbe 7a36 0dbe 5fb3 c93d 4513 ac3e
00000270: 0ac0 d03d 7e3e 923d 9a8b 87be 55f4 7dbe
00000280: 41ce 83bd a0f2 00bf dbe5 b93e bc7a 073e
00000290: dee7 0c3e 590e 40bd f931 b0be f806 91be
000002a0: b41e 2fbe 774e 3ebe 30bd 0bbe ad36 0e3e
000002b0: eff5 65be b3a8 d53c 0726 84bc 88f9 e4be
000002c0: a467 0b3e 2222 003c a447 2dbc 750a 9ebd
000002d0: 2662 f13d d6d1 663c b138 f2bd 5a77 8b3e
000002e0: cd60 edbd c8ad 5a3e 35a0 68be 3a37 8f3e
000002f0: 40df 36bd 7f3f 5cbd c763 2abe 9980 3e3d
00000300: 2ae5 b4be c6ef ec3d 442d 9b3d 330c 73bd
00000310: a81f a43c e5a5 f1bd 34e9 e9be 7458 40be
00000320: 2ca4 b13d a41b 743e 1138 153e d3a3 87bd
00000330: a47a 383e afdc a1be 86bf 0fbe 5a73 cebc
00000340: c13b 193d 2ba2 a6be 969b 223d 94c4 1abe
00000350: 7c1d 113e 30aa 8e3c 0fa5 d2be 8b87 ca3d
00000360: 55e6 60bd f2e4 2bbe 9afa 3d3e 6eba c8bc
00000370: 9fac 94be a821 bfbd dbe4 833b 6eff 283e
00000380: 3586 efbd 4657 5f3b 0f6d f8bd 1aa0 933e
00000390: 35e5 073f 1d1e c13d 0bb7 ff3d 56fb 163e
000003a0: b63e 883e 347f c23d c2ee b73d b50d 8b3d
000003b0: 4414 3a3d 9b6f af3c 0260 9b3e f6f6 873e
000003c0: 35e9 39be 018d f3be 6b10 423e 8db2 83bd
000003d0: 5b7e 4cbd 06bf 77bc 1173 9f3d e143 25bc
000003e0: 60a1 393d 3dbc 13bd 0ea0 8dbe 8c16 a63e
000003f0: b3be 773c ce9b 0d3d 948c 8c3e 9197 a63c
-0.20975 0.028704768 -0.08381027 -0.14852676 -0.018220892 -0.11881849 -0.013112691 -0.42753768
0.048669003 0.07929332 -0.18341114 0.25855088 -0.037416782 0.1801676 -0.36093754 -0.23948734
-0.19977917 -0.21573576 -0.19128345 -0.22377807 0.024033427 0.10552897 -0.12303491 -0.38584772
0.10520429 0.3594632 -0.12515531 -0.034538068 -0.1339989 0.09716155 0.07770064 0.236016
-0.19998218 0.0587548 -0.11097978 0.3106672 0.086933136 -0.048691634 0.0027310292 -0.60641015
0.112707816 0.4452642 -0.24417284 0.30320045 0.077972546 -0.12790602 0.5231233 0.16436815
0.21829465 -0.20729671 0.32427603 -0.2019241 -0.12585369 -0.3317609 0.029691761 0.061778747
-0.22399259 0.07376103 0.096731074 0.002735787 -0.022779427 -0.1269117 0.053256486 -0.20630702
-0.06893385 0.21243155 -0.046129197 -0.06756957 -0.5242828 0.17355013 0.3700021 -0.20838998
-0.042279884 0.089161366 -0.107250005 -0.047533732 0.026581008 -0.07969207 0.001850545 -0.29889902
0.22093387 -0.25834247 0.16227095 0.14118068 0.03737792 0.34893173 -0.24576077 -0.35131675
-0.64091635 -0.07715255 -0.089469545 -0.32239562 -0.20886128 0.03849607 0.0023614669 0.09765458
-0.37922534 -0.024928117 -0.20698632 0.1879343 0.009969546 -0.0629837 0.28266886 0.029471682
0.14667234 0.010947465 0.42158812 0.26606882 0.049047798 0.18601988 0.21284851 0.1096052
-0.12225141 -0.41068995 -0.06334115 -0.0500686 0.13169305 -0.056071427 -0.07202055 0.13488041
-0.0511641 0.42224926 0.29126143 -0.071158215 0.0031981443 0.20684086 0.2160614 -0.38035795
0.013825105 0.26437277 -0.11674041 0.13509645 0.013094721 -0.0956309 -0.51917106 -0.11962187
-0.2333924 0.14776306 -0.10480718 -0.24744715 -0.5600323 -0.20828025 0.008880569 -0.08655293
0.18377356 -0.3788813 -0.2630228 0.24794818 -0.31681737 0.121463515 -0.18118428 -0.17369322
-0.49181458 -0.13790312 0.098486654 0.3360845 0.101928785 0.07140826 -0.26473695 -0.24800237
-0.06435824 -0.50370216 0.36308178 0.13230413 0.13760325 -0.046888683 -0.34413126 -0.2832563
-0.17101556 -0.1858462 -0.13646388 0.13888045 -0.22457097 0.026081419 -0.016131414 -0.44721627
0.13613755 0.007820638 -0.0105761625 -0.07716838 0.117862985 0.014088115 -0.11827219 0.27239496
-0.11590729 0.21355355 -0.22717364 0.27971822 -0.0446465 -0.053771492 -0.16639625 0.04650936
-0.35331088 0.11569171 0.07576993 -0.059337806 0.020034626 -0.1179922 -0.45685732 -0.18783742
0.086738914 0.23838669 0.14572169 -0.06623044 0.18015534 -0.3161368 -0.14037904 -0.025201488
0.0374105 -0.325456 0.03969916 -0.15114051 0.14171404 0.017415136 -0.41141555 0.09889134
-0.05490716 -0.16786554 0.18552628 -0.02450296 -0.2903795 -0.09332591 0.0040250844 0.16503689
-0.1169552 0.0034079119 -0.12130176 0.28833085 0.5308412 0.09429572 0.124860846 0.14744315
0.26610345 0.09496918 0.08981086 0.06789724 0.045429483 0.021415522 0.30346686 0.26555604
-0.18155368 -0.47568515 0.18951575 -0.0643054 -0.04992519 -0.015121227 0.07785619 -0.010086984
0.045319915 -0.03606819 -0.27661175 0.32439077 0.01512115 0.034572415 0.27451003 0.020335944

b3.bias f4 [64]
00000000: 5f8f dd3d e4a8 003e 1052 5bbd 7959 08bd
00000010: e0a8 e43c 9f16 4fbe bc3e 6a3d c054 8e3d
00000020: 53bc 88be e9e7 09be 0fcb 23be b32e 263e
00000030: be9d 613d b55d 5a3e 5475 4cbe 24b9 b8bd
00000040: a6c1 ebbc 9966 9abc a41c a0bc 826e 1b3e
00000050: 57e9 60bd f9cd 93be 059b 44bc ad4f 383e
00000060: 481d 493e c9bc 5dbe a2cb e8be 317f e3bd
00000070: c848 983e 7d93 dbbd 1952 633d 5b38 b9bd
00000080: 8349 3ebe 1e5d c3bd f030 79bd d75e e23d
00000090: 5a94 96bd ed79 94be 229e fd3d 3892 d8bd
000000a0: 14ed 393d af88 263d 36e6 6c3e 6353 a43e
000000b0: 1845 f1bd 6e31 fbbd 28d7 153e 450d 0ebe
000000c0: 959c 7fbe 645e 5dbe d411 43bd d300 c83c
000000d0: 4bae 67bd 1af1 aa3d ebc2 063d 004a 95bd
000000e0: eeea ec3d 4a96 293e ee53 e4bd 5bc6 ebbc
000000f0: 6ed3 6dbe c7ba 773d b0a5 9dbd 965e dcbe
0.108183615 0.12564427 -0.053545058 -0.033288453 0.027912557 -0.20223473 0.057188734 0.069497585
-0.2670618 -0.13467373 -0.1599543 0.16228752 0.055082075 0.21324809 -0.19966632 -0.09019688
-0.028778862 -0.01884775 -0.019544907 0.15178874 -0.05491003 -0.28868082 -0.01199985 0.17999144
0.19640076 -0.21654047 -0.4546786 -0.11108244 0.29743028 -0.107214905 0.055498216 -0.09043952
-0.1858273 -0.09539245 -0.060837686 0.110532455 -0.073525146 -0.28999272 0.12383677 -0.10574764
0.04539211 0.040657695 0.23134694 0.3209487 -0.11780757 -0.12265287 0.14632857 -0.1387225
-0.24962075 -0.21618038 -0.047624424 0.024414456 -0.056562703 0.08346768 0.032900732 -0.07289505
0.11568247 0.16561237 -0.11148821 -0.028781107 -0.23225185 0.06048086 -0.07697618 -0.43040913

c1.weight f4 [64, 64, 2, 2]
00000000: 7762 c0bd 0cbb c43c 01d2 dfbe 4eb7 403d
00000010: d4f9 3f3d abe6 723c 7355 5fbd 7004 893c
00000020: 80bd 653c f0e5 bcbd f98c 4dbc e14e f93d
00000030: fb82 b1bc baba ab3d 0b00 2cbc 3799 863d
00000040: efcf 8f3d 7663 fbbe 7d34 b6be 3ee6 58bd
00000050: 99bd 7a3d c552 24be edf5 10be a139 f7bd
00000060: 07f0 863e 53bf 8cbe 172b 503e 0a18 4bbe
00000070: ccd2 83bd 7308 95bd 5102 3cbe 6360 4c3d
00000080: 667d 13bc 58b1 3a3e ce86 33bd 7e90 9a3e
00000090: f25a 103e dbe6 06bf 8439 6c3e 22c4 04be
000000a0: 3949 9abc 75a6 7bbe 753f 0dbe e295 99bd
000000b0: 20d1 e8bd cfa2 b9bd befd 4c3e 5f75 f33b
000000c0: e346 b73e 6ea1 04bf 7199 6cbe 595a cebd
000000d0: a83f 303c 84c1 04bc 1008 a73d 964d 853d
000000e0: e357 11bd 52b7 833e 20f3 77bd 3d31 f9bd
000000f0: 3b51 92be d643 1b3e 0532 f2bd e891 aa3e
00000100: d121 c63d 9dbc 07be 9c7c 42bf 2a8f 14be
00000110: 6e47 9cbe 19dd f33c 359b 1cbd 5b07 2b3e
00000120: 4cc3 3d3e 07ce d4bd d119 2b3e 5575 93be
00000130: 29f7 94be d533 3e3e 93bc a6be 1b1b 90bd
00000140: 88ed 7a3b aa6e ac3d 12ed b1bd eff9 103d
00000150: a537 643e 7955 b93e 0f42 e43d a6ee b6bd
00000160: 9276 b13e d710 babd e5a9 91be 889b bebe
00000170: e21c eebc 9b08 4f3e 5d30 cbbe ac0b 143e
00000180: f4a3 613d 8d05 07be f94f 72bb 6927 aebe
00000190: 24ed 643d 478b a5bd aa06 df3e 1b2c 23be
000001a0: 463e e13d 18ec 59bc dd09 94be 180f 36be
000001b0: b661 82bd 2127 9fbc 68f3 663d 08f6 533d
000001c0: ab52 3ebe 5188 263e ee26 ffbd d166 113e
000001d0: cfa2 053e b88a 1ebe 35ea 9cbe 449b 93be
000001e0: def8 76be c950 8abe 40bc 1c3e 599a a53e
000001f0: cd73 0f3d 0054 99b8 8ae2 ccbb 9cab 8dbc
00000200: 677b 26be b990 bb3e 1da0 513e 655f 433e
00000210: e74a 3f3d 6c63 b53b 861a 69bd 2066 a1bc
00000220: 22c6 9b3e 7f2b e33d e3af db3d 6240 3dbe
00000230: 9e5b 003e 8d32 c3be 788b 38bc 3465 01bc
00000240: 9518 2c3e 1d53 c93b d626 2c3e 27c9 d63a
00000250: 8754 01be a752 6a3e 9b3a 153e 612e 6f3e
00000260: cd4c 5e3c 5dfe 313e bf15 783d 4fac 603e
00000270: 4d46 93be 8693 873e 6fe1 8fbe f09f 8a3c
00000280: 1092 833d bde1 45bd 893b 993e 8583 36be
00000290: a3bb 06be ed1d 003e 6626 29be 15fd bc3b
000002a0: 0251 80be 84cd ddbc a27f 573e b32c 693d
000002b0: 4690 41be 9b09 2f3e c00b 0fbe 2bcc 173e
000002c0: 4a7e 0e3d f2db 1dbd ed54 8bba 5db1 fa3c
000002d0: 9748 80bc 6ce5 6abd 3249 1f3d 7876 9e3c
000002e0: f34c 9a3e 464b bbbe 6b72 2ebe c036 d1be
000002f0: 78b8 5c3e 8ce8 9cbe 657f 9f3e b793 55be
00000300: 7508 cabd f1e6 fc3c d38d ff3e 5ed4 2bbd
00000310: 70e9 67be 4877 11be 7bf6 2a3e 7e03 363e
00000320: d14f 12be 7b04 31be 3385 08be 8709 8b3c
00000330: 5be6 543e a4e6 91be 2495 953e 3c18 a6be
00000340: e441 2b3e 6224 82be 4d51 d0be 0ff0 44be
00000350: e94f bbbd 0098 cbbb 7867 55be e6c5 8ebd
00000360: e293 1a3e 56cb d7bd fc13 5bbd 1c79 bb3d
00000370: 8468 813e c73a 62be 5d3d 953e aef2 febe
00000380: e848 033e afa2 2fbe 6fcc 2f3e 8c09 88be
00000390: 9ddd 76be 5186 833e 06e9 ee3d 33bd 9d3e
000003a0: a11b 613b 77d1 6a3d 0db0 fe3c 9411 f2bb
000003b0: d14c 813d a7f1 ffbc 0b8c 4cbd bbc5 85bd
000003c0: 8b2d 713d 90d9 b6bd 7422 693e 7ae8 8abd
000003d0: eb00 ce3e d50c 53be e03c 6abd 99e5 91be
000003e0: e89f 61bd 72a5 5a3e f76d 43be e39f 963e
000003f0: b9ea 5f3e 1d06 4d3e 3a28 ba3e 4538 873c
-0.09393781 0.024014972 -0.43714908 0.047049813 0.046869114 0.014825503 -0.05452485 0.016725749
0.014022231 -0.092235446 -0.0125458175 0.12173248 -0.021668902 0.08385225 -0.010498057 0.06572192
0.07022082 -0.4909932 -0.3558692 -0.05295395 0.06121597 -0.16047199 -0.14156313 -0.12071539
0.26355 -0.2748972 0.20328937 -0.19833389 -0.06436691 -0.07277002 -0.18360259 0.04989661
-0.009002065 0.18231714 -0.04382973 0.30188364 0.14097193 -0.5269601 0.23068815 -0.12965444
-0.018833743 -0.24575217 -0.13793738 -0.07499291 -0.113680124 -0.090642564 0.2001867 0.007429763
0.3579627 -0.5180882 -0.23105408 -0.10075826 0.010757364 -0.008102778 0.08155835 0.06508939
-0.035484206 0.257258 -0.060534596 -0.121675946 -0.285776 0.15162596 -0.11825947 0.33314443
0.09674419 -0.13255544 -0.7597139 -0.14507738 -0.30523247 0.029768514 -0.038233954 0.16702025
0.18531531 -0.10390859 0.16709067 -0.28800455 -0.29094818 0.1857446 -0.32565746 -0.0703642
0.0038288552 0.08419545 -0.08687796 0.035394605 0.22286852 0.36198023 0.11145412 -0.08932237
0.34660774 -0.09085243 -0.28449932 -0.37228036 -0.029066507 0.20218126 -0.39685336 0.14457577
0.055088 -0.13185711 -0.0036973937 -0.34014443 0.055890217 -0.08083206 0.43559772 -0.15934794
0.10998206 -0.013300918 -0.28913775 -0.17779195 -0.06366293 -0.019427838 0.056384474 0.051748306
-0.18586223 0.16262938 -0.12458597 0.14199378 0.13050388 -0.15482605 -0.30647436 -0.28829396
-0.24118373 -0.2701476 0.15306187 0.3234432 0.035022546 -7.311255e-05 -0.0062525915 -0.017293744
-0.16258012 0.36633852 0.20471235 0.19079359 0.04670229 0.0055355337 -0.05691006 -0.019702017
0.304246 0.110922806 0.10726907 -0.18481591 0.12534949 -0.38124505 -0.011263721 -0.007897664
0.16806252 0.006143941 0.1681169 0.0016386852 -0.12629901 0.22883092 0.14573137 0.23357536
0.013568115 0.17382188 0.060567614 0.2194073 -0.28764573 0.2647974 -0.2810168 0.016921967
0.064243436 -0.048310984 0.29928234 -0.17823608 -0.13157515 0.12511416 -0.16518554 0.0057674744
-0.25061804 -0.027075537 0.21044782 0.056927394 -0.18902692 0.17093508 -0.13969326 0.14823978
0.034788407 -0.038539834 -0.0010630168 0.030602152 -0.015659614 -0.0573477 0.038888164 0.0193436
0.30136833 -0.36580867 -0.17035834 -0.40862083 0.21554744 -0.3064617 0.31151882 -0.2085713
-0.09864894 0.03087184 0.4991289 -0.041950576 -0.22647643 -0.14205658 0.16695587 0.1777477
-0.1428826 -0.17286865 -0.13332061 0.016972316 0.20790999 -0.28496277 0.29215348 -0.32440364
0.16724354 -0.25418383 -0.40687028 -0.192322 -0.09146101 -0.006213188 -0.20840251 -0.0697134
0.15095475 -0.1053683 -0.053485855 0.09153959 0.25275052 -0.22092734 0.2914838 -0.49794525
0.1282078 -0.17151903 0.17167829 -0.26569784 -0.24107976 0.25688413 0.116655394 0.3080841
0.0034348744 0.057328667 0.031089807 -0.0073873494 0.0631348 -0.031243159 -0.049938243 -0.06531855
0.058881324 -0.089282155 0.22767049 -0.06782623 0.40235075 -0.20610364 -0.05718696 -0.28495482
-0.05508414 0.21352175 -0.19084917 0.2941886 0.21866883 0.20021863 0.36358815 0.016506324

c1.bias f4 [64]
00000000: 6e5c b23e 5a95 babe 55e8 8abc 6492 59be
00000010: 8362 acbe e6a6 aebe ce1e b3bd a346 a2be
00000020: 76ec 7b3e 6ae4 dbbc 63a8 ae3e 196a d0be
00000030: d2f9 acbe 7d05 213e be94 7fbe d900 f2be
00000040: e54b 8fbe 0049 04be 7f43 53be af00 edbd
00000050: 9d07 98be d595 71be 8ea6 89be 2c99 1bbd
00000060: 5a0e 123e ee13 d5bd 1582 b1be bd74 7b3e
00000070: cd84 ccbe 83c3 b2be 3d22 083e 527f 983d
00000080: 99f2 84be a8be bcbd e30e 493e d22e 22be
00000090: b99d 31be e887 babe 4c6b b3be 58e6 65be
000000a0: 8394 f23d 0c03 8fbe 6640 023e 8d52 fdbe
000000b0: 31a4 483e 4130 993e 8f18 26be 7729 d4be
000000c0: b987 57be 816f aebe 21e2 11bd dab3 da3c
000000d0: e0b1 7abe a8da c9be 6d51 b33e a80a b2be
000000e0: 1dd4 143d f145 b5be d7da 95bd d003 2fbe
000000f0: 9883 74bd cc4e 1a3d a060 423e 375b 94be
0.34836143 -0.3644207 -0.016956488 -0.2124725 -0.33668908 -0.34111708 -0.0874611 -0.31694517
0.24601921 -0.026842315 0.34112844 -0.40705946 -0.33784348 0.1572475 -0.24959084 -0.47266272
-0.2798759 -0.12918472 -0.20631216 -0.11572396 -0.29693308 -0.23592313 -0.26884884 -0.037987873
0.14263287 -0.10404192 -0.34669557 0.24556251 -0.3994507 -0.3491479 0.13294311 0.074461594
-0.25966337 -0.09216052 0.19634585 -0.15838173 -0.17345323 -0.36431813 -0.350428 -0.2245115
0.118447326 -0.27932012 0.12719879 -0.49477044 0.19593884 0.29919627 -0.16220306 -0.41437885
-0.21047868 -0.34069446 -0.035616044 0.026697088 -0.24481916 -0.39424634 0.3502306 -0.34773755
0.0363351 -0.35404924 -0.07317131 -0.17091298 -0.05969581 0.037672803 0.18982172 -0.2897584
