nets/model_epoch_33.pth (torch, 648794 bytes, 25 tensors)

a1.weight f4 [16, 5, 3, 3]
000000 9f 9d 85 3d 5b 78 f6 3d 09 fd 94 bc 02 3e 18 be
       0.065242045 0.12034675 -0.018187063 -0.14867404
000010 c9 b1 6d bd 76 84 41 3e b0 6b e7 bc 9e 9b 3c 3d
       -0.058030877 0.18898186 -0.028249592 0.046046846
000020 c0 94 b1 be 0a 2a 1d bd 39 e7 af bd 20 15 fb bd
       -0.346838 -0.03837017 -0.08589024 -0.12259889
000030 64 b0 61 3c c6 5b c6 bd 13 71 4c be 48 87 a1 be
       0.013774965 -0.09685473 -0.1996501 -0.31548524
000040 36 70 b4 bc 31 14 de bd df 12 97 3d 41 a6 19 be
       -0.022026163 -0.10843695 0.07376646 -0.15004827
000050 67 1e b3 3c 3c a0 e4 3c c9 13 7b be 6e 0d cc 3c
       0.021865083 0.027908437 -0.24519266 0.024908748
000060 35 57 5f be 15 d9 17 be 05 a1 5c bc 58 76 21 be
       -0.2181061 -0.14828904 -0.013466124 -0.15767801
000070 8f db 30 bd d2 b5 7a 3d f7 07 21 be 0e d3 8f bd
       -0.043178137 0.061208554 -0.15725695 -0.07022677
000080 37 0d b1 be 9c 13 81 be e6 66 fa bd 77 95 a5 3d
       -0.34580395 -0.25210273 -0.122266576 0.08085149
000090 5e 38 2c be 10 e2 94 bd c5 9e 14 be 98 85 ef bc
       -0.16818377 -0.072696805 -0.14513691 -0.029238507
0000a0 de 82 37 be a1 07 01 be 08 2c 30 bc 42 d9 f2 bd
       -0.17921016 -0.12600566 -0.010752685 -0.11857845
0000b0 b4 49 3d bd a9 89 3d 3e 22 da af bd 0f 07 83 bd
       -0.046212867 0.18509544 -0.085865274 -0.06397831
0000c0 9f b3 9f 3e 55 02 17 3d f2 e3 a0 3e 11 32 94 bb
       0.31191728 0.03686746 0.31423908 -0.00452257
0000d0 df 9c e4 3e 47 ae 57 be 37 0e a9 3d c8 47 87 3e
       0.44650933 -0.21062575 0.082546644 0.26421952
0000e0 a8 65 c0 3d 34 a2 de 3c 49 8c 45 3e 7b 31 2b bc
       0.093943894 0.027176954 0.19291796 -0.010448809
0000f0 2d 40 db 3d 4d ae f2 be 61 14 24 3d b5 6b 25 3e
       0.107056 -0.47398606 0.040058497 0.16154368
000100 29 1b 89 bd b6 cd e6 bd 1a 42 a4 3e 38 59 66 3d
       -0.066946335 -0.11269705 0.3208168 0.05623743
000110 5e 66 ad be 7b 98 cb bd 27 5f 2d be 22 de b1 3d
       -0.33867162 -0.09941193 -0.16930829 0.086849466
000120 b0 aa df bb e7 89 aa be ed 73 ab be e3 42 ee bb
       -0.0068257675 -0.33308336 -0.33486882 -0.007271157
000130 dd 79 93 3e 2a 63 ce 3d bc 15 ef 3d c3 ed f4 3d
       0.28803912 0.10077508 0.116740674 0.11959412
000140 5c 3f dc be f4 8d 71 3b 7a e3 1f 3d 38 3e 32 bc
       -0.4301709 0.0036858292 0.039035298 -0.010879092
000150 cd e1 8a 3d 5d d8 cb 3c fc 14 14 bd 76 c4 a8 bd
       0.06781349 0.024883443 -0.036152825 -0.08240597
000160 7c 69 92 bd 2a 22 b8 3c ea 3d 90 be 07 8d b5 3d
       -0.07149026 0.022477228 -0.28172237 0.088647895
000170 de a0 a3 3e b5 44 4e 3d 97 bd 3f 3e 06 b7 c5 3c
       0.3195867 0.050358493 0.18724667 0.024135124
000180 94 5b f7 3e 5a 7a d9 3e 5c 67 c0 3d f8 e3 0e 3e
       0.48312056 0.4247616 0.09394714 0.1395415
000190 57 dc 5c 3e 5a b1 35 3e 13 cc 28 bd 07 a6 dc bc
       0.21568428 0.17743436 -0.041210245 -0.026934637
0001a0 10 3a cb 3c 05 e0 ac bd 19 b1 28 be 05 d6 b2 3d
       0.02480796 -0.08441166 -0.16473807 0.08732227
0001b0 ac 1d 69 3e 2b b2 da 3e be 47 44 3e 2a 9a a1 3d
       0.22765225 0.42714056 0.19167992 0.078907326
0001c0 21 83 33 be a7 5f 92 3e 8e 84 91 be 52 5f ad bd
       -0.1753049 0.28588602 -0.28421444 -0.084654465
0001d0 38 27 34 3e 95 a9 a9 bc a5 41 8d be 6a 30 5a be
       0.17593086 -0.020710746 -0.27589145 -0.21307531
0001e0 ca 01 fc 3c e1 26 16 be 30 54 b2 bc 98 9f 93 3d
       0.030762572 -0.14663269 -0.02176866 0.072081745
0001f0 3e 11 d8 3c 06 1c 93 be 85 23 9c bc 6a fa 36 3d
       0.02637541 -0.28732318 -0.019059906 0.044672407
000200 8f e1 d2 3c 4a 5d 31 bd ad e3 f1 3d b6 c5 ee bd
       0.02574232 -0.043301858 0.11811004 -0.11658804
000210 76 39 c4 bc b6 d4 7b bd 49 0b 67 3d 49 01 26 3e
       -0.02395318 -0.061482154 0.056407247 0.16211428
000220 7f b8 f7 3d 9b 0f 76 be 04 b6 25 3e 0c 99 01 3e
       0.12095737 -0.2402939 0.16182715 0.12656039
000230 7a b0 84 be 49 ae 9e 3d a6 f0 b2 be 49 3d 7c 3e
       -0.2591589 0.07748086 -0.34949225 0.24632753
000240 de c8 29 be 02 cf ca be 48 3d 4e be 09 d1 b0 be
       -0.16580531 -0.3961106 -0.20140564 -0.3453448
000250 ea c1 36 bd 65 85 0b bf e7 2d 23 3d 50 ba 24 3d
       -0.044618525 -0.5450042 0.039838698 0.040216744
000260 04 b0 a2 bb 73 64 4d bd 9c 0f a8 3d 02 94 1b 3d
       -0.0049648304 -0.050144624 0.08206102 0.037982948
000270 6c 9d 22 be ec a8 c8 bd 6a 71 94 be cb dc 2b be
       -0.15880364 -0.09797844 -0.28992778 -0.16783445
000280 27 5e 25 be 1b 49 a5 3e 2f 65 54 3e f7 a9 6d 3e
       -0.16149198 0.32282338 0.20741723 0.23209368
000290 b2 50 50 3e a8 52 a7 3e e1 0d d2 bd 53 06 05 3f
       0.20343283 0.3268025 -0.102565534 0.51962775
0002a0 1e b7 16 3e 5f 3e 0a bd ab 3c 5f be 4d 27 12 bd
       0.14718291 -0.033750888 -0.21800487 -0.03568201
0002b0 02 1c fe 3c 84 6b 2a 3d a9 e2 b1 bb 52 28 66 bc
       0.031019215 0.04160644 -0.0054286313 -0.014047699
0002c0 d5 0b da bb d7 24 50 3d 0e 06 39 bd df 43 c7 bc
       -0.0066542425 0.050816383 -0.04517179 -0.024324356
0002d0 fe dd 51 3e 8e 8e 94 3c 5f e8 5b be 10 2e 2b 3d
       0.2049484 0.018134382 -0.21475361 0.041791975
0002e0 89 d7 09 3e e9 65 76 3e fe ea 52 3d 55 24 3a 3e
       0.13461126 0.24062313 0.051493637 0.18177922
0002f0 36 c6 87 3e c2 52 0b 3e d0 91 ce bd b9 0a 41 3d
       0.2651841 0.13605788 -0.10086405 0.047129367
000300 f7 e8 4f be c2 a4 6f bd 7f 7e e7 bd 48 d0 2d 3e
       -0.20303713 -0.058506735 -0.11303424 0.16973984
000310 41 7a 8d 3d 4b 41 11 be 29 bd bc 3d 70 e6 25 3e
       0.06908084 -0.14185064 0.09215767 0.16201186
000320 bd 63 c1 3e e1 3d d4 bc 95 e3 61 bc be de 06 be
       0.37771407 -0.025908412 -0.01378717 -0.13170907
000330 17 31 8e be 04 e0 8c 3e c3 f8 22 bd 44 f4 13 be
       -0.27771828 0.2751466 -0.03978802 -0.14448649
000340 1c 62 ca be 0b 32 c8 be 4b 14 ad 3d a2 33 62 3d
       -0.39527977 -0.3910068 0.08451136 0.055225022
000350 cb 69 05 be b4 ca 2c be 9d 94 58 bd fe 58 3a 3d
       -0.13028638 -0.168742 -0.052876104 0.045495026
000360 f4 37 d0 bc bc fa 84 3c fd 69 0e bd a5 b3 35 3d
       -0.025417306 0.01623284 -0.034769047 0.044360776
000370 48 b3 cc bd f6 8c c0 3c eb 08 c0 3c 68 8d db 3d
       -0.09995133 0.023504715 0.023441752 0.107203305
000380 e2 73 60 bd 08 7d 96 bd 1a 5b 8a bd 5e 9d 5c 3e
       -0.054798014 -0.073480666 -0.067556575 0.21544406
000390 7c c8 35 bc b9 85 c6 bd 46 cd 82 bd 52 32 48 3e
       -0.0110951625 -0.09693474 -0.06386809 0.19550446
0003a0 bc 1a 02 be 29 0e aa 3e da 7c e2 bc aa b9 bd 3e
       -0.12705511 0.33213928 -0.027647424 0.37055713
0003b0 de d6 89 3e ae db c8 bc 54 bd 38 bd be 85 95 be
       0.26921743 -0.024518814 -0.045102432 -0.292036
0003c0 cb 11 67 3d ec 06 4b 3e f7 24 07 bf 1b dc 4e 3d
       0.056413453 0.19826859 -0.5279078 0.050502878
0003d0 23 14 b3 3d 70 d2 aa 3d 83 53 2f be 2a 64 87 3e
       0.08744075 0.08340919 -0.17121701 0.26443607
0003e0 d7 1e 95 be f6 3e 2a be 64 b5 06 be 21 9e c3 be
       -0.2912509 -0.1662558 -0.13155133 -0.3820658
0003f0 8a 3d 82 3e 46 06 80 bc 32 7f a7 3d 15 fb 09 3d
       0.25437576 -0.015627991 0.081785575 0.033686716

a1.bias f4 [16]
000000 b1 b8 70 3d cd 1b bc bd 1e 87 5d bd b3 f4 f3 bd
       0.058769885 -0.0918499 -0.054083936 -0.11911907
000010 e4 7f 13 3e 2b 44 db bd a9 18 36 3d f1 56 b3 bd
       0.14404255 -0.107063614 0.04445711 -0.08756817
000020 0b 93 16 be 86 20 d6 3d 2f 5c 72 bd 45 a5 b4 3d
       -0.1470453 0.10455422 -0.059169944 0.08820585
000030 ea 79 8b bd 29 4b 76 bd ee 91 77 3e f2 9b 59 3e
       -0.06810363 -0.060130272 0.24176762 0.21250895

a2.weight f4 [16, 16, 3, 3]
000000 0b b4 c4 bc 89 9b 95 be 16 b9 8a bd c3 fd 2c 3e
       -0.024011632 -0.29220226 -0.067735836 0.16893677
000010 c9 ec 10 3e 40 20 7d be c0 a7 89 3d 5f fd 99 bd
       0.14152826 -0.24719334 0.06721449 -0.0751903
000020 56 67 a2 3d 28 43 17 bd c1 1d c6 3d a5 fa 79 3b
       0.07929866 -0.03692928 0.09673644 0.003814378
000030 c4 d5 04 be 0f 89 1f 3e f9 d9 2f be 5f 9c 28 bd
       -0.1297217 0.15579627 -0.17172994 -0.041164752
000040 4c 96 13 3e 3c 24 38 bd 61 f9 18 bd ca 01 2f be
       0.14412802 -0.04495643 -0.0373472 -0.17090526
000050 72 03 78 be 53 2c e0 be c6 23 a1 bd 52 7c 0f 3c
       -0.24220064 -0.43783817 -0.07868151 0.008757668
000060 be af a0 bd 87 e7 bb be c7 04 f4 3d 42 e1 1d bf
       -0.0784602 -0.3670008 0.11914974 -0.6167184
000070 3c b4 79 3e 65 92 9f be c1 81 f9 3e 09 fd 52 be
       0.2438516 -0.31166378 0.48731807 -0.20604338
000080 88 86 46 3e ed fb f1 3d 6d 20 8c 3d 06 62 87 3d
       0.19387257 0.11815629 0.06842122 0.06610493
000090 7f 0f 46 3d eb fe c4 be f5 a3 88 bd 13 07 c3 bc
       0.048354622 -0.38475737 -0.06671897 -0.023807084
0000a0 bb dc af bc 67 72 32 be 39 ca ce be 71 db 51 be
       -0.021467557 -0.17426454 -0.4038866 -0.20493867
0000b0 d8 92 33 be f7 3f ab 3d ab 93 26 be a0 a5 e0 bd
       -0.17536485 0.0836181 -0.16267268 -0.109690905
0000c0 e5 ca 46 3e ff 1a 7b 3d eb ac 05 3e e2 01 ba be
       0.19413336 0.061305042 0.13054244 -0.3632956
0000d0 b7 a8 fe 3d 7d 41 34 3e 48 f8 f1 bd 5e 82 30 3b
       0.124345236 0.17603107 -0.11814934 0.0026933174
0000e0 11 4b 33 3d c2 77 b6 3e 9d 45 9a 3e 0b 87 4a 3d
       0.04377276 0.35638243 0.30131236 0.049445193
0000f0 8b 4a d9 3d 2c 55 0b bd cc da be 3c c3 36 8a 3e
       0.10609921 -0.034016773 0.02329769 0.26994905
000100 80 a0 47 be bb 6a 80 bd 01 fc 8b be 30 f9 82 ba
       -0.1949482 -0.06270357 -0.273407 -0.0009992477
000110 17 7f d0 bd f3 3d d4 bd 0f 0b bb bd ff 52 59 3e
       -0.101804905 -0.103633784 -0.09132969 0.21223067
000120 26 0f 61 3e 11 a7 c3 3d 50 5d ed 3b 1a c9 c8 3a
       0.21978435 0.0955335 0.0072437897 0.0015318722
000130 0e 11 14 bc 1f b8 40 3e 4d 57 45 be d7 35 b5 3e
       -0.009037269 0.18820237 -0.19271584 0.3539264
000140 93 bf fe 3d 4d 3e ac 3d cb be 64 3e 38 6a 9f bc
       0.12438884 0.084103204 0.22338407 -0.019459829
000150 ec e3 32 be d5 30 08 3e 29 b8 cb 3e 3d ed 02 3e
       -0.17469758 0.13299878 0.3978894 0.12785812
000160 01 ad 8b 3d 93 95 0c 3e d7 72 1e be 64 20 6f bd
       0.06820107 0.13728933 -0.15473495 -0.0583805
000170 63 c5 10 be 3b 26 ee 3d 68 ef 51 3e 79 d9 97 be
       -0.14137797 0.11628386 0.20501482 -0.29658106
000180 30 45 87 3d 1f c7 34 bd 4a 8a 27 3e 53 da 92 be
       0.06604993 -0.04413521 0.16361347 -0.28682193
000190 ca fb 56 bd e3 e2 bc bc 2e 84 01 be ba 06 07 be
       -0.05248622 -0.023057407 -0.12648079 -0.1318616
0001a0 a0 b8 46 3c 22 f4 ef 3e fc 28 2d 3d df e5 06 be
       0.012128979 0.46865946 0.042275414 -0.13173626
0001b0 90 74 4c bd 75 4c f4 bd a9 95 0e 3d 33 5f b3 ba
       -0.04991585 -0.119286455 0.034810696 -0.0013684988
0001c0 29 b2 f9 3e ba 8a 95 be aa 6b e2 3e cc 5b 65 3e
       0.48768738 -0.29207402 0.44222766 0.22398299
0001d0 48 e0 30 be 02 cc 27 3e 9f 6b a7 be c4 02 df be
       -0.17273057 0.16386417 -0.32699296 -0.43556798
0001e0 2a dc 4e 3d d2 10 b9 3e 12 b0 24 3e 62 38 62 3e
       0.050502934 0.36145645 0.1608279 0.22091821
0001f0 73 a3 1b be f9 18 14 3c f3 b6 82 bd 30 59 07 bf
       -0.1519907 0.009039157 -0.06382551 -0.52870464
000200 64 c5 de bc dd de aa bc da f4 e6 bb d0 f9 81 be
       -0.027193733 -0.020858223 -0.0070482315 -0.25385904
000210 64 2e a7 bd fd 4f 32 be a3 0a 00 3e 85 b2 94 be
       -0.08163145 -0.17413326 0.12504058 -0.2904245
000220 0e 34 06 bd 1d 4f 13 be 89 0a f8 bd e1 22 1c be
       -0.032764487 -0.14385648 -0.121113844 -0.1524768
000230 98 e0 e9 3e ba ef 5b be 5b 87 88 3c 21 ae 76 3c
       0.45679164 -0.21478167 0.016666105 0.015056164
000240 52 52 1c be 5c 64 a5 bc 38 8f a8 3b 56 84 14 be
       -0.15265778 -0.020189457 0.005144026 -0.14503607
000250 e0 f1 1b be d6 13 13 bd 73 d1 ec bd 61 f7 94 bd
       -0.15228987 -0.03590759 -0.11563387 -0.07273746
000260 9b 1a d1 bd e6 ee 7e bc 3b 91 4b bd e2 4f 3b 3e
       -0.10210153 -0.0155598875 -0.04969905 0.18292192
000270 1e 6b 98 bd 5b f5 0c be e0 cf a9 3c 21 66 91 3d
       -0.07442306 -0.1376547 0.020729005 0.07099558
000280 0f d0 cc 3d ba 89 97 3d d8 b6 7f 3d e9 bb b6 3b
       0.100006215 0.07399316 0.062430233 0.0055766
000290 8d 8d 0f 3e a1 f2 4d bd c6 f6 1e 3e 1a d0 01 3e
       0.14018841 -0.050280217 0.15523824 0.1267704
0002a0 63 fd aa bc 57 e8 8a 3d 6f 38 94 3d 5e 93 1c be
       -0.020872777 0.067825966 0.07237326 -0.15290591
0002b0 d9 3d 1c 3e 99 96 72 3e 75 e1 10 bd 06 e7 64 bc
       0.15257968 0.23690261 -0.035371263 -0.013971096
0002c0 5c e0 25 bd 67 8b 97 3d 31 76 90 bd ad 1d 9a 3e
       -0.04049717 0.07399636 -0.07053793 0.30100766
0002d0 49 e0 8a 3e 00 c1 43 be ee 69 15 3e ff bc d5 3d
       0.2712424 -0.19116592 0.1459119 0.10436439
0002e0 a3 da c6 3d 0d ba dd bd 2c aa 2b 3e c4 8e 80 bd
       0.097096704 -0.10826502 0.16764134 -0.062772304
0002f0 cb 3c 41 bd 6e 01 f5 bd 85 33 da 3d d8 ee 1e 3e
       -0.047177117 -0.11963163 0.10654358 0.15520799
000300 55 f9 1d 3c e0 8a be 3c 77 ee 88 bd a5 9c 90 3d
       0.009641965 0.02325958 -0.066861086 0.070611276
000310 9f 6a 9b 3d 71 b5 18 be cc df bd bd 5c 9e 96 bd
       0.07588696 -0.14912964 -0.092712015 -0.073544234
000320 3c 0c 14 be 6a c5 9e bd 4a f1 96 bb 3d 9c d1 3c
       -0.14457792 -0.077524975 -0.0046064006 0.025587196
000330 e5 ff c6 bd d9 8b 3c be ac 08 a5 3c 40 40 c5 3d
       -0.09716777 -0.18412723 0.020145737 0.09631395
000340 3d 1d 2b 3e 19 6f 87 3d fa 5d 09 be 74 45 d2 3d
       0.16710372 0.06612987 -0.13414755 0.102671534
000350 2f 7c 80 3c 4c ed 06 3e 40 61 23 bd 18 e6 b8 3e
       0.015684215 0.13176459 -0.039887667 0.36113048
000360 b0 ca 8c bc 39 be d3 bd a5 6b 96 3d 29 b0 b1 be
       -0.017186493 -0.103390165 0.0734475 -0.34704712
000370 0b cc cc 3d ac 3a f6 bd a6 4b 72 be 84 27 80 3e
       0.099998556 -0.120229095 -0.2366167 0.25030148
000380 90 58 61 bd a3 34 24 bd a2 7e b1 bd 59 1d c9 3d
       -0.0550161 -0.04008926 -0.086667314 0.09820051
000390 c0 24 67 3d 1a e2 c4 3c 2b 77 8b 3d f9 96 9d 3c
       0.056431532 0.024033595 0.06809839 0.019237028
0003a0 36 be ab bd 62 52 bc bd be c8 26 3e e6 30 03 3e
       -0.08385889 -0.09195401 0.16287515 0.12811622
0003b0 cc 6a ad bd 91 b6 fe 3c 33 a8 56 be 10 36 5c 3e
       -0.084676355 0.031092914 -0.209626 0.21504998
0003c0 f2 b7 4f bd ba 1f 43 3e 9a 64 53 be d7 b8 c6 3c
       -0.050712533 0.19055071 -0.20643845 0.02425806
0003d0 2c ae bb 3e d9 a2 ec 3d 64 43 62 3c dd 63 95 3d
       0.3665632 0.11554498 0.0138100125 0.07294438
0003e0 54 82 74 3e 9e 50 2e be 0c fa 42 be 79 d3 38 be
       0.23877841 -0.1702294 -0.19040698 -0.1804942
0003f0 a3 5d 64 bd 3c fe 9b 3e 4c b2 a1 bc 0a fa de bd
       -0.05575336 0.30467403 -0.019738339 -0.10887535

a2.bias f4 [16]
000000 83 98 cb bd c5 e2 19 be 3f ab 9b bd 90 05 07 bd
       -0.09941199 -0.15027912 -0.07601022 -0.03296429
000010 70 5f a7 3c 12 52 15 be 38 80 8c bb c6 ca ef bc
       0.02043125 -0.14582089 -0.004287746 -0.029271495
000020 ad 93 d8 3d 93 c7 d5 bd 09 0d 1e be 29 dd 7f bc
       0.10575042 -0.104384564 -0.1543466 -0.0156166935
000030 dc 40 f9 bd c0 14 db 3c ac 23 23 3e d7 d2 b5 3d
       -0.12170574 0.026743293 0.15931576 0.08878105

a3.weight f4 [32, 16, 3, 3]
000000 1c a7 39 be bd 91 a6 3e 48 e5 c8 be 66 23 a1 bd
       -0.18130153 0.32533064 -0.39237428 -0.0786808
000010 6d 15 ee bd e0 b0 ea bd 10 e8 07 bf af cf 41 bd
       -0.116251804 -0.114595175 -0.53088474 -0.047317203
000020 1a 34 2d 3e 9f f5 e9 bc 43 4c a1 bd e7 72 45 be
       0.16914406 -0.028559504 -0.07875874 -0.19282113
000030 b5 ae 37 bd bb f7 32 3e c1 8b 2a 3e ef 23 8d be
       -0.044844348 0.17477314 0.16654874 -0.27566478
000040 ac 10 49 be 97 a1 e5 be e7 59 3a 3e 2c 00 82 3c
       -0.19635266 -0.44849846 0.18198358 0.015869223
000050 c2 86 f2 3d 48 9f 03 3e 21 4d 20 3e 6a e5 e7 bd
       0.11842109 0.1285373 0.15654422 -0.11323054
000060 58 bb e1 bd eb 71 4f 3d 65 e3 ea bd f1 65 88 be
       -0.11022061 0.05064575 -0.11469153 -0.26640275
000070 02 d0 2d 3e 3a 14 1c 3e 87 b3 50 3d 17 70 c0 bd
       0.1697388 0.15242091 0.05095246 -0.093963794
000080 81 69 1b 3e 5b b7 32 bd 6a 91 1c be 3b 5a e8 3c
       0.15176965 -0.043631893 -0.15289846 0.028363338
000090 63 29 3c 3e 53 1d e7 3d c8 2d 24 be d1 3c c8 bd
       0.18375163 0.1128489 -0.16033089 -0.09777225
0000a0 9b 2d 89 3e 55 3b ae bd ca 70 1e 3e f1 b9 d0 3c
       0.26792607 -0.085074104 0.15472713 0.025479289
0000b0 71 30 fa bc c5 ec ac 3d 89 e0 80 3c e8 18 17 be
       -0.030540677 0.08443598 0.015732067 -0.14755595
0000c0 c1 b9 7c 3e 13 79 f9 bc d0 50 a5 3e 98 09 91 be
       0.24680234 -0.03045324 0.32288218 -0.28327632
0000d0 80 21 1d be 24 df 15 3e d9 67 8e 3d 8e 53 6c 3d
       -0.1534481 0.14635903 0.06953401 0.05769687
0000e0 1b 20 4c be 24 f1 82 3d d7 40 eb 3d 46 82 e5 bd
       -0.19934122 0.0639365 0.114869766 -0.11206488
0000f0 f2 93 80 3d 76 f9 9d 3e 54 16 4d 3d 8a 90 e9 3d
       0.06278218 0.30854386 0.050070122 0.11404522
000100 21 61 a8 bc 24 99 8b 3d d0 54 f6 3d a3 44 6f 3e
       -0.020554127 0.06816319 0.120278955 0.23366027
000110 c9 58 98 be c9 a0 ac 3e e7 33 bf bd e9 3a 2a be
       -0.29755238 0.3371642 -0.093360715 -0.16624035
000120 4c d9 6f bd d1 8c 0d 3e 52 bb 99 bd 8d c3 da 3d
       -0.05855684 0.13823248 -0.07506432 0.106818296
000130 1d 9e 90 3e 31 e1 0e 3d 8e c7 14 3d 6f 19 83 be
       0.2824563 0.034882728 0.036323123 -0.25605342
000140 f0 21 0d be bd 69 d5 3c 71 b7 65 3e 98 03 cb bd
       -0.13782477 0.026051397 0.22433259 -0.09912795
000150 3c 7c 77 3e af 05 3e bd 1b b1 05 b9 b2 77 12 be
       0.24168485 -0.04639214 -0.00012749845 -0.14303473
000160 4f 14 f0 bd 41 a8 ef 3d 16 7a 87 bb fa 92 9b 3d
       -0.117226236 0.11702014 -0.004134427 0.07596393
000170 f3 e3 a6 bd 44 8b d9 3d e4 00 95 be d2 88 a7 3e
       -0.081489466 0.10622266 -0.29102242 0.32721573
000180 f6 64 4b 3d 90 f3 f6 bd 95 69 35 be 8e 66 75 bc
       0.04965683 -0.120581746 -0.17716058 -0.014978064
000190 01 ba 53 be 39 34 e1 bd 6c 74 30 be ae c6 97 3e
       -0.20676424 -0.10996289 -0.17231911 0.29643768
0001a0 25 28 63 bd b7 d6 01 be 1e 3d 61 3e ea b6 01 be
       -0.055458207 -0.12679563 0.2199597 -0.12667432
0001b0 9f 11 36 bd 30 d0 a8 be e3 01 76 be b8 ba 40 3e
       -0.0444504 -0.32971334 -0.24024157 0.18821228
0001c0 56 4c 3a bc 9a a7 a8 3e c3 48 00 bf d1 a1 7b 3d
       -0.011370739 0.3294037 -0.50111026 0.061433617
0001d0 4d bf 26 bd 54 d6 f0 3e e3 de 13 3d da f6 12 bd
       -0.040709782 0.4703852 0.036101233 -0.035879947
0001e0 c4 37 92 3e b0 f0 39 bd 62 ec 7f bd 7d 39 f4 3d
       0.2855817 -0.045395553 -0.06248129 0.119250275
0001f0 b8 3f 86 3b 3d 03 44 3e 0f 1d af 3e 02 2b 6e be
       0.0040969513 0.1914186 0.34201857 -0.23258594
000200 30 c8 bf be 54 75 9e 3d 50 e9 8d 3e db 25 2d be
       -0.37457418 0.07737222 0.27717066 -0.16908972
000210 43 92 f5 3d 77 96 b5 bd 03 14 72 be 18 ab ca 3c
       0.11990788 -0.088665895 -0.23640446 0.024739787
000220 4b 81 a5 3d 50 f9 bf 3d 81 19 b9 3c ee b6 ba 3e
       0.08081301 0.093737245 0.022595169 0.3646769
000230 f9 dd 3e bf 0e e8 43 3e 83 c8 51 be a3 6a 74 be
       -0.74557453 0.1913149 -0.20486645 -0.23868804
000240 a6 27 01 3e ea f6 4c bd e0 b8 d7 3e 1d d2 d7 3d
       0.12612781 -0.050040163 0.42133236 0.10538123
000250 e0 a6 01 bc 61 99 12 3e c0 2e b9 bd d8 fd 9e bd
       -0.007913321 0.14316322 -0.0904212 -0.077632606
000260 48 ed a9 3d 03 e0 43 bd 90 71 ad bd a7 34 22 3e
       0.08297211 -0.047821056 -0.08468926 0.15840398
000270 38 d3 15 be 17 77 2b be 23 bd 21 3e 6a ac 55 3e
       -0.14631355 -0.16744648 0.15794806 0.20866552
000280 43 21 37 3e b0 55 3b be 85 74 bb be bf 02 ad bc
       0.17883782 -0.18294406 -0.36612335 -0.021119474
000290 f9 74 6a bd 0c d7 22 3e bc e9 23 be 55 e6 68 be
       -0.05724046 0.15902346 -0.16007131 -0.22744115
0002a0 a5 be 23 be 56 fe c9 bb 52 9f 81 be ac 14 13 be
       -0.15990694 -0.0061643524 -0.25316864 -0.14363354
0002b0 4e 79 1b be a1 21 df bd 89 be 3c be 1b 59 10 3e
       -0.15182993 -0.10895086 -0.18432058 0.14096491
0002c0 f3 28 12 3e 1e 00 bf 3d 4d ab 04 be 43 8e 29 3e
       0.14273433 0.09326194 -0.12955971 0.16558175
0002d0 dc a8 75 be f6 09 5b bd b1 76 b1 bd 5b 7f 2c be
       -0.23990196 -0.053476296 -0.08665217 -0.16845457
0002e0 b0 40 ef bd c6 6e 63 3e 28 c9 7b bd 43 2a 1e be
       -0.1168226 0.22210225 -0.061471134 -0.15445809
0002f0 07 2f 58 3e 0d d5 a6 3d d6 ee a9 3d b1 3c b0 3d
       0.2111169 0.08146105 0.082975075 0.08605326
000300 43 68 bd 3d 68 d7 49 bd 16 c4 96 3e f2 c2 ad bd
       0.09248402 -0.049277693 0.29446477 -0.084844485
000310 39 9e 6f bd 17 1c d9 3d 26 20 27 be 32 2a 42 be
       -0.058500502 0.10601061 -0.16320857 -0.18961409
000320 92 e4 b9 3d 0f 19 6a bd 84 44 4a be b3 16 1d 3e
       0.090767995 -0.057152804 -0.19752699 0.1534069
000330 10 53 bc 3d 46 8e 4d 3e 8c b9 70 3e 5a cc 96 be
       0.091955304 0.20073804 0.2350828 -0.29452783
000340 00 f3 39 be db 01 bb be 6c 19 da 3d 7a 68 99 3e
       -0.18159103 -0.36524853 0.1064938 0.29962522
000350 fd af d1 bd e0 ef 0a bf 8a 80 e0 3d 81 3b 99 3e
       -0.10238645 -0.5427227 0.10962017 0.2992821
000360 99 6f 72 3d ac f0 9d 3e e5 df 11 be a8 b9 67 be
       0.05918846 0.3084768 -0.14245565 -0.22629416
000370 46 2e a4 3b 9c 7d bd be b5 a5 f0 bd 6f 19 17 be
       0.005010399 -0.37009895 -0.11750356 -0.14755796
000380 f3 fb 67 3c 69 89 2b 3e 87 7d 05 be d3 21 cd bd
       0.0141591905 0.16751637 -0.13036166 -0.10016217
000390 01 c0 72 bb f5 dd d7 bc c8 a6 80 be 1d 46 20 bd
       -0.0037040713 -0.026350955 -0.25127244 -0.039129365
0003a0 59 b0 24 3e 52 02 5a 3d 24 93 64 3e 5d 75 22 be
       0.16082896 0.05322487 0.22321755 -0.15865083
0003b0 d2 12 6d 3e 9e 8c 25 be 26 1a 03 be 07 f3 65 be
       0.2315171 -0.16166922 -0.12802944 -0.22455989
0003c0 d5 5a 23 be 94 fc c7 be ac 83 a2 bd 19 2d a3 be
       -0.15952618 -0.3905989 -0.07935271 -0.31870344
0003d0 e2 47 56 bd 62 61 8e bd e1 cb 02 be 22 b1 82 bd
       -0.052314647 -0.06952168 -0.12773086 -0.06381442
0003e0 37 54 1a 3e 3c a9 0c bf 35 b8 73 be 8f 96 3c 3e
       0.15071188 -0.5494573 -0.23800738 0.18416809
0003f0 fd 5b 85 3e 71 7e e8 bd e2 35 36 3e 20 07 64 be
       0.26046744 -0.11352242 0.17793992 -0.22268343

a3.bias f4 [32]
000000 65 a4 2a be 9d 19 9b 3d 36 98 8d 3d c6 6d 70 be
       -0.16664274 0.07573245 0.069137976 -0.23479375
000010 6d 80 72 be 3d c4 fc 3c 82 99 44 3d 9b 56 3f be
       -0.23681803 0.030855292 0.04799796 -0.18685381
000020 84 e9 97 be 55 62 25 be 0f 42 0e be 8e 12 d4 bd
       -0.29670346 -0.16150792 -0.13892387 -0.103551015
000030 19 cd d9 be bd d0 b8 bd 1c b7 bf bd ce ea 8c 3e
       -0.4253929 -0.09024189 -0.09361097 0.27522892
000040 1e 38 66 3e 4f a4 09 be 06 c3 db bd e1 73 74 be
       0.22482345 -0.13441585 -0.10730557 -0.2387233
000050 35 db ee bc 06 a8 33 be 75 08 96 bd 31 de 23 be
       -0.02915726 -0.17544565 -0.07325832 -0.16002728
000060 4f 2d 7e bd d1 d0 34 3e 05 ac 75 3e 40 06 8d bd
       -0.06205493 0.17657782 0.23991401 -0.06885958
000070 0a a3 29 3c 76 3e 92 3d aa ed 6a bd ff 04 11 be
       0.010353813 0.0714082 -0.05735556 -0.14162062

b1.weight f4 [32, 32, 3, 3]
000000 da 57 b7 be 4d a6 5d 3d 7e 50 f1 bd 05 73 da bd
       -0.35809213 0.054113675 -0.11782931 -0.106664695
000010 54 57 93 bd 27 e2 03 be 71 88 39 bd 79 38 1d 3d
       -0.07194391 -0.12879239 -0.045296136 0.038383935
000020 ba b1 2c be aa a5 db 3b 10 2b b7 be f9 2a e0 3d
       -0.16864672 0.0067030983 -0.35775042 0.109456964
000030 24 d5 86 be cc 2c fd be bc 62 68 3d 85 6a e4 3d
       -0.26334488 -0.4944824 0.056734785 0.111531295
000040 4b b8 b7 be f7 45 ae 3e 3c 29 f7 3c 8c de 14 3e
       -0.35882792 0.34037754 0.03017103 0.1453802
000050 ea 9e 73 3d 4f 68 c0 3d 0d b6 89 3e 82 4c 82 bd
       0.059477724 0.09394895 0.26896706 -0.06362249
000060 bc ec 79 bd 58 09 ad 3d ed 4f 95 bd b6 e3 75 3e
       -0.061016783 0.08449048 -0.07290635 0.24012646
000070 c6 2e 64 3e 53 45 36 3e e5 06 e0 3d 30 ab 92 be
       0.22283468 0.17799883 0.10938815 -0.2864623
000080 73 7c f3 3d 22 45 28 be 08 27 08 be 81 6d 7b be
       0.11888971 -0.16432622 -0.13296139 -0.24553491
000090 7a ad 7a 3e ac 84 66 be 0b 83 ce 3c b8 43 7a bc
       0.24480239 -0.22511548 0.02520897 -0.0152749345
0000a0 40 87 63 bc ce 1e b5 be b7 05 1d bd 58 4d fe be
       -0.013887227 -0.35375065 -0.03833553 -0.49668384
0000b0 c7 32 46 3d a1 22 ee 3e 00 9b 04 bf fc 45 84 bd
       0.04838827 0.46510795 -0.5179901 -0.06458661
0000c0 33 3a 5a 3e ab 0f d7 bd 9b 39 fd 3c aa be d1 3d
       0.21311264 -0.10501035 0.030911257 0.102414444
0000d0 3a 30 49 bd fd e9 bc be 23 d9 4e be 42 ae d9 bd
       -0.049118258 -0.3689727 -0.20200019 -0.1062894
0000e0 c2 80 e2 bd 06 92 99 3b cb c8 60 3c b8 61 70 3c
       -0.11059715 0.004686597 0.013719748 0.014671735
0000f0 f3 27 52 be 0e 64 a9 bc d1 bc 1b bd 80 a2 7d bd
       -0.20523052 -0.020677593 -0.038021866 -0.06192255
000100 c7 c4 5a 3d 31 b5 27 3d aa 98 2a 3d d7 8c 2b be
       0.053410318 0.040944282 0.041649498 -0.16752945
000110 6f 6b 1a bd 99 2c 26 3c 16 91 6e 3d 88 d8 c7 3c
       -0.037700113 0.010142469 0.058243833 0.024395242
000120 af b1 26 be fd 4d 7c be 60 76 a9 be 16 9d b0 be
       -0.16278718 -0.24639125 -0.33098125 -0.34494847
000130 f7 98 45 3e 53 bf 47 3c 5b 44 ab be 3f 28 96 3d
       0.19296633 0.012191611 -0.3345059 0.07331895
000140 f2 c2 60 3e f2 48 33 3e 59 4a 9e bd 22 af 00 be
       0.21949366 0.17508295 -0.077290244 -0.12566808
000150 07 c4 5a 3e 28 db f7 3d 04 7f a5 3e 34 a2 06 3f
       0.21363841 0.121023476 0.32323468 0.5259125
000160 c1 98 9c bd da 27 af bd 0f 99 54 be c0 89 3a 3e
       -0.07646323 -0.08552523 -0.20761512 0.1821661
000170 ba ec 55 be 3e 62 00 3e e2 68 33 3e a1 aa f2 bd
       -0.20891085 0.12537476 0.17520478 -0.11848951
000180 09 a0 e6 3d e5 f5 3a 3d d5 25 75 3d 65 80 84 be
       0.11260993 0.04564466 0.059850533 -0.25879207
000190 9c 33 5a be 9d 5c d6 be 16 5e 81 3e d3 a9 04 be
       -0.2130875 -0.41867533 0.25267094 -0.12955408
0001a0 e9 02 a6 be 12 07 6a 3e c0 b3 25 3e f7 cc 39 be
       -0.32424095 0.2285426 0.1618185 -0.18144594
0001b0 9f 84 95 be c4 3e a6 be 53 51 b4 bd 14 88 21 be
       -0.29202744 -0.3246976 -0.08804574 -0.15774566
0001c0 3f 3d ee bd db a0 8e 3e 9c 60 3c be b5 26 8d be
       -0.116327755 0.27857098 -0.18396229 -0.27568594
0001d0 96 1d 4e bd 5a da 19 bb 50 42 0e 3d a2 25 de 3d
       -0.050321184 -0.0023476095 0.03473121 0.10847022
0001e0 b6 5b 97 3d 3d 9c 84 bc 6f 0a ac bd 40 b2 06 3d
       0.07390539 -0.016187781 -0.084004276 0.032884836
0001f0 c1 24 ab be 7d 4f 13 3e 53 8d 14 3e 38 9b 05 3e
       -0.33426479 0.14385791 0.14507036 0.13047493
000200 f4 df 96 3d bd a1 07 bd 49 b6 8a be f6 c6 ed 3b
       0.073669344 -0.03311323 -0.27092198 0.007256384
000210 35 db a7 bb fd f0 28 be ae ee a5 bc 1d b5 3a 3d
       -0.005122567 -0.1649818 -0.020255413 0.04558288
000220 78 10 1d bc f2 e3 fc bc 9d 2f 32 be 96 7b 32 3d
       -0.009586446 -0.030870412 -0.17400976 0.043574892
000230 d8 4f 3a bd 3d 51 19 3d 79 24 ad be 66 64 73 3b
       -0.0454863 0.03743099 -0.3381689 0.00371387
000240 7e 66 28 be fb 26 78 3d 13 8a eb 3d 89 3c 49 3e
       -0.16445348 0.06058405 0.11500945 0.19651999
000250 73 96 6a 3e 44 b7 f0 3d 23 89 ed 3a 59 0f 5e bd
       0.22908954 0.11753705 0.0018122535 -0.054213855
000260 65 3d 6d 3e 30 6a 2d 3d c0 0d 20 3e 95 5c bf be
       0.23167951 0.042337596 0.15630245 -0.37375322
000270 17 26 8c bb 9c 41 59 bc 3d 84 e4 be 0a 95 93 bc
       -0.0042770016 -0.013260271 -0.4463214 -0.018015403
000280 b5 12 49 3e 5e 75 84 bd 9b 23 72 3e 05 b5 48 bd
       0.19636042 -0.064676985 0.23646395 -0.04900076
000290 c7 f7 e1 bd 66 58 5c 3d 87 8f e4 be 4e 06 5b be
       -0.11033588 0.05379524 -0.44640753 -0.21389124
0002a0 18 b0 63 bd 44 66 d3 bd 3c 0b e2 bd fb 5b 74 be
       -0.055587858 -0.1032224 -0.11037299 -0.23863213
0002b0 ff 94 a0 3e e6 71 70 be 34 49 20 3e 59 41 1e 3e
       0.31363675 -0.23480949 0.15652925 0.15454616
0002c0 38 f2 88 bd 50 fb 23 be a6 71 80 3e b9 69 14 be
       -0.066868246 -0.16013837 0.25086707 -0.14493455
0002d0 6b 2b c3 3c a4 e0 0a be 57 e8 e5 3d ec 76 2b 3d
       0.023824414 -0.13562256 0.11225956 0.04186146
0002e0 9b b8 21 bd ee 36 0e bd 4b 01 43 3e 03 54 77 3d
       -0.039482694 -0.034720354 0.19043462 0.060382854
0002f0 87 62 47 3e 43 6a 86 3d c4 a3 80 be c3 e1 29 be
       0.19471179 0.065632366 -0.25124943 -0.16590028
000300 72 1b f5 3d 4b b7 8e 3d 85 80 33 3e 5b 1f 47 bd
       0.119681254 0.06968554 0.17529495 -0.048613887
000310 e2 8d 2b be f8 12 22 be 9e bb 36 be 4b 1b cd 3d
       -0.16753343 -0.15827549 -0.17845008 0.10014971
000320 13 c5 4f 3c cc 57 26 be 6f 21 c0 3d 25 cd b7 3d
       0.0126812635 -0.1624443 0.09381377 0.08974675
000330 2f 8e 29 3e 41 19 c8 be 31 b5 d1 bd 82 52 17 be
       0.16558145 -0.39081767 -0.10239638 -0.14777568
000340 e5 38 27 3e 06 72 12 be 1f 88 47 be a4 d3 0d bd
       0.16330297 -0.14301309 -0.1948552 -0.034625664
000350 71 e1 14 be 57 6f b9 bd ca a9 95 3e 76 3d 14 3e
       -0.14539124 -0.090544395 0.292311 0.1447657
000360 f4 ef 81 3e 28 71 74 be df 17 97 be 4d 7f 97 be
       0.25378382 -0.2387129 -0.295104 -0.2958931
000370 81 84 36 3d f7 4e cd 3d e0 cd 0c bd db 85 0b 3e
       0.04455996 0.10024827 -0.034376025 0.1362528
000380 e4 bc 2b 3d 28 8c 23 3e 0e 5a 4f 3d ce 47 da be
       0.041928187 0.15971434 0.050622992 -0.42632908
000390 ff 8d b7 bd 99 89 09 3d c1 0c 1b 3e 43 31 ae bd
       -0.089626305 0.03357849 0.15141584 -0.0850549
0003a0 ac 30 9d 3e 3e 88 d8 3d 74 79 db 3e 3e c7 12 bc
       0.30701196 0.10572861 0.428661 -0.008958636
0003b0 55 f1 77 be 8f 6b bf 3d aa 4b b5 bc 21 2f 90 bc
       -0.24213155 0.09346687 -0.022130806 -0.017600598
0003c0 f8 7b 03 3d 22 bb 8a 3e a6 c6 b9 be 19 a4 78 3e
       0.032100648 0.27095896 -0.3628437 0.24281348
0003d0 f3 a2 10 bd cd 5d f1 bd 25 9d 3b bf 72 df 78 be
       -0.03531165 -0.11785469 -0.7328666 -0.24303988
0003e0 27 c2 1b bd ad 4a 89 3c e8 fc 53 3e 30 91 c7 b7
       -0.038026955 0.016759241 0.20701945 -2.3790257e-05
0003f0 03 c8 a0 3e 72 b5 30 bd e4 1d e1 be 8c b6 4c 3d
       0.31402597 -0.04314179 -0.43968117 0.049978778

b1.bias f4 [32]
000000 76 c4 97 bd 0f be 33 be 77 a2 a8 be 9d e1 29 be
       -0.07410519 -0.1755297 -0.3293645 -0.16589971
000010 21 1a bf 3e 3a a8 e2 bd 68 89 f8 bd bb 65 03 3c
       0.37324622 -0.11067243 -0.12135583 0.00801986
000020 7c bd ae bd 25 7e b0 be f4 d0 8a be 72 89 9c 3d
       -0.08532235 -0.3447124 -0.27112544 0.07643403
000030 bd 17 48 be 49 ad 8d be ce 50 1b 3d 2b fd 14 be
       -0.19540305 -0.2767127 0.03791886 -0.14549701
000040 78 07 ee bd 9b 38 da be ce e5 11 be bc eb 25 3e
       -0.11622518 -0.42621312 -0.1424782 0.16203207
000050 c9 31 fb bd 0e 3c 5e be 95 fb b6 3e 8a 43 c3 be
       -0.12265355 -0.21702597 0.35738817 -0.38137466
000060 f1 6f 3d bd 20 bb 0b be 82 68 c2 bd 4f c7 ff be
       -0.046249334 -0.13645601 -0.094925895 -0.49956748
000070 bc d4 4c bd 4f bd ac bb 79 3c c1 3d fd 6c f6 bd
       -0.050007567 -0.005271591 0.09435362 -0.120325066

b2.weight f4 [32, 32, 3, 3]
000000 ee 14 74 3e 7b 6e 8d 3d 9d d8 5c bc b6 c4 c2 3d
       0.23836109 0.06905838 -0.013479379 0.09510176
000010 34 90 07 be 52 0c 8f 3e 3c d2 0e be 00 73 9c bd
       -0.13238603 0.27939087 -0.13947386 -0.07639122
000020 28 06 2b 3e b4 d8 6c 3e fc 4b 79 3c e3 4a 1a bd
       0.16701567 0.2312954 0.01521587 -0.037669074
000030 16 9a a7 bd c8 c3 95 bd fa 3b 16 be 14 80 f6 3d
       -0.081836864 -0.07312733 -0.14671317 0.12036148
000040 23 f7 0b 3e 1f 44 df be b1 79 15 be 3c 46 65 3e
       0.13668494 -0.4360666 -0.14597203 0.22390074
000050 69 06 d1 be af 9a 8f bc fd 13 44 be e6 51 15 3e
       -0.40825203 -0.017529814 -0.1914825 0.14582023
000060 48 fe 30 be 1c 85 e2 bd 20 ff 29 be 9b 45 cd 3e
       -0.172845 -0.11060545 -0.16601229 0.40092167
000070 20 a0 94 bd 2b 37 12 3e 26 3f 07 3f 48 ab 5c bd
       -0.07257104 0.14278857 0.5283073 -0.053874284
000080 a6 d3 0e be 30 7b 36 bd 89 94 cf be 45 29 89 bd
       -0.13947925 -0.044551075 -0.4054301 -0.06697325
000090 40 4d b4 bd 9b c0 c3 3d 7d e8 ac be 20 c0 b4 bc
       -0.08803797 0.09558221 -0.33771124 -0.022064269
0000a0 24 a8 4e 3e 7e 36 81 be 23 70 da be a3 61 e8 3d
       0.20181328 -0.25236887 -0.4266368 0.11346748
0000b0 dc 1a 5a 3e 51 f1 00 3f 0b 3e a1 be e6 9f aa bd
       0.21299309 0.5036822 -0.31492648 -0.083312795
0000c0 cb e4 9b be 32 a7 77 bd e2 21 ca be 4b f2 09 3e
       -0.30447993 -0.060462184 -0.39478976 0.13471334
0000d0 3c 68 00 3f 72 03 2e 3f 37 96 81 3d 95 e5 96 be
       0.5015905 0.6797401 0.06327479 -0.29472032
0000e0 bb c2 b6 3d a8 89 09 be 34 89 3d bd 91 e4 c7 bd
       0.08923861 -0.13431418 -0.046273425 -0.097603925
0000f0 5c 82 8a 3d 73 3b 28 3e 74 00 85 be cc 70 a8 3e
       0.06763145 0.16428928 -0.25976908 0.32898557
000100 88 54 01 be f4 0a fb bd a0 27 be bd eb 24 c6 3d
       -0.12629902 -0.122579485 -0.092849016 0.0967501
000110 82 62 1c 3d 74 e1 8e 3c 30 9c c8 3d 37 3a 21 be
       0.038179882 0.017441489 0.097954154 -0.15744863
000120 0d cc 05 bc cd 3e 36 be 00 0c 6b 3e 01 eb 78 3c
       -0.008166325 -0.17797394 0.22953796 0.015192748
000130 12 3b 84 bd e0 74 d9 bd 84 78 0c be 24 b3 e9 3b
       -0.06456579 -0.10617995 -0.13717848 0.007131951
000140 ec 79 95 be 87 f7 89 be fe 82 9a be 9f 61 3d be
       -0.29194582 -0.2694666 -0.30178064 -0.1849427
000150 9d a8 34 3e 35 81 0c be 81 35 8f 3e 2a 88 bd 3e
       0.17642446 -0.13721164 0.27970508 0.37017947
000160 86 fb 47 3d b6 dd 8b bd 97 5e c4 bc 70 c8 35 be
       0.048823856 -0.068293974 -0.023970885 -0.17752242
000170 fe 00 cd bd 8b 51 e3 bd 64 36 22 be 31 3b 23 be
       -0.10009955 -0.110995375 -0.15841061 -0.15940548
000180 d6 00 95 3e 8f 37 36 3e 6a f1 7e be 88 1d d0 3d
       0.291022 0.17794631 -0.2489678 0.10161883
000190 a6 e3 95 bd fe 2f f7 3d f0 c2 41 be 41 d0 c7 3d
       -0.07318811 0.12069701 -0.18922019 0.09756518
0001a0 50 f1 34 be 72 a6 9e be 51 9a 14 3e 37 dc d8 bd
       -0.17670178 -0.30986363 0.14511992 -0.10588878
0001b0 c2 1e 8c be 81 15 12 be dc df 67 bd 59 a7 11 3e
       -0.27367216 -0.14266016 -0.056609973 0.14223994
0001c0 f1 5b aa bd 78 16 3e be c5 ea 92 be 58 ab c6 3d
       -0.08318318 -0.18563259 -0.2869474 0.0970065
0001d0 e9 1c 76 3d 94 e3 98 be 91 79 f9 bd b3 d2 01 bf
       0.060086165 -0.29861128 -0.1218139 -0.50712126
0001e0 d3 7c 84 bb 3c 5e 8d be d4 12 d5 3d a7 92 22 be
       -0.0040432005 -0.27610958 0.10403982 -0.15876256
0001f0 2d da 6c bd 8e d8 aa be 65 dd 28 3e a7 a8 b8 bc
       -0.057825256 -0.33368343 0.16490705 -0.022541357
000200 4a 7f e7 bd fd 72 e7 bc 98 87 fb be 5c 34 86 3b
       -0.11303575 -0.028253073 -0.49126887 0.004095597
000210 cb 89 f9 bd cb 45 22 3e 47 9b 1d 3d 5e 84 33 be
       -0.12184485 0.15846936 0.038478162 -0.17530963
000220 8d b9 b8 bd ca bf 83 bd 67 35 67 3e 2f b6 eb be
       -0.09019766 -0.06433065 0.22578965 -0.46037433
000230 51 8f d4 3d a5 8e a8 3b 05 91 3d 3e 61 9a 3d 3d
       0.10378898 0.0051439577 0.18512352 0.046289805
000240 2e 78 9a 3e ca ee 6c bd 07 18 c9 bd 3c b4 a5 3d
       0.30169815 -0.057844914 -0.09819036 0.080910176
000250 05 01 27 be f0 2c 5f 3d 49 89 53 3d 59 5e 6a 3e
       -0.16308983 0.054486215 0.051644597 0.22887553
000260 b8 9b b0 bd db f7 d7 bb bf 81 6e bd 40 e4 ba 3d
       -0.08623451 -0.006590826 -0.058229204 0.091255665
000270 74 fb 25 3e c6 bd 1b 3d d0 67 25 3d 13 71 1b be
       0.16209203 0.03802278 0.040382206 -0.15179853
000280 77 16 c7 3d 7e e1 6a be 95 97 60 bd f5 96 18 3d
       0.09721082 -0.22937581 -0.05483206 0.03725334
000290 3b 64 81 bd 9a 5a 02 be e3 5e a1 bd 44 75 77 be
       -0.063179456 -0.12729874 -0.07879426 -0.24165827
0002a0 e3 57 21 be d8 38 18 be 3d 41 95 bc 93 ce 83 3e
       -0.15756182 -0.14865434 -0.018219585 0.2574354
0002b0 39 47 6b bc 9b b3 98 bd ed 03 a1 3d 2d 06 31 3e
       -0.0143602425 -0.07456132 0.07862077 0.17287512
0002c0 1c e3 3b 3e 9a 16 b5 bd 03 71 af 3d 81 dd 61 bd
       0.18348354 -0.088422015 0.08566477 -0.055142883
0002d0 3e c8 7b bc 62 a2 68 be 97 a4 0c bd f8 ef 54 3e
       -0.015367566 -0.22718194 -0.034336653 0.20794666
0002e0 5d 88 79 bd e5 79 58 bc 9d b8 a0 be 6b ea 1f bd
       -0.06092106 -0.013212656 -0.3139085 -0.039041918
0002f0 ab f1 6d be 26 f6 77 be c4 db cb bd 70 6a 9f 3d
       -0.2323672 -0.24214992 -0.09954026 0.07783973
000300 94 00 63 3e d0 79 4c 3e fd f0 93 3e 6b 20 63 bd
       0.2216819 0.19968343 0.28894797 -0.055450838
000310 45 53 6c be d5 45 f8 bb 01 2c 83 3e a1 a7 86 be
       -0.2307864 -0.007576684 0.2561951 -0.26299766
000320 87 ad 14 3e dd 34 88 3d 87 66 0c bd 7a 15 04 3e
       0.1451932 0.06650708 -0.034277465 0.12898818
000330 3e 2d 1d bf 21 a7 92 3e 7b 16 7d bd c2 f8 59 be
       -0.6139716 0.28643134 -0.061789017 -0.212863
000340 55 58 56 bd 65 8e 34 bd a9 64 82 bd 6c 72 9e be
       -0.052330334 -0.04408111 -0.06366856 -0.30946672
000350 03 20 33 3f d9 b0 e8 39 84 b8 00 3d 85 a7 5d 3e
       0.6997072 0.0004438225 0.031425968 0.21645935
000360 9a c8 4f bb 3d f5 db bd 3a ee c3 bd d9 94 90 3d
       -0.0031705261 -0.10740135 -0.095669225 0.070596404
000370 49 53 12 be ca 76 5a 3c 02 a9 94 3e d8 e3 33 3e
       -0.14289583 0.013333986 0.29035193 0.17567384
000380 66 b4 a5 be 9a e5 76 3c d0 94 45 be c8 aa 00 3e
       -0.32364196 0.01506939 -0.19295049 0.12565148
000390 ef 52 1a 3c f5 df 66 3e 52 af d7 bd 70 c4 11 be
       0.009419187 0.2254637 -0.105314866 -0.14235091
0003a0 dc d3 5c be a5 1a fb 3d 94 56 af 3d 86 c9 00 be
       -0.21565193 0.122609414 0.08561435 -0.12576875
0003b0 21 fe ac 3d d9 08 aa ba 56 83 de 3d ff 8d 25 3e
       0.08446909 -0.0012972608 0.10864894 0.16167448
0003c0 2d 9e ba be eb 8a a1 be c0 d3 70 be 39 10 f3 3d
       -0.36448804 -0.31551298 -0.23518276 0.118683286
0003d0 02 30 f8 bd 4e 38 c2 3e df 80 2f 3e ad a7 9a bd
       -0.12118532 0.37933582 0.17139004 -0.07551513
0003e0 b6 31 80 be bc 5d aa bd b1 d4 c5 be be d5 d4 3d
       -0.25037926 -0.0831866 -0.38638833 0.103923306
0003f0 b7 81 bd bb cc f7 e4 3d a7 9d 80 3e fc 77 30 3d
       -0.0057832855 0.11180076 0.2512028 0.043083176

b2.bias f4 [32]
000000 5e 70 65 3d 1f 90 01 bf e2 82 96 be e0 fc d2 be
       0.056015365 -0.50610536 -0.2939673 -0.41208553
000010 26 c8 0b be 09 8c ad be 0c 07 6e be 22 db 82 be
       -0.1365057 -0.338959 -0.23244876 -0.2555781
000020 d8 61 5e 3e d6 56 03 3d d5 a9 62 b8 83 0a 45 be
       0.21717012 0.032065235 -5.4040767e-05 -0.19242291
000030 97 5e 6d be eb bf c7 be 3e 77 9c bd 3a 68 d2 3d
       -0.23180614 -0.3901361 -0.07639931 0.10273786
000040 bd 3c e5 bd e0 7a 82 be 38 0e d3 bd 1b 80 1e be
       -0.111932255 -0.2548437 -0.103054464 -0.15478556
000050 08 76 e3 bd 6d 97 28 3e 41 66 a0 be 24 04 31 3e
       -0.11106497 0.16464014 -0.31328014 0.17286736
000060 3c 7e aa be 12 48 21 3e 2e 79 ba 3d 09 b4 28 3d
       -0.33299434 0.15750149 0.091051444 0.04118732
000070 cb 3b dd be 1e c4 a6 bd 89 b8 3d 3e 15 40 75 bd
       -0.4320968 -0.08142875 0.18527426 -0.059875567

b3.weight f4 [64, 32, 3, 3]
000000 90 c1 95 bd 3c 10 7b 3d 44 19 c1 bc e1 6c 86 be
       -0.0731231 0.06129478 -0.023571618 -0.26254943
000010 7b 1c 12 bd b6 39 75 bd e3 3c a0 bd 92 c1 b3 be
       -0.035671692 -0.05986949 -0.07824113 -0.3510862
000020 94 e5 84 3d 96 75 d7 3c 33 4c 7b be 04 b2 81 3e
       0.06489101 0.026301187 -0.24540786 0.25331128
000030 9d 11 cf bd 63 ab 0b 3e c9 1e b2 be 4c 41 31 be
       -0.10110781 0.13639598 -0.34789112 -0.17310065
000040 60 7d 5a be 93 74 8d be 48 4e 8b be 57 f1 3c be
       -0.2133689 -0.27628002 -0.2720816 -0.18451439
000050 76 72 fc bc 5b 1d a5 3c 15 cf b3 bd 22 a3 a4 be
       -0.030816298 0.0201556 -0.08779732 -0.3215571
000060 e1 ff 36 3e 23 c6 98 3e e6 42 1e be 10 43 1c bd
       0.17871048 0.29838666 -0.15455207 -0.038149893
000070 5a 79 15 be f0 97 1b 3e 13 6d 50 3d cb 3f 89 3e
       -0.14597073 0.15194678 0.05088527 0.26806483
000080 ec 0e 3f be 29 e2 64 bd 67 42 27 be e5 ce 93 3e
       -0.18658036 -0.055879746 -0.16333924 0.28868786
000090 89 97 d2 bd 78 4c 5f bd e4 b7 0c 3c 03 29 e8 be
       -0.10282809 -0.054516286 0.008588765 -0.4534379
0000a0 01 66 be 3d 0c 0d f7 3e 32 24 64 be 95 d9 77 3e
       0.092967995 0.4825214 -0.22279432 0.24204095
0000b0 60 db b4 3d 5e fe 97 3d 12 e3 da 3e 73 91 19 3e
       0.08830905 0.074215636 0.42751366 0.1499689
0000c0 c7 5b 35 3e c3 82 09 be 8b c3 82 3e 80 3f 00 be
       0.17710792 -0.13428788 0.25539812 -0.12524223
0000d0 f3 fa d7 bd b9 64 b3 be 71 4c 8a 3d 1a 7f f7 3d
       -0.10545912 -0.35037783 0.06752861 0.120847896
0000e0 5c a8 1c be 0b 05 e8 3d e8 3e 03 3e d6 82 d3 3c
       -0.15298599 0.11329087 0.12816966 0.025819223
0000f0 72 6e 07 bd 46 c2 0c be 2f bb c1 3c fc d1 32 be
       -0.033064313 -0.13745984 0.023648826 -0.17462915
000100 4b 3e e8 bd 8a ec 1b 3e 02 36 49 bd 5a ab a2 bd
       -0.113400064 0.15226951 -0.04912377 -0.07942839
000110 42 59 f3 be a3 f7 36 3e bc da 85 3e cf da 91 be
       -0.47529036 0.17867903 0.26143444 -0.2848725
000120 e0 c5 5f bd ee 49 b2 3d f0 f6 0a be 63 e2 2d bd
       -0.054632068 0.08705507 -0.13570762 -0.042452227
000130 b7 84 d2 3c 59 4b d3 bd 2d b4 29 3d d6 1e 82 be
       0.025698049 -0.10317106 0.041431595 -0.2541415
000140 4c d3 4b 3e 45 d0 09 be 04 0b 25 3e 6d c2 fc 3d
       0.19904822 -0.13458355 0.16117483 0.12341771
000150 2f d5 ee 3c 58 6f a1 3e 84 74 2b be 7e 83 b1 be
       0.029154388 0.3153026 -0.16743666 -0.34670633
000160 9a 2b 13 bf 4a 59 8b bd e9 32 5e bd 97 4f 80 be
       -0.57488406 -0.0680414 -0.05424777 -0.25060722
000170 83 c2 89 be f7 d4 6d 3d 7f 48 0b 3d ed 02 5f 3d
       -0.26906213 0.058064427 0.034004685 0.05444615
000180 9d b2 9c be 99 6a 07 3e c6 e1 e6 bd b5 64 84 3e
       -0.3060502 0.13224258 -0.112735316 0.25858083
000190 eb aa a9 3d 93 65 fd bd 92 2b 53 3e bc 71 97 3d
       0.08284553 -0.12372889 0.2062209 0.0739474
0001a0 b7 65 e1 3d 14 8b c1 3d 90 2c cc 3e c2 58 75 3e
       0.11005729 0.09450355 0.39877748 0.2395964
0001b0 e4 7a af bb 60 aa 95 3d 0a df 16 3e 41 f1 bb 3d
       -0.005355226 0.07307887 0.1473352 0.09176875
0001c0 05 0e 30 be ef 7f ba be 56 da 9e bd de 95 06 bb
       -0.17192848 -0.3642573 -0.07756488 -0.0020536105
0001d0 d4 9a e2 3d be 4e 6f 3d fe 9a 00 be 8f ce e0 3d
       0.11064687 0.058424704 -0.12559125 0.10976898
0001e0 21 5d 81 3c 96 6b c8 3e cf ec 1e 3e 9e d9 0c be
       0.015791478 0.39144582 0.15520023 -0.1375489
0001f0 d0 03 85 bc fa f3 05 3e cf 52 36 3e 19 33 ab be
       -0.01623717 0.13081351 0.17805026 -0.33437422
000200 e6 b0 8d bd 2d b2 84 3e 21 36 0c 3e 74 c7 21 3e
       -0.06918506 0.25917187 0.13692524 0.15798742
000210 2f 97 1b 3e 77 27 e2 bd a2 fb 06 bf 07 93 ae bd
       0.1519439 -0.110426836 -0.5272771 -0.08524137
000220 83 76 58 be e1 24 b5 3d e1 e3 56 bd 1a b3 52 be
       -0.21138959 0.08844925 -0.052463416 -0.20576134
000230 bc 4e ea be 7b 50 b9 bd 58 5a 42 3d 9e 62 72 bd
       -0.45763195 -0.090485536 0.04744944 -0.05917608
000240 64 e3 73 3e bc 16 9b be cd 78 a9 be 9f 9c 9a 3d
       0.23817211 -0.30290782 -0.33099976 0.07549404
000250 bd 25 a0 be 15 5f e8 3d c6 07 0e be 3a dd f5 bd
       -0.31278792 0.113462605 -0.13870153 -0.12005086
000260 46 ee fb be d2 57 ff bc 22 9c dc 3d db b0 85 3e
       -0.49205226 -0.031169806 0.107719675 0.26111493
000270 27 c2 ee 3d d9 70 91 bc f8 e0 67 be dd de 85 be
       0.11658125 -0.017754005 -0.22644413 -0.26146594
000280 de b7 7b bd ae eb d1 be dd 75 ae 3e f6 06 a8 3d
       -0.061454646 -0.41000122 0.34074298 0.08204453
000290 e3 5b c8 3d 7b d9 9b bd 31 88 96 be 5a f5 6e be
       0.09783151 -0.076098405 -0.2940078 -0.23335782
0002a0 64 31 0f be 3c 96 2b be ed 16 1b be f2 d9 09 3e
       -0.13983685 -0.16756529 -0.15145464 0.13462046
0002b0 14 a6 34 be 4d 6f 4d 3d 51 42 e5 3d 56 75 da be
       -0.17641479 0.050154973 0.111942895 -0.42667645
0002c0 b7 b6 eb 3d ea a8 16 3d 56 0f 0a 3d 84 43 85 3d
       0.115094595 0.036782183 0.03370603 0.06507018
0002d0 e2 6f 85 3d a5 87 68 3d 0f a3 09 be be 13 83 3e
       0.065154806 0.056769986 -0.13441108 0.25601
0002e0 a0 d3 f7 bd c0 87 45 3e 2e cc 25 be 15 78 7e 3e
       -0.12100911 0.19290066 -0.1619117 0.24850495
0002f0 72 f5 56 bd 5e 69 89 bd d4 1d 2b be 07 e0 f2 3d
       -0.05248017 -0.0670955 -0.16710597 0.11859136
000300 85 12 94 be 28 75 e6 3d 8e fa c3 3b 2c 2a ce bd
       -0.2892038 0.112528145 0.005980796 -0.100666374
000310 75 70 95 3d bf cf e0 bd 0a 20 d8 be 57 c2 27 be
       0.0729684 -0.109771244 -0.42211944 -0.16382729
000320 83 7c b1 3d 8a 00 f0 3d 5c 96 28 3e 06 00 04 be
       0.08666327 0.11718853 0.16463608 -0.12890634
000330 12 f0 b0 3d 5b 83 c4 be f5 76 3e bd 18 7c 52 bd
       0.0863954 -0.38381466 -0.046500165 -0.051387876
000340 3c 2b 02 3d 58 ef 68 be 77 30 15 3d ce dd 1b be
       0.031779513 -0.22747552 0.036423173 -0.1522133
000350 0f 15 38 3e b4 35 29 bd 74 37 ee be a4 54 19 3d
       0.17976783 -0.04131098 -0.46526682 0.037434235
000360 9c ff 25 be b7 e3 2b be 98 32 1f 3e 41 f6 21 3d
       -0.16210788 -0.16786085 0.15546644 0.039541487
000370 50 ad 60 be f9 27 15 be 03 9c a7 bd 42 b3 38 3e
       -0.21941113 -0.1456603 -0.08184054 0.18037131
000380 21 81 15 be 34 e2 24 3d 69 89 fb bd 0d 82 7c 3e
       -0.1460004 0.040254787 -0.12282068 0.24658985
000390 92 f6 f8 3e 26 6e 00 3e 53 6e ae 3d db 3f b8 3d
       0.48625618 0.12542018 0.085171364 0.089965545
0003a0 f5 f6 32 3e c2 07 8c 3d 77 94 12 3d 34 51 85 3d
       0.17477019 0.06837417 0.03578612 0.06509629
0003b0 df f0 d1 3d bb 90 03 3d 8f 0b 94 3e 47 e6 47 3e
       0.10251021 0.032120448 0.28915069 0.19521438
0003c0 59 89 34 be 03 7b d1 be ec 93 fa 3d 86 2b 9d bd
       -0.17630519 -0.40914163 0.12235245 -0.07674317
0003d0 2c c7 46 3c 0d d0 20 bc 52 e1 c6 3d 00 21 9a 3a
       0.012132447 -0.009815228 0.09710945 0.0011759102
0003e0 db d6 df 3c e0 82 b8 bd 51 08 5f be e9 70 64 3e
       0.02732413 -0.090093374 -0.21780516 0.22308697
0003f0 52 27 09 bd 26 4a 61 bc 7d e7 a7 3e 4e 9c c2 3d
       -0.033484764 -0.0137505885 0.327938 0.09502469

b3.bias f4 [64]
000000 39 d4 ba 3d 30 6c f5 3d f8 a3 79 bd 79 59 08 bd
       0.091225095 0.11983526 -0.06094739 -0.033288453
000010 66 83 54 3d c0 96 2c be 78 c2 4a 3d 7c 97 b2 3c
       0.051883124 -0.16854382 0.049501866 0.021800749
000020 c1 06 50 be 43 4a c5 bd e7 2f dd bd c9 78 05 3e
       -0.20315076 -0.09633305 -0.10800152 0.13034357
000030 f5 5e 37 3d 5f 5f 3b 3e 16 bc 0c be a1 ad c5 bd
       0.044768292 0.182981 -0.13743624 -0.09652258
000040 f6 d7 e7 ba dc f6 fa bc e6 a1 b2 bb 56 67 f4 3d
       -0.0017688263 -0.03063529 -0.0054514287 0.11933772
000050 6e e9 60 bd 5b 28 6e be 71 a2 01 bc 19 9a 02 3e
       -0.054910116 -0.23257582 -0.007912264 0.12754096
000060 44 98 1e 3e 22 0d 32 be cf bf c4 be 31 7f e3 bd
       0.15487772 -0.17387822 -0.38427588 -0.11108244
000070 d7 e2 52 3e fd 71 c6 bd ff b6 06 3d 5b 38 b9 bd
       0.20594345 -0.0968971 0.032889362 -0.09043952
000080 f9 47 16 be 1e 5d c3 bd 56 f0 36 bd 78 49 b6 3d
       -0.14675893 -0.09539245 -0.044662796 0.08900732
000090 2c 69 b4 bc 9e 21 6b be 97 b6 91 3d 80 4e ef bd
       -0.022022806 -0.22962043 0.071149044 -0.116848946
0000a0 0b 68 c8 3c 7c d8 a9 3c 03 85 2b 3e f5 85 7e 3e
       0.024463674 0.02073311 0.16749959 0.24855788
0000b0 18 45 f1 bd 4b d9 ef bd 6d d7 ff 3d 34 10 b8 bd
       -0.11780757 -0.11711367 0.12492261 -0.089874655
0000c0 d9 23 3c be b3 bd 2a be be 9d 0c bd 17 df 42 3d
       -0.1837305 -0.16673927 -0.034330122 0.047576036
0000d0 9a c0 4d bc 0f 8f 2f 3d e7 b9 ae bb 3c 2f 73 bd
       -0.012558127 0.04286104 -0.00533222 -0.059371218
0000e0 db 5f af 3d 27 de e6 3d ee 53 e4 bd 5b c6 eb bc
       0.08563205 0.11272841 -0.11148821 -0.028781107
0000f0 5e 81 30 be fa 5b 4b 3d 64 35 a2 bd 18 f4 90 be
       -0.1723685 0.049648263 -0.0792034 -0.2831123
