nets/model_epoch_85.pth (torch, 648794 bytes, 25 tensors)

a1.weight f4 [16, 5, 3, 3]
0.122966625 0.1901009 -0.005623579 -0.28491393 -0.09653158 0.3450078 -0.2084457 -0.037136313
-0.4203001 -0.048751216 -0.10763513 -0.16069925 -0.016528385 -0.18930869 -0.35177982 -0.32874453
-0.24553916 -0.04860969 0.077560976 -0.08646786 0.065621406 0.12402548 -0.39862508 -0.017383542
0.010284993 -0.18364906 -0.035191182 -0.19341442 -0.047720455 0.06805133 -0.18906225 -0.092867404
-0.53758204 -0.18586363 -0.29602396 0.19329461 -0.16818377 -0.10365519 -0.17609528 -0.06099543
-0.24213755 -0.18893296 -0.042509615 -0.15033539 -0.07796978 0.20688857 -0.1466691 -0.08186732
0.37101185 0.026008591 0.42336684 -0.018843189 0.6225291 -0.29075465 0.09862353 0.32620808
0.098099075 -0.062062945 0.21515658 -0.037649263 0.14967933 -0.64887834 0.059518505 0.20578134
-0.037882455 -0.113151014 0.41426215 0.08308645 -0.48202196 -0.16148919 -0.20403495 0.12513967
-0.041643508 -0.43340948 -0.48565954 0.00040601852 0.36992902 0.13543434 0.15496726 0.21178415
-0.5567673 -0.006648868 0.03155991 -0.004659765 0.08762261 0.038320977 -0.031015202 -0.07675161
-0.079174 0.030168584 -0.35467812 0.12552507 0.41955197 0.009679763 0.25319573 -0.008175129
0.6786808 0.5291377 0.13072522 0.20243022 0.28242454 0.21554416 -0.03244689 -0.030937547
-0.00797979 -0.118485 -0.14098212 0.060939867 0.2920833 0.53013086 0.27444434 0.08131467
-0.290575 0.3736781 -0.36228678 -0.1353273 0.22940984 -0.052968375 -0.3378615 -0.29433537
0.057670344 -0.18926941 -0.021743188 0.066136986 0.04698197 -0.3848634 -0.024904905 0.017299745
0.0025854975 -0.022652684 0.12016303 -0.09014708 -0.009249178 -0.065767795 0.067069344 0.15777035
0.12293236 -0.30472872 0.14850609 0.16466482 -0.3657757 0.10222792 -0.4127142 0.3331826
-0.17452432 -0.54560775 -0.31041926 -0.4137693 -0.030509042 -0.7475107 0.06961202 0.066980794
-0.06675364 -0.052315876 0.10188072 0.031003647 -0.19342569 -0.091482826 -0.40043095 -0.17111571
-0.22128633 0.4194066 0.2624915 0.30206046 0.27600244 0.4238419 -0.116862446 0.69417614
0.22068766 -0.053853706 -0.28931588 -0.03494797 0.024871167 0.051467482 0.0073632016 -0.008644655
0.016503626 0.058996372 -0.05157486 -0.019509131 0.23262917 0.035548866 -0.326233 0.03825579
0.17049831 0.33282226 0.047903623 0.24621737 0.2896471 0.1835307 -0.15206501 0.066297755
-0.24793373 -0.050609246 -0.18021007 0.20421189 0.042130556 -0.171591 0.11798338 0.13671447
0.5307483 -0.07721015 -0.033698585 -0.16474414 -0.33655182 0.37732592 -0.018495796 -0.18790935
-0.48318276 -0.48157525 0.13296524 0.06119095 -0.17621021 -0.24610133 -0.04954769 0.051104337
-0.026736096 0.019202176 -0.018206319 0.03161429 -0.12019723 0.01695574 0.02499502 0.09396214
-0.039844308 -0.08479141 -0.054950636 0.22419186 0.05026881 -0.13391739 -0.07823521 0.21756026
-0.13899015 0.44907305 -0.017137855 0.46316078 0.29650667 0.028478535 0.005618619 -0.38941967
0.066056445 0.301109 -0.68443257 0.042779207 0.08070893 0.1262448 -0.21810195 0.33323765
-0.46180114 -0.17666845 -0.12299916 -0.5102652 0.3161459 -0.0018390529 0.084168814 0.06758887
00000000: edd5 fb3d cfa9 423e 0046 b8bb 3de0 91be
00000010: 59b2 c5bd dda4 b03e ca72 55be 3f1c 18bd
00000020: 9331 d7be 5baf 47bd cf6f dcbd 588e 24be
00000030: 8966 87bc 23da 41be 7c1c b4be 3451 a8be
00000040: 9e6e 7bbe f41a 47bd 4ad8 9e3d 1016 b1bd
00000050: 8464 863d 1201 fe3d 9618 ccbe ee67 8ebc
00000060: 6382 283c 800e 3cbe a124 10bd 6e0e 46be
00000070: 8676 43bd 7f5e 8b3d 8999 41be 4431 bebd
00000080: fa9e 09bf 0953 3ebe 7490 97be 06ef 453e
00000090: 5e38 2cbe 2c49 d4bd 5252 34be 58d6 79bd
000000a0: e8f2 77be a477 41be 901e 2ebd 85f1 19be
000000b0: 9fae 9fbd 99da 533e 6d30 16be 0eaa a7bd
000000c0: 44f5 bd3e f80f d53c 8ac3 d83e 085d 9abc
000000d0: 115e 1f3f cbdd 94be 22fb c93d bf04 a73e
000000e0: 2be8 c83d b735 7ebd 0252 5c3e 1d36 1abd
000000f0: 8a45 193e e41c 26bf adc9 733d 58b8 523e
00000100: a22a 1bbd b8bb e7bd 2b1a d43e 3b29 aa3d
00000110: 95cb f6be 6c5d 25be 8aee 50be 9d24 003e
00000120: 6292 2abd d9e7 ddbe 5ea8 f8be e2de d439
00000130: 5667 bd3e 4daf 0a3e bdaf 1e3e f2dd 583e
00000140: 4d88 0ebf bfde d9bb f744 013d f1b0 98bb
00000150: 7c73 b33d 75f6 1c3d 9813 febc f32f 9dbd
00000160: fa25 a2bd 1b24 f73c 5f98 b5be a589 003e
00000170: 84cf d63e de97 1e3c dfa2 813e faf0 05bc
00000180: 06be 2d3f 9175 073f d5dc 053e de49 4f3e
00000190: f399 903e 9cb7 5c3e 08e7 04bd bd70 fdbc
000001a0: aabd 02bc 44a8 f2bd 9e5d 10be 159c 793d
000001b0: f18b 953e a8b6 073f f883 8c3e 4e88 a63d
000001c0: 3fc6 94be bc52 bf3e a77d b9be 3d93 0abe
000001d0: 6aea 6a3e 5ef5 58bd 2ffc acbe 20b3 96be
000001e0: bd37 6c3d d7cf 41be c51e b2bc d472 873d
000001f0: 2b70 403d d10c c5be 5f05 ccbc 32b8 8d3c
00000200: 7371 293b 1f92 b9bc 0918 f63d 089f b8bd
00000210: dd89 17bc 44b1 86bd a75b 893d 8d8e 213e
00000220: f6c3 fb3d 6705 9cbe fb11 183e e59d 283e
00000230: f446 bbbe df5c d13d 474f d3be e996 aa3e
00000240: 81b6 32be f3ac 0bbf 46ef 9ebe 92d9 d3be
00000250: 19ee f9bc dc5c 3fbf bf90 8e3d 3a2d 893d
00000260: 22b6 88bd 2c49 56bd d7a6 d03d 5cfb fd3c
00000270: 6211 46be 595b bbbd 4905 cdbe f538 2fbe
00000280: e298 62be 76bc d63e 4965 863e aba7 9a3e
00000290: 3150 8d3e ce01 d93e 9455 efbd 87b5 313f
000002a0: f2fb 613e b495 5cbd 3621 94be 9a25 0fbd
000002b0: 9ebe cb3c 91cf 523d 0347 f13b 50a2 0dbc
000002c0: 9d32 873c 2ea6 713d 2940 53bd 9dd1 9fbc
000002d0: 5736 6e3e b09b 113d 0308 a7be 1ab2 1c3d
000002e0: 1c97 2e3e ae67 aa3e 9736 443d 6820 7c3e
000002f0: a04c 943e 79ef 3b3e eeb6 1bbe 1ec7 873d
00000300: 57e2 7dbe a44b 4fbd fd88 38be ec1c 513e
00000310: 1791 2c3d 8db5 2fbe 45a1 f13d e1fe 0b3e
00000320: 1fdf 073f 5b20 9ebd 8707 0abd b0b2 28be
00000330: 8550 acbe dd30 c13e 7f84 97bc 4f6b 40be
00000340: bb63 f7be 0891 f6be 0a28 083e 5da3 7a3d
00000350: 7370 34be fd01 7cbe 85f2 4abd c852 513d
00000360: a805 dbbc e24d 9d3c 6b25 95bc fc7d 013d
00000370: f729 f6bd c4e6 8a3c 5bc2 cc3c 396f c03d
00000380: c933 23bd 1ea7 adbd eb13 61bd 8d92 653e
00000390: abe6 4d3d a421 09be c839 a0bd 1ec8 5e3e
000003a0: 6f53 0ebe e7ec e53e b064 8cbc 6923 ed3e
000003b0: b9cf 973e d14b e93c 641c b83b 0462 c7be
000003c0: 9a48 873d f52a 9a3e f936 2fbf 4039 2f3d
000003d0: b94a a53d 5146 013e 1e56 5fbe 209e aa3e
000003e0: 3371 ecbe 93e8 34be fce6 fbbd bda0 02bf
000003f0: e0dd a13e 600c f1ba b360 ac3d 096c 8a3d

a1.bias f4 [16]
0.04153898 -0.12586913 -0.07570882 -0.17261167 0.16726716 -0.14531063 0.02704634 -0.13643584
-0.18298332 0.09916028 -0.073577695 0.11653384 -0.101470515 -0.08308726 0.31464574 0.25820252
00000000: c724 2a3d d6e3 00be 3a0d 9bbd 1dc1 30be
00000010: 1548 2b3e 4fcc 14be 4990 dd3c d6b5 0bbe
00000020: fb5f 3bbe 8b14 cb3d e7af 96bd 4ba9 ee3d
00000030: c6cf cfbd a729 aabd 3f19 a13e 1f33 843e

a2.weight f4 [16, 16, 3, 3]
-0.048466213 -0.25269872 -0.13682194 0.37293535 0.29167384 0.032764357 0.09593018 -0.17788449
0.19319837 0.059789192 0.19160442 -0.016087366 -0.20093675 0.18995897 -0.25634232 -0.050532658
0.13887833 -0.107431754 -0.07127643 -0.2664283 -0.43213812 -0.5014021 -0.14269657 -0.004903702
-0.16446447 -0.48166624 0.087865695 -0.92091846 0.3224286 -0.44222572 0.7545677 -0.33430687
0.2561844 0.10775474 0.06375332 0.084765434 0.018321883 -0.4366583 -0.034144007 0.07882237
-0.02290036 -0.19072491 -0.6314442 -0.2603354 -0.21239725 0.115548424 -0.270761 -0.18295862
0.2782415 0.07319108 0.18968625 -0.4452958 0.1902483 0.16192709 -0.29488343 0.044938866
0.002976367 0.42190006 0.4164779 0.025800783 0.08878092 -0.016936297 -0.01426961 0.4151261
-0.27940103 -0.08326045 -0.45131302 -0.045152422 -0.15870042 -0.14189877 -0.14527103 0.30172962
0.2646759 0.18884526 0.043421533 -0.042522617 -0.039527707 0.307509 -0.2825954 0.5462661
0.17170617 0.060702346 0.23191638 -0.06009584 -0.26802927 0.25382206 0.5809994 0.19115394
0.05767202 0.21288952 -0.18782638 -0.064662695 -0.18381788 0.09799461 0.24654539 -0.4281775
0.10349432 0.012907701 0.2400957 -0.45910296 -0.093996316 -0.022588583 -0.22393534 -0.20216696
-0.0013633242 0.6659558 0.040435806 -0.22316961 0.00034428661 -0.13644479 0.038732994 0.017797919
0.64014053 -0.40888196 0.61703354 0.31137228 -0.25485826 0.29768804 -0.4937349 -0.52190644
0.01009231 0.528226 0.1578423 0.26269132 -0.2555595 0.040278047 -0.08868194 -0.7745516
-0.099527374 -0.09020601 -0.014321856 -0.36284664 -0.11643065 -0.21702076 0.19886042 -0.46801573
0.0052768406 -0.22505052 -0.09674305 -0.25017256 0.6754333 -0.3079646 0.02139378 0.009668056
0.009103728 0.01190149 -0.1668616 -0.21852791 -0.28033927 -0.19266538 -0.13486822 -0.07191453
-0.10845631 -0.08394999 -0.12271055 0.24207917 -0.1325453 -0.1624748 0.00165043 0.12269133
0.1040541 0.100409254 0.12890004 -0.022930998 0.23495592 -0.024582697 0.23909993 0.21056265
0.034407284 0.09018127 0.105691776 -0.22421293 0.21228608 0.39819223 0.022745213 0.031376697
-0.13028301 0.111182675 -0.2139382 0.3423338 0.38097468 -0.18964833 0.19313279 0.14924888
0.14244051 -0.10678704 0.24335122 -0.11140438 -0.0275377 -0.19937803 0.17615533 0.27975473
0.04999048 0.03491865 -0.07761114 0.13491398 0.12831378 -0.18691516 -0.052183133 -0.11365421
-0.1327046 -0.07422871 0.0060627204 -2.3771572e-05 -0.16192296 -0.19169992 -0.04187247 0.12596227
0.23971744 0.057397906 -0.24446268 0.1653644 -0.0060441056 0.1523387 -0.072913446 0.49297005
-0.14765698 -0.12616421 0.11320238 -0.4342355 0.17123054 -0.1271675 -0.26891756 0.35575905
-0.08323033 -0.06904359 -0.06283002 0.11972729 0.12897888 0.11636197 0.058728036 0.0063564396
-0.13479282 -0.18762311 0.21832967 0.17391673 -0.09185992 0.05830056 -0.26219654 0.282029
-0.08913337 0.1947108 -0.25487426 0.07597181 0.51685566 0.11377603 -0.0043189693 0.11266063
0.35189003 -0.2642917 -0.27158388 -0.23147146 -0.10092313 0.42287147 -0.01276526 -0.13173938
00000000: 8284 46bd ba61 81be 0d1b 0cbe 62f1 be3e
00000010: 4656 953e eb33 063d 0b77 c43d 5a27 36be
00000020: cbd5 453e 83e5 743d f333 443e a7c9 83bc
00000030: 5dc2 4dbe 9b84 423e 4d3f 83be 55fb 4ebd
00000040: 1f36 0e3e 2e05 dcbd 60f9 91bd 4a69 88be
00000050: 3541 ddbe e35b 00bf 0d1f 12be 3caf a0bb
00000060: 6069 28be f59c f6be eef2 b33d 50c1 6bbf
00000070: 5d15 a53e 696b e2be 592b 413f 452a abbe
00000080: 9a2a 833e 84ae dc3d 1a91 823d 8099 ad3d
00000090: c617 963c ad91 dfbe 96da 0bbd 9f6d a13d
000000a0: 8999 bbbc 644d 43be 54a6 21bf ae4a 85be
000000b0: aa7e 59be a7a4 ec3d 30a1 8abe 8159 3bbe
000000c0: ab75 8e3e 34e5 953d 1d3d 423e d0fd e3be
000000d0: 73d0 423e 37d0 253e f6fa 96be d111 383d
000000e0: 270f 433b 4903 d83e 973c d53e 2a5c d33c
000000f0: c5d2 b53d fdbd 8abc 15cb 69bc 688b d43e
00000100: a70d 8fbe 7484 aabd 8012 e7be bff1 38bd
00000110: 5d82 22be e94d 11be eec1 14be 4e7c 9a3e
00000120: 9983 873e a760 413e c7da 313d 322c 2ebd
00000130: cee7 21bd d271 9d3e 58b0 90be 18d8 0b3f
00000140: bed3 2f3e 06a3 783d 7d7b 6d3e 0e27 76bd
00000150: 223b 89be f7f4 813e 60bc 143f dcbd 433e
00000160: 7f39 6c3d b6ff 593e 8f55 40be e06d 84bd
00000170: c13a 3cbe 66b1 c83d 6576 7c3e 153a dbbe
00000180: d4f4 d33d d27a 533c a6db 753e 8b0f ebbe
00000190: 2481 c0bd b10b b9bc 4e4f 65be db04 4fbe
000001a0: 92b1 b2ba 147c 2a3f 04a0 253d 9386 64be
000001b0: 5e81 b439 2fb8 0bbe 7da6 1e3d f1cc 913c
000001c0: 40e0 233f fa58 d1be e9f5 1d3f 306c 9f3e
000001d0: c87c 82be 916a 983e d2ca fcbe a99b 05bf
000001e0: 375a 253c d239 073f 69a1 213e 7a7f 863e
000001f0: b2d8 82be 98fa 243d e19e b5bd 0349 46bf
00000200: 02d5 cbbd eebd b8bd 38a6 6abc 09c7 b9be
00000210: 3173 eebd b13a 5ebe 11a2 4b3e c29f efbe
00000220: 59e9 ac3b a573 66be 3821 c6bd 9e16 80be
00000230: 32e9 2c3f 89ad 9dbe 0242 af3c c466 1e3c
00000240: ce27 153c 78fe 423c c4dd 2abe c8c5 5fbe
00000250: a188 8fbe 134a 45be e51a 0abe ed47 93bd
00000260: 581e debd f9ed abbd ab4f fbbd 9ae3 773e
00000270: f5b9 07be cb5f 26be 3e53 d83a 9845 fb3d
00000280: 511a d53d 5ea3 cd3d 5ffe 033e cad9 bbbc
00000290: 4998 703e a761 c9bc 9dd6 743e bc9d 573e
000002a0: a7ee 0c3d f5b0 b83d ee74 d83d 1398 65be
000002b0: 8661 593e dadf cb3e 2b54 ba3c da84 003d
000002c0: e968 05be beb3 e33d 9e12 5bbe 6046 af3e
000002d0: 1d0f c33e 2c33 42be 9ac4 453e b3d4 183e
000002e0: eddb 113e 2ab3 dabd 1031 793e fb27 e4bd
000002f0: be96 e1bc c129 4cbe 1062 343e 033c 8f3e
00000300: d1c2 4c3d dc06 0f3d 97f2 9ebd e426 0a3e
00000310: b064 033e b066 3fbe fbbd 55bd 8ac3 e8bd
00000320: b7e3 07be 3905 98bd c9a9 c63b 1069 c7b7
00000330: 22cf 25be fc4c 44be 7882 2bbd 41fc 003e
00000340: 7d78 753e 111a 6b3d 6d54 7abe 4955 293e
00000350: a20d c6bb adfe 1b3e a553 95bd 9266 fc3e
00000360: 6433 17be 3131 01be a6d6 e73d 1e54 debe
00000370: 0f57 2f3e 3238 02be 90af 89be 0d26 b63e
00000380: aa74 aabd ba66 8dbd 07ad 80bd 9533 f53d
00000390: 0a13 043e 2f4f ee3d cf8c 703d ae49 d03b
000003a0: 2107 0abe 4620 40be d091 5f3e 3a17 323e
000003b0: 0e21 bcbd 91cc 6e3d a03e 86be 1b66 903e
000003c0: 8e8b b6bd 4562 473e e17e 82be 1c97 9b3d
000003d0: a750 043f 6803 e93d 2486 8dbb 9eba e63d
000003e0: ee2a b43e 3e51 87be 0b0d 8bbe db06 6dbe
000003f0: c9b0 cebd 9c82 d83e 6225 51bc b0e6 06be

a2.bias f4 [16]
-0.11683132 -0.31426615 -0.13040715 -0.01811513 0.028306479 -0.22538391 0.0017025894 -0.03501383
0.16213235 -0.20099796 -0.2917484 -0.09070837 -0.25771922 0.061904542 0.22868966 0.16996452
00000000: 4245 efbd 7ee7 a0be 7489 05be 2e66 94bc
00000010: fde2 e73c 0acb 66be 6c29 df3a a96a 0fbd
00000020: 0606 263e 69d2 4dbe 0c60 95be 4fc5 b9bd
00000030: c6f3 83be 9e8f 7d3d 9f2d 6a3e 2e0b 2e3e

a3.weight f4 [32, 16, 3, 3]
-0.21151942 0.44139698 -0.7023893 -0.09060775 -0.16472039 -0.09292419 -0.78774977 -0.1092914
0.2325639 -0.05189465 -0.10665353 -0.27022427 -0.0011459788 0.2210098 0.17817235 -0.4435955
-0.29238713 -0.5522053 0.20552385 -0.052986555 0.22640494 0.1114515 0.24747075 -0.186648
-0.064136334 0.13243482 -0.085226096 -0.48354197 0.22084796 0.2613841 0.052527517 -0.0966771
0.16403298 -0.15489565 -0.148133 0.048749607 0.13452311 0.06272217 -0.2859735 -0.08973836
0.44955942 -0.111113876 0.18561104 0.11629981 -0.06283197 0.21830307 -0.048319664 -0.12181511
0.34322208 -0.086974576 0.38579023 -0.45561513 -0.23900065 0.17578644 -0.018425202 0.06956255
-0.30382136 0.052942734 0.15003206 -0.17526133 0.1404609 0.4273731 0.09083955 0.27828565
0.12786523 0.20187743 0.22062545 0.34489027 -0.3274164 0.46312177 -0.18098864 -0.30125272
-0.015855664 0.23355407 -0.17855605 0.1477772 0.38864806 0.07461009 0.11517221 -0.30070373
-0.09974967 0.055760436 0.27877325 -0.12444144 0.32581112 -0.029011913 -0.01749103 -0.15873769
-0.23383154 0.15075713 -0.09351782 0.06378674 -0.1306902 0.14996919 -0.43569148 0.52191275
0.046282433 -0.20547505 -0.33081043 0.054658636 -0.30784005 -0.10375222 -0.26374197 0.4231557
-0.0928938 -0.24794972 0.3715927 -0.23880784 -0.049072668 -0.48534545 -0.44139627 0.2475587
-0.0022147144 0.44570383 -0.71254086 0.12780318 -0.030523017 0.7182901 0.010303415 0.05099333
0.45658743 0.099489465 -0.19401306 0.269637 -0.04222381 0.3630513 0.471342 -0.32295337
-0.54261804 0.012611588 0.33153534 -0.23296936 0.13760453 -0.1571438 -0.43217635 -0.111984126
0.08155023 0.162905 0.05891241 0.4952283 -0.894932 0.15569748 -0.24961807 -0.35331896
0.18723385 -0.045967445 0.59742606 0.16568734 0.030320246 0.19662419 -0.16150594 -0.041964017
0.14062235 -0.09734122 -0.10313362 0.2458496 -0.21860427 -0.18914011 0.23410009 0.29727188
0.20073341 -0.20322749 -0.57200664 -0.028356342 -0.00708628 0.26646113 -0.09496085 -0.33578008
-0.26800933 0.023338513 -0.3798654 -0.11671478 -0.11948378 -0.16754316 -0.24119227 0.20643102
0.22322428 0.08938903 -0.16477685 0.18763484 -0.30509922 -0.18024439 -0.09984671 -0.2802864
-0.18541181 0.33234793 -0.07060039 -0.18943031 0.26927596 0.12525491 0.1399616 0.19308336
0.13995373 -0.10289803 0.41716892 -0.08864368 -0.06694981 0.16591951 -0.16896355 -0.23103237
0.14505517 -0.064495966 -0.3121488 0.20546132 0.20828992 0.27165285 0.33121133 -0.17505626
0.04903667 -0.6663673 0.12221134 0.4259269 -0.09297973 -0.7458448 0.2030671 0.43732268
0.11070939 0.4354517 -0.26781073 -0.3687677 -0.002691017 -0.5132043 -0.11355892 -0.22929089
0.014613329 0.21166675 -0.18826303 -0.06613868 -0.021046381 -0.057635993 -0.31666523 -0.024010649
0.25751546 0.08447904 0.3917542 -0.2657894 0.32678363 -0.32575643 -0.20313746 -0.32713315
-0.15278456 -0.4875507 -0.16805221 -0.44589055 -0.01446299 -0.13023427 -0.20766178 -0.12308037
0.2206325 -0.83545303 -0.29873195 0.24899478 0.35587442 -0.2193459 0.28216034 -0.36669114
00000000: 8c98 58be c9fe e13e c9cf 33bf 8e90 b9bd
00000010: 76ac 28be 0a4f bebd f8a9 49bf 2bd4 dfbd
00000020: 3b25 6e3e 7c8f 54bd 2a6d dabd d65a 8abe
00000030: ab34 96ba 6550 623e d072 363e f31e e3be
00000040: c4b3 95be 545d 0dbf d874 523e 6e08 59bd
00000050: b2d6 673e af40 e43d f968 7d3e a720 3fbe
00000060: e959 83bd fe9c 073e 058b aebd d092 f7be
00000070: f825 623e 23d4 853e 1827 573d a5fe c5bd
00000080: 43f8 273e f79c 1ebe 2db0 17be abad 473d
00000090: 6dc0 093e 7b74 803d 1e6b 92be bfc8 b7bd
000000a0: a72c e63e ac8f e3bd d210 3e3e 982e ee3d
000000b0: 0cae 80bd d78a 5f3e d7ea 45bd 337a f9bd
000000c0: ceba af3e ba1f b2bd 4c86 c53e 6346 e9be
000000d0: 96bc 74be 5c01 343e 73f0 96bc cf76 8e3d
000000e0: 798e 9bbe 7bda 583d 01a2 193e b577 33be
000000f0: fbd4 0f3e a6d0 da3e 160a ba3d 757b 8e3e
00000100: 1aef 023e f5b8 4e3e a3eb 613e 7595 b03e
00000110: 1fa3 a7be 4c1e ed3e 1655 39be cc3d 9abe
00000120: bde3 81bc cc28 6f3e 66d7 36be e852 173e
00000130: e1fc c63e 2dcd 983d 68df eb3d d7f5 99be
00000140: 8e49 ccbd 0e65 643d 5ebb 8e3e 27db febd
00000150: b7d0 a63e 64aa edbc 5949 8fbc 228c 22be
00000160: 8971 6fbe 1460 1a3e 4586 bfbd 9fa2 823d
00000170: a7d3 05be 8691 193e f412 dfbe 139c 053f
00000180: a692 3d3d 0d68 52be fc5f a9be bce1 5f3d
00000190: 369d 9dbe 0b7c d4bd 3009 87be dda7 d83e
000001a0: 1b3f bebd 88e6 7dbe 6641 be3e 0b8a 74be
000001b0: 6c00 49bd 337f f8be b1fe e1be 0780 7d3e
000001c0: be24 11bb 4b33 e43e 1469 36bf d6de 023e
000001d0: 680b fabc dce1 373f a8cf 283c 62de 503d
000001e0: d4c5 e93e 22c1 cb3d 5cab 46be dc0d 8a3e
000001f0: e0f2 2cbd dce1 b93e bd53 f13e 255a a5be
00000200: 04e9 0abf d6a0 4e3c 00bf a93e 858f 6ebe
00000210: 34e8 0c3e 4eea 20be 3846 ddbe ef57 e5bd
00000220: cf03 a73d 91d0 263e 244e 713d 908e fd3e
00000230: 431a 65bf 296f 1f3e e19b 7fbe 39e6 b4be
00000240: 3bba 3f3e 5c48 3cbd eaf0 183f f1a9 293e
00000250: 2a62 f83c da57 493e d061 25be 76e2 2bbd
00000260: 4eff 0f3e d55a c7bd b837 d3bd ffbf 7b3e
00000270: ccd9 5fbe f2ad 41be efb7 6f3e 0534 983e
00000280: 0f8d 4d3e de1a 50be 076f 12bf 8f4b e8bc
00000290: 0634 e8bb 986d 883e d67a c2bd 5eeb abbe
000002a0: 8538 89be 6930 bf3c b87d c2be 2908 efbd
000002b0: e9b3 f4bd 6f90 2bbe 1bfb 76be a762 533e
000002c0: e894 643e 9911 b73d 43bb 28be 5923 403e
000002d0: f735 9cbe fc91 38be 6f7c ccbd b381 8fbe
000002e0: 98dc 3dbe 8229 aa3e f096 90bd 05fa 41be
000002f0: 8ade 893e d342 003e 1852 0f3e a5b7 453e
00000300: 0850 0f3e 34bc d2bd 2a97 d53e d18a b5bd
00000310: fb1c 89bd cee6 293e c804 2dbe c093 6cbe
00000320: 5889 143e 7616 84bd f8d1 9fbe 7464 523e
00000330: f449 553e 1516 8b3e 8894 a93e f341 33be
00000340: adda 483d 0c97 2abf f049 fa3d 1713 da3e
00000350: 286c bebd afef 3ebf d2f0 4f3e c2e8 df3e
00000360: 9bbb e23d 86f3 de3e 7d1e 89be 1fcf bcbe
00000370: c65b 30bb 5b61 03bf 9491 e8bd 3bcb 6abe
00000380: bf6c 6f3c 2bbf 583e 06c8 40be b773 87bd
00000390: 7669 acbc b813 6cbd f221 a2be fbb1 c4bc
000003a0: 11d9 833e 5903 ad3d 0294 c83e 8c15 88be
000003b0: 2f50 a73e 8cc9 a6be 4403 50be ff7d a7be
000003c0: 8e73 1cbe 3fa0 f9be e115 2cbe c44b e4be
000003d0: 2df6 6cbc 225c 05be 4aa5 54be 9011 fcbd
000003e0: 7ced 613e 40e0 55bf 65f3 98be 7df8 7e3e
000003f0: 2c35 b63e 369c 60be 5277 903e f1be bbbe

a3.bias f4 [32]
-0.4324667 0.10942311 0.17166232 -0.56043416 -0.43305406 0.08682021 0.29475898 -0.18685381
-0.61236465 -0.37224326 -0.3074994 -0.20794632 -0.94465166 -0.20341682 -0.18526426 0.7081584
0.4708629 -0.37244722 -0.15731286 -0.5124382 -0.078014396 -0.4664697 -0.081572354 -0.36989745
-0.14633085 0.32470056 0.49087358 -0.19532433 0.022642551 0.23025976 -0.14892228 -0.27185443
00000000: 466c ddbe 3919 e03d 3fc8 2f3e 9d78 0fbf
00000010: 43b9 ddbe cbce b13d a6ea 963e 9b56 3fbe
00000020: eec3 1cbf ab96 bebe 9070 9dbe e1ef 54be
00000030: b1d4 71bf 804c 50be eab5 3dbe de49 353f
00000040: f114 f13e 67b1 bebe 9f16 21be 262f 03bf
00000050: 03c6 9fbd 1ed5 eebe 680f a7bd 3363 bdbe
00000060: c1d7 15be 273f a63e c853 fb3e 1a03 48be
00000070: df7c b93c 37c9 6b3e 157f 18be 8130 8bbe

b1.weight f4 [32, 32, 3, 3]
-0.52539694 0.14436087 -0.059676677 -0.24953587 -0.045156043 -0.14445338 -0.102958255 -0.089799725
-0.31757197 0.024354672 -0.60604215 0.2120316 -0.31059828 -0.70217997 0.09299874 0.16484264
-0.46012118 0.4226012 -0.11192129 0.23242497 0.06844895 0.19163227 0.34053135 0.041834183
-0.10049572 0.04082283 -0.21521029 0.33965388 0.31058255 0.32317358 0.18062048 -0.41354418
0.2592688 -0.13343008 -0.21732457 -0.3215676 0.3197114 -0.54579383 -0.05130736 -0.031907983
0.040607356 -0.3620166 -0.16415852 -0.7022886 0.048609518 0.62181234 -0.9457157 -0.10558542
0.25901467 -0.18730395 0.109351516 0.07577572 -0.16430894 -0.52737314 -0.13773115 -0.16416697
-0.25135493 -0.027514677 0.045473848 -0.12741956 -0.05759544 -0.021357685 0.21408212 -0.06192255
0.053410318 0.040944282 0.041649498 -0.16752945 -0.037700113 0.010142469 0.058243833 0.024395242
-0.18311025 -0.34332368 -0.39927256 -0.54836524 0.34261444 0.0015903203 -0.46179345 0.20009059
0.33987513 0.2817029 -0.14978167 -0.0407889 0.27815527 0.097939566 0.49572507 0.8616503
-0.15423828 -0.110022016 -0.25276285 0.286759 -0.17956561 0.29779854 0.28171396 -0.241862
0.19680971 -0.015955402 0.022624977 -0.28737828 -0.50316817 -0.64902395 0.33668143 -0.21694788
-0.39274213 0.17583314 0.22801912 -0.2120855 -0.24455255 -0.39847878 -0.23297022 -0.15188055
-0.12403447 0.2054032 -0.22873288 -0.42557266 -0.14327388 0.047251284 0.11427442 0.24782479
0.12639783 -0.065574 -0.13244103 0.025615914 -0.2756636 0.05892272 0.05671268 0.2732459
0.07460762 -0.020273054 -0.47068474 -0.020116888 -0.040642314 -0.21306744 -0.0464288 0.12297637
0.08980107 0.02809648 -0.27008882 0.07658777 0.020093836 -0.0148606105 -0.49326947 0.050248995
-0.21440212 0.019688409 0.07748863 0.24033882 0.42552656 0.18400353 0.0036307927 -0.027205713
0.26391345 0.17310344 0.26710665 -0.48801136 0.0073781013 -0.10469155 -0.6388671 0.06617413
0.29956886 -0.15561233 0.39625043 -0.13777284 -0.15924145 0.13687444 -0.6581815 -0.18183276
-0.083899975 -0.21647862 -0.14840075 -0.28579602 0.45810008 -0.39054397 0.18034078 0.30926624
-0.19732599 -0.09060842 0.29898894 -0.2978233 -0.072193615 -0.23425679 0.07160988 0.023202293
-0.13784407 -0.045458194 0.16548583 0.10234989 0.24529736 0.121855244 -0.33812124 -0.385401
0.14630993 0.20681721 0.26294658 -0.11079508 -0.18572095 -0.2835063 -0.21152973 -0.0006143759
0.08789391 -0.13499667 0.18536615 0.10649057 0.31353545 -0.44611984 -0.079631 -0.26442173
0.21991791 -0.32286996 -0.39751297 -0.070530534 -0.1684209 -0.18692851 0.43557605 0.1152018
0.39131904 -0.42521986 -0.39258084 -0.54676247 -0.024585275 0.13814381 -0.032450918 0.23982513
0.13651697 0.30860022 0.08246613 -0.61330074 -0.018290956 -0.085630596 0.31169555 -0.12878774
0.46418267 0.07005016 0.5599123 0.053121667 -0.29840532 0.13340513 -0.05918332 -0.03791212
-0.0011864873 0.3168237 -0.41901407 0.2921222 -0.045473587 -0.09787938 -0.92396617 -0.40543863
-0.079641715 -0.042139687 0.29926547 -0.008015988 0.51333994 -0.15049674 -0.6378553 0.03494764
00000000: 6a80 06bf 56d3 133e 886f 74bd 5586 7fbe
00000010: 8bf5 38bd 96eb 13be c7db d2bd ebe8 b7bd
00000020: cb98 a2be 7383 c73c 9425 1bbf d01e 593e
00000030: bd06 9fbe 11c2 33bf 2076 be3d 82cc 283e
00000040: 0195 ebbe 2f5f d83e fd36 e5bd d000 6e3e
00000050: f72e 8c3d 403b 443e 205a ae3e 525a 2b3d
00000060: b3d0 cdbd d735 273d 1660 5cbe 1de7 ad3e
00000070: ad04 9f3e 0277 a53e 93f4 383e 10bc d3be
00000080: e1be 843e e5a1 08be 558a 5ebe 82a4 a4be
00000090: 36b1 a33e 25b9 0bbf ab27 52bd f2b1 02bd
000000a0: e653 263d 3d5a b9be 2c19 28be 30c9 33bf
000000b0: c61a 473d 182f 1f3f 6d1a 72bf 2b3d d8bd
000000c0: 929d 843e 9bcc 3fbe b0f3 df3d 4d30 9b3d
000000d0: 9a40 28be ed01 07bf 6509 0dbe 631b 28be
000000e0: 98b1 80be 7666 e1bc c942 3a3d 467a 02be
000000f0: 32e9 6bbd 50f6 aebc 5838 5b3e 80a2 7dbd
00000100: c7c4 5a3d 31b5 273d aa98 2a3d d78c 2bbe
00000110: 6f6b 1abd 992c 263c 1691 6e3d 88d8 c73c
00000120: 4181 3bbe 1fc8 afbe 746d ccbe aa61 0cbf
00000130: 296b af3e 4b72 d03a 3170 ecbe 8ce4 4c3e
00000140: 1d04 ae3e 5d3b 903e 5e60 19be 4312 27bd
00000150: 5e6a 8e3e 8a94 c83d adcf fd3e 1d95 5c3f
00000160: a4f0 1dbe 3953 e1bd 226a 81be 13d2 923e
00000170: 0ce0 37be 0d79 983e d03c 903e acaa 77be
00000180: 7c88 493e e7b4 82bc 0458 b93c 3f23 93be
00000190: a1cf 00bf 6f26 26bf 8261 ac3e 9627 5ebe
000001a0: 7f15 c9be 9a0d 343e d87d 693e f12c 59be
000001b0: fc6b 7abe 6905 ccbe bf8f 6ebe 9386 1bbe
000001c0: c905 febd 3755 523e f438 6abe a9e4 d9be
000001d0: 63b6 12be 908a 413d b508 ea3d c8c5 7d3e
000001e0: 6f6e 013e a94b 86bd 9f9e 07be 77d8 d13c
000001f0: c823 8dbe f358 713d 8e4b 683d e3e6 8b3e
00000200: e1cb 983d ad13 a6bc 97fd f0be 2ccc a4bc
00000210: 8e78 26bd 5a2e 5abe 202c 3ebd 09db fb3d
00000220: a0e9 b73d 972a e63c 1549 8abe 0cda 9c3d
00000230: d49b a43c eb79 73bc d18d fcbe e4d1 4d3d
00000240: 3b8c 5bbe 9649 a13c 5cb2 9e3d 611b 763e
00000250: 9ede d93e 6c6b 3c3e 98f2 6d3b 84de debc
00000260: aa1f 873e 0742 313e 34c2 883e a0dc f9be
00000270: 00c4 f13b 8668 d6bd cb8c 23bf 4d86 873d
00000280: 1761 993e d758 1fbe 56e1 ca3e 5314 0dbe
00000290: 3110 23be d028 0c3e 957e 28bf 5e32 3abe
000002a0: c0d3 abbd 92ac 5dbe 5ef6 17be db53 92be
000002b0: 188c ea3e 61f5 c7be 41ab 383e 2558 9e3e
000002c0: d30f 4abe e890 b9bd 1415 993e 4c7c 98be
000002d0: 3fda 93bd 03e1 6fbe 33a8 923d bc12 be3c
000002e0: ff26 0dbe 5f32 3abd 1e75 293e d29c d13d
000002f0: 3b2f 7b3e 3e8f f93d 3a1e adbe 4853 c5be
00000300: 45d2 153e e4c7 533e efa0 863e 88e8 e2bd
00000310: a22d 3ebe bd27 91be 409b 58be 120e 21ba
00000320: b901 b43d 913c 0abe a0d0 3d3e ba17 da3d
00000330: b887 a03e d269 e4be 9415 a3bd 4962 87be
00000340: 2932 613e 364f a5be d286 cbbe 5072 90bd
00000350: 8776 2cbe 306a 3fbe d303 df3e ecee eb3d
00000360: f85a c83e 6bb6 d9be 5b00 c9be a0f8 0bbf
00000370: 0f67 c9bc 9275 0d3e 41eb 04bd b894 753e
00000380: 1bcb 0b3e d900 9e3e 01e4 a83d 4701 1dbf
00000390: ead6 95bc 185f afbd 8f96 9f3e efe0 03be
000003a0: 5aa9 ed3e 7576 8f3d 6a56 0f3f 1b96 593d
000003b0: 95c8 98be 5b9b 083e 356a 72bd bd49 1bbd
000003c0: e883 9bba b736 a23e 0389 d6be 0a91 953e
000003d0: 8342 3abd fc74 c8bd 0c89 6cbf a795 cfbe
000003e0: 321b a3bd aa9a 2cbd 5339 993e 7e55 03bc
000003f0: 3f6a 033f d11b 1abe 7c4a 23bf 4225 0f3d

b1.bias f4 [32]
-0.03793384 -0.29644907 -0.7924324 -0.3545361 0.96699864 -0.25349513 -0.24910603 -0.004126334
-0.28252423 -0.8090529 -0.6372989 0.3490803 -0.59038544 -0.5104999 0.21119809 -0.36242354
-0.30833384 -1.0730921 -0.20629206 0.51618814 -0.24120863 -0.4749061 0.9360859 -0.7897006
-0.09696016 -0.2517364 -0.12933941 -1.2839391 -0.09863404 -0.04320676 0.17049156 -0.14830992
00000000: 8460 1bbd 2cc8 97be dadc 4abf c185 b5be
00000010: 398d 773f 1dca 81be a715 7fbe 3336 87bb
00000020: 04a7 90be 171e 4fbf 0526 23bf a7ba b23e
00000030: 8023 17bf 1fb0 02bf 5044 583e 948f b9be
00000040: efdd 9dbe 155b 89bf 3a3e 53be e824 043f
00000050: 65ff 76be e426 f3be 53a3 6f3f d229 4abf
00000060: 0c93 c6bd 98e3 80be 8d71 04be 1e58 a4bf
00000070: a500 cabd 92f9 30bd 5795 2e3e 8ede 17be

b2.weight f4 [32, 32, 3, 3]
0.31494862 0.15684031 -0.039430987 0.15425561 -0.20015486 0.43561223 -0.25522888 -0.04883495
0.25671977 0.38459262 -0.12797117 -0.06649676 -0.13310552 -0.22591862 -0.16272363 0.1953765
0.110380664 -0.5524936 -0.17773457 0.12865926 -0.6825797 0.038893647 -0.30806977 0.11335177
-0.23685138 -0.20307022 -0.19342871 0.4874296 -0.06763115 0.14017075 0.6732104 -0.13266306
-0.28959408 -0.07775581 -0.47056744 -0.15397702 -0.16939875 0.12087126 -0.37903965 -0.0652012
0.2847493 -0.3639006 -0.6472563 0.2460992 0.30583715 0.8625478 -0.44560066 -0.20649672
-0.20063372 -0.016302647 -0.49510983 -0.055155165 0.4546275 0.9668469 0.08414747 -0.42248997
0.17147972 -0.2551105 -0.1341327 -0.09477174 0.23857187 0.12143449 -0.3960672 0.29237115
-0.17552236 -0.18206458 -0.1322893 0.027064312 0.061019704 -0.07421461 0.21438296 -0.21037465
-0.035045147 -0.3119411 0.29647598 0.03492064 0.011610894 -0.15076695 -0.13079198 0.09240718
-0.33711588 -0.42771825 -0.48614755 -0.31141242 0.21486355 -0.20830835 0.42929682 0.52260953
0.06574421 0.021533387 0.022643253 -0.14679523 -0.2027096 -0.21903405 -0.31907862 -0.2093776
0.4783084 0.3719939 -0.20559268 0.21516687 -0.1362658 0.21021323 -0.26762328 0.16429465
-0.26324752 -0.4503049 0.14473316 -0.1784207 -0.2601883 -0.24956334 0.059031267 0.16988918
-0.09187822 -0.17302267 -0.40715995 0.15105307 0.0966883 -0.47216493 -0.052765317 -0.6356667
0.058946714 -0.3333571 0.18942435 -0.12668204 -0.07630653 -0.3435759 0.3467173 -0.038137488
-0.23448619 0.05217486 -0.58888507 0.0025592104 -0.26462537 0.2888634 0.13970862 -0.12627505
-0.09957065 -0.08529202 0.30884072 -0.7013582 0.15138067 0.12328293 0.27409667 0.1234536
0.39130694 -0.10717202 -0.13416271 -0.010479961 -0.15952821 0.13980907 0.055183217 0.41542232
-0.18282235 -0.02100695 -0.008584719 0.25570548 0.082456216 0.016504569 0.15989113 -0.2661399
0.13226555 -0.21126617 0.003060851 0.12457793 -0.022961626 -0.16331878 -0.10326988 -0.3958095
-0.24629888 -0.14647791 0.031155404 0.40738013 -0.04447584 -0.10849167 0.02444904 0.2892252
0.16453761 -0.098443225 0.09600623 -0.050249625 -0.014380113 -0.26088825 0.025212957 0.26687095
-0.16908242 0.0068319123 -0.38864112 -0.069890074 -0.43915582 -0.18266448 -0.24345936 0.121341705
0.20333391 0.25905707 0.5553322 -0.25211883 -0.38440743 0.05197199 0.33167997 -0.42127246
0.121549934 0.09814686 -0.019463316 0.2932492 -1.001386 0.44649366 -0.16469176 -0.21488725
-0.16530786 -0.2095666 -0.008808278 -0.5726336 0.83104753 0.05224825 0.14770134 0.24466452
0.047490075 -0.14566636 -0.039487332 0.19461559 -0.23231715 -0.032684665 0.43985447 0.23622672
-0.32991108 0.0068466472 -0.17410474 0.3093906 0.08732493 0.28358546 -0.06624174 -0.054230604
-0.28218493 0.17309102 0.16174744 -0.1932477 0.073994346 0.025171919 0.09873598 0.27654913
-0.56926376 -0.46049392 -0.16864653 0.120436825 -0.2614959 0.50245434 0.2592843 -0.20503846
-0.4797329 -0.08833106 -0.7231545 0.1485929 0.059035927 0.14532842 0.278242 -0.10006412
00000000: f240 a13e bf9a 203e 6382 21bd 2ff5 1d3e
00000010: 65f5 4cbe 9108 df3e 5cad 82be 2807 48bd
00000020: c670 833e 53e9 c43e e00a 03be 742f 88bd
00000030: d04c 08be 3657 67be 06a1 26be c710 483e
00000040: 420f e23d 3870 0dbf 0d00 36be 41bf 033e
00000050: 8bbd 2ebf f24e 1f3d 52bb 9dbe f924 e83d
00000060: 2b89 72be a4f1 4fbe 2d12 46be 5f90 f93e
00000070: 3382 8abd ec88 0f3e 8457 2c3f d3d8 07be
00000080: ad45 94be 703e 9fbd 37ee f0be 27ac 1dbe
00000090: de76 2dbe 5a8b f73d 7c11 c2be 3588 85bd
000000a0: a9ca 913e 2e51 babe 97b2 25bf 6e01 7c3e
000000b0: b096 9c3e efcf 5c3f c525 e4be e073 53be
000000c0: ed72 4dbe 218d 85bc 097f fdbe 62ea 61bd
000000d0: f0c4 e83e 4783 773f 8255 ac3d 9b50 d8be
000000e0: 6198 2f3e d89d 82be 155a 09be b017 c2bd
000000f0: 2f4c 743e a5b2 f83d 52c9 cabe acb1 953e
00000100: 22bc 33be 236f 3abe d976 07be fab5 dd3c
00000110: ccef 793d d4fd 97bd 3587 5b3e 746c 57be
00000120: 808b 0fbd beb6 9fbe b3cb 973e f208 0f3d
00000130: 9f3b 3e3c a762 1abe 55ee 05be fa3f bd3d
00000140: 749a acbe e3fd dabe 55e8 f8be 7371 9fbe
00000150: 3105 5c3e c94e 55be cbcc db3e bdc9 053f
00000160: e6a4 863d c966 b03c 587e b93c 7d51 16be
00000170: 1b93 4fbe 764a 60be 465e a3be 1567 56be
00000180: d7e4 f43e fc75 be3e e386 52be b454 5c3e
00000190: 4389 0bbe 2342 573e eb05 89be db3c 283e
000001a0: 61c8 86be 5d8e e6be ee34 143e eab3 36be
000001b0: 6737 85be 888d 7fbe c5ca 713d 6ef7 2d3e
000001c0: a62a bcbd db2c 31be 4577 d0be a8ad 1a3e
000001d0: 8404 c63d 9abf f1be 7220 58bd 0ebb 22bf
000001e0: 1c72 713d c8ad aabe 75f8 413e f0b8 01be
000001f0: 9946 9cbd 2ee9 afbe ee84 b13e 0e36 1cbd
00000200: 261d 70be 4eb5 553d 2cc1 16bf 6db8 273b
00000210: fa7c 87be e7e5 933e c70f 0f3e 3f4e 01be
00000220: b2eb cbbd 95ad aebd 5f20 9e3e 368c 33bf
00000230: 8903 1b3e c37b fc3d 6656 8c3e 3ed5 fc3d
00000240: 6259 c83e 017d dbbd f361 09be 24b4 2bbc
00000250: 5d5b 23be 1c2a 0f3e cc07 623d 3cb2 d43e
00000260: c835 3bbe c416 acbc eca6 0cbc d4eb 823e
00000270: cede a83d 9734 873c 80ba 233e 7d43 88be
00000280: 9f70 073e 2956 58be 8f98 483b b722 ff3d
00000290: 051a bcbc 0a3d 27be 297f d3bd 8ba7 cabe
000002a0: c635 7cbe 4efe 15be 9e39 ff3c 2194 d03e
000002b0: 4c2c 36bd e130 debd 5a49 c83c 5315 943e
000002c0: 8c7c 283e 9a9c c9bd ea9e c43d 8dd2 4dbd
000002d0: 919a 6bbc 2593 85be 678b ce3c 4fa3 883e
000002e0: f123 2dbe 3cde df3b f8fb c6be 8722 8fbd
000002f0: 08d9 e0be 660c 3bbe 694d 79be 0082 f83d
00000300: c436 503e 21a3 843e 402a 0e3f b815 81be
00000310: 0dd1 c4be 95e0 543d f5d1 a93e 06b1 d7be
00000320: 2cef f83d 3901 c93d 8871 9fbc c224 963e
00000330: 6b2d 80bf d19a e43e f5a4 28be 670b 5cbe
00000340: 7746 29be a098 56be 9850 10bc 1e98 12bf
00000350: 88bf 543f 4302 563d 053f 173e 5689 7a3e
00000360: f484 423d 9029 15be 78bd 21bd 4f49 473e
00000370: 8ce4 6dbe 5be0 05bd 9b34 e13e 6be5 713e
00000380: 1bea a8be d759 e03b 8348 32be 7268 9e3e
00000390: 6ad7 b23d 1d32 913e c0a9 87bd e920 5ebd
000003a0: 8b7a 90be c63e 313e 1fa1 253e bae2 45be
000003b0: 598a 973d 5735 ce3c 1736 ca3d d997 8d3e
000003c0: 45bb 11bf dcc5 ebbe adb1 2cbe 95a7 f63d
000003d0: cae2 85be d9a0 003f e9c0 843e 9af5 51be
000003e0: 8d9f f5be eae6 b4bd a720 39bf bd28 183e
000003f0: a8cf 713d f9d0 143e bc75 8e3e 6bee ccbd

b2.bias f4 [32]
0.21564686 -1.2242728 -0.92091376 -1.1145083 -0.1785669 -0.9647573 -0.6006024 -0.6570135
0.709576 0.052744195 0.08122244 -0.43904954 -0.50681275 -0.92444503 -0.20864128 0.37422374
-0.27961096 -0.61626315 -0.17170997 -0.3705864 -0.1869441 0.5029422 -0.8247169 0.67558837
-0.8144229 0.45346686 0.2624662 0.22479431 -1.113611 -0.31411767 0.65251535 -0.27547738
00000000: 88d2 5c3e f9b4 9cbf 01c1 6bbf 35a8 8ebf
00000010: 3eda 36be 56fa 76bf 14c1 19bf 0932 28bf
00000020: c6a6 353f 4c0a 583d f357 a63d 1acb e0be
00000030: 7bbe 01bf 6ea8 6cbf 0fa6 55be 419a bf3e
00000040: 2b29 8fbe 6cc3 1dbf bdd4 2fbe 80bd bdbe
00000050: 466e 3fbe d2c0 003f a620 53bf 5cf3 2c3f
00000060: 057e 50bf cf2c e83e f861 863e 7b30 663e
00000070: ce8a 8ebf 08d4 a0be 3f0b 273f 5f0b 8dbe

b3.weight f4 [64, 32, 3, 3]
-0.40011838 0.014255516 -0.11389841 -0.1266491 0.042849872 -0.16805647 0.05515976 -0.5541222
-0.046330046 0.1104766 -0.3565262 0.38876384 -0.0082705915 0.25177318 -0.31405574 -0.26693854
-0.11177087 -0.13267554 -0.20343302 -0.17523378 -0.06457777 0.18441755 -0.059355654 -0.35335824
0.062283445 0.42993608 -0.2274003 -0.040543288 -0.13149282 0.08052248 0.11831418 0.40582556
-0.38549122 0.08303209 -0.16221435 -0.041709032 0.32361957 -0.03622292 0.21531676 -0.70135033
0.054892506 0.58654654 -0.29715 0.3050294 0.16643146 -0.14424856 0.84370863 0.13989858
0.113905676 -0.3205059 0.28272778 -0.022848852 -0.10795236 -0.43186828 -0.27752554 0.045843825
-0.43126693 0.067816816 -0.016649295 0.2130507 0.09122652 -0.099033 -0.10361445 -0.30055586
-0.0025550455 0.2963388 -0.03372933 -0.013572944 -0.6419459 0.25782046 0.41521394 -0.22296609
-0.13545482 0.045053996 -0.11494483 -0.059883226 0.08507585 0.054469407 -0.14915444 -0.51166177
0.4505118 -0.3372836 0.29226705 0.14828917 0.06694059 0.50820893 -0.31006384 -0.33670247
-0.5906509 -0.16907741 -0.16003518 -0.35865274 -0.12676737 0.09995177 -0.079503454 0.1589226
-0.2876516 -0.114113174 -0.44367114 0.27291384 -0.04939654 0.0055004833 0.25608233 -0.08474712
0.16506502 -0.04265269 0.6041194 0.37606144 0.08721197 0.12207898 0.17381443 0.21598995
-0.12204935 -0.52537626 -0.19955571 -0.024458494 0.042029228 -0.24978809 -0.104237385 0.04019664
-0.08389815 0.5836461 0.2796261 0.01860001 -0.13091931 0.40931088 0.2575769 -0.41700482
0.03276586 0.19359359 -0.21107791 0.17804903 -0.14267208 -0.1716844 -0.84340984 -0.16572163
-0.34856403 0.23373668 -0.08034307 -0.1679814 -0.8241055 -0.27345052 -0.13256592 -0.07897513
0.18982847 -0.6404298 -0.3886388 0.67292684 -0.1977514 0.14866295 -0.24383707 -0.42891768
-0.3102341 -0.38636667 -0.14193685 0.3916783 0.10359319 -0.03740888 -0.38004336 -0.63439256
-0.18941362 -0.34184298 0.5071393 0.04337659 0.027069181 -0.23875095 -0.32917577 -0.16640787
-0.1691385 -0.38470882 -0.25280538 0.16832882 -0.1529343 -0.1509948 0.0015597182 -0.3464846
0.17517152 -0.30496275 0.09565145 -0.3227023 0.08409283 -0.022287041 -0.22420585 0.2735508
-0.07445248 0.17367095 0.025401207 0.3401216 0.19321096 0.033212684 -0.25402984 -0.026023084
-0.35179496 0.14476804 0.08024173 -0.12523818 0.1357211 -0.01615405 -0.49801606 -0.33694738
-0.004400689 0.2251718 0.017410561 0.018565977 0.15703669 -0.2529277 -0.08974137 0.19100928
0.09620447 -0.5080754 0.13539767 -0.18189837 0.0043089637 0.084760025 -0.53002053 0.15266643
-0.017214162 -0.072859645 0.00096467935 0.0051233033 -0.4006993 0.011734527 0.06685495 0.18778117
-0.027442466 -0.099558786 -0.14297992 0.32057288 0.45506853 0.034149606 0.24908501 0.0042260257
0.24456863 0.092059836 0.2798707 0.11290049 0.023561945 -0.11282943 0.31808376 0.44966543
-0.15993801 -0.4916937 0.24546364 -0.14068748 -0.17898117 -0.05470625 0.20141737 0.042573072
0.2639514 0.046403944 -0.3886267 0.400677 -0.014774009 -0.0057669342 0.4499036 -0.09770443
00000000: 51dc ccbe f88f 693c 9243 e9bd 4db0 01be
00000010: 5983 2f3d ff16 2cbe 33ef 613d f4da 0dbf
00000020: 93c4 3dbd 8e41 e23d 9a8a b6be 0e0c c73e
00000030: 6081 07bc 6ae8 803e eacb a0be 2bac 88be
00000040: 20e8 e4bd 19dc 07be bf50 50be 7c70 33be
00000050: 5a41 84bd f4d7 3c3e ea1e 73bd 5feb b4be
00000060: ed1c 7f3d 9520 dc3e a0db 68be b810 26bd
00000070: 0ea6 06be f8e8 a43d b44e f23d 5ec8 cf3e
00000080: 1b5f c5be ba0c aa3d 851b 26be 17d7 2abd
00000090: 77b1 a53e 7c5e 14bd ff7b 5c3e b28b 33bf
000000a0: f7d6 603d ea27 163f 0b24 98be d02c 9c3e
000000b0: 026d 2a3e e5b5 13be 4afd 573f 9341 0f3e
000000c0: 6147 e93d 5919 a4be b2c1 903e 842d bbbc
000000d0: 2016 ddbd d71d ddbe d417 8ebe bcc6 3b3d
000000e0: 05cf dcbe 8be3 8a3d 1a64 88bc f629 5a3e
000000f0: f8d4 ba3d d0d1 cabd d033 d4bd 75e2 99be
00000100: 8d72 27bb b8b9 973e c427 0abd 0e61 5ebc
00000110: 9156 24bf 0b01 843e ec96 d43e 3951 64be
00000120: abb4 0abe 8a8a 383d 3268 ebbd 1d48 75bd
00000130: 3f3c ae3d 501b 5f3d f1bb 18be 44fc 02bf
00000140: 7ca9 e63e 70b0 acbe 07a4 953e 1ed9 173e
00000150: 2618 893d fb19 023f b0c0 9ebe 4464 acbe
00000160: e634 17bf a122 2dbe 43e0 23be 55a1 b7be
00000170: 4ecf 01be 83b3 cc3d b5d2 a2bd 9bbc 223e
00000180: 1247 93be 2bb4 e9bd dd28 e3be 5dbb 8b3e
00000190: 0754 4abd 663d b43b 391d 833e e68f adbd
000001a0: ce06 293e 96b4 2ebd 92a7 1a3f 208b c03e
000001b0: 309c b23d 8b04 fa3d 69fc 313e 782c 5d3e
000001c0: 02f5 f9bd 0f7f 06bf 5558 4cbe 2e5d c8bc
000001d0: d726 2c3d 73c8 7fbe 697a d5bd 3ba5 243d
000001e0: cbd2 abbd d569 153f 272b 8f3e 0c5f 983c
000001f0: b60f 06be 3291 d13e 1fe1 833e a881 d5be
00000200: 7f35 063d 663d 463e cf24 58be 7c52 363e
00000210: a118 12be 09ce 2fbe b5e9 57bf eeb2 29be
00000220: fc76 b2be ab58 6f3e e88a a4bd 5103 2cbe
00000230: 94f8 52bf b501 8cbe 5cbf 07be b7bd a1bd
00000240: 6562 423e 35f3 23bf aafb c6be ef44 2c3f
00000250: 587f 4abe 1a3b 183e 6db0 79be 199b dbbe
00000260: 01d7 9ebe dad1 c5be e557 11be 0f8a c83e
00000270: ab28 d43d 0e3a 19bd 0b95 c2be 8d67 22bf
00000280: a5f5 41be 0b06 afbe e2d3 013f a7ab 313d
00000290: 30c0 dd3c 217b 74be ba89 a8be d366 2abe
000002a0: a532 2dbe 8ef8 c4be b56f 81be 645e 2c3e
000002b0: cf9a 1cbe 619e 1abe 756f cc3a 6e66 b1be
000002c0: 2a60 333e 1424 9cbe e8e4 c33d 3c39 a5be
000002d0: dd38 ac3d 5093 b6bc 3896 65be da0e 8c3e
000002e0: 8b7a 98bd ccd6 313e 3116 d03c 6b24 ae3e
000002f0: 18d9 453e 060a 083d 3310 82be 5d2e d5bc
00000300: 781e b4be 133e 143e c755 a43d 703e 00be
00000310: 79fa 0a3e 8055 84bc f6fb febe 5e84 acbe
00000320: a833 90bb 7093 663e 98a0 8e3c ad17 983c
00000330: 3ace 203e bd7f 81be 53ca b7bd f097 433e
00000340: d906 c53d 3b11 02bf b0a5 0a3e 9143 3abe
00000350: 3532 8d3b aa96 ad3d 6daf 07bf 9754 1c3e
00000360: b704 8dbc 7037 95bd 89e2 7c3a 62e1 a73b
00000370: 7528 cdbe 2c42 403c 3feb 883d b549 403e
00000380: 06cf e0bc 7ae5 cbbd 5469 12be 2122 a43e
00000390: befe e83e 75e0 0b3d 2410 7f3e 797a 8a3b
000003a0: 3370 7a3e de89 bc3d 364b 8f3e 5f38 e73d
000003b0: fb04 c13c 1e13 e7bd e0db a23e 8c3a e63e
000003c0: cac6 23be 47bf fbbe d25a 7b3e 6110 10be
000003d0: d746 37be a913 60bd 5b40 4e3e 1a61 2e3d
000003e0: a324 873e 1012 3e3d 14fa c6be 8925 cd3e
000003f0: af0e 72bc 8df8 bcbb c459 e63e 4319 c8bd

b3.bias f4 [64]
0.19475174 0.16623533 -0.13867329 -0.033288453 -0.07487123 -0.43810317 0.056611177 0.20820427
-0.5950753 -0.32107964 -0.45516056 0.23794903 0.09771915 0.3164221 -0.30889085 -0.096483015
-0.20579326 0.019338382 -0.05250509 0.35643548 0.09205268 -0.47324264 0.016008498 0.3620304
0.33203787 -0.51520073 -0.8833649 -0.11108244 0.63091224 -0.20898697 0.13763626 -0.09043952
-0.18087484 -0.09539245 -0.116696864 0.18289821 -0.16254453 -0.3929566 0.22217067 0.05371966
0.11365191 0.11497279 0.45138282 0.588314 -0.117809854 -0.12864518 0.19725467 -0.26605195
-0.42686737 -0.4062254 -0.05336068 -0.07083099 -0.24053556 0.1890552 0.10568314 -0.2343179
0.29905045 0.3506038 -0.11148821 -0.028781107 -0.33179784 0.11213064 0.093651794 -0.9077639
00000000: 006d 473e 9839 2a3e 5f00 0ebe 7959 08bd
00000010: 1656 99bd 0f4f e0be 1fe1 673d 8033 553e
00000020: db56 18bf 8d64 a4be ce0a e9be e9a8 733e
00000030: fa20 c83d 1402 a23e f126 9ebe e398 c5bd
00000040: 78bb 52be 876b 9e3c 940f 57bd b67e b63e
00000050: 1e86 bc3d dc4c f2be 4124 833c 0c5c b93e
00000060: de00 aa3e 32e4 03bf 3424 62bf 317f e3bd
00000070: 7783 213f ae00 56be 85f0 0c3e 5b38 b9bd
00000080: 4137 39be 1e5d c3bd c4fe eebd ab49 3b3e
00000090: 1372 26be 9c31 c9be b580 633e 2509 5c3d
000000a0: 55c2 e83d db76 eb3d a61b e73e bf9b 163f
000000b0: 4b46 f1bd 90bb 03be 21fd 493e f637 88be
000000c0: 5c8e dabe c7fc cfbe ba90 5abd d70f 91bd
000000d0: f44e 76be b097 413e 6770 d83d 08f1 6fbe
000000e0: 241d 993e 5782 b33e ee53 e4bd 5bc6 ebbc
000000f0: 68e1 a9be c0a4 e53d 83cc bf3d 3763 68bf

c1.weight f4 [64, 64, 2, 2]
-0.03472042 0.059721347 -0.36271867 -0.16599335 0.13258146 0.12613475 0.037808202 0.12319613
-0.10988636 -0.4038488 0.15161134 0.00065904926 -0.021668902 0.08385225 -0.010498057 0.06572192
0.16105272 -0.48996893 -0.6106325 0.13942008 0.106414035 -0.21827683 -0.13535047 -0.2055452
0.20940761 -0.3802876 0.33031932 -0.3621665 -0.17370798 0.09648605 0.061588053 0.15964963
0.1413411 0.01751847 -0.04257402 0.28248742 0.12421911 -0.61965704 0.3504726 -0.14485994
-0.014724067 -0.21411793 -0.038685292 -0.08236006 -0.06208018 -0.42797127 0.06742219 -0.16068135
0.0631098 -0.64437956 -0.41595244 0.042385977 -0.071261406 -0.027870966 0.147906 0.20800664
-0.026780142 0.30542797 -0.12415219 -0.1757949 -0.4352423 0.03348574 -0.041533206 0.48617712
0.2445367 -0.1265311 -0.63731045 -0.23600577 -0.2887665 0.04205982 0.116050355 0.14673449
0.06796128 -0.12368768 0.26780677 -0.3305127 -0.34307203 0.18138625 -0.4962435 -0.19357711
-0.069218405 0.035871938 -0.118993856 -0.010604918 0.22391857 0.5232823 -0.16089854 -0.1075109
0.27920794 -0.04781471 -0.25893748 -0.25596395 0.08143688 0.3452246 -0.640048 0.13785663
0.029622693 -0.15015702 0.072824985 -0.50032234 0.16253072 -0.19485608 0.7971204 -0.17135163
-0.19649117 0.12722176 -0.4251285 -0.11694851 -0.06366293 -0.019427838 0.056384474 0.051748306
-0.24233843 0.27412486 -0.15466848 0.15368387 0.13373923 -0.04029923 -0.14284246 -0.24966764
-0.26622736 -0.44465348 0.24855983 0.2796074 0.035022546 -7.311255e-05 -0.0062525915 -0.017293744
-0.11164948 0.22643735 0.15413769 0.42158586 0.04670229 0.0055355337 -0.05691006 -0.019702017
0.15739214 0.08447143 -0.057595592 -0.36055517 0.20110738 -0.5888212 -0.085300565 -0.057392232
0.23971887 -0.06503733 0.18032274 0.22224255 -0.23661941 0.28099585 0.31299275 0.060567256
0.083543815 0.24341914 0.09014448 0.2244557 -0.042196356 0.4485751 -0.41424474 0.21186723
0.009601774 0.09846746 0.17683631 -0.010701956 -0.27702248 0.055290036 -0.071570314 0.020924784
-0.18257453 -0.2009526 0.30252832 0.08012017 -0.21543695 0.22007985 -0.2098339 0.22362165
0.03479223 -0.038539834 -0.0010630168 0.030602152 -0.015659614 -0.05718243 0.038888164 0.019343667
0.320305 -0.3003888 -0.23611167 -0.7992132 0.4639814 -0.234415 0.29405108 -0.16857465
-0.019019056 0.055061996 0.45132542 -0.029846197 -0.46568194 -0.31757176 0.19844536 0.20157216
-0.68544745 -0.13484009 -0.23137826 0.13539857 0.39151016 -0.28397217 0.16302472 -0.34027618
0.22734681 -0.23297146 -0.55194956 -0.23082562 -0.08538025 -0.034619186 -0.4919001 -0.17959855
0.214843 -0.102404505 -0.19320972 0.0045560044 0.100771196 -0.24027525 0.16120993 -0.55822843
0.1830397 -0.019549053 0.40529063 -0.20318913 -0.34750137 0.3621736 0.059647664 0.3683628
0.0034348744 0.057328667 0.031089807 -0.0073873494 0.0631348 -0.031243159 -0.049938243 -0.06531855
-0.09758551 -0.0050512957 0.4260832 -0.09384313 0.478093 -0.15514359 0.015211198 -0.41036117
-0.1618429 0.13475063 -0.23896247 0.599287 0.13612427 0.20716123 0.22128879 -0.105375215
00000000: 0037 0ebd 5f9e 743d 43b6 b9be 29fa 29be
00000010: 6fc3 073e 7829 013e c6dc 1a3d 414e fc3d
00000020: 1a0c e1bd 45c5 cebe 0140 1b3e 0cc4 2c3a
00000030: fb82 b1bc baba ab3d 0b00 2cbc 3799 863d
00000040: 01eb 243e 35dd fabe 6952 1cbf 23c4 0e3e
00000050: 9aef d93d f683 5fbe 5099 0abe 717a 52be
00000060: f36e 563e 0eb5 c2be 9d1f a93e e36d b9be
00000070: 81e0 31be 7a9a c53d c143 7c3d 317b 233e
00000080: b9bb 103e e582 8f3c 1862 2ebd 31a2 903e
00000090: 9766 fe3d d8a1 1ebf 2571 b33e 2a56 14be
000000a0: 373d 71bc bb41 5bbe 7874 1ebd 64ac a8bd
000000b0: c947 7ebd 0d1f dbbe a514 8a3d a789 24be
000000c0: b63f 813d 0ff6 24bf b8f7 d4be eb9c 2d3d
000000d0: 80f1 91bd a751 e4bc ac74 173e b1ff 543e
000000e0: 0762 dbbc 0e61 9c3e 8143 febd 9403 34be
000000f0: 14d8 debe 5828 093d b91e 2abd 35ec f83e
00000100: d467 7a3e 5e91 01be c726 23bf 7fab 71be
00000110: 34d9 93be eb46 2c3d cfab ed3d 9141 163e
00000120: 492f 8b3d f74f fdbd f81d 893e f638 a9be
00000130: 23a7 afbe 51bd 393e a113 febe 1439 46be
00000140: 61c2 8dbd 74ee 123d 0db3 f3bd 40c0 2dbc
00000150: e94a 653e d4f5 053f 96c2 24be ad2e dcbd
00000160: 58f4 8e3e 5bd9 43bd 7493 84be b50d 83be
00000170: 61c8 a63d 47c1 b03e 30da 23bf 4a2a 0d3e
00000180: 4aab f23c c3c2 19be 4425 953d 2015 00bf
00000190: 746e 263e 5a88 47be 1510 4c3f cd76 2fbe
000001a0: fb34 49be 6c46 023e 71aa d9be b382 efbd
000001b0: b661 82bd 2127 9fbc 68f3 663d 08f6 533d
000001c0: 9127 78be 185a 8c3e 6a61 1ebe 4e5f 1d3e
000001d0: f0f2 083e ce10 25bd 4b45 12be e0a8 7fbe
000001e0: f44e 88be 9fa9 e3be 7886 7e3e b328 8f3e
000001f0: cd73 0f3d 0054 99b8 8ae2 ccbb 9cab 8dbc
00000200: 7ca8 e4bd 31df 673e 45d6 1d3e 1ada d73e
00000210: e74a 3f3d 6c63 b53b 861a 69bd 2066 a1bc
00000220: 682b 213e 5bff ac3d 5be9 6bbd b09a b8be
00000230: 18ef 4d3e fcbc 16bf 10b2 aebd 1e14 6bbd
00000240: dd78 753e 4b32 85bd 86a6 383e 8d93 633e
00000250: 5c4c 72be b0de 8f3e 9640 a03e 5f15 783d
00000260: 0519 ab3d de42 793e ab9d b83d b7d7 653e
00000270: 16d6 2cbd a3ab e53e e317 d4be b9f3 583e
00000280: c250 1d3c 4fa9 c93d 9414 353e 4257 2fbc
00000290: e4d5 8dbe ce77 623d 7593 92bd 746a ab3c
000002a0: d1f4 3abe 85c6 4dbe fee4 9a3e 0b16 a43d
000002b0: 819b 5cbe 9d5c 613e b3de 56be 13fd 643e
000002c0: 4c82 0e3d f2db 1dbd ed54 8bba 5db1 fa3c
000002d0: 9748 80bc 2038 6abd 3249 1f3d 9c76 9e3c
000002e0: 04ff a33e 90cc 99be 42c7 71be 3c99 4cbf
000002f0: f88e ed3e 7c0a 70be dd8d 963e d59e 2cbe
00000300: dacd 9bbc b088 613d 2014 e73e 0380 f4bc
00000310: dd6d eebe c498 a2be 4335 4b3e ef68 4e3e
00000320: 7c79 2fbf 8513 0abe 6cee 6cbe eca5 0a3e
00000330: 0574 c83e cd64 91be f4ef 263e ae38 aebe
00000340: 9acd 683e 1290 6ebe 914c 0dbf 8d5d 6cbe
00000350: d7db aebd d9cc 0dbd 54da fbbe afe8 37be
00000360: ceff 5b3e 74b9 d1bd c5d8 45be 894a 953b
00000370: 2161 ce3d b70a 76be 3714 253e 0fe8 0ebf
00000380: c26e 3b3e 5625 a0bc 4182 cf3e d010 50be
00000390: b3eb b1be d16e b93e 1c51 743d 0d9a bc3e
000003a0: a11b 613b 77d1 6a3d 0db0 fe3c 9411 f2bb
000003b0: d14c 813d a7f1 ffbc 0b8c 4cbd bbc5 85bd
000003c0: e9da c7bd 5785 a5bb 9427 da3e d430 c0bd
000003d0: 9bc8 f43e f6dd 1ebe 6338 793c dc1a d2be
000003e0: 25ba 25be 12fc 093e 94b2 74be df6a 193f
000003f0: 2964 0b3e 1322 543e 8799 623e f6ce d7bd

c1.bias f4 [64]
0.83912385 -0.89884 -0.025352148 -0.34364885 -0.87333006 -1.1249985 -0.4454059 -0.6882828
0.6988169 0.01814383 0.9531393 -1.0824015 -0.8575165 0.5681403 -0.5958281 -1.0291455
-0.5554779 -0.3781511 -0.39584452 -0.58094865 -0.6543127 -0.7285284 -0.58214337 -0.14221925
0.039258186 -0.39676055 -0.85847557 0.9172883 -1.008588 -0.69159853 0.34959728 0.22253723
-0.80481434 -0.24548168 0.60692877 -0.43023428 -0.2932312 -0.7342866 -0.94249165 -0.4594373
0.44046974 -0.6890268 0.28107443 -1.148905 0.6137246 0.994938 -0.29084426 -0.9354621
-0.55513495 -0.6467076 -0.1454986 0.11282897 -0.8167683 -0.80322367 1.2059257 -0.6409933
-0.14006509 -0.81947184 -0.32323372 -0.4255669 -0.1486237 0.14994344 0.4941484 -0.78187585
00000000: d2d0 563f 611a 66bf 4faf cfbc bef2 afbe
00000010: 8f92 5fbf f3ff 8fbf 3e0c e4be 4d33 30bf
00000020: aae5 323f 5fa2 943c f000 743f 228c 8abf
00000030: 3486 5bbf a571 113f 3188 18bf 0abb 83bf
00000040: cd33 0ebf 059d c1be 22ac cabe 0db9 14bf
00000050: 0981 27bf d680 3abf 5907 15bf eca1 11be
00000060: 31cd 203d 3324 cbbe 0ec5 5bbf 68d3 6a3f
00000070: 6919 81bf 9a0c 31bf 6afe b23e cde0 633e
00000080: 5008 4ebf 8d5f 7bbe af5f 1b3f ab47 dcbe
00000090: 6622 96be 35fa 3bbf 2247 71bf 5e3b ebbe
000000a0: 4085 e13e 0f64 30bf fde8 8f3e 520f 93bf
000000b0: 0e1d 1d3f 42b4 7e3f 8ae9 94be 727a 6fbf
000000c0: 531d 0ebf a18e 25bf 96fd 14be e012 e73d
000000d0: ba17 51bf 11a0 4dbf c65b 9a3f 2318 24bf
000000e0: 396d 0fbe e8c8 51bf e47e a5be e8e3 d9be
000000f0: d030 18be c68a 193e 0501 fd3e 0429 48bf
