nets/model_epoch_15.pth (torch, 648794 bytes, 25 tensors)

a1.weight f4 [16, 5, 3, 3]
00000000: 92c6 ec3d 26ac 893d d54d c4bb 66c1 68bd
00000010: 9929 a7bd c4ee 0d3e 4a2d a93b 0d1a 763d
00000020: 872e 88be 2f4f 01bd 5137 89bd 3061 57be
00000030: a3ec 043d 4d6c 42bd 6799 18be 257a 6abe
00000040: 724a 81be efb0 62be ae9c 423d 3da1 b0bd
00000050: 4eac db3c 78a1 f9bc af80 f2bd 2881 263d
00000060: 03e9 4abe cc1a 23be 9a4d 813b 0909 39be
00000070: 3548 51bd a9d5 3e3d fa2e 02be 8c12 a13c
00000080: 3d1a 9bbe fec1 32be 2164 84bd fcba c83d
00000090: 5e38 2cbe 10e2 94bd c59e 14be 9885 efbc
000000a0: de82 37be a107 01be 082c 30bc 42d9 f2bd
000000b0: b449 3dbd e45b 2b3e 21e1 ddbd d328 b0bd
000000c0: 2ccd 813e 0342 e53c 0025 913e 23ee 62bc
000000d0: 9206 bf3e 56a7 32be 1eef 993d 7a3a 693e
000000e0: 90ce 893d b8e9 833c 0c53 293e 6c23 8d3c
000000f0: cc73 bb3d d3bd c8be 47c1 603d 04e6 253e
00000100: 5832 a4bd 075b b4bd 1289 8e3e 8e76 ea3c
00000110: aadc abbe 4d09 8cbd 8218 21be b394 353d
00000120: 6942 76ba 5ac9 9fbe d85c 92be d6fa 733b
00000130: 33aa 703e e030 903d f110 ca3d c340 bc3d
00000140: 81d6 b8be acf0 963c fa19 083d cd80 a4bc
00000150: 2066 8e3d b3ef 4e3c 8f37 2fbd a1a6 96bd
00000160: 909d 91bd 3a56 eb3c f7c6 7bbe a43e 3e3d
00000170: 34f4 983e a888 443d 6b05 1b3e 71cc c43c
00000180: 3509 c23e 3c06 bc3e 1bee 813d 86cc 0a3e
00000190: 697e 193e 36d0 343e 316f e6bc e918 0cbd
000001a0: 1e7c 04bd 7183 2abd 56c7 d5bd 32c9 e73d
000001b0: a082 403e c5eb ad3e 5bc5 253e a732 b43d
000001c0: 3899 20be fbb1 7a3e 5a4f 77be 84bd bfbd
000001d0: d563 fa3d 7bd6 91bb 6d6c 58be a24c 3bbe
000001e0: 3b38 e93c e512 f9bd 6121 c9bc 1382 9d3d
000001f0: d441 283d 7811 80be 046f 21bc dc05 4b3d
00000200: b4ce e53c ee91 4fbd 865e df3d df00 09be
00000210: 5c7d 8cbc 3094 36bd 48b8 923d 425a 163e
00000220: 8eff aa3d 092f 52be 9345 223e a5db dc3d
00000230: 2400 36be da7d 443d 9334 85be af74 7e3e
00000240: f23e e0bd b72d a9be a553 2fbe 94b5 8bbe
00000250: d481 21bd 4776 c5be 68f6 723d cf07 fe3c
00000260: 2863 2abb 1b7b 1cbc 6b37 873d 8037 453c
00000270: 00d8 08be 1e04 9bbd a23c 52be f3f4 17be
00000280: 0cdb 24be c6b2 973e 2372 443e 363c 4c3e
00000290: 1f6b 283e 451d 853e 11de b6bd bc22 d63e
000002a0: 4ded 093e 06eb edbc de45 2abe 0743 9bbc
000002b0: 891e 1f3d 80ef 4e3d 89ef 4dbc 383d f0bc
000002c0: add9 a9bc 09d1 5e3d 4a35 40bd ca62 80bc
000002d0: 3e26 3f3e 31a9 ef3c 7664 5abe cb21 a73d
000002e0: 0ea1 083e 2511 623e f58d 2b3d 462e 1f3e
000002f0: 7d4d 743e 13b5 ed3d 71be 70bd c64b 593d
00000300: dc9a 27be f232 82bd d5cd f6bd 647a 143e
00000310: adb0 963d f217 17be 1d3f 903d 3cf1 e93d
00000320: c4e8 b13e f40d 69bd db5e 39bd 30a3 aebd
00000330: 6a21 75be c8f8 643e 0f32 72bd c773 05be
00000340: f8ea a0be 3d58 aabe 1b39 8b3d 5919 583d
00000350: 0cd6 e4bd 4c3f 09be 968b 84bc f855 ca3c
00000360: a61c a1bc e43f 063d 24e5 16bd 6e33 2f3d
00000370: 7a91 c5bd d811 953c 9af1 0d3c f468 d53d
00000380: c4ee 90bd 7d0c c3bd 2903 6fbd 7f9b 503e
00000390: 63ec 14bd befe d5bd aa91 26bd 7e50 0f3e
000003a0: 3049 ddbd b320 913e 64c5 17bd 3946 a73e
000003b0: b446 883e 6017 3cbd 0d61 0ebb 2120 7dbe
000003c0: b6b4 9c3d 2c02 443e 086b c4be 6484 c73c
000003d0: 4ae2 9c3d d3a7 b53d dc2c 20be 7900 5d3e
000003e0: 649e 71be ff8e 26be 849b fdbd 0028 86be
000003f0: a01d 763e 43c9 d0bc 6284 b33d ab4a 883d
0.11561312 0.06722288 -0.0059907236 -0.056825064 -0.08162231 0.13860613 0.0051628696 0.060083438
-0.26597998 -0.031569656 -0.06700004 -0.21033168 0.032452237 -0.047466565 -0.14902268 -0.22898157
-0.2525211 -0.22137807 0.047512703 -0.08624504 0.02681556 -0.030472502 -0.11840951 0.040650517
-0.1981545 -0.15928191 0.0039460184 -0.18069853 -0.051094253 0.04659048 -0.12713233 0.019662164
-0.30293456 -0.17456815 -0.064644106 0.098012894 -0.16818377 -0.072696805 -0.14513691 -0.029238507
-0.17921016 -0.12600566 -0.010752685 -0.11857845 -0.046212867 0.16734272 -0.108339556 -0.086015366
0.25351846 0.027985578 0.2834854 -0.0138507215 0.373097 -0.17446646 0.07516311 0.22776213
0.06728852 0.016102657 0.16535586 0.017228805 0.09152946 -0.39207324 0.054871824 0.16201025
-0.08017415 -0.088064246 0.2783895 0.028620984 -0.3356679 -0.068377115 -0.15732005 0.044331264
-0.0009394051 -0.31208307 -0.2858646 0.0037228367 0.23502426 0.07040572 0.098665126 0.0919204
-0.36101153 0.018425308 0.0332279 -0.020080948 0.069530725 0.012630391 -0.042777594 -0.07356001
-0.07110131 0.02872764 -0.24587618 0.046446458 0.29873812 0.047981888 0.15138786 0.024023267
0.3789765 0.36723506 0.06344243 0.13554582 0.14989628 0.17657551 -0.028129192 -0.034203444
-0.03234493 -0.04162926 -0.10438411 0.11317672 0.1879983 0.3396894 0.16188566 0.08798724
-0.15683448 0.24481957 -0.24151364 -0.09362319 0.12226073 -0.004450617 -0.21135111 -0.18290952
0.028469196 -0.12161807 -0.02455205 0.07690825 0.041078404 -0.25013328 -0.009853128 0.049566135
0.028052665 -0.05067628 0.10906701 -0.13379239 -0.01714962 -0.044574916 0.07164055 0.14682868
0.083495244 -0.20525755 0.15846853 0.10784081 -0.17773491 0.047971584 -0.26016673 0.24849199
-0.10949506 -0.3304269 -0.17121752 -0.2728697 -0.039430454 -0.385668 0.059317023 0.031009583
-0.0025999043 -0.009550835 0.06602367 0.012037158 -0.13363647 -0.07569145 -0.20530942 -0.14839534
-0.16099185 0.2962858 0.19184165 0.19944844 0.16447113 0.25998893 -0.089290746 0.41823375
0.1346943 -0.029042732 -0.16628215 -0.01895286 0.03884748 0.050521374 -0.012569317 -0.029326066
-0.020733679 0.05439857 -0.04692582 -0.015672106 0.18666932 0.029255481 -0.21327385 0.08160742
0.13342687 0.22076853 0.041883428 0.15544996 0.23857684 0.11606803 -0.05877537 0.05305078
-0.16367668 -0.06357373 -0.12050978 0.14499813 0.07357917 -0.14755228 0.07043288 0.11422965
0.347479 -0.056898072 -0.045256477 -0.08527219 -0.23938528 0.22360528 -0.05912977 -0.13032447
-0.31429267 -0.33270445 0.067980014 0.05275855 -0.11173639 -0.13403052 -0.016179841 0.024699196
-0.019666981 0.032775775 -0.03683962 0.042773657 -0.09646888 0.018196985 0.008663559 0.10420409
-0.07076791 -0.09523866 -0.058352623 0.20371817 -0.03635825 -0.10448979 -0.04066626 0.13995549
-0.10804975 0.2834526 -0.03705348 0.32670763 0.26616442 -0.04592073 -0.0021725327 -0.24719287
0.076516554 0.19141454 -0.38362908 0.024355121 0.07660349 0.088699006 -0.15642112 0.21582212
-0.23595577 -0.16265486 -0.12383178 -0.26202393 0.24034739 -0.025486594 0.087654844 0.06654867

a1.bias f4 [16]
00000000: b622 763d 23c3 3abd 6bc9 00bd 4f85 bebd
00000010: 2b75 013e 2eb1 a6bd ed51 063d 6bb5 94bd
00000020: 7ce6 0ebe 22ad c83d b2d9 abbc 15ce 9b3d
00000030: fcfa 5abd 528a 7bbd cea8 493e d566 2f3e
0.060091697 -0.045596253 -0.031442087 -0.0930277 0.12642352 -0.08139263 0.032792974 -0.07261165
-0.1395511 0.097986475 -0.020977829 0.076076664 -0.053462014 -0.06141121 0.196933 0.17129071

a2.weight f4 [16, 16, 3, 3]
00000000: 8010 083e 16ee 61be 44d6 adbd 851a 3fbd
00000010: 605f 0f3e 8763 acbd bbfe 6f3d 36d7 dabb
00000020: f2ff 5a3d e35f 42bc 5b9a a53d 1ce8 63bc
00000030: 2f99 dfbd 98d1 fe3d cdb2 03be 4340 67bd
00000040: 8fbc e73d 23e1 893a 5ef5 1fbd a610 9cbd
00000050: 7613 2dbe b41d acbe 7aa3 d0bd 808c 8abb
00000060: bde4 fbbc 57e6 97be 9ea5 cd3d 859d cabe
00000070: 1a50 3b3e b427 53be 86e5 a13e e6b8 10be
00000080: 09b2 0b3e ce71 e63d 2e09 5d3d a484 3c3d
00000090: c11e 473d d2a6 a6be ee17 60bd 87ef 043a
000000a0: a4ca 2abb 601d 0dbe 2d31 94be af0e 4dbe
000000b0: 7f1f 17be 5c08 6e3d 5bce c2bd ad21 d9bd
000000c0: 9fe5 0a3e c50b 593d d6aa d43d d7e7 8ebe
000000d0: 93ec da3d 539a 293e 10c0 dabd 9de4 b13c
000000e0: 21c6 9a3c b4cf 8e3e 79d7 693e 46a2 073d
000000f0: 3e79 e53d 5caf 0ebd 4d11 b1bc a42a 473e
00000100: 9f98 13be 96b8 0ebd 5179 94be e8c7 263d
00000110: c5c0 c2bd 25c2 efbd fef4 91bd 86f9 303e
00000120: 6049 4c3e 773b cc3d df22 cbbc 362c abbc
00000130: 5a0f bb3c b011 073e 72de 1abe 50a3 883e
00000140: fe7b b13d 4f6e 6b3d 87ee 233e ab6d 023c
00000150: 97b8 ebbd 0b89 253e 87a9 8e3e f9c4 983d
00000160: e673 9f3d e11e e53d 004f 1abe bb51 20bd
00000170: 9615 e2bd 33e1 ae3d 8f8d 0a3e e727 5fbe
00000180: 7574 863d e40a c5bd 2125 053e f162 63be
00000190: c23b 6ebc e07c 67bb b7e9 cdbd efdc e5bd
000001a0: 4d1c fe3c 5cf7 b63e c97c d53c 0ed4 9ebd
000001b0: 04c6 60bd 7471 b3bd 8c85 333d d427 72ba
000001c0: 7aad cc3e e6cb 7dbe cccd c33e 19e5 173e
000001d0: 6a6b e1bd d600 8e3d 12b7 89be 9b2d b8be
000001e0: 02b1 8d3d aa5b 8e3e d7bb 0e3e 3ede 593e
000001f0: 5e36 1cbe 4ef4 033c 183f b6bd bb9c d2be
00000200: e559 24bd 4075 bfbc adbe 24bd 0b27 11be
00000210: 76f8 bbbd 592d ffbd 4777 e93d dc10 54be
00000220: f58c cabc 8f31 b9bd ccfc 00be 76d7 aebd
00000230: 66f6 a33e 28de 4cbe 5a9d 4b3c b6b4 0b3d
00000240: f471 10be 04f7 383d 261d 803d 7076 32be
00000250: c69d b2bd f246 6abb e3bb 6cbd 7ea7 aebd
00000260: af57 2fbe 8392 d23b 4ced 4cbd 1e4c 073e
00000270: fecd 9ebc 78c8 b5bd cf4a 5fbc dff8 9b3d
00000280: 2039 a93d 9258 6c3d 2ae2 b13d 81d6 a2bc
00000290: 7880 d73d c5b2 00bd f493 213e 3523 ba3d
000002a0: 732f 20bd 33c7 963d 8ee2 8d3d 25e2 0ebe
000002b0: 1a56 023e 4914 523e 632f 8abd b693 e33b
000002c0: 316b 31bc 6c0d e63c 0125 5cbd 897b 6d3e
000002d0: 7f6c 6f3e d158 c3bd ea3a 213e 9da3 af3d
000002e0: 4fb2 4a3d f503 93bd 80b5 e23d 3a53 5cbc
000002f0: 057e 60bb 4c50 8abd 56d7 6f3d a4b1 e23d
00000300: cae8 e1bb 66a8 103d 9510 7fbc a5c0 103d
00000310: c2d7 b23d 6256 0abe 4f98 fcbd 81a3 01bd
00000320: a7fe ddbd 50b8 b4bd 99c9 92bc d3a5 443c
00000330: 8328 b1bd 92ae 1ebe 6b23 08bb b71b d03d
00000340: e1a7 fe3d 84ee 873d 8e59 06be 3b2f b43c
00000350: ae93 f3ba f1f4 f03d 41a2 993b 1ce4 9d3e
00000360: d4a9 8b3b 55b5 b6bd 33ef c43d a17b 80be
00000370: cd14 543d 0a26 02be 6a4c 54be 2422 5e3e
00000380: eb7e 6fbc a65c 5bbc 733b 95bd 89b7 c83d
00000390: 2f54 343d af0f 29bc 41a6 7e3d c550 683c
000003a0: c8b6 aabd 4d8e d5bd 213c 773d fae3 c03d
000003b0: aac4 febc fd36 9f3c 0753 33be 136d 513e
000003c0: 4852 a0bd edae f03d de03 1bbe e6c1 d63c
000003d0: cd95 953e 7a95 d23d ae77 043c e8d3 a63c
000003e0: ddf8 393e 6251 05be 91c1 0cbe bc0e 27be
000003f0: 5387 a8bc 2a29 2f3e a6e3 9dbb a51d d0bd
0.13287544 -0.22063479 -0.084881335 -0.04665615 0.14001226 -0.08417421 0.05859254 -0.006678487
0.053466745 -0.0118636815 0.080860816 -0.01391032 -0.10917889 0.124423206 -0.12861176 -0.05645777
0.113152616 0.0010519366 -0.03905236 -0.07620363 -0.16901955 -0.33616412 -0.10187431 -0.0042281747
-0.03074872 -0.29667923 0.100413546 -0.39573303 0.18292275 -0.20620614 0.31620425 -0.14133033
0.13642134 0.11252175 0.053963833 0.046024933 0.048613314 -0.3254915 -0.05471032 0.0005071093
-0.0026060725 -0.13780737 -0.28943768 -0.20025133 -0.14758109 0.05811344 -0.095120154 -0.10602126
0.13564156 0.05298974 0.10384147 -0.27911255 0.10689654 0.16562776 -0.10681164 0.021715457
0.018893303 0.2789284 0.22836103 0.03311374 0.11204766 -0.034835204 -0.021614695 0.1944986
-0.14413689 -0.034844004 -0.28998807 0.04071799 -0.09509424 -0.11706952 -0.07126807 0.17282686
0.19949865 0.099722795 -0.024796901 -0.020895105 0.022834469 0.13190341 -0.15123919 0.26687098
0.08666228 0.057478245 0.1600896 0.007960717 -0.11509817 0.16165559 0.27863714 0.074594446
0.07785778 0.1118753 -0.15069199 -0.039140444 -0.110392734 0.08539047 0.13530563 -0.21792565
0.06565181 -0.09621218 0.13002445 -0.22205712 -0.014540615 -0.0035322234 -0.10054343 -0.1122378
0.031019354 0.35735595 0.026060479 -0.0775529 -0.054876342 -0.08761874 0.043828532 -0.0009237502
0.39976102 -0.24784812 0.38242948 0.14833488 -0.11006816 0.06933753 -0.26897484 -0.35972294
0.06918527 0.2780431 0.13938843 0.21276185 -0.15255114 0.008053852 -0.08898753 -0.411352
-0.040124793 -0.023371339 -0.040220905 -0.1417505 -0.091782495 -0.12459821 0.113997035 -0.20709556
-0.024725417 -0.09042656 -0.12596434 -0.0853719 0.32023925 -0.20006621 0.012427652 0.034107886
-0.1410597 0.045157447 0.062555596 -0.17427993 -0.08721499 -0.0035747853 -0.05779637 -0.0852804
-0.17123292 0.006426157 -0.05003099 0.1321263 -0.019385334 -0.08876127 -0.013628676 0.07615828
0.08262849 0.057701655 0.086857155 -0.019877674 0.1052255 -0.031420488 0.15779096 0.090887465
-0.03910775 0.07362213 0.069279775 -0.13953455 0.12728158 0.2051555 -0.067473195 0.0069450988
-0.010828779 0.028082572 -0.053746227 0.23191656 0.23381232 -0.09538425 0.1574513 0.08576129
0.049486455 -0.07178489 0.11069775 -0.013447577 -0.00342548 -0.06753597 0.05855497 0.110690385
-0.0068942057 0.035316847 -0.015567918 0.03533997 0.08732559 -0.13509515 -0.12333738 -0.03165007
-0.10839587 -0.08824217 -0.017918395 0.012002426 -0.08650305 -0.15496281 -0.0020773064 0.10161536
0.12434364 0.0663729 -0.131201 0.021995177 -0.0018583441 0.11765469 0.0046885316 0.30838096
0.0042621884 -0.08921305 0.09615936 -0.2509432 0.05177765 -0.12709823 -0.20732275 0.21692711
-0.014617662 -0.013388788 -0.0728673 0.098006316 0.044025596 -0.010318681 0.06217027 0.014179413
-0.08335644 -0.10427532 0.060360078 0.09418483 -0.031099636 0.0194354 -0.17512141 0.20451765
-0.07828194 0.117521144 -0.15138194 0.026215505 0.2921585 0.10282417 0.0080851745 0.020364717
0.1816134 -0.13019326 -0.13745715 -0.16314214 -0.02057234 0.17105547 -0.0048183976 -0.10161904

a2.bias f4 [16]
00000000: bacd 89bd fe4e b0bd fb90 72bd fd5f cabc
00000010: 4085 f33c de86 a8bd 6adf 87bc 3f39 25bd
00000020: 2e0b b23d 00f9 8dbd a424 b3bd 24f7 763b
00000030: e07d 96bd 1c1b 0f3d 122c f53d e297 413d
-0.06728692 -0.086088166 -0.059220295 -0.024703974 0.029726624 -0.08228849 -0.016586024 -0.040337797
0.086935386 -0.069322586 -0.08747223 0.0037683928 -0.073482275 0.034937963 0.11971296 0.047263987

a3.weight f4 [32, 16, 3, 3]
00000000: 969c 0dbe 82f5 713e ee6c 68be 76f4 82bd
00000010: d667 a2bd dae2 87bd 33c7 cabe 247e 9cbd
00000020: 4a4f fd3d d8d4 6cbc f18a 98bd 317c 13be
00000030: 735a bcbc b2d4 c73d 4dce 003e 00dc 81be
00000040: 0ff4 2cbe 9067 9abe 1e8b c93d a039 b83d
00000050: 3c79 fe3d 1739 ee3c ed59 db3d f305 29be
00000060: eff8 d7bd b82d c93c a6b5 83bd 5891 05be
00000070: c578 0e3e 8d31 cf3d c5c2 a43d a775 89bd
00000080: 5776 e53d 9426 76bd d089 21be 51a9 873c
00000090: 1b11 0e3e 54ec 763d 4178 88bd 2414 04be
000000a0: 3c6c 6f3e 13f6 40bd 187f 0b3e 8353 293d
000000b0: c938 2b3d f75c 5b3d 6b55 cf3c 6ea5 2fbe
000000c0: 2a0e 3d3e ac23 aabc 4e6d 693e aa52 3bbe
000000d0: 0f0c e3bd b845 df3d 1599 b43d a36f 5d3d
000000e0: fdf6 18be 70da 453c ed10 993d 7731 c5bd
000000f0: dc59 b23d da90 683e 9fde 013d 03ed de3d
00000100: f7ca 583d 57ad 763c 6520 4f3c 9876 893e
00000110: e802 6fbe 982e 7c3e 7e66 22bd 09ff 6bbd
00000120: d384 763c 9fcc 7c3d 10b0 eebc f904 f03d
00000130: 5506 563e b176 183d 331d cdba 3c2a 51be
00000140: 46ff c7bd 9556 8cbb a6ba 4f3e b591 f3bd
00000150: a52b 5f3e 058a c9bc 7b6c 4bbd 22b6 0dbe
00000160: e736 b6bd e2d7 8c3d 35bc 7bbc d7e4 6b3d
00000170: 09e4 19bd d47d b53d a5e8 65be 874e 9b3e
00000180: 0a15 263d b10c babd ee5c 04be e9bd 3cbd
00000190: 7fd1 0fbe 6321 afbd 7471 ecbd 1791 623e
000001a0: 79ed 73bd 29f3 a7bc 3a34 2b3e e630 74bd
000001b0: 9f87 fdbc 3599 83be 2e42 2dbe 8c4f 163e
000001c0: 3869 d8bb 49c1 6f3e bb5f b2be d456 b7ba
000001d0: 9fdc a6bd 9cf7 b63e 5beb 18bc 507a 9fbd
000001e0: 779f 603e 267a f7bd 5b9a 97bd 6358 b53d
000001f0: 4211 1b3c 27cc 033e 5142 8f3e b99d 47be
00000200: 96f7 d1be 5b50 ad3b 55ba 5a3e 59df c6bd
00000210: 8a94 f13d 0608 42bd 5f12 65be d2e1 4b3c
00000220: 448b 703d 3b29 cf3d 4775 9c3c 5e4a 703e
00000230: dd1a 0ebf c598 ec3d 440d 47be de1b 0abe
00000240: 9203 cf3d 3367 60bd ddb9 b03e f245 d83d
00000250: 1839 8d3c 0ad5 e63d 75ac 7abd 53c8 4abd
00000260: 2ae4 2e3d 656b 4fbd 42f6 97bd 6092 083e
00000270: 2846 d9bd 9455 10be 6788 103e 1065 0b3e
00000280: af4c 273e 3667 cfbd 3485 8bbe dbb8 76bd
00000290: 241f a1bd 5713 193e 0498 2dbe 7eaf 4ebe
000002a0: 6426 0bbe db13 ebbc c8d0 32be 612d fa3c
000002b0: 0581 e6bd 8b41 8fbc 00f2 f8bd 62f4 dc3d
000002c0: 9766 a23d 4c4b 493d 0579 a4bd 0a1e f03d
000002d0: dbcc fabd e056 45be accc 36bd cd32 06be
000002e0: 7fb4 f6bd e14e 3f3e 6f0d 3ebd fda9 aabd
000002f0: 382c 463e ac77 933d 1e70 cd3d 7488 723d
00000300: ea52 cb3d eb77 1cbd 3f5c 563e b04a a9bd
00000310: 5ac0 72bb 3a5d 3d3d a1c9 16be 6426 36be
00000320: ad07 bf3d dffa 82bd 619f 19be 7840 f33d
00000330: 86d6 903d 495a 3f3e ecee 3b3e c706 56bd
00000340: 4b0f 35bd ccfd 03bf 8e58 fd3d e6ea 953e
00000350: 12c5 51be 8bcf c4be 46a5 813d 00dc 573e
00000360: aa54 ce3c 7380 823e 8883 05be ec40 32be
00000370: cf69 0a3c 3a66 78be 27f1 a3bd 35d8 efbd
00000380: f4db 8abc e167 f13d add8 febd 7314 7dbd
00000390: b8c7 903a b925 ad3c 9a91 29be 1a4e 2f3b
000003a0: 75ae dc3d a9c4 163d dbc6 3f3e b118 c8bd
000003b0: 1986 323e 06eb 1fbe 8f71 edbd fdb0 3cbe
000003c0: 1eb0 c1bd 0d5f adbe 9687 a2bd 4c99 91be
000003d0: 99ac f9bc da06 70bc 25f3 d2bd 44c6 7cbd
000003e0: 2f98 e13d b2fc c9be 39ee 32be c27f 0f3e
000003f0: 294c 453e b6ca acbd ee8f 203e da2d 22be
-0.13829264 0.2362881 -0.22697803 -0.063942835 -0.079299614 -0.066350654 -0.39605102 -0.07641247
0.12368639 -0.014455043 -0.07448376 -0.14402844 -0.022992348 0.09757365 0.12578698 -0.2536316
-0.16889976 -0.30157137 0.098409876 0.08995366 0.12425467 0.029079957 0.10710511 -0.16506176
-0.10545527 0.024557933 -0.06431131 -0.13043725 0.13913257 0.10116873 0.08044962 -0.067118935
0.11204212 -0.060095385 -0.15775228 0.016560229 0.13873713 0.060283974 -0.066635616 -0.12898308
0.23381132 -0.047109675 0.13622701 0.04133941 0.0418022 0.053555455 0.025309285 -0.1715295
0.18462434 -0.020768963 0.22795603 -0.18293253 -0.11086284 0.1090197 0.088182606 0.054061543
-0.14937969 0.012076005 0.074739315 -0.09628575 0.087085456 0.22711506 0.03170645 0.1088505
0.052927937 0.015055976 0.012642001 0.26848292 -0.23340952 0.24627149 -0.039648525 -0.057616267
0.015046316 0.06171858 -0.029136688 0.117196985 0.20900853 0.037222568 -0.0015648961 -0.20426267
-0.097654864 -0.0042827823 0.20286044 -0.11893026 0.21793993 -0.024601946 -0.049664002 -0.1383901
-0.088971905 0.06877114 -0.015364696 0.057591286 -0.037570987 0.088618904 -0.22452028 0.3033335
0.04054741 -0.09084452 -0.12926075 -0.04607955 -0.1404476 -0.0855129 -0.11545077 0.2212566
-0.059552643 -0.02050169 0.16719142 -0.059616946 -0.030948458 -0.25702825 -0.16919777 0.14678782
-0.00660434 0.23413576 -0.34838662 -0.0013987669 -0.08147549 0.35735786 -0.009333457 -0.07787001
0.21935831 -0.12083845 -0.07402488 0.08854749 0.009464564 0.12870847 0.27980283 -0.1949376
-0.41009206 0.00528912 0.21360143 -0.09710569 0.1179591 -0.047370933 -0.2237029 0.0124439765
0.058726564 0.10115286 0.019098891 0.23465869 -0.5550974 0.11552576 -0.19438654 -0.13487193
0.10108103 -0.05478592 0.34516802 0.10560216 0.017239138 0.11271103 -0.061199624 -0.04950745
0.042698063 -0.05063953 -0.07420017 0.13337088 -0.10609084 -0.14095145 0.14114533 0.13612771
0.16337846 -0.10127108 -0.27250063 -0.060234886 -0.07867268 0.14948784 -0.1695252 -0.20184132
-0.13588864 -0.028695991 -0.17462456 0.030539216 -0.11255077 -0.017487308 -0.12155533 0.107888
0.07929724 0.049144074 -0.08030895 0.117244795 -0.12246104 -0.19271421 -0.044628784 -0.13105316
-0.12046146 0.18682434 -0.04639953 -0.08333204 0.19352806 0.0720056 0.1003115 0.059212163
0.09927924 -0.0382003 0.20933627 -0.08266199 -0.003704092 0.046231486 -0.14725353 -0.17788082
0.09327636 -0.06395506 -0.15002204 0.11877531 0.07072167 0.18686785 0.1835286 -0.052252557
-0.044204038 -0.5155914 0.12370406 0.29280776 -0.20485333 -0.38439593 0.063303515 0.21080017
0.025186855 0.25488624 -0.13038456 -0.17407578 0.008448078 -0.24257746 -0.080049805 -0.1171116
-0.016950585 0.117873915 -0.124436714 -0.06178708 0.0011045849 0.021136152 -0.16559449 0.0026749433
0.107754625 0.036808643 0.18728201 -0.097703345 0.17433967 -0.15616998 -0.11593925 -0.1842689
-0.0945742 -0.3386158 -0.07936017 -0.2843727 -0.030477809 -0.014650071 -0.103002824 -0.06171252
0.11015355 -0.39450604 -0.17473687 0.1401358 0.19267334 -0.084371015 0.15679905 -0.15837803

a3.bias f4 [32]
00000000: 9800 bebd cbfb 333d cb41 aa3c 6901 22be
00000010: a18f 18be 8812 4a3c eca8 ce3c 49e2 1ebe
00000020: a374 42be 32b0 d2bd f715 65bd e2d4 80bd
00000030: a237 87be 2b92 9dbd aa55 47bd 19ac 173e
00000040: a727 153e a560 9bbd b5eb c3bd 2e8b 12be
00000050: 84ce a2bc 74eb c6bd 8df7 1abd 88b4 dbbd
00000060: 07fc c9bc 88f6 dc3d aa0d 283e e60e 43bd
00000070: ebd5 003a e966 5a3d 1b6c 48bc 76fb a3bd
-0.09277457 0.0439413 0.020783326 -0.1582085 -0.1489854 0.01233352 0.025227033 -0.15516008
-0.18989806 -0.10287513 -0.05592915 -0.06290604 -0.26409632 -0.07693895 -0.04866568 0.14811744
0.14565907 -0.07586793 -0.09566442 -0.14310905 -0.019873865 -0.09712878 -0.03783374 -0.10727793
-0.024656309 0.107892096 0.16411462 -0.04762163 0.0004914689 0.0533208 -0.012232806 -0.08006947

b1.weight f4 [32, 32, 3, 3]
00000000: 8933 82be 113c 1c3d cd1d f6bc acf9 3dbd
00000010: d722 3bbd 7bd0 5fbe 2d1f 23bd a0c7 47bc
00000020: 4d95 21be 17ff cd3a e70a 8cbe 3398 083d
00000030: 39b9 64be 8b06 c0be ce3c c43c fda8 bd3d
00000040: 4524 54be 8664 943e 3113 37bd 845e 7f3d
00000050: 868c ef3c 07bd af3d c132 533e ed48 26bd
00000060: 6116 46bc 731c 5e3c d58d bfbd d7fc 633e
00000070: f945 1d3e 7d65 bf3d 5146 813d 6944 85be
00000080: d4ba 173e cf6f 12be 8aac 28be da93 4dbe
00000090: 4153 263e 1753 39be 3855 1d3d f224 b8bc
000000a0: 9a5c 533c e804 75be 6734 0fbd a715 91be
000000b0: 46bc 29bc eb75 a73e 0e85 bebe 8ec8 6abd
000000c0: 26b8 3b3e dd84 44bd 40f2 79ba c738 663d
000000d0: 63db 5bbd 4e36 88be 227b aabd af06 15be
000000e0: 5bd7 4bbd 96ce d7bc f87e 9f3d 2458 013d
000000f0: a9a3 eebd 33e3 2b3e c90e cfbd 80a2 7dbd
00000100: c7c4 5a3d 31b5 273d aa98 2a3d a8ab 0bbe
00000110: 6f6b 1abd 992c 263c 1691 6e3d 88d8 c73c
00000120: 64c1 92bd c33b 2dbe 386a 35be 735c 7cbe
00000130: 1719 503e af5e a0bc 3f0f 5ebe 2072 913d
00000140: d6f3 443e de3b 063e 769a 55bc de7f b7bd
00000150: 2122 213e 0716 cb3d a355 933e c38b cc3e
00000160: 1f0e d4bc c7d2 07be 67e2 91bd 2bbe 2b3e
00000170: 1139 6ebe cfbe 993d 739f fe3d ffea b5bd
00000180: 34be c63d e690 483d 41e8 cd3d dbfb 3abe
00000190: 87a8 e4bd 77c5 88be a410 633e 8e8e acbd
000001a0: e07d 60be e9c8 253e 7615 c63d 2ad5 f8bd
000001b0: 076d 9fbe e676 79be 2a40 31be a99a adbd
000001c0: 3eed d1bd 3dc0 8c3e b905 05be e48e 34be
000001d0: 26e5 0cbd 565d e5bc 556a 603d c320 1b3e
000001e0: 37ba ca3d b95d 423d 10ab 52bd 33b7 25bc
000001f0: d409 a4be 1276 e13d 9194 413d a4ad 0c3e
00000200: 1f1d 16bd fcf9 183b 32a8 82be 7858 423d
00000210: 2923 37bc 4e5b e1bd 002c 25bd 9fe2 18bd
00000220: e9a4 3cbd 18a3 13bd 43e1 fdbd d61b 1c3d
00000230: e042 1abd 3275 fa3c 57cb 70be e315 8d3c
00000240: f34e 2ebe eda6 b73c 4213 8e3d b5e3 2f3e
00000250: 6431 383e cec5 df3d c7b0 683d b2d1 47bd
00000260: 8629 503e 961f f73c 91e2 643d 02b5 94be
00000270: 69a7 1abd 1970 4dbc d4dc b5be 96b7 a2bd
00000280: 50fc 2f3e e704 58bd d20d 2e3e 3205 b9bc
00000290: 0fc2 93bd 8ef3 193d 7908 c2be be49 56be
000002a0: 0f62 c1bd 6f81 07be acfa f4bd f3cd 32be
000002b0: bead 5b3e 44be 3fbe bc84 193e 44d3 633d
000002c0: 61df 89bb 9ade 42be a3ef 143e b82c 98bc
000002d0: 79b3 ec3c 7abf b5bd 69ea a23d c109 7cbc
000002e0: 6f65 15bd 083e d3bd ac59 003e 5780 523d
000002f0: 6886 223e d223 a93d a5d2 29be 6d94 53bd
00000300: 2c3c e73d 3624 b93d e114 043e a28d 1b3c
00000310: 5d02 d7bd efb4 2cbe 2e5a 70be 940a 673d
00000320: 9db3 db3c 0da5 06be e904 503d 64dd 953d
00000330: 422d 793d 42f8 99be 2f1d f1bd fa54 21be
00000340: a2fd 103e 8bb6 81bd 828a 90bd b4d2 3bbd
00000350: 2a86 e9bd 160c 11be 27dc 603e 9b2c 243e
00000360: e143 383e ffa9 0dbe 312c 80be 50bc 67be
00000370: afbd 5f3d a313 1b3d 4385 123d 803f 113e
00000380: f9a1 3f3d ad68 bd3d 4129 1c3d a013 7ebe
00000390: e705 cbbd 46fc 243c 77b6 823d db8b d8bd
000003a0: c545 8e3e 5d16 953d 7362 9a3e 0be0 15bc
000003b0: b9f3 7bbe 4356 a83d 8f07 1dbc dcfc 8f3c
000003c0: 343d 623c e85a 513e 85db 9ebe d88b 3d3e
000003d0: 2bad 49bc 9e0c aabc 4203 05bf fc35 5abe
000003e0: 3572 a7bc 2457 d63c c76f 113e 2d56 073d
000003f0: a227 6d3e dd03 923c a2a2 8cbe 6464 513d
-0.25429943 0.03814322 -0.030043507 -0.046380684 -0.045687523 -0.21856873 -0.039824653 -0.01219359
-0.1577961 0.0015716281 -0.27352068 0.033348273 -0.22336282 -0.37504992 0.023954775 0.092607476
-0.2071696 0.28982943 -0.044696037 0.062345996 0.029241811 0.08580976 0.2062483 -0.04059689
-0.0120902965 0.0135565875 -0.09353224 0.2226442 0.15358724 0.09345529 0.0631224 -0.26028755
0.14817363 -0.14300464 -0.16472068 -0.20075932 0.16242696 -0.18098103 0.03841135 -0.022478554
0.012900496 -0.23927653 -0.034962084 -0.28336832 -0.010359829 0.32707152 -0.37210888 -0.05732017
0.18331966 -0.04797827 -0.0009534694 0.05620649 -0.05367602 -0.2660393 -0.08324267 -0.14553331
-0.049765926 -0.026343625 0.07787889 0.031578198 -0.116523094 0.16785888 -0.10110242 -0.06192255
0.053410318 0.040944282 0.041649498 -0.136397 -0.037700113 0.010142469 0.058243833 0.024395242
-0.071657926 -0.16917329 -0.177163 -0.24644642 0.20322071 -0.019576399 -0.21685503 0.07101846
0.19233641 0.13108775 -0.013037315 -0.089599356 0.15735675 0.09916311 0.28776273 0.3995038
-0.02588564 -0.13263999 -0.07123261 0.16771762 -0.23263957 0.07507097 0.12432756 -0.088827126
0.09704247 0.04896631 0.100540645 -0.18260138 -0.111649565 -0.26713154 0.22174317 -0.08425628
-0.21923018 0.16189922 0.09672062 -0.12150033 -0.3113787 -0.24361762 -0.17309633 -0.08476765
-0.102503285 0.27490416 -0.12990464 -0.17632633 -0.03439822 -0.027998608 0.054788906 0.15149216
0.09898799 0.047452662 -0.05143267 -0.010114479 -0.32038748 0.11008848 0.047260825 0.13738114
-0.036648866 0.0023342362 -0.25518948 0.04744765 -0.011177816 -0.11003743 -0.040325165 -0.037325498
-0.046055708 -0.03604421 -0.12396481 0.038112484 -0.037661433 0.030573461 -0.23515068 0.01722235
-0.17022304 0.022418464 0.06937267 0.17176707 0.17987591 0.109264 0.056809213 -0.048783965
0.2032834 0.030166429 0.055880133 -0.29044348 -0.03775731 -0.012538933 -0.3552004 -0.079451725
0.17186093 -0.05273905 0.1699746 -0.022585485 -0.07214748 0.037585787 -0.3789709 -0.20926568
-0.09442531 -0.13232969 -0.11961874 -0.17461376 0.21452996 -0.18724924 0.1499204 0.0556214
-0.004207537 -0.19030228 0.14544539 -0.018576011 0.028894173 -0.08874412 0.079548664 -0.015383185
-0.036473688 -0.10314566 0.12534207 0.051391926 0.15871584 0.08258785 -0.16584261 -0.05165522
0.11290774 0.0904011 0.1289859 0.009494217 -0.10498498 -0.16865896 -0.23471901 0.056406572
0.026819045 -0.131489 0.050785933 0.073176175 0.060834177 -0.30072218 -0.117731445 -0.15755072
0.14159253 -0.063336454 -0.07057668 -0.04585524 -0.11402543 -0.14164767 0.21958981 0.1603264
0.17994644 -0.1383438 -0.25033715 -0.2263043 0.054624256 0.037860524 0.03577162 0.1418438
0.04678533 0.09248481 0.03812528 -0.24812174 -0.09913235 0.010069912 0.06382459 -0.1057355
0.27787605 0.07279656 0.30153236 -0.009147654 -0.24604692 0.08219578 -0.009584322 0.017576627
0.013808537 0.20444834 -0.31026855 0.18510377 -0.012309353 -0.02075797 -0.51958096 -0.21309656
-0.0204402 0.026164599 0.14202796 0.033041168 0.2315965 0.017824108 -0.2746783 0.05112113

b1.bias f4 [32]
00000000: 32fe 4ebd dd08 17be 4718 32be 5784 e0bd
00000010: 42d6 263e a3ab c3bd c818 41bd 814f 0c3c
00000020: 37b4 e5bb c5f1 37be fcc8 11be 7c8d f43c
00000030: 362f 8dbd cbeb 13be 2323 e03c 0beb d8bd
00000040: 0443 a3bd e4d6 57be 3d29 93bd 67f6 443d
00000050: e35b 58bd 7779 04be fd5c 263e 335f 5bbe
00000060: 343f 0cbd 3966 a8bd 7dd3 82bd 192c 8dbe
00000070: 293c 3abd b6c7 bfbb e28e 5f3d 5d6f cdbd
-0.05053539 -0.14749475 -0.17392074 -0.10962742 0.1629267 -0.095542215 -0.047142774 0.008563877
-0.0070100087 -0.17963322 -0.14236826 0.029852621 -0.068937704 -0.14445417 0.027360504 -0.10591706
-0.079717666 -0.21078068 -0.071856 0.04808655 -0.052822005 -0.1293696 0.1624641 -0.21423034
-0.034239963 -0.082226224 -0.063879944 -0.27572706 -0.04546753 -0.005852665 0.054579623 -0.100310065

b2.weight f4 [32, 32, 3, 3]
00000000: cdae 1c3e c25d 963c 323f a3bd f201 593c
00000010: cda1 1dbe cedb 4a3e 51b2 15be 2694 e4bd
00000020: 3c7d 7b3e 2e23 e63d 91df a93c 2da1 4dbd
00000030: c127 4bbd b60d 6abc 784d 69be 50f9 2b3e
00000040: 94ea 963e e231 2fbe 308a adbd b00f 213e
00000050: 9fda 70be 95e7 e1bb 29f2 44be e53d a93d
00000060: ac54 9bbd 0ae6 11bc 7a53 06be aa1b d13e
00000070: 075c 87bd b082 3d3e 4082 df3e e356 debc
00000080: 3bfd cbbd c97b f5ba 773f 8ebe 8b02 023d
00000090: 5e3c 77bd 5d38 553d c2a0 97be 10e2 a9bd
000000a0: 396e 2f3e 0afe 0abe feb3 babe 5f73 1f3e
000000b0: 4929 3c3e a585 f23d 9616 c13c 6c10 65bc
000000c0: b52e 143d 6c51 58bd 50ed bbbd d86d 993c
000000d0: 7eb1 673d 2c4b ac3d caf8 e33c 1eb3 2ebe
000000e0: 3a03 503d e946 61bd 2e7b 70bd bf31 00be
000000f0: 9597 aebc 94f6 9c3d 8e31 46be 3ac5 863e
00000100: ce4f 2e3c 0cd9 2abe 4543 14bd 2b46 ac3d
00000110: 3bc4 673c 3672 23bc 1f59 0b3c 3fbc eabd
00000120: 4652 be3c d264 e7bd b12d 523e a260 bbbc
00000130: e64a 123c 8933 91bd 99a9 cfbd b82a 9b3c
00000140: af70 89be 8e61 76bc c5f9 aebe a2e6 55be
00000150: 6b19 2b3e ce67 66bd 7f48 823e ab35 5b3e
00000160: 1ddc 643d ecd1 b8bd 2bcb 37bd 3c5b 28be
00000170: 5ed8 aabc 7118 74bd 7d70 f4bd 6b56 25be
00000180: a9c4 313e 109a 2b3e 8cb5 58be 02e2 e33d
00000190: 2282 b2bd 0865 9a3d b393 6cbd e5ec 483d
000001a0: 0384 a5bd c8c7 77be 1c05 d53d 8578 1dbe
000001b0: 5549 4abe b985 27bd 0bda 27be 84af 0a3e
000001c0: 92b3 b9bc 82d4 e4bd eff9 53be 3c96 853d
000001d0: 3ee5 8c3d 807b 4dbe ac85 1fbe 8955 cfbe
000001e0: e455 223b d42c 5ebe 16bd 133d 197a 0dbe
000001f0: c131 85ba f35d 07be b8f6 dc3d 8591 633b
00000200: 8306 b4bd 6f4b 67bd dee6 c3be 19ed 52bd
00000210: b6da f2bd 4349 c83d 77b4 0dbb fe4a c7bd
00000220: edad 02be fe39 15bd a398 403e 93b5 b8be
00000230: 1a45 903d c482 fcbb f3af de3d 6b3b 073d
00000240: 20c5 813e 0626 563d 410f 16be 1b34 293a
00000250: 303a 49be 7c6e 02ba ca74 d93d fa66 6b3e
00000260: d74b 31bb a4df 96bd 6000 f73c 2b77 e63d
00000270: 0c54 253e 74b1 2b3d 6311 f93c d3a3 0cbe
00000280: bf91 ad3d 4a20 3dbe 59e9 9dbd cef2 683c
00000290: f5e5 43bd 9235 90bd 3b9e 0fbe 5c41 2bbe
000002a0: e91e bfbd 7228 ecbd ccdf 09bd 7391 513e
000002b0: c543 7abb 3675 50bd 2b48 403d 15f0 a03d
000002c0: ae56 e53d eea8 ddbc 98bd a73d eff8 1ebd
000002d0: 5507 e2bd 1cb8 21be aba9 9fbd f6e5 c83d
000002e0: c622 7fbc 142d 44bd 98b0 99be 8c50 d1bc
000002f0: bbe3 02be b70c 7dbe 923a 3abd 3597 d33b
00000300: 2765 1f3e 8b78 333e 0e35 953e 1719 cbbd
00000310: 2523 87bd 1a29 e0bd b3b6 623e 00fc 68be
00000320: cbd4 013e 1f2b 433d fe61 e83b ca3b f53d
00000330: 9be2 91be 59e2 693e bda2 99bd e577 0abe
00000340: 02dd 083d f4da 8e3d 808f 09be 6695 32be
00000350: 633c 0b3f dcd1 48bd 5a68 62bd 3590 c83d
00000360: 6d5e 07bd 7e6f a2bc 4ec7 a4bd 6fdb 783b
00000370: ca87 e2bd 1195 af3c 08c0 523e 2da9 1c3e
00000380: 5d07 86be 3793 bebc 4b9c 08be ba4d 093e
00000390: 1e01 283d 9228 593e 0a00 42be 24fa 6fbe
000003a0: 7bc5 45be 86d3 ba3d 1c8a c33d d31f 96bd
000003b0: 2181 723d 0b89 0abe 7ecb ea3d 84c7 933d
000003c0: 6519 89be 1fa1 37be 43c1 e1bd 6e1e a03d
000003d0: c65d fabd 8d1d 483e f9d8 403d cead a1bd
000003e0: 4775 19be 0b39 35be fb0f 51be 0c39 b73c
000003f0: 1d5d 113d 89b7 d13d e58e 713e 8a8f db3c
0.15301056 0.018355254 -0.07971038 0.013245093 -0.15393753 0.19810411 -0.14618804 -0.111610696
0.24559492 0.11237179 0.020736488 -0.050202537 -0.04959846 -0.0142854955 -0.22783458 0.16794324
0.29475844 -0.17108873 -0.08473623 0.1572864 -0.23520897 -0.006894062 -0.19233002 0.082637586
-0.07584509 -0.008904943 -0.13117781 0.40841419 -0.0660935 0.18506885 0.4365406 -0.02714104
-0.09960409 -0.0018728907 -0.27782795 0.031740706 -0.060360305 0.052055705 -0.29614836 -0.08295071
0.1713189 -0.1357347 -0.36465448 0.15571354 0.18375124 0.11841897 0.02357034 -0.013980966
0.036177356 -0.052812025 -0.09176123 0.018729135 0.056565754 0.084127754 0.027828593 -0.17060515
0.050784327 -0.054999266 -0.058711223 -0.12518977 -0.021312514 0.076642185 -0.19354841 0.26322347
0.010639144 -0.1668436 -0.036196966 0.08411821 0.014145906 -0.0099759605 0.008505135 -0.11461686
0.02323259 -0.11298527 0.20525242 -0.022873227 0.00892899 -0.07089908 -0.1013977 0.018941268
-0.26843783 -0.015037907 -0.34174934 -0.2088876 0.16708915 -0.05625134 0.25445935 0.21407191
0.05587398 -0.090244144 -0.04487149 -0.16441053 -0.020855125 -0.05959362 -0.11935518 -0.16146247
0.17360176 0.16757989 -0.21163005 0.11127092 -0.08716227 0.075388014 -0.057758044 0.049054045
-0.0808182 -0.24197304 0.10401365 -0.15378006 -0.19754536 -0.040899012 -0.1639177 0.13543516
-0.022668634 -0.11173345 -0.20700811 0.065227956 0.06879662 -0.20066643 -0.15578336 -0.40494946
0.0024770433 -0.21696788 0.036069 -0.13816108 -0.0010161923 -0.13219433 0.10789245 0.0034724188
-0.087903045 -0.056468423 -0.38262075 -0.051495645 -0.11858122 0.097795986 -0.0021622458 -0.097311005
-0.1276166 -0.03643226 0.18808226 -0.3607603 0.0704443 -0.007706018 0.108734034 0.03301565
0.25345707 0.052282356 -0.14654256 0.00064546027 -0.19651103 -0.000497557 0.10617979 0.22988501
-0.002705326 -0.07366875 0.030151546 0.11253198 0.16145343 0.04191728 0.030403798 -0.13734369
0.084750645 -0.18469349 -0.07710523 0.014218045 -0.047826726 -0.07041468 -0.14025204 -0.16724151
-0.093320675 -0.11531152 -0.033660695 0.2046564 -0.0038187366 -0.05089303 0.046943825 0.07858292
0.111981735 -0.027058091 0.08190459 -0.03881162 -0.11036555 -0.15792888 -0.077960335 0.098094866
-0.0155722555 -0.047894552 -0.30017543 -0.025551103 -0.12782185 -0.24711882 -0.045466013 0.0064572343
0.1556593 0.17526452 0.2914204 -0.09916895 -0.065985 -0.109453395 0.22140007 -0.2275238
0.1267883 0.047648545 0.0070917597 0.119742945 -0.284932 0.22840251 -0.07501743 -0.13522299
0.033413894 0.06975356 -0.13433647 -0.17439803 0.5438902 -0.049028262 -0.0552753 0.0979313
-0.033049036 -0.019828554 -0.08045827 0.003797259 -0.11061056 0.021433385 0.20581067 0.1529891
-0.26177493 -0.023263557 -0.13340871 0.13408557 0.04101669 0.21206883 -0.18945327 -0.23435265
-0.19313614 0.09122376 0.09547827 -0.07330289 0.05920518 -0.1352884 0.11464594 0.07215789
-0.26777187 -0.17932557 -0.1102319 0.07818304 -0.12224917 0.19542523 0.04708192 -0.07894479
-0.14986144 -0.17697541 -0.20416252 0.02236607 0.03548919 0.10240085 0.23589666 0.026801843

b2.bias f4 [32]
00000000: 1aff 2f3c a850 86be b3fc 01be 6c98 3ebe
00000010: 0b77 0bbe 4d89 10be ddfb b5bd 6ef5 02be
00000020: 34d5 a23d 589b 803b c155 98bc 6995 77bd
00000030: 36de bcbd e87b 60be fcf2 27bd 4012 173d
00000040: 09e7 53bd 9012 febd 2949 d0bd 1390 afbd
00000050: ea96 77bd 7367 a53d 4487 17be 4892 693d
00000060: 7bd4 25be 60da 353d 88e9 0e3d 88d0 f63c
00000070: b0d9 43be 1cd3 11bd 675d 9a3d 6812 bfbc
0.010741973 -0.2623341 -0.12694053 -0.18612832 -0.1361963 -0.14114876 -0.0888593 -0.12788936
0.079508215 0.0039247684 -0.018595578 -0.060445223 -0.09222071 -0.21922266 -0.041003212 0.03688264
-0.051734004 -0.12405884 -0.10170204 -0.08572402 -0.060446657 0.08076372 -0.14797693 0.05702427
-0.16194336 0.04439771 0.03489068 0.030128732 -0.1912601 -0.03560172 0.07537346 -0.023324206

b3.weight f4 [64, 32, 3, 3]
00000000: d67a 753d 43cc a03d da51 64bd c67b 81be
00000010: 0fea 82be 0b6a c2bd 8e70 833d c943 7cbe
00000020: d9b0 513d a86f 043e 07ff 3dbe 43e8 3b3e
00000030: 16e9 c0bc 8241 653d 69a8 60bd 59d9 f5bd
00000040: 8f03 6bbe e98f 96be 01eb 6cbc 6cd3 00be
00000050: 3f67 373e 6d89 0f3d 857c ccbd ecd2 84be
00000060: 9e7b ff3d b6b5 2c3e 0224 c1bd 4145 283c
00000070: 6535 3d3e a29f fd3d 2ed2 d53d e15d 6b3e
00000080: 57bd d5bd e1b6 4ebe 2304 65be a607 593e
00000090: ab64 c8bd efba afbd 3888 853d 4916 0bbd
000000a0: 118a f13d 086a 403e 7505 babc f88c c53c
000000b0: a68a 623d fdc4 043e 3dee 653e 0d64 3abc
000000c0: 6bff d339 e2fa 04bd 2697 6dbd 97e0 b1bd
000000d0: c3e7 65be 3a16 83be 00cd 8a3d cac6 263e
000000e0: 74d1 dabd 4a7c bb3d 24c4 363e 1e2e 733d
000000f0: 6b2b cebd 02d9 3ebe 2130 243d 6638 f8bc
00000100: 932d 10bd 171e 043e c580 18bd f737 7ebe
00000110: a347 7ebe 1d0b f03c a992 4a3e 7073 8fbe
00000120: 7769 73bd e8d9 6e3d d2c0 b7bd 2401 ed3c
00000130: db32 ca3c ba61 59bd 9d58 853c ae36 13be
00000140: aca5 a93d 9d09 a8bd 6ba6 393d 5e9a 50bc
00000150: 4cbf cfbd bb40 863e 55be c5bd a5eb 7ebe
00000160: 368b b2be c3ac 3dbd b810 a3bd 66eb 37be
00000170: 2e36 34be 9f58 75bc 3f72 383b eaf5 933d
00000180: 5fd1 39be 1d5d 223e 8b29 cbbc ab5b 9f3d
00000190: 287f fa3d b32a 83bd 71a7 c93d 5945 4e3e
000001a0: 96b1 d9bd 986b d33d 3579 ae3e a505 0f3e
000001b0: 971f 0fbe e490 edbc cd80 69bd 7aa9 4b3d
000001c0: bfe3 29be 5666 66be dbf9 56be 2779 043d
000001d0: e538 423c 5d3c 623d 2b90 6ebe 3754 09be
000001e0: 1374 8a3e 6a52 b43e 984a 863e 3bc2 0cbe
000001f0: bce9 1fbb f4c1 7abd 20f0 f53d 844d 58be
00000200: b12b 0fbe 98f7 703e 5f31 043e 7b1d eb3d
00000210: e0c5 223e 92da 59be a8ac 9dbe fc7b 533d
00000220: bbf6 7cbd 5888 01bc 5f37 58be 06dd 01be
00000230: 5c3a bfbd 6992 80bd 552a c93c 447d 89bd
00000240: 01a9 793e 1231 c5bd a00e 5ebe d8c4 cabd
00000250: 31e4 18be a0ed d9bc 68f3 87be 23ef ecbd
00000260: 0723 1ebe c2bf 09bd e981 853e 3c53 c33c
00000270: e79d 1e3e 572e b6bc d070 44bd bf5f 06be
00000280: bdba 7abd 59cd 91be 7028 6e3e 9d52 633e
00000290: 765d 883d 43c8 f9bc 7c84 72be 1815 05be
000002a0: c1e9 083e 0bcb 1abe 6d04 923d b648 b7bb
000002b0: 43dd 49be bf11 513d f01c d23d 4978 86be
000002c0: dc26 273e be24 913d 8929 4bbe ed87 983d
000002d0: f668 efbb b17b 223e 594b 9ebe 29b6 343e
000002e0: abb2 bbbd 2376 e13d 7c76 1ebe 8281 e03d
000002f0: dce4 013d 769e 25bd 9280 40bd d912 bb3d
00000300: e959 03be ef6e be3c 5c6d 553d 094a cdbd
00000310: e879 733d 67a4 3abd 00e8 97be 2d19 07be
00000320: 2764 b93d 3367 84bd 84ce 183e 63ab 4dbe
00000330: 07f9 1a3e 70c2 c4be e08c 5ebd 363d 823d
00000340: b7df 553d 47f8 ccbd 99ff 5bbd b651 47be
00000350: 4027 133e debe 86be 3535 62be dbea 7cbd
00000360: 2ad7 43be fb64 4bbe 0d00 253e d82f f73d
00000370: 38ba bcbd dc48 18be b577 20bd dd20 2b3e
00000380: 15e6 0bbe 8349 3c3d dce9 ac3d f6a5 6a3e
00000390: 99e6 933e efea f23d f1e9 9b3d 052d 163d
000003a0: b6f2 8e3e d262 6b3d fe2e b7bd ea96 d139
000003b0: 6098 823d f0bd d5bc 90ac 863e ba33 da3d
000003c0: 720a f5bd 9e39 41be 5fe4 b53d 3ee8 3dbc
000003d0: 1ade b23d 3836 bdbd 6bfe b13d 1acc 173d
000003e0: 433f 97ba e435 e2bd 4dda 58be 3587 023e
000003f0: fec5 a6bd 70a4 29bd c25d 7e3e f190 d63d
0.0599316 0.0785146 -0.055742122 -0.25289744 -0.25569198 -0.09492882 0.064179525 -0.24635233
0.051194046 0.12933218 -0.18554316 0.1835032 -0.023548644 0.055970676 -0.05484811 -0.120043464
-0.22950576 -0.2940667 -0.014460326 -0.12580651 0.17910479 0.03504317 -0.09984688 -0.2594217
0.1247475 0.16866192 -0.09430696 0.010270418 0.184774 0.12383963 0.10440479 0.2298503
-0.10436504 -0.2018695 -0.2236486 0.21194324 -0.09784826 -0.08580577 0.06520122 -0.0339568
0.11793912 0.18790448 -0.02270768 0.02411507 0.055308007 0.1296577 0.22454162 -0.011376393
0.00040435357 -0.032465823 -0.058005475 -0.08685415 -0.22451691 -0.25602895 0.06777382 0.1628677
-0.10684481 0.09154566 0.17848259 0.059370153 -0.10066875 -0.1863747 0.04008496 -0.03030033
-0.035199713 0.12902103 -0.03723218 -0.24826036 -0.24832015 0.029302174 0.19782509 -0.2801776
-0.05942675 0.05831328 -0.089723244 0.028931208 0.024682453 -0.053071715 0.016277606 -0.14376327
0.082835525 -0.082049586 0.045324724 -0.0127321165 -0.10143909 0.2622126 -0.096554436 -0.24894579
-0.34871835 -0.046307337 -0.07962173 -0.17960891 -0.17598793 -0.014974742 0.0028144268 0.07224639
-0.18146275 0.15855832 -0.024800083 0.07781156 0.122312844 -0.064046286 0.0984639 0.20143642
-0.10629575 0.10323256 0.3407685 0.13966997 -0.13976894 -0.028999753 -0.0570076 0.049722172
-0.16590784 -0.22499976 -0.2099375 0.032342102 0.011854385 0.05523335 -0.23297183 -0.13411032
0.27041683 0.35219127 0.26228786 -0.13745968 -0.002440079 -0.061220124 0.12008691 -0.2112332
-0.1398151 0.2353195 0.12909459 0.11480232 0.15895796 -0.21274784 -0.3079579 0.051631913
-0.061758738 -0.007906042 -0.21114872 -0.1268197 -0.09337303 -0.062779255 0.024556318 -0.06713346
0.24380876 -0.096285 -0.21685266 -0.09900826 -0.14930798 -0.026602566 -0.26552892 -0.11569049
-0.1544305 -0.03363014 0.26075676 0.0238434 0.15489922 -0.022238893 -0.04795915 -0.13122462
-0.061213244 -0.2847698 0.23257613 0.22199483 0.06658451 -0.030491 -0.23683351 -0.12996328
0.1337042 -0.15116517 0.071297504 -0.0055933846 -0.19713311 0.051042315 0.10259426 -0.26263645
0.16323417 0.07087086 -0.19840063 0.07447801 -0.0073062135 0.15867497 -0.3091686 0.17647614
-0.091649376 0.11008861 -0.15474886 0.10962202 0.031712398 -0.040434323 -0.046997614 0.09134454
-0.12827267 0.023246257 0.052106246 -0.10023887 0.05944243 -0.045566943 -0.2966919 -0.13193198
0.09052306 -0.06464996 0.1492253 -0.2008491 0.15134059 -0.38429594 -0.054333568 0.06359331
0.052215304 -0.10008293 -0.053710554 -0.19464764 0.14370441 -0.26317495 -0.2209061 -0.061747413
-0.19125047 -0.1986274 0.161133 0.12069672 -0.09215206 -0.14871544 -0.03917666 0.16711755
-0.13661988 0.045968544 0.08443043 0.22914872 0.2888687 0.11861216 0.0761298 0.036664028
0.2791955 0.05746729 -0.0894451 0.00039976026 0.063767195 -0.026091546 0.2630353 0.10654397
-0.11964883 -0.18869635 0.08881449 -0.011591015 0.08733769 -0.09238857 0.086911045 0.03705988
-0.0011539239 -0.11045435 -0.21177025 0.1274689 -0.08143233 -0.041416585 0.24840453 0.10476864

b3.bias f4 [64]
00000000: 0d2b 403d c7bd b23d 5b4b 20bd 5b5c b8bc
00000010: 25a4 1d3d 56e5 83bd 5419 503d 6d2f 7a3c
00000020: 8f1a e7bd d748 59bd ff1d cebc c036 b33d
00000030: daa0 303d 815c bb3d 1e47 a1bd 07e9 aebd
00000040: a98a 4a3c dcf6 fabc 1b1d 973b 6782 0f3d
00000050: d760 2dbd 3dff 1cbe 90d8 8ab8 c2dc 8d3d
00000060: 3695 a23d 75d9 ecbd c777 5dbe bfa6 a2bd
00000070: 0a01 dc3d bcf6 1ebd e7e5 8d3c 5b38 b9bd
00000080: 9db9 adbd d062 82bd fc7d bcbb 6df7 723d
00000090: a32f 2ebc 2a59 b3bd 00f5 c43c 2965 d4bd
000000a0: 9f96 37bd 5054 e73b ad08 953d 5753 da3d
000000b0: 5958 a8bd 2408 dfbd b9c7 893d 580d dbbd
000000c0: 743b c9bd 0c24 99bd 9dd3 0dbd b4b1 493c
000000d0: 570b 223d bd6d 7a3d 96da 20bc dc32 b4bd
000000e0: 80ee a03c 74d0 333d 4dd2 82bd 5bc6 ebbc
000000f0: c5ae ecbd 1e31 123d fcbc acbd 99be c9bd
0.046916056 0.087276034 -0.039134365 -0.022504976 0.03848662 -0.06440227 0.050805405 0.015270096
-0.112843625 -0.05304798 -0.025160788 0.08750677 0.04312215 0.09148503 -0.07874893 -0.0854054
0.012362161 -0.03063529 0.004611624 0.03503647 -0.04232868 -0.1533174 -6.620691e-05 0.06926872
0.07938616 -0.11564914 -0.21627723 -0.079419605 0.10742386 -0.038809523 0.01732154 -0.09043952
-0.084826685 -0.06366503 -0.005752323 0.059317995 -0.010631475 -0.08757241 0.024042606 -0.10370857
-0.044821378 0.0070596114 0.072770454 0.10660427 -0.08219976 -0.108902246 0.06727547 -0.106959045
-0.09825793 -0.074775785 -0.03462564 0.012310434 0.039561596 0.06113981 -0.00981774 -0.08798763
0.019644976 0.04389997 -0.06387768 -0.028781107 -0.11556772 0.035691373 -0.084344834 -0.09850807

c1.weight f4 [64, 64, 2, 2]
00000000: bff2 41bd b233 103d 374b 88be 107e c83c
00000010: 4cdd b2bb 7d8f a13d 4b98 53be f08b cebb
00000020: 8979 943d fc63 acbc e49b d2bd 0b75 9d3d
00000030: f021 f43b 2124 383d c608 45ba 1fb5 cf3c
00000040: 8ad9 ed3d 32ce 8dbe aa59 17be 77ac 74be
00000050: fb91 e03d 89d9 00be 08e9 ed3c 4fe5 fbbd
00000060: 1b38 6c3e 5764 8ebe 2015 ef3d 7656 0bbe
00000070: 1c36 b23d d2e5 133d f6a4 88bd 0df7 73bd
00000080: 9d85 fdbd a2ec 1c3e e18c 8a3d 5046 ba3e
00000090: 55a6 373e 9223 65be e626 3d3e dce8 72be
000000a0: 6879 983d 1392 66be 8475 91be 45c9 e0bd
000000b0: dbb2 e8bd d921 303e 3966 b83d 38f0 103e
000000c0: 6fad 6c3e 7010 a4be 5e83 7ebe d858 77be
000000d0: 2919 453d 32e0 e6bb d88a 02be 92a3 cf3c
000000e0: 2ece f43c 3eae f83c 04f1 0dbd ba26 99bd
000000f0: 59d9 823d 763e aabc 22e7 8cbd 59d8 933a
00000100: 525a d03d 39c5 88be 3dae 0ebf 01f3 24be
00000110: c153 b7bd 2809 81bc d6c4 653c fe8a c23c
00000120: bdfc 273e c8c9 62be 95aa 59bd a122 05be
00000130: 40a0 e8bd 361c 2b3e 0537 c9bd 4d0d 4b3d
00000140: b140 1e3d a139 2a3d 61dc 2fbd db25 ecbb
00000150: 1bc2 b83e e418 c9bd 7a12 0fbd 2b36 09be
00000160: 939d 4e3e 4f7f 25be fe52 133d a3be fcbd
00000170: e630 233b 5177 223e c05b 4cbe 314d 2e3d
00000180: 6568 a83b f122 50be ac2c 84bd 8c56 4abe
00000190: 05b8 e93c dd8a 9dbd b039 023e 5d65 0bbe
000001a0: c079 413e 9f6f 96bd 6036 d8bd 7710 17bd
000001b0: b405 13bd 1741 3ebd 68f3 663d 8cde da3c
000001c0: fb36 a9bd c18d 4d3d a268 a0bd 7def 3b3d
000001d0: 9d27 183e 1738 cfbd 46a9 71be f343 11be
000001e0: 36fc 3fbe a51f a2bd 79c3 053e 55a1 753e
000001f0: cd73 0f3d 0054 99b8 8ae2 ccbb 9cab 8dbc
00000200: 7981 04be 1992 3b3e aab4 1a3d bc11 8c3e
00000210: 13e2 5e3d 6c63 b53b 861a 69bd 2066 a1bc
00000220: ba32 923e 09e7 cebd 6685 57bc e63f 5d3c
00000230: 82f2 6b3d 03cb 33be 5888 373a 904c eabd
00000240: 7c45 253e f33b 9dbc 8d3d 373e a3e0 92bd
00000250: f227 26bc f5c9 143c a1b6 e13d 7f89 acbb
00000260: f3d9 e23b d2ac 2c3e 33f2 963d 36d7 633e
00000270: 1b9d 393c d909 4bbd 2730 c63c 5c9b 4f3d
00000280: aa66 a9bb 21ed 7abc d0d1 ae3d eac4 11bc
00000290: 83b8 29be 4fa6 b13d ecdb 75bd 9244 023e
000002a0: f1dc e4bd 7b4d fe3c f4f9 f43d 373f 083e
000002b0: 3a81 3fbe 4458 113e 1c49 e5bd 79aa f23d
000002c0: c227 433d 6141 3ebd eb8d 35ba 103f e33c
000002d0: 30a8 dfbb 742b 6cbd 3249 1f3d 5e4f 993c
000002e0: bbf5 6f3e c417 abbe c777 073c 5c41 bbbd
000002f0: 1e1d 533e ce8f 54be ad79 b13d 9ff5 8cbe
00000300: e388 eb3d 2e59 e7bd f6c6 973e 0c48 43be
00000310: d607 56be 0bbd 013b e5c5 4f3d 7a49 a53c
00000320: 57ea 053e 1aec 0cbe c4bd cbbc 0bf6 2a3d
00000330: 0579 4f3e e6f3 26be d6f7 9f3e d203 18be
00000340: 8a74 933d fed6 01be 66ed ddbd 1dcc 0ebe
00000350: a15b ca3c c01a 81bd 273f 9cbe 1d75 2ebd
00000360: 7146 1d3e 7140 a53d 45fa b5bd c35c 0a3e
00000370: 07ed 02bd 35ff 38bd baec 643d 22b3 8dbd
00000380: bb0b 343e a75c 40be 4bfa 1a3e 5f79 e3bd
00000390: a001 3fbe cee4 373e 91b3 753a 3b90 483e
000003a0: 6317 9d3c 217d 693d 0db0 fe3c 4198 04bc
000003b0: d14c 813d a7f1 ffbc 0b8c 4cbd bbc5 85bd
000003c0: 66f3 533d 06f5 e5bd a550 063c 00a2 15be
000003d0: a06f 2a3e eef6 35be cee6 35bd 5f82 3abe
000003e0: 8db3 41bc c2b4 253d 735e 7d3d 5a75 68bc
000003f0: b1a7 0d3e ff37 6b3d 245a 1b3d 9bfd 023c
-0.04735064 0.03520555 -0.26619884 0.024474174 -0.0054585095 0.07888696 -0.20663564 -0.006303303
0.072497435 -0.02104377 -0.1028364 0.0768834 0.0074503347 0.04495633 -0.0007516261 0.02535492
0.11613758 -0.27696377 -0.14780298 -0.23893915 0.109653436 -0.12582983 0.029041782 -0.122995965
0.23068278 -0.27810928 0.11673951 -0.13607201 0.08701727 0.036107846 -0.06672089 -0.059561778
-0.12379 0.15324643 0.06765152 0.3638177 0.17934544 -0.2237685 0.1847187 -0.23721641
0.074450314 -0.2251666 -0.2840997 -0.10975889 -0.11362239 0.17200412 0.090038724 0.14154136
0.23113035 -0.3204379 -0.248548 -0.24154985 0.048119698 -0.007045769 -0.12748277 0.025346551
0.02988347 0.030356523 -0.03465368 -0.0747809 0.06389112 -0.020781737 -0.068800226 0.0011279687
0.10173477 -0.2671297 -0.55734617 -0.16108324 -0.08951522 -0.015751436 0.01402398 0.023747917
0.16405006 -0.22147286 -0.053141195 -0.13001491 -0.1135869 0.1670998 -0.09824947 0.04957323
0.038635913 0.041558865 -0.04293478 -0.007206661 0.3608559 -0.09819201 -0.03492973 -0.1339957
0.20177297 -0.16161846 0.03596782 -0.123410486 0.0024900972 0.15865828 -0.19956875 0.042554084
0.005139398 -0.20325829 -0.06453833 -0.19759578 0.02853013 -0.07692502 0.12717319 -0.13612886
0.188941 -0.07345509 -0.10557246 -0.036880936 -0.03589411 -0.046448793 0.056384474 0.026717447
-0.0826244 0.050184015 -0.07832457 0.04588269 0.14858861 -0.1011812 -0.23599729 -0.14186077
-0.18748555 -0.07916192 0.13062848 0.23987325 0.035022546 -7.311255e-05 -0.0062525915 -0.017293744
-0.12940015 0.1831745 0.03776995 0.2735728 0.05441482 0.0055355337 -0.05691006 -0.019702017
0.28554326 -0.1010266 -0.013154363 0.013504004 0.05760432 -0.17557912 0.0007001213 -0.114403844
0.16139787 -0.019193625 0.17894574 -0.07171752 -0.01014136 0.009081353 0.11021162 -0.0052654142
0.006922954 0.168628 0.073704146 0.22250065 0.011328961 -0.04956994 0.024192883 0.05068527
-0.005169709 -0.015315325 0.08536112 -0.008897046 -0.16574292 0.08674299 -0.060024187 0.1272147
-0.11174954 0.031042805 0.11961737 0.13305365 -0.1870164 0.14193827 -0.11195585 0.11848921
0.047645338 -0.04644907 -0.00069257495 0.027740031 -0.0068254694 -0.057658628 0.038888164 0.018714603
0.23433582 -0.3341657 0.008268303 -0.09143326 0.20616576 -0.20757982 0.08665786 -0.27531144
0.115007184 -0.112963066 0.29643983 -0.19070452 -0.20901427 0.0019796516 0.050725836 0.020176638
0.13077675 -0.1376194 -0.02487076 0.04173855 0.20261009 -0.16303977 0.3124377 -0.14845207
0.071999624 -0.1267967 -0.10836296 -0.1394505 0.024701895 -0.0630393 -0.3051693 -0.042592157
0.15358903 0.08068932 -0.08885626 0.13511948 -0.03196433 -0.04516526 0.055889823 -0.069189325
0.175826 -0.18785344 0.15134542 -0.11107134 -0.18652964 0.17958376 0.0009372766 0.1958627
0.01917619 0.057004098 0.031089807 -0.008092941 0.0631348 -0.031243159 -0.049938243 -0.06531855
0.051745795 -0.11228375 0.008197938 -0.1461258 0.16644144 -0.17769977 -0.044409566 -0.18213795
-0.011822593 0.040455587 0.061857652 -0.014188135 0.138335 0.05742645 0.03792776 0.007995035

c1.bias f4 [64]
00000000: a824 6f3d 62d7 5abd 6e2a c53c 0d30 c7bc
00000010: d99e f0bd f5c9 88bd 538b d0bb 6bdd 12bd
00000020: ead1 0c3d 31a8 773c 549f 8f3d e35c 33bd
00000030: de5c d7bd fd06 e13c 02e4 4dbd 77da 1bbe
00000040: 86df 38bd 0b9a 913c 4b83 25bd db69 903c
00000050: ce6e 93bd fe11 02bd a524 0abd d503 01bd
00000060: 2ffa 573d d1af a5bc f10d 82bd e7c8 133d
00000070: b0c9 69bd d591 17bd 0191 e43c b73a 123d
00000080: e81e 5fbd bc80 593c e02a 9a3c 58e5 acbb
00000090: 45ad 8abc e687 8bbd 8184 fabc d875 8dbd
000000a0: 7a09 7d3d d754 94bd 91be 113d 6ce3 b1bd
000000b0: b277 243d b4d1 7f3d 2db1 2bbd 90c2 febd
000000c0: f40d 53bd 6831 05be 6bca 6fba b3f7 0b3c
000000d0: 21fe c7bc 1654 06be 59f9 773d 3654 adbd
000000e0: 4127 563d 7016 5ebd 0fe7 61bb db0e 0bbd
000000f0: 3354 f7bb 3366 4c3c 529a 3a3d 7d1e 64bd
0.058384567 -0.05342806 0.024068084 -0.024314905 -0.11749048 -0.06679145 -0.006364265 -0.035855692
0.034379877 0.015115784 0.07012811 -0.043789756 -0.1051576 0.027469153 -0.050266273 -0.15220056
-0.045135044 0.017773649 -0.040408414 0.0176286 -0.07198869 -0.03175544 -0.033726353 -0.031497795
0.052728828 -0.020225437 -0.06350315 0.036080267 -0.05707711 -0.03700431 0.027901175 0.035700526
-0.054472834 0.013275322 0.018819273 -0.0052763633 -0.016928324 -0.0681303 -0.03058076 -0.069072425
0.061776616 -0.072427444 0.03558213 -0.086859554 0.040153213 0.062455848 -0.041917015 -0.124394536
-0.05152698 -0.13007128 -0.0009147289 0.008542943 -0.02441317 -0.13118014 0.06054053 -0.084633276
0.05228353 -0.054220617 -0.0034469997 -0.033949714 -0.007547879 0.012475538 0.045557328 -0.05569314
