nets/model_epoch_61.pth (torch, 648794 bytes, 25 tensors)

a1.weight f4 [16, 5, 3, 3]
000000 50 5a fe 3d b3 2e f8 3d 2d 93 ed bc 4a 94 01 be
       0.124195695 0.12118282 -0.029000843 -0.12654224
000010 67 50 af bd 08 66 b7 3e ef 17 1d be c9 35 ae 3b
       -0.085602574 0.3582003 -0.15341161 0.0053164703
000020 c4 d1 cd be 37 53 90 bd 12 18 c2 bd 61 dc 21 be
       -0.401991 -0.07047122 -0.09477247 -0.15806724
000030 bf da e5 3c 2d af 04 be 1c 54 59 be 0a 26 af be
       0.028058408 -0.1295745 -0.21223491 -0.3420871
000040 99 a4 3d be 03 c3 e1 bd be 2d 58 3d fe 2f d5 bd
       -0.1851982 -0.11023524 0.052778 -0.104095444
000050 95 65 81 bb 82 cd 38 3d fc 60 a3 be 87 14 6b 3c
       -0.003948877 0.045117863 -0.3190993 0.014348156
000060 b4 5e f8 bd b1 0e 0d be ca 56 32 bd 1a db 69 be
       -0.12127438 -0.13775136 -0.0435398 -0.22837487
000070 1f 1d b1 bd b4 a8 b7 3d 07 6c 55 be c5 1a 23 bd
       -0.086481325 0.089677244 -0.2084199 -0.03982045
000080 c3 0b 02 bf 33 c9 e3 bd 05 70 3f be e6 5f 04 3e
       -0.50799197 -0.1112236 -0.18695076 0.12927207
000090 5e 38 2c be bb c6 d4 bd 1c 91 34 be 98 85 ef bc
       -0.16818377 -0.10389467 -0.1763348 -0.029238507
0000a0 38 75 57 be f4 f9 20 be 08 2c 30 bc 42 d9 f2 bd
       -0.21040809 -0.1572035 -0.010752685 -0.11857845
0000b0 b4 49 3d bd 2f 92 4c 3e 34 ff ff bd ba ca 61 bd
       -0.046212867 0.1997764 -0.12499848 -0.055124976
0000c0 e9 a3 b5 3e ac ad 17 3d bd 8b b8 3e d2 55 60 3a
       0.35476616 0.03703086 0.36044112 0.000855771
0000d0 52 64 0f 3f fe cc 75 be 84 99 b0 3d ff cd a7 3e
       0.5601245 -0.2400398 0.08623031 0.3277435
0000e0 4d c6 8e 3d d7 fa a9 bc bb 2f 44 3e ca da a7 bc
       0.069714166 -0.020749493 0.19158833 -0.020490069
0000f0 b2 a4 07 3e 49 2c 20 bf 1b 3d 54 3d 3a 5c 39 3e
       0.1324642 -0.62567574 0.051816087 0.18101588
000100 f6 76 84 bd 3f 14 b1 bd 07 f9 c6 3e 30 a5 98 3d
       -0.064680025 -0.0864644 0.38861868 0.07453382
000110 1d e5 d9 be 56 50 02 be 0a 10 2d be 97 23 10 3e
       -0.42557612 -0.12725958 -0.1690065 0.14076076
000120 64 a5 2f bc fb 37 c5 be f9 d8 e6 be 41 1a 1d bc
       -0.010720585 -0.38519272 -0.45087412 -0.009588779
000130 7c 7d ab 3e c5 b4 08 3e 08 d8 15 3e 78 25 2c 3e
       0.33494174 0.13350208 0.1463319 0.16811168
000140 1a 76 04 bf 6b 75 58 bc b0 6f b1 3c 1b 13 4d bc
       -0.5174271 -0.013211588 0.021659702 -0.012516762
000150 e5 dd ab 3d 64 80 01 3d 4e cc d9 bc 74 49 94 bd
       0.083919324 0.031616583 -0.026586678 -0.072405726
000160 8a 3d 98 bd 9c 7a 13 3d b1 ea a9 be 4e 7a cb 3d
       -0.07433613 0.0360056 -0.33186868 0.09935437
000170 25 ae c8 3e 54 23 31 3d e2 ae 79 3e 8e 56 a5 3b
       0.39195362 0.043246582 0.24383119 0.0050457185
000180 c3 79 19 3f 33 b1 f9 3e bf 65 f0 3d 00 60 37 3e
       0.5995142 0.48768005 0.117381565 0.17907715
000190 3f f8 5c 3e 48 d7 53 3e 63 c1 cb bc 49 2b 00 bd
       0.21579073 0.20687592 -0.024872487 -0.03129128
0001a0 f5 14 d7 3c 3a 9a c0 bd c7 18 18 be fb d1 3b 3d
       0.02625511 -0.094044164 -0.14853202 0.04585455
0001b0 78 46 87 3e 35 bf f9 3e f2 88 75 3e c2 85 cc 3d
       0.2642095 0.48778692 0.23978022 0.0998645
0001c0 cd 21 74 be 39 1d b1 3e df 46 ad be a4 c4 d0 bd
       -0.23841019 0.34592608 -0.33843133 -0.10193756
0001d0 3e 44 32 3e 65 02 d0 bc 4b 1f 9f be 7b d4 80 be
       0.17408845 -0.025391767 -0.31078562 -0.2516211
0001e0 54 51 11 3d 14 13 39 be 82 59 85 bb 2d 7c 8f 3d
       0.03547795 -0.18073684 -0.004069508 0.070061065
0001f0 51 f8 16 3d ef 45 b2 be 89 fe a0 bc 48 38 da 3c
       0.036857907 -0.3481898 -0.019652622 0.026638165
000200 f5 58 a4 3b c2 5f eb bc 2d 57 ec 3d 52 68 e5 bd
       0.0050154873 -0.028732184 0.11540065 -0.11201538
000210 8b ae 56 bc 8e 19 75 bd 8b bc 6e 3d 80 6f 19 3e
       -0.013103138 -0.059838824 0.058285277 0.1498394
000220 4d 73 e2 3d 91 6e 91 be 56 6a 30 3e 0e 4f 0e 3e
       0.11057148 -0.28404668 0.17228064 0.13897344
000230 d3 30 b1 be c7 2f ac 3d ce ea b4 be 18 80 9d 3e
       -0.34607562 0.0840755 -0.35335392 0.3076179
000240 e1 76 34 be 85 dc f6 be 1d 7e 83 be 7a 4f bb be
       -0.17623474 -0.48215118 -0.25682154 -0.36584073
000250 88 77 f8 bc 25 f4 32 bf ea 9c ed 3d 19 6e 60 3d
       -0.030330434 -0.69903785 0.116021946 0.054792497
000260 57 e1 0b bd 62 d4 08 bd 23 a9 e8 3d 82 7c de 3c
       -0.034150448 -0.03340567 0.11360385 0.02715898
000270 12 be 25 be 0b 32 a6 bd f6 db ac be 7f a4 49 be
       -0.16185787 -0.08115014 -0.33761567 -0.19691657
000280 09 52 44 be 1c 55 c6 3e cc 77 69 3e 0c 02 91 3e
       -0.19171919 0.38736808 0.22799605 0.28321874
000290 94 cd 82 3e 79 a9 bf 3e 3d 63 d1 bd 84 9a 19 3f
       0.2554747 0.37433985 -0.10224006 0.600014
0002a0 d8 a1 5a 3e 68 a6 59 bd 88 e4 6e be b1 f6 f8 bc
       0.21350801 -0.053137213 -0.23329365 -0.03039107
0002b0 5c 63 fe 3c 79 6d 83 3d 98 21 c2 bb 9a f3 94 bc
       0.031053238 0.064173646 -0.005924415 -0.018182565
0002c0 4c 33 39 3c c9 d8 68 3d 48 dc 3d bd ba b6 5f bc
       0.011303734 0.056847367 -0.046352655 -0.013654405
0002d0 28 d6 4b 3e d1 26 a4 3c de 71 85 be ab 5d 26 3d
       0.19905913 0.02003804 -0.26063436 0.040616672
0002e0 4f 8a 29 3e 9f 30 a6 3e 07 41 14 3d 08 44 57 3e
       0.16556667 0.3245897 0.036194827 0.21022046
0002f0 09 f7 84 3e aa 0b 39 3e e2 6d 0b be 3a bb 5b 3d
       0.25969723 0.18070856 -0.13616136 0.05364535
000300 c6 5e 60 be 64 a8 36 bd 85 ca 28 be 89 e9 37 3e
       -0.21911153 -0.044594184 -0.16483505 0.1796018
000310 d7 12 6b 3d a3 34 34 be 7f f2 fe 3d a6 fd 1b 3e
       0.057391014 -0.17598204 0.12448596 0.15233478
000320 0e 60 f5 3e 3f 81 87 bd 9e 7c 92 3b d9 03 32 be
       0.47924846 -0.066164486 0.004470422 -0.1738428
000330 df 3d 9b be d3 78 a3 3e 24 3a b6 bc 1c a5 2e be
       -0.3032064 0.3192812 -0.02224452 -0.17055172
000340 9f 16 ee be 00 80 de be 43 74 e7 3d 31 15 86 3d
       -0.46501634 -0.4345703 0.11301472 0.06547011
000350 87 e6 23 be 3f f1 51 be 9d 58 2c bd 6d af 5f 3d
       -0.16005908 -0.20502184 -0.042076696 0.05461066
000360 0b 69 1a bc 88 35 bd 3c d7 03 4d bc 37 52 31 3d
       -0.009424458 0.023096815 -0.0125131225 0.043291297
000370 4f 75 dd bd 53 36 02 3d 70 58 4b 3c f2 3a a9 3d
       -0.108133905 0.03179009 0.012411222 0.08263196
000380 2b 0e 5a bd 7e 97 89 bd 6a d7 81 bd de c3 62 3e
       -0.053236168 -0.06718348 -0.06339915 0.2214503
000390 37 56 b5 3c 77 3b e0 bd c8 7f 99 bd 4a 07 4e 3e
       0.022135837 -0.10948842 -0.074950755 0.20119968
0003a0 0c fd 1a be 3c 57 cf 3e a0 28 29 bd b6 a8 de 3e
       -0.15135592 0.40496242 -0.04129851 0.4348809
0003b0 42 e2 90 3e 8d 46 93 3c a9 a3 31 bd f1 c8 b8 be
       0.2829762 0.017977977 -0.04336897 -0.36090806
0003c0 af ea 83 3d ba e5 70 3e fc f9 1c bf ed ea 0d 3d
       0.06441247 0.23525134 -0.61318946 0.03464787
0003d0 3d ee 99 3d b9 cd e3 3d ec 27 50 be db 62 93 3e
       0.075161435 0.11123223 -0.20327729 0.28786358
0003e0 3f f8 c4 be 47 c7 3e be 5c b4 20 be a4 7e e3 be
       -0.38470647 -0.18630706 -0.15693802 -0.44432557
0003f0 e8 d3 94 3e 33 88 1a 3c 15 3f d3 3d c1 98 df 3c
       0.29067922 0.0094318865 0.10314766 0.027294518

a1.bias f4 [16]
000000 0e 50 19 3d 19 29 e6 bd 9f 9b 8e bd 68 7c 23 be
       0.03742986 -0.112383075 -0.06963276 -0.15965426
000010 0f bc 28 3e 32 91 0b be 07 01 43 3d e9 17 04 be
       0.16477989 -0.13629606 0.0476084 -0.12899746
000020 e2 6a 28 be b1 40 cb 3d 5f 93 4c bd 40 1d e7 3d
       -0.16447023 0.09924448 -0.04994523 0.11284876
000030 fd 08 b4 bd ca cf a2 bd 63 e6 94 3e a8 bf 7a 3e
       -0.08790777 -0.07949789 0.2908202 0.24487174

a2.weight f4 [16, 16, 3, 3]
000000 ed 2b 99 bc 98 39 84 be 90 66 35 be 12 2b bc 3e
       -0.018697703 -0.2582519 -0.17714906 0.3675161
000010 d6 2e 60 3e b9 c6 bd bd c1 9d c0 3d ec db 38 be
       0.21892866 -0.09266419 0.09405089 -0.18052644
000020 17 f4 23 3e c2 dc 49 3c 68 4f 1d 3e 71 d7 bc 3c
       0.16011082 0.012320699 0.15362322 0.02305195
000030 0f 58 0e be ba 51 47 3e b5 4c 64 be 8c 47 0d bd
       -0.13900779 0.1946477 -0.22294886 -0.03449206
000040 8b 09 09 3e ca 68 cf bd 7c 53 c7 bd 8c 92 66 be
       0.13382547 -0.10127409 -0.0973272 -0.2251684
000050 a2 04 b9 be 64 97 e2 be 1b 6f d1 bd 7a 71 93 bc
       -0.36136347 -0.44256127 -0.1022627 -0.017998446
000060 9f ba 09 be 1d 27 e6 be f8 b4 ec 3d 97 f2 47 bf
       -0.13450097 -0.44951716 0.115579545 -0.7810454
000070 5f 72 a1 3e e5 5f b9 be 48 82 22 3f cb d5 83 be
       0.3153257 -0.36205974 0.63480043 -0.2574905
000080 8c 34 66 3e 1f 5a d5 3d e1 9d 81 3d ab f9 bc 3d
       0.22480983 0.1041758 0.06328941 0.09227308
000090 41 67 31 3c a9 81 d5 be 65 49 80 bd 3a 5d 4c 3d
       0.01082784 -0.41700485 -0.06263999 0.049893595
0000a0 a5 1d a4 ba 38 64 4e be e9 bf 11 bf 68 87 63 be
       -0.0012521042 -0.20155418 -0.56933457 -0.22219622
0000b0 95 0e 58 be b8 4e a3 3d 0e e4 86 be 0d 3e 1a be
       -0.21099313 0.07973999 -0.26345867 -0.15062733
0000c0 23 c8 7e 3e 66 ac 68 3d 90 70 3b 3e 3b 3f d2 be
       0.24881034 0.056805037 0.18304658 -0.41063866
0000d0 56 91 35 3e 41 92 27 3e 95 a2 79 be 8d c1 4d 3d
       0.17731223 0.16364385 -0.24378426 0.050233413
0000e0 07 64 32 3d 1d 82 d1 3e 32 4a b2 3e bc d3 5a 3d
       0.043552425 0.4091958 0.34822232 0.053424582
0000f0 38 ab e0 3d 65 87 ab bc 1d 53 7c bb 46 ef a8 3e
       0.109701574 -0.020938585 -0.0038501688 0.3299505
000100 cc 3f 5f be 51 59 b2 bd a7 07 bd be 31 aa a5 bc
       -0.2180168 -0.08708442 -0.369199 -0.020222755
000110 19 f9 08 be 32 51 15 be da 03 eb bd 1e 8c 89 3e
       -0.13376273 -0.14581755 -0.11475344 0.26864713
000120 45 8d 83 3e b9 88 0a 3e 36 d2 0a 3d 05 2f 2f bd
       0.25693718 0.13528718 0.03389188 -0.04276945
000130 81 df d7 3b 53 a6 71 3e dc 6f 6a be f0 4b ea 3e
       0.006587923 0.23598604 -0.22894233 0.4576106
000140 22 ae 07 3e be 08 7c 3d 88 62 81 3e e1 7f 5a bd
       0.1325002 0.061531775 0.25270486 -0.05334461
000150 1d 9f 47 be ce 65 58 3e d5 d2 02 3f ce 90 0e 3e
       -0.1949429 0.21132585 0.51102954 0.13922426
000160 f4 a1 57 3d 9f 2a 39 3e d0 b8 34 be cc 35 a6 bd
       0.052644685 0.18082665 -0.17648625 -0.0811573
000170 e3 5f 35 be fa 92 cc 3d be 58 70 3e cc 48 c0 be
       -0.17712359 0.09988971 0.23471352 -0.3755554
000180 97 5a 99 3d fb e2 05 3d dd 02 4c 3e d8 5e cd be
       0.07487982 0.03268717 0.19922967 -0.40111423
000190 65 73 5c bd 12 37 c0 bc 22 f6 45 be 0a 30 42 be
       -0.053820986 -0.02346376 -0.19332173 -0.18963638
0001a0 e6 a0 4a 3c 61 66 15 3f 17 d2 52 3d 72 78 32 be
       0.012367463 0.5835934 0.05146989 -0.17428759
0001b0 4e 86 24 bd 61 f6 ca bd bc 2d 7c 3d 86 6f 37 3c
       -0.040167145 -0.09910274 0.061567053 0.011196023
0001c0 03 13 16 3f 96 8e b4 be c5 8d 11 3f 3d 6f 7f 3e
       0.5862276 -0.35265034 0.5685695 0.24944778
0001d0 1e 34 5a be 52 92 67 3e 42 fa dc be c5 98 0c bf
       -0.21308944 0.2261441 -0.43159682 -0.5492061
0001e0 06 38 b7 3c 77 1f ee 3e 98 12 42 3e 0c 44 74 3e
       0.022365581 0.4650838 0.18952405 0.23854083
0001f0 24 4d 56 be ce a7 41 3d d7 28 c9 bd 74 a4 32 bf
       -0.20927864 0.04727917 -0.09822243 -0.69782186
000200 c8 96 ea bd 41 3a a4 bd 0b 9d 9c bd 76 5d a2 be
       -0.114545405 -0.080189236 -0.07647141 -0.3171193
000210 2d 71 f6 bd a0 e2 45 be 20 9a 16 3e 3b 3c c0 be
       -0.12033305 -0.19324732 0.14707232 -0.37545952
000220 dc 7f 56 bc 96 c7 3a be d9 44 cf bd 41 c7 5b be
       -0.0130920075 -0.18240198 -0.101205535 -0.21462728
000230 d5 c3 19 3f de f0 8d be e0 8b ce 3c 3e 8a d1 3c
       0.6006444 -0.2772283 0.025213182 0.025578614
000240 e5 67 cf bd 0a b9 ac bc 63 df 1f 3c fd 06 54 be
       -0.10127238 -0.021084327 0.009757849 -0.20705791
000250 c4 49 93 be fa dc 09 be 6c 1e d0 bd 0a 74 fa 3c
       -0.28767216 -0.13463202 -0.101620525 0.03057291
000260 67 2b 35 be f2 26 be bd 74 4e b7 bd 1b 15 61 3e
       -0.17692338 -0.09284772 -0.089505106 0.21980707
000270 d9 24 db bd ed 89 20 be 3d 05 af 3c f5 6a a1 3d
       -0.107003875 -0.15677615 0.021364802 0.078817286
000280 13 32 de 3d cd de d3 3d 65 30 0e 3e f8 79 a9 bc
       0.10849395 0.1034523 0.13885649 -0.020688042
000290 31 74 40 3e 32 be 10 bd 20 e1 4e 3e 29 4e 26 3e
       0.18794324 -0.035337634 0.20203066 0.16240753
0002a0 db 41 cd bb 83 2f c1 3d df 55 99 3d d8 5d 46 be
       -0.006263954 0.0943289 0.07487082 -0.19371736
0002b0 41 79 47 3e ff b0 a0 3e 5f 16 d5 3b 83 91 8f 3a
       0.19479848 0.31385037 0.006502911 0.00109534
0002c0 6a 11 a2 bd 56 3d a2 3d 13 fe 21 be 28 7d b5 3e
       -0.07913478 0.07921855 -0.15819578 0.3544705
0002d0 c8 57 b3 3e ee e2 43 be db 10 4e 3e ad 01 29 3e
       0.3502791 -0.19129536 0.20123617 0.16504546
0002e0 5c 96 de 3d f6 22 96 bd 8a ca 52 3e fa 70 cb bd
       0.108685225 -0.07330887 0.20585075 -0.09933658
0002f0 0e 08 35 bd 5d c1 13 be 9a a2 13 3e a0 a7 51 3e
       -0.044197135 -0.14429231 0.14417496 0.204741
000300 3a e4 4e 3d 18 60 9c 3a 16 b1 b2 bd 0d a5 92 3d
       0.050510623 0.0011930494 -0.08725183 0.07160387
000310 c6 10 c3 3d 7f 43 26 be 63 29 7a bd 91 c9 c8 bd
       0.09524684 -0.16236685 -0.061074626 -0.09804071
000320 57 4a 13 be 73 52 dc bd 76 a8 a5 bc a5 58 1d bc
       -0.14383827 -0.107579134 -0.02022193 -0.009603654
000330 77 d1 eb bd 0b f1 4d be 55 f5 2d bb d2 ea bf 3d
       -0.115145616 -0.20111482 -0.0026543934 0.0937096
000340 e6 58 6b 3e ca e0 b9 3d d4 b4 36 be f0 f7 23 3e
       0.22983131 0.09076078 -0.17842418 0.1601255
000350 aa 2d d8 3b 94 38 01 3e 51 d6 12 bd 37 3d e3 3e
       0.0065972405 0.12619239 -0.03584892 0.4438264
000360 c1 63 b0 bd 5d 55 03 be cf ea d6 3d cd b4 cb be
       -0.086127765 -0.12825532 0.10494005 -0.39786378
000370 ee a5 04 3e 9c 97 af bd a6 9b 8a be 0f c3 b2 3e
       0.12953922 -0.08573839 -0.27071875 0.34914443
000380 fe 70 8b bd 0a 0a 74 bd 65 d3 9f bd e0 b3 e1 3d
       -0.06808661 -0.059579886 -0.07803992 0.110206366
000390 db 2c c6 3d 6c 19 a7 3d c0 ac 93 3d 17 c2 7f 3b
       0.09676524 0.08159146 0.07210684 0.0039025599
0003a0 31 5b c3 bd 0b ee 3d be 65 c1 39 3e 75 df 20 3e
       -0.09538878 -0.18547837 0.1814018 0.15710242
0003b0 41 f9 8b bd a6 07 85 3d 71 4f 80 be e5 fd 6b 3e
       -0.06834651 0.064955994 -0.2506061 0.23046072
0003c0 7a 7b 4d bd 1a ff 43 3e 5d 02 97 be 6f 7f 3a 3d
       -0.050166585 0.19140282 -0.2949399 0.045531686
0003d0 80 09 e2 3e 4e 73 0c 3e 26 6f 73 3c e6 d7 bf 3d
       0.44147873 0.1371586 0.014858043 0.09367351
0003e0 c8 fc 9a 3e a8 08 85 be 59 6d 74 be 61 70 66 be
       0.30270982 -0.25983167 -0.23869838 -0.22503807
0003f0 e1 8e a4 bd 6a 23 ba 3e 8a ab dd 3a a9 91 e8 bd
       -0.080350645 0.36355144 0.0016912085 -0.113559075

a2.bias f4 [16]
000000 7b 90 d6 bd 6a 5c 68 be 36 16 e4 bd 0b 13 e0 bc
       -0.10476776 -0.22691503 -0.11137049 -0.02735283
000010 cc ec 1b 3d 87 35 3b be ac ff 02 bc 94 22 78 bc
       0.038067624 -0.18282138 -0.007995527 -0.015144963
000020 19 82 0d 3e c8 03 12 be fe 7b 6d be bf d8 14 bd
       0.1381916 -0.14259255 -0.2319183 -0.036339518
000030 97 f3 51 be 2a 00 60 3d 4c fe 3e 3e 40 4d 12 3e
       -0.20503078 0.054687656 0.18651694 0.14287281

a3.weight f4 [32, 16, 3, 3]
000000 1e c9 4d be 3d 4b c6 3e 58 3d 06 bf 2b 48 d1 bd
       -0.20096251 0.38729277 -0.52437353 -0.10218843
000010 bc 87 f6 bd e8 44 e1 bd 1a 4c 30 bf 3c 10 e3 bd
       -0.12037608 -0.10999471 -0.6886612 -0.11087081
000020 46 98 52 3e 00 27 4e bd d6 48 b2 bd de e9 67 be
       0.205659 -0.050330162 -0.087052986 -0.22647807
000030 89 f8 33 bd 56 17 62 3e 39 e3 60 3e 80 f4 cc be
       -0.043938193 0.22079214 0.21961679 -0.4003029
000040 7f 56 58 be 6c 6e 06 bf 9d cb 25 3e 29 91 88 bd
       -0.21126746 -0.5251224 0.16190954 -0.06668312
000050 d5 8a 59 3e 0b a7 13 3e bd f9 65 3e 7b 5c 23 be
       0.21244366 0.1441919 0.22458549 -0.15953247
000060 28 67 44 bd ac 52 0b 3e 97 57 db bd 4b dc 99 be
       -0.04794994 0.13605756 -0.10710066 -0.30050883
000070 fb b6 5a 3e 78 b6 66 3e 24 c1 a8 3d da 42 ce bd
       0.21358864 0.22530544 0.08239964 -0.10071345
000080 be 27 1b 3e ea 67 0d be 8f e5 f0 bd 1d 73 41 3d
       0.15151879 -0.13809171 -0.11762535 0.04722892
000090 af 24 36 3e 2f 40 b0 3d 5d ae 45 be c3 77 94 bd
       0.17787431 0.08605992 -0.19304796 -0.07249405
0000a0 c8 1d c6 3e 4a 59 a2 bd ec ed 3b 3e 90 87 aa 3d
       0.38694596 -0.07927187 0.18352479 0.08326638
0000b0 ed 68 8c bd 55 24 30 3e ba 98 68 bd d6 8d 0f be
       -0.068559505 0.1720136 -0.056786276 -0.1401895
0000c0 e7 42 a6 3e 89 86 54 bd b4 56 ca 3e 05 e8 f7 be
       0.32472917 -0.051886115 0.39519274 -0.48419204
0000d0 cc de 64 be c4 ba 04 3e 75 c6 07 bb 97 ee 82 3d
       -0.22350615 0.1296187 -0.0020717655 0.06393164
0000e0 86 3b 71 be 27 e9 2e 3d 9e 7c 03 3e 59 4c 3c be
       -0.23557863 0.04270282 0.12840506 -0.183885
0000f0 a4 21 f8 3d de 71 c1 3e 20 f8 c4 3d 0a af 37 3e
       0.121157914 0.37782186 0.096176386 0.17937866
000100 01 ff 50 3d e6 31 03 3e 03 54 35 3e 23 e3 a2 3e
       0.05102444 0.12812003 0.17707829 0.31813917
000110 ef c2 8e be 36 05 d1 3e ee 0f 06 be e2 cf 7b be
       -0.27883098 0.40824288 -0.13092014 -0.2459102
000120 ab 23 8f 3b 9a 20 74 3e 18 9d 16 be ca a1 3f 3e
       0.0043682656 0.23840562 -0.14708364 0.18714061
000130 64 2b ab 3e 9a be 82 3d 99 ac b2 3d ef 7c ab be
       0.33431542 0.063840106 0.08724327 -0.33493754
000140 fd e6 f0 bd 0d ea e0 3c 4a f3 7f 3e 8a 9c 28 be
       -0.117628075 0.027455354 0.24995151 -0.16465965
000150 65 cc 8b 3e e6 3b e3 bc b0 8c 4e 3b bd 11 11 be
       0.27304378 -0.027738523 0.0031516962 -0.14166923
000160 80 0b e3 bd c5 4c a7 3d f9 d6 8b bd 4a 73 a8 3d
       -0.11086178 0.081689395 -0.06828112 0.08225115
000170 79 7e d9 bd c2 c4 25 3e 34 9c af be b2 aa dc 3e
       -0.10619826 0.16188338 -0.3429886 0.4309898
000180 35 a8 7a 3d 87 9f 2f be 3e 61 8b be 72 d5 01 3d
       0.06119557 -0.17150699 -0.27222627 0.031697698
000190 8c de 8e be c6 ab c4 bd 36 ea 41 be c0 3b c3 3e
       -0.27904165 -0.09603076 -0.18937 0.38131523
0001a0 91 23 83 bd 3c a9 53 be 7e dd 9a 3e 42 77 32 be
       -0.06403268 -0.20670027 0.3024711 -0.17428306
0001b0 cd 2e 8a bd f7 2e d3 be 6d 0f b4 be 89 47 91 3e
       -0.06747208 -0.4124677 -0.3516802 0.2837489
0001c0 7c 96 00 ba 40 7f d1 3e 12 fa 25 bf 0c 03 81 3d
       -0.00049052364 0.40917397 -0.648347 0.06299409
0001d0 53 fd 7f bd d4 67 1c 3f 1f 6b 86 3b 09 e7 5c bd
       -0.06249745 0.6109593 0.0041021253 -0.05393127
0001e0 37 46 c7 3e 69 72 ad 3c 12 ef 60 be cd 5a 70 3e
       0.38920757 0.02117272 -0.21966198 0.23472138
0001f0 cd 24 9d bd b8 fe a9 3e 47 1e da 3e cb 47 5d be
       -0.07673035 0.33202147 0.42601225 -0.21609418
000200 36 ae c8 be 70 6e 86 3d e6 d3 a1 3e ba fa 2e be
       -0.39195412 0.06564033 0.31606978 -0.17087832
000210 25 f7 ef 3d f2 da c8 bd 3f 6c ae be 55 9b 64 bd
       0.11717061 -0.098073855 -0.3406696 -0.0558122
000220 8a 77 ba 3d 44 8b 0f 3e 48 5c 38 3d 32 b9 e3 3e
       0.091048315 0.1401797 0.04500988 0.4447723
000230 3c b8 61 bf b2 ce 31 3e c5 fe ce be 76 4e 93 be
       -0.88171744 0.17364004 -0.4042875 -0.28770798
000240 0b 55 34 3e 6f 81 d9 bd cc ee 0a 3f 77 c0 ea 3d
       0.17610566 -0.106203906 0.54270625 0.11462491
000250 32 ee cf 3c 6f 28 4a 3e e7 f5 1d be ed f8 7c bd
       0.025382135 0.19741987 -0.15425836 -0.06176083
000260 e1 85 fd 3d d9 fc cb bd c6 f5 ac bd 74 9e 57 3e
       0.12379051 -0.09960336 -0.08445315 0.21056539
000270 2d 68 57 be 99 3d 51 be 1b c6 4e 3e 41 f7 92 3e
       -0.21035834 -0.20433654 0.20192759 0.28704265
000280 b7 2e 3e 3e e2 d7 6f be 74 b5 cc be 99 41 2b 3b
       0.18572508 -0.23422197 -0.39982188 0.0026131629
000290 24 5f 88 bc 8b fd 83 3e 18 1f 15 be fe 1b a4 be
       -0.01664693 0.25779375 -0.14562643 -0.32052606
0002a0 23 ed 81 be c9 17 ea 3c 93 f8 ab be ef 54 0b be
       -0.25376233 0.028575795 -0.33588085 -0.13606618
0002b0 c4 59 11 be 9f dc 4d be 2c 51 54 be fb 34 2c 3e
       -0.14194399 -0.20103692 -0.2073409 0.16817085
0002c0 c3 d2 37 3e 4e 51 b3 3d bd 42 26 be 23 11 1b 3e
       0.17951493 0.08755742 -0.16236396 0.15143256
0002d0 0b 0c 92 be 98 0f 0a be 96 07 f2 bd 41 5c 85 be
       -0.28524813 -0.13482511 -0.11817853 -0.26046947
0002e0 58 31 13 be cd e5 8c 3e a1 95 a2 bd c7 c7 50 be
       -0.14374292 0.27519074 -0.07938696 -0.20388709
0002f0 75 4f 86 3e d5 9b ae 3d 02 27 c4 3d db 04 0b 3e
       0.26232496 0.08525816 0.09577753 0.13576071
000300 af df bd 3d 3a ef 9c bd 1b 53 b4 3e 51 c1 0e bd
       0.0927118 -0.07662816 0.35219654 -0.03485233
000310 87 da 99 bd 12 0f 36 3e 2d 66 21 be 88 df 44 be
       -0.07512384 0.17779186 -0.15761633 -0.19225895
000320 0d 82 dc 3d 89 84 14 bd 2a 09 73 be fa 00 51 3e
       0.10766993 -0.036259208 -0.23733965 0.20410529
000330 0c 5a 22 3e 17 ee 72 3e 3f 17 8f 3e 5f 06 6c be
       0.15854663 0.23723637 0.27947423 -0.23049305
000340 73 0d 35 bc 03 96 19 bf e7 83 06 3e 83 67 c6 3e
       -0.01105057 -0.59994525 0.13136254 0.38750848
000350 cd 0c 0a be 55 11 2b bf 05 b7 1a 3e c3 25 c2 3e
       -0.13481446 -0.6682332 0.15108879 0.37919435
000360 30 96 ae 3d 59 31 c6 3e 46 32 71 be f2 53 b1 be
       0.0852474 0.38709524 -0.23554334 -0.34634358
000370 77 c0 80 bd f4 ff e7 be d6 ae bf bd 2a 14 50 be
       -0.0628671 -0.45312464 -0.09359519 -0.20320192
000380 a6 11 04 3d 35 37 27 3e 82 95 21 be ce cc e3 bd
       0.032243393 0.16329654 -0.15779689 -0.11123048
000390 c2 8d f9 bc 45 09 2f bd 30 6c 8e be f3 1b 32 bd
       -0.030463103 -0.04273345 -0.27816916 -0.043483686
0003a0 01 82 6e 3e 95 9c 43 3d ed 03 a3 3e b4 e1 3d be
       0.2329178 0.04775675 0.31838933 -0.1854313
0003b0 93 37 90 3e e8 2b 65 be a0 9d 59 be 32 31 76 be
       0.281674 -0.2238003 -0.21251535 -0.24042204
0003c0 d8 6f 22 be ce f8 dd be ad 8f ac bd 05 95 cd be
       -0.15862978 -0.43353885 -0.084258415 -0.40152755
0003d0 c7 b4 95 bc 52 40 e2 bd 8c 25 49 be 0e 26 a3 bd
       -0.018274678 -0.110474244 -0.19643229 -0.07966243
0003e0 23 3a 38 3e 21 c2 36 bf fa 3a 9a be 90 8e 46 3e
       0.17990927 -0.7138997 -0.3012312 0.19390321
0003f0 5b 93 9f 3e 45 b3 27 be 5e 46 70 3e 0c 7e 9e be
       0.3116711 -0.1637698 0.23464343 -0.3095554

a3.bias f4 [32]
000000 da a4 92 be 4b 40 c3 3d 5b 31 17 3e 56 d0 cf be
       -0.28641397 0.09533747 0.14764921 -0.40588635
000010 94 74 af be 66 7a 51 3d 10 9a 49 3e 9b 56 3f be
       -0.3426863 0.05114212 0.19687676 -0.18685381
000020 4c 3d f3 be 82 ed 8d be df af 51 be 13 65 05 be
       -0.47507703 -0.27720267 -0.20477246 -0.13026838
000030 e2 6a 35 bf 8f 6a 2a be 1d 74 04 be 02 6a fd 3e
       -0.70866215 -0.16642211 -0.12934919 0.4949494
000040 ea 96 a5 3e ba 17 85 be 25 c0 f2 bd 2c fe c5 be
       0.323417 -0.25994664 -0.11853055 -0.3867048
000050 8d 3c 76 bd a0 93 a9 be 1e 07 df bd 5b f4 89 be
       -0.06011634 -0.3312044 -0.10890029 -0.2694424
000060 6d 39 be bd c6 d1 8d 3e 40 ed c1 3e ff 54 1b be
       -0.09288297 0.27699107 0.3787632 -0.15169142
000070 fb 9f 9c bb 22 89 15 3e a7 33 c7 bd de 55 4b be
       -0.0047798133 0.14603093 -0.09726649 -0.19856974

b1.weight f4 [32, 32, 3, 3]
000000 27 86 f0 be ed 08 04 3e 70 18 05 be bd 31 34 be
       -0.4697735 0.1289403 -0.12997603 -0.17597099
000010 98 21 b4 bd 41 c7 fe bd ed 49 41 bd f2 ac 05 3d
       -0.0879547 -0.124403484 -0.04718964 0.032635637
000020 ca 3d 9d be d6 14 4d 3d 2c 82 e5 be 46 14 42 3e
       -0.30711204 0.0500687 -0.44825876 0.18953046
000030 94 6b a1 be 58 ed 25 bf 20 85 ab 3d 23 97 f8 3d
       -0.31527388 -0.6481528 0.08375001 0.12138202
000040 a4 95 ed be 43 d5 c6 3e be 95 46 bd e6 d8 51 3e
       -0.4640323 0.3883458 -0.04848265 0.20492896
000050 26 0a 22 3d 35 60 f9 3d 9f 7e 85 3e 6d 55 e1 3b
       0.03956046 0.12176553 0.26073167 0.0068766386
000060 e0 22 98 bd 32 5f b7 3c d9 94 ed bd 34 63 8f 3e
       -0.07428527 0.02238426 -0.11600656 0.28005373
000070 a0 9c 7e 3e bd 10 95 3e 73 b7 03 3e fd 0f bd be
       0.24864435 0.29114333 0.12862949 -0.3692626
000080 d2 bf 5e 3e 24 74 49 be 09 7e 5b be a5 8c 9d be
       0.21752861 -0.1967321 -0.21434797 -0.30771366
000090 89 fa 71 3e b3 16 e1 be 93 40 09 bc 1d 16 73 bc
       0.23630728 -0.4396263 -0.008377212 -0.014836815
0000a0 d7 69 7b 3d 64 8a c8 be 4a a9 85 bd a4 5f 30 bf
       0.061380234 -0.39168084 -0.0652643 -0.68895936
0000b0 1a 8e 46 3d 7f 0d 09 3f 90 57 3a bf 95 67 28 bd
       0.048475362 0.5353622 -0.7278986 -0.04111441
0000c0 9e 64 74 3e 0f d2 4a be 2b e2 94 3d eb 15 b2 3d
       0.23866507 -0.19806693 0.072697006 0.08695587
0000d0 79 16 c7 bd a7 82 06 bf e8 ac 94 be 0f 87 f9 bd
       -0.09721083 -0.5254311 -0.29038167 -0.121839635
0000e0 2c 36 80 be 03 58 43 3d b2 4a c6 3d 4d 10 98 bd
       -0.2504133 0.047691356 0.09682216 -0.07424984
0000f0 da 99 ef bc f3 f9 ba bd ee a8 09 bd 80 a2 7d bd
       -0.029248167 -0.09129705 -0.03360837 -0.06192255
000100 c7 c4 5a 3d 31 b5 27 3d aa 98 2a 3d d7 8c 2b be
       0.053410318 0.040944282 0.041649498 -0.16752945
000110 6f 6b 1a bd 99 2c 26 3c 16 91 6e 3d 88 d8 c7 3c
       -0.037700113 0.010142469 0.058243833 0.024395242
000120 8f 41 6c be 0d aa aa be 9d 59 9a be bf f5 e6 be
       -0.23071884 -0.33332863 -0.30146495 -0.45109364
000130 1f be 92 3e c6 36 c3 3a 91 c3 ce be e9 8b 47 3e
       0.28660676 0.0014893643 -0.4038358 0.19486965
000140 59 97 9f 3e 1d 8b 75 3e 69 ff 2b be bc 6e 8c bd
       0.31170157 0.23978849 -0.1679665 -0.068570584
000150 74 61 8d 3e 8d fd e9 3d e2 e3 d1 3e 0f b5 36 3f
       0.27613413 0.11425314 0.40994173 0.71370023
000160 7c c1 1b be 3a 9b a9 bd 96 f5 76 be d1 48 84 3e
       -0.15210527 -0.0828156 -0.24117121 0.25836805
000170 fe b5 54 be 5e 91 31 3e 23 a6 50 3e f1 3d 74 be
       -0.2077255 0.1734061 0.20375876 -0.23851754
000180 ae af 19 3e 50 21 62 bd 7a ce b7 3d a9 6c 86 be
       0.15008423 -0.05520755 0.08974929 -0.26254776
000190 45 1d ce be e4 fa 0e bf 61 60 9e 3e 3e 4f 25 be
       -0.40256706 -0.5585158 0.30932906 -0.1614351
0001a0 85 40 b5 be 37 ed 59 3e 47 74 40 3e 1b c4 1a be
       -0.35400787 0.21281897 0.18794356 -0.15113871
0001b0 79 94 7e be 00 43 b6 be a1 d2 86 be 4a 68 18 be
       -0.24861325 -0.35597992 -0.26332572 -0.14883533
0001c0 74 c8 4f bd bf dd 36 3e 27 4a 76 be 31 a2 b4 be
       -0.050728276 0.17858027 -0.24051724 -0.35279992
0001d0 ca 8c 9e 39 17 cf ae ba f3 65 9f 3d 93 47 3d 3e
       0.00030241004 -0.0013336864 0.07783117 0.18484335
0001e0 d8 2c 84 3d 1b c5 5c bd 88 63 06 be f3 c3 9c bd
       0.06453866 -0.053898912 -0.13123906 -0.07654562
0001f0 03 db ab be 15 43 8e 3d 31 48 90 3d 2b d9 50 3e
       -0.3356553 0.06946389 0.070450194 0.20395343
000200 0c 4d bd 3d 7a 21 e9 bc 94 7e ca be 5e 7f 9d 3c
       0.09243211 -0.028458346 -0.39549696 0.019225772
000210 ab 77 c5 bc a9 ee 35 be 98 13 68 bd 75 7c 95 3d
       -0.024104914 -0.17766823 -0.05665931 0.07299129
000220 1d 73 e3 3d b2 eb fb bc c0 77 6c be c7 89 63 3d
       0.111059405 -0.030752037 -0.23092556 0.055551317
000230 41 03 15 bd 00 f7 ae 3b e8 4b ca be fc d9 cf 3c
       -0.036380056 0.0053395033 -0.39511037 0.025372498
000240 20 df 4d be c8 29 8a bc bc 2d b6 3d d9 9e 64 3e
       -0.20104647 -0.016865626 0.08895442 0.2232622
000250 1b 69 cf 3e 5a e5 41 3e 5c 54 f4 3c 9f 80 16 bd
       0.40509877 0.18935147 0.029825382 -0.036743756
000260 a3 a6 91 3e 97 5a 11 3e c5 a4 6c 3e d3 fb ec be
       0.28447446 0.14194714 0.2310973 -0.46285877
000270 9c 91 87 bd 93 d0 88 bd 28 ff 0f bf 5e e9 2f 3b
       -0.0661957 -0.066804074 -0.5624871 0.0026841979
000280 01 59 76 3e 17 f7 52 be 62 6b c1 3e e4 76 0b bd
       0.2405739 -0.2060207 0.3777724 -0.03404893
000290 8d 96 de bd 3e 3f eb 3d ea a5 09 bf 7d 78 27 be
       -0.10868559 0.11486672 -0.5376879 -0.16354556
0002a0 c2 f0 a5 bd 89 7d 1e be 6c f0 0b be 70 20 9c be
       -0.081025615 -0.15477575 -0.13665932 -0.30493498
0002b0 02 26 c3 3e 74 e0 b4 be 96 de 32 3e 1c 01 83 3e
       0.38114935 -0.35327494 0.17467722 0.25586784
0002c0 43 8f d2 bd db 6f 0b be 97 2a a2 3e 26 2f 5c be
       -0.10281231 -0.13616888 0.31673118 -0.2150236
0002d0 2d 1c 82 bd db 60 1a be 00 cb 0b 3e 57 04 36 3d
       -0.0635303 -0.1507601 0.13651657 0.044437733
0002e0 ed 8a 4f bd 80 47 0a bd 38 c2 3c 3e 71 cd be 3d
       -0.0506696 -0.033759594 0.18433464 0.093165286
0002f0 10 2a 5a 3e b0 2a ce 3d d1 e1 99 be 52 95 90 be
       0.21305108 0.10066736 -0.30055097 -0.28238922
000300 b6 0f 32 3e 9e 75 0c 3e eb 98 77 3e 66 e2 cd bd
       0.17388806 0.13716742 0.24179427 -0.10052948
000310 1a df 3c be ae 19 32 be 2b bc 38 be d3 e1 bd 3d
       -0.18444481 -0.17392609 -0.1804053 0.09271588
000320 1e 40 29 3d 0a 14 2f be 3d 66 32 3e b9 fe a3 3d
       0.041320913 -0.17097488 0.17421813 0.08007569
000330 73 63 86 3e 6f ef e7 be a5 5f 0a be 9a c2 39 be
       0.2624775 -0.4529986 -0.13513048 -0.18140641
000340 7d 95 51 3e aa ae 90 be 2d 14 a6 be 33 65 f9 bc
       0.20467182 -0.28258258 -0.32437268 -0.030443763
000350 58 bc 45 be dd f6 ed bd fe c0 b2 3e b9 0e ff 3d
       -0.19310129 -0.11619351 0.34912866 0.1245398
000360 12 aa ae 3e 14 22 bd be 07 a8 bc be 80 42 dc be
       0.34114128 -0.36940062 -0.36846945 -0.43019485
000370 46 94 17 3a cb 17 0a 3e da 62 16 bc cb 83 51 3e
       0.00057822873 0.13485639 -0.0091788415 0.20460431
000380 50 20 6e 3d 04 c2 91 3e cb ec be 3d a9 62 10 bf
       0.058136284 0.28468335 0.093225084 -0.56400543
000390 27 e3 ad bc a7 83 75 bd 1a 90 76 3e 73 ec ae bd
       -0.021226479 -0.059940007 0.24078408 -0.08541193
0003a0 26 08 c2 3e 3d a1 b3 3d cc 1c 02 3f 14 34 8d bc
       0.37896842 0.08770988 0.5082519 -0.017236747
0003b0 42 65 87 be fe 90 b6 3d 1b 3b 90 bd 39 e4 5b 3b
       -0.2644444 0.08914374 -0.070425235 0.003355278
0003c0 21 cc 56 3c 34 39 ac 3e 68 1b ca be 94 f1 8f 3e
       0.013110192 0.33637393 -0.39474034 0.28113997
0003d0 13 d0 13 bc 3d 28 d4 bd f6 e3 44 bf a7 10 be be
       -0.009021777 -0.10359237 -0.7691034 -0.3712208
0003e0 6b 4a b4 bc f2 d1 84 bc f8 1c 80 3e 72 90 1f 3d
       -0.022008142 -0.016213391 0.250221 0.038956113
0003f0 3e 55 cc 3e a8 86 92 bd 54 6d f8 be a9 52 86 3d
       0.39908785 -0.0715459 -0.4852091 0.06558735

b1.bias f4 [32]
000000 35 c7 82 bd e5 aa 77 be f9 0b 0f bf ac 4d 92 be
       -0.06385652 -0.24186285 -0.55877644 -0.28574884
000010 27 42 32 3f 2a 76 19 be 63 b9 4b be f6 bf 4e 3c
       0.6963219 -0.14986482 -0.19894938 0.012619009
000020 25 24 44 be 50 93 19 bf 5b 94 ee be 55 87 36 3e
       -0.19154413 -0.59990406 -0.4659756 0.17825063
000030 59 5d df be 5a 11 c9 be 12 49 b3 3d 06 fa 77 be
       -0.43625906 -0.3927105 0.087541714 -0.2421647
000040 e4 3b 52 be 74 14 3e bf e2 b2 33 be 7e 72 b4 3e
       -0.20530659 -0.7424996 -0.17548707 0.352436
000050 07 a0 4d be 64 1b cb be f5 d1 2b 3f 34 ea 18 bf
       -0.20080577 -0.39669335 0.67117244 -0.59732366
000060 b8 d0 38 bd 2a 64 61 be 4c ef cd bd 5a 4b 66 bf
       -0.045120925 -0.22010866 -0.10055408 -0.8995873
000070 86 7e 65 bd fc d2 f9 bc 23 71 04 3e 8e de 17 be
       -0.056028865 -0.030496113 0.12933783 -0.14830992

b2.weight f4 [32, 32, 3, 3]
000000 d8 f6 6d 3e 72 39 d4 3d b4 ac 2e bd 88 f9 46 3e
       0.23238695 0.10362519 -0.04264517 0.19431126
000010 5f 29 40 be 69 1b bf 3e 40 45 0f be 12 21 f4 bd
       -0.18765782 0.373256 -0.1399126 -0.1192037
000020 16 74 0e 3e 1b ee a3 3e ab 3e 93 bd b1 c8 a8 bd
       0.13911471 0.32017598 -0.07189687 -0.08241404
000030 a1 d4 02 be c1 7f 30 be 12 66 64 be eb d2 67 3e
       -0.12776424 -0.17236234 -0.22304562 0.22639053
000040 87 32 99 3d 94 b0 04 bf 30 b2 23 be fe 67 23 3e
       0.074803405 -0.51831937 -0.15985942 0.15957639
000050 fd da 07 bf 5c 06 59 3d 1a 28 93 be 41 0e f8 3d
       -0.53068525 0.05298458 -0.28741533 0.12112094
000060 f8 8e 4f be b0 c6 09 be 2d 4d 1f be 98 5d ed 3e
       -0.20269382 -0.134547 -0.15556784 0.4636047
000070 0e f2 8d bd 80 83 0e 3e 2f 47 1a 3f b6 30 88 bd
       -0.06930934 0.13917351 0.6026487 -0.06649916
000080 9b d6 4b be bc 94 73 bd f0 c6 f9 be 99 33 2b be
       -0.19906084 -0.059468016 -0.4878459 -0.16718902
000090 d6 ee 1e be e1 dd c9 3d cd d1 a9 be f2 38 50 bc
       -0.15520796 0.09856773 -0.33167878 -0.012708889
0000a0 c2 41 7d 3e 1e 0e ad be fa dd 14 bf 49 56 38 3e
       0.24732116 -0.33799833 -0.5815121 0.18001665
0000b0 b3 ea 7e 3e 59 62 29 3f ca 83 f6 be 77 cc 85 bd
       0.24894218 0.6616569 -0.48147422 -0.06533139
0000c0 fe 52 7c be a8 12 90 bd ad 07 ae be 65 d3 56 3d
       -0.24641034 -0.070348084 -0.3399023 0.052447695
0000d0 a3 99 fb 3e d0 88 56 3f ff be 7a 3d ab 24 b8 be
       0.49140653 0.8380251 0.061217304 -0.35965475
0000e0 b6 34 08 3e d5 f5 6d be f8 95 e7 bd c9 d1 a7 bd
       0.13301358 -0.23238309 -0.11307901 -0.0819431
0000f0 d1 98 32 3e 4e 47 fe 3d 49 84 8e be 57 da a4 3e
       0.17441107 0.12415944 -0.278353 0.3219783
000100 3e be 0e be d7 35 45 be ca da b6 bd 42 34 a5 3d
       -0.13939759 -0.1925882 -0.089284495 0.08066608
000110 af 7b 78 3d c0 57 da bc 16 fb 1d 3e d9 18 3f be
       0.06066483 -0.02665317 0.15427813 -0.18661822
000120 b0 c8 d5 bc 71 15 93 be 6a 19 8b 3e d6 fa 30 3d
       -0.026096672 -0.28727296 0.27167827 0.043207966
000130 24 97 3b b9 df 1e 14 be 32 03 ff bd af 52 b1 3d
       -0.00017890014 -0.14464901 -0.12451781 0.08658349
000140 ce 23 b0 be 5e e3 cb be 31 64 c0 be db 94 92 be
       -0.34402317 -0.39821905 -0.3757644 -0.28629193
000150 c8 db 33 3e 7f ed 21 be b5 12 ab 3e d2 96 e9 3e
       0.17564309 -0.15813254 0.3341271 0.4562288
000160 90 99 cd 3d 0b 13 aa bc 25 6e c5 bc 00 f9 2e be
       0.10039055 -0.020761034 -0.024100373 -0.17087173
000170 5c 46 2f be 46 6f 22 be d0 7c 88 be 83 28 6a be
       -0.17116684 -0.1586276 -0.26657724 -0.22867016
000180 0c 04 f0 3e ca 2b ab 3e e2 7b 6b be b5 a9 1a 3e
       0.46878088 0.33431846 -0.22996476 0.151038
000190 35 3c b9 bd 25 d3 46 3e c6 41 64 be 0a ab 18 3e
       -0.09044687 0.19416483 -0.22290716 0.14908996
0001a0 ec bd 7c be 55 91 d2 be 59 88 32 3e 73 cb 2a be
       -0.24681824 -0.41126505 0.17434825 -0.16679172
0001b0 3e bf 9d be 17 e8 57 be b8 52 21 3d a9 71 39 3e
       -0.3080997 -0.21084629 0.039385527 0.18109764
0001c0 1d 84 1f be e4 44 68 be ae cc d0 be 98 8f 0e 3e
       -0.15577741 -0.2268253 -0.40781158 0.13921964
0001d0 bd f1 05 3e 1a b5 d6 be cc 7a c7 bd 01 0b ff be
       0.13080497 -0.41935045 -0.097402185 -0.49813083
0001e0 7e 1c c2 3c 0e 62 9f be 7c 0f 23 3e 6b d1 d0 bd
       0.023695227 -0.31129497 0.15923876 -0.10196193
0001f0 3e 36 ba bd b2 86 cf be 07 9c 90 3e 58 5a 42 bd
       -0.09092377 -0.40532452 0.2824404 -0.04744944
000200 45 cb 04 be 91 d6 65 3d 50 a6 0a bf 50 97 48 3c
       -0.12968166 0.05611283 -0.5416002 0.012243107
000210 21 cf 6d be dc 5b 8c 3e b4 7f cb 3d 36 4a 05 be
       -0.23223545 0.27413833 0.09936467 -0.1301659
000220 49 90 cb bd 0c 3c 00 be fb ac b4 3e 49 12 08 bf
       -0.099396296 -0.12522906 0.35288224 -0.531529
000230 55 8c 07 3e b2 41 56 3d 68 73 55 3e de de ea 3d
       0.13237126 0.052308746 0.20844805 0.1146829
000240 26 c8 99 3e b6 18 c8 bd 46 58 b0 bd ba 35 0f 3c
       0.30035514 -0.09770338 -0.08610587 0.008740837
000250 17 55 2a be 7f be 49 3e c1 17 48 3c 5c 61 ba 3e
       -0.16634022 0.19701575 0.012212695 0.36402404
000260 9a 0f 34 be 38 6a d9 bd 70 26 56 bc 32 b0 6b 3e
       -0.17584077 -0.10615963 -0.013070688 0.23016432
000270 65 c5 19 3e df 1a c6 3d d4 c5 ec 3d 67 6a 68 be
       0.15016706 0.09673094 0.1156117 -0.2269684
000280 6b 47 02 3e c4 0c 1d be a0 47 7e bd 05 37 de 3d
       0.12722556 -0.15336901 -0.062080026 0.10850338
000290 d9 2c 5f bd 13 b2 bc bd 1a 3f 87 bd 5e e8 b4 be
       -0.05448613 -0.092136525 -0.066038325 -0.35333532
0002a0 2a 49 51 be 11 70 36 be a2 c9 d1 3d d3 07 bb 3e
       -0.20438066 -0.17816187 0.102435365 0.36529407
0002b0 6b 0e 1a 3d 9d df b7 bd ff c3 48 3d 69 7d 5e 3e
       0.037611406 -0.08978198 0.04901504 0.21727528
0002c0 cf 81 42 3e 36 39 c4 bd 5b db c3 3d 5d 12 46 bd
       0.1899483 -0.095812246 0.09563323 -0.048357356
0002d0 89 9b 4c bc 18 e7 7d be 5a dc 59 bc de a6 7a 3e
       -0.012488254 -0.24795187 -0.013297165 0.24477717
0002e0 04 1d 08 be f3 6d 8c 3b 3f 12 b4 be f9 16 ac bd
       -0.13292319 0.004285568 -0.3517017 -0.08402819
0002f0 49 50 c5 be ea f7 7d be 3a 99 68 be c6 f6 75 3d
       -0.38537815 -0.24801603 -0.22714701 0.060049795
000300 a4 e0 59 3e 86 e4 69 3e 56 04 e2 3e 9a fa 66 be
       0.212771 0.22841081 0.44143933 -0.22556534
000310 b6 06 a2 be d6 05 cd 3c 42 ce a8 3e 0f eb b7 be
       -0.31645745 0.025027197 0.32969862 -0.35921523
000320 22 08 07 3e 36 76 ee 3d 53 80 42 bb 9c 45 60 3e
       0.13186696 0.11643641 -0.0029678538 0.21901554
000330 73 8c 40 bf 9c 7f c9 3e 97 61 32 be 45 70 84 be
       -0.7521431 0.3935517 -0.1742004 -0.25866905
000340 4b 57 31 be f7 c5 2a be 8b 41 c7 bc 80 b1 04 bf
       -0.17318456 -0.1667708 -0.024323246 -0.51833344
000350 21 51 3f 3f 21 99 aa 3c 2c 96 e7 3d d5 8e 66 3e
       0.7473317 0.02082497 0.1130794 0.22515424
000360 f9 df 28 bc 4d b6 1c be 7b da 53 bd f1 10 a9 3d
       -0.0103073055 -0.15303917 -0.05172203 0.082551844
000370 93 de 3c be f0 b3 01 3c 6a 87 b0 3e fe b4 54 3e
       -0.1844428 0.007916436 0.34478313 0.20772168
000380 75 fb 68 be dd 7d cc 3c b5 bb 33 be 6b e9 9c 3e
       -0.22752173 0.02496236 -0.17552073 0.30646834
000390 85 5d 36 3d 0f 41 9b 3e 91 06 b8 bd 50 bc e2 bd
       0.04452278 0.30323073 -0.089856274 -0.11071074
0003a0 03 e5 52 be 56 b5 3f 3e c6 18 d4 3d 36 20 25 be
       -0.20595174 0.18721518 0.10356288 -0.16125569
0003b0 be c6 9e 3d 88 f1 50 bd a7 44 d8 3d cd 3c 71 3e
       0.07752751 -0.051011592 0.105599694 0.2355835
0003c0 56 39 fc be 5d c0 be be 65 9c 27 be 83 9c 10 3e
       -0.49262494 -0.37256137 -0.16368254 0.14122204
0003d0 1e 3f 60 be 07 8b de 3e c7 d5 66 3e 15 6e 0b be
       -0.21899077 0.43465444 0.22542487 -0.13616212
0003e0 d0 ad e2 be 00 2b 30 3c d3 7a 18 bf db 97 02 3e
       -0.44273233 0.0107524395 -0.59562415 0.12753241
0003f0 e9 11 27 3d 43 1d 4f 3e 49 40 9c 3e 52 ce ea bc
       0.040788565 0.20226006 0.30517796 -0.028662834

b2.bias f4 [32]
000000 03 d0 37 3e dd 56 69 bf fe de 20 bf 86 0c 46 bf
       0.17950444 -0.9114817 -0.6284026 -0.7736286
000010 7f ec 25 be 84 0e 2e bf 6f 7c cd be db be 02 bf
       -0.16203497 -0.679909 -0.40133998 -0.5107247
000020 fc 70 e9 3e 9e 23 ac 3d d1 8e e9 3c 84 4e a2 be
       0.45594013 0.08405231 0.028510483 -0.31700528
000030 a5 3a ca be a2 22 27 bf da d6 1f be fc e5 49 3e
       -0.39497867 -0.6528722 -0.15609303 0.19716638
000040 55 27 5e be 59 a6 d8 be 2e d0 12 be e9 df 8f be
       -0.21694691 -0.42314413 -0.14337227 -0.28100517
000050 8f bd 1c be 3b 82 a0 3e c7 d9 14 bf 64 92 e3 3e
       -0.15306686 0.31349358 -0.581448 0.44447625
000060 6b fd 13 bf 53 60 a6 3e 31 27 1d 3e 5f b4 0f 3e
       -0.5780856 0.32495365 0.15346982 0.1403365
000070 32 2e 4d bf 8f e3 21 be 10 af cd 3e 2e bb 26 be
       -0.80148613 -0.15809463 0.40172625 -0.16282341

b3.weight f4 [64, 32, 3, 3]
000000 7c cd a7 be b6 c4 ea bc 77 c8 a8 bd b4 0d de bd
       -0.3277396 -0.028658252 -0.08241361 -0.108424574
000010 e9 5d 09 bb ed c5 1b be 3f 9c ad 3c cb d6 e3 be
       -0.0020960516 -0.15212221 0.021192668 -0.44499812
000020 e3 5d 41 3c 41 54 20 3d b8 58 a7 be 47 b6 a2 3e
       0.0118021695 0.03914285 -0.32684875 0.31779692
000030 4f ef 99 bc 54 d9 59 3e f4 1d ac be 0a d5 50 be
       -0.018790869 0.2127431 -0.33616602 -0.20393768
000040 71 02 7d be 49 0f 52 be 1b 29 87 be 09 b4 cf bd
       -0.24707963 -0.20513643 -0.26398548 -0.10141761
000050 ae 00 55 bc 20 33 dd 3d 57 bb 6e bd 43 5c bc be
       -0.01300065 0.10800767 -0.05828413 -0.3678914
000060 e1 44 14 3e 49 ee be 3e 03 56 13 be 87 86 99 bd
       0.144794 0.37291172 -0.1438828 -0.07496362
000070 88 6b 6c be 45 33 d7 3d 0c 79 62 3d c4 a8 92 3e
       -0.23087895 0.10507826 0.05529122 0.28644383
000080 f1 c8 75 be db c5 2a 3d 9c 76 e1 bd 24 cf 4d 3e
       -0.24002434 0.041692596 -0.11008951 0.20098549
000090 f1 b3 7f 3e 16 80 1a 3d 20 64 15 3e e5 a4 3f bf
       0.24970986 0.03771981 0.14588976 -0.74860984
0000a0 9f 12 a8 3d 6c ba e7 3e ff a2 a9 be 1d 00 ab 3e
       0.08206677 0.45259416 -0.3313217 0.33398524
0000b0 ea ea 8c 3d ee 90 23 be de d1 21 3f 76 71 3b 3e
       0.06880744 -0.15973255 0.63210857 0.18305
0000c0 82 e5 3a 3e f2 03 91 be ab 07 95 3e 90 31 be bd
       0.18251613 -0.28323323 0.29107413 -0.09286797
0000d0 7d 41 f5 bd 0d e3 c1 be cc 36 b9 bd ab 85 8f 3d
       -0.119753815 -0.37868538 -0.09043655 0.07007917
0000e0 6f 01 a7 be 25 44 94 3d 9e 32 9a 3d 39 b6 c3 3d
       -0.3261828 0.0723956 0.07529186 0.095562406
0000f0 f4 32 ba bd 64 c3 34 be ba a2 37 3c b2 6f 8f be
       -0.0909175 -0.1765266 0.011208231 -0.28014904
000100 67 92 60 bd 7f 46 8a 3e 5c 8b a1 bd a0 51 2f bc
       -0.05482712 0.2700691 -0.07887909 -0.010700613
000110 ae 53 29 bf 42 2a 68 3e b6 ce c9 3e e0 52 5f be
       -0.6614331 0.2267237 0.3941552 -0.21808958
000120 8b 0f d7 bd af 12 da 3d 3f 09 ca bd 28 f6 e2 bd
       -0.105010115 0.10648095 -0.09865045 -0.11082107
000130 85 a7 db 3d 6c f7 81 3c 09 fd 8f bd 79 3c cf be
       0.10725311 0.01586505 -0.070306845 -0.40475824
000140 a5 94 e1 3e 4c 66 af be c1 90 2f 3e 2f e7 ce 3d
       0.4405872 -0.34257734 0.17145063 0.101026885
000150 39 31 17 3d b7 61 cd 3e 2a c2 8f be 8c 7c 9e be
       0.036912177 0.40113613 -0.28077823 -0.30954397
000160 1b 83 1f bf f0 13 56 be 0d 63 55 be 56 d5 bf be
       -0.62309426 -0.20906043 -0.20838566 -0.3746745
000170 19 09 2c be 01 c6 aa 3d 96 f8 27 bd e9 41 00 3e
       -0.16800345 0.083385475 -0.041008554 0.12525143
000180 9d 57 aa be 7a 2e 01 bb e6 bf 8a be 1b a7 20 3e
       -0.3326997 -0.001971154 -0.27099532 0.15688746
000190 60 21 3e bd 9e 12 81 3d b4 e3 78 3e c7 dc d1 bc
       -0.046418548 0.06302379 0.24305612 -0.02561797
0001a0 dd 9d 5b 3e 65 cf 04 bd 3b 90 fc 3e 31 15 84 3e
       0.21446939 -0.03242435 0.4932879 0.25797418
0001b0 f2 cb 3c 3e 19 c4 2d 3e 5e 52 65 3e f3 9b 47 3e
       0.18437174 0.16969337 0.22394702 0.19493084
0001c0 9c 86 c2 bd 14 1b e5 be 58 0d f6 bd 6c f9 1d bc
       -0.09498331 -0.4474722 -0.12014264 -0.009641986
0001d0 64 b8 c5 3d de 4b 48 be 88 0a 1a be a9 f8 c8 3d
       0.0965431 -0.19560191 -0.1504308 0.09813053
0001e0 85 a5 7f 3d 1d c5 0b 3f bf cf 9d 3e bf 37 27 bc
       0.06241371 0.54597646 0.3082256 -0.010206162
0001f0 bc d2 12 be bf 55 9c 3e fb c0 74 3e df 6b bb be
       -0.14338201 0.3053417 0.23901741 -0.36605737
000200 89 5f 04 bd e8 0d 38 3e 9a 02 9f be b6 90 4a 3e
       -0.032317672 0.17974055 -0.31056672 0.19781765
000210 57 af 90 bd 7f 1f 16 bd 9c 61 29 bf 45 2b 26 be
       -0.070646934 -0.03665113 -0.66164565 -0.16227444
000220 cf 57 4d be 3b 07 2b 3e 5e 7c 80 bd 99 cd 7a be
       -0.20053028 0.16701977 -0.06273721 -0.24492492
000230 ad ae 33 bf e7 6f 60 be 3b 0f 92 bd 61 31 e7 bd
       -0.7018841 -0.21917687 -0.07131811 -0.11288715
000240 32 f2 66 3e 7f 3c c2 be 70 e0 af be 1a 0a ea 3e
       0.22553328 -0.3793678 -0.3435092 0.45710832
000250 64 40 8e be 5e 83 c9 3d f5 7b 6f be 9e ea ae be
       -0.277835 0.098395094 -0.2338713 -0.34163374
000260 b8 c1 b0 be de 68 6d be a0 9f 87 bd f0 7e c3 3e
       -0.34522796 -0.23184535 -0.06622243 0.38182783
000270 2c e9 d7 3d 8d 20 36 3d c9 38 a3 be 71 12 cd be
       0.10542521 0.044464637 -0.3187926 -0.40053132
000280 dd 82 15 bd 7a 7e f8 be 4a 97 ca 3e 85 80 53 3d
       -0.036501754 -0.48533994 0.3956855 0.051636238
000290 a7 ef 9a 3d 66 49 c0 bd 03 6b 95 be b7 37 6f be
       0.07565241 -0.09389 -0.29183206 -0.23361097
0002a0 26 24 81 bc 0f 2c b7 be 00 43 b3 bd b3 ec 19 3e
       -0.015764307 -0.35775802 -0.087530136 0.150317
0002b0 d0 fc 78 be 01 f8 0c bb d9 d0 3b bd c2 b2 d0 be
       -0.2431519 -0.0021510127 -0.04585347 -0.4076138
0002c0 7c 4b ef 3d 05 8c 9e bd 45 de d5 3d 13 26 40 be
       0.116843194 -0.0774155 0.10442785 -0.18764524
0002d0 6d fc e5 3d 2f 18 65 3c 48 48 1c be ca f3 a6 3e
       0.11229787 0.013982817 -0.15261948 0.3260787
0002e0 09 04 db bd 15 3c 2d 3e 35 53 81 be d4 eb 9f 3e
       -0.10694129 0.1691745 -0.25258794 0.3123461
0002f0 9e ed 76 3d 24 5f fe ba 4e 74 48 be 60 1b bd 3c
       0.060285203 -0.0019407016 -0.19575617 0.023084342
000300 b0 b2 d3 be 9b 5a d6 3d 00 5e 9c 3d 87 73 49 bd
       -0.41347265 0.104665 0.076351166 -0.04918244
000310 fd 23 a9 3d 45 3d ce bd 34 19 e3 be 8e 4e 72 be
       0.08258817 -0.1007028 -0.44355166 -0.23662779
000320 08 49 19 3e 26 72 f1 3d 66 0c 06 3e ed a1 2b bd
       0.14969265 0.1178935 0.13090667 -0.04190247
000330 fa fb 30 3e af 32 64 be ea f4 36 be ff 73 9f 3d
       0.17283621 -0.2228496 -0.17866865 0.077857964
000340 65 a4 cb 3d a5 f9 c7 be 0c 35 f4 3d 9a 13 3e be
       0.09943465 -0.3905765 0.119241804 -0.18562165
000350 08 3e f5 3d f9 36 b1 3d e4 f0 c3 be 83 51 d9 3d
       0.11974722 0.08653063 -0.38269722 0.1061125
000360 c8 d0 32 bd 5d bf a3 bd 4f 0d c7 3d fb 37 c9 bb
       -0.04365614 -0.07995484 0.09719335 -0.0061407066
000370 b3 4c 96 be 9b a1 21 bc 33 84 e1 3c a6 7f 75 3e
       -0.29355392 -0.00986519 0.027528858 0.23974475
000380 7d c1 c5 bd fd 3a 2e 3c 89 f7 2d be d6 31 85 3e
       -0.096560456 0.010634181 -0.16988958 0.26014584
000390 8f d2 12 3f 59 4a cc 3d 99 3c 66 3e 6c 12 ce 3d
       0.57352537 0.09975118 0.22484054 0.100621074
0003a0 c1 e9 99 3e 93 03 92 3d d9 71 40 3e 86 e8 d5 3d
       0.30061153 0.07129588 0.1879343 0.10444741
0003b0 97 7d 91 3d bd 9b c8 bd 65 18 ab 3e 18 8e b1 3e
       0.071040325 -0.0979533 0.3341705 0.3467872
0003c0 79 7c 37 be 64 0c 0c bf c5 36 00 3e 9e ea b8 bd
       -0.17918576 -0.54706407 0.12520893 -0.09029125
0003d0 60 0e 20 be 97 a4 e1 bc d0 e5 0d 3e 53 f8 2a 3c
       -0.15630484 -0.027544303 0.13857198 0.010435182
0003e0 2d ec 08 3e 7c 7c 8f bd f6 a4 9f be b4 e0 a0 3e
       0.13371344 -0.070061654 -0.31180543 0.31421435
0003f0 6a 78 15 bd 6c b3 a0 3c 2e 70 73 3e 0a a9 ba bd
       -0.03649179 0.019616805 0.23773262 -0.09114273

b3.bias f4 [64]
000000 b5 e3 19 3e bb 1a ec 3d b0 05 9a bd 79 59 08 bd
       0.1502827 0.11528536 -0.07520616 -0.033288453
000010 d3 d7 03 bd c7 34 98 be ff 6e 75 3d b1 d7 09 3e
       -0.032188248 -0.29727766 0.059920307 0.13461186
000020 bb 2a ce be 1e 91 76 be d2 89 7e be ea 15 48 3e
       -0.40266976 -0.24078795 -0.24857262 0.1953961
000030 84 db 85 3d 87 6b 80 3e 02 d6 83 be 3d 67 dd bd
       0.0653601 0.25082037 -0.25749213 -0.10810707
000040 ff 00 eb bd cf ce da 3b 4c 8c f0 bc b4 72 68 3e
       -0.11474799 0.0066774855 -0.029363774 0.22700006
000050 f7 2d 3f bd 96 13 bd be d6 6e 3a bc c3 b7 87 3e
       -0.046674695 -0.36929005 -0.011378964 0.26507387
000060 8f 9e 76 3e 8f 14 ac be a9 42 1e bf 31 7f e3 bd
       0.24083923 -0.33609435 -0.61820465 -0.11108244
000070 e7 21 ea 3e 79 5a 0c be ea e5 98 3d 5b 38 b9 bd
       0.4572899 -0.13706388 0.074657276 -0.09043952
000080 d9 88 4d be 1e 5d c3 bd 4b 33 db bd 78 67 fe 3d
       -0.20071734 -0.09539245 -0.10703143 0.12422079
000090 a0 0b f0 bd d8 58 ab be ad 6e 30 3e 44 6e 03 bd
       -0.11720967 -0.3346622 0.1722972 -0.03208758
0000a0 df 3f 9a 3d 57 b4 ab 3d 05 ad a9 3e a1 4d e0 3e
       0.07531714 0.083840065 0.33139816 0.43809226
0000b0 18 45 f1 bd 90 bb 03 be 69 92 2c 3e 81 9f 3c be
       -0.11780757 -0.12864518 0.16852726 -0.18420221
0000c0 ce f5 ae be 0a fb 95 be 60 e7 2f bd 78 b2 a2 bb
       -0.3417191 -0.2929309 -0.042945266 -0.004965123
0000d0 97 ac 15 be 30 0c 07 3e ff e3 52 3d 8b 38 0d be
       -0.14616619 0.13188243 0.051486965 -0.137911
0000e0 16 08 31 3e 5a 3d 70 3e ee 53 e4 bd 5b c6 eb bc
       0.17288241 0.23460904 -0.11148821 -0.028781107
0000f0 eb 88 88 be 1b 08 8b 3d fc ef 57 3b b4 a8 22 bf
       -0.2666696 0.06788655 0.0032949438 -0.6353867
