nets/model_epoch_34.pth (torch, 648794 bytes, 25 tensors)

a1.weight f4 [16, 5, 3, 3]
00000000: 2d95 993d 213e f73d 66ed d2bc 3b6f f3bd
00000010: 8a55 4bbd 45ea 5f3e 7e35 d6bc d570 0e3d
00000020: 461a 9ebe 475b 31bd 1e2d a8bd 5e41 03be
00000030: 51cf 1f3d e1e2 9bbd b46a 53be 89c5 a2be
00000040: 861a 09bd b11c e7bd 9fe7 9e3d 1f4d bcbd
00000050: 1b7f 323d f104 e63c 6c7b 81be 34f5 703d
00000060: 77b4 4abe 156b 02be 38ac 1d3c ba3f 24be
00000070: f0d5 88bd eb25 463d 8b24 10be 5acc 59bd
00000080: 89b6 b8be 4663 8abe b55f 02be 10fd e03d
00000090: 5e38 2cbe 10e2 94bd c59e 14be 9885 efbc
000000a0: de82 37be a107 01be 082c 30bc 42d9 f2bd
000000b0: b449 3dbd de43 3b3e f700 e2bd 897d 8cbd
000000c0: 0b9d 9a3e be40 b53c f144 a53e 26a0 923b
000000d0: b1ae ea3e 3be4 5dbe da80 8b3d a01f 893e
000000e0: e8d9 a63d 9653 0f3d 3e80 443e b1de 0b3d
000000f0: 3474 ca3d 6c38 ecbe d0ae 543d b75e 213e
00000100: 503e 83bd a0dc bcbd adce a93e 7f53 303d
00000110: 54f7 bdbe dde6 bbbd 51a1 00be 3cff a33d
00000120: 007c 1939 e47c b3be 3182 b5be afc2 50bc
00000130: beec 8c3e f61e d63d 87ba f63d 1e00 023e
00000140: 06de e3be 2cf8 a93b fd62 153d 7db1 6fbc
00000150: 860e 9b3d 2a02 f43c bc91 02bd f769 9fbd
00000160: 08f5 90bd 53e0 be3c 072e 8ebe 22fe cb3d
00000170: e441 a93e 1d83 3b3d 15ed 363e 5b29 e43c
00000180: 30e2 f33e 805d da3e e067 bb3d 468f 253e
00000190: 9b77 533e de69 3c3e 58f9 8abc cfa9 89bc
000001a0: aba5 783c 2a69 aabd 5d6e 0bbe 3a1a d93d
000001b0: bd21 6e3e a9c4 cf3e 0071 4a3e 6bf0 983d
000001c0: 4274 42be 1dce 8f3e 264a 8ebe c448 cabd
000001d0: 8649 113e 5420 01bc 4804 8cbe e0b8 52be
000001e0: 6f1c 243d d8ad 26be d36d 43bc e8ee 863d
000001f0: 0412 873c c173 94be 1e56 a1bc f635 1f3d
00000200: 720e bb3c 2813 28bd c71f ed3d 0b21 eebd
00000210: 05fa 78bc e7d8 6ebd ce26 813d 2261 193e
00000220: 1113 f83d 6cd2 68be 0a61 223e 42ee fb3d
00000230: 3abc 88be a70f af3d c1f0 a4be 25cc 7e3e
00000240: 62eb 1abe 24cd cbbe 28d8 60be ede1 bbbe
00000250: 2266 dabc e4fa 0bbf 0b23 563d 5af1 353d
00000260: 2256 0bbd fdd3 0dbd fdb3 cf3d e95e 203d
00000270: 96a5 32be e2be c2bd eec3 97be dd1f 30be
00000280: 3227 06be fed2 a43e c506 563e 9225 803e
00000290: 5654 593e 45b0 a03e bf3b cfbd e42d 093f
000002a0: 5d2d 143e 9830 1bbd 4f45 57be 0012 31bd
000002b0: 2094 f73c 6a99 273d fdf6 13bc fa92 3cbc
000002c0: 717c 75bb d7b5 473d c14e 29bd 3aec a7bc
000002d0: 3be2 533e d0ca 023d 6de5 72be f05d 2f3d
000002e0: a9bd 0c3e 4339 853e fd83 0f3d 3e6d 463e
000002f0: 2bca 833e cdd0 133e cbe0 dfbd f017 093d
00000300: b348 58be 0b17 40bd cc39 17be aaba 1b3e
00000310: 1212 863d ba35 03be f91b ca3d 3120 213e
00000320: 460b c23e fc6d 0bbd 0947 b2bc 6593 04be
00000330: aefb 8bbe f91a 923e c0a6 d2bc 763f 0bbe
00000340: 4dd7 c4be 2bdd bfbe b835 9c3d d0aa 733d
00000350: b49e 11be 4e5b 41be d821 4cbd 93d2 363d
00000360: 6803 c0bc 1706 b73c 82c6 f2bc 9485 363d
00000370: 4244 bebd fd2e f63c e2ea af3c c77a e53d
00000380: e3a1 4ebd c802 85bd 718c 5dbd 9b4e 663e
00000390: 5921 33bc c471 ccbd fd02 81bd 6d6b 423e
000003a0: 1d5e f9bd e962 b23e 884f 39bd bbfb cc3e
000003b0: 5a7c 8b3e baab 64bc 3516 fabc ad83 9abe
000003c0: cdd6 823d e1ad 473e a777 03bf 789c 703d
000003d0: f1a7 a63d 02e8 a33d 5605 26be 1657 893e
000003e0: 982a 9bbe 5bc5 2cbe 239c 07be 04f4 b6be
000003f0: 5b7e 833e 6ba5 87bc d9c3 c63d c395 143d
0.07499156 0.12072397 -0.025747966 -0.1188645 -0.049642123 0.2186671 -0.026148554 0.034775574
-0.3087942 -0.04329994 -0.082117304 -0.12817904 0.03901607 -0.07611633 -0.20646173 -0.31791332
-0.03347256 -0.11284769 0.07759022 -0.09194397 0.04357825 0.028078528 -0.25289476 0.058827594
-0.19795404 -0.12736161 0.00962358 -0.16039935 -0.0668143 0.048376005 -0.1407644 -0.0531734
-0.36076763 -0.27028865 -0.12731822 0.10985768 -0.16818377 -0.072696805 -0.14513691 -0.029238507
-0.17921016 -0.12600566 -0.010752685 -0.11857845 -0.046212867 0.18287608 -0.1103534 -0.068598814
0.3019794 0.022125598 0.3227916 0.0044746576 0.45836404 -0.21669094 0.06811686 0.2678194
0.08147031 0.034991823 0.19189546 0.034147922 0.09885445 -0.46136796 0.051924527 0.15758787
-0.064083695 -0.092217684 0.33165494 0.043048378 -0.3710276 -0.09174893 -0.12561537 0.080076665
0.0001463741 -0.3505622 -0.3545089 -0.012741729 0.2752437 0.10455124 0.12047296 0.12695357
-0.44505328 0.005187055 0.036471356 -0.014629719 0.075711295 0.029786188 -0.031877264 -0.07783883
-0.07077986 0.023300325 -0.2776949 0.09960581 0.33058083 0.045779336 0.17863877 0.027851751
0.47633505 0.4264946 0.09150672 0.16167936 0.20651095 0.1839976 -0.0169646 -0.016804604
0.015176217 -0.0832084 -0.13616319 0.106007054 0.23255058 0.40579727 0.19769669 0.07467731
-0.18989661 0.2808694 -0.27790946 -0.0987716 0.14188203 -0.007881243 -0.27347016 -0.20578337
0.04006618 -0.16277254 -0.01192804 0.065885365 0.016488083 -0.28994563 -0.019694384 0.03886982
0.022834036 -0.041033894 0.11578327 -0.11627396 -0.015196328 -0.058312323 0.063062295 0.1497846
0.12113012 -0.2273652 0.1585733 0.123013034 -0.26706105 0.08547907 -0.3221493 0.24882562
-0.15128854 -0.39804947 -0.21957457 -0.36695805 -0.026660029 -0.54679704 0.052279513 0.044419624
-0.03401769 -0.034625996 0.10141752 0.039153013 -0.17445979 -0.09509064 -0.2964167 -0.17199655
-0.1310089 0.32192224 0.2090102 0.25028664 0.21223578 0.31384483 -0.101188175 0.5358565
0.1447043 -0.03788814 -0.21022533 -0.043230057 0.030221999 0.04091779 -0.009031055 -0.011509651
-0.0037458206 0.0487574 -0.04133487 -0.020498384 0.20691769 0.0319317 -0.23720331 0.042814195
0.13744225 0.2602025 0.035037983 0.1937761 0.2574018 0.1443512 -0.10931548 0.033470094
-0.21121483 -0.046896975 -0.14768142 0.15207925 0.065464154 -0.12813464 0.098686166 0.15734936
0.37899226 -0.034040436 -0.021762388 -0.12946852 -0.27340454 0.28536204 -0.025714278 -0.13598427
-0.3844551 -0.37473425 0.076274335 0.05948907 -0.14220697 -0.18882486 -0.049836963 0.044634413
-0.023439124 0.022341771 -0.029635672 0.044560984 -0.09290363 0.030051703 0.021474306 0.112050585
-0.050447356 -0.06494671 -0.054089013 0.22490923 -0.010933244 -0.099826366 -0.06299398 0.18986292
-0.12176154 0.34841087 -0.045241863 0.40035805 0.2724331 -0.013956958 -0.030528167 -0.30178586
0.06388626 0.19499923 -0.5135445 0.05874297 0.08137501 0.08003236 -0.16212973 0.26824254
-0.30305934 -0.1687216 -0.13243155 -0.35733044 0.2568234 -0.01655837 0.09705324 0.036275636

a1.bias f4 [16]
00000000: 5d76 473d 7606 bdbd 6ee1 4ebd be04 fbbd
00000010: e6eb 0e3e ef3a d1bd 8bd1 223d 82c7 c1bd
00000020: 561c 1dbe 97c2 c63d c494 7fbd 57e1 b33d
00000030: e6cd 8dbd 248e 52bd 5fc5 773e 7937 5e3e
0.048696864 -0.09229748 -0.050507955 -0.12256764 0.13957176 -0.10216319 0.039750617 -0.09461881
-0.1534284 0.09705084 -0.062397733 0.087832145 -0.06924038 -0.051405087 0.24196385 0.21700849

a2.weight f4 [16, 16, 3, 3]
00000000: e762 0bbd 7ebc 8fbe 3308 86bd 4669 643e
00000010: 1999 113e 83f4 87be f487 723d da20 c1bd
00000020: c058 783d 482a 2ebd fe2e df3d 1882 193c
00000030: 677b 10be 644f 1d3e 2170 21be f003 49bd
00000040: ae9a 093e dfa2 1fbd 6286 11bd 5e08 18be
00000050: bf0d 7abe 823c e0be ca54 bebd c9fd d13b
00000060: 6595 afbd 18d5 bcbe 0e4d fd3d 69bc 1dbf
00000070: c853 693e 9899 9fbe fab7 fb3e 617b 58be
00000080: cb47 4a3e a8ba da3d 3da3 963d 1493 183d
00000090: cfb5 613d 44eb c6be 1c21 92bd bf85 dbbb
000000a0: 9767 99bc b687 35be eaeb d8be 14a4 4abe
000000b0: 13a5 37be 340a a03d fbcf 29be ea44 edbd
000000c0: ecaa 483e 096e 5d3d 5cb1 043e 9e8d b4be
000000d0: 854a 093e 3e24 3a3e 596b 17be 5ffa 3c3b
000000e0: f589 143d 518e b63e 7cd1 9f3e 0413 753d
000000f0: e247 ec3d 5ed6 00bd 03fc ec3c 9661 953e
00000100: e011 4bbe b78d 8cbd 14bd 87be d1d5 50bc
00000110: e232 01be db82 c2bd d41c bbbd 8643 593e
00000120: 7942 493e 6ff5 c93d 4849 a7bb 2735 15bc
00000130: 018b 3ebb 3534 423e 2fa5 33be 6a87 ba3e
00000140: 8576 fc3d 90bd 963d 78a4 693e 508f 04bd
00000150: 22f6 2bbe 6364 143e 36dc c53e 480e 1b3e
00000160: 2973 893d ce12 103e b5a4 27be 2841 37bd
00000170: 5a6e 14be 4d77 e53d e112 5d3e f61a 9cbe
00000180: da19 9d3d 4bae d7bc 309d 293e b2c6 96be
00000190: 843c 3abd 0dc2 fabc c82e f1bd 6284 09be
000001a0: b580 603c 722a ee3e 1d7b 2e3d e74b 03be
000001b0: 750d 44bd 84a5 e7bd 93db 343d b499 ab3a
000001c0: 9727 f93e 951f 9bbe 37ea e03e ce74 663e
000001d0: 5700 42be 504a 103e bd92 abbe c045 e9be
000001e0: 895e 6c3d 2b97 bd3e 36b9 2a3e 9a44 723e
000001f0: 4e07 1cbe 282b a43b 9da7 b8bd b60c 0fbf
00000200: 158c 35bd ab2f e6bc 231b cebb 3825 70be
00000210: 3ad2 d4bd 9660 17be 4f4c eb3d 0284 97be
00000220: 43e9 c9bc 17e2 08be 7f2d f8bd 8838 16be
00000230: 05a2 ee3e 3850 56be bea6 933c 7d44 003d
00000240: 482d 25be 66f3 05bd a489 c93b f5fc 15be
00000250: bfdb 3abe 4ed5 3ebc fdcc f6bd 6ef4 5abd
00000260: e8a2 bdbd 9032 32bc b189 7bbd 4669 4a3e
00000270: 0bbf a4bd fcd0 04be 726b aa3c 9887 8d3d
00000280: 40f8 db3d b4fb c53d c2ba 983d 019d 4c3c
00000290: 6176 183e 2ba7 2fbd a0a2 283e c065 003e
000002a0: dd2f adbc 746f 953d 3c10 af3d 2d4f 22be
000002b0: 36e4 283e cc1c 733e dd6f 0dbd 4797 77bc
000002c0: a3cb 62bd 84d4 903d 1261 89bd b5c3 993e
000002d0: a26e 873e 34f2 46be e383 103e e404 f43d
000002e0: 6db7 f03d d79c c7bd 974b 1f3e 7984 89bd
000002f0: 5c0f 46bd dd00 00be d1d4 fd3d c1cb 1e3e
00000300: 0b37 063c 3232 b83c 9607 9bbd 033e 863d
00000310: 53ab ab3d cf99 1abe 0181 d4bd 87ba a0bd
00000320: 7b23 05be 68d2 9dbd 8503 dabc d1da 293c
00000330: d42f c1bd edb0 4bbe bf82 063d d017 d83d
00000340: ac3d 3f3e 1f54 663d 4e2d 0ebe 6ee4 d53d
00000350: 865c ff3c 50d3 123e 5ff0 fdbc 6544 b53e
00000360: 680c b5bc 85f0 efbd 8a36 a43d 4b9e b1be
00000370: 8ce0 ba3d 0162 00be 98ce 6ebe 73e1 833e
00000380: 0db1 69bd 7aad 10bd 91a7 a9bd 4b7e b73d
00000390: 5101 533d 5b6a 233d 2d68 7d3d 257f 0c3c
000003a0: d965 99bd 2bc0 e9bd 09cb 1a3e 38a3 053e
000003b0: 4fe7 8ebd 6e6f b33c e3cd 52be c18d 583e
000003c0: 87bf 51bd fef4 293e 96e5 50be 435c 9a3c
000003d0: dba6 bf3e 250d fc3d 3c85 963b 943a 933d
000003e0: 2ebe 813e cf4e 39be f140 43be efe1 38be
000003f0: b70c 4dbd 5837 a03e b783 41bc dd15 e5bd
-0.034029868 -0.28073496 -0.065445326 0.22305784 0.14218558 -0.26553735 0.059211686 -0.09430094
0.060631514 -0.04252079 0.10897635 0.009369396 -0.14109574 0.15362316 -0.1576543 -0.04907602
0.13437912 -0.038973685 -0.035528548 -0.14846942 -0.24419306 -0.43796164 -0.09293516 0.0064084274
-0.085734166 -0.36881328 0.12368213 -0.61615616 0.22785866 -0.3117187 0.491638 -0.21140815
0.1975395 0.10680133 0.07355354 0.03724964 0.055105027 -0.38851368 -0.07135221 -0.0066992934
-0.018726153 -0.17727551 -0.42367488 -0.19789153 -0.17934065 0.07814446 -0.16583245 -0.1158541
0.19596452 0.054060016 0.12958282 -0.35264295 0.13407333 0.18177888 -0.14787044 0.0028835756
0.03626438 0.35655454 0.3121451 0.059832588 0.11537148 -0.031454436 0.028928762 0.29176015
-0.19831038 -0.068629675 -0.26511443 -0.01274629 -0.12617067 -0.09497615 -0.09136358 0.21217164
0.19654264 0.09861266 -0.0051051714 -0.009106911 -0.0029074552 0.18965228 -0.17543481 0.36431438
0.12327293 0.07360375 0.22816646 -0.032363236 -0.16793111 0.1449142 0.3864457 0.15142167
0.06711418 0.14069673 -0.16371424 -0.044739872 -0.14495221 0.112043954 0.21589233 -0.3048932
0.076709464 -0.026328227 0.16563869 -0.29448467 -0.04546787 -0.030610109 -0.11776501 -0.13429406
0.013702561 0.46516758 0.04259788 -0.12821923 -0.047864396 -0.113108665 0.044154715 0.0013092072
0.48663017 -0.30297533 0.43928692 0.22505495 -0.18945442 0.14090848 -0.3351039 -0.45561028
0.057707343 0.37029395 0.16672215 0.23658982 -0.15237162 0.0050100274 -0.09016345 -0.5587877
-0.044323046 -0.028098902 -0.006289856 -0.23451698 -0.1039166 -0.14782938 0.11489164 -0.295929
-0.02464736 -0.13367496 -0.12118053 -0.14670002 0.46607986 -0.20929039 0.018023845 0.031315316
-0.16130555 -0.032702826 0.0061504412 -0.14647277 -0.18247889 -0.0116475355 -0.12050817 -0.053455763
-0.092595875 -0.010876313 -0.06141061 0.19766721 -0.08044251 -0.12970346 0.020803187 0.06910628
0.10740709 0.09667149 0.07457496 0.0124886045 0.14888908 -0.042884033 0.16468287 0.12538815
-0.021140987 0.072966486 0.08548018 -0.15850516 0.16493306 0.23741454 -0.03453051 -0.015111751
-0.055369984 0.07071784 -0.06707968 0.30032125 0.26451594 -0.1942833 0.14112811 0.11914995
0.11753736 -0.09746712 0.15556179 -0.0671472 -0.04835449 -0.1250033 0.12394107 0.15507413
0.008191834 0.022484872 -0.07569806 0.065547965 0.08382287 -0.15097736 -0.10376168 -0.07848077
-0.13001816 -0.077061474 -0.026613006 0.010367111 -0.094329506 -0.1989171 0.032839533 0.10551417
0.1867587 0.056232568 -0.1388447 0.1044396 0.031172048 0.14338422 -0.030998407 0.35403743
-0.022100642 -0.11715797 0.08018215 -0.3469108 0.0912486 -0.12537386 -0.23320997 0.25757942
-0.057053614 -0.03532169 -0.08283914 0.08959635 0.051514927 0.03989635 0.061866928 0.0085752355
-0.07490129 -0.11413606 0.15116514 0.13050544 -0.06977712 0.02190372 -0.20586352 0.21147825
-0.051208045 0.16597363 -0.2040008 0.018842822 0.37431988 0.123071946 0.0045935195 0.07188907
0.25340408 -0.1809647 -0.19067742 -0.18054937 -0.050060954 0.31292224 -0.011811188 -0.11185811

a2.bias f4 [16]
00000000: 129e d0bd 9aeb 15be 894b b2bd f7fd 0abd
00000010: 448c ae3c beff 0ebe 4622 203b 1626 d5bc
00000020: c581 e73d 3fe0 cdbd 4dc6 26be 32dd 53bc
00000030: 4c04 04be ec41 183d 32ae 203e 86f8 be3d
-0.101863995 -0.14640656 -0.087058134 -0.033933606 0.021307118 -0.13964745 0.002443449 -0.026019137
0.113040484 -0.10052537 -0.16286583 -0.012931155 -0.12892264 0.037172243 0.1569145 0.09324746

a3.weight f4 [32, 16, 3, 3]
00000000: d479 0fbe d782 a63e 0c2b cfbe be8b acbd
00000010: 8043 dbbd 1359 f6bd c59b 0bbf 5234 abbd
00000020: 9f02 283e fe67 35bd 7c65 98bd dfbb 30be
00000030: 0818 1fbd 21c7 363e c491 433e a111 90be
00000040: 48e7 3fbe 0cf7 e4be 806a 253e f040 9c3c
00000050: 295c d33d 28c5 ef3d 8c83 233e ca8b d7bd
00000060: ff2d fdbd 4a34 523d 7986 e2bd 84c7 88be
00000070: e028 293e f1be 173e ae24 433d d028 a8bd
00000080: 33df 093e 8030 5bbd d228 25be 5c04 d93a
00000090: 798b 2b3e c025 cd3d 75f7 12be 2a7c ccbd
000000a0: f5f7 913e 6855 96bd 3914 243e 9636 373d
000000b0: e361 aabc 6dbf b03d 58c1 0b3d cd2b 01be
000000c0: 8c84 813e f2a0 01bd 4a7d a03e 558f 9bbe
000000d0: d3be 1ebe 6de8 123e ab5c ae3d 819e 9b3d
000000e0: 60b5 47be daeb 6c3d 3e4c dc3d 2717 0abe
000000f0: 3b37 7d3d 2761 9f3e 7c2b 7e3c 21db ae3d
00000100: 3bc3 15bc eaa6 1f3d 7f18 103e 9f5d 783e
00000110: c456 97be 33f8 b43e ff0d 9bbd 4e19 3abe
00000120: 3c3e 4abd ec23 173e 55d2 afbd 9505 db3d
00000130: 17c6 963e 2539 fe3c fc01 fc3c f19d 88be
00000140: 3169 09be 5c0e b83c e664 743e e9b5 a5bd
00000150: d290 623e 50fb c0bc 484d 4cbc a6f9 0bbe
00000160: 0764 c2bd 6a41 033e 0017 253c 3730 a53d
00000170: 4ef9 92bd 7d28 df3d 1ce4 90be 7ab4 b13e
00000180: 806c 653d 4280 0fbe 5423 49be dfe7 04bd
00000190: 2533 61be c729 bbbd 567b 30be bec7 973e
000001a0: 7f99 2fbd 3c7e 08be f37d 563e 8b11 e6bd
000001b0: 449a 75bd 6f22 a1be 6ed3 89be 38c2 343e
000001c0: eb8c 16bd 7282 b13e 8c95 04bf 6ba5 633d
000001d0: 6806 05bd be9a f33e 8179 fb3c 39cb 6abd
000001e0: 18a0 943e fbd7 c1bc bbbd a4bd d817 143e
000001f0: f4fd c8bc 0794 203e ce83 b33e ac26 70be
00000200: 6c66 c1be e0d1 a53d 2871 883e b559 24be
00000210: 3c15 043e 2e54 88bd a41b 6cbe 00eb a33c
00000220: 5bb4 ae3d 3106 c93d 9a70 e939 0200 c03e
00000230: 32d8 39bf a989 403e 46cd 29be 054f 82be
00000240: d6cf 043e b4da 6fbd 2b50 db3e b48f c33d
00000250: d6d8 583c a753 093e 6e83 c0bd b55f 85bd
00000260: 9dd1 c63d a630 56bd aa60 b1bd 39ca 273e
00000270: bef1 20be 8a4b 2cbe 137b 2e3e 19ed 573e
00000280: 6d42 313e 40b5 45be 04d8 b1be dafa 3ebc
00000290: 650a 6ebd 672f 383e 32d0 08be ef12 65be
000002a0: ab81 1cbe 04b8 333c 4b1d 81be 2b97 08be
000002b0: 7b15 0abe 5703 00be 499c 3abe 8639 173e
000002c0: 4389 133e 69c8 853d 08dd e8bd c116 163e
000002d0: 06f2 5dbe 2b5d 4bbd 0246 74bd 5b61 39be
000002e0: f3ec d7bd 29cf 6f3e 1171 52bd 5cdb 1fbe
000002f0: 87a0 5f3e 07a5 b53d a63c 763d 36a3 ae3d
00000300: 13f9 cb3d df66 51bd 724c 943e cbac a4bd
00000310: 9260 55bd 4b4c ba3d 2daf 2dbe 6f31 56be
00000320: f683 a73d 75fc 8abd b7b2 51be a461 413e
00000330: 46e1 bf3d 2bfd 3b3e 42ca 6d3e 896a a3be
00000340: ef17 2abe 937d c6be 9fcd dc3d af8e 9f3e
00000350: c903 05be 391f 11bf d058 f53d 5da6 993e
00000360: 9798 563d 4e3d a93e 7d3d 14be ff1d 7dbe
00000370: c743 623b bb87 babe 65ad f7bd 9432 27be
00000380: 1932 653c ba0b 383e afcc 00be 5ada d0bd
00000390: b6f9 203c 36c0 51bd b3bc 68be 3693 09bd
000003a0: 032d 173e 05d4 233d 7cc4 6c3e bcf4 23be
000003b0: 32e5 5f3e 019c 3ebe 68c2 f4bd 51b8 67be
000003c0: 0b2e 22be da7d c6be dd83 a1bd 41ed 9ebe
000003d0: e3de 1dbd db4b 80bd 62e3 d5bd b229 76bd
000003e0: 9612 1d3e c1c4 09bf a185 83be 3fa8 393e
000003f0: f4f3 8c3e badf c0bd 1c67 293e 536a 6cbe
-0.14011317 0.32521698 -0.4046253 -0.08425091 -0.10706234 -0.12028708 -0.5453456 -0.08359589
0.1640725 -0.044288628 -0.074412316 -0.17259167 -0.038841277 0.17849399 0.19098574 -0.2813845
-0.1874057 -0.44719732 0.16153908 0.019073933 0.103203125 0.117075264 0.1596815 -0.105247095
-0.12362289 0.051319398 -0.11060805 -0.26714718 0.16519499 0.14818932 0.047642402 -0.08210909
0.1346405 -0.05351305 -0.16128853 0.0016557085 0.16752423 0.10016966 -0.1435221 -0.0998462
0.2850949 -0.07340509 0.1602334 0.04472979 -0.02079863 0.086302616 0.034119934 -0.12614365
0.25296438 -0.03164763 0.31345588 -0.3038279 -0.15502481 0.14346476 0.08513769 0.075985916
-0.19502783 0.057842113 0.107567295 -0.13485394 0.06182025 0.3112881 0.015513297 0.08537889
-0.009140785 0.03897754 0.14071845 0.24254464 -0.29558384 0.3534561 -0.07571029 -0.18173715
-0.049375758 0.14759797 -0.085850395 0.10694424 0.29448006 0.031033108 0.030762665 -0.26683
-0.13419034 0.022467785 0.23866615 -0.08091337 0.22125557 -0.023557335 -0.012469597 -0.13669452
-0.09491735 0.12817922 0.010076284 0.08065837 -0.07176457 0.108963944 -0.28299034 0.34708005
0.056011677 -0.1401377 -0.19642383 -0.032447692 -0.21992166 -0.09138828 -0.17234549 0.2964458
-0.042870995 -0.13329405 0.20946483 -0.11233815 -0.059961572 -0.31471583 -0.2691912 0.17652214
-0.036755484 0.34669834 -0.5179069 0.055577677 -0.032476813 0.47578996 0.030697586 -0.057322714
0.29028392 -0.023662558 -0.08044001 0.1446222 -0.024535157 0.15681468 0.35061496 -0.23452252
-0.37773454 0.08096671 0.2664883 -0.16049846 0.12898725 -0.06656681 -0.23057419 0.020009518
0.08530494 0.09815634 0.00044525118 0.37500006 -0.7259551 0.18802513 -0.16582212 -0.25450912
0.12969908 -0.05855818 0.428346 0.095488936 0.0132352915 0.13410817 -0.09400068 -0.06512395
0.09707949 -0.05229249 -0.08661015 0.16385736 -0.15717217 -0.16825691 0.17039137 0.2108654
0.17310496 -0.19307423 -0.3473512 -0.011656487 -0.05811538 0.17986833 -0.1336067 -0.22370504
-0.1528384 0.010969166 -0.2521766 -0.13338916 -0.13484757 -0.12501274 -0.1822368 0.14768037
0.1440783 0.06532366 -0.11370283 0.14657117 -0.21674356 -0.0496494 -0.059637077 -0.18103544
-0.10543241 0.23418869 -0.05137736 -0.15611023 0.2183858 0.08869367 0.060116433 0.08527224
0.099596165 -0.051123496 0.28964573 -0.0804077 -0.05209405 0.09096583 -0.16961356 -0.20917295
0.081794664 -0.067864336 -0.2047833 0.18884903 0.093691394 0.18358295 0.23221686 -0.31917217
-0.16610692 -0.3876768 0.107814066 0.31163546 -0.12989725 -0.56688267 0.1197983 0.30009738
0.052391615 0.33054584 -0.14476581 -0.24718474 0.0034525262 -0.3643168 -0.12093619 -0.16327888
0.013988995 0.17973223 -0.1257808 -0.10197897 0.009825161 -0.051208697 -0.22728233 -0.033587657
0.14763264 0.03999712 0.23121828 -0.16011328 0.21864775 -0.18614198 -0.119511425 -0.22628905
-0.15837876 -0.38767892 -0.07886479 -0.31040385 -0.03854264 -0.06264468 -0.104437605 -0.060098357
0.15339121 -0.5381585 -0.25687888 0.18130587 0.2752987 -0.094176725 0.1654324 -0.23087434

a3.bias f4 [32]
00000000: f606 2ebe 4ba7 923d 816a 913d 8c2b 79be
00000010: c62d 6fbe afc4 993c 7232 683d 9b56 3fbe
00000020: 080d 9dbe 73b1 27be 72d8 15be db2a d5bd
00000030: 6fdd e0be 5f16 c4bd f4fa 9abd b9e5 923e
00000040: 1904 6d3e c6cd 19be 7053 d5bd cf7d 76be
00000050: 7e8d d4bc 1be2 3fbe 78b7 94bd 9b67 2dbe
00000060: 8198 68bd c8a3 3a3e 354f 723e a74e 95bd
00000070: 3670 463b 6d52 8a3d f071 73bd f65f 18be
-0.16994843 0.07160815 0.07100392 -0.24333018 -0.23357305 0.018770544 0.056688733 -0.18685381
-0.30674005 -0.16376285 -0.14633349 -0.10408565 -0.4391894 -0.095745794 -0.07567397 0.2869089
0.23146094 -0.15019903 -0.10416305 -0.2407143 -0.025946375 -0.18738596 -0.072615564 -0.16934054
-0.056786064 0.1822654 0.23663028 -0.07290392 0.0030279285 0.06754003 -0.05943483 -0.14880356

b1.weight f4 [32, 32, 3, 3]
00000000: 0816 bbbe 583a 6c3d 7994 05be 81d5 c2bd
00000010: e39a 8dbd 1bb7 e3bd 674e 80bd e3c0 bb3c
00000020: 79ce 2dbe db11 4c3c 6418 b4be 994f 9a3d
00000030: 3190 88be 4f37 00bf 453d 513d 0884 fb3d
00000040: 331f afbe 9d96 b23e 2d8c 3e3d 35a4 203e
00000050: 61df 913d d587 a43d 2c31 7f3e 9a6e 2fbd
00000060: 4d19 4cbd 3653 9d3d 32a5 b8bd 6de4 8d3e
00000070: 5279 623e 8795 343e 4742 f23d 21fe 95be
00000080: a056 103e f138 1fbe a2b8 f3bd e480 87be
00000090: 7cb4 803e 673c 5dbe a0a1 413b bfdf 32bc
000000a0: 9dca ee3b 8669 b4be bee2 4bbd 52a1 01bf
000000b0: 8258 de3c 9643 ef3e dd0d 05bf eb71 81bd
000000c0: 96dc 573e 8f4e 05be a60b 8b3d 9f3f fa3d
000000d0: 3b77 8bbd ce2e bdbe 22f8 65be 5061 afbd
000000e0: 9ea2 ebbd b378 afbc e5b3 333d 8dd9 cb3c
000000f0: 45b5 60be 4421 80bc 9041 9fbc 80a2 7dbd
00000100: c7c4 5a3d 31b5 273d aa98 2a3d d78c 2bbe
00000110: 6f6b 1abd 992c 263c 1691 6e3d 88d8 c73c
00000120: 3509 1bbe 9712 8abe 51a3 afbe 0c02 b3be
00000130: e22b 463e 7d51 ba3b a6bf a8be 0ed7 ac3d
00000140: ad48 4b3e 6fcc 3a3e 1798 93bd a9f7 27be
00000150: c132 493e 416d d13d e8b3 993e 8ad3 073f
00000160: c210 9fbd 64e1 8fbd 4804 63be a27c 523e
00000170: be03 71be cb7e f53d c262 3c3e 2b93 f1bd
00000180: 2396 d83d 894d 2a3d 60ed 393d b7f9 72be
00000190: c01d 59be c321 ddbe a22c 7a3e cfde d5bd
000001a0: 45fb a5be 8b29 733e 4155 1e3e 6229 40be
000001b0: 296e 9bbe d374 a6be 9a9c 9dbd 689a 06be
000001c0: 2bb9 f8bd 4622 843e ba40 38be a602 a4be
000001d0: 03b7 8cbd 9fca 18bd 1e4c 0d3d c9e9 9c3d
000001e0: 8b44 b03d 8904 38bc d6c6 9dbd 1bd4 023c
000001f0: 39b4 a8be aaea 0a3e 8b5d 153e cd98 003e
00000200: 041a a73d 2685 42bd 94ad 88be 024f b53c
00000210: 0693 dfbc 8da0 29be 4bc6 0ebd 0af9 c43c
00000220: 71e3 47bc 73b7 1bbd 3653 3abe 3faa 033d
00000230: a583 6ebd 8eaf 153d 230a a2be c3a5 0c3c
00000240: 9082 2bbe 6bdd 143d 0f9c cf3d 72ea 433e
00000250: 759c 853e 3734 1a3e c5b8 953c 28fe 8dbd
00000260: 92ba 703e eb68 5f3d ffee 133e a9ee c1be
00000270: 75c3 14b9 cf5e 12bd 4345 eabe 7c6c edbc
00000280: 1d9c 583e e24f bdbd fc11 873e 5713 12bd
00000290: 5bda e1bd 3642 3f3d abb0 e9be 6ea1 59be
000002a0: 04a8 33bd be35 c1bd 30c9 e3bd 4a5e 62be
000002b0: 09aa ae3e 1c70 6dbe c7a9 133e 23ed 253e
000002c0: b631 23bd 3b0f 10be 89d0 733e ee0d 0ebe
000002d0: e3bb 183d 784f 01be 460b 033e 4238 a03c
000002e0: ecb8 39bd 4be7 f4bc c3cc 343e f2a7 8c3d
000002f0: 4fcf 463e ba7d 673d fdfb 81be 1641 12be
00000300: 7aee 203e aa60 833d 0ca3 403e 5adf 6dbd
00000310: d12e 47be 91eb 16be aa45 31be 5711 093e
00000320: eaed 0bbc 13b8 23be 473e ff3d 5742 b73d
00000330: a0ef 373e 8428 c4be 433f a0bd f27a 1fbe
00000340: 4d1c 253e dcd6 38be 8a03 48be a099 2fbd
00000350: 8c14 24be 79c9 a3bd e975 a13e 6e6d f93d
00000360: a3a1 843e f4c7 82be e0da a1be fa92 8dbe
00000370: 0ed1 153d dc3a b13d 3fbc 21bd e807 2a3e
00000380: 0be6 1f3d b74a 473e 8396 813d 28a0 cfbe
00000390: cf1e c6bd 0308 143d a5ef 343e 2252 dabd
000003a0: 919c ad3e fd2b ec3d bb9f db3e 2fb8 5cbb
000003b0: 5d59 8abe 54f2 a83d 55e6 fabc 2ae0 95bc
000003c0: 12b4 2d3d 7c71 8a3e b8c7 b9be 05d8 823e
000003d0: 3753 56bd 1090 f6bd 35de 36bf 4970 87be
000003e0: cf66 d7bc 722d fb3b deb1 4f3e bfe8 683c
000003f0: 831b a43e e3a1 6fbd 49ef d7be e17a 343d
-0.36540246 0.05767283 -0.13044919 -0.09513379 -0.06914308 -0.11118909 -0.06264954 0.022919124
-0.16973294 0.012455429 -0.3517486 0.07534713 -0.2667251 -0.50084394 0.05108382 0.12281042
-0.3420349 0.34880534 0.0465204 0.1568764 0.07122684 0.080337204 0.24921101 -0.042830087
-0.049828816 0.07681887 -0.090158835 0.27713338 0.22116593 0.17635165 0.11829048 -0.29295447
0.14095545 -0.15549065 -0.1190045 -0.26465523 0.251377 -0.21605073 0.00295458 -0.010917603
0.007287337 -0.35236758 -0.049776785 -0.5063678 0.027141813 0.4673125 -0.5197428 -0.06320556
0.2108024 -0.13018249 0.06789331 0.12219166 -0.06809851 -0.36949772 -0.22457936 -0.08563483
-0.11505626 -0.021419859 0.043872733 0.02488401 -0.21944149 -0.015640862 -0.019440442 -0.06192255
0.053410318 0.040944282 0.041649498 -0.16752945 -0.037700113 0.010142469 0.058243833 0.024395242
-0.15140231 -0.26967308 -0.34304288 -0.349625 0.19352677 0.0056859837 -0.32958716 0.08439456
0.19851942 0.18242048 -0.07206743 -0.16403069 0.19648267 0.10225917 0.3002007 0.5305716
-0.07766868 -0.07025412 -0.22169602 0.20555356 -0.23536584 0.119870745 0.18397048 -0.11795648
0.10575511 0.04157785 0.045392394 -0.23728071 -0.21202755 -0.4318982 0.24431089 -0.10442888
-0.32418266 0.23746316 0.1546221 -0.18765786 -0.30357483 -0.32511005 -0.07695885 -0.13144839
-0.12144693 0.258074 -0.17993441 -0.3203327 -0.06870844 -0.03730261 0.03449642 0.076617785
0.086068235 -0.01123155 -0.077039406 0.00798514 -0.3295 0.1356608 0.14586465 0.12558289
0.08159259 -0.04749026 -0.2669493 0.0221324 -0.027291786 -0.16565152 -0.034857076 0.024044532
-0.012200222 -0.038016748 -0.18195805 0.03214478 -0.058231015 0.036544375 -0.3164836 0.008584443
-0.16749024 0.036343973 0.10137188 0.19132403 0.2609593 0.15058981 0.018276582 -0.06933242
0.23508671 0.054543417 0.14446639 -0.37877396 -0.00014187193 -0.035734948 -0.45755967 -0.028982393
0.21153302 -0.09243752 0.26380908 -0.035662975 -0.11027976 0.046694003 -0.456426 -0.21252987
-0.043861404 -0.09434079 -0.11122358 -0.22106281 0.34114102 -0.23187298 0.14420234 0.16203742
-0.03984233 -0.1406831 0.23810019 -0.13872501 0.037288558 -0.12627971 0.12797269 0.019558076
-0.04534237 -0.029895445 0.17656235 0.068679705 0.1941502 0.056516387 -0.25387564 -0.14282641
0.15715972 0.064149216 0.18812197 -0.058074333 -0.19451453 -0.14738299 -0.17311731 0.13385521
-0.00854061 -0.15988187 0.1246305 0.089482 0.17962503 -0.3831216 -0.07824566 -0.15574244
0.16124077 -0.18050712 -0.195326 -0.042871118 -0.16023463 -0.07997412 0.3153527 0.12179075
0.2590457 -0.25543177 -0.316123 -0.27651197 0.036576323 0.08653805 -0.039486166 0.16604578
0.039037745 0.19462095 0.06327536 -0.40551877 -0.09673845 0.036140453 0.17669542 -0.10660197
0.33908513 0.115318276 0.42895302 -0.0033679118 -0.27021304 0.082493454 -0.030627409 -0.018295366
0.042408057 0.27039707 -0.36285186 0.25555435 -0.052325454 -0.120391965 -0.7143281 -0.26452854
-0.02629414 0.0076653296 0.20282695 0.014215647 0.3205224 -0.058503997 -0.42174748 0.0440625

b1.bias f4 [32]
00000000: 99d5 98bd d86b 37be a394 a7be da61 39be
00000010: 9717 c43e b3c0 e5bd 22dc 01be d3a7 9a3b
00000020: cb23 afbd c698 b9be 96eb 8fbe 6a2b 973d
00000030: 5ee6 4bbe f4c6 8cbe c25a 3c3d cb02 20be
00000040: 584e dfbd 8549 debe 3572 0fbe e6e0 2a3e
00000050: 083d 08be e2b6 6abe 6e0b b83e be73 c7be
00000060: 54b9 3dbd 67f9 17be fb56 c0bd fc67 03bf
00000070: e8fe 5abd f64f f6bb 4874 bf3d fd6c f6bd
-0.074626155 -0.17912233 -0.32730588 -0.18103734 0.38299248 -0.11218395 -0.1268163 0.0047197132
-0.08551749 -0.3624937 -0.28109425 0.073813275 -0.19912097 -0.2749554 0.04598499 -0.15626065
-0.10903615 -0.43415466 -0.1400841 0.16687354 -0.13304532 -0.22921327 0.3594622 -0.38955492
-0.04631932 -0.14841233 -0.0939159 -0.5133054 -0.053465754 -0.0075168563 0.09348351 -0.120325066

b2.weight f4 [32, 32, 3, 3]
00000000: 910e 513e 9eda a63d 274b 02bd 587f c33d
00000010: 8cc9 38be e6dc 983e 3f1f 07be 92d0 56bd
00000020: 960f 253e dd86 813e a988 213d 72d1 a8bc
00000030: b6a8 b1bd 1df4 8fbd 9479 1cbe 6b09 c33d
00000040: beac 033e 68d3 e1be 9705 15be 8401 603e
00000050: 81e9 cbbe 9cb3 ecba e910 3cbe bf8e 033e
00000060: e221 2fbe 798d e5bd b36a 11be 4432 c93e
00000070: d599 abbd f3df 2f3e d20e 043f ea75 6dbd
00000080: 3f79 1fbe 4d03 1abd 00c6 d6be a07b 43bd
00000090: 947f 9bbd 4cb0 da3d ea81 b1be 33d2 8fbc
000000a0: 21f7 493e 0012 86be a9cc d2be a5b1 f83d
000000b0: 8b02 523e d83f 053f 1e10 9abe 8c63 95bd
000000c0: d184 a8be db13 4bbd 9f96 c5be bd23 323e
000000d0: 8717 043f 969d 2b3f 68d0 cb3d d783 86be
000000e0: d508 c53d d7ed 1fbe 559e 68bd b758 e7bd
000000f0: 038a 8f3d 7b08 1d3e bf66 8cbe 94de a93e
00000100: 68fd dabd d030 0cbe 5292 eabd b846 973d
00000110: 1f70 393d ae49 743b 43db cc3d 5c1a 31be
00000120: ca7b 47bb 270e 3fbe ee26 733e 826a 273b
00000130: 1421 1dbd bab3 b6bd fdbd e8bd d4b1 d03c
00000140: 294a a2be c246 94be 5a76 9fbe 043b 57be
00000150: 4421 343e 3942 04be 1a4c 8f3e 2449 c53e
00000160: 582b 673d 8a46 91bd d6c6 bfbc cabf 14be
00000170: e6e6 ddbd e219 e3bd e506 17be 6467 24be
00000180: 363a 9c3e ad90 563e 9ad8 84be 16d1 c73d
00000190: 0c92 84bd 0603 023e e583 49be 76ac a53d
000001a0: 8041 3dbe eb34 a1be 4386 0b3e d449 e3bd
000001b0: 445d 8abe b997 0abe 85d9 22bc fa18 ff3d
000001c0: cb2b afbd a854 21be f6ec 9bbe 904a f43d
000001d0: 2c2b 893d b336 9abe 7cce efbd f29b 08bf
000001e0: dd24 93bb 29d2 8bbe 046f e03d d476 35be
000001f0: 5652 4cbd 1fa3 b3be 77cb 283e ec1c 4ebc
00000200: 31b1 dcbd b198 07bd 04d9 f6be bdff 4c3b
00000210: e533 0abe 35f2 303e 02aa f63c 394a 0cbe
00000220: 4c9a a9bd ba62 7dbd fca6 683e 3b52 e7be
00000230: 5fd8 d23d 4fb2 453c eaad 443e b383 613d
00000240: 4a73 903e d8bb 61bd b6e9 9cbd 0712 b43d
00000250: ee00 2dbe 7d9f 983d dc21 553d 86fa 593e
00000260: bdfd 9abd 78f6 30bb 9fab 7bbd bb24 043e
00000270: 367b 113e 665c 183d 33b5 893d ee01 34be
00000280: 5cc7 fc3d 0e70 71be 4d96 87bd d5ba 483d
00000290: 3db6 47bd eb28 f3bd 1bde acbd c769 86be
000002a0: 9cad 2cbe 14bc 11be 0ddb 6b3c d6f4 8a3e
000002b0: 2d5d a0bc bc42 cebd 4979 da3d 0086 323e
000002c0: 88f4 333e abf1 96bd 3505 cc3d 21e9 51bd
000002d0: 02db 9a3b db6a 67be 64e8 3ebd 839a 4c3e
000002e0: fb61 c0bd f6d7 d3bc 26f7 a6be 7a0e 7dbd
000002f0: 30a8 6abe 433e 7cbe 9a47 efbd 1c1b b03d
00000300: 43e4 603e 3836 3b3e d749 8e3e 2a3d 2cbd
00000310: 1c35 64be 1eea e2bc 10bb 823e 5f74 8cbe
00000320: fc48 083e 9b35 403d 96bc 34bd 5ff5 063e
00000330: c877 21bf 6d5c 993e 7604 a5bd 4ea8 61be
00000340: fb03 81bd a32e 4cbd 954f 81bd 8b0e aebe
00000350: aa73 313f a6d8 353d c99e e13c 418c 663e
00000360: f982 2abc a000 debd 7f7a ccbd 0d3e b63d
00000370: 9bd9 12be 96a5 2e3d 30cc 8a3e 169e 3d3e
00000380: 31cb a5be 18a2 8a3c 92a2 30be 20f3 fd3d
00000390: 5341 c53a 512d 783e 4cdb 0bbe 81d8 13be
000003a0: 7702 65be c135 f63d db46 a83d ba45 01be
000003b0: c40a 993d 9286 3d3c 9335 de3d 5da0 183e
000003c0: 8c2f b6be e702 95be 20bc 7dbe aa1a 1b3e
000003d0: cbf2 edbd f56a c23e decb 453e a8ef a5bd
000003e0: 6f84 8abe ce20 a1bd 29a2 c9be 59e5 d23d
000003f0: 8fa5 4b3c bb73 ab3d 110e 743e 1896 463d
0.20415713 0.08147167 -0.031809952 0.09545773 -0.18045634 0.29856032 -0.13195513 -0.052445002
0.16119227 0.25298205 0.03943697 -0.020607684 -0.08674757 -0.07028983 -0.15280753 0.09523281
0.12858865 -0.44106603 -0.14552914 0.21875578 -0.39826587 -0.0018058899 -0.18365826 0.12847422
-0.17102769 -0.112086244 -0.14200859 0.39296162 -0.083789505 0.17175274 0.51585114 -0.05797378
-0.15573595 -0.037600804 -0.41947937 -0.04772532 -0.07592693 0.10678157 -0.3466943 -0.017556285
0.19723178 -0.26185608 -0.41171768 0.12143258 0.20508783 0.5205054 -0.3009042 -0.07294378
-0.3291383 -0.049579483 -0.38591477 0.17396446 0.515984 0.6703733 0.0995186 -0.2627246
0.09620825 -0.15618072 -0.056791622 -0.11296218 0.070087455 0.15335266 -0.2742214 0.33177626
-0.10692865 -0.13690495 -0.1145369 0.073865354 0.045272943 0.0037275362 0.10002758 -0.17295212
-0.0030438774 -0.18657742 0.23745319 0.0025545661 -0.038361624 -0.08920999 -0.113643624 0.02547542
-0.31697205 -0.28960234 -0.31144983 -0.21018606 0.17590815 -0.12915887 0.27987748 0.38532364
0.05643782 -0.070935324 -0.023410242 -0.14526287 -0.10835056 -0.11088921 -0.14748724 -0.16055065
0.3051316 0.20953627 -0.25946504 0.09756677 -0.06473169 0.12696466 -0.1967922 0.08089535
-0.18482018 -0.31485686 0.13625436 -0.11098066 -0.2702428 -0.1353444 -0.009939556 0.12455936
-0.08553275 -0.1575495 -0.30454224 0.11928284 0.066976875 -0.30119857 -0.11709306 -0.53362954
-0.0044904784 -0.27308777 0.109586746 -0.1772111 -0.04988321 -0.3508539 0.16483866 -0.012580138
-0.10775984 -0.033104602 -0.48212445 0.0031280362 -0.13496359 0.17279895 0.030110363 -0.13700189
-0.08281383 -0.06186173 0.2271995 -0.45179924 0.10295176 0.012066438 0.19206968 0.05505724
0.2821296 -0.055110782 -0.07661764 0.08792501 -0.16894886 0.07452295 0.052034244 0.21286973
-0.07567928 -0.0027002376 -0.061442968 0.12904637 0.14207157 0.037197493 0.06724014 -0.17578861
0.12342712 -0.23577902 -0.066204645 0.049006302 -0.04875778 -0.11873039 -0.08440801 -0.26252577
-0.16863102 -0.14231902 0.0143954875 0.2713992 -0.01957568 -0.10071322 0.106676646 0.1743393
0.1757375 -0.07370313 0.09961931 -0.05124772 0.004725815 -0.22599356 -0.046608344 0.19980817
-0.09393688 -0.025859814 -0.32610434 -0.061781384 -0.22915721 -0.24633126 -0.11683579 0.08598921
0.21962075 0.18282402 0.2779071 -0.042050518 -0.22285885 -0.027699526 0.25533342 -0.27432534
0.13309091 0.046926122 -0.044125162 0.13179539 -0.63073397 0.29953328 -0.080574915 -0.2203686
-0.06299587 -0.049849164 -0.06314007 -0.3399547 0.69317114 0.044396065 0.027541535 0.2251444
-0.010407203 -0.10839963 -0.09984302 0.08898554 -0.14340822 0.042638384 0.27108908 0.18517336
-0.32381585 0.016922995 -0.17249516 0.12399888 0.0015049375 0.24236037 -0.13657874 -0.14438058
-0.22364222 0.120219715 0.082166396 -0.12624255 0.074727565 0.011567729 0.10850062 0.14904924
-0.3558315 -0.29103777 -0.24778795 0.1514689 -0.11618575 0.37972227 0.1931605 -0.081023514
-0.27054164 -0.07867585 -0.3938153 0.10297651 0.012429609 0.08371683 0.23833491 0.048482984

b2.bias f4 [32]
00000000: ebce 813d 0aca 06bf 39dc 9abe 8be8 d5be
00000010: 5931 07be 54f1 b1be f321 75be edcb 8bbe
00000020: 0d72 653e ec0b dd3c 06f8 ebbb a872 48be
00000030: 0af2 75be bccd c8be de1c a5bd 76ff da3d
00000040: c304 e9bd 0e78 85be e039 d4bd 4ce9 21be
00000050: ab7b cfbd 9bca 3b3e eaf8 a7be c227 393e
00000060: e1ed b0be f644 2e3e 0836 a43d 0f01 2e3d
00000070: 2bf3 e5be c998 97bd 4fdd 433e 7f21 8cbd
0.063382946 -0.5265204 -0.30246142 -0.4177898 -0.13202418 -0.3475443 -0.23938732 -0.2730402
0.22406788 0.026983224 -0.0072011976 -0.19574988 -0.24018112 -0.39219463 -0.080621466 0.106932566
-0.11377861 -0.26068157 -0.10362601 -0.15811652 -0.1013101 0.18339007 -0.32807094 0.18081573
-0.34556487 0.17018494 0.08018118 0.04248148 -0.44912085 -0.07402188 0.19127391 -0.068423264

b3.weight f4 [64, 32, 3, 3]
00000000: 948d 91bd fb0a 713d a7bb 2abd 35b9 85be
00000010: 2a79 32bd 0b23 87bd b2be b3bd 1a34 c0be
00000020: bfbe 8c3d e225 c13c 3688 86be a9d7 7b3e
00000030: a444 c1bd 0a49 243e 5df0 b0be 650e 60be
00000040: dd21 52be f05a 8ebe 8027 86be 79d9 42be
00000050: ce13 09bd 66c5 6e3d 480e 54bd 5dea a9be
00000060: 6998 2c3e 1707 a13e e589 1dbe 7783 0fbd
00000070: e957 2ebe 6e74 143e 56e8 5b3d 83d5 733e
00000080: cdf5 24be 7edd 28bd c636 1abe a37f a53e
00000090: 5bf5 95bd 3ee3 6fbd b79a 193d 5ab2 f6be
000000a0: b70b 7e3d ae95 053f e570 3dbe 4a19 853e
000000b0: 77de d43d dc41 c13c 9bc8 e03e 398a 163e
000000c0: 43d3 533e 9810 2abe 6be9 823e d69f 05be
000000d0: 51aa c7bd dbf4 b6be 5458 483d 268d df3d
000000e0: a9fc 2dbe f1f3 9c3d cdb3 f53d 9f3d 243d
000000f0: 61d6 bfbc 68df 0dbe e826 103d 59ec 28be
00000100: 1afd 9fbd f0db 273e 3262 50bd e371 a6bd
00000110: 9f47 f7be f791 3d3e 5c77 843e 483c 8fbe
00000120: 8d9d 68bd 29f4 883d 4bfb ffbd c86f b5bc
00000130: 00cb fbbb 530f c4bd a7b2 bb3c b727 7abe
00000140: 75d2 413e 1084 2abe 0888 103e 4982 fd3d
00000150: 34c9 573d 64ba ae3e 6ff4 2fbe 0707 abbe
00000160: 4fb1 0ebf 976a 98bd 207a 5ebd 087c 8abe
00000170: 0c6d 9abe a2cc 423d 7f5b dc3c 1882 313d
00000180: 0943 abbe 28e2 e63d b477 03be 600c 7d3e
00000190: ab9c a53d 2777 a2bd 9f5a 563e 9aee a43d
000001a0: 3f89 db3d 2542 913d c566 c93e 7899 6e3e
000001b0: 3a0a 123c 34d4 e13d fde3 2a3e 2ca0 e73d
000001c0: 7589 2fbe 3b76 bebe 1f98 7cbd 1481 b3bc
000001d0: 9edb d33d 5714 7f3d d1a8 14be ecb3 033e
000001e0: 731f e3bb 713a bd3e 20f1 213e 4ef2 0abe
000001f0: 2195 313c 0b59 df3d 2c59 433e 4a64 bebe
00000200: 0d02 50bd 5972 643e 8a06 8e3d b48e 0d3e
00000210: 92c0 f53d f879 bbbd e9a9 08bf d3c2 bcbd
00000220: 7544 63be d6ee a53d fd1e 32bd 30db 5fbe
00000230: ffb9 fbbe 980e f0bd 6402 f23c eef3 fdbc
00000240: 35e9 5c3e f782 96be c64e a7be ba11 db3d
00000250: 3820 9ebe 0fa9 043e 5e81 14be 4f11 f6bd
00000260: 5021 fcbe a51f 53bd 9e3d d53d 2c10 973e
00000270: 2e9d df3d 38ae cebc 5e28 54be 3963 8dbe
00000280: c63b acbd 8aff edbe e614 8a3e a3ae 9c3d
00000290: a5d3 c43d d4a4 a3bd 15e9 8bbe 8021 84be
000002a0: ce32 28be c32a 36be 2df1 17be f20a 0e3e
000002b0: 7116 37be 3c0e 503d 51aa 7e3d 4e49 d9be
000002c0: 73b2 9f3d adf6 263d 0564 923c d673 123d
000002d0: 2b49 613d a084 263d 801c 13be 21d9 713e
000002e0: 9284 acbd df77 2d3e 8d27 41be 4fd0 863e
000002f0: b2f3 42bd f67b 8dbd c0ba 3ebe f2fa f53d
00000300: 070d 9bbe 29dd c63d 1607 df3c 54fb e7bd
00000310: 31fa 9a3d c40a 0dbe a70d ddbe 8030 30be
00000320: 1111 ae3d c5b1 fe3d 8fa7 013e e115 09be
00000330: caa2 bd3d d0dd c8be 8235 5ebd 9580 41bd
00000340: 2af3 553d 55cc 6ebe 5705 3a3d 0487 1ebe
00000350: 2c5e 373e 0b46 67bd 09ef e7be 3e70 9f3d
00000360: e870 07be b3d2 17be e40f 383e 1fb3 af3c
00000370: feec 66be bfec 1cbe c767 bdbd 882c 4a3e
00000380: 816b 05be 8379 ad3c e1a0 d7bd 644e 903e
00000390: fe7a 033f ff20 fd3d 0a38 af3d dffa d43d
000003a0: 0332 523e 9cab 8b3d 23ba 453d cb0f 5e3d
000003b0: 60e6 d73d 0fb5 753c ff48 8b3e 8af3 403e
000003c0: 8d3b 2cbe ed8d d3be dbdf 143e 6178 88bd
000003d0: f93a 14bc e235 9fbc 85b4 c33d 1d9e a93c
000003e0: ca37 e63c ac56 cbbd f7d0 73be 9cdf 753e
000003f0: 5af8 efbc ec98 4fbc af98 9a3e e571 ce3d
-0.07107082 0.058848362 -0.041682865 -0.26117864 -0.043572582 -0.06598481 -0.087766066 -0.3753975
0.068723194 0.023577634 -0.26275796 0.24593987 -0.0943692 0.16043487 -0.34558383 -0.21880491
-0.2052073 -0.27803755 -0.2620201 -0.19028272 -0.033466153 0.058293723 -0.051771432 -0.33186617
0.16855015 0.31450722 -0.15384634 -0.035037484 -0.17025723 0.1449754 0.05368837 0.23811917
-0.1610939 -0.041226856 -0.15059957 0.32323942 -0.073221885 -0.058566324 0.037501063 -0.48182946
0.06202289 0.5218152 -0.18500097 0.25995857 0.10393994 0.023590975 0.4390305 0.14701165
0.20686059 -0.16607893 0.2556871 -0.13049254 -0.09749282 -0.35733685 0.04891236 0.10915594
-0.16990913 0.07663716 0.11997185 0.04009783 -0.023417654 -0.13854754 0.035193354 -0.1649641
-0.07811947 0.16392493 -0.050874896 -0.08127191 -0.4829683 0.18512712 0.25872314 -0.27975678
-0.056790877 0.06687195 -0.12499102 -0.022148028 -0.0076841116 -0.09573235 0.022912337 -0.24429213
0.18927939 -0.1665194 0.14114392 0.123783655 0.052682117 0.3412658 -0.17183088 -0.334038
-0.557393 -0.074422054 -0.054315686 -0.27047753 -0.3016132 0.047558434 0.026899097 0.043336958
-0.3344958 0.11273605 -0.12838632 0.24711752 0.08086523 -0.07932883 0.20933007 0.08053322
0.10719537 0.07092694 0.3933622 0.23300731 0.008913571 0.11026803 0.16688533 0.11309847
-0.1714228 -0.37199578 -0.06166851 -0.021912135 0.10344623 0.062275257 -0.14517523 0.12861603
-0.0069312393 0.3695865 0.15814638 -0.13568994 0.010838778 0.109056555 0.19076985 -0.3718589
-0.050783206 0.22309245 0.06934841 0.13823968 0.119996205 -0.09154123 -0.5338426 -0.09216847
-0.22194083 0.08102195 -0.043486584 -0.21860957 -0.4916534 -0.117215335 0.029542156 -0.031000104
0.21573336 -0.29396793 -0.32677287 0.106967404 -0.30883956 0.12955116 -0.14502475 -0.1201502
-0.49244165 -0.05154385 0.10412143 0.29504526 0.109186515 -0.025229558 -0.20718524 -0.27614763
-0.084098384 -0.46484023 0.2696907 0.07650497 0.096106805 -0.07990423 -0.27326265 -0.25806808
-0.1642563 -0.1778975 -0.14838095 0.13871363 -0.17879654 0.050794825 0.062174145 -0.4243874
0.07797708 0.040762592 0.017869959 0.035755 0.05500142 0.040653825 -0.1436634 0.23617984
-0.08423723 0.16940258 -0.18862744 0.26330802 -0.047595687 -0.06908409 -0.18625927 0.12010755
-0.30283377 0.09710152 0.027225059 -0.11327234 0.075672515 -0.13773638 -0.43174478 -0.17206001
0.08499349 0.124362506 0.12661575 -0.13387252 0.09259565 -0.3923173 -0.054250248 -0.047241766
0.052233852 -0.23320134 0.04541525 -0.15481192 0.17907017 -0.056463283 -0.45299557 0.077850804
-0.13226664 -0.14826469 0.17974812 0.021447716 -0.22551343 -0.15324686 -0.092483096 0.1974355
-0.1302929 0.021176105 -0.10528732 0.28184807 0.51359546 0.12359809 0.085556105 0.10399412
0.2052689 0.06819841 0.048273217 0.05421428 0.105419874 0.014996781 0.2720413 0.18842903
-0.16819592 -0.41319218 0.14538519 -0.066635855 -0.009047263 -0.019434873 0.09555916 0.020705277
0.028102774 -0.09928641 -0.23810183 0.24011081 -0.029293228 -0.012670737 0.30194613 0.100803174

b3.bias f4 [64]
00000000: 3026 bd3d eda6 013e 1338 5bbd 7959 08bd
00000010: 0757 433d b722 2bbe 9599 5a3d 766f dd3c
00000020: 464c 5dbe 3595 d1bd 5d9d debd 9a10 f33d
00000030: bb8c 5d3d 438a 353e 4517 12be 1ee7 d5bd
00000040: f49c c93b c956 efbc bdff 00ba be72 fb3d
00000050: 6ee9 60bd ab18 7bbe 3b56 5dbc f39c 073e
00000060: 740b 263e 9ec3 3bbe f088 c6be 317f e3bd
00000070: 92fe 563e 008d c7bd f9e7 f63c 5b38 b9bd
00000080: 8b5a 16be 1e5d c3bd a057 3dbd 9b9b b03d
00000090: bf2e 17bd 178e 70be 698a 9b3d 0c31 ebbd
000000a0: 9566 ed3c 096e be3c 2cb6 333e 3c01 863e
000000b0: 1845 f1bd 4bd9 efbd 5409 f53d 850b d1bd
000000c0: 8d9e 33be e41c 41be 1ad1 ecbc 4fe4 413d
000000d0: bb6d aabc 410f 313d 809b a4bb ffc3 4ebd
000000e0: e970 ab3d f72a ea3d ee53 e4bd 5bc6 ebbc
000000f0: 64d3 2ebe fc83 433d 97ed b8bd 6619 96be
0.09235799 0.12661333 -0.053520273 -0.033288453 0.047690418 -0.16712461 0.053369123 0.027030688
-0.21611127 -0.10233537 -0.108698584 0.11868401 0.05408929 0.17728524 -0.14266689 -0.10444473
0.0061527435 -0.029216187 -0.00049209205 0.12277745 -0.054910116 -0.24521129 -0.0135093285 0.13243465
0.16215307 -0.18336341 -0.3877635 -0.11108244 0.20995548 -0.097436905 0.03013991 -0.09043952
-0.14682977 -0.09539245 -0.046226144 0.086234294 -0.036909815 -0.23491703 0.07594759 -0.11483964
0.028979579 0.023245828 0.17549962 0.26172817 -0.11780757 -0.11711367 0.1196467 -0.10207275
-0.17540951 -0.18858677 -0.028908301 0.047336873 -0.020804277 0.043227438 -0.00502342 -0.050479885
0.08371145 0.11433976 -0.11148821 -0.028781107 -0.17072827 0.047733292 -0.09029692 -0.29316252

c1.weight f4 [64, 64, 2, 2]
00000000: 39e5 98bd b812 eb3c 21b9 cabe e3c1 d13d
00000010: b355 e33c b6c9 fa3b 8677 c6bd 0821 093d
00000020: 62a6 9a3c 1316 5abd bf46 1ebd e4d5 243d
00000030: fb82 b1bc baba ab3d 0b00 2cbc 3799 863d
00000040: 1beb 993d f025 e4be a70e d0be 07b3 0dbe
00000050: 1870 ef3d 8cbc 17be 9e97 b9bd 44a2 1ebe
00000060: ef00 493e 660b 8bbe 7524 1b3e 0fab 75be
00000070: bbcc c63c 613d dfbc 7b9f 5abe d5a3 9fbd
00000080: f1e2 a6bc 6165 1b3e c6ab 03bd 7ee9 d03e
00000090: c4cc 023e 33b3 02bf 5c63 783e 02df 81be
000000a0: df76 80bc 9f7f 90be 67f1 8bbe 7e76 cebd
000000b0: a23d 03be 396b 203c a452 663e f00a c63c
000000c0: 3650 a23e a680 08bf 5a68 edbd 3e08 5dbe
000000d0: cf95 fc3c 6722 a9bc e807 f3bc b1f1 a23d
000000e0: f821 afbd a82b 553e 7e89 e1bd da33 cc3c
000000f0: dd2c 4ebe 9899 803d 32e6 aebd 7169 593e
00000100: 6bef 8c3d f6a0 24be 50c2 3abf 0e75 17be
00000110: c153 b7bd 4091 7bbc d6c4 653c 820b c83c
00000120: 74ef f43d 1643 f3bd bd92 b23d 1f62 63be
00000130: 71c5 83be 59c0 213e 8b7c 52be cc89 29bd
00000140: 88ed 7a3b aa6e ac3d 12ed b1bd eff9 103d
00000150: df2e 873e b998 2c3e 46dc a63d 3c85 2ebd
00000160: 03a4 9d3e 2dd7 1bbe 3136 53be d824 8bbe
00000170: 3ac2 bdbc e1de 533e 0ec7 a9be 156c 813d
00000180: a771 e73c f815 f9bd eb8f 7dbd 5a12 abbe
00000190: edcc 243c 1379 acbd 88ee ac3e 5515 0cbe
000001a0: 13a8 163e eedc 5dbd 198e 9dbe 0af1 38bd
000001b0: b661 82bd 2127 9fbc 68f3 663d 08f6 533d
000001c0: 08d0 6cbe 0976 e13d 059a 0bbe 015c 8c3d
000001d0: 9581 0a3e f398 28be ea73 80be 9d98 7abe
000001e0: 2c96 9fbe 0bb9 46be cae0 ad3d 51e8 923e
000001f0: cd73 0f3d 0054 99b8 8ae2 ccbb 9cab 8dbc
00000200: be0c 51be e9ab 923e 4bfc 4a3e 332b 8f3e
00000210: e74a 3f3d 6c63 b53b 861a 69bd 2066 a1bc
00000220: fbca b13e 75df c43c 1172 763d 4eef 11be
00000230: f73f dd3d 0756 9bbe a16f 8c3d 4edd 2ebe
00000240: 66cf ec3d ad00 2dbd 87ec ca3d f08f b2bd
00000250: 7333 0fbe 2fcc 423e 05a6 be3d f645 513e
00000260: ac13 7c3c 552e 613e bc4c d43d c74e 793e
00000270: e71d 30be f72d 103e 20ba 4ebe 8b4e ab3d
00000280: 3d3e f93c 4cb6 cbbd a428 9c3e 3c7d 35be
00000290: 2920 1bbe 6869 c33d 17bc 4bbe 219b 2cbc
000002a0: f765 82be 6442 a9bc 2883 8f3e 20eb d33d
000002b0: 0bd8 54be 1f3d 1b3e eaba 3bbe 3856 1e3e
000002c0: 4a7e 0e3d f2db 1dbd ed54 8bba 5db1 fa3c
000002d0: 9748 80bc 742b 6cbd 3249 1f3d 122d 9a3c
000002e0: 6d41 6b3e 02e3 dcbe c5b9 09be 1c18 8fbe
000002f0: 284e 4f3e 5c9b 9ebe 22b5 9d3e f172 7abe
00000300: a757 fd3c de5a a4bd f098 eb3e a2b5 47bd
00000310: 5b39 8dbe 8642 e3bd af30 053e 9eaa c13c
00000320: 111f d93c 5fc4 25be 737a 1bbe 01d8 d93b
00000330: f83c 653e 0bd2 8bbe 325d a13e 6fbd 52be
00000340: f750 db3d 5c27 5ebe 1998 68be 304a 54be
00000350: ddf1 97bd 3edb d1bc 1858 41be 1c0c 32bd
00000360: 0a67 153e 1e4e d93a 387c b03d 396f a13d
00000370: 64c7 843e 6887 9cbd 0809 463e 2e1e 9ebe
00000380: ce70 023e dc06 00be e1f9 3a3e 94fe 35be
00000390: a908 53be 56f8 8d3e 221e 663d d3c2 913e
000003a0: a11b 613b 77d1 6a3d 0db0 fe3c 9411 f2bb
000003b0: d14c 813d a7f1 ffbc 0b8c 4cbd bbc5 85bd
000003c0: 6ebf 5f3d 4829 33be adb5 7a3e 55bf 5ebd
000003d0: d20e 943e 9a41 37be e26b 20bd 61e2 94be
000003e0: 77e3 373c 5c55 4b3d dfcf 193d 811d 833d
000003f0: 0b63 253e ae2a 473d 5368 a83e 48f6 8a3c
-0.07465596 0.02869545 -0.39594367 0.10242059 0.027750826 0.0076534403 -0.09690766 0.033478767
0.018878166 -0.053243708 -0.038641687 0.040243044 -0.021668902 0.08385225 -0.010498057 0.06572192
0.07515546 -0.44560194 -0.4063618 -0.13837825 0.11691302 -0.14818019 -0.09062122 -0.15491587
0.19629262 -0.27157134 0.15150626 -0.23991035 0.024267545 -0.027250947 -0.213499 -0.0779492
-0.020371886 0.15175392 -0.032146238 0.4080314 0.12773424 -0.51054686 0.24256653 -0.25365454
-0.015681682 -0.28222367 -0.27332613 -0.10081194 -0.1281648 0.009791189 0.22492462 0.024175137
0.3170182 -0.533213 -0.11592169 -0.21585175 0.030833153 -0.020646287 -0.029666856 0.07956255
-0.08551401 0.20817435 -0.11012553 0.024927069 -0.20134301 0.06279296 -0.0854 0.21231629
0.06881603 -0.16077027 -0.7295275 -0.14790747 -0.08951522 -0.0153544545 0.01402398 0.02441955
0.119597346 -0.1187803 0.08719394 -0.22205399 -0.25736573 0.15796031 -0.20555322 -0.04139118
0.0038288552 0.08419545 -0.08687796 0.035394605 0.26402947 0.16855134 0.081474826 -0.04260753
0.30789194 -0.15218802 -0.20626141 -0.27176547 -0.023163904 0.2069049 -0.3315968 0.06319443
0.028252436 -0.12162393 -0.06190483 -0.3341244 0.010058624 -0.084215306 0.33775735 -0.13680013
0.14712553 -0.054165773 -0.30772474 -0.045151748 -0.06366293 -0.019427838 0.056384474 0.051748306
-0.23126233 0.110088415 -0.13632973 0.06853486 0.13525994 -0.16464595 -0.25088435 -0.2447228
-0.3116926 -0.19406526 0.08490141 0.28692868 0.035022546 -7.311255e-05 -0.0062525915 -0.017293744
-0.20415017 0.28646782 0.19822805 0.27962646 0.04670229 0.0055355337 -0.05691006 -0.019702017
0.34725174 0.024032334 0.060167376 -0.14251444 0.10803216 -0.3033907 0.06857229 -0.17076609
0.115629956 -0.042236973 0.09908395 -0.0871886 -0.1398447 0.19023202 0.093090095 0.20436844
0.0153855495 0.2199033 0.103661984 0.24346457 -0.17198907 0.14080034 -0.20188189 0.0836459
0.030425185 -0.0994688 0.30499756 -0.17723554 -0.15148987 0.09541589 -0.1989597 -0.0105350325
-0.25468418 -0.02066154 0.28029752 0.10347581 -0.20785539 0.15160035 -0.18333021 0.15462577
0.034788407 -0.038539834 -0.0010630168 0.030602152 -0.015659614 -0.057658628 0.038888164 0.01882032
0.22974177 -0.43141943 -0.13449772 -0.27948081 0.20244658 -0.30977905 0.30802256 -0.24457909
0.030925585 -0.08025144 0.4601512 -0.048757203 -0.2758282 -0.11096673 0.13006853 0.023640927
0.026504071 -0.16188191 -0.1518343 0.006648064 0.22386539 -0.27308688 0.31516415 -0.20580076
0.10708802 -0.21694702 -0.2271427 -0.20731425 -0.07419179 -0.025617238 -0.18881261 -0.04346858
0.14590088 0.0016579067 0.08617443 0.07882542 0.25933373 -0.07643014 0.19339383 -0.308824
0.12738344 -0.12502617 0.18259384 -0.17772895 -0.20608772 0.27728528 0.05618108 0.28468952
0.0034348744 0.057328667 0.031089807 -0.0073873494 0.0631348 -0.031243159 -0.049938243 -0.06531855
0.05462592 -0.17496216 0.24483366 -0.054381687 0.28917557 -0.17896119 -0.039165385 -0.29078963
0.011223665 0.049641952 0.037551757 0.06402112 0.16151063 0.048624687 0.32892093 0.01696314

c1.bias f4 [64]
00000000: 5277 343e 98de 6bbe 9df3 23bd c99c 0cbe
00000010: 8c6d 75be f7af 65be 6902 7bbd c878 65be
00000020: 0181 173e 9058 25bd 0eb8 503e 9b5c 81be
00000030: d619 74be d315 ba3d 8ad8 0abe 103c b6be
00000040: ae83 29be 98ae 4fbd 75bb 1ebe 1f21 3bbd
00000050: 6e33 40be 9283 25be f0b4 35be 9495 1ebd
00000060: 66f1 ee3d 2d8f 99bd 57cd 5dbe 9a8a 173e
00000070: 0668 8cbe 4fb8 6bbe aaca f33d 9de8 b73d
00000080: 6029 34be 0053 10bd e928 d23d 519b 24be
00000090: aa4a fdbd 735f 88be 483f 38be b876 1fbe
000000a0: 46df ce3d 8c74 7dbe 2774 773d 3a02 aabe
000000b0: c16d 133e ea41 453e 575e cabd 1631 91be
000000c0: d8c5 3dbe 85fe 79be c7cd 17bd b71d 223d
000000d0: 6388 35be ba71 81be 8d2c 673e 9c9d 7bbe
000000e0: 217d 1e3d 3ab8 51be 3d34 73bd 50b6 00be
000000f0: 2503 9bbd 0bec 333b 69f2 f13d d197 3cbe
0.17623642 -0.23034132 -0.04002725 -0.13731684 -0.2396757 -0.22430407 -0.061281595 -0.22409356
0.14795305 -0.040367663 0.20382711 -0.25265965 -0.2383798 0.09086194 -0.13559166 -0.355927
-0.16554138 -0.050703615 -0.15501197 -0.045685884 -0.18769619 -0.16163471 -0.17744803 -0.038716868
0.11667137 -0.07498012 -0.21660362 0.14798966 -0.27423114 -0.23019527 0.119038895 0.08979914
-0.17593908 -0.035235405 0.10261709 -0.16074874 -0.12367757 -0.26635322 -0.1799289 -0.15572631
0.1010118 -0.2475149 0.060413506 -0.33204824 0.14397337 0.19263425 -0.09881275 -0.28357762
-0.18532503 -0.24413498 -0.03706148 0.03957912 -0.17727809 -0.2528208 0.22575589 -0.24571842
0.03869355 -0.20480433 -0.05937599 -0.12569547 -0.07568959 0.0027453925 0.11813814 -0.18417288
