nets/model_epoch_95.pth (torch, 648794 bytes, 25 tensors)

a1.weight f4 [16, 5, 3, 3]
0.057321236 0.20494476 -0.02865025 -0.23845005 -0.101627626 0.42748687 -0.10246813 -0.012833838
-0.3381512 -0.10687136 -0.21387847 -0.11700313 -0.055194955 -0.2824845 -0.32518837 -0.20745489
-0.25587875 -0.13077557 0.08083422 -0.11027467 0.09334216 0.060844336 -0.5210061 0.010930444
-0.09221098 -0.12241686 -0.03098024 -0.23041904 -0.051578112 0.045926582 -0.06769979 -0.08022824
-0.54191506 -0.21591423 -0.31973162 0.23327404 -0.16818377 -0.12993075 -0.20237078 -0.06099543
-0.27166197 -0.21845755 -0.042509615 -0.15033539 -0.07796978 0.20384826 -0.13769266 -0.07364674
0.380828 0.042110525 0.44247022 -0.009274178 0.63924253 -0.3047635 0.07886817 0.38936785
0.088474266 -0.0057807416 0.22785093 -0.049879458 0.15618666 -0.7053586 0.10120897 0.20412844
-0.07508322 -0.11161436 0.43757972 0.08106454 -0.503266 -0.16326036 -0.250773 0.16013907
-0.04819141 -0.44010502 -0.5387241 0.0034605968 0.37533116 0.16236478 0.16392522 0.20196028
-0.59862536 -0.008614145 0.024143303 -0.00455695 0.08376501 0.029412579 -0.027178926 -0.07853165
-0.08805547 0.031124942 -0.35595942 0.12117365 0.42093027 0.046114765 0.25689033 -0.021360558
0.70154727 0.53679293 0.14317498 0.21790224 0.25625497 0.21893598 -0.032662664 -0.030551521
0.013614608 -0.17442714 -0.14977348 0.05064041 0.32226637 0.55925804 0.28759062 0.051772263
-0.27688777 0.3813195 -0.4025201 -0.14492121 0.22976182 -0.023624336 -0.35117605 -0.31277174
0.024796877 -0.19034137 -0.020875556 0.07834739 0.034333415 -0.4070576 -0.020636478 0.009941032
-0.0013619493 -0.007251412 0.12508392 -0.08043279 -0.014100125 -0.08484987 0.05035905 0.16029878
0.13388072 -0.33966285 0.1411118 0.19100493 -0.40056595 0.08924236 -0.40260306 0.342477
-0.18365915 -0.54728585 -0.2848739 -0.43307567 -0.08528785 -0.77827173 0.08017235 0.08320938
-0.030033143 -0.038350884 0.092363894 -0.009572086 -0.19606262 -0.076330744 -0.40132254 -0.18232778
-0.21513502 0.42867908 0.26392522 0.3285678 0.31190154 0.44761923 -0.1418498 0.7387775
0.26081127 -0.05252659 -0.28625226 -0.040418845 0.027097782 0.048622224 0.00045195856 -0.0078606345
0.014005385 0.051802516 -0.05290498 -0.024363678 0.23337156 0.018175999 -0.31099164 0.04338164
0.18331324 0.37066743 0.046695184 0.26155928 0.3112562 0.1747253 -0.12566403 0.02323464
-0.21646178 -0.04603316 -0.24877132 0.22067572 0.05215911 -0.18208505 0.089319475 0.13910578
0.5521069 -0.08147646 0.015975703 -0.16946915 -0.3275288 0.35675427 -0.016978277 -0.15525106
-0.5418715 -0.4933268 0.13253415 0.050829604 -0.206877 -0.2586417 -0.050133098 0.051110074
-0.0079052495 0.032987535 -0.0050605014 0.042021416 -0.11649967 0.023853466 0.016711697 0.0826179
-0.047365773 -0.09848127 -0.05106131 0.2245753 0.041954257 -0.15111074 -0.07879399 0.22422774
-0.17695035 0.45118362 -0.0392124 0.48779863 0.308781 0.033879757 -0.019645756 -0.43751746
0.031917516 0.27065608 -0.7378121 0.06096777 0.0728188 0.14834276 -0.24150144 0.3557053
-0.4686333 -0.20115787 -0.12912534 -0.50592893 0.33412737 -0.0074950657 0.10517604 0.048342917
00000000: acc9 6a3d 0add 513e eeb3 eabc 402c 74be
00000010: 2522 d0bd 8fdf da3e d0da d1bd 0545 52bc
00000020: 2722 adbe 5fdf dabd f502 5bbe 569f efbd
00000030: 1b14 62bd cfa1 90be 177f a6be 0e6f 54be
00000040: 8a02 83be 08ea 05be 698c a53d b0d7 e1bd
00000050: 2d2a bf3d e937 793d a860 05bf 9b15 333c
00000060: 1cd9 bcbd b1b5 fabd 46ca fdbc f8f2 6bbe
00000070: 9243 53bd 831d 3c3d 30a6 8abd b44e a4bd
00000080: f2ba 0abf 9f18 5dbe ddb3 a3be 64df 6e3e
00000090: 5e38 2cbe 910c 05be 493a 4fbe 58d6 79bd
000000a0: 4717 8bbe 56b3 5fbe 901e 2ebd 85f1 19be
000000b0: 9fae 9fbd 99bd 503e 4eff 0cbe 1ad4 96bd
000000c0: e3fb c23e 167c 2c3d 758b e23e b9f2 17bc
000000d0: 66a5 233f f609 9cbe a385 a13d 395b c73e
000000e0: ff31 b53d 606c bdbb c151 693e 674e 4cbd
000000f0: 65ef 1f3e 6292 34bf a646 cf3d 0c07 513e
00000100: 3bc5 99bd 1296 e4bd 730a e03e 2a05 a63d
00000110: 0ad6 00bf b92d 27be 5265 80be 7ffb 233e
00000120: 5b64 45bd 7255 e1be d3e9 09bf 2ecb 623b
00000130: 682b c03e f442 263e 03dc 273e adce 4e3e
00000140: 833f 19bf 5822 0dbc 2dc8 c53c 7852 95bb
00000150: fd8c ab3d a6f2 f03c 57a6 debc 34d5 a0bd
00000160: 6d56 b4bd bcf9 fe3c 5040 b6be e429 f83d
00000170: 2c84 d73e d6e2 3c3d 2187 833e 56fc aebc
00000180: 9a98 333f 436b 093f 769c 123e c421 5f3e
00000190: da33 833e c130 603e 49c9 05bd 2f47 fabc
000001a0: ce0f 5f3c 079d 32be 385e 19be 526c 4f3d
000001b0: 1900 a53e 892b 0f3f 143f 933e 270f 543d
000001c0: 3cc4 8dbe 4f3c c33e 1d17 cebe 3a66 14be
000001d0: af46 6b3e d387 c1bc 59cd b3be 9e23 a0be
000001e0: d222 cb3c d9e8 42be 3703 abbc 9974 a03d
000001f0: 32a1 0c3d db69 d0be d50d a9bc b6df 223c
00000200: 6f83 b2ba 419d edbb 0016 003e f2b9 a4bd
00000210: 3604 67bc c5c5 adbd 4b45 4e3d 5d25 243e
00000220: 0718 093e 4ae8 adbe 9d7f 103e cc96 433e
00000230: fb16 cdbe b3c4 b63d fd21 cebe 2559 af3e
00000240: 2511 3cbe ed1a 0cbf feda 91be 18bc ddbe
00000250: 65ab aebd d13c 47bf 6731 a43d ae69 aa3d
00000260: 1108 f6bc d115 1dbd 4829 bd3d 3dd4 1cbc
00000270: a4c4 48be 4b53 9cbd 267a cdbe 22b4 3abe
00000280: 5b4c 5cbe d37b db3e 3521 873e 0a3a a83e
00000290: 8fb1 9f3e 592e e53e 1341 11be 8620 3d3f
000002a0: 0e89 853e 1f26 57bd a88f 92be 3b8e 25bd
000002b0: 2bfc dd3c 1928 473d daf4 ec39 e4c9 00bc
000002c0: d876 653c e02e 543d e4b2 58bd 5696 c7bc
000002d0: f4f8 6e3e d5e5 943c 4c3a 9fbe f2b0 313d
000002e0: 77b6 3b3e 1fc8 bd3e 7343 3f3d 19eb 853e
000002f0: f95c 9f3e 30eb 323e 12ae 00be 9256 be3c
00000300: 28a8 5dbe 448d 3cbd e9bd 7ebe d1f8 613e
00000310: caa4 553d 8174 3abe 21ed b63d bf71 0e3e
00000320: e156 0d3f 21dd a6bd 7adf 823c 5289 2dbe
00000330: dbb1 a7be 7fa8 b63e 0716 8bbc 22fa 1ebe
00000340: 17b8 0abf 5595 fcbe 08b7 073e b432 503d
00000350: 90d7 53be af6c 84be 5d58 4dbd cc58 513d
00000360: 0585 01bc f01d 073d 90d2 a5bb a61e 2c3d
00000370: 6197 eebd 5868 c33c f8e6 883c 9333 a93d
00000380: 9d02 42bd 8cb0 c9bd aa25 51bd 11f7 653e
00000390: 3ad8 2b3d c6bc 1abe be5e a1bd f59b 653e
000003a0: 7932 35be 8a01 e73e 2e9d 20bd bec0 f93e
000003b0: 8b18 9e3e 80c5 0a3d 23f0 a0bc 4a02 e0be
000003c0: f1bb 023d 6f93 8a3e 41e1 3cbf 57b9 793d
000003d0: 0622 953d 2ae7 173e 274c 77be 011f b63e
000003e0: b4f0 efbe 54fc 4dbe 6f39 04be 8f84 01bf
000003f0: be12 ab3e 2b99 f5bb 8966 d73d 3903 463d

a1.bias f4 [16]
0.04632278 -0.14113778 -0.09571025 -0.1764156 0.19328612 -0.15663595 0.04003012 -0.1384005
-0.1913184 0.10760699 -0.066273056 0.108396165 -0.12064207 -0.08298853 0.32613042 0.27131045
00000000: f5bc 3d3d 6c86 10be bc03 c4bd 4ba6 34be
00000010: ccec 453e 2d65 20be a0f6 233d dcb8 0dbe
00000020: f8e8 43be 0e61 dc3d 2bba 87bd cffe dd3d
00000030: 3113 f7bd e4f5 a9bd 91fa a63e 34e9 8a3e

a2.weight f4 [16, 16, 3, 3]
-0.14631282 -0.4086648 -0.23474579 0.40462944 0.19222152 -0.0071252645 0.08817894 -0.26499715
0.14579092 0.048459135 0.20617975 -0.017284485 -0.19491017 0.1834388 -0.2909748 -0.06375423
0.21804042 -0.13050298 -0.13509244 -0.28243393 -0.45614937 -0.46487978 -0.12566192 0.0028164499
-0.17763792 -0.50144184 0.12038285 -0.96871644 0.34023276 -0.4082678 0.78817123 -0.29781318
0.27576312 0.12792273 0.08094993 0.07476075 0.03574315 -0.48397836 -0.028702365 0.049505103
-0.04388621 -0.17766128 -0.7012424 -0.28467238 -0.24580032 0.12329318 -0.28556633 -0.20142405
0.28393254 0.06638315 0.22040036 -0.44936174 0.19770166 0.17401066 -0.30096543 0.050382834
-0.003556989 0.43945217 0.42549837 0.05527599 0.066389695 -0.0040902337 -0.060041748 0.42293844
-0.260297 -0.07077571 -0.42874178 -0.04428322 -0.17816842 -0.13268873 -0.13828295 0.32327664
0.2824885 0.19767043 0.039096925 -0.025295284 0.0022395723 0.3093886 -0.2800648 0.57583296
0.17626166 0.06589516 0.25595286 -0.075867705 -0.30437797 0.2850007 0.6065219 0.16733338
0.05152216 0.18340221 -0.19509743 -0.09200655 -0.18166205 0.114656 0.2533677 -0.47205627
0.08993057 0.04863145 0.2786676 -0.45454088 -0.09328785 -0.014630048 -0.19844173 -0.2103967
0.013731467 0.7045587 0.04462548 -0.2373543 0.026378274 -0.17618483 0.030922243 0.010824366
0.6854488 -0.4659901 0.65815926 0.32662153 -0.2605403 0.36021942 -0.47628042 -0.5827851
0.009143516 0.53805244 0.21015348 0.2727174 -0.28900284 0.1369721 -0.13905765 -0.7923904
-0.08445261 -0.13530837 -0.080288924 -0.40454498 -0.07035264 -0.23693399 0.22965422 -0.4941132
0.019366255 -0.24348398 -0.12285397 -0.2586926 0.71213853 -0.32932186 0.013129096 0.0032067096
-0.037403304 0.008131428 -0.096296936 -0.15421572 -0.25147176 -0.23110606 -0.18250914 -0.043173485
-0.14409183 -0.12339979 -0.11497276 0.23664355 -0.12742342 -0.15243231 -0.008289253 0.10067674
0.09288108 0.14212823 0.13883643 -0.041227814 0.2428525 -0.02070968 0.2554022 0.22251582
0.00958177 0.10115353 0.09752486 -0.23740512 0.23704796 0.42266452 0.027715674 0.031616963
-0.16705325 0.097892314 -0.19650115 0.40128896 0.38623005 -0.23198949 0.16652057 0.1557086
0.15152358 -0.094336905 0.22772114 -0.09508962 -0.04003273 -0.21137062 0.18222637 0.27293527
0.05277434 -0.0039708368 -0.09691975 0.14928515 0.10605918 -0.18638894 -0.018080035 -0.10078628
-0.13120441 -0.12950808 -0.0396495 0.0019096459 -0.14400525 -0.20361407 -0.037546247 0.114858046
0.234691 0.09261481 -0.27327508 0.1734614 -0.005403335 0.14627704 -0.09052588 0.5321193
-0.1479763 -0.14115779 0.11597928 -0.43358913 0.17439792 -0.12347943 -0.2832026 0.37214
-0.0900356 -0.09432967 -0.07854169 0.1121928 0.13338354 0.12383027 0.090385236 -0.0247293
-0.12817428 -0.17265452 0.23447539 0.20371306 -0.114794075 0.053126004 -0.24322861 0.28781703
-0.044223096 0.1982674 -0.33585277 0.060193203 0.52605003 0.10326572 0.014929828 0.12492528
0.36111814 -0.286554 -0.2830298 -0.2464171 -0.110585414 0.41627052 -0.017832238 -0.17228499
00000000: 07d3 15be 833c d1be 3361 70be 972b cf3e
00000010: b8d5 443e 0d7b e9bb 2997 b43d b5ad 87be
00000020: 374a 153e 167d 463d c920 533e 3198 8dbc
00000030: 8896 47be 61d7 3b3e a6fa 94be 9491 82bd
00000040: fd45 5f3e 93a2 05be ac55 0abe 2e9b 90be
00000050: 698c e9be b904 eebe 85ad 00be 3094 383b
00000060: b7e6 35be 7e5e 00bf 498b f63d cdfd 77bf
00000070: fd32 ae3e 7a08 d1be 97c5 493f f87a 98be
00000080: d330 8d3e 2dfe 023e 14c9 a53d 2a1c 993d
00000090: 6967 123d 03cc f7be 3921 ebbc ddc5 4a3d
000000a0: 07c2 33bd d7ec 35be 9f84 33bf 94c0 91be
000000b0: 14b3 7bbe 2281 fc3d c035 92be 1b42 4ebe
000000c0: 9b5f 913e e4f3 873d a2b0 613e be12 e6be
000000d0: 4e72 4a3e da2f 323e 2418 9abe 3b5e 4e3d
000000e0: 5f1c 69bb e0ff e03e ecda d93e 1469 623d
000000f0: 52f7 873d 5e07 86bb 56ee 75bd 638b d83e
00000100: a645 85be dbf2 90bd 0b84 dbbe 5262 35bd
00000110: c871 36be 8edf 07be 0c9a 0dbe 8484 a53e
00000120: 55a2 903e 1e6a 4a3e 1924 203d 0e38 cfbc
00000130: cac5 123b 2f68 9e3e a764 8fbe ca69 133f
00000140: f07d 343e 0bf4 863d 410c 833e 8760 9bbd
00000150: 6ed7 9bbe 9deb 913e 0545 1b3f 7159 2b3e
00000160: e708 533d cacd 3b3e 9fc7 47be ee6d bcbd
00000170: 9e05 3abe c4d0 ea3d 69b9 813e 5cb1 f1be
00000180: 852d b83d c531 473d 85ad 8e3e 95b9 e8be
00000190: b30d bfbd deb2 6fbc 4f34 4bbe 3c72 57be
000001a0: f2f9 603c f55d 343f 35c9 363d 010d 73be
000001b0: 4017 d83c cc69 34be a550 fd3c ae58 313c
000001c0: 9379 2f3f 4196 eebe 207d 283f f03a a73e
000001d0: 8a65 85be ae6e b83e 07db f3be 6831 15bf
000001e0: b0ce 153c cebd 093f 7932 573e 9da1 8b3e
000001f0: 2ef8 93be 6a42 0c3e 2165 0ebe 19da 4abf
00000200: 7df5 acbd 478e 0abe 856e a4bd 8520 cfbe
00000210: 0b15 90bd d39e 72be 7a2a 6b3e 68fc fcbe
00000220: fba5 9e3c dd53 79be dd9a fbbd 5b73 84be
00000230: b64e 363f e09c a8be 6b1b 573c a927 523b
00000240: 3534 19bd ae39 053c 5437 c5bd baea 1dbe
00000250: e8c0 80be 11a7 6cbe ade3 3abe aed6 30bd
00000260: cf8c 13be 07b9 fcbd d776 ebbd b052 723e
00000270: 497b 02be 3717 1cbe a6cf 07bc 9b2f ce3d
00000280: 7038 be3d 108a 113e 232b 0e3e 7fde 28bd
00000290: 53ae 783e 59a7 a9bc 14c4 823e 30db 633e
000002a0: dbfc 1c3c 9529 cf3d 1dbb c73d 541a 73be
000002b0: b3bc 723e 7c67 d83e fb0b e33c ca80 013d
000002c0: 0210 2bbe c47b c83d 9937 49be bf75 cd3e
000002d0: f2bf c53e a78e 6dbe 5e84 2a3e 1372 1f3e
000002e0: ff28 1b3e b533 c1bd bb2f 693e 59be c2bd
000002f0: 5cf9 23bd 8a71 58be 8d99 3a3e 2cbe 8b3e
00000300: e829 583d cb1d 82bb dd7d c6bd 35de 183e
00000310: 8e35 d93d bedc 3ebe 951c 94bc 0a69 cebd
00000320: 735a 06be c49d 04be 8467 22bd 154d fa3a
00000330: 1d76 13be 3580 50be 18ca 19bd b23a eb3d
00000340: d652 703e d5ac bd3d b6ea 8bbe de9f 313e
00000350: 760e b1bb a6c9 153e a265 b9bd f838 083f
00000360: 1987 17be ab8b 10be 8b86 ed3d 65ff ddbe
00000370: 5e95 323e c9e2 fcbd eeff 90be 2289 be3e
00000380: 9664 b8bd ea2f c1bd 77da a0bd 57c5 e53d
00000390: b295 083e b99a fd3d e51b b93d 1a95 cabc
000003a0: 1e40 03be 59cc 30be 511a 703e 289a 503e
000003b0: 2819 ebbd a79a 593d ec10 79be c15c 933e
000003c0: 4723 35bd 9c06 4b3e e5f4 abbe 268d 763d
000003d0: 37ab 063f fa7c d33d 3d9c 743c d3d8 ff3d
000003e0: 7ae4 b83e 35b7 92be 48e9 90be c454 7cbe
000003f0: 9b7a e2bd 6921 d53e ea14 92bc 7a6b 30be

a2.bias f4 [16]
-0.13108332 -0.33800638 -0.13021918 -0.021558473 0.036721244 -0.24344541 0.022547944 -0.033034068
0.18155387 -0.22892264 -0.32469454 -0.088652104 -0.2758111 0.07913198 0.22921577 0.1751451
00000000: b53a 06be 2c0f adbe 2d58 05be 659b b0bc
00000010: 0469 163d c149 79be 77b6 b83c bb4e 07bd
00000020: 42e9 393e b26a 6abe 5d3e a6be 3c8f b5bd
00000030: 1d37 8dbe f30f a23d 8ab7 6a3e 3d59 333e

a3.weight f4 [32, 16, 3, 3]
-0.20711459 0.46116456 -0.6881413 -0.11761378 -0.18267502 -0.11577111 -0.8284089 -0.11784728
0.24042523 -0.053896237 -0.11690863 -0.22703744 -0.019414468 0.23235527 0.20663466 -0.48370904
-0.2938678 -0.60426366 0.1997045 -0.022563633 0.2411791 0.053159118 0.25692752 -0.18211056
-0.083088815 0.15290204 -0.1038098 -0.4319961 0.20647301 0.21722992 0.028730314 -0.11858931
0.16925992 -0.1739181 -0.18685882 0.015144325 0.17881021 0.08752361 -0.3241056 -0.13584799
0.48798364 -0.096223205 0.14899807 0.120658055 -0.07506726 0.21215905 -0.038469393 -0.09441901
0.34259996 -0.07465394 0.41767552 -0.5020664 -0.23014435 0.17446816 -0.040376022 0.06278849
-0.31452012 0.076411895 0.13163684 -0.12138554 0.16359302 0.46368507 0.097242266 0.3164026
0.11103868 0.17694435 0.27384087 0.32492763 -0.32856023 0.49554154 -0.168052 -0.2930758
0.03760067 0.2547253 -0.1728741 0.16728677 0.395333 0.070221744 0.06949554 -0.37853518
-0.1291005 0.050694674 0.2684968 -0.12649195 0.39772707 -0.0025531384 0.027026683 -0.17891786
-0.21801645 0.1445544 -0.18777432 0.09709738 -0.122459434 0.1525508 -0.4608028 0.5452109
0.12225065 -0.18355516 -0.35017315 0.021953398 -0.3015845 -0.10460371 -0.3025071 0.43057427
-0.10479036 -0.30807722 0.39470148 -0.22913748 -0.07876733 -0.52401876 -0.39399642 0.33656394
0.014823081 0.46980008 -0.76505524 0.13650292 0.008903409 0.6628532 -0.03284301 0.034005232
0.47172803 0.023116732 -0.3155264 0.25673708 -0.017468344 0.45586452 0.5048869 -0.31969726
-0.5942639 0.045956608 0.3814355 -0.19233362 0.11545926 -0.09535836 -0.41469356 -0.09229757
0.117944546 0.1430978 0.10301753 0.48458093 -0.884137 0.16952692 -0.36514795 -0.3287117
0.20938502 -0.039440796 0.62427914 0.18634194 0.035085894 0.20482747 -0.1399332 -0.06922536
0.13228373 -0.08654385 -0.14350863 0.23232748 -0.24571678 -0.21645527 0.22922082 0.3629285
0.19283013 -0.20955311 -0.4898427 0.0010122495 -0.03741453 0.27700594 -0.064641654 -0.3558947
-0.31797385 0.07288831 -0.37399095 -0.122438304 -0.15209465 -0.22306849 -0.26330554 0.1887742
0.23381598 0.08574172 -0.1711119 0.15631995 -0.32537094 -0.21196903 -0.1465084 -0.33247313
-0.18803021 0.34676114 -0.06381143 -0.14860852 0.28939003 0.13181503 0.165056 0.17122579
0.13889146 -0.118194334 0.4341224 -0.08404797 -0.044053067 0.17087731 -0.19476706 -0.21067557
0.15168166 -0.0907656 -0.31623656 0.18833978 0.1965603 0.3207168 0.32270774 -0.22811109
0.055303633 -0.7013389 0.08967973 0.4109404 -0.11000268 -0.8035363 0.1513292 0.4649217
0.094986625 0.47755754 -0.2671599 -0.37254122 0.0123998625 -0.5644163 -0.10571387 -0.22411631
0.029843276 0.19773227 -0.20587623 -0.11890612 -0.04158329 -0.06198271 -0.37759772 -0.001440303
0.27901548 0.06460817 0.42991224 -0.30771855 0.35865313 -0.2998367 -0.21917401 -0.36404163
-0.14898728 -0.49247733 -0.15197937 -0.4334601 0.009403128 -0.12297399 -0.22827744 -0.11341403
0.211042 -0.8384846 -0.27935213 0.2573246 0.35290658 -0.19677633 0.29086143 -0.4148406
00000000: d915 54be c31d ec3e 072a 30bf 7edf f0bd
00000010: 290f 3bbe 6719 edbd 9b12 54bf ea59 f1bd
00000020: 0832 763e 4dc2 5cbd cb6d efbd 817c 68be
00000030: 170b 9fbc 8aee 6d3e 0998 533e b6a8 f7be
00000040: d775 96be 06b1 1abf 567f 4c3e 5ed7 b8bc
00000050: a7f7 763e 60bd 593d 018c 833e 317b 3abe
00000060: 782a aabd 5a92 1c3e 3c9a d4bd 982e ddbe
00000070: a96d 533e 8571 5e3e d65b eb3c f4de f2bd
00000080: 7952 2d3e 9617 32be eb57 3fbe e71f 783c
00000090: 061a 373e 943f b33d 2bf1 a5be bc1b 0bbe
000000a0: fed8 f93e ac10 c5bd f392 183e 921b f73d
000000b0: ddbc 99bd 3940 593e 1592 1dbd c15e c1bd
000000c0: 4369 af3e 2ae4 98bd 91d9 d53e 6c87 00bf
000000d0: f6aa 6bbe c8a7 323e 5461 25bd 4097 803d
000000e0: c808 a1be d77d 9c3d cfcb 063e fb98 f8bd
000000f0: ee84 273e 2168 ed3e f426 c73d 86ff a13e
00000100: 3f68 e33d e630 353e df34 8c3e ea5c a63e
00000110: 0c39 a8be 9fb7 fd3e d315 2cbe 080e 96be
00000120: 2903 1a3d 5b6b 823e e805 31be 394d 2b3e
00000130: 1669 ca3e 6bd0 8f3d ad53 8e3d 5dcf c1be
00000140: ec32 04be 38a5 4f3d 6a78 893e 1b87 01be
00000150: e2a2 cb3e 8e52 27bb 1067 dd3c 3e36 37be
00000160: b43f 5fbe 1206 143e e947 40be feda c63d
00000170: 03cc fabd 4736 1c3e 58ee ebbe f192 0b3f
00000180: 8c5e fa3d e2f5 3bbe e549 b3be 9dd7 b33c
00000190: 4969 9abe 783a d6bd 36e2 9abe 3b74 dc3e
000001a0: 549c d6bd 4cbc 9dbe 5016 ca3e 04a3 6abe
000001b0: c450 a1bd 1826 06bf e6b9 c9be 1c52 ac3e
000001c0: 82dc 723c a389 f03e a9da 43bf 6cc7 0b3e
000001d0: 9bdf 113c bfb0 293f 6486 06bd 1249 0b3d
000001e0: 5686 f13e 4d5f bd3c ad8c a1be 0b73 833e
000001f0: c619 8fbc 1367 e93e 4540 013f 5caf a3be
00000200: ae21 18bf ff3c 3c3d 844b c33e 1bf3 44be
00000210: e875 ec3d 3e4b c3bd b752 d4be 8206 bdbd
00000220: e98c f13d 3b88 123e dbfa d23d fe1a f83e
00000230: cd56 62bf 7798 2d3e acf4 babe e64c a8be
00000240: 0769 563e ac8c 21bd c2d0 1f3f 6cd0 3e3e
00000250: 3ab6 0f3d 4bbe 513e a64a 0fbe 07c6 8dbd
00000260: 6375 073e e73d b1bd edf3 12be 41e7 6d3e
00000270: 2e9d 7bbe 73a6 5dbe ddb8 6a3e c4d1 b93e
00000280: 4375 453e 1795 56be aacc fabe 75ad 843a
00000290: fa3f 19bd b9d3 8d3e d862 84bd d537 b6be
000002a0: 78cd a2be 7746 953d be7b bfbe efc0 fabd
000002b0: b3be 1bbe 116c 64be fccf 86be 064e 413e
000002c0: 756d 6f3e 5b99 af3d f537 2fbe 5612 203e
000002d0: 0597 a6be 690e 59be 4c06 16be eb39 aabe
000002e0: fe8a 40be ad8a b13e 91af 82bd d52c 18be
000002f0: ee2a 943e 85fa 063e 7104 293e d055 2f3e
00000300: 9039 0e3e df0f f2bd 4b45 de3e 5821 acbd
00000310: fd70 34bd 76fa 2e3e 0471 47be 56bb 57be
00000320: 7052 1b3e 51e3 b9bd c2e9 a1be 25dc 403e
00000330: 1a47 493e fe34 a43e f339 a53e f495 69be
00000340: 1086 623d f28a 33bf 02aa b73d c866 d23e
00000350: 1649 e1bd 8eb4 4dbf 0bf6 1a3e 380a ee3e
00000360: 5988 c23d 6c82 f43e 2fc9 88be b9bd bebe
00000370: cb28 4b3c 967d 10bf 8380 d8bd bf7e 65be
00000380: e379 f43c 547a 4a3e 38d1 52be 0d85 f3bd
00000390: 3d53 2abd 95e1 7dbd 7d54 c1be 8dc8 bcba
000003a0: 1edb 8e3e 4a51 843d 751d dc3e 498d 9dbe
000003b0: 62a1 b73e 3284 99be 276f 60be aa63 babe
000003c0: 1f90 18be fd25 fcbe 7ba0 1bbe 7bee ddbe
000003d0: 940f 1a3c cad9 fbbd 90c1 69be 9d45 e8bd
000003e0: 651b 583e eda6 56bf 3e07 8fbe 0dc0 833e
000003f0: 2cb0 b43e bc7f 49be caeb 943e fd65 d4be

a3.bias f4 [32]
-0.4656356 0.12292669 0.17635213 -0.60339093 -0.46451107 0.10712207 0.31615835 -0.18685381
-0.67332566 -0.3986983 -0.34181747 -0.21817365 -1.0676036 -0.23570326 -0.21207963 0.8013597
0.5177244 -0.40719467 -0.166003 -0.5464921 -0.08547713 -0.5163276 -0.08407519 -0.4034891
-0.14886183 0.32926482 0.54234695 -0.21956787 0.015645288 0.27468425 -0.17354733 -0.30493578
00000000: ca67 eebe fdc0 fb3d a795 343e d477 1abf
00000010: 65d4 edbe d162 db3d 82df a13e 9b56 3fbe
00000020: 125f 2cbf 2f22 ccbe b302 afbe ea68 5fbe
00000030: 3ca7 88bf 325c 71be 672b 59be e925 4d3f
00000040: 9689 043f d27b d0be b1fc 29be e8e6 0bbf
00000050: a20e afbd 0c2e 04bf 9d2f acbd 2096 cebe
00000060: 3c6f 18be 6695 a83e 40d7 0a3f 66d6 60be
00000070: 8c2a 803c 6aa3 8c3e 64b6 31be 8b20 9cbe

b1.weight f4 [32, 32, 3, 3]
-0.51559937 0.15725847 -0.06676641 -0.24668303 -0.010626564 -0.05500548 -0.18107758 -0.06515508
-0.4469427 0.019157924 -0.6014634 0.1918817 -0.3292032 -0.71834993 0.039140105 0.22592227
-0.5059352 0.47060022 -0.12912281 0.2296365 0.0852347 0.14851156 0.27661392 0.11517584
-0.043054763 0.009311281 -0.23256858 0.36852917 0.2826818 0.36306277 0.18658596 -0.40587363
0.24903576 -0.19123606 -0.28528354 -0.29200006 0.3573137 -0.5134451 -0.04972405 1.767074e-05
0.104880586 -0.39160296 -0.1486152 -0.7745691 0.04845201 0.6932462 -0.95391 -0.12871912
0.22608578 -0.20135921 0.1345725 0.10772315 -0.13469575 -0.57991517 -0.13701002 -0.21109726
-0.23725753 -0.044338945 0.01634565 -0.16598545 -0.03645738 0.0076437653 0.29691446 -0.06192255
0.053410318 0.040944282 0.041649498 -0.16752945 -0.037700113 0.010142469 0.058243833 0.024395242
-0.1954513 -0.4017109 -0.45546883 -0.5756251 0.3648508 -0.0023086958 -0.46368697 0.22152674
0.35609114 0.27864352 -0.21614358 -0.07114808 0.24941549 0.09165365 0.5245148 0.87350535
-0.17737255 -0.09446842 -0.27645582 0.3423164 -0.20348473 0.2806996 0.2348866 -0.21781121
0.20969026 -0.010438329 0.010228431 -0.34349358 -0.47268763 -0.58855236 0.3484421 -0.17361
-0.41703895 0.18303508 0.23994192 -0.18355963 -0.24439803 -0.402649 -0.25828356 -0.18122277
-0.1220646 0.21013914 -0.25760663 -0.40699205 -0.06585199 0.061981216 0.12359912 0.2585091
0.11089649 -0.08547951 -0.12564631 -0.010781396 -0.29335532 0.042981736 0.114548035 0.288463
0.029929737 -0.017009627 -0.47522914 -0.023881495 -0.06053759 -0.25945732 -0.08043389 0.15906961
0.12619841 0.021613432 -0.29550454 0.07041577 0.014748886 -0.06428607 -0.5101617 0.003074149
-0.25466418 0.0069345557 0.11801536 0.24702384 0.4581151 0.18732537 -0.00032802613 -0.040623207
0.29043388 0.22407502 0.30353582 -0.45695558 -0.01407103 -0.07349797 -0.65381384 0.09527871
0.30078462 -0.1908278 0.40836892 -0.17658474 -0.14369676 0.21317647 -0.6573686 -0.2340643
-0.07068163 -0.2156056 -0.15889362 -0.32954115 0.5236916 -0.41173866 0.17204936 0.38880092
-0.22851574 -0.06339075 0.3189619 -0.3200482 -0.06742578 -0.22481334 0.06869174 0.051061038
-0.13882521 -0.069312945 0.16058354 0.12829609 0.24164236 0.10144496 -0.34836552 -0.4143079
0.2284921 0.17083503 0.31980544 -0.11131193 -0.16708933 -0.2778 -0.18179235 -0.040779084
0.07016194 -0.15512578 0.2070603 0.10010402 0.35593486 -0.45384482 -0.059075687 -0.253059
0.20954892 -0.38252285 -0.38684654 -0.036216494 -0.17468289 -0.20113285 0.47686118 0.1400728
0.41511905 -0.5401564 -0.38287163 -0.59664696 -0.04027595 0.1978105 -0.010050056 0.2494552
0.15260142 0.2590409 0.07584625 -0.70745766 -0.03844329 -0.11813617 0.35619992 -0.1029045
0.5140211 0.1762435 0.5987517 0.011659025 -0.2944407 0.13332039 -0.035822134 -0.029498734
0.016170116 0.32866615 -0.4544686 0.28819454 -0.1030552 -0.083399326 -0.9726155 -0.43820393
-0.03955429 -0.041348193 0.3319986 0.008646253 0.45444146 -0.20762537 -0.7140057 0.03827991
00000000: 52fe 03bf 5d08 213e d4bc 88bd 7a9a 7cbe
00000010: 0a1b 2ebc 6d4d 61bd 676c 39be 0770 85bd
00000020: acd5 e4be 14f1 9c3c 81f9 19bf a37c 443e
00000030: 528d a8be c8e5 37bf 6051 203d 2b58 673e
00000040: f884 01bf 83f2 f03e c538 04be d525 6b3e
00000050: 888f ae3d 6a13 183e 57a0 8d3e 50e1 eb3d
00000060: 315a 30bd 588e 183c 7526 6ebe dbaf bc3e
00000070: abbb 903e 5de3 b93e 6410 3f3e abce cfbe
00000080: 3b03 7f3e 63d3 43be af10 92be 0881 95be
00000090: d2f1 b63e 2371 03bf 72ab 4bbd a03b 9437
000000a0: a2cb d63d 2f80 c8be 952e 18be 294a 46bf
000000b0: 9d75 463d 9578 313f 7233 74bf f2ce 03be
000000c0: 0883 673e 1c31 4ebe 60cd 093e f49d dc3d
000000d0: afed 09be 5275 14bf 5b4c 0cbe e129 58be
000000e0: a3f3 72be c19c 35bd 50e7 853c 17f8 29be
000000f0: 5554 15bd 8d78 fa3b 2c05 983e 80a2 7dbd
00000100: c7c4 5a3d 31b5 273d aa98 2a3d d78c 2bbe
00000110: 6f6b 1abd 992c 263c 1691 6e3d 88d8 c73c
00000120: 6324 48be 0dad cdbe 3633 e9be 2b5c 13bf
00000130: b9cd ba3e 7d4d 17bb 6168 edbe e8d7 623e
00000140: 9451 b63e 5daa 8e3e be54 5dbe 16b6 91bd
00000150: c666 7f3e e9b4 bb3d 9a46 063f 0c9e 5f3f
00000160: 26a1 35be a978 c1bd 9e8b 8dbe 1844 af3e
00000170: 4d5e 50be dcb7 8f3e 1d86 703e e709 5fbe
00000180: 0bb9 563e 8605 2bbc 2695 273c 64de afbe
00000190: 1d04 f2be 5eab 16bf 0167 b23e d2c6 31be
000001a0: 2186 d5be 8c6d 3b3e 56b3 753e 0ef7 3bbe
000001b0: 7a43 7abe 0228 cebe be3d 84be 7692 39be
000001c0: 01fd f9bd b72e 573e 04e5 83be 4361 d0be
000001d0: 68dd 86bd 04e0 7d3d 8921 fd3d 4e5b 843e
000001e0: b31d e33d e20f afbd 6da9 00be 74a4 30bc
000001f0: ab32 96be 9e0d 303d 2998 ea3d 6cb1 933e
00000200: 352f f53c c657 8bbc 3c51 f3be 20a3 c3bc
00000210: 44f6 77bd 97d7 84be 86ba a4bd 25e3 223e
00000220: 283a 013e a70e b13c 5f4c 97be 2536 903d
00000230: 50a5 713c 6aa8 83bd f599 02bf a977 493b
00000240: 5863 82be 453b e33b 09b2 f13d d1f3 7c3e
00000250: 108e ea3e 39d2 3f3e ecfa abb9 8564 26bd
00000260: c0b3 943e ec73 653e 0c69 9b3e 15f6 e9be
00000270: 2d8a 66bc 1b86 96bd 5860 27bf 7c21 c33d
00000280: 7100 9a3e 5d68 43be bb15 d13e a1d2 34be
00000290: 3e25 13be ef4a 5a3e 4f49 28bf 8dae 6fbe
000002a0: 88c1 90bd b7c7 5cbe 02b5 22be 9eb9 a8be
000002b0: a710 063f 69cf d2be b52d 303e ea10 c73e
000002c0: 0800 6abe 02d3 81bd f94e a33e 5cdd a3be
000002d0: 8716 8abd 7835 66be 41ae 8c3d 6125 513d
000002e0: 3228 0ebe f2f3 8dbd 0370 243e 0d60 033e
000002f0: 1871 773e 60c2 cf3d f75c b2be 2a20 d4be
00000300: d5f9 693e 61ef 2e3e 8abd a33e 82f7 e3bd
00000310: 7719 2bbe cd3b 8ebe c627 3abe f807 27bd
00000320: 10b1 8f3d 4bd9 1ebe 9e07 543e 5603 cd3d
00000330: 183d b63e 595e e8be 59f9 71bd f390 81be
00000340: fe93 563e 09da c3be c010 c6be bf57 14bd
00000350: 12e0 32be c5f5 4dbe 2627 f43e 3e6f 0f3e
00000360: 7c8a d43e b147 0abf c007 c4be dbbd 18bf
00000370: 65f8 24bd d68e 4a3e fda8 24bc 2f71 7f3e
00000380: 8c43 1c3e 02a1 843e 4755 9b3d f21b 35bf
00000390: b676 1dbd 60f1 f1bd d65f b63e 98bf d2bd
000003a0: e396 033f 2d79 343e cb47 193f 7f05 3f3c
000003b0: eec0 96be 2485 083e 3bba 12bd 54a7 f1bc
000003c0: 3177 843c ee46 a83e 1cb0 e8be 3c8e 933e
000003d0: 9b0e d3bd 44cd aabd 54fd 78bf 445c e0be
000003e0: ae03 22bd b95c 29bd b8fb a93e 03a9 0d3c
000003f0: 8dac e83e bf9b 54be 14c9 36bf 65cb 1c3d

b1.bias f4 [32]
-0.011236011 -0.34908074 -0.89474463 -0.38177198 1.1043069 -0.27062857 -0.2798276 -0.026130807
-0.33531034 -0.91357225 -0.7183966 0.40228996 -0.667806 -0.5578249 0.24182573 -0.42281705
-0.3512739 -1.1962202 -0.24248031 0.5882182 -0.25611573 -0.49251717 1.0632921 -0.8848516
-0.11560787 -0.29848772 -0.13516895 -1.4107304 -0.101207644 -0.01873314 0.17016017 -0.14830992
00000000: 3f17 38bc b6ba b2be fc0d 65bf 9e77 c3be
00000010: ee59 8d3f d48f 8abe 9045 8fbe 4610 d6bc
00000020: ccad abbe dfdf 69bf d7e8 37bf f3f8 cd3e
00000030: 56f5 2abf 9dcd 0ebf 2aa1 773e 7a7b d8be
00000040: 2cda b3be be1d 99bf c24c 78be 7895 163f
00000050: 9a21 83be 362b fcbe f519 883f a285 62bf
00000060: d2c3 ecbd 62d3 98be bb69 0abe d092 b4bf
00000070: f445 cfbd 3e76 99bc 783e 2e3e 8ede 17be

b2.weight f4 [32, 32, 3, 3]
0.31902814 0.12541187 -0.014885535 0.2288407 -0.23124453 0.48376065 -0.26320216 -0.1230974
0.24117294 0.44238082 -0.11824104 -0.081837155 -0.14441846 -0.2463895 -0.18525004 0.22114402
0.10634264 -0.5642517 -0.16239621 0.12042709 -0.7480718 0.044643667 -0.30096996 0.14757006
-0.1803265 -0.16956611 -0.17368735 0.50702745 -0.10166258 0.11978663 0.68921113 -0.14570737
-0.25869796 -0.13345565 -0.4532908 -0.17309546 -0.20404473 0.14876187 -0.41505 -0.072648816
0.30007556 -0.40662518 -0.63693166 0.27381372 0.32770994 0.8572504 -0.48452154 -0.20941316
-0.10972821 -0.05012107 -0.59252137 0.010246325 0.49929762 1.0412933 0.093639314 -0.4560905
0.18100159 -0.29626784 -0.12692465 -0.1444789 0.21737632 0.10963096 -0.3505936 0.311352
-0.20183691 -0.20727438 -0.13820888 0.09479995 0.06192143 -0.051472384 0.1945617 -0.2239171
-0.05018224 -0.3432386 0.25044864 0.01340017 0.008822328 -0.15370715 -0.13530943 0.09180466
-0.38669106 -0.385997 -0.44173232 -0.3322719 0.24332596 -0.15998743 0.44643638 0.56465375
0.04553058 0.07333034 0.028022293 -0.1820056 -0.18926357 -0.19369909 -0.4039974 -0.21534495
0.5432598 0.43034244 -0.13050127 0.2021588 -0.14621624 0.24306172 -0.25699767 0.1455453
-0.3299272 -0.53234 0.16162875 -0.15001002 -0.2980159 -0.27014703 0.1504668 0.13140179
-0.11228391 -0.17293443 -0.44036743 0.12347787 0.1028333 -0.47476 -0.001242 -0.7412811
0.050001826 -0.33870906 0.20898668 -0.12559247 -0.028457433 -0.39458245 0.3602223 -0.061612077
-0.23189731 0.04865847 -0.63329905 -0.033268675 -0.20302895 0.29534423 0.13173807 -0.16852155
-0.067966826 -0.12713735 0.37856686 -0.7552659 0.17165516 0.1737152 0.28007382 0.13973919
0.42199713 -0.04113453 -0.10885102 0.055098757 -0.14539751 0.16192196 0.046746038 0.39109662
-0.28580347 -0.037306536 -0.09968284 0.25454938 0.08915607 -0.026216688 0.10239083 -0.3335593
0.15913586 -0.3056352 -0.03386011 0.1455229 -0.06488323 -0.17366715 -0.049541857 -0.45488244
-0.30651662 -0.15285864 0.09953182 0.44313625 0.049998563 -0.026618132 0.0458136 0.31740275
0.1672465 -0.09523425 0.050857015 -0.03754774 0.036691263 -0.28764993 -0.015865596 0.28648305
-0.15352494 0.0034994734 -0.44996426 -0.098069966 -0.4070111 -0.2141388 -0.26022616 0.118419945
0.23486722 0.27114576 0.58674693 -0.35074 -0.38828585 0.03970202 0.36542708 -0.4250428
0.14813024 0.0987579 -0.033945937 0.30434397 -0.98151195 0.39557213 -0.14456362 -0.18886039
-0.15870959 -0.22665608 -0.020695167 -0.5478976 0.81460685 0.12301672 0.16326831 0.26733345
0.020428875 -0.16375044 -0.041798916 0.17734446 -0.19960035 -0.037637718 0.442862 0.2080007
-0.3806189 -0.024584854 -0.16042992 0.29826903 0.09253141 0.3070012 -0.07736017 -0.07576311
-0.27228412 0.13841279 0.113890216 -0.17978945 0.08551349 0.011516287 0.099912256 0.25782576
-0.5621547 -0.5176807 -0.19412874 0.16387515 -0.30540043 0.4950889 0.26206154 -0.22564009
-0.5094038 -0.0789504 -0.72219414 0.14833966 0.10934166 0.15083787 0.3060864 -0.113355786
00000000: a857 a33e f86b 003e 76e2 73bc 3755 6a3e
00000010: 5ecb 6cbe 7aaf f73e 6fc2 86be 7d1a fcbd
00000020: 0af6 763e bd7f e23e 5c28 f2bd 3d9a a7bd
00000030: 6fe2 13be 874d 7cbe 30b2 3dbe 9473 623e
00000040: 2cca d93d cd72 10bf 314b 26be 7aa2 f63d
00000050: a281 3fbf 47dc 363d bc18 9abe 9b1c 173e
00000060: 83a7 38be bda2 2dbe 19db 31be 8dcc 013f
00000070: 7934 d0bd b152 f53d 2470 303f 5034 15be
00000080: 0f74 84be 99a8 08be bb15 e8be f03f 31be
00000090: 1af1 50be 0855 183e 6f81 d4be e7c8 94bd
000000a0: 81a3 993e 2d31 d0be f40d 23bf 5031 8c3e
000000b0: 99c9 a73e c374 5b3f 3513 f8be 6770 56be
000000c0: 2fb9 e0bd c04b 4dbd 7baf 17bf 34e0 273c
000000d0: f0a3 ff3e 1949 853f f8c5 bf3d b284 e9be
000000e0: 7b58 393e 6bb0 97be 89f8 01be 47f2 13be
000000f0: e697 5e3e 3286 e03d 0181 b3be 8869 9f3e
00000100: 56ae 4ebe bc3f 54be a186 0dbe 7a26 c23d
00000110: 53a1 7d3d b5d4 52bd 2f3b 473e 864a 65be
00000120: e48b 4dbd f8bc afbe ce3a 803e 638c 5b3c
00000130: 878b 103c 6865 1dbe 8e8e 0abe 1504 bc3d
00000140: 5ffc c5be 66a1 c5be bd2a e2be 8b1f aabe
00000150: 712a 793e bfd3 23be 4f93 e43e 268d 103f
00000160: 467e 3a3d 382e 963d 028f e53c ad5f 3abe
00000170: 4fce 41be 0e59 46be bfd8 cebe 6383 5cbe
00000180: 1313 0b3f d855 dc3e 20a2 05be b702 4f3e
00000190: b6b9 15be 2ce5 783e 3395 83be d409 153e
000001a0: 38ec a8be 6f47 08bf 0282 253e 3a9c 19be
000001b0: 8a95 98be b650 8abe f813 1a3e 318e 063e
000001c0: 1bf5 e5bd b915 31be d777 e1be f7e1 fc3d
000001d0: 449a d23d be13 f3be 9bca a2ba 99c4 3dbf
000001e0: b7ce 4c3d 466b adbe 9b00 563e 509b 00be
000001f0: 901f e9bc b606 cabe 0f6f b83e f25c 7cbd
00000200: 7d76 6dbe 1b4e 473d e31f 22bf bc44 08bd
00000210: d2e6 4fbe 5c37 973e 58e6 063e ea90 2cbe
00000220: 3132 8bbd 4b30 02be 84d3 c13e 1b59 41bf
00000230: 5fc6 2f3e 66e2 313e d665 8f3e ca17 0f3e
00000240: 0210 d83e ae7c 28bd 49ed debd 3caf 613d
00000250: 16e3 14be dfce 253e c678 3f3d d13d c83e
00000260: d554 92be bdce 18bd 8426 ccbd 4c54 823e
00000270: 7597 b63d 61c4 d6bc 49b2 d13d 49c8 aabe
00000280: 83f4 223e 387c 9cbe e6b0 0abd f503 153e
00000290: 80e1 84bd cdd5 31be 67ec 4abd 5ae6 e8be
000002a0: bfef 9cbe fa86 1cbe 57d7 cb3d c1e2 e23e
000002b0: 4bcb 4c3d 450e dabc 0ba7 3b3d 9d82 a23e
000002c0: ab42 2b3e 2d0a c3bd 724f 503d a9cb 19bd
000002d0: 9449 163d da46 93be 91f8 81bc e8ad 923e
000002e0: a435 1dbe 6c57 653b b761 e6be e8d8 c8bd
000002f0: c263 d0be 3447 5bbe 5d3c 85be 2886 f23d
00000300: 0881 703e 9ed3 8a3e 0c35 163f 3194 b3be
00000310: 67cd c6be 969e 223d 4219 bb3e 369f d9be
00000320: 74af 173e 9541 ca3d e50a 0bbd f9d2 9b3e
00000330: 5e44 7bbf 6e88 ca3e 7c08 14be 9e64 41be
00000340: c484 22be 8818 68be e988 a9bc 0443 0cbf
00000350: 138a 503f 31f0 fb3d cf2f 273e eedf 883e
00000360: 755a a73c 32ae 27be 5735 2bbd c999 353e
00000370: 0964 4cbe 022a 1abd cfbe e23e 23fe 543e
00000380: 7be0 c2be 2d66 c9bc be47 24be b8b6 983e
00000390: 1c81 bd3d 432f 9d3e 026f 9ebd b029 9bbd
000003a0: d368 8bbe 15bc 0d3e 463f e93d ba1a 38be
000003b0: b221 af3d cfae 3c3c cc9e cc3d bd01 843e
000003c0: 5fe9 0fbf b986 04bf afc9 46be e3ce 273e
000003d0: 725d 9cbe 4b7c fd3e ee2c 863e 320e 67be
000003e0: 4a68 02bf bfb0 a1bd b7e1 38bf 5ae6 173e
000003f0: 85ee df3d 3e75 1a3e 5bb7 9c3e 1427 e8bd

b2.bias f4 [32]
0.25210175 -1.3622284 -1.0168864 -1.2097343 -0.1488656 -1.0788965 -0.6377359 -0.7196433
0.79124635 0.057084683 0.11284232 -0.51113373 -0.5593603 -1.0335475 -0.23805751 0.4252278
-0.30846533 -0.69003475 -0.21272905 -0.3982626 -0.22183414 0.56324226 -0.95039 0.8230828
-0.9330872 0.5353321 0.2919531 0.29296175 -1.2673542 -0.36174145 0.7718978 -0.3161773
00000000: 7b13 813e 805d aebf 5529 82bf 93d8 9abf
00000010: 3970 18be 4819 8abf a942 23bf 8b3a 38bf
00000020: 1f8f 4a3f a1d1 693d e019 e73d a9d9 02bf
00000030: 3d32 0fbf 494b 84bf 59c5 73be 75b7 d93e
00000040: 2bef 9dbe 1ea6 30bf a5d5 59be 13e9 cbbe
00000050: 7d28 63be a530 103f c24c 73bf 8eb5 523f
00000060: cede 6ebf 860b 093f e07a 953e 15ff 953e
00000070: aa38 a2bf 2d36 b9be 189b 453f fee1 a1be

b3.weight f4 [64, 32, 3, 3]
-0.39456776 -0.010025275 -0.13320553 -0.11717859 0.03662804 -0.09811402 0.025019187 -0.5207449
-0.04117211 0.09373793 -0.47269812 0.3651037 -0.03213752 0.24246098 -0.26044297 -0.2250276
-0.1968687 -0.16869943 -0.17871603 -0.056767855 -0.11180401 0.1837924 -0.16082741 -0.25949046
0.11160998 0.44272017 -0.21651219 -0.066695 -0.17984973 0.0492551 0.13517894 0.42774418
-0.3842316 0.16046542 -0.17940053 -0.044812273 0.43046084 0.00011456186 0.29646376 -0.670834
0.039290503 0.6101353 -0.40827847 0.42080832 0.047665883 -0.20538242 0.7829153 0.17232062
0.20831718 -0.40572298 0.32252413 0.012115992 -0.12508765 -0.41827115 -0.38152108 -0.004965339
-0.40352407 0.14878584 0.051620618 0.20771094 0.099581234 -0.0648235 -0.13186234 -0.32434016
-0.04590189 0.26879704 -0.07924034 -0.06812754 -0.7442584 0.25572172 0.51047164 -0.17069708
-0.111494645 0.10351265 -0.13820644 -0.11670182 0.14226355 0.06492169 -0.16964069 -0.5526635
0.6005832 -0.42745197 0.34608135 0.18197799 -0.035431843 0.51374686 -0.4054751 -0.38844755
-0.6059661 -0.19575606 -0.16892824 -0.4204152 -0.14823096 0.0856945 -0.11507434 0.15261176
-0.2868846 -0.13731746 -0.43659562 0.42217952 -0.0063387686 0.025981057 0.23688632 -0.14423032
0.19484758 -0.06734055 0.6564232 0.38713497 0.060446065 0.13251299 0.24531358 0.25136825
-0.07225004 -0.51860327 -0.22002307 -0.0120444065 0.06990147 -0.25873938 -0.1289608 0.065420434
0.012368691 0.65822244 0.29902917 0.016560385 -0.19525123 0.4995 0.22660606 -0.3410209
0.07099026 0.17244388 -0.2634043 0.22873066 -0.1737199 -0.17781086 -0.88927734 -0.13324249
-0.28428394 0.22992343 -0.064074494 -0.19340247 -0.87511295 -0.29736933 -0.10422301 -0.07888771
0.13992894 -0.65180147 -0.40732172 0.77330357 -0.21882962 0.15261924 -0.16363877 -0.48861352
-0.26911065 -0.3722943 -0.1571617 0.47720137 0.13656218 -0.039945576 -0.39109278 -0.7351794
-0.24851346 -0.36084145 0.50246245 -0.0022899127 -0.02005807 -0.17367017 -0.34788018 -0.24908338
-0.18544883 -0.429437 -0.18904816 0.1915759 -0.11491876 -0.21457696 -0.0757636 -0.43469644
0.13478382 -0.3819721 0.10472112 -0.38992244 0.108118266 -0.011295841 -0.16463892 0.35279754
-0.08234387 0.12563434 -0.0068936544 0.26888874 0.1833864 0.08614249 -0.20349549 -0.04398201
-0.49299076 0.14441435 0.11859485 -0.081417985 0.17486988 -0.016134378 -0.4969902 -0.3694855
-0.13532992 0.24541065 0.073318616 0.004226281 0.116407596 -0.19177222 -0.17799032 0.2102574
0.1837652 -0.49653524 0.018222127 -0.13964735 0.008832934 0.12205134 -0.43194795 0.22552507
-0.0018659788 -0.16746803 -0.027366238 -0.06795725 -0.37851307 0.06481919 0.047916964 0.19262654
-0.1001703 -0.077442355 -0.15292105 0.33597213 0.5023951 0.025798181 0.26530644 0.012256252
0.24719143 0.08825122 0.2772663 0.13073093 0.016439382 -0.06501945 0.39186782 0.43111044
-0.11003302 -0.44387278 0.26409754 -0.11978072 -0.17050453 -0.068585545 0.21819311 0.0851785
0.3072758 0.16024004 -0.41884544 0.41383174 -0.043010335 0.08681876 0.38280827 -0.04693626
00000000: c904 cabe 0d41 24bc 0867 08be 54fb efbd
00000010: 4907 163d 01f0 c8bd 0af5 cc3c 8a4f 05bf
00000020: 16a4 28bd acf9 bf3d 7d05 f2be dfee ba3e
00000030: a2a2 03bd b147 783e c858 85be a36d 66be
00000040: f397 49be 8bbf 2cbe 5601 37be 6985 68bd
00000050: 80f9 e4bd 1334 3c3e f1af 24be efdb 84be
00000060: c693 e43d 38ac e23e 5fb5 5dbe 6397 88bd
00000070: 872a 38be b7bf 493d 596c 0a3e 4901 db3e
00000080: 01ba c4be 0c51 243e c6b4 37be 138d 37bd
00000090: 5d65 dc3e ee40 f038 19ca 973e c7bb 2bbf
000000a0: 14ef 203d d431 1c3f e009 d1be 3074 d73e
000000b0: 4d3d 433d c54f 52be 236d 483f d174 303e
000000c0: 1951 553e ecba cfbe e221 a53e 2782 463c
000000d0: fa16 00be a327 d6be bb56 c3be 48b4 a2bb
000000e0: b59a cebe 515b 183e 2470 533d 2db2 543e
000000f0: 3ff1 cb3d 2fc2 84bd ec06 07be ea0f a6be
00000100: 9f03 3cbd c49f 893e c248 a2bd 7486 8bbd
00000110: b887 3ebf f5ed 823e 45ae 023f 37cb 2ebe
00000120: 4e57 e4bd 71fe d33d fd85 0dbe 5d01 efbd
00000130: 89ad 113e aaf5 843d 4ab6 2dbe 5b7b 0dbf
00000140: d2bf 193f fcda dabe 9331 b13e 7058 3a3e
00000150: fb20 11bd ea84 033f 6f9a cfbe 99e2 c6be
00000160: 9820 1bbf 4774 48be 86fb 2cbe a940 d7be
00000170: dbc9 17be 9980 af3d 18ac ebbd 4246 1c3e
00000180: 8ae2 92be f39c 0cbe 7689 dfbe ea27 d83e
00000190: 72b5 cfbb 3ad6 d43c 5492 723e 1db1 13be
000001a0: 2086 473e d8e9 89bd 5a0b 283f 8e36 c63e
000001b0: 4b96 773d 7cb1 073e 7c33 7b3e 57b3 803e
000001c0: d4f7 93bd 2fc3 04bf ba4d 61be e755 45bc
000001d0: 8028 8f3d 7d79 84be 4d0e 04be 26fb 853d
000001e0: 0da6 4a3c 4481 283f 5a1a 993e a5a9 873c
000001f0: f0ef 47be 77be ff3e 6b0b 683e 4b9a aebe
00000200: 5763 913d 2195 303e eedc 86be 5f38 6a3e
00000210: a1e3 31be 0d14 36be aea7 63bf b870 08be
00000220: aa8d 91be 0c71 6b3e 7d39 83bd 4c0b 46be
00000230: 6707 60bf cb40 98be e072 d5bd e18f a1bd
00000240: 8849 0f3e 76dc 26bf 798c d0be 39f7 453f
00000250: df14 60be 3848 1c3e ec90 27be 8d2b fabe
00000260: dfc8 89be 5c9d bebe ffee 20be bd53 f43e
00000270: f5d6 0b3e f99d 23bd 503d c8be b834 3cbf
00000280: 507a 7ebe 36c0 b8be 61a1 003f 5c12 16bb
00000290: d250 a4bc 98d6 31be 5a1d b2be b70f 7fbe
000002a0: 4ce6 3dbe 2bdf dbbe d795 41be 792c 443e
000002b0: 875a ebbd 10ba 5bbe f229 9bbd 8890 debe
000002c0: c504 0a3e d991 c3be 0778 d63d eaa3 c7be
000002d0: 1c6d dd3d 3112 39bc 1b97 28be e1a1 b43e
000002e0: e7a3 a8bd 4aa6 003e 2ae4 e1bb c9ab 893e
000002f0: a5c9 3b3e 796b b03d 1f61 50be 7b26 34bd
00000300: 4969 fcbe 5be1 133e dbe1 f23d 79be a6bd
00000310: 1711 333e 3e2c 84bc 8075 febe 342d bdbe
00000320: ed93 0abe ee4c 7b3e 1228 963d 9d7c 8a3b
00000330: 1b67 ee3d f05f 44be 1843 36be b74d 573e
00000340: f22c 3c3e de39 febe 9246 953c b7ff 0ebe
00000350: 03b8 103c 0ef6 f93d 4828 ddbe 0bf0 663e
00000360: dc93 f4ba bd7c 2bbe 292f e0bc 2c2d 8bbd
00000370: 77cc c1be ecbf 843d 9444 443d e43f 453e
00000380: 1626 cdbd 199a 9ebd 5697 1cbe 8a04 ac3e
00000390: f79c 003f b556 d33c 3fd6 873e 72ce 483c
000003a0: c01f 7d3e 0ebd b43d d9f5 8d3e 54de 053e
000003b0: e2ab 863c eb28 85bd e6a2 c83e 82ba dc3e
000003c0: fe58 e1bd 4b43 e3be cb37 873e 984f f5bd
000003d0: bd98 2ebe 9476 8cbd 046e 5f3e 1172 ae3d
000003e0: 4153 9d3e f715 243e e972 d6be c1e1 d33e
000003f0: 9b2b 30bd 09ce b13d 72ff c33e 3c40 40bd

b3.bias f4 [64]
0.23912269 0.1990966 -0.164581 -0.033288453 -0.1059083 -0.50203836 0.04092521 0.22390586
-0.6862192 -0.34852752 -0.52571154 0.26130146 0.07715036 0.34057295 -0.33863714 -0.104506366
-0.25251448 0.06539572 -0.09271842 0.40827075 0.13887228 -0.4864139 0.003028225 0.43001205
0.34211588 -0.56447715 -0.93961084 -0.11108244 0.73125654 -0.2888401 0.18055636 -0.09043952
-0.1974422 -0.09539245 -0.15980041 0.17921728 -0.1890713 -0.44912088 0.23646489 0.09749722
0.1257829 0.14504844 0.518592 0.64416134 -0.117809854 -0.12864518 0.19743335 -0.27840492
-0.4298046 -0.4392578 -0.065319896 -0.10736364 -0.282758 0.24550869 0.11161272 -0.27787936
0.31525728 0.43146214 -0.11148821 -0.028781107 -0.3501683 0.118298724 0.11514924 -1.0296326
00000000: 94dc 743e fbdf 4b3e ec87 28be 7959 08bd
00000010: 73e6 d8bd 9685 00bf 31a1 273d 9447 653e
00000020: 10ac 2fbf 3372 b2be 0895 06bf 4ec9 853e
00000030: 0201 9e3d 945f ae3e d961 adbe 6f07 d6bd
00000040: 9449 81be 31ee 853d 28e3 bdbd dd08 d13e
00000050: 8934 0e3e 3e0b f9be 2f75 463b 8a2a dc3e
00000060: d029 af3e 9381 10bf 568a 70bf 317f e3bd
00000070: a133 3b3f d9e2 93be c4e3 383e 5b38 b9bd
00000080: 4a2e 4abe 1e5d c3bd b8a2 23be bc84 373e
00000090: e89b 41be 2cf3 e5be da23 723e 9fac c73d
000000a0: 3ccd 003e 9487 143e 72c2 043f c2e7 243f
000000b0: 4b46 f1bd 90bb 03be f82b 4a3e 178b 8ebe
000000c0: 590f dcbe 66e6 e0be 70c6 85bd 78e1 dbbd
000000d0: a8c5 90be a166 7b3e 3695 e43d 3446 8ebe
000000e0: 6769 a13e 9be8 dc3e ee53 e4bd 5bc6 ebbc
000000f0: 4249 b3be 9a46 f23d 5dd3 eb3d 00cb 83bf

c1.weight f4 [64, 64, 2, 2]
-0.03868792 0.054853465 -0.35418165 -0.2398687 0.1417448 0.12948735 0.060624436 0.14973918
-0.13789001 -0.39474002 0.23904447 -0.01572582 -0.021668902 0.08385225 -0.010498057 0.06572192
0.13815425 -0.5706914 -0.5460565 0.1917547 0.052398767 -0.22670011 -0.03985021 -0.17910169
0.23107018 -0.4297749 0.3035314 -0.4528158 -0.21851657 0.1527428 0.049909078 0.22300485
0.11457064 0.018653374 0.017133817 0.2140851 0.124977715 -0.6713206 0.45976254 -0.12208123
-0.04543703 -0.24531424 -0.070540935 -0.098927744 -0.15354998 -0.4652515 0.142741 -0.25414342
0.08934934 -0.70469266 -0.45911327 0.048322443 -0.18711947 -0.021233235 0.14791822 0.19979718
-0.03786408 0.29945257 -0.11080705 -0.26174816 -0.3591486 -0.11053026 0.010994366 0.4159732
0.25477737 -0.10341015 -0.6548923 -0.2493026 -0.26495862 0.056638807 0.104192056 0.08451409
0.116076574 -0.13649929 0.27094755 -0.23354422 -0.37284705 0.17595057 -0.57443655 -0.30795184
-0.14957029 0.015977176 -0.041556403 0.081153415 0.305181 0.5590527 -0.30100214 -0.10585412
0.1936243 0.031032396 -0.28065673 -0.23427874 0.06581391 0.35627687 -0.56487405 0.113642015
0.008567611 -0.12375424 0.11960998 -0.37971503 0.05164914 -0.14334033 0.93647224 -0.19700134
-0.26450264 0.13740584 -0.37768888 -0.16691068 -0.06366293 -0.019427838 0.056384474 0.051748306
-0.25447464 0.32986486 -0.26716453 0.18651552 0.10856969 -0.06027108 -0.2627014 -0.28017712
-0.34503764 -0.59331447 0.21751358 0.32682633 0.035022546 -7.311255e-05 -0.0062525915 -0.017293744
-0.06416105 0.2052647 0.16289118 0.4509407 0.04670229 0.0055355337 -0.05691006 -0.019702017
0.055310767 0.09233271 -0.08424553 -0.4439725 0.1735482 -0.5669073 -6.1509825e-05 -0.0015512805
0.22365771 -0.042504333 0.1852053 0.32143566 -0.34562793 0.31646135 0.45189512 0.025997661
0.031541593 0.2739949 0.11300884 0.21797836 -0.017864505 0.45613328 -0.44584304 0.30065957
-0.070798844 0.13616925 0.21707755 -0.01644478 -0.33352625 -0.03743257 -0.14115445 -0.02129189
-0.16635105 -0.16442657 0.31185275 0.042530626 -0.15639254 0.16714175 -0.21513827 0.23061977
0.03479223 -0.038539834 -0.0010630168 0.030602152 -0.015659614 -0.05718243 0.038888164 0.019343667
0.3051584 -0.39635476 -0.16102704 -0.9280529 0.5108156 -0.24578995 0.2972398 -0.25876224
-0.060723577 0.07309605 0.45119753 -0.019943144 -0.5196603 -0.14607279 0.10315607 0.19826466
-0.5784326 -0.23547569 -0.19246139 0.21291983 0.41965547 -0.31971186 0.17191325 -0.32903886
0.17114104 -0.19489692 -0.58469296 -0.32029998 -0.17186242 -0.08889377 -0.5751592 -0.21382476
0.2045097 -0.069409825 -0.15379605 -0.02751099 0.1310771 -0.29635054 0.14013661 -0.45098394
0.09971362 -0.007216109 0.48468316 -0.11983781 -0.40379578 0.33544648 0.050515126 0.41023755
0.0034348744 0.057328667 0.031089807 -0.0073873494 0.0631348 -0.031243159 -0.049938243 -0.06531855
-0.17805563 0.021081675 0.41743284 -0.09361593 0.4680589 -0.16692084 0.023899397 -0.4748133
-0.27777916 0.1670203 -0.18216385 0.5903168 0.18998988 0.24670817 0.19407423 -0.1816405
00000000: 3977 1ebd 07ae 603d 4c57 b5be 24a0 75be
00000010: 8d25 113e 5598 043e 5451 783d 3a55 193e
00000020: 0a33 0dbe 5d1b cabe 13c8 743e 6fd3 80bc
00000030: fb82 b1bc baba ab3d 0b00 2cbc 3799 863d
00000040: 4f78 0d3e d518 12bf 5cca 0bbf 585b 443e
00000050: 17a0 563d 1324 68be f939 23bd 6f66 37be
00000060: a99d 6c3e 750b dcbe 7868 9b3e 79d7 e7be
00000070: cfc2 5fbe 9c68 1c3e 766d 4c3d 625b 643e
00000080: 03a4 ea3d f6ce 983c 385c 8c3c 2039 5b3e
00000090: 51f4 ff3d abdb 2bbf ff65 eb3e b905 fabd
000000a0: 2e1c 3abd a833 7bbe c477 90bd a19a cabd
000000b0: 353c 1dbe 7235 eebe b22a 123e 161f 82be
000000c0: c9fc b63d bd66 34bf e510 ebbe c1ed 453d
000000d0: 3f9c 3fbe 52f1 adbc e077 173e a297 4c3e
000000e0: 5e17 1bbd d951 993e ceee e2bd db03 86be
000000f0: 53e2 b7be b05d e2bd b721 343c 70fa d43e
00000100: 2e72 823e b3c8 d3bd 06a7 27bf 2e49 7fbe
00000110: a8a8 87be 18fe 673d a562 d53d b915 ad3d
00000120: 8eb9 ed3d 78c6 0bbe a3b9 8a3e 3726 6fbe
00000130: cfe5 bebe 632c 343e 460e 13bf ddab 9dbe
00000140: f428 19be 91e2 823c 0c37 2abd c333 a63d
00000150: af40 9c3e 141e 0f3f f41c 9abe 0bca d8bd
00000160: 7345 463e a737 fe3c 3db2 8fbe c4e6 6fbe
00000170: 71c9 863d ec69 b63e 969b 10bf 25bd e83d
00000180: 2a5f 0c3c dd72 fdbd 14f6 f43d 026a c2be
00000190: 0c8e 533d cfc7 12be a5bc 6f3f b8ba 49be
000001a0: e46c 87be 1eb4 0c3e 7060 c1be a2ea 2abe
000001b0: b661 82bd 2127 9fbc 68f3 663d 08f6 533d
000001c0: 804a 82be 0ce4 a83e cac9 88be edfd 3e3e
000001d0: c959 de3d cfde 76bd cc80 86be 6073 8fbe
000001e0: c6a8 b0be 75e3 17bf e1bb 5e3e c855 a73e
000001f0: cd73 0f3d 0054 99b8 8ae2 ccbb 9cab 8dbc
00000200: de66 83bd e930 523e f2cc 263e b3e1 e63e
00000210: e74a 3f3d 6c63 b53b 861a 69bd 2066 a1bc
00000220: 8b8d 623d ef18 bd3d ec88 acbd 5d50 e3be
00000230: 9fb6 313e d620 11bf d6fe 80b8 5654 cbba
00000240: 8706 653e 0619 2ebd 75a6 3d3e 3793 a43e
00000250: 25f6 b0be 3907 a23e cc5e e73e 0cf9 d43c
00000260: c231 013d 0f49 8c3e 2e71 e73d b835 5f3e
00000270: 9558 92bc 4d8a e93e 8a45 e4be 0df0 993e
00000280: fcfe 90bd f46f 0b3e 9449 5e3e 34b7 86bc
00000290: f4c3 aabe e552 19bd cb8a 10be 546c aebc
000002a0: ee57 2abe 705f 28be 2aab 9f3e 9834 2e3d
000002b0: 5e25 20be 3527 2b3e 354d 5cbe 9727 6c3e
000002c0: 4c82 0e3d f2db 1dbd ed54 8bba 5db1 fa3c
000002d0: 9748 80bc 2038 6abd 3249 1f3d 9c76 9e3c
000002e0: b93d 9c3e 03ef cabe 46e4 24be e094 6dbf
000002f0: d0c4 023f 5cb0 7bbe d12f 983e 7c7c 84be
00000300: 49b9 78bd 62b3 953d 5d03 e73e ce5f a3bc
00000310: 7508 05bf 1b94 15be 7d43 d33d e405 4b3e
00000320: 2914 14bf 8a20 71be 9914 45be a807 5a3e
00000330: 15dd d63e 46b1 a3be 070a 303e c877 a8be
00000340: 993f 2f3e 0f93 47be 70ae 15bf 5cfe a3be
00000350: b4fc 2fbe f00d b6bd a23d 13bf e1f4 5abe
00000360: fe6a 513e bd26 8ebd b67c 1dbe ba5e e1bc
00000370: 1339 063e 42bb 97be f97f 0f3e 5ee7 e6be
00000380: a836 cc3d 1c75 ecbb 6428 f83e 876d f5bd
00000390: 52be cebe a4bf ab3e f3e8 4e3d a80a d23e
000003a0: a11b 613b 77d1 6a3d 0db0 fe3c 9411 f2bb
000003b0: d14c 813d a7f1 ffbc 0b8c 4cbd bbc5 85bd
000003c0: 3754 36be 7ab3 ac3c c2b9 d53e b5b9 bfbd
000003d0: 6ba5 ef3e 4ced 2abe abc8 c33c bb1a f3be
000003e0: 1239 8ebe 5f07 2b3e 2989 3abe 001f 173f
000003f0: b58c 423e 11a1 7c3e 65bb 463e f8ff 39be

c1.bias f4 [64]
1.020486 -1.0771093 -0.0069910805 -0.36531174 -1.0481744 -1.3699229 -0.5126652 -0.76814187
0.84149104 0.041915763 1.1642797 -1.2600034 -0.99649954 0.6713147 -0.7426552 -1.1561027
-0.67008865 -0.4344917 -0.3898157 -0.63429356 -0.8454293 -0.8269148 -0.64583224 -0.14708845
0.08766012 -0.4332114 -1.0387186 1.172741 -1.1825522 -0.81274927 0.39593086 0.30258462
-0.9700197 -0.2846297 0.8657726 -0.55150104 -0.3623561 -0.7857869 -1.1178023 -0.49040446
0.52144426 -0.777742 0.35832894 -1.3422847 0.74278206 1.2546649 -0.30117002 -1.0742589
-0.6158556 -0.7694879 -0.20561066 0.17657535 -0.9898989 -0.9698647 1.4924066 -0.673718
-0.17359562 -0.9205618 -0.39931038 -0.44797367 -0.109406896 0.11665922 0.60729903 -0.9543166
00000000: 499f 823f b8de 89bf 6f15 e5bb 240a bbbe
00000010: 942a 86bf a259 afbf 073e 03bf f2a4 44bf
00000020: f56b 573f ddaf 2b3d 1e07 953f cb47 a1bf
00000030: 981a 7fbf 48db 2b3f a71e 3ebf 2cfb 93bf
00000040: ee8a 2bbf b275 debe ec95 c7be 1061 22bf
00000050: 0e6e 58bf b0b0 53bf 4355 25bf 5b9e 16be
00000060: 2687 b33d e2cd ddbe bbf4 84bf 611c 963f
00000070: df5d 97bf 5610 50bf 73b7 ca3e 5fec 9a3e
00000080: 3653 78bf fcba 91be 46a3 5d3f 2c2f 0dbf
00000090: bd86 b9be 5529 49bf 2514 8fbf 4b16 fbbe
000000a0: 5f7d 053f 1a1a 47bf e476 b73e fccf abbf
000000b0: f726 3e3f dc98 a03f f532 9abe 5181 89bf
000000c0: b6a8 1dbf 29fd 44bf 9a8b 52be 2bd0 343e
000000d0: 046a 7dbf 0e49 78bf 2e07 bf3f c878 2cbf
000000e0: 0dc3 31be f0a9 6bbf 6972 ccbe ce5c e5be
000000f0: b910 e0bd 07eb ee3d f377 1b3f 184e 74bf
