nets/model_epoch_40.pth (torch, 648794 bytes, 25 tensors)

a1.weight f4 [16, 5, 3, 3]
000000 76 37 7a 3d 56 af f6 3d 0a e7 50 bd 46 3c fe bd
       0.061088048 0.120451614 -0.051001586 -0.1241384
000010 7f ff 50 bd 6a 2b 83 3e c4 f2 db bd cf 4d c9 3c
       -0.05102491 0.2561906 -0.10739663 0.024573235
000020 32 c4 ca be 8b 3e 88 bd 33 39 a4 bd f8 ea b7 bd
       -0.3960281 -0.06652554 -0.080187224 -0.089803636
000030 da 72 b4 3b d2 76 f7 bd 51 34 41 be 97 31 9c be
       0.0055068554 -0.1208321 -0.18867613 -0.30506584
000040 58 8f e2 bd bc 27 0a be 96 a3 a0 3d 80 a7 f1 bd
       -0.11062497 -0.1349172 0.078437015 -0.11799526
000050 9a af 0c 3d ba eb f4 bc 77 dd 9a be 72 ad 5e 3c
       0.034347154 -0.02989756 -0.3024709 0.013591157
000060 ab 4f fc bd 62 c7 aa bd 96 22 6c bc d1 6d 28 be
       -0.12319883 -0.083388105 -0.014412543 -0.16448142
000070 09 f9 81 bd e7 54 84 3d 8c 07 3c be 75 ad 5c bd
       -0.06346328 0.06461506 -0.18362254 -0.05387636
000080 37 f9 bc be 74 57 42 be ed ff 12 be 91 b0 0d 3e
       -0.36908886 -0.18978673 -0.1435544 0.13836886
000090 5e 38 2c be 48 23 94 bd 63 3f 14 be 98 85 ef bc
       -0.16818377 -0.07233292 -0.14477305 -0.029238507
0000a0 7e 23 37 be 3f a8 00 be 08 2c 30 bc 42 d9 f2 bd
       -0.17884633 -0.12564181 -0.010752685 -0.11857845
0000b0 b4 49 3d bd b4 ab 3e 3e 88 12 a7 bd c9 cb 8f bd
       -0.046212867 0.18620187 -0.081578314 -0.07021291
0000c0 f9 74 a2 3e 98 bb 4d 3d f3 ed ab 3e 95 69 ac bb
       0.31729868 0.05022773 0.33579978 -0.00526161
0000d0 1b 73 f6 3e ba a7 58 be 0a 0d b6 3d 0f 1c 91 3e
       0.48134694 -0.21157733 0.08889206 0.2834172
0000e0 b3 e9 89 3d f7 40 8d bc b8 81 44 3e 29 e9 3a 3c
       0.06734028 -0.017242892 0.19190109 0.011408129
0000f0 09 ad da 3d a4 5d 04 bf 09 e6 10 3d 89 a8 1d 3e
       0.10677535 -0.51705384 0.03537563 0.15396322
000100 5b a6 ba bd 88 d7 af bd 9a 3f af 3e d7 1a 3b 3d
       -0.09113761 -0.08586031 0.34228212 0.045679893
000110 fa f5 c2 be 91 e6 19 be 64 70 2c be 4e 44 b8 3d
       -0.3807829 -0.1502936 -0.16839749 0.08997403
000120 2e 69 90 bc 14 de b5 be 93 7c c1 be 50 f5 c3 bb
       -0.017628279 -0.35520995 -0.37790355 -0.0059801713
000130 0e 69 98 3e 23 ac ef 3d 58 aa 04 3e 7f c9 0b 3e
       0.2976765 0.11702754 0.12955606 0.13651083
000140 7d 4d ee be 8b cd a5 bb e8 24 f9 3c d7 8a 81 bc
       -0.46543494 -0.005059903 0.030413106 -0.015813274
000150 86 4e ad 3d 29 27 1c 3d ed ed d0 bc 5f 2e 96 bd
       0.08462243 0.038123284 -0.025504077 -0.07333063
000160 bd 8a 85 bd 56 0a 00 3d 55 a9 89 be 08 a1 d8 3d
       -0.06520603 0.031259857 -0.26887003 0.10577589
000170 54 5d ab 3e 0b 81 35 3d 3a cb 40 3e eb 7e 2f 3c
       0.3346964 0.044312518 0.18827525 0.010711412
000180 82 d7 04 3f f2 f3 df 3e 79 ae b8 3d 88 d1 25 3e
       0.5189134 0.43740803 0.09017653 0.16193211
000190 25 10 5a 3e 27 7e 2a 3e 22 cd 20 bd 9b f1 07 bc
       0.21295221 0.16649686 -0.03925813 -0.008297349
0001a0 1d f8 56 bb 76 dc b4 bd 84 69 00 be 9f dc 83 3d
       -0.0032801696 -0.08831112 -0.12540251 0.064385645
0001b0 31 f0 72 3e aa 3d da 3e bb cd 5c 3e a5 97 87 3d
       0.23724438 0.4262517 0.21562855 0.06620721
0001c0 49 0c 38 be cd 82 9d 3e 23 e5 9d be 9b 85 95 bd
       -0.17973436 0.30763856 -0.3083888 -0.07300874
0001d0 1a 43 25 3e f2 b1 96 bc e3 9a 91 be 75 b2 63 be
       0.16138878 -0.018395398 -0.28438482 -0.22236045
0001e0 27 7a e4 3c fd a9 29 be 49 24 77 bc 17 39 96 3d
       0.027890278 -0.16568752 -0.015084335 0.07335108
0001f0 05 4b 28 3d a9 c1 9a be f8 60 a9 bc 47 30 2b 3d
       0.04108717 -0.30225876 -0.020676121 0.041794088
000200 14 d3 62 3c 3b a3 21 bd 4f 2a f8 3d 83 44 fa bd
       0.01384427 -0.03946231 0.12117445 -0.12220099
000210 27 eb 8c bc 12 c8 61 bd 66 04 68 3d 6b a3 15 3e
       -0.017201973 -0.055122443 0.05664482 0.1461312
000220 a3 bb c7 3d 0d 57 88 be ae 26 24 3e e4 51 0d 3e
       0.09752586 -0.26628914 0.1603038 0.1380077
000230 63 01 92 be 6c c8 97 3d 59 df ae be cc a1 8b 3e
       -0.28516683 0.07411274 -0.34154776 0.2727188
000240 98 48 1b be 8d ce d5 be 0e 0d 62 be 31 c2 aa be
       -0.15164411 -0.41759148 -0.22075292 -0.3335128
000250 ac 5d f9 bc 0d 89 13 bf f2 af 1f 3d fa bf 07 3c
       -0.030440174 -0.57631 0.038986154 0.008285517
000260 72 a5 75 bc ff e4 28 bd c7 82 f4 3d de 4b 11 3d
       -0.0149930585 -0.041234013 0.11939006 0.035472743
000270 46 74 46 be c5 31 91 bd 62 0e a3 be bd 91 3d be
       -0.19380292 -0.07089571 -0.3184691 -0.18512626
000280 fa 04 28 be a8 b3 af 3e a5 98 46 3e 5e 1e 80 3e
       -0.16408148 0.34316754 0.19394167 0.25023168
000290 9a 3c 69 3e b5 61 a9 3e 4a c8 f8 bd 4a 10 0b 3f
       0.22777024 0.33082357 -0.12147577 0.5432173
0002a0 3b 62 26 3e 73 da 3e bd e7 94 4f be 2b 9d 0d bd
       0.1624841 -0.04659505 -0.20271645 -0.034573715
0002b0 66 e0 11 3d 0e 87 5b 3d 42 c9 d7 bb 1e 56 39 bc
       0.035614394 0.053595595 -0.006585271 -0.011312036
0002c0 27 ea 93 3b 44 94 34 3d 46 e2 48 bd 5f 26 b3 bc
       0.004513997 0.04408671 -0.049043916 -0.021868883
0002d0 72 e3 4f 3e 5b 59 3d 3d 22 d5 72 be e9 f0 15 3d
       0.20301607 0.046227794 -0.23714116 0.036606703
0002e0 3d 09 fe 3d ae 19 8c 3e f6 57 f1 3c 66 07 42 3e
       0.12404106 0.27363342 0.029460888 0.18948135
0002f0 c9 ef 7b 3e ec e1 31 3e 74 da be bd 67 3f 2a 3d
       0.2460319 0.17371339 -0.093190104 0.04156437
000300 41 20 56 be 3f 86 37 bd 7b ca 14 be 01 c4 08 3e
       -0.20910741 -0.04480576 -0.14530365 0.1335602
000310 bc 47 af 3d 13 8e 06 be 72 eb e4 3d 27 40 1e 3e
       0.08558604 -0.13140135 0.1117772 0.1545416
000320 77 2d d4 3e d7 ac 8f bc b5 cb 10 3b ae ad 11 be
       0.41440937 -0.017538471 0.0022094075 -0.1422641
000330 29 9a 99 be 87 3c 9b 3e 89 ab bc bc ff 04 1f be
       -0.30000427 0.30319616 -0.023031013 -0.1552925
000340 6a 8f d4 be 79 32 ba be 1b f8 b6 3d 40 55 68 3d
       -0.41515666 -0.36366633 0.08934041 0.056721926
000350 e7 6a 17 be 48 b8 3b be 2c 53 3c bd 33 11 e8 3c
       -0.14786874 -0.18332016 -0.045977756 0.028328514
000360 82 00 87 bc 7e a1 bf 3c 9a 3b b2 bc 04 e0 38 3d
       -0.016479734 0.023392435 -0.021756936 0.045135513
000370 3f 33 d4 bd 27 90 d1 3c 0b 9a bf 3c 66 93 d6 3d
       -0.10361337 0.025581433 0.023388883 0.10477333
000380 9a f4 4b bd 8e 9d b3 bd 2d e6 a6 bd 8e a0 4c 3e
       -0.049793817 -0.087702855 -0.08149371 0.19983122
000390 2b 95 8e 3a d8 8e e4 bd 79 c5 75 bd 30 09 35 3e
       0.0010878196 -0.11160058 -0.060002778 0.17679286
0003a0 b2 f7 03 be 90 e8 b0 3e 4e 5e 57 bd f1 5c d3 3e
       -0.12887457 0.3455243 -0.05258017 0.41281846
0003b0 d7 ca 8b 3e 9c 7d 0d bc 97 8c df bc 5c 39 a2 be
       0.27303192 -0.008635905 -0.027288718 -0.31684387
0003c0 c1 1e 5e 3d 72 32 51 3e a0 52 02 bf 5e a8 cc 3c
       0.054228548 0.204294 -0.50907326 0.024982627
0003d0 40 12 ae 3d 9b 07 ae 3d 6a b4 32 be 00 a9 9a 3e
       0.08499575 0.084975444 -0.17451635 0.30207062
0003e0 22 fb ab be b1 27 2c be 91 22 e9 bd 5a eb ca be
       -0.33590037 -0.16812016 -0.11383546 -0.39632684
0003f0 12 ab 8d 3e 2a 6e ae bc 5d 63 99 3d 40 44 32 3d
       0.2766958 -0.021292765 0.07489655 0.04352212

a1.bias f4 [16]
000000 ec ee 7e 3d 5f 53 c8 bd 6f e3 84 bd 58 a8 05 be
       0.062239572 -0.09781527 -0.06488692 -0.130525
000010 12 12 10 3e f6 fb d0 bd 62 61 03 3d eb 36 cb bd
       0.14069393 -0.10204308 0.032075293 -0.09922584
000020 7a b5 15 be 32 8e d3 3d ac 88 67 bd 6d 4c bf 3d
       -0.14620009 0.10329856 -0.056526825 0.09340749
000030 26 d2 9a bd 69 1f 86 bd 25 50 7c 3e ae 84 67 3e
       -0.07559614 -0.0654896 0.24639948 0.22609207

a2.weight f4 [16, 16, 3, 3]
000000 45 85 67 bd cf e0 a2 be 54 a4 0a be 42 76 8d 3e
       -0.05652358 -0.3181214 -0.13539249 0.27629286
000010 5a 3c e1 3d 68 5d a0 be 2f 6e 6a 3d 19 9c 19 be
       0.10997839 -0.31321263 0.057233986 -0.15000953
000020 58 a5 f2 3d 00 cb c6 ba ae bc 0e 3e b0 ec a2 3c
       0.11847943 -0.00151667 0.13939163 0.019888252
000030 50 3f 12 be 66 bf 2c 3e a3 30 2d be 4e 6e 54 bc
       -0.14281964 0.16869888 -0.16913085 -0.012965752
000040 b6 3a 10 3e 31 2d 69 bd ae b8 97 bd a1 e7 33 be
       0.14084896 -0.056927864 -0.07408272 -0.17568828
000050 d9 61 90 be fd fe d0 be ef 06 c6 bd 87 03 63 3c
       -0.28199652 -0.4081954 -0.09669291 0.013855821
000060 c0 94 84 bd 3a 68 c3 be 6a 79 db 3d 9d 21 29 bf
       -0.06473684 -0.38165456 0.10716517 -0.66066915
000070 c0 f2 7e 3e ad 20 aa be d1 c0 07 3f c1 b7 5e be
       0.2489729 -0.33228055 0.5302859 -0.21749784
000080 e1 16 50 3e e3 e5 c0 3d 0d 01 68 3d 6f 22 37 3d
       0.20321228 0.094188474 0.056641627 0.044710573
000090 86 a1 04 3d cc 16 d1 be 9a 04 2d bd 2a f7 00 3d
       0.032380603 -0.40837705 -0.042240717 0.031485714
0000a0 ef 76 66 bc 92 9a 34 be d6 00 e4 be b8 70 75 be
       -0.014066442 -0.17637089 -0.44531888 -0.2396878
0000b0 61 2a 3e be a9 3a 83 3d d6 ba 41 be 87 63 f7 bd
       -0.18570854 0.06407673 -0.18918929 -0.1207953
0000c0 7c 96 68 3e 37 a9 8d 3d 73 b6 11 3e 01 4e c2 be
       0.22713655 0.06917041 0.14229755 -0.37950137
0000d0 d3 48 12 3e e9 10 2b 3e 76 25 2d be f3 46 02 3d
       0.14285593 0.1670567 -0.16908821 0.031805944
0000e0 d3 d8 06 3d 95 9a bc 3e 2d 7f ac 3e 56 54 4f 3d
       0.032921623 0.36836687 0.33690777 0.05061754
0000f0 9f ee b9 3d c7 19 43 bd ef a3 7e bc c5 0d 99 3e
       0.090787165 -0.047632005 -0.0155420145 0.29893318
000100 a0 f5 5a be 7f 3d 94 bd 63 97 94 be 46 61 16 bc
       -0.21382761 -0.07238292 -0.2902175 -0.009178465
000110 dc 09 fd bd 78 d1 e3 bd 15 74 b1 bd 3f 8c 5f 3e
       -0.12355396 -0.11123937 -0.08664719 0.21830843
000120 2c 12 57 3e 46 3e fe 3d b4 99 5b bb 8f 69 00 bc
       0.21003026 0.124142215 -0.0033508362 -0.007837667
000130 fe b6 1e bb 2f b1 64 3e d1 59 5c be cd 09 c3 3e
       -0.0024217959 0.22333215 -0.21518637 0.38093415
000140 0e a9 dd 3d ff 43 a0 3d 13 2c 7b 3e 79 e0 43 bd
       0.1082326 0.07825469 0.24528532 -0.047821496
000150 76 78 45 be b1 17 1d 3e a7 dc d5 3e 4e 98 13 3e
       -0.19284233 0.15341069 0.41769907 0.14413568
000160 c0 1c 4d 3d 5c 58 14 3e 66 63 24 be f4 4b 72 bd
       0.050076246 0.14486831 -0.16053542 -0.059154466
000170 3b 73 0b be df bd 0a 3e d4 3a 5e 3e a8 cd ac be
       -0.13618176 0.13548993 0.21702129 -0.33750653
000180 57 32 65 3d 60 d4 96 bc 78 98 2d 3e 80 ed 9c be
       0.05595621 -0.018411815 0.16952693 -0.30649948
000190 f8 9a 8b bd 27 d2 36 bd 1f 66 14 be fc f4 1a be
       -0.06816667 -0.04463401 -0.14492081 -0.15132517
0001a0 0c 9a c2 3c e3 1d 00 3f 07 5f 06 3d 26 2e 21 be
       0.023755096 0.50045604 0.03280547 -0.1574026
0001b0 62 80 13 bd f0 44 fb bd 10 b4 67 3d be 8b 52 bc
       -0.036011107 -0.12269008 0.056568205 -0.0128507
0001c0 ea fe fe 3e b1 6b 9c be e8 10 02 3f e8 e1 6d 3e
       0.4980386 -0.30550912 0.50807047 0.23230708
0001d0 ab f7 45 be 45 7a 28 3e 10 ea aa be 94 d2 f6 be
       -0.19332759 0.16452892 -0.333817 -0.48207533
0001e0 64 f3 81 3d e2 e2 c6 3e be 03 38 3e 62 ec 50 3e
       0.06345251 0.38844973 0.17970178 0.20402673
0001f0 40 eb 41 be af 3d be 3c 27 6d ae bd 75 ca 16 bf
       -0.18937397 0.023222772 -0.08516913 -0.58902675
000200 ef 99 74 bd eb e6 35 bd 13 7a 5a bd 22 19 7f be
       -0.059717115 -0.044409674 -0.053339075 -0.24911931
000210 e9 a0 9f bd 20 bf 3b be 5e e8 d5 3d 6c e2 a6 be
       -0.07794363 -0.18334627 0.10444711 -0.3259462
000220 9e 6a 73 bb e0 a4 16 be 42 48 f0 bd bb 1b 2b be
       -0.0037142406 -0.14711332 -0.11732532 -0.16709797
000230 ec 38 ff 3e 2d 5a 72 be 38 13 aa ba fe 86 b1 3c
       0.49848115 -0.23667212 -0.0012975698 0.021670815
000240 99 02 3b be d8 61 b8 bd e8 47 87 3c 15 a7 20 be
       -0.1826271 -0.09003037 0.01651378 -0.15688737
000250 54 5f 1f be f8 86 d4 bc bf fa 71 bd 5c 59 32 bd
       -0.15563709 -0.025943264 -0.05907702 -0.04354225
000260 8f 65 06 be 1c 88 95 bb a0 65 a4 bd 67 6d 36 3e
       -0.13124679 -0.0045633446 -0.08027196 0.17815171
000270 ae a2 af bd 4b 2a 1c be eb 8a d9 bb af 9e b7 3d
       -0.085759506 -0.15250508 -0.0066388748 0.08965813
000280 52 a8 d2 3d 8f ea b0 3d 87 bc c7 3d 63 75 3f bb
       0.10286011 0.086384885 0.097527556 -0.0029214255
000290 89 32 1b 3e 76 84 ca bc 1b 6e 2f 3e e2 4b 19 3e
       0.15155996 -0.024721365 0.17131846 0.14970353
0002a0 ea 84 00 bd 84 65 a8 3d da 1d bb 3d 1c 4f 1e be
       -0.031376757 0.082224876 0.09136553 -0.15459865
0002b0 36 a3 36 3e 7c b7 7d 3e 3b 66 15 bd 9b 6c 5f bb
       0.17835698 0.24777025 -0.036474448 -0.0034091834
0002c0 4e 67 19 bd 80 d8 8b 3d c3 56 bc bd d7 d4 9d 3e
       -0.037452035 0.068284035 -0.09196236 0.30826446
0002d0 53 7a 8d 3e 46 7b 2a be e1 d8 07 3e 9d 73 fc 3d
       0.27632388 -0.16648588 0.13266326 0.12326739
0002e0 6f c1 dc 3d 23 18 c1 bd c9 a1 32 3e db ad 92 bd
       0.10779082 -0.09428432 0.17444529 -0.071620665
0002f0 bd 92 71 bd 5d da 0d be f7 1a fe 3d cf 9f 32 3e
       -0.05897783 -0.1385283 0.12407487 0.17443775
000300 7c e7 c5 3b 6f be 69 3c ca f1 9a bd 29 81 90 3d
       0.006039558 0.014266594 -0.07565649 0.07055885
000310 60 e3 b4 3d 91 91 0f be e1 30 ce bd 99 c9 6b bd
       0.08832431 -0.14020373 -0.10067917 -0.057565305
000320 f7 58 d2 bd 42 10 b3 bd 7f cb 5a bc 29 29 d9 3b
       -0.10270875 -0.08743335 -0.013354181 0.006627221
000330 28 af e3 bd 1c 41 5a be ba 90 c9 3c 7d f6 b5 3d
       -0.11117393 -0.213139 0.024605144 0.088849045
000340 33 b4 54 3e f7 30 8b 3d b9 f8 15 be b2 5f eb 3d
       0.20771866 0.06796449 -0.14645661 0.11492862
000350 52 dc bf 3c 71 41 1e 3e 9e d9 ef bc 1d 57 c1 3e
       0.023420487 0.15454651 -0.029278573 0.37761775
000360 96 30 56 bd 0c 7d 09 be 16 3f 9a 3d 85 f8 b2 be
       -0.05229243 -0.13426608 0.07531564 -0.3495523
000370 86 f1 d7 3d fe dd b9 bd 66 23 76 be e5 bb 88 3e
       0.10544114 -0.09075545 -0.24036941 0.26705852
000380 0d c5 93 bd 42 18 43 bd e9 fb c0 bd f1 15 a6 3d
       -0.07215319 -0.047630556 -0.09423048 0.08109654
000390 c5 88 69 3d ea 5c 3a 3d ed e2 aa 3d 9f 33 2e ba
       0.0570152 0.045498766 0.08344064 -0.00066452654
0003a0 90 e1 b7 bd 8b 56 06 be c1 ee 3b 3e 52 2c 07 3e
       -0.089785695 -0.13118951 0.18352796 0.132005
0003b0 ac 81 98 bd 60 89 cd 3c 02 66 5d be a5 33 58 3e
       -0.07446608 0.02508992 -0.21620944 0.21113451
0003c0 5d b1 56 bd a6 5a 33 3e 33 39 70 be c6 8f f4 3c
       -0.05241524 0.17515048 -0.2345932 0.029853713
0003d0 8c 21 c2 3e 74 25 00 3e a4 dd 12 bc 85 6f b8 3d
       0.3791622 0.12514287 -0.008963976 0.09005646
0003e0 50 6a 7d 3e 1a 37 4f be 6a 31 58 be 92 c1 3c be
       0.24747586 -0.20235863 -0.211126 -0.18433216
0003f0 dc 52 7a bd 0d 9d af 3e 50 85 6f 3b 63 cc e2 bd
       -0.061114177 0.34299508 0.0036547966 -0.1107414

a2.bias f4 [16]
000000 fb 76 cb bd 89 58 2d be 2a 4c c7 bd 0c 22 f2 bc
       -0.09934803 -0.16928305 -0.09731324 -0.02955725
000010 42 d3 e9 3c 56 a1 1c be c3 21 58 3a 22 90 f3 bc
       0.028543118 -0.1529592 0.0008244777 -0.029731814
000020 f1 e8 00 3e 4f 71 fe bd 22 c9 31 be d4 5d ae bc
       0.1258886 -0.12423956 -0.17361882 -0.021284975
000030 1f d2 12 be b2 2d 0c 3d 48 05 29 3e 47 68 e0 3d
       -0.14337967 0.034223266 0.16505921 0.10957389

a3.weight f4 [32, 16, 3, 3]
000000 53 55 21 be 5e 8f b7 3e 71 63 ea be a2 eb 94 bd
       -0.15755205 0.35851568 -0.45778993 -0.07271506
000010 a8 8b ef bd 81 04 a7 bd 03 6b 0e bf c5 50 6c bd
       -0.11696559 -0.08155156 -0.55632037 -0.057694215
000020 f9 07 21 3e 70 ed 66 bd 46 af b1 bd a2 8e 3e be
       0.15725698 -0.05637878 -0.08676009 -0.18609098
000030 e5 c4 20 3c 63 22 3a 3e 4e 8a 41 3e 7e 9e 93 be
       0.009812568 0.1817718 0.18900415 -0.28831857
000040 5d 5a 4a be 58 f1 e7 be cd 76 05 3e 7e 9a f8 ba
       -0.19761033 -0.45301318 0.130336 -0.0018966941
000050 58 69 00 3e 0f 72 bc 3d fd db 3a 3e c5 71 fe bd
       0.12540185 0.092014425 0.18247981 -0.124240436
000060 57 6c ed bd 4a 34 66 3d c8 90 01 be f6 9d 87 be
       -0.1159293 0.05620221 -0.12652886 -0.26487702
000070 4c 55 28 3e 61 03 44 3e 1d 2d 2a 3d 53 a2 d6 bd
       0.16438788 0.19141914 0.04154693 -0.1048018
000080 36 38 06 3e 50 c0 80 bd dc f2 01 be 83 b2 23 3b
       0.1310738 -0.06286681 -0.126903 0.0024978227
000090 f3 fb 36 3e 01 77 cd 3d ff d0 df bd 40 e7 80 bd
       0.17869548 0.10032464 -0.10928535 -0.062941074
0000a0 1c c9 92 3e 06 5a 90 bd 74 c4 0a 3e 5a f0 4a 3d
       0.2866906 -0.070484206 0.13551503 0.049545623
0000b0 3a 99 eb bc 46 63 ec 3d 77 f2 c8 3a 32 57 1d be
       -0.028759588 0.115423724 0.0015331049 -0.15365294
0000c0 74 92 7b 3e ac 58 2f bc d9 88 b2 3e 6c 27 aa be
       0.24567586 -0.010702293 0.3487003 -0.33233202
0000d0 87 4e 27 be f3 0a 13 3e e7 f0 cb 3d a6 c6 6b 3d
       -0.1633855 0.14359646 0.09958058 0.057562493
0000e0 b3 41 65 be 58 54 e1 3c 7c c9 d9 3d c5 c7 f2 bd
       -0.22388344 0.027506039 0.10634133 -0.11854509
0000f0 15 1e bc 3d 8d 63 9f 3e 89 03 78 3d 83 11 b7 3d
       0.09185425 0.3113064 0.060550246 0.08938887
000100 6f f1 1e bd 8a 55 31 3d 4d 6b 07 3e e8 0d 8c 3e
       -0.038804468 0.043294467 0.13224526 0.2735436
000110 fd 59 7a be 4f 59 c6 3e 15 74 cf bd f7 26 5d be
       -0.2444839 0.38740012 -0.10129563 -0.21596895
000120 6d d9 8d 3b f7 33 28 3e 7e f9 0d be 71 f4 bb 3d
       0.0043288977 0.16426073 -0.13864705 0.09177483
000130 9c 66 96 3e ba e5 ea 3b fb 6b 2d 3d 76 8e 97 be
       0.2937516 0.007168499 0.042339306 -0.29600877
000140 f6 94 23 be 37 a9 3f 3d e5 d7 63 3e e9 36 cd bd
       -0.15974793 0.046792235 0.22250326 -0.10020239
000150 9c 35 8b 3e e7 f5 85 bd 3b ba e4 bb 05 29 1d be
       0.27189338 -0.06541043 -0.006980208 -0.15347679
000160 5a 95 d1 bd 87 74 ef 3d 27 16 ae bb dd 01 8f 3d
       -0.10233565 0.11692148 -0.0053126994 0.06982777
000170 ff af ad bd 12 97 11 3e fc 7a 9f be 34 94 c5 3e
       -0.08480834 0.14217785 -0.31148517 0.38589633
000180 be 28 29 3d 26 72 ce bd 1d 5a 55 be dc 00 c1 bc
       0.04129862 -0.10080366 -0.20835157 -0.02355998
000190 1c 3c 68 be 93 22 8b bd 4e 1e 51 be 8a c3 9c 3e
       -0.2267918 -0.06793704 -0.20421717 0.30617934
0001a0 c3 a2 10 bd b6 3e 17 be c4 91 86 3e 84 36 04 be
       -0.03531147 -0.14770016 0.26283085 -0.12911421
0001b0 78 8a 8c bd 55 0e bc be df fb 8f be 1a 77 52 3e
       -0.06862348 -0.36729684 -0.2812185 0.20553246
0001c0 fd cf 0c bd 2f c0 b2 3e a6 86 13 bf 94 2a a0 3d
       -0.03437804 0.3491225 -0.5762733 0.07820621
0001d0 0f 15 d0 bc bf 31 06 3f 6c ba 8f 3d 81 23 ad bc
       -0.025400667 0.52419657 0.07017979 -0.021135094
0001e0 c3 63 a1 3e 92 59 b6 3a 55 b0 ca bd e9 e2 17 3e
       0.31521425 0.0013912192 -0.09896914 0.14832653
0001f0 64 0b dc bb d3 96 35 3e bc 13 c9 3e 0f a3 88 be
       -0.006715225 0.17733316 0.3927287 -0.26686904
000200 57 ed aa be 92 36 94 3d 03 6f 94 3e 86 90 28 be
       -0.333842 0.07236971 0.28990945 -0.16461381
000210 5a 57 12 3e 37 0b 03 be ad c8 85 be ac 94 f4 bc
       0.14291134 -0.12797247 -0.26129666 -0.029856049
000220 1f 93 94 3d 08 33 85 3d 74 cc fb bb 16 f2 cc 3e
       0.072546236 0.06503874 -0.007684285 0.40028447
000230 2a 2d 3c bf 37 5c 0c 3e 59 f1 2d be ab 8b 91 be
       -0.73506415 0.13707052 -0.16986598 -0.2842687
000240 92 3e ff 3d 28 80 93 bd 6f 62 e9 3e 4d d2 cb 3d
       0.12463106 -0.07202178 0.4558291 0.09952221
000250 ad 35 ee 3c 62 97 28 3e 99 a1 ea bd 91 d7 6b bd
       0.029078329 0.16463998 -0.114566036 -0.057578627
000260 ad 4e f7 3d e6 c8 a3 bd 0d e8 a8 bd df b7 2a 3e
       0.12075553 -0.07997303 -0.08247385 0.16671704
000270 3d 5e 32 be 91 a1 4d be a7 6c 29 3e 15 e3 61 3e
       -0.17418762 -0.20081164 0.16545354 0.22059281
000280 69 93 1c 3e d1 c9 4b be 90 97 c6 be c6 89 3b bd
       0.15290608 -0.19901206 -0.38787508 -0.045785688
000290 9e 0b 4e bd c6 cd 51 3e e6 86 12 be 0d be 7d be
       -0.050304048 0.20488653 -0.14309272 -0.2477953
0002a0 0d f0 34 be fb 5d 1f 3d b6 ae 8d be f4 8b 24 be
       -0.17669697 0.038907986 -0.27672356 -0.16069013
0002b0 66 f7 0c be c4 da ea bd 0b 61 33 be 10 3c 07 3e
       -0.1376625 -0.114675075 -0.17517488 0.13206506
0002c0 60 da 09 3e ca 83 d2 3d ed 02 00 be 3d 44 0f 3e
       0.1346221 0.10279043 -0.12501116 0.13990875
0002d0 4e 9b 6a be 03 29 e9 bd f8 38 af bd e3 8f 62 be
       -0.22910807 -0.113847755 -0.08555788 -0.22125201
0002e0 7a 55 e2 bd dd 9e 5a 3e b5 59 ce bd c5 93 15 be
       -0.110514596 0.21349664 -0.10075704 -0.14607151
0002f0 c6 50 50 3e 03 7a 63 3d e7 46 a8 3d dd 0d c7 3d
       0.20343313 0.05553628 0.082166485 0.09719441
000300 7c 78 bc 3d cc af 0b bd b2 04 ad 3e 42 96 74 bd
       0.09202668 -0.0341032 0.33792645 -0.05971361
000310 f4 24 25 bd d7 ac 0f 3e d7 05 4e be cd 32 54 be
       -0.040318444 0.14030777 -0.20119415 -0.20722504
000320 06 e1 db 3d 52 5b 0a bd 06 60 45 be da 1b 37 3e
       0.10736279 -0.033778496 -0.19274911 0.17881718
000330 50 11 c2 3d 39 83 5d 3e a9 d2 63 3e 62 b0 9e be
       0.09475958 0.21632089 0.22248329 -0.30993944
000340 f2 74 02 be 47 28 ea be 9d cd eb 3d dc 1e aa 3e
       -0.12739924 -0.45733854 0.11513827 0.3322667
000350 a6 ec a7 bd cd 7e 16 bf ba 8b 0b 3e 57 c9 90 3e
       -0.08199434 -0.5878723 0.1362752 0.2827861
000360 42 c7 a3 3d 9b 01 a4 3e 11 d6 21 be 82 f5 7c be
       0.0799699 0.32032475 -0.15804316 -0.24703029
000370 2a 70 91 bc 21 31 d1 be a8 d8 0a be 87 e5 30 be
       -0.01775368 -0.40857795 -0.1355921 -0.17275058
000380 c8 44 e1 bb d4 1c 20 3e 31 d9 07 be 2f 1b b3 bd
       -0.0068746544 0.15635997 -0.13266446 -0.08745419
000390 cf 7a 68 3a 61 cd f8 bc 13 96 82 be d8 48 8a bc
       0.00088683976 -0.03037137 -0.25505123 -0.016880438
0003a0 63 87 2e 3e fa 87 57 3d e6 37 91 3e 42 e2 3c be
       0.17043833 0.05261991 0.2836296 -0.18445686
0003b0 8f bb 89 3e 5e 55 6e be f0 f9 08 be c9 ad 77 be
       0.26900908 -0.23274752 -0.13376594 -0.24187388
0003c0 b6 f4 14 be ed 02 d6 be 2e 2a a8 bd e9 80 ac be
       -0.14546475 -0.41799107 -0.0821117 -0.336921
0003d0 2f b4 6f bd 23 9e 95 bd 32 0d 0e be 01 1a b7 bd
       -0.058521446 -0.07305553 -0.13872221 -0.08940507
0003e0 ca 68 2d 3e 5d 5d 16 bf 73 17 87 be d8 27 4a 3e
       0.16934505 -0.5873621 -0.26385078 0.19741762
0003f0 70 e0 8d 3e db 6c f3 bd 7d af 30 3e b5 bb 7d be
       0.27710295 -0.11885997 0.17254443 -0.24778636

a3.bias f4 [32]
000000 cd fd 4f be a6 1a 9b 3d 5d 32 c9 3d 3c 47 88 be
       -0.20311661 0.07573442 0.09824059 -0.26616848
000010 4c af 85 be f0 ff bb 3c be 89 ac 3d 9b 56 3f be
       -0.26110303 0.022949189 0.0842471 -0.18685381
000020 5e 54 ac be b3 17 3f be 2f 36 25 be 70 f2 df bd
       -0.33658117 -0.18661384 -0.1613395 -0.10934913
000030 d3 a5 fa be 45 6e c6 bd 9a ed ce bd df ac aa 3e
       -0.4895464 -0.09689001 -0.10103913 0.33335015
000040 5c 25 7e 3e 7e 50 2f be b5 46 fe bd 03 c7 8f be
       0.24818939 -0.17120549 -0.1241583 -0.2808152
000050 c4 6f 45 bd ef d8 59 be a2 ae 8a bd 56 a6 40 be
       -0.04820229 -0.2127416 -0.0677159 -0.18813452
000060 0f 33 30 bd f4 06 4c 3e 52 eb 8a 3e b2 ce b5 bd
       -0.043017443 0.19924527 0.2713266 -0.088773146
000070 d7 c1 b9 ba 29 00 a7 3d 7c 28 6c bd 3b 66 23 be
       -0.0014172149 0.081543274 -0.057655796 -0.15956967

b1.weight f4 [32, 32, 3, 3]
000000 8b 15 cb be fb 26 a5 3d c8 a1 ce bd 2c ec f2 bd
       -0.39664873 0.080640756 -0.10089451 -0.118614525
000010 35 b2 b7 bd 85 29 14 be fb d8 67 bd 2b 99 b3 bb
       -0.08969537 -0.14468963 -0.056603413 -0.0054809055
000020 de 15 43 be 62 2e 02 3d 7a 60 c4 be 42 49 00 3e
       -0.1905131 0.031782515 -0.38354856 0.12527946
000030 ca 66 93 be 99 5f fc be 28 39 59 3d 30 6a 09 3e
       -0.2878936 -0.49291685 0.053033024 0.13419414
000040 2f ea b9 be 59 6d b9 3e 30 51 6d bd 8e 70 34 3e
       -0.3631148 0.36216238 -0.057938755 0.17621061
000050 af 95 b7 3d 33 c0 f2 3d c5 68 78 3e 90 ca 12 bd
       0.08964097 0.11853065 0.24258716 -0.03583771
000060 02 3a 0a bd ab b4 96 3d d1 99 d9 bd 48 f0 8f 3e
       -0.033746727 0.073586784 -0.10625041 0.28113008
000070 f8 28 88 3e 93 da 5d 3e b4 34 05 3e 0b 77 a4 be
       0.26593757 0.2166541 0.13008386 -0.32122073
000080 2c 25 1b 3e 73 dc 22 be f2 95 0f be 44 44 80 be
       0.15150899 -0.15904407 -0.14022043 -0.25052083
000090 68 df 70 3e 88 d4 94 be 11 6d 84 bc 7d ce ab bc
       0.23522723 -0.29068398 -0.016165288 -0.020972485
0000a0 a2 36 47 3d f9 e9 a4 be 25 f5 8d bd c8 d1 0b bf
       0.048636086 -0.32209757 -0.06931523 -0.54616976
0000b0 a3 36 53 3d 04 ce f8 3e 5b b5 10 bf f9 08 8c bd
       0.051565778 0.48594677 -0.56526726 -0.06837649
0000c0 df 26 57 3e fe dc 10 be 44 0d 74 3d e4 a0 d3 3d
       0.21010922 -0.14146802 0.059582964 0.10333422
0000d0 05 fa 71 bd f3 b7 c1 be 31 9d 7e be bf 20 ec bd
       -0.059076328 -0.37835655 -0.24864651 -0.11529683
0000e0 67 bf f6 bd 85 6e 4a bd 65 b4 9d 3d dc 6f 12 bd
       -0.12048226 -0.049421806 0.07700423 -0.03575121
0000f0 67 1a 09 be a1 84 13 be 3c a0 c6 bd 80 a2 7d bd
       -0.13388978 -0.14406063 -0.09698531 -0.06192255
000100 c7 c4 5a 3d 31 b5 27 3d aa 98 2a 3d d7 8c 2b be
       0.053410318 0.040944282 0.041649498 -0.16752945
000110 6f 6b 1a bd 99 2c 26 3c 16 91 6e 3d 88 d8 c7 3c
       -0.037700113 0.010142469 0.058243833 0.024395242
000120 14 39 36 be 8e 1f 88 be 4b 40 b6 be 82 81 b8 be
       -0.17795211 -0.26586574 -0.35595927 -0.36036307
000130 3b 4a 46 3e e4 6f fd bc d8 30 ba be cd 52 1c 3e
       0.19364254 -0.030937143 -0.3636539 0.15265961
000140 c6 b5 61 3e e9 b7 68 3e 9d d2 db bd 8d e9 ef bd
       0.22041997 0.22726406 -0.10733531 -0.11714468
000150 02 4b 4c 3e 5e 06 f7 3d 5c 17 b9 3e ad 26 14 3f
       0.19950488 0.12061761 0.36150634 0.57871515
000160 78 8b b3 bd eb 66 70 bd 50 84 67 be d7 5c 59 3e
       -0.08766836 -0.0586919 -0.22609067 0.21226822
000170 0e 0e 45 be a5 88 1e 3e e8 b2 4c 3e dd 72 10 be
       -0.19243643 0.15481813 0.19990122 -0.14106317
000180 06 bc eb 3d 87 7b 96 3c 9b 63 a0 3c 74 bc 5e be
       0.11510472 0.01836945 0.019578746 -0.21751577
000190 64 90 7c be 64 9b f3 be 0a ea 92 3e 3b fe fc bd
       -0.24664456 -0.4757949 0.28694183 -0.12353178
0001a0 3c 22 ac be 0e 6f 82 3e a0 c4 0b 3e d2 11 33 be
       -0.3361987 0.25475353 0.13649225 -0.17487267
0001b0 4a a2 87 be 14 2f a8 be aa 5e df bd c5 7b 0a be
       -0.26491004 -0.32848418 -0.109067276 -0.13523777
0001c0 1c f0 5d bd 86 c7 61 3e ab 5e 1f be 44 b1 b3 be
       -0.054184064 0.22048768 -0.15563457 -0.3509618
0001d0 33 cd cd bc c9 cb 11 3c 13 27 9c 3c e5 0c 07 3e
       -0.02512226 0.008898684 0.0190616 0.13188513
0001e0 c8 f2 f8 3d 0e 52 8c bb 27 7e ea bd 6f 93 30 bc
       0.12155682 -0.0042822426 -0.11449843 -0.010777338
0001f0 b5 0f a1 be 59 ca bd 3d 23 e2 fa 3d 58 2d 24 3e
       -0.31457296 0.092671104 0.122501634 0.16032922
000200 6a a2 ba 3c 71 e6 76 bd 91 64 a8 be 4d 07 f5 3b
       0.022782523 -0.06027836 -0.32889226 0.007477677
000210 f5 72 95 3c 32 76 16 be b3 bb 53 bd 86 e5 7c 3d
       0.018243292 -0.14693525 -0.051692676 0.061742328
000220 df a5 bd 3b c2 76 6d bc 0e 9b 3e be 3b 5d fe 3c
       0.0057875956 -0.014493646 -0.18613836 0.031050315
000230 48 67 ec bc a5 f9 a8 3c 51 ce a6 be 81 99 01 3d
       -0.028857842 0.020626852 -0.32579282 0.031640533
000240 ab 8f 39 be 51 d9 a8 bc 2d ef f0 3d 6c 80 49 3e
       -0.18121211 -0.020611437 0.11764369 0.19677895
000250 19 0d 97 3e 12 24 fa 3d ce 70 a8 3c 2f 78 a6 bd
       0.2950218 0.12213911 0.020561602 -0.08128392
000260 6d f6 7c 3e 12 99 72 3d d0 b9 20 3e da 70 e1 be
       0.24703379 0.05922801 0.15695882 -0.4403141
000270 01 90 a2 ba 8e 9e 72 bd fd ba f2 be 86 ad 08 bd
       -0.0012402536 -0.05923324 -0.47408286 -0.03336861
000280 f1 9c 38 3e 02 de 15 be 85 ce 8b 3e ec 56 56 bd
       0.18028618 -0.1463547 0.27306 -0.05232899
000290 b1 cd a7 bd 0b 69 42 3d f8 e1 e7 be 6a 44 54 be
       -0.081935294 0.047463458 -0.45289588 -0.20729223
0002a0 c4 a0 a8 bd 23 55 0e be 0a 9b f2 bd 63 12 80 be
       -0.082337886 -0.13899665 -0.118459776 -0.25014028
0002b0 9b 67 bc 3e e4 61 a2 be 63 10 27 3e 32 ce 50 3e
       0.36797795 -0.3171531 0.16314845 0.20391157
0002c0 91 82 89 bd 84 b5 2f be 13 f8 6e 3e b5 ba 4e be
       -0.06714357 -0.17159086 0.2333682 -0.2018841
0002d0 a4 08 a0 bc c4 53 de bd 26 db d0 3d cb db 01 bb
       -0.01953537 -0.10855821 0.10198049 -0.0019814845
0002e0 10 8e 95 bd a5 7f f6 bc e8 e2 52 3e a9 2f 5c 3d
       -0.07302487 -0.030090163 0.2059437 0.05375639
0002f0 27 f7 67 3e ea 8d b9 3d 2a 10 85 be 4f d6 17 be
       0.22652875 0.09060271 -0.25988895 -0.14827846
000300 10 cc 03 3e 2f 54 b2 3d 24 93 28 3e 24 a5 a0 bd
       0.12870812 0.08707463 0.1646238 -0.07843998
000310 9a bb 5f be a5 b4 20 be 83 27 31 be 37 31 f5 3d
       -0.21848908 -0.1569391 -0.17300229 0.119722776
000320 de 1e 78 3d 25 b3 1b be de 91 13 3e 43 9d cb 3d
       0.060576312 -0.15205057 0.14411113 0.09942105
000330 a1 9f 3b 3e 0c d2 cd be 5c d8 01 be 12 33 43 be
       0.18322612 -0.40199316 -0.12680191 -0.1906245
000340 96 41 3a 3e 84 02 7a be 61 44 69 be 5d 02 9b bc
       0.18189082 -0.24415022 -0.2277999 -0.018922025
000350 02 c8 1e be ce 27 dc bd 7c fb a0 3e 36 90 dd 3d
       -0.15505984 -0.1074978 0.31441867 0.10818522
000360 7f c1 90 3e 59 00 86 be b6 4d 9a be 90 2a ae be
       0.28272626 -0.2617214 -0.30137414 -0.34016848
000370 f9 32 84 3c 42 e5 c1 3d b3 b2 a7 bc 84 77 1f 3e
       0.016137587 0.094675556 -0.020470953 0.15572935
000380 45 18 ce 3c 0a eb 4c 3e bd 0b 9b 3d c5 af f8 be
       0.025158057 0.20011535 0.07570598 -0.48571602
000390 e1 8d a5 bd 0c c5 ae 3c b8 b4 40 3e 3a 9c 12 be
       -0.08083702 0.021334194 0.18818939 -0.14317408
0003a0 ef 61 b4 3e c5 45 6c 3d 1e 31 db 3e 0f 01 47 bc
       0.35230967 0.057683725 0.4281091 -0.0121462485
0003b0 ff 29 96 be 58 87 b9 3d 96 0a 39 bd bc 76 ec 3b
       -0.29328915 0.09059018 -0.04517611 0.0072163027
0003c0 53 09 f6 3a cf c0 8f 3e fc 92 ab be 72 b3 87 3e
       0.0018771089 0.2807679 -0.33510578 0.26504093
0003d0 0d 64 bc bc 54 9f ca bd 8a e8 3b bf 36 e3 85 be
       -0.022996927 -0.09893671 -0.734017 -0.2614991
0003e0 75 4e 1e bd 4e ba ab bc 47 c7 65 3e 6d a0 00 3d
       -0.03864904 -0.02096286 0.224393 0.031402994
0003f0 be 68 97 3e 46 84 7e bd a4 27 d3 be 7e e9 93 3d
       0.295721 -0.062137865 -0.4124118 0.072222695

b1.bias f4 [32]
000000 90 0b b6 bd 1d f6 4a be 6e 12 be be 5d c7 4a be
       -0.08888924 -0.19820447 -0.37123436 -0.19802614
000010 c1 e5 eb 3e 44 65 fa bd 7c 81 0d be 60 a8 bf 3b
       0.46073726 -0.12226346 -0.13818926 0.0058489293
000020 28 ec d8 bd f7 1b cd be 97 58 a4 be d6 2d b5 3d
       -0.10591918 -0.40060398 -0.3209884 0.08846633
000030 d8 f4 82 be 5a 29 9a be 54 0f 60 3d cb e2 35 be
       -0.25577426 -0.30109674 0.054702118 -0.17762296
000040 a7 8c f1 bd 3e 9f ff be 32 6f 2c be 47 42 56 3e
       -0.117944054 -0.4992618 -0.16839293 0.2092372
000050 a4 50 16 be d1 6b 8d be 40 4d dc 3e 23 49 e4 be
       -0.146792 -0.2762132 0.43027687 -0.4458705
000060 0f 40 06 bd 22 c6 19 be 31 0b ae bd 66 7e 19 bf
       -0.032775935 -0.15016988 -0.08498228 -0.59958494
000070 ee cc 3e bd 6b df cf bb 42 fc c5 3d 8e de 17 be
       -0.046582155 -0.006343772 0.09667255 -0.14830992

b2.weight f4 [32, 32, 3, 3]
000000 6c f7 5a 3e 17 45 50 3d 80 1b 20 bd d2 09 f2 3d
       0.21383446 0.05084714 -0.039088726 0.11818279
000010 ec 1d 4b be 17 dd 9a 3e 1e b3 0f be 8f ce 8e bd
       -0.19835633 0.30246803 -0.14033172 -0.06972992
000020 ab df 20 3e 72 dc 89 3e 27 15 fa bc 6c 96 d5 bd
       0.15710323 0.26926 -0.030527664 -0.10429081
000030 6e 6c d3 bd 08 e4 da bd cc 4c 22 be 89 46 a7 3d
       -0.10323416 -0.10688025 -0.15849608 0.081677504
000040 f5 1a 04 3e a3 f4 e7 be e0 7c 19 be ea f6 37 3e
       0.12900908 -0.4530383 -0.14989042 0.17965284
000050 91 60 de be 17 ae 4c 3c 65 ee 5b be 67 a2 05 3e
       -0.4343305 0.012492678 -0.21477659 0.13050233
000060 50 0e 4b be df e0 ef bd a8 ed 33 be 04 df e2 3e
       -0.19829679 -0.11712813 -0.17571127 0.44310772
000070 1f b8 be bd 0e 4c 07 3e 17 18 06 3f f7 e7 e7 bc
       -0.09312462 0.13212606 0.5238051 -0.028308852
000080 c6 b0 46 be b9 73 9c bd 27 56 e3 be ae 69 cd bd
       -0.19403371 -0.0763926 -0.44401667 -0.100299224
000090 5e 68 c6 bd 72 81 c2 3d 00 3b 96 be 86 7f ff 3c
       -0.09687875 0.09497346 -0.29341888 0.031188738
0000a0 7e e6 3e 3e 71 5a 89 be 02 e7 f6 be af d3 22 3e
       0.18642613 -0.26826814 -0.4822312 0.15901063
0000b0 d9 31 67 3e 77 44 0a 3f d0 7e a2 be 2a 1f 78 bd
       0.22577609 0.5401072 -0.31737375 -0.060576595
0000c0 f9 e9 a2 be e8 84 c9 bd ed 6f b8 be 55 81 4d 3e
       -0.31819132 -0.09839803 -0.36022893 0.20068868
0000d0 4d 2e f7 3e b0 f4 3c 3f 92 13 79 3d a3 8c 86 be
       0.48277512 0.73810863 0.06080968 -0.26279172
0000e0 ca e2 0c 3e d2 cf 3b be 63 a9 d9 bc 10 11 a2 bd
       0.13758388 -0.18340996 -0.026570028 -0.07913411
0000f0 d2 ba eb 3d 3a 2b 0f 3e b0 d8 88 be 51 11 ae 3e
       0.115102425 0.13981333 -0.2672782 0.33997586
000100 6c 7f 0c be c0 42 0c be e4 f7 99 bd 50 9f 51 3d
       -0.13720483 -0.13697338 -0.075179845 0.051177323
000110 f9 e2 ea 3c f6 c1 6d 3c cc cc 1a 3e 0f 44 24 be
       0.028672682 0.014511576 0.15117186 -0.16041587
000120 a0 8a 88 bc a5 5b 5a be d5 81 70 3e 40 7f b2 ba
       -0.016667664 -0.21324022 0.23487027 -0.0013618246
000130 e5 a8 f7 bc 4b d7 00 be 7c 68 d4 bd b0 21 21 3d
       -0.030231902 -0.12582128 -0.10371491 0.039338768
000140 6f b7 97 be dc 33 95 be 8c 5f bd be 03 1a 37 be
       -0.29632136 -0.29141128 -0.3698696 -0.17881016
000150 5b 0b 23 3e 3c 44 09 be 63 e3 a7 3e e1 95 d2 3e
       0.159223 -0.13404936 0.3279067 0.41129974
000160 3c 1e 28 3d 83 9c f7 bc d1 f8 09 bc b2 8c 4e be
       0.04104446 -0.030225998 -0.008421139 -0.20170859
000170 e0 de ef bd 8e 9f 24 be 85 ed 28 be ed e9 56 be
       -0.11712432 -0.1607649 -0.16496857 -0.20987673
000180 d9 39 ae 3e e2 ba 6b 3e 18 25 7a be a9 67 d9 3d
       0.3402851 0.23020509 -0.24428213 0.10615475
000190 d9 bb b4 bd ac 20 12 3e 9c 51 51 be c8 94 c5 3d
       -0.088248916 0.14270276 -0.20441288 0.096475184
0001a0 b9 18 40 be 89 c2 b4 be 73 82 2b 3e 7e 22 2a be
       -0.18759431 -0.3530467 0.16748981 -0.1661472
0001b0 2b 09 7d be 71 91 22 be 45 f9 2d bc 7e 9c ef 3d
       -0.24710529 -0.15875794 -0.0106185125 0.116997704
0001c0 c3 5d b0 bd 01 2d 44 be 88 e4 b0 be 20 77 e1 3d
       -0.08611634 -0.19157793 -0.34549356 0.110090494
0001d0 a0 79 97 3d a2 6f 9f be b2 00 c0 bd 03 75 00 bf
       0.07396245 -0.31139857 -0.093751326 -0.50178546
0001e0 65 8c 11 3c f1 dc 88 be e5 03 13 3e c9 b8 07 be
       0.00888357 -0.26731065 0.14356954 -0.13254084
0001f0 7f a6 9e bd ea ae a1 be 41 6e 53 3e 15 a7 2e bd
       -0.077466 -0.3157876 0.20647527 -0.04263981
000200 0a 3d c1 bd 00 df 40 b7 4c a3 fd be 09 b2 66 bc
       -0.094354704 -1.1496013e-05 -0.49538648 -0.014080533
000210 73 45 22 be 85 76 5a 3e e8 2c 13 3d 2b 47 05 be
       -0.15846805 0.21334274 0.035931498 -0.1301543
000220 69 05 8c bd bc 36 97 bd 3b 7e 58 3e 6b d5 01 bf
       -0.068369694 -0.07383487 0.21141903 -0.50716275
000230 f8 58 c7 3d 32 86 16 3b aa 14 3d 3e 2f b1 c2 3d
       0.09733766 0.002296817 0.18464914 0.09506451
000240 74 d5 9e 3e ad 7b 6f bd 5a ec 6c bd eb 95 86 3d
       0.31022227 -0.058467556 -0.05784259 0.06571563
000250 13 fb 15 be 1b 7c 1b 3e e9 fc bb 3d cb cd 89 3e
       -0.14646558 0.15184061 0.09179098 0.2691482
000260 47 a9 d0 bd 75 4a a6 bc 2f 1b ba bd 70 e0 43 3e
       -0.10188537 -0.020299176 -0.09087216 0.19128585
000270 1d 4a 27 3e 04 83 f3 3c df 3b a1 3d 6c 11 5e be
       0.16336866 0.029725559 0.07872748 -0.21686333
000280 e9 d9 f0 3d 50 13 3e be 9c df 2e bd 8e 56 73 3d
       0.11760313 -0.18562055 -0.04269372 0.059408717
000290 00 17 72 bd 5e a7 00 be a4 8d ca bd fa e6 93 be
       -0.059103966 -0.12563846 -0.09890297 -0.2888716
0002a0 be 08 4f be e5 91 05 be a9 a9 b0 bc 0b f6 8c 3e
       -0.20218179 -0.13043936 -0.021565275 0.27531466
0002b0 40 03 83 bc c0 79 95 bd ec 26 4a 3d 80 14 3a 3e
       -0.01599276 -0.072986126 0.049353525 0.18171883
0002c0 94 cf 37 3e 30 1d c8 bd fa 04 b0 3d 24 a3 bd bd
       0.17950279 -0.09771192 0.08594699 -0.09259632
0002d0 32 5b 22 bc 5a f2 73 be 30 32 74 bc ed d9 3c 3e
       -0.009909438 -0.23822919 -0.014904544 0.18442507
0002e0 ab d0 9d bd 56 f6 c7 3a 04 5e 9e be bd 75 5c bd
       -0.07705816 0.0015255909 -0.30931103 -0.05382322
0002f0 3a 29 aa be eb 0b 80 be cd 5b 14 be c8 58 bc 3d
       -0.33234578 -0.25009093 -0.14488144 0.09196621
000300 0b 50 50 3e 89 0e 3c 3e 0e d2 9c 3e a6 51 ed bd
       0.20343034 0.1836492 0.3062901 -0.11587839
000310 1a 80 8b be 79 ab 31 bc b0 53 86 3e a2 9e 9a be
       -0.2724617 -0.010844105 0.26235723 -0.30199152
000320 fc bc 91 3d 35 7b 95 3d 73 78 ca bc 95 e8 1c 3e
       0.07116124 0.072988905 -0.024715638 0.15323098
000330 07 10 31 bf d5 64 9b 3e 33 5c a3 bd 4b aa a0 be
       -0.6916508 0.30350366 -0.0797657 -0.31379923
000340 62 db db bd 46 d2 45 be b6 1b fc bb e5 52 f0 be
       -0.10735203 -0.19318494 -0.007693733 -0.46938244
000350 1c 1e 3a 3f 9b e6 bb 3d db 5b 30 3c 6b 2e 38 3e
       0.72702193 0.09174844 0.010764088 0.17986457
000360 cb fa f0 bb 18 7e bf bd 90 ba fd bd 15 9b 55 3d
       -0.0073541156 -0.09350222 -0.123890996 0.05214985
000370 5b aa 3e be 0b df d9 3c 18 4f 94 3e 7c be 35 3e
       -0.18619673 0.026595613 0.28966594 0.17748445
000380 64 6d 82 be c1 e8 2d bc dc 9e 28 be 34 44 4d 3e
       -0.25474083 -0.010614575 -0.1646685 0.20045549
000390 86 b4 09 bd 2d e7 86 3e 9d ce ec bd 12 76 04 be
       -0.033619426 0.26348248 -0.11562846 -0.12935665
0003a0 64 ee 5b be 2b 89 2d 3e 84 19 a6 3d d4 c1 0f be
       -0.21477658 0.16946857 0.081103355 -0.14038783
0003b0 d5 ef 9e 3d 8d fa ef 3b c8 2e fa 3d ad 82 47 3e
       0.07760588 0.007323569 0.12215954 0.19483443
0003c0 9a 0a d0 be 6c 50 a3 be d5 f9 91 be 97 09 10 3e
       -0.40633088 -0.31897295 -0.2851092 0.14066158
0003d0 37 0b 40 be cf a1 d2 3e 8d 91 30 3e 47 54 c4 bd
       -0.18754278 0.41139075 0.17243023 -0.09586387
0003e0 fd b7 97 be 78 ea 88 bd a1 9e f3 be 3f d0 fe 3d
       -0.2963256 -0.06685346 -0.47581962 0.124420635
0003f0 b9 4f 75 3d 00 19 f7 3d b6 90 82 3e 3c 15 87 bc
       0.059890483 0.12065315 0.2550103 -0.016489618

b2.bias f4 [32]
000000 da 0a bd 3d e5 55 1b bf bb a8 b8 be ec 4f fd be
       0.092305854 -0.6067794 -0.3606623 -0.49475038
000010 0a b2 05 be 81 bc dc be c1 24 8f be 37 56 a6 be
       -0.13056198 -0.43112567 -0.27957729 -0.32487652
000020 f0 ce 8b 3e 0a 83 c7 3c a4 39 83 3b db e5 79 be
       0.27306318 0.024354476 0.004004674 -0.24404089
000030 8a 8c 88 be 55 26 ea be 74 7c e0 bd 13 60 ff 3d
       -0.26669723 -0.4573237 -0.109612375 0.124694966
000040 87 d8 17 be 0b ca 9d be 13 1c ea bd 93 e9 43 be
       -0.14828692 -0.3081821 -0.11431136 -0.1913207
000050 a6 49 f7 bd d8 1a 4f 3e c6 57 c0 be d7 fb 6c 3e
       -0.12074594 0.20225084 -0.37566966 0.23142944
000060 06 1c d3 be 3b ce 5f 3e d7 f0 af 3d d1 48 5f 3d
       -0.41232318 0.21856014 0.085908584 0.054512803
000070 07 d8 03 bf 1d d1 c9 bd 97 b9 78 3e 59 27 bb bd
       -0.51501507 -0.09854338 0.24289547 -0.09138364

b3.weight f4 [64, 32, 3, 3]
000000 ea b7 13 be 13 39 07 3d 9d 75 42 bd 93 ed 20 be
       -0.14425626 0.033013415 -0.047475446 -0.15715627
000010 87 5f 2f bd 99 d2 da bd b9 8d 0c bd ef 95 cf be
       -0.04281571 -0.106846996 -0.034314845 -0.40544078
000020 b4 ff cd 3c 9e 3e b2 3d 0b 0a 45 be cd a9 66 3e
       0.025146343 0.087033495 -0.19242112 0.22525711
000030 e0 7c a6 bd 8e 37 1d 3e a2 88 c4 be ee 10 61 be
       -0.08129287 0.15353224 -0.38385493 -0.21979114
000040 a7 78 66 be e1 ab 85 be fd a2 5f be f6 22 68 be
       -0.22506963 -0.26107696 -0.21839519 -0.22669587
000050 cf fe 2a bb 53 bd 98 3d c0 b9 0c be af 78 9a be
       -0.002609182 0.07457986 -0.13742733 -0.301702
000060 99 fb 1a 3e 00 41 b1 3e 90 5e 22 be e0 7a d4 bc
       0.1513504 0.34619904 -0.15856385 -0.025937498
000070 0c 7a e5 bd ad c1 10 3e 3f 12 9f 3d ad 89 65 3e
       -0.11204919 0.14136381 0.07767152 0.224158
000080 e5 5c 79 be f7 b2 4d 3d 6b 38 2a be c2 d9 b6 3e
       -0.24351843 0.050219502 -0.16623084 0.3571301
000090 74 21 1c 3d 85 e8 96 bd 82 11 80 3b 2b 50 05 bf
       0.03811784 -0.07368568 0.003908337 -0.5207545
0000a0 52 da b5 3d e2 61 db 3e 7e a3 6c be 96 db 84 3e
       0.08879532 0.42848116 -0.23109242 0.2594878
0000b0 88 ae 15 3d d4 52 60 bd be 2f ef 3e ab e7 14 3e
       0.0365434 -0.05476649 0.46716112 0.145415
0000c0 2d b9 79 3e 6d 83 46 be 40 75 af 3e d3 d1 52 be
       0.24387045 -0.19386072 0.34269142 -0.20587854
0000d0 ae f7 ce bd b1 b2 c0 be 90 82 08 3c 5d 1f 63 3d
       -0.10105835 -0.3763633 0.00833191 0.055449832
0000e0 03 5a 22 be 61 53 a2 3d 39 88 ed 3d 7a bd 13 3c
       -0.15854649 0.079260595 0.11598248 0.009017343
0000f0 36 97 a2 bc 0d d1 ea bd ed c8 b1 3c a7 08 4b be
       -0.019847494 -0.114656545 0.021702254 -0.1982752
000100 45 04 8f bd 4b 33 4e 3e 0a 9d 88 bd c5 49 e0 bc
       -0.06983236 0.20136754 -0.06670578 -0.027378926
000110 4c 97 fc be b7 cc 2c 3e 3e 2f bf 3e bb 0c 34 be
       -0.4933418 0.16874968 0.3734073 -0.17582981
000120 89 ab 8c bd 3f fd 54 3d 8a 63 da bd c2 df 8f bd
       -0.06868655 0.051999327 -0.10663517 -0.070251
000130 4f ef 30 3d 27 64 ee bd f3 13 2a bc 4f 74 94 be
       0.043196972 -0.11640196 -0.010380733 -0.28994986
000140 92 1d 6c 3e 1d 1e 45 be 0e bf 35 3e e7 1c e7 3d
       0.23058155 -0.19249769 0.17748663 0.112848096
000150 cf e5 a6 3d 94 1f 99 3e 7d 0d 67 be e2 d9 a9 be
       0.08149301 0.29906905 -0.22563739 -0.33174044
000160 67 70 18 bf c3 a9 83 bd 5d 5b a5 bd 84 0d 91 be
       -0.5954651 -0.06428864 -0.08074067 -0.28330624
000170 7b e8 69 be bb f1 57 3d 80 d7 9d 3b f0 1f b8 3d
       -0.2284259 0.052720767 0.0048169494 0.089904666
000180 3a 6d c9 be 6b cb 8b bc 16 4c 32 be eb 22 55 3e
       -0.39341146 -0.01706477 -0.17411837 0.20814101
000190 ed 7b ac 3b 15 d7 09 be 3b f1 5c 3e e5 fd 80 3c
       0.0052637965 -0.13460954 0.21576397 0.015746066
0001a0 a5 90 0e 3e 11 40 4f 3d 28 e9 d6 3e 6c de 84 3e
       0.13922365 0.050598208 0.4197476 0.25950944
0001b0 1a 8a 50 3d 36 1a 20 3e d0 a4 2a 3e ee 8d c4 3d
       0.050912954 0.15634999 0.16664433 0.095973834
0001c0 be 90 1d be de 7b de be 38 d9 d8 bd 87 d4 05 bd
       -0.15387246 -0.43453878 -0.10588306 -0.032673385
0001d0 8b 86 f7 3d 04 3e d6 3c 8b 76 84 bd cb 58 0c 3e
       0.12086209 0.026152618 -0.06467923 0.13705747
0001e0 f8 44 0e 3d 07 ca c0 3e c6 e9 55 3e 16 4a f8 bd
       0.034733742 0.37654135 0.20889959 -0.12123506
0001f0 d1 24 6f bc 22 34 50 3e 53 e2 48 3e 82 43 bc be
       -0.01459618 0.20332387 0.19617586 -0.36770254
000200 c3 c5 28 3c 8e bc 44 3e f3 fa cc bc 9d e6 f9 3d
       0.010301056 0.19212553 -0.025022006 0.12202189
000210 25 7a 94 3d 1a 60 b2 bd 0b b9 f0 be 57 5d e0 bd
       0.0724986 -0.08709736 -0.47016177 -0.10955303
000220 40 a5 6f be 8f 21 04 3e 75 a1 a3 bd 19 79 7b be
       -0.23402882 0.12903427 -0.0798978 -0.24557914
000230 b3 0d 0e bf 9e 37 34 be 86 0d 02 3c fd 66 8c bd
       -0.55489653 -0.17599341 0.007937795 -0.06855581
000240 dc 43 8e 3e 2f ca b0 be 1f 9f 92 be aa ff 5c 3e
       0.27786148 -0.34529254 -0.28637025 0.21581903
000250 e0 9e 99 be 05 99 ff 3d f3 ac 1f be e6 47 38 be
       -0.30004025 0.12480358 -0.15593319 -0.17996177
000260 a4 95 02 bf e9 2d 9f bd 32 cb 14 3e 1e dc 96 3e
       -0.51009583 -0.077724285 0.14530638 0.2946481
000270 c0 d5 df 3d 43 e9 6c 3c 5d b2 76 be db f2 7a be
       0.109294415 0.014459911 -0.24091478 -0.24506705
000280 37 83 a5 bc 6b 05 f8 be 5d 25 b9 3e 2a 4b 1b 3e
       -0.02020417 -0.48441634 0.36161318 0.15165392
000290 14 fa f4 3d 17 32 35 bd 23 91 ad be e6 95 7c be
       0.11961761 -0.044237223 -0.33899793 -0.24666557
0002a0 e6 21 00 be ca 74 30 be 63 bd 36 be 95 06 fe 3d
       -0.12512931 -0.17232051 -0.17845683 0.12403599
0002b0 df 1c 2f be 5f 51 a6 3d f6 9c 2d 3c af b9 ea be
       -0.17100857 0.08120989 0.010596504 -0.4584479
0002c0 9b 42 b0 3d 07 8f e6 3c 7e be ce 3c e7 8b 18 bd
       0.08606454 0.028144373 0.025237318 -0.037242796
0002d0 2d 06 16 3e a6 11 bc bc 2f 54 b0 bd 1c 4c 86 3e
       0.14650793 -0.022957634 -0.08609807 0.26229942
0002e0 50 d4 03 be bf 6f 66 3e 5e 7a 47 be 9a 80 93 3e
       -0.1287396 0.22503565 -0.19480273 0.28809053
0002f0 99 f5 6f bd b5 45 c8 bd 30 21 27 be 38 1d 2b 3d
       -0.05858383 -0.097789206 -0.16321254 0.041775912
000300 09 ac a8 be fe 80 ec 3d 9e 2e 64 3d 2a 7b a6 bd
       -0.32943752 0.11548041 0.05570852 -0.081289604
000310 e0 47 05 3d 38 93 03 be bf 36 de be 5a 3d 42 be
       0.03253925 -0.12849128 -0.43401143 -0.18968716
000320 3c e4 d1 3d 54 92 51 3e cb 3c 1e 3e 42 a8 c5 bd
       0.102486104 0.20465976 0.15452878 -0.09651233
000330 ef 78 3d 3e 83 4f c3 be 58 78 84 bd 45 a1 2c 3c
       0.18503164 -0.381466 -0.06468266 0.0105364965
000340 46 ba a3 3c be ae 8f be 31 3a 37 3d 83 e3 43 be
       0.019986283 -0.28063005 0.04473323 -0.19129758
000350 88 61 34 3e f3 02 98 3d 45 75 ef be 59 70 66 3d
       0.1761533 0.074224375 -0.46769157 0.056259487
000360 4d db 80 bd 25 c1 1c be a2 ee 65 3e 90 27 29 bc
       -0.06291828 -0.15308054 0.22454312 -0.010324374
000370 e5 8b 44 be ec 66 05 be 4b ec 89 bb 3c ad 2c 3e
       -0.1919399 -0.13027543 -0.0042090765 0.16862959
000380 82 25 e9 bd 5e 7a 9d bc e9 f7 74 bd 0f 9c 82 3e
       -0.11384107 -0.019223388 -0.059806738 0.25509688
000390 fc 95 0a 3f 67 21 ea 3d a6 76 21 3e 1f 71 f2 3d
       0.5413511 0.11432152 0.15767917 0.118379824
0003a0 92 02 78 3e 2e ab a0 3d 82 cc 8c 3d 67 66 86 3d
       0.2421973 0.0784515 0.06874944 0.065625004
0003b0 83 b5 eb 3d 73 64 09 bc cf 1b ae 3e fe f1 54 3e
       0.1150923 -0.008385765 0.3400559 0.20795438
0003c0 02 f1 3b be 1e f3 e4 be 71 25 34 3e 66 d8 a9 bd
       -0.18353656 -0.44716734 0.17592408 -0.08293228
0003d0 6a 64 64 bd c7 34 2a bd 02 0f a2 3d c1 f6 6a bc
       -0.055759825 -0.04155424 0.07913019 -0.014341057
0003e0 bc b4 10 3d 22 28 7f bd 01 a5 8d be ac ac 93 3e
       0.03532861 -0.062294133 -0.2766495 0.28842676
0003f0 b5 8c 0b 3d 7e d9 42 3d 79 e7 9c 3e 6c f4 10 3d
       0.034069736 0.047570698 0.3064535 0.03538935

b3.bias f4 [64]
000000 73 a1 c7 3d 4a e9 f6 3d b2 82 49 bd 79 59 08 bd
       0.09747591 0.12056215 -0.049196906 -0.033288453
000010 1f cc 20 3d ef c6 49 be b9 69 60 3d 26 a2 4d 3d
       0.039257165 -0.19704793 0.054788325 0.050203465
000020 cb a1 77 be 96 cd 02 be 0d 35 20 be dd f6 11 3e
       -0.24182813 -0.12773737 -0.15645237 0.14254327
000030 99 7d 42 3d 76 54 41 3e 68 74 29 be b7 e0 ef bd
       0.04748306 0.18879876 -0.16548312 -0.11712783
000040 40 5f ed bc ec 83 1a bd af 89 53 bc f7 cb 16 3e
       -0.028976083 -0.037723467 -0.012911244 0.14726244
000050 57 e9 60 bd 7b 24 88 be 4e 9d 75 bc d4 09 2a 3e
       -0.05491003 -0.26590332 -0.014991118 0.16605312
000060 e0 19 38 3e a5 48 51 be c6 ef e2 be 31 7f e3 bd
       0.1797862 -0.20437868 -0.44323558 -0.11108244
000070 33 02 8b 3e 69 b6 bd bd 58 61 59 3d 5b 38 b9 bd
       0.27150115 -0.092633076 0.05307135 -0.09043952
000080 8c 1f 33 be 1e 5d c3 bd f0 19 65 bd 12 dc be 3d
       -0.17492503 -0.09539245 -0.05593294 0.09319319
000090 c6 97 67 bd f2 97 87 be 1f b4 db 3d 4f 8f d0 bd
       -0.056541227 -0.26483113 0.10727715 -0.10183584
0000a0 b6 c1 ae 3c db 15 0d 3d 0f 9b 5a 3e 49 a3 98 3e
       0.021332603 0.03444467 0.21348213 0.29812077
0000b0 18 45 f1 bd 1c 10 f9 bd 91 26 10 3e d9 f6 fd bd
       -0.11780757 -0.12161276 0.14077212 -0.12400598
0000c0 7b 32 5a be 69 21 55 be ab af 06 bd f6 91 24 3d
       -0.2130832 -0.20813526 -0.032882374 0.04017826
0000d0 a5 08 36 bd 80 a6 5e 3d d7 27 c0 3c f9 f7 be bd
       -0.044441838 0.054358006 0.023456497 -0.09324641
0000e0 75 c5 e7 3d 6e 85 19 3e ee 53 e4 bd 5b c6 eb bc
       0.11316959 0.14992306 -0.11148821 -0.028781107
0000f0 21 23 59 be 36 97 5f 3d e2 76 e6 bd 0b 7c be be
       -0.21204807 0.054587565 -0.11253144 -0.37204012
