nets/model_epoch_58.pth (torch, 648794 bytes, 25 tensors)

a1.weight f4 [16, 5, 3, 3]
00000000: 1cf8 1e3e 4fb8 083e bd34 88bc a2ba 45be
00000010: 78ad 68bd 7c19 a43e 401d 51be 9ebe 65bb
00000020: ec3f d7be 99b9 ddbd 9fcc 04be 3cd5 c7bd
00000030: ebaf 76bc 234e 0cbe 5f32 48be 9c73 b0be
00000040: 122c 11be 8ba7 31be 7066 653d 57c4 e5bd
00000050: fcb3 533d d333 32bc b6d6 a2be 8e5c 7c3c
00000060: cedb acbd 65c6 2fbe f9bc f93b b8b2 26be
00000070: 26de 93bd 7b7f ad3d b951 3fbe 9baf 80bd
00000080: b0b8 f2be 740d 26be 9895 4ebe 3d3c 043e
00000090: 5e38 2cbe bbc6 d4bd 1c91 34be 9885 efbc
000000a0: 3875 57be f4f9 20be 082c 30bc 42d9 f2bd
000000b0: b449 3dbd 0ca8 4e3e 5404 febd 5096 2abd
000000c0: 416a ab3e d747 b63c bf99 b13e ee9a ccbb
000000d0: 6b67 093f f6ac 82be fe32 a13d 77bf a03e
000000e0: fa23 7c3d 5b9b 8cbc 0a3a 423e 32f7 4b3c
000000f0: 81ae f83d ea31 23bf 7c0f 673d 2514 1a3e
00000100: dd2e 83bd 8abe bbbd 2a23 be3e b9b4 9a3d
00000110: 646e e0be af50 05be 2c5c 33be 8514 e83d
00000120: a55a adbc 3fad c8be 5bb9 e4be 986b 69bc
00000130: ba0c a23e 4b39 083e 444d 173e 4812 2f3e
00000140: 2eee 08bf 1479 b5bb 789b c23c 2aed 8fbc
00000150: 7bb9 ba3d b1b7 073d 6b93 eabc 7e28 84bd
00000160: d5c7 93bd 7117 023d d81d 9ebe 9e89 ff3d
00000170: d5b7 c63e 8b8d 043d 1430 743e 9a5c 1bbc
00000180: f0ca 163f d42b f43e 3dac 063e 15b3 363e
00000190: b6bf 5e3e 690c 4a3e b9ef 0bbd dbb0 ecbc
000001a0: 3143 ce3b 3381 cbbd 5a94 12be 7467 353d
000001b0: 3b01 833e 3c2c f73e 28de 7e3e 7944 903d
000001c0: fc5b 6ebe 897f ac3e 1d2c adbe 1400 d5bd
000001d0: dd3a 3e3e c313 9ebc 7b30 9cbe 7481 77be
000001e0: 0ac8 073d 6039 41be 78ba d6bc 2daa a73d
000001f0: ef44 fc3c eaab b5be 6ec3 2cbc d530 1c3d
00000200: 9df4 8d3c 9959 d8bc 4e2d f63d 90c5 dbbd
00000210: 9710 92bc 0fc7 7fbd 46a6 723d 41b0 363e
00000220: c0b3 e53d 420c 8abe 3d52 263e 705e 083e
00000230: 6589 b0be a08c a33d f8eb bebe b11a 9f3e
00000240: bcaa 59be d401 dbbe 12f8 8cbe 6785 aabe
00000250: 996a 5bbd 58d6 2dbf ccba db3d 26fb 603d
00000260: 6db7 f7bc 3add f0bc a33d e13d db7f b43a
00000270: 72d8 2ebe 66a8 c2bd c8b2 a8be 8400 45be
00000280: cdd4 37be ef2a c13e ba5a 603e 6a3e 903e
00000290: 4ddf 703e c197 c13e c68f e7bd 90d6 183f
000002a0: f694 453e c356 4abd f3e5 81be 5209 21bd
000002b0: 7687 c53c 1d15 713d 5127 4ebc 5299 babc
000002c0: 1ac6 163c a960 3e3d 9d22 60bd ad9c a1bc
000002d0: f092 473e 6383 673d 826f 8bbe 3869 5b3d
000002e0: 94c5 2d3e 9286 a23e 264c 163d a3b9 633e
000002f0: 1361 8d3e 9de6 353e 2a4e 23be 3cff 823d
00000300: 003d 5ebe c181 4dbd 112f 38be 4fba 353e
00000310: 41be 8b3d 8d62 2abe 5510 e33d 7545 2b3e
00000320: c51d ef3e a932 f8bc dc92 21bc 981d 17be
00000330: 6f6f 8ebe 043b a73e c49d d8bc 7afe 22be
00000340: 9fb1 e6be 26af dcbe cedc eb3d e264 8a3d
00000350: 1c44 25be b472 5ebe 7680 0bbd e79b 243d
00000360: 2df9 80bc b6b5 823c 733a 9ebc d42c 303d
00000370: d513 e4bd 7795 d83c bda5 5f3c 16a1 a63d
00000380: f91e 6ebd e848 91bd 629f 52bd b9c5 613e
00000390: 9e82 9e3b 57f2 d9bd b4d6 9cbd 4dab 423e
000003a0: c9f9 1ebe 8c86 cc3e 7f9f 42bd db7d df3e
000003b0: cec5 933e 29c3 6b3c 26c1 2f3b f8d1 afbe
000003c0: febc 473d b7ef 7f3e 7ab7 14bf 1b71 583d
000003d0: 4ac4 8a3d 5aa8 c43d f84f 3fbe 5192 9b3e
000003e0: cbb3 c7be cb93 45be 58a1 0dbe 7007 dcbe
000003f0: bcec 983e 7af5 cdbb 7fa7 b43d b914 063d
0.15524334 0.13351558 -0.01662671 -0.19309476 -0.056806058 0.32050693 -0.20421314 -0.0035056244
-0.42040956 -0.108264156 -0.12968682 -0.09757468 -0.015056591 -0.13701682 -0.19550465 -0.34463203
-0.14176968 -0.17349069 0.056005895 -0.112190895 0.05168532 -0.010876614 -0.31804436 0.015402926
-0.08440362 -0.17165525 0.0076214042 -0.16279113 -0.07220106 0.084715806 -0.18683518 -0.06283494
-0.4740653 -0.1621607 -0.20174253 0.12913604 -0.16818377 -0.10389467 -0.1763348 -0.029238507
-0.21040809 -0.1572035 -0.010752685 -0.11857845 -0.046212867 0.20181292 -0.12403169 -0.041647255
0.33479503 0.022251053 0.3468761 -0.006244055 0.5367343 -0.25522584 0.07871054 0.31396076
0.061557747 -0.017163923 0.18967453 0.012449073 0.12142659 -0.6374804 0.05641125 0.15046747
-0.06405423 -0.09167202 0.37136203 0.07554001 -0.4383422 -0.1301906 -0.1751563 0.11332039
-0.021161387 -0.39194676 -0.44672665 -0.014246844 0.31650335 0.13303106 0.14775568 0.17096817
-0.53488433 -0.0055381153 0.023755774 -0.017569143 0.09117409 0.033134166 -0.028634747 -0.06453036
-0.07215849 0.031760637 -0.30882144 0.1247742 0.38812128 0.03236155 0.23846465 -0.009482527
0.5890341 0.47689688 0.13151641 0.17841752 0.2175282 0.19731297 -0.034164164 -0.028892925
0.006294631 -0.09936752 -0.14314404 0.044288114 0.25586876 0.48275936 0.24889433 0.0704431
-0.23277277 0.33691052 -0.33822718 -0.104004055 0.18577142 -0.019296532 -0.30505738 -0.24170476
0.033149756 -0.18869543 -0.026211962 0.08186755 0.030794589 -0.35482723 -0.010544641 0.038132507
0.017328555 -0.026409911 0.1202036 -0.107310414 -0.017830176 -0.062445696 0.059240602 0.17840673
0.11215925 -0.26962477 0.16242309 0.13317275 -0.34479824 0.079858065 -0.37289405 0.3107505
-0.21256536 -0.42774832 -0.27533013 -0.33304903 -0.053568456 -0.6790519 0.10728988 0.054927014
-0.030238831 -0.029402364 0.109980844 0.0013771014 -0.17074755 -0.09504776 -0.329489 -0.19238478
-0.17952271 0.37728068 0.2190961 0.28172618 0.23522682 0.37811092 -0.113067195 0.59702396
0.19295105 -0.04939915 -0.2537075 -0.03931553 0.024112444 0.058858026 -0.012582616 -0.022778187
0.0092025045 0.0464789 -0.05472051 -0.01972803 0.19489646 0.056521785 -0.2723351 0.05356714
0.16969901 0.31743294 0.036693715 0.22238784 0.27613124 0.17763753 -0.15947786 0.06396338
-0.21702957 -0.05017257 -0.17986704 0.17746852 0.068233974 -0.16639157 0.110870995 0.16725715
0.467024 -0.030297594 -0.009861674 -0.14757383 -0.27819392 0.32662213 -0.026442416 -0.15917388
-0.4505739 -0.43102378 0.115167245 0.06757523 -0.16139263 -0.21723443 -0.034058057 0.040187743
-0.015743816 0.015955787 -0.01931498 0.0430115 -0.11136595 0.026438458 0.013650355 0.081361935
-0.058135007 -0.07093984 -0.05142153 0.22048081 0.004837348 -0.10641926 -0.07658139 0.19010659
-0.15524973 0.399464 -0.04751539 0.43650708 0.2886185 0.0143897915 0.0026818006 -0.3433988
0.04876422 0.24993788 -0.58092463 0.05284224 0.067757204 0.09602423 -0.1868285 0.30385068
-0.3900436 -0.1929466 -0.13831079 -0.42974424 0.29868114 -0.0062853666 0.0882101 0.032734606

a1.bias f4 [16]
00000000: a9db 993c 3c5e dcbd ee18 9ebd ebd5 1cbe
00000010: d9f3 2b3e ac8d 04be cbcf 193d 72e6 01be
00000020: 9e46 2cbe b29b ba3d 6d50 6ebd 21c2 d13d
00000030: 0ac7 adbd 635e 96bd cb8d 943e 9f1f 703e
0.0187815 -0.10760161 -0.07719599 -0.15315978 0.16792239 -0.12944669 0.037551682 -0.12685564
-0.16823813 0.09111728 -0.05818217 0.10242105 -0.08485229 -0.073422216 0.2901443 0.23449562

a2.weight f4 [16, 16, 3, 3]
00000000: 5919 1bbc 082a 80be 93e0 4bbe 9997 c93e
00000010: f89d 3f3e 012b ecbd 294e 883d 5a0d efbd
00000020: a3c9 353e 8580 0dbd 975e 273e a76f f33c
00000030: d56b 1abe 6078 2d3e c86e 5cbe a4e3 28bd
00000040: 6948 153e 06d7 c2bd 9f28 c6bd ec87 79be
00000050: 9740 b8be d2d7 dfbe c223 c4bd 6a33 b4bc
00000060: 864e 0dbe 2374 d8be 1ddd c83d c06b 4cbf
00000070: 2590 9a3e 1436 bcbe c416 203f 4647 82be
00000080: 76f6 663e 98bf c03d 637e 803d f0c0 b93d
00000090: 3c4a 473c 5965 dbbe 4b87 80bd 518b 5c3d
000000a0: 7a4d aebc 5856 46be 9ff1 10bf 0f65 85be
000000b0: 0164 4abe 3180 963d f6a4 7bbe 4e04 20be
000000c0: e946 843e 0caf 833d 8589 2d3e 35a3 cabe
000000d0: 1ed5 203e 881a 333e 8d33 54be 5b44 363d
000000e0: 9cd1 733d 2872 d03e 1f46 b63e f010 083d
000000f0: e65c 9b3d a4bb 33bc 5f43 c5ba 082b a73e
00000100: 9755 5bbe 08c3 8bbd 9561 c2be 7848 07bd
00000110: 3deb 1cbe 135a 03be a823 d7bd 8e99 853e
00000120: e6ae 833e 54ff 093e dde6 fd3c a47a 22bd
00000130: a991 303c 76b4 6d3e fcda 70be 9499 e83e
00000140: 7444 0f3e a5ab 4d3d 4b63 8a3e f8a3 6cbd
00000150: b6a3 50be de52 5e3e bfec fa3e 00eb 113e
00000160: f484 4b3d aab6 253e eefb 2fbe 08f5 b2bd
00000170: 0da1 31be d78a bf3d ff62 6b3e a3e2 b8be
00000180: 1ec5 7d3d 6556 ee3c acab 593e ff5f c1be
00000190: 7dd9 53bd 3210 aebc aea5 4ebe f1e1 2ebe
000001a0: d6ee c93c 9c35 133f 3c2a 283d 1538 34be
000001b0: 55f5 51bd 0b3c f2bd 4acb 863d 5266 62bb
000001c0: 5afa 103f 7235 b6be 5487 0d3f e2bf 723e
000001d0: f097 47be f3b0 5d3e c716 cfbe 5515 03bf
000001e0: 24a5 983c d327 eb3e 497b 2c3e 9887 7a3e
000001f0: ded0 47be 03c5 7c3d 9fe9 c6bd ab9d 2bbf
00000200: f75d d3bd 5f17 c5bd 8d51 4dbd 18da 95be
00000210: 0d7d e2bd d85e 4ebe c3eb 153e ece0 bbbe
00000220: 7bea 373b eb5f 3cbe a179 c5bd 6db2 60be
00000230: acc0 113f 63c0 8bbe 0de6 813c 725e 573c
00000240: 17a8 cdbd 584a 90bd ee6e 10bc e3e5 33be
00000250: 927a 7bbe 04fd 92bd e0ad fdbd 85e3 bfbc
00000260: 52c2 03be da71 8cbd 66d5 ccbd 3b5d 533e
00000270: a94b d3bd c26b 22be 4f4f ef3b 92ed af3d
00000280: 01b4 cf3d 35cd c63d 1f02 073e 5fea c5bc
00000290: 1f81 403e 118c 06bd eeb1 413e 319f 233e
000002a0: 4394 ebbb 3c8f ce3d 5322 bf3d ba3e 41be
000002b0: 3011 3f3e 7ddd 933e 71a1 453c a62d 513b
000002c0: 91b9 acbd a8b0 d43d 6f90 04be f415 b23e
000002d0: 7e99 b93e 1e19 45be cb51 2a3e cc7a 363e
000002e0: 63e0 c83d dac1 b9bd fb55 483e 6df8 8dbd
000002f0: 313b 8dbd 820f 19be 4992 0b3e 66cf 473e
00000300: 9582 323d 094c b63c fd41 89bd 2d86 ac3d
00000310: 436d af3d 7a10 28be d085 8bbd d2af a9bd
00000320: 1a93 23be 145a bbbd b3d8 a0bc 16cb a9bc
00000330: 5ca3 d9bd 61c7 4bbe 2d58 dd3b 41ca a03d
00000340: 3675 693e 8c78 a23d 960d 3dbe 57ff 293e
00000350: 0773 cc3b 0e7e 113e 1b2e 34bd fd02 da3e
00000360: b1d9 78bd a78f f4bd 4daf e43d c904 c7be
00000370: 5edf ec3d e867 c7bd 9192 8cbe 02ef ab3e
00000380: 63f1 6ebd 2f11 7dbd 0a0f a9bd 950b cd3d
00000390: 45f4 ae3d eea3 4e3d 5062 7e3d 144c 64bc
000003a0: 39d9 cfbd 43e4 24be 08a3 373e 77d2 203e
000003b0: 9f15 bfbd 2f1c 4a3d 9310 66be 7e86 773e
000003c0: fed3 41bd d1f6 533e 917d 85be 05b0 323d
000003d0: c147 d73e 2acb 0b3e 309a e13c dd57 b53d
000003e0: c80b 9a3e 2f22 79be d030 6dbe 8c11 60be
000003f0: 2455 95bd ab0a b53e 4dc9 07bd 8c31 f9bd
-0.009466493 -0.25032067 -0.19909887 0.39373472 0.18712604 -0.1153164 0.06655533 -0.116724685
0.177527 -0.034546394 0.16344677 0.029716326 -0.15080197 0.1694045 -0.21526635 -0.04123272
0.14578404 -0.09513669 -0.096757166 -0.24368256 -0.35986778 -0.43719345 -0.09577133 -0.021997172
-0.13799486 -0.42276105 0.09807799 -0.79851913 0.301881 -0.36760008 0.6253474 -0.25445002
0.22554955 0.094115436 0.06274106 0.09070003 0.012163695 -0.4285076 -0.06275805 0.0538438
-0.021277178 -0.19368875 -0.56618685 -0.26053664 -0.19764711 0.07348669 -0.24574646 -0.15626642
0.2583535 0.06429872 0.16946991 -0.39577642 0.15706298 0.1749059 -0.2072279 0.044498783
0.05952607 0.40712094 0.35600373 0.033219278 0.07586078 -0.01097003 -0.0015049985 0.32650018
-0.21419369 -0.06824309 -0.37965074 -0.033028096 -0.15324111 -0.1282733 -0.10504848 0.26093715
0.25719374 0.13476306 0.030993873 -0.03966774 0.010776916 0.23213372 -0.23521036 0.4542967
0.13990957 0.05021252 0.2702888 -0.05777356 -0.20374951 0.21711299 0.49008748 0.14249802
0.04968734 0.16182962 -0.17185947 -0.08738142 -0.17346592 0.093526535 0.22986983 -0.3611041
0.061955564 0.02909393 0.21256894 -0.37768552 -0.051721085 -0.021247957 -0.2018039 -0.17078377
0.024650019 0.57503676 0.041055903 -0.17599519 -0.051259357 -0.118278585 0.06581743 -0.003454585
0.56632006 -0.3558765 0.5528462 0.2370601 -0.19491553 0.21649532 -0.40447065 -0.51204425
0.018633433 0.4592882 0.16843905 0.24465787 -0.1951327 0.061711323 -0.097125284 -0.6703746
-0.10320657 -0.09623598 -0.0501266 -0.29267955 -0.11059008 -0.20153368 0.14640717 -0.3669504
0.0028063345 -0.18395965 -0.096423395 -0.21943064 0.5693462 -0.27295217 0.015856767 0.013145076
-0.10041826 -0.0704543 -0.00881551 -0.17568164 -0.24558476 -0.07177165 -0.1238668 -0.02342392
-0.12867096 -0.06857653 -0.1000164 0.20641033 -0.103171654 -0.15861419 0.0073031555 0.08590235
0.10141755 0.09707109 0.13184403 -0.024159608 0.18799256 -0.03284842 0.18915531 0.15978695
-0.007189305 0.100859135 0.09332719 -0.18871585 0.186589 0.2887992 0.012062416 0.0031918078
-0.084338315 0.10385257 -0.12945722 0.34782374 0.36249918 -0.19247863 0.16632764 0.17820281
0.09808423 -0.090701774 0.19564049 -0.06932149 -0.068960555 -0.14947322 0.13630022 0.1951271
0.043581564 0.022253053 -0.067020394 0.084240295 0.08565762 -0.16412535 -0.06812632 -0.08285488
-0.15974084 -0.091480404 -0.01963458 -0.020726722 -0.106268615 -0.19900276 0.006754896 0.07851077
0.22798619 0.07933149 -0.18462214 0.1660131 0.0062392983 0.14208242 -0.043989282 0.42580405
-0.06075448 -0.11941462 0.111662485 -0.38870838 0.115660414 -0.097366154 -0.2745557 0.33580786
-0.058335673 -0.061783966 -0.082548216 0.10011975 0.085426845 0.050449304 0.062105477 -0.013934154
-0.10148854 -0.161027 0.17933285 0.15705286 -0.09330296 0.049343284 -0.2246726 0.24172398
-0.047321312 0.20699622 -0.26072362 0.043624897 0.4204693 0.1365172 0.027539343 0.08854649
0.30087113 -0.24329446 -0.23163152 -0.21881694 -0.0729163 0.35359702 -0.03315096 -0.121676534

a2.bias f4 [16]
00000000: f504 dbbd 3c24 64be b298 e3bd 2db6 aabc
00000010: df74 443d d70d 34be 2384 bd3a 6e6b 77bc
00000020: 1b0b 143e 9e80 0dbe 2785 66be cd97 cbbc
00000030: a32d 49be 6286 3f3d 7c2f 383e 013e 103e
-0.10694305 -0.22279447 -0.11113109 -0.020838821 0.04796302 -0.17583404 0.0014458935 -0.015101297
0.14457361 -0.13818595 -0.22511731 -0.024852658 -0.19646315 0.046759017 0.17986864 0.14086153

a3.weight f4 [32, 16, 3, 3]
00000000: e159 4cbe 8e92 d03e e2a7 01bf 04fc d9bd
00000010: f47e 0abe 9b42 bbbd d491 29bf 9682 c0bd
00000020: 378d 563e c11b a1bd 0b50 dfbd 92f7 79be
00000030: 4901 86bd dec8 563e 97af 543e 38a4 b5be
00000040: a9ad 72be 5d8e ffbe 0a81 113e 24b6 9cbd
00000050: d45f 5c3e 352f 063e 50d3 5c3e db36 1ebe
00000060: b4f3 6cbd 33ac f43d 412b e6bd 6644 b5be
00000070: a52d 443e d3de 773e 5d61 913d 863f d3bd
00000080: c7db 273e e624 e4bd bc2b 09be f741 053d
00000090: eea3 413e f3de 873d cbef 59be d0cb 86bd
000000a0: c82b c03e 6bc5 b5bd 637f 383e b91f c03d
000000b0: 735f 37bd dd19 043e f1fd 35bd 960a d5bd
000000c0: 0085 ae3e 518f 54bd 87d1 bc3e 4cb4 f7be
000000d0: d587 32be 0bcc 233e 80b3 323b 7828 663d
000000e0: dcef 65be b6ec d13c 4e2f d33d b947 4bbe
000000f0: 2a2b dd3d 0138 b03e a114 4b3d be7e 333e
00000100: 0f9d 8a3c f57b f23d 3b2f 0f3e f43a 993e
00000110: ce32 8cbe 257a cf3e 4921 20be 026f 91be
00000120: 551e 9b3b 663a 643e 8881 39be 2c69 293e
00000130: 32b6 b03e 5a11 a83d e8be ce3d 9185 a7be
00000140: d62e 01be 83eb 013c f4d9 6d3e 7fd5 27be
00000150: edaf 8a3e 3a61 86bd 9b97 873b 1244 d7bd
00000160: b3f9 febd 3336 ec3d 09ee cdbd 5961 9b3d
00000170: 5d26 b7bd c50b 213e efb5 b4be b564 d53e
00000180: b5e6 073d 76f5 2abe 55f4 99be 4219 043d
00000190: 0b0f 86be 85d9 c0bd 8105 46be 5d77 b83e
000001a0: ffdc 93bd 3c9a 52be bb58 983e 73bd 2cbe
000001b0: 4ccf ccbd 1d7c d2be 3b9b acbe 10df 8d3e
000001c0: 5f52 043c eeb8 c13e c3f7 23bf 111b 783d
000001d0: e503 4ebd 1a4c 273f 0b74 0b3c 8cdc d6ba
000001e0: 9100 bb3e 8125 b4bc 8a05 2dbe fb58 863e
000001f0: bc06 99bd 4cf8 b53e 37e1 ce3e 0dd8 80be
00000200: 51ab ccbe 5f43 9a3d a627 963e 164e 32be
00000210: 22c3 073e 7ad9 9cbd 2a55 aebe c76c acbc
00000220: 8a7c d23d 4891 273e 3b55 2d3d 3715 dd3e
00000230: 1a08 52bf 3ca8 3d3e 05ec c3be 8249 91be
00000240: 9bef 0a3e 5919 b5bd d599 073f 086e fe3d
00000250: b1a7 203d f3bd 343e aa69 13be 7018 18bd
00000260: 0bbf 0c3e 7b62 94bd 1879 babd 2917 503e
00000270: 7cba 41be 4d6c 39be 2154 543e 2a7a 873e
00000280: 973f 3c3e 7428 57be 95df e0be 3814 00bd
00000290: 933d e2bb acf2 613e 3bcc 21be bfe1 92be
000002a0: 84ed 77be 0353 3f3d 0d05 9ebe b94d 16be
000002b0: db29 24be f1c8 3fbe 5cd0 4bbe ea5f 2c3e
000002c0: 78bb 383e 3926 b03d d059 23be 968f 153e
000002d0: 893d 8bbe 82d5 09be a869 d7bd e4bd 89be
000002e0: 0d4e 10be 4565 863e 3969 d6bd 6d69 4cbe
000002f0: 743e 863e 8bb0 b93d b091 c73d 7cc4 fb3d
00000300: f8bc d23d 470b 8cbd 2ffa bc3e 0bee 58bd
00000310: 26f5 d1bd e8e7 1e3e 6b0b 35be 0762 4dbe
00000320: ff01 f63d 398d 5cbd fc91 6fbe 323d 3c3e
00000330: 73c0 0c3e 4e5d 663e f974 923e 6f37 4fbe
00000340: 1526 21bc 45b6 0abf c53f 1f3e 4f0b ba3e
00000350: c6c0 a9bd 2b4e 2bbf 6ad7 1a3e 093b a93e
00000360: 36c8 df3d dbce c73e 9451 4abe 08e3 acbe
00000370: 01da 81bd 2fc2 f3be 2a05 66bd 9f2c 53be
00000380: 9b06 6c3c 824c 613e 7f9c 20be f339 e9bd
00000390: c9de fabb 4997 2ebd 6662 94be 000c 1dbd
000003a0: 884a 613e a357 813d 76cc a23e 54f5 1bbe
000003b0: e04a 8f3e f330 60be 1586 48be e77a 62be
000003c0: 6a0f 17be 30ca ddbe 577a 93bd 7a85 c2be
000003d0: 589a aebc 97db 00be 3415 30be d23f c8bd
000003e0: 772a 273e ec5b 32bf 803e 81be 9556 5e3e
000003f0: b4fa ab3e d850 1dbe be72 623e a134 95be
-0.19956161 0.40736812 -0.50646794 -0.10643771 -0.13524991 -0.09143563 -0.6623814 -0.09399907
0.20952307 -0.07866622 -0.10903939 -0.24410847 -0.06543214 0.20975062 0.20770107 -0.3547685
-0.23699059 -0.49913302 0.14209381 -0.07651928 0.2152093 0.13103946 0.21564984 -0.15450613
-0.0578496 0.11946907 -0.11238719 -0.35403746 0.19158037 0.24206094 0.07098649 -0.103148505
0.16392432 -0.1113985 -0.1339559 0.032533612 0.1891019 0.06634321 -0.2128288 -0.06581843
0.37533402 -0.08875545 0.18017344 0.093810506 -0.04476876 0.12900491 -0.04443163 -0.1040241
0.34085846 -0.05189449 0.36878607 -0.48379743 -0.17434628 0.15995805 0.0027267635 0.056190938
-0.2245478 0.025625568 0.10311757 -0.19851579 0.107992485 0.34417728 0.04958022 0.17528817
0.016920594 0.11840049 0.1398286 0.2992779 -0.2738251 0.40522876 -0.15637697 -0.28405005
0.0047338405 0.22287902 -0.18115819 0.16544026 0.34514004 0.082064345 0.10095006 -0.3271909
-0.12615523 0.0079296855 0.23227674 -0.16390036 0.27087346 -0.06561513 0.004137946 -0.1051103
-0.1244997 0.11533775 -0.10055167 0.07586927 -0.08942864 0.15727146 -0.35295054 0.41678396
0.033179004 -0.16695198 -0.30069223 0.03225065 -0.26183352 -0.094164886 -0.19338037 0.36028567
-0.07219886 -0.20566648 0.29755196 -0.16869144 -0.10000476 -0.41110316 -0.3371218 0.27709246
0.008076279 0.37836403 -0.6404993 0.060572688 -0.050296683 0.65350497 0.0085115535 -0.0016392632
0.3652387 -0.02199054 -0.16896644 0.26239762 -0.074719876 0.35540998 0.404062 -0.25164834
-0.39974454 0.07532381 0.29327124 -0.174126 0.13258031 -0.07658668 -0.3404935 -0.021047963
0.1027766 0.16364014 0.04231761 0.43180248 -0.8204361 0.18521208 -0.38266006 -0.28376395
0.13567965 -0.08842725 0.52969104 0.124233305 0.039222423 0.17650585 -0.14395776 -0.03713268
0.13744752 -0.07245346 -0.09105128 0.20321335 -0.18918794 -0.1810772 0.20735218 0.2646039
0.18383633 -0.21011525 -0.4392058 -0.031269282 -0.006904313 0.22065228 -0.15800564 -0.28687856
-0.24211699 0.046710026 -0.30863228 -0.14678086 -0.16031592 -0.18728997 -0.19903702 0.16833463
0.18040264 0.086010404 -0.1595223 0.14605555 -0.27195385 -0.13460353 -0.10518199 -0.26902688
-0.14092274 0.26249138 -0.104692884 -0.19962092 0.26219523 0.09066876 0.097445846 0.12293336
0.10289949 -0.068380885 0.36909625 -0.05296139 -0.102518365 0.15518153 -0.17680137 -0.20056926
0.120120995 -0.053845618 -0.23395532 0.18382719 0.13745289 0.2249653 0.28604868 -0.2023599
-0.00983574 -0.5418437 0.1555167 0.36336753 -0.08288722 -0.6691615 0.15121236 0.33052853
0.10926859 0.39025006 -0.19757682 -0.3376696 -0.06340409 -0.47609088 -0.05615727 -0.2062249
0.014405872 0.22001842 -0.15684699 -0.11388006 -0.0076559526 -0.042624746 -0.28981322 -0.038341522
0.22001088 0.063155435 0.31796616 -0.15230304 0.27986813 -0.21893673 -0.19582398 -0.22117196
-0.14751974 -0.4331832 -0.07201069 -0.3799246 -0.021313831 -0.12583767 -0.17195588 -0.09777798
0.16324793 -0.6967151 -0.25242996 0.21712716 0.3358971 -0.1536287 0.22114083 -0.29141715

a3.bias f4 [32]
00000000: 0176 8ebe 20ec ba3d 3219 123e dfcb c6be
00000010: 4363 abbe 11f4 4e3d 8edb 383e 9b56 3fbe
00000020: bae6 e4be 6f02 7bbe 4164 47be daa2 0fbe
00000030: 3122 2dbf cd3f 1bbe fc08 18be 4c57 f03e
00000040: e8a6 a53e 4f4f 76be 6744 fdbd 4be5 c4be
00000050: baec 39bd ebed 97be 4ac7 dcbd d0fb 85be
00000060: c14b b7bd 7d8c 843e 5320 b33e 8507 13be
00000070: e64f f7ba 6f4b 093e 7e63 a1bd e467 5bbe
-0.27824405 0.091270685 0.14267424 -0.38827416 -0.33474168 0.05052573 0.18052503 -0.18685381
-0.4470728 -0.24512647 -0.19471838 -0.14026967 -0.67630297 -0.15161057 -0.14847177 0.46941602
0.32353902 -0.24053691 -0.12366562 -0.38456187 -0.045391776 -0.29673705 -0.10780199 -0.2616868
-0.08949996 0.25888434 0.349856 -0.14358337 -0.0018868416 0.13407682 -0.07880305 -0.2142635

b1.weight f4 [32, 32, 3, 3]
00000000: 3704 fbbe f324 433e 417e bbbd 3135 28be
00000010: bcae bdbd b767 ffbd 632c 3bbd d643 623d
00000020: ff8e 9cbe 44f0 003c 7f72 f2be 1087 483e
00000030: 7490 97be 1aca 26bf b3a6 ad3d 16eb f13d
00000040: 1c7c eabe 3c9d cd3e 7b72 debc 8403 6c3e
00000050: a7b4 fc3c 7e28 063e 91a2 8f3e 40e0 44bb
00000060: f65d 4ebd 61b6 3f3d 89b0 afbd 26e1 933e
00000070: 1904 6b3e 82f5 783e 5f08 133e 5af3 bbbe
00000080: b4ed 653e d032 42be 5a33 49be ae71 92be
00000090: 0f6a 803e 4d73 d7be 8647 58ba 05d0 11bd
000000a0: 7ccd 603d b245 cabe 2b30 c1bd d2ac 25bf
000000b0: 2c81 033d 5fa6 063f 741c 35bf b123 b0bd
000000c0: 37db 5f3e cb04 41be 76f2 a73d 84ed bf3d
000000d0: 8215 c0bd c330 f2be 9c4b 8bbe 21fb e7bd
000000e0: dab8 4ebe f2ce 473d fa04 183e ea83 8fbd
000000f0: a587 93bd 306d 59bd 33a6 fbbd 80a2 7dbd
00000100: c7c4 5a3d 31b5 273d aa98 2a3d d78c 2bbe
00000110: 6f6b 1abd 992c 263c 1691 6e3d 88d8 c73c
00000120: 80d2 57be 2e53 a1be 845c acbe 9e55 efbe
00000130: 2e74 913e 90f6 e2bc 07a6 cbbe 34f7 3a3e
00000140: 4a05 ac3e 6124 623e ed0d 25be e662 e6bd
00000150: aed0 603e d502 133e 0329 c23e 5625 313f
00000160: 2bf0 09be 2542 90bd 84dd 81be 67c7 763e
00000170: 1a09 6bbe bf2d 3a3e 9a1d 5d3e cab7 52be
00000180: 7c07 173e a4f8 2dbc 7795 583d e78a 89be
00000190: 69c4 bdbe 3c08 17bf 0005 ab3e 71ab 38be
000001a0: ed18 b2be 5494 543e 7aa7 3d3e ced4 24be
000001b0: c932 77be 7591 b6be 2e3b 73be 0c49 18be
000001c0: 41fa 80bd 465e 153e da0d 4fbe 8363 afbe
000001d0: b8c4 cebb b315 5bbb 016f 503d 3efc 563e
000001e0: 4027 ac3d e8df 6fbd 11b0 09be 0c5f 4ebd
000001f0: 3996 9cbe e445 993d 6def b73d 1c6d 623e
00000200: 12f4 823d 9a3a 10bd afe2 d4be 06d0 87bc
00000210: 447e 6d3b 08e0 33be dc6d 64bd 0801 9c3d
00000220: f17e a83d a5af c83b 627d 85be 5e1d 3f3d
00000230: c158 89bc faf0 aabb 9963 c5be 8bd6 733c
00000240: abbb 54be 0165 96ba cc10 b73d 5549 593e
00000250: 5b43 c13e 49e7 4b3e 06e0 2b3d 6a2a 1abc
00000260: 55de 873e b6db ce3d a6a7 273e 0d7f 01bf
00000270: f8aa 87bc 3fd3 97bd ee5c 0dbf 3436 56bc
00000280: fb90 863e 6810 5abe ed2b a93e c2d4 63bd
00000290: 3448 0fbe 8915 043e 012e 11bf 176f 1abe
000002a0: 7c36 94bd e542 2abe 1ed1 eabd f9d7 83be
000002b0: 7d58 c33e 85d5 c0be 0468 423e 0aad 5d3e
000002c0: 5f14 d4bd 45c7 fdbd 04a5 8c3e efe7 4cbe
000002d0: c38e 87bd 8cad 00be 45e4 013e cfcd 043d
000002e0: 6405 6dbd 39ad ccbc cc8c 3a3e ee9a cf3d
000002f0: 2695 763e aa20 bc3d cde5 a4be 160a 8abe
00000300: 7958 093e 75bb fb3d 9002 433e 61fb d5bd
00000310: 6e48 27be 07c0 3abe da07 2fbe b780 1c3d
00000320: 7f35 2a3d 33fe 28be 4843 263e d54c a13d
00000330: 7c21 883e 8cc3 f5be 08c9 febd eea1 1fbe
00000340: be99 323e c1ef 93be 81c5 95be d480 10bd
00000350: f169 39be 6b23 fabd 5594 ab3e 57d3 093e
00000360: cf5d a13e 3bdc bdbe 7fd1 b7be 50a4 cfbe
00000370: 2b89 44bc 0760 0c3e f0d0 1fbc 374a 603e
00000380: db9f 783d eac7 713e 8ef0 cc3d f9bf e7be
00000390: 8ba1 143b a97d 3fbd 4d84 713e 7b4f edbd
000003a0: 3b93 c03e 48ac d43d 7561 fc3e 88be febc
000003b0: 6cf2 71be 3b62 de3d 2000 87bd b589 393b
000003c0: 685c 873b 9e44 b73e 9ec6 babe 4726 7f3e
000003d0: 2367 4abb 8e81 c9bd 2d24 49bf 4c11 babe
000003e0: 1ca6 f8bc 7b77 68bc 065e 733e 2618 bc3c
000003f0: b7d3 c03e 208c a7bd 8966 09bf ea02 0c3d
-0.49026653 0.19057064 -0.091549404 -0.16426541 -0.092618436 -0.12470954 -0.045696627 0.055240475
-0.30577847 0.007869784 -0.4735298 0.19582772 -0.29602396 -0.6515213 0.08479061 0.11812417
-0.45797813 0.40159023 -0.027154198 0.23048216 0.03084786 0.13101384 0.28053716 -0.003004089
-0.050382577 0.04680479 -0.08578593 0.28882712 0.22950782 0.24312404 0.14358662 -0.367091
0.22453958 -0.18964696 -0.19648495 -0.28602356 0.25080916 -0.42080155 -0.0008250404 -0.035598774
0.054883465 -0.39506298 -0.094330154 -0.6471683 0.03210561 0.5259761 -0.7074654 -0.086005576
0.21860968 -0.18849485 0.08200543 0.093714744 -0.09379102 -0.47302827 -0.27206123 -0.11327196
-0.20187703 0.048781343 0.14845648 -0.070075825 -0.072036065 -0.053082645 -0.12287559 -0.06192255
0.053410318 0.040944282 0.041649498 -0.16752945 -0.037700113 0.010142469 0.058243833 0.024395242
-0.21076393 -0.31508774 -0.33664334 -0.46745008 0.2840895 -0.02770546 -0.39775106 0.18258363
0.33597785 0.2208419 -0.16118594 -0.11249332 0.21954605 0.14356549 0.37921914 0.69197595
-0.13470523 -0.07043866 -0.25364316 0.24099503 -0.2295269 0.18181513 0.21593323 -0.20577922
0.14748949 -0.010618363 0.052876916 -0.26863787 -0.37063912 -0.5899694 0.33402252 -0.1803415
-0.34784642 0.20759708 0.18520918 -0.16096804 -0.24140467 -0.3565785 -0.23753044 -0.14871615
-0.06297732 0.14586744 -0.20220128 -0.3425561 -0.006310072 -0.0033429682 0.05088711 0.2099466
0.08405924 -0.058563143 -0.1344607 -0.050383613 -0.3058336 0.07484034 0.08981214 0.22111934
0.06394209 -0.035212137 -0.41579196 -0.016578685 0.003623859 -0.1756593 -0.055768833 0.07617384
0.08227337 0.006124454 -0.26072222 0.046658866 -0.016765954 -0.005216715 -0.3855255 0.014882694
-0.20774715 -0.0011474193 0.089387506 0.2121938 0.377467 0.19912447 0.041961692 -0.009409526
0.26536813 0.101005 0.16372547 -0.5058449 -0.016561016 -0.07413339 -0.55219924 -0.0130744465
0.26282486 -0.21295321 0.33041325 -0.055622824 -0.13992387 0.1289884 -0.5671082 -0.1508144
-0.072369546 -0.1662708 -0.11465667 -0.25750712 0.3815345 -0.37662902 0.18984991 0.2164804
-0.10355448 -0.12391523 0.27469647 -0.2001035 -0.066190265 -0.12566203 0.12684734 0.032422837
-0.05786647 -0.024984943 0.18217772 0.10136972 0.24080333 0.09185918 -0.32206574 -0.2696082
0.13412656 0.12291614 0.19043946 -0.10448337 -0.16336223 -0.18237315 -0.17092839 0.03820869
0.041554924 -0.1650322 0.16236603 0.07875983 0.26588047 -0.48000753 -0.124406874 -0.15589115
0.1744146 -0.28893855 -0.29252246 -0.03527911 -0.1810682 -0.12213787 0.33511606 0.13459526
0.31516883 -0.37082085 -0.3590202 -0.40555048 -0.011995594 0.13708507 -0.009754404 0.2190331
0.060699325 0.23611417 0.1000682 -0.4526365 0.0022679295 -0.0467507 0.23585625 -0.11587425
0.37612328 0.103844225 0.49293104 -0.031096712 -0.23627633 0.1085858 -0.06591821 0.002831084
0.0041308887 0.35794538 -0.36479658 0.24916945 -0.0030884228 -0.09839164 -0.78570825 -0.3634132
-0.030352645 -0.014188643 0.23766336 0.022960734 0.37661526 -0.081810236 -0.5367208 0.034182467

b1.bias f4 [32]
00000000: ad84 94bd 3fe6 68be ae31 06bf 58b7 8ebe
00000010: b35d 2b3f b493 1abe aec2 43be 31dd babb
00000020: 8bd1 36be 9469 10bf af07 e2be 67b4 343e
00000030: 9495 c9be 9f1e bdbe c909 b93d 0346 74be
00000040: a56f 4cbe 5c21 38bf 7bd9 37be e237 ac3e
00000050: ba71 46be da56 c0be 5102 213f 1292 11bf
00000060: 13bb 5dbd 4bff 61be 113c d3bd 8751 5bbf
00000070: eba8 36bd b030 dfbc b3ab 053e 8ede 17be
-0.072518684 -0.22744082 -0.52419555 -0.27874255 0.6693985 -0.15095407 -0.19117233 -0.0057026376
-0.17853372 -0.564111 -0.44146487 0.17646943 -0.39371932 -0.36937425 0.090350695 -0.23854832
-0.19964464 -0.719259 -0.17954056 0.33636385 -0.1937932 -0.37566262 0.6289416 -0.5686351
-0.054133486 -0.22070043 -0.10314191 -0.85671276 -0.044594686 -0.027244896 0.1305378 -0.14830992

b2.weight f4 [32, 32, 3, 3]
00000000: 3312 5d3e f60b b83d 5e94 43bd 42e5 2a3e
00000010: 12b9 3fbe 0fcb c33e 0d13 11be ea86 87bd
00000020: ad1c 093e f7e6 a13e 912d 99bd 0f8a a2bd
00000030: 13a8 3dbe 8aa0 1dbe 5996 77be fd1b 5d3e
00000040: c76c d53d cf83 0fbf ea02 0fbe 008d 353e
00000050: 31fa 0bbf d6de 3a3d 553c 8dbe 2c9c 173e
00000060: b95f 83be f7b8 1ebe 9a89 13be 9e65 f63e
00000070: 265b dabd db64 ec3d 1604 123f 208d 83bd
00000080: 4d59 37be eaf0 0dbd 6bf9 d6be 94f9 31be
00000090: 3140 14be ceab ee3d 1a3b a8be 98e5 093d
000000a0: 55b3 7b3e 5521 a8be 8a3d 0abf c203 353e
000000b0: 39c1 8e3e 29ae 1f3f b807 e7be d287 a8bd
000000c0: f887 58be 4fab 07bd cd5b aebe eae1 a43d
000000d0: 8bf7 ff3e 0682 4d3f 73ea 853d 394f a7be
000000e0: 31a5 123e d90f 7ebe d7d3 b0bd fb10 a9bd
000000f0: 1cc4 3c3e 57d8 043e da0b 99be 8587 a13e
00000100: 14f9 07be 2aec 2dbe 8884 e1bd 30c9 d23c
00000110: 0caf 983d 7b29 4dbc e2cc 083e 1053 3abe
00000120: db71 32bd e454 9abe 2d26 8c3e 5bca b1bb
00000130: 7a52 a63c da3d 27be 1c99 17be d499 803d
00000140: 926e b3be 0e1b b8be 113a c8be 057d 89be
00000150: 9b1a 483e 91cf f8bd eb35 af3e 3ef0 df3e
00000160: cfa6 a03d cb52 3d3b 4b36 bfbc 4116 3cbe
00000170: 1ee7 4bbe cccc 21be 28dd 79be 7457 42be
00000180: 713c d53e 785a ab3e aee8 3dbe 155b 103e
00000190: 331c c2bd efbd 483e f1d0 5ebe 3b86 2b3e
000001a0: 94b2 85be 93d2 cdbe 137b 1f3e 42c6 2ebe
000001b0: 4b54 98be 2254 45be 31f6 8f3d 6d87 483e
000001c0: 4177 ffbd cc5c 6bbe 1d71 d4be 0f95 e83d
000001d0: 1c2f a83d 1eba c9be 2c02 abbd 25fd 0dbf
000001e0: 2434 923c ff84 94be 7b2a 2c3e e52a a7bd
000001f0: c7ab d2bd 4e68 c0be ba54 903e 1bbc 63bd
00000200: 3255 e2bd 22ec 983d 7d20 07bf ee79 063d
00000210: 4a4c 47be ceb6 8e3e ec52 9c3d 8e36 13be
00000220: 444b c1bd fce2 41be cbac a33e 8c13 f6be
00000230: 6189 ba3d 1dc0 503d 886c 543e 27ba 0c3e
00000240: c8f9 8a3e ceac aebd 2693 cfbd 3e2b 5fbb
00000250: 4e43 3abe bdc4 503e 2aae f53c 140f a53e
00000260: 85ed 3dbe 66e2 abbd df3b 18bd 9b19 843e
00000270: f1bf 203e 83c9 893d b05f 103e 0dd6 6fbe
00000280: 67e6 183e e704 3cbe 766d 7fbd 9a61 b53d
00000290: a89d 0cbd edc3 01be 95f0 b1bd 3bb6 97be
000002a0: 3d7f 28be 5fd8 2ebe 0149 253d 7fe2 ad3e
000002b0: 9c44 1d3d e2c5 a9bd cdba 1d3d cbeb 703e
000002c0: de07 263e 9d3b b9bd c7c6 8c3d 3fd0 88bd
000002d0: 547a 0ebd 9d00 67be bb01 f93b 1a3f 753e
000002e0: dc00 16be 2cd0 5dba 279b afbe 48b0 8dbd
000002f0: 9ff6 cbbe b600 8abe 9251 56be 4507 e73d
00000300: 111b 1f3e c3ab 653e ece8 dc3e 0fc4 2dbe
00000310: d1be a6be 4f3b 8ebd 404d c23e f954 b1be
00000320: 31d9 ed3d 31ad a33d 7dd5 34bd 227c 563e
00000330: 8e59 3ebf aafe c03e d2e5 1abe 55fe 80be
00000340: b706 25be 0d53 76be 5882 743c ae91 03bf
00000350: cd48 3f3f 81a1 e53d 3088 d73d 05ff 093e
00000360: 9944 febc bd92 16be fb19 6abd 0327 9c3d
00000370: e32c 51be 5db4 2d3c 51d4 a73e 0997 4b3e
00000380: d4ba 80be faee 523d bf48 30be d090 973e
00000390: 401c 363d 56ce 963e 5968 cdbd 060a e5bd
000003a0: 5957 7cbe f3ee 2a3e e713 063e 8118 11be
000003b0: b112 c93d 237c ccbd a738 fc3d 93c4 793e
000003c0: 42eb ebbe 8c89 b7be dbb7 4abe 6498 463e
000003d0: 49b1 7fbe 9b57 df3e 5656 673e 42bb 02be
000003e0: a2c9 d5be a4c6 f93a 62af 16bf 6d8a 113e
000003f0: fef4 573d 4e0c 3f3e 1cea 8d3e d36f b0bc
0.21588974 0.08986656 -0.047748916 0.16689017 -0.18722942 0.3824086 -0.14167424 -0.0661753
0.13389845 0.31621525 -0.07479394 -0.07936489 -0.18521146 -0.15393272 -0.24178447 0.21592708
0.10421138 -0.560605 -0.13965955 0.17729568 -0.54678637 0.04562267 -0.27585092 0.14805669
-0.25658968 -0.15500246 -0.1440796 0.48124403 -0.106619164 0.11542674 0.57037485 -0.06423402
-0.1790516 -0.03465358 -0.41987166 -0.17380363 -0.14477612 0.11653863 -0.3285759 0.033666223
0.24580128 -0.3283793 -0.5400015 0.17677215 0.27881792 0.6237512 -0.45123076 -0.08229031
-0.21145618 -0.033122357 -0.34054413 0.08050902 0.49993548 0.80276525 0.06538858 -0.3267763
0.14320828 -0.24810733 -0.08634155 -0.08255192 0.18434185 0.12973152 -0.29891855 0.31548706
-0.1327861 -0.1698462 -0.110116065 0.0257307 0.074552625 -0.012522097 0.13359407 -0.18195748
-0.043565612 -0.3014289 0.27372876 -0.005425734 0.020303 -0.16332188 -0.148045 0.062793404
-0.35045296 -0.3595814 -0.391068 -0.26853195 0.19541399 -0.12148965 0.34220824 0.43737978
0.07844316 0.002888846 -0.023341319 -0.18367864 -0.19912383 -0.1580078 -0.2440077 -0.18978673
0.41647676 0.3346746 -0.18545792 0.14097245 -0.09478035 0.19603704 -0.21759392 0.16750424
-0.26112807 -0.40199718 0.15574293 -0.17067817 -0.2975181 -0.19270375 0.07029379 0.19582911
-0.12473918 -0.22984618 -0.4149255 0.11356556 0.082121104 -0.3939981 -0.083500236 -0.5546439
0.017847128 -0.29007718 0.1681308 -0.08162478 -0.1028667 -0.37579578 0.2818964 -0.055599313
-0.11051406 0.07466914 -0.5278395 0.032831125 -0.19462696 0.27873844 0.076330036 -0.1437628
-0.09438184 -0.18934244 0.31967768 -0.48061788 0.09108234 0.050964464 0.20744526 0.13742886
0.27143693 -0.08529054 -0.10135488 -0.0034052874 -0.18189737 0.2038755 0.029990274 0.32238066
-0.18547638 -0.083927915 -0.037166473 0.25800785 0.1569822 0.067278884 0.14099002 -0.23421498
0.14931642 -0.18361245 -0.06236025 0.08856507 -0.03433004 -0.12672396 -0.086884655 -0.29631218
-0.16454788 -0.17074727 0.040352825 0.33961865 0.03839551 -0.08289696 0.038508225 0.23527448
0.16213939 -0.090445735 0.06873851 -0.06680345 -0.03478463 -0.22558828 0.0075990832 0.23949853
-0.14648765 -0.0008461501 -0.3429806 -0.069183886 -0.39836594 -0.26953667 -0.20929554 0.112806834
0.15537669 0.22428803 0.43146455 -0.16969322 -0.32567456 -0.06944906 0.37949562 -0.34635141
0.116136916 0.07992018 -0.04414891 0.2094579 -0.743554 0.37694293 -0.15126732 -0.2519404
-0.16115843 -0.24055119 0.0149236545 -0.51394165 0.7472046 0.11212445 0.105240226 0.13476188
-0.03103857 -0.14704414 -0.057153683 0.076246284 -0.20427279 0.010602084 0.32779172 0.19881834
-0.2514254 0.051497437 -0.1721525 0.2960267 0.044460535 0.29454297 -0.10029668 -0.111835524
-0.24642695 0.16692714 0.1309353 -0.14169504 0.09818018 -0.09984615 0.12315493 0.24391393
-0.46077925 -0.35847127 -0.19796698 0.1939407 -0.24969973 0.43621525 0.22591528 -0.12766746
-0.41755396 0.0019056392 -0.5886136 0.14212961 0.052723877 0.18657038 0.27717674 -0.021537697

b2.bias f4 [32]
00000000: 1d5e 2d3e 2846 5bbf d9cb 15bf 53ff 3abf
00000010: 893d 19be e4b8 21bf cce9 cabe 79bb f4be
00000020: e04e dd3e a778 a93d f157 e43c 25f5 a0be
00000030: 63e6 bfbe 41e4 22bf 998d 16be 7043 3b3e
00000040: 7056 67be 30c8 cebe a489 13be daf4 84be
00000050: beac 2bbe f4a9 9a3e e10a 0cbf ec1f d23e
00000060: 0f58 0dbf 111e a33e c84d 0e3e c7f3 f13d
00000070: be42 3cbf b51e 18be 4753 c53e 6941 2abe
0.16930433 -0.85653925 -0.5851417 -0.73045844 -0.1496488 -0.63172746 -0.39631498 -0.4779928
0.4322424 0.08274966 0.027873965 -0.3143703 -0.3748046 -0.6362954 -0.14702453 0.18287444
-0.22591567 -0.40387106 -0.14407974 -0.25968057 -0.16765115 0.3020779 -0.547041 0.4103998
-0.5521249 0.31858876 0.13896859 0.11814075 -0.7353934 -0.14855464 0.38540098 -0.16626514

b3.weight f4 [64, 32, 3, 3]
00000000: 0b5b 9ebe 0081 203c b2df 54bd 00f6 dabd
00000010: af2a 923c 9d7a 49be f23b 4d3d 2689 d0be
00000020: daa9 c73c 082c 033d b8c7 8ebe 3920 a83e
00000030: 1b76 a1bc 22d1 523e 5389 a4be 58df 31be
00000040: b8dc 64be 0762 57be 9221 56be 4872 dcbd
00000050: de9d 5f3d 8ba8 ec3d 09ef b8bd 9e1b a8be
00000060: aa92 2d3e 191e be3e 35c5 27be 4e51 a3bd
00000070: bc9f 5dbe c1ea 113e 9c47 d33d 7ba1 963e
00000080: df67 49be f712 1d3d a4a7 fbbd 7816 4e3e
00000090: 37a3 523e fafe f03c 7421 fd3d 4d07 39bf
000000a0: b482 a73d 2c55 003f fb60 ccbe d692 983e
000000b0: 8a28 033e 3633 febd 8be5 293f d80a 4e3e
000000c0: 6f85 593e 157f 7fbe ebc5 9e3e 6615 13be
000000d0: 158d c2bd 4dc4 c7be e873 d4bd 09e4 013d
000000e0: 0123 8ebe d028 a23d 9a68 f23d cb1a da3d
000000f0: 3fd2 dfbd 8116 f8bd 23a4 6cbc 9d8a 83be
00000100: 4b19 83bd cb57 783e 99eb adbd ff06 38bd
00000110: 5f36 1bbf 7619 713e 176d d93e 231d 6dbe
00000120: 01c5 f2bd 138b d93d a23c c0bd a6c6 c9bd
00000130: b368 263e f047 35bd 63a7 06bd a7db c3be
00000140: 4d72 dc3e d629 a2be 8871 373e bab9 d53d
00000150: 7980 823c 0288 c33e 2cb8 8ebe 4eab 97be
00000160: 60c2 18bf 253a 30be d6cd 4abe 5352 b2be
00000170: fe9a 5bbe 50bc b33d 6e28 10bc be7b d43d
00000180: e7c5 a1be 6fe4 553c b115 93be 8cd5 3d3e
00000190: 00bf 5cbc 310e 643c 6cb8 743e 45fa fc3c
000001a0: 6ee8 513e ddb9 1bbc 5ff1 f93e 14c1 8d3e
000001b0: 5fff 033e 5f05 0f3e 3a2b 543e a7ce 253e
000001c0: 8b90 f7bd 1fee e9be 4e42 06be c1fb 87bc
000001d0: 184e d03d 48e9 28be 6fff 1ebe 185c 003e
000001e0: 480a f93c 9097 023f abbc 8d3e 5537 aebc
000001f0: 785c bfbd 0522 973e ce4d 693e c028 b5be
00000200: 4478 51bd c2f9 1e3e 4b99 61be b2ad 5e3e
00000210: 17d5 a3bd b00b 86bd 48ee 30bf a79a 1fbe
00000220: c018 50be f08b 303e bb77 7ebd af1e 62be
00000230: 1fdc 35bf f789 51be 1c6b 98bd 21cd ddbd
00000240: cdd8 603e e71e b2be bd44 a7be c6e6 e33e
00000250: b14c aabe ad2a d13d d89f 48be 2bf9 9ebe
00000260: 6d23 c2be 3919 57be 4e25 1dbd b1a0 b43e
00000270: 5e2a ff3d 11be 5e3d 4a7c 92be 9b30 c5be
00000280: 3b92 843c 39a1 f7be 925a d43e cdb2 b13d
00000290: 748e ae3d f51e 01be df73 a5be ac12 88be
000002a0: 076d 91bd 5020 99be 7128 66bd bac7 2b3e
000002b0: c482 65be 7032 a4bb 4feb 95bd 6c50 cabe
000002c0: b561 033e a4a1 42bd 5338 a73d cafc 4bbe
000002d0: 3f93 e63d 333b 243b 2f5d f5bd 909e ad3e
000002e0: 0ec1 babd d97f 2c3e 8de8 6cbe de1d 7e3e
000002f0: 8801 903d 9195 21bd 6655 54be 3921 cb3c
00000300: f791 adbe 7dcb e33d ecb0 b03d 0a2c 8bbd
00000310: 612b 153d 7394 d6bd 700d d0be 98d4 6cbe
00000320: e438 293e 2ec3 373e ae21 173e 909e 40bd
00000330: 5b8b 163e 0c3f 77be ef6f 4ebe a688 bc3d
00000340: cad3 9c3d ea41 c5be 5669 b33d dd79 41be
00000350: 29eb 0c3e d118 993d e97b adbe 8d66 2a3e
00000360: ed76 32bd a3b1 dfbd 4152 853d 05f5 07bd
00000370: f2c9 92be 6984 b6bc 9420 b83c 6f6b 563e
00000380: 61e8 86bd 1ede 473b d390 23be 44e5 893e
00000390: 7a06 073f 3dd4 e63d f11a 613e 9153 f33d
000003a0: 3b03 963e 286b 2d3d 71aa 2f3e a1ff b13d
000003b0: 6d40 9e3d c3c7 97bd aeaf a03e 7b92 bf3e
000003c0: 7de7 3fbe 6e21 0cbf 1385 173e 7313 f6bd
000003d0: 0094 34be 4959 873b eae5 1c3e 1f62 0b3c
000003e0: 96fe 023e 5a01 0cbd 4dea 9cbe 975b ac3e
000003f0: 2670 15bd 355a 4e3d bdae 833e 9a91 d4bd
-0.30928835 0.009796381 -0.051971145 -0.10691452 0.017842619 -0.1967568 0.050105996 -0.40729636
0.024372984 0.032024413 -0.27886748 0.32837084 -0.019709637 0.2058759 -0.3213602 -0.17370355
-0.22349823 -0.21033488 -0.20911244 -0.10763985 0.054593913 0.115555845 -0.09029967 -0.3283357
0.16950479 0.37132338 -0.16383822 -0.07974492 -0.21642965 0.14249708 0.10316393 0.29420075
-0.1966853 0.038348164 -0.12287834 0.20125759 0.20570074 0.029418457 0.12359896 -0.72276765
0.081792265 0.5012996 -0.3991774 0.29799527 0.12808433 -0.124121115 0.6636588 0.20121324
0.21242307 -0.24950822 0.31010374 -0.14363632 -0.094995655 -0.39016953 -0.1037367 0.031711612
-0.2776108 0.079179406 0.118363574 0.106496416 -0.10928773 -0.12113667 -0.01444343 -0.2569169
-0.064013086 0.2425224 -0.08492202 -0.044928547 -0.6062984 0.23544869 0.4246604 -0.23155646
-0.11853982 0.106222294 -0.09386565 -0.09852342 0.16250877 -0.044258058 -0.032874476 -0.3825352
0.43055955 -0.31672543 0.17914402 0.10435815 0.015930401 0.38189703 -0.27874887 -0.29622883
-0.5967159 -0.1720968 -0.19805083 -0.34828433 -0.21445844 0.08776152 -0.008798702 0.103751644
-0.315963 0.013054951 -0.28727487 0.18538493 -0.013473272 0.013919399 0.23898476 0.030881057
0.20498821 -0.0095047625 0.48816964 0.2768637 0.12890385 0.13966893 0.20719615 0.16192113
-0.12088116 -0.45689484 -0.1311123 -0.016599538 0.10171145 -0.1649524 -0.15527128 0.12535131
0.03040041 0.51012516 0.27683005 -0.021266619 -0.09343809 0.29518142 0.22783586 -0.35382652
-0.051140085 0.15524963 -0.22031133 0.21745947 -0.07999628 -0.06545198 -0.6911359 -0.15586339
-0.20321941 0.17240882 -0.062125903 -0.22082017 -0.71039003 -0.20462786 -0.074423045 -0.10830141
0.21957703 -0.34789202 -0.3266963 0.44512004 -0.33261636 0.10213218 -0.19592226 -0.31049475
-0.37917653 -0.21005715 -0.038365655 0.35278848 0.12459253 0.05438048 -0.2861045 -0.38513646
0.01618301 -0.4836519 0.4147535 0.08676682 0.085232645 -0.12609465 -0.32314965 -0.26576746
-0.071008734 -0.29907465 -0.05619091 0.16775408 -0.22413164 -0.0050108954 -0.07320272 -0.39514482
0.12830241 -0.047517434 0.0816504 -0.1992065 0.11258554 0.00250597 -0.11980664 0.33910036
-0.091188535 0.16845645 -0.23135586 0.24816081 0.07031542 -0.03944928 -0.20735702 0.024796115
-0.33900425 0.11122797 0.08627495 -0.06795509 0.036418322 -0.10477533 -0.40635252 -0.23127973
0.16525608 0.17945549 0.14758942 -0.047026217 0.14701597 -0.24145144 -0.20159887 0.09205751
0.07657583 -0.3852685 0.087603256 -0.18894143 0.13761581 0.074754365 -0.33883598 0.16640683
-0.043570448 -0.109225534 0.06509829 -0.033192653 -0.28669697 -0.022279935 0.022476472 0.2093942
-0.065872915 0.0030497382 -0.15973215 0.26932728 0.5274426 0.1127095 0.21982934 0.118811734
0.2929934 0.04233852 0.17154862 0.086913355 0.07727132 -0.074111484 0.31384033 0.37416443
-0.1874065 -0.5473851 0.14796858 -0.120154284 -0.17634583 0.0041305167 0.1532208 0.008507281
0.1279243 -0.034180976 -0.30647507 0.33663628 -0.036483906 0.050378997 0.25719252 -0.10379334

b3.bias f4 [64]
00000000: 0a33 173e 4fd1 e03d 2b02 9abd 7959 08bd
00000010: 89a2 cebc 9792 93be f455 6b3d a077 ea3d
00000020: 1aca bfbe 44c3 59be df6e 81be d423 403e
00000030: 8829 933d 5e52 743e 702b 7bbe 2fff e8bd
00000040: 3927 edbd cbe0 d83b 51f4 11bd 3e4d 5c3e
00000050: 0a48 4cbd 211f b9be 12a0 27bb 37ee 843e
00000060: f869 683e a862 9ebe fd62 18bf 317f e3bd
00000070: 76ab db3e 81a2 08be be6d 903d 5b38 b9bd
00000080: 0961 48be 1e5d c3bd f124 c4bd f5a8 e73d
00000090: d22c f2bd f511 abbe b3fe 263e eeb1 34bd
000000a0: ae42 a93d c9f7 9a3d 9859 9f3e b945 d53e
000000b0: 1845 f1bd 90bb 03be d577 2b3e 5520 42be
000000c0: 271d a0be b1f6 8ebe 4326 11bd 2617 963a
000000d0: 3830 06be a0a2 023e 13a6 273d 9c0e 0ebe
000000e0: e3cf 233e 8444 6b3e ee53 e4bd 5bc6 ebbc
000000f0: 9762 83be 23d7 983d 2c35 b839 9c6a 17bf
0.14765564 0.109774224 -0.07519945 -0.033288453 -0.025223987 -0.28822777 0.05745502 0.11448598
-0.3745888 -0.21265894 -0.252799 0.18763667 0.07185656 0.23859546 -0.24528289 -0.113767974
-0.11579747 0.0066185943 -0.03563339 0.2151384 -0.04987339 -0.36156562 -0.0025577587 0.25962994
0.22696674 -0.30934644 -0.59526044 -0.11108244 0.42904252 -0.1334324 0.07052182 -0.09043952
-0.19568266 -0.09539245 -0.095773585 0.11311523 -0.11824955 -0.33412138 0.16308098 -0.044115
0.08264671 0.075667925 0.31123042 0.41654757 -0.11780757 -0.12864518 0.16744931 -0.18957646
-0.3127224 -0.27922586 -0.03543688 0.001145099 -0.13104331 0.12757349 0.040929865 -0.1387276
0.15997271 0.22975355 -0.11148821 -0.028781107 -0.25661156 0.07462909 0.0003513483 -0.5914705

c1.weight f4 [64, 64, 2, 2]
00000000: 3b7a f8bd c20b 9f3d 8f71 cabe ee6c 01be
00000010: 5c55 823d 7150 8d3c 9d37 1d3d fbf2 473d
00000020: 703c aabd 62a2 55be 3b9d d03d 9cd2 523d
00000030: fb82 b1bc baba ab3d 0b00 2cbc 3799 863d
00000040: 21c1 4b3d 005c 12bf f6ad c9be a8ed 83bb
00000050: f697 debc 9b20 53be 9056 83be 339c 60be
00000060: 6b27 6c3e 35fd 98be 2a7b 423e 413c 55be
00000070: 9d1b a9bc c33a f03b 9080 3cbd 8038 233d
00000080: 1dbf d43c d404 e63d eb0d 14bd 5fc5 5b3e
00000090: a364 d53d 7d8e 26bf 2f78 8f3e ce57 c0bd
000000a0: 411d cbbc aaad 83be d488 e3bd 5dad 8cbd
000000b0: 6596 07be e914 4dbe db5d f13d 7657 13bd
000000c0: e30d 9a3e d951 f3be e77e 99be d5a7 24bd
000000d0: 6380 46bd 3342 d4bc 1237 2f3d 1db5 583d
000000e0: 8b3a 1b3d f849 ba3e 41b1 c8bd c193 99be
000000f0: e16e d4be 7d07 b03b add7 25be 1abf a33e
00000100: 2b7f 463e 2a5e 26be f3a0 5fbf fb18 60be
00000110: 5704 aabe b40c bbbd 1e3a 8b3d e4d9 0a3e
00000120: aeba 943d 9ed2 00be 9524 963e 659b 5bbe
00000130: 2dba b2be 2332 3a3e 931e b8be 0f1b 2cbe
00000140: ade3 95bc e148 743d 597d 18be b361 45bc
00000150: 8676 193e 2372 a63e 2892 043d 16a7 e2bd
00000160: 47cb 953e 6710 11bd 217d 17be 06aa c6be
00000170: 8d3c 693c 772d 8c3e ee6c debe 8efe 223e
00000180: a40d 853d 6ba2 babd 4b92 a13c 6027 b6be
00000190: 58e1 c7bb 2404 26be dae8 1c3f 1850 34be
000001a0: 0725 18bd fc38 d13b 3cf7 cdbe 245a 41be
000001b0: b661 82bd 2127 9fbc 68f3 663d 08f6 533d
000001c0: fdd1 5abe e0df 9b3e 1653 3bbe eaf2 423e
000001d0: 710c 853d 9dd9 17be e3f5 9cbe 9be8 42be
000001e0: 4713 5ebe 5909 c7be 38f6 2b3e 45ea 9c3e
000001f0: cd73 0f3d 0054 99b8 8ae2 ccbb 9cab 8dbc
00000200: cc03 24be 319f a13e 1524 a93e 764b 193e
00000210: e74a 3f3d 6c63 b53b 861a 69bd 2066 a1bc
00000220: eee0 4e3e 383d 4f3e ff4c 0d3c af97 bfbe
00000230: 0535 2a3e 4fc4 bdbe 62a6 59bc 906e e23b
00000240: e263 0f3e c4bf fabb 2b42 543e 3e22 96bc
00000250: e612 89be ce4e 453e 1276 363e 7bec 083e
00000260: 020e 483d 9f70 663e f4b2 173b 2a4b 923e
00000270: 23c0 63be a053 c83e 8edc 85be 19eb b63d
00000280: 7772 c73d 1421 a33d f118 503e 822c 0dbe
00000290: f117 75be 6da7 d33c ec92 5ebd 4eea 8ebc
000002a0: d490 8dbe 3413 eebd bf03 793e 64e7 853d
000002b0: e40d 1dbe 7fd8 023e dec1 2bbe c7ff 273e
000002c0: 4a7e 0e3d f2db 1dbd ed54 8bba 5db1 fa3c
000002d0: 9748 80bc 2038 6abd 3249 1f3d 9c76 9e3c
000002e0: d9b8 a23e fb7c b6be e6b0 3cbe 5545 0cbf
000002f0: 7f7b b83e 54a4 69be f710 8d3e 0beb 77be
00000300: 5f59 b6bd 23fc 8b3c 32fa 1e3f 08ef 44bd
00000310: 1a78 bbbe ed8a bebe fde7 6b3e 1fa8 833e
00000320: 856f e8be 69fc 27be 8ab3 cbbd 8afd b13c
00000330: af14 363e 672f 6abe c837 853e 421f 98be
00000340: 8666 443e 3fd5 80be 4edb 03bf 985e 9ebe
00000350: 61f3 c3bd 5430 4ebc 7c1e b6be ec74 09be
00000360: 80f9 3e3e fe22 0dbe 0eb0 05be e2fd 813d
00000370: 04ff 9c3e e5fc 25be 2ceb 1f3e 9767 e1be
00000380: 6c01 f83d ab08 30bd 4f17 8c3e 6d04 9fbe
00000390: c521 93be da65 883e efea b93d d3d1 aa3e
000003a0: a11b 613b 77d1 6a3d 0db0 fe3c 9411 f2bb
000003b0: d14c 813d a7f1 ffbc 0b8c 4cbd bbc5 85bd
000003c0: 8444 943d 5284 42bd 1fbe 7a3e afcb 88bd
000003d0: ddc1 e33e 4a24 89be 7c36 b0bc d47f b7be
000003e0: 4d08 0abe 08a3 843e 6877 babd 966d ed3e
000003f0: 1eeb 233e b0b9 493e 475d cd3e 4bb7 033d
-0.121326886 0.077659145 -0.39539763 -0.1263921 0.06363937 0.017250272 0.038383115 0.04881571
-0.08312309 -0.20862725 0.10186239 0.051470384 -0.021668902 0.08385225 -0.010498057 0.06572192
0.04974473 -0.5717163 -0.39390534 -0.0040261336 -0.02717207 -0.20617907 -0.2565198 -0.21934585
0.23061912 -0.29880682 0.18992296 -0.20823766 -0.02064305 0.0073312237 -0.046021044 0.039848804
0.025970036 0.1123139 -0.036146086 0.2146201 0.104195856 -0.6506117 0.2802138 -0.093917474
-0.024794223 -0.25718433 -0.11110082 -0.06869004 -0.13240965 -0.20027508 0.1178548 -0.03597208
0.3008872 -0.47523382 -0.2997963 -0.04019912 -0.048462283 -0.025910472 0.04277713 0.052907098
0.037897628 0.3638456 -0.097994335 -0.2999554 -0.41490844 0.0053719864 -0.16195555 0.31981736
0.19384448 -0.16246858 -0.87354964 -0.2188453 -0.33206436 -0.09133282 0.06798194 0.13559681
0.07262169 -0.12580344 0.29324785 -0.21445997 -0.34907666 0.18183188 -0.35960826 -0.16807197
-0.01829704 0.059639815 -0.14891566 -0.012047219 0.1498662 0.32508954 0.032365948 -0.11067025
0.2925665 -0.035416033 -0.14793827 -0.38801593 0.014235628 0.27378437 -0.43442482 0.15917417
0.06496742 -0.0911301 0.019723078 -0.35576916 -0.006099861 -0.16212517 0.61292803 -0.17608678
-0.037144687 0.006384967 -0.40227687 -0.18882042 -0.06366293 -0.019427838 0.056384474 0.051748306
-0.21369167 0.3044424 -0.18293414 0.19037977 0.06496514 -0.14829107 -0.30656347 -0.19034044
-0.21687041 -0.3887432 0.16793144 0.30647483 0.035022546 -7.311255e-05 -0.0062525915 -0.017293744
-0.16017073 0.31566766 0.3303534 0.14970192 0.04670229 0.0055355337 -0.05691006 -0.019702017
0.20202991 0.20238197 0.008624314 -0.37420413 0.16621788 -0.37063834 -0.013284298 0.0069101527
0.14002946 -0.007652255 0.20728366 -0.018326875 -0.2677223 0.19268343 0.17818478 0.1337146
0.048841484 0.22503899 0.0023147436 0.2857297 -0.22241263 0.391263 -0.26144832 0.0893156
0.09738629 0.079652935 0.20322014 -0.1378651 -0.23934914 0.02583667 -0.054339334 -0.01744571
-0.27649558 -0.116247565 0.24317835 0.06538275 -0.1533733 0.12777899 -0.16773173 0.16406165
0.034788407 -0.038539834 -0.0010630168 0.030602152 -0.015659614 -0.05718243 0.038888164 0.019343667
0.31781653 -0.35642228 -0.18426856 -0.5479329 0.3603172 -0.22816592 0.27552006 -0.24210756
-0.08903765 0.017088002 0.6210052 -0.04807952 -0.36615068 -0.37215367 0.23037715 0.25714204
-0.45397583 -0.1640488 -0.09946354 0.021727342 0.17781328 -0.22869645 0.2601912 -0.29711348
0.19179735 -0.25162694 -0.5150651 -0.30931544 -0.09567905 -0.0125847645 -0.35570133 -0.13423508
0.18649864 -0.1378288 -0.13055441 0.063472524 0.3066331 -0.16209753 0.15617055 -0.44024345
0.12109646 -0.042977016 0.27361533 -0.31058064 -0.28736702 0.26640207 0.09078013 0.33363208
0.0034348744 0.057328667 0.031089807 -0.0073873494 0.0631348 -0.031243159 -0.049938243 -0.06531855
0.07239631 -0.04748947 0.24486588 -0.066794746 0.44483843 -0.267855 -0.021510355 -0.35839713
-0.13479729 0.25905633 -0.09104806 0.4637267 0.16007659 0.1969974 0.40110227 0.032157224

c1.bias f4 [64]
00000000: 1a55 ec3e 1ba6 04bf af3b a7bd 4b03 95be
00000010: f91a f9be 3109 15bf 7075 48be 2206 d9be
00000020: 5e69 b53e 255a b7bb 35e0 0c3f 88bf 21bf
00000030: 745c 0abf c466 863e a84e babe 6610 26bf
00000040: 1c0b b3be 87f4 64be c6db 99be f8bf 90be
00000050: 9b26 ccbe 1420 dbbe f019 cabe 13a5 ccbd
00000060: 5c34 0d3e 99ff 50be f37a 0abf 279e b93e
00000070: ab0b 0ebf e0d5 e1be f214 413e c764 733d
00000080: 5430 b7be d583 54be 9009 883e 1060 9ebe
00000090: 21c5 31be 77ba f9be 2aa9 0cbf 1036 a8be
000000a0: 9f01 383e 40cf ddbe a02a e43d 42a0 36bf
000000b0: 5fb6 923e 0773 d93e 7342 70be 30a1 0bbf
000000c0: 28e0 9ebe abeb dfbe 3c50 b2bd aabf 053d
000000d0: 8f95 d5be c043 12bf dc9c 113f c89b 05bf
000000e0: 8ccb 46bd d603 ffbe a991 3cbe 8038 90be
000000f0: 13d5 edbd 86a3 8b3d 05da a03e e9fa fbbe
0.46158677 -0.51815957 -0.081656806 -0.29104075 -0.4865339 -0.5821715 -0.19576049 -0.4238749
0.3543195 -0.005595463 0.5502961 -0.6318288 -0.5404732 0.2625028 -0.36388135 -0.6486877
-0.34969413 -0.22358905 -0.30050486 -0.2827146 -0.39873204 -0.4279791 -0.39472914 -0.09992423
0.13789505 -0.20410003 -0.54093856 0.36253473 -0.55486554 -0.44108486 0.18855646 0.05942228
-0.3577906 -0.20753415 0.26569796 -0.30932665 -0.17360355 -0.48775074 -0.54945624 -0.32853746
0.17969368 -0.43322182 0.111409426 -0.71338284 0.28654763 0.4247057 -0.23462848 -0.5454283
-0.31030393 -0.43734488 -0.0870671 0.03265349 -0.41715667 -0.5713463 0.56879973 -0.5219083
-0.04853396 -0.49807614 -0.1841494 -0.28168106 -0.11612906 0.06818299 0.31416336 -0.49214867
