nets/model_epoch_71.pth (torch, 648794 bytes, 25 tensors)

a1.weight f4 [16, 5, 3, 3]
00000000: 952d fe3d 4a67 1b3e 92a6 2bbd 94ae 84be
00000010: 7fbb b2bd 5cf5 a93e ff22 61be edcc cb3c
00000020: 15ba eabe e64b bebd 65c3 e7bd 0d5d 22be
00000030: 23bc 753c 51be 33be 3c9e a1be 7cd1 b9be
00000040: 20b3 d2bd f530 e9bd 1695 a63d 6b2d 29be
00000050: 5f42 ba3d 7f85 8b3d f53c b0be ddaa 66bc
00000060: 916f e5bd c608 07be 5b03 9bbd e7a7 62be
00000070: a6ba 0dbd df37 843d f74e 7cbe 01cb 7dbd
00000080: d510 11bf 7d60 06be 21d5 6ebe 0de7 233e
00000090: 5e38 2cbe bbc6 d4bd 1c91 34be 9885 efbc
000000a0: 3875 57be f4f9 20be 082c 30bc 42d9 f2bd
000000b0: b449 3dbd 5b39 6b3e 01dd f5bd 6a1f 90bd
000000c0: c251 c03e a4a5 043d 05bb c63e b26b 4c3c
000000d0: da34 133f ea57 89be 82db cc3d c587 b03e
000000e0: 28ba b13d ba44 44bc 22e7 5e3e 5354 12bd
000000f0: 9a05 0b3e b335 20bf 2b7b 913d e90e 3f3e
00000100: 4cab 6dbd 2193 b9bd 3a8c c83e dd9f 783d
00000110: 76b1 e6be bfed 2dbe 4aa9 54be 3a24 053e
00000120: b460 b3bc 1d1a cdbe 4545 f1be 8f15 e2bc
00000130: da44 b73e a70b 143e fbd8 0b3e dfb1 2e3e
00000140: 1e74 0ebf 2cc9 c53a 96de ef3c cfd2 42bc
00000150: 544c c03d 9360 fd3c f057 18bd f7be 76bd
00000160: ad65 96bd dfde e93c 7685 a4be b744 dd3d
00000170: 6dbf ca3e 14cf 8c3c eb86 763e e0a3 ffba
00000180: a6b0 1e3f e5a5 063f 3d2d f03d 04a0 313e
00000190: c71e 683e 6a01 473e c949 d4bc a898 95bc
000001a0: 5428 6b3c baa8 d9bd eddf 15be e763 5a3d
000001b0: 3507 953e 5659 f93e 1b36 7a3e 166c c93d
000001c0: bf70 7cbe 9a2a bd3e 9330 b5be a83a 10be
000001d0: f296 503e ec90 16bd fd8f 9fbe 9517 90be
000001e0: ab34 463d fb1a 47be f0f6 9abc 5f22 703d
000001f0: f4b3 163d 5a86 b3be 6c46 e6bc b2b4 7c3c
00000200: d206 afb9 86c7 b5bc 256e f13d 3607 d2bd
00000210: 7af1 95bc d6e3 8fbd 93fb 603d b9c9 143e
00000220: 1885 003e 4cb1 9bbe f5e1 2e3e 6d04 2f3e
00000230: f26b b6be a59f 933d bb01 cbbe 90a7 9e3e
00000240: 1e05 3fbe 0cc9 fdbe c087 88be c6e9 d2be
00000250: c5dc 2cbd 1b6d 35bf bab9 9f3d e9e3 883d
00000260: 72fd 70bc 81b4 41bd 46e7 3f3d a012 1e3c
00000270: 3b47 2ebe 6623 bfbd 4b4b c6be c100 47be
00000280: 7a1a 6fbe f84d c53e 4a1e 6c3e 770a 993e
00000290: 52ac 893e cc24 cb3e f962 07be bd5a 233f
000002a0: b1e9 523e 784e 53bd 9560 82be 61fb 0dbd
000002b0: 88a9 dc3c 6424 6f3d a898 35bc 48a1 bebc
000002c0: f154 be3b 4538 523d c79a 60bd d346 c4bc
000002d0: de74 573e 0ff3 653c 318e a6be fb24 c23c
000002e0: c960 403e f8a9 a73e a6e7 423d 94ca 563e
000002f0: 33f6 903e d5a4 323e cb14 1bbe 66b3 4e3d
00000300: b0f9 71be 0226 97bd fa31 2abe 27be 523e
00000310: 1e26 8b3d 61eb 2fbe a564 cd3d e2e0 1a3e
00000320: d752 ff3e dfcb e8bc 49f7 93ba 9e87 13be
00000330: bcfc a6be 20a6 b23e 4a16 10bb e282 3cbe
00000340: 03c2 e9be c98b eabe 19da 023e 1e61 963d
00000350: c8af 40be c55e 7abe 6b97 5dbd bad8 733d
00000360: 8a56 aebc 2ac1 9c3c f015 81bc 4743 0b3d
00000370: ba01 e1bd 51ea 053d b4ee 103c 9740 b33d
00000380: df58 2dbd 9f7d 96bd ff2e 9dbd bb0b 593e
00000390: 5fc9 193d efba 0abe 72d4 7fbd de0f 683e
000003a0: 18ff 19be b88d d43e cc30 1ebd 57e6 ed3e
000003b0: 41ed 9e3e b779 af3c 69df af3c 8269 c3be
000003c0: b724 523d 9116 853e 14e1 23bf 22fe 9a3c
000003d0: 220e c93d 4467 b33d 6fab 42be b348 a53e
000003e0: 8d0a d1be b333 3dbe d9ea 09be eea2 e5be
000003f0: 5e81 a33e fbf8 82bb 7aa9 ca3d 9ec0 a83c
0.12411038 0.1517612 -0.0419069 -0.25914443 -0.08727168 0.33195007 -0.21986006 0.02487799
-0.45845094 -0.0929182 -0.113165654 -0.15855809 0.014998469 -0.17553069 -0.31566036 -0.36292636
-0.10288072 -0.11386291 0.08133905 -0.16521232 0.090946905 0.06812572 -0.34421507 -0.014078823
-0.1120292 -0.1318694 -0.075689994 -0.22134362 -0.03460183 0.06455969 -0.24639498 -0.061961178
-0.5666631 -0.13122745 -0.2332349 0.16006108 -0.16818377 -0.10389467 -0.1763348 -0.029238507
-0.21040809 -0.1572035 -0.010752685 -0.11857845 -0.046212867 0.22971098 -0.12005044 -0.07037242
0.37562376 0.03238453 0.3881456 0.012476848 0.5750252 -0.26824886 0.10002805 0.34478584
0.086780846 -0.011979276 0.21767858 -0.03572495 0.13576356 -0.6258194 0.071035706 0.18658032
-0.05802469 -0.09061266 0.39169484 0.060699333 -0.45057267 -0.16985224 -0.20767704 0.130021
-0.021896698 -0.40058985 -0.4712316 -0.02759817 0.35794717 0.1445757 0.1365699 0.1706004
-0.5564593 0.0015089861 0.029280942 -0.011891081 0.093895584 0.03092984 -0.03719324 -0.060240712
-0.07343612 0.028548656 -0.32133073 0.10804122 0.3959917 0.017188586 0.24074905 -0.0019503795
0.61988294 0.52596885 0.117273785 0.17346197 0.2266799 0.19434133 -0.02591409 -0.018261269
0.014352877 -0.10627885 -0.14636202 0.05331793 0.2910706 0.4870097 0.24434702 0.09835069
-0.24652384 0.36946565 -0.35388622 -0.14084876 0.20370081 -0.036759302 -0.31164542 -0.28142992
0.04839007 -0.19443886 -0.018916577 0.05862653 0.03679271 -0.3506344 -0.028109752 0.0154239405
-0.00033383683 -0.022189867 0.117885865 -0.102552816 -0.018303622 -0.07025878 0.05492742 0.14530076
0.12550771 -0.30408704 0.17078383 0.17091532 -0.3562923 0.07208184 -0.39649758 0.30987215
-0.18654296 -0.4956745 -0.2666607 -0.4119398 -0.04220273 -0.70869607 0.077990964 0.066840954
-0.014708864 -0.047291283 0.04685142 0.009647995 -0.1701936 -0.093329236 -0.3872932 -0.19433881
-0.23349944 0.38536048 0.2305843 0.29890797 0.26889282 0.3967651 -0.13221349 0.6381033
0.20596959 -0.051588506 -0.2546431 -0.03466356 0.026936308 0.058384314 -0.011083759 -0.023270264
0.0058084656 0.051323194 -0.054835107 -0.023959553 0.21040675 0.0140350005 -0.32530358 0.023699274
0.1878692 0.32746863 0.0475842 0.20975715 0.28312835 0.17445691 -0.1514465 0.050464056
-0.23630404 -0.07380296 -0.16620627 0.2058035 0.0679438 -0.17179634 0.10028962 0.15124848
0.4986789 -0.028417526 -0.0011288907 -0.14407203 -0.32614696 0.34892368 -0.0021985942 -0.18409303
-0.45655832 -0.45809773 0.1277851 0.073427424 -0.18817055 -0.24450214 -0.05409948 0.05953286
-0.0212815 0.019135077 -0.01575753 0.033999708 -0.109866574 0.032694165 0.008845974 0.08752554
-0.042321082 -0.07348179 -0.076749794 0.21195881 0.037545558 -0.13547872 -0.062458463 0.22662303
-0.15038717 0.41514373 -0.038620755 0.46464798 0.31040385 0.021420343 0.021468835 -0.38166434
0.051304545 0.2599378 -0.64015317 0.018920008 0.09817149 0.08759931 -0.19010709 0.32282028
-0.40828362 -0.18476753 -0.13468494 -0.44850868 0.31934637 -0.003996966 0.09895606 0.02059966

a1.bias f4 [16]
00000000: f509 353d 3e7d dbbd 9bb3 9cbd 3f6a 30be
00000010: 9123 2d3e 6fa2 15be 21a4 de3c f87e 06be
00000020: 1127 31be d70f d63d b9c4 65bd 74b3 dd3d
00000030: 4004 c7bd ed01 a9bd 3f44 963e bd80 803e
0.04419895 -0.107172474 -0.076514445 -0.1722803 0.16908099 -0.14612745 0.027177872 -0.13134372
-0.17300059 0.1045224 -0.056095812 0.108252436 -0.097176075 -0.082523204 0.29348943 0.2509822

a2.weight f4 [16, 16, 3, 3]
00000000: 88c5 c63c 3605 43be e1f9 46be 75c6 de3e
00000010: 9034 a63e 8487 d1bd d11e 753d baca 5bbe
00000020: e2ac 033e 59a8 613d d1c8 363e 5055 b1bb
00000030: 050e 2dbe 1641 5a3e b813 70be 151f 2cbd
00000040: efb3 293e bcbd c9bd c340 e1bd 165f 8abe
00000050: 0ef3 c8be 79d9 f6be ba5a dcbd fc3b 87bc
00000060: 0b02 17be 6f3b dfbe c04f dc3d 558e 5abf
00000070: a832 a83e 4fc7 ccbe 3006 2b3f 9453 8ebe
00000080: f0d2 773e 22ca e03d 9618 843d 0188 ba3d
00000090: 2be9 e0bb 1e44 e0be ffe5 2fbd 7e87 8c3d
000000a0: bf13 eabc d242 42be 51e4 13bf fb6a 75be
000000b0: 9070 6ebe dbd1 b83d cb6c 88be 1aa7 28be
000000c0: 0799 8d3e 11ab 943d 8c50 3f3e eb16 d8be
000000d0: a3cc 3c3e a617 3f3e c74f 70be 24b3 733d
000000e0: 1d8f fabb da51 d53e f9cd bb3e d6cd 2f3d
000000f0: 1ba5 e63d 7097 91bc b057 1ebc 744d c23e
00000100: f07b 86be 681e 9bbd f62f c9be 238c 81bc
00000110: 9982 21be 2f1d 0dbe 2f69 e5bd ec87 8e3e
00000120: 514b 6e3e fc2c 093e e0c4 1f3d fb66 e0bc
00000130: aaef 9fbb dd71 8e3e 9c2a 77be 0dfd ff3e
00000140: 3bc9 1a3e 221c 8b3d dc4f 843e ec79 95bd
00000150: 7d88 5ebe cfbe 793e 31a5 0e3f bedc 4d3e
00000160: 72dd 823d 00d2 473e de87 3abe f4b9 a1bd
00000170: caf8 34be c77e c33d 47a8 8a3e 26a3 cabe
00000180: 883b aa3d 68eb 093d b98f 603e 0a09 d4be
00000190: 9a7a 8cbd 1fbd 03bd 2414 45be 625a 49be
000001a0: b5e2 5c3c 4295 213f e389 393d 65c0 44be
000001b0: 0c3d 1dbd 6b6a 2bbe a6ab 273d c156 1b3c
000001c0: bc27 173f 8c60 c6be bfbc 133f 26e0 953e
000001d0: 81af 7dbe 0ef2 943e f9c7 ebbe ba7f 03bf
000001e0: a5bc 123d 22aa f73e fd51 373e 045f 883e
000001f0: d4fe 59be 8282 fd3c 45ce aebd f852 35bf
00000200: f14f f7bd cfcf 85bd 63d0 7dbd 8c30 a4be
00000210: 44d3 9bbd 1b19 7bbe 1b07 2f3e 1eb0 ddbe
00000220: e0be 52bb 8596 3cbe 4378 d5bd 2079 67be
00000230: 8ebd 233f e562 93be 089b ee3c e557 5f3c
00000240: ead4 cbbd 03a5 0a3c e0d2 bbbd 091d 27be
00000250: a99f 85be 1a51 47be 5f53 3fbe 977e 0fbe
00000260: a1d4 21be 7089 c1bd 9641 e6bd 7f61 513e
00000270: 0fcf d4bd 91e1 0abe a958 bebb 0c52 c33d
00000280: 1e29 e03d e114 e13d c945 0a3e ca08 13bd
00000290: 90c0 413e b77b 11bd 09b1 633e 42b7 453e
000002a0: fca0 633c 11a1 a83d 1a9c e13d 00a8 68be
000002b0: 1e12 473e 7187 b03e b2e5 6d3c 8654 50ba
000002c0: 7b6d f7bd 73d8 d33d 5c35 28be 2237 b53e
000002d0: adde a93e f264 50be 3b4c 3b3e 5ef0 2a3e
000002e0: 90aa f13d 7bdf babd 8a4e 673e ca49 e8bd
000002f0: 79b3 48bd 04bf 34be 6652 1b3e 3033 643e
00000300: 92d9 303d 0d9a 103c e6e5 bdbd 5d8a ce3d
00000310: a593 d83d ca53 47be 764e 14bd e9cd ecbd
00000320: b845 1fbe 09a6 e1bd b5ea a8bb 7740 b5bb
00000330: 42a5 0dbe ab45 3cbe 9de8 4bbc b7b9 db3d
00000340: 5699 6e3e 811a a13d bab7 60be 51d8 1d3e
00000350: 7e49 4a3c 4eb0 113e b741 86bd b992 ef3e
00000360: 7529 ecbd a960 25be 5b41 ca3d e905 d9be
00000370: 15e1 fb3d 6f5c c1bd b4d7 83be 9eeb b13e
00000380: 3fc2 a3bd c185 abbd 2d07 9cbd 5fbf e33d
00000390: 1b66 da3d 9762 af3d 15e1 963d b973 e2ba
000003a0: bd08 01be 001a 43be b7d4 443e 78e5 303e
000003b0: 6199 e1bd c8ce 4c3d 3292 71be d96f 7c3e
000003c0: 9ff5 92bd 627b 853e 1c1a 8cbe 1c3f 893d
000003d0: e342 e83e 01a6 fe3d 7e96 6fbc 73b4 c53d
000003e0: fcea af3e 018e 89be 6f19 86be f6bf 6ebe
000003f0: 5d27 c5bd 7c01 be3e eee4 373b 68e9 06be
0.024264112 -0.19044957 -0.19431259 0.43510786 0.32461977 -0.10230926 0.059843842 -0.21464053
0.12858918 0.05509219 0.17850043 -0.0054117814 -0.1689988 0.21313891 -0.23445022 -0.04202183
0.16572545 -0.09850642 -0.109986804 -0.2702567 -0.39247936 -0.48212793 -0.10759492 -0.016508095
-0.14746873 -0.43600032 0.107573986 -0.8537343 0.32851148 -0.3999581 0.66806316 -0.2779814
0.2420156 0.10976054 0.06450002 0.09107972 -0.0068637333 -0.4380197 -0.04294395 0.068617806
-0.028573869 -0.18970802 -0.5777026 -0.23966591 -0.23285127 0.09024402 -0.26645502 -0.16469994
0.27655813 0.07259191 0.1868307 -0.42204985 0.18437438 0.18661365 -0.23467933 0.059497014
-0.007646455 0.4166401 0.36680582 0.04292091 0.1126196 -0.017772406 -0.009664461 0.37949717
-0.26266432 -0.07574159 -0.39294404 -0.015813893 -0.15772475 -0.13780664 -0.11201703 0.27838075
0.23270918 0.13396066 0.039006114 -0.027392855 -0.004880865 0.27821246 -0.24137348 0.4999775
0.15115826 0.06792475 0.25842178 -0.072986454 -0.21731754 0.24389194 0.5572081 0.20103738
0.063898936 0.19513702 -0.18215892 -0.07896796 -0.1767303 0.09545665 0.2708151 -0.39577597
0.08312136 0.033671767 0.21929826 -0.41413146 -0.06859322 -0.03216278 -0.19245964 -0.19663385
0.013481786 0.63118374 0.045297515 -0.19214018 -0.038388297 -0.16739814 0.04093518 0.009481133
0.59045005 -0.38745534 0.5770988 0.29272574 -0.2477398 0.29090923 -0.46051005 -0.5136677
0.035824437 0.4837199 0.1790237 0.2663499 -0.21288615 0.03094602 -0.085354365 -0.70829725
-0.120757945 -0.06533777 -0.06196631 -0.32068288 -0.07608655 -0.24521296 0.17092554 -0.4329843
-0.0032157227 -0.18416794 -0.10423329 -0.226048 0.6396111 -0.28786388 0.029126659 0.0136317955
-0.099527195 0.008462193 -0.091710806 -0.1631967 -0.26098374 -0.19464532 -0.18684147 -0.14013134
-0.15803768 -0.09450042 -0.11242978 0.20447348 -0.10391056 -0.1356261 -0.005808909 0.095371336
0.109453425 0.109903105 0.13503183 -0.035897054 0.18921113 -0.035518374 0.22235502 0.19308189
0.013893362 0.08233846 0.11016102 -0.22720337 0.19440505 0.34478334 0.014520096 -0.0007947165
-0.120814286 0.10344019 -0.16426605 0.35393625 0.331777 -0.20351008 0.18290798 0.16693255
0.1180011 -0.09124657 0.22588554 -0.11342199 -0.048999283 -0.17650992 0.15168151 0.22285151
0.04317624 0.008825791 -0.09272365 0.100849845 0.10575036 -0.19465557 -0.03620764 -0.11562712
-0.1555394 -0.11017997 -0.0051549324 -0.0055313664 -0.13832572 -0.18385951 -0.012445596 0.10728782
0.2330068 0.07866383 -0.21945086 0.1541455 0.012346623 0.14227411 -0.06555503 0.46791628
-0.11531345 -0.16150154 0.09875747 -0.42387322 0.1229879 -0.094414584 -0.25750506 0.34750074
-0.07996034 -0.08375121 -0.07618556 0.111204855 0.10664006 0.085637264 0.0736715 -0.001727692
-0.1260099 -0.19052887 0.1922177 0.17275035 -0.11015583 0.05000189 -0.23590925 0.24652041
-0.07175755 0.26070696 -0.2736367 0.0670149 0.4536353 0.124340065 -0.0146232825 0.096535586
0.34358966 -0.26866153 -0.2619128 -0.23315415 -0.096266486 0.37110507 0.0028060037 -0.13174975

a2.bias f4 [16]
00000000: 9dbb f4bd 44c0 87be fdf1 f4bd 56a4 bebc
00000010: a5f7 083d d311 44be d4de 3abc e472 77bc
00000020: af7a 243e 6fe2 2cbe 94cc 7ebe 39b2 59bd
00000030: 2cd4 73be ecd8 853d b3fb 473e be25 283e
-0.11949847 -0.26513875 -0.11960218 -0.02327172 0.033439297 -0.19147424 -0.011405665 -0.015103076
0.16062425 -0.16883253 -0.24882728 -0.053148482 -0.23811406 0.06535515 0.1952961 0.16420648

a3.weight f4 [32, 16, 3, 3]
00000000: 101b 59be 74c2 d13e 835d febe fa8e aebd
00000010: e6c7 23be 2831 b9bd abc2 3dbf d9e3 e1bd
00000020: 7de1 4d3e 4380 57bd ff76 c9bd 7145 54be
00000030: 9184 c4bb 4181 833e 01f6 533e c637 d3be
00000040: 73eb 69be 1efe f2be b0fe 2c3e 489f 2bbd
00000050: d104 5d3e d5a0 ff3d 801e 733e 015e 1cbe
00000060: 7d14 86bd 7d4a 083e dff1 a9bd 5cd2 cbbe
00000070: d6c5 633e cd11 6e3e ef86 c63d 590a f3bd
00000080: 8af8 223e 1a05 16be 6c03 1fbe f2fe 2e3d
00000090: 6a76 263e 9010 8d3d 831e 7abe e639 e7bd
000000a0: a8f7 d63e 1b26 c3bd a43d 413e 0d81 b83d
000000b0: 8139 9ebd a47c 443e 4eda 90bd 052c 66bd
000000c0: c473 ac3e c731 8bbd 8fbb ca3e 2cc8 efbe
000000d0: f042 79be 9499 2b3e 976a 09bc b012 3e3d
000000e0: 8950 7fbe 07bf 643d 0d38 043e 0a60 1abe
000000f0: 8c54 233e 15ae ce3e 5891 e13d 41a3 4c3e
00000100: ea19 8d3d e5be a03d bb43 3d3e 8cf2 b53e
00000110: 07e2 b6be 9dd4 e03e fc07 febd 7be1 92be
00000120: 44d5 acbb c913 853e 9250 44be fd21 0b3e
00000130: 36de b53e 7e91 b63d 5377 a53d cbf3 a7be
00000140: 1191 05be 7a1a 493d d711 7a3e 0347 f6bd
00000150: ef73 b83e 375e 06bc 236c d0bb f91c 3dbe
00000160: d348 2abe fe34 0d3e 7dd0 e0bd 1676 5e3d
00000170: 0ff7 efbd 735b 303e 2deb b6be ea7b 043f
00000180: 24ee ae3d 36d2 0abe d5c3 8fbe 125c d93c
00000190: ec29 98be 8e68 c7bd 0e6f 62be c355 d23e
000001a0: fe70 5ebd 2a0b 87be e381 a03e a3a6 2cbe
000001b0: 3ebb a2bd bb42 e6be 6672 babe 5fe5 973e
000001c0: b93b 0d3d 502d d73e 6c2b 37bf f494 cf3d
000001d0: 9819 00bd bd13 1a3f 8c7f 80bc 3de5 4d3d
000001e0: 50ad da3e d888 083d 307f 76be d115 6c3e
000001f0: c83e afbd 8fa4 a43e c3b6 d53e 81b8 7dbe
00000200: 6902 f2be b724 3c3d d696 af3e 9d49 64be
00000210: 8b67 183e ee26 f8bd 6448 cabe 6691 93bd
00000220: ced3 a83d d95e 113e 32ef e83d c0c7 d33e
00000230: 25cb 53bf 7181 173e 9a3b abbe 2f1f 97be
00000240: f3da 253e 1df7 70bd 8b93 123f ff86 ee3d
00000250: 2b5b 1b3d f9fd 3f3e f7d4 20be ee48 80bd
00000260: 0ae3 f73d 6d79 cabd b76d e4bd cd23 623e
00000270: c152 56be c2f9 42be 6f9e 653e 4139 8b3e
00000280: 524d 283e 4da1 63be 3d91 01bf 1550 c13b
00000290: a80b 8c3c a5a2 643e 5066 13be 9d7b a6be
000002a0: 27f0 8dbe 1d8e 053d f094 b5be 241b 0fbe
000002b0: 04fc edbd 21c5 77be 34cc 80be 1925 643e
000002c0: 02ce 2a3e d2b0 c03d 9579 29be e74f 2a3e
000002d0: 7f5d aebe 9ab7 26be a7c8 ebbd 713d 9ebe
000002e0: 771d 13be 72f3 8e3e e794 65bd 21da 55be
000002f0: cc54 943e 18f0 de3d fa93 0b3e d22d fa3d
00000300: d119 d03d 3674 cfbd a064 c73e c4f7 a0bd
00000310: cf7d eebd 003e 3c3e 8ac4 30be f7f6 12be
00000320: c8d0 c03d e7df 55bc 8ef6 9cbe ecfb 2c3e
00000330: 254e 243e 566d 883e c1dc a73e c410 e1bd
00000340: fbaa 753d 2283 27bf a132 f43d f727 d43e
00000350: 7dd8 0dbe 410e 33bf 440d 2d3e bb3a cc3e
00000360: 10fb e93d 04e3 d23e 35b7 5ebe f678 babe
00000370: 4ac0 3cbc 9bd2 08bf 67c4 9cbd d666 64be
00000380: 81d1 893c 5d8f 473e bf51 f2bd a319 bfbd
00000390: 5b31 18bd f0c7 10bd 2b84 adbe 80e6 6d3b
000003a0: df4a 723e fdd0 823d 7cdd ba3e 2400 80be
000003b0: 7333 9a3e 7b3d 76be c75a 62be cdf9 8cbe
000003c0: da0d 0bbe c088 e6be a3d6 fcbd 9aef d2be
000003d0: fbab 1bbb 70e7 eebd cb08 61be 724b 9ebd
000003e0: d08c 573e a31a 42bf 88ff 8ebe ec66 6f3e
000003f0: aef3 9f3e f1b5 55be 71f7 6d3e a276 aabe
-0.2120173 0.40968668 -0.4968072 -0.08523364 -0.15994224 -0.09042579 -0.74125165 -0.110297866
0.20105548 -0.052612554 -0.0983715 -0.20729615 -0.0059972485 0.2568455 0.20699312 -0.4125349
-0.22843723 -0.474595 0.1689403 -0.04189995 0.21583869 0.12481848 0.23742104 -0.15270235
-0.065468766 0.13309665 -0.082980864 -0.3980893 0.22243437 0.23248978 0.09693705 -0.11867208
0.15915123 -0.14650384 -0.15528649 0.042723604 0.16256109 0.06887925 -0.24425702 -0.1129034
0.41985822 -0.095287524 0.1887117 0.090089895 -0.07725812 0.19188172 -0.07072888 -0.056194324
0.33682072 -0.06796604 0.3959622 -0.46832407 -0.24341941 0.16757804 -0.008387229 0.04640454
-0.24933065 0.05584624 0.12912007 -0.15075698 0.15950221 0.4036719 0.1101405 0.19984151
0.06889708 0.0784891 0.18482868 0.3553661 -0.3571932 0.4391221 -0.12403867 -0.28687653
-0.0052744467 0.25991657 -0.1917136 0.13587184 0.35521096 0.08914469 0.080794 -0.32803187
-0.1304362 0.049097516 0.24420868 -0.12025263 0.3602595 -0.0082011735 -0.006360547 -0.18468083
-0.16629343 0.13789746 -0.10977266 0.054311834 -0.117170446 0.17222385 -0.357263 0.5175158
0.085415155 -0.13556752 -0.28079095 0.02653316 -0.29719484 -0.09736739 -0.22112677 0.41081056
-0.054306976 -0.26375705 0.31349096 -0.16860442 -0.0794587 -0.44972786 -0.36415404 0.29667184
0.034480784 0.42026758 -0.7155063 0.101358324 -0.031274408 0.6018637 -0.01568582 0.050267447
0.42710352 0.03333363 -0.24071956 0.23055197 -0.085568964 0.32156798 0.41741 -0.24777414
-0.47267464 0.04593345 0.34294766 -0.22293706 0.14883249 -0.121168 -0.39508355 -0.07205467
0.082435235 0.14196338 0.11373748 0.41363335 -0.8273185 0.14795472 -0.3344391 -0.2951598
0.16196804 -0.058829416 0.5725638 0.11646842 0.03792874 0.18749227 -0.1570624 -0.0626391
0.12103851 -0.098864414 -0.11153739 0.2208397 -0.20930006 -0.19040588 0.22423719 0.2719212
0.16435745 -0.222295 -0.5061224 0.005899439 0.017095402 0.22327669 -0.14394498 -0.32516184
-0.27722284 0.032606233 -0.35465193 -0.13975197 -0.11620334 -0.24196292 -0.25155795 0.22279777
0.16680148 0.09408726 -0.16550286 0.16632043 -0.34055707 -0.16280976 -0.11512881 -0.3090625
-0.14366709 0.2792011 -0.056050207 -0.20883991 0.28970945 0.10885638 0.13630667 0.12215771
0.10161174 -0.10129587 0.38943958 -0.078597575 -0.1164509 0.18383026 -0.17262474 -0.14352022
0.09414822 -0.013053871 -0.30656856 0.16892976 0.16045435 0.26645917 0.3278561 -0.10989526
0.059977513 -0.6543447 0.11923719 0.4143674 -0.13852115 -0.69943625 0.16899592 0.39888558
0.114248395 0.41188824 -0.21749575 -0.3642041 -0.011520455 -0.5344636 -0.07654648 -0.22304854
0.016823532 0.19488283 -0.11831998 -0.09331062 -0.037156444 -0.035346925 -0.338899 0.0036300719
0.23661374 0.063875176 0.36497104 -0.25000107 0.30117378 -0.2404689 -0.22104941 -0.27534333
-0.13579503 -0.45026207 -0.12345626 -0.41198426 -0.0023753631 -0.11665237 -0.2197601 -0.07729234
0.2104981 -0.75821894 -0.2792933 0.23379105 0.312406 -0.20870186 0.23238923 -0.33293635

a3.bias f4 [32]
00000000: dd7b b4be 601f e23d 2d71 293e 774d f1be
00000010: fcca c1be f4c9 a53d 656b 7d3e 9b56 3fbe
00000020: 3bee 03bf 02fb 9abe e429 7dbe f821 1cbe
00000030: 928b 4ebf 5282 47be 38d9 15be e965 153f
00000040: 6df6 be3e b55c 9fbe 3117 0fbe 38ff debe
00000050: 2ffc 81bd 8e60 c1be 86e3 e8bd 535d 95be
00000060: e6ba edbd 0e0c 993e 4ce5 dc3e 89f4 37be
00000070: 64aa 433c b453 2c3e 7eb2 02be a6ab 73be
-0.3525075 0.110411406 0.1654708 -0.47129413 -0.37850177 0.0809516 0.24747999 -0.18685381
-0.51535386 -0.3026963 -0.24723011 -0.15247333 -0.8068172 -0.19483307 -0.14633644 0.5835863
0.37297383 -0.31125417 -0.1397369 -0.4355409 -0.06346928 -0.37768978 -0.11371522 -0.29172763
-0.11607914 0.2989201 0.4314369 -0.17964377 0.01194248 0.16828805 -0.12763402 -0.23795947

b1.weight f4 [32, 32, 3, 3]
00000000: 1a41 eebe 3fd6 2b3e 310e f5bd d690 25be
00000010: fbd7 e2bd c487 efbd ed34 4dbd fbac 43bd
00000020: 49ad 9fbe 01d2 a13c 42d1 06bf d372 273e
00000030: 956b a7be 6611 3bbf 0957 663d 8224 293e
00000040: e68e d3be dfc6 ca3e e558 2dbe d46c 523e
00000050: ca81 e13d e06a 2a3e 9134 ae3e ff3b 183d
00000060: 5710 a4bd e580 3f3d 2666 ffbd fd6e 903e
00000070: 3623 893e 64e0 8b3e 78b9 343e 9ffd babe
00000080: 2408 673e 5208 5bbe b468 5abe c98d 88be
00000090: 793f 893e ea07 f8be 48bb e4bc b9ff 3ebd
000000a0: 74d2 6d3d be2d c4be 01d6 a4bd 3a5e 28bf
000000b0: fd0d 923d bb14 1a3f 9491 5ebf 4cd8 a5bd
000000c0: f33f 7b3e 24bf 5cbe 3bc2 dc3d 50c6 a13d
000000d0: 7b74 10be e42a 14bf a025 5abe e083 2abe
000000e0: 8a49 8dbe 845c f9bc 508a 733d b738 e4bd
000000f0: e67d 46bd 6ca5 09be a9e0 b93d 80a2 7dbd
00000100: c7c4 5a3d 31b5 273d aa98 2a3d d78c 2bbe
00000110: 6f6b 1abd 992c 263c 1691 6e3d 88d8 c73c
00000120: 0ceb 4cbe 8e11 c3be f8b2 bbbe 56b7 edbe
00000130: 78dc a53e bbf0 89bc 1f7f ccbe 8136 693e
00000140: f6db b03e 5887 763e 7f3b 43be 6d2b 40bd
00000150: 37ce 803e abb4 df3d 24e7 e43e abc3 543f
00000160: 00b4 1ebe 92de 89bd ac3c 62be 92d6 873e
00000170: 324f 55be 7094 5b3e bf4e 5a3e e12e 78be
00000180: db09 4e3e c393 07bd 75b4 2a3d 6183 97be
00000190: c992 d7be 4303 0fbf e0b5 aa3e 8079 3cbe
000001a0: df7d c5be 7f05 6b3e 2a42 533e 06f2 24be
000001b0: d32f 84be 6c38 c0be 8d6e 5ebe 3f69 0fbe
000001c0: 8fdc d9bd f4f4 3c3e e770 81be b2fe e6be
000001d0: 349c 6cbc 82ee 923d f4bf ac3d f946 493e
000001e0: 59ee 753d 4632 19bd cf19 1cbe 5c83 6b3b
000001f0: de48 83be 03a5 893d 7ec9 ab3b 1e26 6b3e
00000200: 3f69 c03d c5a3 da3b 9608 ecbe b144 2dbd
00000210: 2a39 bc3b 4004 37be b822 5ebd 163f eb3d
00000220: c79c 8c3d ddfe 2fbd 0cf9 93be 44a6 9f3d
00000230: caac 11bb 277e 97bb 7644 d8be c161 fa3c
00000240: b3c4 64be fb98 02bd 00e7 e83d d18a 7f3e
00000250: 6f72 cc3e d53c 4f3e 04c0 0f3b 85f9 28bd
00000260: d5cb 8e3e 0a96 023e 0a6f 633e a1bf 00bf
00000270: 7aa7 693c 8ae3 3abd fbbb 1cbf 755b 25bd
00000280: 0050 8b3e 6346 40be 6364 cc3e d40e f0bd
00000290: c0e7 d2bd 558d f53d 3249 0dbf c90b 68be
000002a0: 1ea0 01be 64e9 0abe 1667 debd 5054 74be
000002b0: d166 e53e 5adb aebe d45c 1e3e 16cf 943e
000002c0: e7e6 16be b62c 19be 21bb 9d3e 5f91 5cbe
000002d0: 92de f7bc 5514 40be 32f5 d43d 54c5 4e3d
000002e0: 6ebe 89bd ffc5 c2bc b849 2d3e c1dc a93d
000002f0: 304b 503e 1b00 bf3d ef88 91be 9db5 9fbe
00000300: d868 2d3e 75ae 163e cd7f 653e 4190 ddbd
00000310: cf20 30be f2b9 3fbe 2c15 32be aa74 423d
00000320: ea01 6f3d 51c8 0abe bc10 303e 4e16 833d
00000330: 6a6e 8e3e 325c d6be aefe ebbd 6f88 7dbe
00000340: b02f 383e ff2f 98be 5af4 babe 2b6e 17bd
00000350: 2e9a 2ebe 703a 13be 5a4c bf3e 3e99 353e
00000360: fd1a b23e 7957 c3be 007b b8be a757 efbe
00000370: dd3e 01bd c11b 1a3e f5ff 8dbc 9be8 683e
00000380: 8bb6 cd3d 8429 893e b621 ba3d 1f52 01bf
00000390: 9f6d 5cbc 013c 92bd 7982 923e 1f8d a1bd
000003a0: 296e ee3e 8911 0b3e aa37 083f 4624 253b
000003b0: 04b0 54be 9f0a f53d 235e 71bd 3a47 073c
000003c0: 7cf7 babc 37c6 ae3e e695 d4be 3a11 8d3e
000003d0: e5bf babd 2f39 07be b768 57bf dc7e c9be
000003e0: 00e2 22bd 72a8 87bc 8677 8a3e 02bf 503d
000003f0: ea7b d83e 79b6 0ebe e094 17bf 0cb1 3c3d
-0.46534044 0.16780947 -0.119655974 -0.16168532 -0.11076351 -0.11695817 -0.050099302 -0.04777239
-0.31186894 0.019753458 -0.5266305 0.16352396 -0.32699266 -0.7307342 0.056235347 0.16517833
-0.4131996 0.39604852 -0.16928442 0.20549327 0.110110834 0.16642332 0.3402448 0.03716659
-0.08010929 0.046753783 -0.12470655 0.28209677 0.26784676 0.27319634 0.17648876 -0.36521623
0.22561699 -0.21389893 -0.21329004 -0.26670673 0.26806238 -0.48443538 -0.027921334 -0.046630595
0.058062032 -0.3831615 -0.080486305 -0.6576878 0.07131574 0.6018788 -0.86940885 -0.08097896
0.24536113 -0.2155729 0.10779234 0.07899153 -0.14106934 -0.57877946 -0.21303415 -0.16651869
-0.27595168 -0.030439623 0.059458077 -0.1114363 -0.04845991 -0.1344201 0.09076054 -0.06192255
0.053410318 0.040944282 0.041649498 -0.16752945 -0.037700113 0.010142469 0.058243833 0.024395242
-0.20011538 -0.3809933 -0.3665998 -0.46428937 0.32394767 -0.016838422 -0.39940736 0.22774698
0.34542817 0.24075067 -0.19065665 -0.046916414 0.2515733 0.109231316 0.44707596 0.83111066
-0.15498352 -0.06731905 -0.22093457 0.26530892 -0.20830992 0.21443343 0.21319102 -0.24236633
0.20120947 -0.0330999 0.041676003 -0.29592422 -0.42104176 -0.5586435 0.33341885 -0.18405724
-0.38572595 0.22951315 0.20630708 -0.1610795 -0.25817737 -0.37543046 -0.2172186 -0.14004992
-0.10637771 0.18452817 -0.2528145 -0.45116192 -0.014441539 0.07174398 0.0843505 0.1965598
0.06004176 -0.03740146 -0.1524422 0.003593645 -0.2564153 0.067209266 0.0052425256 0.2296376
0.09395074 0.006672355 -0.461003 -0.042301837 0.005744119 -0.17872715 -0.05423233 0.11486642
0.068658404 -0.042967666 -0.28900945 0.077953845 -0.0022228234 -0.004623193 -0.42239732 0.03056419
-0.2234066 -0.031884175 0.11372185 0.24955298 0.39931056 0.2023805 0.0021934519 -0.041253585
0.27889886 0.12752548 0.22210327 -0.502924 0.014261121 -0.045627154 -0.61224335 -0.040370423
0.27209473 -0.1877685 0.3992034 -0.11721578 -0.10298109 0.119898476 -0.5518981 -0.22660746
-0.12658736 -0.13565594 -0.10859506 -0.23860288 0.44805005 -0.34151727 0.15465099 0.29064244
-0.1473652 -0.14958462 0.3080683 -0.2153983 -0.030257497 -0.18757756 0.1039833 0.050481156
-0.06725775 -0.023776053 0.16922653 0.082940586 0.20341182 0.09326192 -0.28424785 -0.31193247
0.16934526 0.14714988 0.22412033 -0.1081853 -0.17200015 -0.18723276 -0.17390889 0.04747454
0.058351435 -0.13552977 0.17193884 0.06400739 0.27818614 -0.41867214 -0.11523186 -0.24759077
0.17986941 -0.29724118 -0.3651455 -0.0369703 -0.17051002 -0.14377761 0.3736294 0.17734239
0.34786215 -0.38152674 -0.36031342 -0.4674656 -0.03155409 0.1504965 -0.017333964 0.22744982
0.10044583 0.26789486 0.09088461 -0.5051593 -0.01345387 -0.07140351 0.28615168 -0.07888245
0.4656842 0.13580908 0.53209937 0.0025198623 -0.2077027 0.119649164 -0.058927666 0.008256728
-0.022823088 0.341356 -0.41520613 0.27552205 -0.09118632 -0.13205408 -0.8414416 -0.393546
-0.03976631 -0.016559813 0.27044314 0.05096341 0.4228204 -0.13936795 -0.5921154 0.046067283

b1.bias f4 [32]
00000000: 9034 61bd eaf4 86be 728e 25bf cd25 99be
00000010: e8cd 4c3f ccd6 3ebe 9d98 74be 1fc3 173c
00000020: b53a 6abe 4328 2dbf 2cee 06bf 7fc0 813e
00000030: ecb1 f7be 55b3 debe 9e62 043e be33 97be
00000040: 3ac7 78be a12c 61bf 82b5 3abe f92c ce3e
00000050: c83b 51be f866 d8be 5167 473f 556a 2dbf
00000060: eed2 8fbd 5b4b 73be 4d33 e4bd 8fb1 87bf
00000070: 2136 82bd 42c5 3fbd 5b03 2e3e 8ede 17be
-0.054981768 -0.2635873 -0.6467048 -0.29911652 0.8000169 -0.18636626 -0.23886342 0.009262829
-0.22873957 -0.6763956 -0.5270717 0.25342175 -0.4837793 -0.43496194 0.12928244 -0.29531664
-0.24294749 -0.87958723 -0.18233302 0.40268686 -0.20432961 -0.4226606 0.77892023 -0.67740375
-0.070226535 -0.23759215 -0.11142597 -1.0601062 -0.063579805 -0.04681898 0.16993468 -0.14830992

b2.weight f4 [32, 32, 3, 3]
00000000: 71d3 813e 9ce0 d73d 6e11 fb3c d2bc 3f3e
00000010: e6a0 62be 8b24 d73e c00b 43be b760 f6bd
00000020: e93e 2d3e bbf4 c03e 623f c7bd 6990 b4bd
00000030: 73e5 f6bd 13f4 4cbe 758e 66be 9326 253e
00000040: 1fd0 f23d b089 0fbf 7343 54be f88e 3c3e
00000050: acc0 16bf 8b75 a63d 5ef5 94be 6e08 f43d
00000060: 7601 4abe a020 5bbe 674e 1fbe 36ec f83e
00000070: dd88 e9bd aef4 f83d 2c79 1f3f 7780 b5bd
00000080: aece 91be f199 20bd d729 eebe 25f8 21be
00000090: 5503 32be c6ee db3d ec49 b9be e3fa e0bc
000000a0: 4388 873e ea03 b1be 0725 18bf b29e 4f3e
000000b0: 8a1a 8f3e 00aa 473f a00b d0be 5886 0ebe
000000c0: 7a47 54be ed83 323b d573 c8be 5350 0c3d
000000d0: 8ff1 063f 8c3e 783f 8f82 5c3d f451 b5be
000000e0: 3dca 303e d2f0 85be c60c fabd 98c9 b9bd
000000f0: 47d1 2f3e 60cf 053e fbfc aabe c72a 983e
00000100: efa5 24be 9867 4ebe 1116 c6bd b638 923d
00000110: b7ae 203d 65d6 81bd 95b0 3c3e a379 34be
00000120: 3f40 86bc e5c0 adbe 28c9 833e 572c b53c
00000130: f544 55bc 6cf7 13be 5586 03be 2124 bb3d
00000140: 5f96 adbe 6176 d5be e7a8 dabe 6f80 8cbe
00000150: ca49 5d3e c39c 3ebe b3ce bf3e bd42 003f
00000160: 6488 7e3d 6ac5 b8bc f181 50bb 86dc 51be
00000170: 5007 4cbe 7122 2bbe 8c34 9bbe 2a53 32be
00000180: 7088 e83e 0b1f b83e 1e9c 7fbe 3943 233e
00000190: 38d9 d9bd 549f 543e 01c3 4fbe 7093 083e
000001a0: 251e 83be cd61 d7be e96f 2b3e 2dc2 14be
000001b0: 1c50 8bbe fc0d 90be 75e6 a73d a535 293e
000001c0: be1f 0fbe 7a4e 62be 8df5 dbbe eb6a d03d
000001d0: d760 d23d de02 f0be f9f1 4cbd eee0 1cbf
000001e0: 3cea 213d 4a5a a0be 780f 3c3e 0071 f8bd
000001f0: ef40 61bd 96f2 b6be c518 953e 03e3 68bd
00000200: 6cbc 51be ed2d 8d3d 204f 11bf 48d3 07bc
00000210: 9329 63be 0cdd 8f3e 0368 db3d ec08 dabd
00000220: 6869 96bd 65a0 c6bd 23cf a43e 458c 20bf
00000230: bcd6 cf3d 10df ad3d 3894 6a3e 8cbe e13d
00000240: 74a4 ce3e 60b0 b7bd ae7a eabd 2f71 e83c
00000250: 0a27 fcbd 27cc 1c3e 265c 273c e576 b23e
00000260: ccbf 8cbe c315 8cbd 3bf7 e2bc 4186 8a3e
00000270: 2e25 253e 1296 de3c 96ca 2a3e e521 80be
00000280: 063b fb3d a995 47be 772c dabc bed7 a83d
00000290: b067 40bc 0167 1fbe c5b4 44bd 3546 c7be
000002a0: 8cff 87be ccf7 07be 2bf7 2b3d 1718 c63e
000002b0: b7be 6f3c 9a84 87bd 32a4 763d c0a6 773e
000002c0: ee07 2b3e fbd2 90bd 970f 733d 0184 8abd
000002d0: 9fe3 ab3c 29dd 7cbe 5caf 96bc 7edb 8a3e
000002e0: 7e95 10be a2ed bebc c70b d0be a44b a9bd
000002f0: 211c d2be 2692 1ebe 77b6 74be 68ca 133d
00000300: b031 543e 0c8f 5f3e 0d2f e03e e199 7dbe
00000310: 2b6e b0be 50e8 873d 0e56 c03e f299 cdbe
00000320: 943c 393e 4259 913d 74da a8bb 0adc 693e
00000330: e45e 5ebf 956a db3e 3dba 26be 5c82 6dbe
00000340: b338 26be 5d70 07be 55ed 54bc cdd9 04bf
00000350: f493 483f 7f5d ca3c 523e 0c3e 803c 793e
00000360: 8197 a93c b72f 2abe e909 77bd 98d0 173e
00000370: 61a9 39be edda 1a3c 529f be3e 1569 633e
00000380: d01e acbe f009 0e3c 5351 43be 8482 873e
00000390: 1fad d33c 90b5 8b3e 7b37 54bd 739d b7bd
000003a0: b1aa 5ebe 9eba 143e 5ef5 d63d b757 7abe
000003b0: d5f5 8a3d c104 28bd e60f f13d 33c4 873e
000003c0: 32a9 d6be 29ca b5be 0bb4 3abe 8ebb 1f3e
000003d0: b23b 87be bdd8 f23e 3e98 3a3e c40f 3bbe
000003e0: ef13 e9be 3731 dcbc def6 20bf 7355 1c3e
000003f0: 654b 7d3d 7cf1 2f3e 7661 963e 6164 6ebd
0.2535663 0.10540888 0.03064796 0.18724373 -0.2213169 0.42020068 -0.19047451 -0.12030166
0.1691853 0.37686715 -0.09728886 -0.088166066 -0.12055483 -0.20014982 -0.2251528 0.16127996
0.11856102 -0.5606947 -0.20728855 0.18413913 -0.58887744 0.08127888 -0.2909345 0.1191567
-0.1972712 -0.21399164 -0.15557252 0.48617715 -0.11403058 0.12156044 0.6229427 -0.08862393
-0.28477997 -0.03920931 -0.46516296 -0.15817316 -0.17384084 0.10738902 -0.3618921 -0.027463382
0.26471147 -0.345733 -0.594315 0.20275381 0.27949935 0.77993774 -0.4063387 -0.13918436
-0.20730391 0.0027239278 -0.39150873 0.03425629 0.5271234 0.9697044 0.053835448 -0.35414088
0.17264648 -0.26160294 -0.122094676 -0.09071654 0.17169677 0.13067389 -0.33396134 0.29720137
-0.16078924 -0.20156705 -0.096721776 0.07139723 0.03922912 -0.06339721 0.18426736 -0.17624526
-0.016388057 -0.3393623 0.25739408 0.02211587 -0.013016929 -0.14449853 -0.12844212 0.091377504
-0.33903787 -0.41691878 -0.42706987 -0.27441737 0.2161018 -0.18614487 0.37462386 0.50101835
0.06214179 -0.022555072 -0.0031815732 -0.2049428 -0.19924664 -0.16712357 -0.30313528 -0.17414537
0.45416594 0.35961184 -0.24961898 0.15943612 -0.10637134 0.20763904 -0.20289232 0.13337493
-0.25608936 -0.42066804 0.16741909 -0.14527197 -0.27209556 -0.2813567 0.08198253 0.1652437
-0.13976952 -0.22100249 -0.42960778 0.10176643 0.10272377 -0.46877187 -0.05003545 -0.61280715
0.039530024 -0.31318885 0.18365276 -0.12130928 -0.054993566 -0.35731953 0.2912046 -0.05685712
-0.20482033 0.06893525 -0.5676136 -0.0082901195 -0.22183828 0.28098333 0.10713198 -0.10646233
-0.073443234 -0.096985616 0.32189283 -0.62714034 0.10148379 0.084898114 0.22908103 0.11022672
0.40359843 -0.08969188 -0.114491805 0.028374283 -0.123121336 0.15312253 0.010214841 0.34856334
-0.2749008 -0.06840088 -0.02770578 0.27055553 0.16127464 0.027171168 0.16678843 -0.2502586
0.12267117 -0.19490685 -0.02663253 0.082442746 -0.011743471 -0.15566637 -0.048023958 -0.3892075
-0.26562154 -0.13278121 0.041983765 0.38690254 0.014632872 -0.066170886 0.060215183 0.24184704
0.16702244 -0.07071491 0.05934104 -0.06763459 0.020982562 -0.24693741 -0.018394165 0.27120584
-0.14119527 -0.023306672 -0.40633985 -0.082663804 -0.41037086 -0.15485439 -0.2389773 0.0360817
0.2072208 0.21831912 0.43785897 -0.24765731 -0.3445905 0.06636107 0.37565655 -0.40156513
0.18089515 0.07097103 -0.0051529948 0.22837844 -0.8686354 0.42854753 -0.16281982 -0.2319426
-0.16232567 -0.13226457 -0.0129960375 -0.5189484 0.7835076 0.024702786 0.13695648 0.24339485
0.020702126 -0.16619764 -0.060312185 0.14825666 -0.18131019 0.00945161 0.37230927 0.22208054
-0.33617258 0.0086693615 -0.19073991 0.26466763 0.025839387 0.2728696 -0.051810723 -0.08965578
-0.21744801 0.14524314 0.10496019 -0.24447523 0.0678517 -0.04102016 0.117706105 0.26516876
-0.4192596 -0.35505798 -0.18232743 0.1559889 -0.2641273 0.47430983 0.18222138 -0.18267733
-0.4552302 -0.026878936 -0.6287669 0.15266971 0.06183948 0.17181963 0.29371232 -0.058201198

b2.bias f4 [32]
00000000: 4b4d 403e 125b 82bf 3ebb 40bf 1baa 6bbf
00000010: 685d 2dbe 0efe 49bf d26f fabe d355 13bf
00000020: 4512 143f 232f 863d 4218 423d 2288 bdbe
00000030: b089 e9be fb28 42bf 854b 3ebe e7a7 8d3e
00000040: 4124 83be 5671 06bf 9ba7 24be 1f2f a1be
00000050: 253c 33be f902 c03e 56da 31bf 197a 0a3f
00000060: b2b0 2cbf 9b45 c83e 84e0 4e3e 5b15 283e
00000070: 43a9 72bf a6b9 76be 0720 063f b5fd 59be
0.18779485 -1.0184042 -0.7528571 -0.92056435 -0.16930163 -0.7890328 -0.48913437 -0.5755283
0.5784038 0.06551959 0.047386415 -0.37017924 -0.4561286 -0.7584378 -0.18583496 0.27667162
-0.25613597 -0.52516687 -0.16079561 -0.31481263 -0.17503412 0.37502268 -0.6947378 0.54092556
-0.67457116 0.39115605 0.20202833 0.16414396 -0.9478952 -0.24094257 0.5239262 -0.21288188

b3.weight f4 [64, 32, 3, 3]
00000000: 5a05 a3be 30de 14bd c265 3fbd 8e81 82bd
00000010: 4327 153d a29f 3dbe 51e1 853c b0ac e7be
00000020: ec11 cd3b 6280 cebc 85ea 9fbe 9bf6 ac3e
00000030: 6430 94bb 6c08 3f3e 3441 8dbe b271 53be
00000040: 0b78 8abe 732f d3bd cfd2 3dbe e653 2dbe
00000050: 010c 3bbd b7ac 083e bee9 3abd c46b dcbe
00000060: 2df9 213e f834 d33e f00f 3abe 31b6 d3bd
00000070: 9fa9 0abe d068 0a3e fff8 a53d 586b bc3e
00000080: 5f8e aabe adff 603d 1085 a1bd 2592 013e
00000090: c3d5 723e f2f2 563d fbb3 033e 5700 45bf
000000a0: d282 063d 9e0e 0a3f d893 bcbe 099d 9e3e
000000b0: 70a5 b53d 7e46 1ebe 2937 3e3f d9c3 363e
000000c0: 9e36 453e a941 83be f464 a93e 6891 49bd
000000d0: 7a18 f0bd ff14 adbe 9a1c 37be ac3c 813d
000000e0: e7be a6be 0b7f 843d 8dfb 32bd 8787 1f3e
000000f0: 5550 c5bd 0e1e 24be 9e9d 09be a45e 9dbe
00000100: 4db1 9cbd 3caf 903e b29c 52bd b5f3 5e3d
00000110: 500d 2abf af87 8c3e dfe5 c43e 8ad7 5bbe
00000120: 41a0 29be 1c1c b23d d1bf 97bd 9f15 40bd
00000130: 2605 d83d 77b9 663c 22a1 debd 8e82 03bf
00000140: ef21 e03e ca90 b4be e102 773e dd7f f03d
00000150: c6eb 033d cf03 d13e f011 a9be f906 9abe
00000160: d563 2abf c3d1 43be f212 4abe 460e afbe
00000170: c66d 1ebe afd9 cd3d 92cb 32bd df7e f03d
00000180: 23c3 94be 4340 fcbd b1a9 c1be 3767 5f3e
00000190: 45bf 01bd 9814 613d 208c 983e b794 b53b
000001a0: c8e1 583e 8ef3 f4bc fc26 053f 08f3 8c3e
000001b0: 3c89 163e 3c3b b13d e08c 423e 1c06 513e
000001c0: cfef e1bd a5a6 e8be b07e 32be 9e12 19bd
000001d0: af2a 623d 5a8b 6fbe 9387 0dbe 6011 883d
000001e0: 7fc8 7f3d 2f82 e23e 19ac 973e 2423 983d
000001f0: af6a 25be c2fe ae3e 4c56 833e e1b5 d2be
00000200: 3677 45bd bbfb 2f3e 2788 82be 6515 3f3e
00000210: 0508 d6bd 500c 4cbd 0378 2cbf 1732 1cbe
00000220: 99de a3be 8952 3b3e 4481 f7bd cef0 60be
00000230: 0b79 4cbf 650e a3be 536b 01be 3e13 b4bd
00000240: 5cf0 593e 9449 06bf 908a c6be 573a 003f
00000250: 18b1 85be 5d58 1c3e d362 1ebe 9ee2 bebe
00000260: f4c9 a4be 765f a5be 30dd e2bd 4b63 c53e
00000270: 3aef fe3d 58a6 e13b 2766 9dbe 26cf 08bf
00000280: 3b3f 9abd 5f2f ddbe b902 fd3e 6e33 9e3d
00000290: d0e1 cd3c c2ad 18be b543 98be 7e32 1dbe
000002a0: da7e d4bd 8860 c4be a85f 14be 21b5 1c3e
000002b0: 2f91 66be 073b b5bd a80e e5bc e0e8 e8be
000002c0: 7226 263e 6439 c2bd 9034 9c3d ab64 7fbe
000002d0: 8479 a63d 739b 9cbc aad4 68be 79e8 863e
000002e0: e38e f3bd 147e d73d 94bf 3cbe 70fd 7c3e
000002f0: e18e d53d 2abb 653d 12f7 59be 5391 e23b
00000300: 023e cfbe bf74 ba3d 9c96 073e a477 a4bd
00000310: 5f4e c63d 90dc b8bd 663d 02bf e1ea 88be
00000320: 95c6 db3d ed22 d63d 2f60 853d 4925 bfbc
00000330: dfd1 bb3d f4fa 81be 849d 3dbe 134b be3d
00000340: 05bb 013e ae73 f4be b75e 083e f380 46be
00000350: bcf1 393d 0820 8c3d ad18 e7be 0657 fc3d
00000360: bc73 e7bc b5e0 c0bd 7c13 cc3d 6b7b 80bc
00000370: 4bce a3be 6421 bf3b 6453 ec3d 7ec0 8a3e
00000380: 1aa9 ebbc 7991 58bc 5f14 0ebe 465a 883e
00000390: 504c 063f d91b 0b3d dc5c 7b3e 38b9 fc3c
000003a0: 0063 a53e f139 863d 1cf6 323e ca99 fc3d
000003b0: 4e3b b93c 34cf 25be 0fad b53e 68c9 b63e
000003c0: 3963 22be ceef 0abf d7e2 573e f29e e8bd
000003d0: 4888 25be d987 ae3b 476e 0c3e da5d cb3c
000003e0: df30 1e3e 91fb a13b b6e6 a7be 26b3 ac3e
000003f0: 950d 5abd 8d6f 033d 4607 953e 3ed5 01be
-0.3184002 -0.036344707 -0.046727903 -0.06372367 0.036414396 -0.18517926 0.01634279 -0.45248938
0.00625824 -0.025207702 -0.31233612 0.33781895 -0.00452237 0.18655556 -0.2758881 -0.2064884
-0.2704471 -0.103117846 -0.18537448 -0.16926536 -0.045665745 0.13347135 -0.04563307 -0.4305097
0.1581771 0.4125135 -0.18170142 -0.10337485 -0.13541268 0.13516545 0.08104133 0.36800647
-0.33311746 0.05493133 -0.07886708 0.12653406 0.23714356 0.052477784 0.12861626 -0.76953644
0.032839604 0.53928554 -0.36831546 0.30979183 0.08869445 -0.15456578 0.7430292 0.17848147
0.19259116 -0.25636032 0.33084834 -0.049210936 -0.117234185 -0.3380508 -0.17882004 0.063104
-0.32567522 0.06469544 -0.04369693 0.15579043 -0.09634463 -0.1602709 -0.13439032 -0.30736268
-0.07651005 0.28258693 -0.051418968 0.054431636 -0.66426563 0.27447268 0.38456628 -0.2146894
-0.16565038 0.08696768 -0.07409633 -0.04689562 0.10547857 0.014082304 -0.108705774 -0.51371086
0.4377589 -0.35266715 0.24122192 0.11743138 0.032207273 0.40823218 -0.33021498 -0.30083445
-0.6655858 -0.19122986 -0.1973379 -0.34190577 -0.15471563 0.100512855 -0.04365117 0.11742949
-0.29055128 -0.123169445 -0.37824777 0.21816717 -0.03167655 0.05495128 0.29794407 0.00554141
0.21179879 -0.029901292 0.5201261 0.27529168 0.14700788 0.08653876 0.18999052 0.20412487
-0.11032068 -0.4543964 -0.1743114 -0.03737127 0.055216487 -0.23393002 -0.13821249 0.06643939
0.062447067 0.44239947 0.29623488 0.074285775 -0.16153978 0.3417874 0.25651777 -0.41154388
-0.04820939 0.17185871 -0.254945 0.18660505 -0.10450748 -0.04981643 -0.67370623 -0.15253483
-0.32005766 0.18293203 -0.12085202 -0.2196686 -0.79872197 -0.3184692 -0.12638597 -0.08792733
0.21283096 -0.5245602 -0.3877759 0.5008902 -0.26111674 0.15268083 -0.15467386 -0.3728227
-0.32185328 -0.32299393 -0.110773444 0.38552317 0.124479726 0.006886285 -0.30742 -0.53441083
-0.075315915 -0.43200204 0.4941614 0.07724653 0.02513209 -0.14910033 -0.29739156 -0.15351292
-0.103757575 -0.38354897 -0.14489615 0.1530347 -0.2251632 -0.08849149 -0.02796109 -0.4549017
0.16225603 -0.09483603 0.07627213 -0.24940746 0.08128646 -0.019117093 -0.22737375 0.26349238
-0.11892488 0.10522094 -0.18432456 0.24706054 0.104276426 0.056086697 -0.21285656 0.0069142967
-0.40476996 0.09104299 0.13241047 -0.08030632 0.09682917 -0.09026444 -0.50874937 -0.26741698
0.10731236 0.1045588 0.06512486 -0.023333209 0.09170889 -0.25386775 -0.18517119 0.09291663
0.12668999 -0.47744507 0.13317381 -0.19385128 0.04539655 0.06842047 -0.45136014 0.12321286
-0.028253429 -0.094178595 0.09964654 -0.01568385 -0.31993327 0.005832838 0.11539343 0.27099985
-0.028767157 -0.013218277 -0.13874958 0.26631373 0.52460194 0.033962104 0.24547142 0.030850038
0.32302094 0.0655402 0.17476696 0.123340204 0.022611286 -0.16192323 0.35483596 0.35700536
-0.15858163 -0.5427216 0.21082626 -0.113584414 -0.16165268 0.005326253 0.13713942 0.024825025
0.1544833 0.004943319 -0.32793206 0.3373043 -0.05323561 0.032088805 0.29107112 -0.12679002

b3.bias f4 [64]
00000000: 4297 2e3e 2a59 123e bc94 d9bd 7959 08bd
00000010: e193 39bd df62 b6be 1877 833d 2f5b 2e3e
00000020: f9a5 febe c500 8dbe d9e0 abbe bfbd 5b3e
00000030: 6758 913d b26e 8e3e fafe 9ebe 7605 edbd
00000040: 589d 0bbe 805f 91ba 6bed 32bd 7ed1 943e
00000050: 89e7 7abb ff19 ddbe a8c1 4b3b 648a 993e
00000060: 3f5e 8d3e 4c9c cfbe 6ba7 3ebf 317f e3bd
00000070: a943 0a3f 01cf 30be 6ccd ab3d 5b38 b9bd
00000080: 2b20 43be 1e5d c3bd 3977 e2bd d49a 1c3e
00000090: 3653 07be 577f afbe 2fc0 413e bae7 783c
000000a0: ac31 e73d 49c3 b73d e37e bf3e e31e f93e
000000b0: 1845 f1bd 90bb 03be 90d0 273e 8e65 5abe
000000c0: 9ce3 ccbe 0c40 b1be 1881 31bd 4a01 1fbd
000000d0: 6e89 4cbe 9ee5 213e 224b 983d 9c49 2abe
000000e0: 7740 643e b1ba 943e ee53 e4bd 5bc6 ebbc
000000f0: 5823 98be f438 b03d 27c3 f13c 32b0 41bf
0.17049888 0.14291826 -0.10624072 -0.033288453 -0.045307044 -0.35622308 0.064192 0.17026971
-0.49736002 -0.2753965 -0.33569983 0.21459101 0.070969395 0.2781883 -0.31053907 -0.11573307
-0.1363424 -0.0011091083 -0.04368345 0.2906608 -0.0038284978 -0.43183896 0.003109077 0.29988396
0.27610967 -0.40548933 -0.7447421 -0.11108244 0.5400949 -0.17266466 0.083887905 -0.09043952
-0.1905524 -0.09539245 -0.11057896 0.15293437 -0.13215336 -0.3427684 0.18920968 0.015191967
0.11288771 0.089727946 0.37401494 0.48656377 -0.11780757 -0.12864518 0.16388154 -0.21327803
-0.40017402 -0.34619176 -0.043336004 -0.03881959 -0.199743 0.15810248 0.074362054 -0.16629642
0.22290216 0.29048684 -0.11148821 -0.028781107 -0.29714465 0.08604613 0.029512001 -0.7565948

c1.weight f4 [64, 64, 2, 2]
00000000: fadb cbbd 8523 753d bed9 c3be 61bb 5dbe
00000010: 80d5 d63d 64df 723d 5980 843d c587 a73d
00000020: f55d 8abd f9aa a2be d7b1 c03d cc95 823d
00000030: fb82 b1bc baba ab3d 0b00 2cbc 3799 863d
00000040: befd 213e 526b 17bf b8cd f7be 7910 0d3e
00000050: bc4b 3d3d f85a 6bbe 992c 2cbe 4688 45be
00000060: f1aa 723e 11e9 abbe 3d7a 7e3e 05c0 71be
00000070: dc82 ccbd 4ffb 673d 219f a9bb c715 0a3e
00000080: 641c a03d a85b 873d ef2f 853d 5fdb 613e
00000090: aba6 d53d af64 1fbf 9623 b43e 798d c2bd
000000a0: 0fb5 c4bc 3d6e 76be 50bb b5bd 1f8e 90bd
000000b0: 797f c4bd c2ad 83be 4ae9 aa3d 4beb 2a3d
000000c0: 284b 4b3e 6bf4 f5be 2ce4 7cbe f902 b13c
000000d0: 5aa8 91bd 4aa3 0abd 9909 ac3d 405d 113e
000000e0: 6ce3 0239 f53a a93e f329 c5bd 5081 aabe
000000f0: 9b37 f5be 8f59 743d 39a9 e0bd be98 e23e
00000100: 6ec5 533e 4bb9 e8bd 4995 53bf 5931 48be
00000110: 4df0 c1be c1d6 b63b 41e8 0b3d 7842 623d
00000120: 81cb 553d 22a7 11be 9766 bd3e fcd6 50be
00000130: 9144 d9be ef91 3e3e 314b e1be c2e0 3ebe
00000140: 748f e1bd d6b3 1a3e ad71 87be 07c3 dbbb
00000150: fda5 103e d2d2 d63e d0bd 46bd 6d32 a7bd
00000160: 6d7e a13e 7847 4fbd 7c64 68be 84d0 72be
00000170: 3cbf c33c 39ca a23e 1a88 05bf d69b 303e
00000180: 6f23 993d c9d9 ebbd b929 a13d 9861 e4be
00000190: 7494 9c3d 1b8e 1dbe fba2 333f 2ac8 e4bd
000001a0: 1e61 cdbd 7517 983d 7aab c8be 6697 eebd
000001b0: b661 82bd 2127 9fbc 68f3 663d 08f6 533d
000001c0: 6520 9ebe 1648 8c3e 83e0 4dbe 0384 823e
000001d0: 4c48 d23d 1a5d a7bd 027b 61be f5bb 07be
000001e0: 6582 91be 0f39 f5be 0252 663e 2a05 c23e
000001f0: cd73 0f3d 0054 99b8 8ae2 ccbb 9cab 8dbc
00000200: 0b7b fdbd 32c9 983e 7294 773e 552d b33e
00000210: e74a 3f3d 6c63 b53b 861a 69bd 2066 a1bc
00000220: 0a5a 573e 31c6 233e cba4 01bd 45ce e5be
00000230: 1d6d 463e ffdb 0cbf 5d25 19bd 45b3 c1ba
00000240: ec3c 543e 91c1 8ebd 34d8 973e eb42 da3d
00000250: 54df 78be 2174 5d3e 707e 9f3e 38d0 b33d
00000260: 7511 c23d a074 953e 506d f73c 0a03 7a3e
00000270: dc85 d9bd b80d d53e ae51 98be 9048 153e
00000280: 8549 d53d 6224 f03d d5a1 5c3e 1f0d 8cbd
00000290: 9dcb 99be 032c cebc 6098 5d3b 00fa 74bd
000002a0: 77a0 5cbe 4a70 14be 2c78 943e be02 c63d
000002b0: dcf7 e8bd 043d 313e 04f6 23be 3143 603e
000002c0: 4a7e 0e3d f2db 1dbd ed54 8bba 5db1 fa3c
000002d0: 9748 80bc 2038 6abd 3249 1f3d 9c76 9e3c
000002e0: 71c1 ad3e 24b2 b1be f6f8 09be 23dd 32bf
000002f0: c850 cd3e f23f 5fbe 3bba 943e 750f 40be
00000300: 01b3 b2bd 7511 403c 92e5 0b3f 18bc bcbb
00000310: 6b6b a3be 8195 c3be 5c92 833e 2d38 6b3e
00000320: 144c 0ebf 6796 14be db7d 1ebe 0053 b43d
00000330: 53b7 a43e b759 85be 1dc6 4c3e 7906 a3be
00000340: da2b 393e d478 79be c614 02bf f0a5 93be
00000350: b34f adbd eead a4bc f5a5 f3be a1a2 d0bd
00000360: f6c2 4f3e 542e 29be a517 01be 3218 c43d
00000370: 0af1 2d3e 6a87 84be 70bb 083e f8ec fcbe
00000380: dac2 c83d 3b26 1e3d 8c0a b33e b639 b5be
00000390: d5be a4be 7b6d 963e 36f2 9e3d 4bdc ac3e
000003a0: a11b 613b 77d1 6a3d 0db0 fe3c 9411 f2bb
000003b0: d14c 813d a7f1 ffbc 0b8c 4cbd bbc5 85bd
000003c0: 184b 453c 2980 44bd 8f57 b13e dd21 01be
000003d0: d1da d93e 8b6c 99be 441a 00bb 4b4f b4be
000003e0: a6fd 55bd 1424 243e b5cb 20be 03a4 003f
000003f0: fd1d ff3d ed47 3d3e 8164 ba3e 05be 8bbd
-0.099540666 0.059848327 -0.38252062 -0.2165351 0.10489941 0.059295073 0.06469793 0.08180193
-0.06756202 -0.31771067 0.0940892 0.06376228 -0.021668902 0.08385225 -0.010498057 0.06572192
0.15819451 -0.5914813 -0.48399138 0.13775815 0.046214804 -0.2298392 -0.16813888 -0.19290265
0.23698021 -0.33576253 0.24851318 -0.23608406 -0.09985897 0.05663615 -0.0051764403 0.1348487
0.07817915 0.06609279 0.06503283 0.2205634 0.1043218 -0.62263006 0.351834 -0.0949964
-0.024012117 -0.2406549 -0.08873618 -0.070583574 -0.09594626 -0.25718504 0.083452776 0.0417283
0.19852889 -0.4803804 -0.24696416 0.021607863 -0.07112189 -0.03384713 0.08400268 0.14195728
0.00012482487 0.33052793 -0.09627142 -0.33301783 -0.47893986 0.059655722 -0.10969777 0.44257158
0.20680782 -0.11363467 -0.82649666 -0.19550075 -0.37878647 0.0055798 0.03415704 0.05523917
0.05219603 -0.14223912 0.36992332 -0.2039451 -0.42435125 0.18610357 -0.4400268 -0.18640426
-0.1101369 0.15107664 -0.26453915 -0.0067065987 0.1412582 0.41957718 -0.048520863 -0.08163915
0.31541768 -0.050605267 -0.22694582 -0.23712355 0.023894899 0.3179491 -0.521608 0.17246947
0.074774615 -0.115161486 0.07869286 -0.44605708 0.07645503 -0.1538624 0.70170563 -0.11170991
-0.10028289 0.07426349 -0.39193326 -0.11649971 -0.06366293 -0.019427838 0.056384474 0.051748306
-0.3088409 0.27398747 -0.20105176 0.25491342 0.10267696 -0.081720546 -0.2201958 -0.13255294
-0.28419796 -0.47895095 0.22492221 0.37894565 0.035022546 -7.311255e-05 -0.0062525915 -0.017293744
-0.12376984 0.29841 0.24177721 0.34995523 0.04670229 0.0055355337 -0.05691006 -0.019702017
0.21030441 0.15993573 -0.0316513 -0.44883934 0.19377561 -0.5502319 -0.037389148 -0.0014778158
0.20726365 -0.069705136 0.29657137 0.10657295 -0.24303943 0.21626331 0.31151152 0.08779949
0.09475986 0.2919054 0.030203491 0.24415222 -0.10621235 0.4161203 -0.29749817 0.14578462
0.10414413 0.117256895 0.21546109 -0.0683844 -0.30038157 -0.02516747 0.0033812746 -0.05980873
-0.21545587 -0.1449596 0.28997934 0.09668492 -0.113754004 0.17308432 -0.16011816 0.21900631
0.034788407 -0.038539834 -0.0010630168 0.030602152 -0.015659614 -0.05718243 0.038888164 0.019343667
0.33936647 -0.34706223 -0.13473877 -0.6986868 0.40100694 -0.21801737 0.29048333 -0.18755896
-0.087255485 0.011722912 0.5464717 -0.005759727 -0.3191789 -0.382 0.256976 0.22970648
-0.55584836 -0.14510499 -0.15477698 0.088048935 0.32171115 -0.2604501 0.19997449 -0.31840876
0.18083134 -0.24362499 -0.5081295 -0.28837538 -0.08462467 -0.020102467 -0.47587553 -0.10187269
0.20289215 -0.16521579 -0.12606676 0.095749274 0.1698648 -0.25884563 0.13352752 -0.49399543
0.0980279 0.03861068 0.34968984 -0.35395592 -0.32176843 0.29380402 0.07761042 0.3376182
0.0034348744 0.057328667 0.031089807 -0.0073873494 0.0631348 -0.031243159 -0.049938243 -0.06531855
0.0120418295 -0.047973786 0.34637114 -0.12610574 0.42549756 -0.29965624 -0.0019546906 -0.35216746
-0.05224385 0.16029388 -0.15702708 0.5025026 0.12456892 0.18484469 0.36404803 -0.06823353

c1.bias f4 [64]
00000000: 0170 243f fbbb 2fbf 0242 87bd 0d52 a8be
00000010: 9dc3 1abf d728 50bf 63a5 a7be fb58 0fbf
00000020: 7db5 013f c5d3 b63b 4459 3c3f 57f0 59bf
00000030: 6caa 35bf 9972 c73e 5615 f0be e8e3 51bf
00000040: 2d11 dbbe 3ef1 94be 9f21 b0be 3fe6 dcbe
00000050: 0758 08bf 0383 0cbf e0a4 01bf 473a cdbd
00000060: 0cb7 7f3d 64b8 98be d458 29bf 073a 283f
00000070: a859 3ebf 9f56 0dbf 37c0 973e 0805 d03d
00000080: 21fe 0bbf f479 46be c0c9 c23e cdb8 babe
00000090: 3f7d 73be 15fe 16bf 7416 32bf 6ade d7be
000000a0: 4137 983e bbf5 0fbf 50b7 273e 7f71 6ebf
000000b0: 0ba7 d33e b013 233f 8851 83be f066 3fbf
000000c0: 9445 d5be 4ff3 03bf d611 7ebd 7d23 c4bc
000000d0: bdb4 18bf fb0a 2fbf f625 623f a39d 17bf
000000e0: c842 05be 4694 27bf 1580 72be b2cf bebe
000000f0: 0456 d9bd e6d9 9e3d 1729 c03e e3e3 23bf
0.64233404 -0.6864621 -0.06604387 -0.328751 -0.6045473 -0.81312317 -0.32743368 -0.5599515
0.50667554 0.005579444 0.7357371 -0.85132354 -0.7096317 0.3895462 -0.46891278 -0.8198838
-0.42786542 -0.29090303 -0.3440065 -0.43144414 -0.5325932 -0.5488741 -0.50642204 -0.10020881
0.062430426 -0.2982818 -0.66151166 0.6571354 -0.74355555 -0.552103 0.29638836 0.1015721
-0.54684645 -0.19382459 0.38044548 -0.36469117 -0.23778246 -0.5898145 -0.6956551 -0.42161876
0.29729655 -0.5623433 0.16378522 -0.9314193 0.4133838 0.63701916 -0.2564814 -0.74766445
-0.41654646 -0.51543134 -0.06202873 -0.023942703 -0.59650785 -0.6837613 0.88339174 -0.5922491
-0.13013756 -0.6546062 -0.23681672 -0.37267834 -0.10612109 0.077564046 0.3753135 -0.640196
