nets/model_epoch_51.pth (torch, 648794 bytes, 25 tensors)

a1.weight f4 [16, 5, 3, 3]
00000000: f733 b63d 3806 0a3e 1234 38bd 7fd3 0cbe
00000010: e04a 88bd 74ea 8a3e 63be 30be 6a33 ac3c
00000020: 20fa d9be 79f1 c2bd 9cc1 c3bd 07f8 0fbe
00000030: 0805 683c 2a0f 09be 6315 6abe 1b88 abbe
00000040: 73c8 9dbd f8b3 fbbd 28f6 b03d 98dd 34be
00000050: 5c2b 983c ad33 753d 1f32 bebe f938 bc3c
00000060: 9f45 04be e4ad 0abe 2c97 cf3b 7bb5 4fbe
00000070: 131d 7ebd 2605 903d ed35 50be ed04 d0bd
00000080: d850 dfbe dad0 22be 879a 46be 74a3 103e
00000090: 5e38 2cbe bbc6 d4bd 1c91 34be 9885 efbc
000000a0: 3875 57be f4f9 20be 082c 30bc 42d9 f2bd
000000b0: b449 3dbd c293 453e 3759 b1bd 3d95 30bd
000000c0: dae9 ab3e d8ce fb3c ffba ae3e 16e0 34bb
000000d0: 8da3 003f 5122 64be 7a20 cc3d d7f1 933e
000000e0: 4fe5 b33d 361b 5abc 4d45 563e f8d6 62bc
000000f0: f814 0f3e 3e8e 15bf 0a16 593d d838 1f3e
00000100: 193b bdbd efc8 bebd 8f4b b33e 0c7b 1d3d
00000110: 8986 dbbe d45c 12be 067d 3dbe 0fcb f23d
00000120: ffd4 f9bc ecd7 b3be 565f dcbe ffd1 aebc
00000130: ab87 a13e 92f2 f03d b2a8 023e 775f 213e
00000140: 0413 02bf 98df 24bc fbcf b13c 14b5 4abc
00000150: 06d3 ad3d 8b80 033d 83ec e1bc a735 88bd
00000160: 4591 8bbd 03ed 0f3d 30cb a2be 523c da3d
00000170: 55e2 bc3e 597a e03c 71a6 513e 2c07 a03c
00000180: 920a 0e3f eca4 e63e 2125 d83d 87fc 323e
00000190: 83e0 643e 8802 373e 3d9e 35bd 155d 70bc
000001a0: 2c02 533c db3b c0bd b2f2 17be 722b 703d
000001b0: bc47 843e c422 ee3e 9919 5f3e 1aac b53d
000001c0: 58dd 50be 486c af3e 7b6f a8be 521c b1bd
000001d0: 16f7 333e 7d77 47bc 5ac0 9fbe 1bec 6cbe
000001e0: ed5e 0e3d 42a5 31be e47d a9bc 5228 a63d
000001f0: 9564 223d 713d 9abe bdd5 c1bc cbe8 143d
00000200: 0268 533c 6fc5 18bd 6091 f53d 6039 e7bd
00000210: d922 9cbc bfcc 68bd f282 7a3d c137 243e
00000220: 4675 d23d 5e28 81be de14 0c3e 634c 133e
00000230: 74bf 99be cf95 bc3d 8030 c3be 6e61 8e3e
00000240: 663e 30be bd09 e7be 9630 83be 97fc b6be
00000250: c6c7 edbc 827b 24bf 3a0f 6b3d a69f 013d
00000260: 4347 aebc a195 bdbc fc2d ca3d 4a2f 2a3c
00000270: 6ba5 2dbe e0fa a7bd 2f2e a7be 0c5e 31be
00000280: 1451 23be d5c8 bc3e 9d8c 693e 9d30 893e
00000290: 72fa 683e 3c3e ba3e ba90 08be 009b 133f
000002a0: 5779 3f3e 45b3 53bd 9150 74be 0a36 2ebd
000002b0: c234 c63c fea5 353d 03bf 91bb 7771 41bc
000002c0: 64d5 f43b 02be 583d 9341 37bd 4a6c 98bc
000002d0: e2db 5b3e 2801 5f3d eb7b 80be 3be9 023d
000002e0: 3895 1d3e 688e 913e 5920 9a3c c4ee 553e
000002f0: 4386 7e3e 528a 483e 0d30 e1bd 6295 063d
00000300: 5555 57be 8d5e 40bd 9779 22be 1ad1 123e
00000310: 40ad c93d accc 21be 0843 9e3d ec35 363e
00000320: 5c9e ea3e 6ced 0bbd 8a59 0d3b 6c24 12be
00000330: 07e1 a1be e91b a93e 3df1 e03a 8826 1abe
00000340: 98f7 e6be 4fc4 d3be 0fd6 d33d 75cf 653d
00000350: 820c 1fbe b583 4abe 4f53 43bd f7f5 543d
00000360: 5c31 cbbc a90b af3c 323c 94bc 09a1 223d
00000370: 1fbf d8bd 8f6d cc3c 789e 4c3c a61a c03d
00000380: e072 62bd 7308 9cbd 2d43 8cbd 7f6f 823e
00000390: d096 ac3b 5187 f2bd 508f 51bd 8934 4f3e
000003a0: ebba 1ebe a89f c03e 7a5d 4abd 397a cc3e
000003b0: aada 863e 74a3 9aba 15a1 24bd baa1 adbe
000003c0: 2829 4f3d 4657 6e3e b5a4 13bf 9564 1a3d
000003d0: ca85 a53d 046e bd3d f08b 2cbe 9297 983e
000003e0: 9d28 b2be c0b0 40be 3b5b 0abe da49 d6be
000003f0: fd3a 913e 1081 adbb 5c89 a83d 4faa aa3c
0.0889663 0.13478935 -0.044971533 -0.13752554 -0.06654906 0.27132 -0.17260127 0.02102061
-0.42573643 -0.095187135 -0.095584124 -0.14059459 0.014161356 -0.13384691 -0.22859721 -0.33502278
-0.07704248 -0.12290186 0.086407006 -0.17662656 0.018575363 0.059863735 -0.37147614 0.022976385
-0.12917183 -0.13542897 0.0063351598 -0.20284073 -0.062039446 0.07032232 -0.20333071 -0.101571895
-0.43616366 -0.15899983 -0.19394885 0.14124852 -0.16818377 -0.10389467 -0.1763348 -0.029238507
-0.21040809 -0.1572035 -0.010752685 -0.11857845 -0.046212867 0.19294646 -0.086595945 -0.043111075
0.33576852 0.03073828 0.34127042 -0.0027599386 0.5024956 -0.22278716 0.09967132 0.28895447
0.087839715 -0.013312152 0.20924874 -0.013845198 0.13972843 -0.5842017 0.052999534 0.15549028
-0.092397876 -0.09315669 0.35018584 0.038447425 -0.4287608 -0.14293224 -0.18504724 0.118551366
-0.030497072 -0.35125673 -0.43041486 -0.021340368 0.3154882 0.117650166 0.12759665 0.15759073
-0.50810266 -0.0100630745 0.021705618 -0.012372274 0.08487515 0.03210501 -0.027578598 -0.06650858
-0.06814817 0.03513814 -0.31795645 0.106560364 0.36891428 0.02740209 0.20473649 0.01953467
0.5548488 0.450477 0.10553957 0.17479144 0.2235127 0.1787206 -0.04434036 -0.01467063
0.012878936 -0.093864165 -0.14838675 0.058635183 0.2583598 0.465109 0.21787108 0.088707164
-0.20396936 0.342623 -0.32897553 -0.0864798 0.17574725 -0.012174484 -0.3120144 -0.23136942
0.034758497 -0.17348197 -0.020689912 0.08113159 0.039646704 -0.30125 -0.023661489 0.03635482
0.012903215 -0.037297662 0.11990619 -0.1129024 -0.019059585 -0.056835886 0.061160035 0.16036893
0.102762744 -0.2522611 0.13679835 0.14384608 -0.3002888 0.09208261 -0.3812294 0.27808708
-0.17211303 -0.45124617 -0.25623006 -0.35739586 -0.029025923 -0.6425096 0.057387568 0.031646393
-0.021274215 -0.023142638 0.09872052 0.010387251 -0.16957633 -0.082021475 -0.32652423 -0.17321032
-0.15948898 0.36871973 0.22807546 0.26794901 0.22751787 0.36375606 -0.13336459 0.57658386
0.18698631 -0.051684637 -0.23858859 -0.042532004 0.024195079 0.044347756 -0.004447819 -0.011806837
0.007471727 0.05291558 -0.04474027 -0.018606324 0.21470597 0.054444462 -0.25094542 0.031960707
0.15388954 0.2842896 0.018814253 0.20891863 0.24855904 0.19584015 -0.10995493 0.032857306
-0.21028645 -0.04696517 -0.15866695 0.14337578 0.09847498 -0.15800732 0.07727629 0.17794007
0.45823944 -0.03416197 0.0021568262 -0.14271706 -0.31616995 0.33029106 0.0017161738 -0.15053761
-0.45110774 -0.4136071 0.10343563 0.05610605 -0.15532115 -0.19776805 -0.04768687 0.051992383
-0.02480381 0.021367865 -0.01809511 0.039704356 -0.105833285 0.024954585 0.012488954 0.09380083
-0.055285335 -0.07618799 -0.0684875 0.2547569 0.0052670017 -0.11842216 -0.051162064 0.20234884
-0.15500991 0.37621808 -0.049405552 0.39936998 0.26338702 -0.001179798 -0.040192682 -0.3391245
0.05057636 0.2327548 -0.576732 0.03769358 0.08082159 0.092494994 -0.16850257 0.2980314
-0.3479661 -0.18817425 -0.13511364 -0.4185322 0.28365317 -0.0052949265 0.08229324 0.020833163

a1.bias f4 [16]
00000000: d3f2 433d 003a d8bd 42d4 65bd 955e 14be
00000010: 99eb 183e 3d20 fdbd 4718 213d 24f7 e3bd
00000020: 77d0 17be de88 d33d 0858 64bd c9fa d83d
00000030: e3d5 aebd 3f94 94bd b8e5 8b3e 8886 733e
0.047838997 -0.105579376 -0.056110628 -0.14489205 0.14933623 -0.123596646 0.039329793 -0.11131123
-0.14825617 0.1032884 -0.055748016 0.105947085 -0.085368894 -0.07254838 0.273237 0.23781788

a2.weight f4 [16, 16, 3, 3]
00000000: 4c3b 2fbc ef49 aabe 9ef5 2bbe ddf3 af3e
00000010: 1ac3 113e a55b 75be 5fe7 503d 8109 32be
00000020: 8b0d 253e cab9 f6bc d29d 1b3e 30e1 6f3b
00000030: 87de 0bbe 8647 333e c5c4 47be 1e70 3bbd
00000040: f8c7 f73d 4f7d 90bd c80a 92bd 0038 47be
00000050: 099f a0be f893 e3be 44f1 94bd 84c2 213b
00000060: d5a9 b3bd d646 d2be f964 fa3d 552e 3ebf
00000070: daf2 8d3e ad3f a9be d016 163f acd4 81be
00000080: f067 653e 843e e33d b004 983d 2e4d 8e3d
00000090: 76e9 15ba c090 d9be 532f 8fbd 10e4 233d
000000a0: b705 85bd 349f 41be 977a 01bf 38b2 4ebe
000000b0: d309 4ebe fe05 bd3d dbc1 65be 74a4 0ebe
000000c0: f312 813e c50c 5f3d bc2c 253e 9c62 cdbe
000000d0: 154e 213e 4138 3e3e 3a40 44be 54f3 803d
000000e0: c9c3 513d 241a cb3e 3d22 b23e c52e 143d
000000f0: bafe 8d3d d203 5fbc ec6a 95bb 6266 aa3e
00000100: d249 4ebe 899a 68bd 5435 9dbe b827 9fbc
00000110: 655e 15be 209f 02be fad2 cfbd c084 783e
00000120: 6e53 813e 1611 d43d f591 203d ba86 d4bc
00000130: 3247 743c 9ae5 623e bfee 63be 3a2c d83e
00000140: a8ea 0b3e 638d 6e3d b6a8 6f3e 683f 02bd
00000150: 5bdf 3cbe ceb6 253e cf36 ef3e 055a 173e
00000160: 0afe 863d b186 2e3e 19ce 2dbe f8c2 8cbd
00000170: 437a 20be 08ae f83d cc3a 6f3e c4f4 bbbe
00000180: c246 913d 30b7 b43c 8738 4c3e e65c aabe
00000190: d7ed 8fbd 7a72 0ebd 9af3 28be c6a1 21be
000001a0: b3f1 d93c d1c9 0a3f 1369 603d cad2 1bbe
000001b0: 009f 79bd b0f6 00be ed30 723d 693e efbb
000001c0: 7b61 0a3f 6f49 abbe 89ef 093f 5b65 743e
000001d0: 0398 50be 8544 633e 9f6c b6be b680 02bf
000001e0: 5d0d 493d 54c1 df3e c504 403e f4f2 7a3e
000001f0: 42cf 3abe c44b 323d 2587 c4bd b671 29bf
00000200: 3399 54bd caf4 28bd 24d5 1cbd 3359 8ebe
00000210: 6987 4abd eae5 36be b2af 133e df10 adbe
00000220: 285b fcbb 8e20 34be 6166 dfbd 0571 51be
00000230: 01f1 0a3f f68c 72be 735a 943c 3104 053d
00000240: 2f4e 8dbd 0ac3 dcbd 2e53 493d 4d71 3fbe
00000250: 9a8c 47be cc67 f33c 0713 1abe 2bfa 99bd
00000260: 15c1 19be b6c8 70bd cb30 d1bd 9431 5f3e
00000270: 98c3 cabd ae31 12be 8d92 ae3c eb1c c13d
00000280: cf6b d43d ea18 c23d 0b40 0b3e da97 58bb
00000290: 27e6 493e 65c5 85bc 3f9e 353e 60ff 1a3e
000002a0: 5d08 a83b 6c7a b83d c3e1 ed3d ce38 35be
000002b0: b4ea 313e 4321 943e f42a b9bb 0a9c 50bc
000002c0: 67b9 67bd 2278 d13d 19a7 11be aa39 a13e
000002d0: 19e0 a03e 7c10 2fbe ccd9 263e ee93 173e
000002e0: 1244 d13d 2a49 b9bd 142d 473e 78a3 9cbd
000002f0: e7a9 9abd d48a 0fbe b902 0c3e 0ef2 4a3e
00000300: dafc 863c b442 933c 01e5 85bd 2515 8e3d
00000310: d8f0 c73d 66b8 30be 59e7 5dbd a12e b4bd
00000320: aaae 0bbe 9f9a aebd 3b4b 00bd 7acc be3b
00000330: f940 f0bd 657c 48be 3c2b e93b d5e2 d13d
00000340: cf46 553e afbf be3d cbe7 21be c318 f03d
00000350: f22c 5f3c 8c7a 143e 86a5 d5bc 6625 d73e
00000360: 99cf 66bd 8e72 ddbd 2275 b23d 15e6 b5be
00000370: f2bf de3d 7832 d1bd ae3a 74be 1a54 a13e
00000380: b220 50bd ce91 4fbd 7899 9abd 74e0 933d
00000390: dd39 953d 9595 943d 03ba 873d 1a80 3bbc
000003a0: 5021 97bd 1e9c 20be 6ec8 473e 6b93 153e
000003b0: 3541 babd 7117 083d d806 63be 5790 6a3e
000003c0: 1ea5 58bd 040c 503e 954a 7ebe 47ae 313d
000003d0: eade d53e 337b 0e3e 0ee3 903c be0a c93d
000003e0: 6492 903e 7f43 6ebe 766c 68be f3cb 52be
000003f0: 0220 88bd 45b0 a53e bc9f f0bb 5ea3 02be
-0.01069529 -0.33259532 -0.16792914 0.3436574 0.14234582 -0.23960741 0.051001903 -0.17386438
0.16118447 -0.030117888 0.15196922 0.0036602728 -0.13659106 0.17507753 -0.19508655 -0.04576122
0.12098688 -0.07055151 -0.071309626 -0.19454956 -0.31371334 -0.4444883 -0.0727258 0.002468259
-0.08772627 -0.4106967 0.1222629 -0.7428945 0.27724344 -0.33056393 0.5862856 -0.25357568
0.2240293 0.11095908 0.07422769 0.069483146 -0.00057186873 -0.42493248 -0.06991448 0.04001242
-0.06495231 -0.18908387 -0.5057768 -0.20185173 -0.20120935 0.092296585 -0.22437231 -0.13929921
0.2520977 0.054455537 0.16130346 -0.40114295 0.15752442 0.18576147 -0.19165125 0.06296411
0.051212106 0.3966838 0.34791747 0.036177415 0.06933351 -0.013611751 -0.004559865 0.33281237
-0.20145348 -0.056788 -0.3070475 -0.019428119 -0.1458679 -0.12756014 -0.101476625 0.2426939
0.25258964 0.103548214 0.039201695 -0.025943149 0.014909552 0.22157899 -0.22259043 0.42221242
0.13663733 0.058240306 0.23404202 -0.03179875 -0.18444578 0.16183016 0.46721503 0.14780433
0.06591423 0.17043568 -0.16973151 -0.06873125 -0.15671639 0.12142569 0.23362273 -0.3671018
0.07093574 0.022060007 0.19943438 -0.33274 -0.07027786 -0.034777142 -0.16499177 -0.15784368
0.026604509 0.542142 0.054787707 -0.15217128 -0.06094265 -0.12594104 0.05912869 -0.007301141
0.54054993 -0.33454463 0.53881127 0.23866789 -0.20370488 0.22194107 -0.35629746 -0.5097765
0.04908501 0.43702185 0.1875182 0.24506742 -0.18243125 0.043529287 -0.09596089 -0.66189134
-0.051903915 -0.041249074 -0.038289204 -0.2780243 -0.049445543 -0.17861143 0.14422491 -0.33801934
-0.0077012964 -0.17590544 -0.10908199 -0.2045327 0.5427399 -0.23686585 0.018109536 0.0324747
-0.06899678 -0.10779388 0.049151592 -0.18695565 -0.19487229 0.02971258 -0.15046321 -0.07518419
-0.15015061 -0.058785163 -0.10214385 0.21796256 -0.09900588 -0.14276764 0.021310115 0.09429344
0.10372125 0.09477408 0.13598649 -0.0033049495 0.19716702 -0.016329477 0.17736147 0.1513648
0.00512795 0.09007725 0.11615326 -0.1769745 0.17374688 0.28931627 -0.0056508724 -0.012732515
-0.056573298 0.10227992 -0.14223899 0.31489307 0.31420973 -0.17096132 0.1629402 0.14802524
0.102180615 -0.09047158 0.1945079 -0.07648367 -0.075519376 -0.14017802 0.13672914 0.19818899
0.01647799 0.017976142 -0.0653782 0.06937627 0.09762734 -0.17257842 -0.05417571 -0.08797956
-0.13640848 -0.085255854 -0.031321745 0.0058227153 -0.117311426 -0.19578703 0.0071157496 0.10248343
0.20827793 0.093139045 -0.15811078 0.11723473 0.013621556 0.14499873 -0.026079904 0.4202072
-0.056350324 -0.10812865 0.087137476 -0.355271 0.108764544 -0.10214704 -0.2385051 0.31509477
-0.05081243 -0.05067616 -0.07548803 0.072205454 0.07286427 0.07255093 0.06627276 -0.011444116
-0.07379401 -0.15684554 0.19510052 0.14607017 -0.090944685 0.03322548 -0.2217058 0.22906624
-0.052891843 0.20317084 -0.24833138 0.043379094 0.41771632 0.13914184 0.017686393 0.09816502
0.28236687 -0.23267935 -0.22697625 -0.20585613 -0.0664673 0.32361045 -0.0073432606 -0.12757632

a2.bias f4 [16]
00000000: 92da d9bd 8dbf 52be 9b26 d8bd cc3c f7bc
00000010: d18c 2f3d aff2 33be 718e 18bb fb89 95bc
00000020: 8371 0b3e 18c5 04be c60a 4ebe c43a 85bc
00000030: 1d25 34be 8060 403d 16eb 343e 9847 073e
-0.10637392 -0.20580883 -0.105542384 -0.030180357 0.042858902 -0.17573045 -0.002327826 -0.01825427
0.1361752 -0.1296581 -0.20121297 -0.016263373 -0.17592283 0.04696703 0.17667803 0.13210905

a3.weight f4 [32, 16, 3, 3]
00000000: 87d8 2cbe b257 cd3e ba78 07bf 5ffb bcbd
00000010: 71de 03be 5144 d0bd e6c3 21bf d51e 8fbd
00000020: 7202 383e 961e 5fbd efa5 c8bd a66f 46be
00000030: ce0d 40bd fad0 6b3e c860 493e efd6 aebe
00000040: 1adf 37be 0ae2 f1be 604d 2c3e 6fe0 8ebd
00000050: 8595 493e 6d42 fa3d 888f 463e 1113 13be
00000060: b319 b8bd b0fe e83d 4504 09be 88cc 9fbe
00000070: f597 673e a24b 663e b319 c03d 1a73 90bd
00000080: 4e46 0e3e 8927 d9bd 497d 0ebe e577 3f3c
00000090: 4608 403e f65f fa3d 342e 3fbe 44a5 60bd
000000a0: 9a2f a23e d519 9fbd 2116 313e 9a65 703d
000000b0: 3bf3 dfbc ab94 cd3d 9d13 5cbc 0870 0bbe
000000c0: 1e74 9c3e a804 55bd 3429 ba3e 1454 e9be
000000d0: 92aa 38be c8c2 0c3e 4456 793d 2b44 6c3c
000000e0: a0be 4cbe bc85 373d 4c56 fa3d a356 21be
000000f0: 8a66 b83d 2126 9f3e 1edb 8b3d 8697 253e
00000100: 99d1 673d 4494 7b3d 4fb1 163e ecbc 9f3e
00000110: d3b9 a4be 02bc bd3e 3d31 05be 9895 8cbe
00000120: fa65 81bc bf91 573e bb1a 13be 0aa1 fe3d
00000130: a03d a63e 36a0 323d ba19 4e3d 329d 8dbe
00000140: e9a3 07be 0a0a 733c e6ba 7f3e 0efc a0bd
00000150: 9545 893e 232c 83bd 6c83 8d3c b699 12be
00000160: 2001 14be 8876 d93d 2488 56bd 029f 8e3d
00000170: ab71 fcbd a9d8 fe3d 1d2c a2be 0c0e d33e
00000180: 56fb 343d 7271 eabd 1817 92be 8fa8 b3bc
00000190: 01d1 84be 8bc3 cbbd 4baf 37be 8b14 bc3e
000001a0: c9e0 fabc 5615 49be 08c0 903e a342 29be
000001b0: 8c10 a8bd fb8a c8be 47de 9cbe a6fc 763e
000001c0: 2f7d 3cbd 38a1 aa3e 001b 26bf 6a94 4f3d
000001d0: cc5a 28bd 6836 0d3f cad8 cf3d c5cc dcbc
000001e0: 2899 cf3e 024f 4f3b 76c1 27be d6b4 473e
000001f0: 96b5 44bc dbf1 913e 9568 cb3e ca03 88be
00000200: ffb5 bdbe b6dc 973d b493 833e a14f 44be
00000210: fa68 f23d c083 a7bd d6f8 9bbe 8fd4 c9bc
00000220: 403d b43d 5295 013e bdb3 8ebb c8b8 d43e
00000230: a69b 4bbf cf55 263e e8cf 86be c83e 83be
00000240: 4be8 153e ee2d c7bd 00f6 fa3e aad7 003e
00000250: cd89 a23c f266 3b3e d207 0ebe 1a34 3abd
00000260: 3c5c e53d a3d1 aebd 76a0 a8bd e400 4c3e
00000270: fbe6 3cbe 4745 4cbe 8388 5b3e 0219 843e
00000280: 9141 323e a115 3cbe 5c35 d5be a277 33bc
00000290: a3ff cdbc f021 453e 5eec 02be d245 99be
000002a0: da07 61be 9079 5a3c 1b2f 9fbe 21e0 1ebe
000002b0: 1982 e8bd b849 18be 9378 4dbe 6505 313e
000002c0: 0082 313e 275a a43d a72d 21be f320 193e
000002d0: d60f 7bbe 30a9 00be a630 c3bd f880 81be
000002e0: 02a6 0bbe 42ee 843e d945 93bd 75bf 37be
000002f0: 33f6 7e3e b8e9 323d af74 a83d c099 f83d
00000300: ced2 c83d 5516 3bbd 688e b03e 74ab 9fbd
00000310: 0109 74bd 91ba 143e cb2f 1fbe d54f 22be
00000320: 5205 fd3d 225b 87bd b723 6dbe b448 293e
00000330: 8820 f73d e793 673e dde3 883e 9c21 6cbe
00000340: 7eaf 463d 7118 ecbe 912b f33d c7b7 c03e
00000350: d94c f3bd f1f7 25bf d668 213e e6a3 953e
00000360: 553a e83d 13ce b13e 759b 20be ce9e 8cbe
00000370: c647 fbbc 3e37 f6be fe9a 0abe 439e 28be
00000380: 9c59 983c 821b 453e 8dca 02be 9d62 eabd
00000390: dbcb e6ba 9dc7 f1bc 51a2 8abe 6ec0 61bc
000003a0: 908b 623e 2077 883d 0ed7 953e 54ff 29be
000003b0: f2c0 903e 0b6d 6dbe 5b12 43be 9d44 5cbe
000003c0: b95c 2ebe c942 e3be a0b7 c2bd e423 b0be
000003d0: 98a3 c6bc e59e bdbd 5436 30be c7ac c7bd
000003e0: 8bd4 333e 6a23 25bf e47c 84be a9c7 403e
000003f0: c2c1 933e e122 e8bd eb3e 623e dabf 89be
-0.16879474 0.4010597 -0.5291859 -0.09227633 -0.12877823 -0.1016928 -0.6318954 -0.069883026
0.17969683 -0.05447253 -0.09797274 -0.19378528 -0.046888165 0.23028937 0.19665825 -0.34148356
-0.179562 -0.47242767 0.16826391 -0.06976401 0.19685943 0.12219701 0.1939069 -0.14362742
-0.08989277 0.11376703 -0.13380535 -0.31210732 0.22616561 0.22489789 0.09379902 -0.07053204
0.13894007 -0.10603244 -0.1391498 0.0116863 0.18753156 0.12225334 -0.18669969 -0.05484511
0.31676942 -0.07768599 0.17293598 0.058690645 -0.027337661 0.10038122 -0.013432411 -0.13616955
0.3055734 -0.052006394 0.3635956 -0.4557196 -0.18033817 0.13746178 0.060873285 0.014420549
-0.19994593 0.044805273 0.12223491 -0.15755706 0.09003933 0.31083778 0.06828903 0.16171083
0.056596372 0.061420694 0.14716075 0.31198823 -0.32173023 0.370575 -0.13007064 -0.2745788
-0.015795697 0.21051691 -0.14365666 0.124330595 0.3246889 0.04360982 0.050317504 -0.27658993
-0.1324612 0.0148339365 0.2497364 -0.078605756 0.268109 -0.06404903 0.01727458 -0.14316449
-0.14453554 0.10618311 -0.052375928 0.06963922 -0.12326368 0.124436684 -0.3167428 0.41221654
0.044185005 -0.11447419 -0.28533244 -0.021930961 -0.25940707 -0.09949406 -0.17937963 0.36734423
-0.030624764 -0.19637045 0.28271508 -0.16529326 -0.08206281 -0.39168534 -0.30638334 0.24119815
-0.046017822 0.33326125 -0.6488495 0.050678648 -0.041102216 0.5516114 0.10148771 -0.02695311
0.40546536 0.0031632786 -0.16382393 0.19502577 -0.012006184 0.28504834 0.39728227 -0.2656539
-0.37052915 0.07415144 0.25698626 -0.19171001 0.11836429 -0.08179426 -0.30463284 -0.024637489
0.08800745 0.12654617 -0.0043549226 0.41547227 -0.79534376 0.16243671 -0.26330495 -0.25633836
0.14639394 -0.09725557 0.49015808 0.1258227 0.0198411 0.1830099 -0.1387017 -0.045459844
0.11199233 -0.08536079 -0.082337305 0.19922215 -0.18447487 -0.19948302 0.21438794 0.2580033
0.17407824 -0.18367626 -0.41642272 -0.010953816 -0.025146311 0.19251227 -0.1278548 -0.2993608
-0.21975651 0.013334647 -0.31090626 -0.15515186 -0.11352939 -0.14871871 -0.20065527 0.17287214
0.17334747 0.08025008 -0.15740071 0.14953975 -0.2451776 -0.1256454 -0.09530763 -0.25293708
-0.13637546 0.25963026 -0.07191057 -0.17944129 0.24898605 0.043679923 0.08225381 0.121387005
0.09805833 -0.045675594 0.34483647 -0.07796374 -0.0595789 0.14524294 -0.15545575 -0.15850766
0.123545304 -0.06609179 -0.23158155 0.1653164 0.12066752 0.22615014 0.26736346 -0.23059696
0.048507206 -0.46112397 0.11873544 0.3764021 -0.11879892 -0.64831454 0.15762648 0.29226607
0.11339251 0.34727535 -0.15684302 -0.27464908 -0.030673873 -0.4808902 -0.13535687 -0.16466622
0.018597417 0.19248775 -0.1277258 -0.1144459 -0.0017608361 -0.029514128 -0.27076963 -0.013778789
0.22123551 0.06663346 0.29265636 -0.16601306 0.28272206 -0.23186128 -0.19049971 -0.21510549
-0.17027558 -0.4438689 -0.0950768 -0.34402382 -0.02424793 -0.09258822 -0.17208225 -0.097497515
0.17561547 -0.6450716 -0.25876534 0.18826164 0.28858763 -0.113347776 0.22094314 -0.26904184

a3.bias f4 [32]
00000000: 2a11 74be fa95 8a3d 294c eb3d 5275 aebe
00000010: 272f 9dbe 9e27 363d 760c 053e 9b56 3fbe
00000020: 5cbd d0be 9635 5bbe c913 3ebe b18b ffbd
00000030: 6f06 1abf 6f60 08be dcbc f0bd 37d6 d13e
00000040: 5895 963e e421 5abe 9ac9 d9bd 3199 b0be
00000050: 66d9 6bbd d7a2 8ebe 222a 85bd 979b 7ebe
00000060: 559f 8cbd 32c9 803e b226 a03e c21a 00be
00000070: 7557 8f3b edd3 db3d f8de 8abd af91 42be
-0.23834673 0.06766887 0.11489136 -0.34073883 -0.30700037 0.044471376 0.12993035 -0.18685381
-0.4076947 -0.2140716 -0.18562235 -0.12477816 -0.60166067 -0.13318036 -0.11754772 0.40983745
0.29410815 -0.21301991 -0.106341556 -0.34491876 -0.057580374 -0.27858612 -0.06502177 -0.2486404
-0.06866328 0.251535 0.31279522 -0.12510207 0.0043744394 0.10733781 -0.06780809 -0.19000886

b1.weight f4 [32, 32, 3, 3]
00000000: ccb4 f0be 544d fd3d 949a 14be f4e6 13be
00000010: 5dcc 04be 716c fbbd e1ef 75bd c4d8 d83b
00000020: 0ed7 8dbe 29b3 3fbc ad75 dfbe 62c4 143e
00000030: df36 9cbe 28e0 17bf d0c0 813d c42f fa3d
00000040: 7107 f0be f017 be3e 6154 77bd 830b 573e
00000050: 2c29 313d 6b1b 0a3e c9ba 9d3e b6d1 d93b
00000060: eee6 0bbd 6e86 3b3d 0a5e 92bd b810 963e
00000070: 67a1 833e c0ac 893e 5102 013e f275 b7be
00000080: 7929 503e e16a 5bbe 91bf 43be ff26 89be
00000090: aad4 753e 9b73 cfbe 2e84 d8bc 05f5 d8bc
000000a0: f3b9 553d 7502 abbe 76bf b6bd 57b3 0fbf
000000b0: 907c a93c 4e6a 013f 32b4 21bf a5a6 b0bc
000000c0: 7b97 463e 1fdb 26be 511a 8e3d 022c de3d
000000d0: 41ee bdbd 7278 e9be e41d 6bbe 2b2b 08be
000000e0: b5d3 55be 6682 c03c e498 f13d 3954 dcbd
000000f0: f43a f7bc 8363 bdbd 7752 c8bd 80a2 7dbd
00000100: c7c4 5a3d 31b5 273d aa98 2a3d d78c 2bbe
00000110: 6f6b 1abd 992c 263c 1691 6e3d 88d8 c73c
00000120: 39e1 13be fda8 9cbe a754 a0be 260e dfbe
00000130: 8511 753e 6fe2 c739 d0db bbbe c528 393e
00000140: 3c63 8e3e c0b2 5c3e e842 0dbe 0729 01be
00000150: ae32 843e 5936 d53d 66d0 a93e 442d 283f
00000160: ad97 04be 3e09 acbd a635 86be 1c2d 883e
00000170: 38bd 70be 3d66 2e3e e371 533e ea4c 3ebe
00000180: 1777 153e 29e6 803a 08f5 443d 29cd 78be
00000190: 3a15 9cbe 4dc2 01bf 55c4 aa3e 4290 f7bd
000001a0: 8f5f a0be ea6d 6d3e 0940 2d3e 0c26 14be
000001b0: 3437 8cbe c08d bfbe d5df 39be fc87 1ebe
000001c0: 2157 aabd 8a95 473e 639a 03be 5773 b6be
000001d0: c885 57bd 9720 103d 56f8 353d 7752 7a3e
000001e0: a34f cd3d 1915 bfbc 28c3 18be 9ea2 a0bd
000001f0: c7f6 96be e11c 923d b1c3 013e 0bc3 1d3e
00000200: a081 863d d368 43bd 9a0e b9be ec63 133d
00000210: 4838 b93b a7ee 09be 8b5f 05be 5dad af3d
00000220: d2ad 7f3d 9323 76bc 2d3f 7abe f9d2 583d
00000230: da9f 3abd 600b 283c 54c7 b0be dfb7 333d
00000240: 2122 51be 9fae 80bc e9fb b33d cc8b 5b3e
00000250: f7ee b33e 1ec7 313e 74a9 2eba 382e e7bb
00000260: 40dc 913e 3711 d63d 66c9 533e 7498 e8be
00000270: 51c8 723c 8f36 aabd 2e0a 03bf a42c c2bc
00000280: 5006 673e c59f 2dbe 3758 9a3e 371c 66bd
00000290: 6a53 9cbd 4165 c03d 98c2 08bf 9d2b 3dbe
000002a0: c770 a6bd c2cb 09be a9ab 01be 42c0 8fbe
000002b0: b892 cf3e ac16 85be 6e5c 213e 2ff1 533e
000002c0: 5d79 b7bd 6080 aabd ba6b 803e 875e 72be
000002d0: d4bd 02bd 8d50 1dbe 1f3b 183e adab 083d
000002e0: 49f1 7abd 96e4 25bc 694b 353e bdf6 a33d
000002f0: 704d 663e 6fb0 9e3d 6892 88be 599a 3ebe
00000300: 0052 063e c192 d53d 3c51 603e 3297 dfbc
00000310: ccbf 42be bc64 1bbe df9b 04be a07c 893d
00000320: 387a 003d 1ee4 34be cbd4 253e 481b ae3d
00000330: 42a5 813e ac81 d2be c29e 02be abfd eebd
00000340: 0969 4f3e e910 66be 8096 9bbe 1f9a d7bc
00000350: e4fd 2fbe 218c 8dbd e875 af3e 06fa f63d
00000360: 518a 9c3e 0b5c bbbe 7454 9ebe d6e0 c5be
00000370: d64c 953c 25bb cc3d ea55 39bd 3005 463e
00000380: 005d 773d afc1 753e 8c74 c73d 8a5d f6be
00000390: 4e8c 05bd 00af 93bc 6389 803e f7b0 c8bd
000003a0: ec88 b33e 1443 863d 6a0d fe3e 7667 32bd
000003b0: 4b1c 6fbe efcb d03d 6240 9fbd d28e d43c
000003c0: 43fa 6d3c 1ee8 9b3e 5976 c0be bc10 6d3e
000003d0: 09fa 9bbc b4b0 dbbd dfed 42bf c5a6 b7be
000003e0: 9b7a a9bc 50eb 453a 80d9 7d3e 8c68 d73c
000003f0: 06d1 b83e 4502 b3bd f627 07bf 989f 953d
-0.47012937 0.12368265 -0.14512092 -0.1444357 -0.12968583 -0.12276543 -0.06004322 0.0066176374
-0.27703136 -0.01170043 -0.43644467 0.14528039 -0.30510613 -0.5932641 0.06335604 0.12216142
-0.46880677 0.37127638 -0.060383204 0.21000485 0.043252155 0.13487022 0.30806568 0.006647314
-0.03415578 0.0457825 -0.07146843 0.2930963 0.25709078 0.2688961 0.1259854 -0.35832173
0.2032832 -0.2142749 -0.19116046 -0.26787564 0.24006906 -0.40517887 -0.026430216 -0.026484022
0.052179288 -0.33400312 -0.08923237 -0.56133026 0.020689279 0.50552833 -0.6316558 -0.021563837
0.19393723 -0.16294526 0.06938613 0.108482376 -0.09273959 -0.45599705 -0.22960621 -0.13297717
-0.20881541 0.023499679 0.1179674 -0.10758252 -0.030179478 -0.09247496 -0.09781354 -0.06192255
0.053410318 0.040944282 0.041649498 -0.16752945 -0.037700113 0.010142469 0.058243833 0.024395242
-0.14441384 -0.30597678 -0.31314585 -0.43565482 0.23932464 0.00038124944 -0.3669114 0.18081959
0.27810085 0.21552563 -0.13795054 -0.12613307 0.25819916 0.104107566 0.33166808 0.6569407
-0.12948485 -0.084002 -0.26212806 0.26596916 -0.23509681 0.17031188 0.20648913 -0.18584028
0.1459621 0.0009834218 0.048085243 -0.24297012 -0.30484945 -0.50687104 0.33352914 -0.12088062
-0.31322905 0.2318646 0.16918959 -0.14467639 -0.27385867 -0.37412834 -0.18151791 -0.15481561
-0.083174 0.19490638 -0.12851863 -0.35634872 -0.052617818 0.03518733 0.044426285 0.2444552
0.10024955 -0.02332549 -0.14918196 -0.07843517 -0.2948515 0.071344145 0.12672307 0.15406434
0.06567693 -0.04770739 -0.36143953 0.035983965 0.005652461 -0.13469945 -0.13024728 0.08577988
0.062421627 -0.01502313 -0.24438162 0.052935574 -0.045562603 0.010256618 -0.34527075 0.043876525
-0.20423175 -0.015708266 0.087882824 0.21440047 0.35143253 0.17361113 -0.0006662824 -0.0070550703
0.2848835 0.10452502 0.20682296 -0.45428813 0.014818267 -0.083111875 -0.5118741 -0.023702927
0.22561002 -0.16955478 0.30145428 -0.05617925 -0.076330975 0.09394313 -0.53421926 -0.18473668
-0.08126979 -0.13456634 -0.1266314 -0.2807637 0.40541625 -0.2599386 0.15757915 0.20697473
-0.08958695 -0.08325267 0.2508219 -0.23668872 -0.031919315 -0.15362759 0.14866303 0.033366848
-0.061265264 -0.0101253 0.17704548 0.08006046 0.22490478 0.07748496 -0.266742 -0.18613566
0.13117218 0.10428382 0.21905988 -0.027293775 -0.19018477 -0.15175146 -0.12950085 0.067132235
0.031366557 -0.17665145 0.16194455 0.08501297 0.25321394 -0.41114557 -0.12755874 -0.11669477
0.20254911 -0.22467388 -0.3038826 -0.026318608 -0.17186695 -0.06911493 0.34269643 0.12059407
0.30574277 -0.3659366 -0.30923808 -0.386481 0.018225115 0.099966325 -0.04524795 0.19337916
0.060391426 0.23999666 0.097390264 -0.4811824 -0.032604508 -0.018027782 0.25104818 -0.09799378
0.350654 0.06555763 0.4961961 -0.0435557 -0.23350637 0.10195147 -0.07775952 0.025947008
0.014524999 0.3045053 -0.37590292 0.23150915 -0.019040124 -0.10727063 -0.7614421 -0.35869423
-0.020688346 0.0007550018 0.24790001 0.026294969 0.36096972 -0.08740667 -0.5279535 0.07305831

b1.bias f4 [32]
00000000: dad9 b3bd 1a0e 51be 42a8 f3be e5df 75be
00000010: 0744 123f e345 f6bd 8bbd 24be aac4 093c
00000020: 9676 22be 7062 01bf f54c c5be f06a fb3d
00000030: 9545 a8be 44a6 b4be 0e5d a33d 7dbc 41be
00000040: 56fd 24be 3492 20bf 202b 2abe 58a3 953e
00000050: 507f 36be 4d11 b2be b5b9 0f3f 47db 06bf
00000060: 455b 4fbd bab1 41be 9549 c8bd b4d5 41bf
00000070: 23cb 4dbd a565 30bc 8cce e43d 8ede 17be
-0.08781786 -0.20415536 -0.47589308 -0.2401119 0.5713505 -0.120250486 -0.1608793 0.008408705
-0.1586555 -0.5054083 -0.38535276 0.12276256 -0.32865587 -0.352831 0.07976733 -0.18919559
-0.16112265 -0.6272309 -0.16618013 0.29226184 -0.17822003 -0.34778824 0.5614274 -0.5267834
-0.05062415 -0.18915454 -0.0977966 -0.7571671 -0.050242554 -0.010766421 0.11172208 -0.14830992

b2.weight f4 [32, 32, 3, 3]
00000000: 8881 513e 96b1 8f3d 2cc1 84bb 2dec 1e3e
00000010: 383f 38be da63 ab3e 390c 11be 5af0 a0bd
00000020: 5303 f73d 8264 923e cbbc 6abd a39d c1bd
00000030: 1c49 f7bd c46e f3bd 0abc 7dbe 0523 1f3e
00000040: 84f8 a93d 3b37 01bf f4f7 23be 7d52 283e
00000050: 2a06 01bf 0567 703d f669 91be e119 1f3e
00000060: 28a3 7fbe 3466 efbd dccc f9bd 8529 f93e
00000070: ea19 c6bd ae65 043e b32d 0c3f 7440 0fbd
00000080: 9ec8 5abe f774 0cbd 8d3a f2be 39e3 c4bd
00000090: 6f0b 0cbe 11a0 c03d 5c34 a4be 955a f73c
000000a0: 647a 6f3e b553 a3be afad 0dbf c559 343e
000000b0: 2ad9 823e 2690 193f 6f15 e5be 8077 bfbd
000000c0: 63fe 64be f76b 52bd 6f3d b2be 5ec1 5a3d
000000d0: ffee 003f d485 3f3f d82f 283d f472 afbe
000000e0: 0f45 103e e69c 7ebe e0a6 a2bd 5e27 c6bd
000000f0: 7d61 f83d cec9 113e 6554 9bbe 047c a73e
00000100: 841d 2cbe daa0 0cbe 095a a3bd ce08 093d
00000110: 62f3 013d c8b6 3ebc 8b0a 1f3e 7d7b 5abe
00000120: 1f9a 2bbd 6fed 8fbe 97bc 643e 2a85 353d
00000130: 56ba b3bc b5b9 cabd d0d0 ffbd 6220 603d
00000140: b89d aebe 00e2 b5be e97f b8be 29f5 8abe
00000150: 3466 463e 4a9a 30be 4d12 a13e 2ea8 e63e
00000160: b6f3 9c3d 52f1 a63c a4be 11bc 0a79 4ebe
00000170: 3418 26be d937 59be 7f43 1abe a905 1fbe
00000180: 543b d93e b0e5 8c3e 4ae2 6abe e061 df3d
00000190: 2d57 b7bd d5be 403e 58c1 69be 7712 143e
000001a0: c94a 66be b940 c2be 6534 333e ca97 42be
000001b0: a9dd 9ebe 3f52 6fbe a8da 1c3d 5306 143e
000001c0: 4622 1abe a07e 6cbe 7fe0 e8be 874f 0f3e
000001d0: e883 003e 0932 a9be 3850 e3bd 0f78 06bf
000001e0: ca16 083d 648f 97be 2242 0b3e eea8 05be
000001f0: 5c36 7dbd aede 96be 1b63 863e 42a0 14bd
00000200: 7d81 bebd 93f2 1c3d 4fb7 0bbf 6018 403d
00000210: 1506 1dbe f281 903e 4411 a93d 21fd 07be
00000220: 26c0 b4bd c0f1 e2bd 6989 a03e 16d2 01bf
00000230: 2263 f83d 3e30 fe3c e9ff 423e 32ee b93d
00000240: 0369 943e 9ebb 4ebd c952 b0bd 974d fa3c
00000250: 114c 0dbe 4de3 2b3e b0ac 863c 1c32 9b3e
00000260: 649d 17be 1712 43bd 9c67 b7bc 86f9 2d3e
00000270: 459c 173e 428f ec3c 8126 fe3d cf13 87be
00000280: 51dd 093e fba5 1fbe a18f 2abd 6624 9c3d
00000290: 0db4 cfbc e265 01be 1bfd 8cbd 7641 8cbe
000002a0: 9586 25be 68db 1fbe cc8f ebbc 8673 a43e
000002b0: f145 b13c f7f2 02be 3a1d d93c ed26 423e
000002c0: 5ffe 543e 59bb ccbd 6627 cd3d b9a1 84bd
000002d0: b1db ecbb f199 81be f9cb 26bc 8742 5d3e
000002e0: 6418 15be 58a2 07bd 2ab6 b1be 809e 6ebd
000002f0: 2917 c5be cc1e 88be 6c82 01be 5cb5 be3d
00000300: 8413 5d3e 1626 663e f9d4 cc3e 5700 1abe
00000310: 90fa 97be 656d 8dbb d58c a33e 9424 a7be
00000320: 8d18 bc3d c7c0 e03d 5e53 06bd 576c 373e
00000330: c434 3cbf d597 b13e ea99 c6bd 0514 9bbe
00000340: 0b26 b0bd cccd 4dbe fe27 d2bc 1912 f3be
00000350: ef80 3b3f 6b5a f43d 6d73 af3d 5dcb 2c3e
00000360: 0960 47bd 5add c6bd c8bf 86bd 2b0a 9e3d
00000370: 2d98 23be c5d7 cf3c 07e5 a63e c761 3a3e
00000380: 7dd2 59be 9408 daba 127a 23be d208 993e
00000390: 4b6d f3bc cac4 963e 35bb 92bd 65db b3bd
000003a0: 1f7c 52be c347 1b3e 8e0b f23d 57f9 15be
000003b0: 5977 6a3d 5a3e 2abd 192c e03d e47c 453e
000003c0: 194c f0be 1f06 a0be b3f0 47be 9358 413e
000003d0: 7091 39be 1234 da3e c42c 553e 5e60 04be
000003e0: 10db b6be 0612 56bc d617 0dbf a282 003e
000003f0: 0d05 bf3d 9c32 193e 0e9f 5e3e 1bd3 af3c
0.20459569 0.07016294 -0.004051348 0.15519781 -0.17992866 0.33474618 -0.14164819 -0.078583434
0.12061181 0.28592306 -0.057308953 -0.09453895 -0.120744914 -0.11886361 -0.24778762 0.15540703
0.08299354 -0.504749 -0.16012555 0.16437717 -0.5040003 0.058691997 -0.28401154 0.15537216
-0.24964583 -0.116894156 -0.12197277 0.4866449 -0.096729115 0.12929413 0.5475723 -0.034973577
-0.21365592 -0.034291234 -0.47310296 -0.09613652 -0.13676237 0.0940553 -0.32071197 0.03019456
0.23386532 -0.318998 -0.55343145 0.1761237 0.25556308 0.5998558 -0.44742915 -0.09348965
-0.22362666 -0.051372495 -0.34812495 0.053407066 0.5036468 0.7481358 0.041061252 -0.3426739
0.14088844 -0.2486454 -0.07941985 -0.096754774 0.121279694 0.14237139 -0.30337825 0.32711804
-0.16808134 -0.13733235 -0.07976157 0.033455662 0.03172625 -0.011640258 0.15531366 -0.2133617
-0.04189503 -0.28110835 0.22337566 0.04431645 -0.021939438 -0.09898702 -0.12491 0.054718383
-0.34104705 -0.35523987 -0.36035088 -0.27140167 0.19374925 -0.17246357 0.31459275 0.45050186
0.07663672 0.020378742 -0.00889555 -0.2016336 -0.1622017 -0.2121271 -0.1506481 -0.15529503
0.42428076 0.27518988 -0.22937885 0.1090734 -0.08952174 0.18822797 -0.22827661 0.14460169
-0.22489466 -0.37940004 0.17500456 -0.19003215 -0.31028488 -0.23371218 0.038294464 0.14455537
-0.15052137 -0.23095179 -0.45483777 0.13995181 0.12550318 -0.33045986 -0.11099285 -0.52526945
0.03322486 -0.29601586 0.13599446 -0.13052723 -0.06181942 -0.29466766 0.26247486 -0.036285646
-0.09302042 0.038317274 -0.5457658 0.046898246 -0.15334351 0.2822414 0.08255246 -0.13280155
-0.08825712 -0.110812664 0.31354836 -0.5071119 0.12128283 0.031028863 0.19042934 0.09078635
0.28986368 -0.050471894 -0.0860954 0.030554576 -0.13798548 0.16785927 0.016439766 0.30311668
-0.14806134 -0.047624674 -0.022388272 0.16989717 0.14805706 0.028876904 0.12409688 -0.263823
0.13463332 -0.1559066 -0.04164088 0.0762413 -0.02535441 -0.12636521 -0.068842135 -0.27393693
-0.1616462 -0.1561104 -0.028755091 0.32119387 0.021639796 -0.12787996 0.026503194 0.18960162
0.2080016 -0.09996671 0.1001728 -0.06476159 -0.0072283377 -0.2531276 -0.010180467 0.2160741
-0.14560086 -0.033113807 -0.34709293 -0.058256626 -0.38494232 -0.26585996 -0.12647408 0.09311935
0.21589476 0.22475466 0.40006235 -0.15039192 -0.29683352 -0.0043160194 0.31943384 -0.32645094
0.0918437 0.10974269 -0.03279435 0.17912422 -0.73518014 0.3468615 -0.096973255 -0.3028871
-0.08601006 -0.20098037 -0.025653835 -0.47474745 0.7324361 0.11931308 0.085669376 0.16874452
-0.04867557 -0.09710188 -0.06579548 0.07716783 -0.15976019 0.025371442 0.3259661 0.18201362
-0.21271701 -0.0016634637 -0.15964535 0.29889542 -0.0297152 0.29447013 -0.07164613 -0.087820806
-0.20555161 0.15164094 0.1181861 -0.14645897 0.057242725 -0.04156337 0.10945911 0.19285923
-0.46933058 -0.3125467 -0.19525413 0.18881445 -0.18121886 0.42617851 0.20817858 -0.12927386
-0.35714006 -0.013065821 -0.55114496 0.12549832 0.09327135 0.14960712 0.21740362 0.021462968

b2.bias f4 [32]
00000000: 4f54 043e a391 3fbf 47b2 01bf ef49 27bf
00000010: 279c 31be 01d9 06bf 239d b5be 3fca dbbe
00000020: cf63 c43e 8055 943d 1df7 063d d9f3 96be
00000030: a79a a7be a66c 11bf 4ffa 02be 5e40 273e
00000040: 6a7e 53be f72b c6be c1d0 06be 3e55 78be
00000050: c4b0 10be 7160 903e 609c f1be 5da9 ae3e
00000060: 0c82 f9be d98c 8a3e 64b2 f43d 1dd0 b93d
00000070: f6ed 25bf e20a e7bd 06eb a43e 477f 09be
0.12922786 -0.748316 -0.50662655 -0.6534719 -0.17344724 -0.5267487 -0.35471448 -0.4292774
0.38357398 0.0724287 0.03295051 -0.29482916 -0.32735178 -0.5680641 -0.12790798 0.16333148
-0.20653692 -0.38705418 -0.13165571 -0.24251267 -0.1412993 0.2819858 -0.47189617 0.3411359
-0.4873203 0.27060583 0.11948088 0.090728976 -0.64816225 -0.112813726 0.3221056 -0.13427459

b3.weight f4 [64, 32, 3, 3]
00000000: 3a7e 8bbe 708b 8b3c a805 89bc 2e13 29be
00000010: 56f8 46bc 3e86 20be db47 e63b 28b9 c2be
00000020: d89f 173d e2b3 243d 8d3e 63be 425d 8e3e
00000030: 94fd 4ebd ff06 2e3e a721 b7be 5e95 4abe
00000040: a9e5 58be 33ec 80be c885 2fbe 3cee 31be
00000050: d684 f43c 8fdb 143e e0b0 7fbd c9f0 d4be
00000060: 1f3d 053e cd17 c13e 7a6e 47be 4c8e 8bbd
00000070: 0034 4fbe e7f3 0b3e 3c81 5e3d 44ad 883e
00000080: 9a27 86be 9045 8a3d e68e 20be 276e 763e
00000090: c037 143e 9f06 533c dddd 2d3d 7fd8 1dbf
000000a0: a6ac ea3d e5fc fe3e 624a c0be 844b ad3e
000000b0: e6a0 aa3d c210 38be 6aa4 243f 60ab 513e
000000c0: e1ce 503e 1515 7cbe e645 9f3e 13a2 2abe
000000d0: b1d5 0dbe b32c bcbe a614 64bd a9d5 853d
000000e0: 82eb 80be 26d3 c63d f344 0b3e c4ca 943d
000000f0: daf3 84bd 23db f3bd 55c4 4fbb ac73 4cbe
00000100: a5c0 3fbd 633f 7f3e a86e f2bd 1c6a 79bc
00000110: 351d 19bf a1ab 783e 9c18 ef3e 1e9a 61be
00000120: 5ebd 93bd 4453 fe3d d2d7 08be 91a2 d2bd
00000130: 891f 0a3c b20e 3abd d243 0fbc d555 b0be
00000140: cf43 c93e bfad 80be eb51 5d3e 10e3 e43d
00000150: c36b b43b 8628 b23e d266 98be 721f 9cbe
00000160: 6ee7 1bbf 6296 f1bd f361 dfbd 22bd a6be
00000170: adc1 33be 0602 783d 074a fdbb ac37 143e
00000180: d7bf bebe e392 bb3c cf10 8abe 0e6f 083e
00000190: 7ce0 92bc 8f5a a0bc f584 633e a010 6bbc
000001a0: 9b1b 113e 111b 1ebd cfeb da3e b805 9b3e
000001b0: 496c 8d3d ead9 bf3d 00a7 503e 6a49 083e
000001c0: 44dd 00be deab e4be af71 b9bd b1f9 633c
000001d0: 1b68 b93d fc47 02be 2015 c4bd 0a31 ed3d
000001e0: 6ea8 aabc e31a da3e aa1d 953e f412 ddbc
000001f0: 5641 3dbd 39af 703e 8a4a 4a3e ee16 95be
00000200: 7824 543c 5ada 483e fb6f fabd bc4c 403e
00000210: 072b b7bd d5be dcbd aa50 19bf 45a7 03be
00000220: 2d84 6fbe 3c53 343e 5c5a c8bd 3eb1 53be
00000230: b243 20bf bd5b 75be 6552 3bbd 572e c8bd
00000240: 5ea0 643e 495b abbe d11b 92be 6eb8 c33e
00000250: 46f2 d2be cfd9 c63d 14a6 13be 76b9 8ebe
00000260: d936 f0be cf4a 31be 3f64 e63c 3504 ad3e
00000270: feba 803d 8c95 a93d 448c 78be d87f 8fbe
00000280: c9a9 13bd 7d09 03bf 1d4b c73e ebdd bb3d
00000290: ec2d bb3d 7df8 453b 67e9 b7be 0e38 5cbe
000002a0: e10e 71be ee2f a4be 67d6 d8bd e11a 393e
000002b0: 593d 55be 728a 44bb 4a9a 3cbd 1ac7 e6be
000002c0: d220 e53d c4d8 4abd 3226 4f3d 8109 1bbe
000002d0: c55f 103e 1939 503d ab3f d6bd 8f03 803e
000002e0: 48ae 05be 21fd 3d3e 5f74 76be ca9e 8d3e
000002f0: 3803 2939 e31c 8fbd 1b07 55be 647d 473c
00000300: d20a cbbe d6e6 e43d 7495 ab3d 296f 81bd
00000310: 8b96 093d 3b76 ebbd 11a5 d6be b367 4dbe
00000320: 409e 9a3d 9050 4b3e a07c 1b3e e3dd 59bd
00000330: a668 173e 04d6 54be 434c 37be 970f 59bc
00000340: 880d 963d 83c1 c1be be08 203d 4c47 e8bd
00000350: 7f05 3b3c 30ad be3d e9c8 aabe e572 e03d
00000360: 2e2b e9bd 4631 fdbd 79d0 e03d ce77 9b3c
00000370: eeb9 8fbe 0e1f 04bd d286 64bc 7efc 353e
00000380: 32e4 bebd 4b85 043b d8dc dcbd 7b39 993e
00000390: f50f 163f 0687 bd3d 5e1f 333e ec14 1f3e
000003a0: 4f15 833e d21d 8d3d 4ad8 1f3e e710 ae3d
000003b0: 2d08 8f3d ae49 7ebd 25f7 8c3e cd2d 983e
000003c0: 828b 22be feae 07bf af47 3c3e 673f aebd
000003d0: 83d6 d1bd 9350 fdbc d9b8 063e 4b68 d83c
000003e0: da50 af3d e2f1 c6bb c69d 9bbe 49f4 ab3e
000003f0: 3fe7 cd39 e98f 823c c4a5 473e 2b94 69bd
-0.2724474 0.017034262 -0.01672633 -0.16511223 -0.012144169 -0.1567621 0.007027609 -0.38031888
0.037017673 0.040210612 -0.2219183 0.27805525 -0.0505348 0.16994856 -0.35767862 -0.19783542
-0.21181358 -0.25180206 -0.17140877 -0.17376035 0.029848497 0.1453688 -0.06242454 -0.41589954
0.13011597 0.3771347 -0.19475737 -0.0681425 -0.2023468 0.1366726 0.054322466 0.2669469
-0.2620209 0.06751549 -0.15679511 0.24065457 0.14474392 0.012879997 0.042447913 -0.6165847
0.11458711 0.49802318 -0.3755675 0.33846676 0.0833147 -0.17975143 0.64313376 0.2047553
0.20391418 -0.24617417 0.31108016 -0.16663389 -0.13851048 -0.36752853 -0.055683754 0.06534893
-0.25179678 0.09708242 0.13600521 0.07265237 -0.064918235 -0.119070314 -0.0031702716 -0.19966
-0.04681458 0.24926524 -0.11837512 -0.015223052 -0.5981019 0.24284221 0.46698463 -0.22031447
-0.07213853 0.124182254 -0.13363579 -0.10284913 0.00843037 -0.04542417 -0.008744197 -0.34440485
0.39309546 -0.25132558 0.2161328 0.11176121 0.0055060103 0.34796542 -0.29765946 -0.3049274
-0.6090001 -0.11796261 -0.10907354 -0.32566172 -0.1755435 0.060548805 -0.007729772 0.14474362
-0.37255737 0.02289719 -0.2696595 0.13323614 -0.017929308 -0.019574432 0.22218688 -0.014347225
0.14170687 -0.03860003 0.42758033 0.302778 0.069054194 0.09367736 0.20376205 0.13309255
-0.12584406 -0.44662374 -0.090548865 0.013914512 0.0905306 -0.12722772 -0.09574342 0.11581619
-0.020832267 0.42598638 0.29124194 -0.026986577 -0.046204887 0.23504342 0.19754997 -0.29119056
0.012948148 0.19614545 -0.1222839 0.18779272 -0.08943754 -0.10778586 -0.5988871 -0.12856777
-0.23390265 0.17609876 -0.0978286 -0.20673081 -0.62603295 -0.23960777 -0.045732874 -0.097744636
0.223268 -0.33468083 -0.28536847 0.38226646 -0.41200465 0.097095124 -0.14418823 -0.2787587
-0.46916845 -0.17313693 0.028123973 0.33792272 0.06285666 0.08280477 -0.24272257 -0.28027225
-0.03605059 -0.5118635 0.38924494 0.09173187 0.09139618 0.0030207925 -0.3592026 -0.21505758
-0.23540832 -0.32067817 -0.10587769 0.1807666 -0.20824184 -0.0029989746 -0.04604558 -0.45073777
0.111879006 -0.04952313 0.050573535 -0.15140344 0.14099033 0.050835703 -0.104613625 0.25002715
-0.13054764 0.18553592 -0.2406783 0.2766021 0.00016118295 -0.069879316 -0.20803492 0.012175892
-0.39656693 0.11176841 0.08378115 -0.0632003 0.033590835 -0.1149716 -0.4192281 -0.2005909
0.07549715 0.19854951 0.1518426 -0.053190123 0.14786014 -0.20784765 -0.17900185 -0.013248346
0.073268 -0.3784295 0.039070837 -0.11341724 0.011414885 0.09310377 -0.33356407 0.109594144
-0.11385189 -0.12362914 0.10977263 0.018978026 -0.2807154 -0.03225618 -0.013948159 0.177721
-0.093208686 0.002022105 -0.1078431 0.29926667 0.586181 0.09254269 0.17492434 0.15535325
0.25602195 0.068904534 0.15609851 0.084993176 0.06983981 -0.062081985 0.27532306 0.29722443
-0.1587353 -0.5300139 0.1838672 -0.08508187 -0.10245993 -0.03092221 0.13156451 0.026416918
0.08560343 -0.006071315 -0.3039381 0.33584812 0.0003927294 0.015937762 0.19496828 -0.05702607

b3.bias f4 [64]
00000000: 02c1 0b3e cba7 ec3d 1b66 80bd 7959 08bd
00000010: 95cf aaba 6815 80be 1023 9c3d c3a5 b73d
00000020: 6ea8 a0be f51f 3bbe aa3f 54be c361 373e
00000030: 6403 6b3d a073 773e 8899 65be 3a6c e9bd
00000040: d677 93bd d46c 49bc 31c2 38bc bd54 333e
00000050: 1e5d 91bd 7ba0 a5be 7406 35bc 5eec 5f3e
00000060: a1e1 5a3e ee3e 8bbe 3b53 04bf 317f e3bd
00000070: 6319 bb3e 2f15 03be 5ad0 a03d 5b38 b9bd
00000080: a92c 3fbe 1e5d c3bd e177 89bd 0309 cf3d
00000090: 55c5 c6bd 7652 a5be cf46 153e cbbe 9fbd
000000a0: abbf a53d 2805 723d 9c2f 923e 61a7 b63e
000000b0: 1845 f1bd 6e31 fbbd 512e 1c3e 5b62 28be
000000c0: 067f 8dbe 4e50 6fbe 70c5 00bd 8e4d db3c
000000d0: 7909 c9bd 8cd7 a53d 162e f93c 0c83 dabd
000000e0: 1331 143e 2b90 453e ee53 e4bd 5bc6 ebbc
000000f0: e93b 7cbe 170a 8b3d 5b22 11bd 39be 03bf
0.13647845 0.115554415 -0.06269475 -0.033288453 -0.0013031835 -0.25016332 0.07623875 0.089671634
-0.31378502 -0.1827391 -0.20727411 0.17908387 0.05737628 0.24165201 -0.22421849 -0.11397596
-0.07200591 -0.012294013 -0.011276768 0.17512794 -0.07097839 -0.32349 -0.011048902 0.2186751
0.21375133 -0.2719645 -0.516895 -0.11108244 0.36542806 -0.1280105 0.0785224 -0.09043952
-0.1866938 -0.09539245 -0.06712318 0.10109141 -0.09705607 -0.32289475 0.14577793 -0.07800063
0.080931984 0.05908695 0.28551948 0.35674575 -0.11780757 -0.12265287 0.15252043 -0.1644377
-0.27635974 -0.23370478 -0.03143829 0.02677038 -0.0981626 0.08097753 0.030417483 -0.106695265
0.14471845 0.19293277 -0.11148821 -0.028781107 -0.24632229 0.06789034 -0.035433155 -0.5146213

c1.weight f4 [64, 64, 2, 2]
00000000: 14ee ddbd fa5e 6d3d f36d c5be 9665 8bbd
00000010: 4f64 503d cc96 f93c f008 67ba 70c2 693c
00000020: 84fd 23bd 13ea 15be 32ab 7e3c e14f ff3d
00000030: fb82 b1bc baba ab3d 0b00 2cbc 3799 863d
00000040: 4ae3 743d 1623 09bf 9932 c8be 9237 85bd
00000050: 68f7 4a3d 1a0a 5cbe 1837 1fbe 422e 0bbe
00000060: dfaa 8e3e a62f acbe ff51 403e c758 2bbe
00000070: 6082 48bd 737c 363c dd33 babd dcbd 043d
00000080: 9a2a 8a3b 4f4f 343e 654f 8cbc 39b9 883e
00000090: 983a 1a3e 33f5 17bf 574b 8b3e 2bfe 86bd
000000a0: a1a5 94bb 8ded 9abe 35ff 1cbe f522 25bd
000000b0: fbee 08be 42dc d1bd f50c 663e cb32 6b3c
000000c0: f0b6 a93e 7de6 04bf 2798 a1be 7c62 1dbd
000000d0: ce2a 17bc 175f b5bc 3ca4 483d 4429 a33d
000000e0: 7142 01bd 30ac 853e f782 adbd 0294 3dbe
000000f0: 3eb4 c5be c09a aa3d 34d7 29be 14f6 c73e
00000100: 61b7 993d 3f52 edbd 637f 63bf b5b8 2abe
00000110: 7e46 b7be af28 89bd 2e0a 21bd 9b2b 183e
00000120: bd58 953d d94b eabd 2180 3a3e b888 3bbe
00000130: ab56 adbe 1f1e 3b3e 195c 98be a879 1cbe
00000140: 5690 fa3c 2b3c 633d a42f a1bd f310 d0bb
00000150: e75d 473e 5fda be3e 5363 a13d 5dc2 0fbe
00000160: b41d b23e 04c6 2dbd 23be 14be 7413 cfbe
00000170: 15d5 443c a67f 833e b035 dabe b9f3 f43d
00000180: 8e5f 6d3d 6d85 00be 16bc ed3b 448b c0be
00000190: 9f1a 083c 3608 25be 8912 033f 6b98 48be
000001a0: a7a3 023d ffd8 ad3c 19a9 9cbe b22f 42be
000001b0: b661 82bd 2127 9fbc 68f3 663d 08f6 533d
000001c0: 56fa 76be c8e3 663e 11e5 c7bd ee2d 133e
000001d0: fef4 be3d e623 afbd 8854 9fbe 2c7a 84be
000001e0: 70d9 68be 07ae babe 0dba f63d 1923 ae3e
000001f0: cd73 0f3d 0054 99b8 8ae2 ccbb 9cab 8dbc
00000200: 40d2 46be a031 9e3e 0201 8a3e a7d7 593e
00000210: e74a 3f3d 6c63 b53b 861a 69bd 2066 a1bc
00000220: e106 933e e697 2b3e 303a 183d 043b 88be
00000230: e36a 1a3e 1088 97be 851e c7bc 094a 373c
00000240: cc5f d33d f294 06bc eb85 4a3e 3aa3 d53c
00000250: f670 6bbe 71cf 563e 41b2 063e ecca 4b3e
00000260: 7fcd 163d 01ae 6a3e 3db7 803c c359 963e
00000270: ce50 89be 816f 9e3e ae7e 60be 8b97 e6bc
00000280: 8d6e 8f3d c6e4 26bb 9dd0 813e 4144 1dbe
00000290: 42ad 27be 2b4f 503d 377a 3fbe 80eb a9bc
000002a0: f4d7 84be 7992 a5bd 7e8b 763e 235d bc3d
000002b0: 67cd 13be c823 0b3e 2a9c 06be b487 4c3e
000002c0: 4a7e 0e3d f2db 1dbd ed54 8bba 5db1 fa3c
000002d0: 9748 80bc 6ce5 6abd 3249 1f3d 7876 9e3c
000002e0: 96d5 913e fe3f a9be 89e6 2cbe aee5 d3be
000002f0: 29c4 8f3e 764a 8cbe c0d1 893e 6c9f 4dbe
00000300: a3b9 21be cb54 0bbc d070 1b3f 7c98 07bd
00000310: f59e 82be 330d 45be c05c 493e 42ee 4e3e
00000320: f7c3 9bbe fe3f 55be 2f27 23be 4485 bd3d
00000330: 3607 403e 7b5d 8bbe 71df 6d3e 71d6 b1be
00000340: a25a 453e 0c97 a0be de31 00bf 5083 76be
00000350: 226d b4bd 25b1 323c 7bf1 91be f3ee 89bd
00000360: 98ee 243e d7ee 58be 0f51 5dbd c807 fd3d
00000370: 2dd5 923e 72a1 28be e432 733e 90e2 cfbe
00000380: 2137 0e3e 9862 c9bd 7645 713e bde9 87be
00000390: a2c9 8dbe 5116 7f3e 61e6 1b3e 2c03 963e
000003a0: a11b 613b 77d1 6a3d 0db0 fe3c 9411 f2bb
000003b0: d14c 813d a7f1 ffbc 0b8c 4cbd bbc5 85bd
000003c0: 58b2 8f3d d72b cdbd 6d7e 803e d9b1 e2bd
000003d0: 447e dc3e d2b7 2cbe d5b8 18bd 96cd b9be
000003e0: 69b3 44be 518c 913e 7258 2abe 5a1e c63e
000003f0: 26e3 2c3e c363 353e 003b da3e deed 7f3d
-0.108364254 0.057951905 -0.38560447 -0.06806485 0.05087691 0.030467413 -0.00088132825 0.014267549
-0.040036693 -0.14640073 0.015543746 0.124664076 -0.021668902 0.08385225 -0.010498057 0.06572192
0.059787072 -0.5356916 -0.39101103 -0.0650474 0.04955235 -0.21488228 -0.1554836 -0.13591865
0.2786474 -0.33630103 0.18781279 -0.16733085 -0.04895246 0.011138069 -0.090919234 0.032407627
0.0042165043 0.17608379 -0.017127702 0.26703814 0.15061414 -0.5935852 0.27205917 -0.065914474
-0.004536346 -0.30259362 -0.15331729 -0.04031654 -0.13372414 -0.10247089 0.2246588 0.014355372
0.33147383 -0.519142 -0.31561396 -0.038424 -0.009226514 -0.022140069 0.04898475 0.07966855
-0.031557504 0.2610793 -0.08472245 -0.18513492 -0.38614076 0.083302975 -0.16586 0.3905493
0.0750568 -0.11587953 -0.8886625 -0.16672023 -0.3579597 -0.06697213 -0.03931635 0.14860384
0.07292316 -0.11440248 0.1821294 -0.18313873 -0.33855185 0.18273209 -0.29757765 -0.15280783
0.030586403 0.055477303 -0.07870415 -0.0063496768 0.19469415 0.3727598 0.07880273 -0.14038987
0.34788287 -0.04242517 -0.14525656 -0.4044453 0.012013693 0.25683326 -0.42619085 0.11960549
0.057952456 -0.12550898 0.0072550876 -0.3760625 0.008307128 -0.16116413 0.5120016 -0.19589393
0.031894352 0.021221636 -0.3059776 -0.18963507 -0.06366293 -0.019427838 0.056384474 0.051748306
-0.24118933 0.22547829 -0.09760488 0.1437299 0.09324072 -0.08551769 -0.3111918 -0.2587446
-0.22739196 -0.36460897 0.12047205 0.34011152 0.035022546 -7.311255e-05 -0.0062525915 -0.017293744
-0.19416142 0.30897236 0.26953894 0.21273671 0.04670229 0.0055355337 -0.05691006 -0.019702017
0.28716186 0.16757163 0.037164867 -0.26607525 0.15079837 -0.29595995 -0.024306545 0.011187085
0.10321006 -0.008214222 0.19777648 0.026078809 -0.2299231 0.2097757 0.13153936 0.19901627
0.03681707 0.2291794 0.015712375 0.29365358 -0.26819462 0.30944446 -0.21923324 -0.028148433
0.07003508 -0.002546595 0.25354472 -0.15358068 -0.16374686 0.05085675 -0.18698965 -0.020742178
-0.2594601 -0.08084578 0.2407665 0.09197452 -0.14433824 0.13587868 -0.1314551 0.19973642
0.034788407 -0.038539834 -0.0010630168 0.030602152 -0.015659614 -0.0573477 0.038888164 0.0193436
0.28483266 -0.33056635 -0.16884817 -0.4138617 0.28079346 -0.2740056 0.2691784 -0.20080346
-0.15793471 -0.008504103 0.60719013 -0.033104405 -0.255119 -0.19243316 0.19664288 0.20208076
-0.30422947 -0.20825192 -0.15932916 0.09253934 0.18752751 -0.27219757 0.23229767 -0.34733918
0.19272855 -0.3136524 -0.5007609 -0.24073529 -0.08809878 0.010906492 -0.28504547 -0.06735029
0.16106641 -0.2118486 -0.05403238 0.12355 0.28678265 -0.16467836 0.23749882 -0.4060254
0.13888218 -0.098332584 0.23561653 -0.26545516 -0.27692896 0.24910857 0.15224601 0.29299295
0.0034348744 0.057328667 0.031089807 -0.0073873494 0.0631348 -0.031243159 -0.049938243 -0.06531855
0.07016438 -0.100181274 0.25096455 -0.11069078 0.43065083 -0.16866997 -0.037285645 -0.36289662
-0.19209065 0.28427365 -0.16635302 0.3869503 0.16883525 0.17713837 0.42623138 0.062482707

c1.bias f4 [64]
00000000: f99b d03e e3de d6be cc11 9cbd 2865 82be
00000010: 1f2e cbbe c36d edbe ce22 09be c8fc b9be
00000020: c582 a13e 577c 97bc 333e d93e 8503 05bf
00000030: 6401 d3be 046b 6a3e c2ec 9bbe 0c2a 0dbf
00000040: 93d6 9ebe 503c 2dbe bee7 87be a974 5abe
00000050: 05f1 a2be 501c b0be cdd7 b1be 6352 adbd
00000060: 6b5b db3d b24c 11be 4955 e0be 09d0 a43e
00000070: f6c9 fcbe 1ab2 ccbe 77c1 2e3e f7b3 9f3d
00000080: 3e78 a0be 8fda 13be 2476 7b3e 32d7 7dbe
00000090: 9ca5 25be dd11 d7be a642 d5be 999f 96be
000000a0: 9297 0b3e 02b2 b0be 37cc 903d 7dbb 1cbf
000000b0: 25ef 863e b438 b43e f2f7 5dbe 74d4 01bf
000000c0: affe 63be a55c c8be 2771 1bbd 9a5b 99bc
000000d0: 7e8b b0be 6033 eabe 3259 ea3e 533d d3be
000000e0: 1d1b f9bb ea42 ddbe 3e81 10be 4131 6fbe
000000f0: d5b2 cabd 5216 423d bc8b 633e bba7 bebe
0.40743998 -0.41966924 -0.07620582 -0.254678 -0.39683625 -0.46372804 -0.13392183 -0.3632567
0.31545082 -0.018491907 0.42430267 -0.51958495 -0.41211998 0.22892386 -0.3045407 -0.55142283
-0.31023082 -0.16917539 -0.26543993 -0.21333565 -0.31824508 -0.343966 -0.34734955 -0.0846298
0.10710796 -0.14189413 -0.43815067 0.32189968 -0.49372834 -0.3997963 0.17065988 0.077979974
-0.31341738 -0.14438842 0.24556786 -0.24789122 -0.16176456 -0.42005816 -0.4165241 -0.29418638
0.13632038 -0.3451081 0.07070201 -0.61223584 0.26354328 0.3519951 -0.21676615 -0.507148
-0.22265123 -0.39133182 -0.037949707 -0.018720437 -0.34481424 -0.4574232 0.45771176 -0.41257724
-0.007602109 -0.43215114 -0.14111802 -0.23358633 -0.09897391 0.047384568 0.22221273 -0.37237343
