nets/model_epoch_80.pth (torch, 648794 bytes, 25 tensors)

a1.weight f4 [16, 5, 3, 3]
0.09686633 0.12731119 -0.025712302 -0.28112894 -0.12220065 0.38353512 -0.2464523 0.00846956
-0.45515534 -0.02262004 -0.12553276 -0.13948655 -0.054040194 -0.17408553 -0.29873836 -0.3216526
-0.20348476 -0.081587106 0.0368802 -0.17625462 0.070686266 0.088026695 -0.36702946 0.01765622
0.009947558 -0.20742214 -0.05448611 -0.17417802 -0.04883286 0.05365533 -0.2318569 -0.07320254
-0.5152115 -0.16702403 -0.26191375 0.2187616 -0.16818377 -0.10365519 -0.17609528 -0.06099543
-0.24213755 -0.18893296 -0.042509615 -0.15033539 -0.07796978 0.19563359 -0.12553036 -0.061024413
0.3834526 0.047142096 0.4157181 -0.0046844487 0.6173651 -0.26392362 0.10419661 0.3810639
0.07135931 -0.03858749 0.2277315 -0.038320564 0.13636905 -0.6556116 0.06527171 0.19565621
-0.06704 -0.11309611 0.40891117 0.07969181 -0.47439507 -0.17137933 -0.19883935 0.15725793
-0.012060662 -0.41211453 -0.50067514 0.002330877 0.3632547 0.1395192 0.14913611 0.17373097
-0.58211863 -0.0028256269 0.027974192 -0.015020971 0.09600875 0.037732344 -0.035348896 -0.06975589
-0.079100214 0.027473135 -0.35797852 0.110286005 0.41455433 0.029597413 0.26566854 -0.014244381
0.6603368 0.5127713 0.12933399 0.22267781 0.25784993 0.18961704 -0.026078824 -0.025996262
0.04997243 -0.1065349 -0.13497703 0.045663055 0.31186134 0.5315292 0.26484865 0.11281324
-0.2576876 0.35794213 -0.35658523 -0.15437302 0.19700135 -0.04767758 -0.31942776 -0.27264684
0.04498577 -0.20031703 -0.0077120056 0.06361032 0.047436085 -0.38330913 -0.028035149 0.019047897
0.0050150068 -0.024536127 0.1209766 -0.09247337 -0.014501536 -0.066846564 0.060972925 0.1584151
0.14258522 -0.3225933 0.1754464 0.1707124 -0.36400598 0.1081131 -0.40013352 0.3223513
-0.18309276 -0.4898522 -0.28408504 -0.38006967 -0.03241508 -0.77083415 0.060354844 0.0604021
-0.011855259 -0.041507825 0.10443945 0.01066978 -0.19827902 -0.07418949 -0.39018968 -0.18099567
-0.22483942 0.39839664 0.24052013 0.32939073 0.2813376 0.42827818 -0.13709998 0.67628825
0.22985128 -0.046930667 -0.26714516 -0.045866035 0.013643149 0.039520778 -0.00203294 -0.017485753
0.007696755 0.04992543 -0.058628097 -0.028921027 0.22790208 0.05261678 -0.31649622 0.0655732
0.17082761 0.33665764 0.029237254 0.23181114 0.29391187 0.20404455 -0.11367165 0.041457888
-0.1806613 -0.05955222 -0.18395372 0.22548772 0.04495024 -0.16813965 0.11217155 0.1447909
0.5307368 -0.054664373 -0.01866667 -0.16386442 -0.31298807 0.35933104 0.0031947214 -0.17740053
-0.48392445 -0.4721621 0.135283 0.037957538 -0.1859396 -0.24947906 -0.039964214 0.04074713
-0.004839908 0.024424361 -0.008206856 0.038724106 -0.118088655 0.024848742 0.014187581 0.07929715
-0.047994446 -0.08537752 -0.0670926 0.21710484 0.024387801 -0.12205074 -0.057731245 0.22046019
-0.1465914 0.4455048 -0.04514306 0.44587058 0.2864212 0.020131662 0.029881993 -0.41314545
0.0282857 0.2848847 -0.6838531 0.048991326 0.08963523 0.11070075 -0.2255864 0.33218676
-0.42216617 -0.20531708 -0.13808633 -0.4716409 0.3247061 -0.0013791283 0.0921267 0.0407062
00000000: db61 c63d dd5d 023e 9ba2 d2bc 22f0 8fbe
00000010: 5644 fabd b75e c43e fe5d 7cbe e9c3 0a3c
00000020: 1f0a e9be aa4d b9bc a98b 00be 90d5 0ebe
00000030: 4059 5dbd 7a43 32be 3cf4 98be a6af a4be
00000040: 4f5e 50be 2417 a7bd b10f 173d 177c 34be
00000050: f6c3 903d 5747 b43d 49eb bbbe c7a3 903c
00000060: 15fb 223c 7866 54be d42c 5fbd b95b 32be
00000070: f704 48bd b1c5 5b3d e56b 6dbe 37eb 95bd
00000080: e7e4 03bf 5908 2bbe 8f19 86be 0a03 603e
00000090: 5e38 2cbe 2c49 d4bd 5252 34be 58d6 79bd
000000a0: e8f2 77be a477 41be 901e 2ebd 85f1 19be
000000b0: 9fae 9fbd 2c54 483e 088b 00be bcf4 79bd
000000c0: e653 c43e 1218 413d 01d9 d43e 0180 99bb
000000d0: a40b 1e3f ff20 87be 0865 d53d cf1a c33e
000000e0: d424 923d ea0d 1ebd 7232 693e 06f6 1cbd
000000f0: 54a4 0b3e 29d6 27bf 2dad 853d 1a5a 483e
00000100: 444c 89bd ef9e e7bd ce5c d13e 7635 a33d
00000110: e9e3 f2be 107e 2fbe 8b9c 4bbe 3908 213e
00000120: 159a 45bc ad00 d3be 3f2c 00bf a0c1 183b
00000130: 85fc b93e 1fde 0e3e 23b7 183e 88e6 313e
00000140: ba05 15bf 272e 39bb 222a e53c 851a 76bc
00000150: 3ca0 c43d 3b8d 1a3d 01ca 10bd 2ddc 8ebd
00000160: 4bff a1bd 570f e13c f648 b7be a1dd e13d
00000170: 7740 d43e 4676 f23c b505 883e 4461 69bc
00000180: d50b 293f fb44 033f 2170 043e a705 643e
00000190: e804 843e f82a 423e 42a3 d5bc 1df6 d4bc
000001a0: e4af 4c3d f82e dabd 6b37 0abe 2f09 3b3d
000001b0: 4aac 9f3e 4c12 083f 3e9a 873e a10a e73d
000001c0: a1ef 83be 3144 b73e 5792 b6be f613 1ebe
000001d0: b9ba 493e 9149 43bd 098c a3be 5e98 8bbe
000001e0: 0043 383d e81f 4dbe feb4 fcbb 2146 823d
000001f0: 574c 423d 1841 c4be f8a9 e5bc 560a 9c3c
00000200: ed54 a43b fdff c8bc 94c2 f73d ae62 bdbd
00000210: da97 6dbc dae6 88bd bfbe 793d 9137 223e
00000220: dc01 123e f32a a5be 39a8 333e 3bcf 2e3e
00000230: fe5e babe 676a dd3d 4dde ccbe 3b0b a53e
00000240: ab7c 3bbe e8cd fabe 9873 91be 7e98 c2be
00000250: adc5 04bd 6355 45bf a436 773d 3168 773d
00000260: 8f3c 42bc 1c04 2abd 5ae4 d53d 4dd0 2e3c
00000270: a809 4bbe a9f0 97bd f1c6 c7be ee56 39be
00000280: 4e3c 66be a5fa cb3e e94a 763e e7a5 a83e
00000290: 7b0b 903e 4747 db3e f063 0cbe 3a21 2d3f
000002a0: 225e 6b3e 5f3a 40bd 40c7 88be 06de 3bbd
000002b0: 8487 5f3c 8ae0 213d 133b 05bb 483e 8fbc
000002c0: 1035 fc3b 9c7e 4c3d 0424 70bd caeb ecbc
000002d0: 2a5f 693e b184 573d cb0b a2be 3e4b 863d
000002e0: 6fed 2e3e 645e ac3e f782 ef3c e65f 6d3e
000002f0: 9e7b 963e 0ef1 503e afcc e8bd bfcf 293d
00000300: 47ff 38be 07ed 73bd 5d5e 3cbe 41e6 663e
00000310: be1d 383d cd2c 2cbe 33ba e53d 1144 143e
00000320: 5ede 073f c0e7 5fbd d8ea 98bc 13cc 27be
00000330: f93f a0be 3dfa b73e 885e 513b 7ca8 35be
00000340: f2c4 f7be 3bbf f1be a087 0a3e 5d79 1b3d
00000350: f366 3ebe 7077 7fbe 84b1 23bd 76e6 263d
00000360: 1798 9ebb 9915 c83c 0d76 06bc 2b9d 1e3d
00000370: 77d8 f1bd 978f cb3c 0773 683c 8b66 a23d
00000380: d395 44bd 69da aebd d867 89bd bb50 5e3e
00000390: edc8 c73c bdf5 f9bd 9977 6cbd 51c0 613e
000003a0: 0e1c 16be 3519 e43e eee7 38bd 2649 e43e
000003b0: cda5 923e 28eb a43c 15cb f43c cd87 d3be
000003c0: 6ab7 e73c 68dc 913e ff10 2fbf 21ab 483d
000003d0: ad92 b73d 13b7 e23d 1f00 67be 6214 aa3e
000003e0: 2a26 d8be a43e 52be 8166 0dbe eb7a f1be
000003f0: e13f a63e dec3 b4ba ecac bc3d 8bbb 263d

a1.bias f4 [16]
0.01881822 -0.116881706 -0.07023415 -0.1674372 0.1724464 -0.15130438 0.029764354 -0.12878731
-0.17155795 0.09728931 -0.0613538 0.10480984 -0.11821229 -0.09848252 0.3080869 0.2597288
00000000: ab28 9a3c ad5f efbd ecd6 8fbd a874 2bbe
00000010: ca95 303e 89ef 1abe 60d4 f33c d2e0 03be
00000020: e3ac 2fbe 9e3f c73d 1f4e 7bbd 8ba6 d63d
00000030: 4919 f2bd 34b1 c9bd 91bd 9d3e 2cfb 843e

a2.weight f4 [16, 16, 3, 3]
-0.036760323 -0.28011355 -0.075886235 0.39108372 0.293014 -0.036254875 0.031149993 -0.15854326
0.20928545 0.043854114 0.19809651 0.016036384 -0.16051248 0.2001557 -0.25732583 -0.047565393
0.15219681 -0.106369086 -0.0770321 -0.2788493 -0.4050388 -0.45596865 -0.09194418 -0.034579955
-0.17428823 -0.46261933 0.090980016 -0.8756459 0.3275101 -0.40804526 0.7327822 -0.30517957
0.2587206 0.09383828 0.09527987 0.09746592 0.01420923 -0.43783373 -0.03992209 0.08570393
-0.04764776 -0.17568249 -0.6238409 -0.25403842 -0.23588544 0.10291262 -0.26639068 -0.1989952
0.27192906 0.07648567 0.18592834 -0.4355151 0.20557551 0.18305662 -0.27676806 0.012603419
-0.03710381 0.44187135 0.38536793 0.04721592 0.09087236 -0.0039341054 -0.004122109 0.40980896
-0.25139633 -0.0876608 -0.4452317 -0.04907417 -0.15762846 -0.13958396 -0.12152224 0.28989297
0.27645123 0.18102516 0.03849111 -0.03859638 -0.0145697445 0.30186042 -0.26022717 0.53724223
0.15503526 0.06518929 0.22312833 -0.053152617 -0.24973838 0.27498183 0.5684329 0.19945875
0.047738392 0.21604916 -0.1899167 -0.06425933 -0.17122921 0.09533501 0.2713331 -0.44600105
0.09422387 0.040234227 0.21830149 -0.4260311 -0.07080997 -0.012278458 -0.20544045 -0.20056532
0.008620184 0.64122385 0.041342415 -0.2122325 0.014585644 -0.17820607 0.015207654 -0.0007377838
0.62948537 -0.37293458 0.61290973 0.30534923 -0.2442907 0.29235408 -0.41373566 -0.5068159
0.038136255 0.5246638 0.17475167 0.26403973 -0.21152045 0.050926816 -0.09137071 -0.7680865
-0.08692456 -0.07331405 -0.03962803 -0.3644779 -0.085168995 -0.24985091 0.1761009 -0.46122226
0.0061511206 -0.19946185 -0.10994092 -0.26284975 0.66532016 -0.28492618 -0.00096614513 0.013082864
0.0006456815 -0.011878735 -0.05897335 -0.17529252 -0.25531685 -0.23268428 -0.122217506 -0.12660594
-0.16205344 -0.10292863 -0.1081277 0.24398826 -0.1268002 -0.16480468 -0.00267335 0.13850792
0.11072043 0.12393145 0.1255415 -0.023639696 0.2234783 -0.027344203 0.23734018 0.20182613
0.03105837 0.08790309 0.0843218 -0.2436051 0.22648984 0.38073254 0.026595248 0.026797563
-0.12289911 0.11472389 -0.22270583 0.34731424 0.38449317 -0.2272005 0.2124197 0.16349263
0.123449214 -0.08611279 0.20720764 -0.114351325 -0.043147705 -0.17729011 0.15881433 0.2634583
0.05511945 -0.0008863757 -0.06807286 0.1189796 0.1046342 -0.16414782 -0.07009377 -0.09885716
-0.12788427 -0.09985037 -0.004453161 -0.0013722973 -0.16476683 -0.20578447 -0.025923109 0.10737619
0.2484476 0.079067595 -0.23173894 0.15089634 0.010907212 0.15001033 -0.06527227 0.48532963
-0.12506755 -0.12119821 0.102131784 -0.4255963 0.14006169 -0.11216009 -0.25477588 0.37182453
-0.07062711 -0.06958179 -0.094689324 0.12205837 0.101077504 0.0951605 0.07542368 0.0017356224
-0.13622287 -0.16879363 0.18631154 0.18414326 -0.09699275 0.059584633 -0.24981532 0.28602257
-0.08843835 0.20568176 -0.28477028 0.037388474 0.4921108 0.12947471 0.00062554167 0.114413284
0.3569906 -0.2623433 -0.27460667 -0.22599363 -0.11810377 0.40637842 0.004041456 -0.12608862
00000000: fe91 16bd 0b6b 8fbe 3e6a 9bbd 203c c83e
00000010: ee05 963e fe7f 14bd 452e ff3c 2a59 22be
00000020: ed4e 563e 5fa0 333d d0d9 4a3e bc5e 833c
00000030: 625d 24be 9ef5 4c3e 36c0 83be eed3 42bd
00000040: 7bd9 1b3e 09d8 d9bd 01c3 9dbd 56c5 8ebe
00000050: 3f61 cfbe b974 e9be 3b4d bcbd b6a3 0dbd
00000060: 9d78 32be 71dc ecbe bb53 ba3d 542a 60bf
00000070: 67af a73e 4feb d0be 9d97 3b3f 7f40 9cbe
00000080: 0777 843e 492e c03d 1822 c33d 369c c73d
00000090: d5cd 683c be2b e0be 5885 23bd 8b85 af3d
000000a0: 4c2a 43bd 1ce6 33be 0ab4 1fbf 5311 82be
000000b0: f48b 71be dac3 d23d 5c64 88be 66c5 4bbe
000000c0: 493a 8b3e 85a4 9c3d 0064 3e3e d6fb debe
000000d0: 6382 523e 3273 3b3e 8bb4 8dbe 927e 4e3c
000000e0: 2afa 17bd f63c e23e f24e c53e 7b65 413d
000000f0: 4a1b ba3d abe9 80bb c212 87bb 7bd2 d13e
00000100: 05b7 80be 8187 b3bd 69f5 e3be ff01 49bd
00000110: 5b69 21be 19ef 0ebe a7e0 f8bd da6c 943e
00000120: 048b 8d3e a95e 393e dba8 1d3d 3d17 1ebd
00000130: f0b5 6ebc 738d 9a3e 7f3c 85be b588 093f
00000140: 90c1 1e3e f681 853d c17b 643e 8fb6 59bd
00000150: 6bbb 7fbe 6bca 8c3e d284 113f ea3e 4c3e
00000160: 5589 433d fe3b 5d3e 8679 42be 659a 83bd
00000170: b656 2fbe 003f c33d 2cec 8a3e 405a e4be
00000180: 72f8 c03d a5cc 243d 6d8a 5f3e c020 dabe
00000190: d104 91bd 962b 49bc fb5e 52be ff60 4dbe
000001a0: ac3b 0d3c 3f27 243f aa56 293d 7a53 59be
000001b0: a0f8 6e3c a77b 36be 8629 793c d567 41ba
000001c0: f425 213f 48f1 bebe a7e7 1c3f bc56 9c3e
000001d0: 5727 7abe 6faf 953e 29d5 d3be b0be 01bf
000001e0: c334 1c3d 5e50 063f 1af2 323e 3730 873e
000001f0: d198 58be a398 503d 9120 bbbd 51a1 44bf
00000200: 8105 b2bd ad25 96bd 0051 22bd d99c babe
00000210: 156d aebd ebd8 7fbe cb53 343e 5325 ecbe
00000220: 578f c93b ba3f 4cbe b428 e1bd 3e94 86be
00000230: 6c52 2a3f d8e1 91be e744 7dba 8259 563c
00000240: f442 293a 079f 42bc 0a8e 71bd e27f 33be
00000250: e4b8 82be ca44 6ebe 2c4d fabd fda4 01be
00000260: 56f1 25be 3fcc d2bd 0e72 ddbd 0fd8 793e
00000270: e9d7 01be 8fc2 28be 5f33 2fbb 05d5 0d3e
00000280: 65c1 e23d c6cf fd3d f38d 003e 09a8 c1bc
00000290: 7fd7 643e f300 e0bc 4e09 733e 82ab 4e3e
000002a0: 1f6e fe3c 8906 b43d e8b0 ac3d 9e73 79be
000002b0: f4ec 673e 60ef c23e 47de d93c 9086 db3c
000002c0: 87b2 fbbd 5cf4 ea3d ff0c 64be 2cd3 b13e
000002d0: 4adc c43e 3fa7 68be 8d84 593e 9d6a 273e
000002e0: f1d2 fc3d e75b b0bd 3d2e 543e 0731 eabd
000002f0: a6bb 30bd 8a8b 35be 39a0 223e 02e4 863e
00000300: efc4 613d ab5b 68ba c969 8bbd 94ab f33d
00000310: 754a d63d 5e16 28be 538d 8fbd 9f75 cabd
00000320: 18f4 02be 5a7e ccbd d2eb 91bb a8de b3ba
00000330: a3b8 28be 2ab9 52be b35c d4bc 0ce8 db3d
00000340: 0c69 7e3e 31ee a13d f94c 6dbe 9284 1a3e
00000350: 2ab4 323c 4f9c 193e 78ad 85bd 207d f83e
00000360: b511 00be c436 f8bd 782a d13d c2e7 d9be
00000370: 556c 0f3e 30b4 e5bd fc71 82be c95f be3e
00000380: f2a4 90bd e680 8ebd 7aec c1bd bdf9 f93d
00000390: b901 cf3d 82e3 c23d bb77 9a3d d37d e33a
000003a0: 027e 0bbe 3dd8 2cbe 74c8 3e3e 0d90 3c3e
000003b0: 23a4 c6bd 040f 743d 96cf 7fbe 8d71 923e
000003c0: 2a1f b5bd 3d9e 523e 69cd 91be a824 193d
000003d0: f2f5 fb3e 0595 043e 64fb 233a 8351 ea3d
000003e0: 79c7 b63e dc51 86be 3f99 8cbe e06a 67be
000003f0: 64e0 f1bd d510 d03e 316e 843b 601d 01be

a2.bias f4 [16]
-0.12038944 -0.29341218 -0.13475227 -0.019722689 0.028207952 -0.21295089 -0.0037944897 -0.02767331
0.169314 -0.18113533 -0.28163385 -0.0785286 -0.2581079 0.048182156 0.20912586 0.17450292
00000000: bd8e f6bd 1f3a 96be 80fc 09be 7a91 a1bc
00000010: 5d14 e73c cc0f 5abe f9ac 78bb 23b3 e2bc
00000020: a660 2d3e 8a7b 39be 5032 90be 9ad3 a0bd
00000030: b826 84be a75a 453d 1725 563e e5b0 323e

a3.weight f4 [32, 16, 3, 3]
-0.17454891 0.42504165 -0.6232347 -0.12609075 -0.16337726 -0.11039567 -0.7207544 -0.094232515
0.21437149 -0.038051248 -0.116322026 -0.24234375 0.010994702 0.22889678 0.20175576 -0.42345524
-0.2567553 -0.5494842 0.16457614 -0.03442065 0.23265484 0.10649227 0.2308981 -0.19568972
-0.094487965 0.12661253 -0.09005443 -0.43237633 0.20890047 0.24801695 0.06785059 -0.0974031
0.17434546 -0.1569566 -0.16251445 0.025712166 0.159013 0.07489139 -0.25537333 -0.09333407
0.4674125 -0.12301079 0.17836286 0.108115345 -0.07705178 0.21959531 -0.05488219 -0.05115834
0.34580782 -0.048492044 0.41657522 -0.46079686 -0.2565249 0.20157957 -0.012897699 0.04488693
-0.30427796 0.063603304 0.14713404 -0.17155033 0.13246883 0.4475697 0.11487825 0.23395339
0.13626659 0.15179718 0.21595462 0.3215724 -0.3189593 0.45763728 -0.1587651 -0.28329453
0.0138525935 0.23643297 -0.18126561 0.16283445 0.38978222 0.06754375 0.13594927 -0.31162298
-0.12580892 0.061294276 0.24242266 -0.15080044 0.35403067 -0.03619836 0.007821153 -0.15681468
-0.22415686 0.12486072 -0.0949382 0.062719405 -0.118095465 0.17585747 -0.39073965 0.5321567
0.05887287 -0.1778442 -0.32330495 0.046187125 -0.31002152 -0.14307578 -0.25830248 0.40598658
-0.0768777 -0.24105893 0.3744578 -0.20722918 -0.03919197 -0.48295763 -0.38186294 0.26885995
0.0068089664 0.42149118 -0.71306634 0.1060562 -0.0149334995 0.670966 -0.022128586 0.060466632
0.41434702 0.06649588 -0.2065807 0.26646408 -0.08283278 0.347208 0.44895157 -0.2913298
-0.5078011 0.052819118 0.33752677 -0.21994442 0.14894144 -0.12452835 -0.40398183 -0.06722457
0.09088129 0.19284445 0.050029896 0.46956366 -0.833101 0.16421457 -0.3010847 -0.3924295
0.18579225 -0.053587124 0.5855351 0.14997354 0.016092964 0.18559985 -0.18491378 -0.060147386
0.13455157 -0.08283229 -0.10749794 0.24156444 -0.2331523 -0.19791895 0.23116738 0.29941985
0.17131077 -0.19352292 -0.46785775 -0.013090258 0.0020569977 0.23918554 -0.10743861 -0.37120423
-0.28222927 0.014192687 -0.34800568 -0.110353805 -0.13062264 -0.20205098 -0.25899485 0.1784423
0.17618428 0.13907441 -0.1947224 0.16858056 -0.30641922 -0.19218214 -0.1341926 -0.268026
-0.16052541 0.3064031 -0.063693374 -0.21916421 0.27592438 0.08394547 0.1572555 0.17816101
0.109965056 -0.08516687 0.42977485 -0.06165497 -0.0707583 0.1826887 -0.18742713 -0.17121269
0.13431159 -0.021361146 -0.26507998 0.1843194 0.22109908 0.2681457 0.33318594 -0.15783092
0.09247779 -0.672831 0.17375745 0.4087582 -0.114114545 -0.70539576 0.17335421 0.4340041
0.12935364 0.4151938 -0.2550616 -0.3585205 -0.038617603 -0.5337983 -0.11034897 -0.19770841
0.032284096 0.23451424 -0.14925173 -0.11565958 -0.0037528144 -0.067214034 -0.31814206 -0.03174319
0.26176947 0.058384124 0.3860489 -0.25514537 0.32219234 -0.27725825 -0.21084026 -0.29038578
-0.14053625 -0.47425768 -0.1441813 -0.45336017 -0.016585018 -0.09026453 -0.244371 -0.10159239
0.19768104 -0.8100288 -0.30771607 0.24141808 0.35553625 -0.20454475 0.27964282 -0.36589238
00000000: f3bc 32be 0f9f d93e 4f8c 1fbf ef1d 01be
00000010: 5e4c 27be 2017 e2bd 5c83 38bf fafc c0bd
00000020: 3384 5b3e a0db 1bbd 3e3a eebd f628 78be
00000030: 1f23 343c eb63 6a3e 1099 4e3e 20cf d8be
00000040: 6e75 83be ffaa 0cbf a686 283e abfc 0cbd
00000050: 123d 6e3e 9f18 da3d 8d70 6c3e e362 48be
00000060: e882 c1bd b7a6 013e 756e b8bd 6e60 ddbe
00000070: 01ea 553e 28f8 7d3e 40f5 8a3d 477b c7bd
00000080: 9e87 323e 3bb9 20be 306a 26be 52a2 d23c
00000090: 4ed4 223e a860 993d 4bc0 82be ef25 bfbd
000000a0: b150 ef3e 15ed fbbd c1a4 363e 946b dd3d
000000b0: 53cd 9dbd 98dd 603e 26cc 60bd 688b 51bd
000000c0: b90d b13e 989f 46bd 5949 d53e 91ed ebbe
000000d0: 3b57 83be e06a 4e3e df50 53bc 5cdb 373d
000000e0: 52ca 9bbe 7342 823d 4eaa 163e e4aa 2fbe
000000f0: e9a5 073e db27 e53e 4a45 eb3d 7a91 6f3e
00000100: 7889 0b3e b870 1b3e 3523 5d3e 23a5 a43e
00000110: a24e a3be 6f4f ea3e 5293 22be fb0b 91be
00000120: fdf5 623c 7c1b 723e b19d 39be 13be 263e
00000130: 8991 c73e 6154 8a3d 4936 0b3e 0c8d 9fbe
00000140: 0ed4 00be b50f 7b3d a53d 783e 6e6b 1abe
00000150: 8243 b53e bb44 14bd 4b24 003c 0794 20be
00000160: 6089 65be fab6 ff3d f66e c2bd 0873 803d
00000170: 09dc f1bd fb13 343e 070f c8be 6c3b 083f
00000180: ae24 713d ca1c 36be 3a88 a5be b62e 3d3d
00000190: 24bb 9ebe 7582 12be 3940 84be 79dd cf3e
000001a0: 0e72 9dbd 27d8 76be efb8 bf3e e333 54be
000001b0: c287 20bd 3946 f7be 8a83 c3be 03a8 893e
000001c0: c01d df3b b1cd d73e 848b 36bf fe33 d93d
000001d0: a3ab 74bc 6ec4 2b3f 0247 b5bc dcab 773d
000001e0: 4b25 d43e fe2e 883d e489 53be fb6d 883e
000001f0: 3ca4 a9bd 3fc5 b13e fbdc e53e 2e29 95be
00000200: 41ff 01bf dc58 583d 4fd0 ac3e 1c39 61be
00000210: 1b84 183e b808 ffbd b5d6 cebe 09ad 89bd
00000220: f81f ba3d 0479 453e 26ec 4c3d a66a f03e
00000230: 1b46 55bf dd27 283e c627 9abe 85ec c8be
00000240: 5340 3e3e 2c7e 5bbd a1e5 153f aa92 193e
00000250: 64d5 833c e30d 3e3e 0a5a 3dbe 1b5d 76bd
00000260: e3c7 093e faa3 a9bd e127 dcbd ab5c 773e
00000270: 7abf 6ebe 44ab 4abe 24b7 6c3e 8f4d 993e
00000280: 176c 2f3e df2a 46be 0d8b efbe 8678 56bc
00000290: b2ce 063b 0eed 743e c608 dcbd 7b0e bebe
000002a0: 5b80 90be 7288 683c cd2d b2be 2d01 e2bd
000002b0: f1c1 05be 74e6 4ebe f99a 84be 94b9 363e
000002c0: a769 343e 8669 0e3e 4f65 47be 62a0 2c3e
000002d0: fbe2 9cbe 65cb 44be c969 09be b43a 89be
000002e0: c660 24be dee0 9c3e ac71 82bd 956c 60be
000002f0: f645 8d3e 9aeb ab3d 9607 213e d76f 363e
00000300: 5c35 e13d f86b aebd 730b dc3e ec89 7cbd
00000310: bae9 90bd bf12 3b3e e6ec 3fbe 6152 2fbe
00000320: fa88 093e 92fd aebc 90b8 87be 3abe 3c3e
00000330: cc67 623e 654a 893e 5997 aa3e 6e9e 21be
00000340: ff64 bd3d a73e 2cbf 79ed 313e c148 d13e
00000350: e3b4 e9bd d194 34bf c483 313e c935 de3e
00000360: 4875 043e 4894 d43e 6f97 82be 0090 b7be
00000370: 7e2d 1ebd 01a7 08bf a4fe e1bd 1374 4abe
00000380: 543c 043d 8024 703e 72d5 18be eede ecbd
00000390: c7f1 75bb 83a7 89bd 84e3 a2be 2605 02bd
000003a0: a606 863e 3124 6f3d 34a8 c53e 6aa2 82be
000003b0: 65f6 a43e cbf4 8dbe 82e6 57be 72ad 94be
000003c0: bce8 0fbe e7d1 f2be 43a4 13be d31e e8be
000003d0: 4edd 87bc 9cdc b8bd 643c 7abe ac0f d0bd
000003e0: e66c 4a3e 0c5e 4fbf f68c 9dbe 4d36 773e
000003f0: d908 b63e 2e74 51be 582d 8f3e 3f56 bbbe

a3.bias f4 [32]
-0.39890164 0.1087191 0.17247055 -0.5181876 -0.4033521 0.08052036 0.28172344 -0.18685381
-0.5779647 -0.3358881 -0.29454494 -0.20194043 -0.9188005 -0.20350702 -0.16339937 0.6587185
0.43084162 -0.3639803 -0.16091289 -0.47671956 -0.0769124 -0.4210587 -0.098246984 -0.33722448
-0.13657093 0.30525506 0.47144914 -0.18527216 0.0142801395 0.22696473 -0.14657083 -0.2560134
00000000: d63c ccbe 1fa8 de3d 1f9c 303e f1a7 04bf
00000010: 2b84 cebe dce7 a43d 0e3e 903e 9b56 3fbe
00000020: 7ff5 13bf 86f9 abbe 98ce 96be 79c9 4ebe
00000030: 8236 6bbf 2564 50be 2a52 27be c7a1 283f
00000040: 4697 dc3e a05b babe 59c6 24be 9614 f4be
00000050: 4084 9dbd 0295 d7be b735 c9bd b0a8 acbe
00000060: 40d9 0bbe 644a 9c3e c861 f13e fcb7 3dbe
00000070: 3ff7 693c 7169 683e aa16 16be 3014 83be

b1.weight f4 [32, 32, 3, 3]
-0.5077003 0.14861836 -0.042749252 -0.21529333 -0.09908688 -0.1130857 -0.09156478 -0.086102694
-0.35406098 0.00050080934 -0.51960605 0.2309283 -0.30321977 -0.7215544 0.07180803 0.177259
-0.49179065 0.38299036 -0.117400974 0.2167011 0.04990754 0.17111994 0.2892195 0.04744252
-0.08100455 0.033083953 -0.20971647 0.32192728 0.2953459 0.30015555 0.18180805 -0.38964733
0.27253687 -0.17296016 -0.21271276 -0.33506328 0.30068797 -0.514947 -0.030007534 -0.0066305236
0.05478433 -0.38867235 -0.13894346 -0.67611766 0.056860168 0.60652626 -0.91031927 -0.085121915
0.24232845 -0.17756647 0.111438185 0.08476649 -0.1456341 -0.5449252 -0.15912646 -0.2335696
-0.323861 -0.01956811 0.08246374 -0.14778276 -0.070037745 -0.08772602 0.20058018 -0.06192255
0.053410318 0.040944282 0.041649498 -0.16752945 -0.037700113 0.010142469 0.058243833 0.024395242
-0.19354789 -0.39080057 -0.4224325 -0.510181 0.36323774 -0.0066774176 -0.45567545 0.23048459
0.3322248 0.2992368 -0.17861831 -0.06474352 0.24544676 0.07823435 0.46809384 0.84343946
-0.15648818 -0.08476921 -0.23635677 0.30941716 -0.19571513 0.25901875 0.2582576 -0.26935628
0.19854285 -0.005669786 0.023051584 -0.29086512 -0.4452312 -0.5807106 0.34734657 -0.20928226
-0.41997197 0.19806477 0.20471488 -0.19376746 -0.28924006 -0.37388363 -0.26404697 -0.17472185
-0.13017683 0.22635004 -0.21353598 -0.41474617 -0.08762459 0.07425489 0.07847976 0.23444302
0.11569805 -0.029067356 -0.16943327 -0.05049341 -0.25914118 0.05950668 0.086820595 0.24027285
0.0678031 0.0013233678 -0.44537282 -0.033930488 -0.058613412 -0.1849413 -0.080348335 0.12372383
0.08207329 0.012808199 -0.2880063 0.073518865 0.00895372 -0.0023438 -0.47758123 0.03337729
-0.24077512 0.028130962 0.069320895 0.24757332 0.41427568 0.17436133 -0.027106512 -0.021265276
0.26225537 0.1668046 0.22220135 -0.5236549 -0.00964275 -0.06289818 -0.65794337 0.048779037
0.2445755 -0.17401278 0.3827901 -0.100843765 -0.17180713 0.14427014 -0.606958 -0.2232814
-0.077877074 -0.19553581 -0.18253496 -0.3152315 0.48486146 -0.32743895 0.1829968 0.35341206
-0.18079425 -0.104789965 0.32588908 -0.26504132 -0.0747183 -0.215719 0.068142 0.023585033
-0.12180755 -0.061988823 0.18001382 0.11631326 0.20816144 0.11825386 -0.31955123 -0.34969917
0.16422753 0.19599377 0.21984969 -0.10376063 -0.16422041 -0.2627757 -0.18756588 0.011071608
0.055251606 -0.18099144 0.18436395 0.042032298 0.30904248 -0.40640077 -0.11804915 -0.23306662
0.19934231 -0.28477502 -0.38185117 -0.049115263 -0.15848686 -0.18101543 0.4352696 0.1498375
0.40373215 -0.3850506 -0.35716206 -0.4764739 -0.028228918 0.12746723 -0.020966265 0.23697202
0.12123372 0.29559854 0.101401076 -0.5536078 -0.04244842 -0.11330749 0.35752022 -0.1521837
0.5005336 0.07306586 0.5546968 0.0332976 -0.2747655 0.14382724 -0.03900636 -0.038961403
-0.005040075 0.32679045 -0.4307131 0.25736782 -0.0443637 -0.13241963 -0.8918615 -0.45461175
-0.06496804 -0.022653732 0.3087483 0.027897723 0.48452368 -0.1333538 -0.6399013 0.0294922
00000000: a6f8 01bf 692f 183e d719 2fbd db75 5cbe
00000010: 10ee cabd 7a99 e7bd 5186 bbbd 9c56 b0bd
00000020: 7b47 b5be bf48 033a e704 05bf 7878 6c3e
00000030: 9f3f 9bbe cab7 38bf 1710 933d 6283 353e
00000040: fccb fbbe 5017 c43e ec6f f0bd e5e6 5d3e
00000050: d96b 4c3d 113a 2f3e 9414 943e 1653 423d
00000060: b7e5 a5bd 0a83 073d eabf 56be a7d3 a43e
00000070: 9437 973e fdad 993e e42b 3a3e db7f c7be
00000080: f489 8b3e 781c 31be 60d1 59be 6a8d abbe
00000090: c6f3 993e 91d3 03bf 5cd2 f5bc dd44 d9bb
000000a0: 8965 603d 1000 c7be 3247 0ebe 0c16 2dbf
000000b0: 35e6 683d 4e45 1b3f af0a 69bf 6654 aebd
000000c0: f324 783e fcd3 35be b439 e43d 0e9a ad3d
000000d0: 1b21 15be 3880 0bbf 0cf2 22be df2c 6fbe
000000e0: 1cd1 a5be 4d4d a0bc c0e2 a83d 5d54 17be
000000f0: f36f 8fbd b3a9 b3bd e464 4d3e 80a2 7dbd
00000100: c7c4 5a3d 31b5 273d aa98 2a3d d78c 2bbe
00000110: 6f6b 1abd 992c 263c 1691 6e3d 88d8 c73c
00000120: 6b31 46be 0317 c8be 1349 d8be 399b 02bf
00000130: 4cfa b93e 3dce dabb 4b4e e9be 2704 6c3e
00000140: 5e19 aa3e 9135 993e b8e7 36be 4098 84bd
00000150: 6556 7b3e 5539 a03d ffa9 ef3e a6eb 573f
00000160: 703e 20be 7b9b adbd 8207 72be ed6b 9e3e
00000170: 8c69 48be 1b9e 843e 573a 843e 11e9 89be
00000180: d14e 4b3e 9dc9 b9bb add6 bc3c 46ec 94be
00000190: 58f5 e3be 73a9 14bf 69d7 b13e 174e 56be
000001a0: 9106 d7be 7ed1 4a3e c7a0 513e fa6a 46be
000001b0: 4617 94be ad6d bfbe 2a31 87be 49ea 32be
000001c0: 134d 05be 4ec8 673e 2da9 5abe 9c59 d4be
000001d0: 8574 b3bd f312 983d ffb9 a03d d511 703e
000001e0: 19f3 ec3d aa1e eebc ea7f 2dbe 2ed2 4ebd
000001f0: 27ae 84be 47bd 733d ffce b13d 160a 763e
00000200: 5adc 8a3d db74 ad3a e807 e4be b2fa 0abd
00000210: 9e14 70bd 4161 3dbe ab8d a4bd eb62 fd3d
00000220: 0b16 a83d 7bd9 513c 9075 93be 0f91 963d
00000230: a0b2 123c 709a 19bb 8785 f4be a0b6 083d
00000240: c18d 76be e772 e63c 1df8 8d3d dc83 7d3e
00000250: f11b d43e c78b 323e 7a0e debc 8434 aebc
00000260: 5646 863e d3ce 2a3e c088 633e 3f0e 06bf
00000270: a0fc 1dbc c3d0 80bd fa6e 28bf 87cc 473d
00000280: 0072 7a3e 6830 32be 10fd c33e 2d87 cebd
00000290: 35ee 2fbe 8dbb 133e 9961 1bbf e1a3 64be
000002a0: 047e 9fbd 8a3a 48be 72ea 3abe 0666 a1be
000002b0: c33f f83e 14a6 a7be 8363 3b3e 6df2 b43e
000002c0: 2122 39be 1f9c d6bd efda a63e 7fb3 87be
000002d0: e805 99bd 71e5 5cbe 088e 8b3d 6635 c13c
000002e0: 3d76 f9bd fee7 7dbd 8b55 383e a535 ee3d
000002f0: 4628 553e 142f f23d 389c a3be c50b b3be
00000300: 432b 283e 97b2 483e 4720 613e 7480 d4bd
00000310: 6529 28be 898a 86be 4511 40be b165 353c
00000320: 824f 623d d255 39be e7c9 3c3e 0f2a 2c3d
00000330: d13a 9e3e c313 d0be c1c3 f1bd 04a9 6ebe
00000340: 6420 4c3e 08ce 91be ff81 c3be 162d 49bd
00000350: 614a 22be 1c5c 39be a8db de3e 006f 193e
00000360: fbb5 ce3e 5a25 c5be f2dd b6be 63f4 f3be
00000370: 5540 e7bc c586 023e 72c1 abbc cba8 723e
00000380: 6249 f83d b158 973e 5eab cf3d 3eb9 0dbf
00000390: 65de 2dbd c20d e8bd e40c b73e 0bd6 1bbe
000003a0: f822 003f 8ea3 953d 9c00 0e3f 1063 083d
000003b0: 10ae 8cbe 7347 133e 22c5 1fbd fe95 1fbd
000003c0: 3727 a5bb 1451 a73e 6d86 dcbe b7c5 833e
000003d0: b6b6 35bd 0399 07be 0951 64bf dfc2 e8be
000003e0: f70d 85bd 5294 b9bc 4214 9e3e c489 e43c
000003f0: 7d13 f83e e68d 08be 92d0 23bf a099 f13c

b1.bias f4 [32]
-0.038780574 -0.2901054 -0.7426676 -0.33397776 0.9149348 -0.24136235 -0.25843683 -0.019449074
-0.26385018 -0.7760407 -0.59858596 0.31289482 -0.5536766 -0.49412575 0.17867447 -0.3539093
-0.28472605 -1.0065056 -0.2052401 0.4799825 -0.2287015 -0.4561217 0.8894367 -0.7581249
-0.06657647 -0.24334005 -0.11852338 -1.1927198 -0.09010828 -0.04904109 0.17113554 -0.14830992
00000000: 61d8 1ebd b288 94be 771f 3ebf 22ff aabe
00000010: 2b39 6a3f b127 77be d551 84be aa53 9fbc
00000020: 5f17 87be 9aaa 46bf ee3c 19bf c033 a03e
00000030: c0bd 0dbf 0dfe fcbe 71f6 363e 9a33 b5be
00000040: 9dc7 91be 2dd5 80bf 762a 52be 44c0 f53e
00000050: ba30 6abe c988 e9be 20b2 633f 7914 42bf
00000060: 3f59 88bd 222e 79be 63bc f2bd 0bab 98bf
00000070: b18a b8bd 4fdf 48bd 283e 2f3e 8ede 17be

b2.weight f4 [32, 32, 3, 3]
0.24200913 0.13088922 0.04984264 0.17677817 -0.28080654 0.4473815 -0.25215805 -0.10053233
0.22083414 0.37631232 -0.1256599 -0.024190573 -0.09901448 -0.21514203 -0.19206293 0.19444916
0.1348996 -0.49756464 -0.16516893 0.18999416 -0.65683717 0.057857573 -0.2805732 0.07611683
-0.22150373 -0.18822752 -0.16824196 0.5083573 -0.09522423 0.12883636 0.64967203 -0.09507567
-0.27550855 -0.07454403 -0.5101642 -0.15259805 -0.17748344 0.100146666 -0.3807196 0.022720044
0.27868584 -0.38278097 -0.6317516 0.22352126 0.29653716 0.7926672 -0.49388877 -0.18934752
-0.14630863 0.036456823 -0.45187342 -0.013154783 0.49782345 0.9184223 0.06916345 -0.41978163
0.1810511 -0.2958479 -0.09451885 -0.1481145 0.20360684 0.1397982 -0.33399448 0.30201116
-0.18759902 -0.16286983 -0.09203928 0.05886956 0.06898835 -0.087297544 0.1788148 -0.20200942
-0.033948302 -0.29119015 0.24741787 0.06339163 0.026443541 -0.16195634 -0.14846033 0.079031125
-0.32122824 -0.40933254 -0.4645312 -0.31305608 0.2318099 -0.22558284 0.378972 0.48980924
0.070750065 0.005191415 -0.019156566 -0.14818776 -0.22513632 -0.2004884 -0.28015712 -0.17404604
0.49922878 0.37973544 -0.25139785 0.17328973 -0.13399167 0.20728129 -0.2658145 0.14239025
-0.2603315 -0.41710973 0.16119696 -0.20371623 -0.2621285 -0.22638823 0.09737411 0.19173716
-0.06233889 -0.1505886 -0.43979982 0.17724407 0.12654658 -0.46176514 -0.040496703 -0.66929746
0.053004693 -0.35765943 0.22686705 -0.14371648 -0.0733191 -0.36374024 0.31877643 -0.037638016
-0.21530828 0.04546196 -0.5759825 -0.001566428 -0.20745738 0.29694107 0.14537424 -0.11402468
-0.047185775 -0.10646605 0.351953 -0.6466879 0.11457189 0.14712591 0.24004242 0.11420541
0.3901511 -0.091644466 -0.12455808 0.003538662 -0.15663438 0.17153196 0.04476913 0.39761683
-0.21312232 -0.070175044 -0.034148946 0.24331559 0.11371073 0.03949957 0.18660522 -0.24227245
0.13479893 -0.2306516 -0.011652747 0.12117694 -0.020464549 -0.1757263 -0.085435085 -0.41267753
-0.24402417 -0.18505107 -0.0075600855 0.3840295 -0.017244142 -0.087610856 0.03844707 0.32667622
0.16133724 -0.10359639 0.099282704 -0.032202333 0.029185748 -0.24518383 -0.005938407 0.27024442
-0.14158346 -0.0041008247 -0.40795857 -0.09352626 -0.43237138 -0.24546482 -0.20740084 0.10510493
0.20757507 0.23174979 0.4851427 -0.2999962 -0.41949743 0.048773866 0.35253087 -0.36662552
0.15527204 0.09165711 -0.012411716 0.27775267 -0.9120082 0.40688223 -0.1253329 -0.19643171
-0.11645983 -0.20000407 -0.007638219 -0.5468689 0.83571976 0.090214945 0.16631366 0.27656612
-0.0013870527 -0.1568245 -0.03206672 0.1575898 -0.20938173 -0.017497951 0.43895125 0.22517346
-0.3245817 -0.0149869155 -0.15923768 0.2684314 0.062142517 0.29315513 -0.098328225 -0.037772436
-0.2723597 0.18395907 0.13069344 -0.2046951 0.054742474 -0.013479318 0.09195098 0.280809
-0.47628015 -0.45275056 -0.17472078 0.13650629 -0.28055546 0.45920894 0.24586704 -0.22064218
-0.44250932 -0.058157433 -0.6447556 0.15348224 0.06905593 0.13484408 0.3350248 -0.088171594
00000000: 3ed1 773e d307 063e cc27 4c3d 5605 353e
00000010: e0c5 8fbe 300f e53e dc1a 81be e5e3 cdbd
00000020: 5822 623e 02ac c03e fdac 00be 4f2b c6bc
00000030: 1bc8 cabd 314e 5cbe 25ac 44be ae1d 473e
00000040: 1f23 0a3e cbc0 febe 0b22 29be d48d 423e
00000050: 7b26 28bf 10fc 6c3d 4aa7 8fbe 24e3 9b3d
00000060: e0d1 62be b7be 40be 9f47 2cbe b423 023f
00000070: ec04 c3bd aeed 033e e850 263f 08b7 c2bd
00000080: 750f 8dbe 8aaa 98bd 1f9a 02bf aa42 1cbe
00000090: 38be 35be b219 cd3d aeed c2be 631f ba3c
000000a0: e9af 8e3e defb c3be 79ba 21bf c2e2 643e
000000b0: b8d3 973e 3dec 4a3f fdde fcbe 51e4 41be
000000c0: eed1 15be c053 153d f45b e7be 2987 57bc
000000d0: b7e2 fe3e b91d 6b3f 91a5 8d3d 9eed d6be
000000e0: 7665 393e 6079 97be 1993 c1bd 54ab 17be
000000f0: 507e 503e 4227 0f3e 5301 abbe 35a1 9a3e
00000100: f519 40be 59c7 26be 177f bcbd 3521 713d
00000110: c449 8d3d 0ec9 b2bd 3a1b 373e 8fdb 4ebe
00000120: 600d 0bbd e016 95be 1c5b 7d3e 79d3 813d
00000130: 20a0 d83c e2d7 25be fc05 18be 12db a13d
00000140: 0778 a4be 0994 d1be 09d7 edbe e348 a0be
00000150: 935f 6d3e 30ff 66be 9e08 c23e 47c8 fa3e
00000160: 69e5 903d bf1c aa3b 3bee 9cbc 88be 17be
00000170: 238a 66be d54c 4dbe c170 8fbe 2039 32be
00000180: ea9a ff3e af6c c23e 38b7 80be dd72 313e
00000190: 1d35 09be 8c41 543e d718 88be c0ce 113e
000001a0: 2c4a 85be 688f d5be d110 253e fd9a 50be
000001b0: b535 86be 51d2 67be 146c c73d bf56 443e
000001c0: 1057 7fbd e633 1abe 712d e1be 787f 353e
000001d0: 6d95 013e 7b6c ecbe dfdf 25bd 1457 2bbf
000001e0: 731b 593d 231f b7be d64f 683e 6a2a 13be
000001f0: 5328 96bd 293c babe aa36 a33e 522a 1abd
00000200: c679 5cbe 5236 3a3d 9773 13bf 9a50 cdba
00000210: b56f 54be a908 983e fcdc 143e c585 e9bd
00000220: df45 41bd df0a dabd 2f33 b43e 578d 25bf
00000230: aba4 ea3d 2da8 163e aecd 753e 87e4 e93d
00000240: e3c1 c73e 18b0 bbbd 4f18 ffbd e6e8 673b
00000250: c364 20be 13a6 2f3e d65f 373d 6f94 cb3e
00000260: bd3c 5abe efb7 8fbd c4df 0bbd b927 793e
00000270: 2ce1 e83d 4dca 213d 7015 3f3e 4516 78be
00000280: bb08 0a3e ef2f 6cbe 2aeb 3ebc 9e2b f83d
00000290: 45a5 a7bc 98f1 33be 97f8 aebd 784a d3be
000002a0: 79e1 79be 077e 3dbe 98ba f7bb 849f c43e
000002b0: 9643 8dbc 526d b3bd ad7a 1d3d 1b42 a73e
000002c0: 9735 253e 582a d4bd bb54 cb3d 98e6 03bd
000002d0: f316 ef3c 7811 7bbe f896 c2bb 7a5d 8a3e
000002e0: 41fb 10be 3660 86bb f2df d0be b28a bfbd
000002f0: c85f ddbe 215b 7bbe e360 54be 4141 d73d
00000300: 8f8e 543e d14f 6d3e a064 f83e 1a99 99be
00000310: 5ec8 d6be 1bc7 473d ed7e b43e 57b6 bbbe
00000320: a2ff 1e3e b9b6 bb3d 835a 4bbc 9935 8e3e
00000330: 5f79 69bf de52 d03e 4557 00be 6525 49be
00000340: 7e82 eebd decd 4cbe 064a fabb 9aff 0bbf
00000350: bbf1 553f 9dc2 b83d 214e 2a3e 139a 8d3e
00000360: c4cd b5ba 9a96 20be 6558 03bd 385f 213e
00000370: 2a68 56be dd57 8fbc 38be e03e df93 663e
00000380: 932f a6be ae8b 75bc 340f 23be d76f 893e
00000390: 2789 7e3d 6e18 963e 4f60 c9bd 45b7 1abd
000003a0: bb72 8bbe c45f 3c3e 80d4 053e 989b 51be
000003b0: a539 603d 5bd8 5cbc cc50 bc3d 32c6 8f3e
000003c0: feda f3be ecce e7be 01ea 32be 4ec8 0b3e
000003d0: f7a4 8fbe 6f1d eb3e 92c4 7b3e 06f0 61be
000003e0: 9590 e2be 7d36 6ebd b40e 25bf 732a 1d3e
000003f0: 326d 8d3d 9114 0a3e 5f88 ab3e 4f93 b4bd

b2.bias f4 [32]
0.20786045 -1.1699872 -0.89862853 -1.0379269 -0.15941727 -0.88360256 -0.56529164 -0.6244405
0.65638065 0.061647527 0.0688649 -0.3970476 -0.49164286 -0.87396264 -0.19650632 0.3328358
-0.26503763 -0.5697699 -0.16508302 -0.35367653 -0.19044136 0.44988364 -0.7762815 0.6284723
-0.74528307 0.43004522 0.2308477 0.22293574 -1.0440599 -0.25386226 0.6031158 -0.2526117
00000000: 5fd9 543e 24c2 95bf 850c 66bf cada 84bf
00000010: 483e 23be c733 62bf f4b6 10bf 55db 1fbf
00000020: 9008 283f 1e82 7c3d 0a09 8d3d d349 cbbe
00000030: 9db8 fbbe 04bc 5fbf f438 49be 7469 aa3e
00000040: 03b3 87be 71dc 11bf 860b 29be 1715 b5be
00000050: 0f03 43be 2657 e63e 62ba 46bf 90e3 203f
00000060: dfca 3ebf e32e dc3e 5763 6c3e 4449 643e
00000070: c1a3 85bf 3cfa 81be cc65 1a3f 5256 81be

b3.weight f4 [64, 32, 3, 3]
-0.37761483 -0.012069947 -0.0566952 -0.1271588 0.052494302 -0.15042889 0.02340175 -0.50110614
-0.03306077 0.05217793 -0.37411767 0.34408957 -0.014476667 0.2421803 -0.29989842 -0.23391092
-0.21255916 -0.1424868 -0.19123204 -0.14541544 -0.048885584 0.16199505 -0.058152184 -0.4210738
0.11502529 0.41242555 -0.21810527 -0.1013027 -0.12575985 0.12842451 0.11789707 0.44207975
-0.32424253 0.06044341 -0.15178026 0.00745288 0.32046685 0.047573514 0.23659769 -0.7088953
0.05034211 0.5480767 -0.335938 0.33077446 0.15754724 -0.14363727 0.83531535 0.16089593
0.1436961 -0.28429732 0.30597338 -0.012345719 -0.07163539 -0.38403055 -0.24590081 0.007825504
-0.37267622 0.08038026 0.0059396205 0.17548968 -0.0043953047 -0.14102814 -0.116288535 -0.2904027
-0.014070766 0.3225532 -0.023850368 0.056420907 -0.6452279 0.27647865 0.42450237 -0.19329399
-0.14237896 0.075670965 -0.08959885 -0.055915795 0.13461345 0.030141957 -0.14177604 -0.50997365
0.4498253 -0.32759607 0.27251902 0.15293142 0.041424904 0.45521438 -0.3053627 -0.31036675
-0.58400744 -0.18363932 -0.15770298 -0.33224598 -0.13073497 0.070722155 -0.07164244 0.11833905
-0.31390113 -0.08545692 -0.4443283 0.29555506 -0.04489512 0.075042 0.33462846 -0.06538337
0.2269309 -0.05125346 0.6074204 0.31511757 0.10779339 0.12922841 0.16425109 0.2104803
-0.10505804 -0.4680007 -0.17356133 -0.05068271 0.057276566 -0.2133206 -0.059380982 0.04489923
-0.063621506 0.54197896 0.3148506 0.059784908 -0.17648546 0.39514598 0.28587246 -0.44933245
0.002385308 0.1546769 -0.17983754 0.22873242 -0.09557138 -0.08525393 -0.8076071 -0.13145955
-0.3355235 0.19511104 -0.095828414 -0.1993882 -0.804797 -0.2962696 -0.12059998 -0.0886765
0.23474643 -0.5978329 -0.39502898 0.64893943 -0.24387696 0.17652304 -0.24639176 -0.3609332
-0.29997504 -0.34963354 -0.1717907 0.36240128 0.09115034 0.032339063 -0.24763057 -0.5768601
-0.1778656 -0.39468595 0.5730919 0.05937036 0.0034204465 -0.16899423 -0.30667824 -0.1249058
-0.15453926 -0.3746196 -0.21134374 0.18219306 -0.20296386 -0.12428036 0.018937077 -0.38771784
0.17944555 -0.20975707 0.10756638 -0.31795767 0.12125066 -0.032154866 -0.23653685 0.3547172
-0.08144714 0.13535532 0.004761293 0.31296524 0.19408585 0.053479552 -0.22178444 0.0028019515
-0.37478352 0.12951249 0.11089145 -0.103107765 0.11050604 -0.0729408 -0.5342119 -0.30199552
-0.026398966 0.2359484 0.045385584 0.021030763 0.15040503 -0.26971167 -0.09491514 0.17719069
0.12954333 -0.48703808 0.1519023 -0.19761027 0.05677884 0.059051603 -0.48863885 0.14950138
-0.055683065 -0.028203305 0.07450116 0.0053574 -0.33056766 0.021100676 0.034079555 0.2483861
-0.007871785 -0.07609103 -0.10174475 0.33487228 0.4748695 0.088359386 0.294087 -0.02268475
0.26507488 0.052363224 0.20192423 0.120657474 -0.00019066289 -0.10383304 0.36898834 0.37019473
-0.17291483 -0.48159742 0.24670777 -0.13803697 -0.18115984 -0.015489395 0.1702652 0.035737455
0.2216259 0.047626138 -0.35007283 0.35421023 0.026148157 0.024256686 0.3458199 -0.10116758
00000000: bb56 c1be 07c1 45bc 3a39 68bd eb35 02be
00000010: 4404 573d 080a 1abe 07b5 bf3c 7e48 00bf
00000020: bb6a 07bd 86b8 553d 5a8c bfbe 822c b03e
00000030: 8b2f 6dbc 1dfe 773e 498c 99be 5886 6fbe
00000040: 1ca9 59be 0fe8 11be 55d2 43be c9e7 14be
00000050: 403c 48bd 08e2 253e fc30 6ebd fc96 d7be
00000060: 6192 eb3d 7129 d33e fd56 5fbe ca77 cfbd
00000070: 31c7 00be b781 033e 0574 f13d 4758 e23e
00000080: 1e03 a6be 8293 773d 496c 1bbe 4a37 f43b
00000090: 3b14 a43e 72dc 423d aa46 723e 2a7a 35bf
000000a0: 8733 4e3d c14e 0c3f 1100 acbe 455b a93e
000000b0: 1054 213e a615 13be 3ad7 553f e7c1 243e
000000c0: 1225 133e 6b8f 91be 8ba8 9c3e b345 4abc
000000d0: 93b5 92bd a79f c4be 6ccd 7bbe 8b36 003c
000000e0: 6bcf bebe 689e a43d 26a1 c23b 91b3 333e
000000f0: 7d06 90bb ae69 10be af28 eebd aaaf 94be
00000100: 1289 66bc b125 a53e d961 c3bc 9c19 673d
00000110: a82d 25bf 9c8e 8d3e 6058 d93e dcee 45be
00000120: cacb 11be 61f9 9a3d 9a7f b7bd f607 65bd
00000130: 1cd8 093e 44ec f63c bd2d 11be a28d 02bf
00000140: 804f e63e acba a7be 9d87 8b3e 0e9a 1c3e
00000150: 29ad 293d dc11 e93e 8058 9cbe 64e8 9ebe
00000160: 8381 15bf f20b 3cbe e47c 21be 251c aabe
00000170: 63df 05be c7d6 903d 46b9 92bd be5b f23d
00000180: a6b7 a0be 0a04 afbd 007f e3be fe52 973e
00000190: f2e3 37bd 9faf 993d 6c54 ab3e b7e7 85bd
000001a0: 9360 683e 26ef 51bd e77f 1b3f 1757 a13e
000001b0: c8c2 dc3d 7454 043e 7031 283e 2688 573e
000001c0: ab28 d7bd ca9d efbe 10ba 31be ac98 4fbd
000001d0: d59a 6a3d b770 5abe 7939 73bd 41e8 373d
000001e0: fe4b 82bd 22bf 0a3f 1934 a13e 05e1 743d
000001f0: 9bb8 34be 9350 ca3e e05d 923e e70e e6be
00000200: d452 1c3b 9f63 1e3e 5527 38be d538 6a3e
00000210: edba c3bd 9d99 aebd 57bf 4ebf 559d 06be
00000220: bcc9 abbe 30cb 473e b041 c4bd 6c2c 4cbe
00000230: 2d07 4ebf a6b0 97be 1ffd f6bd 069c b5bd
00000240: 5e61 703e 940b 19bf 3d41 cabe e520 263f
00000250: e2ba 79be 75c2 343e 1f4e 7cbe 3dcc b8be
00000260: 5496 99be 2b03 b3be e7e9 2fbe a98c b93e
00000270: 08ad ba3d f775 043d de92 7dbe 1aad 13bf
00000280: 6622 36be 4714 cabe 27b6 123f 562e 733d
00000290: 9229 603b d30c 2dbe ee04 9dbe 9dce ffbd
000002a0: 8a3f 1ebe 24ce bfbe 7e6a 58be d190 3a3e
000002b0: c2d5 4fbe b486 febd ee21 9b3c f482 c6be
000002c0: 93c0 373e 8fca 56be c34b dc3d 59cb a2be
000002d0: 4452 f83d d2b4 03bd b736 72be 7e9d b53e
000002e0: c2cd a6bd 969a 0a3e 9f04 9c3b fb3c a03e
000002f0: 71be 463e 600d 5b3d 761b 63be f2a0 373b
00000300: a0e3 bfbe ec9e 043e 0e1b e33d 2a2a d3bd
00000310: fe50 e23d fc61 95bd 1cc2 08bf 289f 9abe
00000320: a542 d8bc 759c 713e 3ce6 393d b548 ac3c
00000330: c703 1a3e a617 8abe de62 c2bd 7a71 353e
00000340: 02a7 043e 0e5d f9be 478c 1b3e 595a 4abe
00000350: ee90 683d 18e0 713d df2e fabe e416 193e
00000360: ed13 64bd 9e0a e7bc 1094 983d 218d af3b
00000370: 2a40 a9be 53db ac3c 0197 0b3d ed58 7e3e
00000380: a9f8 00bc 9dd5 9bbd 8d5f d0bd 6174 ab3e
00000390: 1822 f33e c4f5 b43d 9292 963e 5ed5 b9bc
000003a0: e5b7 873e d27a 563d 3ac5 4e3e 441b f73d
000003b0: aeec 47b9 6ba6 d4bd 0aec bc3e 2a8a bd3e
000003c0: 9610 31be f093 f6be f6a0 7c3e 9059 0dbe
000003d0: f781 39be 3bc7 7dbc 005a 2e3e 7061 123d
000003e0: e6f1 623e a013 433d bf3c b3be 0b5b b53e
000003f0: a934 d63c f5b5 c63c 4e0f b13e f330 cfbd

b3.bias f4 [64]
0.18501854 0.15400657 -0.12068629 -0.033288453 -0.06309645 -0.39873725 0.065814205 0.18647055
-0.57229954 -0.30418515 -0.39638597 0.21212777 0.08844943 0.30738625 -0.31366915 -0.09867757
-0.18183458 0.012859301 -0.04261593 0.3251179 0.04821309 -0.44796348 0.021490106 0.33659443
0.3098252 -0.47838402 -0.84861207 -0.11108244 0.60800445 -0.1990949 0.12172023 -0.09043952
-0.18814753 -0.09539245 -0.113363 0.17798679 -0.15662523 -0.3755214 0.2137161 0.045473874
0.10453017 0.11964015 0.4321181 0.53133726 -0.117809854 -0.12864518 0.1890724 -0.23125206
-0.4105121 -0.40575728 -0.042550284 -0.06648258 -0.21622735 0.17089066 0.09093841 -0.22398025
0.25735542 0.32405323 -0.11148821 -0.028781107 -0.31120124 0.10706794 0.06658092 -0.8567185
00000000: 8075 3d3e e6b3 1d3e 602a f7bd 7959 08bd
00000010: b638 81bd 4a27 ccbe 99c9 863d 23f2 3e3e
00000020: 3982 12bf 28be 9bbe 1af3 cabe 0638 593e
00000030: fa24 b53d bb61 9d3e 3e99 a0be 7717 cabd
00000040: d832 3abe d1af 523c 0b8e 2ebd da75 a63e
00000050: 177b 453d 785b e5be 050c b03c 1b56 ac3e
00000060: 69a1 9e3e c0ee f4be a43e 59bf 317f e3bd
00000070: 2ea6 1b3f 89df 4bbe 7548 f93d 5b38 b9bd
00000080: bfa9 40be 1e5d c3bd dc2a e8bd 2b42 363e
00000090: 5d62 20be 5744 c0be 65d8 5a3e d042 3a3d
000000a0: ea13 d63d e505 f53d 953e dd3e b805 083f
000000b0: 4b46 f1bd 90bb 03be 329c 413e 57cd 6cbe
000000c0: a42e d2be 6bbf cfbe 3549 2ebd 0528 88bd
000000d0: b46a 5dbe f6fd 2e3e eb3d ba3d 145b 65be
000000e0: 17c4 833e 4eea a53e ee53 e4bd 5bc6 ebbc
000000f0: c555 9fbe 7046 db3d 945b 883d e751 5bbf

c1.weight f4 [64, 64, 2, 2]
-0.031464454 0.08659551 -0.3972266 -0.1573189 0.10200728 0.061807446 0.044379726 0.09208319
-0.101901814 -0.39503962 0.12986198 0.03831309 -0.021668902 0.08385225 -0.010498057 0.06572192
0.09292228 -0.5239148 -0.5477561 0.15095958 0.11062203 -0.24836469 -0.14909665 -0.21755219
0.23655413 -0.36816534 0.29875964 -0.29623798 -0.14822568 0.06103104 0.10976407 0.15723151
0.13450225 0.061220676 0.061235886 0.22520383 0.1493798 -0.6352337 0.3444464 -0.08756998
-0.017096424 -0.21438816 -0.02200913 -0.08191398 -0.09052118 -0.4062573 0.09484009 -0.08117413
0.10850592 -0.61991465 -0.31732437 0.017527504 -0.1377213 -0.070884466 0.11016404 0.1651665
-0.00043287963 0.3211697 -0.09017285 -0.19347715 -0.45435694 -0.0013034003 -0.07689598 0.5016196
0.25236094 -0.11281223 -0.6916464 -0.20372455 -0.36252642 0.008166995 0.016293623 0.093696944
0.07510539 -0.1613465 0.3647639 -0.2697495 -0.37553748 0.175905 -0.48162863 -0.2672849
-0.10921067 0.122794576 -0.10569822 -0.046250273 0.18539058 0.48561922 -0.15893392 -0.13615492
0.3079128 -0.08410128 -0.2479089 -0.28212422 0.076134294 0.34927166 -0.5659226 0.16582483
0.03733194 -0.12547491 0.08460227 -0.47805792 0.1689991 -0.17494105 0.7870348 -0.13278568
-0.19487956 0.11498683 -0.349551 -0.099311896 -0.06366293 -0.019427838 0.056384474 0.051748306
-0.24818714 0.25955632 -0.2077784 0.20360397 0.13159849 -0.01721165 -0.12763767 -0.1374444
-0.28743953 -0.41400546 0.17750457 0.347101 0.035022546 -7.311255e-05 -0.0062525915 -0.017293744
-0.10249208 0.25010526 0.23402722 0.38891798 0.04670229 0.0055355337 -0.05691006 -0.019702017
0.18329193 0.12831739 -0.09500761 -0.34134582 0.2079922 -0.58461326 0.0118529005 -0.031853467
0.20801242 0.0020788212 0.20913912 0.2293239 -0.2504705 0.31997055 0.33886915 0.09694088
0.12302293 0.27256948 0.057533022 0.17703936 -0.05021941 0.38148847 -0.37569073 0.19903122
-0.02556183 0.13886037 0.1985687 0.012192088 -0.30087337 0.053926714 -0.032522187 0.05031284
-0.19392249 -0.18009658 0.28985047 0.09659979 -0.20295845 0.15091121 -0.21006392 0.21386737
0.03479223 -0.038539834 -0.0010630168 0.030602152 -0.015659614 -0.05718243 0.038888164 0.019343667
0.2986559 -0.33344254 -0.1259519 -0.71789855 0.4346994 -0.21422304 0.28172484 -0.19465797
-0.06584206 0.015426126 0.46389037 -0.0168001 -0.484035 -0.36248344 0.20378113 0.17117879
-0.62461686 -0.16013242 -0.19119734 0.1356285 0.34655195 -0.24264704 0.21065123 -0.34404153
0.20168096 -0.22767495 -0.52813196 -0.23172761 -0.07708024 0.0012155625 -0.47518075 -0.13548744
0.21233661 -0.19458303 -0.14725108 0.0978023 0.10741819 -0.25876835 0.1395865 -0.5344275
0.17143644 0.044355992 0.44853863 -0.25372273 -0.31420276 0.35232836 0.08467252 0.34811938
0.0034348744 0.057328667 0.031089807 -0.0073873494 0.0631348 -0.031243159 -0.049938243 -0.06531855
-0.0601853 -0.05176888 0.37760714 -0.12315902 0.46603248 -0.19843566 0.026949188 -0.48253825
-0.14696008 0.15879427 -0.11270259 0.56177086 0.14141257 0.2441667 0.30314356 -0.14779416
00000000: dfe0 00bd fd58 b13d 4961 cbbe 3518 21be
00000010: 31e9 d03d ce29 7d3d 84c7 353d 1d96 bc3d
00000020: e6b1 d0bd a242 cabe 8afa 043e 30ee 1c3d
00000030: fb82 b1bc baba ab3d 0b00 2cbc 3799 863d
00000040: 094e be3d 481f 06bf be39 0cbf 2695 1a3e
00000050: ce8d e23d 5053 7ebe cbac 18be 00c6 5ebe
00000060: 3f3b 723e 2b80 bcbe 06f7 983e 81ac 97be
00000070: 79c8 17be affb 793d fccb e03d 4c01 213e
00000080: f5ba 093e 88c2 7a3d 7bd2 7a3d d59b 663e
00000090: 05f7 183e ad9e 22bf 475b b03e e457 b3bd
000000a0: cd0d 8cbc 9288 5bbe 7e4c b4bc 84c2 a7bd
000000b0: 2b63 b9bd f500 d0be 853b c23d 9f3e a6bd
000000c0: 5a38 de3d bab2 1ebf 5778 a2be d795 8f3c
000000d0: d006 0dbe e02b 91bd af9d e13d 6821 293e
000000e0: 1ff4 e2b9 5b70 a43e 8bac b8bd e01e 46be
000000f0: 79a1 e8be dbd6 aaba a47b 9dbd 246a 003f
00000100: 7435 813e 190a e7bd bd0f 31bf 2b9d 50be
00000110: 109d b9be dcce 053c 347a 853c 2fe4 bf3d
00000120: dbd0 993d 0438 25be 55c2 ba3e 9b1c 8abe
00000130: 7346 c0be 7120 343e 0798 f6be 91d9 88be
00000140: d8a9 dfbd b97b fb3d 4f78 d8bd ed70 3dbd
00000150: 07d7 3d3e 15a3 f83e 93bf 22be 326c 0bbe
00000160: bfa6 9d3e 4b3d acbd d5db 7dbe 9672 90be
00000170: 4cec 9b3d bcd3 b23e 4ee0 10bf fccd 293e
00000180: 60e9 183d 7f7c 00be f443 ad3d 02c4 f4be
00000190: 1a0e 2d3e bf23 33be 1d7b 493f f8f8 07be
000001a0: 828e 47be 377e eb3d 59f8 b2be 0964 cbbd
000001b0: b661 82bd 2127 9fbc 68f3 663d 08f6 533d
000001c0: c524 7ebe 91e4 843e dcc3 54be 8f7d 503e
000001d0: c1c1 063e 72ff 8cbc 73b3 02be 3abe 0cbe
000001e0: 462b 93be 86f8 d3be c2c3 353e 39b7 b13e
000001f0: cd73 0f3d 0054 99b8 8ae2 ccbb 9cab 8dbc
00000200: 5ee7 d1bd cc0d 803e d5a4 6f3e 4220 c73e
00000210: e74a 3f3d 6c63 b53b 861a 69bd 2066 a1bc
00000220: e1b0 3b3e a265 033e 5a93 c2bd e1c4 aebe
00000230: e8fb 543e 37a9 15bf ab32 423c c878 02bd
00000240: 3501 553e d53c 083b 9128 563e e2d3 6a3e
00000250: ab3d 80be 2ed3 a33e 4280 ad3e f188 c63d
00000260: 72f3 fb3d 3a8e 8b3e bfa7 6b3d ce49 353e
00000270: deb2 4dbd 7552 c33e 895a c0be d7ce 4b3e
00000280: 0b67 d1bc 6a31 0e3e 9855 4b3e 53c1 473c
00000290: 130c 9abe 42e2 5c3d fc35 05bd d614 4e3d
000002a0: 9e93 46be 3d6b 38be 4867 943e 1cd6 c53d
000002b0: 57d4 4fbe 7888 1a3e ff1a 57be 0c00 5b3e
000002c0: 4c82 0e3d f2db 1dbd ed54 8bba 5db1 fa3c
000002d0: 9748 80bc 2038 6abd 3249 1f3d 9c76 9e3c
000002e0: 6de9 983e fbb8 aabe 89f9 00be 33c8 37bf
000002f0: eb90 de3e 495d 5bbe 3d3e 903e 6b54 47be
00000300: 34d8 86bd ddbd 7c3c 0a83 ed3e 5da0 89bc
00000310: 6fd3 f7be 6e97 b9be 00ac 503e 7e49 2f3e
00000320: e4e6 1fbf c1f9 23be 3cc9 43be 33e2 0a3e
00000330: 426f b13e 7778 78be f5b4 573e 3626 b0be
00000340: 7485 4e3e 9f23 69be a833 07bf 014a 6dbe
00000350: 3fdc 9dbd 8253 9f3a e44a f3be 38bd 0abe
00000360: c56e 593e c640 47be fdc8 16be 924c c83d
00000370: 11fe db3d 497d 84be c3ef 0e3e 3ed0 08bf
00000380: 098d 2f3e a1ae 353d dba6 e53e f2e7 81be
00000390: 2fdf a0be 6264 b43e c968 ad3d b43c b23e
000003a0: a11b 613b 77d1 6a3d 0db0 fe3c 9411 f2bb
000003b0: d14c 813d a7f1 ffbc 0b8c 4cbd bbc5 85bd
000003c0: dc84 76bd 9b0b 54bd b955 c13e cc3a fcbd
000003d0: cf9b ee3e b832 4bbe 8bc4 dc3c 410f f7be
000003e0: b47c 16be f79a 223e 9ed0 e6bd 37d0 0f3f
000003f0: 75ce 103e d606 7a3e a235 9b3e 5a57 17be

c1.bias f4 [64]
0.7349084 -0.81588405 -0.047427088 -0.3682919 -0.7933791 -0.9896766 -0.41363686 -0.6640586
0.63374686 0.015117315 0.85320795 -1.0057052 -0.8432068 0.49592295 -0.5656671 -0.9743303
-0.47742897 -0.357713 -0.3956813 -0.50553685 -0.59282136 -0.6549315 -0.51540107 -0.16342571
0.054074317 -0.35050705 -0.83245724 0.81491065 -0.90485674 -0.67546964 0.3410049 0.17774183
-0.710795 -0.22180064 0.5253063 -0.3998055 -0.26408446 -0.67760646 -0.8493007 -0.47368366
0.37230444 -0.6083407 0.23671713 -1.1180164 0.5264554 0.8573628 -0.2890262 -0.8897196
-0.5137191 -0.58447355 -0.117430255 0.055758636 -0.70711935 -0.7771988 1.0819371 -0.6213174
-0.12028399 -0.79972464 -0.2543602 -0.41530636 -0.1256604 0.092334315 0.47491527 -0.734864
00000000: f522 3c3f c7dd 50bf e842 42bd c290 bcbe
00000010: e51a 4bbf 725b 7dbf 36c8 d3be bfff 29bf
00000020: 3c3d 223f 9dae 773c d66b 5a3f f3ba 80bf
00000030: 67dc 57bf 9de9 fd3e 8fcf 10bf b66d 79bf
00000040: 9271 f4be 2926 b7be bd96 cabe dd6a 01bf
00000050: 24c3 17bf 97a9 27bf 53f1 03bf 1259 27be
00000060: 087d 5d3d a975 b3be eb1b 55bf fc9d 503f
00000070: b1a4 67bf 94eb 2cbf 3298 ae3e f401 363e
00000080: a9f6 35bf b51f 63be 797a 063f 4eb3 ccbe
00000090: 1436 87be 9e77 2dbf c56b 59bf aa86 f2be
000000a0: b09e be3e 37bc 1bbf fa65 723e 291b 8fbf
000000b0: c8c5 063f 217c 5b3f 3efb 93be aac4 63bf
000000c0: 1883 03bf 0fa0 15bf 467f f0bd 2b63 643d
000000d0: c605 35bf 80f6 46bf ea7c 8a3f a80e 1fbf
000000e0: 7457 f6bd c1ba 4cbf 803b 82be 09a3 d4be
000000f0: 1fad 00be c619 bd3d 1828 f33e 0c20 3cbf
