nets/model_epoch_73.pth (torch, 648794 bytes, 25 tensors)

a1.weight f4 [16, 5, 3, 3]
0	0x3ddac23a	0.10681577
1	0x3e2b707a	0.16742125
2	0xbc8544d5	-0.016268173
3	0xbe618a9c	-0.22025532
4	0xbd86dcdb	-0.065850936
5	0x3ec067f8	0.37579322
6	0xbe61cd9f	-0.22051094
7	0xbcb777c4	-0.022395976
8	0xbee7a770	-0.45244932
9	0xbd58d4a1	-0.052937154
10	0xbdfe5bf3	-0.12419882
11	0xbe0fa8d4	-0.14029247
12	0x3d0c3bc5	0.03423669
13	0xbe1c8e04	-0.1528855
14	0xbe8ff89a	-0.28119355
15	0xbeb8f8d2	-0.36127335
16	0xbe1f1f85	-0.15539367
17	0xbd8f3590	-0.06992638
18	0x3d8639e3	0.0655401
19	0xbe266f28	-0.1625334
20	0x3d740e89	0.059584174
21	0x3dbd7f39	0.092527814
22	0xbe8c1624	-0.27360642
23	0x3c82c669	0.01596375
24	0xbd842dab	-0.06454023
25	0xbe3c5b1e	-0.18394133
26	0xbd8cd95c	-0.068773955
27	0xbe660d82	-0.2246609
28	0xbcea39fb	-0.0285921
29	0x3d9b2f89	0.07577426
30	0xbe4ad4ce	-0.19807741
31	0xbddca301	-0.10773278
32	0xbf0cd45b	-0.5501153
33	0xbe317f3b	-0.17333691
34	0xbe867610	-0.2626195
35	0x3e4721fe	0.1944656
36	0xbe2c385e	-0.16818377
37	0xbdd4b865	-0.10386733
38	0xbe3489ee	-0.17630741
39	0xbd79d658	-0.06099543
40	0xbe77f2ef	-0.24213766
41	0xbe4177ab	-0.18893306
42	0xbd2e1e90	-0.042509615
43	0xbe19f185	-0.15033539
44	0xbd9fae9f	-0.07796978
45	0x3e5a7c82	0.21336558
46	0xbdf9c2b6	-0.12195341
47	0xbd7ae83f	-0.061256643
48	0x3ebbda13	0.36689815
49	0x3cbeb025	0.023277352
50	0x3ecb8019	0.39746168
51	0x3c3f5fde	0.011680571
52	0x3f148e84	0.5802996
53	0xbe85f0b8	-0.26160216
54	0x3db25666	0.087078854
55	0x3eadbfc0	0.33935356
56	0x3dd128b2	0.1021284
57	0xbbdad19e	-0.0066778203
58	0x3e6bd019	0.23028602
59	0xbd56de4b	-0.05245809
60	0x3ded5bb5	0.11589757
61	0xbf2031b3	-0.62575835
62	0x3dbf0766	0.09327583
63	0x3e3451d2	0.17609337
64	0xbcf4664e	-0.029833939
65	0xbda1ab96	-0.078940555
66	0x3ece9066	0.40344542
67	0x3d459e9e	0.048246972
68	0xbeec6bb5	-0.46175924
69	0xbe2e59f8	-0.17026508
70	0xbe5431e8	-0.20722163
71	0x3dffacd3	0.124841355
72	0xbcd43e0e	-0.025908496
73	0xbec7d944	-0.39032948
74	0xbef265e3	-0.47343358
75	0xbbceefd9	-0.006315213
76	0x3eb5f1fc	0.35536182
77	0x3e095614	0.13411742
78	0x3e295cf8	0.16539371
79	0x3e3dbddf	0.18529461
80	0xbf11c366	-0.5693878
81	0xbc161af7	-0.009161702
82	0x3ce06ce1	0.027395668
83	0xbc150b58	-0.009096943
84	0x3db1cdcf	0.08681833
85	0x3d047ea0	0.03234732
86	0xbcfd17f2	-0.030895207
87	0xbd8540bd	-0.065064885
88	0xbd8face3	-0.070153974
89	0x3d24d3a0	0.040240884
90	0xbea5f771	-0.32415345
91	0x3dbf2ce0	0.09334731
92	0x3eccecae	0.40024322
93	0x3c8a96aa	0.016917545
94	0x3e829491	0.25503972
95	0x3c65d64d	0.014028144
96	0x3f25fbe1	0.6483746
97	0x3f071802	0.5277101
98	0x3de4d7a6	0.11173944
99	0x3e5179c4	0.20456606
100	0x3e7a7d49	0.24461855
101	0x3e4a6c51	0.19767882
102	0xbcb5e1e0	-0.022202432
103	0xbd177736	-0.036978923
104	0x3cc6e976	0.024281245
105	0xbdc90680	-0.09815693
106	0xbe1350d6	-0.14386305
107	0x3d9da002	0.07696535
108	0x3e8eae8f	0.27867553
109	0x3eff9ae0	0.49922848
110	0x3e8d5c5f	0.27609536
111	0x3db540b7	0.08850234
112	0xbe708752	-0.2348912
113	0x3eb1ba7b	0.34712586
114	0xbeb429f7	-0.35188267
115	0xbdb5810b	-0.088625036
116	0x3e4b2f99	0.19842376
117	0xbc84c0f0	-0.016205281
118	0xbea1d9eb	-0.3161157
119	0xbe8f5212	-0.27992302
120	0x3d36e49d	0.044651616
121	0xbe4c4fd0	-0.19952321
122	0xbc54a4d8	-0.012978755
123	0x3d8e72b6	0.06955473
124	0x3d1a476f	0.03766578
125	0xbeb7b039	-0.35876635
126	0xbcdc559b	-0.026896289
127	0x3c8a1564	0.016855903
128	0x3b681d68	0.0035417918
129	0xbc9f9aa1	-0.019482912
130	0x3df92fda	0.1216733
131	0xbdc2b3ec	-0.095069736
132	0xbc69e1cc	-0.014275026
133	0xbd8c6a70	-0.06856239
134	0x3d6bb567	0.057546046
135	0x3e1ab21a	0.15107003
136	0x3e11c6f2	0.14236048
137	0xbe8d3633	-0.27580413
138	0x3e364c56	0.17802557
139	0x3e38b026	0.18035945
140	0xbebbeb53	-0.36702976
141	0x3db7a8cc	0.08967742
142	0xbec7a272	-0.38991123
143	0x3e9e6503	0.3093644
144	0xbe52dc18	-0.20591772
145	0xbf02f72f	-0.5115842
146	0xbe8fbce7	-0.2807381
147	0xbece29cd	-0.40266266
148	0xbda12b16	-0.07869546
149	0xbf3208fd	-0.69544965
150	0x3d96cca5	0.073632516
151	0x3d91fb32	0.0712799
152	0xbd33c2c2	-0.043886907
153	0xbd7f1cb0	-0.062283218
154	0x3dbcdcce	0.09221803
155	0x3d08a743	0.03336264
156	0xbe48e025	-0.19616754
157	0xbd9b5051	-0.075836785
158	0xbebecfd0	-0.37267923
159	0xbe366d92	-0.17815235
160	0xbe535ecd	-0.20641632
161	0x3ebf0e2d	0.37315503
162	0x3e723f81	0.23657037
163	0x3ea644e7	0.32474443
164	0x3e8f16b3	0.27947006
165	0x3ec98ceb	0.39365324
166	0xbe040b0b	-0.12894838
167	0x3f2533ee	0.64532363
168	0x3e50abc7	0.20378028
169	0xbd8ffe22	-0.07030894
170	0xbe880913	-0.26569423
171	0xbd105bba	-0.035243727
172	0x3ca3e63d	0.020007247
173	0x3d6216e1	0.0551976
174	0xbbd2a12e	-0.0064279055
175	0xbccf8586	-0.025332224
176	0x3bf15c08	0.0073657073
177	0x3d69ac17	0.057048883
178	0xbd651b63	-0.05593432
179	0xbca9e696	-0.020739835
180	0x3e52e982	0.20596889
181	0x3d8ef851	0.06980956
182	0xbe8c4557	-0.27396652
183	0x3d01eba3	0.03171886
184	0x3e3bdabe	0.18345162
185	0x3ea74cba	0.32675725
186	0x3d854bfe	0.06508635
187	0x3e5ba755	0.21450551
188	0x3e8dd13f	0.27698705
189	0x3e492f53	0.19646959
190	0xbe307a21	-0.17234088
191	0x3d8c0e85	0.06838707
192	0xbe6f03f5	-0.23341353
193	0xbd4f05a3	-0.050542485
194	0xbe43faf9	-0.19138707
195	0x3e2c5214	0.16828185
196	0x3d78d7c0	0.06075263
197	0xbe305fb0	-0.17224002
198	0x3dd7f87d	0.10545442
199	0x3e392674	0.18081075
200	0x3f037f9d	0.513666
201	0xbd5bdf05	-0.053679485
202	0xbcbc8fac	-0.023017727
203	0xbe28e87e	-0.16494939
204	0xbea9c393	-0.33157024
205	0x3eb7cfa3	0.35900602
206	0xbc7077ca	-0.014676997
207	0xbe4358ee	-0.19076893
208	0xbeead409	-0.45864895
209	0xbee3f113	-0.44519863
210	0x3e02916a	0.12750784
211	0x3d92d2af	0.07169091
212	0xbe333265	-0.17499693
213	0xbe75580d	-0.2395937
214	0xbd751e47	-0.059843328
215	0x3d4691fa	0.048479058
216	0xbbecbf51	-0.007224955
217	0x3c722d55	0.014781316
218	0xbc8fd1e8	-0.017556146
219	0x3d37997a	0.0448241
220	0xbdf0d3da	-0.117591575
221	0x3cd36242	0.025803689
222	0x3ce884b6	0.028383594
223	0x3db3af7d	0.08773706
224	0xbd23f334	-0.04002686
225	0xbd9a0a10	-0.075214505
226	0xbdbd3aec	-0.09239754
227	0x3e5c1670	0.21492934
228	0x3c78eed6	0.015193662
229	0xbe06099d	-0.13089605
230	0xbd2bf0ea	-0.0419778
231	0x3e5c4463	0.21510462
232	0xbe145fc1	-0.14489652
233	0x3ed5ac4c	0.41733015
234	0xbd920b61	-0.071310766
235	0x3ef383f0	0.47561598
236	0x3ea0fdd2	0.3144365
237	0x3cdc43a9	0.026887732
238	0x3c8b7f00	0.017028332
239	0xbec06143	-0.37574205
240	0x3d78d96d	0.06075423
241	0x3e879776	0.26482743
242	0xbf264be9	-0.6495958
243	0x3d160f41	0.03663564
244	0x3de12c2e	0.10994755
245	0x3dd7a4f3	0.105295084
246	0xbe69160d	-0.22762318
247	0x3ea6a594	0.325482
248	0xbed934bc	-0.42423046
249	0xbe44846d	-0.19191141
250	0xbe0e4a75	-0.1389559
251	0xbee7423e	-0.45167726
252	0x3e9cea9a	0.30647737
253	0xbc94fb44	-0.018186219
254	0x3dcfba4b	0.101429544
255	0x3c9006c1	0.017581346

a1.bias f4 [16]
0	0x3d045767	0.032309916
1	0xbdfd1054	-0.1235663
2	0xbd827b53	-0.063711785
3	0xbe2d7a01	-0.16941072
4	0x3e27d622	0.16390279
5	0xbe0e18c0	-0.13876629
6	0x3d2d48f0	0.042305887
7	0xbde45ce9	-0.11150534
8	0xbe30ecec	-0.17277879
9	0x3dbcb5fe	0.092144
10	0xbd7527bd	-0.05985235
11	0x3dfb0d90	0.12258446
12	0xbde22e50	-0.1104399
13	0xbd9e2fdd	-0.07723973
14	0x3e98f15d	0.29871646
15	0x3e8615e3	0.26188573

a2.weight f4 [16, 16, 3, 3]
0	0x3c1bb65b	0.009503926
1	0xbe20391d	-0.15646787
2	0xbe467e84	-0.193842
3	0x3ed99fd8	0.42504764
4	0x3ea6d2a8	0.32582593
5	0xbdf6a394	-0.12042919
6	0x3d80e802	0.06294252
7	0xbe39390b	-0.18088166
8	0x3e0d4425	0.13795526
9	0x3d6217d5	0.05519851
10	0x3e48d4cf	0.1961243
11	0xba61af65	-0.00086092047
12	0xbe3590c1	-0.17731
13	0x3e613ada	0.21995106
14	0xbe70fe8e	-0.23534605
15	0xbd13fc15	-0.036129076
16	0x3e191a46	0.14951429
17	0xbddcb359	-0.10776395
18	0xbdd95edf	-0.10613798
19	0xbe89dd0c	-0.26926458
20	0xbecde71a	-0.4021538
21	0xbeefad4e	-0.46811908
22	0xbde4e3cf	-0.111762635
23	0x3c4402f2	0.011963593
24	0xbdf838ab	-0.121201836
25	0xbedd55c4	-0.43229496
26	0x3dbc6cb6	0.092004225
27	0xbf5a7033	-0.8532745
28	0x3ea64bed	0.32479802
29	0xbec493b9	-0.38393953
30	0x3f314d5a	0.69258654
31	0xbe97fc09	-0.29684475
32	0x3e8220ac	0.25415552
33	0x3dec0075	0.11523525
34	0x3d72d578	0.05928561
35	0x3d99d87d	0.07511995
36	0xbb81f5d5	-0.003966073
37	0xbee0b49e	-0.438878
38	0xbd7e2ed8	-0.062056392
39	0x3d5dd3a7	0.054156926
40	0xbbad5538	-0.0052897
41	0xbe352b26	-0.17692241
42	0xbf12caf7	-0.5734095
43	0xbe665c1d	-0.22496076
44	0xbe6eca10	-0.23319268
45	0x3dd04610	0.10169613
46	0xbe89f130	-0.26941824
47	0xbe2e75f0	-0.17037177
48	0x3e8f3a83	0.27974328
49	0x3d705c5f	0.058681842
50	0x3e2ec908	0.17068875
51	0xbee74ede	-0.45177358
52	0x3e3eb314	0.18623
53	0x3e37cd6d	0.17949457
54	0xbe809969	-0.25117043
55	0x3d6188b7	0.055062022
56	0xbc6c1c87	-0.014411098
57	0x3eca87bf	0.3955669
58	0x3eb75b1e	0.35811704
59	0x3d8eb247	0.069675975
60	0x3dbf0e65	0.093289174
61	0xbc63f51d	-0.01391342
62	0xbc409918	-0.01175525
63	0x3ec88947	0.39167234
64	0xbe77d377	-0.24201761
65	0xbdbb5b25	-0.09148244
66	0xbed05f30	-0.40697622
67	0xbcc4e9ba	-0.02403723
68	0xbe1bbed8	-0.1520952
69	0xbdf5ffae	-0.12011658
70	0xbe015818	-0.12631261
71	0x3e990985	0.29890075
72	0x3e82643b	0.25467095
73	0x3e079a9d	0.13242574
74	0x3cf0a613	0.029376065
75	0xbd357b62	-0.04430712
76	0xbc7be744	-0.015374962
77	0x3e8eaae9	0.2786477
78	0xbe827c40	-0.2548542
79	0x3f02f81e	0.51159847
80	0x3e16b862	0.14718774
81	0x3d87f62d	0.06638751
82	0x3e7d581e	0.24740645
83	0xbd16de7c	-0.03683327
84	0xbe6510df	-0.22369717
85	0x3e6894a9	0.2271296
86	0x3f10eaee	0.56608474
87	0x3e408d4c	0.188039
88	0x3d88fa87	0.06688409
89	0x3e59cdb4	0.21269876
90	0xbe426521	-0.1898389
91	0xbd945908	-0.07243544
92	0xbe3095f6	-0.17244706
93	0x3dc82367	0.097723775
94	0x3e8d0abd	0.27547255
95	0xbed9ff85	-0.42577758
96	0x3dda00f0	0.1064471
97	0x3cdb5dc0	0.026778102
98	0x3e62aad4	0.22135478
99	0xbed456ee	-0.41472572
100	0xbd952429	-0.072822876
101	0xbc89d42f	-0.01682481
102	0xbe446f76	-0.19183144
103	0xbe45c05a	-0.19311658
104	0x3cbc4d9b	0.022986224
105	0x3f240baf	0.6408033
106	0x3d5015c7	0.05080202
107	0xbe60825b	-0.21924727
108	0xbd16f830	-0.036857784
109	0xbe18e120	-0.14929628
110	0x3d1aee67	0.037825014
111	0xbc4dbeae	-0.012557669
112	0x3f1d44dc	0.61433196
113	0xbec9aa46	-0.3938772
114	0x3f1332cd	0.5749939
115	0x3e8ec1db	0.27882275
116	0xbe807115	-0.25086275
117	0x3e84501a	0.25842363
118	0xbee314e6	-0.44351882
119	0xbf0dc8ca	-0.55384505
120	0x3d06e61c	0.032934293
121	0x3ef74b80	0.4829979
122	0x3e340513	0.1758006
123	0x3e8e4838	0.27789474
124	0xbe671b18	-0.22568929
125	0x3c09484a	0.008379051
126	0xbdbb0d59	-0.09133405
127	0xbf34e834	-0.70666814
128	0xbe01ea6c	-0.12687081
129	0xbd9f11de	-0.0776708
130	0xbd67988c	-0.056541964
131	0xbea7c96c	-0.3277086
132	0xbda930ab	-0.08261236
133	0xbe5c144c	-0.21492118
134	0x3e2ec3de	0.17066905
135	0xbeeb0838	-0.45904708
136	0x3bb1abf8	0.0054221116
137	0xbe3b5128	-0.18292677
138	0xbdf2163d	-0.11820648
139	0xbe6b8ea6	-0.23003635
140	0x3f29584e	0.6615037
141	0xbe9248a1	-0.28571036
142	0x3c0dcd5d	0.008654919
143	0x3c94538b	0.018106243
144	0xbde57934	-0.11204758
145	0xbce24f8e	-0.027625825
146	0xbdaeb70d	-0.08531008
147	0xbe25ba4f	-0.16184352
148	0xbe6dde08	-0.2322923
149	0xbe82d4d9	-0.25553015
150	0xbe4b740a	-0.19868484
151	0xbe0d3a0a	-0.13791671
152	0xbe378944	-0.17923456
153	0xbdeeeea0	-0.11666608
154	0xbdda3a6d	-0.10655675
155	0x3e78b125	0.24286325
156	0xbdd80002	-0.105468765
157	0xbe19025d	-0.14942308
158	0xbb4559ad	-0.0030113265
159	0x3ddcd6f9	0.1078319
160	0x3da3bf4b	0.079954706
161	0x3de1585e	0.11003183
162	0x3e0fae47	0.14031325
163	0xbc2123d1	-0.009835199
164	0x3e4ff30f	0.20307563
165	0xbc36001e	-0.011108426
166	0x3e6d0e15	0.23149903
167	0x3e4342b8	0.1906842
168	0x3d456e81	0.048201088
169	0x3d8ff29e	0.070286974
170	0x3dc0a8d0	0.094071984
171	0xbe747759	-0.23873653
172	0x3e519802	0.20468143
173	0x3eb4d4a3	0.3531848
174	0x3c7e2772	0.015512334
175	0x3cbad031	0.022804352
176	0xbdeba448	-0.115059435
177	0x3dce84eb	0.10083946
178	0xbe2eb0e0	-0.1705966
179	0x3eadbdea	0.33933955
180	0x3eb088ed	0.34479466
181	0xbe35fd59	-0.17772426
182	0x3e42000c	0.1894533
183	0x3e1282af	0.14307664
184	0x3e0e5adb	0.13901846
185	0xbda054b9	-0.078286596
186	0x3e73f71f	0.23824738
187	0xbde9644e	-0.11396085
188	0xbd41ce0b	-0.04731564
189	0xbe1a74d8	-0.15083635
190	0x3e20660b	0.15663926
191	0x3e668bf1	0.22514321
192	0x3d282814	0.041053846
193	0x3ab7a797	0.0014011738
194	0xbd99acc3	-0.07503655
195	0x3dc502c8	0.09619671
196	0x3de0cfdc	0.10977146
197	0xbe488539	-0.1958207
198	0xbc3224b6	-0.01087301
199	0xbde33fe2	-0.11096169
200	0xbe0a5cd7	-0.13511978
201	0xbe04c487	-0.12965594
202	0xbc8f6c16	-0.017507594
203	0x3c367931	0.011137293
204	0xbdec8651	-0.11549056
205	0xbe3fe797	-0.18740688
206	0xbd2c58c0	-0.042076826
207	0x3dddcbd5	0.108298935
208	0x3e814b0a	0.25252563
209	0x3db33b71	0.08751572
210	0xbe5216c6	-0.205165
211	0x3e1a8c33	0.15092544
212	0xbab4af72	-0.0013785197
213	0x3e0baff4	0.1364134
214	0xbdbde86b	-0.09272846
215	0x3ef5e1d5	0.4802386
216	0xbdd0597f	-0.1017332
217	0xbdfa4584	-0.1222029
218	0x3d857a1e	0.06517433
219	0xbedb128b	-0.42787585
220	0x3e0fa1dd	0.1402659
221	0xbdd20c3e	-0.10256241
222	0xbe89b49a	-0.268956
223	0x3eba5100	0.36389923
224	0xbda25062	-0.07925488
225	0xbdbdee4c	-0.09273967
226	0xbdaf454f	-0.085581414
227	0x3dfc5af7	0.12322038
228	0x3dbaa74f	0.09113943
229	0x3dc6136e	0.09671675
230	0x3db2c7bc	0.087295026
231	0xbb5f2f8c	-0.003405544
232	0xbde0f0a0	-0.109833956
233	0xbe2c69dc	-0.16837257
234	0x3e4e400b	0.20141618
235	0x3e2551ef	0.16144536
236	0xbdb573c5	-0.08859972
237	0x3d9a1e54	0.07525316
238	0xbe739b0a	-0.23789611
239	0x3e8c825b	0.27443203
240	0xbd972f91	-0.073821194
241	0x3e6ff357	0.2343267
242	0xbe849795	-0.25896898
243	0x3d397956	0.04528173
244	0x3eef79da	0.46772653
245	0x3dee420a	0.1163369
246	0x3badc2d3	0.005302766
247	0x3de0b4bd	0.10971973
248	0x3eaaaa77	0.3333318
249	0xbe86fe61	-0.2636595
250	0xbe8269b6	-0.25471276
251	0xbe753c2b	-0.23948734
252	0xbdc378ad	-0.095445015
253	0x3ebf0691	0.37309697
254	0xbb75abab	-0.0037486355
255	0xbe0c6c9b	-0.13713305

a2.bias f4 [16]
0	0xbde8c52b	-0.11365732
1	0xbe869609	-0.26286343
2	0xbe0570bb	-0.13031285
3	0xbcba2484	-0.02272249
4	0x3d03d11f	0.032181855
5	0xbe41e000	-0.18933105
6	0xbb860b56	-0.004090707
7	0xbcb2f852	-0.021846924
8	0x3e2aba5f	0.16672657
9	0xbe2ddfe7	-0.16979943
10	0xbe87dfea	-0.2653802
11	0xbd5a8bf3	-0.053356122
12	0xbe7fa325	-0.24964578
13	0x3d828bd3	0.063743256
14	0x3e52a1de	0.2056956
15	0x3e2dae4c	0.1696102

a3.weight f4 [32, 16, 3, 3]
0	0xbe6039ca	-0.21897045
1	0x3ee4e499	0.44705656
2	0xbf0a3f8b	-0.5400321
3	0xbd97d42c	-0.074135154
4	0xbe1deba9	-0.15421928
5	0xbdc83137	-0.09775012
6	0xbf3bea8e	-0.7340478
7	0xbdc2c1ed	-0.09509645
8	0x3e528d05	0.20561607
9	0xbdac54bd	-0.084146
10	0xbdcd84c4	-0.10035089
11	0xbe729d6d	-0.23692866
12	0xbc4bc2d8	-0.012436591
13	0x3e70ebb8	0.2352742
14	0x3e324897	0.17410503
15	0xbed329ad	-0.41242734
16	0xbe67d4fd	-0.22639842
17	0xbefecf10	-0.4976735
18	0x3e43e18a	0.19129005
19	0xbc7ae431	-0.015313194
20	0x3e583d40	0.21117115
21	0x3dcfec9b	0.10152551
22	0x3e7e805f	0.24853657
23	0xbe213447	-0.15742598
24	0xbd433867	-0.04766121
25	0x3de5019a	0.11181946
26	0xbdd316e8	-0.103071034
27	0xbec22c21	-0.37924293
28	0x3e68ff1e	0.2275357
29	0x3e647ba6	0.22312793
30	0x3e0e966a	0.13924566
31	0xbdf20f8c	-0.118193716
32	0x3e2dfda4	0.16991287
33	0xbdf10bd7	-0.117698364
34	0xbe0a7d9f	-0.13524483
35	0x3d656829	0.056007538
36	0x3e082f99	0.13299407
37	0x3d75a307	0.059969928
38	0xbe8b9644	-0.2726308
39	0xbde63089	-0.11239726
40	0x3ee2aa4a	0.44270545
41	0xbdebfbf9	-0.11522669
42	0x3e4d8d5a	0.20073453
43	0x3db5010c	0.0883809
44	0xbd8e5968	-0.06950647
45	0x3e49681e	0.19668624
46	0xbd318252	-0.043337174
47	0xbdab4d1b	-0.08364316
48	0x3ea5c403	0.32376108
49	0xbd9c0623	-0.07618358
50	0x3ed1eea7	0.4100239
51	0xbefc0b0b	-0.49227175
52	0xbe7618ff	-0.24032973
53	0x3e1099f6	0.14121231
54	0x3cf96008	0.0304413
55	0x3d8b3144	0.06796506
56	0xbe7c5a5c	-0.24643844
57	0x3d87b1ce	0.066257104
58	0x3e020ee3	0.12700991
59	0xbe2d9a8f	-0.1695349
60	0x3e0f43b0	0.13990664
61	0x3ed47262	0.41493517
62	0x3dbafc97	0.09130209
63	0x3e54741b	0.20747416
64	0x3daa8246	0.08325629
65	0x3d9cf0ef	0.07663142
66	0x3e47171e	0.19442412
67	0x3e9b7bfb	0.30368027
68	0xbea4a55d	-0.32157412
69	0x3ee7b75e	0.45257086
70	0xbe17b61a	-0.1481556
71	0xbe988295	-0.29787126
72	0xbbf45a28	-0.0074570365
73	0x3e814ec2	0.252554
74	0xbe56187f	-0.20907782
75	0x3e0e205f	0.13879536
76	0x3eb1f1e8	0.34754872
77	0x3da9fe81	0.08300496
78	0x3dd1717a	0.10226722
79	0xbebc5eb2	-0.36790997
80	0xbdf4c83d	-0.11952255
81	0x3d8e7803	0.06956484
82	0x3e7817c3	0.24227814
83	0xbdead6fd	-0.11466787
84	0x3eb681bc	0.35645854
85	0xbd4162a4	-0.04721321
86	0xbc2098b3	-0.009802031
87	0xbe3574b7	-0.17720304
88	0xbe48953c	-0.19588178
89	0x3e042d97	0.12908016
90	0xbe117a5c	-0.14206833
91	0x3d66af1b	0.056319337
92	0xbdefc5b4	-0.11707631
93	0x3e3d6eff	0.18499373
94	0xbebfd935	-0.37470403
95	0x3ef9d717	0.48796913
96	0x3de75237	0.11294978
97	0xbe01d87b	-0.12680237
98	0xbe916a7f	-0.28401563
99	0x3d3b5acc	0.045740888
100	0xbe8da844	-0.2766744
101	0xbdeebb76	-0.11656849
102	0xbe72ef92	-0.23724201
103	0x3ecedd02	0.4040299
104	0xbd96d2e8	-0.07364446
105	0xbe6f9a74	-0.23398763
106	0x3eaa5495	0.33267656
107	0xbe50bd1f	-0.20384644
108	0xbde6c57d	-0.11268137
109	0xbf04887f	-0.51770777
110	0xbebd2026	-0.3693859
111	0x3ea86f7d	0.3289756
112	0xbc1949f6	-0.009356013
113	0x3ed27d4c	0.4111122
114	0xbf361a89	-0.7113424
115	0x3dd0a4d7	0.10187691
116	0xbd02d786	-0.03194382
117	0x3f1ea40c	0.61969066
118	0xbcb16a59	-0.021657156
119	0xbc34e0d9	-0.011039936
120	0x3ee30a76	0.4434392
121	0x3cddfb27	0.027097298
122	0xbe73739c	-0.2377457
123	0x3e799b63	0.24375682
124	0xbdc2d343	-0.09512951
125	0x3eb4bc10	0.3529973
126	0x3ee204ab	0.44144186
127	0xbe8bb358	-0.27285266
128	0xbee7d573	-0.45280036
129	0x3d29eeef	0.04148763
130	0x3eb4ff12	0.35350853
131	0xbe3e420c	-0.18579882
132	0x3e19ebbd	0.15031333
133	0xbdf2952a	-0.11844857
134	0xbebd3026	-0.36950797
135	0xbd810924	-0.063005716
136	0x3dcc84c6	0.09986262
137	0x3e29a47c	0.16566652
138	0x3db8ad17	0.09017389
139	0x3edf1dcc	0.4357742
140	0xbf57d6f7	-0.84312385
141	0x3e5298e2	0.20566133
142	0xbea91385	-0.33022705
143	0xbebdde39	-0.37083605
144	0x3e2861b0	0.16443515
145	0xbd2a1551	-0.041524235
146	0x3f12bf90	0.5732355
147	0x3e04eac4	0.12980181
148	0x3c83f962	0.016110126
149	0x3e4afa34	0.19822007
150	0xbe25f97a	-0.16208449
151	0xbd42e8d2	-0.047585316
152	0x3dd640f7	0.1046161
153	0xbdaf9043	-0.085724376
154	0xbda038fb	-0.07823368
155	0x3e6bbb95	0.23020776
156	0xbe564b39	-0.20927133
157	0xbe4678d3	-0.19382028
158	0x3e798a91	0.24369265
159	0x3e93e118	0.2888267
160	0x3e444221	0.19165851
161	0xbe602369	-0.21888508
162	0xbf03c516	-0.51472604
163	0xbc84cf6f	-0.016212193
164	0x3c5e89fe	0.013582705
165	0x3e7bdee2	0.24596742
166	0xbe103254	-0.14081699
167	0xbea7535d	-0.3268079
168	0xbe8abf4d	-0.27099076
169	0x3d1d7710	0.038443625
170	0xbeae6092	-0.34058052
171	0xbe190feb	-0.14947478
172	0xbe1e5886	-0.15463457
173	0xbe813482	-0.25235373
174	0xbe7d1ce2	-0.24718049
175	0x3e3e485c	0.1858229
176	0x3e2714e3	0.16316561
177	0x3dc1fae8	0.09471685
178	0xbe3be54a	-0.18349186
179	0x3e148b28	0.14506209
180	0xbea4a3bb	-0.32156166
181	0xbe153f60	-0.14574957
182	0xbdf553ed	-0.11978898
183	0xbe9953b7	-0.29946682
184	0xbe1330f3	-0.14374141
185	0x3e94bdcb	0.2905105
186	0xbd9df76e	-0.07713209
187	0xbe45422e	-0.19263527
188	0x3e864b37	0.2622926
189	0x3dd9b648	0.106304705
190	0x3e0eef43	0.13958459
191	0x3e154193	0.14575796
192	0x3dcddf66	0.100523755
193	0xbd75a69d	-0.059973348
194	0x3ecaaa29	0.39582947
195	0xbd8a92e9	-0.06766302
196	0xbdce77d1	-0.10081447
197	0x3e4641de	0.19361064
198	0xbe331677	-0.17489038
199	0xbe2a6a48	-0.16642106
200	0x3e0c6378	0.1370982
201	0xbcbafdc5	-0.022826085
202	0xbe8bfc14	-0.27340758
203	0x3e42b8dc	0.19015831
204	0x3e2bff77	0.16796671
205	0x3e85efc5	0.26159492
206	0x3ea73bc2	0.3266278
207	0xbe001705	-0.12508781
208	0x3d6e4927	0.058175232
209	0xbf22aef7	-0.63548225
210	0x3de093a7	0.109656624
211	0x3ebb68ce	0.36603397
212	0xbdbb54dd	-0.09147046
213	0xbf2f78a1	-0.6854344
214	0x3e251db3	0.1612461
215	0x3ecbe710	0.39824724
216	0x3dfe4f8f	0.12417518
217	0x3ecb68c7	0.39728376
218	0xbe6c9471	-0.23103501
219	0xbebaef9f	-0.3651094
220	0xbb9befb6	-0.0047588004
221	0xbf00d583	-0.50325793
222	0xbdfed5ac	-0.124430984
223	0xbe6483ae	-0.22315857
224	0x3c950d77	0.018194897
225	0x3e211b00	0.15732956
226	0xbe077839	-0.13229455
227	0xbdfb4e0b	-0.12270745
228	0xbd0ae384	-0.033908382
229	0xbd1ef766	-0.038810156
230	0xbeb236c4	-0.34807408
231	0x3a1a44e6	0.00058849005
232	0x3e8ade8e	0.2712292
233	0x3d80be3e	0.06286286
234	0x3ebd7f01	0.3701096
235	0xbe851c59	-0.2599819
236	0x3ea61ffd	0.3244628
237	0xbe7f5feb	-0.24938934
238	0xbe643634	-0.22286302
239	0xbe79753c	-0.24361128
240	0xbe0aae33	-0.13543014
241	0xbeeab2a2	-0.4583941
242	0xbdeb804f	-0.11499082
243	0xbedc5f2e	-0.43041366
244	0x3b0be411	0.0021345655
245	0xbe04cb2d	-0.1296813
246	0xbe6bfb47	-0.23045073
247	0xbdbf6522	-0.093454614
248	0x3e5622fd	0.20911784
249	0xbf458f74	-0.7717202
250	0xbe97adbe	-0.29624742
251	0x3e73f814	0.23825103
252	0x3eb4107a	0.3516882
253	0xbe31173d	-0.17294021
254	0x3e8063db	0.25076184
255	0xbeacfb27	-0.33785364

a3.bias f4 [32]
0	0xbeb72aa0	-0.35774708
1	0x3dd6b929	0.10484535
2	0x3e1fe46d	0.15614481
3	0xbef2c51d	-0.4741601
4	0xbec1f382	-0.37881094
5	0x3da84817	0.08216875
6	0x3e79c6c0	0.24392223
7	0xbe3f569b	-0.18685381
8	0xbf0982bb	-0.53715104
9	0xbea42f0f	-0.32067153
10	0xbe840a86	-0.2578928
11	0xbe2bcbad	-0.16776915
12	0xbf53bf97	-0.8271422
13	0xbe53051a	-0.20607415
14	0xbe0f32d9	-0.1398424
15	0x3f1b5636	0.6067842
16	0x3ec26c03	0.3797303
17	0xbea95cce	-0.33078617
18	0xbe1dc048	-0.1540538
19	0xbedfd819	-0.43719557
20	0xbd7edda0	-0.062223077
21	0xbec8170e	-0.3908009
22	0xbdcf7482	-0.10129644
23	0xbe9e261d	-0.30888453
24	0xbdda262e	-0.106518134
25	0x3e9d7d6f	0.3075976
26	0x3ed698ff	0.41913602
27	0xbe327b21	-0.17429782
28	0x3c31f2d6	0.010861119
29	0x3e502618	0.20327032
30	0xbe0512f4	-0.12995511
31	0xbe6bc81d	-0.23025556

b1.weight f4 [32, 32, 3, 3]
0	0xbf00135e	-0.5002955
1	0x3e3f9e26	0.18712673
2	0xbde9cd91	-0.11416162
3	0xbe58ba0f	-0.21164726
4	0xbdc8436e	-0.09778486
5	0xbdc40bc3	-0.09572556
6	0xbd01ef5e	-0.03172242
7	0xbd138d76	-0.03602358
8	0xbea763bf	-0.32693288
9	0x3c0ee267	0.008720971
10	0xbefdb144	-0.49549305
11	0x3e1889ff	0.14896391
12	0xbe9e3fb6	-0.30907983
13	0xbf3e93e5	-0.7444442
14	0x3d8dc969	0.069231816
15	0x3e0953ad	0.13410826
16	0xbeeb43a9	-0.45950058
17	0x3ecb197b	0.39667878
18	0xbe110e4e	-0.14165613
19	0x3e5f332e	0.21796867
20	0x3d932720	0.07185197
21	0x3e4ca05c	0.19983047
22	0x3e99631b	0.29958424
23	0x3c053c7c	0.008132096
24	0xbd9fe685	-0.0780764
25	0x3d2a6d7a	0.04160831
26	0xbe1c107d	-0.15240665
27	0x3ea10028	0.31445432
28	0x3e9ef3ba	0.31045324
29	0x3e821b38	0.2541139
30	0x3e1dab2b	0.15397327
31	0xbec4d43b	-0.3844317
32	0x3e84df9b	0.25951847
33	0xbe543f75	-0.20727332
34	0xbe67a9bf	-0.22623347
35	0xbea257ee	-0.3170771
36	0x3e8415ac	0.25797784
37	0xbef25442	-0.4732991
38	0xbd51bef3	-0.051207494
39	0xbd4cef78	-0.050033063
40	0x3d86ecb2	0.06588115
41	0xbeb96322	-0.36208445
42	0xbdad6ff9	-0.08468623
43	0xbf247916	-0.6424726
44	0x3d77ce10	0.06049925
45	0x3f163faa	0.58690894
46	0xbf5752c5	-0.8411067
47	0xbdc4b7a6	-0.09605341
48	0x3e84b3e0	0.25918484
49	0xbe457623	-0.19283347
50	0x3d8c03fa	0.06836696
51	0x3dba96a1	0.091107614
52	0xbe122ac9	-0.14274134
53	0xbf14b611	-0.5809031
54	0xbe33585d	-0.17514177
55	0xbe49c928	-0.19705641
56	0xbea54926	-0.3228237
57	0xbc84357a	-0.01613878
58	0x3db85493	0.09000506
59	0xbdf029ce	-0.117267236
60	0xbd9fa446	-0.077950045
61	0xbdb4cf5f	-0.088286154
62	0x3debfbee	0.11522661
63	0xbd7da280	-0.06192255
64	0x3d5ac4c7	0.053410318
65	0x3d27b531	0.040944282
66	0x3d2a98aa	0.041649498
67	0xbe2b8cd7	-0.16752945
68	0xbd1a6b6f	-0.037700113
69	0x3c262c99	0.010142469
70	0x3d6e9116	0.058243833
71	0x3cc7d888	0.024395242
72	0xbe4f6ad5	-0.20255597
73	0xbebc5c2c	-0.36789072
74	0xbeb0ebd4	-0.34554923
75	0xbef41fe5	-0.47680584
76	0x3ea34d64	0.31894982
77	0xbc8663c5	-0.016404996
78	0xbec64fe0	-0.38732815
79	0x3e64f736	0.22359928
80	0x3e9ca35a	0.30593377
81	0x3e8ba58c	0.2727474
82	0xbe3a1ac5	-0.18174274
83	0xbd9efc83	-0.077630065
84	0x3e6e074b	0.2324497
85	0x3dc13baa	0.09435208
86	0x3edb4a43	0.42830095
87	0x3f5004be	0.81257236
88	0xbe20f294	-0.15717536
89	0xbd81519b	-0.06314393
90	0xbe78d05d	-0.24298234
91	0x3e91d469	0.2848237
92	0xbe15ba48	-0.14621842
93	0x3e6a9175	0.2290705
94	0x3e54c4e7	0.20778237
95	0xbe5e6754	-0.21719104
96	0x3e52ea4e	0.20597193
97	0xbc495049	-0.012287208
98	0xbbfe1e3d	-0.0077550695
99	0xbe91d4ac	-0.28482568
100	0xbec7dec2	-0.39037138
101	0xbf0b7fe5	-0.54492027
102	0x3eb07193	0.3446165
103	0xbe30bbfe	-0.17259213
104	0xbec0b077	-0.37634632
105	0x3e5cbb73	0.21555881
106	0x3e363479	0.17793454
107	0xbe2f5afb	-0.1712455
108	0xbe817e80	-0.25291824
109	0xbeabf569	-0.3358567
110	0xbe753f9a	-0.23950043
111	0xbe26179b	-0.16219942
112	0xbd64df34	-0.055876926
113	0x3e526fa9	0.20550407
114	0xbe4f7863	-0.20260768
115	0xbed9e299	-0.42555693
116	0xbd40976c	-0.047019407
117	0x3da92d21	0.08260561
118	0x3d82d2cc	0.063878626
119	0x3e5fbd90	0.21849656
120	0x3dd7d68f	0.10538971
121	0xbd8b809e	-0.06811641
122	0xbe29189a	-0.16513291
123	0xbb712c2c	-0.003680001
124	0xbe913f9c	-0.28368843
125	0x3dd41a91	0.1035663
126	0xbb903401	-0.0044007306
127	0x3e815fa7	0.2526829
128	0x3d1ebd8c	0.038754985
129	0xbc4b2b6c	-0.012400489
130	0xbee1fd8e	-0.4413876
131	0xbd94ce93	-0.072659634
132	0x3bf17c41	0.0073695485
133	0xbe2846e2	-0.1643329
134	0xbdcd59fc	-0.10026929
135	0x3e02b687	0.12764941
136	0x3d6de451	0.058079068
137	0xbd5b152f	-0.053487
138	0xbe927c33	-0.2861038
139	0x3d8bf39b	0.068335734
140	0x3cf7ac9c	0.030233674
141	0x3c3c2dcf	0.011485531
142	0xbeeb5469	-0.45962837
143	0x3d184383	0.03717376
144	0xbe7c27bb	-0.24624531
145	0xbb00e035	-0.0019664888
146	0x3db4299f	0.08797001
147	0x3e833573	0.25626716
148	0x3ed2c73f	0.41167638
149	0x3e4c02ce	0.19922945
150	0x3bca2bec	0.0061697867
151	0xbd98f398	-0.07468337
152	0x3e9b29c2	0.30305296
153	0x3e0273c2	0.1273947
154	0x3e4ed520	0.20198488
155	0xbf0bf3f5	-0.54669124
156	0x3c499f82	0.012306096
157	0xbd699661	-0.057028178
158	0xbf1ab415	-0.60431033
159	0xbc189e90	-0.009315148
160	0x3e9413ae	0.28921264
161	0xbe51cf9c	-0.20489353
162	0x3ece5aa5	0.4030353
163	0xbd701e0a	-0.058622397
164	0xbe14c5d7	-0.14528595
165	0x3e11340b	0.14180009
166	0xbf112508	-0.5669713
167	0xbe80013f	-0.2500095
168	0xbe011b22	-0.12608007
169	0xbe2820ba	-0.16418734
170	0xbe002a8c	-0.1251623
171	0xbe59bff9	-0.21264638
172	0x3ef1585c	0.47137725
173	0xbeb024d6	-0.34403104
174	0x3e291f12	0.16515759
175	0x3e96e552	0.29471833
176	0xbe1c0ac8	-0.15238488
177	0xbe0cab46	-0.1373721
178	0x3e94e722	0.2908259
179	0xbe6a7062	-0.22894433
180	0xbd893468	-0.06699449
181	0xbe2b688d	-0.16739102
182	0x3d17a6df	0.037024375
183	0x3d2eaaa3	0.0426432
184	0xbdac4fda	-0.08413668
185	0xbbd67163	-0.0065442785
186	0x3e5040f4	0.20337278
187	0x3dbf1f6b	0.093321644
188	0x3e59accc	0.21257323
189	0x3d3d6c3f	0.04624581
190	0xbe8201de	-0.2539205
191	0xbe96c175	-0.2944447
192	0x3e1f9a7a	0.15586272
193	0x3e36e9ae	0.17862579
194	0x3e7b244c	0.24525565
195	0xbdeace6f	-0.11465155
196	0xbe356bfc	-0.17716974
197	0xbe62ab92	-0.22135761
198	0xbe400f9c	-0.18755955
199	0x3d7127a1	0.058875684
200	0x3d73a4c4	0.059483305
201	0xbe2c11e1	-0.16803695
202	0x3e28b593	0.16475515
203	0x3da056aa	0.0782903
204	0x3e93d3f1	0.28872636
205	0xbedbf7b8	-0.42962432
206	0xbe174750	-0.14773297
207	0xbe7f4af6	-0.24930939
208	0x3e27440d	0.16334553
209	0xbe962b80	-0.29330063
210	0xbeb2c1eb	-0.34913573
211	0xbd2e3e8b	-0.042540114
212	0xbe326df8	-0.17424762
213	0xbe0ffc20	-0.14061022
214	0x3ecca08b	0.39966235
215	0x3e340a88	0.17582142
216	0x3eaf40b7	0.3422906
217	0xbed1f31b	-0.41005787
218	0xbeb5e329	-0.35524872
219	0xbef28ea3	-0.47374448
220	0xbd147cde	-0.036251895
221	0x3e25d557	0.16194664
222	0xbc0ee234	-0.008720923
223	0x3e6cc04b	0.23120229
224	0x3dcc24c2	0.099679485
225	0x3e84926c	0.2589296
226	0x3de00972	0.109393016
227	0xbf0a9b71	-0.54143435
228	0xbc77b58a	-0.015118966
229	0xbd43cf10	-0.047804892
230	0x3ea47aa3	0.32124814
231	0xbdc4425e	-0.09582971
232	0x3ef2cc42	0.4742146
233	0x3db95d9a	0.09051056
234	0x3f04a66a	0.5181643
235	0x3c87d48a	0.016580839
236	0xbe8bd277	-0.2730901
237	0x3de55199	0.11197204
238	0xbd821f9a	-0.06353684
239	0xbb1015a8	-0.0021985564
240	0x3d222c9c	0.039593324
241	0x3eaa5ead	0.33275357
242	0xbee2063d	-0.44145384
243	0x3e94328b	0.2894481
244	0xbdae6396	-0.08515088
245	0xbe021755	-0.12704213
246	0xbf5de1a9	-0.86672455
247	0xbec319c9	-0.3810561
248	0xbd4d6dc0	-0.050153494
249	0xbd59ef8f	-0.053206977
250	0x3e8dd5fc	0.2770232
251	0x3d011084	0.03150989
252	0x3ee4e824	0.4470836
253	0xbdfa0f58	-0.12209958
254	0xbf18a9af	-0.59633917
255	0x3cf311be	0.029671546

b1.bias f4 [32]
0	0xbd68ce4b	-0.05683736
1	0xbe8eb373	-0.27871284
2	0xbf2adacf	-0.66740125
3	0xbe9eeef6	-0.31041688
4	0x3f54ee27	0.8317589
5	0xbe4ff316	-0.20307574
6	0xbe7cb207	-0.24677287
7	0xbada526c	-0.0016656644
8	0xbe706d63	-0.23479228
9	0xbf3360bf	-0.700695
10	0xbf09ca81	-0.5382462
11	0x3e8e8bf4	0.2784115
12	0xbf02dbf7	-0.5111689
13	0xbee6773f	-0.45012853
14	0x3e1551c6	0.14581975
15	0xbe9f3922	-0.31098276
16	0xbe84b7ec	-0.2592157
17	0xbf66c729	-0.90147644
18	0xbe3c4f85	-0.1838971
19	0x3ed8c106	0.42334765
20	0xbe5d6775	-0.21621497
21	0xbed96d7c	-0.42466342
22	0x3f4f2d3f	0.80928415
23	0xbf31d5d9	-0.6946693
24	0xbd6f9ca2	-0.058498986
25	0xbe7a7044	-0.24456888
26	0xbdee8e98	-0.11648291
27	0xbf8b3dfd	-1.0878292
28	0xbd607c10	-0.054805815
29	0xbd419e78	-0.04727027
30	0x3e313cfb	0.17308418
31	0xbe17de8e	-0.14830992

b2.weight f4 [32, 32, 3, 3]
0	0x3e839bf0	0.25704908
1	0x3df9d86c	0.12199482
2	0xbc02fddf	-0.007995098
3	0x3e443532	0.19160917
4	0xbe6c80f3	-0.23096065
5	0x3ed686b9	0.4189966
6	0xbe73fdfa	-0.23827353
7	0xbe0f560a	-0.13997665
8	0x3e3ba67a	0.18325225
9	0x3ec69594	0.38785994
10	0xbded3d07	-0.11583906
11	0xbdc8821d	-0.09790442
12	0xbe13c59f	-0.14430855
13	0xbe57001e	-0.20996138
14	0xbe66f8d7	-0.22555862
15	0x3e489658	0.19588602
16	0x3e09d069	0.13458408
17	0xbf180e5d	-0.59396917
18	0xbe3dbaf2	-0.18528345
19	0x3e12d4d9	0.14339007
20	0xbf1a4377	-0.60259193
21	0x3dbbde3b	0.091732465
22	0xbe9adfb7	-0.30248806
23	0x3dc0c299	0.094121166
24	0xbe520783	-0.20510678
25	0xbe4f1362	-0.20222238
26	0xbe1be638	-0.1522454
27	0x3ef36ba4	0.4754306
28	0xbdc6e6d5	-0.097119965
29	0x3e079550	0.13240552
30	0x3f21abc9	0.6315275
31	0xbdc39595	-0.09550015
32	0xbe969c4b	-0.29416117
33	0xbd92181d	-0.071335055
34	0xbed2dd5f	-0.41184518
35	0xbe3dfac2	-0.18552688
36	0xbe42e915	-0.19034226
37	0x3dbef1e3	0.0932348
38	0xbebcaeb4	-0.36852038
39	0xbcd20085	-0.025635013
40	0x3e8e808e	0.27832454
41	0xbebb101e	-0.36535734
42	0xbf1e9872	-0.61951363
43	0x3e4c4f2f	0.19952081
44	0x3e8e2da0	0.27769184
45	0x3f4ace2b	0.7922084
46	0xbee63b6d	-0.44967213
47	0xbe0002f9	-0.12501134
48	0xbe34ca0c	-0.176552
49	0x3c6dd5d8	0.014516316
50	0xbedcd384	-0.43130124
51	0x3ca77e30	0.020445913
52	0x3ef92211	0.48658803
53	0x3f76b50f	0.96370023
54	0x3d0a4d13	0.03376491
55	0xbeb800fa	-0.35938245
56	0x3e3d8340	0.18507099
57	0xbe6b3649	-0.22969927
58	0xbe044ab2	-0.12919119
59	0xbdc8021a	-0.09766026
60	0x3e3b23c7	0.18275367
61	0x3ddbfae9	0.10741217
62	0xbead8c0f	-0.3389592
63	0x3ea39b49	0.3195441
64	0xbe49c505	-0.19704063
65	0xbe3ce584	-0.18446928
66	0xbdc3273b	-0.09528967
67	0x3d69faa0	0.05712378
68	0x3d985104	0.074373275
69	0xbdbadda8	-0.09124309
70	0x3e37676d	0.17910548
71	0xbe4dbb1e	-0.20090911
72	0xbd1feb6f	-0.039042886
73	0xbeac81e1	-0.3369284
74	0x3e8ba14c	0.27271497
75	0x3d242c7f	0.040081497
76	0xbad04039	-0.001588828
77	0xbe1dee83	-0.15423016
78	0xbdf6e7f4	-0.1205596
79	0x3dbdd3cc	0.09268913
80	0xbeafd1eb	-0.34339842
81	0xbed4b247	-0.41542265
82	0xbee1f602	-0.44133002
83	0xbe8727af	-0.26397464
84	0x3e5c4109	0.21509184
85	0xbe47e6f3	-0.19521694
86	0x3ebcec2e	0.3689894
87	0x3f0276ff	0.50962824
88	0x3d97c658	0.07410878
89	0xbc43f5ee	-0.01196049
90	0xbb56cceb	-0.003277595
91	0xbe1dcb75	-0.15409644
92	0xbe49902c	-0.19683903
93	0xbe2af6ad	-0.16695662
94	0xbe9de668	-0.3083985
95	0xbe270ab5	-0.16312678
96	0x3ef41bfb	0.47677597
97	0x3eb896c6	0.3605253
98	0xbe725163	-0.23663859
99	0x3e1a54a1	0.15071346
100	0xbdf608cb	-0.12013396
101	0x3e465b70	0.19370818
102	0xbe4899df	-0.19589947
103	0x3e0629d5	0.13101895
104	0xbe8cc175	-0.27491346
105	0xbee10b2b	-0.43953833
106	0x3e1f2382	0.15540889
107	0xbe393ffa	-0.18090811
108	0xbe928114	-0.28614104
109	0xbe9f4e76	-0.31114548
110	0x3d96312d	0.07333598
111	0x3e410982	0.18851283
112	0xbdd91928	-0.10600501
113	0xbe39840d	-0.1811678
114	0xbed58776	-0.4170491
115	0x3dd9b7f7	0.10630792
116	0x3dba8d75	0.09109012
117	0xbee91cfe	-0.45529932
118	0xbd2ae1e6	-0.04171934
119	0xbf2475a2	-0.64241993
120	0x3d1493d5	0.036273796
121	0xbeaa24c3	-0.33231172
122	0x3e4ea425	0.20179804
123	0xbe060827	-0.13089047
124	0xbdb0f4f9	-0.08640475
125	0xbec7fc50	-0.39059687
126	0x3e9d6c05	0.30746475
127	0xbd3ec88e	-0.046577983
128	0xbe59ed1b	-0.21281855
129	0x3d374012	0.044738837
130	0xbf0e9aaf	-0.5570478
131	0xbcb28449	-0.021791594
132	0xbe63facc	-0.2226364
133	0x3e85bc72	0.26120335
134	0x3deea6ca	0.11652906
135	0xbdabefdc	-0.08395359
136	0xbd58c1cf	-0.052919205
137	0xbded315c	-0.1158168
138	0x3ea40382	0.32033926
139	0xbf249ff9	-0.643066
140	0x3dfcc9aa	0.12343152
141	0x3dbec8ad	0.093156196
142	0x3e54f0ef	0.20795034
143	0x3dd79989	0.105273314
144	0x3ec79fc5	0.38989082
145	0xbdf00bd1	-0.11721004
146	0xbe08e1de	-0.13367411
147	0x3b5f0012	0.0034027142
148	0xbdc9ceaa	-0.09853871
149	0x3e0228d0	0.12710881
150	0x3d472f66	0.048629187
151	0x3ecbb366	0.39785308
152	0xbe88d307	-0.267235
153	0xbd560c26	-0.05225768
154	0xbcd6aaed	-0.02620455
155	0x3e7fcc2d	0.2498023
156	0x3e17dca4	0.14830261
157	0x3cbc6db8	0.023001537
158	0x3e05c2d0	0.13062596
159	0xbe8557fb	-0.26043686
160	0x3df83a37	0.121204786
161	0xbe584500	-0.21120071
162	0xbc6a156e	-0.014287336
163	0x3dc3d756	0.095625564
164	0xbd090fab	-0.033462208
165	0xbe04c7c8	-0.12966835
166	0xbd887d47	-0.0666452
167	0xbec99147	-0.3936865
168	0xbe887317	-0.26650307
169	0xbe2b1707	-0.16708003
170	0x3d04b956	0.032403313
171	0x3ebe80e4	0.3720771
172	0x3d70dbb0	0.05880326
173	0xbdab2ba6	-0.08357935
174	0x3d37b160	0.044846892
175	0x3e833fcf	0.2563462
176	0x3e180cac	0.14848584
177	0xbdc4575f	-0.09586977
178	0x3d4ca13d	0.049958456
179	0xbda97659	-0.08274526
180	0x3caf5b9e	0.021405991
181	0xbe8391d4	-0.25697196
182	0xbc67d8db	-0.0141508235
183	0x3e9200d6	0.28516263
184	0xbe25d75b	-0.16195433
185	0xbc082e6d	-0.00831185
186	0xbec8aad2	-0.39192826
187	0xbdc6f736	-0.097151205
188	0xbedb4af6	-0.42830628
189	0xbe4ae42a	-0.198136
190	0xbe668192	-0.22510365
191	0x3d926381	0.07147885
192	0x3e4739a2	0.19455579
193	0x3e7da6ee	0.2477071
194	0x3ee1e86f	0.44122645
195	0xbe7bad88	-0.24577916
196	0xbea92d84	-0.33042538
197	0x3cec4ab6	0.028844219
198	0x3eb41f28	0.3518002
199	0xbecf18f5	-0.40448728
200	0x3e0c58dd	0.13705774
201	0x3dd1ce97	0.10244482
202	0xbd4c8dcc	-0.049939916
203	0x3e7c2cbc	0.2462644
204	0xbf6ddcfd	-0.92915326
205	0x3edc966d	0.43083516
206	0xbe3bd64e	-0.1834347
207	0xbe811526	-0.25211447
208	0xbe182266	-0.14856872
209	0xbe0de566	-0.1385704
210	0x3d0c084b	0.034187596
211	0xbf04e5de	-0.5191325
212	0x3f46521a	0.7746903
213	0x3cc5c8ee	0.024143662
214	0x3e0ac7c5	0.13552769
215	0x3e4a1b8d	0.19737072
216	0x3c976ad4	0.018483557
217	0xbe1dcb54	-0.15409595
218	0xbd3e00ce	-0.046387486
219	0x3e13b43b	0.14424221
220	0xbe481d10	-0.19542336
221	0xbc4f237c	-0.0126427375
222	0x3ec0d0e2	0.37659365
223	0x3e7939a4	0.24338394
224	0xbe9d4abd	-0.30721083
225	0x3ca2e2b2	0.019883487
226	0xbe4802d1	-0.19532324
227	0x3e6e2555	0.23256429
228	0x3d279634	0.04091473
229	0x3e831362	0.25600725
230	0xbd95944a	-0.073036745
231	0xbd9146a3	-0.07093551
232	0xbe796819	-0.24356116
233	0x3e2b1b32	0.16709593
234	0x3dc1d4ef	0.09464442
235	0xbe769dfd	-0.24083705
236	0x3d4c8943	0.04993559
237	0xbcfb26ec	-0.030658208
238	0x3dfe6a20	0.124225855
239	0x3e91297b	0.2835196
240	0xbecbed7f	-0.39829633
241	0xbecb61da	-0.39723092
242	0xbe4b9eb0	-0.19884753
243	0x3e055b52	0.13023117
244	0xbe60ef11	-0.21966197
245	0x3ee75753	0.4518381
246	0x3e60e9bd	0.21964164
247	0xbe396090	-0.18103242
248	0xbede60c0	-0.4343319
249	0xbd765822	-0.060142644
250	0xbf2753e4	-0.6536238
251	0x3df5b0ea	0.11996634
252	0x3d833c7a	0.06408019
253	0x3e36a343	0.17835717
254	0x3e9278d7	0.28607818
255	0xbd8dd9bc	-0.06926295

b2.bias f4 [32]
0	0x3e302414	0.17201263
1	0xbf86351c	-1.0484958
2	0xbf4944a1	-0.78620344
3	0xbf751e8d	-0.9574974
4	0xbe178709	-0.14797606
5	0xbf4f7e2b	-0.8105189
6	0xbf012600	-0.5044861
7	0xbf15755c	-0.583822
8	0x3f145523	0.5794241
9	0x3d8760b6	0.06610243
10	0x3d5776c1	0.052603487
11	0xbebad6c9	-0.36491993
12	0xbee6695c	-0.45002258
13	0xbf48b0ce	-0.7839478
14	0xbe4d3390	-0.20039201
15	0x3e913ad2	0.2836519
16	0xbe8385c8	-0.25688004
17	0xbf0531fd	-0.520294
18	0xbe26d2a4	-0.1629129
19	0xbea35dca	-0.31907493
20	0xbe278a60	-0.1636138
21	0x3ecaba09	0.3959506
22	0xbf3858cc	-0.72010493
23	0x3f0c8c95	0.5490201
24	0xbf2eb3cb	-0.6824309
25	0x3ed02014	0.40649474
26	0x3e5f540a	0.21809402
27	0x3e30d0be	0.17267129
28	0xbf77b9e4	-0.9676802
29	0xbe7efcd1	-0.2490113
30	0x3f0ba392	0.54546463
31	0xbe67a548	-0.22621644

b3.weight f4 [64, 32, 3, 3]
0	0xbeb73255	-0.35780588
1	0xbc9b015b	-0.018921545
2	0xbd3710cd	-0.044693757
3	0xbdb7f1f0	-0.08981693
4	0x3c6e8c74	0.014559854
5	0xbe2910eb	-0.1651036
6	0x3d051644	0.032491937
7	0xbf000110	-0.5000162
8	0xbb32c3f0	-0.0027277432
9	0xbad5b443	-0.0016304333
10	0xbe9b2392	-0.30300575
11	0x3eb26d89	0.34849194
12	0x3c86eb59	0.016469644
13	0x3e432074	0.19055349
14	0xbe85453f	-0.26029393
15	0xbe1e0de8	-0.15434992
16	0xbe563037	-0.2091683
17	0xbe04b64b	-0.12960164
18	0xbe50041f	-0.20314072
19	0xbe2e7ba7	-0.17039357
20	0xbd4630a3	-0.048386227
21	0x3e2eaefb	0.17058937
22	0xbcbe6446	-0.023241173
23	0xbecc7a23	-0.39936933
24	0x3e177ccf	0.14793704
25	0x3ed9919c	0.42493904
26	0xbe5a7f81	-0.21337701
27	0xbd5c3d0a	-0.05376915
28	0xbe22de33	-0.15905075
29	0x3e2e429d	0.17017598
30	0x3d807f97	0.06274336
31	0x3ec81561	0.3907881
32	0xbe8ea327	-0.2785885
33	0x3d44a493	0.048008513
34	0xbdb58e35	-0.088650145
35	0x3da1ef35	0.07906953
36	0x3e6d04d1	0.23146369
37	0x3d43f202	0.04783822
38	0x3e258545	0.1616412
39	0xbf39f320	-0.72636604
40	0x3d2781e7	0.04089537
41	0x3f096796	0.53673685
42	0xbeb66c2e	-0.3562941
43	0x3ea6c532	0.32572323
44	0x3e0fbe20	0.1403737
45	0xbe3bc9c6	-0.18338689
46	0x3f4fe8b2	0.8121444
47	0x3e430c7f	0.19047736
48	0x3e5d4303	0.21607594
49	0xbe880cdc	-0.2657231
50	0x3e91451c	0.2837304
51	0xbc7ab69d	-0.015302327
52	0xbdd210d2	-0.102571145
53	0xbebeec60	-0.37289715
54	0xbe0c85b2	-0.13722876
55	0x3d1bcd15	0.03803738
56	0xbea619cf	-0.32441565
57	0x3da230dc	0.079194754
58	0x3c319149	0.010837861
59	0x3e33be93	0.17553167
60	0xbd7ab112	-0.061204024
61	0xbe1f44f2	-0.15553644
62	0xbe00f6c5	-0.12594135
63	0xbe8a5a8c	-0.27022207
64	0xbd7c6f8e	-0.061629824
65	0x3e8ebb7d	0.27877417
66	0xbd70859f	-0.05872118
67	0x3d3b3f8f	0.04571491
68	0xbf298136	-0.66212785
69	0x3e7ece78	0.24883449
70	0x3ed169ec	0.40901124
71	0xbe5715df	-0.21004437
72	0xbe2e11a8	-0.16998923
73	0x3d969f23	0.07354572
74	0xbdcc3cab	-0.09972509
75	0xbd7f6513	-0.06235225
76	0x3df71221	0.12064005
77	0x3d1f6270	0.038912237
78	0xbdeb80b9	-0.11499161
79	0xbf0ae4dc	-0.5425546
80	0x3ecd1af8	0.40059638
81	0xbeb4df3a	-0.35326558
82	0x3e81bf38	0.253412
83	0x3e1f0172	0.15527895
84	0x3d1e06f1	0.03858084
85	0x3ecaf3ff	0.3963928
86	0xbea4a6c3	-0.3215848
87	0xbea0d908	-0.31415582
88	0xbf1b47d3	-0.6065647
89	0xbe3f1465	-0.18660124
90	0xbe28255a	-0.16420498
91	0xbeb9ce54	-0.36290228
92	0xbe1c542a	-0.15266481
93	0x3dc93eb4	0.09826413
94	0xbd9282ca	-0.07153852
95	0x3dc7dc4d	0.09758816
96	0xbe9915e7	-0.29899523
97	0xbd9d730d	-0.0768796
98	0xbee39c51	-0.44455197
99	0x3e6faea0	0.23406458
100	0xbd2a12e0	-0.041521907
101	0x3c96b028	0.018394545
102	0x3e80a32c	0.2512449
103	0xbc456eec	-0.012050372
104	0x3e348aab	0.17631023
105	0xbd001f73	-0.031279992
106	0x3f118736	0.5684694
107	0x3e92de12	0.2868505
108	0x3dcf1c7e	0.10112856
109	0x3d8d7af4	0.06908217
110	0x3e593614	0.21212035
111	0x3e58dc3a	0.2117776
112	0xbdd02033	-0.101623915
113	0xbeebb2b6	-0.46034783
114	0xbe21b893	-0.15793066
115	0xbcc84068	-0.024444774
116	0x3d8a43ac	0.06751189
117	0xbe5607d6	-0.20901427
118	0xbe228860	-0.15872335
119	0x3db278c8	0.087144434
120	0x3cb654eb	0.022257289
121	0x3ef0712e	0.4696135
122	0x3ea9fa64	0.33198845
123	0x3da20fee	0.079131946
124	0xbe363ee6	-0.17797431
125	0x3ec94e70	0.39317656
126	0x3e889ce7	0.26682207
127	0xbec49430	-0.38394308
128	0xbd3f6346	-0.046725534
129	0x3e33e35f	0.17567204
130	0xbe6adc38	-0.2293557
131	0x3e56b19c	0.2096619
132	0xbe031380	-0.12800407
133	0xbd981e9d	-0.07427714
134	0xbf37edda	-0.7184731
135	0xbe26a8f5	-0.1627539
136	0xbe9a2250	-0.30104303
137	0x3e582e11	0.21111323
138	0xbdc98903	-0.09840586
139	0xbe3d2b19	-0.18473472
140	0xbf4d74a8	-0.8025613
141	0xbe858593	-0.26078472
142	0xbdb87b35	-0.09007875
143	0xbdfabc09	-0.12242896
144	0x3e8389e7	0.2569115
145	0xbef54b9d	-0.4790925
146	0xbec61df8	-0.3869474
147	0x3f08ec74	0.534858
148	0xbe99f6e0	-0.30071163
149	0x3dfdbd91	0.123896725
150	0xbe5748c2	-0.21023849
151	0xbeda2ba2	-0.42611414
152	0xbe9ce13a	-0.30640584
153	0xbeb3afbb	-0.3509501
154	0xbdce5b98	-0.10076064
155	0x3ec2cf64	0.3804885
156	0x3e084ea5	0.1331125
157	0x3d7d61e7	0.061860945
158	0xbe8e543f	-0.2779865
159	0xbf0cc694	-0.54990506
160	0xbe173d07	-0.14769374
161	0xbed1dc3f	-0.40988347
162	0x3eff4155	0.49854532
163	0x3d5d8c66	0.054088973
164	0x3d2fe767	0.04294529
165	0xbe1aa2b0	-0.15101123
166	0xbe85484f	-0.2603173
167	0xbe29ed9a	-0.16594544
168	0xbdce89fd	-0.10084913
169	0xbebc5696	-0.3678481
170	0xbdc6f6b0	-0.09715021
171	0x3e2d8907	0.16946803
172	0xbe620aac	-0.22074383
173	0xbda68aae	-0.0813192
174	0xbc2cdc1e	-0.010550527
175	0xbed4a237	-0.4153001
176	0x3e249e5d	0.16076036
177	0xbe0cb287	-0.13739978
178	0x3d931fac	0.07183775
179	0xbe827cf7	-0.25485966
180	0x3dc62e15	0.09676758
181	0x3c576072	0.013145553
182	0xbe7fa56c	-0.24965447
183	0x3e8d924d	0.2765068
184	0xbdbf53ac	-0.09342131
185	0x3e07bf57	0.13256584
186	0xbde1bc78	-0.11022276
187	0x3e85c520	0.26126957
188	0x3dc06643	0.09394505
189	0x3d500073	0.05078168
190	0xbe424311	-0.18970896
191	0xbd0dbe5c	-0.03460537
192	0xbec1a5f4	-0.37821925
193	0x3df15c4f	0.117851846
194	0x3dc6df28	0.097105324
195	0xbdb92986	-0.09041123
196	0x3deb9dce	0.11504708
197	0xbd797cda	-0.060910083
198	0xbf00f3e9	-0.5037218
199	0xbe915bbb	-0.28390297
200	0x3d6e1460	0.0581249
201	0x3df19ec6	0.11797862
202	0x3d914c4f	0.07094633
203	0x3c241a5d	0.010016051
204	0x3de5366a	0.11192019
205	0xbe6eda3e	-0.2332544
206	0xbe36371b	-0.17794459
207	0x3dd44eb0	0.10366571
208	0x3e03609a	0.1282982
209	0xbf027bac	-0.5096996
210	0x3e007a90	0.12546754
211	0xbe5575bb	-0.20845692
212	0x3c97c62c	0.018527113
213	0x3d93477a	0.071913674
214	0xbedd2764	-0.43194115
215	0x3dd25125	0.10269383
216	0xbd37c100	-0.044861794
217	0xbde8fc86	-0.1137629
218	0x3db760dd	0.08954022
219	0xbc006f08	-0.007838972
220	0xbea8f0cf	-0.32996222
221	0x3d25090b	0.040291827
222	0x3dcc9510	0.09989369
223	0x3e8ee78d	0.27911034
224	0xbd500c73	-0.050793123
225	0xbce2bf3c	-0.027679078
226	0xbe256689	-0.16152395
227	0x3e7a0774	0.24416906
228	0x3f14f09b	0.58179635
229	0x3d4c4c42	0.049877413
230	0x3e73bd15	0.23802598
231	0x3cb5fec9	0.022216218
232	0x3e9fee29	0.3123639
233	0x3d93ee0f	0.072231404
234	0x3e5847b3	0.21121101
235	0x3e0388c8	0.12845147
236	0x3d643a47	0.05571964
237	0xbe0ce914	-0.13760787
238	0x3eb0f921	0.3456507
239	0x3ec19f07	0.3781664
240	0xbe16b257	-0.14716469
241	0xbf0660a9	-0.5249124
242	0x3e73422d	0.23755713
243	0xbddf6d7f	-0.109095566
244	0xbe1f7d1d	-0.1557507
245	0x3c37bbab	0.011214177
246	0x3e2774ed	0.16353197
247	0x3b5b68e0	0.0033479258
248	0x3e208a19	0.1567768
249	0x3c143c02	0.00904751
250	0xbea3877a	-0.31939298
251	0x3ea9045e	0.33011144
252	0xbc13da6b	-0.009024243
253	0x3ccdab12	0.025105987
254	0x3ea6da8f	0.32588622
255	0xbdfecbee	-0.1244124

b3.bias f4 [64]
0	0x3e3983f2	0.1811674
1	0x3e0d884b	0.13821523
2	0xbdd72210	-0.10504544
3	0xbd085979	-0.033288453
4	0xbd324511	-0.043522898
5	0xbebd1f37	-0.36937878
6	0x3d877c1a	0.06615467
7	0x3e2c6fa8	0.16839468
8	0xbf06fc26	-0.527285
9	0xbe959dac	-0.29221857
10	0xbeb0574d	-0.34441605
11	0x3e5536e7	0.20821725
12	0x3dbb6172	0.091494456
13	0x3e92133b	0.28530297
14	0xbea19abf	-0.31563374
15	0xbddfa423	-0.109199785
16	0xbe28fa73	-0.16501789
17	0x3c1f61d8	0.009727918
18	0xbd5205f0	-0.051275194
19	0x3e9bbefe	0.30419153
20	0x3b91b4f1	0.0044466187
21	0xbed9a921	-0.42511848
22	0x3c53fa2a	0.012938062
23	0x3e9d914a	0.3077491
24	0x3e8b2eff	0.27184293
25	0xbed52404	-0.4162904
26	0xbf46c11c	-0.7763841
27	0xbde37f31	-0.11108244
28	0x3f10c624	0.5655234
29	0xbe3a05b5	-0.1816624
30	0x3dce3db0	0.1007036
31	0xbdb9385b	-0.09043952
32	0xbe441654	-0.19149143
33	0xbdc35d1e	-0.09539245
34	0xbdd18a4b	-0.102314554
35	0x3e1c3de2	0.15257981
36	0xbe0e6f9a	-0.1390976
37	0xbeb94cf9	-0.36191538
38	0x3e425660	0.18978262
39	0x3c829c67	0.01594372
40	0x3dd63cbb	0.10460802
41	0x3dc4db5f	0.09612154
42	0x3ec88e1d	0.39170924
43	0x3efb6bd0	0.49105692
44	0xbdf14518	-0.11780757
45	0xbe03bb90	-0.12864518
46	0x3e284a94	0.164347
47	0xbe6389c9	-0.2222053
48	0xbeca9946	-0.39570063
49	0xbebc2b48	-0.3675177
50	0xbd27ea3b	-0.040994864
51	0xbd681fdf	-0.05667102
52	0xbe495a6f	-0.19663404
53	0x3e2960c9	0.16540827
54	0x3d8f8644	0.07008031
55	0xbe45ca22	-0.19315389
56	0x3e78b91d	0.24289365
57	0x3e983583	0.29728326
58	0xbde453ee	-0.11148821
59	0xbcebc65b	-0.028781107
60	0xbe9e72af	-0.30946872
61	0x3db53ab9	0.08849091
62	0x3c9be13c	0.019028299
63	0xbf44a273	-0.7681038
