nets/model_epoch_43.pth (torch, 648794 bytes, 25 tensors)

a1.weight f4 [16, 5, 3, 3]
0.060162112 0.13745809 -0.023310203 -0.10194183 -0.027487455 0.25824785 -0.11308134 0.054551627
-0.4015082 -0.070255354 -0.06758748 -0.13097128 0.01787035 -0.14677376 -0.18860234 -0.26473346
-0.13858435 -0.12003543 0.0808179 -0.10449525 0.030615333 0.022675848 -0.2963497 -0.0018280409
-0.128063 -0.092445515 -0.0078703575 -0.17680342 -0.06268155 0.081028126 -0.15741798 -0.0523161
-0.37795407 -0.23719382 -0.14000006 0.12541996 -0.16818377 -0.07287697 -0.14531712 -0.029238507
-0.17939042 -0.12618582 -0.010752685 -0.11857845 -0.046212867 0.18447576 -0.08708629 -0.07690539
0.3339403 0.033247877 0.33653256 -0.0046758708 0.4882163 -0.2163054 0.08706083 0.28724334
0.07915561 -0.0027152551 0.20185573 0.017309505 0.11502449 -0.5234992 0.056009233 0.1523031
-0.09020414 -0.08059167 0.32564074 0.061209764 -0.41148943 -0.14880504 -0.15835866 0.07725519
-0.026741814 -0.35013586 -0.36181617 -0.008713746 0.28993294 0.104707725 0.12772986 0.14385158
-0.48488364 -0.011601922 0.025937896 -0.013836628 0.08316007 0.037767954 -0.021087315 -0.074984096
-0.06653845 0.0342117 -0.31254956 0.08520054 0.34437165 0.049786285 0.19157445 0.017436204
0.519785 0.43697235 0.09274819 0.17887728 0.20976059 0.17706779 -0.033473607 0.0005285592
0.020279774 -0.10490721 -0.16169973 0.069284424 0.25500154 0.44860765 0.21747552 0.065047435
-0.18034981 0.31525496 -0.32107958 -0.08198913 0.15389034 -0.012072444 -0.30018514 -0.22683655
0.038940627 -0.1591205 0.00421682 0.07379548 0.041056745 -0.30549565 -0.026440125 0.04417987
0.017006574 -0.04645145 0.12367431 -0.117935464 -0.021709729 -0.04793195 0.064477965 0.16470905
0.10257741 -0.24608113 0.1580654 0.12673584 -0.27763912 0.0794121 -0.34310347 0.27417687
-0.16315292 -0.4606773 -0.2400109 -0.3334357 -0.013454431 -0.5842118 0.060857814 0.02827477
-0.007183957 -0.01703097 0.112665765 0.021851264 -0.14372216 -0.09349131 -0.30729368 -0.19710486
-0.18367402 0.35534352 0.19665043 0.24412957 0.22816621 0.34319392 -0.1163746 0.54145145
0.17973144 -0.050604213 -0.21723427 -0.038085364 0.032495286 0.04917908 -0.0089991875 -0.013661633
0.0005817402 0.043299913 -0.051037975 -0.026079122 0.20768225 0.025486363 -0.2642363 0.028946785
0.15260044 0.2869393 0.07241988 0.17675622 0.2702483 0.16969039 -0.1057293 0.05085846
-0.20155363 -0.054698225 -0.18100685 0.13636278 0.08818668 -0.13934447 0.0960698 0.1485883
0.43741453 -0.028701032 -0.0009785702 -0.117034994 -0.30083308 0.3068482 -0.020736871 -0.16077296
-0.40905648 -0.3845419 0.09757137 0.059230726 -0.15123287 -0.20108716 -0.062284295 0.041417032
-0.027133228 0.0152926175 -0.025963733 0.042969305 -0.106191225 0.026443634 0.021200432 0.09913346
-0.051352028 -0.09473961 -0.06983438 0.22127992 -0.004827609 -0.11232814 -0.058963567 0.18291555
-0.12908818 0.3520989 -0.059628103 0.38982216 0.27344185 -0.019068694 -0.029354963 -0.3167572
0.04256635 0.22122857 -0.5398999 0.0401784 0.09509142 0.068306856 -0.15824156 0.30276406
-0.32399452 -0.18911876 -0.1359174 -0.394651 0.28615487 -0.016458409 0.09184289 0.039937474
00000000: 8c6c 763d d0c1 0c3e 0af5 bebc e1c6 d0bd
00000010: 5f2d e1bc 1039 843e 3197 e7bd 8771 5f3d
00000020: 7c92 cdbe 0ae2 8fbd 4e6b 8abd 561d 06be
00000030: d764 923c dc4b 16be f920 41be 258b 87be
00000040: 0ee9 0dbe 23d5 f5bd db83 a53d 9b01 d6bd
00000050: 02cd fa3c b3c2 b93c 26bb 97be e09a efba
00000060: f222 03be 1354 bdbd acf2 00bc f50b 35be
00000070: 2f5f 80bd 13f2 a53d 2e32 21be 6849 56bd
00000080: 3283 c1be f0e2 72be 2d5c 0fbe 176e 003e
00000090: 5e38 2cbe 8540 95bd 03ce 14be 9885 efbc
000000a0: 1fb2 37be db36 01be 082c 30bc 42d9 f2bd
000000b0: b449 3dbd 37e7 3c3e 4c5a b2bd 9380 9dbd
000000c0: 39fa aa3e ed2e 083d ff4d ac3e 0c38 99bb
000000d0: 7df7 f93e 2a7f 5dbe f34c b23d 8f11 933e
000000e0: 561c a23d 6cf2 31bb 45b3 4e3e aacc 8d3c
000000f0: f691 eb3d 0b04 06bf f069 653d 58f5 1b3e
00000100: f3bc b8bd 3f0d a5bd 62ba a63e 17b7 7a3d
00000110: beae d2be 5960 18be c628 22be f837 9e3d
00000120: a611 dbbc 0245 b3be f83f b9be 1ac4 0ebc
00000130: 1772 943e 0171 d63d 9ecb 023e d44d 133e
00000140: ab42 f8be fd15 3ebc b67b d43c 06b3 62bc
00000150: d44f aa3d 92b2 1a3d 4ebf acbc 4391 99bd
00000160: 5045 88bd 9121 0c3d 7f06 a0be 9f7d ae3d
00000170: 7b51 b03e b4ec 4b3d 182c 443e 5fd6 8e3c
00000180: a110 053f d7ba df3e c3f2 bd3d 9b2b 373e
00000190: 7bcb 563e 4251 353e 9f1b 09bd 028f 0a3a
000001a0: c521 a63c 97d9 d6bd 9d94 25be fee4 8d3d
000001b0: 908f 823e e7af e53e e7b1 5e3e 9737 853d
000001c0: 9fad 38be 1969 a13e 8b64 a4be ebe9 a7bd
000001d0: 6e95 1d3e 80cb 45bc deb1 99be d747 68be
000001e0: 3580 1f3d 7cf0 22be 402d 8a3b 1622 973d
000001f0: 1e2b 283d ed69 9cbe f698 d8bc f4f5 343d
00000200: 5f51 8b3c e043 3ebd f548 fd3d 2688 f1bd
00000210: 9ad8 b1bc 4b54 44bd 060d 843d 7da9 283e
00000220: 1b14 d23d b1fc 7bbe e5db 213e 0ac7 013e
00000230: b726 8ebe d0a2 a23d 42ab afbe e960 8c3e
00000240: 8f11 27be e5dd ebbe 6bc5 75be 16b8 aabe
00000250: f96f 5cbc e88e 15bf 0b46 793d 7ea0 e73c
00000260: 6667 ebbb 8884 8bbc 4fbd e63d 6c01 b33c
00000270: e72b 13be 5f78 bfbd 9955 9dbe dbd5 49be
00000280: 0b15 3cbe 96ef b53e bb5e 493e 1afd 793e
00000290: 67a4 693e 1db7 af3e ce55 eebd 909c 0a3f
000002a0: 850b 383e 5d46 4fbd a972 5ebe 66ff 1bbd
000002b0: c719 053d 0170 493d 5471 13bc 0bd5 5fbc
000002c0: ed7f 183a 405b 313d 320d 51bd e2a3 d5bc
000002d0: a8aa 543e c7c8 d03c fb49 87be cf21 ed3c
000002e0: 4a43 1c3e b5e9 923e e050 943d 95ff 343e
000002f0: fc5d 8a3e 51c3 2d3e 9a88 d8bd f650 503d
00000300: 1364 4ebe 3f0b 60bd dc59 39be afa2 0b3e
00000310: 389b b43d 51b0 0ebe 3ec0 c43d 8827 183e
00000320: ccf4 df3e 6d1e ebbc 5e43 80ba 0bb0 efbd
00000330: cb06 9abe 351b 9d3e 5fe0 a9bc aba1 24be
00000340: da6f d1be ade2 c4be 80d3 c73d eb9b 723d
00000350: cadc 1abe cbe9 4dbe d11d 7fbd e8a4 293d
00000360: 8146 debc e38d 7a3c e5b1 d4bc 9500 303d
00000370: c97a d9bd 52a0 d83c 87ac ad3c 7c06 cb3d
00000380: 8156 52bd d706 c2bd 5405 8fbd 3497 623e
00000390: eb30 9ebb 4c0c e6bd c883 71bd 374e 3b3e
000003a0: b12f 04be 4f46 b43e 993c 74bd c596 c73e
000003b0: 9200 8c3e f335 9cbc d279 f0bc 002e a2be
000003c0: 0e5a 2e3d be89 623e e136 0abf 1b92 243d
000003d0: 4abf c23d 77e4 8b3d 130a 22be e403 9b3e
000003e0: 9ce2 a5be 59a8 41be ee2d 0bbe b20f cabe
000003f0: e482 923e c9d3 86bc 2018 bc3d 7a95 233d

a1.bias f4 [16]
0.04740346 -0.08872831 -0.056941725 -0.13728899 0.13296203 -0.11312106 0.033015583 -0.110943496
-0.14530262 0.10418908 -0.05852428 0.099147104 -0.06802859 -0.06812439 0.25622943 0.2222541
00000000: 212a 423d 30b7 b5bd ba3b 69bd 7c95 0cbe
00000010: 3327 083e 04ac e7bd 593b 073d 5836 e3bd
00000020: 36ca 14be 1661 d53d 28b7 6fbd a30d cb3d
00000030: 9352 8bbd cd84 8bbd 8130 833e 9496 633e

a2.weight f4 [16, 16, 3, 3]
-0.06607878 -0.32709867 -0.12678741 0.30890512 0.14035831 -0.2045506 0.07730859 -0.19208245
0.15333006 -0.036681786 0.14026897 0.02138769 -0.14346929 0.15787211 -0.16679958 -0.033260938
0.15295221 -0.048231892 -0.0784663 -0.17875744 -0.28059128 -0.4427106 -0.10080542 0.0073025706
-0.07736074 -0.41771558 0.09855247 -0.7074343 0.25493246 -0.3109604 0.54132456 -0.20966738
0.20994401 0.09647446 0.078641675 0.06688257 0.0069384295 -0.39500922 -0.072074145 0.02123507
-0.030105378 -0.16506787 -0.47759318 -0.24821886 -0.198918 0.056263585 -0.20694073 -0.14075845
0.21645682 0.07239687 0.13912585 -0.37393218 0.14869043 0.16906857 -0.1729115 0.04729874
0.049299635 0.35999736 0.33511302 0.045587353 0.08031999 -0.0124941105 -0.004747904 0.2991288
-0.20857953 -0.07284409 -0.25641757 -0.025196683 -0.12161797 -0.12897435 -0.091703765 0.22543609
0.21637362 0.10098485 0.015445905 -0.0008018169 -0.005677214 0.20263593 -0.20106347 0.39227313
0.1096612 0.066708885 0.24721414 -0.019941546 -0.19495706 0.15992153 0.4370097 0.1448897
0.055055164 0.16979775 -0.16213478 -0.072984695 -0.13419504 0.116444424 0.22378317 -0.34468746
0.07455429 0.0039426526 0.18456078 -0.33882415 -0.060700968 -0.030384073 -0.14696315 -0.15462165
0.014994027 0.51222944 0.03477035 -0.15705988 -0.046383426 -0.11944968 0.05578673 -0.0061079324
0.5177571 -0.30151632 0.5137543 0.22962847 -0.20008583 0.1873988 -0.34164104 -0.46588734
0.054596797 0.410684 0.1418373 0.21907656 -0.1684482 0.029002162 -0.08762464 -0.6282584
-0.06915862 -0.059415895 -0.028400378 -0.24567565 -0.043825466 -0.18517931 0.13574272 -0.31757957
-0.0053612674 -0.15795043 -0.10466132 -0.19018576 0.5012314 -0.22859396 0.023958681 0.031888966
-0.16889891 -0.040814582 0.0753434 -0.1265951 -0.15500303 0.011801966 -0.12626167 -0.051375255
-0.13702294 -0.015787372 -0.070901476 0.19081482 -0.09106406 -0.14803666 0.026746025 0.07664852
0.092333764 0.07162423 0.11803132 0.019826284 0.18258515 -0.02711745 0.16859087 0.12978022
-0.03389981 0.083047464 0.09987846 -0.14421648 0.17164697 0.25678977 -0.04998431 -2.1227357e-05
-0.047622778 0.062312182 -0.10877609 0.31963944 0.28043348 -0.17339265 0.15197544 0.118129835
0.10749661 -0.10427082 0.16852981 -0.08698111 -0.07596666 -0.11797807 0.12670292 0.17971434
0.022779565 0.017931148 -0.055037547 0.055101015 0.09871861 -0.15848298 -0.079678714 -0.061364327
-0.112442195 -0.07578065 -0.008917075 -0.00458193 -0.106402576 -0.19666688 0.036731888 0.08073018
0.20172514 0.09191435 -0.16812558 0.10614505 0.026055075 0.13556457 -0.041419636 0.38123086
-0.043423686 -0.12103376 0.07218361 -0.35303065 0.124372505 -0.10235042 -0.23013966 0.2972188
-0.060978014 -0.067453176 -0.08747844 0.10433139 0.07171783 0.05019127 0.0666684 -0.008420894
-0.07115043 -0.14870514 0.18035962 0.12542 -0.11419379 0.027996888 -0.24092768 0.2109625
-0.06345829 0.16602902 -0.23249452 0.039637625 0.40778863 0.11460864 0.0048927814 0.09958506
0.24686854 -0.21500842 -0.22964157 -0.20983054 -0.049929444 0.32750332 -0.017801037 -0.09128759
00000000: 5054 87bd 7a79 a7be 8fd4 01be d028 9e3e
00000010: 17ba 0f3e b675 51be f753 9e3d 43b1 44be
00000020: 8e02 1d3e a43f 16bd aba2 0f3e 3d35 af3c
00000030: 9de9 12be 3aa9 213e 82cd 2abe 9f3c 08bd
00000040: 819f 1c3e ce8e 45bd f1b2 a0bd 310c 37be
00000050: a9a9 8fbe f7aa e2be 1273 cebd 674a ef3b
00000060: 4f6f 9ebd d1de d5be e1d5 c93d 6a1a 35bf
00000070: 8286 823e 3436 9fbe 3f94 0a3f 0cb3 56be
00000080: 90fb 563e 6794 c53d e30e a13d bbf9 883d
00000090: c45b e33b a63e cabe 9c9b 93bd 2bf5 ad3c
000000a0: 8e9f f6bc 8d07 29be 1887 f4be 162d 7ebe
000000b0: 29b1 4bbe a574 663d 45e8 53be fc22 10be
000000c0: dba6 5d3e cf44 943d 0277 0e3e 0a74 bfbe
000000d0: 4e42 183e 5020 2d3e b60f 31be 53bc 413d
000000e0: 6aee 493d 9351 b83e ef93 ab3e ceb9 3a3d
000000f0: cf7e a43d 19b4 4cbc 4e94 9bbb 6927 993e
00000100: df95 55be 482f 95bd 2a49 83be 4669 cebc
00000110: d812 f9bd da11 04be 2fcf bbbd b8d8 663e
00000120: 0c91 5d3e 25d1 ce3d d210 7d3c 0531 52ba
00000130: ec07 babb cb7f 4f3e 95e3 4dbe 06d8 c83e
00000140: 0d96 e03d ab9e 883d b425 7d3e 745c a3bc
00000150: d3a2 47be 78c2 233e bcbf df3e f75d 143e
00000160: 8681 613d 76df 2d3e a906 26be 0079 95bd
00000170: 6d6a 09be 6a7a ee3d 6a27 653e e07a b0be
00000180: ebaf 983d 5e31 813b 80fd 3c3e 5c7a adbe
00000190: 94a1 78bd 05e8 f8bc 827d 16be 2355 1ebe
000001a0: 82a9 753c 7821 033f 5b6b 0e3d 4ed4 20be
000001b0: 8cfc 3dbd 09a2 f4bd a080 643d 0d25 c8bb
000001c0: bb8b 043f 5960 9abe 6785 033f ba23 6b3e
000001d0: 4de3 4cbe 79e5 3f3e 93eb aebe c988 eebe
000001e0: e4a0 5f3d 2c45 d23e cc3d 113e 9b55 603e
000001f0: af7d 2cbe f195 ed3c 8c74 b3bd 8bd5 20bf
00000200: 09a3 8dbd 155e 73bd e9a7 e8bc 6692 7bbe
00000210: 5582 33bd a59f 3dbe 2400 0b3e ca99 a2be
00000220: 92ad afbb c2bd 21be ad58 d6bd 0ec0 42be
00000230: b350 003f 8914 6abe ff44 c43c 019e 023d
00000240: d6f3 2cbe 312d 27bd a44d 9a3d 25a2 01be
00000250: 1db9 1ebe 085d 413c bd4a 01be dc6e 52bd
00000260: be4f 0cbe 8554 81bc cb34 91bd f664 433e
00000270: cb7f babd ec96 17be 7b1a db3c e6f9 9c3d
00000280: 7c19 bd3d b9af 923d 68ba f13d bb6a a23c
00000290: 9af7 3a3e 6a25 debc 16a3 2c3e 1be5 043e
000002a0: 87da 0abd ca14 aa3d 148d cc3d 7cad 13be
000002b0: 39c4 2f3e f379 833e 59bc 4cbd 6711 b2b7
000002c0: 1a10 43bd 0f3b 7f3d 00c6 debd c8a7 a33e
000002d0: fa94 8f3e d88d 31be 739f 1b3e 0eee f13d
000002e0: 2f27 dc3d f18b d5bd 1493 2c3e 2723 b2bd
000002f0: 6994 9bbd 7d9e f1bd 69be 013e 0907 383e
00000300: 369c ba3c 58e4 923c 0d6f 61bd 9ab1 613d
00000310: fc2c ca3d 5d49 22be 982e a3bd 2959 7bbd
00000320: 1848 e6bd e332 9bbd ec18 12bc 0424 96bb
00000330: 98e9 d9bd 0b63 49be 2d74 163d dd55 a53d
00000340: 0991 4e3e 973d bc3d 1d29 2cbe 9362 d93d
00000350: 7471 d53c 70d1 0a3e a3a7 29bd b130 c33e
00000360: 09dd 31bd 8ce0 f7bd 00d5 933d 6fc0 b4be
00000370: 03b7 fe3d 199d d1bd bba9 6bbe 102d 983e
00000380: 15c4 79bd e424 8abd e527 b3bd b2ab d53d
00000390: cce0 923d 5c95 4d3d 7189 883d caf7 09bc
000003a0: 51b7 91bd 2946 18be 31b0 383e 1a6e 003e
000003b0: 6fde e9bd bb59 e53c bfb5 76be 8e06 583e
000003c0: 6cf6 81bd 8303 2a3e 0b13 6ebe 105b 223d
000003d0: acc9 d03e efb7 ea3d a053 a03b 40f3 cb3d
000003e0: 1bcb 7c3e 2b2b 5cbe 2927 6bbe d1dd 56be
000003f0: d182 4cbd 84ae a73e 7bd3 91bc fdf4 babd

a2.bias f4 [16]
-0.09107452 -0.18780117 -0.09374896 -0.0363327 0.025520222 -0.15439172 0.0074880635 -0.024230365
0.12737499 -0.12224111 -0.1894369 -0.015842589 -0.14430341 0.04283617 0.1728602 0.10868586
00000000: 4785 babd f34e 40be 74ff bfbd 99d1 14bd
00000010: c90f d13c dd18 1ebe 6e5e f53b c27e c6bc
00000020: 976e 023e 8c59 fabd bffb 41be 51c8 81bc
00000030: 46c4 13be fb74 2f3d 4402 313e b196 de3d

a3.weight f4 [32, 16, 3, 3]
-0.13673235 0.35766175 -0.46539593 -0.07819325 -0.11666787 -0.09418789 -0.60864866 -0.0930177
0.16335496 -0.07271286 -0.09799831 -0.20585611 -0.034034207 0.19975166 0.18644573 -0.31240126
-0.19231907 -0.45021072 0.17405571 -0.054795463 0.14117792 0.120677084 0.20119923 -0.13570966
-0.10966975 0.094015226 -0.102301136 -0.23566948 0.18768287 0.17737341 0.07726473 -0.08024187
0.1568937 -0.07663415 -0.16034745 0.042240486 0.16714521 0.067548275 -0.10795783 -0.056506082
0.328818 -0.0790997 0.15392645 0.04593974 -0.045204893 0.122649245 -0.009503953 -0.12035351
0.28133807 -0.011897153 0.33792043 -0.39002684 -0.18299006 0.10725189 0.07129732 0.024865769
-0.19756791 -0.012163403 0.09427828 -0.12749453 0.07143507 0.30812925 0.052822985 0.15227254
0.0038975785 0.048133045 0.12243244 0.268726 -0.27929646 0.37584093 -0.10485578 -0.22814438
0.0027863085 0.1635114 -0.11508659 0.123106465 0.32804617 0.045583025 0.035793744 -0.27756155
-0.13199978 0.013713388 0.21641418 -0.064586215 0.24223325 -0.06137512 0.019225206 -0.14070125
-0.12702103 0.11503045 -0.015813673 0.05986784 -0.058877576 0.14195473 -0.33622792 0.38967785
0.05449837 -0.13593031 -0.24103275 -0.024613848 -0.24575707 -0.06829422 -0.18574952 0.3159023
-0.054203898 -0.18114041 0.26769793 -0.15279737 -0.07481022 -0.36869416 -0.3120841 0.21635908
-0.051199112 0.36443105 -0.5703118 0.042388283 -0.046321705 0.53831613 0.03448039 -0.018750861
0.28242496 -0.012263458 -0.11115806 0.1731619 -0.039635085 0.17537086 0.38538805 -0.23707809
-0.37958995 0.083658844 0.272983 -0.17761667 0.15052088 -0.15593259 -0.30515534 -0.023216031
0.09076844 0.086098984 0.028603006 0.4093028 -0.78885216 0.09343707 -0.27598724 -0.24554183
0.15187493 -0.07059033 0.45746383 0.111294895 0.0053446144 0.15934065 -0.11785882 -0.03947126
0.12114408 -0.07370993 -0.0757857 0.17168614 -0.17679463 -0.17680661 0.20141701 0.23323612
0.1387758 -0.18889365 -0.38939673 -0.018717948 -0.04157245 0.1989009 -0.07524946 -0.27231756
-0.18422942 0.040170178 -0.27479088 -0.18365438 -0.15931417 -0.119589575 -0.19977733 0.15557231
0.10247264 0.086574174 -0.1236116 0.13768792 -0.22244446 -0.105737634 -0.09134774 -0.22555271
-0.10845002 0.22788106 -0.09503279 -0.17478572 0.22965102 0.043873243 0.07479008 0.100175045
0.08547426 -0.036683165 0.32201523 -0.076546244 -0.054968238 0.12655827 -0.1674366 -0.21145964
0.13801874 -0.0329861 -0.22297826 0.14927274 0.099517375 0.21291196 0.22187349 -0.30602574
-0.06124549 -0.4476543 0.11270224 0.34200054 -0.11425445 -0.5814668 0.14022197 0.29450262
0.080859765 0.343311 -0.18280977 -0.28032365 -0.025592228 -0.42698878 -0.11971386 -0.17005043
0.0004918676 0.14435805 -0.09012527 -0.12808202 -0.0130560035 -0.052307233 -0.23072089 -0.017247163
0.19462822 0.046490155 0.27638197 -0.16436286 0.2940848 -0.21132459 -0.1653698 -0.24962325
-0.15067914 -0.4199307 -0.0765743 -0.34402764 -0.05691072 -0.067576565 -0.17499942 -0.07611432
0.17121784 -0.5794878 -0.25783262 0.17791301 0.2925366 -0.13701715 0.21193129 -0.26051164
00000000: 9103 0cbe 711f b73e 6048 eebe c823 a0bd
00000010: 90ef eebd 95e5 c0bd 66d0 1bbf 1080 bebd
00000020: 8646 273e 7bea 94bd 57b3 c8bd f2cb 52be
00000030: 7467 0bbd b38b 4c3e a1eb 3e3e 0ff3 9fbe
00000040: 4aef 44be 0582 e6be a93b 323e 3571 60bd
00000050: f290 103e 8c25 f73d 2c07 4e3e 79f7 0abe
00000060: 899a e0bd 0e8b c03d 4283 d1bd 5753 71be
00000070: f02f 403e 60a1 353e f93c 9e3d d955 a4bd
00000080: bea8 203e 5ef2 9cbd 1f32 24be 5c04 2d3d
00000090: 1d28 2b3e c056 8a3d ff18 ddbd ec72 67bd
000000a0: d55a a83e 06ff a1bd e59e 1d3e 4f2b 3c3d
000000b0: c428 39bd 872f fb3d 78b6 1bbc e77b f6bd
000000c0: 8b0b 903e 47ec 42bc e803 ad3e 99b1 c7be
000000d0: bf61 3bbe e1a6 db3d 5404 923d 4cb3 cb3c
000000e0: 3e4f 4abe 0349 47bc f914 c13d ed8d 02be
000000f0: 8d4c 923d 1ec3 9d3e ea5c 583d 55ed 1b3e
00000100: 846e 7f3b 2827 453d dcbd fa3d 7496 893e
00000110: f2ff 8ebe 396e c03e a1be d6bd ae9e 69be
00000120: 809a 363b 886f 273e 85b2 ebbd 3e1f fc3d
00000130: abf5 a73e 44b5 3a3d 769c 123d 8c1c 8ebe
00000140: f32a 07be 1eae 603c ae9b 5d3e c745 84bd
00000150: fe0b 783e 7a64 7bbd 2e7e 9d3c fd13 10be
00000160: cd11 02be 1695 eb3d ad8b 81bc fb37 753d
00000170: 9d29 71bd 955c 113e 1126 acbe db83 c73e
00000180: af39 5f3d 5131 0bbe 4ad1 76be fba2 c9bc
00000190: bea7 7bbe d7dd 8bbd 1f35 3ebe f2bd a13e
000001a0: e804 5ebd df7c 39be b40f 893e ea76 1cbe
000001b0: 1a36 99bd 7bc5 bcbe 7dc9 9fbe 3c8d 5d3e
000001c0: 29b6 51bd b596 ba3e f4ff 11bf 569f 2d3d
000001d0: d4bb 3dbd 16cf 093f 4f3b 0d3d 689b 99bc
000001e0: 019a 903e acec 48bc d6a6 e3bd 5a51 313e
000001f0: 6658 22bd 6b94 333e 9551 c53e 99c4 72be
00000200: 9d59 c2be 5455 ab3d 6ec4 8b3e 25e1 35be
00000210: 2522 1a3e cbac 1fbe 523d 9cbe 8c2f bebc
00000220: cee4 b93d aa54 b03d da50 ea3c 2390 d13e
00000230: 37f2 49bf ef5b bf3d 334e 8dbe 516f 7bbe
00000240: 1a85 1b3e aa91 90bd b338 ea3e 94ee e33d
00000250: e021 af3b 322a 233e f75f f1bd 9eac 21bd
00000260: 631a f83d 3bf5 96bd 8835 9bbd 7ece 2f3e
00000270: a709 35be cb0c 35be 4340 4e3e 73d5 6e3e
00000280: 3e1b 0e3e 566d 41be 025f c7be 6256 99bc
00000290: e047 2abd adac 4b3e 641c 9abd 356d 8bbe
000002a0: a3a6 3cbe 7c89 243d 64b1 8cbe e50f 3cbe
000002b0: 4123 23be 61eb f4bd 6e92 4cbe 594e 1f3e
000002c0: 2ddd d13d cd4d b13d 1428 fdbd 10fe 0c3e
000002d0: 7bc8 63be f98c d8bd 8614 bbbd 4af7 66be
000002e0: 0b1b debd a759 693e 8da0 c2bd 07fb 32be
000002f0: a329 6b3e 6eb4 333d 8b2b 993d 9328 cd3d
00000300: 210d af3d 1641 16bd 2edf a43e 47c4 9cbd
00000310: 6026 61bd 7e98 013e 8074 2bbe e088 58be
00000320: c954 0d3e 6f1c 07bd 6a54 64be f4da 183e
00000330: c4cf cb3d 9805 5a3e ce32 633e 68af 9cbe
00000340: 8ddc 7abd f232 e5be 6fd0 e63d b21a af3e
00000350: 3dfe e9bd 02db 14bf 5996 0f3e 0cc9 963e
00000360: ce99 a53d 76c6 af3e 7c32 3bbe 9586 8fbe
00000370: cba6 d1bc 469e dabe 8a2c f5bd b321 2ebe
00000380: adf0 003a 99d2 133e 9993 b8bd ef27 03be
00000390: d9e8 55bc 1c40 56bd 1942 6cbe ec49 8dbc
000003a0: 9f4c 473e 766c 3e3d f081 8d3e bd4e 28be
000003b0: 4892 963e 7965 58be b356 29be 3d9d 7fbe
000003c0: a24b 1abe 2801 d7be fdd2 9cbd 6424 b0be
000003d0: 371b 69bd 9565 8abd 0c33 33be d3e1 9bbd
000003e0: bb53 2f3e 5059 14bf a302 84be d42e 363e
000003f0: 5bc7 953e 394e 0cbe 8404 593e c861 85be

a3.bias f4 [32]
-0.22112307 0.07127764 0.09924141 -0.2950163 -0.28207105 0.035090744 0.10922347 -0.18685381
-0.36346295 -0.19237971 -0.16972357 -0.11544359 -0.52378845 -0.10972457 -0.11380375 0.3445662
0.26366794 -0.18123709 -0.12313407 -0.30106562 -0.048703052 -0.22639298 -0.074805245 -0.2135946
-0.059558455 0.21254468 0.2820691 -0.09315205 -0.0049279453 0.09484207 -0.061503544 -0.1721035
00000000: 166e 62be 03fa 913d 153f cb3d 600c 97be
00000010: 9e6b 90be 50bb 0f3d 8eb0 df3d 9b56 3fbe
00000020: d117 babe 30ff 44be 04cc 2dbe b06d ecbd
00000030: 0017 06bf 46b7 e0bd f111 e9bd fb6a b03e
00000040: 7cff 863e 3796 39be b72d fcbd 4625 9abe
00000050: da7c 47bd 90d3 67be 7e33 99bd 8bb8 5abe
00000060: 91f3 73bd 50a5 593e 5c6b 903e 81c6 bebd
00000070: 9a7a a1bb 8f3c c23d 24eb 7bbd e63b 30be

b1.weight f4 [32, 32, 3, 3]
-0.37996677 0.10116239 -0.12123856 -0.14081118 -0.09689553 -0.09127197 -0.036461774 -0.026379833
-0.24587366 0.00149346 -0.40932867 0.1253975 -0.2508549 -0.53707016 0.062018458 0.12828371
-0.38468507 0.37926102 -0.086410165 0.1858744 0.09260029 0.11274239 0.26402196 -0.007485324
-0.050778013 0.05757136 -0.11189865 0.2716146 0.24472933 0.24502513 0.14711425 -0.28160685
0.1229607 -0.16640124 -0.16804309 -0.24570778 0.20977728 -0.33436447 0.009521902 -0.039763834
0.05503232 -0.33055583 -0.056216337 -0.526707 0.037444673 0.49960962 -0.59009266 -0.038592983
0.24037322 -0.1479852 0.041246507 0.1129798 -0.06342559 -0.39862445 -0.22549717 -0.133488
-0.14343095 -0.037094127 0.119018495 -0.021120923 -0.053484987 -0.17739959 -0.11041658 -0.06192255
0.053410318 0.040944282 0.041649498 -0.16752945 -0.037700113 0.010142469 0.058243833 0.024395242
-0.14354755 -0.28514898 -0.3508153 -0.38341153 0.21164747 -0.026958333 -0.36812788 0.16287017
0.238968 0.19709614 -0.10080264 -0.13899116 0.21931075 0.1274506 0.3630265 0.5807729
-0.086997315 -0.060464323 -0.26922777 0.25862905 -0.21962303 0.17798239 0.20109256 -0.13003096
0.11964344 0.03008908 0.01680721 -0.22588843 -0.27972868 -0.49215695 0.28964987 -0.12490237
-0.37020728 0.23837295 0.13660176 -0.1496289 -0.23328649 -0.38288942 -0.1558769 -0.12547043
-0.08463818 0.22810803 -0.14893247 -0.32639715 -0.0442994 -0.0082339775 0.029431975 0.18390262
0.101274945 -0.0191703 -0.12500452 -0.012162958 -0.26976758 0.05907917 0.13629255 0.17700784
0.023907095 -0.02120982 -0.35396144 0.025755394 0.0047138887 -0.15249626 -0.08086788 0.0903952
0.024565924 -0.049572412 -0.20582128 0.04947973 -0.027341912 0.040664494 -0.3064121 0.058709677
-0.1892074 -0.023459544 0.0777015 0.18700266 0.32339638 0.1384422 0.043496124 -0.053819634
0.24202195 0.037861697 0.17630778 -0.446506 -0.019232191 -0.08604587 -0.5125853 -0.003728409
0.23538545 -0.12655856 0.24947742 -0.052718345 -0.058198497 0.056741245 -0.49019936 -0.19692586
-0.08537736 -0.119481966 -0.118146576 -0.24915625 0.37563223 -0.2879738 0.16671091 0.1848571
-0.0645537 -0.14687262 0.26751536 -0.16513024 0.013079417 -0.1176343 0.1114396 0.027128264
-0.078037485 -0.014083026 0.20269443 0.11884381 0.22840671 0.096767604 -0.31463468 -0.15171495
0.16541836 0.1302292 0.21175665 -0.03264763 -0.20752214 -0.16508226 -0.14094779 0.10522352
0.06043326 -0.14444546 0.1335315 0.09259229 0.19244082 -0.40782994 -0.09140889 -0.17107312
0.2007633 -0.26740265 -0.23061639 -0.03861583 -0.15466744 -0.07611158 0.31129158 0.10721914
0.3102433 -0.30693564 -0.24887505 -0.3378465 0.0052259355 0.07914032 -0.019037051 0.17711577
0.04851578 0.22200176 0.065672204 -0.4536766 -0.057039555 0.0016103063 0.23662128 -0.12393302
0.34686348 0.09913234 0.4768791 -0.06824309 -0.247207 0.104830965 -0.03740675 0.013665001
0.043860186 0.29778028 -0.3729314 0.21670365 -0.06503544 -0.07588541 -0.75892806 -0.27864823
-0.024748342 -0.012163803 0.21959753 -0.005429766 0.34058595 -0.051308222 -0.46072492 0.076758355
00000000: 018b c2be 3a2e cf3d ec4b f8bd ce30 10be
00000010: 2a71 c6bd ccec babd f158 15bd 851a d8bc
00000020: 4ec6 7bbe 34c0 c33a 8793 d1be 3468 003e
00000030: 0e70 80be 6e7d 09bf 1107 7e3d ce5c 033e
00000040: 71f5 c4be 802e c23e d0f7 b0bd dc55 3e3e
00000050: 39a5 bd3d 7be5 e63d e32d 873e 7347 f5bb
00000060: 9bfc 4fbd f2cf 6b3d 1f2b e5bd 1211 8b3e
00000070: 539a 7a3e dee7 7a3e 1ea5 163e c62e 90be
00000080: d2d2 fb3d 1665 2abe 7d13 2cbe d29a 7bbe
00000090: dbcf 563e d231 abbe c001 1c3c 67df 22bd
000000a0: 9269 613d 9d3e a9be 1a43 66bd 45d6 06bf
000000b0: 965f 193d d5cc ff3e 5010 17bf ad13 1ebd
000000c0: 6624 763e 6f89 17be 19f2 283d f461 e73d
000000d0: 47e5 81bd 8118 ccbe bbe8 66be 14b1 08be
000000e0: 90df 12be 03f0 17bd f8bf f33d c905 adbc
000000f0: 1313 5bbd 3da8 35be 1722 e2bd 80a2 7dbd
00000100: c7c4 5a3d 31b5 273d aa98 2a3d d78c 2bbe
00000110: 6f6b 1abd 992c 263c 1691 6e3d 88d8 c73c
00000120: 21fe 12be 0cff 91be 109e b3be 844e c4be
00000130: 1dba 583e b9d7 dcbc 427b bcbe 70c7 263e
00000140: 07b4 743e 92d3 493e 9d71 cebd b353 0ebe
00000150: ff92 603e 6982 023e 9cde b93e 88ad 143f
00000160: a62b b2bd 70a9 77bd 39d8 89be 076b 843e
00000170: dce4 60be 0441 363e 35eb 4d3e d626 05be
00000180: 9f07 f53d 607d f63c 46af 893c 4c4f 67be
00000190: 9938 8fbe fffb fbbe fd4c 943e d0cc ffbd
000001a0: cf8b bdbe 0a18 743e 55e1 0b3e 5238 19be
000001b0: a7e2 6ebe 150a c4be 329e 1fbe 527b 00be
000001c0: c856 adbd 2795 693e c181 18be 871d a7be
000001d0: 4a73 35bd cee7 06bc 531b f13c f850 3c3e
000001e0: 3d69 cf3d 080b 9dbc 2f01 00be 2547 47bc
000001f0: fa1e 8abe 00fd 713d 4690 0b3e 8b41 353e
00000200: d0d8 c33c 37c0 adbc 6f3a b5be fafc d23c
00000210: f776 9a3b fb27 1cbe 0f9e a5bd 1e21 b93d
00000220: 7a3e c93c 710c 4bbd d0c2 52be 42ab 4a3d
00000230: 25fc dfbc d08f 263d 0ce2 9cbe 8f79 703d
00000240: 96bf 41be 3b2e c0bc f721 9f3d a07d 3f3e
00000250: 3694 a53e cbc3 0d3e fe28 323d fa71 5cbd
00000260: 9ad4 773e de14 1b3d 078a 343e 6f9c e4be
00000270: d48c 9dbc d138 b0bd ca38 03bf 5358 74bb
00000280: e208 713e 9198 01be 0277 7f3e 31ef 57bd
00000290: 8c61 6ebd 8269 683d 69fb fabe efa6 49be
000002a0: 53da aebd f6b2 f4bd d5f6 f1bd d122 7fbe
000002b0: de52 c03e 4d71 93be 44b6 2a3e 2e4b 3d3e
000002c0: bb34 84bd c765 16be c6f7 883e e717 29be
000002d0: 0d4b 563c 40ea f0bd 723a e43d 183c de3c
000002e0: 1ed2 9fbd 7ebc 66bc 218f 4f3e 6264 f33d
000002f0: 73e3 693e 182e c63d cc17 a1be 2a5b 1bbe
00000300: 6e63 293e ce5a 053e bcd6 583e 85b9 05bd
00000310: af80 54be 530b 29be 9e54 10be 6e7f d73d
00000320: de88 773d 83e9 13be 7bbc 083e 07a1 bd3d
00000330: 350f 453e 16cf d0be 9634 bbbd cb2d 2fbe
00000340: e594 4d3e 00e9 88be b426 6cbe a22b 1ebd
00000350: 2461 1ebe 63e0 9bbd 9c61 9f3e b595 db3d
00000360: 36d8 9e3e ab26 9dbe 1ad9 7ebe 37fa acbe
00000370: 533e ab3b 5214 a23d 97f3 9bbc d65d 353e
00000380: 7cb8 463d 6e54 633e 267f 863d 4d48 e8be
00000390: 4fa2 69bd ea10 d33a d94c 723e 98d0 fdbd
000003a0: 1798 b13e e505 cb3d 7f29 f43e 08c3 8bbd
000003b0: d523 7dbe 9eb1 d63d d237 19bd 2be3 5f3c
000003c0: bda6 333d a876 983e ddf0 bebe 90e7 5d3e
000003d0: 4d31 85bd cf69 9bbd 1c49 42bf fbaa 8ebe
000003e0: 09bd cabc b04a 47bc 2dde 603e 2eec b1bb
000003f0: 4861 ae3e 9228 52bd 23e4 ebbe 7c33 9d3d

b1.bias f4 [32]
-0.06522531 -0.19847344 -0.39516693 -0.22425812 0.49662852 -0.12327794 -0.15334022 0.013032746
-0.12996697 -0.43745837 -0.3288681 0.10379749 -0.2726422 -0.30268854 0.060709514 -0.1809115
-0.12479143 -0.5253599 -0.16915539 0.23383415 -0.16661559 -0.29645267 0.4696707 -0.4592376
-0.043747786 -0.16023688 -0.092565134 -0.6430239 -0.06134824 -0.012524882 0.1075021 -0.14830992
00000000: d994 85bd 9f3c 4bbe 5253 cabe eca3 65be
00000010: 1846 fe3e 2579 fcbd 3805 1dbe 4c87 553c
00000020: 1016 05be 8bfa dfbe 6661 a8be c793 d43d
00000030: c297 8bbe fef9 9abe 8aaa 783d dd40 39be
00000040: a692 ffbd fd7d 06bf 1237 2dbe 3872 6f3e
00000050: 479d 2abe a5c8 97be ae78 f03e 3121 ebbe
00000060: e130 33bd 2315 24be ca92 bdbd 379d 24bf
00000070: 4b48 7bbd 2a35 4dbc 102a dc3d 8ede 17be

b2.weight f4 [32, 32, 3, 3]
0.20716476 0.0791529 -0.022478841 0.14080118 -0.18010773 0.32592583 -0.1592808 -0.0653631
0.12414492 0.2548523 -0.06360266 -0.1170171 -0.077360414 -0.095799245 -0.20622589 0.09627851
0.11931498 -0.44283107 -0.17755288 0.21588996 -0.44375157 0.028253065 -0.22088538 0.14104277
-0.17887843 -0.13289468 -0.19816576 0.45304543 -0.081937075 0.11693959 0.5520224 -0.047258075
-0.19948713 -0.057415828 -0.45738074 -0.08629506 -0.10985195 0.07418011 -0.28279847 0.016513227
0.19632435 -0.2836017 -0.5230413 0.16093744 0.25228128 0.5339418 -0.38690063 -0.11074503
-0.28199393 -0.10114665 -0.35277694 0.15862082 0.4804536 0.75560087 0.045024224 -0.27885503
0.12283159 -0.16171801 -0.038064614 -0.10314602 0.13438168 0.14146207 -0.26971593 0.3213512
-0.13762255 -0.152162 -0.08480926 0.027715132 0.05519781 0.024663249 0.14074706 -0.16489846
-0.03989385 -0.21065395 0.22445105 0.023387725 -0.032260276 -0.124569215 -0.13759777 0.08052093
-0.31612793 -0.31429595 -0.3712965 -0.20975715 0.178124 -0.11869093 0.32896107 0.43973657
0.04434023 -0.016817484 -0.022634035 -0.19927336 -0.12238444 -0.18532814 -0.17164586 -0.23926018
0.36005142 0.25979427 -0.26247117 0.116637364 -0.06842133 0.16197672 -0.1931609 0.13978995
-0.2041625 -0.35506552 0.18755628 -0.18707591 -0.2533483 -0.17319961 0.023998337 0.12975286
-0.11460003 -0.21398158 -0.36566454 0.11582864 0.07440941 -0.32705027 -0.11295238 -0.54438484
-0.009278058 -0.29593515 0.14648508 -0.14405489 -0.04369892 -0.3372745 0.23041563 -0.05066164
-0.11547387 -0.013870383 -0.4898786 0.04493463 -0.19497769 0.2158055 0.055513274 -0.124907754
-0.054290947 -0.09797076 0.24218836 -0.49818444 0.093918644 -0.00039846305 0.20805849 0.06360424
0.29442716 -0.047684066 -0.06405908 0.03035635 -0.1169015 0.17985399 0.071740635 0.27311006
-0.10320318 -0.0030510293 -0.058520205 0.14155784 0.14135484 0.032807857 0.1239681 -0.18158129
0.10070614 -0.1775665 -0.07079367 0.08866283 -0.059854824 -0.07181398 -0.11240256 -0.2642779
-0.20886457 -0.14853005 -0.022608077 0.27894434 0.012913319 -0.11203736 0.06631322 0.19634666
0.17929938 -0.083031185 0.06792668 -0.07342713 0.007920244 -0.25408098 -0.006389243 0.19328758
-0.10296717 -0.014156737 -0.32582992 -0.042608626 -0.31086305 -0.24408774 -0.1848887 0.05783891
0.17225772 0.19111845 0.3487532 -0.11986346 -0.26982158 -0.033330828 0.27450186 -0.30164906
0.08526082 0.08384212 -0.0277687 0.16846612 -0.72251576 0.3331611 -0.073440924 -0.33423868
-0.10252315 -0.21410064 -0.07151956 -0.46285677 0.7181694 0.12173435 0.0003142684 0.1848719
-0.0063123927 -0.108603664 -0.08743089 0.06763693 -0.18255815 -0.009905718 0.26712334 0.1731673
-0.25423682 0.0383544 -0.15183993 0.21653831 -0.022757549 0.27204582 -0.1208082 -0.09762878
-0.20180993 0.1351665 0.07789929 -0.09879508 0.09123357 -0.0052881897 0.08134324 0.17575985
-0.38898247 -0.29981813 -0.22255258 0.1388102 -0.19466908 0.40986878 0.19926327 -0.102741174
-0.29557088 -0.047944907 -0.5097936 0.16213065 0.030748833 0.1423421 0.24491856 0.0055837315
00000000: 0023 543e ea1a a23d 8c25 b8bc 2f2e 103e
00000010: 296e 38be c0df a63e 821a 23be 17dd 85bd
00000020: b13f fe3d 007c 823e 1d42 82bd a9a6 efbd
00000030: 236f 9ebd 6532 c4bd e12c 53be ab2d c53d
00000040: 6a5b f43d c1ba e2be 6cd0 35be 4212 5d3e
00000050: 6833 e3be f972 e73c c72f 62be 846d 103e
00000060: e82b 37be 8b15 08be f7eb 4abe 92f5 e73e
00000070: a0ce a7bd 067e ef3d 5751 0d3f af91 41bd
00000080: 5b46 4cbe dc2c 6bbd cf2d eabe 77bb b0bd
00000090: 0ffa e0bd beeb 973d f6ca 90be bf46 873c
000000a0: 4009 493e 3e34 91be 09e6 05bf c9cc 243e
000000b0: 032b 813e 69b0 083f d717 c6be 4ace e2bd
000000c0: 8261 90be fa25 cfbd 2e9f b4be 7f6d 223e
000000d0: 04fe f53e 0f6f 413f 526b 383d 16c6 8ebe
000000e0: 218f fb3d 6899 25be a4e9 1bbd 383e d3bd
000000f0: 5a9b 093e 6fdb 103e 3518 8abe 2588 a43e
00000100: edec 0cbe 5bd0 1bbe 7ab0 adbd d80a e33c
00000110: 1917 623d 950a ca3c ff1f 103e 24db 28be
00000120: bc67 23bd abb5 57be 7fd6 653e 9d97 bf3c
00000130: 5a23 04bd 251e ffbd 6ee6 0cbe 28e8 a43d
00000140: 85db a1be 66eb a0be 931a bebe 94ca 56be
00000150: 2366 363e 3b14 f3bd 966d a83e 2725 e13e
00000160: 1a9e 353d d2c4 89bc 036b b9bc 510e 4cbe
00000170: b1a4 fabd a9c6 3dbe efc3 2fbe 9f00 75be
00000180: a958 b83e c103 853e 9f62 86be 92df ee3d
00000190: 7b20 8cbd 3add 253e f9cb 45be 1925 0f3e
000001a0: f90f 51be 26cb b5be c10e 403e d490 3fbe
000001b0: deb6 81be 3d5b 31be 2998 c43c efdd 043e
000001c0: 6cb3 eabd fd1d 5bbe 6238 bbbe 9137 ed3d
000001d0: f663 983d 2273 a7be 9453 e7bd ce5c 0bbf
000001e0: ff02 18bc d084 97be 2f00 163e 2083 13be
000001f0: a4fd 32bd 3eaf acbe 13f2 6b3e 9482 4fbd
00000200: 907d ecbd 9a40 63bc 5ed1 fabe 600d 383d
00000210: 3ba8 47be 1efc 5c3e e361 633d a3cf ffbd
00000220: 2f60 5ebd e5a4 c8bd 3a00 783e 0812 ffbe
00000230: 6b58 c03d cee8 d0b9 490d 553e f142 823d
00000240: 28bf 963e 5e50 43bd 6831 83bd e1ad f83c
00000250: 0e6a efbd a52b 383e c1ec 923d 15d5 8b3e
00000260: 305c d3bd c7f3 47bb e2b2 6fbd 8af4 103e
00000270: 53bf 103e 8861 063d fde2 fd3d 72f0 39be
00000280: 053f ce3d fed3 35be 46fc 90bd dc94 b53d
00000290: 552a 75bd 3513 93bd 5033 e6bd 6f4f 87be
000002a0: 98e0 55be 4318 18be 9334 b9bc cbd1 8e3e
000002b0: 6392 533c d873 e5bd 3acf 873d 190f 493e
000002c0: 429a 373e 410c aabd 251d 8b3d f760 96bd
000002d0: e9c3 013c e716 82be db5c d1bb 2eed 453e
000002e0: 74e0 d2bd a9f1 67bc 2ed3 a6be 6286 2ebd
000002f0: 7129 9fbe 23f2 79be 7753 3dbe 7ee8 6c3d
00000300: 5464 303e 8eb4 433e c88f b23e f97a f5bd
00000310: 0e26 8abe e885 08bd 828b 8c3e bf71 9abe
00000320: 3a9d ae3d 6bb5 ab3d 2f7b e3bc 6282 2c3e
00000330: cbf6 38bf 1794 aa3e 3268 96bd 5521 abbe
00000340: a8f7 d1bd 333d 5bbe d978 92bd 90fb ecbe
00000350: f3d9 373f dc4f f93d 64c4 a439 0f4f 3d3e
00000360: 30d8 cebb 996b debd f70e b3bd 3b85 8a3d
00000370: 86f0 3abe 984b 22bc 64c4 883e c552 313e
00000380: 542b 82be 8119 1d3d ed7b 1bbe 38bc 5d3e
00000390: 0a6e babc 9749 8b3e 4a6a f7bd 99f1 c7bd
000003a0: 43a7 4ebe 1669 0a3e aa89 9f3d 1355 cabd
000003b0: aad8 ba3d 8d48 adbb 4997 a63d 64fa 333e
000003c0: b628 c7be c381 99be d3e4 63be 4324 0e3e
000003d0: 5557 47be 52da d13e ac0b 4c3e f769 d2bd
000003e0: 1155 97be e161 44bd d581 02bf 9405 263e
000003f0: fae4 fb3c 21c2 113e eecb 7a3e bcf7 b63b

b2.bias f4 [32]
0.10864005 -0.6335914 -0.40168524 -0.54091275 -0.13804574 -0.45515746 -0.31287348 -0.33906785
0.3013578 0.035421558 0.01688931 -0.26212144 -0.2775442 -0.48551854 -0.113677055 0.1282421
-0.1492559 -0.35023904 -0.11969886 -0.20540671 -0.13258612 0.22124769 -0.41566652 0.25783914
-0.43142965 0.23983616 0.09798332 0.04861217 -0.5564805 -0.10752487 0.26999334 -0.09688375
00000000: ad7e de3d 0c33 22bf b0a9 cdbe 4279 0abf
00000010: dd5b 0dbe 660a e9be f430 a0be 4d9a adbe
00000020: 924b 9a3e 3216 113d 735b 8a3c c834 86be
00000030: 461a 8ebe e395 f8be 84cf e8bd e651 033e
00000040: 8ad6 18be 8852 b3be ad24 f5bd 2356 52be
00000050: a8c4 07be c18e 623e 3ed2 d4be 7e03 843e
00000060: 59e4 dcbe 9c97 753e 7bab c83d 8e1d 473d
00000070: 8275 0ebf 0036 dcbd 913c 8a3e fd6a c6bd

b3.weight f4 [64, 32, 3, 3]
-0.19302225 -0.002388021 -0.035492394 -0.16087212 -0.03607281 -0.11440357 -0.0070133274 -0.45507014
0.019248761 0.0904631 -0.19942279 0.20539354 -0.045976304 0.14757149 -0.3428632 -0.25625795
-0.15912355 -0.24628425 -0.21903898 -0.21736649 0.008099765 0.081978835 -0.16468188 -0.37730777
0.12374033 0.37057042 -0.13093868 -0.045209296 -0.13872622 0.111226216 0.09179515 0.2402757
-0.22292139 0.03931219 -0.100171424 0.33265287 0.06642056 -0.05466768 0.006248689 -0.5801043
0.08976237 0.45433217 -0.22511585 0.32306385 0.066463135 -0.11557243 0.5295353 0.16774125
0.19342487 -0.20892186 0.33305562 -0.23031014 -0.135082 -0.34161326 0.015116825 0.04790325
-0.20652822 0.07530189 0.104293406 -0.0062813107 -0.041561075 -0.12027686 0.031207763 -0.18088299
-0.07879146 0.21728332 -0.06414001 -0.02631722 -0.5238779 0.19015537 0.3846177 -0.19723079
-0.057692163 0.07343062 -0.10499912 -0.055285085 0.024850689 -0.08247172 -0.003446524 -0.27767545
0.23060381 -0.23660545 0.15834053 0.12571634 0.03341824 0.3527027 -0.2640144 -0.34655148
-0.58516514 -0.07570167 -0.07995495 -0.30090106 -0.19571865 0.05666788 0.014979709 0.10733301
-0.38080937 -0.025194477 -0.18552756 0.18063995 0.0038157767 -0.0748706 0.2624335 0.011075657
0.13981836 0.005316392 0.4390486 0.259894 0.03927641 0.15665306 0.22689328 0.117175184
-0.11588234 -0.42079672 -0.06311868 -0.015621878 0.1333408 -0.020294778 -0.08165071 0.13417757
-0.027925726 0.39731717 0.2758176 -0.058531273 0.013646268 0.24689466 0.21333858 -0.3552172
0.038765006 0.26209113 -0.10972083 0.11667625 0.040991914 -0.10630874 -0.50972766 -0.13088821
-0.21943383 0.14126974 -0.09810325 -0.22778013 -0.5511347 -0.18643844 0.025976952 -0.083230205
0.20918302 -0.38651645 -0.26272336 0.22783673 -0.28720304 0.11055629 -0.178654 -0.18565208
-0.4741606 -0.12389417 0.073842295 0.33614126 0.11929954 0.06989683 -0.27506724 -0.28591633
-0.057339165 -0.5001464 0.39408225 0.12826876 0.0902762 -0.018321233 -0.33578405 -0.24670424
-0.14140949 -0.18479735 -0.13447806 0.13035092 -0.22134405 0.0468891 -0.0198074 -0.4508804
0.1325681 -0.00588031 -0.025161859 -0.06608538 0.13279837 0.0046734633 -0.12483667 0.28765944
-0.107323475 0.20527674 -0.23254773 0.28730562 -0.058387354 -0.09669923 -0.1763533 0.033372022
-0.37385848 0.11250675 0.054035004 -0.08332134 0.023593694 -0.118425384 -0.46775115 -0.18069312
0.071062945 0.21669906 0.14329039 -0.05962013 0.15617372 -0.3303074 -0.1403832 -0.022232283
0.02618232 -0.3320128 0.045278605 -0.16214898 0.16234756 0.027525846 -0.44370735 0.073275074
-0.040028386 -0.1912073 0.19237328 -0.0078004827 -0.26018083 -0.113929555 -0.0026031244 0.17490111
-0.11888989 -0.03840448 -0.10455421 0.26341724 0.547168 0.12666789 0.11486777 0.13983007
0.2630935 0.09058227 0.07591054 0.05133188 0.047261897 0.011667374 0.32531154 0.21238315
-0.18942423 -0.47104177 0.16928491 -0.07896129 -0.05630389 -0.03172851 0.06613805 -0.009646697
0.05079269 -0.049805343 -0.2725166 0.33225396 0.037473712 0.015097469 0.2729828 0.06738432
00000000: a0a7 45be 5880 1cbb 7960 11bd a9bb 24be
00000010: 15c1 13bd 6b4c eabd 0ed0 e5bb f4fe e8be
00000020: 94af 9d3c b844 b93d 7d35 4cbe af52 523e
00000030: a651 3cbd fb1c 173e c48b afbe 3e34 83be
00000040: 49f1 22be f031 7cbe c14b 60be 5295 5ebe
00000050: e0b4 043c 85e4 a73d 5ea2 28be 7c2e c1be
00000060: 926b fd3d 68bb bd3e ca14 06be 622d 39bd
00000070: 3f0e 0ebe 92ca e33d 18ff bb3d d50a 763e
00000080: 8145 64be d205 213d ad26 cdbd 7a51 aa3e
00000090: 8107 883d 38eb 5fbd cdc1 cc3b b781 14bf
000000a0: 55d5 b73d 3a9e e83e c584 66be a068 a53e
000000b0: d31d 883d 3db1 ecbd a08f 073f 5dc4 2b3e
000000c0: 2b11 463e 9def 55be 4486 aa3e 6cd6 6bbe
000000d0: f052 0abe efe7 aebe 8fac 773c 3336 443d
000000e0: 227c 53be e137 9a3d c897 d53d 74d3 cdbb
000000f0: f23b 2abd b753 f6bd 6ca7 ff3c 6439 39be
00000100: 6b5d a1bd 857f 5e3e d65b 83bd 3697 d7bc
00000110: dd1c 06bf 17b8 423e 9cec c43e def6 49be
00000120: 9e4e 6cbd cb62 963d c709 d7bd 9d72 62bd
00000130: ac93 cb3c efe6 a8bd 14df 61bb 7a2b 8ebe
00000140: 6823 6c3e b348 72be 0524 223e c9bb 003e
00000150: 90e1 083d 7395 b43e e52c 87be 326f b1be
00000160: 62cd 15bf 7a09 9bbd 6cbf a3bd b40f 9abe
00000170: 786a 48be 941c 683d 746d 753c 69d1 db3d
00000180: 72f9 c2be a664 cebc f0fa 3dbe aef9 383e
00000190: 1c12 7a3b c255 99bd af5d 863e ac76 353c
000001a0: 8b2c 0f3e 2135 ae3b faca e03e d410 853e
000001b0: 4de0 203d a969 203e b656 683e 8bf9 ef3d
000001c0: b853 edbd ab72 d7be 5e44 81bd e8f2 7fbc
000001d0: 7e8a 083e 3c41 a6bc 7d38 a7bd d865 093e
000001e0: 7ec4 e4bc 286d cb3e f737 8d3e 7dbe 6fbd
000001f0: 9994 5f3c f4d1 7c3e 6e75 5a3e 07df b5be
00000200: 0ec8 1e3d cf30 863e 51b5 e0bd f5f3 ee3d
00000210: 23e7 273d 66b8 d9bd 837d 02bf 8f07 06be
00000220: 43b3 60be 04a9 103e 5bea c8bd 323f 69be
00000230: 2a17 0dbf b8e9 3ebe 9ecd d43c 9974 aabd
00000240: 1334 563e 7ce5 c5be ad83 86be 084e 693e
00000250: 470c 93be 566b e23d 13f1 36be 941b 3ebe
00000260: 2ec5 f2be 3abc fdbd a13a 973d b51a ac3e
00000270: 5153 f43d 1226 8f3d 9dd5 8cbe a063 92be
00000280: 79dc 6abd 9809 00bf 26c5 c93e e358 033e
00000290: bae2 b83d 6916 96bc e3eb abbe 09a0 7cbe
000002a0: a6cd 10be 843b 3dbe 9eb4 09be b67a 053e
000002b0: 04a8 62be c90e 403d 2143 a2bc ccd9 e6be
000002c0: efbf 073e 9eaf c0bb 3e20 cebc c657 87bd
000002d0: 4cfc 073e da23 993b 5eaa ffbd 1948 933e
000002e0: 69cc dbbd 1134 523e fe20 6ebe b919 933e
000002f0: 9427 6fbd 3f0a c6bd f695 34be 1ab1 083d
00000300: 616a bfbe f069 e63d cf53 5d3d 61a4 aabd
00000310: 9047 c13c 0289 f2bd 147d efbe 9e07 39be
00000320: 7389 913d 5ce6 5d3e b7ba 123e 3d34 74bd
00000330: 01ec 1f3e 0d1e a9be 9dc0 0fbe 7a20 b6bc
00000340: 4e7c d63c 95fd a9be 0f76 393d 620a 26be
00000350: 703e 263e e27d e13c 9c2d e3be 3e11 963d
00000360: cef4 23bd d9cb 43be 80fd 443e 319b ffbb
00000370: 6c36 85be e653 e9bd 2e99 2abb 4719 333e
00000380: 8b7c f3bd 044e 1dbd 8520 d6bd a0de 863e
00000390: 3413 0c3f 3ab5 013e cb3f eb3d 9d2f 0f3e
000003a0: 31b4 863e 3283 b93d fc76 9b3d 6141 523d
000003b0: b195 413d 8328 3f3c 3c8f a63e f87a 593e
000003c0: 6df8 41be 632c f1be 0659 2d3e 75b6 a1bd
000003d0: e89e 66bd c1f5 01bd 6373 873d 2e0d 1ebc
000003e0: ff0b 503d b000 4cbd 4c87 8bbe 311d aa3e
000003f0: 097e 193d 605b 773c 67c4 8b3e ca00 8a3d

b3.bias f4 [64]
0.10378746 0.11760371 -0.055399742 -0.033288453 0.032075 -0.20568277 0.059640646 0.06048287
-0.24929687 -0.1343892 -0.15818147 0.15167443 0.04766128 0.21678847 -0.19184276 -0.09549653
-0.03552063 -0.01368463 -0.019746976 0.15303378 -0.05491003 -0.28355804 -0.008160434 0.18288153
0.19458893 -0.20107456 -0.4491292 -0.11108244 0.29540098 -0.10238382 0.053001296 -0.09043952
-0.17073186 -0.09539245 -0.06454622 0.106357016 -0.06457958 -0.28793317 0.11942316 -0.08875983
0.037799392 0.032221545 0.22711772 0.3153182 -0.11780757 -0.12161276 0.1492733 -0.122256175
-0.23535916 -0.21433908 -0.045103755 0.038567867 -0.05646912 0.070832305 0.029353544 -0.073658936
0.11154835 0.16553889 -0.11148821 -0.028781107 -0.22606222 0.055034287 -0.06403591 -0.41672912
00000000: 858e d43d 37da f03d d7ea 62bd 7959 08bd
00000010: 1361 033d 819e 52be c049 743d e3bc 773d
00000020: ae47 7fbe 539d 09be 53fa 21be 8b50 1b3e
00000030: 7938 433d ccfd 5d3e 6e72 44be af93 c3bd
00000040: 157e 11bd 8035 60bc 69c4 a1bc e3b4 1c3e
00000050: 57e9 60bd 852e 91be 57b3 05bc 4c45 3b3e
00000060: 5242 473e 7de6 4dbe 43f4 e5be 317f e3bd
00000070: cc3e 973e 9cae d1bd e317 593d 5b38 b9bd
00000080: 55d4 2ebe 1e5d c3bd cf30 84bd b5d1 d93d
00000090: 4d42 84bd fa6b 93be 2194 f43d b7c7 b5bd
000000a0: 89d3 1a3d bdfa 033d 8c91 683e 6371 a13e
000000b0: 1845 f1bd 1c10 f9bd 1adb 183e 7261 fabd
000000c0: fe01 71be b47b 5bbe b7be 38bd 57f9 1d3d
000000d0: 2a4c 67bd 8710 913d d876 f03c 7fda 96bd
000000e0: 7673 e43d 0783 293e ee53 e4bd 5bc6 ebbc
000000f0: db7c 67be a26b 613d 4225 83bd 855d d5be

c1.weight f4 [64, 64, 2, 2]
-0.070888184 0.018944517 -0.4157941 0.046558652 0.040345304 0.013156255 -0.06667959 0.04615853
-0.005257894 -0.08822047 -0.0075313877 0.09796396 -0.021668902 0.08385225 -0.010498057 0.06572192
0.064477324 -0.4886818 -0.3824149 -0.06507722 0.07942747 -0.1421806 -0.14042564 -0.11646434
0.24234186 -0.32385105 0.20381467 -0.17031999 -0.06726099 -0.067470714 -0.21475446 0.045421638
-0.013438698 0.18593346 -0.061673235 0.33134514 0.13099694 -0.4933005 0.2029272 -0.1946994
-0.03257203 -0.2251107 -0.13807131 -0.062073227 -0.124578856 -0.0686603 0.20562603 0.014521802
0.34767684 -0.5518191 -0.21491496 -0.10984211 -0.0003552759 -0.03989532 0.094381884 0.066443175
-0.032614734 0.24800114 -0.056256447 -0.07146113 -0.26973465 0.13971938 -0.10379804 0.34358293
0.060481694 -0.15000136 -0.80876225 -0.15036087 -0.3232103 0.014535558 -0.06017748 0.12706389
0.16627127 -0.08409304 0.121400066 -0.28999245 -0.32492405 0.18219869 -0.32499632 -0.07089548
0.0038288552 0.08419545 -0.08687796 0.035394605 0.25123322 0.33056527 0.10950788 -0.14202316
0.35323232 -0.10421671 -0.28727353 -0.35844165 -0.021430178 0.20384857 -0.3909051 0.13359427
0.045044173 -0.12638514 -0.013467795 -0.31318775 -0.010385764 -0.06343432 0.43343455 -0.13959181
0.12199813 -0.044146564 -0.30588254 -0.17076507 -0.06366293 -0.019427838 0.056384474 0.051748306
-0.19843984 0.13171369 -0.11871139 0.12683561 0.12764055 -0.1439318 -0.30024645 -0.2911968
-0.24960943 -0.2657354 0.17362808 0.32735226 0.035022546 -7.311255e-05 -0.0062525915 -0.017293744
-0.18436006 0.37329656 0.1947928 0.22116752 0.04670229 0.0055355337 -0.05691006 -0.019702017
0.33724737 0.10547438 0.10593126 -0.19155154 0.1129549 -0.34445173 -0.01955703 -0.032409534
0.1346951 0.022154083 0.15695868 0.01324858 -0.1156864 0.20707263 0.13112374 0.20249176
0.0027236396 0.22355822 0.03864063 0.22444423 -0.2652914 0.26524064 -0.34029385 0.04636472
0.06291964 -0.057658106 0.34039438 -0.21045117 -0.13166338 0.10770525 -0.20243749 0.018580062
-0.26454285 -0.03778036 0.2341543 0.075356305 -0.19208959 0.18372758 -0.18057571 0.15317698
0.034788407 -0.038539834 -0.0010630168 0.030602152 -0.015659614 -0.0573477 0.038888164 0.019339714
0.2976496 -0.3636781 -0.1900163 -0.39047128 0.21181074 -0.29408553 0.3007104 -0.23514566
-0.06444598 0.019247267 0.47747982 -0.048738267 -0.23686968 -0.11906404 0.16913836 0.16834596
-0.11230163 -0.16320418 -0.12068343 0.043396708 0.20955017 -0.285731 0.27345926 -0.30412126
0.14988013 -0.2546981 -0.36041665 -0.18052028 -0.10133071 -0.015413831 -0.22172876 -0.0458181
0.12738605 -0.0850869 -0.06252658 0.085374914 0.2822139 -0.22670582 0.28010243 -0.47827893
0.12406112 -0.16599226 0.1767417 -0.26507926 -0.24724309 0.26733553 0.12503567 0.2976011
0.0034348744 0.057328667 0.031089807 -0.0073873494 0.0631348 -0.031243159 -0.049938243 -0.06531855
0.074605204 -0.09148876 0.19757923 -0.066223174 0.3923787 -0.21384427 -0.07626926 -0.27140963
-0.101008855 0.24494976 -0.18981627 0.2862757 0.22469692 0.19665694 0.38174403 0.030873103
00000000: d32d 91bd 8831 9b3c f7e2 d4be 49b4 3e3d
00000010: 1e41 253d 558d 573c 4f8f 88bd ba10 3d3d
00000020: 694a acbb efac b4bd dcc9 f6bb 54a1 c83d
00000030: fb82 b1bc baba ab3d 0b00 2cbc 3799 863d
00000040: b00c 843d 8034 fabe e3cb c3be 3547 85bd
00000050: dfaa a23d cb97 11be bdcb 0fbe db84 eebd
00000060: 7728 783e cecf a5be cbb4 503e 5d68 2ebe
00000070: 21c0 89bd 162e 8abd 98e8 5bbe 0a0c 3a3d
00000080: fc2d 5cbc 5765 3e3e 139d 7cbd 12a6 a93e
00000090: 1024 063e e291 fcbe 26cc 4f3e 485f 47be
000000a0: 406a 05bd 6b83 66be 9162 0dbe 7f40 7ebd
000000b0: 3323 ffbd c59d 8cbd a18f 523e daec 6d3c
000000c0: b302 b23e 0444 0dbf ab12 5cbe e6f4 e0bd
000000d0: 5344 bab9 4669 23bd 4a4b c13d 5c13 883d
000000e0: 0797 05bd 03f4 7d3e 296d 66bd 375a 92bd
000000f0: a91a 8abe 9912 0f3e 1194 d4bd 1aea af3e
00000100: a7bb 773d f599 19be 0b0b 4fbf 33f8 19be
00000110: d27b a5be 8d26 6e3c a97c 76bd 091d 023e
00000120: 0443 2a3e f938 acbd 99a0 f83d e479 94be
00000130: 725c a6be 4b92 3a3e eb65 a6be a631 91bd
00000140: 88ed 7a3b aa6e ac3d 12ed b1bd eff9 103d
00000150: a4a1 803e da3f a93e ab45 e03d 856e 11be
00000160: deda b43e 926f d5bd 8415 93be aa85 b7be
00000170: 578e afbc aebd 503e b724 c8be f0cc 083e
00000180: 3d80 383d 1b6b 01be 07a8 5cbc 255a a0be
00000190: 0d29 2abc dae9 81bd 22eb dd3e 28f1 0ebe
000001a0: 28da f93d 07d3 34bd a39c 9cbe 0add 2ebe
000001b0: b661 82bd 2127 9fbc 68f3 663d 08f6 533d
000001c0: d033 4bbe f4df 063e f51e f3bd 32e1 013e
000001d0: 34b4 023e dc62 13be e7b9 99be bf17 95be
000001e0: 9d99 7fbe 780e 88be 8fcb 313e b79a a73e
000001f0: cd73 0f3d 0054 99b8 8ae2 ccbb 9cab 8dbc
00000200: e2c8 3cbe ba20 bf3e c477 473e bd79 623e
00000210: e74a 3f3d 6c63 b53b 861a 69bd 2066 a1bc
00000220: b0ab ac3e f402 d83d 7df2 d83d 1626 44be
00000230: e654 e73d fa5b b0be 1136 a0bc dcbf 04bd
00000240: 83ed 093e 7b7c b53c c7b9 203e 9210 593c
00000250: feec ecbd d90a 543e 4d45 063e 005a 4f3e
00000260: 177f 323b 72ec 643e a345 1e3d b5d4 653e
00000270: 46d4 87be 9fcd 873e ff3a aebe efe8 3d3d
00000280: 03dc 803d e82a 6cbd 2c48 ae3e 8380 57be
00000290: c4d2 06be 9294 dc3d c64b 4fbe 3735 983c
000002a0: 2972 87be 94bf 1abd 25c6 6f3e 6854 9a3d
000002b0: 22b3 44be 1523 3c3e d7e8 38be 6dda 1c3e
000002c0: 4a7e 0e3d f2db 1dbd ed54 8bba 5db1 fa3c
000002d0: 9748 80bc 6ce5 6abd 3249 1f3d 526e 9e3c
000002e0: 8765 983e 0434 babe a293 42be daeb c7be
000002f0: eae4 583e 6192 96be b7f6 993e 06ca 70be
00000300: 41fc 83bd 72ac 9d3c 3c78 f43e c7a1 47bd
00000310: f78d 72be d9d7 f3bd 9b32 2d3e e262 2c3e
00000320: 66fe e5bd ff1e 27be e028 f7bd bfc0 313d
00000330: 5294 563e 554b 92be da02 8c3e c8b5 9bbe
00000340: 2d7a 193e ca67 82be 8888 b8be 4fda 38be
00000350: 7a86 cfbd 4b8a 7cbc dd0c 63be c3ab 3bbd
00000360: 7d71 023e 0a42 aebd f00d 80bd 0bd9 ae3d
00000370: 577e 903e 9225 68be 9669 8f3e fae0 f4be
00000380: c213 fe3d e0f9 29be c7fb 343e 78b8 87be
00000390: 4b2d 7dbe 34e0 883e 5a09 003e 2c5f 983e
000003a0: a11b 613b 77d1 6a3d 0db0 fe3c 9411 f2bb
000003b0: d14c 813d a7f1 ffbc 0b8c 4cbd bbc5 85bd
000003c0: 9dca 983d 765e bbbd 3652 4a3e 04a0 87bd
000003d0: dce5 c83e fef9 5abe 0f33 9cbd 34f6 8abe
000003e0: bbdd cebd 1cd4 7a3e 325f 42be bb92 923e
000003f0: f316 663e 7060 493e f473 c33e 97e9 fc3c

c1.bias f4 [64]
0.31127793 -0.34179288 -0.031722005 -0.20262925 -0.2989351 -0.3224498 -0.08212068 -0.30944756
0.23021072 -0.017109342 0.32264182 -0.3966216 -0.3165256 0.13510148 -0.2419482 -0.46147618
-0.25268227 -0.11578954 -0.19595492 -0.12876283 -0.2988854 -0.24073336 -0.23885328 -0.042548332
0.13433886 -0.122643895 -0.33950412 0.21938713 -0.37039775 -0.32436174 0.13246211 0.088520795
-0.23947114 -0.09627497 0.19124664 -0.16890262 -0.1842983 -0.3495951 -0.3206344 -0.22893336
0.13043974 -0.27357912 0.11261272 -0.48241645 0.17994024 0.28685874 -0.14967431 -0.41362673
-0.20222029 -0.32896894 -0.009113706 -0.00016700051 -0.23535977 -0.35964563 0.3420112 -0.32760525
0.034990847 -0.34574443 -0.069112584 -0.16582136 -0.062456213 0.03770265 0.19921161 -0.25885347
00000000: d25f 9f3e 7aff aebe efee 01bd 0b7e 4fbe
00000010: 050e 99be 2418 a5be e32e a8bd e96f 9ebe
00000020: 5cbc 6b3e e428 8cbc 4f31 a53e fd11 cbbe
00000030: a50f a2be 0b58 0a3e 45c1 77be 9b46 ecbe
00000040: 925f 81be 1123 edbd 68a8 48be 67da 03be
00000050: 8207 99be ce82 76be f495 74be 2947 2ebd
00000060: 2090 093e b92c fbbd 7cd3 adbe 05a7 603e
00000070: c6a4 bdbe be12 a6be 26a4 073e 644a b53d
00000080: ec37 75be d02b c5bd 29d6 433e cff4 2cbe
00000090: b2b8 3cbe 21fe b2be 312a a4be 826d 6abe
000000a0: ff91 053e 9012 8cbe 7fa1 e63d 4aff f6be
000000b0: 4142 383e 26df 923e 3944 19be e2c6 d3be
000000c0: d612 4fbe 9e6e a8be a751 15bc dc1c 2fb9
000000d0: 2702 71be 7923 b8be 181c af3e e0bb a7be
000000e0: 9052 0f3d 6a05 b1be e68a 8dbd 13cd 29be
000000f0: 16d2 7fbd 186e 1a3d 21fe 4b3e 7188 84be
