nets/model_epoch_54.pth (torch, 648794 bytes, 25 tensors)

a1.weight f4 [16, 5, 3, 3]
0	0x3e0977ac	0.13424557
1	0x3e1647c4	0.14675814
2	0xbd78411c	-0.06060897
3	0xbdffae12	-0.12484373
4	0xbd11cd4e	-0.035596184
5	0x3e9e56fa	0.30925733
6	0xbe462307	-0.193493
7	0x3d591ebc	0.053007826
8	0xbec7c134	-0.3901459
9	0xbddf1da7	-0.108943276
10	0xbd7b0635	-0.061285216
11	0xbdc3fe8a	-0.09570034
12	0x3b923670	0.004462056
13	0xbe0beea5	-0.13665254
14	0xbe6f3965	-0.23361738
15	0xbea89019	-0.32922438
16	0xbdc0138e	-0.0937873
17	0xbe04117d	-0.12897296
18	0x3dc9f69d	0.09861491
19	0xbde81697	-0.11332434
20	0x3cb2cdc7	0.021826638
21	0x3d65caa6	0.056101464
22	0xbeba3709	-0.36370113
23	0x3d27010c	0.040772483
24	0xbdad3a45	-0.0845838
25	0xbe1d31c4	-0.15351015
26	0xbce2dc9c	-0.027693085
27	0xbe487d5c	-0.19579071
28	0xbd83a009	-0.06427009
29	0x3dac0865	0.08400039
30	0xbe08c870	-0.13357711
31	0xbd6a7667	-0.057241824
32	0xbefd5368	-0.49477696
33	0xbe20d149	-0.15704836
34	0xbe1e3d8f	-0.1545317
35	0x3de7830e	0.113042936
36	0xbe2c385e	-0.16818377
37	0xbdd4c6bb	-0.10389467
38	0xbe34911c	-0.1763348
39	0xbcef8598	-0.029238507
40	0xbe577538	-0.21040809
41	0xbe20f9f4	-0.1572035
42	0xbc302c08	-0.010752685
43	0xbdf2d942	-0.11857845
44	0xbd3d49b4	-0.046212867
45	0x3e5786d4	0.21047527
46	0xbdd7c7fe	-0.10536192
47	0xbd0311a5	-0.03199925
48	0x3eaa85f9	0.33305338
49	0x3d0073d7	0.031360473
50	0x3eb08e8a	0.3448375
51	0xbb42d0b6	-0.0029726452
52	0x3f081ebb	0.5317189
53	0xbe71c09e	-0.23608634
54	0x3d860713	0.06544318
55	0x3e9f6646	0.31132716
56	0x3d5050aa	0.050858177
57	0xbbee30dc	-0.007269008
58	0x3e3fccde	0.18730494
59	0x3b0c0dc0	0.00213705
60	0x3e0f3730	0.13985896
61	0xbf1ad2ae	-0.6047772
62	0x3d4b3b08	0.049616843
63	0x3e1521f1	0.14563729
64	0xbd6591bd	-0.05604719
65	0xbde1fedc	-0.11034939
66	0x3ec80146	0.39063472
67	0x3d6e9e67	0.058256533
68	0xbed99263	-0.42494497
69	0xbe1b989e	-0.15194938
70	0xbe1bf19c	-0.15228885
71	0x3df06a64	0.117390424
72	0xbc86c93f	-0.016453383
73	0xbec293bc	-0.38003337
74	0xbed5f40b	-0.41787753
75	0xbcf54c68	-0.02994366
76	0x3ea7fe40	0.32811165
77	0x3e05ac1d	0.13053937
78	0x3e09b562	0.13448098
79	0x3e3316e0	0.17489195
80	0xbf015b1a	-0.50529635
81	0x3b1a817c	0.0023575714
82	0x3cfd11f5	0.030892352
83	0xbbd66977	-0.006543334
84	0x3dae7029	0.085174866
85	0x3ce18252	0.027527962
86	0xbd0d2489	-0.03445867
87	0xbd8b4287	-0.067997985
88	0xbd9a99de	-0.07548879
89	0x3ccd34e5	0.025049636
90	0xbea33ba3	-0.31881437
91	0x3dd83664	0.10557249
92	0x3eb495ac	0.3527044
93	0x3c7a1c22	0.015265496
94	0x3e6058f7	0.21908937
95	0x3bad03fc	0.005280016
96	0x3f0fd7c6	0.5618862
97	0x3ee8e216	0.4548499
98	0x3de315c3	0.11088135
99	0x3e456e7f	0.19280432
100	0x3e739fac	0.23791379
101	0x3e3bee5a	0.18352643
102	0x3c3b0c84	0.011416558
103	0xbc4798b0	-0.0121824
104	0xbbcc32fa	-0.006231663
105	0xbde7cf1f	-0.11318802
106	0xbe1ed109	-0.15509428
107	0x3d5a2d0a	0.05326561
108	0x3e84cdf1	0.2593837
109	0x3eec7a35	0.46186987
110	0x3e83eeaa	0.25768024
111	0x3d61639a	0.055026628
112	0xbe50cff6	-0.20391831
113	0x3eaba241	0.33522227
114	0xbeac14b8	-0.33609557
115	0xbdca2266	-0.09869842
116	0x3e32a404	0.1744538
117	0xbcc5ecdb	-0.024160793
118	0xbe997bb1	-0.29977182
119	0xbe79cacb	-0.24393766
120	0x3d554dad	0.05207603
121	0xbe4133e6	-0.18867454
122	0xbca4ce21	-0.020117821
123	0x3d6b0fcd	0.057388116
124	0x3d4cf6c2	0.050040014
125	0xbea945b7	-0.33061
126	0xbc7ed0d0	-0.0155527145
127	0x3d15fc46	0.03661754
128	0x3c841936	0.016125303
129	0xbd035a2e	-0.032068424
130	0x3df0db3b	0.11760565
131	0xbde647bd	-0.11244152
132	0xbc99cb7e	-0.01877379
133	0xbd7d0a8e	-0.061777644
134	0x3d6b6f54	0.057479218
135	0x3e22e71b	0.15908472
136	0x3dcd8545	0.10035185
137	0xbe8617a0	-0.261899
138	0x3e2f38be	0.17111489
139	0x3e06de5d	0.13170762
140	0xbe9eec58	-0.3103969
141	0x3dbec9a5	0.093158044
142	0xbeb48138	-0.35254836
143	0x3e9748db	0.29547772
144	0xbe244e91	-0.16045596
145	0xbeea48d2	-0.45758682
146	0xbe6da441	-0.23207189
147	0xbeb92725	-0.36162677
148	0xbd3009f4	-0.042978242
149	0xbf286aec	-0.6578815
150	0x3d8cc32f	0.06873166
151	0x3c9eb152	0.019371662
152	0xbcdbfd00	-0.026854038
153	0xbcdd1fd7	-0.026992721
154	0x3de37d1a	0.111078456
155	0xb9a2c35d	-0.00031044605
156	0xbe2e5e3d	-0.17028137
157	0xbda4828b	-0.080327116
158	0xbea4f184	-0.32215512
159	0xbe29dcec	-0.16588181
160	0xbe3dfc70	-0.18553329
161	0x3ec82779	0.39092615
162	0x3e63eec4	0.2225905
163	0x3e8b1250	0.2716241
164	0x3e65c11e	0.2243695
165	0x3eb86988	0.36018014
166	0xbe0033ba	-0.12519732
167	0x3f1785f2	0.5918876
168	0x3e446c22	0.19181874
169	0xbd53a2c3	-0.051668894
170	0xbe82d722	-0.25554758
171	0xbd2e6fac	-0.042586967
172	0x3ccb14d8	0.024790213
173	0x3d63a8c5	0.055580873
174	0xbc5f199a	-0.013616944
175	0xbca34ee9	-0.019935088
176	0x3c03a5c5	0.008035128
177	0x3d33c3e4	0.043887988
178	0xbd56c63f	-0.052435156
179	0xbc9630ce	-0.018333819
180	0x3e430f8d	0.19048901
181	0x3cd9b21a	0.026574183
182	0xbe89a569	-0.2688401
183	0x3d471ec2	0.048613317
184	0x3e2fa7e3	0.17153887
185	0x3e9504d6	0.29105252
186	0x3d1f356d	0.03886931
187	0x3e545477	0.20735346
188	0x3e8b3cac	0.27194726
189	0x3e2f9210	0.17145562
190	0xbe12e81e	-0.14346358
191	0x3d5ec0b7	0.054383006
192	0xbe0fbaa0	-0.14036036
193	0xbd1e4ce6	-0.038647555
194	0xbe392269	-0.18079533
195	0x3e232950	0.15933728
196	0x3d88359a	0.06650849
197	0xbe3e0bdd	-0.18559213
198	0x3dbe3e3e	0.092892155
199	0x3e34350f	0.17598365
200	0x3eea7ce9	0.45798424
201	0xbd4593c2	-0.048236616
202	0xbc1911fa	-0.009342665
203	0xbe0f43bc	-0.13990682
204	0xbe9c1a6a	-0.30488902
205	0x3e9ed6b2	0.31023175
206	0x3c291408	0.010319717
207	0xbe2e7071	-0.1703508
208	0xbee894ca	-0.45426017
209	0xbed38ac1	-0.41316798
210	0x3e052e09	0.13005842
211	0x3d8dde7c	0.06927201
212	0xbe1caab6	-0.15299496
213	0xbe525bd7	-0.20542847
214	0xbd30b6bd	-0.043143023
215	0x3d8c2aaa	0.06844075
216	0xbca2dbca	-0.019880194
217	0x3ca85c4d	0.020551825
218	0xbc9bd0da	-0.019020487
219	0x3d2e7122	0.04258836
220	0xbdd6f96d	-0.10496793
221	0x3cd15bfb	0.025556555
222	0x3ca2f162	0.01989049
223	0x3dc701d7	0.09717148
224	0xbd506a3b	-0.05088256
225	0xbd8e3444	-0.069435626
226	0xbd9c0fbc	-0.076201886
227	0x3e6153f1	0.22004677
228	0x3caf8212	0.021424327
229	0xbde3a3c6	-0.11115222
230	0xbdb13d57	-0.08654278
231	0x3e4eb179	0.20184888
232	0xbe11c951	-0.14236952
233	0x3ec5a27a	0.38600522
234	0xbcff8203	-0.031189924
235	0x3ed5a2fb	0.41725907
236	0x3e8c6dec	0.27427614
237	0x3c611a25	0.0137391435
238	0xbc9aec2d	-0.018911446
239	0xbeb885b5	-0.3603951
240	0x3d80f4c4	0.06296685
241	0x3e74b767	0.23898087
242	0xbf13966d	-0.57651407
243	0x3d4aafd8	0.049484104
244	0x3d7b34af	0.06132954
245	0x3dcb63e8	0.09931165
246	0xbe3793a0	-0.17927408
247	0x3e9c4ade	0.3052587
248	0xbeb3f9be	-0.35151476
249	0xbe3df4ea	-0.18550459
250	0xbe032673	-0.12807636
251	0xbed9b3c4	-0.42519963
252	0x3e9a0863	0.30084524
253	0x3c79ab2b	0.0152385635
254	0x3db2e04a	0.08734186
255	0x3d1e02c8	0.03857687

a1.bias f4 [16]
0	0x3d57699b	0.052590948
1	0xbdcbd8cb	-0.09953459
2	0xbd75804f	-0.059936818
3	0xbe11df81	-0.14245416
4	0x3e17f31c	0.14838833
5	0xbdebd832	-0.11515845
6	0x3d21c660	0.039495826
7	0xbdeaeb7c	-0.11470696
8	0xbe17a483	-0.1480885
9	0x3db83bc4	0.089957744
10	0xbd57e6e1	-0.052710418
11	0x3de1c69e	0.11024211
12	0xbdb91629	-0.0903743
13	0xbd9fc319	-0.07800884
14	0x3e9259c6	0.28584117
15	0x3e67836e	0.2260873

a2.weight f4 [16, 16, 3, 3]
0	0x3bd8c465	0.006615209
1	0xbe8fd1f6	-0.28089875
2	0xbe3f8cb5	-0.18706019
3	0x3eb71e2f	0.35765216
4	0x3e33bdde	0.17552897
5	0xbe171697	-0.14754711
6	0x3d4c0265	0.04980697
7	0xbe21a3e1	-0.15785171
8	0x3e1e41be	0.15454766
9	0xbce0f312	-0.027459655
10	0x3e183495	0.14863808
11	0x3c7be188	0.015373595
12	0xbe13991a	-0.14413872
13	0x3e195dcd	0.14977188
14	0xbe645e72	-0.22301653
15	0xbc50c998	-0.012743376
16	0x3e2e76af	0.17037462
17	0xbdc383a1	-0.095465906
18	0xbd8258c3	-0.06364586
19	0xbe478357	-0.19483696
20	0xbea9a4e6	-0.3313362
21	0xbeec77b7	-0.46185085
22	0xbda121fb	-0.078678094
23	0xbb1a0028	-0.0023498628
24	0xbdd984b9	-0.10621018
25	0xbed9a65d	-0.42509738
26	0x3e092dfe	0.13396451
27	0xbf411444	-0.7542155
28	0x3ea0e7d8	0.31426883
29	0xbead49a3	-0.33845243
30	0x3f19c75f	0.6006984
31	0xbe83e6c4	-0.25761998
32	0x3e772114	0.24133712
33	0x3dca7ae5	0.098867215
34	0x3d956667	0.07294922
35	0x3da5d72d	0.08097682
36	0x3bc35d43	0.0059620454
37	0xbed0cefe	-0.40782923
38	0xbda99e32	-0.082821265
39	0x3d3374ec	0.043812677
40	0xbd509032	-0.050918765
41	0xbe4d5182	-0.20050624
42	0xbf07d620	-0.53061104
43	0xbe81b608	-0.2533419
44	0xbe482fed	-0.19549532
45	0x3dac3b51	0.08409751
46	0xbe7737ba	-0.24142352
47	0xbe0343a7	-0.12818776
48	0x3e82e4d6	0.25565213
49	0x3d38edbf	0.045148607
50	0x3e172403	0.14759831
51	0xbed630bb	-0.41834053
52	0x3e3688c2	0.17825606
53	0x3e311c84	0.17296034
54	0xbe5c21a1	-0.21497203
55	0x3d9215fd	0.071331
56	0x3ccf4423	0.025301045
57	0x3ed61487	0.41812536
58	0x3ea9f3fb	0.33193955
59	0x3d3305c6	0.043706678
60	0x3db3252f	0.087473266
61	0xbc9f7144	-0.019463189
62	0xbcb950d0	-0.022621542
63	0x3ea69ee0	0.32543087
64	0xbe6392cc	-0.22223967
65	0xbdac2b54	-0.08406702
66	0xbeae69d2	-0.3406511
67	0xbc3e5a91	-0.011618272
68	0xbe1e5bfd	-0.15464778
69	0xbe0f369a	-0.13985673
70	0xbdc6a441	-0.09699298
71	0x3e79f730	0.24410701
72	0x3e7fe4be	0.24989602
73	0x3de7fd47	0.11327606
74	0x3c605de9	0.013694265
75	0xbca8a5aa	-0.020586807
76	0xbba75165	-0.0051061385
77	0x3e635313	0.22199659
78	0xbe706ec5	-0.23479755
79	0x3edd7582	0.43253714
80	0x3e0d231f	0.13782929
81	0x3d5eae71	0.05436558
82	0x3e71c556	0.23610434
83	0xbd4d8b9c	-0.05018197
84	0xbe47aa5e	-0.19498584
85	0x3e33706b	0.17523353
86	0x3ef60b26	0.4805538
87	0x3e0a306e	0.13495037
88	0x3d5820ef	0.052765783
89	0x3e28d964	0.16489178
90	0xbe337223	-0.17524008
91	0xbd801665	-0.062542714
92	0xbe1528f9	-0.14566411
93	0x3df76d2a	0.12081368
94	0x3e743b33	0.23850708
95	0xbebaaad0	-0.36458445
96	0x3d74d571	0.059773866
97	0x3cb5550c	0.02213528
98	0x3e470c04	0.19438177
99	0xbeac0bf2	-0.33602864
100	0xbd8441c1	-0.06457854
101	0xbc958b83	-0.018255001
102	0xbe2d8ab7	-0.16947447
103	0xbe2cf252	-0.16889313
104	0x3c8c96da	0.017161775
105	0x3f10a84b	0.56506795
106	0x3d50e37c	0.050998196
107	0xbe289ce5	-0.164661
108	0xbd2e65f3	-0.042577695
109	0xbe1511a9	-0.14557518
110	0x3d784949	0.060616765
111	0x3c312c21	0.010813744
112	0x3f0dd163	0.55397624
113	0xbeb2f888	-0.3495524
114	0x3f0f6575	0.56014186
115	0x3e690629	0.22756256
116	0xbe55868e	-0.2085211
117	0x3e688fcb	0.22711103
118	0xbec3069c	-0.3809098
119	0xbf0cb285	-0.549599
120	0x3d3975fd	0.045278538
121	0x3ed8e015	0.4235846
122	0x3e28e2f4	0.16492826
123	0x3e76ae84	0.2409001
124	0xbe4380ed	-0.1909215
125	0x3d6d302f	0.05790728
126	0xbde456b6	-0.11149351
127	0xbf2b6bcd	-0.66961366
128	0xbdab8843	-0.08375599
129	0xbd5812bf	-0.052752253
130	0xbd1dbebc	-0.038511977
131	0xbe950881	-0.2910805
132	0xbdc132ef	-0.09433543
133	0xbe4ac4fd	-0.19801708
134	0x3e15fb72	0.146467
135	0xbebce8c0	-0.36896324
136	0x3c809637	0.015696628
137	0xbe47d18d	-0.19513531
138	0xbde2165c	-0.11039421
139	0xbe610b01	-0.21976854
140	0x3f0c046d	0.54694253
141	0xbe7e3a11	-0.24826838
142	0x3c7263bf	0.014794289
143	0x3c5cf5b3	0.013486314
144	0xbd658bb9	-0.056041453
145	0xbda4348a	-0.080178335
146	0xbcc691ae	-0.024239387
147	0xbe3de9b0	-0.18546176
148	0xbe58df00	-0.21178818
149	0xbc3d4c3e	-0.011553822
150	0xbe271d69	-0.16319813
151	0xbdbce207	-0.09222799
152	0xbe147cf7	-0.14500795
153	0xbd7cc9c5	-0.06171586
154	0xbddab160	-0.10678363
155	0x3e613dce	0.21996233
156	0xbdd73ad4	-0.105092674
157	0xbe22e470	-0.15907454
158	0xbbd38ba5	-0.006455856
159	0x3db0328f	0.08603393
160	0x3dfdedcb	0.12398871
161	0x3da937de	0.08262609
162	0x3deec290	0.116582036
163	0xbcc7a9b3	-0.024372911
164	0x3e3d2072	0.18469408
165	0xbca7e827	-0.020496441
166	0x3e378420	0.17921495
167	0x3e20f775	0.15719397
168	0x3ac7efe7	0.0015253992
169	0x3db77fb2	0.08959903
170	0x3da4af01	0.08041192
171	0xbe418539	-0.18898477
172	0x3e24e811	0.16104151
173	0x3e97350d	0.29532662
174	0x3b150df0	0.0022743903
175	0x3c01550f	0.007893815
176	0xbd977069	-0.073944874
177	0x3dc0d065	0.09414748
178	0xbe11df82	-0.14245418
179	0x3ead161d	0.33805934
180	0x3ea233c2	0.31680113
181	0xbe40194e	-0.18759653
182	0x3e2cbe06	0.16869363
183	0x3e2ac3a0	0.16676188
184	0x3de5f509	0.11228377
185	0xbd9f96af	-0.077924125
186	0x3e4b235c	0.19837707
187	0xbdbe1892	-0.0928203
188	0xbd673302	-0.05644513
189	0xbe211636	-0.15731129
190	0x3e14a1a9	0.14514793
191	0x3e4d6e2a	0.20061556
192	0x3cee56e5	0.029094169
193	0x3cb7213f	0.02235472
194	0xbd515fcd	-0.051116753
195	0x3d92eaac	0.07173666
196	0x3dbff4a8	0.09372836
197	0xbe2fd444	-0.17170817
198	0xbd8bdd37	-0.06829303
199	0xbd953b1c	-0.07286665
200	0xbe05f7bd	-0.13082786
201	0xbdce0cd9	-0.10061044
202	0xbcf8d39d	-0.030374343
203	0x3c7765c6	0.015099948
204	0xbdf22560	-0.11823535
205	0xbe44719d	-0.19183965
206	0xbb0550eb	-0.002034242
207	0x3db56d8a	0.088587835
208	0x3e692e25	0.22771509
209	0x3dc4cfc0	0.09609938
210	0xbe3559f0	-0.1771009
211	0x3e1556fd	0.14583965
212	0x3bcd7b6e	0.0062708175
213	0x3e24d03e	0.16095063
214	0xbd5771af	-0.05259865
215	0x3ed49f6a	0.41527873
216	0xbd2b40dc	-0.0418099
217	0xbdb349bf	-0.087543
218	0x3de6eb82	0.11275388
219	0xbec05b0d	-0.37569466
220	0x3deceb89	0.11568362
221	0xbdc935b3	-0.098246954
222	0xbe7ba5e1	-0.24574997
223	0x3ea3c68b	0.31987414
224	0xbd66b41c	-0.05632411
225	0xbd4b199c	-0.04958497
226	0xbdbc8225	-0.092045106
227	0x3daa8bdd	0.08327458
228	0x3d8d7137	0.0690636
229	0x3d9862a2	0.07440688
230	0x3d838915	0.06422631
231	0x3ad329c0	0.0016110465
232	0xbda50680	-0.080578804
233	0xbe21e552	-0.15810135
234	0x3e3c3ee1	0.18383361
235	0x3e16c8fc	0.14725107
236	0xbdbe852d	-0.09302745
237	0x3d5615ef	0.05226701
238	0xbe83e70c	-0.25762212
239	0x3e570f15	0.21001847
240	0xbd5abb24	-0.053401127
241	0x3e3ab87f	0.18234442
242	0xbe71d68f	-0.23617004
243	0x3d4ca999	0.04996643
244	0x3ed42e37	0.4144151
245	0x3e10e723	0.14150672
246	0x3c83a314	0.016068973
247	0x3dd58469	0.10425646
248	0x3e90dddf	0.28294274
249	0xbe6ad5b1	-0.2293308
250	0xbe6f8468	-0.23390353
251	0xbe61edea	-0.22063413
252	0xbd8d362b	-0.06895097
253	0x3ead52dc	0.3385228
254	0x3bdd2f80	0.006750047
255	0xbe04ca76	-0.12967858

a2.bias f4 [16]
0	0xbde0221e	-0.10944007
1	0xbe54fcb8	-0.2079953
2	0xbdde6d9c	-0.1086075
3	0xbccca7cc	-0.024982356
4	0x3d143442	0.03618265
5	0xbe27dc85	-0.16392715
6	0xbacf55c9	-0.0015818413
7	0xbc7e6d32	-0.015528964
8	0x3e059f05	0.13048942
9	0xbe10748d	-0.1410696
10	0xbe57da01	-0.21079256
11	0xbcb20b2a	-0.021733839
12	0xbe3955bf	-0.18099116
13	0x3d46e47c	0.048557743
14	0x3e3efc04	0.18650824
15	0x3e06a4b7	0.13148771

a3.weight f4 [32, 16, 3, 3]
0	0xbe476f6a	-0.19476095
1	0x3ecb1b7a	0.396694
2	0xbf061731	-0.5237914
3	0xbde0eafd	-0.109823205
4	0xbdfc91c1	-0.12332488
5	0xbdc6f867	-0.09715348
6	0xbf2219c2	-0.63320553
7	0xbd9a2356	-0.07526271
8	0x3e4494a8	0.19197333
9	0xbd85f4b8	-0.06540817
10	0xbdcfe9c7	-0.10152011
11	0xbe56e09a	-0.20984116
12	0xbd499499	-0.04921398
13	0x3e5b8e9d	0.21441121
14	0x3e3ddabe	0.18540475
15	0xbeb610dd	-0.3555974
16	0xbe5c22c7	-0.21497642
17	0xbf04d020	-0.51880074
18	0x3e093146	0.13397703
19	0xbd992b9a	-0.074790195
20	0x3e32ddc3	0.17467408
21	0x3e02b06c	0.12762612
22	0x3e58065f	0.2109618
23	0xbe12abf9	-0.14323415
24	0xbd92b05f	-0.07162546
25	0x3df4c91e	0.119524226
26	0xbe0302ab	-0.12793986
27	0xbea6dbed	-0.32589665
28	0x3e44de03	0.19225316
29	0x3e6f6dc1	0.23381712
30	0x3d82fcc1	0.06395865
31	0xbd9263e0	-0.07147956
32	0x3e166a46	0.14688978
33	0xbe004ef7	-0.12530123
34	0xbe1a837e	-0.15089223
35	0x3cd6ea9c	0.026234917
36	0x3e4674e8	0.19380534
37	0x3df33790	0.11875832
38	0xbe34a4e5	-0.17641027
39	0xbd79a9ba	-0.06095288
40	0x3eaf3315	0.3421866
41	0xbdabe199	-0.08392639
42	0x3e3f9f06	0.18713006
43	0x3d7ff847	0.062492635
44	0xbd139d28	-0.036038548
45	0x3dc7917c	0.09744546
46	0xbcabb855	-0.02096192
47	0xbe161969	-0.1465813
48	0x3e9b9a99	0.30391386
49	0xbd3d91db	-0.046281677
50	0x3eb5d3f0	0.35513258
51	0xbef1fc9e	-0.47263044
52	0xbe4dda3f	-0.20102786
53	0x3e18183a	0.14852992
54	0x3d22dfe0	0.039764285
55	0xba8d49e0	-0.0010779463
56	0xbe4a8cc1	-0.19780256
57	0x3d0bacf4	0.034100488
58	0x3dcec0d0	0.1009537
59	0xbe308bfb	-0.17240898
60	0x3dd4e859	0.10395879
61	0x3eb5fb64	0.35543358
62	0x3d88e3e1	0.066840895
63	0x3e1f8015	0.15576203
64	0x3d409a6f	0.04702228
65	0x3dac4b43	0.084127925
66	0x3e2ff736	0.17184147
67	0x3e97f43c	0.29678524
68	0xbe91fac5	-0.28511634
69	0x3ec88746	0.39165705
70	0xbe266653	-0.16249971
71	0xbe73d893	-0.23813085
72	0xbb6f88c8	-0.0036550034
73	0x3e548424	0.20753533
74	0xbe214e3d	-0.15752502
75	0x3dd9399d	0.10606692
76	0x3e9f25f6	0.3108365
77	0x3d4f3cca	0.050595082
78	0x3db1d600	0.086833954
79	0xbe940cfb	-0.28916153
80	0xbe1a8bf1	-0.15092446
81	0x38e97afc	0.000111332134
82	0x3e730320	0.23731661
83	0xbe06d43e	-0.13166901
84	0x3e8ebc0c	0.27877843
85	0xbdb11527	-0.086466126
86	0x3bfc17ac	0.0076932516
87	0xbe131168	-0.14362109
88	0xbe023b7a	-0.12718001
89	0x3ddb7059	0.10714788
90	0xbd9b5964	-0.07585409
91	0x3d97863a	0.073986486
92	0xbdb39a62	-0.087696806
93	0x3e0c72dd	0.13715692
94	0xbea3ed94	-0.32017195
95	0x3ed6b246	0.41932887
96	0x3d3a0a84	0.045420185
97	0xbe3444a2	-0.17604306
98	0xbe94da7b	-0.29072937
99	0xbcae1175	-0.021248559
100	0xbe849fa2	-0.2590304
101	0xbde0c8d8	-0.10975808
102	0xbe3f2379	-0.18665875
103	0x3ebb051c	0.36527336
104	0xbd5b2512	-0.05350215
105	0xbe59d018	-0.21270788
106	0x3e9619b4	0.29316485
107	0xbe212265	-0.15735777
108	0xbdb73db0	-0.08947313
109	0xbee0a1ad	-0.4387335
110	0xbe987427	-0.29776117
111	0x3e832663	0.25615224
112	0xbceba433	-0.02876482
113	0x3ebf4650	0.37358332
114	0xbf245290	-0.6418848
115	0x3d841dac	0.06450972
116	0xbd64c286	-0.055849575
117	0x3f0ea30b	0.55717534
118	0x3dc75dd0	0.0973469
119	0xbc0a9c45	-0.008460109
120	0x3eb95130	0.36194754
121	0xbcf59fac	-0.029983364
122	0xbe3519e2	-0.17685655
123	0x3e5c231c	0.21497768
124	0xbd36b2dd	-0.04460417
125	0x3ea5f784	0.32415402
126	0x3ed58e14	0.4170996
127	0xbe7f2a56	-0.24918494
128	0xbed53d68	-0.41648412
129	0x3d981c16	0.07427232
130	0x3e8f669a	0.28007966
131	0xbe45898f	-0.19290756
132	0x3dfe4bfc	0.124168366
133	0xbdf1b07f	-0.11801242
134	0xbea72704	-0.32646954
135	0xbc970905	-0.018436918
136	0x3db737d8	0.08946198
137	0x3dfa6221	0.12225748
138	0x3c803152	0.015648518
139	0x3ef49aee	0.47774452
140	0xbf5b246e	-0.8560246
141	0x3e48254a	0.19545475
142	0xbea002ea	-0.31252223
143	0xbe40fdea	-0.1884686
144	0x3e29bcb3	0.1657589
145	0xbdc3eaad	-0.09566245
146	0x3f064dfe	0.52462757
147	0x3e011843	0.12606911
148	0x3c92757e	0.01787829
149	0x3e3293e8	0.17439234
150	0xbe162cdb	-0.14665549
151	0xbd7b3090	-0.06132561
152	0x3df31ecd	0.11871109
153	0xbdce54c7	-0.10074764
154	0xbd8c8573	-0.06861391
155	0x3e538081	0.20654489
156	0xbe38c377	-0.18043314
157	0xbe2d46c8	-0.16921532
158	0x3e4c234c	0.1993534
159	0x3e745250	0.23859525
160	0x3e3629d3	0.17789392
161	0xbe4a1443	-0.19734292
162	0xbed1d2f3	-0.40981254
163	0xbd02ed8f	-0.031964835
164	0xbc66e854	-0.014093477
165	0x3e4a241f	0.19740342
166	0xbe15decf	-0.14635776
167	0xbe9b5fc3	-0.30346498
168	0xbe74a466	-0.23890838
169	0x3cf9dcbd	0.030500764
170	0xbeaeae39	-0.34117296
171	0xbe04c0e9	-0.12964214
172	0xbe035ae5	-0.12827642
173	0xbe3ab308	-0.18232358
174	0xbe29c293	-0.1657813
175	0x3e173041	0.14764501
176	0x3e1f12a5	0.15534456
177	0x3dcc08fe	0.099626526
178	0xbe01967d	-0.12655063
179	0x3e0e9321	0.13923313
180	0xbe88f8bb	-0.26752266
181	0xbe03590a	-0.12826934
182	0xbddb1bfb	-0.10698696
183	0xbe71fc37	-0.23631369
184	0xbdf9fcbe	-0.1220641
185	0x3e7276ed	0.23678179
186	0xbd922d22	-0.07137515
187	0xbe5952fe	-0.21223065
188	0x3e78e470	0.24305892
189	0x3db1a0db	0.08673259
190	0x3dd83ad3	0.10558095
191	0x3e1f4152	0.15552261
192	0x3dcb4324	0.099249154
193	0xbd0cdf73	-0.034392785
194	0x3eb32da3	0.34995756
195	0xbdca8c69	-0.09890062
196	0xbd7ce34d	-0.06174021
197	0x3e0f56d2	0.13997963
198	0xbe1d4a82	-0.15360454
199	0xbe392a3e	-0.1808252
200	0x3de5bbc1	0.11217452
201	0xbd8eed55	-0.06978861
202	0xbe553c5d	-0.20823808
203	0x3e1bf070	0.15228438
204	0x3e088ce6	0.13334998
205	0x3e5df719	0.21676292
206	0x3e924a24	0.2857219
207	0xbe818d9d	-0.25303355
208	0x3cbe8714	0.02325777
209	0xbf0c0c81	-0.5470658
210	0x3e0fc482	0.14039806
211	0x3eb3c5b0	0.3511176
212	0xbe0a5cc2	-0.13511947
213	0xbf363350	-0.71172047
214	0x3e08fff5	0.1337889
215	0x3e916101	0.2839432
216	0x3de2273f	0.11042642
217	0x3eac3e65	0.33641353
218	0xbe30a300	-0.1724968
219	0xbe9747cc	-0.29546964
220	0xbd3b5128	-0.045731694
221	0xbeec7b96	-0.4618804
222	0xbdec3c8a	-0.115349844
223	0xbe3f6667	-0.18691407
224	0x3cd0fbd9	0.025510715
225	0x3e335b4e	0.17515299
226	0xbe08d148	-0.13361084
227	0xbdebaed0	-0.11507952
228	0x3ada4028	0.00166512
229	0xbd0a5aac	-0.033777878
230	0xbe89458d	-0.26810876
231	0xbd015460	-0.031574607
232	0x3e616c54	0.2201398
233	0x3d54c98b	0.05195002
234	0x3e9cfec5	0.30663124
235	0xbe3b2463	-0.18275599
236	0x3e92df6b	0.2868608
237	0xbe778ec5	-0.24175556
238	0xbe48460c	-0.19557971
239	0xbe893512	-0.26798302
240	0xbe2701e5	-0.16309316
241	0xbedfea54	-0.43733466
242	0xbdb6083f	-0.088882916
243	0xbeba8ff8	-0.36437964
244	0xbc857c49	-0.016294615
245	0xbdd3a77b	-0.10334679
246	0xbe46c354	-0.1941045
247	0xbdf0344f	-0.11728727
248	0x3e2aba28	0.16672575
249	0xbf26d52d	-0.6516903
250	0xbe8a2d02	-0.26987463
251	0x3e52d728	0.20589888
252	0x3e9fe76b	0.31231245
253	0xbe0bc574	-0.13649541
254	0x3e5e134a	0.21687046
255	0xbe95f02b	-0.29284796

a3.bias f4 [32]
0	0xbe87f5c3	-0.2655469
1	0x3da6fd25	0.08153752
2	0x3df13150	0.11776984
3	0xbeb8fdb8	-0.36131072
4	0xbea1cde6	-0.316024
5	0x3d63971d	0.055564035
6	0x3e210b2d	0.1572692
7	0xbe3f569b	-0.18685381
8	0xbed6cb5a	-0.4195202
9	0xbe6fb871	-0.23410203
10	0xbe3a802b	-0.18212955
11	0xbe0135d3	-0.12618189
12	0xbf22ad0e	-0.6354531
13	0xbe02049e	-0.12697074
14	0xbdfea53b	-0.12433859
15	0x3ee2a637	0.44267437
16	0x3e9d0ee3	0.3067542
17	0xbe61407f	-0.2199726
18	0xbdf23c07	-0.118278556
19	0xbeb78395	-0.35842577
20	0xbd32a031	-0.0436098
21	0xbe934b1e	-0.28768247
22	0xbdb8d3fa	-0.09024806
23	0xbe82c93e	-0.2554416
24	0xbdb17f93	-0.08666911
25	0x3e806b19	0.2508171
26	0x3eaca7e0	0.33721828
27	0xbe02c8ab	-0.12771861
28	0xbbcbebb3	-0.006223166
29	0x3df0c9cd	0.117572404
30	0xbdba81ec	-0.09106812
31	0xbe467bc3	-0.19383149

b1.weight f4 [32, 32, 3, 3]
0	0xbedc6cae	-0.43051666
1	0x3e2e1975	0.17001899
2	0xbe1631c9	-0.14667429
3	0xbe1ead31	-0.15495755
4	0xbdd5e874	-0.104447275
5	0xbdef524d	-0.116856195
6	0xbd833387	-0.064063124
7	0x3c2ac493	0.0104228435
8	0xbead74d6	-0.338782
9	0xb83ffa98	-4.5771332e-05
10	0xbee620e9	-0.44946983
11	0x3e1c787a	0.15280333
12	0xbe9a3397	-0.30117485
13	0xbf16987c	-0.5882642
14	0x3d8bafa3	0.068206094
15	0x3df711a8	0.120639145
16	0xbede7568	-0.4344895
17	0x3eca0444	0.3945638
18	0xbda0625f	-0.07831263
19	0x3e4582e6	0.19288215
20	0x3d16486a	0.036690153
21	0x3e0e10bb	0.1387357
22	0x3e96d8f3	0.29462394
23	0xbd488fe2	-0.048965342
24	0xbc1f43b8	-0.009720735
25	0x3cc5f705	0.02416564
26	0xbdad24d2	-0.084542885
27	0x3e90dfee	0.28295845
28	0x3e701953	0.2344716
29	0x3e85a922	0.261056
30	0x3e0938db	0.13400595
31	0xbebb2d78	-0.36558127
32	0x3e6bdf54	0.23034412
33	0xbe565106	-0.20929345
34	0xbe592408	-0.21205151
35	0xbe9b0377	-0.3027608
36	0x3e7fec66	0.24992523
37	0xbed18cc9	-0.40927723
38	0x3abbbb2e	0.0014322752
39	0xbceb83b3	-0.028749323
40	0x3d643202	0.055711754
41	0xbec01df9	-0.37522867
42	0xbda984fc	-0.08277318
43	0xbf28d57b	-0.65950745
44	0x3c765647	0.015035219
45	0x3f070759	0.52745587
46	0xbf2f50b7	-0.68482536
47	0xbd5b5e2b	-0.053556602
48	0x3e5c306e	0.2150285
49	0xbe106764	-0.1410194
50	0x3d5761a8	0.052583367
51	0x3dc33e79	0.095334
52	0xbda246fc	-0.079236954
53	0xbefab652	-0.48967224
54	0xbe77fc4c	-0.24217337
55	0xbdce9f18	-0.100889385
56	0xbe887d15	-0.2665793
57	0x3c0e0bc9	0.008669802
58	0x3e0882d7	0.13331161
59	0xbdad60ff	-0.08465766
60	0xbd6068b3	-0.05478735
61	0xbdccd915	-0.100023426
62	0xbdc59186	-0.09646897
63	0xbd7da280	-0.06192255
64	0x3d5ac4c7	0.053410318
65	0x3d27b531	0.040944282
66	0x3d2a98aa	0.041649498
67	0xbe2b8cd7	-0.16752945
68	0xbd1a6b6f	-0.037700113
69	0x3c262c99	0.010142469
70	0x3d6e9116	0.058243833
71	0x3cc7d888	0.024395242
72	0xbe32e19d	-0.17468877
73	0xbe968a17	-0.2940223
74	0xbeabac3f	-0.3352985
75	0xbed76001	-0.42065433
76	0x3e85cb2b	0.26131567
77	0x3a948772	0.001133187
78	0xbebdb6af	-0.3705344
79	0x3e312ede	0.17303035
80	0x3e883f18	0.26610637
81	0x3e6b81ae	0.22998688
82	0xbe088cbb	-0.13334934
83	0xbdf9ae76	-0.12191479
84	0x3e771a1a	0.2413105
85	0x3dc00ceb	0.09377464
86	0x3ec0c033	0.37646636
87	0x3f2d451a	0.67683566
88	0xbddf2d83	-0.108973525
89	0xbd9f5f42	-0.07781841
90	0xbe623b74	-0.22092992
91	0x3e8095db	0.2511433
92	0xbe53f79f	-0.20699929
93	0x3e2eb238	0.17060173
94	0x3e60ae1c	0.21941417
95	0xbe3de17c	-0.18543047
96	0x3e070a3f	0.13187502
97	0xbcb62832	-0.022235963
98	0x3d6992a4	0.057024613
99	0xbe7fa634	-0.24965745
100	0xbebdc52c	-0.37064493
101	0xbf0c7242	-0.54861844
102	0x3eb22c97	0.34799644
103	0xbe0ce9be	-0.1376104
104	0xbeafb55c	-0.34318054
105	0x3e5e1600	0.2168808
106	0x3e179dbb	0.14806263
107	0xbe3075a9	-0.17232384
108	0xbe805b3c	-0.25069606
109	0xbeb7f31d	-0.35927668
110	0xbe57c2f0	-0.21070457
111	0xbe11934c	-0.14216346
112	0xbd340713	-0.04395206
113	0x3e28266f	0.16420911
114	0xbddc68b7	-0.1076216
115	0xbec46285	-0.38356414
116	0xbd1e4b71	-0.038646165
117	0x3d16d8ac	0.03682773
118	0x3da4a2f8	0.08038896
119	0x3e6b9fe0	0.23010206
120	0x3d4e28f7	0.050332036
121	0xbd3c190b	-0.04592232
122	0xbdd24db8	-0.1026873
123	0xbd51556a	-0.051106848
124	0xbe9f0582	-0.3105889
125	0x3d96ba4d	0.07359753
126	0x3dc9efce	0.09860192
127	0x3e3b953d	0.18318649
128	0x3d4f9c05	0.0506859
129	0xbd771c9f	-0.06033003
130	0xbed13f7d	-0.4086875
131	0x3cd71984	0.026257284
132	0x3cea2e67	0.02858658
133	0xbe343a4f	-0.17600368
134	0xbdb08f1d	-0.08621047
135	0x3dc92247	0.09820991
136	0x3d348282	0.044069774
137	0xbcac7eec	-0.021056615
138	0xbe854df4	-0.26036036
139	0x3d947137	0.072481565
140	0xbd04829a	-0.032351114
141	0x3c315e4c	0.010825705
142	0xbeba7d25	-0.36423603
143	0xbcc63ce3	-0.024198955
144	0xbe438805	-0.19094856
145	0xbcfc301e	-0.030784663
146	0x3d730948	0.059335023
147	0x3e66a63a	0.22524348
148	0x3eb91b8f	0.36153838
149	0x3e439930	0.19101405
150	0x3b8dec3d	0.0043311403
151	0xbb670202	-0.0035249
152	0x3e89267f	0.26787183
153	0x3d96e665	0.07368163
154	0x3e4d629b	0.20057146
155	0xbef5a786	-0.47979373
156	0xba060774	-0.0005112805
157	0xbdf11c40	-0.117729664
158	0xbf04bedd	-0.51853734
159	0xbc90f758	-0.017696068
160	0x3e713075	0.23553641
161	0xbe1eb562	-0.1549888
162	0x3ea09eb7	0.3137109
163	0xbd4cc187	-0.04998925
164	0xbdbff7a4	-0.093734056
165	0x3dbbcb64	0.09169653
166	0xbf14887d	-0.58020765
167	0xbe37e418	-0.17958105
168	0xbdb87b7d	-0.090079285
169	0xbe014989	-0.12625708
170	0xbde9fdab	-0.114253365
171	0xbe8338bd	-0.25629225
172	0x3ec90109	0.39258602
173	0xbea70394	-0.32619917
174	0x3e405554	0.1878255
175	0x3e41d645	0.18929394
176	0xbdf229f7	-0.118244104
177	0xbde8d1a3	-0.1136811
178	0x3e8f816b	0.28028426
179	0xbe618c1f	-0.22026108
180	0xbcd9e1bc	-0.026596896
181	0xbe1e90b6	-0.1548489
182	0x3dcbad1f	0.099451296
183	0x3cf32181	0.029679062
184	0xbd091c3b	-0.03347419
185	0xbc7b6a1f	-0.015345125
186	0x3e4073d5	0.18794186
187	0x3dd77383	0.10520079
188	0x3e7d2c15	0.24723847
189	0x3da33990	0.079699636
190	0xbea48da7	-0.32139322
191	0xbe6e8aaf	-0.23295091
192	0x3e16848a	0.14698997
193	0x3e057aef	0.13035177
194	0x3e5dc0e9	0.2165562
195	0xbd80c0c9	-0.06286771
196	0xbe5399f4	-0.20664197
197	0xbe3e0bbd	-0.18559165
198	0xbe14a099	-0.14514388
199	0x3d67af05	0.056563396
200	0x3cdc502f	0.026893703
201	0xbe1b54e0	-0.15169096
202	0x3e1d323e	0.15351197
203	0x3d7bce8b	0.06147627
204	0x3e8a7548	0.27042603
205	0xbee25a41	-0.44209483
206	0xbe0377f8	-0.12838733
207	0xbe3b8f6b	-0.18316428
208	0x3e48f13d	0.19623275
209	0xbe8c8551	-0.27445462
210	0xbe926c76	-0.28598374
211	0xbc6098b9	-0.013708287
212	0xbe2e54e4	-0.1702457
213	0xbdba5cfe	-0.09099768
214	0x3ea7dc20	0.3278513
215	0x3e0d56ac	0.13802594
216	0x3ea5ac93	0.32358226
217	0xbeacd1b0	-0.3375373
218	0xbeadc4c9	-0.33939198
219	0xbed2b324	-0.41152298
220	0x3cbe4f8a	0.023231287
221	0x3de955ba	0.11393304
222	0xbcbc7f12	-0.02300981
223	0x3e587030	0.21136546
224	0x3d4f8de3	0.050672423
225	0x3e7c0aab	0.24613445
226	0x3db2b1fa	0.087253526
227	0xbef55123	-0.47913465
228	0xbca2155a	-0.019785572
229	0xbd15f1a6	-0.036607407
230	0x3e6b9f6b	0.23010032
231	0xbd980604	-0.074230224
232	0x3ebf5200	0.3736725
233	0x3e092cf8	0.1339606
234	0x3ef76f9e	0.48327345
235	0xbd18ea8c	-0.037333056
236	0xbe88f224	-0.2674724
237	0x3dbd94db	0.092569076
238	0xbd8e19ce	-0.069385156
239	0x3d6093ab	0.054828327
240	0x3d2d2d32	0.04227943
241	0x3ea85ab8	0.32881713
242	0xbeb94a27	-0.36189386
243	0x3e8b63a6	0.27224463
244	0xbd5d7a1c	-0.05407153
245	0xbdd61b3a	-0.10454412
246	0xbf44cb63	-0.76872844
247	0xbeae100c	-0.33996618
248	0xbc655afc	-0.013998743
249	0x3b5ca9d3	0.003367056
250	0x3e6bec51	0.23039366
251	0x3cd72b02	0.026265625
252	0x3ebf60f0	0.37378645
253	0xbdb52fe0	-0.08847022
254	0xbf09324a	-0.5359236
255	0x3da3ca0b	0.07997521

b1.bias f4 [32]
0	0xbdae2e03	-0.0850487
1	0xbe5da03e	-0.21643159
2	0xbefe982a	-0.49725467
3	0xbe7f575d	-0.2493567
4	0x3f1c3a78	0.61026716
5	0xbe068e79	-0.13140287
6	0xbe3f4707	-0.18679439
7	0x3c1ccd9a	0.009570504
8	0xbe27a0e2	-0.16369966
9	0xbf07bcdb	-0.53022546
10	0xbed54753	-0.4165598
11	0x3e2271f9	0.1586379
12	0xbebb9360	-0.36635876
13	0xbebab6b1	-0.36467507
14	0x3db00701	0.08595086
15	0xbe58d6e1	-0.2117572
16	0xbe4881af	-0.1958072
17	0xbf2ad9e0	-0.667387
18	0xbe32b8f3	-0.17453365
19	0x3e9e5152	0.30921417
20	0xbe411abf	-0.18857859
21	0xbeba6aab	-0.36409506
22	0x3f1812af	0.5940351
23	0xbf0cea30	-0.5504484
24	0xbd6033dd	-0.05473696
25	0xbe4d00ee	-0.20019886
26	0xbdcf59c0	-0.1012454
27	0xbf4bbac9	-0.79581887
28	0xbd8b3f96	-0.067992374
29	0xbca7da40	-0.020489812
30	0x3ddaeef6	0.106901094
31	0xbe17de8e	-0.14830992

b2.weight f4 [32, 32, 3, 3]
0	0x3e4b851f	0.19875
1	0x3dc8e21d	0.09808753
2	0xbc430200	-0.011902332
3	0x3e2c4321	0.16822483
4	0xbe0ba633	-0.13637619
5	0x3ea5430b	0.32277712
6	0xbe0e3fc4	-0.13891512
7	0xbd6f86f0	-0.058478296
8	0x3de0d9e8	0.10979062
9	0x3e97abd0	0.2962327
10	0xbd9c165d	-0.07621453
11	0xbdc67273	-0.09689798
12	0xbe0c34df	-0.13692044
13	0xbe242d1d	-0.16032834
14	0xbe55ff63	-0.20898204
15	0x3e208b75	0.15678199
16	0x3d84a227	0.064762406
17	0xbf0810df	-0.53150743
18	0xbe11751c	-0.1420483
19	0x3e41acad	0.18913527
20	0xbf03e189	-0.51516014
21	0x3d225337	0.03963014
22	0xbe927c9f	-0.28610703
23	0x3e2aaf6f	0.16668485
24	0xbe4bcc13	-0.19902067
25	0xbe261e3f	-0.16222475
26	0xbe33429d	-0.1750588
27	0x3efa02bd	0.48830214
28	0xbddeb0e7	-0.10873585
29	0x3de9c1d9	0.11413927
30	0x3f0d5d65	0.55220634
31	0xbd18d286	-0.037310146
32	0xbe41c9ba	-0.18924609
33	0xbd21a486	-0.039463542
34	0xbee9e607	-0.4568331
35	0xbe278afe	-0.16361615
36	0xbe265cc3	-0.16246323
37	0x3da291e7	0.07937985
38	0xbe9b6f4f	-0.3035836
39	0x3c636608	0.013879307
40	0x3e80a75c	0.25127685
41	0xbeac738d	-0.33681908
42	0xbf04ff06	-0.51951635
43	0x3e4e7cae	0.20164749
44	0x3e80dfd1	0.25170758
45	0x3f207ab6	0.6268724
46	0xbedea26f	-0.43483302
47	0xbdc87dcb	-0.09789618
48	0xbe77a1d7	-0.24182831
49	0xbd510fd1	-0.051040474
50	0xbea4ccf5	-0.3218762
51	0x3d3fb773	0.04680581
52	0x3efe6550	0.4968667
53	0x3f3a9039	0.72876316
54	0x3d3b05a7	0.045659687
55	0xbeb13cd0	-0.3461671
56	0x3e102514	0.14076644
57	0xbe748a35	-0.23880847
58	0xbd8cdcc9	-0.06878049
59	0xbd810812	-0.063003674
60	0x3e19a01c	0.15002483
61	0x3e054a5f	0.13016652
62	0xbea86e46	-0.32896632
63	0x3ea6607e	0.32495493
64	0xbe27f752	-0.16402939
65	0xbe0d91ba	-0.13825122
66	0xbdb6e6d7	-0.08930748
67	0x3d22ceaa	0.03974787
68	0x3d803f7c	0.06262109
69	0xbcd6bd64	-0.026213355
70	0x3e1b062c	0.15139073
71	0xbe6c2a0b	-0.23062913
72	0xbd00cd97	-0.031446066
73	0xbe93609e	-0.2878465
74	0x3e7fc3ec	0.24977082
75	0x3d2ad409	0.04170612
76	0xbc22ee1d	-0.009944466
77	0xbdee9a9d	-0.11650584
78	0xbdf6a05e	-0.12042306
79	0x3d46eaaf	0.048563655
80	0xbeb27559	-0.34855154
81	0xbebd80b0	-0.37012243
82	0xbeb92863	-0.36163625
83	0xbe843625	-0.2582256
84	0x3e584996	0.21121821
85	0xbe2a6490	-0.16639924
86	0x3ea1abc3	0.31576356
87	0x3eea134e	0.45717853
88	0x3d740f4c	0.0595849
89	0x3caf6289	0.02140929
90	0xbd2aabee	-0.04166787
91	0xbe372d8d	-0.1788847
92	0xbe2b68f9	-0.16739263
93	0xbe180c05	-0.14848335
94	0xbe7cc111	-0.24683024
95	0xbe252c77	-0.16130243
96	0x3eea0bfa	0.45712262
97	0x3e96c576	0.29447526
98	0xbe5ec3e7	-0.21754418
99	0x3df6ee70	0.12057197
100	0xbdbb45c9	-0.0914417
101	0x3e2d2112	0.16907147
102	0xbe773c9c	-0.24144214
103	0x3e1120aa	0.14172617
104	0xbe66447e	-0.22487065
105	0xbeb528a3	-0.35382566
106	0x3e2d7250	0.16938138
107	0xbe3c8b1d	-0.18412443
108	0xbea9c9a7	-0.3316166
109	0xbe7e042d	-0.2480628
110	0x3da5caa5	0.08095292
111	0x3e1f175d	0.15536256
112	0xbe18716a	-0.14887014
113	0xbe6e2fa1	-0.23260356
114	0xbee24aba	-0.44197637
115	0x3dd781b6	0.10522787
116	0x3d9d2129	0.076723404
117	0xbea95a85	-0.33076873
118	0xbdeb66a1	-0.11494184
119	0xbf01ee23	-0.5075399
120	0x3d0e7cb6	0.034786902
121	0xbe91d97e	-0.28486246
122	0x3df6306d	0.12020955
123	0xbdb71315	-0.089391865
124	0xbd902278	-0.070378244
125	0xbeacf300	-0.33779144
126	0x3e7fca3a	0.24979487
127	0xbc88f757	-0.016719503
128	0xbdd9d77b	-0.10636803
129	0x3d32e2c4	0.04367329
130	0xbf0a8fec	-0.5412586
131	0x3d4d5fe1	0.050140265
132	0xbe3d05ff	-0.18459319
133	0x3e88ccc7	0.26718733
134	0x3daecec9	0.08535535
135	0xbe04242a	-0.1290442
136	0xbdae4d43	-0.0851083
137	0xbe17709f	-0.14789055
138	0x3ea2f48f	0.31827208
139	0xbf093081	-0.53589636
140	0x3dfaed36	0.12252276
141	0x3ca07cf5	0.019590834
142	0x3e6444fc	0.2229194
143	0x3d8465ce	0.0646473
144	0x3e95bfcd	0.29247895
145	0xbd4aea7f	-0.04954004
146	0xbdb0ede0	-0.08639121
147	0x3cb683ee	0.022279706
148	0xbdfd545b	-0.12369605
149	0x3e3b2c37	0.18278585
150	0xbc8a86f0	-0.016910046
151	0x3e9bc178	0.30421042
152	0xbe313eac	-0.17309064
153	0xbd61db84	-0.055140987
154	0xbd901f28	-0.070371926
155	0x3e309831	0.17245556
156	0x3e2fc3b4	0.17164499
157	0x3d0bfa56	0.034174286
158	0x3db5d613	0.08878722
159	0xbe811a1c	-0.25215232
160	0x3dd85bf8	0.10564417
161	0xbe341502	-0.17586139
162	0xbd30354a	-0.04301957
163	0x3dc103a9	0.09424526
164	0xbce3cc80	-0.027807474
165	0xbdf7c30f	-0.12097751
166	0xbda1c67b	-0.07899185
167	0xbe99c8d4	-0.30036032
168	0xbe3dc97c	-0.18533891
169	0xbdab4fbb	-0.08364817
170	0x3bd19dd9	0.0063969907
171	0x3ea243a6	0.31692237
172	0x3cab66a5	0.020922968
173	0xbdc59cea	-0.096490696
174	0x3d65cf3f	0.05610585
175	0x3e5f2e1f	0.21794938
176	0x3e29f340	0.16596699
177	0xbda104f8	-0.07862276
178	0x3d86b4a8	0.06577426
179	0xbd900e7e	-0.07034014
180	0xbcc5f441	-0.02416432
181	0xbe7e4d73	-0.24834232
182	0xbcb1e65e	-0.021716293
183	0x3e64ee38	0.22356498
184	0xbdf7a0fe	-0.12091254
185	0xbc66a59b	-0.014077569
186	0xbeb45035	-0.35217443
187	0xbd877c63	-0.06615522
188	0xbed11fbc	-0.40844524
189	0xbe8ad555	-0.27115884
190	0xbe1f0e5b	-0.1553282
191	0x3dd2bd00	0.10289955
192	0x3e4844e2	0.19557527
193	0x3e4c9bc1	0.1998129
194	0x3ed2cb85	0.41170898
195	0xbe5119ae	-0.20419952
196	0xbea9d768	-0.33172154
197	0xbd9949b1	-0.07484759
198	0x3ea9f617	0.33195564
199	0xbeb18bfd	-0.34677115
200	0x3dfa75e9	0.12229521
201	0x3de9ec04	0.114219695
202	0xbce2e974	-0.02769921
203	0x3e34d97a	0.17661086
204	0xbf37da19	-0.71817166
205	0x3ebcb64e	0.36857837
206	0xbe19dcee	-0.15025684
207	0xbe895f0f	-0.26830336
208	0xbe056e93	-0.13030462
209	0xbe3ed627	-0.1863638
210	0xbd1f212d	-0.03885
211	0xbeeaeeab	-0.45885214
212	0x3f463a67	0.77432865
213	0x3e23305d	0.15936418
214	0x3dbd245a	0.09235449
215	0x3e272086	0.16321
216	0x3c80099d	0.015629584
217	0xbde4df92	-0.11175455
218	0xbd4e86b9	-0.05042145
219	0x3d71e4fa	0.05905626
220	0xbe26b1cb	-0.1627876
221	0xbc6aeda0	-0.014338881
222	0x3eb430f6	0.35193604
223	0x3e544552	0.20729569
224	0xbe75cd3c	-0.24004072
225	0x3ba78557	0.005112331
226	0xbe32efd8	-0.17474306
227	0x3e961122	0.29309946
228	0xbc3d5080	-0.011554837
229	0x3e89f005	0.26940933
230	0xbdfe5763	-0.124190114
231	0xbdb8147d	-0.08988283
232	0xbe5b9bd9	-0.2144617
233	0x3e103a2e	0.14084694
234	0x3de9122a	0.11380418
235	0xbe2f4f5b	-0.17120115
236	0x3d76b05c	0.060226783
237	0xbce62b23	-0.028096741
238	0x3dd58536	0.104257986
239	0x3e5ccf7a	0.21563521
240	0xbef40100	-0.47657013
241	0xbe99585c	-0.29950225
242	0xbe515971	-0.20444275
243	0x3e653b05	0.22385795
244	0xbe603d63	-0.21898417
245	0x3ede5cf7	0.43430302
246	0x3e3f958c	0.18709391
247	0xbe0e3e46	-0.13890943
248	0xbec0d3c2	-0.37661558
249	0x3b91e0b5	0.004451836
250	0xbf0b1b59	-0.54338604
251	0x3deb8029	0.11499054
252	0x3dacb6c1	0.08433295
253	0x3e343215	0.1759723
254	0x3e827b0a	0.25484496
255	0xbd3fb232	-0.0468008

b2.bias f4 [32]
0	0x3e1633af	0.14668153
1	0xbf4c8ad8	-0.7989936
2	0xbf093e76	-0.5361093
3	0xbf30f7db	-0.691282
4	0xbe34f69d	-0.176722
5	0xbf13157d	-0.57454664
6	0xbebe5125	-0.37171283
7	0xbeecb841	-0.46234325
8	0x3ecea2b4	0.40358508
9	0x3d9cfbac	0.0766519
10	0x3c884f4b	0.016639372
11	0xbe9aec23	-0.30258283
12	0xbeb0cfa2	-0.3453341
13	0xbf174e76	-0.59104097
14	0xbdfe22a3	-0.1240895
15	0x3e3dda06	0.185402
16	0xbe5f5473	-0.21809559
17	0xbecb999b	-0.3976563
18	0xbe069af1	-0.13145043
19	0xbe7963b8	-0.24354446
20	0xbe12b0c0	-0.14325237
21	0x3e8e8a2a	0.27839786
22	0xbf023e69	-0.5087648
23	0x3ebf96a1	0.37419608
24	0xbf05f720	-0.5233021
25	0x3e8f94ba	0.28043157
26	0x3deef954	0.11668649
27	0x3dc61f2f	0.096739165
28	0xbf2f5f8b	-0.6850516
29	0xbe0123c3	-0.12611298
30	0x3eb1ac2c	0.3470167
31	0xbe127bce	-0.1430504

b3.weight f4 [64, 32, 3, 3]
0	0xbe95ae4b	-0.29234537
1	0x3ca80142	0.020508412
2	0x3cc35147	0.023842467
3	0xbe0475a0	-0.12935495
4	0xbcb79c59	-0.02241342
5	0xbe4ce026	-0.20007381
6	0x3ccf4c3f	0.025304912
7	0xbec48910	-0.3838582
8	0x3d2587aa	0.040412582
9	0x3d98ef96	0.074675724
10	0xbe84dae4	-0.2594825
11	0x3e905d0c	0.2819599
12	0xbd547545	-0.05186965
13	0x3e7f65a1	0.24941112
14	0xbe94e6eb	-0.29082426
15	0xbe2d8ef7	-0.16949068
16	0xbe53d0ca	-0.20685115
17	0xbe82f2cb	-0.2557586
18	0xbe49889c	-0.19681019
19	0xbe1c4d08	-0.1526376
20	0x3dca3fe1	0.09875465
21	0x3de60100	0.112306595
22	0xbdb04d00	-0.086084366
23	0xbec49836	-0.38397378
24	0x3e35d0d3	0.17755441
25	0x3eb92d58	0.36167407
26	0xbe2bbe23	-0.1677175
27	0xbcc8b77d	-0.024501557
28	0xbe787326	-0.24262676
29	0x3e290263	0.16504817
30	0x3d9781f0	0.073978305
31	0x3e9605bc	0.2930125
32	0xbe783c82	-0.24241832
33	0x3d0cf4de	0.03441321
34	0xbe225669	-0.15853275
35	0x3e4bae29	0.19890656
36	0x3e2524bf	0.16127299
37	0x3ce26b10	0.027638942
38	0x3de83e69	0.11340029
39	0xbf236a9e	-0.6383456
40	0x3e1770b1	0.14789082
41	0x3f063426	0.5242332
42	0xbeaa9e1c	-0.33323753
43	0x3e8e1961	0.27753738
44	0x3e2e104e	0.16998407
45	0xbdd063fd	-0.10175321
46	0x3f211824	0.6292746
47	0x3e406103	0.18787007
48	0x3e347066	0.17621002
49	0xbe86ed59	-0.26352957
50	0x3ea61dbc	0.3244456
51	0xbe24859f	-0.16066597
52	0xbe06270e	-0.13100836
53	0xbebc5745	-0.3678533
54	0xbd601632	-0.054708667
55	0x3d3c4154	0.04596074
56	0xbe6d8d4e	-0.23198435
57	0x3dd49e7a	0.103817895
58	0x3dd228cf	0.1026169
59	0x3dacff73	0.084471606
60	0xbdba2974	-0.09089938
61	0xbdde3cfd	-0.10851476
62	0xbbe3e7bd	-0.0069551156
63	0xbe7e5fb7	-0.248412
64	0xbd74741e	-0.05968105
65	0x3e84bf1e	0.2592706
66	0xbda96dab	-0.08272871
67	0xbc8b09ff	-0.01697254
68	0xbf1b4fe3	-0.6066877
69	0x3e6f575a	0.23373166
70	0x3ed66885	0.41876617
71	0xbe5c882e	-0.21536323
72	0xbd9bc212	-0.07605375
73	0x3e01e967	0.12686692
74	0xbe1309f9	-0.14359273
75	0xbdbbe4f8	-0.09174532
76	0x3d9a54c0	0.07535696
77	0xbd3a48c2	-0.045479544
78	0xbc325b91	-0.010886089
79	0xbeafc663	-0.34331045
80	0x3eb6ab7b	0.35677704
81	0xbe8e5833	-0.27801666
82	0x3e4b38f6	0.19845948
83	0x3e11d6c4	0.14242083
84	0x3950af32	0.00019901691
85	0x3ea5c7a6	0.32378882
86	0xbe9b855a	-0.30375177
87	0xbea62bac	-0.32455194
88	0xbf271270	-0.6526251
89	0xbe252851	-0.1612866
90	0xbe11ae8b	-0.14226739
91	0xbeb45696	-0.3522231
92	0xbe368a68	-0.17826235
93	0x3da4e68e	0.08051787
94	0x3c8db89d	0.017299945
95	0x3e0a6623	0.13515525
96	0xbebd2a45	-0.36946312
97	0x3d9913cf	0.07474481
98	0xbe79e2cc	-0.24402922
99	0x3e4860cc	0.19568175
100	0x3d0e50dc	0.034745082
101	0x3c142d14	0.009043951
102	0x3e72b364	0.23701245
103	0x3cbc566b	0.022990426
104	0x3e03c448	0.12867844
105	0xbce1aa63	-0.027547067
106	0x3eeda675	0.4641606
107	0x3ea95f57	0.3308055
108	0x3dae2155	0.08502451
109	0x3dcee68d	0.10102568
110	0x3e4b3728	0.19845259
111	0x3e188d94	0.14897758
112	0xbe0f68fe	-0.14004895
113	0xbef6d9f3	-0.48213157
114	0xbe068a01	-0.13138582
115	0xbc3a6f91	-0.011379139
116	0x3df43ca3	0.11925628
117	0xbe1a73ff	-0.15083311
118	0xbdae6710	-0.08515751
119	0x3e31a67c	0.17348665
120	0x3c4d4088	0.0125275925
121	0x3ef71403	0.48257455
122	0x3e8daf90	0.27673006
123	0x3d264a7d	0.04059838
124	0xbd96d573	-0.07364931
125	0x3e715ee9	0.23571362
126	0x3e5b2f30	0.2140472
127	0xbe98ad2f	-0.2981963
128	0xbd0f7787	-0.0350261
129	0x3e210d2a	0.15727678
130	0xbe3c15a6	-0.18367633
131	0x3e431805	0.19052131
132	0xbd8fb63d	-0.07017181
133	0xbda86b3f	-0.082235806
134	0xbf2223fe	-0.6333617
135	0xbe082be3	-0.13297991
136	0xbe6222fc	-0.22083658
137	0x3e2d8da1	0.16948558
138	0xbdaebd44	-0.08532193
139	0xbe8651de	-0.26234335
140	0xbf2d8886	-0.67786443
141	0xbe85b469	-0.26114205
142	0xbd8cbf1e	-0.0687239
143	0xbde45208	-0.11148459
144	0x3e68b53b	0.22725384
145	0xbeb8bb9a	-0.3608063
146	0xbe971e22	-0.29515177
147	0x3eba4153	0.36377963
148	0xbed32814	-0.41241515
149	0x3dba547b	0.090981446
150	0xbe466eca	-0.193782
151	0xbe887439	-0.2665117
152	0xbee8b78b	-0.45452532
153	0xbe471828	-0.19442809
154	0x3d46487e	0.048408978
155	0x3eb31a11	0.34980825
156	0x3dc180de	0.094484076
157	0x3d84a078	0.064759195
158	0xbe865ba8	-0.26241803
159	0xbea6b233	-0.3255783
160	0xbc6659d4	-0.014059503
161	0xbf02ac8e	-0.5104455
162	0x3ed12462	0.4084807
163	0x3dd816f4	0.10551253
164	0x3dc5081e	0.09620689
165	0xbd313956	-0.04326757
166	0xbea95bae	-0.3307776
167	0xbe3a5645	-0.18196972
168	0xbe3eaef8	-0.18621433
169	0xbe7bdf54	-0.24596912
170	0xbda57e4b	-0.08080729
171	0x3e249138	0.16071022
172	0xbe5d1fc1	-0.21594144
173	0x3c97763b	0.018488994
174	0xbd149105	-0.036271114
175	0xbed4f6bf	-0.41594502
176	0x3de509fa	0.111835435
177	0xbd3c756f	-0.04601043
178	0x3d7a3990	0.061090052
179	0xbe11489a	-0.14187852
180	0x3e0e37a9	0.1388842
181	0x3d0c0f55	0.03419431
182	0xbda88cfb	-0.08230015
183	0x3e96ad37	0.29429027
184	0xbe000a77	-0.12503992
185	0x3e495a0d	0.19663258
186	0xbe775606	-0.24153909
187	0x3e8bdb78	0.2731588
188	0x3ca1c176	0.01974557
189	0xbd736a5f	-0.059427615
190	0xbe5729ce	-0.21012041
191	0xbc26111a	-0.010135913
192	0xbebc439d	-0.36770335
193	0x3df82a53	0.12117448
194	0x3dbedb7c	0.09319207
195	0xbd69455f	-0.056950923
196	0x3d9394bc	0.07206103
197	0xbdec281b	-0.11531087
198	0xbebc6af8	-0.3680036
199	0xbe68b63a	-0.22725764
200	0x3ddc48ad	0.10756049
201	0x3e3a9dec	0.18224305
202	0x3e3b416f	0.1828668
203	0xbd3013c5	-0.042987604
204	0x3e02225f	0.12708424
205	0xbe5f3a82	-0.21799663
206	0xbe5cee4f	-0.21575283
207	0x3d72c0fa	0.059266068
208	0x3de17fa7	0.11010676
209	0xbea99a23	-0.3312541
210	0x3dc5b041	0.096527584
211	0xbe42e4d9	-0.19032611
212	0x3d2f272e	0.042761974
213	0x3db62be2	0.08895089
214	0xbeaac6f4	-0.33354914
215	0x3e2b8cc2	0.16752914
216	0xbd567d96	-0.05236586
217	0xbde3f58a	-0.11130817
218	0x3dc87094	0.097870976
219	0x3cd181f9	0.025574671
220	0xbe84b2c4	-0.25917637
221	0x3b6dc2f1	0.0036279524
222	0x3c35569c	0.011068013
223	0x3e53b30a	0.20673767
224	0xbd76a60c	-0.06021695
225	0x3cd8bb31	0.026456447
226	0xbde63ba3	-0.112418436
227	0x3e8bbfa3	0.27294645
228	0x3f13e49c	0.57770705
229	0x3d9fc0f7	0.07800477
230	0x3e531057	0.20611702
231	0x3e23b7e4	0.15988117
232	0x3e89db98	0.2692535
233	0x3d8adb0e	0.067800626
234	0x3e383cb3	0.17991905
235	0x3dd6d06d	0.10488973
236	0x3db05d35	0.08611528
237	0xbdab73bf	-0.08371686
238	0x3e94750c	0.2899555
239	0x3e9cd162	0.30628496
240	0xbe2d372a	-0.16915575
241	0xbf0a5c75	-0.5404733
242	0x3e38e574	0.1805628
243	0xbdc5c9d1	-0.09657634
244	0xbe069d01	-0.1314583
245	0xbc0e403a	-0.008682305
246	0x3df2b3a4	0.1185067
247	0xbbb447ab	-0.0055017076
248	0x3dbb1a46	0.09135871
249	0xbc185b75	-0.009299149
250	0xbea55b29	-0.32296112
251	0x3ea71815	0.3263556
252	0xbce43a9f	-0.027859984
253	0x3d65d809	0.05611423
254	0x3e6de2b0	0.23231006
255	0xbd53c021	-0.0516969

b3.bias f4 [64]
0	0x3e11ac42	0.14225867
1	0x3dcaa7bc	0.09895274
2	0xbd9ab2d4	-0.0755364
3	0xbd085979	-0.033288453
4	0xbb1ce358	-0.0023939218
5	0xbe89507a	-0.2681921
6	0x3d8d29d8	0.06892747
7	0x3db8c374	0.09021655
8	0xbeaf96e8	-0.3429482
9	0xbe437714	-0.19088393
10	0xbe60c166	-0.21948776
11	0x3e378654	0.17922336
12	0x3d93d0fe	0.072175965
13	0x3e76956b	0.24080436
14	0xbe780acc	-0.24222869
15	0xbdd6d7a1	-0.10490347
16	0xbd957439	-0.07297558
17	0xbb964080	-0.0045853257
18	0xbcc3f8f5	-0.023922423
19	0x3e476b42	0.1947451
20	0xbd4ada3a	-0.049524523
21	0xbeb7f3e6	-0.35928267
22	0xb8a56ccb	-7.8880774e-05
23	0x3e69bdac	0.2282626
24	0x3e5ed927	0.21762525
25	0xbe915e58	-0.2839229
26	0xbf0a9e16	-0.5414747
27	0xbde37f31	-0.11108244
28	0x3ec73de4	0.38914406
29	0xbe039c13	-0.12852506
30	0x3d82cc64	0.06386641
31	0xbdb9385b	-0.09043952
32	0xbe4a389e	-0.1974816
33	0xbdc35d1e	-0.09539245
34	0xbda29212	-0.07938017
35	0x3ddd96d5	0.108197846
36	0xbe018890	-0.1264975
37	0xbeaa6d44	-0.33286488
38	0x3e26155f	0.1621909
39	0xbd62f7f6	-0.055412255
40	0x3d9855d3	0.07438245
41	0x3d723a63	0.059137713
42	0x3e9465a7	0.28983805
43	0x3ec36379	0.3816183
44	0xbdf14518	-0.11780757
45	0xbdfb31cc	-0.122653574
46	0x3e236bae	0.15959045
47	0xbe29c9f7	-0.1658095
48	0xbe96037e	-0.2929954
49	0xbe80100e	-0.2501225
50	0xbd1c85dd	-0.0382136
51	0x3bd8cef1	0.006616466
52	0xbdf273cf	-0.11838495
53	0x3dd3f851	0.10350097
54	0x3d05b2c6	0.032641195
55	0xbdf1b6f2	-0.11802472
56	0x3e17ec66	0.14836273
57	0x3e506fb5	0.20355113
58	0xbde453ee	-0.11148821
59	0xbcebc65b	-0.028781107
60	0xbe85c561	-0.2612715
61	0x3d9d8a6d	0.07692418
62	0xbce2d6de	-0.027690347
63	0xbf0bbc7c	-0.5458448
