nets/model_epoch_88.pth (torch, 648794 bytes, 25 tensors)

a1.weight f4 [16, 5, 3, 3]
000000 1a 76 fd 3d ab db 34 3e 0f 5a c9 bc 72 90 9a be
       0.12376042 0.17661922 -0.024579076 -0.30188328
000010 43 7b b5 bd 2f 45 c6 3e bd 35 50 be b1 01 2b 3c
       -0.08861401 0.38724658 -0.20333 0.010437415
000020 44 f4 c0 be ab c4 5a bd 94 33 29 be 61 8c eb bd
       -0.3768636 -0.053410213 -0.16523582 -0.115013845
000030 60 3f 8d bd 17 c0 78 be 0d 84 b1 be 4c 96 b8 be
       -0.068968534 -0.24292026 -0.3467106 -0.36052167
000040 c3 a9 5a be f7 50 d7 bd 2d d3 b0 3d f7 55 d4 bd
       -0.21353821 -0.1051349 0.086340286 -0.10367959
000050 46 e6 8f 3d 35 f0 92 3d a6 a9 f9 be 9c c9 04 bb
       0.07026343 0.07174722 -0.48762244 -0.002026177
000060 52 97 a4 bd de 09 24 be 70 f4 13 bd 51 8d 20 be
       -0.080366746 -0.16019389 -0.036121786 -0.15678908
000070 3d 4e 2a bd b2 a2 7d 3d 78 03 1b be 94 f6 8f bd
       -0.04157852 0.061922736 -0.15138042 -0.07029453
000080 7f b6 0b bf 28 16 3f be a9 3f 82 be 88 f2 5e 3e
       -0.5457534 -0.18660796 -0.25439194 0.21772206
000090 5e 38 2c be 4f 77 d0 bd 65 69 32 be 58 d6 79 bd
       -0.16818377 -0.10179006 -0.17423017 -0.06099543
0000a0 f0 d7 77 be ac 5c 41 be 90 1e 2e bd 85 f1 19 be
       -0.24203467 -0.18883008 -0.042509615 -0.15033539
0000b0 9f ae 9f bd 83 7d 59 3e 9f 10 0e be cf 87 6f bd
       -0.07796978 0.21239285 -0.13873528 -0.058479127
0000c0 d0 4c c2 3e 66 84 fe 3c d1 d5 d7 3e 1a c5 ac bb
       0.37949228 0.031068992 0.42155316 -0.00527252
0000d0 8f 53 23 3f 82 28 91 be fd 27 02 3e cb eb b9 3e
       0.63799375 -0.28351218 0.12710567 0.36312708
0000e0 fd 3b c1 3d c9 75 dc bc 53 27 65 3e 3f de 6d bd
       0.0943527 -0.026911633 0.22378282 -0.05807328
0000f0 8f b1 26 3e 93 5b 25 bf e6 9e 70 3d 44 c3 59 3e
       0.1627867 -0.64592856 0.058745287 0.21265894
000100 2f d8 61 bd 2e cc e9 bd 3e 92 da 3e ad e0 a9 3d
       -0.05513781 -0.11415897 0.426897 0.08294807
000110 df 60 03 bf 4f 68 27 be d1 ef 54 be 2e 9c 28 3e
       -0.5131969 -0.16348384 -0.20794608 0.16465828
000120 3b c8 1e bd a6 63 e1 be 9b 0e 02 bf 00 6f 49 bb
       -0.038765173 -0.44021338 -0.50803536 -0.0030736327
000130 67 93 c3 3e 4c c1 0b 3e 0c d8 12 3e 8f e5 55 3e
       0.38198397 0.13647956 0.14340228 0.20888351
000140 4f 9f 13 bf fb 6d 3e bc 8b 5b d9 3c 18 63 4b bc
       -0.5766496 -0.011622901 0.026532909 -0.0124137625
000150 7c b6 aa 3d 50 ce 0b 3d 6e bb 15 bd 4c 12 9e bd
       0.083355874 0.0341323 -0.0365557 -0.077183336
000160 7e 67 9f bd 05 dc f7 3c 40 af a3 be 17 18 e3 3d
       -0.077834114 0.03025628 -0.31969643 0.11088579
000170 b1 53 d9 3e 6d ba e7 3c 1f f4 80 3e 9c 91 5e bc
       0.42446664 0.028287137 0.2518625 -0.013584521
000180 fb 50 2e 3f bb 08 09 3f 45 ec 07 3e 0d f9 69 3e
       0.68092316 0.53528947 0.13273723 0.22848912
000190 71 c8 83 3e 18 f2 54 3e e8 65 28 3b d3 03 5a bd
       0.25738862 0.20795476 0.0025695506 -0.053226303
0001a0 6c 6c 7a 3c 90 57 18 be 68 71 0a be be b4 50 3d
       0.015284639 -0.14877152 -0.13519824 0.05095362
0001b0 a3 04 aa 3e b9 3e 0d 3f 7b 36 95 3e 61 a7 9b 3d
       0.33206663 0.5517383 0.29143128 0.07600284
0001c0 f0 6f 86 be 9d f1 c9 3e 60 77 c0 be 66 69 02 be
       -0.26257277 0.3944215 -0.37591076 -0.12735519
0001d0 c9 8b 68 3e 78 6c aa bc e5 c5 a2 be cb 59 99 be
       0.22709574 -0.020803675 -0.31791607 -0.2995132
0001e0 d2 9f 1d 3d a8 e4 3f be cc e6 c3 bc c5 dc 8e 3d
       0.038482495 -0.18739569 -0.023913763 0.06975702
0001f0 01 1e 59 3d b8 d7 c1 be 91 66 f1 bc cd 50 3d 3c
       0.05300713 -0.37859893 -0.029467853 0.011554909
000200 9a d6 3e ba 1c 4f a6 bc ef ee f7 3d c3 ee b0 bd
       -0.0007279903 -0.020301394 0.1210612 -0.0863929
000210 e8 3e 51 bc 4b 0f 91 bd 12 9c 83 3d a7 b7 19 3e
       -0.012771346 -0.07082995 0.064262524 0.15011464
000220 d2 ad 15 3e 2c f8 a5 be b7 c9 0e 3e b3 b5 2c 3e
       0.14617088 -0.32415903 0.13944136 0.16866188
000230 1b e2 be be d5 97 d5 3d d5 ea da be a6 07 a9 3e
       -0.3728188 0.1042935 -0.42757288 0.33013648
000240 bf 27 3a be b1 84 03 bf 8d 72 91 be 96 08 d7 be
       -0.18179224 -0.51374346 -0.28407708 -0.41998738
000250 31 a4 b2 bc 53 22 3d bf ec 18 94 3d d2 22 8e 3d
       -0.021806808 -0.738805 0.07231316 0.06940235
000260 57 2d 0a 3c ad 7b 37 bd bf 13 c6 3d b1 33 00 3d
       0.008433661 -0.04479568 0.09671735 0.031299297
000270 98 83 4e be 74 df 4a bd ad e2 d7 be 80 12 46 be
       -0.20167387 -0.049529508 -0.42165127 -0.19342995
000280 d5 ad 66 be 1d d4 d0 3e 98 7a 78 3e 1f 0f ae 3e
       -0.22527249 0.4078683 0.24265516 0.3399591
000290 3e ae 95 3e 62 68 dc 3e 18 ea 1c be cc fa 31 3f
       0.292345 0.43048388 -0.15323675 0.6952331
0002a0 49 8e 73 3e 3b 81 3c bd 35 2f 94 be 3b 9f 0c bd
       0.23784746 -0.04602168 -0.28942266 -0.03433154
0002b0 08 96 a1 3c 90 7e 3a 3d fa 16 67 3c b9 72 0a bc
       0.01972486 0.045530856 0.014104599 -0.008450204
0002c0 5a 16 87 3c ae 74 7d 3d 59 d7 66 bd 6f 33 b4 bc
       0.01649015 0.061878853 -0.056357715 -0.021997182
0002d0 67 2a 78 3e e2 be 5b 3d ad 7c a1 be 36 b5 3a 3d
       0.24234925 0.053648837 -0.31540433 0.045582972
0002e0 d7 33 31 3e be d3 ad 3e 59 8f 6c 3d c8 f7 73 3e
       0.17304932 0.3395061 0.057753894 0.2382499
0002f0 a4 37 9e 3e 52 81 56 3e 1d bd 20 be 93 32 04 3d
       0.30901825 0.2094777 -0.15697141 0.032274794
000300 ec 04 8d be 65 e4 3c bd 90 9c 27 be a8 e6 4e 3e
       -0.27542818 -0.04611625 -0.16368318 0.20205176
000310 e6 20 e8 3c e4 cc 0f be de 09 01 3e 91 44 04 3e
       0.028336 -0.14043003 0.1260142 0.12916781
000320 8c e8 0c 3f c5 58 3e bd a7 d2 17 bd 6b 65 11 be
       0.5504234 -0.046471376 -0.037066128 -0.14198844
000330 d5 dc 99 be b9 a4 b8 3e 6a c4 31 bb 3b 1e 2b be
       -0.30051294 0.36063173 -0.0027125129 -0.16710751
000340 35 c4 05 bf 97 40 01 bf 0a 38 02 3e 71 2b 9a 3d
       -0.52252513 -0.5048918 0.1271669 0.07527817
000350 a1 8b 31 be 25 c7 83 be af 42 a1 bd ad c1 17 3d
       -0.1733842 -0.25737873 -0.07874047 0.037049938
000360 84 2b e8 bc 90 44 b4 3c 8b 71 b3 bc a2 ef 07 3d
       -0.028341062 0.02200535 -0.021904727 0.033187516
000370 d9 e6 f0 bd c4 6e 68 3c 2b f1 b4 3c dc 3a c0 3d
       -0.11762781 0.014186565 0.022087654 0.093862265
000380 64 3e 3a bd e3 7d a7 bd 84 ee 8e bd 00 0b 69 3e
       -0.045469657 -0.08178308 -0.06979087 0.22758102
000390 18 58 d5 3c 64 58 0a be 22 d9 ab bd 34 14 6d 3e
       0.026042983 -0.13510281 -0.08391024 0.23152238
0003a0 46 9b 23 be 9d a2 e6 3e 78 c8 28 bd 5a d2 eb 3e
       -0.15977201 0.4504594 -0.041206807 0.46058923
0003b0 f5 52 9c 3e d0 74 21 3d 88 bd 63 3c 72 a9 d5 be
       0.3053204 0.03941804 0.013900168 -0.4173084
0003c0 bf 9d 16 3d e0 d9 99 3e 39 d2 28 bf 73 f7 5f 3d
       0.036771532 0.30049038 -0.65945774 0.054679345
0003d0 41 93 c1 3d f9 ca ea 3d 86 c4 7c be 79 0d ad 3e
       0.094519146 0.11464495 -0.24684343 0.3379934
0003e0 59 75 e9 be 3d 4f 62 be 3c bb 06 be db 93 ff be
       -0.45597342 -0.2210054 -0.13157362 -0.49917492
0003f0 eb 46 a4 3e 27 7d 9f bc 79 d8 d7 3d 87 ff 59 3d
       0.32085356 -0.019468857 0.10539336 0.053222205

a1.bias f4 [16]
000000 45 e7 15 3d c0 56 05 be dc 99 bb bd f3 23 3c be
       0.03659751 -0.13021374 -0.09160206 -0.18373089
000010 db c7 33 3e 9d 2c 1b be b8 f6 c9 3c 6c 95 1d be
       0.17556708 -0.15153737 0.024653777 -0.15389031
000020 ab 74 3f be a7 70 be 3d 83 c9 a0 bd 99 49 04 3e
       -0.18696849 0.092988305 -0.07850935 0.129187
000030 4e 16 e6 bd e9 79 cf bd bf e4 a1 3e 57 3c 8b 3e
       -0.11234723 -0.101306744 0.31619832 0.27194473

a2.weight f4 [16, 16, 3, 3]
000000 b5 da 43 bd f0 1a a5 be e5 c0 29 be 28 b5 ba 3e
       -0.047815997 -0.32247114 -0.1657749 0.36466336
000010 2d 03 75 3e f8 a3 fc bb db b9 61 3d 79 4f 72 be
       0.23926993 -0.0077099763 0.055108886 -0.23663129
000020 17 ec 1e 3e 42 84 84 3d 7b 7c 4d 3e 1a 99 e2 bc
       0.15519749 0.06470539 0.20067017 -0.027660895
000030 99 b6 3b be 3e 2c 3d 3e 9e 99 7f be c4 a0 ab bd
       -0.18331374 0.18473908 -0.24960944 -0.08380273
000040 b2 a8 1b 3e 1c 18 03 be ce 38 11 be b8 58 89 be
       0.15201071 -0.12802166 -0.14181826 -0.268255
000050 91 77 de be 34 60 ea be ec da 05 be 42 c2 95 bc
       -0.43450597 -0.45776522 -0.13071793 -0.018281106
000060 e5 9d 40 be 21 73 f5 be 34 d2 d5 3d 51 5e 76 bf
       -0.18810232 -0.479394 0.10440484 -0.96237665
000070 c8 4c a8 3e 17 21 d1 be f9 d0 43 3f 94 12 a2 be
       0.3287108 -0.40845558 0.7649074 -0.316548
000080 15 15 8f 3e 73 07 01 3e 64 5d 79 3d 16 1d a4 3d
       0.27945772 0.12600498 0.06088008 0.0801336
000090 1f 08 c1 3c af f0 f0 be de f4 45 bd 77 76 be 3d
       0.023563443 -0.47058627 -0.048329227 0.09299939
0000a0 c5 26 1c bd 74 b4 2f be b0 c9 25 bf c4 e4 93 be
       -0.03812291 -0.17158681 -0.64760876 -0.28885472
0000b0 ac a1 6e be de e5 e9 3d c5 80 8b be 23 71 4a be
       -0.2330386 0.11420797 -0.2724668 -0.1976972
0000c0 b9 88 90 3e 77 d2 a7 3d e7 c3 57 3e 28 dc ee be
       0.2822931 0.0819444 0.21070825 -0.4665234
0000d0 20 e2 41 3e 45 fe 2e 3e 58 42 99 be b2 80 e8 3c
       0.18933916 0.17089184 -0.2993343 0.02838168
0000e0 39 83 dd bc bc f4 de 3e f9 85 d0 3e 14 07 b2 3c
       -0.02704011 0.43546093 0.40727213 0.02173189
0000f0 bd f9 c0 3d ec 14 f2 bb c2 3d 82 bc 04 f3 e2 3e
       0.09422634 -0.007387748 -0.015898589 0.4432603
000100 93 e4 85 be e3 a8 a1 bd d8 1d df be 2f 1a 41 bd
       -0.2615095 -0.07893541 -0.43577456 -0.04714411
000110 58 64 3c be 0f 32 0e be c1 1e 15 be 24 9f a0 3e
       -0.18397653 -0.13886283 -0.14562513 0.31371415
000120 bd 5e 87 3e c1 64 52 3e 0e 18 27 3d 16 f5 0d bd
       0.26439467 0.20546247 0.040794425 -0.03465756
000130 e1 71 6c bc 56 e8 a3 3e b8 68 92 be cf 36 0e 3f
       -0.014431448 0.32013196 -0.2859552 0.5555238
000140 0a f6 2b 3e e7 9e 8a 3d 2b 44 80 3e bd 5f 9c bd
       0.16793075 0.067685895 0.25052008 -0.07635448
000150 0e b9 99 be 10 c9 84 3e 97 3a 15 3f f7 35 3c 3e
       -0.30023998 0.2593465 0.58292526 0.18379961
000160 b0 7b 60 3d 4d c6 41 3e c9 76 54 be d8 da 94 bd
       0.054805458 0.18923302 -0.20748438 -0.07268304
000170 ab d2 39 be 01 e7 c5 3d 26 53 8f 3e 2c a2 ea be
       -0.1814677 0.09663201 0.27993125 -0.45826852
000180 ce db be 3d 9d 9c 49 3d 8d 82 78 3e 3d aa e8 be
       0.09319268 0.049221624 0.24268551 -0.45442382
000190 42 28 ae bd 0f a9 9d bc 97 89 64 be 64 d1 55 be
       -0.08503772 -0.019245652 -0.22318111 -0.20880657
0001a0 87 bc 40 3c d8 1d 2f 3f 6e be 28 3d aa 21 78 be
       0.011763698 0.6840491 0.041197233 -0.24231592
0001b0 9e a8 b9 3c 3f 84 1f be 20 0a b6 3c b7 72 06 3d
       0.02266341 -0.15577792 0.022221625 0.032824244
0001c0 a9 cd 24 3f 25 e3 ca be f7 5d 21 3f 9f 6e a3 3e
       0.6437631 -0.39626423 0.63034004 0.31920335
0001d0 8f be 85 be 5a 62 a5 3e c9 04 02 bf ed 2e 03 bf
       -0.26121947 0.323016 -0.5078855 -0.5124348
0001e0 9f 70 2a bb 14 31 07 3f e8 77 2f 3e f0 7c 8d 3e
       -0.0026007069 0.5280926 0.17135584 0.27634382
0001f0 b8 a1 88 be 13 38 5b 3d 7e 14 f8 bd 21 16 47 bf
       -0.26685882 0.053520273 -0.121132836 -0.7776814
000200 0e 5a a7 bd e2 dc da bd 20 78 07 bd 66 f4 c0 be
       -0.081714734 -0.10686661 -0.033073545 -0.3768646
000210 32 7c 02 be 68 38 62 be 67 4b 4a 3e 15 07 f6 be
       -0.12742689 -0.2209183 0.19755326 -0.48052278
000220 92 0f af 3b f3 69 52 be 94 f3 db bd 3d c1 75 be
       0.0053424323 -0.20548229 -0.10739818 -0.23999496
000230 28 56 30 3f 01 48 98 be d0 cf e3 3b 7a 55 08 3c
       0.68881464 -0.29742435 0.0069522634 0.00832116
000240 33 b8 ab bc ab a2 77 bc 06 44 0f be 0d 23 36 be
       -0.020961856 -0.015114467 -0.13990793 -0.17786808
000250 07 3d 79 be fe e0 4c be 70 ae 4c be 48 a8 f3 bd
       -0.24339686 -0.20007703 -0.19988418 -0.118973315
000260 e8 c5 1f be ab d9 e3 bd f7 43 01 be 6a cf 7e 3e
       -0.15602839 -0.11125501 -0.12623583 0.2488381
000270 e4 11 f7 bd 07 a5 29 be 2d 98 30 3b 0e 4f 09 3e
       -0.12063959 -0.16566859 0.0026946173 0.13409063
000280 98 ed ce 3d c9 e4 f8 3d 6d de 13 3e 02 3b de bc
       0.10103911 0.12153012 0.14440317 -0.027127746
000290 a6 bf 7d 3e b3 20 2d bd 96 c5 6b 3e 4c e2 68 3e
       0.2478014 -0.042267513 0.23024592 0.22742575
0002a0 fa c0 2b 3d 5f 8b fd 3d ea 38 c1 3d 3d 58 81 be
       0.041932084 0.123800986 0.094346836 -0.25262633
0002b0 a9 56 48 3e 2e 26 c7 3e 43 3a fa 3c bc d5 6b 3c
       0.19564308 0.38896316 0.03054536 0.01439422
0002c0 4c d7 20 be 91 ce c8 3d ee 24 52 be c2 ce b7 3e
       -0.15707129 0.098050244 -0.205219 0.3589993
0002d0 b4 18 c4 3e a3 2a 53 be 4f 6f 3a 3e 7d 74 23 3e
       0.38300097 -0.20621733 0.18206523 0.15962406
0002e0 f2 14 11 3e 56 5b cf bd e7 50 63 3e c8 06 f4 bd
       0.14168146 -0.10124843 0.2219883 -0.11915356
0002f0 03 ca bf bc c8 ac 4c be 13 ce 39 3e e1 82 86 3e
       -0.023411756 -0.19987786 0.18145017 0.26271728
000300 dd 62 67 3d c0 80 50 3c fa 4c 9e bd cc 6f e2 3d
       0.056490768 0.012726009 -0.07729526 0.1105648
000310 5a 7b f3 3d 0e 1d 4a be 38 20 09 bd 42 0a 03 be
       0.11888762 -0.19737646 -0.03347799 -0.12796882
000320 b4 e8 cf bd 50 43 bd bd 70 52 e4 bc 7a f4 fc 3b
       -0.101518065 -0.092413545 -0.02787134 0.0077195736
000330 6e fe 35 be 5a 4d 47 be 7c 9e 06 bd d6 d2 05 3e
       -0.17772838 -0.19463101 -0.032865986 0.13068709
000340 a3 73 6b 3e 5b a6 a6 3d 20 73 72 be f1 78 1c 3e
       0.2299333 0.081371985 -0.23676729 0.1528051
000350 3b 9f 0e bc 45 4f 20 3e b6 94 b1 bd c1 51 04 3f
       -0.008704956 0.15655239 -0.086709425 0.51687247
000360 0d 10 15 be 14 94 1d be 73 85 0f 3e 50 70 e0 be
       -0.14556904 -0.15388519 0.1401575 -0.43835688
000370 d5 f1 31 3e 51 d9 fb bd 2d 5f 86 be 59 fd c2 3e
       0.17377408 -0.12297309 -0.26244488 0.38083914
000380 30 cc 93 bd 58 62 5a bd cd e2 59 bd 65 f3 e4 3d
       -0.0721668 -0.053316444 -0.05319481 0.11179236
000390 ac 82 1f 3e 2d 43 d6 3d d3 c6 8c 3d e0 36 c4 bc
       0.15577191 0.104620315 0.0687386 -0.023951948
0003a0 25 1e 15 be 22 15 2a be 1b a4 6e 3e 85 65 43 3e
       -0.1456228 -0.16609624 0.23304789 0.19081695
0003b0 78 96 da bd 16 73 ac 3d 9e 0b 6c be 6c 3a 92 3e
       -0.10673231 0.084203884 -0.23051307 0.28560197
0003c0 24 02 8f bd a6 d4 59 3e 37 4a 8e be 50 16 78 3d
       -0.0698283 0.21272525 -0.27790996 0.060568154
0003d0 3e 19 05 3f ec 43 e4 3d 2a 84 3b 3a d2 0c e4 3d
       0.5199164 0.111457676 0.0007153178 0.11135258
0003e0 09 a0 b5 3e 34 ca 8a be f8 79 87 be 80 ef 64 be
       0.3547366 -0.27107394 -0.26460242 -0.22356987
0003f0 5d 4d cd bd d4 24 ce 3e d9 56 37 bc 6f 15 12 be
       -0.100245215 0.40262473 -0.01119014 -0.14265989

a2.bias f4 [16]
000000 ee f8 fc bd 14 de a5 be f4 db f7 bd b4 0e b5 bc
       -0.12352167 -0.32395995 -0.121024996 -0.022101738
000010 80 ab bd 3c 4d a3 64 be 39 df cc 3b f2 9c 22 bd
       0.023153067 -0.2232792 0.006252196 -0.039700456
000020 02 db 27 3e cc 8b 5a be 8f c6 9b be 4e 68 a9 bd
       0.16392139 -0.21342391 -0.30424926 -0.08271848
000030 d1 0d 87 be b1 0d 65 3d 51 10 6a 3e 39 be 35 3e
       -0.2637773 0.05592126 0.22857787 0.17748345

a3.weight f4 [32, 16, 3, 3]
000000 c1 b7 62 be 8b 68 ec 3e 7a 21 30 bf b9 45 af bd
       -0.22140409 0.4617351 -0.6880108 -0.085582204
000010 60 bd 26 be 28 68 c6 bd f5 71 4f bf f9 b3 bb bd
       -0.16283178 -0.09687835 -0.8103326 -0.091651864
000020 81 9c 6e 3e 2d e2 88 bd 28 f1 d0 bd e7 2c 70 be
       0.23301889 -0.066837646 -0.10202247 -0.23454629
000030 00 47 ff 3b 59 34 62 3e e1 e1 47 3e 47 26 e1 be
       0.0077904463 0.22090282 0.1951976 -0.43974516
000040 c5 91 a1 be 4e 87 11 bf 4e 42 57 3e 66 3f 25 bd
       -0.31556526 -0.56847084 0.21021387 -0.040343665
000050 01 76 60 3e 66 1c 9d 3d 7d 6b 77 3e e2 4f 2c be
       0.21920015 0.07671432 0.24162097 -0.16827348
000060 e0 8f 9e bd 9c dc 16 3e d7 39 d9 bd c8 41 f8 be
       -0.07742286 0.14732593 -0.10606735 -0.48487687
000070 fe 7b 5f 3e bb 02 72 3e 7c 0a 25 3d 8a b6 e3 bd
       0.21824643 0.23633854 0.0402932 -0.11118801
000080 d7 5a 2f 3e ae 2a 3f be 67 f9 2e be 7d 83 cf 3c
       0.17124496 -0.18668625 -0.17087327 0.025331253
000090 f8 a0 21 3e 32 d4 8c 3d c3 76 93 be ab 34 c2 bd
       0.15784061 0.068764105 -0.28801546 -0.09482702
0000a0 0c 21 f1 3e d3 97 f7 bd 2a 8e 22 3e c7 f1 06 3e
       0.47095525 -0.12089505 0.15874544 0.13178168
0000b0 8e 11 22 bd 63 61 66 3e da a5 0e bd 86 f0 d2 bd
       -0.039567523 0.22498088 -0.034826137 -0.102997825
0000c0 cb e7 ad 3e 9b 35 a5 bd 5c da d8 3e cc 8b 05 bf
       0.33965907 -0.08066865 0.42354095 -0.5216644
0000d0 bf e3 67 be a6 5f 28 3e ff 63 43 bc a1 01 56 3d
       -0.22645472 0.16442737 -0.011925696 0.052247647
0000e0 33 b7 a6 be 5e 77 64 3c 3b 8e fa 3d 57 c0 17 be
       -0.32561645 0.013944475 0.122341596 -0.14819466
0000f0 ae 76 1c 3e cb 61 e0 3e 47 75 c1 3d 71 c0 7c 3e
       0.15279648 0.4382461 0.09446197 0.24682786
000100 6f 6f c0 3d 2f 7d 83 3e 72 eb 47 3e 99 81 bc 3e
       0.09396254 0.25681445 0.19523409 0.36817625
000110 c7 bd a4 be 87 9e f9 3e 16 e5 29 be 56 14 8c be
       -0.3217604 0.4875376 -0.16591296 -0.27359265
000120 0d f3 50 3b 73 ff 84 3e 21 58 32 be 65 90 23 3e
       0.003188315 0.25976142 -0.17416431 0.15973051
000130 cc d4 c8 3e 02 12 89 3d 07 f9 b0 3d 7d 22 9a be
       0.3922485 0.06692888 0.08641248 -0.30104437
000140 b7 ad e0 bd f0 6d 34 3d f0 89 88 3e 81 80 ee bd
       -0.109706335 0.044050157 0.26667738 -0.11645604
000150 db e6 b0 3e 16 40 94 bc c2 d5 0e 3d b7 a1 38 be
       0.3455113 -0.018096965 0.034871824 -0.1803044
000160 cb fc 68 be b6 2d 18 3e 40 10 cd bd 64 d1 a6 3d
       -0.22752683 0.14861187 -0.10012865 0.08145407
000170 4a 48 df bd b6 ee 1f 3e 10 c0 d4 be 01 17 06 3f
       -0.1090246 0.15618405 -0.41552782 0.5237885
000180 83 38 41 3d 2a 15 35 be 0b 37 c3 be a9 35 8e 3d
       0.047173034 -0.17683855 -0.38127932 0.069438286
000190 47 65 9e be 62 62 01 be e2 d2 9a be 52 ab d6 3e
       -0.30936643 -0.12635186 -0.30239016 0.41927582
0001a0 0e 2c c2 bd 34 17 96 be 0a 48 be 3e 64 c9 66 be
       -0.09481059 -0.29314578 0.37164336 -0.22537762
0001b0 1d af c5 bd 7a bc fb be b7 4f da be 9f b9 8f 3e
       -0.09652541 -0.49167234 -0.42638943 0.28071305
0001c0 b9 07 ec 3b 15 97 e4 3e d9 48 39 bf 95 8c 02 3e
       0.007203069 0.44646516 -0.7237678 0.1274894
0001d0 fa 96 fc bc 8c d0 45 3f aa aa 68 bd b7 82 6c 3c
       -0.03083371 0.7727134 -0.056803383 0.014435462
0001e0 a3 9f e0 3e e4 6a 6c 3d 9a 86 5c be 81 aa 84 3e
       0.43871793 0.057719126 -0.21535721 0.25911334
0001f0 b1 4d 82 bd 40 ea c7 3e e5 c2 f6 3e a5 75 ae be
       -0.06362475 0.39045906 0.48195568 -0.3407413
000200 13 3d 06 bf f0 34 5d 3c 12 9f af 3e 87 55 79 be
       -0.5243694 0.013501391 0.3430105 -0.24349032
000210 44 c1 00 3e 04 e1 c5 bd 1b 48 dd be 57 e9 f0 bd
       0.12573725 -0.09662059 -0.43219075 -0.11763256
000220 68 31 d3 3d 04 a0 2b 3e 92 68 c7 3c 6a f6 ee 3e
       0.10312158 0.1676026 0.024341855 0.46672374
000230 3f 43 61 bf 2a 3a 41 3e 02 a0 59 be 00 28 af be
       -0.87993234 0.18869844 -0.21252444 -0.34210205
000240 8c dc 68 3e 34 06 47 bd 83 8f 19 3f 8e f8 13 3e
       0.22740382 -0.0485899 0.59984607 0.14450285
000250 92 f8 d2 3c ae af 3f 3e 6e 2d 36 be 35 29 79 bd
       0.025753293 0.1871936 -0.17790768 -0.060830314
000260 89 aa 22 3e 2f e6 93 bd 1e 4e da bd 00 48 8c 3e
       0.15885366 -0.072216384 -0.10659431 0.27398682
000270 b6 5d 69 be ae e6 4a be 98 b5 55 3e e8 4e a2 3e
       -0.22789654 -0.1981456 0.20870054 0.31700826
000280 4a 6f 41 3e 2b 78 53 be 7d 13 0d bf b4 05 28 3b
       0.1889011 -0.20651309 -0.5510786 0.0025638165
000290 e5 9a 29 bb 4e d0 72 3e 36 eb de bd 24 7a b5 be
       -0.0025879678 0.23712274 -0.10884707 -0.35444748
0002a0 66 90 8b be 65 16 05 3d ba 22 bf be c2 d3 12 be
       -0.27258605 0.03249206 -0.37331182 -0.14338592
0002b0 2c 11 0b be 7a 08 54 be b8 35 79 be 1e 72 62 3e
       -0.1358077 -0.20706359 -0.24336898 0.22113845
0002c0 b2 ae 51 3e d0 a9 b0 3d 6d 64 3b be 7a 16 2c 3e
       0.20476797 0.08626139 -0.18300028 0.16805449
0002d0 d7 41 b5 be 2b 1e 14 be 6c 62 c2 bd d9 f9 93 be
       -0.35401794 -0.14464633 -0.09491429 -0.28901556
0002e0 cd 1b 36 be a4 6d ab 3e 3c c6 82 bd 19 b0 4c be
       -0.17784043 0.33482087 -0.063854665 -0.19989051
0002f0 64 f5 89 3e ad d2 e0 3d c3 e2 0a 3e b5 8d 32 3e
       0.2694503 0.10977683 0.13563065 0.1743687
000300 e9 0b 05 3e 4f 4a db bd 41 5d d3 3e 8d 78 a5 bd
       0.12992825 -0.107075326 0.41282085 -0.08079634
000310 de f2 84 bd 07 00 2f 3e 94 20 30 be 9f 51 4e be
       -0.06491636 0.17089854 -0.17199928 -0.20148323
000320 00 31 20 3e a8 16 7e bd 02 bf 96 be 06 34 55 3e
       0.15643692 -0.062033325 -0.29442602 0.20820627
000330 95 0e 5a 3e be 46 86 3e b4 71 aa 3e 45 ff 2d be
       0.21294625 0.26225847 0.33289874 -0.16991909
000340 64 57 75 3d 66 ca 25 bf fd be d7 3d d2 f4 d1 3e
       0.059897795 -0.6476196 0.10534475 0.41007096
000350 1b 5b 9a bd 6a 4d 3b bf 0e 0c 3f 3e ef 20 e8 3e
       -0.07536908 -0.73165 0.18656942 0.45337626
000360 d8 0d c3 3d da 7a dd 3e 86 23 83 be 92 df c3 be
       0.09524125 0.4325779 -0.2561304 -0.38256508
000370 3d 4b 29 3b 2a 7d 08 bf f9 4f da bd 18 71 63 be
       0.00258322 -0.53315985 -0.10659785 -0.2221111
000380 1e f8 48 b9 10 82 51 3e 58 b7 3e be 68 1b cc bd
       -0.00019165917 0.20459771 -0.18624628 -0.09966165
000390 5b bd b9 bc 9a c2 92 bd e9 a8 8d be a8 41 4e bc
       -0.0226733 -0.071660236 -0.2766793 -0.012588896
0003a0 1a 11 92 3e db 00 bc 3d 68 81 c9 3e 50 5f 88 be
       0.28528672 0.09179851 0.39356542 -0.26635218
0003b0 06 63 ac 3e 72 3a a3 be 89 8d 5a be 5b 95 9d be
       0.336693 -0.31880528 -0.21343054 -0.30778012
0003c0 a4 02 15 be fd 5a fa be 1b a5 29 be ac 52 e7 be
       -0.14551789 -0.48897544 -0.16566889 -0.4518026
0003d0 96 3a 3c b9 a1 d6 f3 bd 9d 03 7a be 45 75 da bd
       -0.00017950902 -0.119061716 -0.24415441 -0.10666899
0003e0 88 e3 62 3e 6a 3d 5d bf 53 d1 9a be 75 f3 71 3e
       0.22157109 -0.86421835 -0.30237827 0.23628028
0003f0 29 0b b6 3e 4a 4e 3e be 2b 34 a0 3e c2 8d be be
       0.3555539 -0.18584552 0.312898 -0.37217528

a3.bias f4 [32]
000000 82 c5 e0 be 92 76 d0 3d da 82 38 3e 25 43 10 bf
       -0.43900687 0.101788655 0.18018666 -0.56352454
000010 74 ce e6 be f4 e6 cf 3d 40 2a 8f 3e 9b 56 3f be
       -0.45079386 0.10151473 0.27961922 -0.18685381
000020 1c 98 22 bf a3 2b c1 be aa c9 a6 be 9e 57 4a be
       -0.6351335 -0.37728605 -0.32575732 -0.19759986
000030 81 84 7c bf 6c 72 5d be 0f 60 40 be 5a 0d 3e 3f
       -0.98639685 -0.2162568 -0.18786643 0.7423912
000040 85 11 f5 3e d7 45 c8 be 39 ad 22 be d8 a6 06 bf
       0.4786493 -0.39115784 -0.15886392 -0.52598333
000050 5f 60 b5 bd 8d ce f2 be cb d6 c3 bd 4d 4c c3 be
       -0.08856272 -0.4742321 -0.09562453 -0.3814415
000060 62 3f 13 be 53 41 a6 3e f8 e5 01 3f 31 b7 5a be
       -0.14379647 0.32471713 0.5074153 -0.21358944
000070 1b a6 53 3c 2e 50 85 3e e8 58 1e be 93 d3 91 be
       0.012918021 0.26037735 -0.15463603 -0.2848173

b1.weight f4 [32, 32, 3, 3]
000000 53 87 07 bf 83 04 0c 3e c0 2d 8b bd ba 28 66 be
       -0.52940863 0.13673596 -0.067958355 -0.22476473
000010 91 ce 93 bd 6c ff ed bd 56 ff dc bd a9 2e b2 bd
       -0.07217134 -0.116209835 -0.10790889 -0.08700306
000020 82 5d bc be 39 4b 92 3b c0 88 11 bf 15 41 30 3e
       -0.3679009 0.0044645336 -0.5684929 0.17212327
000030 0d 76 a7 be bf 9a 36 bf 1a 34 63 3d ec 28 35 3e
       -0.32707253 -0.71329874 0.05546961 0.17691392
000040 cb 2c ec be a3 56 d4 3e 70 7a e9 bd a8 24 81 3e
       -0.46127924 0.4147235 -0.11400306 0.2522328
000050 78 97 8a 3c 92 a5 4d 3e aa 5d bd 3e 04 93 ba 3d
       0.016917929 0.20082691 0.36985523 0.09110072
000060 7e 89 67 bd 28 45 8f 3c 62 61 68 be dc d8 ca 3e
       -0.056527607 0.017489031 -0.22693399 0.39618576
000070 34 76 8a 3e 84 ab b3 3e d1 92 43 3e eb 60 cc be
       0.27043307 0.35091794 0.19098975 -0.39917693
000080 c0 33 64 3e c7 e4 2e be a3 80 74 be 83 39 a9 be
       0.22285366 -0.17079459 -0.23877196 -0.3305169
000090 cd 32 ae 3e 5a 7e 05 bf 60 66 b9 bd d6 d3 e3 bc
       0.34023133 -0.5214592 -0.090527296 -0.027810972
0000a0 78 a1 43 3d 45 9e cd be 76 f1 11 be 52 7a 38 bf
       0.04776141 -0.40159813 -0.14252266 -0.72061646
0000b0 b4 9b 0c 3d 5e 31 1f 3f 74 67 75 bf e4 fc 0a be
       0.034328178 0.62184703 -0.9586098 -0.13573033
0000c0 54 7d 64 3e 9c d1 60 be e2 12 f5 3d b7 0d ba 3d
       0.22313434 -0.2195496 0.11966492 0.09084647
0000d0 80 16 15 be 8d 2a 0d bf 04 e1 37 be 08 f1 45 be
       -0.14559364 -0.5514305 -0.1795693 -0.19330227
0000e0 34 3a 86 be 38 d2 7b bd 35 11 94 3d 8e 0e 01 be
       -0.2621628 -0.061479777 0.072298445 -0.12603208
0000f0 76 14 45 bd 02 4c 81 bd be 81 57 3e 80 a2 7d bd
       -0.048115216 -0.063133255 0.21045586 -0.06192255
000100 c7 c4 5a 3d 31 b5 27 3d aa 98 2a 3d d7 8c 2b be
       0.053410318 0.040944282 0.041649498 -0.16752945
000110 6f 6b 1a bd 99 2c 26 3c 16 91 6e 3d 88 d8 c7 3c
       -0.037700113 0.010142469 0.058243833 0.024395242
000120 be 98 51 be 61 89 af be ff 7e cc be fa 1f 09 bf
       -0.20468423 -0.342845 -0.3994064 -0.5356442
000130 1a bb be 3e 68 62 1e 3c e1 be da be 0d 9b 52 3e
       0.37252122 0.009667017 -0.42723754 0.2056696
000140 ef bb a4 3e 70 30 99 3e 84 51 2c be ab ee 91 bd
       0.32174632 0.29919767 -0.1682797 -0.071256004
000150 30 43 8f 3e 1f ff da 3d 82 9b 03 3f 35 e4 5e 3f
       0.27980947 0.10693192 0.5140916 0.87066966
000160 f3 a7 27 be 41 93 a6 bd 3c 26 90 be b3 77 98 3e
       -0.16372661 -0.08133555 -0.2815417 0.29778823
000170 e3 ed 56 be 7c fe 7d 3e 25 aa 95 3e 0f a0 76 be
       -0.20989184 0.2480411 0.29231372 -0.24084495
000180 e6 d1 4e 3e 3c 6a 14 3b 71 de a9 3b 38 35 96 be
       0.20197257 0.0022646328 0.005183988 -0.29337478
000190 c5 34 e8 be 3c fb 22 bf 19 7c ba 3e 07 d3 5f be
       -0.4535276 -0.63664603 0.36422804 -0.21857844
0001a0 3f 53 d5 be 6a 4a 4f 3e d6 b8 68 3e c5 55 35 be
       -0.41665074 0.2024323 0.2272676 -0.177085
0001b0 9e e6 8a be 99 cf cc be 1c fb 7a be 49 a0 1d be
       -0.27129072 -0.40002134 -0.24509853 -0.15393175
0001c0 a1 7c f5 bd ce d4 68 3e 42 86 80 be 86 a4 dd be
       -0.11986662 0.22737429 -0.2510243 -0.43289584
0001d0 f2 29 26 bd 03 c6 a8 3d 2f af dd 3d b1 52 37 3e
       -0.040567346 0.08240893 0.10824429 0.17902638
0001e0 86 8a ee 3d 69 6e 8d bd a6 01 f8 bd 71 40 79 3b
       0.11647515 -0.06905825 -0.121096894 0.0038032795
0001f0 8a 49 9f be 78 07 b8 3d 2b a8 b6 3d 9b c6 8e 3e
       -0.31110793 0.089857996 0.08918794 0.278859
000200 7a 98 c1 3d 38 f4 ef bc be 1f ec be 73 c3 7d bc
       0.09452911 -0.029291257 -0.46117967 -0.015488493
000210 55 6b ed bc de 69 54 be d8 dc 82 bd 64 96 1f 3e
       -0.028981844 -0.2074351 -0.06389779 0.15584713
000220 54 5d 01 3e 8b 4b 00 3d 8b 5c 8b be f6 e4 aa 3d
       0.12633258 0.031322043 -0.27219042 0.08344452
000230 76 09 40 3d 95 d5 91 3b 04 f4 fc be 6a 7a bf 3c
       0.046884023 0.00445051 -0.4940492 0.023373801
000240 6c b5 65 be ef 36 6c 3b 49 4a b9 3d 8d f4 65 3e
       -0.22432488 0.0036043485 0.09047372 0.2245657
000250 10 cb de 3e 8a f9 44 3e 34 7d 04 bd 56 95 61 bc
       0.435143 0.19235817 -0.032345966 -0.013768515
000260 76 d3 a5 3e 20 36 40 3e 93 68 94 3e 0d f3 08 bf
       0.32387894 0.18770647 0.28986034 -0.53495866
000270 31 c9 7b ba 5a f3 c2 bd cb 9b 23 bf 3d 93 a7 3d
       -0.000960487 -0.09519072 -0.63909596 0.0818238
000280 a5 ac 9d 3e ed ce 40 be 12 26 d7 3e 5a ad f7 bd
       0.3079578 -0.18828936 0.42021233 -0.12093611
000290 c5 5c 44 be 42 36 45 3e 09 18 25 bf c6 53 5c be
       -0.19176014 0.19258979 -0.644898 -0.21516332
0002a0 e7 07 83 bd 4f 51 5d be 62 50 0b be ac fb 95 be
       -0.063979916 -0.21613048 -0.13604882 -0.29293573
0002b0 0d 36 f8 3e d2 ca ea be ec 8e 40 3e 25 cc af 3e
       0.48478737 -0.45857865 0.1880452 0.34335437
0002c0 26 8c 2f be 5d 4a 1e bd dc c9 9c 3e 13 e8 80 be
       -0.17143306 -0.038645137 0.30622756 -0.2517706
0002d0 3b 98 92 bd f9 d4 6b be af b3 21 3d 44 a6 76 3c
       -0.07157942 -0.23030461 0.039478 0.015054289
0002e0 64 9b f4 bd f8 ef 76 bd e6 bc 1e 3e d5 88 c1 3d
       -0.11943701 -0.060287446 0.15501747 0.09449927
0002f0 58 b4 6b 3e 87 bf 16 3e 2b ce ac be 30 9c a5 be
       0.23018014 0.147215 -0.33751044 -0.32345724
000300 b7 1f 25 3e 3c ee 49 3e 22 e5 9c 3e 53 0d b6 bd
       0.1612538 0.19719785 0.30643564 -0.0888926
000310 dd be 44 be 56 39 8d be d2 c0 47 be e9 f3 b7 3c
       -0.19213434 -0.27582806 -0.19507149 0.022455173
000320 56 f6 51 3d 29 8f 19 be ac 23 34 3e fa 72 d0 3d
       0.051260315 -0.14996018 0.17591733 0.1017818
000330 44 d4 aa 3e b9 cc f9 be b3 d1 b2 bd 0e 22 87 be
       0.3336507 -0.48789003 -0.08731403 -0.2639317
000340 3b 25 6b 3e da 42 a6 be 36 06 b5 be 91 d4 51 bd
       0.22963421 -0.3247288 -0.353563 -0.05122811
000350 1d 8d 42 be 45 bd 2e be 84 f3 f0 3e 78 8a dd 3d
       -0.18999143 -0.17064388 0.47060788 0.108174264
000360 db 98 c8 3e eb a7 d6 be 1a 95 b8 be bc 51 0f bf
       0.3917912 -0.41924986 -0.36051255 -0.5598409
000370 f8 cc b9 bc e9 69 19 3e ab ef bf 3b ed a8 7c 3e
       -0.022680745 0.14981808 0.005857428 0.24673815
000380 a5 63 fa 3d 36 1c 95 3e f4 a9 81 3d bc 58 22 bf
       0.12226037 0.29123086 0.06331244 -0.6341665
000390 75 45 05 bd 61 48 60 bd 3e af b8 3e 45 98 dd bd
       -0.032536943 -0.054756526 0.360712 -0.10820059
0003a0 a8 7e f3 3e 0a f7 a8 3d dd 25 15 3f 45 e9 26 3d
       0.4755757 0.08250244 0.582609 0.040749807
0003b0 4d 45 94 be b7 93 10 3e 3a 6b 77 bd cc 63 a7 bb
       -0.28959122 0.14118849 -0.060404994 -0.0051083323
0003c0 e7 69 80 bc 18 92 a0 3e 98 28 d6 be f9 e6 8d 3e
       -0.015675498 0.3136146 -0.41827846 0.2771528
0003d0 fc 55 7f bd b5 a2 d7 bd 4c cf 71 bf a4 9b cf be
       -0.06233786 -0.10529081 -0.94456935 -0.40548432
0003e0 a1 fd a8 bd 25 45 f9 bc 4d f3 a9 3e bb ab d2 bc
       -0.08251501 -0.030428478 0.33193436 -0.025716653
0003f0 cb 33 03 3f 28 cb 3e be 04 24 2c bf 79 4b 16 3d
       0.51250905 -0.18632185 -0.67242455 0.03669307

b1.bias f4 [32]
000000 4a ff 2b bc 22 2e 9e be 3b a9 53 bf c2 43 c5 be
       -0.010497877 -0.30894572 -0.826801 -0.38528258
000010 61 bf 7f 3f e5 23 86 be f1 df 83 be 01 a9 d9 bb
       0.99901396 -0.2619926 -0.2575679 -0.0066424613
000020 4c 63 93 be 42 50 57 bf fb a6 2a bf 31 47 ba 3e
       -0.28786695 -0.8410684 -0.6666104 0.3638244
000030 f3 73 1d bf ca 25 06 bf 7a 27 62 3e b6 97 ca be
       -0.6150505 -0.5240141 0.22085372 -0.3956887
000040 78 46 a0 be d1 af 8e bf fa 1a 64 be 4f 18 05 3f
       -0.31303763 -1.1147405 -0.22275916 0.51990217
000050 64 68 81 be 07 fe ef be 95 2d 78 3f 1d b4 51 bf
       -0.25274956 -0.46873495 0.9694455 -0.81915456
000060 c6 a3 ce bd 64 ad 86 be 7d 01 f4 bd 07 08 a9 bf
       -0.10089831 -0.26304162 -0.11914346 -1.3205575
000070 ad fc d3 bd cd 8f 43 bd c3 5f 3b 3e 8e de 17 be
       -0.103509285 -0.04774456 0.18298249 -0.14830992

b2.weight f4 [32, 32, 3, 3]
000000 87 cc ad 3e 33 4d 1b 3e 56 67 23 bd 53 25 55 3e
       0.33945104 0.15166168 -0.03989347 0.2081502
000010 e2 8b 57 be 23 0f f4 3e 8e 28 96 be c2 5b 0a be
       -0.21049455 0.47667798 -0.29327816 -0.13511565
000020 b2 5d 90 3e 9b 50 d3 3e 71 fb 14 be 5c f4 7d bd
       0.28196484 0.41272435 -0.14549042 -0.062000617
000030 de 42 1a be 97 8c 5e be 1a 06 13 be 65 71 68 3e
       -0.1506457 -0.21733318 -0.14357796 0.22699507
000040 b6 ed d0 3d 04 89 0b bf fe e7 38 be 0e 06 1b 3e
       0.1020159 -0.54505944 -0.18057248 0.15139028
000050 84 32 2f bf 0d 4f 33 3d c4 54 aa be 4b ae f3 3d
       -0.68436456 0.04377656 -0.33267796 0.11898478
000060 a0 ae 86 be f5 60 38 be 91 14 1c be ed fe 00 3f
       -0.26305103 -0.18005736 -0.1524222 0.50388986
000070 da a3 af bd 93 c3 12 3e 1d e2 2f 3f 1d a9 ff bd
       -0.08576174 0.14332418 0.68704396 -0.12483428
000080 bd b6 73 be 11 4e d3 bd 4f fb f1 be 21 de 16 be
       -0.23800178 -0.10317624 -0.47262046 -0.14733173
000090 6c 59 47 be 1d 38 f0 3d bc 52 c4 be 18 c9 99 bd
       -0.19467705 0.11729453 -0.3834437 -0.07509059
0000a0 0d 9c 8a 3e 5c 2e bd be 52 4f 21 bf af a1 57 3e
       0.27072182 -0.36949432 -0.6301166 0.21057771
0000b0 90 bb 9f 3e c9 e3 5a 3f d5 59 e4 be 2a 21 5f be
       0.31197786 0.8550382 -0.44599786 -0.21789995
0000c0 95 e5 0c be 07 94 e5 bc 1f e5 fd be 5d b4 1c bc
       -0.13759454 -0.028024687 -0.49588868 -0.009564486
0000d0 73 fd d6 3e 76 0e 72 3f 48 58 bb 3d 0a 5c e1 be
       0.4199024 0.94553316 0.09147698 -0.44015533
0000e0 38 22 5e 3e 29 8f 8e be d3 e6 ea bd b9 08 11 be
       0.21692741 -0.27843598 -0.114698075 -0.14163484
0000f0 42 3a 4f 3e 00 d8 0f 3e 5c 8a b5 be b4 85 9c 3e
       0.20237067 0.14047241 -0.35457122 0.30570757
000100 e3 cf 5d be 16 12 54 be ce 00 08 be d7 c2 16 3d
       -0.21661334 -0.20710024 -0.13281557 0.036806908
000110 dc 27 96 3d b5 29 a1 bd 6d 2d 58 3e d3 6a 5d be
       0.07331821 -0.07869283 0.21111079 -0.21622781
000120 1a 3e 3b bd 94 53 b5 be c9 e2 95 3e c5 65 0f 3d
       -0.04571352 -0.35415328 0.29274586 0.035009164
000130 39 c6 23 3d 22 fc 25 be 06 ee 2f be 13 2a c5 3d
       0.03998396 -0.16209462 -0.17180642 0.09627166
000140 6a ca b1 be ba 7b db be ae c9 e4 be b7 ee 87 be
       -0.34724742 -0.42867833 -0.4468512 -0.26549312
000150 ed 55 54 3e 65 f5 04 be 03 f6 d1 3e f1 39 05 3f
       0.20735903 -0.12984236 0.41008005 0.52041537
000160 07 fa 04 3d 67 79 3a 3d bb 6d cb 3c fc b8 50 be
       0.032465007 0.045525935 0.024832597 -0.20383066
000170 11 a3 35 be ed 01 6d be ec 5a 9d be 8e 6e 56 be
       -0.17737986 -0.23145266 -0.3073343 -0.20940611
000180 3f 9c fc 3e 1e 70 d9 3e e3 5f 6e be c9 86 44 3e
       0.49337956 0.4246835 -0.23278765 0.19192041
000190 90 ad c7 bd 70 b9 79 3e 7f df 8a be 19 22 1e 3e
       -0.09749901 0.24387145 -0.2712364 0.15442695
0001a0 f8 d2 91 be f0 f7 fd be 00 e5 34 3e ab fe 51 be
       -0.2848127 -0.49603224 0.17665482 -0.20507304
0001b0 46 6d 7b be a5 b3 89 be ab 5e a0 3d 75 47 0b 3e
       -0.24553403 -0.2689487 0.078305565 0.13601477
0001c0 44 dc a6 bd e6 4f 2e be de 40 de be 61 4b 0f 3e
       -0.08147481 -0.17022666 -0.43408865 0.13993599
0001d0 c6 d4 ba 3d e9 71 f5 be 20 2c f3 bc 8e e5 29 bf
       0.091226146 -0.4793847 -0.029684126 -0.663659
0001e0 c5 c2 21 3d 64 12 aa be 28 ed 3b 3e 72 63 eb bd
       0.039492387 -0.33217156 0.18352187 -0.11493577
0001f0 a9 91 6f bd b1 26 b9 be ee 1d af 3e 19 53 82 bc
       -0.05848852 -0.36162332 0.34202522 -0.015908765
000200 4f 1e 7d be 7e 4a 7f 3d 96 e6 11 bf 79 fc 26 3c
       -0.24718593 0.0623269 -0.5699247 0.01019203
000210 de 0c 84 be 26 7c 8d 3e 4f ca 1c 3e 51 15 2d be
       -0.25791067 0.2763378 0.1531155 -0.16902663
000220 98 c1 c7 bd 3f c3 8d bd 6c f6 ac 3e 97 c2 31 bf
       -0.09753722 -0.06922006 0.33781755 -0.69437546
000230 e4 78 2c 3e 38 7f 1a 3e 86 e4 99 3e 48 73 c1 3d
       0.16842991 0.15087593 0.30057162 0.09445816
000240 42 26 c2 3e fe 90 91 bd d9 54 19 be 0b 5a f5 3c
       0.37919813 -0.07107733 -0.14973773 0.029950162
000250 6e c1 0e be 97 75 16 3e df 64 3b 3d b0 66 dc 3e
       -0.13940975 0.14693294 0.045750495 0.43047094
000260 03 42 52 be b1 5c 6c bd 6b b4 25 bc e4 7f 7e 3e
       -0.20532994 -0.057705585 -0.010113816 0.24853474
000270 e4 3b dd 3d ed 2f d9 bc 1e b1 bc 3d 92 53 92 be
       0.10802439 -0.02651211 0.0921347 -0.28579384
000280 8e a3 30 3e 30 02 57 be 43 3b 10 bd ac 02 31 3e
       0.17249891 -0.20996928 -0.035212766 0.17286175
000290 bb c0 4c bd d6 20 24 be b4 23 9c bd c1 66 cf be
       -0.04998849 -0.16028151 -0.07623997 -0.40508083
0002a0 9e 5e 92 be c2 56 21 be c1 c8 97 3c 5f 93 ca 3e
       -0.28587812 -0.15755752 0.018528344 0.3956556
0002b0 68 5b ae 3b f5 b3 e1 bd 17 66 2b 3d e6 8a 9e 3e
       0.005320955 -0.11020652 0.041845407 0.30965346
0002c0 6f 76 42 3e 6f b9 af bd 25 ce b4 3d 26 7e 86 bd
       0.18990491 -0.085802905 0.088283814 -0.0656703
0002d0 92 27 16 bb 75 6b 89 be f9 96 73 3c 92 04 93 3e
       -0.002291177 -0.26839796 0.014867538 0.28714424
0002e0 2e 08 1b be 5b ff 23 bc 8e 16 d1 be 6f 36 dc bd
       -0.15139839 -0.010009612 -0.4083752 -0.1075257
0002f0 7b c9 d9 be 28 c2 1f be 2a 75 7d be 9a db 21 3e
       -0.4253653 -0.15601408 -0.24751726 0.15806428
000300 02 bc 58 3e 35 19 60 3e 04 d1 07 3f 78 e3 9d be
       0.2116547 0.21884616 0.5305331 -0.30837607
000310 f2 db b9 be 68 fe b0 3b 0d f7 b0 3e e5 dd c6 be
       -0.36300617 0.0054014213 0.34563485 -0.38841167
000320 a2 dc e7 3d 93 01 d7 3d 10 fb 94 bc 6f 3b a7 3e
       0.11321379 0.10498347 -0.018186122 0.32662532
000330 c9 98 7d bf 6a 4c de 3e 71 30 42 be a3 cc 55 be
       -0.99061257 0.43417674 -0.18963791 -0.20878844
000340 f6 2b 25 be fa e2 5a be 34 de 0b bd 0a 57 0d bf
       -0.16130051 -0.21375647 -0.034147456 -0.55210936
000350 7d be 55 3f f4 4e bf 3d 0e f8 25 3e 13 bd 88 3e
       0.8349379 0.09341231 0.16207907 0.26706752
000360 87 af 86 3d 22 2d 2f be 6c d8 34 bd ea 73 3d 3e
       0.06576448 -0.1710706 -0.04415171 0.18501249
000370 65 1d 67 be 36 d0 02 bd c8 45 db 3e fc 8b 60 3e
       -0.22569807 -0.031936847 0.42826676 0.219284
000380 81 2a ad be b7 87 86 bc 45 1a 10 be ef 2a 9e 3e
       -0.3382149 -0.016422136 -0.14072521 0.3089213
000390 ee f9 b3 3d 86 9f a3 3e e7 91 64 bd d3 91 a7 bd
       0.08787905 0.31957644 -0.055803206 -0.08182111
0003a0 c2 10 8a be 7d 9c 50 3e 50 f2 e9 3d fd e0 44 be
       -0.2696591 0.20372196 0.114231706 -0.19226451
0003b0 5c b1 93 3d 32 c5 e1 3c 6e e7 e3 3d fa c4 8d 3e
       0.07211563 0.02755985 0.11128126 0.27689344
0003c0 d6 c5 14 bf 73 8f eb be a9 0d 43 be ad 0b 2b 3e
       -0.58114374 -0.4600788 -0.1904818 0.16703673
0003d0 a0 8a a1 be 06 cc 00 3f d0 2a 85 3e 5d 52 59 be
       -0.31551075 0.50311315 0.26009226 -0.21222825
0003e0 91 78 02 bf 1a 8e 5b bd f9 0f 2b bf b7 54 1e 3e
       -0.5096522 -0.053602315 -0.6682125 0.15462004
0003f0 56 5d 99 3d 46 2b 1c 3e f5 75 96 3e f4 f1 cf bd
       0.074885055 0.15250883 0.2938687 -0.10153571

b2.bias f4 [32]
000000 c4 e6 69 3e b5 77 a1 bf 5c 08 75 bf 38 db 91 bf
       0.22841936 -1.2614657 -0.9571588 -1.1395025
000010 db 92 2f be b6 c2 7d bf 5e 9c 1c bf 3b c3 2f bf
       -0.17145865 -0.9912523 -0.611761 -0.68657273
000020 88 1a 3d 3f 74 43 84 3d b7 ca ac 3d a9 7d f3 be
       0.7386861 0.06458178 0.08437102 -0.4755681
000030 a6 59 05 bf d5 48 73 bf 60 13 55 be e6 8b ca 3e
       -0.5208992 -0.9503301 -0.20808172 0.3955986
000040 cc 5c 97 be 8c fa 23 bf 1c 6f 41 be d4 8b c4 be
       -0.29562986 -0.6405418 -0.18890041 -0.3838793
000050 bd a0 4d be 3d 25 02 3f dc 45 5f bf 90 bb 35 3f
       -0.20080848 0.5083807 -0.8721597 0.7098932
000060 5f b4 59 bf b5 f7 f4 3e 61 91 7c 3e a1 c0 83 3e
       -0.8504085 0.47845235 0.24664833 0.25732902
000070 27 68 94 bf 48 7b ab be a6 40 31 3f d7 03 94 be
       -1.1594285 -0.33492494 0.6923927 -0.2890918

b3.weight f4 [64, 32, 3, 3]
000000 0c b4 c9 be e2 83 51 3c 8b 40 d0 bd 3c 58 e3 bd
       -0.39395177 0.012787791 -0.101685606 -0.11100814
000010 36 41 2b 3d ba d5 2c be 9b 8a 2b 3d 68 5a 07 bf
       0.041810237 -0.16878405 0.04188023 -0.52872324
000020 cb d8 6b bd ce 4e be 3d d8 4c d2 be e9 fb d2 3e
       -0.057579797 0.092923746 -0.41074252 0.41207817
000030 a3 86 ce bb 1b ae 80 3e 91 1f 5c be 1c 08 aa be
       -0.006302671 0.25132832 -0.21496417 -0.33209312
000040 96 9a 1d be 35 6c 26 be 26 76 78 be b0 80 34 be
       -0.15391001 -0.16252215 -0.2426382 -0.17627215
000050 49 8b 31 bd 74 e4 33 3e 9e 4b dd bd 04 41 b4 be
       -0.043345723 0.17567617 -0.108054385 -0.35205853
000060 2f 2d 9e 3d 90 86 d7 3e 29 25 58 be 0b 80 8a bd
       0.07723462 0.4209485 -0.21107925 -0.067627035
000070 2e 45 03 be d0 cb bb 3d 06 a6 f1 3d 76 46 d6 3e
       -0.12819359 0.091697335 0.117992446 0.41850632
000080 bb 37 c2 be d7 94 c9 3d b3 13 1c be 13 71 99 bd
       -0.37933144 0.09842842 -0.1524189 -0.0749227
000090 90 72 b9 3e ca 29 cf bc 39 80 7b 3e 20 11 36 bf
       0.36220217 -0.025288481 0.24560632 -0.7111988
0000a0 20 4a 9b 3d df 39 1b 3f 1c fc bd be 2e 7d b3 3e
       0.075824976 0.6063518 -0.37106407 0.35056442
0000b0 66 91 e9 3d 42 49 2c be a8 ef 52 3f 72 07 0b 3e
       0.11404686 -0.1682482 0.82396936 0.13577059
0000c0 89 b9 30 3e 13 ff b5 be 37 71 ae 3e 09 2d c0 bc
       0.17258276 -0.3554617 0.3407075 -0.023458974
0000d0 41 b9 a9 bd 3f 2c ce be b6 39 b5 be d3 e6 29 3d
       -0.082872875 -0.40268132 -0.35395592 0.041479897
0000e0 63 97 ce be 2e ad d5 3d b2 37 d1 3c ff a3 58 3e
       -0.40349874 0.10433422 0.025539253 0.2115631
0000f0 5b 74 71 3d f2 f6 b7 bd 52 e3 90 bd 1d 89 a2 be
       0.058948856 -0.08982648 -0.07074608 -0.31745234
000100 91 77 2b bc 46 47 8a 3e 40 da f7 bc 15 7f de bc
       -0.010465519 0.27007502 -0.030255437 -0.027160207
000110 3d 3b 27 bf 4f 01 90 3e 9b d3 ec 3e c1 54 68 be
       -0.65324765 0.28125998 0.46255192 -0.22688581
000120 b9 30 1d be 1b e2 d6 3d 50 6c f3 bd 44 d4 dc bd
       -0.15350617 0.10492345 -0.11885893 -0.10782674
000130 23 51 da 3d ba cb 0c 3d 30 4a 32 be 43 80 0e bf
       0.10660007 0.034373976 -0.17411113 -0.5566446
000140 09 de e1 3e 5d 92 c1 be 03 1b 8c 3e 9d 58 28 3e
       0.44114712 -0.3780698 0.27364358 0.16440053
000150 fd 0a 62 3d af 7e 00 3f f6 d2 b4 be 57 3c a7 be
       0.05518626 0.50193304 -0.353172 -0.32663223
000160 71 f1 17 bf 67 33 54 be 02 ac 27 be d0 f5 db be
       -0.59352785 -0.20722733 -0.1637421 -0.42960978
000170 bb 87 0b be 07 4a af 3d 13 74 c0 bd eb 4d 34 3e
       -0.13625996 0.085590415 -0.093971394 0.17607848
000180 c8 5c 9a be d0 68 e9 bd 44 a8 ee be d6 cf b4 3e
       -0.3014891 -0.113969445 -0.4661275 0.35314816
000190 50 e3 4a 37 00 bc 68 35 c2 70 8a 3e 3f 4e 8c bd
       1.2093064e-05 8.670031e-07 0.27039152 -0.06850862
0001a0 33 c4 5a 3e 3f d3 a4 bd fb 73 1f 3f 11 1c bb 3e
       0.21363907 -0.080481045 0.6228635 0.3654485
0001b0 d9 e8 d0 3d 94 68 3f 3e 23 70 6d 3e c1 43 63 3e
       0.10200662 0.18692237 0.23187308 0.22193815
0001c0 63 19 d0 bd 7f 3e 01 bf fe 21 69 be 10 cd e6 3b
       -0.10161092 -0.50485986 -0.22766873 0.0070434883
0001d0 94 08 13 3d 72 6b 8e be fd fe fa bd 08 36 7f 3d
       0.035896853 -0.2781635 -0.122556664 0.062307388
0001e0 39 9b 63 bd ec cd 1a 3f 82 68 68 3e fe f6 d0 3c
       -0.055567954 0.6047046 0.22696117 0.0255084
0001f0 c6 13 00 be 86 be e7 3e d9 12 87 3e f6 4e d5 be
       -0.12507543 0.45262545 0.26381567 -0.41661805
000200 e3 d3 a7 3d 82 dc 66 3e d1 14 14 be 17 dc 31 3e
       0.08194711 0.22545055 -0.14461066 0.17369114
000210 7b b1 ed bd d7 a9 32 be f7 5e 53 bf 98 46 fc bd
       -0.11606117 -0.17447601 -0.8256678 -0.12318152
000220 a8 34 b3 be d2 a1 51 3e 49 cc 75 bd e7 fb 3a be
       -0.3500111 0.20471886 -0.060009275 -0.18260156
000230 d5 ff 5a bf 91 ff 8c be 6c d7 f9 bd 25 87 5c bd
       -0.8554662 -0.27538732 -0.121992916 -0.05383982
000240 cc b5 08 3e 83 5f 2b bf 5e ca c8 be d6 04 3e 3f
       0.133506 -0.66942614 -0.39216894 0.7422613
000250 76 ce 6c be 5c 48 fb 3d 7f da 3c be a6 00 ef be
       -0.23125634 0.12269661 -0.18442725 -0.46680182
000260 44 1f 99 be 45 31 b4 be 1f 22 3f be 09 5d d0 3e
       -0.29906666 -0.3519384 -0.1866536 0.4069598
000270 c4 c9 cb 3d 30 36 10 bd 59 f7 d1 be c2 aa 27 bf
       0.09950593 -0.035207927 -0.41009024 -0.6549493
000280 5e 13 3a be 63 90 bc be f7 97 04 3f db 82 17 3d
       -0.1817145 -0.36828908 0.5179438 0.036990028
000290 73 b8 1c 3d c3 8e 8c be f8 1c a5 be c9 9b 17 be
       0.038261842 -0.2745267 -0.32248664 -0.14805521
0002a0 70 07 0a be 43 ec e4 be 66 58 65 be 83 d3 23 3e
       -0.134794 -0.44711503 -0.22397003 0.15998654
0002b0 a3 9d 05 be 50 22 07 be 12 99 5a bc db 38 cd be
       -0.13048415 -0.13196683 -0.013342159 -0.4008244
0002c0 89 9d 01 3e e6 98 99 be b6 55 27 3e ca 88 b2 be
       0.12657751 -0.29999465 0.1634129 -0.34869987
0002d0 ec bc bf 3d a6 58 3d bd b9 57 37 be cb 0b 9f 3e
       0.09362206 -0.04622712 -0.17904557 0.31063685
0002e0 47 85 9b bd 2a fa 1d 3e 05 05 88 3d 57 7a 9d 3e
       -0.0759378 0.15427461 0.066415824 0.307574
0002f0 e0 b0 66 3e af 65 83 3d 4c 6a 72 be 62 51 47 bd
       0.2252841 0.06415879 -0.23673362 -0.048661597
000300 3e cd de be 9d ba 24 3e 55 ed af 3d 06 af ee bd
       -0.43515962 0.16086812 0.08590189 -0.11654477
000310 75 bc 0f 3e fe 26 c3 bc a0 1a 02 bf 3d 8a ad be
       0.14036734 -0.023822304 -0.50821877 -0.3389453
000320 8d d5 30 bd b5 ef 62 3e 84 ae 17 3d 7a 4b 30 3c
       -0.043172408 0.22161753 0.037031665 0.0107601825
000330 35 7b 22 3e a4 cd 55 be fc 61 0c be a5 87 31 3e
       0.15867312 -0.20879227 -0.13709253 0.173369
000340 fd b0 1c 3e 15 3b 01 bf 41 69 f5 3d 41 9e 36 be
       0.1530189 -0.5048078 0.11982966 -0.17833807
000350 46 c5 0b 3c 79 67 bb 3d 91 fd 13 bf 43 d1 6d 3e
       0.00853092 0.09150595 -0.57808787 0.23224358
000360 2b 16 9d 3b 87 7f c0 bd a1 ea 2b bc 3e db 14 bd
       0.0047939024 -0.09399324 -0.010492952 -0.0363419
000370 d9 0e c8 be 28 c1 21 3d 9e 2f b5 3d 55 99 57 3e
       -0.39073828 0.03949085 0.08846973 0.21054585
000380 b8 a3 fe bc 2e fe ec bd d0 b1 18 be 3f 11 b5 3e
       -0.031083927 -0.115719184 -0.1491158 0.3536472
000390 81 96 f8 3e a2 37 78 3c cb 39 93 3e a0 dd 56 bb
       0.48552325 0.015149983 0.2875503 -0.0032785907
0003a0 c7 a0 79 3e c9 1e 9d 3d 81 61 8f 3e 90 5f 04 3e
       0.24377738 0.076718874 0.28004077 0.12927079
0003b0 33 11 d3 bc 4c 8e 9e bd c6 51 b1 3e 35 91 e5 3e
       -0.025765037 -0.07741985 0.346327 0.44837347
0003c0 7b 2f 07 be 6e 07 f8 be b0 47 80 3e 20 45 25 be
       -0.13201706 -0.48443168 0.25054693 -0.1613965
0003d0 be 0d 38 be 91 a4 3e bd 09 4d 55 3e 7b dd 91 3d
       -0.17973992 -0.04654366 0.20830168 0.07122322
0003e0 62 b6 81 3e 57 de 9a 3d 27 a9 c2 be 8e 12 c1 3e
       0.2533446 0.07561939 -0.38019678 0.3770947
0003f0 8b 9c 88 bc 0e 4d 0e 3d 93 d6 d2 3e 07 7d f3 bc
       -0.016676208 0.034741454 0.41179332 -0.029722704

b3.bias f4 [64]
000000 4b 9a 57 3e a6 2e 37 3e 81 7f 10 be 79 59 08 bd
       0.21054952 0.17888889 -0.14111139 -0.033288453
000010 a7 c6 af bd 23 a7 ea be 49 03 61 3d c7 40 5b 3e
       -0.08582812 -0.4583064 0.054934774 0.2141143
000020 30 e0 1e bf fc 61 a9 be f6 dc f3 be bb e4 80 3e
       -0.6206083 -0.3308257 -0.47629517 0.25174507
000030 9a 9c cb 3d ba 02 a6 3e c5 8d a3 be 34 a6 e8 bd
       0.09941979 0.32423955 -0.319441 -0.11359826
000040 9d 51 5c be 25 00 14 3d cd 69 6c bd 23 6a ba 3e
       -0.21515508 0.03613295 -0.057718087 0.364091
000050 b5 ba cb 3d 70 10 f9 be f0 a5 63 3c 11 da c1 3e
       0.09947721 -0.48645353 0.013894543 0.37861684
000060 1b dc aa 3e e9 00 04 bf 05 2e 69 bf 31 7f e3 bd
       0.33371052 -0.5156389 -0.91085845 -0.11108244
000070 64 bc 29 3f 26 5d 7a be 4a ec 20 3e 5b 38 b9 bd
       0.66303086 -0.24449596 0.15715137 -0.09043952
000080 d4 a2 3b be 1e 5d c3 bd 95 ce 05 be dc 09 3b 3e
       -0.18323833 -0.09539245 -0.13067086 0.1826548
000090 8c 84 3f be 3d 17 d0 be 55 fc 71 3e 02 a8 83 3d
       -0.18702906 -0.4064273 0.23631413 0.06428529
0000a0 2f aa dd 3d 7e ab e3 3d 98 48 f1 3e b3 ac 17 3f
       0.108234756 0.11116694 0.47125697 0.59247893
0000b0 4b 46 f1 bd 90 bb 03 be 55 55 53 3e 8c 2c 89 be
       -0.117809854 -0.12864518 0.2063802 -0.267918
0000c0 a6 28 d9 be 29 bd d6 be f7 19 5a bd 6e 5a b7 bd
       -0.42413825 -0.41941193 -0.05324742 -0.08952795
0000d0 b7 8f 7c be 51 21 53 3e ae 67 d0 3d 94 bb 7d be
       -0.24664198 0.20618178 0.10176025 -0.24778587
0000e0 aa 8b 99 3e c3 ad b9 3e ee 53 e4 bd 5b c6 eb bc
       0.29989368 0.36265382 -0.11148821 -0.028781107
0000f0 13 84 a6 be 54 38 da 3d 3b 85 cb 3d cb 40 73 bf
       -0.3252264 0.10655275 0.09937521 -0.9502074
