nets/model_epoch_76.pth (torch, 648794 bytes, 25 tensors)

a1.weight f4 [16, 5, 3, 3]
000000 22 af bb 3d 0b 62 16 3e 72 d7 03 bd 2f 48 8c be
       0.09164263 0.14685838 -0.032187887 -0.27398822
000010 e9 fa ea bd 06 04 ba 3e af a6 83 be 75 e7 59 3d
       -0.114736386 0.36331195 -0.25713107 0.05319925
000020 4b 28 f4 be 4c bf 45 bd a5 8b 9e bd 16 73 f7 bd
       -0.4768699 -0.048278138 -0.07741479 -0.12082498
000030 61 5b a6 3c 07 44 3e be aa d4 99 be 7e 4e ba be
       0.020307245 -0.18580638 -0.30045062 -0.3638801
000040 2e e6 5c be 4b da 7a bd ee 44 97 3d 5b 8f 12 be
       -0.21572182 -0.061243337 0.07386194 -0.14312498
000050 d3 10 82 3d 5c 64 d7 3d e3 5f aa be e0 de 3c bc
       0.06350865 0.10517189 -0.3327628 -0.011527747
000060 33 04 3b bc 43 6d 0a be dc aa a3 bd 43 84 88 be
       -0.011414575 -0.13518243 -0.07991573 -0.26663408
000070 71 ca 59 bd 6e 54 ea 3c ef 6b 38 be 0b 48 cb bc
       -0.05317158 0.028604712 -0.18009923 -0.024814626
000080 3d 8c 08 bf 36 60 2f be a3 83 49 be cd 95 51 3e
       -0.53338987 -0.17126545 -0.19679122 0.204673
000090 5e 38 2c be 2c 49 d4 bd 52 52 34 be 58 d6 79 bd
       -0.16818377 -0.10365519 -0.17609528 -0.06099543
0000a0 e8 f2 77 be a4 77 41 be 90 1e 2e bd 85 f1 19 be
       -0.24213755 -0.18893296 -0.042509615 -0.15033539
0000b0 9f ae 9f bd de ee 61 3e a8 92 0b be 92 57 62 bd
       -0.07796978 0.22063777 -0.13630164 -0.055259295
0000c0 fe 69 c1 3e 64 f3 53 3d 42 f6 d6 3e 3d bb 89 bb
       0.37776178 0.051745787 0.41984755 -0.0042032287
0000d0 4d 32 18 3f 95 14 8b be e0 2f e6 3d 96 30 b6 3e
       0.5945175 -0.2716414 0.112396 0.35583943
0000e0 35 7a a9 3d cc 70 6d bc d5 ff 6a 3e 7f a4 38 bd
       0.08275262 -0.014492225 0.22949155 -0.04507875
0000f0 5f 6a 13 3e fd 80 23 bf 61 02 91 3d 0b bb 2d 3e
       0.14396046 -0.63868695 0.07080532 0.16965882
000100 27 f5 4e bd aa 6b 9c bd d5 79 cf 3e bf c2 a0 3d
       -0.050526764 -0.07637723 0.40522638 0.07849645
000110 46 68 e2 be 24 1b 32 be cd 23 3e be cc 11 05 3e
       -0.4422018 -0.17393166 -0.18568344 0.1299507
000120 51 8c 05 bd 29 c5 d5 be 33 b9 f2 be 82 b4 6a bc
       -0.03260452 -0.41751984 -0.4740692 -0.014325263
000130 21 c7 b6 3e ef 14 0f 3e 9c 64 24 3e ae 58 39 3e
       0.35698798 0.1397283 0.16054004 0.18100235
000140 cc e0 10 bf 47 31 97 bb 5b 36 df 3c 91 31 b7 bb
       -0.5659301 -0.0046140286 0.027247598 -0.0055906256
000150 21 30 cb 3d 90 17 2d 3d 2b 2d 9e bc ad 24 9a bd
       0.09921289 0.0422588 -0.019308647 -0.075265266
000160 fe a4 a4 bd 02 52 0f 3d e1 ca a1 be 0a 99 c9 3d
       -0.08039282 0.034990318 -0.31600097 0.09843643
000170 73 cf cd 3e 77 43 86 3c cc b1 87 3e fe 8d a6 3a
       0.40197334 0.016389592 0.26502836 0.0012707112
000180 13 ea 28 3f 65 20 09 3f 54 a8 fa 3d 5b 5f 4d 3e
       0.6598217 0.53565055 0.12239137 0.20055906
000190 b6 6e 82 3e e9 1d 37 3e 54 76 09 bd aa ff 41 bd
       0.2547509 0.17882504 -0.033560112 -0.04736296
0001a0 c9 1e 1b 3c 34 ee e4 bd bc 67 16 be 3d ed 8b 3d
       0.009467789 -0.11178246 -0.14688009 0.06832359
0001b0 46 80 93 3e cb 30 09 3f f9 a1 82 3e 0e c2 c3 3d
       0.28808802 0.5359008 0.255142 0.09558497
0001c0 35 b9 88 be c3 df b7 3e 0e 9c a8 be 28 da c1 bd
       -0.26703802 0.35912904 -0.3293156 -0.09465438
0001d0 64 59 52 3e 09 d6 1b bd 60 f2 a0 be 87 4f 92 be
       0.20541912 -0.038045917 -0.31434917 -0.285763
0001e0 82 07 39 3d 1f 08 53 be 8a d9 4e bc 2d 01 8d 3d
       0.045173176 -0.20608567 -0.012625108 0.0688499
0001f0 45 47 2a 3d 7d e4 b7 be ec 9c 05 bd 15 42 71 3c
       0.041571874 -0.3591651 -0.032620355 0.014725228
000200 22 6e 84 3b 5b b5 b2 bc 35 9f fb 3d f2 d2 b6 bd
       0.004041449 -0.021814993 0.12286226 -0.089269534
000210 b1 a2 94 bc 76 47 8f bd 48 e9 6d 3d 1a c4 1e 3e
       -0.018143984 -0.06996052 0.058083802 0.15504494
000220 4d b5 e9 3d 92 e8 93 be 90 08 33 3e da f7 3b 3e
       0.114115335 -0.28888375 0.17483735 0.18356267
000230 1f 85 b9 be 9a 46 d0 3d de 77 d0 be c3 07 9c 3e
       -0.36234376 0.10169716 -0.4071645 0.30474672
000240 1e dc 44 be 40 84 f4 be a8 d8 8a be 5c 4c ca be
       -0.19224593 -0.4775715 -0.2711842 -0.39511383
000250 75 b0 60 bd 01 00 3a bf 30 1f 9e 3d 92 b3 43 3d
       -0.054855783 -0.72656256 0.07720792 0.047778673
000260 d3 a0 fa bc ef 0e 8d bd 4b 5c cc 3d 69 f4 bb ba
       -0.030594265 -0.06887614 0.09978541 -0.0014339808
000270 6f 49 47 be fd 12 b4 bd 21 b4 cc be 4f d5 35 be
       -0.19461606 -0.08792684 -0.39981177 -0.17757152
000280 c0 3c 55 be 99 f2 c8 3e c6 86 7b 3e f0 07 9f 3e
       -0.20823956 0.39247587 0.2456313 0.31060743
000290 61 f8 91 3e 4e b6 d3 3e 0a cb 0c be 5f ff 27 3f
       0.2850981 0.41350025 -0.13749328 0.6562404
0002a0 27 81 5a 3e 88 11 83 bd df 29 8c be e3 33 29 bd
       0.2133833 -0.06399828 -0.27375695 -0.04130925
0002b0 34 2d c2 3c e9 29 6a 3d ac d7 4d bc af fa b4 bc
       0.023703195 0.057168875 -0.012563627 -0.022092192
0002c0 12 3b 29 3c 92 e2 3c 3d 52 1d 6e bd b7 5f b5 bc
       0.010329025 0.04611451 -0.05813343 -0.022140367
0002d0 4f 40 60 3e 68 3d 04 3d 4c 4f a0 be e1 93 47 3d
       0.21899532 0.032285124 -0.313105 0.048725013
0002e0 2d 7c 38 3e de 1b af 3e d8 62 1f 3d 21 4d 60 3e
       0.1801612 0.34200948 0.038912624 0.21904422
0002f0 00 c7 92 3e 78 8a 4a 3e 5d 21 f8 bd 47 d1 55 3d
       0.2866745 0.19779384 -0.121157385 0.052201536
000300 cc 72 6a be 98 3b 9b bd 3e cf 32 be d2 eb 45 3e
       -0.22895354 -0.07579726 -0.17461869 0.1932824
000310 d5 c6 9a 3d f9 ab 1c be e9 d5 ba 3d f8 a6 1d 3e
       0.075574555 -0.15299977 0.091228314 0.15395725
000320 25 b0 ff 3e b1 3f 8b bd 94 5f 67 bc 60 da ee bd
       0.49939075 -0.067992575 -0.014121909 -0.116627455
000330 65 98 9b be 19 ef bb 3e bc e4 ed bb 44 f5 42 be
       -0.30389705 0.36705855 -0.0072599333 -0.19038874
000340 b8 ae f5 be 4a 96 eb be d5 2b 10 3e cd 67 89 3d
       -0.47984862 -0.460131 0.1407922 0.067092516
000350 5c 42 44 be f7 48 7e be b7 37 51 bd 12 b3 88 3d
       -0.19165939 -0.24832521 -0.051078524 0.0667478
000360 65 7a f2 bb 30 e6 88 3c e0 12 34 bc e0 c6 1c 3d
       -0.0073998445 0.016711324 -0.010990828 0.0382756
000370 fc cf fc bd 90 ea b8 3c 06 2d 91 3c 58 af 9e 3d
       -0.12344357 0.022572786 0.017721664 0.07748288
000380 be fc 3e bd b3 23 af bd ae 7c a1 bd ee 18 4c 3e
       -0.046627752 -0.08551731 -0.07885109 0.19931385
000390 8a 77 1d 3d 05 af 03 be 80 96 85 bd ad 11 5d 3e
       0.03844408 -0.12859733 -0.06522846 0.21588774
0003a0 39 b2 10 be c2 01 d7 3e fc 14 1d bd 12 52 e7 3e
       -0.14130487 0.4199353 -0.03835009 0.45179802
0003b0 54 a5 9d 3e d8 97 dc 3c b0 8a a3 3b c0 ff c8 be
       0.30790198 0.026927873 0.004990898 -0.39257622
0003c0 4e a2 69 3d 5a e7 84 3e f3 3c 26 bf 19 21 3c 3d
       0.05703955 0.25957757 -0.6493675 0.045930002
0003d0 79 74 a1 3d 89 c7 e0 3d d0 6c 43 be b0 2c a7 3e
       0.078835435 0.10975558 -0.19084477 0.3265128
0003e0 e4 e1 d6 be d9 05 40 be 2e da 05 be 64 63 ec be
       -0.41969216 -0.1875223 -0.1307151 -0.4616958
0003f0 bf d0 9f 3e f9 86 df bc d1 a2 ab 3d 4f cf 02 3d
       0.31213948 -0.02728604 0.08380664 0.031935986

a1.bias f4 [16]
000000 29 03 33 3d 4c 13 f4 bd e2 61 8b bd 7d 18 32 be
       0.043704186 -0.11917743 -0.06805779 -0.17392154
000010 ef 05 22 3e 64 20 0c be cc dd 1f 3d 92 5f f0 bd
       0.15822576 -0.13684231 0.03902988 -0.117369786
000020 47 d1 31 be 02 ed cb 3d 0d 65 84 bd aa f6 cf 3d
       -0.17364989 0.09957315 -0.064645864 0.10154469
000030 c6 2e d4 bd e9 82 b4 bd 14 de 9d 3e 32 96 83 3e
       -0.10360484 -0.08814032 0.30833495 0.25700527

a2.weight f4 [16, 16, 3, 3]
000000 d4 9a 2f bd 49 a4 83 be e8 8e 2a be 8f e2 d9 3e
       -0.042872265 -0.25711277 -0.16656077 0.42555663
000010 3a 5c 8b 3e 12 ad 12 be 5d 63 b9 3c 60 03 13 be
       0.272188 -0.14323834 0.022630388 -0.14356756
000020 84 ef 0a 3e 3c 5a 34 3d 13 96 25 3e c9 48 dd bb
       0.1356793 0.044031367 0.1617053 -0.0067530614
000030 37 c8 34 be 98 df 51 3e 39 89 85 be fb b5 a3 bd
       -0.17654501 0.2049545 -0.26081255 -0.079936944
000040 b4 20 15 3e f7 44 d0 bd 9b 43 bf bd 15 d6 92 be
       0.14563257 -0.10169404 -0.093390666 -0.28678957
000050 2d 40 d1 be be 11 ed be 2b 2d 99 bd 99 62 99 3b
       -0.40869275 -0.463026 -0.07479318 0.004680943
000060 59 42 2e be bd b4 ee be ea ce bb 3d f2 99 56 bf
       -0.17017497 -0.46622267 0.09170325 -0.8382865
000070 f0 09 a1 3e fd 38 d4 be af e7 35 3f 1f c7 87 be
       0.31452894 -0.4144973 0.71056646 -0.26519105
000080 ff 75 72 3e 65 de c0 3d e4 88 be 3d 4d 5a b8 3d
       0.23677824 0.094174184 0.093034536 0.090015985
000090 1c ad 9b 3a 94 8c f0 be 0a d2 59 bd 2a 35 8f 3d
       0.0011877152 -0.46982253 -0.053178824 0.06992562
0000a0 9a a8 ed bc 0a 8b 2b be 5e f6 15 bf 8b 82 5f be
       -0.02901106 -0.16752258 -0.5857905 -0.21827142
0000b0 42 e2 64 be 6e de e9 3d 99 91 8d be 3a 3a 30 be
       -0.22351936 0.11419378 -0.27650145 -0.17209712
0000c0 31 17 91 3e c4 4c 78 3d 41 27 4e 3e 00 d2 e1 be
       0.28338006 0.060620084 0.20132162 -0.4410553
0000d0 cb e7 39 3e fa 42 18 3e 3a 53 74 be 22 aa 30 3d
       0.18154828 0.148693 -0.23859873 0.043131
0000e0 a1 54 c6 bc b5 0a cf 3e ad fd bf 3e f6 d8 3f 3d
       -0.024210276 0.40437856 0.37498227 0.04683777
0000f0 50 ef bd 3d 7a 61 ca b9 8a c0 a7 bc 8c b4 cd 3e
       0.09274161 -0.00038601068 -0.020477552 0.4017681
000100 39 8f 80 be 87 08 b8 bd 77 61 dd be 25 6a 21 bd
       -0.2510927 -0.089860015 -0.43238422 -0.039407868
000110 da 9d 22 be 41 10 0d be 3e 70 ed bd 2a c1 a0 3e
       -0.15880528 -0.13775732 -0.11593674 0.31397372
000120 8c 87 85 3e e6 a7 2a 3e 9b be 2a 3d 1b f3 25 bd
       0.26079977 0.1666561 0.04168568 -0.040515047
000130 a2 d9 54 bc fa 57 94 3e 66 a1 81 be b2 ce 04 3f
       -0.012991341 0.2897337 -0.2531845 0.5187789
000140 bc ed 0b 3e 3d 1e 8a 3d 39 d0 89 3e 6d 4f 82 bd
       0.13664907 0.06744049 0.26916674 -0.063628055
000150 44 dc 79 be fd e5 79 3e 8c 34 0f 3f 79 7d 61 3e
       -0.24400431 0.2440414 0.55939555 0.2202052
000160 78 11 85 3d ce 77 4b 3e e3 0d 2d be 48 2c 93 bd
       0.064974725 0.1986992 -0.16899829 -0.0718618
000170 55 76 2a be 10 45 c4 3d 08 5b 84 3e 97 d6 e2 be
       -0.16646703 0.09583485 0.258507 -0.44304344
000180 e0 6a b6 3d e1 b5 b3 3c 0f 70 67 3e 01 8c d7 be
       0.089071035 0.021937313 0.2260134 -0.42099002
000190 d1 58 8f bd 2d c6 2e bc f3 75 4f be 07 95 49 be
       -0.06999362 -0.010667366 -0.20259838 -0.19685756
0001a0 65 a2 82 3c 9f c3 26 3f e8 3a 49 3d 68 07 4f be
       0.015946576 0.65142244 0.049128443 -0.20217669
0001b0 1a d2 19 3c a8 09 28 be 29 48 85 3c 3f 59 2b bc
       0.009388471 -0.16409934 0.01626976 -0.01045829
0001c0 01 b8 1e 3f c1 00 bb be 23 a2 19 3f 2c e0 96 3e
       0.6199952 -0.36524013 0.60013026 0.29467905
0001d0 27 f7 76 be e7 5f 9a 3e 94 45 e2 be 7f dd 01 bf
       -0.24117719 0.30151293 -0.4419371 -0.507286
0001e0 32 aa 86 3c 62 91 ff 3e 12 da 29 3e 35 a0 85 3e
       0.016438577 0.49915606 0.16587093 0.2609879
0001f0 b3 cf 71 be a2 8c 81 3d e6 e4 fa bd f3 f1 3e bf
       -0.23614387 0.06325652 -0.1225069 -0.74587935
000200 08 22 fd bd f1 e6 55 bd c5 b1 24 bd 04 79 a6 be
       -0.123600066 -0.052222196 -0.040208597 -0.32514203
000210 28 7a 90 bd fb 06 79 be 35 c2 31 3e ec a9 e5 be
       -0.070545495 -0.24319069 0.1735924 -0.44856203
000220 90 bb 7b 3a 3a 95 4b be 51 5d ea bd a0 d9 75 be
       0.0009602839 -0.19881144 -0.1144358 -0.24008799
000230 6b 85 29 3f a6 ac 9a be 2b 02 1a 3c ac 43 af ba
       0.66219205 -0.30209845 0.009399931 -0.0013371608
000240 13 a3 9d bd 3e 23 c9 ba 16 2a b2 bc 8b ce 35 be
       -0.076971196 -0.0015345586 -0.021748584 -0.17754571
000250 dc 6c 8a be 8b 46 5d be 05 d6 2c be 1e e0 1b be
       -0.27036178 -0.21608941 -0.16878517 -0.15222213
000260 e7 36 11 be 27 80 ff bd 25 a7 c9 bd e0 50 61 3e
       -0.141811 -0.12475615 -0.098463334 0.22003508
000270 fe a8 f0 bd fb 30 27 be 26 cd e3 bb 09 cc 00 3e
       -0.11750983 -0.16327278 -0.006951946 0.12577833
000280 a5 a7 c5 3d 26 7f f8 3d 1d 03 f2 3d e4 2e 80 bb
       0.09651116 0.12133627 0.11817 -0.00391184
000290 8d 77 5f 3e 55 ff 4f bd af 81 5d 3e d8 36 50 3e
       0.21822949 -0.050780613 0.21631502 0.20333421
0002a0 84 28 5a 3d f5 63 c5 3d ea 0b b7 3d a2 5f 6e be
       0.053261295 0.09638206 0.08937819 -0.23278669
0002b0 a5 a2 57 3e f1 65 c4 3e e6 a1 78 3c 15 ee 15 3c
       0.21058138 0.38359025 0.015175318 0.009151001
0002c0 bb 4f f8 bd 6f 36 ec 3d be c6 3d be 52 1f ac 3e
       -0.121245824 0.1153382 -0.18532845 0.33617646
0002d0 f3 d6 b3 3e a4 f0 67 be a3 30 4d 3e f2 60 29 3e
       0.3512493 -0.22650391 0.20038085 0.16540888
0002e0 94 c1 0f 3e 34 35 ba bd 0b 46 5e 3e 57 f1 f1 bd
       0.14038688 -0.09092179 0.21706407 -0.1181361
0002f0 55 9f 2d bd b9 df 1e be 01 4a 1b 3e 12 c7 7b 3e
       -0.04238828 -0.15515031 0.15164949 0.24587658
000300 e6 f5 4e 3d 56 9b 3c bc d0 db d2 bd 86 23 db 3d
       0.050527476 -0.011511644 -0.10295832 0.10700135
000310 a2 a9 e4 3d e4 c0 39 be 7d a9 03 bd ab 10 c2 bd
       0.111651674 -0.18139988 -0.03214406 -0.094758354
000320 27 10 03 be f3 3b e6 bd 7d d4 9c bc 65 b5 10 3c
       -0.1279913 -0.11241903 -0.019144291 0.00883231
000330 ad b6 25 be 18 90 55 be 33 aa 28 bd c0 bc ce 3d
       -0.16182967 -0.20855749 -0.04117794 0.10094595
000340 ab 10 82 3e fd 7d 99 3d 34 fd 56 be 13 18 22 3e
       0.25403342 0.074947335 -0.20995027 0.15829496
000350 65 ed 54 3b 6e ef 25 3e 13 62 6f bd d3 7e f6 3e
       0.003249013 0.16204616 -0.05844314 0.48143634
000360 ee 3b 04 be ba df 16 be 16 8c c3 3d 2c 7e e0 be
       -0.12913486 -0.14733782 0.09548204 -0.43846262
000370 aa 88 15 3e ce 6b e4 bd 88 38 86 be 19 8d bc 3e
       0.14602914 -0.111533746 -0.26215005 0.368264
000380 af 45 9e bd 70 ef aa bd 35 73 a9 bd 93 2f 01 3e
       -0.07728135 -0.0834645 -0.08273927 0.12615804
000390 b6 6e de 3d 9d 6d df 3d 6d 29 8d 3d 4b 39 5a 3b
       0.1086096 0.10909579 0.06892667 0.003329831
0003a0 5e eb e0 bd 65 b7 35 be 05 15 4d 3e 28 9f 2b 3e
       -0.10982393 -0.1774574 0.2002755 0.16759932
0003b0 3d fd d2 bd 03 6b a3 3d d4 00 7e be 5b 52 86 3e
       -0.103022076 0.07979395 -0.24805003 0.26234707
0003c0 a3 fa 75 bd 63 91 63 3e 27 8f 8d be c5 ab 48 3d
       -0.06005348 0.2222343 -0.2764828 0.048991937
0003d0 6e 7a f6 3e 1b 55 f6 3d 6a ea ad 3b cc 18 db 3d
       0.4814028 0.12027951 0.0053074853 0.10698089
0003e0 fa 82 af 3e d7 5f 80 be a5 eb 8a be 07 24 74 be
       0.34279615 -0.2507312 -0.27132908 -0.23841868
0003f0 41 e7 e2 bd 34 34 c7 3e 4f 1b db bc c5 fc 12 be
       -0.110792644 0.38907015 -0.02674642 -0.14354236

a2.bias f4 [16]
000000 79 be fe bd 0b 99 91 be 47 c6 0f be 34 82 b6 bc
       -0.124386735 -0.28437075 -0.1404048 -0.022278883
000010 f1 c7 00 3d 06 c8 4c be e6 02 82 ba 4e 16 d1 bc
       0.03144068 -0.19998178 -0.0009919077 -0.025523331
000020 07 df 28 3e e2 d1 3d be 51 65 87 be d5 ae 77 bd
       0.16491328 -0.18537095 -0.26444486 -0.060469467
000030 c3 14 81 be d2 67 5c 3d 8f 37 52 3e 3e 88 2e 3e
       -0.25211152 0.05380995 0.20529006 0.1704416

a3.weight f4 [32, 16, 3, 3]
000000 d9 1a 45 be 65 31 c9 3e 24 ce 1d bf cf 70 dd bd
       -0.19248523 0.39295498 -0.6164267 -0.10812532
000010 26 b4 0c be a6 57 bc bd 67 5d 3a bf 00 76 e2 bd
       -0.13740596 -0.09196405 -0.7279877 -0.11057663
000020 9d 6f 4b 3e 0f 2e 5f bd fc 23 93 bd 15 da 58 be
       0.19866796 -0.054487284 -0.07184598 -0.21176942
000030 4b 14 20 bb 29 6b 7d 3e 7e cb 56 3e ff 85 d9 be
       -0.0024426158 0.2474791 0.20976064 -0.42485043
000040 44 3c 81 be 43 da 05 bf 94 71 2a 3e 91 17 b4 bc
       -0.25241292 -0.52286166 0.16644889 -0.021983894
000050 f1 84 59 3e 1d 0f bf 3d b8 e1 7f 3e 50 29 29 be
       0.2124212 0.093290545 0.24988449 -0.16519666
000060 0c 78 bc bd 54 01 06 3e 19 fa d3 bd 01 85 db be
       -0.092025846 0.13086444 -0.10350437 -0.4287491
000070 d3 41 44 3e 5e 26 81 3e 7c 26 c7 3d 4b 88 c5 bd
       0.19165735 0.25224584 0.09724137 -0.096451364
000080 0f d2 30 3e 3a c6 20 be 17 ab 35 be 65 ac 65 3d
       0.17267631 -0.15700617 -0.17741047 0.05607261
000090 04 aa 11 3e 78 a5 97 3d 30 6f 81 be f6 56 ed bd
       0.14225012 0.074046075 -0.25280142 -0.11588852
0000a0 7a f9 e4 3e 78 00 e8 bd e1 db 42 3e 2d c3 f6 3d
       0.44721586 -0.113282144 0.1902919 0.120489456
0000b0 70 3e a4 bd 51 d4 38 3e ed de a2 bd 65 d9 aa bd
       -0.080197215 0.18049742 -0.07952676 -0.08342246
0000c0 e5 e9 ac 3e d8 09 85 bd 42 66 ce 3e 8e 45 fa be
       0.33772197 -0.06496018 0.40312392 -0.4888119
0000d0 39 96 57 be c3 da 3b 3e 69 67 50 bc ab 9c 13 3d
       -0.21053399 0.1834517 -0.012719967 0.036038082
0000e0 95 73 80 be 2c 6f 84 3d 1f 26 ed 3d 98 05 21 be
       -0.25088182 0.06466517 0.11579537 -0.1572479
0000f0 d6 20 f6 3d 9b 45 e0 3e c8 40 e6 3d 9c 87 76 3e
       0.12017982 0.43803105 0.11242825 0.24075168
000100 a0 52 c8 3d 72 c8 03 3e cc 13 63 3e e8 77 9a 3e
       0.097813845 0.12869433 0.2217552 0.30169606
000110 01 07 93 be 5f 7e e7 3e 05 0d 0f be 1c 67 84 be
       -0.2871628 0.452136 -0.1396981 -0.25859916
000120 1e 0e 97 3c e5 75 8c 3e dd 8b 41 be c1 2d 1e 3e
       0.018439349 0.27433696 -0.1890101 0.15447141
000130 be 81 bc 3e 5d 02 ac 3d 54 68 f2 3d 32 39 9d be
       0.36817735 0.08398888 0.11836305 -0.307077
000140 74 94 df bd 55 ee a5 3d c5 c8 68 3e 0f 81 07 be
       -0.10916987 0.08102099 0.22732837 -0.13232826
000150 79 a6 af 3e 50 e3 5b bd 54 b7 c8 3b 5b fb 20 be
       0.34306696 -0.05368358 0.00612537 -0.15720885
000160 05 0d 67 be 90 c1 2a 3e 67 91 de bd f9 97 93 3d
       -0.2256356 0.166754 -0.10867577 0.07206721
000170 31 36 fb bd d7 e8 18 3e 0b 3c c3 be 6b 70 00 3f
       -0.122661956 0.14932571 -0.38131747 0.50171536
000180 bd 13 91 3d 99 28 27 be 0e 0a 8f be 3b 92 32 3d
       0.07083843 -0.1632408 -0.2793736 0.043596487
000190 36 d9 a0 be 80 d4 ef bd 9c a4 7a be 37 32 cc 3e
       -0.3141572 -0.11710453 -0.24476856 0.3988206
0001a0 b2 8d 88 bd 42 cf 86 be 59 ec b7 3e be 2e 44 be
       -0.06667651 -0.2633 0.35922506 -0.19158456
0001b0 09 b3 6e bd db 14 01 bf 9a 3a cc be 7d 0a 8d 3e
       -0.05827621 -0.5042245 -0.3988846 0.27547064
0001c0 ba 77 43 3c bf 64 ca 3e 5c 44 35 bf 62 ea b7 3d
       0.0119304005 0.39529988 -0.70807433 0.08980252
0001d0 2a 12 d2 bc d5 07 1b 3f d5 c9 41 bb 08 55 0c 3d
       -0.025643427 0.60558826 -0.0029569764 0.03426078
0001e0 00 6c d4 3e 4c d1 79 3d 72 3d 76 be 85 14 80 3e
       0.41488647 0.060990617 -0.24046877 0.25015655
0001f0 21 8f b9 bd 42 8b b6 3e 69 ca ea 3e 61 07 94 be
       -0.09060503 0.3565312 0.45857552 -0.2891188
000200 1e 06 f5 be 04 6f 2a 3d 06 e7 a5 3e 7e 75 28 be
       -0.4785623 0.04160978 0.3240282 -0.1645107
000210 c7 cc 14 3e 6a 14 0f be 3e 3e bb be ff 2c d0 bd
       0.14531241 -0.13972631 -0.36570925 -0.10164832
000220 d1 24 a7 3d a8 dd 1b 3e 7a 08 14 3d 9c 2b e6 3e
       0.08161319 0.15221274 0.036140896 0.44955146
000230 ae be 63 bf e6 6b 4b 3e 24 cf a4 be c8 cd b8 be
       -0.8896283 0.19865379 -0.32189286 -0.360945
000240 77 a7 27 3e 61 dc 65 bd 47 07 15 3f 46 29 19 3e
       0.16372477 -0.056118373 0.5821423 0.14957151
000250 85 87 05 3d 88 eb 49 3e 6b e8 2c be 76 61 a8 ba
       0.032599945 0.19718754 -0.16885535 -0.0012846428
000260 d7 31 eb 3d 3f b8 9b bd 52 51 e6 bd 44 03 7a 3e
       0.114841156 -0.076035015 -0.11245979 0.24415308
000270 af fc 61 be ff 4f 53 be 25 c2 74 3e 4f b4 90 3e
       -0.22069047 -0.20635985 0.23902185 0.28262565
000280 34 f6 38 3e 36 32 4c be 55 9c fe be 1b dd 1b bd
       0.18062669 -0.19941029 -0.49728647 -0.03805266
000290 ae 26 97 3c 60 bf 79 3e 5d d1 ca bd 07 1a b0 be
       0.018451061 0.2438941 -0.09903214 -0.34394857
0002a0 09 a7 86 be 0d 15 2b 3c 9c ea b1 be 30 88 0a be
       -0.26299313 0.010442031 -0.34749305 -0.13528514
0002b0 d5 1b de bd a7 06 59 be 0f ec 80 be 85 1b 56 3e
       -0.10845152 -0.21193944 -0.25180098 0.20908935
0002c0 9b 10 2b 3e 13 0a f5 3d 79 6f 33 be 66 29 30 3e
       0.16705553 0.11964812 -0.17522992 0.17203292
0002d0 da 82 9f be a2 73 43 be f0 ce cf bd 72 ed 96 be
       -0.3115452 -0.19087079 -0.10146892 -0.2947803
0002e0 3a b9 13 be 20 f2 99 3e bb 39 56 bd f3 eb 51 be
       -0.14426127 0.3006754 -0.05230115 -0.20500164
0002f0 50 74 8f 3e 0c 49 ec 3d d2 60 fa 3d 3c 89 25 3e
       0.28018427 0.1153737 0.12225498 0.16165632
000300 9d 3b d1 3d de 08 be bd 0e b9 d3 3e 38 b1 88 bd
       0.102164485 -0.09279035 0.41352123 -0.06674427
000310 4a fc b3 bd ca 0b 2f 3e 4a 46 2e be 56 52 25 be
       -0.08788355 0.17094341 -0.17019 -0.1614469
000320 f0 0b fd 3d e1 87 0f bd a7 40 8d be e7 4a 41 3e
       0.123557925 -0.035041694 -0.27588388 0.18876229
000330 7f 5c 35 3e f2 db 8a 3e 67 dc 9e 3e c4 fa 0a be
       0.17711066 0.2712093 0.3102753 -0.13572222
000340 bf e3 96 3d 15 8e 1b bf dd 39 21 3e 8b ea d8 3e
       0.07367658 -0.60763675 0.1574473 0.42366442
000350 86 6d c8 bd d1 33 33 bf 03 d5 19 3e d3 60 cb 3e
       -0.09786515 -0.7000094 0.15022664 0.3972231
000360 64 7c e9 3d c9 01 d5 3e 31 da 57 be b9 f0 b5 be
       0.11400679 0.41602924 -0.21079327 -0.3553522
000370 dd aa 0d bb 8c 88 00 bf 73 3d 10 be f4 76 5f be
       -0.0021616735 -0.50208354 -0.14085941 -0.21822721
000380 67 d7 0e 3d 33 a0 43 3e 0a eb f3 bd e8 06 a6 bd
       0.034873392 0.1910408 -0.119100645 -0.08106786
000390 7e 49 98 bb 21 33 7b bd 82 5c a6 be 31 c1 0b bd
       -0.004647433 -0.061328057 -0.32492453 -0.03411979
0003a0 74 8e 88 3e 6f 20 9d 3d ca f8 c2 3e 36 c0 74 be
       0.26671183 0.07672202 0.38080436 -0.23901448
0003b0 6e 21 a2 3e a9 be 93 be a4 f9 56 be d0 d5 87 be
       0.3166613 -0.288564 -0.20993668 -0.26530313
0003c0 0d d0 fe bd a8 d8 ed be 14 73 13 be ca fc e5 be
       -0.12442026 -0.46454358 -0.14399368 -0.44919425
0003d0 65 4d 3a 3b 62 e8 ec bd 49 26 71 be 43 ee c7 bd
       0.0028427478 -0.11567761 -0.23549761 -0.09762242
0003e0 03 a6 57 3e 9c 4f 4d bf fa 59 93 be b2 46 60 3e
       0.21059422 -0.801996 -0.28779584 0.21901968
0003f0 be 42 b5 3e c4 df 49 be 68 19 94 3e a9 06 a2 be
       0.35402483 -0.19714266 0.28925633 -0.31645706

a3.bias f4 [32]
000000 41 1b bd be a2 96 eb 3d 76 3d 2c 3e db 9c f4 be
       -0.36934856 0.1150334 0.1682032 -0.4777592
000010 c5 3f ca be 4e 9f b2 3d 38 3a 88 3e 9b 56 3f be
       -0.39501777 0.08721791 0.26606917 -0.18685381
000020 78 08 0d bf 65 77 a8 be 6c 77 87 be de 22 44 be
       -0.5509105 -0.3290359 -0.264583 -0.19153926
000030 af ca 5e bf 30 85 46 be 9e eb 1b be 1f 7a 20 3f
       -0.8702802 -0.19386744 -0.152266 0.6268634
000040 20 be ca 3e 22 88 b0 be b2 ac 25 be 63 28 ee be
       0.3959818 -0.3447886 -0.1617916 -0.46515188
000050 e2 b5 9f bd 14 c0 ce be 9b 1e c1 bd 6d 9a a3 be
       -0.07798363 -0.4038092 -0.09429666 -0.31953755
000060 c8 e4 fb bd 44 af 9b 3e 60 36 e5 3e 14 b1 3c be
       -0.12299496 0.30407155 0.44768047 -0.18426925
000070 b6 e6 fd 3b 3f ad 49 3e f2 68 0a be f5 0f 76 be
       0.00774845 0.19694994 -0.13516596 -0.24029525

b1.weight f4 [32, 32, 3, 3]
000000 0c b0 df be 3f a9 14 3e 3f 25 4a bd 83 0c 5d be
       -0.43689 0.14517687 -0.049351927 -0.21586804
000010 6e 2c bd bd 41 d2 97 bd 32 0a 64 bd 2b db 45 bd
       -0.0923699 -0.074131496 -0.055673786 -0.048304718
000020 03 e7 ae be 1c cf 84 3c e8 08 fd be 9a fa 20 3e
       -0.34160623 0.016212039 -0.49420857 0.15720597
000030 02 f6 a1 be b7 c3 38 bf c7 f1 9e 3d 5b 06 22 3e
       -0.31633002 -0.7217364 0.07760959 0.15822737
000040 22 20 e0 be 54 97 cf 3e 34 de da bd a1 bf 60 3e
       -0.43774515 0.40545142 -0.10686913 0.219481
000050 06 63 cc 3c 0a 19 18 3e 2c ec b1 3e cd e6 55 3b
       0.024949562 0.14853302 0.34750497 0.0032638789
000060 90 05 91 bd fd 40 bb 3c 9a a5 1f be 66 c5 a7 3e
       -0.07081139 0.022858137 -0.15590516 0.3276779
000070 f9 d8 90 3e ee 87 9f 3e c7 52 23 3e 5a 77 b9 be
       0.28290537 0.31158394 0.15949546 -0.3622387
000080 cc 25 7d 3e d9 43 3d be a9 97 70 be ed 53 a0 be
       0.2472145 -0.18482913 -0.23495354 -0.3131403
000090 d7 a8 a2 3e a2 e2 04 bf 15 52 5f bd 39 04 ba bb
       0.3176944 -0.51908314 -0.05452164 -0.005676773
0000a0 bb 73 91 3d 2a 13 b5 be 40 04 1b be 2e dd 36 bf
       0.07102152 -0.35366184 -0.1513834 -0.71431243
0000b0 d1 3f a2 3d 76 da 1f 3f c4 f4 6c bf 9a 2d 08 be
       0.07922328 0.6244272 -0.9256098 -0.13298646
0000c0 7b 9e 67 3e 29 57 5f be 25 88 b1 3d 87 1e c3 3d
       0.22619049 -0.21810593 0.08668546 0.09527307
0000d0 3f 62 38 be ec c8 10 bf 7b 7a 5d be 9e d8 69 be
       -0.18006228 -0.5655658 -0.21628754 -0.22836539
0000e0 9b fc 9e be 8b ea 1a 3d 04 04 f1 3d df 6a 03 be
       -0.31052098 0.037821334 0.11768344 -0.12833737
0000f0 2f f0 9a bd c0 80 b7 bd 4b 9e 0f 3e 80 a2 7d bd
       -0.07565343 -0.08960104 0.14025228 -0.06192255
000100 c7 c4 5a 3d 31 b5 27 3d aa 98 2a 3d d7 8c 2b be
       0.053410318 0.040944282 0.041649498 -0.16752945
000110 6f 6b 1a bd 99 2c 26 3c 16 91 6e 3d 88 d8 c7 3c
       -0.037700113 0.010142469 0.058243833 0.024395242
000120 a3 78 2c be f5 fb c3 be ba 14 c6 be 9f 13 01 bf
       -0.16842894 -0.38278165 -0.38687688 -0.50420564
000130 bd a6 a6 3e 4f a4 38 bd 31 43 cf be 01 39 50 3e
       0.32549086 -0.045078572 -0.4048095 0.20334245
000140 b5 47 ac 3e 90 44 91 3e ef 17 1b be ec bc c3 bd
       0.33648458 0.28372622 -0.15145849 -0.09557518
000150 55 6a 72 3e a9 3f cc 3d a0 b2 f0 3e 20 b1 58 3f
       0.23673375 0.0997308 0.4701128 0.8464527
000160 50 b2 17 be 31 e0 91 bd b2 47 82 be 1b 5d a9 3e
       -0.14814115 -0.07122839 -0.25445324 0.33078846
000170 52 09 1a be 92 1e 79 3e cb de 64 3e 90 d1 75 be
       -0.15042618 0.24328068 0.22350614 -0.24005723
000180 7d e6 5a 3e 65 2e 47 bd a4 9a cf 3a e0 75 8e be
       0.21376987 -0.04862823 0.0015838933 -0.27824306
000190 fc 30 db be bb 98 0a bf 57 d8 a7 3e 7b a6 3b be
       -0.4281081 -0.541393 0.32782242 -0.18325226
0001a0 44 4c c8 be c7 f1 65 3e 84 02 21 3e 11 6b 25 be
       -0.39120686 0.22455512 0.15723616 -0.16154124
0001b0 09 79 5f be 50 4b b8 be b4 30 89 be 84 fa 2c be
       -0.21823515 -0.3599496 -0.2679497 -0.16892439
0001c0 4c 8b c2 bd a3 48 66 3e 05 21 71 be 7b d3 dc be
       -0.09499225 0.22488646 -0.23547752 -0.43130097
0001d0 59 6a c7 bd 18 fc 9c 3d 21 16 d5 3d be 0c 69 3e
       -0.09737081 0.076652706 0.104046114 0.22758767
0001e0 8d 43 d8 3d c2 ad 0c bd 2b b4 08 be c5 aa b1 bc
       0.10559759 -0.034345396 -0.13349979 -0.021687875
0001f0 d9 32 7d be 06 12 87 3d 6e fc be 3c 41 11 7d 3e
       -0.24726428 0.065952346 0.023313727 0.24713613
000200 95 9d 9a 3d 78 b9 9d bb 28 27 e8 be 5a 88 4c bd
       0.07549588 -0.0048133694 -0.45342374 -0.049934722
000210 a7 00 e3 bc 6d c1 48 be d4 fb c8 bd 10 aa 0b 3e
       -0.027710272 -0.19605036 -0.098136574 0.13639092
000220 47 f6 b4 3d 1a c6 1e bd 08 28 88 be 9b 41 8d 3d
       0.08836036 -0.038763143 -0.2659304 0.06897279
000230 22 f7 4d bb c1 ec f4 3b e2 c2 ea be f5 da 29 3d
       -0.003142782 0.0074745123 -0.4585181 0.04146858
000240 a6 41 76 be 09 3f 98 3c bd 57 ae 3d d0 37 85 3e
       -0.2404848 0.018584745 0.085128285 0.26019144
000250 e3 3b d9 3e 61 43 42 3e 6b a3 31 3c 6b ae b7 bc
       0.42428502 0.18971016 0.010842185 -0.022422036
000260 17 3b 83 3e d0 9a 17 3e 12 14 6b 3e c3 15 08 bf
       0.2563102 0.1480515 0.22956875 -0.53158206
000270 94 91 ef bc 56 2f 9c bd ce 6f 1a bf f3 c6 c3 bb
       -0.029244222 -0.07626216 -0.6032685 -0.0059746443
000280 93 0d 80 3e 13 13 6c be ef e9 c8 3e a7 0d 9e bd
       0.25010356 -0.23054151 0.39240977 -0.07717448
000290 84 94 ea bd a8 2e e2 3d cf 24 18 bf e2 15 74 be
       -0.11454108 0.11044055 -0.59431165 -0.23836473
0002a0 d6 0a ac bd e5 df 45 be dc a9 06 be 6b d4 61 be
       -0.08400504 -0.1932369 -0.13150734 -0.22053687
0002b0 90 91 f1 3e d2 da bb be c2 4d 41 3e 84 55 aa 3e
       0.47181368 -0.36690384 0.18877319 0.33268368
0002c0 3c 02 41 be 68 d3 9f bd 15 89 a4 3e 36 fa 83 be
       -0.18848509 -0.078039944 0.32135835 -0.25776833
0002d0 d1 89 eb bc b4 10 4c be 4a f6 94 3d 9b 16 86 3c
       -0.02875224 -0.19928247 0.072735384 0.016368201
0002e0 19 45 d9 bd 28 02 32 bd 62 75 43 3e 38 08 ea 3d
       -0.106088825 -0.043459088 0.19087747 0.11427349
0002f0 6a 34 6c 3e f3 a9 e5 3d e7 cb 97 be 16 86 9d be
       0.2306687 0.11214056 -0.29647753 -0.30766362
000300 3d 5b 23 3e c0 67 37 3e 47 1d 75 3e ee 48 ae bd
       0.15952773 0.17910671 0.2393695 -0.08510004
000310 a8 f0 2b be 30 94 6a be 7b c6 06 be d2 5a ea 3c
       -0.16791022 -0.22908092 -0.13161652 0.02860776
000320 11 dd 86 3d a7 a5 34 be a9 84 3b 3e 94 49 99 3d
       0.06585134 -0.17641316 0.18312325 0.07484737
000330 a1 f8 93 3e b9 35 d2 be e3 cd 05 be 1e 05 7f be
       0.28900626 -0.41056612 -0.13066821 -0.24904296
000340 78 3c 41 3e 35 c5 89 be 6c 98 b3 be 02 c3 46 bd
       0.18870723 -0.2690827 -0.35077226 -0.048525818
000350 b2 f5 20 be 1b 0a 3f be b6 69 d1 3e c2 49 2c 3e
       -0.15718725 -0.18656199 0.40900964 0.16825011
000360 c7 c3 af 3e 7b 4c c6 be cb 1e c7 be c4 6a f4 be
       0.34329054 -0.38730225 -0.3889068 -0.47737706
000370 83 1e 0e bd 54 28 07 3e b4 c2 28 37 42 2b 65 3e
       -0.034697067 0.13198978 1.0058913e-05 0.22379783
000380 89 9a b2 3d bc 05 9c 3e e3 c8 b2 3d 5c ea 0f bf
       0.087208815 0.30473125 0.08729722 -0.5621698
000390 20 ee 82 bc 10 bd 86 bd 1f d3 b6 3e b7 28 fe bd
       -0.015982687 -0.065790296 0.35707948 -0.124101095
0003a0 d2 8a fa 3e ea 67 a9 3d 57 50 12 3f af c5 9e 3c
       0.48934036 0.08271773 0.5715384 0.019381372
0003b0 a7 17 86 be 42 46 ec 3d 88 b4 43 bd 5f 19 ea bc
       -0.2618992 0.11536838 -0.04777959 -0.028576551
0003c0 28 c9 88 3c f3 05 ab 3e e6 25 e7 be de 1e 80 3e
       0.016697481 0.33402976 -0.45146102 0.2502355
0003d0 12 4c 86 bd 83 b5 07 be f3 89 5f bf 85 4f d5 be
       -0.06557478 -0.13252835 -0.8731987 -0.4166223
0003e0 98 cd 29 bd 82 e5 31 bd bd 93 93 3e 29 91 a8 3c
       -0.041455835 -0.043431766 0.28823653 0.02057703
0003f0 38 07 db 3e 50 ad 0a be 88 b8 23 bf 2e 2f 53 3d
       0.42778945 -0.13542676 -0.6395345 0.051558666

b1.bias f4 [32]
000000 4b 94 17 bd 25 73 8e be 34 09 32 bf d1 47 a7 be
       -0.037006658 -0.27822223 -0.6954529 -0.3267198
000010 d0 0e 5f 3f 74 d5 6a be cc 52 84 be 2e e2 0a bc
       0.8713198 -0.22932988 -0.2584442 -0.008476777
000020 41 85 83 be 81 4f 3b bf 18 6a 10 bf 80 b2 90 3e
       -0.25687602 -0.7316819 -0.56411886 0.28261185
000030 bf 87 07 bf 0d ff ef be 8a 2f 31 3e bd b8 a4 be
       -0.5294151 -0.46874276 0.17303291 -0.32172194
000040 83 69 89 be 88 9f 73 bf 15 2f 42 be 48 c9 ea 3e
       -0.26838312 -0.951653 -0.18963273 0.4585669
000050 06 c7 67 be fa 07 e3 be 5f 9a 55 3f ec 4f 37 bf
       -0.22634515 -0.44342023 0.83438677 -0.71606326
000060 5a 69 85 bd 7c f7 81 be 21 d1 f6 bd c8 c6 90 bf
       -0.06514235 -0.25384128 -0.12051607 -1.1310663
000070 9e f3 92 bd 30 79 71 bd 06 36 34 3e 8e de 17 be
       -0.071753725 -0.058953464 0.17598733 -0.14830992

b2.weight f4 [32, 32, 3, 3]
000000 06 7c 66 3e ff f0 05 3e 96 46 00 3b 66 4e 39 3e
       0.22508249 0.13080214 0.0019573322 0.18096313
000010 24 3c 75 be e1 cf e4 3e a2 5a 83 be 38 5c fe bd
       -0.23948723 0.4468985 -0.25655085 -0.12419933
000020 8a 46 53 3e 05 54 ba 3e e7 84 d7 bd 1e 3d 3f bd
       0.20632377 0.36392227 -0.10523396 -0.046689145
000030 5d 69 06 be 00 e9 74 be 7d ba 54 be 88 f9 50 3e
       -0.1312613 -0.23917007 -0.20774265 0.20407689
000040 4e 58 3b 3e d5 da 0b bf a6 26 29 be c0 32 51 3e
       0.18295404 -0.54630786 -0.1651865 0.20429516
000050 fe f1 12 bf 72 ab c0 3d 4a d4 98 be 09 4d cc 3d
       -0.574005 0.094077006 -0.29849464 0.09975631
000060 89 41 7a be 0f d2 51 be 20 46 37 be 0e 97 f9 3e
       -0.24439062 -0.20490287 -0.17897844 0.48748058
000070 48 9b 95 bd 03 9d 00 3e 45 7f 28 3f e3 76 c7 bd
       -0.07305008 0.12559895 0.658192 -0.09739473
000080 d4 71 9a be 08 00 83 bd f3 41 fa be b3 69 28 be
       -0.3016497 -0.0639649 -0.4887844 -0.16446571
000090 54 ae 31 be a4 75 b4 3d 4d 5c d3 be 4f fa ff bb
       -0.17351657 0.08811501 -0.41281357 -0.0078118215
0000a0 7e fb 8a 3e 59 ae af be d8 02 17 bf bf e9 51 3e
       0.27144998 -0.34312704 -0.58988714 0.20499323
0000b0 d7 be 9c 3e df 2a 4d 3f 24 97 eb be c1 b6 2d be
       0.3061435 0.8014354 -0.4601375 -0.16964246
0000c0 8f f8 09 be a4 af 36 bc 00 db 01 bf b5 78 9d bc
       -0.13473724 -0.011150274 -0.5072479 -0.019222597
0000d0 dc 59 ee 3e c0 ad 67 3f dc a1 72 3d 12 e7 c4 be
       0.46552932 0.90499496 0.059236392 -0.38457543
0000e0 d5 2d 35 3e 63 a9 93 be de 4f 07 be b6 f1 07 be
       0.17693265 -0.2884017 -0.1321406 -0.13275799
0000f0 ae 74 4e 3e 65 4e 07 3e 67 15 ad be f6 a5 9e 3e
       0.20161697 0.13213499 -0.3380539 0.30985993
000100 b5 d5 2d be f2 7d 52 be a2 c7 ba bd c3 7b 58 3d
       -0.16976054 -0.20555857 -0.09120108 0.052852403
000110 7b 3f 19 3d a7 b6 af bd 2c 91 51 3e 38 69 45 be
       0.037414055 -0.0857976 0.20465535 -0.19278419
000120 1e c5 97 bc 96 1e a6 be c1 47 83 3e 82 99 63 3d
       -0.01852661 -0.3244521 0.2564068 0.05556632
000130 df 1b ac 3c 68 5a 11 be 0d 92 1b be 5a fd ee 3d
       0.021009384 -0.14194643 -0.15192433 0.11669417
000140 d3 05 b2 be 86 d1 d2 be de 6c de be a8 f1 97 be
       -0.3477007 -0.4117548 -0.43442434 -0.29676557
000150 65 63 76 3e 90 79 2f be 96 92 c6 3e 0c 49 01 3f
       0.24061354 -0.17136216 0.3878371 0.50502086
000160 a4 49 b7 3c 59 60 47 3d f5 c4 90 bc 55 e8 21 be
       0.022373982 0.04867587 -0.017672041 -0.15811284
000170 22 08 51 be 3e f2 4a be 47 3c 8e be f9 63 3a be
       -0.20413259 -0.1981897 -0.27780363 -0.18202199
000180 3b b9 ed 3e c4 83 c1 3e 16 32 56 be 26 fe 1d 3e
       0.46430382 0.37795842 -0.20917544 0.15428981
000190 bf 2e d0 bd 56 48 65 3e 99 e5 73 be 89 e1 f1 3d
       -0.10165166 0.22390875 -0.23818053 0.118105955
0001a0 31 99 90 be 32 48 d9 be 2d 09 21 3e 9d 79 3c be
       -0.28241876 -0.42437893 0.15726157 -0.18405767
0001b0 97 e9 8a be e0 48 99 be 4a 30 c1 3d bf b1 17 3e
       -0.2713134 -0.29938412 0.094330385 0.14813899
0001c0 8e 48 b0 bd 69 68 19 be 97 68 d5 be 20 76 ff 3d
       -0.08607589 -0.14981236 -0.41681358 0.124737024
0001d0 75 78 d2 3d 98 f8 e8 be 05 78 55 bd f1 7a 2c bf
       0.102768816 -0.45502162 -0.052116413 -0.67375094
0001e0 78 68 36 3d ca 0b 9d be ed 8b 39 3e 14 6b 13 be
       0.044533223 -0.30673057 0.18119784 -0.14396316
0001f0 1d e1 a8 bd 16 6a c5 be 57 e0 9b 3e 51 37 63 bd
       -0.08246062 -0.385575 0.30444595 -0.055472676
000200 3e 6e 3c be ee ce 89 3d 77 40 0c bf ee 31 90 3c
       -0.18401429 0.06728922 -0.54785866 0.017601933
000210 db 28 66 be 3f 83 87 3e dd 56 0c 3e a1 c8 12 be
       -0.22476523 0.2646732 0.1370501 -0.14334346
000220 ae bf 9e bd 19 50 cb bd 2f 30 9e 3e 20 88 27 bf
       -0.07751404 -0.09927387 0.30896136 -0.65442085
000230 c9 d6 02 3e 1b 7b cb 3d 47 49 87 3e 70 3e ce 3d
       0.12777247 0.0993559 0.26423094 0.10070503
000240 76 ac c4 3e b6 b7 f0 bd 50 68 e0 bd ad 57 ea 3c
       0.38412827 -0.1175379 -0.10957396 0.02860626
000250 bd ff ee bd 91 44 1e 3e 87 7f 9f 3d 2e bf bc 3e
       -0.11669872 0.15455844 0.07787996 0.3686461
000260 e5 76 42 be 75 e8 5e bd aa db a5 bd 81 fb 64 3e
       -0.18990667 -0.054420907 -0.08098538 0.22361566
000270 b3 0e e3 3d 23 3c b2 3d b1 ae 33 3e 26 b9 7b be
       0.11086788 0.087028764 0.17547108 -0.24582347
000280 bb 32 19 3e 76 3f 60 be 76 2a 55 bc e9 1b f0 3d
       0.14960758 -0.21899208 -0.013010612 0.117240734
000290 95 c3 f6 bc 1f 8b 37 be 40 22 a5 bd 82 9d cd be
       -0.030122558 -0.17924164 -0.08063173 -0.4015923
0002a0 98 55 86 be 48 50 19 be 8e 9b af bb 30 30 cb 3e
       -0.26237178 -0.14972031 -0.0053591197 0.39685202
0002b0 c2 59 15 3d c7 31 a4 bd 3a 61 4b 3d f1 be 90 3e
       0.036462553 -0.08017307 0.04965327 0.28270677
0002c0 e9 dc 39 3e 04 cf 8c bd fd 0d a7 3d 52 84 bf bd
       0.18150677 -0.068754226 0.08156965 -0.0935141
0002d0 fe 96 96 3c 26 db 81 be b3 79 37 39 f7 d6 95 3e
       0.018382546 -0.2536251 0.00017497576 0.29265568
0002e0 e3 2a 13 be 58 18 76 3b 7e 8a d1 be ab 1e a4 bd
       -0.14371829 0.003755113 -0.40925974 -0.08013662
0002f0 10 96 db be 55 40 59 be 48 2e 82 be 58 45 e4 3d
       -0.42887926 -0.21215947 -0.25425935 0.11146039
000300 d2 7a 55 3e eb 89 81 3e 97 ab dd 3e 6d d1 67 be
       0.20847633 0.25300536 0.43294975 -0.22638483
000310 61 fe be be 0b d3 81 3d c8 07 c7 3e 84 3b d1 be
       -0.3730345 0.063390814 0.38873124 -0.4086572
000320 19 de 1e 3e 34 e0 b5 3d 7f 60 ef bc 5b 53 85 3e
       0.15514411 0.08880654 -0.029220818 0.26040158
000330 d0 18 73 bf da 00 d0 3e 75 a2 46 be 78 70 47 be
       -0.94959736 0.4062565 -0.1939791 -0.19476497
000340 11 bf f3 bd cb 3b 3e be 66 4f 6e 3b f0 76 03 bf
       -0.119016774 -0.18577497 0.0036363243 -0.5135336
000350 0c cb 43 3f 0e 1d c9 3d f3 c7 ee 3d 1a 6b 80 3e
       0.764817 0.09819995 0.11659231 0.25081712
000360 7f f3 56 3d 3c fc 09 be 40 3f f6 bc 91 33 2d 3e
       0.05247831 -0.13475126 -0.030059457 0.16914202
000370 00 ea 37 be ff 88 aa bc 2e 74 d7 3e 0f 78 6a 3e
       -0.17960358 -0.020817278 0.42080826 0.22897361
000380 f4 7d 99 be da 2f 42 3a a0 4e 32 be 2b a0 8b 3e
       -0.29978907 0.0007407643 -0.17412806 0.27270636
000390 49 89 30 3d 1f d6 90 3e 7d 3d 96 bd 76 c1 7b bd
       0.043099675 0.2828836 -0.07335947 -0.061463796
0003a0 5e b7 70 be 27 9c 20 3e ba be f8 3d 03 db 67 be
       -0.23507449 0.15684567 0.12145753 -0.2264214
0003b0 3c aa 33 3d 36 b0 b7 3c 4f 68 bf 3d 4f 1c 8d 3e
       0.04386352 0.022422891 0.09346067 0.2756066
0003c0 ad ea c9 be 5c cd de be 45 c4 26 be da 91 e6 3d
       -0.39436856 -0.43516052 -0.16285808 0.11258288
0003d0 40 1e 86 be 25 1f f2 3e 52 99 55 3e 64 22 54 be
       -0.26194954 0.47289386 0.20859268 -0.20716244
0003e0 05 b0 e3 be eb 0e 4b bd d4 f8 22 bf 97 90 21 3e
       -0.4447023 -0.049574774 -0.6366093 0.15777813
0003f0 e7 a3 75 3d e6 98 10 3e 8a 93 a6 3e 4a 15 30 bd
       0.059970763 0.14120826 0.32534438 -0.042989053

b2.bias f4 [32]
000000 0f 11 3f 3e fc 20 8d bf 15 42 57 bf 64 48 7f bf
       0.18658851 -1.1025691 -0.8408521 -0.99719834
000010 c1 d1 12 be 8d 74 56 bf d1 0c 08 bf d3 b7 16 bf
       -0.14337827 -0.8377159 -0.53144556 -0.58874243
000020 3e 46 1b 3f 1d 19 85 3d 9f b0 79 3d f3 00 bc be
       0.60654056 0.064989306 0.060959455 -0.36719474
000030 33 00 f2 be 05 cc 51 bf bb bb 48 be b6 7f 9c 3e
       -0.47265777 -0.81951934 -0.19602863 0.30566186
000040 41 8e 8d be b9 1f 0d bf cc 34 1a be ba d9 af be
       -0.27647594 -0.5512653 -0.15059203 -0.343458
000050 80 86 3c be 29 ae d0 3e 9e 90 3e bf 54 33 11 3f
       -0.18410683 0.40757874 -0.7443942 0.56718946
000060 49 cd 36 bf 92 54 d3 3e 48 a9 67 3e fa c0 3f 3e
       -0.7140699 0.4127546 0.2262317 0.18725958
000070 7b 8c 80 bf 71 16 86 be ba ee 10 3f e5 4b 84 be
       -1.0042871 -0.26188996 0.5661427 -0.25839153

b3.weight f4 [64, 32, 3, 3]
000000 24 d3 b3 be a7 e4 b8 bc 85 3c 58 bd 93 d8 e4 bd
       -0.35122025 -0.022569967 -0.05279209 -0.11174121
000010 22 be ee 3c fc fb 3f be 8e 39 57 3d 2e 63 02 bf
       0.029143397 -0.18748468 0.052545123 -0.50932586
000020 ef d7 20 bd 5c a8 cc 3c c3 57 aa be 5b a9 a4 3e
       -0.03926843 0.024982624 -0.33270082 0.32160458
000030 ff 54 e5 3c 3d 26 65 3e 11 5e 92 be 2f 26 4a be
       0.02799463 0.22377868 -0.28587392 -0.19741128
000040 b5 36 73 be de 53 01 be 07 d4 34 be ea 16 e6 bd
       -0.23751338 -0.12629649 -0.17659007 -0.11234839
000050 21 fc 36 bd 29 f3 3d 3e ac b5 20 bd 7e 89 d4 be
       -0.044674043 0.1854979 -0.039235756 -0.41511148
000060 bd eb ec 3d db 7c e2 3e 67 ad 3e be 10 ea e8 bd
       0.11568401 0.44235882 -0.18620835 -0.11372769
000070 de 7c 06 be ec 42 0b 3e e2 ae 04 3e e9 90 c9 3e
       -0.1313357 0.13599747 0.12957337 0.3936837
000080 62 77 97 be 6c 3c bd 3b d9 22 ce bd 40 49 80 3d
       -0.2958327 0.005775025 -0.100652404 0.06263971
000090 60 9e 82 3e 07 06 a0 3d b5 6c 5e 3e 25 3a 36 bf
       0.25511456 0.078136496 0.21721156 -0.7118247
0000a0 bd 72 8a 3d 03 67 07 3f 6d e1 b4 be 53 71 8a 3e
       0.06760166 0.5289156 -0.35328236 0.27039585
0000b0 74 a1 26 3e 76 8d 33 be dd b0 4d 3f 9e f1 20 3e
       0.16272527 -0.17534432 0.80347997 0.1571717
0000c0 ec 55 4b 3e 8b 64 82 be 5f fa a1 3e f1 ac a1 bc
       0.19856995 -0.25467333 0.3163633 -0.019735785
0000d0 f6 c1 4b bd 4a 66 bd be b1 0c 3c be 53 68 52 3d
       -0.049745522 -0.36992103 -0.18364216 0.051369023
0000e0 2c bb ac be e8 55 e5 3d de b9 a4 3c a0 c2 53 3e
       -0.3373655 0.11198026 0.02010816 0.20679712
0000f0 a3 65 67 bd f7 c7 2a be d0 71 e6 bd 82 55 89 be
       -0.056493413 -0.16677843 -0.11252177 -0.2682305
000100 06 1a 19 bc b2 b7 97 3e 52 a9 49 bd 9c ec bf 3d
       -0.009344583 0.29632336 -0.049233742 0.093713015
000110 4c 1c 25 bf 9e 26 81 3e 4b 11 cd 3e 0b ac 38 be
       -0.644963 0.25224775 0.40052256 -0.18034379
000120 04 c5 3a be 2d 9b c4 3d 90 5a cf bd f7 c1 84 bd
       -0.18239218 0.0959991 -0.10124695 -0.06482308
000130 52 a7 0a 3e 9c 66 26 3d 9b 9d e9 bd 4d ba 03 bf
       0.1354039 0.0406252 -0.11407014 -0.5145615
000140 8c 8f ce 3e c2 73 a3 be 44 f6 66 3e 51 b1 17 3e
       0.40343893 -0.31924254 0.2255488 0.14813735
000150 9a 54 29 3d 50 72 df 3e 25 1d 9b be 65 dd 9f be
       0.041340448 0.436419 -0.30295673 -0.31223598
000160 e0 a5 22 bf c0 90 2f be f9 18 15 be 7f cb b4 be
       -0.63534355 -0.17145061 -0.14560308 -0.35311505
000170 39 4d cc bd 65 df b3 3d a1 9c 9f bd 9f cb fb 3d
       -0.099756666 0.087828435 -0.077935465 0.12294697
000180 0e 25 9e be c7 e1 74 bd d5 61 ea be 5d 10 94 3e
       -0.30887645 -0.05978563 -0.45777765 0.28918734
000190 6b 14 81 bd e1 27 ac 3d e2 36 a6 3e 02 0b 68 bd
       -0.063027225 0.08406044 0.32463747 -0.056651123
0001a0 5b 05 45 3e ed 15 0e bd 07 53 17 3f e9 fc 92 3e
       0.19240324 -0.03468888 0.59111065 0.2870858
0001b0 c2 b6 b2 3d f9 5a 06 3e 35 ea 73 3e 8b be 49 3e
       0.087262645 0.13120641 0.23819812 0.19701593
0001c0 b8 77 e9 bd 15 9e eb be 4b e1 2e be 3a 0e 0e bd
       -0.11399788 -0.46019045 -0.1707813 -0.034681536
0001d0 4b ee 3a 3d 48 73 6e be b6 a8 e0 bd 25 6c 82 3d
       0.04563741 -0.23286164 -0.10969679 0.06368283
0001e0 1a 6f 97 3c ee 0f f5 3e 5a f1 af 3e 9a 2c 62 3d
       0.018485595 0.47863716 0.34363824 0.055218317
0001f0 6e 8b 1f be db ae bc 3e a6 79 86 3e e8 fe e2 be
       -0.15580532 0.36852154 0.26264685 -0.44335103
000200 d0 f3 46 bc 08 2d 38 3e ab 71 5e be 5a ed 79 3e
       -0.01214309 0.17985928 -0.21723048 0.24406949
000210 ab a3 df bd b9 1a 4f bd 20 07 3b bf 17 5d 12 be
       -0.10919889 -0.050562594 -0.73057747 -0.14293323
000220 71 ef 97 be d2 19 5f 3e b1 fb 5c bd 5f 91 41 be
       -0.29674867 0.21787193 -0.05395097 -0.18903111
000230 53 0e 46 bf 8a 8a 7d be b8 2f 00 be e3 48 cb bd
       -0.7736561 -0.2475988 -0.12518203 -0.099260114
000240 d3 62 74 3e c7 ac ef be 28 28 bd be 0a 52 0c 3f
       0.23865823 -0.46811506 -0.369447 0.5481268
000250 11 15 90 be fc a4 0c 3e 6f 67 62 be 77 8e c3 be
       -0.28141072 0.13734812 -0.2210977 -0.3819463
000260 6f de 93 be 14 41 c2 be 19 75 d2 bd b0 43 ca 3e
       -0.2888064 -0.37940276 -0.10276241 0.39504766
000270 98 05 02 3e 49 53 0e 3d 6c 5b 8d be b4 28 13 bf
       0.12697446 0.034747396 -0.27608812 -0.57483983
000280 84 2d 46 be 10 56 d4 be 5e 38 0b 3f cb 8d 89 3d
       -0.193533 -0.4147191 0.54382885 0.06716498
000290 70 af 90 3d 90 71 18 be 79 55 a2 be f0 d9 1b be
       0.07064712 -0.1488707 -0.31705835 -0.15219855
0002a0 a8 d4 cf bd e5 2a ca be 11 30 22 be 08 dc 35 3e
       -0.10147983 -0.3948585 -0.15838648 0.17759717
0002b0 59 c8 4f be 57 0b f0 bd bf 4e e6 3c 6c fd cf be
       -0.2029127 -0.11720913 0.028113721 -0.40623033
0002c0 22 47 19 3e bb b9 52 be d9 ae d1 3d e9 90 87 be
       0.14968541 -0.20578663 0.10238428 -0.26477745
0002d0 98 38 e1 3d ff 57 5e 3c 10 03 88 be 69 a2 82 3e
       0.109971225 0.013570785 -0.26564837 0.25514534
0002e0 10 83 00 be 76 4c 16 3e 61 ec 9a bd ba 0d a4 3e
       -0.12549996 0.14677605 -0.07564617 0.32041723
0002f0 01 2b 47 3e c4 4b fb 3c 7f cf 58 be ad 5f de bc
       0.19449998 0.030675776 -0.21172903 -0.027145231
000300 35 ab b6 be 41 21 05 3e ff cc e0 3d d3 a6 da bd
       -0.35677496 0.13000967 0.109766 -0.106763504
000310 76 ae 06 3e 76 36 77 bd d4 73 04 bf 5c 00 93 be
       0.13152489 -0.060354672 -0.5173924 -0.28711212
000320 20 68 bb bb 46 1d f8 3d 39 92 a9 3d 18 6d 94 3c
       -0.0057192 0.121149585 0.08279843 0.018118426
000330 aa 85 cb 3d 32 a6 80 be 1f 9e 09 be 80 8e 1f 3e
       0.09937604 -0.25126797 -0.13439225 0.15581703
000340 92 ca 24 3e b1 26 f2 be bd 54 30 3e 9c 53 3a be
       0.160929 -0.47295144 0.17219825 -0.18195957
000350 fb ec c8 bc a3 ab 95 3d 5f 22 f4 be 46 35 12 3e
       -0.024527064 0.07308128 -0.47682473 0.14278135
000360 00 16 5e bd 7c 94 d3 bd 0f 7b c7 3d e9 4b 39 bd
       -0.0542202 -0.103310555 0.097402684 -0.04523841
000370 16 bc b1 be 3e ba 13 3d 11 30 82 3d 00 11 85 3e
       -0.3471381 0.036066286 0.06356824 0.25989532
000380 c1 84 79 bd 9c ca 36 bd 44 4f fc bd 93 7e 95 3e
       -0.06091762 -0.044626817 -0.12319806 0.2919813
000390 26 63 f8 3e 2a d8 a3 3d 25 2c 83 3e d0 68 bd 3c
       0.48513144 0.080002144 0.25619617 0.023121268
0003a0 60 8b 97 3e e1 9b b2 3d 92 c8 59 3e 40 01 c7 3d
       0.29598522 0.08721138 0.21267918 0.09717035
0003b0 73 16 2e 3d a9 d3 c9 bd af 79 b2 3e 2a 2c ce 3e
       0.042501878 -0.09854824 0.34858462 0.4026807
0003c0 d0 95 36 be b8 2a 02 bf c0 71 84 3e 57 55 26 be
       -0.17830586 -0.50846434 0.25868034 -0.16243492
0003d0 5a b9 37 be 3d f4 1c 3b fd 15 2e 3e 17 44 4f 3c
       -0.179418 0.0023949288 0.17000575 0.012650511
0003e0 3a b1 56 3e 90 12 a1 3c d5 55 a7 be c9 25 c0 3e
       0.20966044 0.019662172 -0.32682672 0.37528828
0003f0 3c 2a bc bb 60 21 63 3c 7c a7 b2 3e 89 94 ad bd
       -0.0057423394 0.013862938 0.34893405 -0.084755965

b3.bias f4 [64]
000000 12 0c 3e 3e 7f c8 18 3e 74 2f e9 bd 79 59 08 bd
       0.18559292 0.14920233 -0.11386004 -0.033288453
000010 b9 90 4f bd 4b 6f c4 be 84 b4 85 3d 12 c6 2f 3e
       -0.050675128 -0.3836616 0.06528571 0.17165402
000020 b0 0d 09 bf d2 55 93 be c4 ac c0 be 29 a5 5e 3e
       -0.5353651 -0.28776413 -0.3763181 0.21742691
000030 9c 0c a5 3d c1 d0 9b 3e 59 24 9e be 50 fe d3 bd
       0.08059046 0.30432704 -0.30887106 -0.10351241
000040 77 d4 36 be d4 db fa 3c ea 2e 48 bd 56 70 a0 3e
       -0.17854486 0.0306224 -0.048872866 0.31335706
000050 41 b0 59 3d 63 25 e7 be aa 8a 76 3c 00 b6 a6 3e
       0.053146604 -0.4514571 0.0150477085 0.3256073
000060 21 0c 93 3e ce cf e2 be c9 cd 4f bf 31 7f e3 bd
       0.2872019 -0.44299167 -0.8117338 -0.11108244
000070 8b 0e 13 3f c6 60 45 be 10 80 d6 3d 5b 38 b9 bd
       0.57444066 -0.19275197 0.10473645 -0.09043952
000080 9d 02 3d be 1e 5d c3 bd 7a b6 f5 bd 6a 48 24 3e
       -0.18458028 -0.09539245 -0.11997695 0.16043249
000090 08 e0 18 be f4 98 b6 be 90 9a 48 3e 10 02 c3 3c
       -0.14929211 -0.3566357 0.19590211 0.023804694
0000a0 94 d6 e1 3d 8b ba ce 3d 90 51 d9 3e a8 22 04 3f
       0.11027256 0.10094174 0.4244504 0.5161538
0000b0 4b 46 f1 bd 90 bb 03 be c9 4a 26 3e 88 85 75 be
       -0.117809854 -0.12864518 0.16239466 -0.2397672
0000c0 76 7c d0 be 40 c2 bc be 67 dd 21 bd e4 c9 83 bd
       -0.40719956 -0.3686695 -0.039517786 -0.06434992
0000d0 66 15 5b be 2f 13 21 3e 89 39 a1 3d 34 da 4b be
       -0.21394882 0.15729974 0.07872302 -0.19907457
0000e0 69 6d 7b 3e 15 30 a3 3e ee 53 e4 bd 5b c6 eb bc
       0.24553455 0.3187262 -0.11148821 -0.028781107
0000f0 3b 1c 9e be ab c1 b2 3d 79 2e 23 3d 19 33 54 bf
       -0.30880913 0.087283455 0.03983924 -0.8289047
