nets/model_epoch_46.pth (torch, 648794 bytes, 25 tensors)

a1.weight f4 [16, 5, 3, 3]
0.089970686 0.102885894 -0.012956214 -0.11763186 0.01362119 0.2622365 -0.10661324 0.03393869
-0.41450232 -0.07166052 -0.098429225 -0.15628858 0.027624894 -0.09099452 -0.19043873 -0.29288283
-0.14397882 -0.17870985 0.13458462 -0.10499035 0.025984917 0.053742405 -0.39201042 0.033200443
-0.13184957 -0.11703803 0.001132831 -0.20454885 -0.040180862 0.085549444 -0.16050524 -0.113116264
-0.42490184 -0.23114128 -0.15107024 0.1332228 -0.16818377 -0.07287697 -0.14531712 -0.029238507
-0.17939042 -0.12618582 -0.010752685 -0.11857845 -0.046212867 0.19251041 -0.10087635 -0.048358224
0.34580505 0.03528208 0.34561437 0.0062056966 0.50340575 -0.23312312 0.072948925 0.28628325
0.060416933 0.011317523 0.18755925 0.005706177 0.10296378 -0.5204456 0.06965732 0.14868581
-0.07978384 -0.08171745 0.35817745 0.04949105 -0.39583233 -0.14848408 -0.15095504 0.09995338
-0.0012636593 -0.36844775 -0.39889756 -0.0007685192 0.3027556 0.116822235 0.13466112 0.15377009
-0.5086582 -0.0059955134 0.026493177 -0.007179583 0.081246264 0.03228263 -0.024775216 -0.06672314
-0.06470628 0.039415665 -0.31047782 0.0851566 0.35667127 0.038527504 0.20600525 0.010866641
0.5382539 0.4469626 0.124239035 0.17037109 0.20572332 0.19442321 -0.02560425 -0.02341162
0.009373658 -0.08191326 -0.14666651 0.09296831 0.22995111 0.45654926 0.2195351 0.060329434
-0.17558117 0.30948249 -0.2890727 -0.09934393 0.18168364 -0.0039758077 -0.28524542 -0.22893885
0.044160437 -0.15234089 -0.009644682 0.0690686 0.03981641 -0.30531764 -0.033309225 0.035348054
0.011049148 -0.04904941 0.11882155 -0.11895767 -0.02140496 -0.048723146 0.06448076 0.15179591
0.10055731 -0.27594608 0.16355541 0.13674562 -0.27467167 0.07415718 -0.36373174 0.2759427
-0.15904962 -0.43527567 -0.23470998 -0.35058728 -0.018555222 -0.63054484 0.073346145 0.047157127
-0.034430087 -0.04774208 0.1041 0.0315572 -0.18759328 -0.10421329 -0.30970985 -0.20360652
-0.16143528 0.37298527 0.20238824 0.2570569 0.22556874 0.34712514 -0.14039905 0.55729103
0.17564906 -0.030691762 -0.22214407 -0.036258813 0.03004627 0.049260136 -0.008378504 -0.01688895
0.00046590186 0.046622466 -0.05129088 -0.026436564 0.21035156 0.030685049 -0.273631 0.038916435
0.14347105 0.29778847 0.06418832 0.20172589 0.25726792 0.17638086 -0.12993765 0.045810036
-0.20317106 -0.027835704 -0.14478952 0.14928228 0.0915739 -0.14965332 0.066839315 0.15137357
0.45352867 -0.023116784 -0.0064408653 -0.100524954 -0.3089255 0.3044857 -0.031685896 -0.15979773
-0.41870126 -0.37440336 0.09804087 0.06629444 -0.16743262 -0.21411979 -0.053444307 0.053330507
-0.020780882 0.023892183 -0.01886486 0.04161115 -0.10345881 0.026578372 0.01613173 0.09842481
-0.052508168 -0.07098642 -0.08786042 0.23428202 0.016510645 -0.105074696 -0.048996635 0.2005495
-0.13780509 0.35959765 -0.059442237 0.38383588 0.28126082 0.0023280752 -0.023395037 -0.31272736
0.0621525 0.23279044 -0.6000579 0.044050626 0.06374274 0.081155814 -0.20737219 0.29880098
-0.35234967 -0.20106238 -0.13790001 -0.40114737 0.26381618 -0.02774545 0.08297648 0.036265876
00000000: 8d42 b83d d7b5 d23d 4d46 54bc f9e8 f0bd
00000010: 692b 5f3c dd43 863e 0b58 dabd 4c03 0b3d
00000020: a639 d4be c0c2 92bd 4395 c9bd 1d0a 20be
00000030: 9a4d e23c 565b babd 5f02 43be bdf4 95be
00000040: 2f6f 13be b7ff 36be 8dd0 093e 2e05 d7bd
00000050: 52de d43c ff20 5c3d 97b5 c8be 30fd 073d
00000060: 9303 07be a2b1 efbd 807b 943a 4175 51be
00000070: b094 24bd 8c34 af3d 7c5b 24be 80a9 e7bd
00000080: bc8c d9be 4db0 6cbe 28b2 1abe 8f6b 083e
00000090: 5e38 2cbe 8540 95bd 03ce 14be 9885 efbc
000000a0: 1fb2 37be db36 01be 082c 30bc 42d9 f2bd
000000b0: b449 3dbd 7321 453e 4398 cebd 4613 46bd
000000c0: 5c0d b13e f183 103d 5ef4 b03e 2859 cb3b
000000d0: 33df 003f d4b7 6ebe 3f66 953d b893 923e
000000e0: bf77 773d 226d 393c 880f 403e e2fa ba3b
000000f0: adde d23d ec3b 05bf 7fa8 8e3d 1841 183e
00000100: b665 a3bd 7a5b a7bd 0963 b73e 21b7 4a3d
00000110: 89aa cabe 360c 18be f593 1abe 5cb4 cc3d
00000120: 5fa1 a5ba 2fa5 bcbe 4d3c ccbe 7376 49ba
00000130: c802 9b3e 7f40 ef3d 9be4 093e e875 1d3e
00000140: 6c37 02bf 0376 c4bb 3808 d93c b542 ebbb
00000150: 7164 a63d cb3a 043d 65f5 cabc 24a6 88bd
00000160: ba84 84bd 5272 213d f3f6 9ebe 9566 ae3d
00000170: 9e9d b63e 04cf 1d3d 0af3 523e ff09 323c
00000180: 02cb 093f 48d8 e43e 0971 fe3d c275 2e3e
00000190: 22a9 523e e116 473e 01c0 d1bc bac9 bfbc
000001a0: f993 193c 24c2 a7bd bf2f 16be 2b66 be3d
000001b0: 4e78 6b3e d3c0 e93e cfcd 603e ff1b 773d
000001c0: 8dcb 33be 7d74 9e3e 5601 94be d574 cbbd
000001d0: 470b 3a3e 7e47 82bb b00b 92be f26e 6abe
000001e0: 93e1 343d 40ff 1bbe ba04 1ebc d773 8d3d
000001f0: 8816 233d 9852 9cbe 416f 08bd 1fc9 103d
00000200: 7c07 353c 09e8 48bd b658 f33d 14a0 f3bd
00000210: 7459 afbc ec91 47bd 7d0e 843d 6370 1b3e
00000220: fef0 cd3d ce48 8dbe 127b 273e 0b07 0c3e
00000230: c4a1 8cbe b8df 973d 0c3b babe 5d48 8d3e
00000240: e7dd 22be 74dc debe d057 70be 2d80 b3be
00000250: 1f01 98bc 636b 21bf 8136 963d d527 413d
00000260: 9006 0dbd 338d 43bd 6132 d53d 1f42 013d
00000270: 7418 40be c76d d5bd 4a92 9ebe 3a7e 50be
00000280: 4a4f 25be edf7 be3e dd3e 4f3e f69c 833e
00000290: 7efb 663e 63ba b13e c5c4 0fbe a0aa 0e3f
000002a0: 59dd 333e 4a6d fbbc bc79 63be 1f84 14bd
000002b0: 9823 f63c ffc4 493d fe45 09bc b25a 8abc
000002c0: 4a44 f439 33f7 3e3d 6316 52bd 7e91 d8bc
000002d0: 6666 573e 365f fb3c 5d19 8cbe d766 1f3d
000002e0: 13ea 123e bb77 983e 2a75 833d 3b91 4e3e
000002f0: 9fb8 833e 2f9d 343e 600e 05be 4ea3 3b3d
00000300: 130c 50be b407 e4bc b443 14be 74dd 183e
00000310: 198b bb3d b83e 19be 0de3 883d ac01 1b3e
00000320: e934 e83e 695f bdbc e50d d3bb 07e0 cdbd
00000330: 7c2b 9ebe 8de5 9b3e 12c9 01bd 04a2 23be
00000340: 0360 d6be ccb1 bfbe a7c9 c83d 61c5 873d
00000350: 7573 2bbe 3842 5bbe 6be8 5abd 1771 5a3d
00000360: ab3c aabc 8ab9 c33c 7b8a 9abc 7470 2a3d
00000370: 36e2 d3bd e3ba d93c b126 843c f292 c93d
00000380: ce12 57bd 5461 91bd 2af0 b3bd a0e7 6f3e
00000390: 5541 873c 6731 d7bd b2b0 48bd d95c 4d3e
000003a0: c71c 0dbe 2f1d b83e b479 73bd 2386 c43e
000003b0: 6b01 903e 9f92 183b f3a6 bfbc cd1d a0be
000003c0: 9f93 7e3d 9e60 6e3e 659d 19bf 6e6e 343d
000003d0: 8e8b 823d 0535 a63d 6059 54be 71fc 983e
000003e0: 2d67 b4be 4ce3 4dbe a935 0dbe 3063 cdbe
000003f0: ea12 873e 6d4a e3bc 93ef a93d 878b 143d

a1.bias f4 [16]
0.04169407 -0.0915013 -0.055447012 -0.1389935 0.14901611 -0.13118769 0.0348405 -0.10617048
-0.15203956 0.10440878 -0.05761483 0.100282066 -0.08332615 -0.061568864 0.27294865 0.22723648
00000000: 67c7 2a3d 0965 bbbd 681c 63bd 5054 0ebe
00000010: ae97 183e 1156 06be eab4 0e3d e96f d9bd
00000020: 42b0 1bbe 45d4 d53d 87fd 6bbd af60 cd3d
00000030: e7a6 aabd a22f 7cbd edbf 8b3e aeb0 683e

a2.weight f4 [16, 16, 3, 3]
-0.06419548 -0.32225057 -0.09524473 0.34198108 0.13597806 -0.22426444 0.07432145 -0.2093135
0.1306756 -0.02408941 0.14526832 0.021091076 -0.14523725 0.16857745 -0.18757579 -0.05853496
0.1206634 -0.06889309 -0.07812291 -0.19316107 -0.2909401 -0.4384221 -0.084952675 0.009901141
-0.09330075 -0.40536836 0.12387682 -0.70574975 0.27691087 -0.326811 0.5580984 -0.22618735
0.22741173 0.10814086 0.07092582 0.07541356 0.0037293648 -0.44255614 -0.06848093 0.036531
-0.044741638 -0.16926895 -0.52551174 -0.22610082 -0.20231804 0.05960665 -0.21412587 -0.13586827
0.23775934 0.066086344 0.14356099 -0.38857275 0.15075366 0.19422539 -0.19562812 0.060643785
0.031762708 0.38001245 0.3323824 0.025355615 0.09771471 -0.01490713 0.005244381 0.31263003
-0.21699254 -0.057224177 -0.30862808 -0.028355736 -0.14198583 -0.13480304 -0.080376126 0.2316841
0.22650872 0.108831 0.013625294 -0.007985704 -0.0007728297 0.21500534 -0.20820276 0.40924516
0.12842992 0.0658767 0.25535712 -0.04172343 -0.20792463 0.15462133 0.45463255 0.12291214
0.0449682 0.17985828 -0.15998113 -0.08196795 -0.13917546 0.11807135 0.21117963 -0.3413258
0.07043395 0.006534467 0.19277973 -0.3273631 -0.066595815 -0.03037853 -0.16102152 -0.16053618
0.026279882 0.52636117 0.047728058 -0.17302915 -0.052741762 -0.12933421 0.060375676 -0.0002521027
0.52310807 -0.35430107 0.53142846 0.25052544 -0.21489698 0.21138398 -0.32127967 -0.47029063
0.06634674 0.44047064 0.1359387 0.24295147 -0.20589915 0.029778404 -0.09416352 -0.6377637
-0.053740487 -0.050156586 -0.052951206 -0.26301908 -0.07515394 -0.19161832 0.15154563 -0.33952567
-0.0069660773 -0.1618128 -0.11312164 -0.18759693 0.506392 -0.22953881 0.021429706 0.02207384
-0.11402576 -0.014817324 0.08779791 -0.12575053 -0.1270943 0.0306734 -0.13758233 -0.04612711
-0.18505092 -0.02711162 -0.08958772 0.19863872 -0.10467415 -0.16093825 0.021517565 0.0803605
0.08341942 0.0727697 0.12592547 0.008636078 0.18387581 -0.018100105 0.17439973 0.14291514
-0.024334924 0.095160306 0.118641555 -0.16199736 0.17227526 0.2708246 -0.035688307 -0.016087364
-0.029047836 0.075477734 -0.11880825 0.32194582 0.30009604 -0.17880085 0.14843114 0.11907928
0.11388361 -0.09088631 0.17896599 -0.08751157 -0.06665052 -0.13120084 0.14196467 0.19266558
0.015718598 0.005560748 -0.0594702 0.07988682 0.08780436 -0.15279637 -0.09282392 -0.05377239
-0.110870555 -0.105338596 -0.017211325 0.008733001 -0.12564734 -0.19947639 0.020035973 0.07394052
0.21256709 0.07520012 -0.1878081 0.123783864 0.019695817 0.1245735 -0.04071963 0.40095663
-0.049590547 -0.114626706 0.08676742 -0.36211884 0.13091868 -0.10283117 -0.2349893 0.31045604
-0.05298058 -0.0499403 -0.106245 0.10403431 0.07569623 0.060611963 0.055915274 -0.0089734765
-0.095510714 -0.16009204 0.17876022 0.11461176 -0.0934365 0.020713633 -0.24152751 0.22374327
-0.07958115 0.18338196 -0.23217057 0.03821239 0.40794834 0.13994355 0.017296312 0.08182659
0.26473907 -0.21811435 -0.22320971 -0.20793638 -0.0674654 0.33034292 0.0009841468 -0.10169501
00000000: eb78 83bd 07fe a4be ab0f c3bd 2518 af3e
00000010: d53d 0b3e 94a5 65be d835 983d 4756 56be
00000020: d3cf 053e 2857 c5bc 38c1 143e 31c7 ac3c
00000030: 13b9 14be 919f 2c3e de13 40be 5bc2 6fbd
00000040: 5f1e f73d d217 8dbd e7fe 9fbd 04cc 45be
00000050: 1af6 94be dd78 e0be abfb adbd 6538 223c
00000060: 7714 bfbd 718c cfbe 21b3 fd3d 04ac 34bf
00000070: 43c7 8d3e c553 a7be 89df 0e3f a89d 67be
00000080: 9fde 683e f578 dd3d 8e41 913d 6d72 9a3d
00000090: 5c68 743b b896 e2be bb3f 8cbd 88a1 153d
000000a0: 0243 37bd d754 2dbe f087 06bf f986 67be
000000b0: 762c 4fbe 1a26 743d d043 5bbe 0d21 0bbe
000000c0: 2f77 733e 4758 873d a701 133e 02f3 c6be
000000d0: 2b5f 1a3e 05e3 463e bd52 48be 9e65 783d
000000e0: 9d19 023d fe90 c23e 072e aa3e 94b6 cf3c
000000f0: a61e c83d 093d 74bc 0ed9 ab3b 0b11 a03e
00000100: 4b33 5ebe e663 6abd 8004 9ebe 4a4a e8bc
00000110: bc64 11be cf09 0abe 3d9c a4bd 993e 6d3e
00000120: e7f1 673e cae2 de3d a03c 5f3c 78d6 02bc
00000130: b997 4aba 5c2a 5c3e 1b33 55be 9588 d13e
00000140: 2283 033e 5dea 863d 2bbe 823e 30e6 2abd
00000150: 32ea 54be 0e55 1e3e 99c5 e83e 5cb9 fb3d
00000160: 9330 383d c52c 383e 18d2 23be d0de a7bd
00000170: 0384 0ebe 64cf f13d 793f 583e 41c2 aebe
00000180: ad3f 903d 151f d63b 0d68 453e 239c a7be
00000190: 6363 88bd 65dc f8bc d3e2 24be 9963 24be
000001a0: e848 d73c 9bbf 063f 7f7e 433d 8e2e 31be
000001b0: bf07 58bd 3070 04be 7c4c 773d a72c 84b9
000001c0: 69ea 053f f366 b5be b20b 083f df44 803e
000001d0: f40d 5cbe 0b75 583e c57e a4be efc9 f0be
000001e0: cde0 873d 5e85 e13e 8433 0b3e 45c8 783e
000001f0: 3ad7 52be d7f1 f33c ced8 c0bd 7b44 23bf
00000200: fc1e 5cbd fe70 4dbd 5de3 58bd 70aa 86be
00000210: 4fea 99bd 9837 44be c72e 1b3e 4fd6 adbe
00000220: b143 e4bb 41b2 25be 52ac e7bd 6919 40be
00000230: e8a2 013f 390c 6bbe 5a8d af3c 33d4 b43c
00000240: 5686 e9bd 5cc4 72bc 64cf b33d bfc4 00be
00000250: 0225 02be c846 fb3c 62e2 0cbe c8ef 3cbd
00000260: fd7d 3dbe 3019 debc c479 b7bd f367 4b3e
00000270: 675f d6bd ffcc 24be 9b45 b03c 0c94 a43d
00000280: cdd7 aa3d 4808 953d 9bf2 003e 567e 0d3c
00000290: f149 3c3e ac46 94bc d895 323e 5958 123e
000002a0: 095a c7bc 68e3 c23d 58fa f23d a3e2 25be
000002b0: ed68 303e 86a9 8a3e e72d 12bd a6c9 83bc
000002c0: baf5 edbc 1294 9a3d bd51 f3bd 15d6 a43e
000002d0: 30a6 993e 9217 37be 55fe 173e d6df f33d
000002e0: cf3b e93d 9a22 babd dc42 373e 4439 b3bd
000002f0: 1180 88bd 8359 06be 305f 113e 204a 453e
00000300: 4ac4 803c ef36 b63b 0697 73bd b39b a33d
00000310: c6d2 b33d a776 1cbe 781a bebd 7040 5cbd
00000320: 1a10 e3bd c3bb d7bd c4fe 8cbc dc14 0f3c
00000330: b2a9 00be 8a43 4cbe 7b22 a43c 216e 973d
00000340: 30ab 593e 8502 9a3d c450 40be 6582 fd3d
00000350: 1f59 a13c 6420 ff3d a0c9 26bd 304a cd3e
00000360: 751f 4bbd 68c1 eabd 1eb3 b13d a467 b9be
00000370: 8c0f 063e 2699 d2bd 09a1 70be 18f4 9e3e
00000380: 2a02 59bd 338e 4cbd fb96 d9bd f10f d53d
00000390: a006 9b3d 4044 783d 6a07 653d 7d05 13bc
000003a0: 1f9b c3bd 2bef 23be eb0c 373e 92b9 ea3d
000003b0: a35b bfbd a3af a93c fd52 77be f51c 653e
000003c0: 71fb a2bd 7bc8 3b3e 1fbe 6dbe 9884 1c3d
000003d0: 9bde d03e 5d4d 0f3e ffb0 8d3c b394 a73d
000003e0: e18b 873e 5e59 5fbe 1691 64be 46ed 54be
000003f0: 4d2b 8abd b522 a93e 7dfe 803a 7945 d0bd

a2.bias f4 [16]
-0.10528633 -0.1928084 -0.09514772 -0.028615495 0.026619107 -0.16496786 0.009414948 -0.024513269
0.1291588 -0.12837793 -0.18510158 -0.020825163 -0.15764228 0.046537574 0.16642731 0.11991494
00000000: 5ca0 d7bd 916f 45be cfdc c2bd 0b6b eabc
00000010: 5010 da3c 56ed 28be 2741 1a3c 0dd0 c8bc
00000020: 3442 043e 8175 03be 458b 3dbe 8899 aabc
00000030: fa6c 21be 2f9e 3e3d ec6b 2a3e f795 f53d

a3.weight f4 [32, 16, 3, 3]
-0.16588557 0.38291362 -0.48748082 -0.06612215 -0.13451289 -0.08848439 -0.6244994 -0.062053274
0.19011067 -0.060870953 -0.09255788 -0.17922917 -0.033346046 0.22852921 0.18642734 -0.30962625
-0.21541078 -0.46818906 0.1552396 -0.049572524 0.12482075 0.11256848 0.19482401 -0.13979992
-0.10059192 0.09814672 -0.1103105 -0.30720967 0.18698815 0.22417776 0.060154542 -0.0719713
0.15448684 -0.11337939 -0.13491786 0.024510324 0.19715413 0.08530602 -0.12271747 -0.051107302
0.3248751 -0.089595295 0.15729988 0.060216494 -0.029006949 0.13790461 -0.035926912 -0.06584276
0.3055564 -0.021595998 0.33774656 -0.38553065 -0.18904693 0.14104141 0.07248085 0.028749958
-0.18505082 0.015844177 0.1144381 -0.15672506 0.093846455 0.32532182 0.07731062 0.14257598
0.048200015 0.05090636 0.11977788 0.27990824 -0.287907 0.36324444 -0.104357935 -0.22536522
-0.019954806 0.15797262 -0.14149925 0.1284224 0.30894065 0.03596282 0.0401589 -0.27662385
-0.141748 0.023532027 0.23037836 -0.108699605 0.26218444 -0.06691363 0.0247386 -0.1319825
-0.13125989 0.13194174 -0.026779566 0.06580232 -0.08429136 0.13163956 -0.30369797 0.38384712
0.056585394 -0.10379335 -0.2154625 -0.04664 -0.25947902 -0.086437054 -0.18764865 0.33550787
-0.05406798 -0.16876021 0.29140854 -0.16978683 -0.07094265 -0.38085496 -0.27576745 0.19346386
-0.02895007 0.38890022 -0.60519785 0.0295495 -0.02543563 0.5517151 0.0860344 -0.018126529
0.31824043 -0.01903401 -0.12296589 0.15943618 -0.052766565 0.24712689 0.40024334 -0.26413184
-0.3922043 0.092317656 0.28220007 -0.18782495 0.15244588 -0.13794272 -0.2702414 -0.039852712
0.079742916 0.07858896 0.007270565 0.38822243 -0.78394926 0.14597909 -0.2937391 -0.24644578
0.14443436 -0.064094044 0.47861692 0.09316612 0.030670894 0.16781652 -0.12808295 -0.03534526
0.11134696 -0.078308344 -0.10850943 0.18352722 -0.175569 -0.18440251 0.18897346 0.22903244
0.16772445 -0.19843483 -0.4365124 -0.027677443 -0.050148834 0.19710046 -0.10094092 -0.27476555
-0.21065801 0.03601346 -0.2902189 -0.1476911 -0.15835564 -0.122520775 -0.21476027 0.15754999
0.13601728 0.109516114 -0.13293643 0.13332586 -0.23880717 -0.10812484 -0.09294413 -0.2400992
-0.1157239 0.24646628 -0.09312553 -0.18961048 0.2270863 0.0342626 0.08617539 0.10108072
0.07353371 -0.056149304 0.33964097 -0.08204061 -0.0797268 0.121948056 -0.17937236 -0.2011374
0.14640076 -0.04061168 -0.2263672 0.14477772 0.108696066 0.20941722 0.254764 -0.29195613
-0.013126334 -0.5052775 0.12796913 0.36516175 -0.08925086 -0.6534908 0.16609783 0.2994537
0.10966659 0.3563437 -0.15138698 -0.25332204 -0.058152206 -0.434937 -0.11931117 -0.1701992
0.0065085217 0.18298005 -0.10273569 -0.10224892 0.023804799 -0.04441094 -0.22469206 -0.019793823
0.20360936 0.033887576 0.29507542 -0.18023182 0.27753463 -0.24657871 -0.17598124 -0.21710934
-0.14537032 -0.41824812 -0.083255544 -0.3552561 -0.013404877 -0.08169804 -0.16573332 -0.07322891
0.1872398 -0.597117 -0.280601 0.21623257 0.31213784 -0.14656886 0.19999196 -0.255728
00000000: e8dd 29be 410d c43e 1697 f9be 0d6b 87bd
00000010: bfbd 09be 4e37 b5bd 31df 1fbf 932b 7ebd
00000020: 5fac 423e d253 79bd fc8e bdbd da87 37be
00000030: dd95 08bd 9003 6a3e cfe6 3e3e 5587 9ebe
00000040: a594 5cbe 7ab6 efbe 21f7 1e3e 8f0c 4bbd
00000050: 05a2 ff3d 4e8a e63d f27f 473e b627 0fbe
00000060: 2303 cebd 2601 c93d 79ea e1bd 964a 9dbe
00000070: d279 3f3e db8e 653e 9c64 763d b065 93bd
00000080: cc31 1e3e 7433 e8bd e827 0abe e0c9 c83c
00000090: c6e2 493e ecb4 ae3d 4c53 fbbd e455 51bd
000000a0: 0756 a63e bd7d b7bd 3813 213e 92a5 763d
000000b0: fb9f edbc de36 0d3e 1928 13bd 92d8 86bd
000000c0: e371 9c3e 17ea b0bc 1eed ac3e 4664 c5be
000000d0: 8595 41be 296d 103e d770 943d 0885 eb3c
000000e0: f67d 3dbe a6cb 813c 865e ea3d 897c 20be
000000f0: 9232 c03d 9590 a63e 0855 9e3d 70ff 113e
00000100: 616d 453d 3083 503d 1b4e f53d 2250 8f3e
00000110: 8c68 93be 2dfb b93e 9db9 d5bd 24c6 66be
00000120: 4378 a3bc 93c3 213e 2ee5 10be 2981 033e
00000130: 782d 9e3e c04d 133d a97d 243d a4a1 8dbe
00000140: 6326 11be 3dc6 c03c 4ee8 6b3e e69d debd
00000150: 0a3d 863e 030a 89bd 9ba8 ca3c 6c26 07be
00000160: fe68 06be bc1b 073e d260 dbbc 5ec3 863d
00000170: f3a0 acbd 85cc 063e 4d7e 9bbe 9c87 c43e
00000180: 16c6 673d 9c91 d4bd 34a2 5cbe 9609 3fbd
00000190: 6fda 84be e905 b1bd f826 40be b0c7 ab3e
000001a0: 6376 5dbd 7acf 2cbe 8033 953e 99dc 2dbe
000001b0: 614a 91bd 6cff c2be 6431 8dbe 641b 463e
000001c0: b228 edbc ee1d c73e 3fee 1abf cb11 f23c
000001d0: 625e d0bc 333d 0d3f ce32 b03d 167e 94bc
000001e0: 69f0 a23e 36ed 9bbc 8ad5 fbbd 3d43 233e
000001f0: c121 58bd d50e 7d3e b2ec cc3e 4a3c 87be
00000200: 01cf c8be 0a11 bd3d 877c 903e 2f55 40be
00000210: c61a 1c3e db40 0dbe 155d 8abe 993c 23bd
00000220: 4150 a33d 40f3 a03d eb3d ee3b 17c5 c63e
00000230: e6b0 48bf 8b7b 153e f964 96be 485c 7cbe
00000240: 9ae6 133e bd43 83bd 470d f53e e1cd be3d
00000250: 8741 fb3c 18d8 2b3e 2d28 03be 31c6 10bd
00000260: e009 e43d 2060 a0bd 313a debd 8fee 3b3e
00000270: 5cc8 33be 03d4 3cbe 4282 413e 7b87 6a3e
00000280: f5bf 2b3e 8032 4bbe 8e7e dfbe cebb e2bc
00000290: dd68 4dbd b4d4 493e 1dba cebd 12ae 8cbe
000002a0: bcb6 57be da82 133d 9297 94be 563c 17be
000002b0: fb27 22be 2cec fabd 1eea 5bbe c954 213e
000002c0: 1d48 0b3e fc49 e03d 7d20 08be 9386 083e
000002d0: de89 74be 8e70 ddbd 7e59 bebd 91dc 75be
000002e0: a700 edbd a861 7c3e 99b8 bebd 4029 42be
000002f0: 5089 683e f156 0c3d b97c b03d 6903 cf3d
00000300: d798 963d d0fc 65bd 6ce5 ad3e e804 a8bd
00000310: ce47 a3bd e7bf f93d 63ad 37be f6f6 4dbe
00000320: 15ea 153e 6f58 26bd cecc 67be 9c40 143e
00000330: 0b9c de3d 7871 563e 6d70 823e 467b 95be
00000340: d60f 57bc de59 01bf 570a 033e 7bf6 ba3e
00000350: 28c9 b6bd 2c4b 27bf 8d15 2a3e ff51 993e
00000360: e198 e03d ae72 b63e 3005 1bbe 6db3 81be
00000370: 0231 6ebd 10b0 debe 6a59 f4bd b348 2ebe
00000380: 7045 d53b 1f5f 3b3e 1767 d2bd e267 d1bd
00000390: 4802 c33c 3fe8 35bd ad15 66be a826 a2bc
000003a0: f97e 503e b3cd 0a3d 2014 973e b18e 38be
000003b0: 0519 8e3e 217f 7cbe 6d34 34be e951 5ebe
000003c0: f5db 14be 9e24 d6be e281 aabd 21e4 b5be
000003d0: 21a0 5bbc 4d51 a7bd ffb5 29be 0af9 95bd
000003e0: cabb 3f3e a9dc 18bf efaa 8fbe 126c 5d3e
000003f0: 88d0 9f3e 2616 16be b1ca 4c3e c8ee 82be

a3.bias f4 [32]
-0.22351189 0.07299127 0.10898671 -0.29742092 -0.2917188 0.041030828 0.12079147 -0.18685381
-0.36136585 -0.20129982 -0.18279622 -0.12822339 -0.5584782 -0.113551974 -0.12074785 0.37554324
0.27681565 -0.19933039 -0.10971754 -0.33918715 -0.057587523 -0.24644661 -0.069022164 -0.2258206
-0.057457354 0.21422856 0.302263 -0.104518145 0.0055822115 0.1031011 -0.07072002 -0.16534775
00000000: 4de0 64be 727c 953d 6d34 df3d 8e47 98be
00000010: 2b5c 95be f10f 283d 8561 f73d 9b56 3fbe
00000020: f204 b9be 8a21 4ebe ef2e 3bbe fe4c 03be
00000030: 6df8 0ebf f08d e8bd a64a f7bd 3447 c03e
00000040: c8ba 8d3e 441d 4cbe 97b3 e0bd f0a9 adbe
00000050: e5e0 6bbd 805c 7cbe 7e5b 8dbd 843d 67be
00000060: 6758 6bbd bb5e 5b3e 37c2 9a3e 9c0d d6bd
00000070: fcea b63b ab26 d33d a8d5 90bd ec50 29be

b1.weight f4 [32, 32, 3, 3]
-0.41852304 0.09886386 -0.107869856 -0.13694164 -0.10375413 -0.12123744 -0.043397583 -0.0052508963
-0.24794643 0.016219605 -0.43057737 0.14712143 -0.28230152 -0.5207813 0.07481976 0.12949915
-0.39003646 0.35982662 -0.105331175 0.20099503 0.046379413 0.11242226 0.2919413 -0.027134703
-0.06352771 0.031426117 -0.09344935 0.232219 0.23948295 0.23077208 0.13255936 -0.3031245
0.17436044 -0.17369291 -0.22639638 -0.24943481 0.25777686 -0.37488505 -0.020843921 -0.04952114
0.056944303 -0.31029016 -0.07119155 -0.5604893 0.031413198 0.5090643 -0.62030363 -0.029135283
0.2132437 -0.1628947 0.065575294 0.10513281 -0.10095715 -0.41375434 -0.26521003 -0.11694752
-0.19894321 0.026433788 0.1118519 -0.06410846 -0.06357133 -0.15654275 -0.085542835 -0.06192255
0.053410318 0.040944282 0.041649498 -0.16752945 -0.037700113 0.010142469 0.058243833 0.024395242
-0.1616208 -0.27023834 -0.3711903 -0.43038428 0.21302241 -0.0073583745 -0.38167945 0.15247858
0.27729023 0.20868781 -0.11437683 -0.1754951 0.2286388 0.11902765 0.33487335 0.62300146
-0.112116516 -0.09124604 -0.27624062 0.2522652 -0.2372079 0.14796005 0.2148743 -0.16107711
0.12874994 0.009248392 0.027815815 -0.25913686 -0.29057685 -0.4675591 0.3154183 -0.14659764
-0.34111628 0.20146416 0.13253634 -0.16557294 -0.25314388 -0.37598753 -0.17200798 -0.14179023
-0.10823011 0.17164522 -0.15191767 -0.33502674 -0.04737189 -0.0050337086 0.053219456 0.18830046
0.09990586 -0.03251154 -0.14142923 -0.038731556 -0.2665047 0.079635575 0.111444615 0.17574517
0.04809111 -0.04848331 -0.3755214 0.04019262 0.0051285494 -0.17791489 -0.08463971 0.07363018
0.04490059 -0.05406254 -0.22019076 0.035990175 -0.068579935 0.018119838 -0.3476303 0.03553434
-0.19394289 -0.009997296 0.0711844 0.22706808 0.3340518 0.15965301 0.014751189 -0.03983645
0.2350141 0.076021425 0.17867136 -0.4805112 0.0069018384 -0.084918454 -0.5094942 -0.016673207
0.20671737 -0.15072848 0.2667004 -0.09816919 -0.06816933 0.044140913 -0.4881894 -0.18388355
-0.097963296 -0.1346961 -0.09516825 -0.24206239 0.33995786 -0.34701598 0.21468273 0.17209892
-0.08574711 -0.12176062 0.25961542 -0.19104311 -0.012452433 -0.12797752 0.11422432 0.02147457
-0.066438995 -0.032296132 0.18502823 0.092673324 0.22708972 0.07285972 -0.30197954 -0.2290712
0.13418236 0.099653326 0.19695793 -0.01654607 -0.19665404 -0.14125039 -0.117401294 0.07600526
0.03617583 -0.18545046 0.16455357 0.1121883 0.22773287 -0.44306272 -0.10719301 -0.16434158
0.1726652 -0.27110106 -0.2711602 -0.040243406 -0.16006434 -0.07707837 0.31069005 0.15071934
0.30263633 -0.3236472 -0.29629976 -0.35813013 0.015803043 0.07890289 -0.040357895 0.18802685
0.06041204 0.23241206 0.061647717 -0.43977168 -0.054403536 -0.0031344239 0.23781951 -0.13928863
0.36758193 0.10297012 0.44872686 -0.06924048 -0.23109868 0.1103993 -0.04880141 0.033431698
0.012399434 0.2944184 -0.3618667 0.22739103 -0.04942131 -0.10079871 -0.7472045 -0.31397694
-0.0081298845 -0.015099459 0.23794101 0.03789617 0.3715887 -0.0601317 -0.46951613 0.09220856
00000000: a748 d6be 2379 ca3d dfea dcbd 6e3a 0cbe
00000010: 0c7d d4bd 564b f8bd aac1 31bd b60f acbb
00000020: abe5 7dbe fade 843c a374 dcbe 00a7 163e
00000030: d389 90be ec51 05bf 1a3b 993d 6d9b 043e
00000040: dcb2 c7be 323b b83e dfb7 d7bd a4d1 4d3e
00000050: 57f8 3d3d a43d e63d 5479 953e 9949 debc
00000060: d11a 82bd acb8 003d 5f62 bfbd d1ca 6d3e
00000070: 053b 753e 844f 6c3e a4bd 073e 2233 9bbe
00000080: 8b8b 323e 8edc 31be 74d4 67be d76b 7fbe
00000090: 54fb 833e eff0 bfbe dfc0 aabc aed6 4abd
000000a0: 6e3e 693d 5ade 9ebe e0cc 91bd 3a7c 0fbf
000000b0: 20ab 003d 0a52 023f 38cc 1ebf 1ead eebc
000000c0: 8e5c 5a3e decd 26be 574c 863d df4f d73d
000000d0: 9fc2 cebd 9cd7 d3be 9cc9 87be 2e82 efbd
000000e0: c5b7 4bbe ac8b d83c 9c12 e53d 4c4b 83bd
000000f0: af31 82bd be4c 20be 1531 afbd 80a2 7dbd
00000100: c7c4 5a3d 31b5 273d aa98 2a3d d78c 2bbe
00000110: 6f6b 1abd 992c 263c 1691 6e3d 88d8 c73c
00000120: ec7f 25be ae5c 8abe a80c bebe 545b dcbe
00000130: 8c22 5a3e 851e f1bb 7d6b c3be 5823 1c3e
00000140: fcf8 8d3e 42b2 553e 663e eabd fdb4 33be
00000150: 4a20 6a3e c5c4 f33d 8574 ab3e 067d 1f3f
00000160: 589d e5bd 34df babd 696f 8dbe e728 813e
00000170: a1e6 72be d782 173e 0208 5c3e 66f1 24be
00000180: 06d7 033e 9186 173c fedd e33c 96ad 84be
00000190: 7dc6 94be e863 efbe 827e a13e b11d 16be
000001a0: cba6 aebe 9f4c 4e3e 9bb7 073e f48b 29be
000001b0: 139c 81be 7081 c0be dc22 30be 7531 11be
000001c0: bfa7 ddbd c4c3 2f3e 4e90 1bbe a088 abbe
000001d0: 0709 42bd cff1 a4bb a5fc 593d d6d1 403e
000001e0: 729b cc3d d22a 05bd d3d2 10be fba4 1ebd
000001f0: 4e73 88be fa17 a33d 133d e43d 8bf6 333e
00000200: 2ffb 443d 6f96 46bd 5744 c0be 04a1 243d
00000210: 640d a83b 522f 36be 9657 adbd 6bcb 963d
00000220: aee9 373d af70 5dbd b079 61be 6f6a 133d
00000230: a373 8cbd 0e70 943c 99fc b1be 758c 113d
00000240: f798 46be b3cb 23bc 20c9 913d 8984 683e
00000250: d608 ab3e 147c 233e f9ae 713c 8c2b 23bd
00000260: 89a7 703e 1fb1 9b3d a0f5 363e 9005 f6be
00000270: d128 e23b bae9 adbd 366e 02bf 4096 88bc
00000280: b8ad 533e 9158 1abe f48c 883e ee0c c9bd
00000290: 5d9c 8bbd 1acd 343d f6f3 f9be f84b 3cbe
000002a0: fba0 c8bd c6ed 09be 92e7 c2bd 34df 77be
000002b0: f50e ae3e 14ac b1be cad5 5b3e b33a 303e
000002c0: 2e9c afbd a25d f9bd 50ec 843e cea0 43be
000002d0: 4a05 4cbc 8a0c 03be 71ee e93d 70eb af3c
000002e0: 2b11 88bd f348 04bd 0a78 3d3e 83cb bd3d
000002f0: 358a 683e 7a37 953d 109d 9abe a491 6abe
00000300: 1a67 093e 0b17 cc3d 57af 493e a08b 87bc
00000310: ad5f 49be f1a3 10be 1770 f0bd a5a8 9b3d
00000320: 1b2d 143d bae6 3dbe bb80 283e fbc2 e53d
00000330: ce32 693e 1ed9 e2be 0288 dbbd 2949 28be
00000340: 25cf 303e c2cd 8abe 82d5 8abe 45d6 24bd
00000350: e8e7 23be 44db 9dbd c412 9f3e 2c56 1a3e
00000360: 26f3 9a3e 16b5 a5be 9ab4 97be d55c b7be
00000370: 6275 813c d797 a13d 524e 25bd 1c8a 403e
00000380: 9e72 773d 6dfd 6d3e 5182 7c3d c129 e1be
00000390: 3ed6 5ebd e86a 4dbb f586 733e aea1 0ebe
000003a0: b333 bc3e 00e2 d23d 87bf e53e f4cd 8dbd
000003b0: 22a5 6cbe 0719 e23d fde3 47bd adef 083d
000003c0: ff26 4b3c 02be 963e 9846 b9be 32d9 683e
000003d0: 006e 4abd 8e6f cebd cb48 3fbf 96c1 a0be
000003e0: 3533 05bc b963 77bc cfa6 733e 0439 1b3d
000003f0: e040 be3e a84c 76bd 6b64 f0be d7d7 bc3d

b1.bias f4 [32]
-0.086883746 -0.19393909 -0.4247276 -0.23263203 0.53017133 -0.12410359 -0.158343 0.004949645
-0.13400987 -0.47025225 -0.3366867 0.098140135 -0.2927943 -0.3209074 0.06316869 -0.18318349
-0.14717387 -0.5587794 -0.17215611 0.24205287 -0.16562892 -0.32748023 0.5034628 -0.48507243
-0.04776184 -0.16423623 -0.08370894 -0.690895 -0.046471834 -0.0075298576 0.11146927 -0.14830992
00000000: 1bf0 b1bd f897 46be e575 d9be 1737 6ebe
00000010: 4fb9 073f 062a febd ab24 22be a230 a23b
00000020: e239 09be e7c4 f0be 3362 acbe b2fd c83d
00000030: 22e9 95be fa4d a4be 965e 813d 7494 3bbe
00000040: bfb4 16be 2b0c 0fbf b149 30be b5dc 773e
00000050: a19a 29be 7dab a7be f0e2 003f 6a5b f8be
00000060: eba1 43bd 8b2d 28be 986f abbd 7fde 30bf
00000070: 4059 3ebd 06bd f6bb 004a e43d 8ede 17be

b2.weight f4 [32, 32, 3, 3]
0.22517557 0.09755442 -0.012879181 0.11134065 -0.15661103 0.30515975 -0.133646 -0.071809545
0.11621999 0.26901534 -0.03916155 -0.09536132 -0.09015085 -0.103040196 -0.26139128 0.14903778
0.08276161 -0.46755216 -0.1397665 0.20478238 -0.48922285 0.05819074 -0.27460098 0.16145763
-0.22328867 -0.15110864 -0.15734853 0.4708711 -0.09724804 0.14857882 0.5453536 -0.04642034
-0.20962179 -0.048839297 -0.4949501 -0.12262417 -0.07530598 0.10336837 -0.30437425 0.00092483085
0.2099788 -0.27614415 -0.51851475 0.19653708 0.23010446 0.54269767 -0.37423816 -0.11468313
-0.26390204 -0.01386797 -0.39934322 0.14913778 0.45864996 0.73700815 0.037592098 -0.33658046
0.120345704 -0.1854262 -0.067537986 -0.08681625 0.15112299 0.13905615 -0.29581007 0.32646078
-0.14506716 -0.13387197 -0.07435085 0.019885408 0.054171123 -0.012066006 0.12633088 -0.18032393
-0.03365256 -0.22639857 0.2058058 0.059675913 -0.017019838 -0.13709667 -0.11866265 0.06980116
-0.3324752 -0.31896213 -0.38165498 -0.25520298 0.16104949 -0.14550425 0.32649326 0.41661072
0.08537454 0.029075967 0.009162433 -0.24913998 -0.16819918 -0.22913682 -0.17605142 -0.1748201
0.39937007 0.2498797 -0.24374501 0.12802686 -0.093574814 0.16077037 -0.20687842 0.13777417
-0.21020725 -0.3338902 0.16667534 -0.18353215 -0.2812405 -0.2012324 0.01484237 0.119477995
-0.17052232 -0.21167357 -0.359693 0.11794334 0.09928107 -0.34355474 -0.11871115 -0.5245092
0.023077281 -0.26803318 0.15860939 -0.15212943 -0.0498518 -0.33524936 0.2445875 -0.05104186
-0.10018765 0.021154733 -0.5343497 0.042070385 -0.19413888 0.22806223 0.07387279 -0.1361627
-0.08659426 -0.10962019 0.29248953 -0.5296885 0.11182245 0.019831153 0.156209 0.09502196
0.32052502 -0.06731654 -0.043034304 -0.01630355 -0.13274938 0.124586806 0.044635337 0.25728196
-0.1578498 -0.04564778 -0.07722699 0.14238362 0.15441191 -0.014734486 0.10893468 -0.22105598
0.088055156 -0.16258381 -0.055832416 0.07629101 -0.050506625 -0.118325464 -0.065089785 -0.31074658
-0.18594547 -0.17852424 -0.004099535 0.3058279 0.01929435 -0.11210173 0.06254566 0.19270463
0.21820652 -0.09704893 0.07930253 -0.08507939 0.023657605 -0.24620391 -0.018614445 0.20059471
-0.09841282 0.01355207 -0.3208305 -0.06959384 -0.34967262 -0.2762162 -0.12657501 0.078694694
0.18626288 0.20756371 0.3586344 -0.1198688 -0.33505216 -0.009746916 0.3132749 -0.3053883
0.105915636 0.09537392 -0.036329973 0.16265321 -0.72736776 0.3111586 -0.08636253 -0.33658293
-0.13398716 -0.18608049 -0.028373413 -0.50084263 0.7133083 0.08840167 0.037754793 0.18439831
0.017703868 -0.078367256 -0.06673163 0.06679976 -0.19362421 0.0045484705 0.29954395 0.16756402
-0.20460011 0.01628115 -0.16476962 0.24908823 -0.0043920213 0.2775133 -0.09448781 -0.1001009
-0.21739602 0.13022816 0.087232985 -0.1458105 0.08510444 -0.026408195 0.11970544 0.20703945
-0.36978334 -0.30392992 -0.17605515 0.15304407 -0.19483277 0.3837477 0.16842383 -0.104156926
-0.3059139 -0.047357515 -0.5233711 0.14136836 0.05486543 0.14710933 0.24054825 -0.0016932248
00000000: 6d94 663e 9dca c73d 3303 53bc 9106 e43d
00000010: a45e 20be e63d 9c3e 7fda 08be e210 93bd
00000020: bf04 ee3d 61bc 893e dd67 20bd cc4c c3bd
00000030: 02a1 b8bd bd06 d3bd 14d5 85be 5c9d 183e
00000040: eb7e a93d ff62 efbe f31e 0fbe 79b2 513e
00000050: 6b7b fabe 6a59 6e3d 8098 8cbe 2655 253e
00000060: c9a5 64be 39bc 1abe f91f 21be 0416 f13e
00000070: fb29 c7bd 0c25 183e 4b9c 0b3f 4123 3ebd
00000080: 18a7 56be b70b 48bd 196a fdbe 6122 fbbd
00000090: 063a 9abd ccb2 d33d f1d6 9bbe 5970 723a
000000a0: af04 573e c462 8dbe 62bd 04bf 0441 493e
000000b0: 81a0 6b3e 3cee 0a3f 259c bfbe fdde eabd
000000c0: 2b1e 87be 7b36 63bc b776 ccbe 93b7 183e
000000d0: 2bd4 ea3e 91ac 3c3f 2cfa 193d 4654 acbe
000000e0: cf77 f63d 5ee0 3dbe 5b51 8abd b8cc b1bd
000000f0: fcbf 1a3e bc64 0e3e 6b74 97be de25 a73e
00000100: 7c8c 14be bc15 09be 4245 98bd b9e6 a23c
00000110: 8ae2 5d3d 7fb0 45bc e25c 013e d6a6 38be
00000120: 44d7 09bd 07d5 67be c1be 523e bb6e 743d
00000130: 306d 8bbc 1263 0cbe 6705 f3bd e9f3 8e3d
00000140: 303a aabe 014f a3be 4868 c3be f7a9 82be
00000150: 28ea 243e 11ff 14be 202a a73e 004e d53e
00000160: d9d8 ae3d b930 ee3c 081e 163c 8d1e 7fbe
00000170: 683c 2cbe d8a2 6abe d346 34be 0a04 33be
00000180: 3c7a cc3e 77e0 7f3e 4b98 79be 7919 033e
00000190: 27a4 bfbd fda0 243e f0d7 53be ac14 0d3e
000001a0: 9240 57be a8f3 aabe f1ac 2a3e daef 3bbe
000001b0: c1fe 8fbe de0f 4ebe 692d 733c e1b0 f43d
000001c0: 679d 2ebe f5c0 58be ae29 b8be 478c f13d
000001d0: e053 cb3d 68e6 afbe d51e f3bd 3c46 06bf
000001e0: 910c bd3c a53b 89be 806a 223e d1c7 1bbe
000001f0: 6731 4cbd cea5 abbe 2575 7a3e 4511 51bd
00000200: 2f2f cdbd b14c ad3c 24cb 08bf ff51 2c3d
00000210: 58cc 46be 2589 693e 9e4a 973d 3c6e 0bbe
00000220: 5558 b1bd 8d80 e0bd 30c1 953e aa99 07bf
00000230: 2b03 e53d f174 a23c 41f5 1f3e e09a c23d
00000240: db1b a43e 41dd 89bd bd44 30bd 068f 85bc
00000250: 74ef 07be 5e27 ff3d 8bd3 363d 76ba 833e
00000260: 61a3 21be 2bf9 3abd 2f29 9ebd 03cd 113e
00000270: 281e 1e3e ea68 71bc 2519 df3d 805c 62be
00000280: 4356 b43d 5f7c 26be 88b0 64bd 763e 9c3d
00000290: 09e0 4ebd 9f54 f2bd cb4d 85bd 2d1a 9fbe
000002a0: 7d68 3ebe 0fcf 36be 6455 86bb 7995 9c3e
000002b0: 2f0f 9e3c 9895 e5bd f017 803d 5d54 453e
000002c0: 8871 5f3e 97c1 c6bd 5d69 a23d 1a3e aebd
000002d0: 98cd c13c e11c 7cbe 527d 98bc b368 4d3e
000002e0: a98c c9bd 8009 5e3c e543 a4be 3787 8ebd
000002f0: 4a08 b3be 366c 8dbe e19c 01be af2a a13d
00000300: b2bb 3e3e 958b 543e ee9e b73e c67d f5bd
00000310: f58b abbe 87b1 1fbc 9165 a03e db5b 9cbe
00000320: 4cea d83d 6753 c33d bdce 14bd 908e 263e
00000330: c634 3abf 2e50 9f3e d7de b0bd 9954 acbe
00000340: ee33 09be e28b 3ebe 5c6f e8bc 3937 00bf
00000350: 5f9b 363f ef0b b53d c5a4 1a3d e9d2 3c3e
00000360: b407 913c 037f a0bd 98aa 88bd 50ce 883d
00000370: 6d45 46be 560b 953b d35d 993e e795 2b3e
00000380: b182 51be 0c60 853c 5eb9 28be fc10 7f3e
00000390: f2ea 8fbb 3916 8e3e d382 c1bd b301 cdbd
000003a0: 109d 5ebe 885a 053e 35a7 b23d 594f 15be
000003b0: 3d4b ae3d 0056 d8bc 2028 f53d 2602 543e
000003c0: 3e54 bdbe b49c 9bbe cd47 34be 96b7 1c3e
000003d0: 3e82 47be 947a c43e 4c77 2c3e 3a50 d5bd
000003e0: bfa0 9cbe f4f9 41bd a6fb 05bf dec2 103e
000003f0: 93ba 603d d4a3 163e 4852 763e 32ef ddba

b2.bias f4 [32]
0.11736713 -0.6781601 -0.44434473 -0.58306617 -0.1565706 -0.47122282 -0.3264275 -0.3741546
0.33243015 0.045676835 0.019691944 -0.26818642 -0.29716656 -0.5251298 -0.119179636 0.15585494
-0.158797 -0.36265028 -0.10842222 -0.21945661 -0.12725464 0.23835845 -0.42336267 0.28909978
-0.43631536 0.2603028 0.11402336 0.05654988 -0.5900784 -0.09843129 0.27622715 -0.111653745
00000000: 2e5e f03d e69b 2dbf 2781 e3be d343 15bf
00000010: 0b54 20be 1e44 f1be 8121 a7be 3191 bfbe
00000020: 4934 aa3e a217 3b3d 0051 a13c bb4f 89be
00000030: 3726 98be e86e 06bf 7414 f4bd 7098 1f3e
00000040: ae9b 22be 4cad b9be 780c debd 3cb9 60be
00000050: 0a4f 02be 3d14 743e fec2 d8be e304 943e
00000060: ba64 dfbe 6946 853e 1485 e93d d9a0 673d
00000070: 610f 17bf 5896 c9bd a56d 8d3e b8aa e4bd

b3.weight f4 [64, 32, 3, 3]
-0.20981008 0.030463975 -0.097424716 -0.1689402 -0.013619382 -0.15151425 -0.0075688967 -0.41614535
0.10830074 0.073563084 -0.2010967 0.2634742 -0.051295847 0.2089082 -0.34221494 -0.19959399
-0.20056985 -0.27219388 -0.22368775 -0.20052932 0.048055217 0.11848537 -0.091713235 -0.37988555
0.11369499 0.3779447 -0.13227813 -0.030323368 -0.15695822 0.12726313 0.087749064 0.22731528
-0.22215022 0.059828725 -0.12744313 0.2719596 0.11227635 -0.030136926 0.0010989686 -0.6365436
0.10327637 0.4610431 -0.3201291 0.31017366 0.04563397 -0.15748243 0.5290584 0.171999
0.23865092 -0.26810822 0.3501535 -0.18520965 -0.11989852 -0.38816723 -0.019046366 0.11411105
-0.24057393 0.10249195 0.07572734 0.01041847 -0.031526104 -0.11025771 0.07164611 -0.2301349
-0.06864145 0.22922155 -0.08118369 -0.040208973 -0.53557223 0.18214488 0.4309862 -0.21784502
-0.05918697 0.109008126 -0.110169105 -0.044541575 0.031467225 -0.03992601 -0.011903937 -0.30471045
0.31199193 -0.26295757 0.14533466 0.13998254 0.041688547 0.35852215 -0.27574256 -0.33141795
-0.6126254 -0.11641296 -0.09508613 -0.35973188 -0.1614156 0.046409156 -0.013381705 0.12057719
-0.39241692 -0.0138886385 -0.21254405 0.17201784 -0.006515621 -0.06478541 0.2529006 0.0014282269
0.16746682 -0.0058789817 0.422175 0.2751535 0.05662155 0.158604 0.21490344 0.12553251
-0.08491359 -0.4192687 -0.052074254 -0.03670528 0.09025602 -0.04190959 -0.11714825 0.1599719
-0.015762474 0.4424609 0.33186194 -0.060860272 -0.029138787 0.22707449 0.225797 -0.34989914
0.035822384 0.24644394 -0.12598757 0.13246025 -0.009822536 -0.039436202 -0.5627164 -0.11048613
-0.26436818 0.12633029 -0.100292794 -0.23605566 -0.5670551 -0.19499017 0.014121654 -0.11284336
0.2177278 -0.32971555 -0.2522762 0.27276653 -0.3055586 0.07885939 -0.14755763 -0.20601875
-0.48767993 -0.11658369 0.06982289 0.3635468 0.12529638 0.087664895 -0.26426378 -0.22928363
-0.0714483 -0.5290089 0.3390495 0.16637394 0.12089248 -0.025886523 -0.3189564 -0.25930375
-0.16906062 -0.21862687 -0.09586574 0.16005172 -0.17858164 0.023688763 -0.028860614 -0.44564953
0.13896771 0.021100331 0.036073744 -0.07680599 0.16215579 0.056029662 -0.1088731 0.3039131
-0.13098986 0.19599842 -0.20020302 0.28457376 -0.029273145 -0.03465282 -0.19551367 0.06688954
-0.34873542 0.08765308 0.114451624 -0.06674802 -0.004640254 -0.13228782 -0.44489008 -0.2091516
0.11287613 0.22003411 0.13718434 -0.049315497 0.16751517 -0.2700924 -0.12788782 -0.034495376
0.031558868 -0.36181873 0.051175386 -0.15774249 0.09287064 0.04178028 -0.4280193 0.09814897
-0.036285307 -0.12675625 0.21284537 -0.017425638 -0.272985 -0.08221558 0.016034743 0.17698263
-0.09511265 0.034843437 -0.09510954 0.29904142 0.5360617 0.09960157 0.14537278 0.13650756
0.23668206 0.088184446 0.09835827 0.08484324 0.06870555 -0.034545135 0.3387222 0.25273263
-0.17544577 -0.45561114 0.18365441 -0.0689084 -0.03757458 -0.041221198 0.068094805 -0.02115806
0.0585095 -0.030503375 -0.2442943 0.32429683 0.011618596 -0.017845994 0.25158197 0.04091329
00000000: 74d8 56be 968f f93c 9c86 c7bd a9fe 2cbe
00000010: d423 5fbc 8d26 1bbe 8204 f8bb 0111 d5be
00000020: c7cc dd3d 3ea8 963d 4bec 4dbe 17e6 863e
00000030: 981b 52bd 08ec 553e cc36 afbe 5e62 4cbe
00000040: 2f62 4dbe ff5c 8bbe 670e 65be 8f57 4dbe
00000050: 8cd5 443d 75a8 f23d 26d4 bbbd 5c80 c2be
00000060: ebd8 e83d f881 c13e eb73 07be b668 f8bc
00000070: a8b9 20be 4451 023e c8b5 b33d 56c5 683e
00000080: 597b 63be f70e 753d 7480 02be 4a3e 8b3e
00000090: 25f1 e53d b7e1 f6bc 440b 903a 85f4 22bf
000000a0: 9082 d33d d70d ec3e f6e7 a3be 15cf 9e3e
000000b0: b0ea 3a3d 1343 21be 5f70 073f 8120 303e
000000c0: e860 743e 7b45 89be 5247 b33e 99a7 3dbe
000000d0: 5b8d f5bd dbbd c6be 2007 9cbc 0eb3 e93d
000000e0: 0359 76be 4de7 d13d f016 9b3d 3bb2 2a3c
000000f0: 8421 01bd cbce e1bd 32bb 923d 7ca8 6bbe
00000100: e393 8cbd 0eb9 6a3e a243 a6bd 2ab2 24bd
00000110: 431b 09bf 3084 3a3e 39aa dc3e c412 5fbe
00000120: 096e 72bd a73f df3d 57a0 e1bd 3a71 36bd
00000130: c7e3 003d 7589 23bd bb08 43bc 0203 9cbe
00000140: 68bd 9f3e 60a2 86be 9cd2 143e 9557 0f3e
00000150: 9cc1 2a3d 3790 b73e 212e 8dbe 9daf a9be
00000160: 05d5 1cbf eb69 eebd 84bc c2bd c72e b8be
00000170: 224a 25be 8717 3e3d f03e 5bbc 2cf1 f63d
00000180: dfea c8be 2c8d 63bc 26a5 59be 7225 303e
00000190: fe80 d5bb 37ae 84bd 307c 813e 5833 bb3a
000001a0: 6c7c 2b3e 79a4 c0bb 5227 d83e ebe0 8c3e
000001b0: 00ec 673d 1669 223e a60f 5c3e 988b 003e
000001c0: 2de7 adbd 63aa d6be d04b 55bd 4758 16bd
000001d0: 26d8 b83d 64a9 2bbd 6ceb efbd accf 233e
000001e0: 4e20 81bc 3c8a e23e cfe9 a93e 9f48 79bd
000001f0: 77b4 eebc 3786 683e 5437 673e fb25 b3be
00000200: 7eba 123d cd5b 7c3e e302 01be a9a3 073e
00000210: b4ee 20bc db87 21bd 2f0e 10bf 8d46 e2bd
00000220: 445b 87be ba5c 013e 4f66 cdbd 93b8 71be
00000230: 862a 11bf 81ab 47be 835e 673c 6b1a e7bd
00000240: 09f4 5e3e 7ad0 a8be 592a 81be 0ea8 8b3e
00000250: 2d72 9cbe 0881 a13d 5919 17be 94f6 52be
00000260: 2fb1 f9be 6ec3 eebd 4eff 8e3d ce22 ba3e
00000270: b24d 003e a789 b33d 954d 87be 54c9 6abe
00000280: 7c53 92bd 216d 07bf e597 ad3e ee5d 2a3e
00000290: 7a96 f73d f90f d4bc 414e a3be 76c3 84be
000002a0: 3a1e 2dbe b9df 5fbe 4255 c4bd 99e4 233e
000002b0: 1bde 36be f00e c23c 186d ecbc 2d2c e4be
000002c0: 8d4d 0e3e 9ada ac3c 10c2 133d 754c 9dbd
000002d0: 2b0c 263e 5c7f 653d dcf8 debd 7f9a 9b3e
000002e0: 3522 06be cfb3 483e 0502 4dbe a7b3 913e
000002f0: 3cce efbc 1ef0 0dbd bc34 48be 62fd 883d
00000300: 738d b2be 7583 b33d 9d65 ea3d 30b3 88bd
00000310: 460d 98bb 7576 07be a2c8 e3be d62b 56be
00000320: 9a2b e73d 9f50 613e 0d7a 0c3e 0cff 49bd
00000330: 1989 2b3e 8d49 8abe 06f5 02be 064b 0dbd
00000340: df43 013d 4e40 b9be 489d 513d 3f87 21be
00000350: f632 be3d cd21 2b3d 5825 dbbe 5402 c93d
00000360: e79f 14bd 64cc 01be 23f4 593e 36c0 8ebc
00000370: b1c4 8bbe a460 a8bd 4b5b 833c ef3a 353e
00000380: 6cca c2bd feb7 0e3d cac8 c2bd f51b 993e
00000390: 573b 093f e8fb cb3d 9adc 143e a3c8 0b3e
000003a0: c85c 723e 0c9a b43d 1070 c93d 4bc2 ad3d
000003b0: 7fb5 8c3d 337f 0dbd ff6c ad3e 2c66 813e
000003c0: 0ea8 33be dd45 e9be e70f 3c3e d91f 8dbd
000003d0: cee7 19bd 8fd7 28bd 4a75 8b3d ab53 adbc
000003e0: a8a7 6f3d 37e2 f9bc 4928 7abe 3c0a a63e
000003f0: ec5b 3e3c c331 92bc 5acf 803e b294 273d

b3.bias f4 [64]
0.1102579 0.13216881 -0.051612604 -0.033288453 0.014205577 -0.21258713 0.07180795 0.06874466
-0.28147992 -0.15996882 -0.17310752 0.15736845 0.055135455 0.22784619 -0.20848367 -0.09357892
-0.045949023 -0.026779324 -0.008487058 0.1581274 -0.05491003 -0.2894147 -0.007186067 0.19384275
0.19941221 -0.22481903 -0.48342684 -0.11108244 0.31052154 -0.10965715 0.05862578 -0.09043952
-0.18243708 -0.09539245 -0.053674553 0.09945337 -0.075349465 -0.28383386 0.12746748 -0.08250232
0.045993898 0.042492945 0.2504209 0.33885792 -0.11780757 -0.12265287 0.1438904 -0.14717779
-0.25937563 -0.22311293 -0.045136213 0.025266258 -0.08104657 0.08101551 0.032407414 -0.084389195
0.12903833 0.16962886 -0.11148821 -0.028781107 -0.2365906 0.06313198 -0.070320286 -0.4481709
00000000: e5ce e13d 4357 073e bd67 53bd 7959 08bd
00000010: 82be 683c 71b0 59be 0c10 933d 00ca 8c3d
00000020: 231e 90be dece 23be 1943 31be 3225 213e
00000030: b7d5 613d 8350 693e be7c 55be 4ea6 bfbd
00000040: 0b35 3cbd 5060 dbbc 4d0d 0bbc 26ec 213e
00000050: 57e9 60bd 2a2e 94be 1979 ebbb b77e 463e
00000060: b732 4c3e f636 66be b983 f7be 317f e3bd
00000070: aefc 9e3e ee93 e0bd 9621 703d 5b38 b9bd
00000080: c9d0 3abe 1e5d c3bd d9d9 5bbd 35ae cb3d
00000090: d250 9abd ac52 91be d686 023e faf6 a8bd
000000a0: 1964 3c3d 150d 2e3d 2b37 803e c97e ad3e
000000b0: 1845 f1bd 6e31 fbbd 0158 133e c6b5 16be
000000c0: e2cc 84be b777 64be c0e0 38bd 2ffb ce3c
000000d0: befb a5bd 76eb a53d a3bd 043d 3ed4 acbd
000000e0: a022 043e 30b3 2d3e ee53 e4bd 5bc6 ebbc
000000f0: ce44 72be 574b 813d 1504 90bd a876 e5be

c1.weight f4 [64, 64, 2, 2]
-0.09743266 -0.0015803681 -0.4351699 -0.0070590316 0.056410015 0.011244019 -0.02851215 -0.009036865
-0.0230528 -0.09447743 -0.02706691 0.12075092 -0.021668902 0.08385225 -0.010498057 0.06572192
0.05738042 -0.4971379 -0.3706201 -0.0678873 0.052380305 -0.18153222 -0.12343963 -0.13278744
0.29657108 -0.30558693 0.19816473 -0.1707013 -0.065708846 -0.06718149 -0.10727907 0.01850736
-0.011011102 0.1923647 -0.049200285 0.31498763 0.16322011 -0.56876886 0.20563541 -0.10515558
-0.0033663516 -0.2578241 -0.13455251 -0.058437333 -0.099789225 -0.06622176 0.23841327 0.016502032
0.32090688 -0.4940487 -0.24324442 -0.06853262 0.002525826 0.013530162 0.053002797 0.049611937
-0.03070913 0.26952645 -0.057319216 -0.13474023 -0.28787574 0.07699556 -0.12591404 0.3817826
0.07577091 -0.11583265 -0.7993842 -0.16666037 -0.31145966 0.008958769 -0.035180464 0.18264931
0.13952088 -0.11984324 0.15507205 -0.26030123 -0.35735983 0.18799339 -0.3235132 -0.08338575
0.0038288552 0.08419545 -0.08687796 0.035394605 0.23897693 0.37289098 0.12906809 -0.15775992
0.31862524 -0.06884654 -0.24078876 -0.38704705 -0.02759802 0.21275762 -0.42347902 0.11288502
0.06466353 -0.12356853 -0.006226272 -0.37063664 0.023882037 -0.11184584 0.44815683 -0.12251822
0.111993775 -0.03280785 -0.2944982 -0.16915977 -0.06366293 -0.019427838 0.056384474 0.051748306
-0.22542875 0.18256712 -0.114712305 0.16066523 0.075977646 -0.13953067 -0.37077424 -0.23951167
-0.21423028 -0.32901344 0.17104489 0.32123747 0.035022546 -7.311255e-05 -0.0062525915 -0.017293744
-0.17271186 0.3306499 0.23949462 0.16236944 0.04670229 0.0055355337 -0.05691006 -0.019702017
0.3219398 0.111627854 0.12903324 -0.2140756 0.11961671 -0.34492174 -0.054284856 -0.013990937
0.14962576 0.039777722 0.16436416 0.049754478 -0.12646851 0.21022612 0.14080267 0.21502773
0.031816173 0.17845185 0.057189174 0.24148476 -0.27973464 0.28740096 -0.28937197 0.009247456
0.053601578 -0.055802904 0.31964463 -0.18732983 -0.15535522 0.0794896 -0.20668668 0.0057392768
-0.2350092 -0.04078686 0.20771122 0.027723728 -0.18208583 0.17948657 -0.10400908 0.15694383
0.034788407 -0.038539834 -0.0010630168 0.030602152 -0.015659614 -0.0573477 0.038888164 0.0193436
0.32869023 -0.352584 -0.12183834 -0.43062055 0.20927699 -0.31920236 0.34223422 -0.17161793
-0.13119371 0.02269645 0.4957672 -0.03540396 -0.22770998 -0.20039593 0.19507834 0.14717506
-0.20106572 -0.18662493 -0.14493039 0.0037458905 0.18906106 -0.30843186 0.2830406 -0.33490804
0.17559509 -0.27512044 -0.42866203 -0.2000666 -0.11832154 -0.005973222 -0.2284247 -0.053815
0.13573052 -0.113757715 -0.05227868 0.07288379 0.31133413 -0.17763044 0.29032248 -0.4686735
0.11640346 -0.14842273 0.2292819 -0.27440906 -0.27433118 0.25983137 0.12913947 0.3405571
0.0034348744 0.057328667 0.031089807 -0.0073873494 0.0631348 -0.031243159 -0.049938243 -0.06531855
0.047253646 -0.10930747 0.21466812 -0.059706338 0.41981328 -0.18935978 -0.040073078 -0.324787
-0.09051404 0.22392039 -0.22098471 0.2829867 0.18392254 0.18254434 0.37887532 0.06937301
00000000: c68a c7bd 5b24 cfba 97ce debe 734f e7bb
00000010: 300e 673d d538 383c 5092 e9bc 5c0f 14bc
00000020: 3ad9 bcbc 627d c1bd 6dbb ddbc 424c f73d
00000030: fb82 b1bc baba ab3d 0b00 2cbc 3799 863d
00000040: bb07 6b3d dc88 febe ebc1 bdbe 7f08 8bbd
00000050: bb8c 563d 95e3 39be ebcd fcbd 6ef9 07be
00000060: 2ad8 973e e475 9cbe b2eb 4a3e 52cc 2ebe
00000070: 5c92 86bd 7396 89bd 21b5 dbbd bf9c 973c
00000080: e967 34bc 40fb 443e 3d86 49bd 0f46 a13e
00000090: 2c23 273e d69a 11bf 1792 523e cf5b d7bd
000000a0: 029e 5cbb 8501 84be 22c8 09be fc5b 6fbd
000000b0: 4b5e ccbd 469f 87bd 9c22 743e 452f 873c
000000c0: e84d a43e f4f3 fcbe 1115 79be d55a 8cbd
000000d0: 5488 253b 9dad 5d3c 7619 593d e335 4b3d
000000e0: b791 fbbc 5fff 893e 8ec7 6abd 58f9 09be
000000f0: 7364 93be d9af 9d3d 9cef 00be 0279 c33e
00000100: c72d 9b3d ab39 edbd 71a4 4cbf 04a9 2abe
00000110: a477 9fbe cdc7 123c 6419 10bd 6c08 3b3e
00000120: 90de 0e3e 5f70 f5bd 35cb 1e3e 3446 85be
00000130: def7 b6be 5781 403e 86a3 a5be 26c6 aabd
00000140: 88ed 7a3b aa6e ac3d 12ed b1bd eff9 103d
00000150: 5eb6 743e 91eb be3e 6d2a 043e d18b 21be
00000160: d922 a33e 6aff 8cbd 5491 76be 082b c6be
00000170: 3e15 e2bc 22dd 593e 3ed2 d8be 4330 e73d
00000180: 506e 843d 7f11 fdbd c105 ccbb 16c4 bdbe
00000190: 43a4 c33c 6f0f e5bd d074 e53e d5ea fabd
000001a0: fe5c e53d 8661 06bd 78c8 96be 3838 2dbe
000001b0: b661 82bd 2127 9fbc 68f3 663d 08f6 533d
000001c0: cbd6 66be e0f2 3a3e 49ee eabd 6d85 243e
000001d0: 2b9a 9b3d 21e1 0ebe 1fd6 bdbe 8c42 75be
000001e0: 2f5f 5bbe 7374 a8be 6426 2f3e 3d79 a43e
000001f0: cd73 0f3d 0054 99b8 8ae2 ccbb 9cab 8dbc
00000200: 61db 30be f24a a93e 143e 753e 2d44 263e
00000210: e74a 3f3d 6c63 b53b 861a 69bd 2066 a1bc
00000220: 4bd5 a43e 259d e43d 4a21 043e a236 5bbe
00000230: 9bf9 f43d 9599 b0be cc59 5ebd 3e3a 65bc
00000240: 7f37 193e f7ed 223d 144f 283e 5acb 4b3d
00000250: f680 01be 8445 573e 932e 103e 3b30 5c3e
00000260: ad51 023d 15bc 363e 323f 6a3d c847 773e
00000270: 6139 8fbe 3826 933e 9028 94be a482 173c
00000280: 548d 5b3d 9691 64bd 76a8 a33e 64d3 3fbe
00000290: 7015 1fbe 72cb a23d aca5 53be 8b10 bc3b
000002a0: 40a6 70be 1f10 27bd 40b2 543e df1c e33c
000002b0: b574 3abe 54cb 373e b602 d5bd e2b5 203e
000002c0: 4a7e 0e3d f2db 1dbd ed54 8bba 5db1 fa3c
000002d0: 9748 80bc 6ce5 6abd 3249 1f3d 7876 9e3c
000002e0: 164a a83e e485 b4be 6186 f9bd 4c7a dcbe
000002f0: b54c 563e 7e6e a3be 5339 af3e 9cbc 2fbe
00000300: a557 06be e8ed b93c 33d5 fd3e be03 11bd
00000310: ce2c 69be 9734 4dbe 9ec2 473e 0fb5 163e
00000320: 2ce4 4dbe 9b1a 3fbe a268 14be 9d7d 753b
00000330: 3999 413e c8ea 9dbe b3ea 903e 1179 abbe
00000340: 33cf 333e 96dc 8cbe 9779 dbbe 42de 4cbe
00000350: 9052 f2bd 05bb c3bb 2ae8 69be 1e6d 5cbd
00000360: f1fc 0a3e cef9 e8bd 2b22 56bd 1944 953d
00000370: 3067 9f3e c1e4 35be 26a5 943e f9f5 efbe
00000380: f064 ee3d 21fc 17be e0c8 6a3e 587f 8cbe
00000390: 2375 8cbe 9e08 853e 233d 043e 805d ae3e
000003a0: a11b 613b 77d1 6a3d 0db0 fe3c 9411 f2bb
000003b0: d14c 813d a7f1 ffbc 0b8c 4cbd bbc5 85bd
000003c0: 0a8d 413d 98dc dfbd f6d1 5b3e a28e 74bd
000003d0: c4f1 d63e 88e7 41be ab23 24bd 7b4a a6be
000003e0: 6d5f b9bd 634b 653e d149 62be a2e3 903e
000003f0: 3156 3c3e e7ec 3a3e f2fb c13e 7013 8e3d

c1.bias f4 [64]
0.36467162 -0.37081102 -0.04286512 -0.2484139 -0.38557693 -0.37611717 -0.115632586 -0.32543382
0.29263023 -0.035569556 0.3515102 -0.4335201 -0.36875084 0.1823292 -0.28040332 -0.5083801
-0.28509182 -0.14466345 -0.23511353 -0.13158786 -0.30140778 -0.26844162 -0.2927488 -0.047766116
0.10675371 -0.12952575 -0.36483437 0.28703085 -0.40948847 -0.3532747 0.15219435 0.03984844
-0.26092145 -0.12776765 0.17740254 -0.19703749 -0.18399954 -0.36051798 -0.38303244 -0.24511755
0.1191309 -0.3170725 0.12581502 -0.5042559 0.22456165 0.3005537 -0.18066287 -0.43559453
-0.2553851 -0.3187201 -0.017808447 -0.0063404962 -0.28776473 -0.40718055 0.3770865 -0.3977285
0.008363205 -0.37103212 -0.0870413 -0.19874635 -0.08046264 0.024955625 0.20529465 -0.31853083
00000000: 3db6 ba3e f1da bdbe 5693 2fbd 3760 7ebe
00000010: 576a c5be 6e92 c0be c7d0 ecbd 439f a6be
00000020: a1d3 953e 62b1 11bd 25f9 b33e 59f6 ddbe
00000030: e9cc bcbe 81b4 3a3e 0691 8fbe 3325 02bf
00000040: 8ef7 91be a822 14be 9ac1 70be f8be 06be
00000050: 1f52 9abe 2e71 89be 2ce3 95be 67a6 43bd
00000060: b0a1 da3d 66a2 04be 92cb babe b5f5 923e
00000070: 79a8 d1be 6ce0 b4be d6d8 1b3e 1e38 233d
00000080: 7f97 85be 86d5 02be 03a9 353e 32c4 49be
00000090: 606a 3cbe d095 b8be d41c c4be 1800 7bbe
000000a0: e7fa f33d 5457 a2be a7d5 003e ea16 01bf
000000b0: 7df3 653e 2de2 993e b0ff 38be 3f06 dfbe
000000c0: d6c1 82be 482f a3be 05e3 91bc f0c3 cfbb
000000d0: e655 93be f879 d0be 7b11 c13e 12a3 cbbe
000000e0: d305 093c ecf7 bdbe b642 b2bd 2a84 4bbe
000000f0: 99c9 a4bd bd6f cc3c c338 523e 7916 a3be
