nets/model_epoch_23.pth (torch, 648794 bytes, 25 tensors)

a1.weight f4 [16, 5, 3, 3]
0	0x3dbe2af4	0.092855364
1	0x3d941018	0.07229632
2	0xbca2ebb7	-0.019887788
3	0xbdc7add3	-0.09749951
4	0xbd8e0c1f	-0.06935906
5	0x3e0cb6e5	0.13741644
6	0xbc31a5d0	-0.010842755
7	0x3d95a294	0.073064
8	0xbeb9f500	-0.36319733
9	0xbbcd63e6	-0.0062680123
10	0xbd3dc74a	-0.046332635
11	0xbe092112	-0.13391522
12	0x3d2b8d58	0.041882843
13	0xbd3cb2ef	-0.046069082
14	0xbe05a557	-0.13051353
15	0xbe95453e	-0.2915439
16	0xbdbf4d65	-0.09340934
17	0xbe113133	-0.14178924
18	0x3d95085f	0.07276987
19	0xbe06dbea	-0.13169828
20	0x3b3219a5	0.002717593
21	0xbc4df619	-0.012570881
22	0xbdccdae1	-0.10002685
23	0x3db6187b	0.08891388
24	0xbe653b21	-0.22385837
25	0xbe24a25d	-0.16077562
26	0x3c5dacd8	0.013529979
27	0xbe45e86a	-0.1932694
28	0xbd1e27b8	-0.038612098
29	0x3d7ff18b	0.062486213
30	0xbdfe31d6	-0.12411849
31	0xbc9a51f8	-0.018837914
32	0xbeb273af	-0.34853885
33	0xbe5fe160	-0.21863317
34	0xbdb4e266	-0.088322446
35	0x3ddef451	0.108864434
36	0xbe2c385e	-0.16818377
37	0xbd94e210	-0.072696805
38	0xbe149ec5	-0.14513691
39	0xbcef8598	-0.029238507
40	0xbe3782de	-0.17921016
41	0xbe0107a1	-0.12600566
42	0xbc302c08	-0.010752685
43	0xbdf2d942	-0.11857845
44	0xbd3d49b4	-0.046212867
45	0x3e2b8d00	0.16753006
46	0xbd97dfd2	-0.07415737
47	0xbd96b0ec	-0.07357964
48	0x3e8e21a3	0.27760038
49	0x3d0782be	0.03308367
50	0x3e97c1f1	0.29640153
51	0xbc2e426e	-0.010635955
52	0x3ee0f934	0.43940127
53	0xbe2d51c5	-0.16925724
54	0x3d7a188a	0.06105856
55	0x3e899c1b	0.26876912
56	0x3d2f74d2	0.042836018
57	0xba8f43ec	-0.0010930276
58	0x3e3d5b21	0.18491794
59	0x3b7059bb	0.0036674577
60	0x3dcfc5f8	0.101451814
61	0xbee610df	-0.44934747
62	0x3d244f18	0.040114492
63	0x3e3fc149	0.18726076
64	0xbd80f392	-0.06296457
65	0xbdc51ab8	-0.09624237
66	0x3e9af3ea	0.30264217
67	0x3d1bf93f	0.038079496
68	0xbeaff6aa	-0.34367877
69	0xbdb39342	-0.087683216
70	0xbe1fd253	-0.15607576
71	0x3d98d01a	0.07461567
72	0xbc3d0a94	-0.011538167
73	0xbea70472	-0.3262058
74	0xbe963e46	-0.29344386
75	0x3c02f773	0.007993567
76	0x3e7a2cf1	0.24431206
77	0x3da18762	0.0788715
78	0x3ddab91e	0.106798396
79	0x3de7c58f	0.11316978
80	0xbec19ac9	-0.37813404
81	0x3c20161b	0.009770895
82	0x3d0a122e	0.033708744
83	0xbc4493c9	-0.011998125
84	0x3d97f6e5	0.07420138
85	0x3ca2b271	0.019860478
86	0xbd0e635d	-0.03476273
87	0xbd9f9cc7	-0.07793575
88	0xbd9c22a7	-0.07623797
89	0x3cd5360e	0.026026752
90	0xbe885d30	-0.26633596
91	0x3da8de92	0.08245577
92	0x3ea1782e	0.31537002
93	0x3d1b8220	0.037965894
94	0x3e2b7dfb	0.16747276
95	0x3cdd2727	0.026996208
96	0x3ee171e9	0.4403222
97	0x3ec9d52e	0.39420456
98	0x3dc07dcc	0.09398994
99	0x3e1d6b1d	0.15372892
100	0x3e336e06	0.1752244
101	0x3e2f89bd	0.17142387
102	0xbd13c2ee	-0.03607457
103	0xbca7a8fc	-0.02046632
104	0xbb948a0e	-0.004533059
105	0xbd985682	-0.07438375
106	0xbe0340eb	-0.12817733
107	0x3dc14c0a	0.094383314
108	0x3e60acd8	0.21940935
109	0x3eb7e3cd	0.35915986
110	0x3e43753e	0.19087693
111	0x3d848e68	0.06472474
112	0xbe0e20ae	-0.13879654
113	0x3e88c58c	0.26713216
114	0xbe7b0e80	-0.2451725
115	0xbdb8b828	-0.090195
116	0x3e18b36c	0.14912194
117	0xbafc5034	-0.0019249977
118	0xbe76ee6f	-0.24114393
119	0xbe4edb31	-0.20200802
120	0x3cb171ad	0.02166065
121	0xbe0b8ba5	-0.13627489
122	0xbcb89c86	-0.022535574
123	0x3d74588d	0.05965476
124	0x3d0b812a	0.034058727
125	0xbe81e528	-0.25370145
126	0xbc4fa7a6	-0.012674248
127	0x3d41f764	0.04735507
128	0x3cf472fe	0.029839989
129	0xbd40dd29	-0.047085915
130	0x3de69af3	0.11260023
131	0xbdfa32a6	-0.12216692
132	0xbcaea934	-0.021320917
133	0xbd57a1bd	-0.05264448
134	0x3d9195ba	0.07108636
135	0x3e0e06d5	0.13869794
136	0x3daffc48	0.08593041
137	0xbe571f85	-0.21008117
138	0x3e137c72	0.14402941
139	0x3dd0e517	0.101999454
140	0xbe5321e3	-0.20618396
141	0x3d6ce834	0.057838634
142	0xbe965d62	-0.2936812
143	0x3e7e2d16	0.24821886
144	0xbe18f5ef	-0.14937566
145	0xbeb85194	-0.3599974
146	0xbe48398e	-0.19553205
147	0xbe9d48c6	-0.30719584
148	0xbd56973a	-0.052390315
149	0xbeede577	-0.4646413
150	0x3cf4c923	0.029881066
151	0x3c87b3c7	0.016565217
152	0xbcdda8b4	-0.027057983
153	0xbccf2ed5	-0.025290886
154	0x3d8fb7e8	0.07017499
155	0x3d0e7b5e	0.03478562
156	0xbe20bcf9	-0.15697087
157	0xbdbdb7f0	-0.09263599
158	0xbe779880	-0.24179268
159	0xbe1871a7	-0.14887105
160	0xbe277040	-0.16351414
161	0x3e99e5ef	0.30058238
162	0x3e2f85c2	0.17140868
163	0x3e614b46	0.22001371
164	0x3e3dd288	0.18537343
165	0x3e91dd64	0.2848922
166	0xbdf0786b	-0.11741718
167	0x3ef1cb86	0.4722559
168	0x3e0846b6	0.13308224
169	0xbd257385	-0.04039337
170	0xbe4474d7	-0.19185196
171	0xbcf7346b	-0.030176362
172	0x3d178784	0.036994472
173	0x3d41815d	0.04724251
174	0xbc38d39e	-0.011280922
175	0xbc9c42e1	-0.01907486
176	0xbc34bb06	-0.011030918
177	0x3d5af87b	0.053459626
178	0xbd2c560a	-0.04207424
179	0xbc84ffc9	-0.01623525
180	0x3e2697bd	0.16268821
181	0x3d021a13	0.031763148
182	0xbe57ee52	-0.21087006
183	0x3d957cdf	0.07299208
184	0x3e02850a	0.12746063
185	0x3e81fddb	0.2538899
186	0x3d336899	0.043800924
187	0x3e34a52b	0.17641132
188	0x3e7cddc1	0.24693967
189	0x3de72b55	0.11287562
190	0xbdb09a1a	-0.086231425
191	0x3cd9c392	0.026582513
192	0xbe2b1a83	-0.16709332
193	0xbd7b96c3	-0.061423074
194	0xbdf9a53f	-0.12189721
195	0x3e20252f	0.15639184
196	0x3db3bf1e	0.08776687
197	0xbe175e0d	-0.14781971
198	0x3dcc2db6	0.09969656
199	0x3e2096c7	0.15682517
200	0x3ebaabd7	0.36459228
201	0xbd7dd83a	-0.061973788
202	0xbc88830f	-0.016664056
203	0xbdb2fd41	-0.087397106
204	0xbe83053f	-0.2558994
205	0x3e84c20f	0.25929305
206	0xbcad099f	-0.021122752
207	0xbe04e8c0	-0.12979412
208	0xbea98e30	-0.33116293
209	0xbeb94994	-0.36188948
210	0x3da4c94f	0.08046209
211	0x3d490921	0.04908097
212	0xbe0e62b9	-0.13904847
213	0xbe25b69a	-0.16182938
214	0xbccb4202	-0.024811748
215	0x3cd669d1	0.026173504
216	0xbc9e464e	-0.019320633
217	0x3ca5a413	0.020219838
218	0xbd067bd4	-0.032832935
219	0x3d3a9045	0.045547742
220	0xbdce8a28	-0.10084945
221	0x3cca3ac2	0.024686221
222	0x3c7ce64b	0.0154357655
223	0x3dd02d70	0.101649165
224	0xbd7bc26a	-0.061464705
225	0xbda19ed8	-0.07891625
226	0xbd703f78	-0.05865428
227	0x3e557ec8	0.20849144
228	0xbc68ce3c	-0.014209326
229	0xbdef5070	-0.11685264
230	0xbcfdce2f	-0.030982105
231	0x3e1b03dc	0.15138191
232	0xbe0455cd	-0.12923355
233	0x3ea28346	0.3174078
234	0xbd1e1ff3	-0.038604688
235	0x3eab273f	0.3342838
236	0x3e8103db	0.25198254
237	0xbbb9ab6f	-0.0056661884
238	0xbcd10058	-0.02551286
239	0xbe86846d	-0.26272908
240	0x3d3b313e	0.045701258
241	0x3e437eb7	0.19091307
242	0xbedf7a05	-0.4364778
243	0x3d1c78d0	0.038201153
244	0x3dbdde5a	0.09270926
245	0x3ddbe717	0.10737436
246	0xbe27b684	-0.16378218
247	0x3e72277e	0.23647878
248	0xbe84efad	-0.25964108
249	0xbe26b453	-0.16279726
250	0xbdd81ef1	-0.105527766
251	0xbea1caf9	-0.31600168
252	0x3e801af6	0.2502057
253	0xbcc71dd7	-0.024306221
254	0x3d970632	0.073742285
255	0x3d068ff3	0.032852124

a1.bias f4 [16]
0	0x3d3fd3e0	0.04683292
1	0xbd9c1723	-0.076216005
2	0xbd473216	-0.04863175
3	0xbdea4c7c	-0.114403695
4	0x3e121f4a	0.14269748
5	0xbdde6ffd	-0.10861204
6	0x3d290ebf	0.04127383
7	0xbda7332d	-0.08164058
8	0xbe0fc340	-0.14039326
9	0x3dcf14e4	0.101114064
10	0xbd02c367	-0.03192463
11	0x3da4d277	0.080479555
12	0xbd72e06e	-0.059296064
13	0xbd61353f	-0.05498242
14	0x3e63196a	0.22177663
15	0x3e47b996	0.19504389

a2.weight f4 [16, 16, 3, 3]
0	0x3db8054c	0.08985385
1	0xbe87bba4	-0.26510346
2	0xbdb30416	-0.08741014
3	0xbc8a7f10	-0.016906291
4	0x3e39eddd	0.18157144
5	0xbe29559f	-0.16536568
6	0x3d9074f5	0.07053558
7	0x3cd59c11	0.026075395
8	0x3ba2252f	0.0049482803
9	0xbccd6dec	-0.025076829
10	0x3dcb9c64	0.099419385
11	0x3c381148	0.011234589
12	0xbdff80ed	-0.124757625
13	0x3e073890	0.1320517
14	0xbe174c9e	-0.14775321
15	0xbd5fb3a7	-0.05461469
16	0x3ddee045	0.1088262
17	0xbcea8fe5	-0.028633067
18	0xbd054b0f	-0.032542285
19	0xbe1344f7	-0.14381777
20	0xbe4e8c9e	-0.20170829
21	0xbec369dd	-0.38166705
22	0xbdb81244	-0.08987859
23	0xbb49ce5c	-0.0030793166
24	0xbd61f6c0	-0.05516696
25	0xbea563f6	-0.32302827
26	0x3de5c7ea	0.11219771
27	0xbf014fc3	-0.5051233
28	0x3e4f18d9	0.20224322
29	0xbe7a4a75	-0.24442466
30	0x3ed39d99	0.41331175
31	0xbe33765f	-0.17525624
32	0x3e24049c	0.16017383
33	0x3dcda673	0.10041513
34	0x3d561f07	0.052275684
35	0x3d4efbe9	0.05053321
36	0x3d27f95e	0.0410093
37	0xbea561f9	-0.3230131
38	0xbce468a9	-0.027881937
39	0xbcb4eab5	-0.022084573
40	0xbca4cc33	-0.020116901
41	0xbe394098	-0.18091047
42	0xbec17145	-0.3778173
43	0xbe5c9045	-0.2153941
44	0xbe2971fe	-0.16547391
45	0x3daa37e3	0.08311441
46	0xbdf14ddf	-0.11782431
47	0xbdd9e002	-0.10638429
48	0x3e266534	0.16249543
49	0x3d8fe31c	0.070257396
50	0x3dd42d6d	0.10360227
51	0xbea66f75	-0.3250691
52	0x3df7900a	0.1208802
53	0x3e2582e1	0.16163208
54	0xbddb5c4c	-0.107109636
55	0x3d029d2e	0.03188818
56	0x3cf5eabf	0.030019162
57	0x3eb2b5a7	0.34904215
58	0x3e94e5c4	0.29081547
59	0x3d20fc91	0.039303366
60	0x3de8753c	0.11350486
61	0xbd2a5cfd	-0.041592587
62	0x3c998161	0.01873845
63	0x3e7b46ce	0.24538729
64	0xbe31fa3d	-0.17380615
65	0xbcfc7176	-0.030815821
66	0xbe90a0a1	-0.2824755
67	0x3cbb6fdc	0.022880487
68	0xbdf02e28	-0.117275536
69	0xbdd3fe0b	-0.10351189
70	0xbdb6453e	-0.08899926
71	0x3e4aa41b	0.19789164
72	0x3e5afb72	0.21384981
73	0x3dc2d915	0.09514061
74	0xbc31e8d6	-0.010858735
75	0xbc31be1e	-0.01084855
76	0x3bf9eba8	0.0076269694
77	0x3e25d8b2	0.16195944
78	0xbe21e5d6	-0.15810332
79	0x3e9bbf84	0.30419552
80	0x3dd6dd00	0.10491371
81	0x3d9570f1	0.072969325
82	0x3e4b897e	0.19876668
83	0xbc83775d	-0.016048128
84	0xbdd79e86	-0.10528283
85	0x3dfcc930	0.12343061
86	0x3ea9d82c	0.3317274
87	0x3dc2f97f	0.09520244
88	0x3d8918ca	0.06694181
89	0x3df8880f	0.12135326
90	0xbe0754d0	-0.13215947
91	0xbd72a7d7	-0.059242096
92	0xbdffbba3	-0.12486961
93	0x3dbd23fc	0.09235379
94	0x3e2f9192	0.17145374
95	0xbe84b571	-0.2591968
96	0x3d9dbf2f	0.07702481
97	0xbd86b894	-0.06578174
98	0x3e1460ac	0.14490002
99	0xbe8897d3	-0.26678333
100	0xbd15d392	-0.036578722
101	0xbc2e29a1	-0.010630042
102	0xbde1b31d	-0.11020491
103	0xbdf5a994	-0.11995235
104	0x3c551892	0.013006346
105	0x3ec97d45	0.39353386
106	0x3cf59777	0.02997945
107	0xbdc8afd5	-0.09799162
108	0xbd643d19	-0.05572233
109	0xbdc16127	-0.094423585
110	0x3d1b6a67	0.03794327
111	0xbc4aef21	-0.012386114
112	0x3ed9ab05	0.4251329
113	0xbe84c865	-0.2593414
114	0x3ed4ea31	0.41584924
115	0x3e372d58	0.17888391
116	0xbe1c9e8e	-0.15294859
117	0x3dea2d98	0.114344776
118	0xbe8e3438	-0.27774215
119	0xbedb0d66	-0.4278366
120	0x3d3079ae	0.043084793
121	0x3ea80153	0.3281351
122	0x3e3d6458	0.1849531
123	0x3e6d54fe	0.23176953
124	0xbe2b13c5	-0.1670676
125	0x3c422527	0.011849678
126	0xbd848f9b	-0.06472703
127	0xbef1415f	-0.47120187
128	0xbd72345e	-0.059131972
129	0xbd35c3ed	-0.044376303
130	0xbbc01904	-0.005862357
131	0xbe3cfead	-0.18456526
132	0xbdcb1730	-0.09916532
133	0xbe207a57	-0.15671669
134	0x3e0de2d6	0.13856062
135	0xbe8955cd	-0.26823273
136	0xbcad8572	-0.021181796
137	0xbdfcbbf0	-0.12340534
138	0xbddceea7	-0.10787707
139	0xbdf4640d	-0.11933146
140	0x3ec3438e	0.38137478
141	0xbe5fdafb	-0.21860878
142	0x3cc5e107	0.024155153
143	0x3d0c955d	0.03432213
144	0xbe05c9c5	-0.1306525
145	0x3c7fc417	0.015610716
146	0x3d4f5f8a	0.050628223
147	0xbe1e96bb	-0.15487187
148	0xbdb9269d	-0.09040568
149	0xbc5fbaa3	-0.0136553375
150	0xbd90b56f	-0.07065856
151	0xbd7550ad	-0.05989139
152	0xbd52664b	-0.051367085
153	0xbcb4c5f6	-0.022067051
154	0xbd884c68	-0.06655198
155	0x3e2c7636	0.16841969
156	0xbd83651f	-0.06415772
157	0xbdf2d477	-0.11856931
158	0x3b2bbd67	0.0026205422
159	0x3daa49b5	0.0831484
160	0x3da2098a	0.07911976
161	0x3db701c6	0.08935885
162	0x3dae0ad4	0.08498159
163	0xbb8a2f0b	-0.0042170337
164	0x3df37dcb	0.118892275
165	0xbd3f1f1a	-0.04666052
166	0x3e240dc9	0.16020884
167	0x3dd7ae33	0.10531273
168	0xbd3cc928	-0.046090275
169	0x3d75a47d	0.05997132
170	0x3d9f4bea	0.07778151
171	0xbe04bd4b	-0.12962835
172	0x3df5a4ee	0.119943485
173	0x3e72899b	0.23685305
174	0xbd4a0f11	-0.049330775
175	0xbcae912a	-0.021309454
176	0xbcff78a7	-0.031185461
177	0x3d70530a	0.058672942
178	0xbd54eb04	-0.05198194
179	0x3e85954f	0.26090476
180	0x3e8475e5	0.25871196
181	0xbe18e83a	-0.14932337
182	0x3e178b8e	0.1479933
183	0x3dc6eb15	0.09712807
184	0x3dc7b590	0.09751427
185	0xbda04f13	-0.07827582
186	0x3e1051ed	0.14093752
187	0xbd2ae7d7	-0.041725006
188	0xbc9a1153	-0.018807089
189	0xbdc2445d	-0.094856955
190	0x3d9a1930	0.075243354
191	0x3e0d014e	0.13770029
192	0x3b914ebf	0.004434436
193	0x3d28edb5	0.04124232
194	0xbd62239c	-0.05520974
195	0x3d502f18	0.050826162
196	0x3d9cfaa9	0.07664997
197	0xbe0fa9eb	-0.14029662
198	0xbdc0e2eb	-0.09418281
199	0xbd57de9d	-0.052702535
200	0xbde78157	-0.113039665
201	0xbdb1b769	-0.08677561
202	0xbcf2e322	-0.029649321
203	0x3c86b214	0.016442336
204	0xbd8839db	-0.0665166
205	0xbe2adfe1	-0.16686966
206	0x3d237bbd	0.039912928
207	0x3dc26108	0.094911635
208	0x3e1a6b7f	0.15080069
209	0x3da64c4d	0.08120022
210	0xbe09b4b9	-0.13447846
211	0x3d85eec5	0.06539682
212	0x3c205019	0.009784722
213	0x3de1c1ef	0.11023318
214	0xbc59c528	-0.013291635
215	0x3eb27d4b	0.34861216
216	0xb966bc14	-0.00022004574
217	0xbdc073af	-0.09397065
218	0x3dc67bbb	0.096915685
219	0xbe9d9165	-0.3077499
220	0x3db87f40	0.09008646
221	0xbe03a4c2	-0.12855819
222	0xbe5a5260	-0.21320486
223	0x3e7aee03	0.24504857
224	0xbce18b84	-0.027532347
225	0xbc9d9149	-0.019234316
226	0xbdae9569	-0.085245915
227	0x3dc97eb6	0.09838621
228	0x3d2305b6	0.03980037
229	0x3cb05659	0.021525549
230	0x3d83581b	0.06413289
231	0x3bbac37d	0.0056995736
232	0xbd9c7eff	-0.0764141
233	0xbdf3bd0c	-0.11901292
234	0x3dd9fccb	0.106439196
235	0x3dcd933a	0.10037847
236	0xbd18ddb1	-0.037320796
237	0x3ccd5e72	0.02506945
238	0xbe55498a	-0.20828834
239	0x3e4a8f4d	0.19781227
240	0xbd68fe04	-0.056882873
241	0x3e1f02bd	0.15528388
242	0xbe2e6de8	-0.17034113
243	0x3d12f914	0.03588207
244	0x3ea59896	0.32342976
245	0x3dceeaea	0.101034
246	0x3ba6b013	0.0050869077
247	0x3d48be02	0.04900933
248	0x3e4ed5c4	0.20198733
249	0xbe0d7985	-0.13815887
250	0xbe2d3386	-0.16914186
251	0xbe2b882d	-0.16751166
252	0xbd1f68af	-0.038918193
253	0x3e624f3b	0.22100537
254	0xbcde25db	-0.02711766
255	0xbdef2569	-0.11677057

a2.bias f4 [16]
0	0xbdabd2eb	-0.08389839
1	0xbdebeb05	-0.11519436
2	0xbd817826	-0.063217446
3	0xbcfefc81	-0.031126263
4	0x3c8cd5ae	0.017191734
5	0xbdd64667	-0.10462647
6	0xbc6405bb	-0.013917382
7	0xbd28b5c2	-0.041188963
8	0x3dd0df3c	0.101988286
9	0xbdc024d6	-0.09382026
10	0xbdf971c6	-0.12179904
11	0xbb199b8c	-0.002343866
12	0xbdc4ca46	-0.09608893
13	0x3d184b4d	0.037181187
14	0x3dfefb41	0.12450267
15	0x3d95a1a5	0.07306222

a3.weight f4 [32, 16, 3, 3]
0	0xbe2a6d6b	-0.16643302
1	0x3e915954	0.28388464
2	0xbeab7992	-0.33491188
3	0xbda24bbe	-0.07924603
4	0xbdcd2f68	-0.10018808
5	0xbd8e6881	-0.06953526
6	0xbed85a64	-0.42256463
7	0xbd4eb5d9	-0.050466392
8	0x3e24c026	0.16088924
9	0xbc9a25d8	-0.018816873
10	0xbdbc15e1	-0.091838606
11	0xbe3734bc	-0.1789121
12	0xbd0d1d41	-0.034451727
13	0x3e0a1c30	0.13487315
14	0x3e0b9b59	0.13633479
15	0xbe687818	-0.22702062
16	0xbe4cf2e7	-0.20014535
17	0xbeb606af	-0.35551974
18	0x3e131177	0.14362131
19	0x3d9d5289	0.07681758
20	0x3dd8c207	0.10583883
21	0x3d84928c	0.06473264
22	0x3e0b0994	0.13577873
23	0xbe086ec9	-0.13323511
24	0xbd931e8e	-0.07183562
25	0x3d071447	0.032978322
26	0xbda757f5	-0.08171073
27	0xbe675f6b	-0.22594993
28	0x3e1695bc	0.14705557
29	0x3e00e32f	0.12586664
30	0x3dbf078e	0.09327613
31	0xbd9c84d7	-0.07642525
32	0x3e0e40b4	0.1389187
33	0xbd391dcb	-0.04519443
34	0xbe5115a3	-0.2041841
35	0x3c208ce1	0.009799213
36	0x3e221129	0.15826859
37	0x3dd4be27	0.10387831
38	0xbdee8e5a	-0.11648245
39	0xbdc5f945	-0.09666685
40	0x3e857810	0.26068163
41	0xbda16f20	-0.078825235
42	0x3e09ddb1	0.13463475
43	0x3d3926ce	0.045203023
44	0x3bb60490	0.005554743
45	0x3d819f37	0.06329196
46	0x3d7d5919	0.06185255
47	0xbe1753bb	-0.14778034
48	0x3e66a413	0.22523527
49	0xbc8da09f	-0.017288504
50	0x3e8206fb	0.2539595
51	0xbe6cd357	-0.23127495
52	0xbdeb2d33	-0.114832304
53	0x3dd4b517	0.10386103
54	0x3dc0cab2	0.09413661
55	0x3d0dff26	0.034667157
56	0xbe363c74	-0.17796499
57	0x3d3b020a	0.04565624
58	0x3dddbeef	0.10827433
59	0xbdc72f53	-0.09725823
60	0x3dbe82e2	0.09302308
61	0x3e7c590a	0.2464334
62	0x3cf85323	0.03031308
63	0x3e11dc8a	0.14244285
64	0xbc10af5d	-0.008830872
65	0x3b2b62ce	0.0026151421
66	0x3db9364e	0.09043561
67	0x3e76e438	0.24110496
68	0xbe762733	-0.24038391
69	0x3e9c16d6	0.30486172
70	0xbdb457de	-0.08805822
71	0xbe1b0cd9	-0.1514162
72	0xbcf0283c	-0.02931606
73	0x3d960fd6	0.07327239
74	0xbd9fad6d	-0.0779675
75	0x3dfaa03a	0.12237592
76	0x3e830344	0.2558843
77	0x3ccccf69	0.025001245
78	0xbb3daea3	-0.0028943203
79	0xbe57a985	-0.2106076
80	0xbe15127a	-0.1455783
81	0x3c8188b6	0.01581226
82	0x3e4468d6	0.19180617
83	0xbdc4f07d	-0.09616182
84	0x3e5f46e5	0.21804388
85	0xbc1bf86a	-0.009519676
86	0xbcb71ec0	-0.02235353
87	0xbe14eb91	-0.14542986
88	0xbd8801bb	-0.06640955
89	0x3dc30568	0.095225155
90	0xbcf2b266	-0.029626083
91	0x3ce8c52e	0.028414335
92	0xbcf86754	-0.030322708
93	0x3ddcbbb6	0.107779905
94	0xbe81102c	-0.2520765
95	0x3eac40da	0.33643228
96	0x3d24d978	0.040246457
97	0xbdfca372	-0.12335862
98	0xbe285cd6	-0.16441664
99	0xbd34af51	-0.044112507
100	0xbe276f50	-0.16351056
101	0xbde15e24	-0.11004284
102	0xbe0e9672	-0.13924578
103	0x3e815e18	0.252671
104	0xbd14d944	-0.036340013
105	0xbdc89103	-0.09793284
106	0x3e48f291	0.19623782
107	0xbddb5f14	-0.10711494
108	0xbd28ab1c	-0.041178808
109	0xbe9a6b5a	-0.30160028
110	0xbe4af537	-0.19820105
111	0x3e07a6c2	0.13247207
112	0x3cb521ec	0.022110902
113	0x3e911aff	0.2834091
114	0xbedce902	-0.4314652
115	0x3d3dca10	0.04633528
116	0xbc3d5117	-0.011554978
117	0x3ec0f933	0.37690124
118	0x3c89da52	0.016827736
119	0xbc907a9e	-0.017636593
120	0x3e7c4785	0.24636658
121	0xbd6ffd13	-0.05859096
122	0xbd6e464e	-0.058172517
123	0x3e2ca82c	0.16861027
124	0x3ce9345d	0.028467352
125	0x3e332d09	0.17497648
126	0x3ea6433e	0.32473177
127	0xbe466893	-0.1937583
128	0xbec8b8ec	-0.39203584
129	0x3d6e9a1a	0.05825243
130	0x3e847fab	0.25878653
131	0xbe23b74d	-0.15987892
132	0x3dee7f23	0.11645343
133	0xbd992897	-0.07478445
134	0xbe84240c	-0.25808752
135	0x3d2acade	0.041697375
136	0x3d3bd33c	0.045855746
137	0x3dd345c6	0.103160426
138	0x3c2fc312	0.010727661
139	0x3ea0fa86	0.31441134
140	0xbf2afeae	-0.6679486
141	0x3de72012	0.11285414
142	0xbe5621bb	-0.20911305
143	0xbe455803	-0.19271855
144	0x3e0b1801	0.13583376
145	0xbd6813ea	-0.056659617
146	0x3eb9c3ce	0.362822
147	0x3dbcea48	0.09224373
148	0x3a7967db	0.0009514072
149	0x3e09cf5e	0.1345801
150	0xbd92f1a2	-0.07174994
151	0xbd63bf3c	-0.055602297
152	0x3d60de3d	0.054899443
153	0xbd875445	-0.0660787
154	0xbdae04ba	-0.08496995
155	0x3e250bd5	0.16117795
156	0xbdb0baad	-0.086293556
157	0xbe153cf0	-0.14574027
158	0x3e1c5e86	0.15270433
159	0x3e336225	0.17517908
160	0x3e38fbc7	0.18064795
161	0xbe123e97	-0.14281689
162	0xbe974a5a	-0.29548913
163	0xbd89d690	-0.06730378
164	0xbd7d2fdb	-0.061813217
165	0x3e236392	0.15955952
166	0xbe0c7765	-0.1371742
167	0xbe604a3b	-0.21903317
168	0xbe05bcdc	-0.13060325
169	0xbd12e5aa	-0.035863556
170	0xbe5507f0	-0.20803809
171	0xbd829ebf	-0.06377935
172	0xbe008408	-0.12550366
173	0xbda75c7d	-0.081719376
174	0xbe0e8653	-0.13918428
175	0x3e09fd59	0.1347555
176	0x3dd57222	0.1042216
177	0x3d96fb32	0.073721305
178	0xbdc9a8dd	-0.09846661
179	0x3e043862	0.12912133
180	0xbe4193b9	-0.18904008
181	0xbdd9e48f	-0.10639297
182	0xbd75365a	-0.059866287
183	0xbe3652e2	-0.17805055
184	0xbdf27726	-0.11839132
185	0x3e55d07c	0.20880312
186	0xbd8d6d17	-0.06905573
187	0xbde4d384	-0.11173156
188	0x3e4f9263	0.20270686
189	0x3d7e1977	0.062036004
190	0x3da94d4b	0.082666956
191	0x3da84e4b	0.08218058
192	0x3d950157	0.07275646
193	0xbd2b1fa1	-0.04177821
194	0x3e76770a	0.24068847
195	0xbdc4d76c	-0.09611401
196	0xbd14b8e0	-0.036309123
197	0x3dd7ec73	0.10543146
198	0xbe19d25a	-0.15021649
199	0xbe4a66db	-0.19765799
200	0x3dc0c93f	0.09413385
201	0xbc9fbe93	-0.019500053
202	0xbe55c573	-0.20876102
203	0x3e09e05f	0.13464497
204	0x3d85da5f	0.065357916
205	0x3e6f8018	0.23388708
206	0x3e40e4ff	0.18837355
207	0xbe79a653	-0.24379854
208	0xbdf6361d	-0.1202204
209	0xbf03be9b	-0.51462716
210	0x3de3bd35	0.11120073
211	0x3e9b5a4b	0.30342326
212	0xbe196a4f	-0.1498196
213	0xbee0aef6	-0.43883485
214	0x3d8b57da	0.06803866
215	0x3e805759	0.2506664
216	0x3d5a93e1	0.053363685
217	0x3e8a1705	0.26970688
218	0xbde9b822	-0.11412074
219	0xbe511b1c	-0.20420498
220	0xbcd344da	-0.025789667
221	0xbe94d186	-0.29066104
222	0xbdbc9826	-0.092087075
223	0xbe062972	-0.13101748
224	0xbc8e0048	-0.017334118
225	0x3e1877c6	0.1488944
226	0xbdc4bb4b	-0.09606036
227	0xbda0db52	-0.07854332
228	0x3c2038c0	0.009779155
229	0xbcd71c26	-0.02625854
230	0xbe5aa0cd	-0.21350403
231	0xbbc160e6	-0.005901444
232	0x3e1df7d7	0.15426575
233	0x3c9e51de	0.019326147
234	0x3e542bf7	0.20719896
235	0xbde8bc7d	-0.11364076
236	0x3e5a5e8e	0.21325132
237	0xbe39b59b	-0.18135683
238	0xbdfd0db6	-0.12356131
239	0xbe3fb24d	-0.1872036
240	0xbde705a9	-0.112803765
241	0xbeb6bcc5	-0.35690895
242	0xbdd03e4c	-0.10168132
243	0xbe9c75c2	-0.30558592
244	0xbcc73038	-0.024314985
245	0xbce44c46	-0.027868401
246	0xbdde8ca7	-0.10866671
247	0xbd42c8e0	-0.04755485
248	0x3e13087a	0.14358702
249	0xbef20501	-0.47269443
250	0xbe5c100a	-0.21490493
251	0x3e10fd4f	0.1415913
252	0x3e70968d	0.2349493
253	0xbdc51ed2	-0.09625019
254	0x3e353c9d	0.17698903
255	0xbe5264aa	-0.20546213

a3.bias f4 [32]
0	0xbe0c18ab	-0.13681285
1	0x3d3b7285	0.04576351
2	0x3d79809e	0.060913675
3	0xbe4c1fa0	-0.19933939
4	0xbe3bfc57	-0.18357979
5	0x3cfaadc2	0.030600432
6	0x3d305a6f	0.043054994
7	0xbe1ee249	-0.15516008
8	0xbe7ba0ba	-0.24573031
9	0xbe04373e	-0.12911698
10	0xbdbf3adf	-0.09337401
11	0xbdab6c1a	-0.08370228
12	0xbeac0bc3	-0.33602723
13	0xbdaf3e30	-0.08556783
14	0xbd758db9	-0.05994961
15	0x3e5ce3ae	0.21571228
16	0x3e33726b	0.17524116
17	0xbdb8a365	-0.0901554
18	0xbddb71ee	-0.1071509
19	0xbe3bde93	-0.18346624
20	0xbce04dcc	-0.027380846
21	0xbe0ae0e8	-0.13562357
22	0xbd3d9d4a	-0.04629258
23	0xbe055768	-0.13021624
24	0xbd2f2e50	-0.042768776
25	0x3e0f8f34	0.14019471
26	0x3e47b554	0.19502765
27	0xbd571a56	-0.05251535
28	0x3c78ea53	0.015192586
29	0x3d6af9ad	0.057367016
30	0xbd2453f8	-0.04011914
31	0xbdf94a9b	-0.12172433

b1.weight f4 [32, 32, 3, 3]
0	0xbe8c9874	-0.27460063
1	0x3dca42bc	0.0987601
2	0xbd39634a	-0.045260705
3	0xbd3b27ed	-0.045692373
4	0xbda3174c	-0.07963428
5	0xbe51ca89	-0.20487417
6	0xbd84daac	-0.06487021
7	0x3ce75534	0.02823887
8	0xbe5dc848	-0.21658432
9	0x3cd75d74	0.02628968
10	0xbe9d695d	-0.30744448
11	0x3de7475b	0.11292907
12	0xbe81233b	-0.2522219
13	0xbee60c29	-0.44931152
14	0xbccd3f39	-0.025054561
15	0x3dcd9b4f	0.100393884
16	0xbe859e81	-0.2609749
17	0x3ea39f43	0.31957445
18	0xbd0e43e7	-0.034732725
19	0x3d903176	0.07040684
20	0x3d147a17	0.036249246
21	0x3e1c4c87	0.15263568
22	0x3e60db90	0.21958756
23	0xbc9eed4f	-0.019400267
24	0xbbf50931	-0.0074779023
25	0x3d43f3b2	0.047839828
26	0xbdebf7d7	-0.11521881
27	0x3e71bdd4	0.2360757
28	0x3e389ada	0.18027821
29	0x3df6968c	0.12040433
30	0x3db2eb03	0.08736231
31	0xbe7aab89	-0.24479498
32	0x3e02a5d8	0.12758577
33	0xbe177b0c	-0.14793032
34	0xbe2a60e5	-0.16638525
35	0xbe6655f0	-0.2249372
36	0x3e71c1f4	0.23609143
37	0xbe6c8c70	-0.23100448
38	0x3c8d7bab	0.017270884
39	0xbcfe58fe	-0.031048294
40	0x3b467004	0.003027917
41	0xbe95cbae	-0.29256958
42	0xbd3ac11d	-0.045594323
43	0xbeb7e51a	-0.35916978
44	0xbacc1cf4	-0.0015572594
45	0x3ecde5db	0.40214428
46	0xbed94830	-0.42437887
47	0xbd8cfe42	-0.06884433
48	0x3e41a976	0.189123
49	0xbdc16e90	-0.09444916
50	0x3cfe4b5c	0.031041794
51	0x3e02cbfe	0.1277313
52	0xbd4f7e58	-0.0506576
53	0xbea69c56	-0.3254115
54	0xbe36782e	-0.17819282
55	0xbde82b86	-0.113364264
56	0xbd567bad	-0.05236404
57	0xbd5c52fc	-0.053790078
58	0x3dc1f156	0.09469859
59	0x3c7ca732	0.015420722
60	0xbe29e26c	-0.1659028
61	0x3e0843e9	0.13307156
62	0xbd53ca32	-0.0517065
63	0xbd7da280	-0.06192255
64	0x3d5ac4c7	0.053410318
65	0x3d27b531	0.040944282
66	0x3d2a98aa	0.041649498
67	0xbe0baba8	-0.136397
68	0xbd1a6b6f	-0.037700113
69	0x3c262c99	0.010142469
70	0x3d6e9116	0.058243833
71	0x3cc7d888	0.024395242
72	0xbde7f6bc	-0.11326358
73	0xbe8260c2	-0.25464445
74	0xbe8dc138	-0.27686477
75	0xbe8dda4b	-0.27705607
76	0x3e38e57c	0.18056291
77	0xbce072a5	-0.027398417
78	0xbe8e2ed1	-0.27770093
79	0x3d3d3833	0.046196174
80	0x3e5af234	0.21381456
81	0x3e265b5a	0.16245785
82	0xbc74594e	-0.01491387
83	0xbdf73479	-0.12070555
84	0x3e4d5768	0.20052874
85	0x3dc36ad9	0.09541864
86	0x3e94abb3	0.29037246
87	0x3eef7dab	0.46775565
88	0xbd13fba5	-0.03612866
89	0xbdcc75e6	-0.09983425
90	0xbe0ee3b1	-0.13954045
91	0x3e78d5b1	0.24300267
92	0xbe5b47f8	-0.21414173
93	0x3d8de458	0.06928319
94	0x3e1eb323	0.15498023
95	0xbdd2e761	-0.10298038
96	0x3db4438e	0.088019475
97	0x3d893156	0.06698863
98	0x3d540ba3	0.05176891
99	0xbe3bee40	-0.18352604
100	0xbe27876f	-0.16360258
101	0xbea57c47	-0.3232138
102	0x3e71bd63	0.23607402
103	0xbdbf6f1a	-0.09347363
104	0xbe956529	-0.29178742
105	0x3e607d64	0.21922833
106	0x3de9c1f6	0.11413948
107	0xbe1f448f	-0.15553497
108	0xbeade57f	-0.33964154
109	0xbea0ec73	-0.31430396
110	0xbe0406b6	-0.12893185
111	0xbe0c625a	-0.13709393
112	0xbe277349	-0.16352572
113	0x3e77aab0	0.24186206
114	0xbe5f89cd	-0.2182991
115	0xbe8f2cc5	-0.27963844
116	0xbcb5b2c3	-0.022179967
117	0xbd44127b	-0.047869187
118	0x3d727c49	0.05920056
119	0x3e225126	0.15851268
120	0x3d98f87c	0.0746927
121	0x3c39618d	0.011314762
122	0xbd8a27fd	-0.067459084
123	0xbc83079b	-0.015994838
124	0xbe8eb976	-0.2787587
125	0x3de699e8	0.11259824
126	0x3da9f993	0.08299556
127	0x3df36bfc	0.11885831
128	0xbc3772d4	-0.011196811
129	0xbd450e02	-0.048109062
130	0xbe8c0d85	-0.27354065
131	0x3c6a98ba	0.014318639
132	0xbc1c7eb8	-0.0095516965
133	0xbdf4888d	-0.119401075
134	0xbd00719f	-0.031358358
135	0xbd6a352c	-0.057179615
136	0xbd3e1b82	-0.046412952
137	0xbd3882e4	-0.045046702
138	0xbe1dd0ab	-0.15411632
139	0x3d0cf036	0.03440877
140	0xbd6781e3	-0.056520354
141	0x3d16f113	0.036851
142	0xbe8ca53e	-0.2746982
143	0x3d07d5a9	0.033162747
144	0xbe2854c4	-0.16438586
145	0x3d12eca2	0.035870202
146	0x3d494187	0.049134757
147	0x3e346cd7	0.17619644
148	0x3e45789d	0.19284292
149	0x3ded35b8	0.11582512
150	0xb75f39d0	-1.3305296e-05
151	0xbd8330ae	-0.06405769
152	0x3e56195c	0.20908111
153	0x3d15cf4b	0.036574643
154	0x3d963816	0.07334916
155	0xbeb95fdf	-0.36205956
156	0xbc9d3231	-0.019188972
157	0xbcfc6232	-0.030808542
158	0xbecd9f4b	-0.40160593
159	0xbd96932c	-0.073522896
160	0x3e4c4de2	0.19951585
161	0xbdd0169c	-0.101605624
162	0x3e0999f3	0.13437633
163	0xbb9b0377	-0.0047306377
164	0xbda0df0d	-0.078550436
165	0x3caecdf4	0.02133844
166	0xbeb67a77	-0.35640308
167	0xbe554f08	-0.2083093
168	0xbdd503c2	-0.10401107
169	0xbe2b616b	-0.16736381
170	0xbe1af5bc	-0.15132803
171	0xbe717b60	-0.2358222
172	0x3e812a42	0.25227553
173	0xbe5dc542	-0.21657279
174	0x3db1f7ce	0.08689843
175	0x3dfb08bc	0.12257525
176	0xbd2329da	-0.039834835
177	0xbd973f6f	-0.07385146
178	0x3e5c8725	0.21535929
179	0xbd2141d1	-0.039369408
180	0x3c6a8a22	0.01431516
181	0xbe303d2c	-0.17210835
182	0x3dda4242	0.10657169
183	0x3b33a9d1	0.002741445
184	0xbd35408d	-0.044251014
185	0xbda54808	-0.080703795
186	0x3e390654	0.1806882
187	0x3d8f218b	0.0698882
188	0x3e329c89	0.17442526
189	0x3db7a84e	0.089676484
190	0xbe5fe250	-0.21863675
191	0xbdde0286	-0.10840325
192	0x3e09c844	0.13455302
193	0x3dc5e13f	0.09662103
194	0x3e20a7e7	0.1568905
195	0x3ab1e951	0.0013573562
196	0xbdd071c4	-0.10177949
197	0xbe1f2624	-0.15541893
198	0xbe668048	-0.22509873
199	0x3dc02339	0.09381718
200	0x3d1039b5	0.035211284
201	0xbe2fe615	-0.17177613
202	0x3d98066c	0.074231
203	0x3d5d16a4	0.05397667
204	0x3de0f139	0.109835096
205	0xbeb2d2e2	-0.34926516
206	0xbd9c707a	-0.07638641
207	0xbe0928c9	-0.13394465
208	0x3e1c8855	0.15286382
209	0xbdba6028	-0.091003716
210	0xbe0a2d55	-0.13493855
211	0xbd2c0b62	-0.042003043
212	0xbe14dd57	-0.1453756
213	0xbde5d262	-0.11221768
214	0x3e7ca4eb	0.24672286
215	0x3e032604	0.1280747
216	0x3e72f27d	0.23725314
217	0xbe48a5fe	-0.19594571
218	0xbe87821d	-0.26466456
219	0xbe931be2	-0.2873221
220	0x3d25377b	0.040336113
221	0x3dc473f2	0.09592427
222	0x3c51ebb7	0.012812546
223	0x3e1666d9	0.14687671
224	0x3cb69a25	0.022290299
225	0x3e1616da	0.14657155
226	0x3d2a14c8	0.041523725
227	0xbec19221	-0.378068
228	0xbda9bf54	-0.08288446
229	0x3c37939a	0.011204625
230	0x3da0114c	0.07815799
231	0xbdd364c4	-0.10321954
232	0x3e98612e	0.29761642
233	0x3e0d9cb1	0.13829304
234	0x3eaa7b96	0.33297414
235	0xbca6acde	-0.020346101
236	0xbe8e3cbb	-0.2778071
237	0x3dbe5379	0.09293265
238	0xbc9ab378	-0.018884405
239	0x3c57aaaa	0.013163248
240	0x3d2faef6	0.042891465
241	0x3e81a4bd	0.25320998
242	0xbea30d47	-0.31846067
243	0x3e563952	0.20920303
244	0xbcc16205	-0.02360631
245	0xbd78667c	-0.06064461
246	0xbf1e8ab1	-0.61930376
247	0xbe64250d	-0.22279759
248	0xbc0df5d5	-0.008664568
249	0x3b30ceda	0.0026978762
250	0x3e391b65	0.18076856
251	0x3cedf03b	0.029045215
252	0x3e919f73	0.28441963
253	0xbd41c0aa	-0.04730288
254	0xbec0081c	-0.37506187
255	0x3d7120fc	0.058869347

b1.bias f4 [32]
0	0xbd8f86ee	-0.07008158
1	0xbe29f24f	-0.1659634
2	0xbe7a4c99	-0.24443282
3	0xbe067101	-0.13129045
4	0x3e8558a3	0.26044187
5	0xbdde8848	-0.10865837
6	0xbdba3a01	-0.090930946
7	0x3c414cad	0.011798066
8	0xbd3ff882	-0.046867855
9	0xbe83cc61	-0.25741866
10	0xbe4f7856	-0.20260748
11	0x3d66a46c	0.05630915
12	0xbe034583	-0.12819485
13	0xbe4b80cd	-0.19873352
14	0x3d1eff7f	0.03881788
15	0xbe0b1458	-0.1358198
16	0xbdae470c	-0.08509645
17	0xbe9e08e9	-0.30866173
18	0xbdeb0039	-0.11474652
19	0x3dc9dc2f	0.0985645
20	0xbdaa9900	-0.08329964
21	0xbe334a3d	-0.17508788
22	0x3e8014c8	0.25015855
23	0xbe974813	-0.29547176
24	0xbcc81dd9	-0.024428295
25	0xbddcc6e4	-0.10780123
26	0xbd8e3888	-0.06944376
27	0xbebe3fc6	-0.3715803
28	0xbd48f963	-0.04906596
29	0xbc13e67f	-0.0090271225
30	0x3d92198a	0.071337774
31	0xbdcd6f5d	-0.100310065

b2.weight f4 [32, 32, 3, 3]
0	0x3e517e53	0.20458345
1	0x3d77573e	0.060385935
2	0xbd5d044c	-0.053959176
3	0x3d2db62f	0.042410072
4	0xbe3cc707	-0.18435298
5	0x3e3d161d	0.18465467
6	0xbd92ae6e	-0.07162176
7	0xbdf32a43	-0.11873295
8	0x3e74531e	0.23859832
9	0x3e25f67c	0.16207308
10	0x3bc42a84	0.0059865136
11	0xbd3afec9	-0.04565314
12	0xbdc73177	-0.097262315
13	0xbd9760db	-0.073915206
14	0xbe64f00a	-0.22357193
15	0x3e08fec8	0.13378441
16	0x3e1d5759	0.15365352
17	0xbec6ef94	-0.3885466
18	0xbe0cdcbc	-0.13756078
19	0x3e52c4c7	0.20582877
20	0xbe97c0ac	-0.29639184
21	0xbbdbeffe	-0.006711959
22	0xbe519e6d	-0.20470591
23	0x3dc762d0	0.09735644
24	0xbdf6040c	-0.12012491
25	0xbd6bdfa4	-0.057586327
26	0xbe201d8c	-0.15636271
27	0x3ed35ef2	0.41283375
28	0xbdac993b	-0.08427664
29	0x3df3e3c3	0.119086765
30	0x3ef219d6	0.47285336
31	0xbd0fb20e	-0.035081916
32	0xbe122108	-0.14270413
33	0xbcc7e950	-0.024403244
34	0xbebb8d1d	-0.36631098
35	0x3c513ab6	0.012770345
36	0xbd5dec9e	-0.054180734
37	0x3d79c5e4	0.06097974
38	0xbe922880	-0.28546524
39	0xbd0b1bcb	-0.033962052
40	0x3e46e487	0.19423114
41	0xbe3a5a26	-0.18198451
42	0xbeba9afe	-0.36446375
43	0x3df88c81	0.12136174
44	0x3e27f064	0.16400295
45	0x3eaab585	0.33341613
46	0xbe477479	-0.19478025
47	0xbcbd9550	-0.023142487
48	0xbe50b10f	-0.20380042
49	0xbdab5d3d	-0.08367393
50	0xbea6281b	-0.32452473
51	0x3c0cdb60	0.008597225
52	0x3ed11cff	0.40842435
53	0x3ea4003a	0.32031423
54	0x3d233360	0.039843917
55	0xbe5f2d52	-0.21794632
56	0x3d809447	0.06278282
57	0xbdd5dc3a	-0.104423955
58	0xbdccf344	-0.10007337
59	0xbdf8ea78	-0.12154096
60	0x3cda37d1	0.026637943
61	0x3dc8070d	0.0976697
62	0xbe46044a	-0.19337574
63	0x3ead246d	0.33816853
64	0xbbcb79d7	-0.006209593
65	0xbe16d76a	-0.14730611
66	0xbdaabca9	-0.08336765
67	0x3dbdc88f	0.09266769
68	0x3d64557c	0.055745587
69	0xbc3a6fd6	-0.011379203
70	0x3d7683fd	0.060184468
71	0xbe0e814c	-0.1391651
72	0x3ca9f015	0.020744363
73	0xbe2c16ba	-0.16805544
74	0x3e514607	0.2043687
75	0x3c9e454b	0.01932015
76	0xbc98968e	-0.018626478
77	0xbd8e2547	-0.06940704
78	0xbe009495	-0.1255668
79	0x3d35d571	0.044393007
80	0xbe93e4a6	-0.28885382
81	0xbd50db8f	-0.050990637
82	0xbea37394	-0.31924117
83	0xbe2858dc	-0.16440147
84	0x3de5fb44	0.11229566
85	0xbdceb21c	-0.100925654
86	0x3e8822bf	0.2658901
87	0x3eacc3b7	0.3374307
88	0x3db5b14d	0.08871708
89	0xbda37e41	-0.079830654
90	0xbd05d098	-0.032669634
91	0xbe3e5fef	-0.18591283
92	0xbd731da3	-0.059354436
93	0xbe024468	-0.12721407
94	0xbdb4cb60	-0.08827853
95	0xbe3582a2	-0.17725614
96	0x3e6b0f85	0.22955139
97	0x3e1b9225	0.15192468
98	0xbe6694b7	-0.22517668
99	0x3dda7776	0.106673166
100	0xbdaa5fb4	-0.08319035
101	0x3dfc3bae	0.123160705
102	0xbdb769f8	-0.08955759
103	0x3d6d6e39	0.057966445
104	0xbe1f3867	-0.1554886
105	0xbe8bc0d3	-0.2729555
106	0x3e01931b	0.12653773
107	0xbe172dd2	-0.14763573
108	0xbe84aebc	-0.25914562
109	0xbe032d23	-0.12810187
110	0xbd540e54	-0.051771477
111	0x3dbdc3f8	0.09265894
112	0xbd6db8bd	-0.05803751
113	0xbe07ecd5	-0.13273938
114	0xbe97bae6	-0.2963478
115	0x3da07cc6	0.07836299
116	0x3d340ce2	0.0439576
117	0xbe6edcf2	-0.23326471
118	0xbe0db0d9	-0.13836993
119	0xbefd82ab	-0.49513754
120	0x3c892469	0.016740995
121	0xbe8ff5a8	-0.28117108
122	0x3d5f5d0c	0.054532096
123	0xbe2c09ed	-0.16800661
124	0xbd108952	-0.03528721
125	0xbe5abe09	-0.21361555
126	0x3de73535	0.11289445
127	0x3c5f77f7	0.013639442
128	0xbdc029cd	-0.09382973
129	0xbd815c01	-0.063163765
130	0xbed7caf0	-0.42147017
131	0x3b011dce	0.0019701603
132	0xbe1dd093	-0.15411596
133	0x3dfb96fe	0.12284659
134	0x3c8fa657	0.017535372
135	0xbe0ff175	-0.14056952
136	0xbdeb60ba	-0.114930585
137	0xbd7de1eb	-0.06198303
138	0x3e4e6f15	0.20159562
139	0xbedd2d95	-0.4319884
140	0x3dcd3146	0.10019164
141	0xbcab3321	-0.020898404
142	0x3deb942f	0.11502873
143	0x3cdade2b	0.026717266
144	0x3e94d955	0.2907206
145	0xbca86948	-0.020558015
146	0xbe16bea0	-0.14721155
147	0x3d43804c	0.047729775
148	0xbe4eb9b2	-0.20188025
149	0x3d2e3dee	0.04253953
150	0x3d97629f	0.07391857
151	0x3e6e6b0f	0.23283027
152	0xbde7456d	-0.11292539
153	0xbcc2f166	-0.023796748
154	0x3cf1aaf9	0.029500471
155	0x3dab02ee	0.08350168
156	0x3e4db06e	0.20086834
157	0x3cfb9599	0.030710982
158	0xbc0ddee8	-0.008659102
159	0xbe142277	-0.14466272
160	0x3da59175	0.08084384
161	0xbe702187	-0.2345029
162	0xbd5847bc	-0.052802786
163	0x3d6a7fc1	0.057250742
164	0xbc784b80	-0.015154719
165	0xbd5ef543	-0.05443312
166	0xbde0d03d	-0.10977218
167	0xbe83d81b	-0.25750813
168	0xbdcc9f48	-0.09991318
169	0xbe28949e	-0.16462943
170	0x3d1744d5	0.036930878
171	0x3e87d7d5	0.26531854
172	0xbd1f467b	-0.038885575
173	0xbd706486	-0.058689617
174	0x3d91e34a	0.0712343
175	0x3dd8cb84	0.105856925
176	0x3e0e1a5a	0.1387724
177	0xbd99fd55	-0.075190224
178	0x3db1aecd	0.08675919
179	0xbd3d622c	-0.046236202
180	0xbd34c90b	-0.044137042
181	0xbe4cbf73	-0.19994907
182	0xbd185f73	-0.037200402
183	0x3e28bb43	0.16477685
184	0xbd77dc94	-0.060513094
185	0xbdac9b00	-0.084280014
186	0xbe9006c7	-0.2813017
187	0xbd7664a7	-0.060154583
188	0xbe4f1e91	-0.20226504
189	0xbe8890ba	-0.26672918
190	0xbdd65b07	-0.10466581
191	0x3d9002e1	0.07031799
192	0x3e41140e	0.18855307
193	0x3e31a527	0.17348157
194	0x3e93f15a	0.28895074
195	0xbd6234e1	-0.05522621
196	0xbe15e7cb	-0.14639203
197	0xbd5e1bdb	-0.054225784
198	0x3e5ffd63	0.21874003
199	0xbe7115e7	-0.23543511
200	0x3de06f56	0.10958736
201	0x3d8e7d43	0.069574855
202	0xbd16f8bb	-0.0368583
203	0x3e1d58c4	0.15365893
204	0xbee473b2	-0.4461952
205	0x3e7f3dbb	0.24925892
206	0xbd849f10	-0.06475651
207	0xbe39c579	-0.18141736
208	0xbd6bc51e	-0.057561032
209	0x3db63f13	0.08898749
210	0xbe0115fb	-0.12606041
211	0xbeac96f0	-0.33708906
212	0x3f213bed	0.62982064
213	0xbc0c450c	-0.008561384
214	0xbc56b8cb	-0.0131055815
215	0x3e2060b0	0.15661883
216	0xbd677712	-0.05651004
217	0xbd5c0d29	-0.053723488
218	0xbddf7ace	-0.10912095
219	0x3cf24068	0.029571727
220	0xbdcb06a7	-0.09913378
221	0x3d12788d	0.035759497
222	0x3e5172d4	0.2045396
223	0x3e2a9516	0.16658434
224	0xbe9d02af	-0.3066611
225	0xbc3a7b37	-0.011381916
226	0xbe1169b4	-0.14200479
227	0x3d7fc87b	0.062447052
228	0x3cd560de	0.026047166
229	0x3e84535f	0.25844857
230	0xbdcd2138	-0.100161016
231	0xbe474751	-0.19460799
232	0xbe32c575	-0.17458136
233	0x3da2c5ec	0.07947907
234	0x3db829aa	0.08992322
235	0xbdd53dc2	-0.1041217
236	0x3d6811c9	0.056657586
237	0xbca89922	-0.020580832
238	0x3de3a249	0.11114938
239	0x3dec612c	0.115419716
240	0xbea65990	-0.32490206
241	0xbe66f743	-0.2255526
242	0xbe09931c	-0.13435024
243	0x3de94d2d	0.11391673
244	0xbdeeff3e	-0.11669777
245	0x3e91b438	0.28457808
246	0x3de2fdfa	0.110835984
247	0xbdbea9a4	-0.093097
248	0xbe4e34cf	-0.20137332
249	0xbe0b7604	-0.13619238
250	0xbe8d406e	-0.27588218
251	0x3da2d1fa	0.07950206
252	0x3c5b3fe2	0.01338193
253	0x3da92e0d	0.082607366
254	0x3e7ac374	0.24488622
255	0x3d47b531	0.048756782

b2.bias f4 [32]
0	0x3cf14b21	0.02945477
1	0xbec6a6a4	-0.38799012
2	0xbe404289	-0.18775381
3	0xbe8dd13b	-0.27698693
4	0xbdeeac4a	-0.11653955
5	0xbe5fd1d0	-0.21857381
6	0xbe103553	-0.14082842
7	0xbe31b326	-0.17353496
8	0x3e15b6e8	0.14620554
9	0x3c1ec697	0.009690902
10	0x3a908c95	0.0011028225
11	0xbe07e264	-0.13269955
12	0xbe1ca19c	-0.15296024
13	0xbe98f788	-0.2987635
14	0xbd9278ee	-0.07151972
15	0x3d691775	0.056907136
16	0xbd8a8086	-0.06762795
17	0xbe476bef	-0.19474767
18	0xbdec5ddc	-0.1154134
19	0xbddb2305	-0.10700039
20	0xbdcefda7	-0.10106974
21	0x3dec1b39	0.1152863
22	0xbe705a52	-0.23471954
23	0x3dd300f5	0.10302917
24	0xbe77f83c	-0.24215788
25	0x3dac3b16	0.08409707
26	0x3d457f17	0.048216905
27	0x3ceb5495	0.028726855
28	0xbe9a8b87	-0.30184576
29	0xbd8a36e7	-0.06748753
30	0x3e035ec0	0.12829113
31	0xbd23ceb0	-0.039992034

b3.weight f4 [64, 32, 3, 3]
0	0x3ca0c7a7	0.019626452
1	0x3da00e36	0.078152105
2	0xbd8d5359	-0.06900663
3	0xbe9d3d3f	-0.3071079
4	0xbe43ce67	-0.19121705
5	0xbd99f441	-0.07517291
6	0xbd00b1d4	-0.03141959
7	0xbe9503ab	-0.2910436
8	0x3cb6d713	0.022319352
9	0x3e2a9d95	0.16661675
10	0xbe57861b	-0.21047251
11	0x3e0f7051	0.14007689
12	0xbda9ad91	-0.08285058
13	0x3ded5fbf	0.11590528
14	0xbe4f49ec	-0.20243043
15	0xbe4b0b5f	-0.19828556
16	0xbe918545	-0.2842199
17	0xbe9b5bac	-0.30343378
18	0xbe128239	-0.14307489
19	0xbe3a77ad	-0.18209715
20	0x3de1ba52	0.11021866
21	0xbc09bab3	-0.008406329
22	0xbddcef5e	-0.10787843
23	0xbe85b2ec	-0.2611307
24	0x3e0ee73d	0.13955398
25	0x3e7268f2	0.23672846
26	0xbe4628e7	-0.1935154
27	0xbcef40d4	-0.029205717
28	0x3da43dbd	0.08019588
29	0x3e3a76ef	0.18209432
30	0x3dedf696	0.11619298
31	0x3e8bc008	0.27294946
32	0xbe6c468d	-0.23073788
33	0xbe34925b	-0.17633955
34	0xbe828319	-0.25490645
35	0x3e990c86	0.29892367
36	0xbe25081b	-0.16116373
37	0xbd0ab655	-0.03386529
38	0x3d2214ed	0.039570738
39	0xbe71819d	-0.235846
40	0x3da878a7	0.082261376
41	0x3eaf1896	0.34198445
42	0xbe9932aa	-0.29921466
43	0x3e5b7bc7	0.21433936
44	0xbbf70b90	-0.00753922
45	0x3defac61	0.117028005
46	0x3e68999e	0.2271485
47	0x3d69f783	0.05712081
48	0x3de7c429	0.113167115
49	0xbe01e962	-0.12686685
50	0xbcab4b98	-0.02091007
51	0xbdef0837	-0.11671489
52	0xbdaf005f	-0.08544993
53	0xbe8e3742	-0.27776533
54	0x3df3a4cc	0.11896667
55	0x3e085a8c	0.13315791
56	0xbdf39590	-0.11893761
57	0x3db56605	0.08857349
58	0x3e463199	0.19354858
59	0x3d0dd7c7	0.03462961
60	0xbd89b1d7	-0.067233734
61	0xbe457d79	-0.19286145
62	0x3ded5d92	0.11590113
63	0xbd7390ff	-0.05946445
64	0xbd1f8d27	-0.038952973
65	0x3e1fef27	0.15618573
66	0xbd159abb	-0.036524516
67	0xbdc08000	-0.09399414
68	0xbea71928	-0.3263638
69	0x3ddd42e3	0.10803773
70	0x3e3c5c4e	0.18394586
71	0xbeca4fd6	-0.39514035
72	0xbd21c1ec	-0.03949158
73	0x3d3e9f75	0.04653879
74	0xbddb1cd9	-0.10698862
75	0xbc697df9	-0.014251226
76	0x3d820c2e	0.06349979
77	0xbd95bd39	-0.07311482
78	0x3d1221b1	0.035676662
79	0xbe548591	-0.20754077
80	0x3e121ada	0.14268056
81	0xbdb1ca96	-0.08681218
82	0x3dee31fd	0.11630628
83	0x3d19587c	0.0374379
84	0xbccabd2f	-0.024748413
85	0x3e93bd5e	0.28855413
86	0xbd500b68	-0.050792128
87	0xbe930941	-0.28717998
88	0xbf015c09	-0.5053106
89	0xbd06c220	-0.032899976
90	0xbd964d07	-0.073389105
91	0xbe5b9812	-0.21444729
92	0xbe1e028f	-0.15430664
93	0x3d161e04	0.03664972
94	0x3ca4151d	0.020029599
95	0x3ce7e0ba	0.0283054
96	0xbe6081fb	-0.21924584
97	0x3e126b87	0.14298831
98	0xbe25e3e5	-0.16200216
99	0x3e035f89	0.12829413
100	0x3d7bb76d	0.061454225
101	0xbd51964d	-0.05116873
102	0x3de67fc4	0.11254838
103	0x3d09b843	0.03362299
104	0x3da20b0e	0.07912265
105	0x3df56be4	0.11983469
106	0x3eb73d02	0.35788733
107	0x3e3e0ae7	0.18558846
108	0xbda00fbb	-0.078155
109	0x3ca8f2c1	0.020623567
110	0xbce13106	-0.027489197
111	0x3d96af4c	0.07357654
112	0xbe2acbac	-0.16679257
113	0xbe8b19c6	-0.271681
114	0xbe42769e	-0.18990561
115	0xbbaff921	-0.0053702747
116	0x3d8d57d6	0.06901519
117	0x3de8e9e7	0.11372738
118	0xbe839030	-0.25695944
119	0xbcea2013	-0.028579747
120	0x3e16c264	0.14722592
121	0x3ec595b2	0.3859077
122	0x3e8030a9	0.25037125
123	0xbe7f7f53	-0.24950914
124	0x3b99db84	0.0046953578
125	0x3d9028a7	0.07039004
126	0x3e201846	0.1563426
127	0xbe9c288c	-0.30499685
128	0xbdaef776	-0.08543293
129	0x3e5fc691	0.21853091
130	0x3e1bfc23	0.15232901
131	0x3e016fc3	0.1264029
132	0x3e16c776	0.14724526
133	0xbe5d0288	-0.21582997
134	0xbee3596c	-0.4440416
135	0x3c5d7099	0.013515615
136	0xbdc54535	-0.09632341
137	0x3d198f87	0.037490394
138	0xbe0d4928	-0.13797438
139	0xbe304e7e	-0.17217442
140	0xbe78048c	-0.24220484
141	0xbd16ad19	-0.036786173
142	0x3d8bd30d	0.06827364
143	0xbd45de71	-0.04830784
144	0x3e90275f	0.28155038
145	0xbe394de4	-0.18096119
146	0xbe9215e1	-0.28532317
147	0xbd114703	-0.035468113
148	0xbe4b185e	-0.19833514
149	0x3d8a52d5	0.0675408
150	0xbe5b6097	-0.21423565
151	0xbe0cbad0	-0.13743138
152	0xbea84dad	-0.32871762
153	0xbc0011d6	-0.007816752
154	0x3e2448c8	0.16043389
155	0x3e2358e2	0.15951875
156	0x3e02e7c6	0.12783727
157	0xbd3a983c	-0.04555534
158	0xbe139d66	-0.14415511
159	0xbe5b3659	-0.2140745
160	0xbd2520de	-0.040314548
161	0xbe900a79	-0.2813299
162	0x3eb3306b	0.34997877
163	0x3e6a0678	0.2285403
164	0x3dc7e5c4	0.09760621
165	0xbda860ec	-0.082216114
166	0xbe8f43a8	-0.27981305
167	0xbe4c1e54	-0.19933444
168	0xbd163ac7	-0.03667715
169	0xbde39188	-0.11111742
170	0xbcb04358	-0.021516487
171	0x3d9181f5	0.071048655
172	0xbe446639	-0.1917962
173	0x3d741756	0.059592567
174	0x3da0a0f1	0.07843197
175	0xbeb1efc0	-0.34753227
176	0x3e04796a	0.12936941
177	0x3df5aaf5	0.11995498
178	0xbd740056	-0.059570633
179	0x3dcb3c25	0.09923581
180	0xbc1a542d	-0.009419483
181	0x3df35012	0.118805066
182	0xbe846611	-0.2585912
183	0x3e6f498e	0.23367903
184	0xbde1f5e2	-0.110332265
185	0x3e38bd03	0.18040852
186	0xbe1f3a59	-0.15549602
187	0x3e238ab8	0.15970886
188	0xbc60a9d5	-0.013712366
189	0xbd5a8e92	-0.053358622
190	0xbdf90ff7	-0.12161248
191	0x3dde47a2	0.108535066
192	0xbe4a1040	-0.19732761
193	0x3da2228c	0.079167455
194	0x3cfb3c6d	0.030668462
195	0xbde3be16	-0.111202404
196	0x3d3b5790	0.045737803
197	0xbdb64950	-0.08900702
198	0xbeb43f45	-0.3520452
199	0xbe279515	-0.16365464
200	0x3dd7d414	0.105384976
201	0xbcc22299	-0.023698138
202	0x3e2d6c25	0.16935785
203	0xbe48ca70	-0.19608474
204	0x3dd6ea1d	0.10493872
205	0xbee27540	-0.4423008
206	0xbc526013	-0.012840289
207	0xbc64d044	-0.01396567
208	0xbac9f10c	-0.001540692
209	0xbe501fb2	-0.20324591
210	0xbcc8ad95	-0.024496833
211	0xbe671796	-0.22567591
212	0x3e212465	0.1573654
213	0xbe3b456c	-0.18288201
214	0xbeb67c14	-0.3564154
215	0x3d16ff21	0.036864404
216	0xbe41c2b7	-0.18921934
217	0xbe6745f6	-0.22585282
218	0x3e3a5abf	0.1819868
219	0x3d9e14f9	0.07718844
220	0xbe1334e3	-0.14375643
221	0xbe3c7cce	-0.18406984
222	0xbc8eee84	-0.017447717
223	0x3de8c633	0.113659285
224	0xbe1f31c4	-0.15546328
225	0x3d81bc4a	0.063347414
226	0x3b3a8bfb	0.0028464783
227	0x3e7bf1b1	0.24603917
228	0x3ec4fbd6	0.38473386
229	0x3dcd9ad1	0.100392945
230	0x3da1fc31	0.0790943
231	0x3db9499c	0.09047243
232	0x3e7c8e23	0.24663596
233	0x3d86624a	0.06561716
234	0xbc7f0f34	-0.01556759
235	0x3d2b8d6c	0.041882917
236	0x3d935dae	0.07195602
237	0xbb54ece5	-0.0032489833
238	0x3e9ffcad	0.31247464
239	0x3da7fc99	0.08202476
240	0xbdf24516	-0.11829583
241	0xbe905c87	-0.28195593
242	0x3e04d664	0.12972409
243	0xbd460084	-0.048340335
244	0x3cc915d2	0.024546538
245	0xbd2345bf	-0.039861437
246	0x3df070a3	0.11740234
247	0x3d9de79e	0.07710193
248	0x3c836452	0.016039047
249	0xbe1da0a3	-0.1539331
250	0xbe5a0214	-0.21289855
251	0x3e2e8fde	0.17047068
252	0xbdbcac51	-0.09212554
253	0xbdb34184	-0.087527305
254	0x3e9503b5	0.2910439
255	0x3dd8e2a3	0.105901025

b3.bias f4 [64]
0	0x3d95999f	0.073046915
1	0x3deca9eb	0.11555847
2	0xbd134ffb	-0.035964947
3	0xbd085979	-0.033288453
4	0x3d3c7fdd	0.046020377
5	0xbddd2c90	-0.10799515
6	0x3d57d0a4	0.05268921
7	0x3c92f267	0.017937852
8	0xbe0e78ea	-0.13913313
9	0xbd929359	-0.071570106
10	0xbd7f78c7	-0.06237104
11	0x3dbee976	0.09321873
12	0x3d17a985	0.0370269
13	0x3df94d7d	0.12172983
14	0xbdaba24b	-0.08380564
15	0xbdaf7892	-0.08567919
16	0x3b2551e2	0.0025225808
17	0xbcfaf6dc	-0.03063529
18	0x3bd87a2b	0.0066063604
19	0x3d9a470f	0.075330846
20	0xbd60e96e	-0.054910116
21	0xbe47c7d9	-0.1950983
22	0xbc6a0c7c	-0.014285203
23	0x3daee253	0.08539262
24	0x3dd959cf	0.10612833
25	0xbe096a44	-0.13419443
26	0xbe946516	-0.28983372
27	0xbde37f31	-0.11108244
28	0x3e172fa6	0.1476427
29	0xbd644abd	-0.05573534
30	0x3c8eea30	0.017445654
31	0xbdb9385b	-0.09043952
32	0xbde23619	-0.110454746
33	0xbdc35d1e	-0.09539245
34	0xbc6068f5	-0.013696899
35	0x3d980e15	0.07424561
36	0xbc2377f4	-0.0099773295
37	0xbe13bca0	-0.14427423
38	0x3d1a2fa6	0.037643097
39	0xbd938ea5	-0.07204942
40	0xbd0dc0cc	-0.034607694
41	0x3c52f6a0	0.012876183
42	0x3df35663	0.11881711
43	0x3e2824bf	0.16420268
44	0xbde94ad1	-0.11391223
45	0xbdefd94b	-0.11711367
46	0x3dc15200	0.094394684
47	0xbdb4f3ed	-0.08835588
48	0xbdfdbbfb	-0.1238937
49	0xbe038f9c	-0.12847751
50	0xbca9c163	-0.020722097
51	0x3d361fb2	0.04446382
52	0x3c959c20	0.018262923
53	0x3d30d1d2	0.04316885
54	0xbc379a1f	-0.011206179
55	0xbda62369	-0.08112223
56	0x3d43c62a	0.047796406
57	0x3d9d4fe9	0.07681257
58	0xbda3ec91	-0.08004106
59	0xbcebc65b	-0.028781107
60	0xbe0bb078	-0.13641536
61	0x3d32fbb9	0.043697093
62	0xbdacbcfc	-0.084344834
63	0xbe3ba54d	-0.18324776
